HPC_Final_Study2_Complete_Test_Class_Balance/participants_session_transfer_train_fresh_model/participant_18/session_4/session_4_lite_models/indexpen_model_quant.tflite (tflite, 303344 bytes, 29 tensors)

model/time_distributed_6/conv2d_1/BiasAdd;model/time_distributed_6/conv2d_1/Conv2D;model/time_distributed_6/conv2d_1/BiasAdd/ReadVariableOp/resource f2 [16]
000000 4f 2e b1 2e ae 25 f1 ad c8 2b 2a 2b 6c 27 e7 2c
       0.0986 0.10455 0.02219 -0.09283 0.0608 0.05597 0.02899 0.0766
000010 53 2b 98 2c 42 2a b4 2a 4e 26 28 2e 96 2d 8b 2b
       0.05722 0.0718 0.0489 0.05237 0.02463 0.0962 0.0873 0.05893

model/time_distributed/conv2d/BiasAdd;model/time_distributed/conv2d/Conv2D;model/time_distributed/conv2d/BiasAdd/ReadVariableOp/resource f2 [8]
000000 b7 28 19 27 9d ab 78 26 2b 2c 02 ad 67 b0 5c ae
       0.03683 0.02773 -0.05948 0.02527 0.0651 -0.07825 -0.1376 -0.09937

model/time_distributed_6/conv2d_1/Conv2D f2 [16, 3, 3, 1]
000000 ec 28 09 29 7c ac bf 1f 34 26 42 a8 c2 ab 77 28
       0.03845 0.03934 -0.07007 0.007565 0.02423 -0.03326 -0.0606 0.03488
000010 5f 23 d9 9d 0e 2e 92 ad 91 ad 13 32 42 ae 55 21
       0.0144 -0.00571 0.0946 -0.08704 -0.087 0.1898 -0.0978 0.010414
000020 13 b0 2d 2f b0 2c 68 b2 b9 2f 1f 2a 2a 29 76 ae
       -0.1273 0.1121 0.07324 -0.2002 0.12067 0.04782 0.04034 -0.10095
000030 27 a9 ee 26 04 24 2a a1 f7 29 3d a8 d3 99 93 a4
       -0.04025 0.02707 0.01569 -0.010086 0.0466 -0.0331 -0.002844 -0.01787
000040 61 a2 ab 24 ef a4 60 21 ee 20 f4 b0 9f 30 10 a7
       -0.01246 0.01823 -0.01927 0.0105 0.00963 -0.1548 0.1444 -0.02759
000050 76 2b 19 a8 59 a6 de 2a ee a4 76 2f 38 ad 15 aa
       0.0583 -0.032 -0.0248 0.05365 -0.01926 0.1166 -0.08154 -0.04752
000060 1a a9 5e ab 9c 2d 69 27 fd 28 00 ab df 2a db af
       -0.03986 -0.05756 0.08765 0.02895 0.03897 -0.0547 0.05368 -0.12274
000070 85 2c b8 1c db 2c 72 ad ce 93 05 29 37 ab 6e ae
       0.0706 0.00461 0.07587 -0.0851 -0.0009527 0.0392 -0.05637 -0.10046
000080 b5 2d f6 1e 6a 28 a1 aa 1a 28 5b ac d1 2a 6d 27
       0.0892 0.006798 0.0345 -0.0518 0.03204 -0.06805 0.05325 0.029
000090 a2 a2 e4 1e f7 15 fd 2a d8 ae 75 2b 26 2e d1 b1
       -0.012955 0.00673 0.001456 0.0546 -0.10693 0.05826 0.09607 -0.1818
0000a0 69 2c 68 2a 42 ae 4d 29 de 21 51 28 d9 a9 00 28
       0.0689 0.05005 -0.0978 0.0414 0.01146 0.03372 -0.0457 0.03125
0000b0 88 1d 26 a4 70 ae b1 31 63 ad 67 11 69 2c b2 ac
       0.0054 -0.0162 -0.1006 0.1779 -0.08417 0.0006595 0.0689 -0.07336
0000c0 95 a9 83 30 ac ae a6 ac 45 33 d1 b0 ae b0 70 2f
       -0.0436 0.141 -0.10425 -0.07263 0.2272 -0.1505 -0.1462 0.1162
0000d0 0a 26 bf 2f 3e b1 2f 2a fb ad ed 31 9f ae bd ad
       0.02359 0.12103 -0.1638 0.0483 -0.09344 0.1852 -0.10345 -0.08966
0000e0 fc 30 5b ac 58 ad a4 32 9c b0 ba a6 07 2e 7d ab
       0.1558 -0.06805 -0.0835 0.2075 -0.144 -0.02628 0.0942 -0.0585
0000f0 eb 1c 5c b0 06 30 37 a0 59 28 48 a4 26 a6 06 a7
       0.004803 -0.1362 0.1257 -0.00823 0.03397 -0.01672 -0.02402 -0.02744
000100 0c 1f ee a1 ad a6 2e 2a 83 2c 49 b0 66 2b ac 1d
       0.00688 -0.01158 -0.02608 0.04828 0.0705 -0.1339 0.0578 0.00554
000110 7a a6 56 1a 0c a5 7b 25 2e 16 34 2d 8a ac 60 a5
       -0.0253 0.003094 -0.01971 0.02141 0.001509 0.0813 -0.0709 -0.021

model/time_distributed/conv2d/Conv2D f2 [8, 3, 3, 1]
000000 ce 22 56 a5 9d 1e 88 98 90 1d 95 22 b0 19 18 a6
       0.01329 -0.02084 0.00646 -0.002213 0.005432 0.012856 0.002777 -0.0238
000010 eb 95 a2 1f e5 a5 c9 97 1b 9a 7e 1c 01 a0 7f a0
       -0.001445 0.007454 -0.02303 -0.001901 -0.002981 0.004387 -0.00782 -0.00878
000020 ae a1 0f 1d 77 9f 4e 23 db 97 43 1c 1d a1 a3 21
       -0.01109 0.00494 -0.00729 0.01427 -0.001918 0.00416 -0.00999 0.01101
000030 13 15 c3 27 2a a3 c7 86 21 9c c1 20 81 94 06 a6
       0.001239 0.03032 -0.01399 -0.0001034 -0.004032 0.009285 -0.0011 -0.02353
000040 76 9c e1 a1 33 9e eb 18 76 9f aa a2 5e 24 55 20
       -0.004356 -0.01148 -0.006054 0.002401 -0.007286 -0.013016 0.01706 0.00846
000050 4f a4 12 13 2c 21 c1 96 2f 99 34 9d fd 95 3c 9b
       -0.01683 0.000863 0.0101 -0.001649 -0.002531 -0.00508 -0.001462 -0.003532
000060 3a 24 12 8c 09 90 86 24 94 10 ef a2 2d 25 42 a2
       0.01651 -0.0002484 -0.0004926 0.01767 0.000559 -0.01354 0.02022 -0.01222
000070 5a 1e 73 20 4f 9b 83 1e 87 23 65 1b 02 20 18 1d
       0.006203 0.00869 -0.003569 0.00636 0.0147 0.00361 0.00783 0.004974
000080 40 a3 89 16 75 9e f6 1e 6f 28 12 9f 78 1d a4 a2
       -0.01416 0.0015955 -0.006306 0.006798 0.03464 -0.006905 0.00534 -0.01297

model/lstm/TensorArrayV2_1 f2 [120, 1, 32]
000000 00 00 00 00 00 00 00 00 00 00 00 00 00 00 00 00
       0.0 0.0 0.0 0.0 0.0 0.0 0.0 0.0
000010 00 00 00 00 00 00 00 00 00 00 00 00 00 00 00 00
       0.0 0.0 0.0 0.0 0.0 0.0 0.0 0.0
000020 00 00 00 00 00 00 00 00 00 00 00 00 00 00 00 00
       0.0 0.0 0.0 0.0 0.0 0.0 0.0 0.0
000030 00 00 00 00 00 00 00 00 00 00 00 00 00 00 00 00
       0.0 0.0 0.0 0.0 0.0 0.0 0.0 0.0
000040 00 00 00 00 00 00 00 00 00 00 00 00 00 00 00 00
       0.0 0.0 0.0 0.0 0.0 0.0 0.0 0.0
000050 00 00 00 00 00 00 00 00 00 00 00 00 00 00 00 00
       0.0 0.0 0.0 0.0 0.0 0.0 0.0 0.0
000060 00 00 00 00 00 00 00 00 00 00 00 00 00 00 00 00
       0.0 0.0 0.0 0.0 0.0 0.0 0.0 0.0
000070 00 00 00 00 00 00 00 00 00 00 00 00 00 00 00 00
       0.0 0.0 0.0 0.0 0.0 0.0 0.0 0.0
000080 00 00 00 00 00 00 00 00 00 00 00 00 00 00 00 00
       0.0 0.0 0.0 0.0 0.0 0.0 0.0 0.0
000090 00 00 00 00 00 00 00 00 00 00 00 00 00 00 00 00
       0.0 0.0 0.0 0.0 0.0 0.0 0.0 0.0
0000a0 00 00 00 00 00 00 00 00 00 00 00 00 00 00 00 00
       0.0 0.0 0.0 0.0 0.0 0.0 0.0 0.0
0000b0 00 00 00 00 00 00 00 00 00 00 00 00 00 00 00 00
       0.0 0.0 0.0 0.0 0.0 0.0 0.0 0.0
0000c0 00 00 00 00 00 00 00 00 00 00 00 00 00 00 00 00
       0.0 0.0 0.0 0.0 0.0 0.0 0.0 0.0
0000d0 00 00 00 00 00 00 00 00 00 00 00 00 00 00 00 00
       0.0 0.0 0.0 0.0 0.0 0.0 0.0 0.0
0000e0 00 00 00 00 00 00 00 00 00 00 00 00 00 00 00 00
       0.0 0.0 0.0 0.0 0.0 0.0 0.0 0.0
0000f0 00 00 00 00 00 00 00 00 00 00 00 00 00 00 00 00
       0.0 0.0 0.0 0.0 0.0 0.0 0.0 0.0
000100 00 00 00 00 00 00 00 00 00 00 00 00 00 00 00 00
       0.0 0.0 0.0 0.0 0.0 0.0 0.0 0.0
000110 00 00 00 00 00 00 00 00 00 00 00 00 00 00 00 00
       0.0 0.0 0.0 0.0 0.0 0.0 0.0 0.0
000120 00 00 00 00 00 00 00 00 00 00 00 00 00 00 00 00
       0.0 0.0 0.0 0.0 0.0 0.0 0.0 0.0
000130 00 00 00 00 00 00 00 00 00 00 00 00 00 00 00 00
       0.0 0.0 0.0 0.0 0.0 0.0 0.0 0.0
000140 00 00 00 00 00 00 00 00 00 00 00 00 00 00 00 00
       0.0 0.0 0.0 0.0 0.0 0.0 0.0 0.0
000150 00 00 00 00 00 00 00 00 00 00 00 00 00 00 00 00
       0.0 0.0 0.0 0.0 0.0 0.0 0.0 0.0
000160 00 00 00 00 00 00 00 00 00 00 00 00 00 00 00 00
       0.0 0.0 0.0 0.0 0.0 0.0 0.0 0.0
000170 00 00 00 00 00 00 00 00 00 00 00 00 00 00 00 00
       0.0 0.0 0.0 0.0 0.0 0.0 0.0 0.0
000180 00 00 00 00 00 00 00 00 00 00 00 00 00 00 00 00
       0.0 0.0 0.0 0.0 0.0 0.0 0.0 0.0
000190 00 00 00 00 00 00 00 00 00 00 00 00 00 00 00 00
       0.0 0.0 0.0 0.0 0.0 0.0 0.0 0.0
0001a0 00 00 00 00 00 00 00 00 00 00 00 00 00 00 00 00
       0.0 0.0 0.0 0.0 0.0 0.0 0.0 0.0
0001b0 00 00 00 00 00 00 00 00 00 00 00 00 00 00 00 00
       0.0 0.0 0.0 0.0 0.0 0.0 0.0 0.0
0001c0 00 00 00 00 00 00 00 00 00 00 00 00 00 00 00 00
       0.0 0.0 0.0 0.0 0.0 0.0 0.0 0.0
0001d0 00 00 00 00 00 00 00 00 00 00 00 00 00 00 00 00
       0.0 0.0 0.0 0.0 0.0 0.0 0.0 0.0
0001e0 00 00 00 00 00 00 00 00 00 00 00 00 00 00 00 00
       0.0 0.0 0.0 0.0 0.0 0.0 0.0 0.0
0001f0 00 00 00 00 00 00 00 00 00 00 00 00 00 00 00 00
       0.0 0.0 0.0 0.0 0.0 0.0 0.0 0.0

model/dense_2/BiasAdd/ReadVariableOp/resource f2 [256]
000000 df 2e 57 2a 3b 2e 57 2e 01 2f 0e 2c a5 29 74 25
       0.10736 0.04953 0.09735 0.09906 0.10944 0.06335 0.0441 0.0213
000010 89 29 ab 27 7c 29 7f 2c f7 2e e7 29 d9 2e 02 2a
       0.04324 0.02995 0.04285 0.07025 0.1088 0.0461 0.107 0.04694
000020 ca 2c 85 2e 0b 30 b8 26 a1 30 96 2c cc 2f e7 1f
       0.0748 0.10187 0.1263 0.02625 0.1447 0.07166 0.1218 0.007717
000030 66 a6 64 2e e9 2a 06 25 bf 2d 37 2e 87 2a 99 2e
       -0.025 0.09985 0.054 0.01962 0.0898 0.0971 0.051 0.1031
000040 57 2c 90 2d 7e 2f 07 28 0a 17 c2 27 b8 29 8a 30
       0.0678 0.0869 0.11707 0.03146 0.0017185 0.0303 0.04468 0.1418
000050 f6 2e 7f 23 77 2e c7 28 10 28 de 2c 53 2f 82 1d
       0.10876 0.01464 0.101 0.03732 0.03174 0.07605 0.11444 0.00538
000060 49 2d 35 2f c1 2c f2 2a f6 2c 2d 2c 62 2b a3 2d
       0.0826 0.1126 0.0743 0.05426 0.0775 0.06525 0.05768 0.0881
000070 aa 2d 3b 2c 25 20 d6 29 28 1d cc 30 f8 1d 92 2b
       0.0885 0.0661 0.008095 0.0456 0.005035 0.1499 0.00583 0.05914
000080 31 30 41 29 3c 31 68 2a 7b 29 a5 2c 82 2b 9f a6
       0.131 0.04105 0.1636 0.05005 0.04282 0.0726 0.05865 -0.02586
000090 8b 2f ac 29 93 26 8f 2c f8 2e d8 28 11 2e 3e 2b
       0.11786 0.0443 0.02568 0.0712 0.1089 0.03784 0.0948 0.05658
0000a0 58 29 7d 24 99 2a 38 25 95 a2 fc 1d 92 2d 81 2f
       0.04175 0.01753 0.05154 0.02039 -0.012856 0.005844 0.08704 0.11725
0000b0 b5 23 83 26 c2 2c e3 97 21 2c d3 2a 9f a7 48 2e
       0.01505 0.02544 0.07434 -0.001925 0.0645 0.0533 -0.02977 0.09814
0000c0 c8 21 01 30 bf 2d 3f 29 97 28 66 25 26 2f 55 26
       0.01129 0.1251 0.0898 0.041 0.03586 0.02109 0.1117 0.02473
0000d0 ff 2b a5 29 ab 24 a5 2c 8f 2d a3 23 5a 2e 5b 2b
       0.06247 0.0441 0.01823 0.0726 0.08685 0.014915 0.09924 0.05746
0000e0 a0 29 4c 2d fa 28 4b 29 fa 2d 55 29 4e 25 f0 2c
       0.04395 0.08276 0.03888 0.04135 0.0934 0.04166 0.02072 0.07715
0000f0 6d 2f ea 2e 41 2b 1d 2a 8e 2c fd 27 8f a7 7e 2c
       0.116 0.10803 0.05667 0.04776 0.07117 0.0312 -0.02953 0.0702
000100 c2 15 3f 2f 52 2c dc 9e b5 2b 53 2b fa 2d 48 2f
       0.001406 0.1132 0.0675 -0.0067 0.0602 0.05722 0.0934 0.1138
000110 15 30 af 2c 54 2d 7d 2a a4 28 97 2b de 2e b2 2a
       0.1276 0.0732 0.08325 0.0507 0.03625 0.0593 0.1073 0.0523
000120 38 28 5c 28 fe 24 82 29 68 2e 4d 29 ce 25 f7 2d
       0.03296 0.03406 0.0195 0.04303 0.1001 0.0414 0.02267 0.0932
000130 40 29 db 2e 7e 2b b0 2c ad 2d d7 2c f1 2e 27 25
       0.04102 0.1071 0.05853 0.07324 0.0887 0.0756 0.10846 0.02013
000140 8e 2a c9 28 a9 2a 74 2c f9 26 14 2c 8d 2d 1e 2f
       0.0512 0.03738 0.05203 0.0696 0.02724 0.0637 0.08673 0.1112
000150 a9 22 a1 24 4b 30 5e 1d a1 2e 9e 2d 08 2d 35 2e
       0.01301 0.01808 0.1342 0.00524 0.1036 0.08777 0.0786 0.097
000160 ad 2d a6 2c 7d 30 54 21 ce 2c 7e 2d 27 2f f0 2d
       0.0887 0.07263 0.1403 0.01041 0.0751 0.0858 0.11176 0.0928
000170 c9 22 4a 2c 07 2e 82 2b 95 25 27 27 34 a2 e8 24
       0.01325 0.067 0.0942 0.05865 0.0218 0.02794 -0.012115 0.01917
000180 11 17 00 2e a3 2b fc 2d 5a 2c 81 2d 55 2b 22 2b
       0.001725 0.09375 0.05966 0.0935 0.068 0.086 0.05728 0.05573
000190 3f 2f 70 27 79 2c 75 2a 12 31 7b 2c cd 2c f5 2a
       0.1132 0.02905 0.0699 0.05045 0.1584 0.07 0.075 0.05435
0001a0 8f 29 63 28 83 2c 29 2c 18 30 eb 2d 2b 31 8a a4
       0.04343 0.03427 0.0705 0.065 0.1279 0.09247 0.1615 -0.01773
0001b0 70 29 9e 2a 59 2b c4 29 7b 2a a0 26 25 28 e0 28
       0.04248 0.0517 0.0574 0.04504 0.05063 0.02588 0.03238 0.0381
0001c0 55 2c ee 2d 44 2f b0 24 28 2e 57 2c f2 98 4c 30
       0.0677 0.09265 0.1135 0.01831 0.0962 0.0678 -0.002415 0.1343
0001d0 85 2a 0e 2c 18 24 12 29 47 1d 31 28 39 29 3a 2d
       0.05093 0.06335 0.01599 0.0396 0.005154 0.03275 0.0408 0.08167
0001e0 9c 27 52 2e f2 2c b9 27 30 26 09 2e 71 2d e2 2e
       0.02972 0.09875 0.0773 0.03017 0.02417 0.0943 0.085 0.10754
0001f0 6b 2d 30 25 4b 29 63 2a a7 a4 0d 2d 9b 25 77 29
       0.08466 0.02026 0.04135 0.0499 -0.01817 0.0789 0.0219 0.0427

model/last_layer/BiasAdd/ReadVariableOp/resource f2 [31]
000000 bb 19 b7 13 17 a5 b5 a4 6e 18 b8 21 e8 a1 18 25
       0.002798 0.0009418 -0.01988 -0.01839 0.002163 0.01117 -0.011536 0.0199
000010 32 0b 14 a5 1d 22 64 a1 4b 23 f4 17 28 29 be 1e
       0.0002196 -0.01984 0.01194 -0.01053 0.014244 0.001942 0.04028 0.006584
000020 f2 9d c4 16 b0 9e f7 21 7c a1 9a 9c eb 99 5f 21
       -0.005806 0.001652 -0.00653 0.01165 -0.01071 -0.004494 -0.00289 0.01049
000030 a4 18 93 0c ff a4 9a a7 ba a2 12 9a ea 15
       0.002266 0.0002792 -0.01952 -0.0297 -0.01314 -0.002964 0.001444

model/time_distributed_11/dense_1/BiasAdd/ReadVariableOp/resource f2 [64]
000000 7d a8 ff ac 34 a7 4e a4 f0 9f 05 1f b7 a6 c9 a1
       -0.03506 -0.07806 -0.02814 -0.01682 -0.00775 0.006855 -0.02623 -0.0113
000010 36 a8 a9 a2 08 a7 71 a9 35 a8 0c ac a8 a9 65 9d
       -0.0329 -0.01301 -0.02747 -0.0425 -0.03287 -0.06323 -0.0442 -0.00527
000020 e9 a3 51 a8 c9 a9 1b a9 fb a6 f9 a7 0f a9 b1 a4
       -0.01545 -0.03372 -0.0452 -0.0399 -0.02727 -0.03114 -0.03952 -0.01833
000030 2c a7 e8 a7 5a a7 04 a3 b6 a9 b3 24 d5 a1 69 a5
       -0.02802 -0.03088 -0.02872 -0.0137 -0.04462 0.01836 -0.01139 -0.02113
000040 d7 a8 70 a8 29 a1 5e a8 b2 9d 86 a2 63 a6 06 a9
       -0.0378 -0.03467 -0.01008 -0.03412 -0.00556 -0.01274 -0.02495 -0.03925
000050 7e ac f9 a7 4d a9 8c a6 95 a4 92 a7 f9 a7 e3 a4
       -0.0702 -0.03114 -0.0414 -0.02557 -0.0179 -0.02957 -0.03114 -0.01909
000060 19 a7 a6 a7 9b a9 5f a0 61 a1 8e a6 64 a9 b1 ab
       -0.02773 -0.02988 -0.0438 -0.00854 -0.010506 -0.0256 -0.0421 -0.0601
000070 22 a2 29 a7 ac a3 d9 a9 fb a7 32 a5 a7 a6 f7 a3
       -0.01198 -0.02797 -0.014984 -0.0457 -0.03117 -0.0203 -0.02599 -0.01556

model/time_distributed_5/dense/BiasAdd/ReadVariableOp/resource f2 [32]
000000 20 21 8d 1d ec 26 26 a5 13 9f 72 ac b7 1a b9 a8
       0.01001 0.00542 0.02704 -0.02011 -0.00691 -0.06946 0.003279 -0.0369
000010 19 25 07 ab 8f 1a 55 9b fe a5 a7 a9 b9 26 2c 96
       0.01991 -0.0549 0.003202 -0.00358 -0.0234 -0.04416 0.02626 -0.001507
000020 7d 98 75 a5 81 9c f7 ae 07 ac 21 a1 dd 20 dd 1c
       -0.002192 -0.02132 -0.0044 -0.1088 -0.0629 -0.01002 0.0095 0.00475
000030 7f a5 92 9e f3 9a 1b a9 ea a6 00 9c 9e 18 54 a4
       -0.02147 -0.006416 -0.003393 -0.0399 -0.02701 -0.003906 0.002254 -0.0169

model/dense_2/MatMul f2 [256, 32]
000000 c0 2c 59 2f aa 30 45 33 44 2e 29 ae d9 af 4d ac
       0.0742 0.1148 0.1458 0.2272 0.0979 -0.09625 -0.1226 -0.0672
000010 a7 b1 e9 b0 f4 ac 40 2e 70 a6 ee 32 0d b3 fe 2c
       -0.1766 -0.1534 -0.0774 0.09766 -0.02515 0.2166 -0.2203 0.078
000020 22 29 a9 0c 81 ae 2f b1 58 b6 63 34 29 24 62 ac
       0.0401 0.0002844 -0.1016 -0.162 -0.3965 0.2742 0.01625 -0.0685
000030 c5 a3 77 35 93 a9 c6 30 7f ac 52 2e 8b 32 0f 2d
       -0.015175 0.3416 -0.04355 0.1492 -0.07025 0.09875 0.2045 0.07904
000040 ce 21 22 34 d4 9d 55 a3 55 b2 56 2e bc af be 30
       0.01134 0.2583 -0.00569 -0.01432 -0.1979 0.099 -0.12085 0.1482
000050 e1 30 b6 a6 e0 ae c3 30 54 31 76 ad 98 a8 af a5
       0.1525 -0.02621 -0.1074 0.1488 0.1665 -0.0853 -0.0359 -0.0222
000060 5e b3 e3 a7 26 30 26 35 92 30 57 a8 77 28 7f 2c
       -0.2302 -0.0308 0.1296 0.3218 0.1428 -0.0339 0.03488 0.07025
000070 54 b2 51 b0 22 af 1c b3 df 2e ce ad 80 a7 34 ad
       -0.1978 -0.1349 -0.11145 -0.2222 0.10736 -0.0907 -0.0293 -0.0813
000080 bc 30 60 27 4e 2c ff b2 c2 aa 79 34 69 a8 c2 2e
       0.148 0.02881 0.06726 -0.2186 -0.0528 0.2795 -0.03445 0.1056
000090 23 b4 96 30 a8 29 3b 2b b0 28 b1 ac 01 ab 46 2b
       -0.2585 0.1433 0.0442 0.0565 0.03662 -0.0733 -0.05472 0.05682
0000a0 01 b4 d2 31 84 9e 41 2d 13 a8 5d 31 16 28 c8 af
       -0.2502 0.1819 -0.006363 0.0821 -0.03183 0.1676 0.03192 -0.1216
0000b0 fe 30 71 99 91 33 f1 2e e9 a6 24 a5 32 33 47 24
       0.156 -0.002657 0.2365 0.10846 -0.027 -0.02008 0.2249 0.01671
0000c0 92 a7 bd 34 e1 a6 af a8 76 af eb 34 ac b0 7b ae
       -0.02957 0.2961 -0.02687 -0.0366 -0.1166 0.3074 -0.146 -0.10126
0000d0 2d 2a b9 a2 d5 30 ba 2b 9b 31 eb ad 6e 34 2a b5
       0.04825 -0.01313 0.151 0.06036 0.1752 -0.09247 0.2769 -0.3228
0000e0 83 30 25 31 b5 33 58 34 6b 24 42 28 23 ab 67 ad
       0.141 0.1608 0.2408 0.2715 0.01726 0.03326 -0.05576 -0.0844
0000f0 84 b4 8c a9 2a a9 bd b0 c8 31 cb a1 4d b0 b8 32
       -0.2822 -0.04333 -0.04034 -0.1481 0.1807 -0.011314 -0.1344 0.21
000100 9d 33 1e 31 b5 31 af aa 2b 20 d1 ad 93 29 ef 30
       0.2379 0.1599 0.1783 -0.05222 0.00814 -0.0909 0.04355 0.1542
000110 3a b2 4a b1 4b 31 11 2e 17 ad b7 2e 6c 21 3a 32
       -0.1946 -0.1653 0.1654 0.0948 -0.0795 0.1049 0.01059 0.1946
000120 71 af d5 b3 d9 ac 79 ad 3c af b3 2b a7 30 38 b0
       -0.1163 -0.2448 -0.07574 -0.0855 -0.11304 0.06015 0.1454 -0.1318
000130 c0 2d 09 35 3d ab 7b 32 17 a9 9e 2c ae a9 91 24
       0.08984 0.3147 -0.05655 0.2025 -0.03976 0.07214 -0.04437 0.01784
000140 f3 27 e5 b2 1d b0 24 2d 08 2a 55 ae a7 9a a5 14
       0.03105 -0.2155 -0.1285 0.0803 0.04712 -0.09894 -0.003248 0.001134
000150 d5 a8 5c a8 8e ab 73 2d c7 32 99 31 37 b1 c5 28
       -0.03775 -0.03406 -0.05902 0.08514 0.2118 0.1749 -0.163 0.03726
000160 bb 35 c0 2d f6 32 53 b3 c1 ad 12 30 d9 a2 88 34
       0.3582 0.08984 0.2175 -0.2289 -0.0899 0.1272 -0.013374 0.2832
000170 ca a9 c0 2b 1a b1 1e ac 59 a9 e6 ae 4c 35 15 30
       -0.04523 0.06055 -0.1594 -0.06433 -0.04178 -0.1078 0.331 0.1276
000180 42 2d 0f b4 32 2c 64 29 ea 30 e4 ad 98 a4 0f 2c
       0.08215 -0.2537 0.06555 0.0421 0.1536 -0.09204 -0.01794 0.0634
000190 66 b1 d0 32 04 b2 b4 2f 7b af bd b0 b3 33 fa 1a
       -0.1687 0.2129 -0.188 0.12036 -0.1169 -0.1481 0.2406 0.003407
0001a0 22 a5 dd 31 5d 2d 84 b0 59 29 f0 2d 61 af be ac
       -0.02005 0.1832 0.0838 -0.1411 0.04178 0.0928 -0.1153 -0.0741
0001b0 07 32 dc a3 27 34 60 32 8d 2a 22 ac d8 30 ab ad
       0.1884 -0.01535 0.2595 0.1992 0.05118 -0.0646 0.1514 -0.08856
0001c0 9e 2f f0 a6 83 ae b8 23 4c 29 9e b0 07 b1 18 2f
       0.119 -0.0271 -0.10175 0.015076 0.04138 -0.1443 -0.1571 0.11084
0001d0 71 af 78 30 a5 a6 fa 30 83 a9 71 a8 aa 31 0e ae
       -0.1163 0.1396 -0.02596 0.1555 -0.04306 -0.0347 0.177 -0.0946
0001e0 9f ab 52 a0 01 2c 80 b0 82 2f db 32 eb b0 0e b6
       -0.05954 -0.00844 0.06256 -0.1406 0.1173 0.2142 -0.1537 -0.3784
0001f0 fe 28 b1 2a 67 b0 15 ad 3c aa 74 ae 17 20 cd a5
       0.039 0.05228 -0.1376 -0.0794 -0.0487 -0.1008 0.00799 -0.02266

model/last_layer/MatMul f2 [31, 256]
000000 64 b4 f8 2b 22 a2 7e 2f 90 a8 8b b2 70 a6 2e 2d
       -0.2744 0.06226 -0.01198 0.11707 -0.03564 -0.2045 -0.02515 0.08093
000010 3a a8 c4 af ab b1 76 b0 e9 29 00 aa 5d 29 82 2d
       -0.03302 -0.12134 -0.1771 -0.1394 0.04617 -0.04688 0.0419 0.08606
000020 38 2c d3 ac 9e ad 11 ae 7c a2 61 2d 0a b2 65 ae
       0.0659 -0.0754 -0.08777 -0.0948 -0.012665 0.08405 -0.1887 -0.0999
000030 92 aa 4a 28 1f 2a 60 ac 0f a8 0a ad 35 2a 4b a8
       -0.05133 0.0335 0.04782 -0.06836 -0.0317 -0.07874 0.0485 -0.03354
000040 1d 31 af ac 72 a8 46 2c 3f 31 ba b0 a6 2b 36 b0
       0.1598 -0.0732 -0.03473 0.0668 0.164 -0.1477 0.05975 -0.1316
000050 d5 ac 23 ac bc af ca 2a 9d ae 36 2b 7f b2 1a a5
       -0.0755 -0.06464 -0.12085 0.05304 -0.10333 0.05634 -0.203 -0.01993
000060 c9 a9 eb b1 30 2e 26 b1 34 ad 4f a7 8d 28 70 2e
       -0.0452 -0.1849 0.0967 -0.1609 -0.0813 -0.02855 0.03555 0.1006
000070 f4 b2 bc 2a 5a ab 61 ae e0 2e 15 28 00 ae 6b b1
       -0.2173 0.0526 -0.05743 -0.0997 0.1074 0.0319 -0.09375 -0.1693
000080 6c 27 f9 2e 16 2d 51 ad 04 2a 18 ad 68 2a 28 2a
       0.02899 0.10895 0.07947 -0.08307 0.047 -0.0796 0.05005 0.0481
000090 ce b1 0c 28 ec 1d 5d a8 3d a9 b7 28 13 b0 df af
       -0.1814 0.03162 0.005783 -0.0341 -0.04092 0.03683 -0.1273 -0.123
0000a0 68 ae 94 ac d9 31 28 ab 7d 2c 67 aa 9a ac a5 b1
       -0.1001 -0.07153 0.1827 -0.0559 0.0701 -0.05002 -0.0719 -0.1764
0000b0 97 2c 1c ac 70 2a dc 1c 26 ac ad a9 c2 2b 63 b1
       0.0717 -0.0642 0.0503 0.004745 -0.0648 -0.04434 0.0606 -0.1683
0000c0 dc a4 0f a5 f1 87 4c a7 c5 a6 77 ae 12 30 d8 a9
       -0.01898 -0.01976 -0.0001212 -0.0285 -0.02644 -0.101 0.1272 -0.04565
0000d0 21 b0 58 ae 7e ab 81 9f 9c ac 50 24 1c a7 ce b0
       -0.129 -0.0991 -0.05853 -0.007328 -0.072 0.01685 -0.02777 -0.1501
0000e0 04 b2 10 2e a0 29 15 a7 b5 2d f7 a6 f3 28 78 28
       -0.188 0.0947 0.04395 -0.02766 0.0892 -0.0272 0.03867 0.0349
0000f0 58 af c7 ad 3a 30 98 ad ea 28 a4 ab de a3 a9 25
       -0.11475 -0.0903 0.1321 -0.0874 0.0384 -0.0597 -0.015366 0.02211
000100 84 ac d8 b0 a9 b0 35 2f ef 2c 3b a7 27 b0 81 2b
       -0.07056 -0.1514 -0.1456 0.1126 0.0771 -0.02824 -0.1298 0.05862
000110 ff a9 ee b1 81 a9 f7 af 56 ad 70 ad 1d ae eb 28
       -0.04684 -0.1853 -0.043 -0.12445 -0.0834 -0.08496 -0.0955 0.03842
000120 83 ae 08 b1 5e 2d 4a a6 4b aa 15 24 45 2c 81 ad
       -0.10175 -0.1572 0.08386 -0.02457 -0.04916 0.01595 0.0667 -0.086
000130 4d 25 20 a4 43 ae b6 2c af a0 a0 a9 27 b3 bd a8
       0.0207 -0.01611 -0.09784 0.0736 -0.00915 -0.04395 -0.2235 -0.03702
000140 bf a9 25 ae 3e a9 ac 2b 3c a8 ba a6 7d ad 61 b1
       -0.0449 -0.096 -0.04095 0.05994 -0.03308 -0.02628 -0.08575 -0.1681
000150 a0 ab 48 27 ef 9f 3d 2c 1f ad 56 29 50 b0 a5 ab
       -0.05957 0.02844 -0.007748 0.0662 -0.08 0.0417 -0.1348 -0.05972
000160 f9 a2 33 ac be 22 39 24 9f ac ae ab e8 ae 4a ae
       -0.01362 -0.0656 0.01317 0.0165 -0.0722 -0.06 -0.1079 -0.09827
000170 59 2c 3a 2c 4e b1 6e ad 98 ac 90 ad f2 a5 49 29
       0.06793 0.06604 -0.1658 -0.08484 -0.0718 -0.0869 -0.02322 0.0413
000180 a2 30 c9 b0 3a ad ba b1 e4 05 7e a9 93 b1 78 99
       0.1448 -0.1495 -0.08167 -0.179 8.99e-05 -0.0429 -0.1742 -0.00267
000190 35 2b 36 aa 3c 27 bd b0 a9 a7 9d 28 b3 ab a0 1f
       0.0563 -0.04852 0.02826 -0.1481 -0.02992 0.03604 -0.06015 0.007446
0001a0 a5 b0 e0 1f d2 af 7b 25 0c a9 3a b0 dd b2 da 23
       -0.1451 0.00769 -0.1222 0.02141 -0.03943 -0.1321 -0.2145 0.015335
0001b0 0a ae 4a b0 d3 ae 46 2c 8b ab 1a b0 0b af 88 2a
       -0.09436 -0.134 -0.1066 0.0668 -0.05893 -0.1282 -0.11005 0.05103
0001c0 34 2d 09 ab d2 ae ab 27 35 aa 6a ad 81 b3 dd ac
       0.0813 -0.05496 -0.10657 0.02995 -0.0485 -0.0846 -0.2345 -0.076
0001d0 ac af b9 af de 2b da 2b 4a 30 67 ad 23 ae e4 ad
       -0.1199 -0.12067 0.06146 0.06134 0.134 -0.0844 -0.0959 -0.09204
0001e0 ed 28 c3 28 72 26 92 2e 03 1d 1a 2a f8 b0 42 ac
       0.03848 0.0372 0.02518 0.10266 0.004894 0.04767 -0.1553 -0.0665
0001f0 d3 aa 5c aa 15 ac 52 ad 6b 31 f5 a0 8b ad 73 ae
       -0.0533 -0.04968 -0.0638 -0.0831 0.1693 -0.00968 -0.0866 -0.10077

model/time_distributed_11/dense_1/MatMul f2 [64, 1488]
000000 36 2b 86 2c 4c 27 22 28 f1 27 65 2c 64 2b af 2c
       0.05634 0.0707 0.0285 0.0323 0.03102 0.06866 0.05774 0.0732
000010 e1 2d 4d a7 e6 2a 12 28 47 2c ba 95 ab 22 ed 24
       0.09186 -0.02852 0.0539 0.0318 0.06683 -0.001398 0.01302 0.01924
000020 bb 26 c6 2c 79 24 9b 28 c0 a1 ee 1e 2d 2b 95 2a
       0.02629 0.0746 0.01747 0.03598 -0.01123 0.006767 0.05606 0.05142
000030 4e a8 b2 a8 b8 26 96 92 3f 0a 98 23 b2 2e ba 28
       -0.03363 -0.03668 0.02625 -0.000804 0.0001906 0.01483 0.1046 0.03693
000040 a6 21 07 29 18 a6 d1 a6 e6 28 82 a4 e1 2d 82 2d
       0.01103 0.03928 -0.0238 -0.02663 0.03827 -0.01761 0.09186 0.08606
000050 02 2a 8e 9e 4d 9b 66 24 8e 28 ca 23 bd 2c a8 2a
       0.04694 -0.0064 -0.003565 0.01718 0.03558 0.01521 0.07404 0.052
000060 da 26 00 a4 1c a2 ae 2a 2d 2c 1f 2c 9f 25 42 28
       0.02676 -0.01563 -0.01193 0.0522 0.06525 0.0644 0.02196 0.03326
000070 67 28 46 26 b3 2d 80 aa f0 a5 dd 2c 0d 2d 52 9e
       0.0344 0.0245 0.08905 -0.05078 -0.0232 0.076 0.0789 -0.006172
000080 a5 2d f9 27 a8 22 8a 2d b4 2c bb 2b 17 24 f6 25
       0.0882 0.03114 0.013 0.08655 0.0735 0.0604 0.01598 0.02328
000090 e6 96 e0 a4 00 2f 59 23 6f 2d 29 2c 38 2b 5a 1d
       -0.001684 -0.01904 0.1094 0.01435 0.0849 0.065 0.0564 0.005226
0000a0 07 25 ea 28 bf 2e 0e a3 1d 1e f6 a6 5e 27 0e 28
       0.01964 0.0384 0.1054 -0.01378 0.00597 -0.02719 0.02878 0.03168
0000b0 d7 9a 5f 2c b4 2c 6e 25 f7 1d b2 9c 80 a4 0c 9c
       -0.00334 0.0683 0.0735 0.02121 0.005825 -0.004585 -0.01758 -0.003952
0000c0 3c 2c 60 23 48 2b 54 28 e9 a9 07 2f b6 1e 3b a9
       0.06616 0.014404 0.0569 0.0338 -0.04617 0.1098 0.006554 -0.04086
0000d0 48 2a 25 1e c8 2b a6 29 f7 27 58 2d d3 9a 7e 2c
       0.04907 0.006 0.0608 0.04413 0.03111 0.0835 -0.003332 0.0702
0000e0 2f a4 e2 2a 2f 1d 6b 29 71 a9 92 2c 71 2f 72 26
       -0.01634 0.05377 0.005062 0.04233 -0.0425 0.0714 0.1163 0.02518
0000f0 3a 96 6c 25 97 2e a0 a1 72 24 9b 20 84 2b b8 2a
       -0.00152 0.02118 0.10297 -0.01099 0.01736 0.008995 0.05872 0.0525
000100 9e 28 66 2a 04 28 40 a8 30 a1 81 29 c4 2f 00 29
       0.03607 0.05 0.03137 -0.0332 -0.01013 0.043 0.12134 0.03906
000110 2b 28 60 2d a9 25 35 27 d6 2f 7c 2b 4e 27 c9 30
       0.03256 0.084 0.02211 0.02815 0.12244 0.05847 0.02853 0.1495
000120 c6 ab b2 29 6c a8 2c a9 d9 a8 0a 9f d5 2f 52 2d
       -0.06073 0.0445 -0.03455 -0.0404 -0.03787 -0.006874 0.1224 0.0831
000130 bb 24 59 1a cd 2c 49 2e 09 29 de a6 84 2e 8b 2f
       0.01848 0.0031 0.075 0.0982 0.03934 -0.02682 0.1018 0.11786
000140 12 a8 45 2b e8 28 22 a4 c5 2a 60 a8 7b 2f 1d 24
       -0.0318 0.0568 0.03833 -0.01614 0.0529 -0.03418 0.1169 0.01607
000150 2a 2c 12 25 9c 2a 92 2c 6c 28 35 2d 13 2e 3d 2e
       0.06506 0.0198 0.05164 0.0714 0.03455 0.08136 0.0949 0.0975
000160 31 a8 d2 a2 63 a9 04 aa 97 2a 1a 28 20 2c ad 2a
       -0.03275 -0.01332 -0.04208 -0.047 0.05148 0.03204 0.06445 0.05215
000170 33 2d f7 9d 5b 24 2b 20 f7 2c ac 2c b8 2d 56 2d
       0.08124 -0.005825 0.01701 0.00814 0.0776 0.073 0.08936 0.0834
000180 15 28 70 28 de 28 7f 28 6d 2a 47 aa 74 2d c3 2a
       0.0319 0.03467 0.03802 0.03513 0.0502 -0.04904 0.0852 0.05283
000190 ab 2a fe a4 9a 1f 29 2a 64 30 13 83 7c 2e d5 2e
       0.0521 -0.0195 0.007423 0.04813 0.1372 -4.69e-05 0.1013 0.10675
0001a0 65 26 41 9e 30 29 1c a8 21 2c bf 28 e6 2c ed 20
       0.02498 -0.006107 0.04053 -0.0321 0.0645 0.03708 0.07654 0.00962
0001b0 f1 2d 33 a8 c6 ab 64 2d 26 2e b1 a7 56 2b f2 29
       0.09283 -0.0328 -0.06073 0.0842 0.09607 -0.03004 0.0573 0.04645
0001c0 e7 2d 5c 1c c6 a9 5c 2c 1d a6 f9 28 73 28 bc a0
       0.0922 0.004257 -0.0451 0.0681 -0.02388 0.03885 0.03476 -0.00925
0001d0 09 2d cb 27 b1 a0 c3 2a e6 2b 3d 1c 12 2f dc 24
       0.0787 0.03044 -0.00916 0.05283 0.0617 0.00414 0.1105 0.01898
0001e0 39 2c 11 2c e4 9b 97 28 90 2b 13 ac 4b 1e 62 2b
       0.066 0.06354 -0.003853 0.03586 0.05908 -0.06366 0.006145 0.05768
0001f0 ba a5 c7 2a ab a8 e7 a9 6b 14 9c a9 a6 2d d0 27
       -0.02237 0.05295 -0.03647 -0.0461 0.001079 -0.04382 0.08826 0.03052

model/time_distributed_3/batch_normalization/FusedBatchNormV3 f2 [8]
000000 73 bd 73 bc 69 bc dd bc 34 bd 05 bc 3e bc 7a bd
       -1.362 -1.112 -1.103 -1.216 -1.301 -1.005 -1.061 -1.369

model/time_distributed_3/batch_normalization/FusedBatchNormV31 f2 [8]
000000 c8 3a be 3a 07 3a d6 3a b8 3a 79 3a 39 3a bb 3a
       0.8477 0.843 0.7534 0.8545 0.84 0.809 0.778 0.8413

model/time_distributed_5/dense/MatMul f2 [32, 168]
000000 f6 33 3b 31 f7 2e 07 af b6 2e e4 2c 8d 2e 55 2e
       0.2488 0.1635 0.1088 -0.1098 0.10486 0.0764 0.10236 0.09894
000010 bb 27 da a8 c3 b3 32 30 4f 0a ff 25 b9 b2 02 30
       0.0302 -0.0379 -0.2426 0.1311 0.0001925 0.02342 -0.2101 0.1252
000020 4f 28 21 b0 9d af 23 b1 b0 2e 22 29 6f 30 20 16
       0.03366 -0.129 -0.11896 -0.1605 0.1045 0.0401 0.1385 0.001495
000030 a2 9e fd a9 33 af 64 ad 91 2f a9 2d e8 a8 02 0a
       -0.006477 -0.04678 -0.1125 -0.0842 0.1182 0.08844 -0.03833 0.0001833
000040 e1 b2 ef 1f 84 24 ee b2 e4 ad 5a 27 97 af 0f ae
       -0.215 0.007748 0.01764 -0.2166 -0.09204 0.02872 -0.1186 -0.09467
000050 02 2c 23 b1 0c aa ea b0 97 27 71 25 48 2e 52 2b
       0.0626 -0.1605 -0.04724 -0.1536 0.02965 0.02126 0.09814 0.0572
000060 d7 29 78 a5 51 2c e5 26 04 2a 6b a8 fe 2e e3 af
       0.04562 -0.02136 0.06744 0.02693 0.047 -0.03452 0.10925 -0.1232
000070 f0 30 96 2f 00 ad bf ac 25 2c a2 ac f0 ac 47 2a
       0.1543 0.1185 -0.0781 -0.07416 0.06476 -0.0724 -0.07715 0.04904
000080 d4 28 65 b0 87 30 ee 30 e2 af 7d 2e 7a 29 2d aa
       0.03772 -0.1373 0.1415 0.154 -0.12317 0.1014 0.0428 -0.04825
000090 5f b2 9c b1 82 a0 3d 30 6d 2d 92 a6 3b b4 8b af
       -0.1991 -0.1753 -0.008804 0.1324 0.0848 -0.02567 -0.2644 -0.11786
0000a0 28 2f c7 a4 be af 96 26 1d a7 c3 b2 e4 20 e8 ad
       0.1118 -0.01866 -0.121 0.02573 -0.02779 -0.2113 0.00955 -0.0923
0000b0 c9 ae da 2d fa b0 5a 25 a3 2e d1 2d 55 b2 34 a0
       -0.106 0.09143 -0.1555 0.0209 0.1037 0.0909 -0.1979 -0.00821
0000c0 42 29 25 31 2d 29 4f 32 79 ad 51 b0 86 26 71 2f
       0.04108 0.1608 0.04044 0.1971 -0.0855 -0.1349 0.02548 0.1163
0000d0 ae 32 f1 b0 6b af ee 20 c6 a0 6e b2 3a 30 71 30
       0.2087 -0.1544 -0.1159 0.00963 -0.00932 -0.2009 0.1321 0.1388
0000e0 36 a9 18 33 82 26 38 ab 99 2a f5 b1 29 28 77 30
       -0.0407 0.2217 0.02542 -0.0564 0.05154 -0.1862 0.0325 0.1395
0000f0 af aa 58 b1 d1 aa db b0 ee 22 11 2c 7b 9d 20 1b
       -0.05222 -0.167 -0.05325 -0.1517 0.013535 0.06354 -0.005352 0.003479
000100 4d ad d5 2c e6 2a 98 b5 01 b4 37 b3 55 a9 8f b1
       -0.0828 0.0755 0.0539 -0.3496 -0.2502 -0.2255 -0.04166 -0.1737
000110 26 1e cf ac 49 b1 12 28 db a4 ff 2a e0 b1 0e b2
       0.006004 -0.07513 -0.1652 0.0318 -0.01897 0.05466 -0.1836 -0.1892
000120 3b a6 84 b0 81 b2 0a a6 3b b2 c2 26 c2 b0 30 b4
       -0.02434 -0.1411 -0.2032 -0.02359 -0.1947 0.0264 -0.1487 -0.2617
000130 b3 b0 3f b3 ed ad 16 b1 76 b1 bf 27 84 b2 db ad
       -0.1469 -0.2264 -0.0926 -0.1589 -0.1707 0.03026 -0.2036 -0.0915
000140 58 ad 2e 21 c3 b1 2d 2f c2 ae 95 31 28 30 21 af
       -0.0835 0.01012 -0.18 0.1121 -0.1056 0.1744 0.1299 -0.1114
000150 19 af 7b 2c fe 30 03 b4 aa 16 2b 2f b7 ae 35 2e
       -0.1109 0.07 0.156 -0.2507 0.001627 0.112 -0.1049 0.097
000160 06 b0 7a b0 4f a5 0c 2c bf a8 f5 af 6f aa 84 a8
       -0.1257 -0.1399 -0.02074 0.06323 -0.03708 -0.1243 -0.05026 -0.03528
000170 87 b0 82 2b ab ae 04 b0 7b ac c9 2b f0 a4 69 22
       -0.1415 0.05865 -0.1042 -0.1255 -0.07 0.06082 -0.01929 0.01252
000180 e0 2f f4 a5 d6 18 0e 1c 53 ad cd 2d 4d b0 2f 2c
       0.12305 -0.02325 0.002361 0.00396 -0.0832 0.09064 -0.1344 0.06537
000190 fe a6 8b 2c 34 b3 a7 a0 c8 2e 0f b0 27 2a 5f ad
       -0.02731 0.071 -0.2251 -0.00909 0.10596 -0.1268 0.04807 -0.0839
0001a0 3d 2f 6f 2c 1b 2a 48 b1 3a 2d 18 31 fb 2e 0b 2d
       0.1131 0.0693 0.0477 -0.165 0.08167 0.1592 0.1091 0.0788
0001b0 cb 14 e5 2d e0 b1 1e a9 81 9d 78 23 7f 30 29 a4
       0.00117 0.0921 -0.1836 -0.03998 -0.005375 0.01459 0.1405 -0.01625
0001c0 44 b2 d9 2d 5d 24 87 ad a5 a2 45 33 fa 2d 02 ac
       -0.1958 0.0914 0.01704 -0.08636 -0.01298 0.2272 0.0934 -0.0626
0001d0 61 31 8c 30 d3 aa 31 34 88 af 5d af 58 ad 87 b2
       0.1681 0.1421 -0.0533 0.262 -0.1177 -0.11505 -0.0835 -0.204
0001e0 5f ae 82 2a 01 b4 98 b1 05 31 35 b2 8c 9c b9 a2
       -0.09955 0.05084 -0.2502 -0.1748 0.1569 -0.194 -0.00444 -0.01313
0001f0 fa a5 86 27 d7 aa e6 af 29 2d 59 a8 fb b0 69 ae
       -0.02335 0.02939 -0.05344 -0.1234 0.0806 -0.03397 -0.1556 -0.10016

model/time_distributed_9/batch_normalization_1/FusedBatchNormV3 f2 [16]
000000 2d b8 0d b9 c3 b6 70 b3 84 b6 9a b8 e1 b6 0e b8
       -0.522 -0.6313 -0.4226 -0.2324 -0.4072 -0.575 -0.43 -0.507
000010 5c b7 cf b6 8f b7 4e b8 44 b8 50 b8 4e b8 f6 b7
       -0.46 -0.4255 -0.4724 -0.538 -0.533 -0.539 -0.538 -0.4976

model/time_distributed_9/batch_normalization_1/FusedBatchNormV31 f2 [16]
000000 8e 3e d4 3e b7 3d 54 3e ed 3e 54 3e 9b 3e 89 3e
       1.639 1.707 1.429 1.582 1.731 1.582 1.651 1.634
000010 ef 3f 7d 3d e1 3e ab 3d 5a 3e 0a 3f f1 3d bb 3e
       1.983 1.372 1.72 1.417 1.588 1.76 1.485 1.683

model/lstm/while/lstm_cell_2/MatMul_4 f2 [32, 32]
000000 4e 28 82 2e 17 b1 d5 23 48 a8 4e b0 c7 2a 23 2d
       0.03363 0.1017 -0.159 0.0153 -0.03345 -0.1345 0.05295 0.08026
000010 67 ac fe af e3 a8 a7 ab 15 ac e0 26 e2 ab 2d 2a
       -0.0688 -0.1249 -0.03818 -0.05978 -0.0638 0.02686 -0.06158 0.04825
000020 27 af 39 26 62 2c d5 a5 0f 2c a5 b0 ef 31 b8 2c
       -0.11176 0.0243 0.0685 -0.02278 0.0634 -0.1451 0.1854 0.0737
000030 de ab ea a6 9e b0 9c b0 96 a8 65 aa e5 af cb 2a
       -0.06146 -0.02701 -0.1443 -0.144 -0.03583 -0.04996 -0.12335 0.05307
000040 5d b0 9e ac 11 2d 35 ab 4b 99 5a a7 d6 2a 8f b2
       -0.1364 -0.07214 0.07916 -0.0563 -0.002584 -0.02872 0.0534 -0.205
000050 fd 32 7d b0 43 ad 31 aa b8 9e c3 2c 8e 30 9a 27
       0.2184 -0.1403 -0.0822 -0.04837 -0.00656 0.0744 0.1423 0.0297
000060 a3 af 14 ac 52 96 b7 27 6b 17 09 ab ee ae 09 9c
       -0.1193 -0.0637 -0.001543 0.03014 0.001811 -0.05496 -0.1083 -0.00394
000070 de b0 bf 34 66 a9 4e 9c 67 a9 b6 a8 33 af 28 ab
       -0.1521 0.2966 -0.04218 -0.004204 -0.0422 -0.0368 -0.1125 -0.0559
000080 d9 2f b1 a7 ea 26 af af da 2d e3 b5 67 ac 1c ab
       0.1226 -0.03004 0.02701 -0.12006 0.09143 -0.368 -0.0688 -0.05554
000090 46 31 bd 2d 4b 26 7d 2d ee 30 a4 31 08 ad 51 a7
       0.1648 0.08966 0.02458 0.08575 0.154 0.1763 -0.0786 -0.02858
0000a0 17 29 ea ab ac ad f7 b0 14 25 cb b3 b2 1d 78 2f
       0.03976 -0.06183 -0.0886 -0.1552 0.01984 -0.2435 0.00556 0.1167
0000b0 20 ad 97 25 32 a8 28 2c 16 ac ef 20 53 33 1f ae
       -0.0801 0.02184 -0.03278 0.06494 -0.06384 0.009636 0.2289 -0.09564
0000c0 23 b0 96 a6 64 af 2f 32 16 b2 11 2c 97 aa 33 a3
       -0.1293 -0.02573 -0.1155 0.1932 -0.1902 0.06354 -0.05148 -0.01406
0000d0 21 2c aa b0 23 31 a3 ae 81 30 fb a6 31 24 f8 29
       0.0645 -0.1458 0.1605 -0.1037 0.1407 -0.02727 0.01637 0.04663
0000e0 65 ad 2c a2 41 a9 14 a6 85 28 2e 98 c0 a4 35 af
       -0.0843 -0.012054 -0.04105 -0.02374 0.0353 -0.00204 -0.01855 -0.1126
0000f0 0c 33 33 ad 30 2f 59 2c 3c 29 f1 a6 fa 29 33 b2
       0.2202 -0.08124 0.1123 0.06793 0.0409 -0.02711 0.0467 -0.1937
000100 55 2d 0e b4 2e a3 af aa 0f a7 89 24 ab 2c c0 1d
       0.0833 -0.2534 -0.01402 -0.05222 -0.02757 0.01772 0.07294 0.005615
000110 32 b0 4d 2d 34 ab ca a3 0b b1 ad ab 96 20 c1 af
       -0.1311 0.0828 -0.05627 -0.01521 -0.1576 -0.05997 0.00896 -0.12115
000120 b7 ab 1e a4 8e 30 ba a0 19 2d 78 ad ab 29 32 29
       -0.06027 -0.01608 0.1423 -0.00923 0.07965 -0.08545 0.04428 0.0406
000130 f7 ad 4e a2 52 ac cd 98 20 a7 8b 29 a5 2f 04 2e
       -0.0932 -0.012314 -0.0675 -0.002344 -0.02783 0.0433 0.11945 0.094
000140 9d 2a 50 ad 6f 23 7e 30 4d ac 84 af e0 25 e2 2c
       0.05167 -0.083 0.01452 0.1404 -0.0672 -0.11743 0.02295 0.0763
000150 c1 20 0a a6 2f b4 f8 b0 b4 ad 5f 2c e9 28 a2 27
       0.009285 -0.02359 -0.2615 -0.1553 -0.0891 0.0683 0.03836 0.02982
000160 2f a6 cf 21 6b 2e 87 31 a9 2c 9b 2d 8c 2d f2 2b
       -0.02415 0.011345 0.1003 0.1727 0.0728 0.0876 0.0867 0.06207
000170 df 2c 94 28 18 2d c8 2f b3 2b e4 af af ab 42 ae
       0.0761 0.03577 0.0796 0.1216 0.06015 -0.1233 -0.06003 -0.0978
000180 15 32 57 2f d7 21 fd 2f dd ad d6 b0 69 b0 94 ad
       0.1901 0.1147 0.011406 0.1248 -0.0916 -0.1511 -0.1378 -0.08716
000190 a3 b2 d8 a5 29 24 a9 b1 47 a7 b2 2b a1 b0 4e 25
       -0.2074 -0.02283 0.01625 -0.1769 -0.02843 0.06012 -0.1447 0.02072
0001a0 cc 30 a5 27 86 2b 45 aa 46 b1 55 23 67 ac 69 2b
       0.1499 0.02986 0.05878 -0.04898 -0.1648 0.01432 -0.0688 0.0579
0001b0 b8 2a 8b 30 c5 2d 39 a7 1a 31 1b b0 2d a8 8e 26
       0.0525 0.142 0.09015 -0.02821 0.1594 -0.1283 -0.03262 0.0256
0001c0 c4 2d 4c 28 c1 a9 34 a2 1e 30 5c 2a 88 9c 0a ad
       0.0901 0.03357 -0.04495 -0.012115 0.1287 0.04968 -0.004425 -0.07874
0001d0 70 2c ea 2b 3e 2c 04 24 0b ae 2f ad 9b a8 11 b1
       0.06934 0.06183 0.0663 0.01569 -0.0944 -0.081 -0.03598 -0.1583
0001e0 93 32 53 a2 cb a4 43 a8 5e 2c cc 32 ee ad 7e ae
       0.2054 -0.01235 -0.01872 -0.0333 0.06824 0.2124 -0.09265 -0.10144
0001f0 83 2d 64 30 32 ad 27 a5 fe b0 93 a2 43 2e a2 31
       0.0861 0.1372 -0.0812 -0.02013 -0.156 -0.01284 0.09784 0.176

model/lstm/while/lstm_cell_2/MatMul_5 f2 [32, 32]
000000 a1 27 ee ae 0f aa 33 31 fa ae 85 24 36 28 4a 2c
       0.0298 -0.1083 -0.04733 0.1625 -0.109 0.01765 0.0329 0.067
000010 79 2b 93 a4 ea b2 46 33 96 b0 ca ad 11 29 90 b1
       0.05838 -0.01787 -0.2161 0.2273 -0.1433 -0.09045 0.03958 -0.1738
000020 19 ac 18 30 1f 2f b5 2d 84 2a 19 30 38 a0 2b ac
       -0.064 0.1279 0.11127 0.0892 0.0509 0.128 -0.00824 -0.0651
000030 d9 26 2b b1 e8 2d 54 24 4e a7 89 b4 5f af 28 2d
       0.02675 -0.1615 0.0923 0.0169 -0.02853 -0.2834 -0.1152 0.08057
000040 3f 29 9a 2e f8 b0 f9 aa b8 a7 03 9f 80 28 e1 1a
       0.041 0.10315 -0.1553 -0.05447 -0.03015 -0.006847 0.03516 0.003359
000050 94 ae 1a 30 d8 af a1 30 02 a9 cc ad 04 2d 3c 2c
       -0.1028 0.1282 -0.12256 0.1447 -0.03912 -0.0906 0.07837 0.06616
000060 2f 99 a2 2a 9e 20 6d ac 20 b1 4c 2c 8e 29 90 b0
       -0.002531 0.05182 0.00902 -0.06915 -0.1602 0.06714 0.0434 -0.1426
000070 7c 2e 11 2e 02 b4 21 2c dc af 8b a7 11 2d 67 af
       0.1013 0.0948 -0.2505 0.0645 -0.1228 -0.02946 0.07916 -0.11566
000080 32 2e f8 2c 68 a1 c6 93 d5 ae b8 2d 35 ad 29 27
       0.0968 0.07764 -0.01056 -0.000949 -0.10675 0.08936 -0.08136 0.02797
000090 7f 22 a2 27 7d 2b 86 2d e7 2a 75 28 51 28 ee b0
       0.01269 0.02982 0.0585 0.0863 0.05392 0.03482 0.03372 -0.154
0000a0 2f a6 15 99 c2 aa 2f ae 29 b1 47 31 b9 2a 1b ad
       -0.02415 -0.002481 -0.0528 -0.0966 -0.1613 0.1649 0.05252 -0.0798
0000b0 cc a7 05 34 b5 ac 0b b2 ca 2a 1b 33 46 aa 5b b0
       -0.03046 0.2512 -0.07355 -0.1888 0.05304 0.222 -0.049 -0.1361
0000c0 05 ae 86 32 e7 ae 10 28 5b 34 40 b1 b2 2e 22 a0
       -0.09406 0.2039 -0.10785 0.03174 0.2722 -0.1641 0.1046 -0.00807
0000d0 c4 32 1e 1f 4a b0 4a 18 38 ac 89 95 ca ab 5d 2b
       0.2114 0.00695 -0.134 0.002094 -0.0659 -0.001351 -0.06085 0.05753
0000e0 12 1b a5 2c b1 b0 eb 2e 05 af 41 2b 4c 28 7d 32
       0.003452 0.0726 -0.1466 0.1081 -0.1097 0.05667 0.03357 0.2028
0000f0 83 a2 a4 2f a5 a6 c5 a9 70 04 25 a1 73 2d 21 33
       -0.01272 0.1194 -0.02596 -0.04507 6.77e-05 -0.01005 0.08514 0.2228
000100 9b aa 19 ac 5b 29 8d a9 cb 29 70 ab 69 a8 1a aa
       -0.0516 -0.064 0.04184 -0.04337 0.04526 -0.0581 -0.03445 -0.04767
000110 cf b1 a3 95 9d ac 76 30 c9 b0 2d a5 3a 27 b4 2e
       -0.1815 -0.001376 -0.0721 0.1394 -0.1495 -0.02022 0.02823 0.10474
000120 df a6 7a 2f a6 30 65 2a 83 a8 86 21 5d 30 74 27
       -0.02684 0.1168 0.1453 0.04996 -0.03525 0.01079 0.1364 0.02911
000130 77 32 d8 26 8d a9 2c ac e9 ac 14 12 d2 ac ca a3
       0.202 0.02673 -0.04337 -0.0652 -0.0767 0.000742 -0.0753 -0.01521
000140 1b 2d 4a 2e 8c 2e fa af 2a b0 29 2e a0 30 45 2e
       0.0798 0.09827 0.1023 -0.12463 -0.1301 0.09625 0.1445 0.09796
000150 38 26 a3 a8 79 18 55 33 01 b3 8d aa 57 24 5b b2
       0.02429 -0.03622 0.002184 0.2291 -0.2189 -0.05118 0.01695 -0.1986
000160 44 2b 76 ac 4f 34 59 a5 27 2b e2 2d 1a 32 5b aa
       0.05676 -0.0697 0.2693 -0.02089 0.05588 0.0919 0.1907 -0.04965
000170 49 ae d8 31 2a 28 20 ac 11 b0 8d b1 68 32 ac a8
       -0.0982 0.1826 0.03253 -0.06445 -0.1271 -0.1735 0.2002 -0.0365
000180 81 98 82 a6 64 2b 61 28 48 2b 6f ae 7c a7 1b a8
       -0.0022 -0.02542 0.05774 0.0342 0.0569 -0.1005 -0.02924 -0.03207
000190 5f ac f6 2d 3d a5 58 ad 2e 9f bc a8 cf af 31 ac
       -0.0683 0.09314 -0.02046 -0.0835 -0.00701 -0.037 -0.122 -0.0655
0001a0 38 99 90 a5 e0 20 83 aa 51 b4 f4 2f f1 a4 04 a8
       -0.002548 -0.02173 0.00952 -0.05087 -0.2698 0.12427 -0.0193 -0.03137
0001b0 3a 30 1a 30 c7 2a 8b ae 41 18 36 28 df b0 07 2d
       0.1321 0.1282 0.05295 -0.10223 0.002077 0.0329 -0.1522 0.07855
0001c0 23 2a c2 ac 96 28 c7 27 34 b1 39 2f 8f 30 78 2b
       0.04794 -0.07434 0.03583 0.03038 -0.1626 0.11285 0.1425 0.05835
0001d0 15 2e 98 a9 a9 b0 71 a7 11 ae 51 ad 3d 1a 20 14
       0.09503 -0.0437 -0.1456 -0.02907 -0.0948 -0.08307 0.003046 0.001007
0001e0 1c b4 34 b0 17 a6 81 ac 50 b0 91 2e ec 27 67 af
       -0.2568 -0.1313 -0.02379 -0.0704 -0.1348 0.1026 0.03094 -0.11566
0001f0 f8 9d 7d 30 b7 30 ef ac c7 b1 7b 32 36 b1 d0 2d
       -0.00583 0.1403 0.1473 -0.0771 -0.1805 0.2025 -0.1628 0.0908

model/lstm/while/lstm_cell_2/MatMul_6 f2 [32, 32]
000000 86 ae c6 ad 2c b0 4a 30 3f ac f9 af b4 ad 92 ad
       -0.1019 -0.0902 -0.1304 0.134 -0.06635 -0.1246 -0.0891 -0.08704
000010 f2 af 8d 31 09 a5 7e 22 1d 22 83 28 ef a4 e1 2e
       -0.12415 0.1735 -0.01967 0.01268 0.01194 0.03525 -0.01927 0.1075
000020 42 a9 cc 32 67 31 14 ad d8 15 38 2a 10 28 b1 29
       -0.04108 0.2124 0.1688 -0.07935 0.001427 0.04858 0.03174 0.04446
000030 bc a9 e9 ab 95 2d 45 ae 0c ac fb ac 10 30 b0 2d
       -0.0448 -0.0618 0.0872 -0.09796 -0.06323 -0.0778 0.127 0.08887
000040 41 2f ab ad 5e aa aa a4 ab a4 c3 2a f2 b4 61 2e
       0.11334 -0.08856 -0.04974 -0.01822 -0.01823 0.05283 -0.309 0.0997
000050 8f af 27 2c 15 ae 4e b2 23 24 b6 22 2a 23 b2 ad
       -0.1181 0.0649 -0.09503 -0.197 0.01616 0.01311 0.01399 -0.089
000060 fe ad d2 30 91 a4 41 2d 5c 29 a4 b2 89 28 28 9e
       -0.0936 0.1506 -0.01784 0.0821 0.04187 -0.2075 0.03543 -0.006012
000070 ba b4 95 ad 3c b2 ea b2 72 2e 90 b0 18 30 52 33
       -0.2954 -0.0872 -0.1948 -0.2161 0.1007 -0.1426 0.1279 0.2288
000080 c6 ac 7b 2b a4 23 4e b3 bd 9e cf ae 30 16 48 24
       -0.0746 0.05844 0.01492 -0.2283 -0.00658 -0.1064 0.001511 0.01672
000090 60 ac d6 ab 2f 2a 29 a5 c3 ac 37 33 8d ac 9f 31
       -0.06836 -0.06122 0.0483 -0.02016 -0.0744 0.2255 -0.0711 0.1757
0000a0 bd 31 e1 b2 fc 2a a4 2d 8a b0 34 a5 34 30 8a b0
       0.1793 -0.215 0.05457 0.08813 -0.1418 -0.02032 0.1313 -0.1418
0000b0 cf 2f 4f 31 9d a9 b6 a6 d6 ad 2a ac 16 b1 2f 2e
       0.122 0.1659 -0.04385 -0.02621 -0.0912 -0.06506 -0.1589 0.0966
0000c0 8e a1 15 b0 7c 28 80 ab 57 2d 7b ab 47 31 26 2d
       -0.01085 -0.1276 0.03503 -0.0586 0.08344 -0.05844 0.1649 0.08044
0000d0 b7 32 b2 a8 65 b2 8f 26 36 b0 9a 32 b1 28 6f b2
       0.2098 -0.03668 -0.1998 0.02562 -0.1316 0.2063 0.03665 -0.201
0000e0 3b 2c 11 a4 65 25 55 b3 45 32 f5 29 a2 23 4f b3
       0.0661 -0.01588 0.02107 -0.2291 0.1959 0.04654 0.01491 -0.2284
0000f0 a1 ad c7 2e 20 2d 92 2f b3 a8 f2 b1 e6 b2 99 aa
       -0.08795 0.1059 0.0801 0.1183 -0.0367 -0.1858 -0.2156 -0.05154
000100 e5 30 0a 32 5d ab ce b0 c1 b0 a6 ae 48 b2 f4 2e
       0.153 0.1887 -0.05753 -0.1501 -0.1486 -0.1039 -0.1963 0.10864
000110 2b 2c ec 28 99 b2 e3 a9 16 28 4b b0 0e 30 eb af
       0.0651 0.03845 -0.2062 -0.046 0.03192 -0.1342 0.1267 -0.1237
000120 58 ad b2 33 42 2c 1a 2e 19 32 f3 2e a9 2d 21 2a
       -0.0835 0.2405 0.0665 0.09534 0.1906 0.1086 0.08844 0.04788
000130 cd af d5 af 35 31 2a b3 25 9c 43 aa 18 2a 52 34
       -0.1219 -0.1224 0.1627 -0.2239 -0.004047 -0.04892 0.0476 0.27
000140 eb b0 60 20 17 2c 03 34 fe ae 47 23 12 28 63 ad
       -0.1537 0.008545 0.0639 0.2507 -0.10925 0.01421 0.0318 -0.08417
000150 a4 2a 25 ac 98 2c 0e 2a 1a 30 94 ae 01 2b 01 a8
       0.05188 -0.06476 0.0718 0.0473 0.1282 -0.1028 0.05472 -0.03128
000160 f2 36 b6 b1 2f a2 ef af 1c ad 70 2e 57 b3 9e b0
       0.434 -0.1785 -0.01208 -0.12396 -0.07983 0.1006 -0.2294 -0.1443
000170 a0 2d b6 29 77 30 1c 23 50 2d 5f b0 4c a9 7a b1
       0.0879 0.04462 0.1395 0.013885 0.083 -0.1366 -0.04138 -0.1711
000180 5c ae b6 af df 31 7c af 9d 27 2b b2 c2 2c 3a 1e
       -0.09937 -0.1205 0.1835 -0.11694 0.02974 -0.1927 0.07434 0.00608
000190 ce 26 31 2c 9e 2f a6 15 6d b0 67 ab 4f 29 9b ab
       0.02658 0.0655 0.119 0.001379 -0.1383 -0.05783 0.04147 -0.05942
0001a0 b5 27 d3 b0 86 af 83 ad a5 b1 b5 2c 3b 30 38 30
       0.0301 -0.1508 -0.11755 -0.0861 -0.1764 0.07355 0.1322 0.1318
0001b0 11 2d d7 34 aa a3 22 2a 87 a5 0f 2d 79 9c e4 b0
       0.07916 0.3025 -0.01497 0.0479 -0.02159 0.07904 -0.004368 -0.1528
0001c0 49 ab 65 ad 32 29 9e ac 69 2c de 26 85 23 20 31
       -0.05692 -0.0843 0.0406 -0.07214 0.0689 0.02682 0.01469 0.1602
0001d0 04 b0 a4 b0 07 31 d5 ad ce b1 cc a5 fa 24 91 32
       -0.1255 -0.145 0.1571 -0.0911 -0.1814 -0.02264 0.01944 0.2052
0001e0 33 a7 04 b5 d9 28 a4 30 6d 28 4f b0 58 a5 6c 30
       -0.02812 -0.3135 0.03787 0.145 0.03458 -0.1346 -0.02087 0.1382
0001f0 a3 b0 7e 2e 95 30 71 aa dc b0 b3 32 5f b0 95 a8
       -0.1449 0.10144 0.1432 -0.05032 -0.1519 0.2094 -0.1366 -0.0358

model/lstm/while/lstm_cell_2/MatMul_7 f2 [32, 32]
000000 79 25 13 ad ea 2d 50 a8 3e 32 94 b1 68 21 60 30
       0.02138 -0.0793 0.0924 -0.0337 0.1951 -0.1743 0.01056 0.1367
000010 fd b4 89 24 76 2c b4 2d a1 a6 c6 ad af b4 ad ae
       -0.3118 0.01772 0.0697 0.0891 -0.0259 -0.0902 -0.2927 -0.1043
000020 e0 2a 63 b1 4c a8 07 b1 8b a9 94 2f 44 2c 58 30
       0.0537 -0.1683 -0.03357 -0.1571 -0.0433 0.1184 0.06665 0.1357
000030 2c ad 2f 30 9f b0 d0 25 6e 28 40 27 0d 34 ad 22
       -0.0808 0.1307 -0.1444 0.0227 0.0346 0.02832 0.2532 0.01304
000040 9e 96 e6 2a 55 b2 ab 31 d5 33 61 ae 5a b1 8b ad
       -0.001616 0.0539 -0.1979 0.1771 0.2448 -0.0997 -0.1672 -0.0866
000050 8f 32 db a7 16 ab 23 21 e6 a0 34 23 e0 2d d9 2d
       0.205 -0.03069 -0.05536 0.01003 -0.00957 0.01407 0.0918 0.0914
000060 7c 2e 2b 2c 5e 2b c0 2c 78 b1 01 31 54 13 e1 ae
       0.1013 0.0651 0.05756 0.0742 -0.1709 0.1564 0.0008945 -0.1075
000070 4c b3 9f ac 62 a8 95 b4 86 a4 00 af 04 32 4a 33
       -0.228 -0.0722 -0.03424 -0.2864 -0.01767 -0.1094 0.188 0.2278
000080 59 af 65 ae a4 2c a3 2c dc 2f 9b b0 90 2e b0 23
       -0.1148 -0.0999 0.0725 0.07245 0.1228 -0.1439 0.10254 0.015015
000090 b9 a8 cd 29 39 b4 76 aa e5 ac 16 ac c2 b0 43 24
       -0.0369 0.04532 -0.264 -0.05048 -0.0765 -0.06384 -0.1487 0.01665
0000a0 84 22 6a ae ba 2d 90 b1 74 ae b9 a9 02 34 c2 2a
       0.012726 -0.1002 0.0895 -0.1738 -0.1008 -0.0447 0.2505 0.0528
0000b0 43 30 3f 25 c6 af 77 24 1c 28 4a 29 5f 24 d6 2f
       0.1332 0.0205 -0.12146 0.01744 0.0321 0.04132 0.01707 0.12244
0000c0 c9 af 51 a7 e8 ae 5b b2 c7 31 c0 af c4 2c 88 25
       -0.12164 -0.02858 -0.1079 -0.1986 0.1805 -0.1211 0.07446 0.0216
0000d0 7c af f7 ac 01 b0 8f b4 af a8 2e 20 da 26 55 2c
       -0.11694 -0.0776 -0.1251 -0.285 -0.0366 0.00816 0.02676 0.0677
0000e0 25 2c f0 30 a7 2a 54 26 00 a7 5e 2e 4b 2c 58 1e
       0.06476 0.1543 0.05197 0.02472 -0.02734 0.0995 0.0671 0.006195
0000f0 7b ab 74 26 5e ac 56 a0 88 21 39 2c 05 2d 99 9a
       -0.05844 0.0252 -0.06824 -0.00847 0.0108 0.066 0.0784 -0.003222
000100 41 2b 7d a7 a9 af 0d a4 42 99 99 a4 a7 b1 8b a8
       0.05667 -0.02925 -0.1197 -0.01582 -0.002567 -0.01796 -0.1766 -0.0355
000110 3b 2d ec 2e 47 30 3d 31 71 a7 78 b4 4d af 6b 26
       0.0817 0.10815 0.1337 0.1637 -0.02907 -0.2793 -0.1141 0.02507
000120 a9 26 df 2f d1 2f d8 31 4c 9f 32 a6 4f 32 55 b3
       0.02602 0.123 0.12213 0.1826 -0.007126 -0.0242 0.1971 -0.2291
000130 62 28 5e 32 b2 1b 0d a7 07 27 8d b0 f6 2e 28 2e
       0.03424 0.199 0.003757 -0.02754 0.02745 -0.1422 0.10876 0.0962
000140 3d 30 a6 af 6d ae 18 ab db a8 3a 34 7a 2f 94 29
       0.1324 -0.1195 -0.1004 -0.05542 -0.03793 0.2642 0.1168 0.04358
000150 c2 ac 15 aa 23 b5 4d 2f 21 32 ba ab 74 b1 7c 9b
       -0.07434 -0.04752 -0.321 0.1141 0.1915 -0.06036 -0.1704 -0.003654
000160 d8 28 b8 ae c1 31 de 26 26 21 80 2d 8f 31 5e 26
       0.03784 -0.105 0.1798 0.02682 0.010056 0.08594 0.1737 0.02487
000170 eb 28 0e 9a 34 ae cf ab bc a8 00 2f fd 35 16 2e
       0.03842 -0.002956 -0.0969 -0.061 -0.037 0.1094 0.3743 0.0951
000180 21 1d 01 ac b9 2d 96 2d ab 9f b4 21 cd 29 da a5
       0.00501 -0.06256 0.0894 0.0873 -0.00749 0.01114 0.04532 -0.02286
000190 c6 2b 0b 2e a6 a8 3c 2c 32 a6 f6 aa d8 b0 7e 2b
       0.06073 0.0944 -0.03632 0.06616 -0.0242 -0.05438 -0.1514 0.05853
0001a0 ae a4 09 ac d3 34 97 2c 1d aa 65 26 1d ac b8 2b
       -0.01828 -0.06305 0.3015 0.0717 -0.04776 0.02498 -0.0643 0.0603
0001b0 e1 29 a5 2d 59 2c 12 b0 28 30 ce a7 fa 31 2e 30
       0.04593 0.0882 0.06793 -0.1272 0.1299 -0.03049 0.1868 0.1306
0001c0 c4 24 04 9c d0 b1 3b ad d0 ac df aa 4b af e5 ac
       0.01862 -0.00392 -0.1816 -0.0817 -0.0752 -0.05368 -0.11395 -0.0765
0001d0 61 2d 1a a2 a3 b4 d2 99 a7 25 af 2e 43 2d 4a 29
       0.08405 -0.01192 -0.2898 -0.002842 0.02208 0.10443 0.0822 0.04132
0001e0 67 ac 27 34 41 2e b6 34 ae 2d 97 b1 d2 25 e8 28
       -0.0688 0.2595 0.0977 0.2944 0.08875 -0.1747 0.02274 0.03833
0001f0 a7 ae d0 30 2d b0 49 b5 f3 32 5c 30 05 b4 94 15
       -0.10394 0.1504 -0.1305 -0.3303 0.2172 0.1362 -0.2512 0.001362

model/lstm/while/lstm_cell_2/split_1 f2 [32]
000000 24 24 fd a6 97 a7 bc ab e8 27 4f ad f3 24 63 2a
       0.01617 -0.0273 -0.02965 -0.06042 0.03088 -0.08295 0.01933 0.0499
000010 02 ab be 1e 43 25 2c 17 1c a4 2a 25 35 29 d8 ab
       -0.05475 0.006584 0.02055 0.001751 -0.01605 0.02017 0.04068 -0.06128
000020 a4 a9 07 a8 b9 a9 4c 23 d1 a9 b6 ae a7 a0 82 a9
       -0.04407 -0.03146 -0.0447 0.01425 -0.04544 -0.10486 -0.00909 -0.04303
000030 d9 9e 1e 2a 70 2c 8c aa 2c 29 27 a3 2d a8 03 28
       -0.006687 0.0478 0.06934 -0.05115 0.0404 -0.01397 -0.03262 0.03134

model/lstm/while/lstm_cell_2/split_11 f2 [32]
000000 1f 3c 15 3c 09 3c 25 3c 4d 3c 51 3c 1a 3c 21 3c
       1.03 1.0205 1.009 1.036 1.075 1.079 1.025 1.032
000010 31 3c 1c 3c 17 3c 27 3c 13 3c 48 3c 23 3c 30 3c
       1.048 1.027 1.022 1.038 1.019 1.07 1.034 1.047
000020 11 3c 1a 3c 58 3c 2c 3c 2a 3c 1b 3c 26 3c 0e 3c
       1.017 1.025 1.086 1.043 1.041 1.026 1.037 1.014
000030 0b 3c 3b 3c 1a 3c 10 3c 1d 3c 33 3c 12 3c 22 3c
       1.011 1.058 1.025 1.016 1.028 1.05 1.018 1.033

model/lstm/while/lstm_cell_2/split_12 f2 [32]
000000 55 a3 25 a1 dc a2 6b a8 1e 21 98 a9 43 a4 c4 9e
       -0.01432 -0.01005 -0.0134 -0.03452 0.009995 -0.0437 -0.01665 -0.006607
000010 fc 1f c5 25 78 19 02 9c 1f a5 7e 22 8c a9 2a 1a
       0.007797 0.02254 0.00267 -0.003914 -0.02 0.01268 -0.04333 0.00301
000020 82 a6 d7 06 72 a1 6c 27 1e 26 c0 a0 6e 2b 46 28
       -0.02542 0.00010437 -0.010635 0.02899 0.0239 -0.00928 0.05804 0.0334
000030 be a4 1c a5 3c a0 8f 25 da 9f 15 18 ac 28 de 27
       -0.01852 -0.01996 -0.00827 0.02171 -0.007668 0.001993 0.0365 0.03073

model/lstm/while/lstm_cell_2/split_13 f2 [32]
000000 f5 98 37 2c 7e 2d b8 2d 1d 30 12 2f 12 2c 74 24
       -0.00242 0.06586 0.0858 0.08936 0.1285 0.1105 0.0636 0.0174
000010 42 30 f8 22 0a 24 06 2a fe 2c 21 30 29 2c 0c 20
       0.133 0.01361 0.01578 0.04706 0.078 0.129 0.065 0.007904
000020 11 2f ce 2c 58 28 9c 2f b8 2c 6d 29 84 2d a8 26
       0.1104 0.0751 0.03394 0.1189 0.0737 0.0424 0.0862 0.026
000030 20 2d 0c 2c 63 29 5d 27 b3 27 e3 2d 7b 2c 1c 2b
       0.0801 0.06323 0.04208 0.02876 0.03008 0.092 0.07 0.05554
