HPC_Final_Study2_Complete_Test_Class_Balance_run_all/participants_session_transfer_train_fresh_model/participant_9/session_4/session_4_lite_models/indexpen_model_quant.tflite (tflite, 303344 bytes, 29 tensors)

model/time_distributed_6/conv2d_1/BiasAdd;model/time_distributed_6/conv2d_1/Conv2D;model/time_distributed_6/conv2d_1/BiasAdd/ReadVariableOp/resource f2 [16]
0.0854 0.091 0.0823 -0.0827 0.0002027 0.05566 0.009415 0.07416
-0.0226 0.0216 0.013016 0.02841 0.0451 0.06204 0.01611 0.05957
00000000: 772d d32d 442d 4bad a40a 202b d220 bf2c
00000010: c9a5 8825 aa22 4627 c629 f12b 2024 a02b

model/time_distributed/conv2d/BiasAdd;model/time_distributed/conv2d/Conv2D;model/time_distributed/conv2d/BiasAdd/ReadVariableOp/resource f2 [8]
-0.1278 -0.04337 -0.05386 -0.04953 -0.04803 -0.0833 -0.0806 -0.05347
00000000: 17b0 8da9 e5aa 57aa 26aa 55ad 29ad d8aa

model/time_distributed_6/conv2d_1/Conv2D f2 [16, 3, 3, 1]
0.04037 0.04092 -0.07263 0.006786 0.02264 -0.04025 -0.0601 0.04556
0.01613 -0.0172 0.0906 -0.0756 -0.07996 0.192 -0.10205 0.00498
-0.127 0.1157 0.07886 -0.204 0.1323 0.0388 0.0432 -0.098
-0.02962 0.02696 -0.002747 0.02132 0.05014 -0.05814 0.01599 -0.003077
-0.010994 0.01203 -0.02873 0.0006065 0.00887 -0.16 0.1432 -0.01449
0.05222 -0.04755 -0.02809 0.05585 -0.01335 0.1343 -0.0784 -0.0495
-0.05368 -0.05374 0.10364 0.02608 0.03842 -0.05063 0.05817 -0.12256
0.0784 0.005844 0.0753 -0.0879 0.004612 0.0538 -0.03696 -0.08997
0.0858 -0.01346 0.04578 -0.0582 0.02069 -0.0763 0.0392 0.02156
-0.00909 0.00958 0.0005193 0.05054 -0.10803 0.06247 0.10547 -0.1829
0.0711 0.0522 -0.09863 0.04446 0.01901 0.02985 -0.0612 0.01901
-0.003656 -0.01959 -0.0897 0.1807 -0.08905 -0.003302 0.0652 -0.0749
-0.04492 0.1432 -0.09094 -0.05997 0.2202 -0.1631 -0.1494 0.11475
0.02763 0.1235 -0.1677 0.04733 -0.0838 0.1888 -0.1015 -0.0946
0.1526 -0.0739 -0.08905 0.212 -0.13 -0.01982 0.0904 -0.0724
0.001762 -0.14 0.1199 -0.00753 0.03842 -0.01075 -0.01653 -0.01677
0.02228 -0.0273 -0.02986 0.05432 0.0757 -0.1422 0.06506 0.004395
-0.01994 0.01624 -0.009415 0.02202 -0.002499 0.0796 -0.0731 -0.02435
00000000: 2b29 3d29 a6ac f31e cc25 27a9 b1ab d529
00000010: 2124 67a4 cc2d d7ac 1ead 2532 88ae 191d
00000020: 10b0 682f 0c2d 87b2 3c30 f728 8829 46ae
00000030: 95a7 e726 a099 7525 6b2a 71ab 1824 4d9a
00000040: a1a1 2922 5ba7 f810 8b20 1fb1 9530 6ba3
00000050: af2a 16aa 31a7 262b d6a2 4c30 05ad 56aa
00000060: dfaa e1aa a22e ad26 eb28 7baa 722b d8af
00000070: 052d fc1d d22c a0ad b91c e32a bba8 c2ad
00000080: 7e2d e4a2 dc29 73ab 4c25 e2ac 0529 8525
00000090: a7a0 e820 4110 782a eaae ff2b c02e dab1
000000a0: 8d2c ae2a 50ae b129 de24 a427 d5ab de24
000000b0: 7d9b 04a5 bead c831 b3ad c39a 2c2c cbac
000000c0: c0a9 9530 d2ad adab 0c33 38b1 c8b0 582f
000000d0: 1327 e72f 5eb1 0f2a 5dad 0b32 7fae 0eae
000000e0: e230 bbac b3ad c932 29b0 13a5 c92d a2ac
000000f0: 3817 7bb0 ac2f b69f eb28 81a1 3ba4 4ba4
00000100: b425 fda6 a5a7 f42a d82c 8db0 2a2c 801c
00000110: 1ba5 2824 d2a0 a325 1e99 182d aeac 3ca6

model/time_distributed/conv2d/Conv2D f2 [8, 3, 3, 1]
0.0054 -0.006607 -0.003376 -0.003574 -0.01315 0.005634 0.001092 -0.01502
-0.004696 0.011024 -0.02219 0.002625 -0.005306 -0.006763 0.01907 0.00758
-0.002554 0.002602 -0.00194 -0.002274 0.0106 -0.004204 -0.00381 -0.002771
0.0056 -0.002203 -0.02446 -0.005745 0.01651 0.001352 -0.0006237 -0.02675
-0.0136 0.004574 0.004528 -0.002563 -0.007153 -0.000924 0.01685 -0.00559
-0.01923 -0.010544 0.005184 -0.006443 0.002827 -0.00988 0.002054 -0.001009
-0.002491 -0.00857 0.001013 0.02554 0.00833 0.008286 0.004517 0.014786
-0.00993 -0.003202 -0.001478 0.01182 -0.02147 -0.01438 -0.01183 0.004032
0.001923 -0.007336 -0.00823 -0.010056 0.03375 -0.006237 -0.006634 -0.001141
00000000: 881d c49e ea9a 529b bca2 c51d 7914 b1a3
00000010: cf9c a521 aea5 6019 6f9d ed9e e224 c31f
00000020: 3b99 5419 f297 a898 6d21 4e9c ce9b ad99
00000030: bc1d 8398 43a6 e29d 3a24 8a15 1c91 d9a6
00000040: f7a2 af1c a31c 4099 539f 9293 5024 b99d
00000050: eca4 66a1 4f1d 999e ca19 0fa1 3518 2294
00000060: 1a99 63a0 2614 8a26 4420 3e20 a01c 9223
00000070: 16a1 8f9a 0e96 0d22 7fa5 5da3 0fa2 211c
00000080: e017 839f 37a0 26a1 5228 639e cb9e ac94

model/lstm/TensorArrayV2_1 f2 [120, 1, 32]
0.0 0.0 0.0 0.0 0.0 0.0 0.0 0.0
0.0 0.0 0.0 0.0 0.0 0.0 0.0 0.0
0.0 0.0 0.0 0.0 0.0 0.0 0.0 0.0
0.0 0.0 0.0 0.0 0.0 0.0 0.0 0.0
0.0 0.0 0.0 0.0 0.0 0.0 0.0 0.0
0.0 0.0 0.0 0.0 0.0 0.0 0.0 0.0
0.0 0.0 0.0 0.0 0.0 0.0 0.0 0.0
0.0 0.0 0.0 0.0 0.0 0.0 0.0 0.0
0.0 0.0 0.0 0.0 0.0 0.0 0.0 0.0
0.0 0.0 0.0 0.0 0.0 0.0 0.0 0.0
0.0 0.0 0.0 0.0 0.0 0.0 0.0 0.0
0.0 0.0 0.0 0.0 0.0 0.0 0.0 0.0
0.0 0.0 0.0 0.0 0.0 0.0 0.0 0.0
0.0 0.0 0.0 0.0 0.0 0.0 0.0 0.0
0.0 0.0 0.0 0.0 0.0 0.0 0.0 0.0
0.0 0.0 0.0 0.0 0.0 0.0 0.0 0.0
0.0 0.0 0.0 0.0 0.0 0.0 0.0 0.0
0.0 0.0 0.0 0.0 0.0 0.0 0.0 0.0
0.0 0.0 0.0 0.0 0.0 0.0 0.0 0.0
0.0 0.0 0.0 0.0 0.0 0.0 0.0 0.0
0.0 0.0 0.0 0.0 0.0 0.0 0.0 0.0
0.0 0.0 0.0 0.0 0.0 0.0 0.0 0.0
0.0 0.0 0.0 0.0 0.0 0.0 0.0 0.0
0.0 0.0 0.0 0.0 0.0 0.0 0.0 0.0
0.0 0.0 0.0 0.0 0.0 0.0 0.0 0.0
0.0 0.0 0.0 0.0 0.0 0.0 0.0 0.0
0.0 0.0 0.0 0.0 0.0 0.0 0.0 0.0
0.0 0.0 0.0 0.0 0.0 0.0 0.0 0.0
0.0 0.0 0.0 0.0 0.0 0.0 0.0 0.0
0.0 0.0 0.0 0.0 0.0 0.0 0.0 0.0
0.0 0.0 0.0 0.0 0.0 0.0 0.0 0.0
0.0 0.0 0.0 0.0 0.0 0.0 0.0 0.0
00000000: 0000 0000 0000 0000 0000 0000 0000 0000
00000010: 0000 0000 0000 0000 0000 0000 0000 0000
00000020: 0000 0000 0000 0000 0000 0000 0000 0000
00000030: 0000 0000 0000 0000 0000 0000 0000 0000
00000040: 0000 0000 0000 0000 0000 0000 0000 0000
00000050: 0000 0000 0000 0000 0000 0000 0000 0000
00000060: 0000 0000 0000 0000 0000 0000 0000 0000
00000070: 0000 0000 0000 0000 0000 0000 0000 0000
00000080: 0000 0000 0000 0000 0000 0000 0000 0000
00000090: 0000 0000 0000 0000 0000 0000 0000 0000
000000a0: 0000 0000 0000 0000 0000 0000 0000 0000
000000b0: 0000 0000 0000 0000 0000 0000 0000 0000
000000c0: 0000 0000 0000 0000 0000 0000 0000 0000
000000d0: 0000 0000 0000 0000 0000 0000 0000 0000
000000e0: 0000 0000 0000 0000 0000 0000 0000 0000
000000f0: 0000 0000 0000 0000 0000 0000 0000 0000
00000100: 0000 0000 0000 0000 0000 0000 0000 0000
00000110: 0000 0000 0000 0000 0000 0000 0000 0000
00000120: 0000 0000 0000 0000 0000 0000 0000 0000
00000130: 0000 0000 0000 0000 0000 0000 0000 0000
00000140: 0000 0000 0000 0000 0000 0000 0000 0000
00000150: 0000 0000 0000 0000 0000 0000 0000 0000
00000160: 0000 0000 0000 0000 0000 0000 0000 0000
00000170: 0000 0000 0000 0000 0000 0000 0000 0000
00000180: 0000 0000 0000 0000 0000 0000 0000 0000
00000190: 0000 0000 0000 0000 0000 0000 0000 0000
000001a0: 0000 0000 0000 0000 0000 0000 0000 0000
000001b0: 0000 0000 0000 0000 0000 0000 0000 0000
000001c0: 0000 0000 0000 0000 0000 0000 0000 0000
000001d0: 0000 0000 0000 0000 0000 0000 0000 0000
000001e0: 0000 0000 0000 0000 0000 0000 0000 0000
000001f0: 0000 0000 0000 0000 0000 0000 0000 0000

model/dense_2/BiasAdd/ReadVariableOp/resource f2 [256]
0.0424 0.0192 0.0667 0.09845 0.0574 0.06323 0.03543 0.03885
0.06366 0.0464 0.1268 0.079 0.10333 0.001104 -0.0004542 0.04913
0.02557 0.0237 0.07697 0.0525 0.07153 0.0866 0.05087 0.072
0.1346 0.04587 0.07245 0.144 0.0722 0.1255 0.04373 0.01865
0.1393 0.08044 0.05502 0.07806 0.11096 0.06903 -0.0295 0.05936
0.02283 0.0588 0.07623 0.0863 0.0974 0.1317 0.11316 0.02493
0.1171 0.04953 0.1138 0.06934 0.0925 0.0557 0.00898 0.000322
0.1043 0.08594 0.1006 0.05426 0.0554 0.0864 0.0678 0.08655
0.0967 -0.010216 0.06946 0.0907 0.0766 0.1068 0.07513 0.1206
0.05484 0.001032 0.0138 0.0496 0.07434 0.06232 0.02481 0.07477
0.06323 0.11804 0.0964 0.1075 0.03894 0.0631 0.1494 0.10785
0.02628 0.0193 0.0831 0.002495 0.007683 0.02513 0.10583 0.0911
0.07526 0.0658 0.1224 0.0166 0.03836 0.03275 0.05933 0.06616
0.1073 0.07794 0.0605 0.11237 0.0815 0.007904 0.0715 0.03876
0.0741 0.0315 0.1405 0.0316 0.06107 0.1287 0.01244 0.03177
0.05307 0.0396 0.08154 0.06665 0.04034 0.08844 0.01697 0.07416
0.07495 0.1098 0.0626 0.06073 0.04538 0.1085 0.04538 0.0874
0.03772 0.05045 0.07416 0.0779 0.05045 0.0849 0.06805 0.00977
0.1031 0.002008 0.1061 0.01204 0.1058 0.05478 0.1178 0.0937
0.04205 0.07983 0.1099 0.03595 0.0645 0.00985 0.05014 0.05878
0.01402 0.0815 0.0497 0.071 0.0463 0.0517 0.0518 0.0644
0.03656 0.0925 0.08887 0.06354 0.0659 0.1461 0.1721 0.07635
0.05087 0.015305 0.10364 0.0753 0.0925 0.1995 0.0673 -0.001331
-0.01242 0.04608 0.1122 0.05072 0.0903 0.06158 0.0645 0.0807
0.01924 0.05643 0.05106 0.1015 0.05417 0.0368 0.1002 0.1193
0.03976 0.0764 0.00624 0.06415 0.0392 0.07294 0.03867 0.086
0.02635 0.1106 0.1268 0.0549 0.02171 0.0651 0.04456 0.0834
0.11127 0.07465 0.05142 0.00891 0.03354 0.0919 0.1051 0.0683
0.1422 0.0429 0.07007 0.009346 0.0684 0.10547 0.0847 0.10254
0.0347 0.08356 0.0803 0.0498 0.01313 0.0354 0.1134 0.06885
0.01591 0.0614 0.1442 0.1328 0.04813 0.122 0.04654 0.0793
0.04535 -0.03026 0.05646 0.10406 0.1034 0.0752 0.003145 0.07196
00000000: 6d29 ea24 452c 4d2e 592b 0c2c 8928 f928
00000010: 132c f029 0f30 0e2d 9d2e 8614 718f 4a2a
00000020: 8c26 1126 ed2c b82a 942c 8b2d 832a 9c2c
00000030: 4f30 df29 a32c 9c30 9f2c 0430 9929 c624
00000040: 7530 262d 0b2b ff2c 1a2f 6b2c 8da7 992b
00000050: d825 872b e12c 862d 3c2e 3730 3e2f 6226
00000060: 7f2f 572a 482f 702c ec2d 212b 9920 470d
00000070: ad2e 802d 702e f22a 172b 882d 572c 8a2d
00000080: 302e 3ba1 722c ce2d e72c d62e cf2c b82f
00000090: 052b 3a14 1123 592a c22c fa2b 5a26 c92c
000000a0: 0c2c 8e2f 2b2e e12e fc28 0a2c c830 e72e
000000b0: ba26 f124 522d 1c19 de1f 6f26 c62e d52d
000000c0: d12c 362c d52f 4024 e928 3128 982b 3c2c
000000d0: de2e fd2c be2b 312f 372d 0c20 932c f628
000000e0: be2c 0828 7f30 0b28 d12b 1e30 5f22 1128
000000f0: cb2a 1229 382d 442c 2a29 a92d 5824 bf2c
00000100: cc2c 072f 022c c62b cf29 f22e cf29 982d
00000110: d428 752a bf2c fc2c 752a 6f2d 5b2c 0121
00000120: 992e 1d18 ca2e 2a22 c52e 032b 8a2f ff2d
00000130: 6229 1c2d 092f 9a28 212c 0b21 6b2a 862b
00000140: 2e23 372d 5d2a 8b2c ed29 9e2a a12a 1f2c
00000150: ae28 ec2d b02d 112c 382c ad30 8231 e32c
00000160: 832a d623 a22e d22c ec2d 6232 4f2c 7495
00000170: 5ca2 e629 2e2f 7e2a c72d e22b 212c 2a2d
00000180: ed24 392b 892a 7f2e ef2a b628 6a2e a32f
00000190: 1729 e42c 641e 1b2c 0529 ab2c f328 812d
000001a0: bf26 142f 0f30 072b 8f25 2b2c b429 562d
000001b0: 1f2f c72c 952a 9020 4b28 e22d ba2e 5f2c
000001c0: 8d30 7e29 7c2c c920 612c c02e 6c2d 902e
000001d0: 7128 592d 242d 602a b922 8828 422f 682c
000001e0: 1324 dc2b 9d30 4030 292a cf2f f529 132d
000001f0: ce29 bfa7 3a2b a92e 9e2e d02c 711a 9b2c

model/last_layer/BiasAdd/ReadVariableOp/resource f2 [31]
0.01252 -0.008675 -0.01726 -0.003752 -0.02396 -0.02734 0.02168 -0.00807
-0.03552 -0.01188 0.01139 0.02939 -0.02782 0.01614 0.00514 0.01414
-0.0004241 0.0051 0.0001526 0.00919 0.02005 0.02289 0.03038 0.02792
0.002165 -0.03964 -0.003796 -0.03766 0.005756 -0.01488 -0.03195
00000000: 6922 71a0 6ba4 af9b 22a6 00a7 8d25 22a0
00000010: 8ca8 15a2 d521 8627 1fa7 2224 431d 3d23
00000020: f38e 391d 0009 b520 2225 dc25 c727 2627
00000030: 6f18 13a9 c69b d2a8 e51d 9ea3 17a8

model/time_distributed_11/dense_1/BiasAdd/ReadVariableOp/resource f2 [64]
-0.0205 -0.0439 -0.05124 0.003813 -0.06015 -0.0358 -0.04422 -0.0364
-0.03662 -0.0682 -0.02342 -0.07715 -0.01343 0.01171 -0.00802 -0.07
-0.03738 0.01077 -0.03348 -0.02396 0.01391 -0.007004 -0.02306 0.00114
0.002922 -0.03217 -0.007267 -0.01479 -0.0686 0.000787 -0.03366 -0.01001
-0.003687 -0.04092 0.00558 -0.0553 0.03146 -0.03123 -0.02191 -0.02902
-0.03735 -0.01764 0.004967 -0.02556 -0.02895 -0.0206 -0.00439 -0.01881
-0.03018 -0.04614 -0.0657 -0.03085 -0.002596 -0.000944 -0.02039 -0.03152
-0.006054 -0.00774 -0.0208 -0.03108 -0.006428 -0.0013895 -0.01636 -0.02144
00000000: 3fa5 9fa9 8faa cf1b b3ab 95a8 a9a9 a9a8
00000010: b0a8 5dac ffa5 f0ac e0a2 ff21 1ba0 7bac
00000020: c9a8 8421 49a8 22a6 1f23 2c9f e7a5 ab14
00000030: fc19 1ea8 719f 93a3 64ac 7212 4fa8 20a1
00000040: 8d9b 3da9 b71d 14ab 0728 ffa7 9ca5 6ea7
00000050: c8a8 84a4 161d 8ba6 69a7 46a5 7f9c d1a4
00000060: baa7 e8a9 34ac e6a7 5199 bc93 38a5 09a8
00000070: 339e ed9f 53a5 f5a7 959e b195 30a4 7da5

model/time_distributed_5/dense/BiasAdd/ReadVariableOp/resource f2 [32]
-0.05383 0.0007787 -0.02557 -0.04535 -0.0255 0.003342 -0.045 0.0449
0.0996 -0.07556 0.067 -0.0201 -0.03625 0.0599 -0.000994 -0.04688
0.05954 -0.04138 -0.02539 -0.0383 -0.04474 -0.01799 0.07715 0.02069
-0.02156 -0.0734 0.1097 -0.03418 0.03072 0.0641 -0.0641 0.02638
00000000: e4aa 6112 8ca6 cea9 87a6 d81a c3a9 bf29
00000010: 602e d6ac 4a2c 25a5 a4a8 ab2b 1294 00aa
00000020: 9f2b 4ca9 80a6 e7a8 baa9 9ba4 f02c 4c25
00000030: 85a5 b3ac 052f 60a8 dd27 1a2c 1aac c126

model/dense_2/MatMul f2 [256, 32]
0.04193 0.08997 0.11456 0.2281 0.1969 -0.1353 -0.12274 0.1292
-0.07794 -0.02185 0.1104 0.0844 0.1154 0.0969 -0.229 0.0649
0.0407 -0.0964 0.06647 -0.1632 -0.06125 0.1361 -0.1207 -0.001338
-0.0906 0.0826 0.1915 0.1978 -0.1625 0.1833 -0.1494 0.0654
-0.1364 0.1549 -0.171 0.0911 0.1442 -0.1073 0.1069 0.362
-0.2201 -0.0788 -0.1072 -0.03516 0.1528 -0.003273 0.00376 -0.09814
-0.041 0.08234 0.2225 0.12213 0.0956 -0.2944 0.1727 0.04623
-0.311 -0.2375 0.03397 -0.2786 0.08484 -0.2563 -0.03906 -0.261
0.0639 0.01202 0.2686 -0.2422 0.03784 -0.1324 0.0444 0.01923
-0.2764 0.03302 0.1115 0.002977 0.2174 0.003847 -0.2644 0.2727
-0.1152 0.3757 0.3242 -0.02534 0.04288 0.0997 -0.1643 -0.1498
0.02695 -0.05807 0.02779 0.10046 -0.1187 -0.02666 0.1214 0.001431
-0.08014 0.1477 -0.03108 -0.02701 -0.1461 0.07214 -0.1786 -0.06146
-0.1074 -0.1276 0.2085 -0.0673 0.0218 0.0696 0.2686 -0.04807
0.01452 -0.00308 0.156 0.167 -0.07007 -0.1231 -0.1296 -0.0674
-0.1918 0.11633 -0.0939 0.3965 0.003967 0.0694 -0.3818 0.2413
0.06915 0.1157 0.004356 -0.105 -0.2487 -0.122 -0.03424 0.1877
-0.12384 -0.1459 0.1559 0.04138 0.11316 0.0824 0.2532 0.09924
0.06555 -0.1599 -0.1351 -0.03894 0.0653 -0.0697 0.01249 -0.2185
0.196 0.2018 -0.2878 0.3171 0.0294 -0.0243 -0.05783 -0.2136
0.3 -0.0935 -0.1696 0.0006623 0.05383 -0.10846 -0.02025 0.0831
0.2006 -0.05353 0.07806 -0.0449 0.1646 0.04657 -0.1062 0.2476
0.04727 0.02249 0.2101 -0.1313 0.01938 0.2484 -0.157 0.3135
-0.198 0.00884 0.0713 0.5156 -0.04453 0.0693 0.011215 0.2957
0.0387 0.08185 -0.1638 0.01431 0.1292 -0.013885 0.1455 0.0474
0.1775 0.175 -0.1906 -0.0937 -0.01563 -0.1929 0.0735 -0.03802
-0.04575 -0.02553 -0.1399 -0.04703 0.0807 0.2345 0.1344 0.209
-0.06012 0.00439 0.187 0.2505 0.2888 -0.1214 0.0923 -0.1294
0.02126 0.07715 0.04047 -0.1195 -0.01701 -0.193 -0.273 0.2161
-0.1365 0.0781 0.09796 0.1385 0.0836 0.002008 0.07733 -0.002632
-0.1076 0.1256 0.1377 0.02032 0.05527 -0.02275 -0.2195 -0.1611
-0.0756 0.1081 -0.1417 -0.10065 -0.2185 -0.0775 0.097 -0.1157
00000000: 5e29 c22d 552f 4d33 4d32 54b0 dbaf 2230
00000010: fdac 98a5 112f 672d 632f 342e 54b3 272c
00000020: 3629 2bae 412c 39b1 d7ab 5b30 baaf 7b95
00000030: ccad 492d 2132 5432 33b1 de31 c8b0 302c
00000040: 5db0 f530 79b1 d52d 9d30 deae d72e cb35
00000050: 0bb3 0bad dcae 80a8 e430 b49a b31b 48ae
00000060: 3fa9 452d 1f33 d12f 1e2e b6b4 8731 eb29
00000070: fab4 9ab3 5928 75b4 6e2d 1ab4 00a9 2db4
00000080: 172c 2722 4c34 c0b3 d828 3db0 af29 ec24
00000090: 6cb4 3a28 232f 191a f532 e11b 3bb4 5d34
000000a0: 5faf 0336 3035 7da6 7d29 612e 42b1 cbb0
000000b0: e626 6fab 1d27 6e2e 99af d3a6 c52f dd15
000000c0: 21ad ba30 f5a7 eaa6 adb0 9e2c b7b1 deab
000000d0: e0ae 15b0 ac32 4fac 9525 742c 4c34 27aa
000000e0: 6f23 4f9a fe30 5831 7cac e1af 26b0 50ac
000000f0: 23b2 722f 02ae 5836 101c 712c 1cb6 b933
00000100: 6d2c 682f 761c b8ae f5b3 cfaf 62a8 0232
00000110: edaf abb0 fd30 4c29 3e2f 462d 0d34 5a2e
00000120: 322c 1eb1 53b0 fca8 2e2c 76ac 6522 feb2
00000130: 4632 7532 9bb4 1335 8727 39a6 67ab d6b2
00000140: cd34 fcad 6db1 6d11 e42a f1ae 2fa5 522d
00000150: 6b32 daaa ff2c bfa9 4431 f629 ccae ec33
00000160: 0d2a c225 b932 34b0 f624 f333 06b1 0435
00000170: 56b2 8720 902c 2038 b3a9 6f2c be21 bb34
00000180: f428 3d2d 3eb1 5423 2230 1ca3 a830 112a
00000190: ae31 9a31 19b2 ffad 00a4 2cb2 b42c dea8
000001a0: dba9 89a6 7ab0 05aa 2a2d 8133 4d30 b032
000001b0: b2ab 7f1c fc31 0234 9f34 c5af e82d 24b0
000001c0: 7125 f02c 2e29 a6af 5ba4 2db2 5eb4 ea32
000001d0: 5eb0 002d 452e 6f30 5a2d 1d18 f32c 6499
000001e0: e3ae 0530 6830 3425 132b d3a5 06b3 28b1
000001f0: d7ac eb2e 89b0 71ae feb2 f6ac 352e 68af

model/last_layer/MatMul f2 [31, 256]
-0.131 -0.1151 -0.05457 -0.0978 0.013405 0.1051 -0.01569 -0.0814
0.1055 -0.02786 -0.0409 0.03687 0.06073 0.01359 0.1338 0.10754
0.03174 0.122 0.0023 0.09174 -0.2391 -0.10565 0.06604 0.02032
0.0421 -0.07086 0.10974 0.08997 0.1548 -0.1115 0.10675 0.04126
0.06494 -0.08704 -0.05518 -0.13 0.12054 0.0933 -0.1648 -0.02988
-0.006897 0.03665 0.0617 -0.1786 0.1882 0.07324 0.0084 -0.00505
0.03952 -0.1967 -0.0973 0.05368 -0.3167 -0.001774 0.0883 -0.1305
-0.09924 -0.04153 -0.1458 0.07196 0.1152 0.0697 -0.04916 -0.03796
-0.01807 -0.0879 -0.0501 0.1548 -0.04514 0.002762 -0.03427 -0.0357
0.01449 -0.0412 -0.1667 -0.1099 -0.2028 -0.1672 -0.00916 -0.04663
-0.03964 -0.09576 -0.0851 -0.2952 0.06165 0.00977 -0.03903 -0.0188
-0.0919 -0.07666 0.02722 -0.1111 0.1016 0.0317 0.0466 0.0372
-0.02812 -0.2115 -0.02232 0.0124 -0.06335 -0.02763 0.0581 -0.033
0.05887 0.0897 -0.178 -0.2057 0.03845 -0.06012 -0.04465 -0.0663
-0.09827 -0.07355 0.08905 -0.00786 -0.0735 0.0787 -0.09717 -0.0877
0.0394 0.01182 0.0336 0.00869 -0.2051 -0.1891 -0.00971 -0.1399
-0.1262 0.0082 -0.1543 -0.05136 0.003428 -0.1159 0.0391 -0.1113
0.00408 -0.0997 -0.05432 -0.1196 -0.0893 -0.1932 -0.0932 -0.08856
0.00484 -0.01869 -0.2366 -0.04736 -0.266 -0.04337 -0.142 -0.05872
-0.0718 0.05988 -0.2388 -0.1442 -0.06995 0.0933 -0.005657 0.01816
-0.0695 -0.0324 -0.133 -0.02347 0.0163 -0.0971 -0.09705 0.01534
-0.1343 0.1012 0.146 0.0453 -0.0438 -0.2783 -0.00948 0.0775
-0.1117 -0.12256 -0.1368 -0.2998 0.1504 -0.2766 0.01194 -0.1802
-0.2296 0.07654 0.0334 -0.044 -0.03784 -0.03995 0.03714 0.07477
-0.036 -0.2402 -0.0004992 0.0703 0.033 -0.01484 -0.05518 -0.1143
0.2144 -0.1 0.03473 0.05945 -0.06174 -0.0514 -0.1399 0.093
-0.05438 -0.02328 -0.2076 -0.1846 -0.1337 0.0715 -0.06247 0.05664
0.06555 -0.1686 -0.07495 -0.073 -0.11523 -0.0837 -0.1459 -0.2385
-0.07965 0.02328 -0.054 -0.04312 0.00254 0.0954 -0.1001 0.2366
0.0521 0.1577 0.01454 0.01826 -0.03262 -0.00808 0.05698 -0.00938
-0.1304 -0.135 0.1864 0.001965 -0.0898 0.05713 -0.00208 0.02147
-0.006355 -0.02623 0.07733 -0.08685 0.065 -0.000843 -0.01146 -0.1598
00000000: 31b0 5eaf fcaa 42ae dd22 ba2e 04a4 36ad
00000010: c12e 22a7 3ca9 b828 c62b f522 4830 e22e
00000020: 1028 cf2f b618 df2d a7b3 c3ae 3a2c 3425
00000030: 6429 89ac 062f c22d f430 23af d52e 4829
00000040: 282c 92ad 10ab 29b0 b72f f92d 46b1 a6a7
00000050: 109f b128 e62b b7b1 0632 b02c 4d20 2c9d
00000060: 0f29 4bb2 3aae df2a 11b5 4497 a72d 2db0
00000070: 5aae 51a9 aab0 9b2c 5f2f 762c 4baa dca8
00000080: a0a4 a0ad 6aaa f430 c7a9 a819 63a8 92a8
00000090: 6b23 46a9 56b1 09af 7db2 5ab1 b1a0 f8a9
000000a0: 13a9 21ae 72ad b9b4 e42b 0121 ffa8 d0a4
000000b0: e2ad e8ac f826 1caf 812e 0f28 f729 c328
000000c0: 33a7 c5b2 b7a5 5922 0eac 13a7 702b 39a8
000000d0: 892b be2d b2b1 95b2 ec28 b2ab b7a9 3eac
000000e0: 4aae b5ac b32d 06a0 b4ac 092d 38ae 9dad
000000f0: 0b29 0d22 4d28 7320 90b2 0db2 f9a0 7ab0
00000100: 0ab0 3320 f0b0 93aa 051b 6baf 0129 20af
00000110: 2e1c 61ae f4aa a8af b7ad 2fb2 f7ad abad
00000120: f51c c9a4 92b3 10aa 42b4 8da9 8bb0 84ab
00000130: 98ac aa2b a4b3 9db0 7aac f92d cb9d a624
00000140: 73ac 26a8 42b0 02a6 2c24 37ae 36ae db23
00000150: 4cb0 7a2e ac30 cc29 9ba9 74b4 dba0 f62c
00000160: 26af d8af 61b0 ccb4 d030 6db4 1d22 c4b1
00000170: 59b3 e62c 4628 a2a9 d8a8 1da9 c128 c92c
00000180: 9ca8 b0b3 1790 802c 3928 99a3 10ab 51af
00000190: dc32 66ae 7228 9c2b e7ab 94aa 7ab0 f42d
000001a0: f6aa f6a5 a5b2 e8b1 47b0 932c ffab 402b
000001b0: 322c 65b1 ccac acac 60af 5bad abb0 a2b3
000001c0: 19ad f625 e9aa 85a9 3419 1b2e 68ae 9233
000001d0: ab2a 0c31 7223 ad24 2da8 23a0 4b2b cda0
000001e0: 2cb0 52b0 f731 0618 bfad 502b 4398 7f25
000001f0: 829e b7a6 f32c 8fad 292c e892 dea1 1db1

model/time_distributed_11/dense_1/MatMul f2 [64, 1488]
0.01563 0.0457 0.014725 0.00987 0.02742 0.05182 0.01564 0.0514
0.0767 -0.04 0.05774 0.006927 0.04956 -0.02336 -0.004314 -0.01628
-0.01078 0.05414 -0.02684 0.0089 -0.05026 -0.01828 0.009995 0.0335
-0.0424 -0.04135 0.03223 -0.01563 -0.02826 -0.01697 0.0853 0.01831
-0.0197 0.00488 -0.0755 -0.0588 -0.00254 -0.04446 0.03168 0.07385
0.02841 -0.02222 -0.01985 -0.007553 -0.0229 -0.0118 0.0424 0.0341
-0.04758 -0.1038 -0.07623 0.01442 0.04547 0.03918 -0.02594 -0.010544
0.0003645 0.001633 0.0564 -0.06226 -0.03363 0.06128 0.0454 -0.02327
0.015495 -0.01556 -0.06213 0.05936 0.0531 0.0298 -0.03476 -0.00705
0.02469 -0.05945 0.0666 0.0187 0.0621 0.05725 0.0754 -0.0442
-0.02086 0.01605 0.02583 -0.03452 -0.00631 -0.0775 -0.04025 0.0584
-0.005962 0.001747 0.01043 0.00632 -0.0419 -0.02573 -0.00995 -0.07745
0.05286 -0.0419 -0.01114 0.0168 -0.06168 0.03226 -0.07227 -0.05185
-0.0689 -0.0713 -0.0238 -0.0424 -0.04868 0.023 -0.0687 -0.02884
-0.00921 0.04077 -0.03021 0.0308 -0.0492 -0.02847 0.0397 0.021
-0.0711 -0.0651 0.03635 -0.0913 -0.0577 -0.05063 0.001701 -0.05023
0.065 0.0404 0.01492 -0.03665 -0.01816 -0.04175 0.0641 0.004177
-0.0698 0.0244 -0.006485 -0.07794 0.045 -0.001186 -0.0686 0.03717
-0.0341 0.01982 -0.00802 -0.03284 -0.02782 -0.03812 0.08417 0.02852
-0.06775 -0.01694 0.0779 0.004265 -0.02429 -0.05972 0.00635 0.0171
-0.005352 0.03903 0.08026 -0.006832 0.0519 -0.0173 0.0847 -0.02673
-0.005615 0.02324 0.06506 0.02135 -0.0271 0.0495 0.03125 0.01868
-0.02927 -0.05557 -0.00618 -0.04233 0.04086 0.05127 0.0324 0.001456
0.003895 0.01185 0.04025 -0.04736 0.02992 0.0427 0.03265 0.0008554
0.014755 -0.005726 0.04535 0.0422 0.02162 -0.01541 0.04703 -0.003363
-0.01625 -0.000413 0.03867 -0.001543 0.0942 -0.01906 0.0514 0.03415
-0.01909 -0.04962 0.02924 -0.02956 0.02312 0.0689 0.0304 -0.05478
0.04794 -0.01312 -0.04224 0.0396 0.05505 -0.03976 0.01988 -0.0004284
0.01707 -0.05032 -0.04266 0.0621 -0.04318 0.0657 -0.01099 -0.0676
0.0446 0.05002 -0.000786 0.01311 0.03995 -0.00525 0.07996 -0.010445
-0.01506 -0.004147 -0.00614 0.02745 0.04205 -0.03038 -0.03418 0.00835
-0.04184 0.07983 -0.03156 -0.07153 0.00894 -0.0365 0.0682 0.02638
00000000: 0024 d929 8a23 0e21 0527 a22a 0124 942a
00000010: e92c 1fa9 642b 181f 582a fba5 6b9c 2ba4
00000020: 85a1 ee2a dfa6 8f20 6faa aea4 1e21 4a28
00000030: 6da9 4ba9 2028 00a4 3ca7 58a4 762d b024
00000040: 0ba5 ff1c d5ac 87ab 3499 b1a9 0e28 ba2c
00000050: 4627 b0a5 15a5 bc9f dda5 0ba2 6d29 5d28
00000060: 17aa a5ae e1ac 6223 d229 0429 a4a6 66a1
00000070: f90d b016 382b f8ab 4ea8 d82b d029 f5a5
00000080: ef23 f7a3 f4ab 992b cc2a a127 73a8 389f
00000090: 5226 9cab 432c ca24 f32b 542b d32c a8a9
000000a0: 57a5 1c24 9d26 6ba8 769e f6ac 27a9 7a2b
000000b0: 1b9e 2817 5721 791e 5da9 96a6 18a1 f5ac
000000c0: c42a 5da9 b4a1 4d24 e5ab 2128 a0ac a3aa
000000d0: 69ac 90ac 18a6 6da9 3baa e325 66ac 62a7
000000e0: b7a0 3829 bca7 e327 4caa 4aa7 1529 6025
000000f0: 8dac 2bac a728 d8ad 63ab 7baa f816 6eaa
00000100: 292c 2c29 a423 b1a8 a6a4 58a9 1a2c 471c
00000110: 78ac 3f26 a49e fdac c329 dc94 64ac c228
00000120: 5da8 1325 1ba0 34a8 1fa7 e1a8 632d 4d27
00000130: 56ac 56a4 fc2c 5e1c 38a6 a5ab 811e 6124
00000140: 7b9d ff28 232d ff9e a52a 6ea4 6c2d d8a6
00000150: c09d f325 2a2c 7725 f0a6 562a 0028 c824
00000160: 7ea7 1dab 549e 6ba9 3b29 902a 2628 f715
00000170: fa1b 1122 2729 10aa a927 7729 2e28 0213
00000180: 8e23 dd9d ce29 6729 8925 e4a3 052a e39a
00000190: 29a4 c48e f328 5296 072e e1a4 942a 5f28
000001a0: e3a4 5aaa 7c27 91a7 eb25 692c c827 03ab
000001b0: 232a b8a2 68a9 1229 0c2b 17a9 1725 058f
000001c0: 5f24 71aa 76a9 f32b 87a9 342c a0a1 54ac
000001d0: b529 672a 7092 b622 1d29 609d 1e2d 59a1
000001e0: b6a3 3f9c 4a9e 0727 6229 c7a7 60a8 4620
000001f0: 5ba9 1c2d 0aa8 94ac 9420 aca8 5d2c c126

model/time_distributed_3/batch_normalization/FusedBatchNormV3 f2 [8]
-1.013 -1.198 -1.044 -1.287 -1.209 -1.092 -1.185 -1.272
00000000: 0dbc cbbc 2dbc 26bd d6bc 5ebc bdbc 17bd

model/time_distributed_3/batch_normalization/FusedBatchNormV31 f2 [8]
0.8545 0.8184 0.848 0.8726 0.8984 0.912 0.8013 0.8154
00000000: d63a 8c3a c93a fb3a 303b 4c3b 693a 863a

model/time_distributed_5/dense/MatMul f2 [32, 168]
0.191 0.0977 0.02115 -0.12164 0.11957 -0.04547 0.08875 0.198
0.0378 -0.07227 -0.00198 0.1841 0.2013 0.1196 -0.2228 0.09155
-0.1571 -0.2235 -0.1631 -0.12396 0.1493 -0.04465 0.03168 -0.1526
-0.0421 0.05026 -0.1398 -0.0986 0.11194 -0.0724 -0.10956 0.0652
-0.2123 0.1475 0.03104 -0.1967 -0.2084 0.1373 -0.01174 0.0949
-0.0118 -0.11597 -0.03552 -0.2063 -0.1626 0.10315 0.05768 -0.0415
0.1893 0.01823 0.05 0.0984 -0.0208 0.0804 0.027 -0.08484
0.053 -0.0684 -0.10724 -0.05728 0.0627 -0.189 -0.1152 0.03012
0.1396 0.001019 0.08203 0.0652 -0.1638 0.196 0.0947 0.03952
-0.04004 -0.1864 -0.0634 0.1698 0.1464 -0.10016 -0.1497 -0.03833
0.1406 0.04153 -0.07996 0.0746 0.04672 -0.2258 0.06116 -0.00793
-0.2252 0.1547 -0.2047 -0.03442 0.059 0.1587 -0.1315 -0.1547
0.03357 0.1738 0.1549 0.2219 0.08374 0.03433 0.1058 0.02245
0.1489 -0.04752 0.01964 0.2378 0.04736 -0.1555 0.1606 0.11743
-0.11707 0.08484 -0.02286 -0.03253 0.09326 -0.0208 -0.0374 0.02121
0.0531 -0.1025 -0.05753 -0.11664 -0.1572 -0.1186 0.12103 -0.11487
-0.09564 0.1322 0.081 -0.1877 -0.0674 -0.1489 0.1282 -0.2235
0.09344 -0.02641 -0.0923 0.1215 0.04642 0.0962 -0.1438 -0.1459
-0.0446 -0.1455 -0.2115 0.002369 -0.203 0.05048 -0.117 -0.2039
0.006767 -0.1854 -0.01305 -0.03198 -0.1624 0.09094 -0.1781 -0.282
0.004856 -0.0851 -0.09906 -0.1871 -0.0743 0.0697 0.01979 -0.11017
-0.1218 0.1027 0.1263 -0.1137 0.05383 0.1324 -0.1859 0.03662
-0.138 -0.1248 0.12177 0.0674 0.1072 -0.0805 0.0737 -0.0707
0.0697 0.1785 0.04538 -0.05536 0.03656 0.1633 0.03027 0.11334
0.1149 -0.0433 -0.03378 -0.05045 -0.0797 0.08246 -0.1262 0.0864
0.03748 -0.01857 -0.0691 0.05148 0.0629 -0.1614 -0.02914 -0.0982
0.02495 0.0868 0.006775 -0.0942 0.0405 0.132 0.0983 0.0901
0.03287 0.05313 -0.08105 -0.007866 -0.014946 0.07574 0.1572 -0.03052
-0.0873 0.007515 -0.010025 0.006336 0.0621 0.1026 0.1976 0.0085
0.1581 0.11865 0.0754 0.0985 -0.08636 -0.0872 -0.07684 -0.0749
-0.0754 0.02536 -0.35 -0.2167 0.1559 -0.1766 0.1445 -0.06067
-0.0781 0.02888 -0.12177 -0.176 0.01811 -0.2039 -0.2673 -0.1538
00000000: 1d32 412e 6a25 c9af a72f d2a9 ae2d 5632
00000010: d728 a0ac 0e98 e431 7132 a82f 21b3 dc2d
00000020: 07b1 27b3 38b1 efaf c730 b7a9 0e28 e2b0
00000030: 64a9 6f2a 79b0 4fae 2a2f a2ac 03af 2c2c
00000040: cbb2 b830 f227 4bb2 abb2 6530 03a2 132e
00000050: 0ba2 6caf 8ca8 9ab2 34b1 9a2e 622b 50a9
00000060: 0f32 ab24 662a 4c2e 53a5 252d e926 6ead
00000070: c92a 61ac ddae 55ab 032c 0cb2 5faf b627
00000080: 7830 2c14 402d 2c2c 3eb1 4632 102e 0f29
00000090: 20a9 f7b1 0fac 6f31 af30 69ae cab0 e8a8
000000a0: 8030 5129 1ead c62c fb29 3ab3 d42b 0fa0
000000b0: 35b3 f330 8db2 68a8 8d2b 1431 35b0 f3b0
000000c0: 4c28 9031 f530 1a33 5c2d 6528 c52e bf25
000000d0: c430 15aa 0725 9c33 102a fab0 2431 842f
000000e0: 7eaf 6e2d daa5 2aa8 f82d 53a5 caa8 6e25
000000f0: cc2a 8fae 5dab 77af 08b1 97af bf2f 5aaf
00000100: 1fae 3b30 2f2d 02b2 50ac c4b0 1a30 27b3
00000110: fb2d c3a6 e8ad c72f f129 282e 9ab0 abb0
00000120: b5a9 a8b0 c5b2 da18 7fb2 762a 7daf 86b2
00000130: ee1e efb1 aea2 18a8 32b1 d22d b3b1 83b4
00000140: f91c 72ad 57ae fdb1 c1ac 762c 1125 0daf
00000150: ccaf 932e 0b30 47af e42a 3d30 f3b1 b028
00000160: 6ab0 fdaf cb2f 502c dc2e 27ad b82c 86ac
00000170: 762c b631 cf29 16ab ae28 3a31 c027 412f
00000180: 5b2f 8ba9 53a8 75aa 1aad 472d 0ab0 882d
00000190: cc28 c1a4 6cac 972a 072c 2ab1 76a7 49ae
000001a0: 6326 8e2d f01e 07ae 2f29 3930 4b2e c42d
000001b0: 3528 cd2a 30ad 07a0 a7a3 d92c 0831 d0a7
000001c0: 96ad b21f 22a1 7d1e f32b 912e 5332 5a20
000001d0: 0f31 982f d32c 4e2e 87ad 95ad ebac cbac
000001e0: d3ac 7e26 9ab5 efb2 fd30 a7b1 a030 c4ab
000001f0: 00ad 6527 cbaf a2b1 a324 86b2 47b4 ecb0

model/time_distributed_9/batch_normalization_1/FusedBatchNormV3 f2 [16]
-0.497 -0.5586 -0.514 -0.2295 -0.3289 -0.617 -0.3384 -0.5225
-0.2642 -0.3242 -0.3083 -0.5044 -0.465 -0.56 -0.3958 -0.448
00000000: f4b7 78b8 1db8 58b3 43b5 f0b8 6ab5 2eb8
00000010: 3ab4 30b5 efb4 09b8 71b7 7bb8 55b6 2bb7

model/time_distributed_9/batch_normalization_1/FusedBatchNormV31 f2 [16]
1.6045 1.67 1.664 1.671 1.562 1.572 1.446 1.598
1.741 1.463 1.404 1.515 1.794 1.579 1.609 1.48
00000000: 6b3e ae3e a83e af3e 3f3e 4a3e c93d 643e
00000010: f73e da3d 9e3d 0f3e 2d3f 513e 703e ec3d

model/lstm/while/lstm_cell_2/MatMul_4 f2 [32, 32]
-0.162 0.1868 -0.11884 -0.06635 0.05417 -0.1467 0.02643 0.1786
0.002981 -0.1195 0.1777 -0.128 -0.00481 0.1824 -0.05637 0.1665
0.0394 -0.07306 0.1581 -0.00462 0.09454 -0.1044 0.12244 0.1635
-0.1071 -0.011696 -0.1099 -0.002388 -0.1059 -0.01426 -0.0747 -0.0014715
-0.0897 -0.0316 -0.1007 0.06573 -0.1219 -0.004337 0.06775 -0.1394
0.2583 -0.0833 -0.1304 0.063 -0.1562 0.05634 0.2883 0.01813
-0.06238 -0.0655 0.10425 0.06003 0.04263 -0.03268 -0.1371 0.1285
0.03108 0.408 -0.008255 0.00908 -0.0991 -0.139 -0.0745 -0.10406
0.1738 0.007454 -0.0758 -0.1532 0.0842 -0.0955 -0.1031 0.1995
0.1522 0.0976 -0.0902 0.1995 0.1236 0.03256 -0.10803 -0.0647
0.191 0.06186 0.0648 -0.1011 -0.1249 -0.2551 0.1495 0.1224
-0.10114 -0.0503 0.02934 0.0993 -0.05115 0.07275 0.083 -0.02014
0.0631 0.0995 -0.02264 0.1095 -0.1299 0.0232 0.004684 -0.1099
-0.0681 0.04416 0.0774 0.0471 0.1169 -0.1237 -0.1549 0.07983
-0.1431 0.256 -0.091 -0.00837 0.0949 -0.01529 -0.08954 0.06116
0.1409 -0.0925 -0.0222 -0.11816 0.0915 -0.09503 0.137 -0.2426
0.003357 -0.0556 0.03253 -0.01103 0.07025 -0.0644 -0.03476 0.0693
0.01182 0.1031 -0.006756 -0.1733 -0.10876 -0.02412 -0.01996 0.1105
-0.07574 0.01682 0.195 0.022 0.1375 -0.1924 0.01071 -0.0902
-0.2666 -0.07837 -0.01851 0.03644 -0.0807 -0.05328 0.127 0.2034
0.01109 -0.05127 -0.0344 -0.0647 -0.1891 0.05234 -0.1381 0.1234
-0.02992 0.00446 -0.2722 -0.0648 -0.0954 0.1442 0.1465 0.01377
-0.04187 0.0477 0.2446 0.2151 0.0945 0.006905 0.06744 -0.06866
0.0712 0.1272 -0.01543 0.1418 0.08673 -0.0931 0.05005 -0.008316
0.0804 0.1896 0.1542 0.1115 -0.1194 -0.081 -0.1606 0.07794
-0.0286 -0.05963 0.0631 -0.3018 -0.2145 0.0836 -0.0333 0.02446
0.1353 0.0972 0.02704 0.1105 -0.1775 0.07825 -0.084 -0.0272
-0.01866 0.1136 -0.001253 -0.03253 0.00994 -0.1594 -0.2092 0.1703
0.01353 0.1416 0.0713 -0.1337 0.001442 -0.0185 -0.1423 0.1407
-0.0825 0.0685 0.1627 -0.172 0.114 0.09155 0.1875 -0.0003183
0.01252 -0.04465 0.1195 0.11163 0.1698 0.1405 -0.1787 -0.3423
0.0632 0.2668 -0.1743 0.1019 -0.2717 -0.07837 -0.0817 0.03302
00000000: 2fb1 fa31 9baf 3fac ef2a b2b0 c426 b731
00000010: 1b1a a6af b031 19b0 ed9c d631 37ab 5431
00000020: 0b29 adac 0f31 bb9c 0d2e aeae d62f 3b31
00000030: dbae fda1 09af e498 c7ae 4da3 c8ac 0796
00000040: bead 0ba8 72ae 352c cdaf 719c 562c 76b0
00000050: 2234 55ad 2cb0 082c 00b1 362b 9d34 a424
00000060: fcab 31ac ac2e af2b 7529 2fa8 63b0 1d30
00000070: f527 8736 3aa0 a620 58ae 73b0 c5ac a9ae
00000080: 9031 a21f daac e7b0 642d 1dae 99ae 6232
00000090: df30 3f2e c6ad 6232 e92f 2b28 eaae 24ac
000000a0: 1d32 eb2b 262c 78ae feaf 15b4 c930 d52f
000000b0: 79ae 70aa 8327 5b2e 8caa a82c 502d 28a5
000000c0: 0a2c 5e2e cca5 022f 28b0 f025 cc1c 09af
000000d0: 5cac a729 f42c 072a 7b2f ebaf f5b0 1c2d
000000e0: 94b0 1934 d3ad 49a0 132e d4a3 bbad d42b
000000f0: 8230 ecad afa5 90af db2d 15ae 6230 c3b3
00000100: e01a 1eab 2a28 a6a1 7f2c 1fac 73a8 6f2c
00000110: 0d22 992e eb9e 8cb1 f6ae 2da6 1ca5 122f
00000120: d9ac 4e24 3d32 a225 6630 28b2 7c21 c6ad
00000130: 44b4 04ad bda4 aa28 2aad d2aa 1030 8232
00000140: ae21 90aa 67a8 24ac 0db2 b32a 6bb0 e62f
00000150: a9a7 911c 5bb4 26ac 1bae 9d30 b030 0d23
00000160: 5ca9 1b2a d433 e232 0c2e 121f 512c 65ac
00000170: 8f2c 1230 e6a3 8a30 8d2d f5ad 682a 42a0
00000180: 252d 1132 ef30 232f a4af 2fad 24b1 fd2c
00000190: 52a7 a2ab 0a2c d4b4 ddb2 5a2d 43a8 4326
000001a0: 5430 392e ec26 122f aeb1 022d 60ad f7a6
000001b0: c7a4 452f 2295 2aa8 1721 1ab1 b2b2 7331
000001c0: ed22 8830 902c 47b0 e815 bca4 8eb0 8130
000001d0: 48ad 622c 3531 81b1 4c2f dc2d 0032 378d
000001e0: 6922 b7a9 a62f 252f 6f31 7f30 b8b1 7ab5
000001f0: 0b2c 4534 94b1 862e 59b4 04ad 3bad 3a28

model/lstm/while/lstm_cell_2/MatMul_5 f2 [32, 32]
0.0875 -0.1514 -0.0855 0.1108 -0.1437 0.1356 -0.00816 -0.01666
-0.01102 -0.0658 -0.1823 0.3442 -0.1748 -0.0515 0.1193 -0.1521
-0.0739 0.1681 0.05276 0.0732 -0.05054 0.0527 -0.05652 0.2196
0.0337 0.15 0.1328 -0.0644 -0.001063 -0.1472 -0.0987 -0.01805
0.0003731 0.05206 -0.252 -0.004482 -0.06305 0.09607 0.03047 -0.2294
-0.03525 0.1761 -0.08844 0.244 -0.08057 -0.2177 0.05148 0.0923
-0.0517 0.099 0.01892 -0.0661 -0.0904 0.1578 0.13 -0.24
0.04474 -0.04517 -0.1294 -0.03004 -0.05173 -0.05777 0.10284 -0.1285
0.2294 0.10126 -0.01405 -0.00936 -0.0719 0.09705 -0.0457 0.0001918
-0.01437 0.00794 -0.00629 0.0962 -0.01622 -0.12085 0.02568 -0.1534
-0.01266 0.0909 -0.00407 -0.1442 -0.04907 0.189 0.0521 0.4856
-0.003815 0.1813 -0.010605 -0.1715 0.2119 0.1965 0.0196 -0.1887
-0.07855 0.1816 -0.05075 -0.02861 0.1567 -0.215 0.1282 0.0815
0.0801 0.1466 -0.0563 -0.1461 -0.02422 -0.075 -0.11035 0.1079
-0.1328 0.11975 -0.02266 0.1119 -0.1631 -0.02057 -0.07947 -0.0703
0.133 0.141 0.03452 0.0174 -0.1095 -0.04926 0.1401 0.1467
-0.02841 -0.1247 -0.02454 -0.0343 0.0363 -0.05902 -0.11 -0.08765
-0.1114 -0.03047 -0.007236 0.2491 -0.2375 -0.02628 0.103 0.0796
-0.0854 0.1042 0.1366 0.0926 0.007595 0.03009 0.0399 0.2263
0.2627 0.02524 -0.02103 0.075 -0.0927 -0.05795 -0.1553 -0.05832
0.00937 0.0804 0.065 -0.1982 -0.08923 0.00934 0.09674 -0.02745
0.04727 -0.1077 -0.03986 0.1121 -0.0761 0.04697 0.013306 -0.1776
0.09766 -0.002235 0.3013 -0.09125 0.0488 -0.04712 0.1445 -0.0597
-0.09406 0.1748 0.00905 -0.011856 -0.0549 -0.2119 0.2058 -0.08496
-0.03638 0.03964 0.1081 -0.007607 0.2091 0.01289 -0.01321 -0.07745
-0.0877 0.1559 -0.1698 -0.126 -0.1964 -0.115 -0.1741 -0.0685
0.002436 0.0941 -0.0759 -0.0874 -0.1449 0.177 0.0142 0.02208
-0.01845 -0.0426 0.10455 -0.126 0.1835 0.00707 -0.0759 0.0689
-0.02382 -0.0005803 -0.03168 0.001233 -0.2189 -0.06076 0.05063 0.1149
0.0407 -0.01884 -0.1185 -0.0686 -0.06726 -0.02489 0.0931 0.1277
-0.341 -0.06683 0.03854 -0.08624 -0.0019 -0.01714 -0.065 -0.186
0.0964 0.2524 0.0774 -0.1051 -0.1175 0.0834 -0.003006 -0.02641
00000000: 9a2d d8b0 79ad 172f 99b0 5730 2ea0 44a4
00000010: a4a1 36ac d5b1 8235 98b1 98aa a32f deb0
00000020: bbac 6131 c12a af2c 78aa bf2a 3cab 0733
00000030: 5028 cd30 4030 1fac 5b94 b6b0 51ae 9fa4
00000040: 1d0e aa2a 08b4 979c 09ac 262e cd27 57b3
00000050: 83a8 a331 a9ad cf33 28ad f7b2 972a e82d
00000060: 9eaa 562e d824 3bac c9ad 0d31 2930 aeb3
00000070: ba29 c8a9 24b0 b1a7 9faa 65ab 952e 1db0
00000080: 5733 7b2e 32a3 cba0 9aac 362e d9a9 490a
00000090: 5ca3 1120 719e 282e 27a4 bcaf 9326 e9b0
000000a0: 7ba2 d12d 2b9c 9db0 48aa 0c32 ab2a c537
000000b0: d09b cd31 6ea1 7db1 c832 4a32 0525 0ab2
000000c0: 07ad d031 7faa 53a7 0431 e1b2 1a30 372d
000000d0: 202d b130 35ab adb0 33a6 cdac 10af e82e
000000e0: 40b0 aa2f cda5 292f 38b1 44a5 16ad 80ac
000000f0: 4230 8330 6b28 7424 02af 4eaa 7c30 b230
00000100: 46a7 fbaf 48a6 64a8 a528 8eab 0aaf 9cad
00000110: 21af cda7 699f f933 9ab3 baa6 982e 182d
00000120: 77ad ab2e 5f30 ed2d c71f b427 1b29 3e33
00000130: 3434 7626 62a5 cd2c efad 6bab f8b0 77ab
00000140: cc20 252d 292c 58b2 b6ad c820 312e 07a7
00000150: 0d2a e5ae 1aa9 2d2f dfac 032a d022 afb1
00000160: 402e 9498 d234 d7ad 3f2a 08aa a030 a4ab
00000170: 05ae 9831 a220 12a2 07ab c8b2 9632 70ad
00000180: a8a8 1329 eb2e ca9f b132 9a22 c3a2 f5ac
00000190: 9dad fd30 6fb1 08b0 49b2 5caf 92b1 62ac
000001a0: fd18 062e dcac 98ad a3b0 aa31 4523 a725
000001b0: b9a4 74a9 b12e 08b0 df31 3d1f dcac 692c
000001c0: 19a6 c190 0ea8 0d15 01b3 c7ab 7b2a 5b2f
000001d0: 3629 d3a4 96af 64ac 4eac 5fa6 f52d 1630
000001e0: 75b5 47ac ef28 85ad c897 63a4 29ac f4b1
000001f0: 2b2e 0a34 f42c baae 85af 562d 289a c3a6

model/lstm/while/lstm_cell_2/MatMul_6 f2 [32, 32]
-0.10986 -0.1315 0.05264 0.04904 -0.03076 -0.06805 -0.048 -0.05865
-0.11743 0.1687 0.1042 0.2196 0.0526 0.2554 0.00647 0.05502
0.3184 0.1809 0.06113 -0.01772 -0.1067 0.0603 -0.10724 0.4983
-0.07214 0.05423 0.05392 0.03482 -0.10297 -0.03928 0.1869 0.02414
0.02385 -0.1256 -0.02211 -0.11365 -0.00859 0.02545 -0.1897 0.2305
-0.1454 0.1125 -0.07184 -0.1943 0.004482 -0.04984 0.04776 -0.04388
-0.0731 0.0673 -0.1189 -0.05078 -0.0548 -0.234 0.031 0.1608
-0.1669 -0.04733 -0.04944 -0.1339 -0.0771 -0.05154 0.1473 0.2255
-0.002401 0.1605 0.01433 -0.255 -0.002455 -0.2283 -0.0035 0.04495
-0.01356 -0.03644 0.02759 0.03616 -0.01383 0.28 -0.07764 0.12006
0.1061 -0.1519 -0.0192 0.0869 0.06964 0.01499 0.0998 -0.4055
0.0622 -0.00979 -0.00531 -0.010765 -0.1378 -0.07605 -0.1192 0.1337
0.06137 -0.1553 -0.06256 0.03934 -0.02675 -0.006893 0.0954 0.12445
-0.0633 -0.0625 -0.2153 -0.11914 -0.1312 0.10583 0.0532 -0.1109
0.05756 0.0247 0.0653 -0.2173 0.126 0.0709 0.1316 -0.2449
0.009705 0.0681 0.1209 0.2148 0.04202 -0.1404 -0.1542 -0.03882
0.1323 -0.01168 0.02051 -0.01997 -0.088 -0.06177 -0.1187 0.0961
0.01817 0.0979 -0.003529 -0.1611 0.08765 -0.1509 0.2612 -0.1065
0.00601 0.1438 -0.001154 0.0138 0.05905 0.2499 0.236 -0.1273
-0.0839 -0.2773 0.335 -0.173 -0.0819 0.03943 0.05264 0.3733
-0.10065 0.03445 0.07965 0.0292 0.03568 0.02078 0.02711 -0.0437
0.01416 -0.1571 0.01148 0.0484 0.1241 -0.01773 0.0239 0.04828
0.255 -0.2072 -0.02228 -0.0705 -0.0813 -0.02051 -0.1561 0.04324
0.0728 0.0318 0.145 -0.11786 0.08966 -0.015274 0.00666 -0.0908
-0.1277 -0.0849 0.1532 -0.1709 0.013985 -0.1411 0.06903 -0.001509
-0.007187 0.0922 -0.02832 0.03326 -0.309 -0.1637 -0.0824 -0.05832
-0.11835 -0.0395 -0.09015 -0.0765 0.0359 -0.05994 0.0873 0.1095
-0.05093 0.11 0.095 -0.09467 0.3796 -0.06036 -0.01077 -0.1278
-0.03662 0.1504 -0.02371 -0.2025 0.10754 -0.1311 -0.1589 0.1627
-0.06104 -0.10657 0.04932 -0.1279 0.015175 0.1427 -0.1166 0.1381
-0.0215 -0.4465 0.3242 0.2338 0.1156 -0.3228 -0.07355 0.0808
-0.2712 0.0687 0.02686 0.0653 -0.3438 -0.02077 -0.1292 0.05188
00000000: 08af 35b0 bd2a 472a e0a7 5bac 25aa 82ab
00000010: 84af 6631 ab2e 0733 bc2a 1634 a01e 0b2b
00000020: 1835 ca31 d32b 89a4 d4ae b82b ddae f937
00000030: 9eac f12a e72a 7528 97ae 07a9 fb31 2e26
00000040: 1b26 05b0 a9a5 46af 66a0 8426 12b2 6033
00000050: a7b0 332f 99ac 38b2 971c 61aa 1d2a 9ea9
00000060: aeac 4f2c 9caf 80aa 04ab 7db3 f027 2531
00000070: 57b1 0faa 54aa 49b0 efac 99aa b730 3733
00000080: eb98 2331 5623 14b4 0799 4eb3 2b9b c129
00000090: f1a2 aaa8 1027 a128 15a3 7b34 f8ac af2f
000000a0: ca2e dcb0 eaa4 902d 752c ad23 632e 7db6
000000b0: f62b 03a1 709d 83a1 69b0 deac a1af 4730
000000c0: db2b f8b0 01ac 0929 d9a6 0f9f 1b2e f72f
000000d0: 0dac 00ac e4b2 a0af 33b0 c62e cf2a 19af
000000e0: 5e2b 5326 2e2c f4b2 0830 8a2c 3630 d6b3
000000f0: f820 5c2c bd2f e032 6129 7eb0 efb0 f8a8
00000100: 3c30 fba1 4025 1da5 a2ad e8ab 99af 272e
00000110: a724 442e 3a9b 28b1 9c2d d4b0 2e34 d1ae
00000120: 271e 9a30 ba94 1123 8f2b ff33 8d33 13b0
00000130: 5fad 70b4 5c35 89b1 3ead 0c29 bd2a f935
00000140: 71ae 6928 192d 7a27 9128 5225 f126 98a9
00000150: 4023 07b1 e121 322a f12f 8aa4 1e26 2e2a
00000160: 1434 a1b2 b4a5 83ac 34ad 40a5 ffb0 8929
00000170: a92c 1228 a430 8baf bd2d d2a3 d21e d0ad
00000180: 16b0 6fad e730 78b1 2923 84b0 6b2c 2e96
00000190: 5c9f e72d 40a7 4228 f2b4 3db1 46ad 77ab
000001a0: 93af 0ea9 c5ad e5ac 9828 acab 962d 022f
000001b0: 85aa 0a2f 142e 0fae 1336 baab 84a1 17b0
000001c0: b0a8 d030 12a6 7bb2 e22e 32b0 16b1 3531
000001d0: d0ab d2ae 502a 18b0 c523 9130 76af 6b30
000001e0: 81a5 25b7 3035 7b33 662f 2ab5 b5ac 2c2d
000001f0: 57b4 662c e026 2e2c 80b5 51a5 22b0 a42a

model/lstm/while/lstm_cell_2/MatMul_7 f2 [32, 32]
0.0641 0.01226 0.03458 -0.1089 0.003492 0.05948 -0.06494 0.1556
-0.1415 -0.0723 -0.03 0.09045 0.0396 -0.03091 -0.1238 -0.0765
0.09064 -0.0952 0.03543 -0.02084 -0.04297 0.02086 -0.2461 0.2302
-0.0194 0.3018 -0.0835 -0.08136 -0.01685 0.07117 0.0915 -0.1707
-0.1748 0.0769 -0.02957 -0.08875 -0.003073 0.078 -0.0832 -0.04398
0.03516 -0.01023 -0.02548 0.1476 -0.1254 0.1511 0.07477 0.2161
0.2145 -0.11096 0.3157 0.2712 -0.2323 -0.05823 -0.1805 -0.0611
-0.09186 0.05423 -0.04013 -0.1271 -0.2255 0.02151 0.05234 0.0941
-0.2291 0.0505 0.08813 -0.005188 0.1661 0.07666 0.1874 -0.0211
-0.1721 0.1388 -0.2632 -0.02734 -0.3125 -0.1952 -0.0913 0.06604
-0.0623 0.02756 -0.02046 -0.1315 0.02061 0.02963 0.1481 0.4478
0.03128 0.01624 0.0841 0.01549 0.2969 0.03946 0.02374 -0.0467
-0.2214 0.2312 0.003588 -0.2305 0.0837 -0.3167 0.0666 0.06137
0.00801 0.05496 0.03586 -0.2306 0.1454 -0.0969 -0.03818 0.1807
-0.1014 0.1055 0.2483 -0.0914 0.12286 -0.1471 -0.1302 -0.138
0.001537 0.1685 0.01884 0.05032 -0.0795 -0.05054 0.03134 -0.07385
-0.05353 -0.13 -0.1338 -0.00946 -0.0778 -0.04892 -0.2421 -0.12256
0.1398 0.1421 0.2969 0.11835 -0.077 -0.411 0.12164 0.0948
-0.1039 0.1106 -0.0957 0.1364 0.05225 0.0757 0.2078 -0.2087
0.0393 0.2339 0.08685 0.11835 0.1499 -0.2047 0.1001 -0.01404
-0.1448 -0.05673 0.02357 -0.1294 0.04358 -0.007904 -0.2233 0.2559
-0.1252 -0.1718 -0.06244 -0.2141 0.592 0.2076 -0.01223 -0.05676
0.002794 -0.225 0.338 0.3987 0.07556 0.003004 0.1377 -0.4639
0.02043 0.1772 -0.2344 0.2954 -0.3289 0.0581 0.0628 0.102
-0.166 0.2542 0.127 -0.01261 0.06537 -0.0255 -0.05518 0.1666
-0.00752 0.11194 0.01576 -0.1692 -0.04086 0.0311 -0.1042 0.1315
-0.0794 0.01509 0.2228 0.1543 0.136 0.03125 -0.2069 0.1361
0.07446 0.02158 -0.00999 -0.01029 0.0473 -0.0793 0.2341 0.0889
-0.06064 -0.1409 -0.0781 -0.001716 -0.194 0.02211 -0.061 0.105
-0.03845 0.1569 -0.1829 0.309 -0.284 0.1666 0.1344 0.0697
0.06854 0.1838 0.1207 0.216 0.002356 -0.3867 -0.1927 -0.272
0.1908 0.1877 -0.0752 -0.179 0.06024 0.0528 -0.1715 -0.1951
00000000: 1a2c 4722 6d28 f8ae 271b 9d2b 28ac fb30
00000010: 87b0 a1ac aea7 ca2d 1229 eaa7 ecaf e5ac
00000020: cd2d 18ae 8928 56a5 80a9 5725 e0b3 5e33
00000030: f7a4 d434 58ad 35ad 50a4 8e2c db2d 76b1
00000040: 98b1 ec2c 92a7 aead 4b9a fe2c 53ad a1a9
00000050: 8028 3da1 86a6 b930 03b0 d630 c92c ea32
00000060: dd32 1aaf 0d35 5734 6fb3 74ab c7b1 d2ab
00000070: e1ad f12a 23a9 11b0 37b3 8225 b32a 062e
00000080: 55b3 772a a42d 509d 5131 e82c ff31 67a5
00000090: 82b1 7130 36b4 00a7 00b5 3fb2 d8ad 3a2c
000000a0: f9ab 0e27 3da5 35b0 4725 9627 bd30 2a37
000000b0: 0128 2824 622d ee23 c034 0d29 1426 faa9
000000c0: 16b3 6633 591b 60b3 5b2d 11b5 432c db2b
000000d0: 1a20 092b 9728 61b3 a730 34ae e3a8 c831
000000e0: 7dae c12e f233 d9ad dd2f b5b0 2bb0 6ab0
000000f0: 4c16 6431 d324 712a 17ad 78aa 0328 baac
00000100: daaa 29b0 48b0 d8a0 fbac 43aa bfb3 d8af
00000110: 7930 8c30 c034 932f eeac 93b6 c92f 112e
00000120: a6ae 142f 20ae 5d30 b02a d82c a632 aeb2
00000130: 0829 7c33 8f2d 932f cc30 8db2 682e 30a3
00000140: a2b0 43ab 0926 24b0 9429 0ca0 25b3 1834
00000150: 02b0 7fb1 feab dab2 bc38 a532 43a2 44ab
00000160: b919 33b3 6835 6136 d62c 271a 6830 6cb7
00000170: 3b25 ac31 80b3 ba34 43b5 702b 052c 872e
00000180: 50b1 1134 1030 75a2 2f2c 87a6 10ab 5531
00000190: b39f 2a2f 0924 6ab1 3ba9 f627 abae 3530
000001a0: 15ad ba23 2133 f030 5a30 0028 9fb2 5b30
000001b0: c42c 8625 1da1 45a1 0e2a 13ad 7e33 b12d
000001c0: c3ab 82b0 00ad 0797 35b2 a925 cfab b82e
000001d0: eca8 0531 dab1 f234 8bb4 5531 4d30 762c
000001e0: 632c e231 ba2f e932 d318 30b6 2bb2 5ab4
000001f0: 1b32 0232 d0ac bab1 b62b c22a 7db1 3eb2

model/lstm/while/lstm_cell_2/split_1 f2 [32]
0.04065 0.0715 -0.07855 0.0533 0.053 0.04385 -0.02008 0.0676
0.04752 -0.003567 0.03693 0.03162 -0.0275 0.054 0.02505 0.08746
0.02971 0.01124 0.03354 0.01333 0.03857 -0.03595 0.0274 -0.04965
0.007164 -0.03137 -0.003914 -0.01519 -0.01825 -0.02686 -0.03488 -0.07605
00000000: 3429 932c 07ad d32a c92a 9d29 24a5 542c
00000010: 152a 4e9b ba28 0c28 0aa7 e92a 6a26 992d
00000020: 9b27 c121 4b28 d322 f028 9aa8 0427 5baa
00000030: 561f 04a8 029c c7a3 aca4 e0a6 77a8 deac

model/lstm/while/lstm_cell_2/split_11 f2 [32]
1.0205 1.031 1.027 1.026 1.017 1.012 1.03 1.095
1.058 1.061 1.048 1.076 1.059 1.043 1.022 1.062
1.052 1.095 1.054 1.086 1.041 1.052 1.027 1.088
1.0205 1.023 1.055 1.058 1.039 1.003 1.048 1.079
00000000: 153c 203c 1c3c 1b3c 113c 0c3c 1f3c 613c
00000010: 3b3c 3e3c 313c 4e3c 3c3c 2c3c 173c 3f3c
00000020: 353c 613c 373c 583c 2a3c 353c 1c3c 5a3c
00000030: 153c 183c 383c 3b3c 283c 033c 313c 513c

model/lstm/while/lstm_cell_2/split_12 f2 [32]
-0.01021 0.01303 0.00834 0.004787 -0.01395 -0.03915 0.00801 -0.008766
-0.03485 0.03062 0.03018 -0.02667 0.04993 -0.00508 -0.01767 0.03412
-0.02603 0.003448 0.01668 0.0051 0.04626 0.000665 -0.00819 0.01317
-0.011604 -0.006657 0.00797 0.02113 -0.02104 -0.01216 0.01602 -0.003695
00000000: 3aa1 ac22 4520 e71c 24a3 03a9 1a20 7da0
00000010: 76a8 d727 ba27 d4a6 642a 349d 86a4 5e28
00000020: aaa6 101b 4524 391d ec29 7311 31a0 be22
00000030: f1a1 d19e 1520 6925 63a5 3aa2 1a24 919b

model/lstm/while/lstm_cell_2/split_13 f2 [32]
0.000537 0.0713 0.05374 0.0705 0.0831 0.01176 0.05057 0.05426
0.01087 0.03177 -0.007126 0.03516 0.010155 0.05026 0.0948 -0.02982
-0.001236 0.03683 0.0842 0.0649 0.01409 0.02473 0.0911 0.07666
0.04813 0.0845 0.0003011 0.0657 0.0428 0.00469 0.0264 0.005013
00000000: 6610 902c e12a 832c 522d 0522 792a f22a
00000010: 9121 1128 4c9f 8028 3321 6f2a 112e a2a7
00000020: 1095 b728 642d 272c 3723 5526 d52d e82c
00000030: 292a 682d ef0c 342c 7a29 cd1c c226 221d

model/lstm/while/lstm_cell_2/MatMul f2 [32, 96]
0.03143 0.08295 0.04794 0.07776 -0.1295 0.1674 0.09973 -0.076
-0.07166 0.2324 0.0009403 -0.05057 0.0617 -0.1478 -0.0168 0.07996
0.0923 0.2472 -0.02916 -0.10297 0.0898 0.0686 0.01415 -0.04865
0.2251 0.0778 -0.05057 -0.02899 -0.03087 -0.005363 0.2913 0.08844
-0.0232 0.043 -0.12463 -0.02878 -0.1597 0.1153 0.06946 0.1042
-0.03687 -0.01756 0.164 -0.119 -0.0163 -0.11926 0.015305 -0.03348
0.018 0.04962 -0.0472 -0.08795 0.0401 -0.09595 0.004604 0.03032
0.07825 -0.02669 0.1109 0.067 -0.0891 0.0702 -0.007034 -0.0952
-0.0928 -0.04813 -0.003513 -0.136 0.008 0.02608 0.03308 -0.1157
-0.1309 -0.007435 0.1743 0.08453 -0.1016 -0.011154 0.2009 -0.001444
-0.01894 -0.01987 -0.0737 -0.02504 0.1367 -0.0759 0.0442 0.0066
-0.1758 0.0789 -0.03674 -0.0714 0.0764 -0.06235 -0.2168 -0.156
0.06323 0.06714 0.01165 0.0922 -0.04572 0.02736 0.091 -0.03452
0.0288 -0.0203 0.10443 0.04388 0.0825 0.05804 0.08057 0.02254
0.0485 0.066 0.1239 0.10376 0.06476 0.084 0.03174 0.05
0.04337 0.010025 0.0974 0.1313 0.099 0.161 0.06573 0.1128
0.04617 0.03128 0.09595 -0.0413 0.000938 0.002611 0.05215 0.01332
0.05316 0.0752 0.04138 0.05096 -0.04077 0.02705 0.047 0.01587
0.03864 -0.08545 0.048 0.04373 0.0691 0.04248 0.03375 -0.01666
0.07526 0.00937 0.0631 0.1013 0.08014 0.0689 0.05475 0.0822
-0.01307 0.000199 0.0344 -0.02797 -0.0651 -0.02283 0.05377 0.0439
0.02644 0.00795 -0.1011 0.05624 0.0279 0.06223 -0.00847 0.09094
0.0396 0.06137 -0.001491 0.06155 0.04962 -0.04874 -0.0173 0.04196
-0.07245 0.01907 0.08673 -0.06744 -0.0395 0.0248 -0.03192 0.02725
-0.1132 -0.05392 0.0322 -0.1042 -0.06006 -0.00552 -0.1624 -0.1852
0.1359 -0.005184 0.09644 -0.0696 0.1887 0.1033 -0.01472 -0.046
0.02182 -0.2678 -0.1219 -0.02557 -0.06396 -0.061 0.0833 0.1523
-0.04434 0.01755 0.06683 -0.04675 0.00757 0.07196 -0.1958 0.1196
0.06885 0.02834 -0.05673 -0.04184 0.04767 0.04907 -0.0912 0.00922
0.03992 0.079 0.0432 -0.0401 0.01944 -0.05667 0.06476 0.0822
0.006172 -0.03928 0.00601 -0.0381 -0.03336 -0.05295 -0.06088 -0.01852
0.0797 0.0577 -0.1389 -0.03702 0.02945 -0.239 -0.012566 0.02315
00000000: 0628 4f2d 232a fa2c 25b0 5b31 622e ddac
00000010: 96ac 7033 b413 79aa e62b bbb0 4da4 1e2d
00000020: e82d e933 77a7 97ae bf2d 642c 3f23 3aaa
00000030: 3433 fb2c 79aa 6ca7 e7a7 7e9d a934 a92d
00000040: f0a5 8129 faaf 5ea7 1cb1 612f 722c ab2e
00000050: b8a8 7fa4 3f31 9eaf 2ca4 a2af d623 49a8
00000060: 9c24 5a2a 0baa a1ad 2229 24ae b71c c327
00000070: 022d d5a6 192f 4a2c b4ad 7e2c 349f 18ae
00000080: f0ad 29aa 329b 5ab0 1920 ad26 3c28 68af
00000090: 30b0 9d9f 9431 692d 81ae b6a1 6e32 ea95
000000a0: d9a4 16a5 b8ac 69a6 6030 dcac a829 c21e
000000b0: a0b1 0d2d b4a8 92ac e42c fbab f0b2 feb0
000000c0: 0c2c 4c2c f721 e72d daa9 0127 d32d 6ba8
000000d0: 5f27 32a5 af2e 9e29 482d 6e2b 282d c525
000000e0: 352a 392c ee2f a42e 252c 602d 1028 662a
000000f0: 8d29 2221 3c2e 3430 562e 2731 352c 382f
00000100: e929 0128 242e 49a9 af13 5919 ad2a d222
00000110: ce2a d02c 4c29 862a 38a9 ed26 042a 1024
00000120: f228 78ad 252a 9929 6c2c 7029 5228 44a4
00000130: d12c cc20 0a2c 7c2e 212d 692c 022b 432d
00000140: b1a2 850a 6728 29a7 2bac d8a5 e22a 9f29
00000150: c526 1220 78ae 332b 2427 f72b 56a0 d22d
00000160: 1229 db2b 1b96 e12b 5a2a 3daa 6ea4 5f29
00000170: a3ac e224 8d2d 51ac 0ea9 5926 16a8 fa26
00000180: 3faf e7aa 1f28 abae b0ab a79d 32b1 edb1
00000190: 5930 4f9d 2c2e 74ac 0a32 9c2e 89a3 e3a9
000001a0: 9625 49b4 cdaf 8ca6 18ac cfab 552d e030
000001b0: ada9 7e24 472c fca9 c01f 9b2c 44b2 a82f
000001c0: 682c 4127 43ab 5ba9 1a2a 482a d6ad b820
000001d0: 1c29 0e2d 8829 22a9 fa24 41ab 252c 432d
000001e0: 521e 07a9 271e e0a8 45a8 c7aa cbab bea4
000001f0: 1a2d 632b 72b0 bda8 8a27 a6b3 6fa2 ed25
