HPC_Final_Study2_Complete_Test_Class_Balance_run_all/participants_session_transfer_train_fresh_model/participant_20/session_1/session_1_lite_models/indexpen_model_quant.tflite (tflite, 303344 bytes, 29 tensors)

model/time_distributed_6/conv2d_1/BiasAdd;model/time_distributed_6/conv2d_1/Conv2D;model/time_distributed_6/conv2d_1/BiasAdd/ReadVariableOp/resource f2 [16]
00000000: e12d 0530 7e2e 1e2c 8f2d e12d 8430 e729
00000010: 2728 e02e 5b30 b92c 2f2e 0d2a 742b e82a
0.09186 0.1256 0.10144 0.06433 0.08685 0.09186 0.1411 0.0461
0.03244 0.1074 0.1361 0.0738 0.0966 0.04727 0.05823 0.05396

model/time_distributed/conv2d/BiasAdd;model/time_distributed/conv2d/Conv2D;model/time_distributed/conv2d/BiasAdd/ReadVariableOp/resource f2 [8]
00000000: 13ad 69a8 4da3 c4a9 81a2 8927 9e2c 6032
-0.0793 -0.03445 -0.01426 -0.04504 -0.0127 0.02943 0.07214 0.1992

model/time_distributed_6/conv2d_1/Conv2D f2 [16, 3, 3, 1]
00000000: 8a29 8729 5aac 2924 a226 bca9 16ab 2529
00000010: 5d0d 7120 022e 74ae 31ad 5232 24af cb1a
00000020: f4af b02f 8d2c 74b2 1a30 822c dd29 1baf
00000030: 3aa7 5e28 0b97 4125 5f2b dfaa 7823 8ba1
00000040: efa5 b623 16a7 cf22 ab9f f8b0 3531 88a7
00000050: 842a e1a8 3fa9 ae2a 109e 1c31 66ac 0aac
00000060: 9da9 73ab b72d 8127 4a29 95aa 1f2b 16b0
00000070: 2f2c a725 f02c 4aae 731a 1e2a 47aa d2ae
00000080: cf2d 4421 a328 18ab 2a27 f2ac dd29 0b27
00000090: e9a4 9b1b fa89 0c2b d1ae 1c2c 5a2e 97b1
000000a0: ab2c cc2a 0dae fc29 7425 5b28 56aa 9426
000000b0: 3b18 12a4 bcad 8831 5fae be25 532c 31ae
000000c0: 52aa b630 bead 10ac 7d33 9eb0 13b1 f52f
000000d0: e429 f92f 82b1 682a cbad 2b32 78ae f6ad
000000e0: 0231 80ac a8ad be32 82b0 6aa8 7b2e 27aa
000000f0: cc11 5cb0 cf2f 719b f928 4fa5 d9a1 e1a5
00000100: 231a 03a4 e7a6 ae2a 3e2c 64b0 042c 3f24
00000110: 61a6 369b 08a2 5726 0d1e 652c bbac 27a0
0.04327 0.04318 -0.068 0.01625 0.02591 -0.0448 -0.05536 0.0402
0.0003273 0.008675 0.0939 -0.1008 -0.0811 0.1975 -0.1116 0.003317
-0.12427 0.1201 0.0711 -0.2017 0.1282 0.07043 0.0458 -0.111
-0.02823 0.03412 -0.001719 0.02052 0.0576 -0.05368 0.01459 -0.010826
-0.02318 0.01506 -0.02768 0.0133 -0.00749 -0.1553 0.1627 -0.02942
0.0509 -0.03812 -0.041 0.0522 -0.00592 0.1597 -0.0687 -0.0631
-0.04385 -0.0582 0.0893 0.02931 0.04132 -0.05142 0.05563 -0.1277
0.06537 0.02208 0.07715 -0.09827 0.003149 0.0478 -0.04904 -0.10657
0.09076 0.010284 0.03622 -0.05542 0.02798 -0.0773 0.0458 0.02751
-0.01918 0.003714 -0.0001824 0.05505 -0.1065 0.0642 0.09924 -0.1747
0.07294 0.0531 -0.09454 0.04675 0.0213 0.03403 -0.0495 0.0257
0.002066 -0.0159 -0.0896 0.1729 -0.09955 0.02243 0.06757 -0.09674
-0.04938 0.1472 -0.0897 -0.0635 0.234 -0.1443 -0.1586 0.1243
0.04602 0.1246 -0.1721 0.05005 -0.0905 0.1927 -0.1011 -0.09314
0.1565 -0.0703 -0.0884 0.2107 -0.1409 -0.0345 0.10126 -0.04807
0.0007076 -0.1362 0.122 -0.003633 0.03885 -0.02074 -0.01142 -0.02296
0.002996 -0.01567 -0.02696 0.0522 0.0663 -0.1372 0.06274 0.01659
-0.02492 -0.003521 -0.01178 0.02477 0.00591 0.06866 -0.0739 -0.00811

model/time_distributed/conv2d/Conv2D f2 [8, 3, 3, 1]
00000000: 5621 11a8 cf1e c1a1 8b26 349c 3320 27a3
00000010: 5b21 9720 40a8 4d21 e69d 0324 d29a aba0
00000020: a718 f919 239d 4825 dea2 509a 4ea6 3227
00000030: 1b9f 1824 44a6 d293 5a21 9420 f421 02a8
00000040: 69a1 d1a1 261e a320 1d1d fba5 5427 54a0
00000050: af1e 2ea4 0a96 3421 41a1 8b04 6e9a 2194
00000060: b315 9ea4 4921 7125 8a18 979c cd25 73a1
00000070: c020 371e 2d1e e19b 921f 259f 2710 a523
00000080: 1d9e 369a 3ba3 669b fe25 4099 4b20 d9a4
0.01042 -0.03177 0.00665 -0.01124 0.02556 -0.004105 0.0082 -0.01397
0.01046 0.008965 -0.0332 0.01035 -0.00576 0.01567 -0.00333 -0.00912
0.002272 0.002916 -0.005016 0.02063 -0.01341 -0.003082 -0.02463 0.0281
-0.00694 0.01599 -0.02448 -0.0009546 0.01045 0.00894 0.01163 -0.0313
-0.01057 -0.01136 0.006004 0.009056 0.004993 -0.02336 0.02863 -0.00845
0.006527 -0.01633 -0.001474 0.01016 -0.01026 6.93e-05 -0.00314 -0.001008
0.001391 -0.01804 0.01032 0.02126 0.002216 -0.004482 0.02266 -0.01064
0.00928 0.00607 0.00603 -0.003847 0.007393 -0.006977 0.000507 0.01493
-0.00597 -0.003033 -0.01412 -0.003613 0.0234 -0.002563 0.008385 -0.01894

model/lstm/TensorArrayV2_1 f2 [120, 1, 32]
00000000: 0000 0000 0000 0000 0000 0000 0000 0000
00000010: 0000 0000 0000 0000 0000 0000 0000 0000
00000020: 0000 0000 0000 0000 0000 0000 0000 0000
00000030: 0000 0000 0000 0000 0000 0000 0000 0000
00000040: 0000 0000 0000 0000 0000 0000 0000 0000
00000050: 0000 0000 0000 0000 0000 0000 0000 0000
00000060: 0000 0000 0000 0000 0000 0000 0000 0000
00000070: 0000 0000 0000 0000 0000 0000 0000 0000
00000080: 0000 0000 0000 0000 0000 0000 0000 0000
00000090: 0000 0000 0000 0000 0000 0000 0000 0000
000000a0: 0000 0000 0000 0000 0000 0000 0000 0000
000000b0: 0000 0000 0000 0000 0000 0000 0000 0000
000000c0: 0000 0000 0000 0000 0000 0000 0000 0000
000000d0: 0000 0000 0000 0000 0000 0000 0000 0000
000000e0: 0000 0000 0000 0000 0000 0000 0000 0000
000000f0: 0000 0000 0000 0000 0000 0000 0000 0000
00000100: 0000 0000 0000 0000 0000 0000 0000 0000
00000110: 0000 0000 0000 0000 0000 0000 0000 0000
00000120: 0000 0000 0000 0000 0000 0000 0000 0000
00000130: 0000 0000 0000 0000 0000 0000 0000 0000
00000140: 0000 0000 0000 0000 0000 0000 0000 0000
00000150: 0000 0000 0000 0000 0000 0000 0000 0000
00000160: 0000 0000 0000 0000 0000 0000 0000 0000
00000170: 0000 0000 0000 0000 0000 0000 0000 0000
00000180: 0000 0000 0000 0000 0000 0000 0000 0000
00000190: 0000 0000 0000 0000 0000 0000 0000 0000
000001a0: 0000 0000 0000 0000 0000 0000 0000 0000
000001b0: 0000 0000 0000 0000 0000 0000 0000 0000
000001c0: 0000 0000 0000 0000 0000 0000 0000 0000
000001d0: 0000 0000 0000 0000 0000 0000 0000 0000
000001e0: 0000 0000 0000 0000 0000 0000 0000 0000
000001f0: 0000 0000 0000 0000 0000 0000 0000 0000
0.0 0.0 0.0 0.0 0.0 0.0 0.0 0.0
0.0 0.0 0.0 0.0 0.0 0.0 0.0 0.0
0.0 0.0 0.0 0.0 0.0 0.0 0.0 0.0
0.0 0.0 0.0 0.0 0.0 0.0 0.0 0.0
0.0 0.0 0.0 0.0 0.0 0.0 0.0 0.0
0.0 0.0 0.0 0.0 0.0 0.0 0.0 0.0
0.0 0.0 0.0 0.0 0.0 0.0 0.0 0.0
0.0 0.0 0.0 0.0 0.0 0.0 0.0 0.0
0.0 0.0 0.0 0.0 0.0 0.0 0.0 0.0
0.0 0.0 0.0 0.0 0.0 0.0 0.0 0.0
0.0 0.0 0.0 0.0 0.0 0.0 0.0 0.0
0.0 0.0 0.0 0.0 0.0 0.0 0.0 0.0
0.0 0.0 0.0 0.0 0.0 0.0 0.0 0.0
0.0 0.0 0.0 0.0 0.0 0.0 0.0 0.0
0.0 0.0 0.0 0.0 0.0 0.0 0.0 0.0
0.0 0.0 0.0 0.0 0.0 0.0 0.0 0.0
0.0 0.0 0.0 0.0 0.0 0.0 0.0 0.0
0.0 0.0 0.0 0.0 0.0 0.0 0.0 0.0
0.0 0.0 0.0 0.0 0.0 0.0 0.0 0.0
0.0 0.0 0.0 0.0 0.0 0.0 0.0 0.0
0.0 0.0 0.0 0.0 0.0 0.0 0.0 0.0
0.0 0.0 0.0 0.0 0.0 0.0 0.0 0.0
0.0 0.0 0.0 0.0 0.0 0.0 0.0 0.0
0.0 0.0 0.0 0.0 0.0 0.0 0.0 0.0
0.0 0.0 0.0 0.0 0.0 0.0 0.0 0.0
0.0 0.0 0.0 0.0 0.0 0.0 0.0 0.0
0.0 0.0 0.0 0.0 0.0 0.0 0.0 0.0
0.0 0.0 0.0 0.0 0.0 0.0 0.0 0.0
0.0 0.0 0.0 0.0 0.0 0.0 0.0 0.0
0.0 0.0 0.0 0.0 0.0 0.0 0.0 0.0
0.0 0.0 0.0 0.0 0.0 0.0 0.0 0.0
0.0 0.0 0.0 0.0 0.0 0.0 0.0 0.0

model/dense_2/BiasAdd/ReadVariableOp/resource f2 [256]
00000000: b92a 4a30 7f2e 352d a72d f62d 562d 9230
00000010: 9d30 b130 be30 7e2a 4328 812f ab2b 5d2e
00000020: 562b 6b2f 7b2f cc2d a22e 832e f32b 6b2e
00000030: 642d d52e 122a bf2d a12d d82e 512d a031
00000040: 932e a92e 3a2c 532c 022f 712f 4230 e52c
00000050: 0931 0a2c 582b 752c 602f 4930 6a2e a52d
00000060: 0830 9b2b 9c2a 0b2f 852c e72d fe2c a830
00000070: b531 1a2a 8331 fb30 542c 9d30 3130 ed2d
00000080: 242e 682b 512e 0830 d02e 6630 332c 2730
00000090: ef2c 8c2e 1830 e420 c92f 562b 902d 922d
000000a0: b52c fb2e ba2f 071c 872c 0b30 122d b02e
000000b0: d32d ca20 3b2f ee2c 5730 4b29 792d 0f2e
000000c0: fb26 ca2c 8230 e42f eb2f b230 062b 862f
000000d0: da2c b82e 692f 9630 4431 892c 6f2f 3130
000000e0: 612d 6e2f f42e 432f 462a 9c2c 352f 7332
000000f0: 312d ae31 1d2f 8429 7430 ca2c 652d e728
00000100: f029 372e 302d 702d ef2e 732e 7232 e22b
00000110: ab2c e92b a62c 8d2d 1c31 122d 742a 122e
00000120: fb2d 5f30 922c 4530 242e cf2a 932b 472b
00000130: 482d 8530 0d2c 212e 672d 5731 1a30 ea2f
00000140: a82b 8331 ca28 c731 d330 132c 7327 9a2f
00000150: 0032 302c ed2e 7d2e 002e c72c 0e29 b22f
00000160: a42d c92d 4e2e 852c 7d2d cd27 ec2d 5f30
00000170: 872b 972b 922d e731 2d2f 4f2d 9d2d 8f30
00000180: b32c 442f 912f 4931 8f2e c431 f92c b731
00000190: 142b 8c2f 8e2f 8f2c 6d2f bc2c 1230 3526
000001a0: b431 8d2f 082a 082f 992f d72d 002c 1b31
000001b0: b82b 4826 8831 8530 bc31 b62f d630 1231
000001c0: 6a2d cb2e 0030 ee29 cf2a 4f30 fc30 dc30
000001d0: 152a d030 fe2d 6c2d 8e2c bf29 ce2e 2430
000001e0: ea2e 142b ce2e d02d c529 5e2f 652e 172d
000001f0: f52c 942c e52f 9131 532b 4f2c 442d 072b
0.05252 0.134 0.1015 0.08136 0.0883 0.09314 0.0834 0.1428
0.1442 0.1466 0.1482 0.05072 0.0333 0.11725 0.0599 0.0994
0.0573 0.1159 0.1169 0.0906 0.10364 0.10175 0.0621 0.1003
0.0842 0.10675 0.04742 0.0898 0.08795 0.10693 0.08307 0.1758
0.1027 0.10406 0.06604 0.06757 0.1095 0.1163 0.133 0.0765
0.1573 0.0631 0.05737 0.06964 0.11523 0.1339 0.1002 0.0882
0.126 0.05942 0.05164 0.11005 0.0706 0.0922 0.078 0.1455
0.1783 0.04767 0.1722 0.1556 0.0676 0.1442 0.131 0.0926
0.09595 0.05786 0.0987 0.126 0.10645 0.1375 0.0656 0.1298
0.0771 0.1023 0.1279 0.00955 0.12164 0.0573 0.0869 0.08704
0.07355 0.1091 0.1207 0.003933 0.07074 0.1263 0.0792 0.1045
0.091 0.00935 0.113 0.077 0.1356 0.04135 0.0855 0.09467
0.02727 0.0748 0.1409 0.1233 0.1237 0.1467 0.05487 0.11755
0.0758 0.105 0.1158 0.1433 0.1646 0.07086 0.11615 0.131
0.08405 0.1161 0.10864 0.11346 0.049 0.072 0.1126 0.2015
0.0811 0.1775 0.11115 0.0431 0.1392 0.0748 0.0843 0.0383
0.0464 0.0971 0.08105 0.08496 0.10834 0.10077 0.2014 0.06158
0.07294 0.0618 0.07263 0.08673 0.1597 0.0792 0.0504 0.09485
0.09344 0.1366 0.0714 0.1334 0.09595 0.0532 0.05917 0.05685
0.0825 0.1412 0.0633 0.09576 0.0844 0.1669 0.1282 0.12366
0.0598 0.1722 0.0374 0.1805 0.1508 0.06366 0.0291 0.1188
0.1875 0.0654 0.1082 0.1014 0.09375 0.07465 0.0395 0.12024
0.08813 0.0904 0.0985 0.0706 0.08575 0.03047 0.0925 0.1366
0.0588 0.0593 0.08704 0.1844 0.1121 0.08295 0.0877 0.1425
0.0734 0.1135 0.1182 0.1652 0.1025 0.1802 0.0777 0.1786
0.0553 0.1179 0.11804 0.0712 0.116 0.074 0.1272 0.02425
0.1782 0.118 0.04712 0.10986 0.1187 0.09125 0.0625 0.1595
0.0603 0.02454 0.1729 0.1412 0.1792 0.1205 0.1511 0.1584
0.0846 0.10614 0.125 0.04633 0.0532 0.1346 0.1558 0.1519
0.04752 0.1504 0.0936 0.0847 0.07117 0.0449 0.1063 0.1294
0.10803 0.0553 0.1063 0.0908 0.04507 0.1151 0.0999 0.0795
0.07745 0.07153 0.12335 0.174 0.05722 0.0673 0.0823 0.0549

model/last_layer/BiasAdd/ReadVariableOp/resource f2 [31]
00000000: 599a 64a6 5ca0 d323 851d d9a4 619b 661e
00000010: 7620 3428 b39e 5ca4 9022 2400 aa9e baa2
00000020: eca3 31a1 ada0 6a18 be9d 2da0 c724 e89e
00000030: 4f9e 22a5 bb24 5595 02a9 a924 349e
-0.0031 -0.02496 -0.008514 0.01528 0.00539 -0.01894 -0.003603 0.00625
0.00871 0.03284 -0.006542 -0.01703 0.01282 2.15e-06 -0.006508 -0.01314
-0.01547 -0.01014 -0.00913 0.002155 -0.005608 -0.008156 0.01866 -0.006744
-0.00616 -0.02005 0.01848 -0.001302 -0.03912 0.0182 -0.006058

model/time_distributed_11/dense_1/BiasAdd/ReadVariableOp/resource f2 [64]
00000000: 79a4 5da5 45a7 5aa5 43a4 d6a8 faa6 6ea8
00000010: d1a8 4022 b590 bba8 04a4 681d 28a6 ccaa
00000020: 41a1 c5a9 02a8 fba8 5b24 44a9 de19 b1a5
00000030: 71a9 0fa8 9ca5 62a2 eca3 c9aa dca7 eda6
00000040: 07a9 d121 0ca3 8eaa e59d 529c 6c1f c5a6
00000050: c1a8 1ea8 0e12 53a6 79a6 1fa5 93a5 82a6
00000060: 4aaa fc1e 81a8 96a4 5421 a6a4 b4ab 52a8
00000070: aba5 90a8 3faa 36a6 9fa0 f4a4 c6a9 9aa3
-0.01747 -0.02095 -0.0284 -0.0209 -0.01665 -0.03778 -0.02725 -0.0346
-0.03763 0.01221 -0.0005746 -0.03696 -0.01569 0.00528 -0.02405 -0.0531
-0.01026 -0.04507 -0.0313 -0.0389 0.01701 -0.04114 0.002865 -0.02223
-0.0425 -0.0317 -0.02191 -0.01247 -0.01547 -0.053 -0.0307 -0.02705
-0.03928 0.01136 -0.01376 -0.0512 -0.005756 -0.00422 0.007248 -0.02644
-0.03714 -0.03217 0.000739 -0.0247 -0.02528 -0.02 -0.02177 -0.02542
-0.04913 0.00682 -0.0352 -0.01791 0.01041 -0.01816 -0.06018 -0.03375
-0.02214 -0.03564 -0.0488 -0.02426 -0.009026 -0.01935 -0.0451 -0.01485

model/time_distributed_5/dense/BiasAdd/ReadVariableOp/resource f2 [32]
00000000: 4fa8 1ca7 3524 2017 5414 66a7 9eab 6da9
00000010: 151c 6a93 8925 91a9 8aa8 d6a1 b7a6 a3a5
00000020: 6ba8 06a8 839c daa9 ef9b 84a9 b629 93a1
00000030: 1fa3 c0aa b4ac 42a4 6024 6621 78a6 62a5
-0.03366 -0.02777 0.01643 0.0017395 0.001057 -0.0289 -0.0595 -0.0424
0.003986 -0.000905 0.02162 -0.0435 -0.03546 -0.0114 -0.02623 -0.02202
-0.03452 -0.03143 -0.004406 -0.04572 -0.003874 -0.0431 0.04462 -0.01089
-0.01391 -0.05273 -0.0735 -0.01663 0.01709 0.010544 -0.02527 -0.02103

model/dense_2/MatMul f2 [256, 32]
00000000: b2b3 a3aa d131 c032 3031 74ad 22ae 152c
00000010: f932 fdae 3bb1 9c26 b5ac 7d30 abac 8bab
00000020: 7d28 f3ad 19ad 8b28 c1af 442e 29aa 00b2
00000030: 3a32 8b31 902e 9930 3fad e321 beb2 f8a4
00000040: 89ad 0c30 0531 74b1 39a5 9d2c e5b1 1434
00000050: ffac d222 5bb0 4a2d 3032 0426 b62c f7ac
00000060: e4b5 c0ac cb32 d62f 16a9 30b4 062a 132c
00000070: 1db4 72b2 2d2c 0ab0 86a7 05b1 362e 60ac
00000080: 6429 5724 9131 c2ae be26 6a9e 202c 3532
00000090: 28b0 d22d d332 59af d630 c5ac c5af 2b36
000000a0: a727 2230 f328 b431 67ae ad2c 9521 bab2
000000b0: cd31 b530 0328 e634 849c ba28 8c31 1aad
000000c0: 6fb3 4e34 d42c beb0 54a5 b634 09b1 50b2
000000d0: 09b1 bc2a 4432 97b1 cf2c 30b0 f030 dc26
000000e0: 5f2d 7834 0430 652d 8ab4 332c 35a9 69a1
000000f0: 5eb0 202c cda8 162c 1c30 d432 fc22 3b34
00000100: a135 be33 42a9 e030 a0a5 a821 3126 3232
00000110: 492f c4aa 9f33 5e34 7aa9 39a1 e030 b934
00000120: 662e 9eb4 191b 59a8 7034 8b27 0021 6bb1
00000130: 2f2a a332 50b5 922f 2429 9818 14b0 9bb0
00000140: d0a7 21b2 8eab 4d29 422a a7ab 082f 1e32
00000150: 9cb0 b2a6 a82a 372b da30 e628 19ac 9935
00000160: d233 bc2c 1534 d5aa 4fb0 62ad cc2c 9a2d
00000170: 3cb0 7231 e6ac 6c27 1930 2d26 cb2e 3d29
00000180: eb2d 9bb0 cc32 f719 3f32 deb1 ec32 422f
00000190: 25ae c531 8bb1 6b28 f4ac ccb2 72a3 02a9
000001a0: 4833 c12f 2430 451a b2aa 152c cc23 11af
000001b0: 84a1 7998 9735 a132 5f30 deac 4a2d d9b3
000001c0: f025 2b2c 8fa7 70b0 522e 50a9 32b3 2632
000001d0: 3b2e 2ba9 00ad 3633 69a8 922e 3232 5611
000001e0: d724 9da9 2430 452e 852c 56ab fab0 12b4
000001f0: 2330 08a5 19b0 f3b1 00b1 44b3 e2af 76ae
-0.2405 -0.05185 0.1818 0.2109 0.1621 -0.0852 -0.0958 0.0638
0.2179 -0.1092 -0.1635 0.02582 -0.07355 0.1403 -0.07294 -0.05893
0.03506 -0.09296 -0.07965 0.0355 -0.12115 0.0979 -0.04813 -0.1875
0.1946 0.1732 0.10254 0.1437 -0.082 0.0115 -0.2107 -0.01941
-0.0865 0.1265 0.1569 -0.1704 -0.0204 0.0721 -0.1842 0.255
-0.07806 0.01332 -0.1361 0.08264 0.1934 0.0235 0.0736 -0.0776
-0.3682 -0.0742 0.2123 0.12244 -0.03973 -0.2617 0.04706 0.06366
-0.257 -0.2014 0.06525 -0.1262 -0.02939 -0.1569 0.09705 -0.06836
0.0421 0.01695 0.174 -0.1056 0.02634 -0.006264 0.06445 0.194
-0.1299 0.09094 0.2133 -0.1148 0.1511 -0.0745 -0.1214 0.3855
0.02989 0.1292 0.03867 0.1782 -0.10004 0.07306 0.0109 -0.2102
0.1813 0.1471 0.03134 0.3062 -0.00441 0.03693 0.1733 -0.0797
-0.2323 0.269 0.07544 -0.1482 -0.02081 0.2944 -0.1573 -0.1973
-0.1573 0.0526 0.1958 -0.1747 0.07513 -0.1309 0.1543 0.0268
0.0839 0.2793 0.1255 0.0843 -0.2837 0.0656 -0.04068 -0.01057
-0.1365 0.06445 -0.0375 0.06384 0.1284 0.2134 0.01364 0.2644
0.3518 0.242 -0.04108 0.1523 -0.02197 0.01105 0.02419 0.1936
0.11383 -0.05286 0.2382 0.273 -0.0428 -0.0102 0.1523 0.2952
0.1 -0.2886 0.003466 -0.03397 0.2773 0.02946 0.009766 -0.1693
0.0483 0.2074 -0.332 0.1183 0.04016 0.002243 -0.1274 -0.1439
-0.03052 -0.1915 -0.05902 0.0414 0.0489 -0.05978 0.10986 0.1912
-0.144 -0.02615 0.052 0.05637 0.1516 0.03827 -0.064 0.3499
0.2444 0.074 0.2551 -0.05338 -0.1346 -0.0841 0.07495 0.0875
-0.1323 0.1702 -0.07654 0.02899 0.128 0.02412 0.10614 0.04092
0.09247 -0.1439 0.2124 0.002913 0.1952 -0.1833 0.2163 0.1134
-0.096 0.1803 -0.1732 0.03452 -0.0774 -0.2124 -0.01454 -0.03912
0.2275 0.12115 0.1294 0.003061 -0.0523 0.0638 0.01523 -0.1104
-0.01077 -0.002184 0.3494 0.2072 0.1366 -0.07605 0.08264 -0.2452
0.0232 0.0651 -0.02953 -0.1387 0.09875 -0.0415 -0.2249 0.1921
0.09735 -0.04037 -0.0781 0.2253 -0.03445 0.10266 0.1936 0.0006514
0.0189 -0.04385 0.1294 0.09796 0.0706 -0.0573 -0.1555 -0.2544
0.1293 -0.01965 -0.128 -0.1859 -0.1562 -0.227 -0.12317 -0.10095

model/last_layer/MatMul f2 [31, 256]
00000000: 68ab f7a9 7426 e2ab 4aaf d3a3 f1a0 4927
00000010: 05b2 c3b2 ce91 91a1 12b1 5128 862d 932e
00000020: f92a 2525 5dad 6e27 f227 21a7 4fa9 5ca8
00000030: 31a3 6ba9 4d2f 88b0 afb3 ba25 ea25 1a2d
00000040: 98af d2ab d528 2b29 9ab1 a2b1 9a2c 44b1
00000050: c830 26af 82b0 82b0 17ae 42b5 c229 b728
00000060: 36b5 1aa1 a0a8 5bb1 49ad fdae fa23 2026
00000070: 36b0 bf21 f52f c02b faa9 52af 80ae d529
00000080: ec9c d3ac d42e e1b1 3bad a027 792b 97b0
00000090: b22a e0a6 f424 2f28 442b 10b2 c7a1 74b3
000000a0: eaa4 19b0 282a 7cad d7ac 27b2 b222 ffa8
000000b0: aba9 20af 671c 53a6 84b5 722b 5ab1 fca3
000000c0: 0c2f ccad e5ac b2ad 1622 f9aa 71b1 d730
000000d0: 0e24 ada5 6228 ea25 622c 682c 62a9 ada3
000000e0: 4ca9 0da4 24b1 7aac 03ad deb1 4025 35b3
000000f0: b72c acaa cea4 3826 e721 112c bbb2 c2a9
00000100: acb2 eead 7fa8 aea4 832d 22a6 b1ad f3a0
00000110: 0e2a 671f a4ab 7cad 042a 78ad 6028 d0b0
00000120: 3f24 032a 841f e829 e5ac ffa8 a1ac 19b1
00000130: 9229 54b3 052d 23ab 2327 88b1 73a5 60b0
00000140: ae2b 75a9 e5a8 a629 cfb1 09ae 6130 abaf
00000150: 37b0 6a28 362b 551d 29aa 3fa6 41a4 6eaa
00000160: cca8 f424 fcb0 622b 9fa9 d614 9f26 6eb4
00000170: fcac 4eab c6b2 352e d2a3 d018 51b2 d3b2
00000180: 4e2b 16a8 16a8 5c22 16b2 552d eaad 501f
00000190: 97b3 e3a4 eba8 35a5 8fb0 b6af a9b2 0caa
000001a0: 771d 03b4 adad 9521 0ab2 ad26 2ea3 672c
000001b0: 69b3 312e a6a4 0724 38a8 142a 68aa 6924
000001c0: 16b0 f9ac 552d 25ac e129 b829 17b8 64b2
000001d0: 66ab 6c27 a526 899d 5dab 0daf 55a8 f0ac
000001e0: ae19 50b0 1dac ceaf 8225 04ab 1eb3 5429
000001f0: 1f2d 54b4 38b0 17a2 e2b0 e0a6 35a3 4eb2
-0.05786 -0.0466 0.0252 -0.06158 -0.1139 -0.01528 -0.00965 0.02846
-0.1881 -0.2113 -0.0007086 -0.01087 -0.1584 0.03372 0.0863 0.1027
0.05447 0.0201 -0.0838 0.02902 0.03104 -0.02785 -0.04147 -0.03406
-0.014046 -0.04233 0.1141 -0.1416 -0.2401 0.02237 0.0231 0.0797
-0.11865 -0.0611 0.03775 0.04037 -0.175 -0.176 0.0719 -0.1646
0.1494 -0.1117 -0.1409 -0.1409 -0.09515 -0.3286 0.04498 0.03683
-0.3257 -0.009964 -0.03613 -0.1674 -0.0826 -0.1092 0.01558 0.02393
-0.1316 0.01122 0.1243 0.06055 -0.0467 -0.1144 -0.10156 0.04556
-0.004807 -0.0754 0.1067 -0.1837 -0.0817 0.02979 0.05838 -0.1434
0.0523 -0.02686 0.01935 0.03268 0.05676 -0.1895 -0.011284 -0.2329
-0.0192 -0.128 0.0481 -0.0857 -0.0756 -0.1923 0.01308 -0.03903
-0.04428 -0.1113 0.0043 -0.0247 -0.3447 0.05817 -0.1672 -0.015594
0.1101 -0.0906 -0.0765 -0.089 0.01189 -0.05447 -0.17 0.1512
0.01584 -0.02217 0.03424 0.0231 0.0685 0.06885 -0.04205 -0.01499
-0.04138 -0.01582 -0.1606 -0.06995 -0.0783 -0.1833 0.02051 -0.2252
0.07367 -0.05212 -0.01877 0.02429 0.01153 0.06354 -0.2103 -0.04498
-0.2085 -0.09265 -0.03513 -0.01828 0.0861 -0.02396 -0.0889 -0.00967
0.0473 0.00723 -0.0597 -0.0857 0.047 -0.08545 0.03418 -0.1504
0.01659 0.04697 0.00734 0.04614 -0.0765 -0.03903 -0.0723 -0.1593
0.04352 -0.229 0.0784 -0.05576 0.02788 -0.1729 -0.02129 -0.1367
0.06 -0.04263 -0.03824 0.04413 -0.1815 -0.0943 0.1368 -0.1198
-0.1317 0.0345 0.05634 0.005207 -0.04813 -0.0244 -0.01662 -0.05023
-0.03748 0.01935 -0.1558 0.05768 -0.0439 0.001181 0.02586 -0.2769
-0.0779 -0.05707 -0.2117 0.097 -0.015274 0.00235 -0.1974 -0.2133
0.05707 -0.03192 -0.03192 0.01242 -0.1902 0.0833 -0.0924 0.00714
-0.2372 -0.01909 -0.03842 -0.02034 -0.1425 -0.1205 -0.2081 -0.04724
0.005337 -0.2507 -0.0887 0.0109 -0.1887 0.02608 -0.01402 0.0688
-0.2316 0.09674 -0.01816 0.01573 -0.03296 0.0475 -0.05005 0.01723
-0.1277 -0.0777 0.0833 -0.06476 0.04593 0.04468 -0.511 -0.1997
-0.0578 0.02899 0.02596 -0.005405 -0.05753 -0.11017 -0.03384 -0.07715
0.002773 -0.1348 -0.0643 -0.12195 0.02151 -0.0548 -0.2224 0.04163
0.08 -0.2705 -0.1318 -0.011894 -0.1526 -0.02686 -0.01408 -0.197

model/time_distributed_11/dense_1/MatMul f2 [64, 1488]
00000000: aa26 5d2c d21e c724 3523 bd2c bf26 1629
00000010: 0a2e 5faa b229 582b 492c b49d 2698 3fa8
00000020: db28 9e2e 6ba6 271e 2eab f0a1 f3a6 722b
00000030: 92ad 8aad 8ea4 0622 bca3 019b 202c 79a8
00000040: d324 612b 55ac c0a9 70a8 b4a9 d324 702a
00000050: 141c 7caa 82a9 8f21 1a9e e0a5 b425 4fa0
00000060: c627 0b9e 0ea9 772a 4b24 751e 17ab 9a8f
00000070: ae20 4f9e 9825 eead cdaf db26 ae25 86ac
00000080: ce2c 8925 2cac 642b 092b a827 bcaf 841d
00000090: 67ac 1aad b6a5 8ba8 4fa9 9b2c 09a3 e1af
000000a0: de9c d126 382a 6bab 889f 66a6 bfa8 58a2
000000b0: 11af 5328 4927 73a6 53ac 77a4 9aaf acaf
000000c0: 432a baa0 f728 6b98 acac 8f2e e9a4 59ae
000000d0: 83a8 cd9c 7029 11a2 8daa 272b b2ad 44a0
000000e0: 48aa 4922 b621 1700 1dae 2d2a 0c2e d9a7
000000f0: 4aaa e7a3 772e 0eaa c2ab 869d f822 58a5
00000100: a60a 6427 5f28 22ad e7aa de24 062d 2aa3
00000110: 6ca5 0e27 f524 9b9c 1928 bb29 b624 562d
00000120: 1ead 6329 e0a4 c5ad 9ba9 9aa8 3d2d 872c
00000130: 81a6 f3aa 152c 4e2c 54ab c0a9 f02e 562b
00000140: d2a9 282b cd2c dfac 1c2b ebac c22c ae28
00000150: 4424 4aa8 182b ed27 bfa9 fc29 392d ef26
00000160: d0a9 86a7 5621 25ad ce2a f71f ad28 0a2b
00000170: 3627 f6a9 e42b 14a7 e628 2829 c42a 6325
00000180: eca0 971e 662d 1a25 c829 caa9 0a2a 5428
00000190: a927 e0a8 622a 3628 9e2c cba3 5a2c 6d2c
000001a0: 6ea8 29aa 5e2d 51ab 5a2c 662c 7a28 6c9c
000001b0: 692c daa6 1ca9 b12d 1a26 8ea1 ba29 3a24
000001c0: 3026 e3a8 7ba5 a52a a6a2 f32c 619d bca2
000001d0: e52c 932a fd25 3f2c f724 6f28 ca2e e422
000001e0: b023 1426 9927 7628 242d a0a4 dea9 0a2c
000001f0: 83a6 0d2d 33a7 3ba9 e7ab 5ea0 102d e425
0.02603 0.0682 0.00666 0.01866 0.01408 0.07404 0.02635 0.03973
0.09436 -0.04977 0.0445 0.05737 0.06696 -0.00557 -0.002026 -0.03317
0.03793 0.1034 -0.02507 0.00601 -0.0561 -0.0116 -0.02715 0.05817
-0.08704 -0.08655 -0.01779 0.011765 -0.01511 -0.00342 0.06445 -0.03494
0.01884 0.05765 -0.0677 -0.04492 -0.03467 -0.04456 0.01884 0.0503
0.003983 -0.05066 -0.04303 0.01086 -0.00596 -0.02295 0.02228 -0.008415
0.03036 -0.0059 -0.0395 0.0505 0.01677 0.006306 -0.0554 -0.000464
0.00914 -0.00616 0.02185 -0.09265 -0.1219 0.02678 0.02219 -0.0707
0.0751 0.02162 -0.0652 0.05774 0.05496 0.0299 -0.12085 0.005386
-0.0688 -0.0797 -0.02231 -0.0355 -0.04147 0.07196 -0.01374 -0.1231
-0.004753 0.02663 0.04858 -0.05795 -0.007355 -0.025 -0.03708 -0.01239
-0.1104 0.03378 0.02846 -0.02519 -0.06757 -0.01744 -0.1188 -0.1199
0.04892 -0.00923 0.0388 -0.002157 -0.073 0.1025 -0.01918 -0.0992
-0.03525 -0.00469 0.04248 -0.01185 -0.05118 0.05588 -0.089 -0.00833
-0.04907 0.012276 0.011154 1.4e-06 -0.0955 0.04825 0.0945 -0.03065
-0.04913 -0.015434 0.101 -0.0473 -0.0606 -0.005394 0.01361 -0.02087
0.0002029 0.02887 0.03415 -0.0802 -0.05392 0.01901 0.0785 -0.01399
-0.02118 0.02756 0.01936 -0.004498 0.032 0.04477 0.0184 0.0834
-0.07996 0.04208 -0.01904 -0.09015 -0.0438 -0.03595 0.08185 0.07074
-0.0254 -0.0543 0.0638 0.06726 -0.05725 -0.04492 0.1084 0.0573
-0.04547 0.0559 0.075 -0.0761 0.05554 -0.07684 0.07434 0.03656
0.01666 -0.0335 0.05542 0.03096 -0.0449 0.04675 0.0816 0.02708
-0.0454 -0.02939 0.01042 -0.0804 0.05316 0.00778 0.03653 0.055
0.02817 -0.04657 0.06165 -0.02765 0.03827 0.04028 0.05286 0.02104
-0.00961 0.006435 0.08435 0.01993 0.04517 -0.04523 0.04718 0.0338
0.02992 -0.0381 0.04987 0.0329 0.07214 -0.01522 0.068 0.06915
-0.0346 -0.04813 0.08386 -0.05716 0.068 0.0687 0.03497 -0.00432
0.0689 -0.02676 -0.03992 0.0889 0.02383 -0.01085 0.04474 0.01651
0.02417 -0.03818 -0.02141 0.0519 -0.012985 0.07733 -0.005253 -0.01315
0.0765 0.05136 0.02339 0.06635 0.0194 0.03464 0.1061 0.01346
0.015015 0.02374 0.02968 0.03485 0.0803 -0.01807 -0.04584 0.0631
-0.02544 0.0789 -0.02812 -0.04086 -0.06174 -0.00853 0.0791 0.02301

model/time_distributed_3/batch_normalization/FusedBatchNormV3 f2 [8]
00000000: ccbe 59bf 8bbf 5dbe 09bf 8bbd adbd 0bc0
-1.699 -1.837 -1.886 -1.591 -1.759 -1.386 -1.419 -2.021

model/time_distributed_3/batch_normalization/FusedBatchNormV31 f2 [8]
00000000: ae3b 9d3b 023c 6e3b 923b f83b 7e3b 4b3c
0.96 0.9517 1.002 0.9287 0.9463 0.996 0.9365 1.073

model/time_distributed_5/dense/MatMul f2 [32, 168]
00000000: 1534 462d 3531 88b3 f032 4532 7b32 4d31
00000010: ddaf 36b3 73b2 24a2 b6a2 7b34 3fa8 7a27
00000020: dead fea8 77b3 00b2 382b f9a4 cc9f 1da5
00000030: b826 ba29 43a6 b1a9 0631 40b1 4ab2 da1e
00000040: 87b2 0c31 84b0 6faf 18b3 cf2f 5425 f8b1
00000050: d9ad 65b5 d327 9cb5 812b 822d 5929 50ad
00000060: 7732 0132 8232 d830 c4a9 d2ac 9e2f 9f2a
00000070: 732d 6f31 56b2 edb3 402e 3fb2 b12f c4a5
00000080: 7732 c727 b02f 8e29 e8af 9532 e735 09af
00000090: a2a6 b1b1 032c 4620 112c 6328 85af 83b0
000000a0: 9932 6d2c 05a6 0730 532a b9b1 bf98 4d2a
000000b0: 45ac f82e a8b2 1c28 bda6 0c31 ceae 0627
000000c0: 62b3 bd2c 88af 2f31 cd9d bb31 732e dcab
000000d0: 7133 9d2c 68af eb33 7d27 19b0 3222 939d
000000e0: f624 c82d 2ca9 aab0 d732 0bb3 19ac 722c
000000f0: e831 4aad 65ad 06b4 feaa 8ab0 162a 4fac
00000100: 3028 1b31 8334 b320 d920 ef29 8e34 e4af
00000110: 102d 339d 8aae c82f 692c 4130 87ad 70ae
00000120: 04a9 a6ae 66b1 552f 9e25 0c2c d4af 5db0
00000130: edb0 02ad 23b2 baa3 60b3 e7ad dfb0 adad
00000140: 4ea5 832f 0a30 302a 2f29 d92d 4e31 c934
00000150: 74ac 6231 aa2c 97ae 9633 6e30 5eb0 a825
00000160: abb5 16b5 1eaa 5c2c df2c 82ad 37ab cbad
00000170: 97b1 8329 4c2c bdab b5ad 682f 6e25 bc2d
00000180: 0133 8829 f2a5 8cab d1a0 0a30 bcb0 d925
00000190: 9734 7735 fd28 a631 eb2e e8ad 45a8 022a
000001a0: 2124 332a 4da5 06b1 302f 8528 6224 0b31
000001b0: 342d 01a2 53b0 f6a4 73b0 1827 8b34 8fb1
000001c0: fdad 5b31 5fad adab 752e 1032 cc32 e9ae
000001d0: 5830 0031 daac 052d 93b3 cbb1 721b 8bb2
000001e0: dcae d3a0 c6b1 dab5 3c2d 1bb1 062e a3a4
000001f0: 3122 492f 3ea8 1aac 0530 1b2c c1af e1a8
0.2551 0.0824 0.1627 -0.2354 0.2168 0.1959 0.2025 0.1656
-0.12286 -0.2253 -0.2015 -0.01199 -0.01311 0.28 -0.03317 0.0292
-0.0917 -0.039 -0.2333 -0.1875 0.0564 -0.01942 -0.007614 -0.01997
0.02625 0.04474 -0.02446 -0.04446 0.157 -0.1641 -0.1965 0.00669
-0.204 0.1577 -0.1411 -0.11615 -0.2217 0.122 0.02081 -0.1865
-0.0914 -0.3372 0.03056 -0.3506 0.05862 0.08606 0.04178 -0.083
0.202 0.1876 0.2034 0.1514 -0.04504 -0.0753 0.119 0.05173
0.08514 0.1698 -0.198 -0.2477 0.09766 -0.1952 0.1202 -0.02252
0.202 0.03038 0.1201 0.0434 -0.12354 0.2057 0.369 -0.1099
-0.02591 -0.1779 0.0627 0.00835 0.06354 0.03427 -0.1175 -0.141
0.2062 0.06915 -0.02351 0.1259 0.0494 -0.1788 -0.002317 0.04922
-0.0667 0.1089 -0.208 0.0321 -0.02632 0.1577 -0.1063 0.02744
-0.2307 0.07404 -0.1177 0.162 -0.005665 0.1791 0.10077 -0.0614
0.2325 0.0721 -0.1157 0.2474 0.02925 -0.128 0.0121 -0.005444
0.01938 0.09033 -0.0404 -0.1458 0.2137 -0.2201 -0.064 0.06946
0.1846 -0.08264 -0.0843 -0.2515 -0.05463 -0.1418 0.04755 -0.0673
0.0327 0.1595 0.282 0.00918 0.00947 0.04636 0.2847 -0.1233
0.0791 -0.005077 -0.1022 0.1216 0.0689 0.1329 -0.08636 -0.1006
-0.03918 -0.1039 -0.1687 0.11456 0.02194 0.06323 -0.1223 -0.1364
-0.1539 -0.07825 -0.1918 -0.01509 -0.2305 -0.0922 -0.1522 -0.0887
-0.02072 0.1174 0.1262 0.04834 0.0405 0.0914 0.1658 0.299
-0.0696 0.1682 0.0729 -0.10297 0.237 0.1384 -0.1365 0.0221
-0.3542 -0.3179 -0.0478 0.0681 0.0761 -0.08606 -0.05637 -0.0905
-0.1747 0.04306 0.06714 -0.06046 -0.0892 0.1157 0.02121 0.0896
0.2189 0.0432 -0.02322 -0.05896 -0.00941 0.1262 -0.148 0.02284
0.2869 0.3416 0.03897 0.1765 0.1081 -0.0923 -0.03336 0.04694
0.01613 0.04843 -0.0207 -0.157 0.1123 0.0353 0.01712 0.1576
0.0813 -0.01173 -0.1351 -0.01938 -0.139 0.02771 0.284 -0.1737
-0.09357 0.1674 -0.0839 -0.05997 0.1009 0.1895 0.2124 -0.108
0.1357 0.1562 -0.0758 0.0784 -0.2367 -0.181 0.003635 -0.2045
-0.1072 -0.00942 -0.1804 -0.3657 0.0818 -0.1595 0.0941 -0.01811
0.01209 0.11383 -0.03314 -0.0641 0.1256 0.06415 -0.12115 -0.03812

model/time_distributed_9/batch_normalization_1/FusedBatchNormV3 f2 [16]
00000000: 11b7 9cb8 2db7 0db5 e8b7 33b8 3ab8 35b7
00000010: f9b4 83b7 89b7 b3b6 aab7 a9b6 12b6 c5b5
-0.4417 -0.576 -0.4485 -0.3157 -0.4941 -0.525 -0.5283 -0.4504
-0.3108 -0.4695 -0.471 -0.4187 -0.479 -0.4163 -0.3794 -0.3606

model/time_distributed_9/batch_normalization_1/FusedBatchNormV31 f2 [16]
00000000: 973e 733e 443e 9b3f 0b40 963d 6b3f cc3f
00000010: 213f 0e3f bb3e 2b3d 0340 863e fa3e e63e
1.647 1.612 1.566 1.901 2.021 1.396 1.8545 1.949
1.782 1.764 1.683 1.292 2.006 1.631 1.744 1.725

model/lstm/while/lstm_cell_2/MatMul_4 f2 [32, 32]
00000000: 35ac 7727 09b0 beaa 2130 9aac 2c30 ce2f
00000010: c42a f7aa ba30 c0b2 d4a8 e128 6a28 2a2c
00000020: 6a2b 37af 2631 5328 a8af 26b1 ffa2 f22d
00000030: 02b0 f72d daa3 c825 10ab 4230 75ad 13ad
00000040: 46b2 5fb2 ab29 291c 8127 5a2b 7930 96b4
00000050: da34 7dae 49ac 1c1e d5ad b627 3631 5ea7
00000060: 222e e5b1 972a bf28 de2b a42c 34b0 e7a8
00000070: cf21 ec34 a5ae 25ae 5aa8 6428 1dac c2a6
00000080: 872d c9a0 d720 fbb1 36a7 9bb0 4dae afae
00000090: 592a 0a30 ba25 00a0 7c29 2830 0ca0 75ae
000000a0: 7324 002f 16aa 10aa 8bae 19b1 2c20 102c
000000b0: a5ad a230 a62c 362b 1aad 5e2d d02d 00a2
000000c0: 692b 702c 37ad 3232 01ae c128 f6ac f6aa
000000d0: a1a7 1b1b a233 cea2 172c ecac 3720 cc2d
000000e0: 4bac ae24 cb2d 752a 13a7 822e 16ae fdb0
000000f0: 6f2e f9a7 9221 242c 772e fbac 472f 01b0
00000100: 282b b0b2 16a4 8d27 9ea7 5328 d930 71a7
00000110: ffad be21 b5aa 42ac e1b1 6fa8 21ab 38ae
00000120: 542a 2f1d a530 3eac a529 04af e12d 6e2c
00000130: 0ab0 6198 36ad 67a4 3728 1625 512f 0d2e
00000140: 2d22 fe2b c02f 262b e0a6 8c2e ddb0 2330
00000150: 9f2e 7f24 73b2 58a7 deae 8324 5f30 892c
00000160: 119b 5aa1 8032 2135 b227 9926 f92a 90ae
00000170: f22f cb2a 2f2d ae31 2c2f 8baf 4e2c 8f2a
00000180: b031 2230 6b15 dc2c f0ae f0ab 98b0 3324
00000190: 73b2 92a6 3e2a 18b1 29ad d498 069f 5326
000001a0: 9230 d828 e828 2e2b 88b1 c326 0caf f3a5
000001b0: 7332 112f c432 e9a5 3fa9 1ab1 37b0 ce25
000001c0: f12e 3d2e ca9a 3aae e730 fb29 e1b0 0a29
000001d0: 3725 5e2a e42f 22b0 949c 17a6 a92c 2b26
000001e0: 8227 c1a9 2229 7e30 f028 1830 7ab2 5bab
000001f0: cb25 2d24 19ad e32d ddb1 68ad 9aa8 552f
-0.06573 0.02916 -0.1261 -0.05267 0.129 -0.0719 0.1304 0.12195
0.05286 -0.0544 0.1477 -0.2109 -0.03772 0.03812 0.0345 0.06506
0.05792 -0.11273 0.1609 0.03378 -0.1196 -0.1609 -0.013664 0.0929
-0.1252 0.0932 -0.015335 0.02258 -0.05518 0.133 -0.08527 -0.0793
-0.196 -0.1991 0.04428 0.004063 0.02931 0.05743 0.1398 -0.2866
0.3032 -0.1014 -0.06696 0.005966 -0.0911 0.03012 0.1628 -0.02878
0.0958 -0.1842 0.05148 0.03708 0.06146 0.0725 -0.1313 -0.0383
0.011345 0.3076 -0.1038 -0.096 -0.034 0.0343 -0.0643 -0.0264
0.08636 -0.009346 0.00945 -0.1869 -0.02817 -0.1439 -0.09845 -0.10443
0.0496 0.1262 0.02237 -0.007812 0.04285 0.1299 -0.007904 -0.1009
0.01738 0.1094 -0.04755 -0.04736 -0.10223 -0.1593 0.00815 0.0635
-0.0882 0.1448 0.07263 0.05634 -0.0797 0.08386 0.0908 -0.01172
0.0579 0.06934 -0.0815 0.1936 -0.0938 0.03714 -0.0775 -0.05438
-0.0298 0.00347 0.2385 -0.01329 0.0639 -0.0769 0.00823 0.0906
-0.0671 0.01828 0.0905 0.05045 -0.02763 0.1017 -0.0951 -0.1559
0.1005 -0.03114 0.01088 0.0647 0.101 -0.0778 0.1137 -0.1251
0.0559 -0.209 -0.01596 0.0295 -0.02975 0.03378 0.1515 -0.02907
-0.0937 0.011215 -0.0524 -0.0665 -0.1837 -0.03464 -0.0557 -0.09717
0.04944 0.005062 0.1451 -0.0663 0.0441 -0.1096 0.09186 0.0692
-0.1262 -0.002138 -0.0814 -0.0172 0.03293 0.01987 0.1143 0.09454
0.01206 0.06244 0.1211 0.05585 -0.02686 0.1023 -0.152 0.1293
0.10345 0.01756 -0.2015 -0.02869 -0.1073 0.01762 0.1366 0.07086
-0.00345 -0.01045 0.2031 0.3206 0.03006 0.02577 0.05447 -0.10254
0.12415 0.05307 0.081 0.1775 0.11206 -0.11786 0.06726 0.05124
0.1777 0.1292 0.001323 0.0759 -0.1084 -0.062 -0.1436 0.0164
-0.2015 -0.02567 0.04877 -0.1592 -0.0806 -0.002357 -0.00686 0.0247
0.1428 0.03784 0.03833 0.0561 -0.1729 0.02641 -0.1101 -0.02324
0.2015 0.1104 0.2114 -0.02309 -0.041 -0.1594 -0.1317 0.02267
0.10846 0.0975 -0.003315 -0.0973 0.1532 0.04672 -0.1525 0.03937
0.02037 0.04974 0.1233 -0.1292 -0.00447 -0.02379 0.0728 0.0241
0.02933 -0.04495 0.0401 0.1404 0.03857 0.1279 -0.2024 -0.05746
0.02263 0.01631 -0.07965 0.092 -0.1832 -0.0845 -0.03595 0.11456

model/lstm/while/lstm_cell_2/MatMul_5 f2 [32, 32]
00000000: 472b 57aa f622 e52d 5124 3e28 d62c e229
00000010: 732a b2ab 38b1 e931 ccae 0929 da30 7ab0
00000020: 40ad 4caa 2b28 152f b420 b2a8 cbac f32a
00000030: 3da8 841e a92e 182e 86a5 f9b2 79b0 cfaa
00000040: 06a8 7c29 99ae f8af 0823 1a18 7923 762c
00000050: eb94 892b a4af d82e 192b 3da4 bc2f c0a9
00000060: ff2a ecac 0e28 9a2e 97b1 3b98 6826 1aaa
00000070: 192b 8c2d 2ab2 ae30 afb1 02a5 a32c 2cb1
00000080: 6491 e029 c8a8 6422 4925 6226 feb0 802c
00000090: fb2e e0a4 1c2c 7923 5e2c f72e 2e2a fbb1
000000a0: fba8 65a8 f3ab c3ad 69a7 982f 421d e8ac
000000b0: b6aa 5c33 bfad 13b1 2328 f132 88ac 1eaf
000000c0: cdb0 9c31 7aaf 8b18 902d 38a7 5830 b9ae
000000d0: f72c 082b f7ae 5d20 55b1 d2ad 40af 6623
000000e0: 83aa 7f30 c7b1 a0ae 7bb1 5431 5229 cb30
000000f0: 62af 2430 90ae 57aa f528 d91a 9330 4832
00000100: 2ab0 d6a3 831b 4e1f ee24 1dab e8aa 5da5
00000110: 38b1 92ac b92b d52e 5cb0 df22 f1a7 752f
00000120: 78ac 8324 b72e 122f 4c15 0d28 1d2a 972b
00000130: 2333 3e2a 06b1 4825 ccac 969d 98b1 afa9
00000140: 08a6 7f2c bba4 8bae 2caf 0a28 1d2a 2595
00000150: 782d aeb0 fca7 462c 15b0 1a2a 0a1b 86b0
00000160: 2c2c b6b0 9832 97ac 022c 0eac 9632 009e
00000170: 33ac b032 74a9 caaa 28aa c4b2 7131 09a2
00000180: f628 332c 0aab d229 1c30 40a8 24ab 61a6
00000190: ebb0 b52a 8ead c4b0 7f28 1ba0 c5af 38ab
000001a0: 3dac 4c2d 19a8 9a22 7db3 7c2e 6ea8 b5a2
000001b0: c925 7329 692c 4fae 3c2d b89a 1baa 752d
000001c0: bb2d 88ab 4ba9 0e2e 7eb2 972e ca29 ce2c
000001d0: 622c e9ab 32b4 8f2d 77ae e6ac 31a5 d429
000001e0: 58b3 86b1 a0ab e3ad 90a9 8bac 192d afb0
000001f0: 502e d72c 572e a5b2 edac 9d2c b2a9 a22d
0.05685 -0.04953 0.013596 0.0921 0.01686 0.03314 0.07556 0.04596
0.05038 -0.06012 -0.1631 0.1847 -0.1062 0.03934 0.1516 -0.1399
-0.08203 -0.0492 0.03256 0.11066 0.009186 -0.03668 -0.0749 0.0543
-0.0331 0.006363 0.10406 0.0952 -0.02158 -0.2179 -0.1398 -0.0532
-0.03143 0.04285 -0.1031 -0.1245 0.01373 0.002003 0.014595 0.0697
-0.001201 0.05887 -0.1194 0.10693 0.05545 -0.01656 0.12085 -0.04492
0.05466 -0.0769 0.03168 0.10315 -0.1747 -0.002066 0.02502 -0.04767
0.05545 0.0867 -0.1926 0.1462 -0.1776 -0.01956 0.07245 -0.1616
-0.000658 0.0459 -0.03735 0.01248 0.02065 0.02493 -0.156 0.0703
0.1091 -0.01904 0.0642 0.014595 0.06824 0.1088 0.04828 -0.1869
-0.0389 -0.03433 -0.0621 -0.09 -0.02895 0.11865 0.005135 -0.07666
-0.05243 0.23 -0.0898 -0.1586 0.03232 0.2169 -0.0708 -0.1112
-0.15 0.1753 -0.1168 0.002218 0.0869 -0.0282 0.1357 -0.10504
0.0776 0.05493 -0.1088 0.00852 -0.1666 -0.09094 -0.1133 0.01445
-0.05087 0.1405 -0.1805 -0.1035 -0.1713 0.1665 0.04156 0.1498
-0.11536 0.1294 -0.10254 -0.04953 0.03873 0.003344 0.143 0.1963
-0.1301 -0.015305 0.003668 0.007133 0.01926 -0.05557 -0.05396 -0.02095
-0.1631 -0.0714 0.06033 0.10675 -0.1362 0.01342 -0.03102 0.1165
-0.0698 0.01762 0.1049 0.1105 0.001293 0.03165 0.04776 0.0593
0.223 0.04877 -0.157 0.02063 -0.07495 -0.005455 -0.1748 -0.0444
-0.02356 0.07025 -0.01848 -0.10223 -0.11206 0.03156 0.04776 -0.001256
0.08545 -0.1462 -0.03119 0.0668 -0.1276 0.04767 0.003437 -0.1414
0.0652 -0.1472 0.206 -0.0717 0.0626 -0.06335 0.2058 -0.00586
-0.0656 0.209 -0.0426 -0.05304 -0.0481 -0.2114 0.17 -0.01179
0.03876 0.0656 -0.055 0.04547 0.1284 -0.0332 -0.0558 -0.02492
-0.1537 0.0524 -0.0868 -0.1489 0.03513 -0.00802 -0.1214 -0.0564
-0.0662 0.08276 -0.032 0.01289 -0.234 0.1013 -0.0346 -0.0131
0.0226 0.04257 0.0689 -0.0986 0.0818 -0.00328 -0.0477 0.08527
0.08954 -0.05884 -0.04135 0.0946 -0.2029 0.10297 0.04523 0.0751
0.0685 -0.0618 -0.2622 0.08685 -0.101 -0.07654 -0.02028 0.04553
-0.2295 -0.1726 -0.05957 -0.092 -0.04346 -0.071 0.07965 -0.1464
0.09863 0.0756 0.09906 -0.2076 -0.07697 0.0721 -0.0445 0.088

model/lstm/while/lstm_cell_2/MatMul_6 f2 [32, 32]
00000000: 88b0 84a9 53af 342f 8e28 a1b0 c120 5caa
00000010: c4b2 9630 242f df27 5712 bd29 b42c 1b2d
00000020: a933 c12f b52d bda8 dcad de24 ed27 c62e
00000030: d6b1 cc2b 1828 8eae bbaf bfac 0630 0428
00000040: 5431 46a8 fbab e4a8 e1ae 872d ffb2 1b31
00000050: 98ae 1a26 50ae b3ab 7aa8 8c28 aa30 9bae
00000060: 132c c130 e6ad 39a4 27ae 69b2 e12b 7425
00000070: 0fb0 5eaa dbb2 1bb5 fa1e 33ae d231 1d35
00000080: eb25 592d eaa5 c4b0 5ba7 01b2 bcad 8c2b
00000090: 0f23 26a0 252c 9727 25a0 fe31 c1af 8030
000000a0: 622c 39b0 2b30 ac2a a024 0426 3d2e 93b4
000000b0: 8130 28ac 3719 989f e1ad 62b1 dcaf 7e2f
000000c0: eb2b f4ac daa6 b5ac 142c cd27 e42f d530
000000d0: 46a8 a7a8 87b3 6529 e8aa 102f 4628 76af
000000e0: f530 d8ac fe29 98b1 b931 4615 34a5 fcad
000000f0: 5da9 661a 402b 3a31 2129 fdb0 a8af ddab
00000100: 3ead ad30 c630 fdaf cbab 6fb0 e2af 7a30
00000110: 7fa5 b425 00a0 5fae 0127 7199 d730 45b2
00000120: 4ea7 4e30 a12a de31 d405 792f 602c 0428
00000130: fea1 bfa3 cd35 d3ac bdb0 cb28 20ab 2a32
00000140: b1aa e52e 382a 442a bc99 0c18 12a3 1fa8
00000150: 9230 76b0 831c 4a2c e92a bf26 cd28 bc30
00000160: 8b34 39b3 c829 79b0 9b29 1323 72b2 9cac
00000170: 9830 1827 fd29 77b2 8f2c baab ec21 dfb0
00000180: 07aa 0428 a230 feb1 bd2c 37af 1326 2512
00000190: 4eac 7c30 67aa 2aa8 44ad 12b0 cd2a 35ac
000001a0: 4ab0 a99c f6ae a624 c9a9 be2e d831 db31
000001b0: a5ac e62f bd2a b0a0 742d 7a99 982d b3a9
000001c0: 3aab 3dad 4e26 7da9 4031 35b1 8ca3 6231
000001d0: 89ab e7b0 8626 feb0 5aad f123 57a6 a326
000001e0: f5a8 4bb2 262e 2e33 611c efae 4620 4530
000001f0: abaa 6a2d 9a32 102a 62b1 61ac 4dae 8521
-0.1416 -0.0431 -0.11444 0.11255 0.03558 -0.1447 0.009285 -0.04968
-0.2114 0.1433 0.1116 0.03075 0.000774 0.04483 0.0735 0.0798
0.2394 0.12115 0.0892 -0.03702 -0.09155 0.01901 0.03096 0.10583
-0.1824 0.0609 0.03198 -0.1024 -0.1208 -0.07416 0.1257 0.03137
0.1665 -0.0334 -0.06235 -0.0382 -0.1075 0.08636 -0.2186 0.1595
-0.103 0.02383 -0.09863 -0.06015 -0.03497 0.03552 0.1458 -0.1032
0.06366 0.1486 -0.09216 -0.0165 -0.0961 -0.2003 0.06155 0.0213
-0.1268 -0.04974 -0.2142 -0.319 0.006813 -0.09686 0.1819 0.3196
0.02312 0.08356 -0.0231 -0.1489 -0.02873 -0.1876 -0.0896 0.05896
0.01379 -0.0081 0.06476 0.02965 -0.008095 0.1873 -0.12115 0.1406
0.0685 -0.132 0.1302 0.05212 0.01807 0.0235 0.0975 -0.286
0.1407 -0.06494 0.002546 -0.007416 -0.09186 -0.1682 -0.1228 0.11707
0.06186 -0.0774 -0.02676 -0.07355 0.0637 0.03047 0.1233 0.151
-0.0334 -0.03635 -0.2352 0.04214 -0.05396 0.11035 0.0334 -0.1166
0.1549 -0.0757 0.0468 -0.1748 0.1788 0.001287 -0.02032 -0.0935
-0.0419 0.003124 0.05664 0.1633 0.04007 -0.1559 -0.1196 -0.06143
-0.0819 0.1461 0.1492 -0.1248 -0.06088 -0.1385 -0.12317 0.1399
-0.02147 0.02228 -0.007812 -0.09955 0.02736 -0.002657 0.1512 -0.1959
-0.02853 0.1345 0.0518 0.1833 8.893e-05 0.11676 0.06836 0.03137
-0.0117 -0.01513 0.3625 -0.0754 -0.1481 0.03745 -0.05566 0.1926
-0.05228 0.1077 0.04858 0.04895 -0.0028 0.001976 -0.01381 -0.0322
0.1428 -0.1394 0.004406 0.067 0.054 0.02635 0.0375 0.148
0.284 -0.2257 0.04517 -0.1398 0.0438 0.01382 -0.2014 -0.072
0.1436 0.02771 0.04678 -0.202 0.0712 -0.06036 0.011566 -0.1522
-0.0471 0.03137 0.1448 -0.1873 0.07404 -0.11273 0.02373 0.00075
-0.06726 0.1401 -0.05002 -0.03253 -0.0823 -0.1272 0.05313 -0.06573
-0.134 -0.00455 -0.10876 0.01816 -0.0452 0.10535 0.1826 0.183
-0.0726 0.1234 0.05264 -0.009155 0.0852 -0.002674 0.0874 -0.04453
-0.05646 -0.08185 0.02463 -0.04288 0.1641 -0.1627 -0.01474 0.1682
-0.05887 -0.1532 0.02548 -0.156 -0.0836 0.01551 -0.02477 0.02592
-0.03873 -0.1967 0.09607 0.2244 0.004276 -0.10834 0.00835 0.1334
-0.0521 0.0846 0.2063 0.04736 -0.1682 -0.0684 -0.09845 0.01078

model/lstm/while/lstm_cell_2/MatMul_7 f2 [32, 32]
00000000: 7aa6 beaa ed30 ab28 0d2c c928 5029 e12e
00000010: 18af d628 3a2f bba6 c3a6 cab1 b1b2 2525
00000020: d21e 06b3 602a b39c 6aaa b42b f2a7 9526
00000030: d19c 3432 1b28 4928 3832 07a8 cc30 58ac
00000040: deaf e8a9 7aa9 672d d232 202e bfa8 ccac
00000050: 2da8 3c1d 7fa8 269a 88ad 0eab 421c 2e2c
00000060: e833 bead c927 2930 58b3 f02d 2226 feae
00000070: 19af b0a6 5132 a7ad 60ae 8d26 c930 d530
00000080: 06b4 8d1d baa8 88a2 4f2c 512b b8a2 f0ae
00000090: cfaf 8b31 3db2 b0b2 9eb2 19af 0f2f 022a
000000a0: 2aaa d02c a1a4 85ad b8b0 0d2b e530 5a2d
000000b0: 35a6 292e d5aa 9029 e230 0835 aba8 ca31
000000c0: 9cac fd29 e025 abae e030 29ac 7f2a c12d
000000d0: 1617 602c 552f 05af f2ab e2b1 a31e d131
000000e0: f52c 1928 1c31 cfad 6a29 1730 58b0 43ae
000000f0: c72e e391 a1ae 2421 479a caaf 281e 0caf
00000100: 7dad 60a4 acac 16ac 7db1 512c 95b1 d8a9
00000110: 4a24 332a 8d34 8b2a 63ad d7b4 1eac 2f27
00000120: aeac 74a5 2b2a 4632 739a 3528 742e 82b4
00000130: cf28 0033 c3a2 ba2d 132a d4b1 5b20 b918
00000140: 32a5 b6aa 8eae 7525 b225 2934 2d2a c8a0
00000150: 96a0 4eaf 0caa 7ea2 0930 7b1c f220 4aac
00000160: 5f2d a2b3 c732 1431 6a18 442b 7b27 33a3
00000170: 382c 1633 47b1 c49b 2628 8831 6e2e ad2b
00000180: d5a0 5fb2 d524 3229 d12f 20ab 9eac d72a
00000190: 50ae c22d 16a1 06ac 732b a126 c3ac ad2d
000001a0: b6ae 59ab 1834 a732 d42d 98a5 8cb0 fe21
000001b0: bf30 67a1 4932 c30d 472b 79ab 4632 6ea0
000001c0: 9e24 26a4 0baf 28aa f6ab 772e d0ae f2ae
000001d0: bdac 5e30 f7b0 7c2c 04ae 9728 bc29 522e
000001e0: 5d2f a832 582f 8c2f 21a6 7caf 0624 46a8
000001f0: c020 df33 28ae 7db1 8e31 ff30 67a8 c1a2
-0.0253 -0.05267 0.1539 0.03647 0.0633 0.03738 0.0415 0.1075
-0.11084 0.03778 0.1129 -0.02629 -0.02641 -0.1809 -0.2091 0.0201
0.00666 -0.2195 0.0498 -0.00459 -0.0501 0.06018 -0.03104 0.02571
-0.004704 0.1938 0.03207 0.03348 0.1943 -0.03146 0.1499 -0.0679
-0.1229 -0.04614 -0.0428 0.0844 0.2131 0.0957 -0.03708 -0.07495
-0.03262 0.00511 -0.03513 -0.003002 -0.0864 -0.0551 0.004158 0.0653
0.2471 -0.0897 0.03041 0.13 -0.2295 0.0928 0.02396 -0.10925
-0.1109 -0.02612 0.1974 -0.0883 -0.0996 0.02559 0.1495 0.151
-0.2515 0.00542 -0.03693 -0.01276 0.0673 0.05716 -0.01312 -0.1084
-0.122 0.1732 -0.195 -0.209 -0.2068 -0.1109 0.1103 0.04694
-0.04816 0.0752 -0.01808 -0.08624 -0.1475 0.05508 0.153 0.0836
-0.02425 0.09625 -0.05338 0.04346 0.1526 0.3145 -0.03647 0.1809
-0.072 0.04678 0.02295 -0.1042 0.1523 -0.065 0.05075 0.0899
0.00173 0.06836 0.11456 -0.1097 -0.06207 -0.1838 0.00648 0.1818
0.07745 0.032 0.1597 -0.09076 0.0423 0.1278 -0.1357 -0.09784
0.1059 -0.0007186 -0.1036 0.01004 -0.003065 -0.1217 0.006012 -0.1101
-0.08575 -0.01709 -0.073 -0.06384 -0.1715 0.06744 -0.1744 -0.04565
0.01675 0.04843 0.2844 0.05112 -0.08417 -0.3025 -0.06433 0.02806
-0.0731 -0.0213 0.0482 0.196 -0.003149 0.03287 0.1008 -0.2817
0.03757 0.2188 -0.01321 0.0895 0.04745 -0.1821 0.00851 0.002306
-0.0203 -0.05243 -0.1024 0.02132 0.02225 0.26 0.04825 -0.00934
-0.00896 -0.11414 -0.04724 -0.01268 0.1261 0.004375 0.00966 -0.067
0.0839 -0.2385 0.2118 0.1587 0.002155 0.05676 0.02922 -0.01406
0.0659 0.2214 -0.1649 -0.003792 0.0324 0.1729 0.10046 0.05997
-0.00944 -0.1991 0.01888 0.0406 0.12213 -0.05566 -0.07214 0.05344
-0.09863 0.08997 -0.00993 -0.06287 0.0582 0.0259 -0.0744 0.0887
-0.10486 -0.0574 0.2559 0.2079 0.09106 -0.02185 -0.1421 0.0117
0.1483 -0.01055 0.1964 0.0003517 0.05685 -0.05838 0.196 -0.00865
0.01804 -0.0162 -0.11005 -0.0481 -0.0622 0.101 -0.10645 -0.1085
-0.07404 0.1365 -0.1552 0.07007 -0.094 0.03586 0.0448 0.09875
0.11505 0.208 0.11475 0.1179 -0.02394 -0.11694 0.01572 -0.0334
0.00928 0.246 -0.0962 -0.1715 0.1736 0.1561 -0.0344 -0.01319

model/lstm/while/lstm_cell_2/split_1 f2 [32]
00000000: 532e 6d2d f92a 002e 3728 aa2c 992b e927
00000010: fe28 3aa8 c82a 152d 9a2c 0b9d d025 ac2e
00000020: c12c 272b 9224 ea28 8628 1729 0c2c 4a9d
00000030: ee9d 5b2e 5129 4f24 c69b f12b 5227 cc2c
0.0988 0.0848 0.05447 0.09375 0.03293 0.0729 0.05936 0.0309
0.039 -0.03302 0.05298 0.0794 0.0719 -0.004925 0.0227 0.10425
0.0743 0.05588 0.01785 0.0384 0.03534 0.03976 0.06323 -0.005165
-0.00579 0.0993 0.04153 0.01683 -0.003796 0.06204 0.0286 0.07495

model/lstm/while/lstm_cell_2/split_11 f2 [32]
00000000: c83b 073c f53b fb3b f53b ed3b 023c fb3b
00000010: 033c 173c ac3b b13b ee3b 2f3c f23b d83b
00000020: 063c f03b 2d3c f63b ee3b e73b 093c 203c
00000030: 0b3c f43b 0e3c c53b 1d3c 0a3c ed3b e13b
0.9727 1.007 0.9946 0.9976 0.9946 0.9907 1.002 0.9976
1.003 1.022 0.959 0.9614 0.991 1.046 0.993 0.9805
1.006 0.992 1.044 0.995 0.991 0.988 1.009 1.031
1.011 0.994 1.014 0.971 1.028 1.01 0.9907 0.985

model/lstm/while/lstm_cell_2/split_12 f2 [32]
00000000: 66a9 c422 c223 1518 ad1e d41b 1f18 419c
00000010: 571e e5a7 dea6 f2a3 a3a3 4824 3da1 6ba5
00000020: 3725 1ea1 8028 ba1a 3e94 f621 bfa4 33a4
00000030: 1928 1a9e 7d9e a014 b4a1 c721 7a1d 7920
-0.04218 0.013214 0.01515 0.001993 0.00652 0.003822 0.002012 -0.004154
0.00619 -0.03084 -0.02682 -0.01552 -0.014915 0.01672 -0.01023 -0.02116
0.02037 -0.009995 0.03516 0.003284 -0.001036 0.01164 -0.01854 -0.0164
0.032 -0.00596 -0.006336 0.001129 -0.01114 0.011284 0.00535 0.008736

model/lstm/while/lstm_cell_2/split_13 f2 [32]
00000000: ed2c 6d2e 4124 b32e dd29 ce2e 3f2d 442c
00000010: 8b2d cf2e 832c c22d 1e2d ac2d 1e26 d32f
00000020: 012d 3e2c 7b2a b328 042e 392c da1a 012e
00000030: 522d 502f 902f e42b 2225 f52c cb2d 022f
0.07697 0.1004 0.01662 0.1047 0.0458 0.1063 0.082 0.06665
0.0866 0.1064 0.0705 0.08997 0.07996 0.0886 0.0239 0.12225
0.0782 0.0663 0.05063 0.0367 0.094 0.066 0.003345 0.0938
0.0831 0.11426 0.11816 0.06165 0.02005 0.07745 0.0905 0.1095

model/lstm/while/lstm_cell_2/MatMul f2 [32, 96]
00000000: 752a 012a e430 b029 2329 4c30 f829 d333
00000010: 9431 122d fe29 a19c a729 8a2d 502c 052f
00000020: 4329 ed2f 5b26 2a2b 6131 a82e 2b32 872a
00000030: 4028 1a2c 1bb0 0128 1f29 dab0 19a5 c7a0
00000040: ab28 c227 9fa6 b49c 392e 70a9 bf99 8328
00000050: 3728 518d 162b 9726 2c2d 5128 0aa8 5ca4
00000060: 26ac 682d 732b 472e 6c2b 8822 0b2b 96a8
00000070: 04a6 3519 8e28 3331 bf2b 6d14 c62e 3aa6
00000080: 5e2d de26 ad2e 4320 1830 352c 6d30 182c
00000090: 0d9f 1a9e 6729 612a 8b28 b41c 7227 202f
000000a0: 6029 8e2e 6828 6ea8 862a 632f 5f27 d9a2
000000b0: 73a8 992c e72c 7327 8929 f2a1 28a6 842f
000000c0: f429 691d dd2a 12b0 e42c f431 c330 58a5
000000d0: a42e bf20 212e 8fae a8a8 5430 0b25 fe2d
000000e0: 452f bb32 7333 5c32 abaf 7b31 4b2f f2aa
000000f0: cea5 192e 1a2f 002f 7d25 9b30 892a ddab
00000100: fdaa 4018 342d 10a0 be2b bb27 f61c ad2b
00000110: af29 3b24 e728 2028 eba4 fd2e 5520 2b30
00000120: b82a 5a2b dc2b b72c e32f 04a0 e02b 75a3
00000130: 6f2c b996 a2a5 7f2c 8da4 fca8 422d a81f
00000140: 3b2f 7312 9229 cea9 83a7 e1a5 7b2e c130
00000150: eb97 d6ad c72f 0220 fb2e 112b f9ad a52e
00000160: ed30 ce2d e429 782a 752a ffa8 f827 dba6
00000170: 2ba7 4526 1230 ed1e 71a3 8924 0a23 ec2c
00000180: 0aad e22f 122c 3f32 ed2e d02e 72a1 f129
00000190: 632c b528 0dab 7d29 73ab b82c 24a9 ac2d
000001a0: 442d 7530 6830 c825 252c 4ba5 7b2f 9b2b
000001b0: 10b2 b428 202c 8eae f5aa a128 ada7 38a3
000001c0: 992b 442e e42d 149b df2d 2da9 12a4 1f14
000001d0: 2f20 ada3 a425 5224 a326 0bac 982d cd2f
000001e0: 3fa1 b52c 1f29 889b cc24 b2a8 5928 3a21
000001f0: 542e c81f fc26 ccab 7a2c bea7 d324 f21b
0.05045 0.0469 0.1528 0.04443 0.04013 0.1343 0.04663 0.2445
0.1743 0.0792 0.0468 -0.00452 0.04416 0.08655 0.0674 0.1097
0.0411 0.12384 0.02483 0.05597 0.1681 0.104 0.1927 0.051
0.0332 0.0641 -0.1283 0.03128 0.04 -0.1516 -0.01991 -0.00933
0.03647 0.0303 -0.02586 -0.004593 0.0972 -0.04248 -0.002806 0.03525
0.03293 -0.0003245 0.05536 0.02574 0.0808 0.03372 -0.03156 -0.01703
-0.0648 0.0845 0.0582 0.0981 0.05798 0.01276 0.05502 -0.03583
-0.0235 0.002542 0.03558 0.1625 0.06052 0.0010805 0.10583 -0.02432
0.08386 0.02682 0.1043 0.00832 0.1279 0.06573 0.1383 0.06396
-0.006886 -0.00596 0.0422 0.04984 0.0355 0.004593 0.02908 0.1113
0.042 0.1024 0.03442 -0.0346 0.05096 0.1154 0.0288 -0.013374
-0.03476 0.07184 0.0766 0.0291 0.04324 -0.01161 -0.02405 0.11743
0.0465 0.005283 0.05362 -0.1272 0.0764 0.186 0.1488 -0.02087
0.10376 0.00927 0.09576 -0.1025 -0.03638 0.1353 0.0197 0.0936
0.1136 0.2103 0.2328 0.1987 -0.1198 0.1713 0.11395 -0.05426
-0.02267 0.0953 0.11096 0.1094 0.02144 0.1439 0.05106 -0.06143
-0.0546 0.002075 0.0813 -0.007935 0.0605 0.0302 0.004845 0.05997
0.0444 0.01653 0.0383 0.03223 -0.01921 0.1092 0.00846 0.1302
0.0525 0.05743 0.0614 0.07367 0.1232 -0.00784 0.06152 -0.014565
0.0693 -0.001641 -0.022 0.07025 -0.01778 -0.03894 0.08215 0.007477
0.113 0.0007873 0.04352 -0.04535 -0.02934 -0.02296 0.10126 0.1486
-0.001933 -0.0912 0.1215 0.00783 0.1091 0.0552 -0.0933 0.1038
0.1539 0.0907 0.04602 0.05054 0.05045 -0.03903 0.03113 -0.02678
-0.028 0.02449 0.1272 0.006763 -0.014534 0.01772 0.01375 0.0769
-0.07874 0.12317 0.0636 0.1952 0.1082 0.10645 -0.010635 0.04642
0.06854 0.03677 -0.05508 0.04288 -0.0582 0.0737 -0.04016 0.0886
0.0823 0.1393 0.1377 0.02258 0.06476 -0.02068 0.1169 0.05942
-0.1895 0.03674 0.06445 -0.1024 -0.05435 0.03616 -0.02998 -0.0141
0.05936 0.0979 0.09204 -0.003456 0.09174 -0.04044 -0.0159 0.001006
0.00817 -0.01499 0.02203 0.01688 0.02592 -0.0632 0.0874 0.1219
-0.01025 0.07355 0.04 -0.003677 0.01874 -0.03668 0.03397 0.01021
0.0989 0.0076 0.02728 -0.0609 0.06995 -0.03024 0.01884 0.00388
