HPC_Final_Study2_Complete_Test_Class_Balance_run_all/participants_session_transfer_train_fresh_model/participant_19/session_2/session_2_lite_models/indexpen_model_quant.tflite (tflite, 303344 bytes, 29 tensors)

model/time_distributed_6/conv2d_1/BiasAdd;model/time_distributed_6/conv2d_1/Conv2D;model/time_distributed_6/conv2d_1/BiasAdd/ReadVariableOp/resource f2 [16]
0	0x2f11	0.1104
1	0x2e55	0.09894
2	0x2d3d	0.08185
3	0x2f76	0.1166
4	0x2ec8	0.10596
5	0x2e1b	0.0954
6	0x2e8a	0.1022
7	0x2f75	0.1165
8	0x1548	0.001289
9	0x2ede	0.1073
10	0x2eb3	0.1047
11	0x2d79	0.0855
12	0x2cfb	0.0778
13	0x2d32	0.0812
14	0x302c	0.1304
15	0x2d8f	0.08685

model/time_distributed/conv2d/BiasAdd;model/time_distributed/conv2d/Conv2D;model/time_distributed/conv2d/BiasAdd/ReadVariableOp/resource f2 [8]
0	0xaca5	-0.0726
1	0x2c3e	0.0663
2	0x20c3	0.0093
3	0xa879	-0.03494
4	0x2e53	0.0988
5	0x215d	0.010475
6	0xa5a9	-0.02211
7	0x2fcf	0.122

model/time_distributed_6/conv2d_1/Conv2D f2 [16, 3, 3, 1]
0	0x2a7b	0.05063
1	0x299a	0.04376
2	0xad6c	-0.0847
3	0x2582	0.02151
4	0x264a	0.02457
5	0xaa53	-0.0494
6	0xab3d	-0.05655
7	0x2914	0.03967
8	0x1f21	0.00696
9	0x2439	0.0165
10	0x2e10	0.0947
11	0xaf4e	-0.11414
12	0xacb0	-0.07324
13	0x3242	0.1956
14	0xaf27	-0.11176
15	0x1b53	0.003576
16	0xafff	-0.12494
17	0x2f86	0.11755
18	0x2cef	0.0771
19	0xb27f	-0.203
20	0x2fd2	0.1222
21	0x2af4	0.05432
22	0x29b5	0.0446
23	0xae79	-0.10114
24	0xa61d	-0.02388
25	0x275f	0.0288
26	0x049e	7.045e-05
27	0x15c1	0.001405
28	0x2940	0.04102
29	0xac9a	-0.0719
30	0x22b5	0.0131
31	0x9977	-0.002668
32	0x9c9c	-0.0045
33	0x1dbe	0.005608
34	0xa744	-0.02838
35	0x20e0	0.00952
36	0x1ef9	0.00681
37	0xb0b0	-0.1465
38	0x3172	0.1702
39	0xa47c	-0.01752
40	0x2bc1	0.06058
41	0xa90b	-0.0394
42	0xa836	-0.0329
43	0x2b0d	0.05508
44	0x993c	-0.002556
45	0x312b	0.1615
46	0xace1	-0.07623
47	0xad25	-0.0804
48	0xa9c0	-0.04492
49	0xabe0	-0.06152
50	0x2de5	0.0921
51	0x2479	0.01747
52	0x28d2	0.03766
53	0xaa55	-0.04947
54	0x2b89	0.05887
55	0xb00a	-0.1262
56	0x2be8	0.06177
57	0x246d	0.01729
58	0x2d1c	0.07983
59	0xad9b	-0.0876
60	0x1e7a	0.006325
61	0x2ab1	0.05228
62	0xaa45	-0.04898
63	0xaffb	-0.1247
64	0x2ea0	0.1035
65	0x2a31	0.04837
66	0x286c	0.03455
67	0xab09	-0.05496
68	0x2710	0.02759
69	0xac3c	-0.06616
70	0x2a04	0.047
71	0x24d2	0.01883
72	0xa01d	-0.00803
73	0x22bd	0.01316
74	0x1cac	0.004562
75	0x2bb0	0.06006
76	0xaeb3	-0.1047
77	0x2c3f	0.06635
78	0x2e99	0.1031
79	0xb20f	-0.1893
80	0x2d27	0.0805
81	0x2a38	0.04858
82	0xad98	-0.0874
83	0x2bac	0.05994
84	0x23f7	0.01556
85	0x26b3	0.02617
86	0xac5d	-0.0682
87	0x280f	0.0317
88	0x1ccb	0.00468
89	0xa63c	-0.02435
90	0xade2	-0.0919
91	0x31bf	0.1796
92	0xae51	-0.0987
93	0x23aa	0.01497
94	0x2c89	0.07086
95	0xadb2	-0.089
96	0xa9a9	-0.04422
97	0x3070	0.1387
98	0xaea0	-0.1035
99	0xacab	-0.07294
100	0x332c	0.2241
101	0xb0e6	-0.1531
102	0xb0ae	-0.1462
103	0x2f9f	0.1191
104	0x2659	0.0248
105	0x2fb2	0.12024
106	0xb199	-0.1749
107	0x2a2b	0.0482
108	0xada0	-0.0879
109	0x31e9	0.1847
110	0xaf55	-0.11456
111	0xadbb	-0.08954
112	0x310e	0.158
113	0xaca3	-0.07245
114	0xad4c	-0.08276
115	0x32c8	0.2119
116	0xb07b	-0.14
117	0xa48d	-0.01778
118	0x2e84	0.1018
119	0xabd1	-0.06107
120	0x9cd4	-0.004715
121	0xb0a2	-0.1448
122	0x300c	0.1265
123	0x9fd5	-0.00765
124	0x28b3	0.0367
125	0xa489	-0.01772
126	0xa621	-0.02394
127	0xa557	-0.02086
128	0x2442	0.01663
129	0xa1b0	-0.01111
130	0xa5f8	-0.02332
131	0x2b04	0.0548
132	0x2c03	0.0627
133	0xb052	-0.135
134	0x2c22	0.0646
135	0x207b	0.00875
136	0xa832	-0.03278
137	0x972c	-0.001751
138	0xa30b	-0.013756
139	0x24a2	0.0181
140	0x9ef6	-0.006798
141	0x2d31	0.0811
142	0xacbe	-0.0741
143	0xa225	-0.012

model/time_distributed/conv2d/Conv2D f2 [8, 3, 3, 1]
0	0x23cd	0.015236
1	0xa87d	-0.03506
2	0x8c50	-0.0002632
3	0xa008	-0.00787
4	0x2510	0.01978
5	0x97db	-0.001918
6	0x1c47	0.004177
7	0xa436	-0.01645
8	0x1f5b	0.007183
9	0x1cb7	0.004604
10	0xa872	-0.03473
11	0x2422	0.01614
12	0x206d	0.008644
13	0x23dc	0.01535
14	0x9d35	-0.005085
15	0xa5b0	-0.02222
16	0x929e	-0.000808
17	0x13c9	0.0009503
18	0x9fc2	-0.007576
19	0x2580	0.02148
20	0xa560	-0.021
21	0x1964	0.002632
22	0xa506	-0.01962
23	0x2453	0.01689
24	0x9f7e	-0.007317
25	0x26a0	0.02588
26	0xa8a6	-0.03632
27	0x9fce	-0.00762
28	0x2259	0.0124
29	0x25e0	0.02295
30	0x22dd	0.013405
31	0xa8c6	-0.0373
32	0xa299	-0.012886
33	0xa483	-0.01762
34	0x22cf	0.0133
35	0x1b17	0.003462
36	0x24ae	0.01828
37	0xa6c1	-0.02638
38	0x2769	0.02895
39	0xa44a	-0.01675
40	0x985c	-0.002129
41	0x9724	-0.001743
42	0x138a	0.0009203
43	0x240b	0.0158
44	0xa3a0	-0.01489
45	0x9eaa	-0.006508
46	0xa1bb	-0.01119
47	0x9cdb	-0.00474
48	0x2529	0.02016
49	0x9804	-0.00196
50	0x2294	0.01285
51	0x25e0	0.02295
52	0x93d7	-0.000957
53	0x98e2	-0.002384
54	0x2832	0.03278
55	0xa541	-0.02052
56	0x9775	-0.001821
57	0xa06f	-0.00866
58	0x20ad	0.00913
59	0x217b	0.010704
60	0x2305	0.01371
61	0x9ec5	-0.00661
62	0x18e3	0.002386
63	0x1b21	0.00348
64	0x9a9e	-0.003231
65	0xa3d7	-0.01531
66	0xa177	-0.01067
67	0xa541	-0.02052
68	0x294f	0.04147
69	0x9ba7	-0.003736
70	0x2091	0.00892
71	0xa254	-0.01236

model/lstm/TensorArrayV2_1 f2 [120, 1, 32]
0	0x0000	0.0
1	0x0000	0.0
2	0x0000	0.0
3	0x0000	0.0
4	0x0000	0.0
5	0x0000	0.0
6	0x0000	0.0
7	0x0000	0.0
8	0x0000	0.0
9	0x0000	0.0
10	0x0000	0.0
11	0x0000	0.0
12	0x0000	0.0
13	0x0000	0.0
14	0x0000	0.0
15	0x0000	0.0
16	0x0000	0.0
17	0x0000	0.0
18	0x0000	0.0
19	0x0000	0.0
20	0x0000	0.0
21	0x0000	0.0
22	0x0000	0.0
23	0x0000	0.0
24	0x0000	0.0
25	0x0000	0.0
26	0x0000	0.0
27	0x0000	0.0
28	0x0000	0.0
29	0x0000	0.0
30	0x0000	0.0
31	0x0000	0.0
32	0x0000	0.0
33	0x0000	0.0
34	0x0000	0.0
35	0x0000	0.0
36	0x0000	0.0
37	0x0000	0.0
38	0x0000	0.0
39	0x0000	0.0
40	0x0000	0.0
41	0x0000	0.0
42	0x0000	0.0
43	0x0000	0.0
44	0x0000	0.0
45	0x0000	0.0
46	0x0000	0.0
47	0x0000	0.0
48	0x0000	0.0
49	0x0000	0.0
50	0x0000	0.0
51	0x0000	0.0
52	0x0000	0.0
53	0x0000	0.0
54	0x0000	0.0
55	0x0000	0.0
56	0x0000	0.0
57	0x0000	0.0
58	0x0000	0.0
59	0x0000	0.0
60	0x0000	0.0
61	0x0000	0.0
62	0x0000	0.0
63	0x0000	0.0
64	0x0000	0.0
65	0x0000	0.0
66	0x0000	0.0
67	0x0000	0.0
68	0x0000	0.0
69	0x0000	0.0
70	0x0000	0.0
71	0x0000	0.0
72	0x0000	0.0
73	0x0000	0.0
74	0x0000	0.0
75	0x0000	0.0
76	0x0000	0.0
77	0x0000	0.0
78	0x0000	0.0
79	0x0000	0.0
80	0x0000	0.0
81	0x0000	0.0
82	0x0000	0.0
83	0x0000	0.0
84	0x0000	0.0
85	0x0000	0.0
86	0x0000	0.0
87	0x0000	0.0
88	0x0000	0.0
89	0x0000	0.0
90	0x0000	0.0
91	0x0000	0.0
92	0x0000	0.0
93	0x0000	0.0
94	0x0000	0.0
95	0x0000	0.0
96	0x0000	0.0
97	0x0000	0.0
98	0x0000	0.0
99	0x0000	0.0
100	0x0000	0.0
101	0x0000	0.0
102	0x0000	0.0
103	0x0000	0.0
104	0x0000	0.0
105	0x0000	0.0
106	0x0000	0.0
107	0x0000	0.0
108	0x0000	0.0
109	0x0000	0.0
110	0x0000	0.0
111	0x0000	0.0
112	0x0000	0.0
113	0x0000	0.0
114	0x0000	0.0
115	0x0000	0.0
116	0x0000	0.0
117	0x0000	0.0
118	0x0000	0.0
119	0x0000	0.0
120	0x0000	0.0
121	0x0000	0.0
122	0x0000	0.0
123	0x0000	0.0
124	0x0000	0.0
125	0x0000	0.0
126	0x0000	0.0
127	0x0000	0.0
128	0x0000	0.0
129	0x0000	0.0
130	0x0000	0.0
131	0x0000	0.0
132	0x0000	0.0
133	0x0000	0.0
134	0x0000	0.0
135	0x0000	0.0
136	0x0000	0.0
137	0x0000	0.0
138	0x0000	0.0
139	0x0000	0.0
140	0x0000	0.0
141	0x0000	0.0
142	0x0000	0.0
143	0x0000	0.0
144	0x0000	0.0
145	0x0000	0.0
146	0x0000	0.0
147	0x0000	0.0
148	0x0000	0.0
149	0x0000	0.0
150	0x0000	0.0
151	0x0000	0.0
152	0x0000	0.0
153	0x0000	0.0
154	0x0000	0.0
155	0x0000	0.0
156	0x0000	0.0
157	0x0000	0.0
158	0x0000	0.0
159	0x0000	0.0
160	0x0000	0.0
161	0x0000	0.0
162	0x0000	0.0
163	0x0000	0.0
164	0x0000	0.0
165	0x0000	0.0
166	0x0000	0.0
167	0x0000	0.0
168	0x0000	0.0
169	0x0000	0.0
170	0x0000	0.0
171	0x0000	0.0
172	0x0000	0.0
173	0x0000	0.0
174	0x0000	0.0
175	0x0000	0.0
176	0x0000	0.0
177	0x0000	0.0
178	0x0000	0.0
179	0x0000	0.0
180	0x0000	0.0
181	0x0000	0.0
182	0x0000	0.0
183	0x0000	0.0
184	0x0000	0.0
185	0x0000	0.0
186	0x0000	0.0
187	0x0000	0.0
188	0x0000	0.0
189	0x0000	0.0
190	0x0000	0.0
191	0x0000	0.0
192	0x0000	0.0
193	0x0000	0.0
194	0x0000	0.0
195	0x0000	0.0
196	0x0000	0.0
197	0x0000	0.0
198	0x0000	0.0
199	0x0000	0.0
200	0x0000	0.0
201	0x0000	0.0
202	0x0000	0.0
203	0x0000	0.0
204	0x0000	0.0
205	0x0000	0.0
206	0x0000	0.0
207	0x0000	0.0
208	0x0000	0.0
209	0x0000	0.0
210	0x0000	0.0
211	0x0000	0.0
212	0x0000	0.0
213	0x0000	0.0
214	0x0000	0.0
215	0x0000	0.0
216	0x0000	0.0
217	0x0000	0.0
218	0x0000	0.0
219	0x0000	0.0
220	0x0000	0.0
221	0x0000	0.0
222	0x0000	0.0
223	0x0000	0.0
224	0x0000	0.0
225	0x0000	0.0
226	0x0000	0.0
227	0x0000	0.0
228	0x0000	0.0
229	0x0000	0.0
230	0x0000	0.0
231	0x0000	0.0
232	0x0000	0.0
233	0x0000	0.0
234	0x0000	0.0
235	0x0000	0.0
236	0x0000	0.0
237	0x0000	0.0
238	0x0000	0.0
239	0x0000	0.0
240	0x0000	0.0
241	0x0000	0.0
242	0x0000	0.0
243	0x0000	0.0
244	0x0000	0.0
245	0x0000	0.0
246	0x0000	0.0
247	0x0000	0.0
248	0x0000	0.0
249	0x0000	0.0
250	0x0000	0.0
251	0x0000	0.0
252	0x0000	0.0
253	0x0000	0.0
254	0x0000	0.0
255	0x0000	0.0

model/dense_2/BiasAdd/ReadVariableOp/resource f2 [256]
0	0x2bf0	0.062
1	0x2d44	0.0823
2	0x303e	0.1326
3	0x2ead	0.1043
4	0x2e45	0.09796
5	0x30ca	0.1497
6	0x2f32	0.1124
7	0x2d3b	0.0817
8	0x2829	0.0325
9	0x2be3	0.0616
10	0x270f	0.02757
11	0x2ccb	0.0749
12	0x2c4c	0.06714
13	0x2d5b	0.0837
14	0x2dbe	0.0897
15	0x2a56	0.0495
16	0x2cb0	0.07324
17	0x2ac8	0.05298
18	0x2fa4	0.1194
19	0x3006	0.1257
20	0x2fb6	0.1205
21	0x2c24	0.0647
22	0x2bf3	0.0621
23	0x2cb1	0.0733
24	0x2a39	0.0486
25	0x2a2e	0.04828
26	0x2952	0.04156
27	0x30e2	0.1526
28	0x2f5a	0.11487
29	0x2d33	0.08124
30	0x2607	0.02354
31	0x2f18	0.11084
32	0x2ec0	0.10547
33	0x2997	0.04367
34	0x2eae	0.1044
35	0x2ced	0.07697
36	0x2328	0.01398
37	0x2afb	0.05453
38	0x2c15	0.0638
39	0x2c29	0.065
40	0x2c54	0.0676
41	0x2d8e	0.0868
42	0x2ec0	0.10547
43	0x2e74	0.1008
44	0x2d44	0.0823
45	0x2c52	0.0675
46	0x2ded	0.0926
47	0x2dc9	0.0904
48	0x263f	0.0244
49	0x2f12	0.1105
50	0x28c9	0.03738
51	0x29a2	0.044
52	0x2e53	0.0988
53	0x2d5b	0.0837
54	0x30f4	0.1548
55	0x2e96	0.1029
56	0x2d7b	0.08563
57	0x2f07	0.1098
58	0x2957	0.04172
59	0x2da4	0.08813
60	0x279f	0.02977
61	0x30a7	0.1454
62	0x262b	0.0241
63	0x245b	0.01701
64	0x2d43	0.0822
65	0x2c48	0.0669
66	0x2b77	0.05832
67	0x2557	0.02086
68	0x2bd9	0.0613
69	0x306a	0.138
70	0x2f01	0.10944
71	0x3055	0.1354
72	0x3002	0.1252
73	0x2d37	0.0815
74	0x2bb6	0.06024
75	0x2f40	0.1133
76	0x2eba	0.1051
77	0x28a5	0.0363
78	0x2b38	0.0564
79	0x2da7	0.0883
80	0x2a21	0.04788
81	0x2bae	0.06
82	0x2df8	0.09326
83	0x2d1a	0.0797
84	0x2c4b	0.0671
85	0x2e45	0.09796
86	0x2cf9	0.0777
87	0x3169	0.1691
88	0x2eca	0.1061
89	0x2c9e	0.07214
90	0x2d3e	0.0819
91	0x2eef	0.10834
92	0x30df	0.1522
93	0x2cdf	0.0761
94	0x2878	0.0349
95	0x25a0	0.02197
96	0x2d4b	0.0827
97	0x2de0	0.0918
98	0x2a66	0.05
99	0x2b8d	0.059
100	0x2e0b	0.0944
101	0x2ca8	0.07275
102	0x2984	0.0431
103	0x2f6c	0.11597
104	0x2b71	0.05814
105	0x2ebe	0.10535
106	0x2c89	0.07086
107	0x2e0a	0.09436
108	0x2da7	0.0883
109	0x28f5	0.03873
110	0x2f4a	0.1139
111	0x20a5	0.00907
112	0x28ec	0.03845
113	0x299f	0.0439
114	0x2fbd	0.1209
115	0x2d2a	0.0807
116	0x2fe1	0.1231
117	0x2770	0.02905
118	0x2e3b	0.09735
119	0x2ce1	0.07623
120	0x2fd7	0.1225
121	0x2932	0.0406
122	0x2dd7	0.09125
123	0x2d5a	0.0836
124	0x1566	0.001318
125	0x2dc0	0.08984
126	0x2abc	0.0526
127	0x2573	0.02129
128	0x299f	0.0439
129	0x2a77	0.0505
130	0x2ee3	0.1076
131	0x29cf	0.04538
132	0x2a4d	0.04922
133	0x2ee8	0.1079
134	0x2d00	0.0781
135	0x30f6	0.155
136	0x3058	0.1357
137	0x26f9	0.02724
138	0x2d0f	0.07904
139	0x29e6	0.04608
140	0x2b47	0.05685
141	0x2deb	0.09247
142	0x2b26	0.05585
143	0x2a02	0.04694
144	0x2820	0.03223
145	0x2e5d	0.0994
146	0x2e42	0.0978
147	0x2a10	0.04736
148	0x2e2b	0.0964
149	0x287a	0.03497
150	0x2c5e	0.06824
151	0x2b9b	0.05942
152	0x2d44	0.0823
153	0x2d0f	0.07904
154	0x2a2b	0.0482
155	0x305b	0.1361
156	0x309e	0.1443
157	0x2d6a	0.0846
158	0x2b2d	0.05606
159	0x2c78	0.0698
160	0x2ee7	0.10785
161	0x2c09	0.06305
162	0x2c2d	0.06525
163	0x2ed8	0.10693
164	0x2ca5	0.0726
165	0x2a97	0.05148
166	0x2de1	0.09186
167	0x3067	0.1376
168	0x2c8d	0.0711
169	0x2a5d	0.0497
170	0x2f7c	0.11694
171	0x2cc4	0.07446
172	0x2de0	0.0918
173	0x2c34	0.0657
174	0x2593	0.02177
175	0x2ae3	0.0538
176	0x2d59	0.08356
177	0x2ee3	0.1076
178	0x2f20	0.1113
179	0x2c3b	0.0661
180	0x2220	0.01196
181	0x30f2	0.1545
182	0x2ba8	0.0598
183	0x2b6a	0.05792
184	0x2d96	0.0873
185	0x2b85	0.05875
186	0x27f8	0.03113
187	0x30cc	0.1499
188	0x3106	0.157
189	0x2f08	0.10986
190	0x2955	0.04166
191	0x2fd1	0.12213
192	0x2e74	0.1008
193	0x28fd	0.03897
194	0x3057	0.1356
195	0x2d80	0.08594
196	0x305e	0.1365
197	0x2d7c	0.0857
198	0x2d9e	0.08777
199	0x283e	0.03314
200	0x2c08	0.063
201	0x30a2	0.1448
202	0x2d4d	0.0828
203	0x830e	-4.66e-05
204	0x2cd4	0.07544
205	0x2e6d	0.1004
206	0x2e15	0.09503
207	0x290b	0.0394
208	0x1f32	0.007027
209	0x246b	0.01726
210	0x1947	0.002577
211	0x30b9	0.1476
212	0x2990	0.04346
213	0x28ec	0.03845
214	0x2b41	0.05667
215	0x2dbf	0.0898
216	0x22e6	0.01347
217	0x2b94	0.0592
218	0x2ebe	0.10535
219	0x310f	0.1581
220	0x29a7	0.04416
221	0x2d27	0.0805
222	0x29ea	0.0462
223	0x2fd2	0.1222
224	0x2ea1	0.1036
225	0x2cef	0.0771
226	0x2ebc	0.1052
227	0x2ed2	0.10657
228	0x2e24	0.09595
229	0x2ca5	0.0726
230	0x2db9	0.0894
231	0x2ab7	0.05246
232	0x2a98	0.0515
233	0x2b71	0.05814
234	0x2e6c	0.10034
235	0x2d68	0.0845
236	0x2573	0.02129
237	0x2fe4	0.1233
238	0x298e	0.0434
239	0x2ead	0.1043
240	0x25e0	0.02295
241	0x2e06	0.0941
242	0x2950	0.0415
243	0x19f8	0.002914
244	0x2b25	0.05582
245	0x2dd6	0.0912
246	0x2ef5	0.1087
247	0x25b1	0.02223
248	0x2b21	0.0557
249	0x2025	0.008095
250	0x276a	0.02896
251	0x2dea	0.0924
252	0x2ae7	0.05392
253	0x28c9	0.03738
254	0x2dfd	0.09357
255	0x2dac	0.0886

model/last_layer/BiasAdd/ReadVariableOp/resource f2 [31]
0	0xa5b0	-0.02222
1	0xa3cf	-0.01525
2	0x0d12	0.0003095
3	0xa76b	-0.02898
4	0x25d6	0.0228
5	0x24d5	0.01888
6	0x285e	0.03412
7	0xa245	-0.012245
8	0xa24c	-0.0123
9	0x8434	-6.413e-05
10	0x1e84	0.006363
11	0x24e0	0.01904
12	0x27c5	0.03035
13	0x1a10	0.00296
14	0x2272	0.01259
15	0xa035	-0.00822
16	0xa197	-0.01092
17	0x23a6	0.01494
18	0x2539	0.0204
19	0x9e5b	-0.006207
20	0x215a	0.01045
21	0x212c	0.0101
22	0x22e1	0.013435
23	0xa47f	-0.01756
24	0xa622	-0.02396
25	0x9ac2	-0.0033
26	0xa0a0	-0.00903
27	0xa920	-0.04004
28	0xa5e8	-0.02307
29	0xa814	-0.03186
30	0xa796	-0.02963

model/time_distributed_11/dense_1/BiasAdd/ReadVariableOp/resource f2 [64]
0	0xa478	-0.01746
1	0xa19d	-0.01096
2	0xa068	-0.008606
3	0x1a28	0.003006
4	0xa937	-0.04074
5	0xa436	-0.01645
6	0x1b7b	0.003653
7	0xab4d	-0.05704
8	0xa8d9	-0.03787
9	0x9468	-0.001076
10	0xaa60	-0.0498
11	0xa6fb	-0.02727
12	0xa63a	-0.02432
13	0x1f96	0.00741
14	0xa9ed	-0.0463
15	0xa748	-0.02844
16	0xa2b7	-0.013115
17	0xa869	-0.03445
18	0xa61f	-0.02391
19	0xa5be	-0.02243
20	0xa4fd	-0.01949
21	0xa5e7	-0.02306
22	0xa966	-0.04218
23	0xa645	-0.02449
24	0xa894	-0.03577
25	0xa896	-0.03583
26	0xa445	-0.01668
27	0xa802	-0.0313
28	0xa98d	-0.04337
29	0xa41d	-0.01607
30	0x9d1e	-0.004997
31	0x179b	0.001857
32	0x102d	0.0005097
33	0xa73e	-0.02829
34	0xa408	-0.01575
35	0xa51c	-0.01996
36	0xa416	-0.01596
37	0x99f6	-0.00291
38	0xa866	-0.03436
39	0x9f48	-0.00711
40	0xa168	-0.01056
41	0xaa49	-0.0491
42	0x04ac	7.13e-05
43	0xa27e	-0.01268
44	0xa8b9	-0.0369
45	0xa4a5	-0.01814
46	0xa946	-0.0412
47	0xa51c	-0.01996
48	0xa877	-0.03488
49	0xa051	-0.00843
50	0xa78a	-0.02945
51	0xa945	-0.04117
52	0xa267	-0.012505
53	0xa864	-0.0343
54	0xa890	-0.03564
55	0xa6a0	-0.02588
56	0xa837	-0.03293
57	0xa589	-0.02162
58	0xa11b	-0.00997
59	0xa5b0	-0.02222
60	0xa42b	-0.01628
61	0xa72d	-0.02803
62	0xa5e0	-0.02295
63	0xa45f	-0.01707

model/time_distributed_5/dense/BiasAdd/ReadVariableOp/resource f2 [32]
0	0xaa23	-0.04794
1	0xac01	-0.06256
2	0x2192	0.01088
3	0xa49a	-0.01797
4	0x2d58	0.0835
5	0xa591	-0.02174
6	0xa8b8	-0.03687
7	0x2c24	0.0647
8	0x2e06	0.0941
9	0x8db4	-0.000348
10	0x2c3f	0.06635
11	0xa834	-0.03284
12	0xa5d1	-0.02272
13	0xa602	-0.02347
14	0xa435	-0.01643
15	0xabc4	-0.06067
16	0x2a46	0.049
17	0x0e46	0.000383
18	0xa153	-0.0104
19	0xab78	-0.05835
20	0x28fd	0.03897
21	0xa67b	-0.02531
22	0x2d2d	0.0809
23	0x23c0	0.01514
24	0x1f85	0.007343
25	0xa062	-0.00856
26	0xa4b6	-0.0184
27	0x2582	0.02151
28	0xa947	-0.04123
29	0x1f54	0.007156
30	0xab76	-0.0583
31	0xa8ea	-0.0384

model/dense_2/MatMul f2 [256, 32]
0	0xa971	-0.0425
1	0xa018	-0.007996
2	0x3222	0.1917
3	0x9ce4	-0.004776
4	0x2e44	0.0979
5	0xafa1	-0.1192
6	0x2d2e	0.08093
7	0x2997	0.04367
8	0x329f	0.2069
9	0xad89	-0.0865
10	0x9d4e	-0.00518
11	0x2d11	0.07916
12	0xaf1a	-0.11096
13	0x24a9	0.0182
14	0xaf20	-0.1113
15	0x2c38	0.0659
16	0x2f6e	0.1161
17	0xa136	-0.01018
18	0x2807	0.03146
19	0xa5ce	-0.02267
20	0x9e41	-0.006107
21	0x318a	0.1731
22	0xad85	-0.08624
23	0xa55e	-0.02097
24	0xa828	-0.03247
25	0x332c	0.2241
26	0x2894	0.03577
27	0x3093	0.143
28	0xb32d	-0.2242
29	0x3190	0.1738
30	0xb3ae	-0.24
31	0x2b25	0.05582
32	0xa2c4	-0.013214
33	0xa852	-0.03375
34	0xa9f6	-0.04657
35	0x2c60	0.06836
36	0xb0e6	-0.1531
37	0x2df6	0.09314
38	0xb2ec	-0.2163
39	0x3645	0.3918
40	0xafc7	-0.1215
41	0x066d	9.805e-05
42	0xac8c	-0.07104
43	0x30f6	0.155
44	0x3569	0.3381
45	0x3152	0.1663
46	0xa7fb	-0.03117
47	0x2117	0.00994
48	0xb44d	-0.2688
49	0x2d55	0.0833
50	0x31c8	0.1807
51	0x254b	0.02068
52	0x31f2	0.1858
53	0xad97	-0.08734
54	0x2f87	0.1176
55	0x320e	0.1892
56	0xb432	-0.2622
57	0xb407	-0.2517
58	0x26b2	0.02615
59	0xa74e	-0.02853
60	0x2a33	0.04843
61	0xaf00	-0.1094
62	0x2c79	0.0699
63	0xb5fd	-0.3743
64	0x2d3e	0.0819
65	0x27f3	0.03105
66	0x1d1a	0.004982
67	0xb591	-0.348
68	0x30a1	0.1447
69	0x34eb	0.3074
70	0x323c	0.1948
71	0xaf18	-0.11084
72	0xb2d3	-0.2133
73	0xa8ca	-0.0374
74	0x3335	0.2252
75	0x2f8e	0.11804
76	0x2c9b	0.07196
77	0x2f7b	0.1169
78	0xaec6	-0.10583
79	0x2ee8	0.1079
80	0xb30b	-0.2201
81	0x31bd	0.1793
82	0xb0d1	-0.1505
83	0xaef4	-0.10864
84	0xb059	-0.1359
85	0x220d	0.01182
86	0x2943	0.0411
87	0xae37	-0.0971
88	0x308c	0.1421
89	0xac9f	-0.0722
90	0x2dd8	0.0913
91	0x27f7	0.03111
92	0xa00b	-0.0079
93	0xabb0	-0.06006
94	0x32d1	0.213
95	0xb3f7	-0.2489
96	0x240b	0.0158
97	0x2830	0.0327
98	0x34dd	0.304
99	0x2ab5	0.0524
100	0xb1ac	-0.1772
101	0x2f42	0.1134
102	0xa043	-0.00832
103	0xadf5	-0.0931
104	0xa112	-0.0099
105	0xb244	-0.1958
106	0x337c	0.2339
107	0xad24	-0.0803
108	0x1a87	0.003187
109	0xaaba	-0.05255
110	0x3199	0.1749
111	0xb37d	-0.234
112	0x2669	0.02504
113	0x30ad	0.1461
114	0x3364	0.231
115	0x2d3b	0.0817
116	0xb0e5	-0.153
117	0x2ca5	0.0726
118	0x21d5	0.01139
119	0x2e19	0.0953
120	0xb2af	-0.2089
121	0xa86d	-0.03458
122	0x3087	0.1415
123	0x302e	0.1306
124	0xafa1	-0.1192
125	0x3470	0.2773
126	0xb2b2	-0.2092
127	0x34e4	0.3057
128	0x28b9	0.0369
129	0x2c32	0.06555
130	0xaa0c	-0.04724
131	0xb0d0	-0.1504
132	0x1aa8	0.00325
133	0x2d32	0.0812
134	0xab20	-0.05566
135	0x303a	0.1321
136	0x1769	0.001809
137	0xb072	-0.1389
138	0x34a4	0.29
139	0x2e02	0.0939
140	0x3437	0.2634
141	0x2e79	0.10114
142	0x3583	0.3445
143	0x31c4	0.1802
144	0xac78	-0.0698
145	0xb0db	-0.1517
146	0x231b	0.01388
147	0x906a	-0.000539
148	0x2e8c	0.1023
149	0x2f02	0.1095
150	0xae06	-0.0941
151	0xa576	-0.02133
152	0xaa01	-0.0469
153	0x28ca	0.0374
154	0xae05	-0.09406
155	0x2fa6	0.1195
156	0x90a5	-0.000567
157	0xa567	-0.0211
158	0xb23f	-0.1952
159	0xb21f	-0.1913
160	0x1876	0.002178
161	0xb435	-0.263
162	0xaecf	-0.1064
163	0x9762	-0.001802
164	0xa326	-0.01396
165	0xb462	-0.274
166	0xb0b8	-0.1475
167	0x3448	0.2676
168	0xacfe	-0.078
169	0xb43b	-0.2644
170	0x2d43	0.0822
171	0xa7fb	-0.03117
172	0x2e7a	0.1012
173	0x3536	0.3257
174	0x2e19	0.0953
175	0x35dc	0.3662
176	0xa8d9	-0.03787
177	0x233c	0.01413
178	0x352b	0.323
179	0xa104	-0.009796
180	0x2742	0.02835
181	0x2f6e	0.1161
182	0xaa49	-0.0491
183	0x3213	0.1898
184	0xb4c1	-0.297
185	0x29bd	0.04483
186	0xb2e9	-0.216
187	0xa0f1	-0.00965
188	0xac85	-0.0706
189	0x3123	0.1605
190	0x3249	0.1964
191	0x3233	0.1937
192	0x31b1	0.1779
193	0x1e6f	0.006283
194	0x30cb	0.1498
195	0x2a3f	0.0488
196	0xab92	-0.05914
197	0xacf2	-0.0773
198	0x34c7	0.2986
199	0xaf0d	-0.11017
200	0x28e5	0.03824
201	0x32cc	0.2124
202	0xade7	-0.0922
203	0xad1c	-0.07983
204	0xb181	-0.172
205	0xb3eb	-0.2474
206	0x2e83	0.10175
207	0xb1cf	-0.1815
208	0xaf27	-0.11176
209	0x34be	0.2964
210	0xa010	-0.007935
211	0xb2a1	-0.2072
212	0x2501	0.01955
213	0x3092	0.1428
214	0x3002	0.1252
215	0xa51e	-0.01999
216	0xa75c	-0.02875
217	0xb028	-0.1299
218	0x35db	0.366
219	0x33eb	0.2474
220	0x2c6b	0.06903
221	0xa973	-0.04257
222	0x2c53	0.06757
223	0xb1c9	-0.1808
224	0x2d91	0.087
225	0xaa25	-0.048
226	0xb29c	-0.2065
227	0xb4ff	-0.3123
228	0xa483	-0.01762
229	0xa713	-0.02763
230	0xb525	-0.3215
231	0x319d	0.1754
232	0x27bf	0.03026
233	0x2eb7	0.1049
234	0x3029	0.13
235	0x361e	0.3823
236	0x2cbf	0.07416
237	0x311e	0.1599
238	0xb146	-0.1648
239	0xac0e	-0.06335
240	0xb205	-0.1881
241	0x2e75	0.1009
242	0xa2f2	-0.013565
243	0xa61f	-0.02391
244	0x3033	0.1312
245	0x2e90	0.10254
246	0x256c	0.02118
247	0xadcf	-0.09076
248	0xa2b2	-0.01308
249	0xa4e3	-0.01909
250	0xa5c9	-0.0226
251	0xb21c	-0.1909
252	0xab87	-0.0588
253	0xae6e	-0.10046
254	0xab43	-0.05673
255	0xb5e4	-0.3682

model/last_layer/MatMul f2 [31, 256]
0	0xa867	-0.0344
1	0xaccd	-0.075
2	0xa810	-0.03174
3	0x2cad	0.07306
4	0x281f	0.0322
5	0x2b89	0.05887
6	0xb189	-0.173
7	0xa937	-0.04074
8	0xae46	-0.098
9	0xb126	-0.1609
10	0x9c30	-0.00409
11	0xac3e	-0.0663
12	0x2a1c	0.04773
13	0xb05a	-0.136
14	0x2e9a	0.10315
15	0x98ff	-0.00244
16	0x2d7f	0.0859
17	0x2c23	0.06464
18	0x28ab	0.03647
19	0x284b	0.03354
20	0xb1a3	-0.1761
21	0x210d	0.009865
22	0xae94	-0.1028
23	0xaa4c	-0.0492
24	0x26c4	0.02643
25	0xb157	-0.1669
26	0x9fa6	-0.00747
27	0x2f94	0.1184
28	0xb050	-0.1348
29	0xa8f0	-0.03857
30	0xacc6	-0.0746
31	0x2ba1	0.0596
32	0xb20b	-0.1888
33	0x245c	0.01703
34	0x9639	-0.001519
35	0x18d4	0.002357
36	0x2685	0.02547
37	0x22e2	0.01344
38	0x2e2c	0.09644
39	0x265b	0.02483
40	0x2be9	0.0618
41	0xa7b3	-0.03008
42	0xa656	-0.02475
43	0x297d	0.04288
44	0x2bf1	0.06204
45	0xa7c3	-0.03032
46	0x316b	0.1693
47	0x25c7	0.02257
48	0xaa2d	-0.04825
49	0xb0e8	-0.1533
50	0xacc4	-0.07446
51	0x2a89	0.05106
52	0x2975	0.04263
53	0x24f8	0.01941
54	0xadee	-0.09265
55	0xadb8	-0.08936
56	0x2b42	0.0567
57	0x22f4	0.01358
58	0x2917	0.03976
59	0xa955	-0.04166
60	0xa4d9	-0.01894
61	0xa8da	-0.0379
62	0x25c8	0.02258
63	0xad6f	-0.0849
64	0xaa23	-0.04794
65	0xadd1	-0.0909
66	0x29ad	0.04434
67	0xac45	-0.0667
68	0xa7ce	-0.03049
69	0x1b99	0.00371
70	0xa5fd	-0.02339
71	0xb2a2	-0.2073
72	0x2708	0.02747
73	0x2c5f	0.0683
74	0xa820	-0.03223
75	0xaecb	-0.10614
76	0x2cc8	0.0747
77	0x2a37	0.04855
78	0xa607	-0.02354
79	0x2d04	0.07837
80	0xb005	-0.1256
81	0xafe4	-0.1233
82	0xb00b	-0.1263
83	0x2232	0.0121
84	0xb066	-0.1375
85	0x96fb	-0.001704
86	0x28d3	0.0377
87	0xb232	-0.1936
88	0xb09a	-0.1438
89	0xb067	-0.1376
90	0x2c7a	0.06995
91	0xb009	-0.1261
92	0xb02a	-0.1301
93	0x2978	0.04272
94	0xa9ab	-0.04428
95	0x28e7	0.0383
96	0x29ce	0.04535
97	0x9c94	-0.00447
98	0x2640	0.02441
99	0xac9a	-0.0719
100	0x2b0e	0.0551
101	0xaa49	-0.0491
102	0xaac9	-0.053
103	0xafd4	-0.1223
104	0x2e83	0.10175
105	0xadce	-0.0907
106	0xa57d	-0.02144
107	0x2207	0.01177
108	0x2993	0.04355
109	0x2bc7	0.06076
110	0xb0cd	-0.15
111	0xa7e0	-0.03076
112	0x2bc4	0.06067
113	0x2dca	0.09045
114	0xa24c	-0.0123
115	0x2c6a	0.069
116	0xb184	-0.1724
117	0x2cf2	0.0773
118	0xb21d	-0.191
119	0x2bb4	0.06018
120	0xb0f8	-0.1553
121	0xae18	-0.0952
122	0xacdb	-0.07587
123	0x2848	0.03345
124	0xaae0	-0.0537
125	0xa196	-0.01091
126	0x9d2a	-0.005043
127	0xb0ab	-0.1459
128	0x2a38	0.04858
129	0x2622	0.02396
130	0x25ce	0.02267
131	0x9e1f	-0.005978
132	0x307f	0.1405
133	0xac21	-0.0645
134	0xafa5	-0.11945
135	0xb39e	-0.238
136	0xa67b	-0.02531
137	0x28cb	0.03745
138	0x253c	0.02045
139	0xa911	-0.03958
140	0x9f9b	-0.007427
141	0xad52	-0.0831
142	0x9db1	-0.005558
143	0xa59a	-0.02188
144	0xadcf	-0.09076
145	0xabd1	-0.06107
146	0xae97	-0.10297
147	0xacfe	-0.078
148	0xac11	-0.06354
149	0x250a	0.01968
150	0xaf33	-0.1125
151	0x21b9	0.01118
152	0x3039	0.132
153	0x9e2e	-0.006035
154	0xa7db	-0.03069
155	0xb3f6	-0.2488
156	0xb048	-0.1338
157	0xaca8	-0.07275
158	0x28e9	0.03836
159	0xac5d	-0.0682
160	0xac39	-0.066
161	0xb1c7	-0.1805
162	0x232e	0.01402
163	0xaa36	-0.04852
164	0x2864	0.0343
165	0xad23	-0.08026
166	0x3011	0.1271
167	0x9b43	-0.003546
168	0xa21e	-0.01195
169	0xa030	-0.00818
170	0x124b	0.000768
171	0xa9bf	-0.0449
172	0x268f	0.02562
173	0x2548	0.02063
174	0x9d4b	-0.00517
175	0x2f8b	0.11786
176	0xac2a	-0.06506
177	0xaab7	-0.05246
178	0xb00b	-0.1263
179	0x292d	0.04044
180	0x2add	0.05362
181	0xb0ab	-0.1459
182	0x2e3c	0.0974
183	0xaa74	-0.0504
184	0xaf48	-0.1138
185	0xa804	-0.03137
186	0x2da2	0.088
187	0x1d4a	0.005165
188	0xb30b	-0.2201
189	0x3092	0.1428
190	0xa82b	-0.03256
191	0xb294	-0.2056
192	0xa81f	-0.0322
193	0x2821	0.03226
194	0xb2aa	-0.2083
195	0xa96f	-0.04245
196	0xb336	-0.2253
197	0x2a4a	0.04913
198	0x20a0	0.00903
199	0x1d0c	0.00493
200	0xac4a	-0.067
201	0xabee	-0.06195
202	0x25a9	0.02211
203	0x2c92	0.0714
204	0xb06a	-0.138
205	0xa4c0	-0.01855
206	0xb345	-0.2272
207	0x285e	0.03412
208	0xa648	-0.02454
209	0x2dad	0.0887
210	0xa105	-0.0098
211	0x2fd7	0.1225
212	0x2cfd	0.07794
213	0xae9b	-0.1032
214	0x29fc	0.04675
215	0x9a56	-0.003094
216	0x2a3d	0.04874
217	0xa452	-0.01688
218	0x185a	0.002125
219	0xb0ad	-0.1461
220	0xabf0	-0.062
221	0x2eb9	0.10504
222	0xacad	-0.07306
223	0xb0e2	-0.1526
224	0xa12e	-0.01012
225	0x2c1d	0.0643
226	0xad5c	-0.08374
227	0xa8e6	-0.03827
228	0x2e33	0.09686
229	0xa82e	-0.03265
230	0xa880	-0.03516
231	0x2bb1	0.0601
232	0xa3b7	-0.01507
233	0x2c95	0.0716
234	0x2b4d	0.05704
235	0xa2cd	-0.01328
236	0xae65	-0.0999
237	0xb007	-0.1259
238	0xaab4	-0.05237
239	0xb186	-0.1726
240	0xab1d	-0.05557
241	0xae17	-0.09515
242	0x17ef	0.001937
243	0x2483	0.01762
244	0xaf41	-0.11334
245	0x2968	0.04224
246	0xae8c	-0.1023
247	0xad41	-0.0821
248	0x2931	0.04056
249	0x1fe5	0.00771
250	0xa41e	-0.01608
251	0xaa97	-0.05148
252	0xb0b9	-0.1476
253	0xa418	-0.01599
254	0x2deb	0.09247
255	0xadc9	-0.0904

model/time_distributed_11/dense_1/MatMul f2 [64, 1488]
0	0x9cad	-0.004566
1	0x275e	0.02878
2	0x2bb5	0.0602
3	0x280a	0.03156
4	0x2dc9	0.0904
5	0x26fe	0.02731
6	0x2a48	0.04907
7	0x2f62	0.11536
8	0x2c76	0.0697
9	0xa94e	-0.04144
10	0x2a30	0.04834
11	0x25f5	0.02327
12	0x29eb	0.04623
13	0x2032	0.008194
14	0x2b4f	0.0571
15	0x9a31	-0.003023
16	0x1946	0.002575
17	0x2c0c	0.06323
18	0x24d8	0.01892
19	0x2224	0.01199
20	0x2288	0.01276
21	0xa577	-0.02135
22	0x28a5	0.0363
23	0x2fd7	0.1225
24	0xa881	-0.0352
25	0xa9a4	-0.04407
26	0x28f8	0.03882
27	0x24f3	0.01933
28	0xa7b9	-0.03017
29	0x25f9	0.02333
30	0x3004	0.1255
31	0x25f7	0.0233
32	0x2520	0.02002
33	0x29b0	0.04443
34	0xaacc	-0.0531
35	0xab96	-0.05927
36	0x2597	0.02184
37	0xa987	-0.04318
38	0x27bc	0.03021
39	0x2fbf	0.12103
40	0x2a6d	0.0502
41	0xa5d1	-0.02272
42	0xa90d	-0.03946
43	0x25c8	0.02258
44	0xa71b	-0.02776
45	0x2019	0.008
46	0x2c45	0.0667
47	0x24b6	0.0184
48	0x238c	0.01474
49	0x9e34	-0.006058
50	0x9895	-0.002237
51	0x9590	-0.001358
52	0x2aeb	0.05405
53	0x2d4f	0.08295
54	0xa513	-0.01982
55	0x2674	0.0252
56	0x22d9	0.013374
57	0x23d7	0.01531
58	0x1f96	0.00741
59	0x9b0c	-0.00344
60	0xa95a	-0.0418
61	0x2f53	0.11444
62	0x271d	0.02779
63	0xa9f0	-0.0464
64	0x2c2d	0.06525
65	0x2832	0.03278
66	0x1e34	0.006058
67	0x1db5	0.005573
68	0x30eb	0.1537
69	0x2da9	0.08844
70	0xa76e	-0.02902
71	0x2f11	0.1104
72	0x95ed	-0.001447
73	0xa604	-0.0235
74	0x2c13	0.06366
75	0x2bdd	0.06143
76	0x2c57	0.0678
77	0x2e15	0.09503
78	0x29f9	0.04666
79	0xaa3f	-0.0488
80	0x111f	0.000625
81	0x2940	0.04102
82	0x2a32	0.0484
83	0xadd8	-0.0913
84	0x2926	0.04022
85	0xa308	-0.01373
86	0xa7a2	-0.02982
87	0x2d37	0.0815
88	0xa0bc	-0.00925
89	0x2aa2	0.05182
90	0x0d1a	0.0003114
91	0x24d4	0.01886
92	0xac6f	-0.0693
93	0x20e5	0.00956
94	0xa90e	-0.0395
95	0xac4b	-0.0671
96	0x2d02	0.07825
97	0x21fd	0.011696
98	0x25e3	0.023
99	0xa7be	-0.03024
100	0xa57e	-0.02145
101	0x2c28	0.06494
102	0xabf0	-0.062
103	0xa97d	-0.04288
104	0xa241	-0.012215
105	0xa519	-0.01991
106	0xa415	-0.01595
107	0x9d68	-0.00528
108	0xaab1	-0.05228
109	0x2a6d	0.0502
110	0xac27	-0.0649
111	0xa639	-0.0243
112	0x24dd	0.019
113	0x2cb8	0.0737
114	0x20e7	0.009575
115	0x8fdb	-0.0004795
116	0xa5da	-0.02286
117	0x27e7	0.03087
118	0x2aa4	0.05188
119	0x283a	0.03302
120	0xa879	-0.03494
121	0xa68c	-0.02557
122	0x27f3	0.03105
123	0xac4d	-0.0672
124	0xaf03	-0.10956
125	0x2030	0.00818
126	0xa3b6	-0.01506
127	0xac84	-0.07056
128	0x2c16	0.06384
129	0x2c88	0.0708
130	0x28ee	0.0385
131	0xad8b	-0.0866
132	0x1eaf	0.006527
133	0x269f	0.02586
134	0x2891	0.03568
135	0x2927	0.04025
136	0xa90b	-0.0394
137	0x23b0	0.015015
138	0xa929	-0.0403
139	0xa6d9	-0.02675
140	0xa5c6	-0.02255
141	0x2d84	0.0862
142	0xac50	-0.0674
143	0x98eb	-0.002401
144	0xa51b	-0.01994
145	0x2919	0.03983
146	0x9e62	-0.006233
147	0xadff	-0.0937
148	0xa66c	-0.02509
149	0x2557	0.02086
150	0x29d9	0.0457
151	0x2a6f	0.05026
152	0xad91	-0.087
153	0xab54	-0.05725
154	0x29c7	0.04514
155	0x2cde	0.07605
156	0xac5c	-0.0681
157	0x9b76	-0.003643
158	0xa050	-0.00842
159	0xa7ac	-0.02997
160	0x21a3	0.01101
161	0x294a	0.04132
162	0x2d4f	0.08295
163	0xac17	-0.0639
164	0x296d	0.0424
165	0x2142	0.01027
166	0x2c90	0.0713
167	0xac8b	-0.071
168	0xaa3e	-0.04877
169	0xa26e	-0.01256
170	0x2bb7	0.06027
171	0x296a	0.0423
172	0xac2d	-0.06525
173	0x2c0b	0.0632
174	0xa402	-0.01566
175	0xa654	-0.02472
176	0x1efd	0.006824
177	0xa99a	-0.04376
178	0x2c7e	0.0702
179	0xad78	-0.08545
180	0x2ea7	0.10394
181	0x2cd8	0.0757
182	0x2d77	0.0854
183	0xa163	-0.01052
184	0x2052	0.00844
185	0x1e3a	0.00608
186	0x2c4e	0.06726
187	0xa4c9	-0.01869
188	0x9c93	-0.004467
189	0x28b2	0.03668
190	0x1cd3	0.00471
191	0x1891	0.00223
192	0x2c2f	0.06537
193	0x290f	0.03952
194	0x2eb6	0.10486
195	0x29f2	0.04645
196	0x2d4c	0.08276
197	0x1158	0.0006523
198	0x2e7d	0.1014
199	0x1c0f	0.003963
200	0x1df5	0.005817
201	0x9369	-0.0009046
202	0x2e7d	0.1014
203	0x2887	0.03537
204	0x2ddc	0.09155
205	0xa5a7	-0.02208
206	0x28ae	0.03656
207	0x2c47	0.06683
208	0x209f	0.009026
209	0xa55a	-0.0209
210	0x2f03	0.10956
211	0xa9f1	-0.04642
212	0x29e2	0.04596
213	0x2cf2	0.0773
214	0x2f75	0.1165
215	0xaa97	-0.05148
216	0x2e71	0.10065
217	0x23e8	0.01544
218	0x1688	0.001595
219	0x2bbb	0.0604
220	0x285b	0.03403
221	0xa5c4	-0.02252
222	0x28c9	0.03738
223	0x29b8	0.04468
224	0x298a	0.04327
225	0xa536	-0.02036
226	0xaa5c	-0.04968
227	0x27d7	0.03062
228	0xaae8	-0.05396
229	0x2c3e	0.0663
230	0x20d0	0.0094
231	0xa833	-0.0328
232	0x2e05	0.09406
233	0x2a66	0.05
234	0x28fd	0.03897
235	0x2691	0.02565
236	0x2816	0.03192
237	0x24ff	0.01952
238	0x2dd8	0.0913
239	0x2938	0.04077
240	0x22d7	0.01336
241	0xa471	-0.01735
242	0x1c65	0.00429
243	0x27aa	0.02994
244	0x2856	0.03387
245	0xa649	-0.02455
246	0xa0e2	-0.00954
247	0x226c	0.01254
248	0x9ffd	-0.0078
249	0x2c25	0.06476
250	0x9e40	-0.006104
251	0xa902	-0.03912
252	0x2506	0.01962
253	0xa7c0	-0.03027
254	0x2b4e	0.05707
255	0x2d3e	0.0819

model/time_distributed_3/batch_normalization/FusedBatchNormV3 f2 [8]
0	0xbe27	-1.538
1	0xbfd1	-1.954
2	0xbee2	-1.721
3	0xbf56	-1.834
4	0xbfed	-1.981
5	0xbd79	-1.368
6	0xbf0c	-1.762
7	0xc00b	-2.021

model/time_distributed_3/batch_normalization/FusedBatchNormV31 f2 [8]
0	0x3a64	0.799
1	0x3b23	0.892
2	0x3a70	0.8047
3	0x3acf	0.851
4	0x3ac8	0.8477
5	0x3aa5	0.8306
6	0x3b26	0.8936
7	0x3b30	0.8984

model/time_distributed_5/dense/MatMul f2 [32, 168]
0	0x2f11	0.1104
1	0x25ef	0.02318
2	0x32a0	0.207
3	0xb168	-0.169
4	0x3324	0.2231
5	0x2d32	0.0812
6	0x3204	0.188
7	0x29a5	0.0441
8	0xad93	-0.0871
9	0xacb3	-0.0734
10	0xb04d	-0.1344
11	0x349a	0.2876
12	0x31f7	0.1864
13	0x29d6	0.0456
14	0xacf7	-0.0776
15	0x30d6	0.1511
16	0xae67	-0.10004
17	0xb112	-0.1584
18	0xb267	-0.2001
19	0xb1ce	-0.1814
20	0x3086	0.1414
21	0x29e4	0.04602
22	0xab38	-0.0564
23	0xa4eb	-0.01921
24	0x28fd	0.03897
25	0x2931	0.04056
26	0xac4f	-0.0673
27	0xb044	-0.1333
28	0x2ea5	0.1038
29	0x29ea	0.0462
30	0xabfa	-0.06232
31	0x2b8b	0.05893
32	0xaadc	-0.0536
33	0x3280	0.2031
34	0x2687	0.0255
35	0xb3e3	-0.2465
36	0xb2d4	-0.2134
37	0x33ad	0.2399
38	0xa6e5	-0.02693
39	0x3161	0.1681
40	0x3048	0.1338
41	0xb046	-0.1335
42	0x2ef7	0.1088
43	0xb1aa	-0.177
44	0xaf95	-0.11847
45	0x2fa8	0.1196
46	0x2d56	0.0834
47	0xaed1	-0.1065
48	0x209f	0.009026
49	0xaa32	-0.0484
50	0x2871	0.0347
51	0x2a88	0.05103
52	0xac9f	-0.0722
53	0xa65e	-0.02487
54	0x2aff	0.05466
55	0xa81e	-0.03217
56	0x3182	0.1721
57	0x33cd	0.2438
58	0x95d5	-0.001424
59	0xb377	-0.2333
60	0x2f02	0.1095
61	0xa919	-0.03983
62	0x2ee2	0.10754
63	0x2f52	0.1144
64	0x3015	0.1276
65	0xb00a	-0.1262
66	0x2b24	0.0558
67	0x2cc1	0.0743
68	0xb4dd	-0.304
69	0x2e7b	0.10126
70	0x3234	0.1938
71	0x3305	0.2194
72	0x1f74	0.00728
73	0x90d3	-0.000589
74	0xa976	-0.04266
75	0x2d2d	0.0809
76	0x32c9	0.212
77	0x287c	0.03503
78	0xad5f	-0.0839
79	0xae33	-0.09686
80	0x304d	0.1344
81	0x2d06	0.0785
82	0xac99	-0.07184
83	0x30f7	0.1552
84	0x2e21	0.09576
85	0xafba	-0.1207
86	0x2011	0.00794
87	0x25bf	0.02245
88	0xb14b	-0.1654
89	0x3144	0.1646
90	0xb0b3	-0.1469
91	0x24ed	0.01924
92	0x349d	0.2883
93	0x31bd	0.1793
94	0xb0e2	-0.1526
95	0xad48	-0.0825
96	0xad41	-0.0821
97	0xa01c	-0.008026
98	0x2ac2	0.0528
99	0x3253	0.1976
100	0xb088	-0.1416
101	0xb098	-0.1436
102	0x2bd9	0.0613
103	0xa1a5	-0.011024
104	0x354c	0.331
105	0xab59	-0.0574
106	0xa75a	-0.02872
107	0xb003	-0.1254
108	0x30b8	0.1475
109	0xb168	-0.169
110	0x33f0	0.248
111	0x32a9	0.2081
112	0xb4a1	-0.2893
113	0x2e4f	0.0986
114	0xa8ef	-0.03854
115	0xb1f4	-0.186
116	0xb04f	-0.1346
117	0xb4bf	-0.2966
118	0xb0f4	-0.1548
119	0x26d0	0.02661
120	0x2ffc	0.12476
121	0xb0cd	-0.15
122	0xb267	-0.2001
123	0xb2a5	-0.2076
124	0xa92d	-0.04044
125	0xaa23	-0.04794
126	0x2886	0.03534
127	0xb2eb	-0.2162
128	0xae9e	-0.1034
129	0xa87f	-0.03513
130	0x2c92	0.0714
131	0xaf0b	-0.11005
132	0xa903	-0.03915
133	0xacd9	-0.07574
134	0x3345	0.2272
135	0xb040	-0.1328
136	0x2d0c	0.07886
137	0xa167	-0.01055
138	0xafd9	-0.1226
139	0x2eb7	0.1049
140	0x2c23	0.06464
141	0x30b5	0.1471
142	0xae50	-0.09863
143	0xadc0	-0.08984
144	0x2465	0.01717
145	0xae11	-0.0948
146	0xb09f	-0.1444
147	0x1a7f	0.003172
148	0xaf07	-0.1098
149	0x2c9c	0.072
150	0xb007	-0.1259
151	0xb367	-0.2313
152	0x31f4	0.186
153	0x27c5	0.03035
154	0x2e57	0.09906
155	0x3403	0.2507
156	0xb42a	-0.2603
157	0x30ac	0.146
158	0xb0f0	-0.1543
159	0x2c77	0.06976
160	0xb2fc	-0.2183
161	0x2c66	0.0687
162	0x3042	0.133
163	0x3555	0.3333
164	0x9d99	-0.005466
165	0x2bfe	0.06244
166	0x9e7e	-0.00634
167	0x2dec	0.0925
168	0xb185	-0.1725
169	0xadb7	-0.0893
170	0x34aa	0.2915
171	0xb152	-0.1663
172	0xa3ad	-0.01499
173	0x256f	0.02122
174	0xaa66	-0.05
175	0xaada	-0.05353
176	0xb097	-0.1434
177	0xa45b	-0.01701
178	0xa94e	-0.04144
179	0x3173	0.1703
180	0x33db	0.2455
181	0xb41f	-0.2576
182	0x24c1	0.01857
183	0x2d32	0.0812
184	0xb2b9	-0.2101
185	0x302d	0.1305
186	0x216e	0.010605
187	0xb2b1	-0.2091
188	0xad81	-0.086
189	0xa76d	-0.029
190	0xb462	-0.274
191	0xab95	-0.05923
192	0x32a5	0.2076
193	0xb2ba	-0.2102
194	0xa7cf	-0.0305
195	0x25ef	0.02318
196	0xacff	-0.07806
197	0x2f0a	0.11
198	0xac9d	-0.0721
199	0x30e6	0.1531
200	0x3050	0.1348
201	0x32cb	0.2123
202	0xab45	-0.0568
203	0x2cb9	0.0738
204	0xa4c1	-0.01857
205	0xae70	-0.1006
206	0x2dc7	0.0903
207	0xaa97	-0.05148
208	0x2c8f	0.0712
209	0x0c40	0.0002594
210	0xaaa0	-0.05176
211	0xafba	-0.1207
212	0xacbd	-0.07404
213	0x3216	0.1902
214	0x29b6	0.04462
215	0x3241	0.1954
216	0x86ba	-0.00010264
217	0x2d20	0.0801
218	0xb165	-0.1686
219	0xa41e	-0.01608
220	0x24a5	0.01814
221	0x32fd	0.2184
222	0x9f8d	-0.007374
223	0x2a40	0.04883
224	0x2b5b	0.05746
225	0x317e	0.1716
226	0x1e32	0.00605
227	0xae04	-0.094
228	0x3041	0.1329
229	0x3057	0.1356
230	0x318d	0.1735
231	0xa85b	-0.03403
232	0x3410	0.254
233	0x344a	0.268
234	0x2e17	0.09515
235	0x3147	0.1649
236	0xb291	-0.2052
237	0xb0c4	-0.1489
238	0xa168	-0.01056
239	0xacfc	-0.0779
240	0x9ee6	-0.006737
241	0x2a69	0.05008
242	0xa31f	-0.01391
243	0xb39b	-0.2377
244	0x2fc0	0.1211
245	0xae98	-0.103
246	0x2d84	0.0862
247	0x3022	0.1292
248	0x330b	0.2201
249	0x3155	0.1666
250	0x1fec	0.007736
251	0x99cc	-0.00283
252	0x3462	0.274
253	0x3036	0.1316
254	0x2e00	0.09375
255	0xa477	-0.01744

model/time_distributed_9/batch_normalization_1/FusedBatchNormV3 f2 [16]
0	0xb7f5	-0.4973
1	0xb8e8	-0.6133
2	0xb741	-0.4534
3	0xb8b4	-0.588
4	0xb8d3	-0.603
5	0xb904	-0.627
6	0xb774	-0.4658
7	0xb8dc	-0.6074
8	0xb433	-0.2625
9	0xb82a	-0.5205
10	0xb7f0	-0.496
11	0xb851	-0.5396
12	0xb839	-0.528
13	0xb838	-0.5273
14	0xb8b1	-0.5864
15	0xb707	-0.4392

model/time_distributed_9/batch_normalization_1/FusedBatchNormV31 f2 [16]
0	0x3e95	1.6455
1	0x3eec	1.73
2	0x3ee9	1.728
3	0x3f97	1.897
4	0x3f61	1.845
5	0x3ea6	1.662
6	0x3f0d	1.763
7	0x4016	2.043
8	0x402e	2.09
9	0x3e3b	1.558
10	0x3ee6	1.725
11	0x3e5a	1.588
12	0x4019	2.049
13	0x3f08	1.758
14	0x3f3f	1.812
15	0x3e94	1.645

model/lstm/while/lstm_cell_2/MatMul_4 f2 [32, 32]
0	0x2d25	0.0804
1	0x2cdd	0.076
2	0xb034	-0.1313
3	0x2fdc	0.1228
4	0xafce	-0.12195
5	0xaf5b	-0.1149
6	0x33c2	0.2424
7	0x285c	0.03406
8	0x27bf	0.03026
9	0xad32	-0.0812
10	0xa77c	-0.02924
11	0xb1a4	-0.1763
12	0xb47a	-0.2798
13	0x26d2	0.02664
14	0xb491	-0.2854
15	0xb022	-0.1292
16	0xab9d	-0.05948
17	0x9ef1	-0.00678
18	0x307d	0.1403
19	0xb133	-0.1625
20	0x2812	0.0318
21	0x9180	-0.0006714
22	0x302d	0.1305
23	0x2b02	0.05475
24	0xac56	-0.06775
25	0xb015	-0.1276
26	0x24e0	0.01904
27	0x2dbc	0.0896
28	0xb025	-0.1295
29	0x2605	0.02351
30	0xb025	-0.1295
31	0x9a9c	-0.003227
32	0xaeea	-0.10803
33	0xae54	-0.0989
34	0x2bc2	0.0606
35	0x23c2	0.01515
36	0x2988	0.0432
37	0xad2f	-0.081
38	0x2ec3	0.10565
39	0xb372	-0.2327
40	0x34b7	0.2947
41	0xafdd	-0.12286
42	0xa996	-0.04364
43	0xa11c	-0.00998
44	0xae1c	-0.09546
45	0x2cf4	0.0774
46	0x2df4	0.093
47	0x2670	0.02515
48	0xacd9	-0.07574
49	0xadc3	-0.09
50	0x2d24	0.0803
51	0x297f	0.04294
52	0x2d2c	0.0808
53	0x25d1	0.02272
54	0xa712	-0.02762
55	0xa8a0	-0.03613
56	0xaf5f	-0.1152
57	0x32da	0.2141
58	0xacc2	-0.07434
59	0xa496	-0.01791
60	0xaf6d	-0.116
61	0x1102	0.0006113
62	0xaac8	-0.05298
63	0xa7a5	-0.02986
64	0x2f07	0.1098
65	0xb0e2	-0.1526
66	0x9b7a	-0.00365
67	0xa4ed	-0.01924
68	0x255b	0.02092
69	0xb351	-0.2286
70	0x9eda	-0.00669
71	0xaa84	-0.0509
72	0x32ae	0.2087
73	0x2c71	0.0694
74	0x9e58	-0.006195
75	0x2a7e	0.05072
76	0xa3d4	-0.01529
77	0x29a7	0.04416
78	0xb33c	-0.2261
79	0x9c95	-0.004475
80	0x1dd5	0.005695
81	0xaea8	-0.104
82	0x2df7	0.0932
83	0xaf1a	-0.11096
84	0x2a18	0.0476
85	0xab17	-0.0554
86	0x2cd2	0.0753
87	0x3333	0.225
88	0xadb7	-0.0893
89	0x2a56	0.0495
90	0xae88	-0.10205
91	0x3158	0.167
92	0xb3b0	-0.2402
93	0x29b3	0.04453
94	0xa80f	-0.0317
95	0x9d30	-0.005066
96	0x220d	0.01182
97	0x2b56	0.0573
98	0xb14d	-0.1656
99	0x2f74	0.11646
100	0xacfa	-0.07776
101	0x2b86	0.05878
102	0x2729	0.02797
103	0xa6ab	-0.02605
104	0x2cdb	0.07587
105	0x2e06	0.0941
106	0x3278	0.2021
107	0xab77	-0.05832
108	0x2b77	0.05832
109	0xa283	-0.01272
110	0xaea1	-0.1036
111	0x2a2b	0.0482
112	0xb2e9	-0.216
113	0x2e20	0.0957
114	0xabf6	-0.0622
115	0xa836	-0.0329
116	0x2ec6	0.10583
117	0x2ae8	0.05396
118	0x2d0d	0.0789
119	0xb014	-0.1274
120	0x2eaa	0.1041
121	0xb004	-0.1255
122	0x30b2	0.1467
123	0x3410	0.254
124	0x2fb9	0.12067
125	0xad11	-0.07916
126	0x2dbc	0.0896
127	0xb0ce	-0.1501
128	0x29c1	0.04495
129	0xb341	-0.2267
130	0x27b6	0.03012
131	0x2b87	0.0588
132	0xaec8	-0.10596
133	0xb13d	-0.1637
134	0x2a96	0.05145
135	0x2573	0.02129
136	0x2bfa	0.06232
137	0x260e	0.02365
138	0xac3b	-0.0661
139	0xb2a6	-0.2078
140	0xb307	-0.2196
141	0xb044	-0.1333
142	0xb0a9	-0.1456
143	0x260d	0.02364
144	0x9bed	-0.00387
145	0xaf9d	-0.11896
146	0x31bd	0.1793
147	0x179d	0.001859
148	0x32ed	0.2164
149	0xa684	-0.02545
150	0xa8e0	-0.0381
151	0x317f	0.1718
152	0xaef2	-0.1085
153	0x2c1d	0.0643
154	0xb488	-0.2832
155	0x2bc7	0.06076
156	0xae89	-0.1021
157	0x2f6a	0.11584
158	0xaafd	-0.0546
159	0xabf4	-0.06213
160	0x2a92	0.05133
161	0xa56b	-0.02116
162	0xb2f7	-0.2177
163	0x2903	0.03915
164	0xaf26	-0.1117
165	0x2be4	0.06165
166	0xb13d	-0.1637
167	0x2f92	0.1183
168	0x22df	0.01342
169	0x2e7d	0.1014
170	0xb420	-0.2578
171	0x9eb6	-0.006554
172	0xb1ca	-0.1809
173	0x313a	0.1633
174	0x2f16	0.1107
175	0xa80a	-0.03156
176	0xaece	-0.1063
177	0x2988	0.0432
178	0x2e53	0.0988
179	0x30ed	0.1539
180	0x3382	0.2346
181	0x2bca	0.06085
182	0x2d0f	0.07904
183	0xa82a	-0.03253
184	0x22e9	0.0135
185	0x3070	0.1387
186	0x20e0	0.00952
187	0x30a6	0.1453
188	0x30c9	0.1495
189	0xab47	-0.05685
190	0x334b	0.2279
191	0x205d	0.00852
192	0x2f5a	0.11487
193	0x3357	0.2294
194	0xa8b8	-0.03687
195	0x2a50	0.04932
196	0xade2	-0.0919
197	0x2b00	0.0547
198	0x2adc	0.0536
199	0xab38	-0.0564
200	0xb365	-0.2311
201	0x256b	0.02116
202	0x3082	0.1409
203	0xa85f	-0.03415
204	0xaf04	-0.1096
205	0xad48	-0.0825
206	0xb079	-0.1398
207	0x2ad9	0.0535
208	0x2d54	0.08325
209	0x2f65	0.11554
210	0xa25e	-0.012436
211	0xa043	-0.00832
212	0xae8b	-0.10223
213	0xa204	-0.01175
214	0xadf6	-0.09314
215	0x9714	-0.001728
216	0x3289	0.2042
217	0x9f2c	-0.007004
218	0x3458	0.2715
219	0xa273	-0.012596
220	0x2c6b	0.06903
221	0xb359	-0.2296
222	0xafd6	-0.12244
223	0xac61	-0.0684
224	0x28fb	0.0389
225	0x2d9e	0.08777
226	0xb0a0	-0.1445
227	0xafbd	-0.1209
228	0x3172	0.1702
229	0x30f3	0.1547
230	0xa7aa	-0.02994
231	0xa890	-0.03564
232	0xa5c8	-0.02258
233	0xa3e5	-0.01542
234	0x31bb	0.1791
235	0xa6a2	-0.02591
236	0xb1ee	-0.1853
237	0xa9ee	-0.04633
238	0x3023	0.1293
239	0x9d05	-0.0049
240	0xabef	-0.06198
241	0x2659	0.0248
242	0x2ab3	0.05234
243	0xadcb	-0.0905
244	0x2cf6	0.0775
245	0x3016	0.1277
246	0xaccd	-0.075
247	0xa696	-0.02573
248	0xabf0	-0.062
249	0x296f	0.04245
250	0xb01f	-0.1288
251	0xac27	-0.0649
252	0xb098	-0.1436
253	0x1d36	0.00509
254	0x2670	0.02515
255	0x2f19	0.1109

model/lstm/while/lstm_cell_2/MatMul_5 f2 [32, 32]
0	0x2cc0	0.0742
1	0xafea	-0.12366
2	0xa366	-0.01445
3	0x2f1a	0.11096
4	0xa9d1	-0.04544
5	0x2c51	0.06744
6	0x17de	0.001921
7	0x2776	0.02914
8	0x1f55	0.00716
9	0xacfc	-0.0779
10	0xada8	-0.0884
11	0x32ed	0.2164
12	0xaee3	-0.1076
13	0x2e21	0.09576
14	0x2829	0.0325
15	0xa5b0	-0.02222
16	0xac6d	-0.06915
17	0x3213	0.1898
18	0x2ccd	0.075
19	0x28e6	0.03827
20	0x2cd5	0.0755
21	0x2f41	0.11334
22	0x29a4	0.04407
23	0x253b	0.02043
24	0xad9b	-0.0876
25	0xaf7f	-0.1171
26	0x31e9	0.1847
27	0x2921	0.04007
28	0xa8e5	-0.03824
29	0xb060	-0.1367
30	0xa95e	-0.04193
31	0x2c05	0.0628
32	0x2129	0.01008
33	0x3054	0.1353
34	0xb057	-0.1356
35	0xaca8	-0.07275
36	0x8c0f	-0.0002477
37	0x2c45	0.0667
38	0xa344	-0.01419
39	0xa667	-0.02501
40	0xadaa	-0.0885
41	0x2d00	0.0781
42	0xab8a	-0.0589
43	0x2efe	0.10925
44	0xa861	-0.0342
45	0x1285	0.000796
46	0x202f	0.00817
47	0x2d79	0.0855
48	0xa64d	-0.02461
49	0x250a	0.01968
50	0x26af	0.02611
51	0x29ec	0.04626
52	0xae60	-0.0996
53	0x22be	0.01317
54	0x2ebb	0.10516
55	0xaed0	-0.10645
56	0xa70b	-0.02751
57	0x29e2	0.04596
58	0xb4ab	-0.2917
59	0x286f	0.03464
60	0xafae	-0.12
61	0x1b70	0.003632
62	0x2d99	0.08746
63	0xacec	-0.0769
64	0xaca4	-0.0725
65	0x2a52	0.04938
66	0x1804	0.00196
67	0x2df5	0.0931
68	0xa9a5	-0.0441
69	0x2417	0.01598
70	0xaf5a	-0.11487
71	0x308e	0.1423
72	0x2f38	0.1128
73	0xa81b	-0.03207
74	0xab15	-0.05533
75	0xa6bc	-0.0263
76	0x281a	0.03204
77	0xa5dc	-0.02289
78	0x2d38	0.08154
79	0xb5e6	-0.3687
80	0x28c4	0.03723
81	0xabe3	-0.0616
82	0x9c4a	-0.00419
83	0xa292	-0.01283
84	0xae7c	-0.1013
85	0x337d	0.234
86	0x24b2	0.01834
87	0xa17b	-0.010704
88	0xacdf	-0.0761
89	0x30af	0.1464
90	0xb0a1	-0.1447
91	0xb080	-0.1406
92	0x288d	0.03555
93	0x319c	0.1753
94	0xaae4	-0.05383
95	0xaff0	-0.124
96	0xb2c1	-0.211
97	0x3255	0.1979
98	0xb20d	-0.1891
99	0xa6de	-0.02682
100	0x3396	0.237
101	0x257d	0.02144
102	0x2be3	0.0616
103	0x2936	0.0407
104	0x2e0d	0.09454
105	0x252b	0.02019
106	0xab17	-0.0554
107	0x2abc	0.0526
108	0xae33	-0.09686
109	0xa90c	-0.03943
110	0x2a95	0.05142
111	0x29e6	0.04608
112	0xacd5	-0.0755
113	0x2f12	0.1105
114	0xb0c0	-0.1484
115	0x28bb	0.03696
116	0xb0b8	-0.1475
117	0xa69e	-0.02585
118	0x288d	0.03555
119	0x32cf	0.2128
120	0xae44	-0.0979
121	0x3114	0.1587
122	0xb12c	-0.1616
123	0xa919	-0.03983
124	0x99f9	-0.002916
125	0xa976	-0.04266
126	0x2b6a	0.05792
127	0x30d6	0.1511
128	0xb447	-0.2673
129	0xa9ae	-0.04437
130	0x2c55	0.0677
131	0xa95f	-0.04196
132	0x280a	0.03156
133	0xac85	-0.0706
134	0xad8c	-0.0867
135	0xa8d2	-0.03766
136	0xafc9	-0.12164
137	0xaf28	-0.1118
138	0xa801	-0.03128
139	0x2aa8	0.052
140	0xafca	-0.1217
141	0xa39a	-0.01485
142	0x31ae	0.1775
143	0x2f9f	0.1191
144	0x2277	0.01263
145	0x2b5b	0.05746
146	0x2df8	0.09326
147	0x30f1	0.1544
148	0xad3e	-0.0819
149	0x2912	0.0396
150	0x2858	0.03394
151	0x2ee6	0.1078
152	0x324b	0.1967
153	0x1ef0	0.006775
154	0xb127	-0.161
155	0x1869	0.002153
156	0xb16d	-0.1696
157	0x1a75	0.003153
158	0xaf59	-0.1148
159	0x2119	0.00996
160	0x2b8b	0.05893
161	0x2963	0.04208
162	0x2d38	0.08154
163	0xb097	-0.1434
164	0xb0bd	-0.1481
165	0x2ae6	0.0539
166	0x301f	0.1288
167	0xad89	-0.0865
168	0x2ea7	0.10394
169	0xb261	-0.1993
170	0x2408	0.01575
171	0x2c85	0.0706
172	0xb437	-0.2634
173	0xa9ba	-0.04474
174	0x212a	0.010086
175	0xad61	-0.08405
176	0x2a51	0.04935
177	0xa6d0	-0.02661
178	0x33ed	0.2477
179	0xafa4	-0.1194
180	0xa01b	-0.00802
181	0x2a20	0.04785
182	0x3129	0.1613
183	0x29bd	0.04483
184	0xb09a	-0.1438
185	0x3145	0.1647
186	0xa9b5	-0.0446
187	0x2520	0.02002
188	0xb0a6	-0.1453
189	0xade5	-0.0921
190	0x3212	0.1897
191	0x288e	0.03558
192	0xaa3d	-0.04874
193	0x2733	0.02812
194	0x2da0	0.0879
195	0x3064	0.1372
196	0x2cb9	0.0738
197	0xafcf	-0.122
198	0x9b08	-0.003433
199	0x2836	0.0329
200	0xa5bd	-0.02242
201	0x3046	0.1335
202	0xb289	-0.2042
203	0xb05e	-0.1365
204	0x243e	0.01657
205	0xa87b	-0.035
206	0xb441	-0.2659
207	0xad7c	-0.0857
208	0x28fa	0.03888
209	0x9232	-0.0007563
210	0xa70e	-0.02756
211	0x2df5	0.0931
212	0xad3f	-0.082
213	0x2fe4	0.1233
214	0xaf51	-0.1143
215	0xa5a9	-0.02211
216	0x2e29	0.09625
217	0xa541	-0.02052
218	0x2f50	0.11426
219	0xac0d	-0.0633
220	0x2c34	0.0657
221	0x25f5	0.02327
222	0xb09c	-0.144
223	0x26b4	0.02618
224	0x9d82	-0.00538
225	0xacb9	-0.0738
226	0x2d16	0.07947
227	0x2e55	0.09894
228	0xaecf	-0.1064
229	0x28f1	0.0386
230	0x2e9f	0.10345
231	0x2e71	0.10065
232	0x2fb2	0.12024
233	0xb049	-0.1339
234	0xb087	-0.1415
235	0xaa3f	-0.0488
236	0xb0ae	-0.1462
237	0xae11	-0.0948
238	0x2fb4	0.12036
239	0x29ec	0.04626
240	0xb515	-0.3176
241	0xa9eb	-0.04623
242	0x2305	0.01371
243	0xb115	-0.1588
244	0xabac	-0.05994
245	0x2ed8	0.10693
246	0x28e0	0.0381
247	0xaa2e	-0.04828
248	0x272c	0.02802
249	0x3193	0.1742
250	0x2d30	0.08105
251	0xa9dd	-0.0458
252	0xb0f1	-0.1544
253	0x32fa	0.218
254	0xaff6	-0.1244
255	0xa70b	-0.02751

model/lstm/while/lstm_cell_2/MatMul_6 f2 [32, 32]
0	0xad97	-0.08734
1	0xb043	-0.1332
2	0xab96	-0.05927
3	0x30f2	0.1545
4	0x1698	0.00161
5	0xb4e9	-0.307
6	0x2a36	0.04852
7	0xb15c	-0.1675
8	0xb25c	-0.1987
9	0x30d9	0.1515
10	0x3063	0.1371
11	0x2c64	0.0686
12	0xa93e	-0.04095
13	0x2ea2	0.10364
14	0x25bd	0.02242
15	0x2c89	0.07086
16	0x3198	0.1748
17	0x331a	0.2219
18	0x3079	0.1398
19	0xa92f	-0.0405
20	0xaf42	-0.1134
21	0x9d7a	-0.00535
22	0x2bc9	0.06082
23	0x2663	0.02495
24	0xb14f	-0.1659
25	0xa58d	-0.02168
26	0x2fcd	0.1219
27	0x97f2	-0.00194
28	0xafdf	-0.123
29	0xa807	-0.03146
30	0x2d4c	0.08276
31	0x285d	0.0341
32	0x2de7	0.0922
33	0xadd3	-0.091
34	0x2d26	0.08044
35	0xa89a	-0.03595
36	0xa20a	-0.011795
37	0x2a63	0.0499
38	0xb127	-0.161
39	0x3083	0.141
40	0xb470	-0.2773
41	0x2cba	0.07385
42	0xaed8	-0.10693
43	0xb0af	-0.1464
44	0x99f3	-0.002905
45	0x9bfb	-0.003897
46	0x2cef	0.0771
47	0xb061	-0.1368
48	0xa497	-0.01793
49	0x3009	0.1261
50	0xabc5	-0.0607
51	0x2bec	0.0619
52	0xac79	-0.0699
53	0xb3ac	-0.2397
54	0x2998	0.0437
55	0xab24	-0.0558
56	0xa959	-0.04178
57	0xa276	-0.01262
58	0xaba0	-0.05957
59	0xb34d	-0.2281
60	0x257e	0.02145
61	0xaf68	-0.1157
62	0x31a8	0.1768
63	0x31b5	0.1783
64	0x2934	0.04065
65	0x2dd3	0.091
66	0xb0cd	-0.15
67	0xb35a	-0.2297
68	0x9e02	-0.005867
69	0xb07f	-0.1405
70	0xa448	-0.01672
71	0x2d7c	0.0857
72	0x2e4e	0.0985
73	0xa189	-0.01081
74	0x2323	0.01394
75	0x2989	0.04324
76	0x304c	0.1343
77	0x2ea5	0.1038
78	0xa8ee	-0.0385
79	0x2b23	0.05576
80	0x2d9f	0.0878
81	0xb337	-0.2255
82	0x2e2d	0.0965
83	0x1863	0.002142
84	0x2bd7	0.06125
85	0xab9f	-0.05954
86	0x2db5	0.0892
87	0xb1e2	-0.1838
88	0x307a	0.1399
89	0x2ec9	0.106
90	0x2c03	0.0627
91	0xadb1	-0.0889
92	0xa784	-0.02936
93	0xb092	-0.1428
94	0xb3c1	-0.2423
95	0x2de3	0.092
96	0x2b60	0.05762
97	0xa560	-0.021
98	0xac9f	-0.0722
99	0xa2d7	-0.01336
100	0x2f00	0.1094
101	0x2f60	0.11523
102	0x2b4a	0.05695
103	0x30bf	0.1483
104	0x22de	0.01341
105	0x2890	0.03564
106	0xb439	-0.264
107	0x2c0b	0.0632
108	0xad87	-0.08636
109	0x303a	0.1321
110	0xaaf4	-0.05432
111	0xaef9	-0.10895
112	0x2a0a	0.04718
113	0x2481	0.0176
114	0x273f	0.0283
115	0xb13b	-0.1635
116	0x2e72	0.1007
117	0x2788	0.02942
118	0x95dc	-0.0014305
119	0xae5e	-0.0995
120	0xaeae	-0.1044
121	0xa474	-0.0174
122	0x2a82	0.05084
123	0x322d	0.193
124	0x2819	0.032
125	0xb074	-0.1392
126	0xb116	-0.1589
127	0x2832	0.03278
128	0xaa19	-0.04764
129	0x2d05	0.0784
130	0xac50	-0.0674
131	0x2c90	0.0713
132	0xaf5c	-0.115
133	0xb0b8	-0.1475
134	0xad4c	-0.08276
135	0x2a34	0.04846
136	0xab21	-0.0557
137	0x2dd9	0.0914
138	0xa807	-0.03146
139	0x23da	0.015335
140	0xaead	-0.1043
141	0xafd9	-0.1226
142	0x2efe	0.10925
143	0xb1ab	-0.1771
144	0x1f4a	0.00712
145	0x323d	0.195
146	0x25c7	0.02257
147	0x1c7d	0.004383
148	0x284f	0.03366
149	0x348a	0.2837
150	0x2dc6	0.0902
151	0xab23	-0.05576
152	0xac59	-0.06793
153	0xaa91	-0.0513
154	0x32b5	0.2096
155	0xae1b	-0.0954
156	0xac27	-0.0649
157	0xa706	-0.02744
158	0x2f04	0.1096
159	0x2feb	0.1237
160	0xb2cc	-0.2124
161	0x2d6d	0.0848
162	0x3023	0.1293
163	0xaf46	-0.11365
164	0x2923	0.04013
165	0x2cb3	0.0734
166	0x2ab8	0.0525
167	0xa4d1	-0.01881
168	0xac28	-0.06494
169	0xb196	-0.1746
170	0x231a	0.01387
171	0x291b	0.0399
172	0x309a	0.1438
173	0x1cf1	0.004826
174	0x2c32	0.06555
175	0x2f1b	0.111
176	0x3475	0.2786
177	0xb1aa	-0.177
178	0x28e4	0.0382
179	0xa709	-0.02748
180	0xb47d	-0.2805
181	0xb02e	-0.1306
182	0xb160	-0.168
183	0x9fcc	-0.007614
184	0x2fe8	0.12354
185	0x2cb3	0.0734
186	0x2b24	0.0558
187	0xb332	-0.2249
188	0x28b7	0.03683
189	0xa74f	-0.02855
190	0x2f49	0.11383
191	0xaf3d	-0.1131
192	0xa893	-0.03574
193	0xad2b	-0.08075
194	0x2d7b	0.08563
195	0xabb4	-0.06018
196	0x242d	0.01631
197	0xa766	-0.0289
198	0xa9b2	-0.0445
199	0x2d13	0.0793
200	0xaeea	-0.10803
201	0x1af2	0.003391
202	0xadbe	-0.0897
203	0x2d1c	0.07983
204	0xaf6b	-0.1159
205	0xaf74	-0.11646
206	0x31f0	0.1855
207	0xaf13	-0.11053
208	0xae21	-0.09576
209	0x93fb	-0.000974
210	0xad7d	-0.08575
211	0x9b4b	-0.003561
212	0xb024	-0.1294
213	0xa5da	-0.02286
214	0x315a	0.1672
215	0x31c0	0.1797
216	0xa612	-0.02371
217	0x32f9	0.2179
218	0x2cd8	0.0757
219	0xafda	-0.1227
220	0x2efc	0.10913
221	0xa211	-0.01185
222	0x2586	0.02158
223	0x29ae	0.04437
224	0xac15	-0.0638
225	0xad12	-0.0792
226	0xad59	-0.08356
227	0x2686	0.02548
228	0x2e21	0.09576
229	0xae3b	-0.09735
230	0xade3	-0.092
231	0x31bf	0.1796
232	0x2bd8	0.06128
233	0xae70	-0.1006
234	0x2c4b	0.0671
235	0xa8c2	-0.03717
236	0xaed5	-0.10675
237	0x29fa	0.0467
238	0xb03f	-0.1327
239	0x2692	0.02567
240	0x9fcb	-0.00761
241	0xb529	-0.3225
242	0x2e1e	0.0956
243	0x320f	0.1893
244	0x3131	0.1622
245	0xafe6	-0.1234
246	0xa90f	-0.03952
247	0x2d8a	0.08655
248	0xae91	-0.1026
249	0x9165	-0.0006585
250	0x2e51	0.0987
251	0xa973	-0.04257
252	0xab14	-0.0553
253	0xa902	-0.03912
254	0xb02e	-0.1306
255	0x2098	0.00897
