HPC_Final_Study2_Complete_Test_Class_Balance_run_all/participants_session_transfer_train/participant_3/session_5/session_5_lite_models/indexpen_model.tflite (tflite, 768696 bytes, 45 tensors)

model/time_distributed_3/conv2d_1/BiasAdd;model/time_distributed_11/conv2d_3/Conv2D;model/time_distributed_3/conv2d_1/Conv2D;model/time_distributed_3/conv2d_1/BiasAdd/ReadVariableOp/resource f4 [16]
00000000: b03e 46be 9603 18be fac8 68bd 86fd 0abd
00000010: 543e 163e 3ab8 87bd 2378 0abe 08b3 c3bc
00000020: d9ce d7bd 3361 00be e643 fcbb bd4e 40bd
00000030: f296 36be fa3b 39be 1921 b43d 2dc4 0cbe
-0.19359851 -0.14845118 -0.05683229 -0.033933185 0.14672214 -0.06626935 -0.13522391 -0.02388908
-0.105375 -0.12537079 -0.007698524 -0.04695009 -0.17831019 -0.18089285 0.087953754 -0.1374671

model/time_distributed/conv2d/BiasAdd;model/time_distributed_8/conv2d_2/Conv2D;model/time_distributed/conv2d/Conv2D;model/time_distributed/conv2d/BiasAdd/ReadVariableOp/resource f4 [8]
00000000: 73f0 0ebc 833a 7abc 445c 783b 40f0 5cbb
00000010: 8432 813d d91a 5bbb 8746 413e 44e9 3c3c
-0.00872432 -0.015272739 0.0037896791 -0.0033712536 0.06308463 -0.003343275 0.1887456 0.011530224

model/time_distributed_11/conv2d_3/BiasAdd;model/time_distributed_11/conv2d_3/Conv2D;model/time_distributed_11/conv2d_3/BiasAdd/ReadVariableOp/resource f4 [16]
00000000: a1ff 5a3c d2f1 933d 7772 203c a02d 263d
00000010: fdea 2c3d 6a75 35bc 2293 b33b f4ca 623d
00000020: cb78 ecbb bd35 74bc 0dae 213c f5fe 88bc
00000030: 47d3 1f3d b7c2 8e3a 600e a83c 2b5f 8abd
0.013366611 0.07223858 0.009792916 0.040570855 0.04221629 -0.011075357 0.005480186 0.055369332
-0.007216548 -0.01490539 0.009868157 -0.016723135 0.03901985 0.001089177 0.020514667 -0.06756433

model/time_distributed_8/conv2d_2/BiasAdd;model/time_distributed_8/conv2d_2/Conv2D;model/time_distributed_8/conv2d_2/BiasAdd/ReadVariableOp/resource f4 [8]
00000000: b593 9f3d 2324 c43b 9552 533c a5d7 b63c
00000010: ff80 00bd 7033 163e 46db bd3c 2b5c 78bb
0.07791845 0.005985753 0.012898107 0.022319624 -0.03137302 0.1466806 0.023175847 -0.0037896733

model/time_distributed_3/conv2d_1/Conv2D f4 [16, 3, 3, 8]
00000000: b935 da3d d7ef 40bd b14e ac3c 551c 8fbe
00000010: d597 03bc 6be1 093d 8391 57bd 278f eebc
00000020: 23a6 81bc b2f2 82bc 87d6 cdbb a1f7 393d
00000030: dd9d be3d c987 7f3d d4c6 4d3e eaaa 69bd
00000040: 4e28 323d c70e 27bd c93f 28bc 9390 bebc
00000050: 272e 33be 5df6 34bd 1390 463a 9f15 84ba
00000060: a0d5 b73c 1375 84bd 9452 49bc 308b 82bd
00000070: ff84 84bd afd0 1f3d 085b 133e b60e 733b
00000080: f119 0dbd 6c5e 913a 5c55 123b cdaf 8a3e
00000090: 482d e9bd a851 2e3d 59fe 0bbc 5afc 123c
000000a0: 93f4 84bc aa2b 273d e3e1 033d 491c 02be
000000b0: ec95 4f3c c796 3abd 92c4 56be f66f a9bc
000000c0: 5830 913b db31 353d dc3c 843d 4745 993d
000000d0: 405d 9bbd f952 d23b c6e8 db3d fa42 b8bc
000000e0: 0b1d c4bc 0f4d ea3c 1b3b 843b 6254 fcbd
000000f0: 00f5 d1bd bb09 3abd 5781 893e 9767 f3ba
00000100: 7c32 46bc a602 15bc 50ec dbbc 3777 bbbd
00000110: 7b85 cbbc 83c7 c7bb 262b f93e 541a 52bc
00000120: 2161 973c 6039 113d 2b12 68bd 8613 0abe
00000130: 9374 c13d 4463 d4bc efb3 a3be 7774 a13d
00000140: dea7 103d 85fc 913c e640 d73a e5a1 983c
00000150: 0233 bc3d 7d77 1ebd 1d7f 22bd 2df0 c6bb
00000160: 455c 183d e21f c9bb 9c45 e23c cee7 a8bd
00000170: be68 18be 8712 5e3d 6e73 833e 2452 4fbd
00000180: 53e4 253c 6321 653c e7b4 05bd cc6f 353e
00000190: 76dc d23c a8e9 30bd 4fc1 33be 3943 863c
000001a0: cba0 c0bd 1348 31bc 75a1 4f3d d899 923c
000001b0: 7281 aa3d 3aea 1dbd 93ef a7be 358b 383d
000001c0: cbbe a7bd c852 8c3a f64f 593c 21ea f0bd
000001d0: 9287 443d d54c b53d 84e5 713e fa71 e7ba
000001e0: d71f 36bb 6c90 553c 6884 1fbc 7634 87bd
000001f0: 6fd9 0a3e 6400 4f3d 22f4 463d 3d8c 53bd
00000200: 6aac ab3c 9f5b acb9 9675 ca3c a753 f3bd
00000210: 21f9 f4bd ec40 bebc 4a06 833e bb3e b03d
00000220: 9532 063d ce67 eebc 534a 18bd c740 023d
00000230: be4c 2abe b9cb 3c3b 0781 ca3e 82e8 283d
00000240: 72e0 63bd 420d 9cbc 3128 0cbc 7b2d d2bd
00000250: 96f2 25be d5e3 ddbc ea81 34be 1a3d cc3c
00000260: 96d9 1ebd 19cb 07bc 53e8 9abd 473b 56bd
00000270: 58ae b63b 31f2 2a3d 5102 0b3e cd7b 483c
00000280: 0843 3ebd 2adf 28bd f97f 093c 5d12 563d
00000290: 608b 84bc c7e5 423d b463 2bbe b0fc abbc
000002a0: 5d34 04ba a398 473b f470 d1bc 0680 3a3e
000002b0: 7cd8 79be 0423 85ba 659a bcbe 928d 663d
000002c0: 21ca b7bc b67d 633d f89d 05bd a37e 94bd
000002d0: 41a6 98bd 7bc0 19bd 3f2d babe 2596 c3ba
000002e0: b24a 3e3c 02f1 c73a 5e3b 613d f689 5c3e
000002f0: 1cf8 233d c8f0 2abd 6b5b 1abe 308f 123d
00000300: d1f1 333d ba1e edbc a3ce 16bd 1859 d7bd
00000310: 15cb 833c ff73 b73c 2300 343d 705d 47bb
00000320: 1efc 6d3c 9b3c 593c 84a4 283c 8c73 b8be
00000330: 6c64 69be a66e bbbc 1423 0f3e 9f1a a1bc
00000340: 6627 f73c 1a97 30ba 4d0b f4bb 0e10 e4bc
00000350: 86a4 a5be 0a43 35bd 4d9e 373e 4f88 d33c
00000360: 3479 46bd e873 a93d c023 51bd c336 e1bd
00000370: 2958 8a3d ae96 0c3d 0178 af3c a7f0 12bd
00000380: 5d8a 18bd 988a 433d 6e1c a6bc 07fd 083e
00000390: 37e7 c8bd c451 edbc b6e3 fdbd 9273 1b3d
000003a0: f326 7abd c230 64ba 195e 183d 47eb 80be
000003b0: 18b2 90bc e7fb 133d 5c63 a13d af77 13bd
000003c0: 8ee0 a43c 774f 81bb e79c 41bd 6ab9 3e3c
000003d0: 2587 e3bb d61d 143c 227a 2c3b d514 fc3b
000003e0: 1e0e 803d 15c7 c83c f5c0 30bb cf75 70bd
000003f0: 6260 1bbe abcc 8f3c 818f 20be 6e72 2e3c
0.10654778 -0.04710373 0.021033617 -0.27951303 -0.008031805 0.03366224 -0.052629005 -0.029120995
-0.01582629 -0.015984867 -0.006281677 0.045402173 0.09307454 0.062385354 0.20095378 -0.057047762
0.04349547 -0.040785577 -0.010269114 -0.023262298 -0.17498074 -0.044180263 0.00075745693 -0.0010077244
0.022440732 -0.06467643 -0.012287755 -0.06374204 -0.064706795 0.039017376 0.14390194 0.0037087626
-0.034448568 0.0011090762 0.002232871 0.2708725 -0.1138559 0.042558342 -0.008544528 0.008971298
-0.016229903 0.040813126 0.032197844 -0.12706102 0.0126700215 -0.04555395 -0.20973423 -0.02068327
0.004430812 0.044237 0.064569205 0.07483917 -0.075861454 0.0064185825 0.107377574 -0.022492874
-0.02393963 0.028601198 0.0040353662 -0.12320782 -0.10251808 -0.045419436 0.2685649 -0.0018570301
-0.012096997 -0.00909487 -0.026846081 -0.09153598 -0.024843922 -0.0060967817 0.48665732 -0.01282366
0.018478932 0.035455108 -0.05665795 -0.1348401 0.09446063 -0.02592624 -0.31973216 0.07883542
0.03531634 0.017820606 0.001642254 0.018631885 0.091894165 -0.03868817 -0.039672006 -0.0060711117
0.03719737 -0.006137834 0.027621083 -0.08247338 -0.14883706 0.054216888 0.25674003 -0.050615445
0.0101252375 0.013985011 -0.032643225 0.17718428 0.02573989 -0.043191582 -0.1755421 0.016389476
-0.09405669 -0.0108204065 0.050691087 0.017895624 0.08325471 -0.038553454 -0.32799968 0.045054633
-0.08190688 0.0010705823 0.013263693 -0.117634065 0.047980852 0.08852545 0.2362271 -0.0017657869
-0.0027789974 0.013034921 -0.009736158 -0.06601803 0.13559507 0.050537482 0.048572667 -0.051647414
0.020956237 -0.0003287466 0.024714272 -0.1188119 -0.1196158 -0.023224317 0.25590736 0.08605715
0.032763083 -0.029102232 -0.037180256 0.031800058 -0.16630837 0.0028807952 0.39551565 0.04123736
-0.05563397 -0.01904929 -0.008554504 -0.10262581 -0.1620582 -0.027086178 -0.17627683 0.02493148
-0.038781725 -0.008288168 -0.075638436 -0.052302625 0.0055749826 0.041734878 0.13575102 0.012236548
-0.046450645 -0.04122845 0.008392327 0.052263606 -0.01617974 0.047582414 -0.16737252 -0.020994514
-0.0005043203 0.0030455969 -0.025566556 0.182129 -0.24398988 -0.001015753 -0.36836544 0.056287356
-0.02243525 0.05553981 -0.032621354 -0.072507165 -0.074535854 -0.03753708 -0.36362645 -0.0014922066
0.011614488 0.0015254321 0.054988258 0.21537003 0.040031537 -0.041733533 -0.15073936 0.035781085
0.043931786 -0.028945316 -0.036818158 -0.1051504 0.016088048 0.022394178 0.043945443 -0.0030420683
0.014525441 0.013259078 0.01029313 -0.36025655 -0.22792214 -0.02287991 0.13978225 -0.019666014
0.030170154 -0.0006736383 -0.007447636 -0.027839687 -0.32352084 -0.044253387 0.1793148 0.025821833
-0.048455432 0.082740605 -0.051059484 -0.10996773 0.067550965 0.034323387 0.021419527 -0.035874035
-0.03724133 0.047739595 -0.020277228 0.13377772 -0.09809726 -0.028969653 -0.12396948 0.037952013
-0.0610723 -0.0008704775 0.037199114 -0.25179502 -0.017663047 0.036128905 0.078802794 -0.03600281
0.020126607 -0.0039462405 -0.047268774 0.011640886 -0.0069436007 0.009040317 0.0026317914 0.007692913
0.06252693 0.024508992 -0.002697048 -0.0587061 -0.15173486 0.017553648 -0.15679742 0.010647399

model/time_distributed/conv2d/Conv2D f4 [8, 3, 3, 1]
00000000: a285 fbba e2ea 1cbb b4ea f1ba ee95 07ba
00000010: 4006 243a f10d bfba f033 873a b8d6 083a
00000020: 88d1 44ba 1ec1 d4b9 c8c6 8939 4503 99b9
00000030: f9a5 86ba d884 abba d4c2 773a 7ea5 aeb9
00000040: 7604 323b 68af b93a 310e d5b8 0365 01ba
00000050: 36cc 86ba f055 1cba c1b7 7b3a 6f0b 4dba
00000060: 03a8 553a 78ca 5a3a 2934 04ba 1a9b e3bb
00000070: 72a7 863b 408e 02ba 1e98 0c3b 2387 97bb
00000080: 34c6 173c 58d9 54ba 78c5 7bbb d244 2d3c
00000090: 1b2a 323a 8af2 02bb 0299 7639 b1c3 383b
000000a0: 26a4 4e3b 0c47 92ba 2e83 073d 12f4 2d3b
000000b0: 5229 c1bb f4be 843a 1236 0f3a 01aa 1bbb
000000c0: 988f 163a b7aa 183a c6c1 e03a e0a9 b63a
000000d0: c8b9 18bb fae3 94ba 6262 183a a243 463c
000000e0: 6c34 bdbb 9902 82bb 1e3b f5bb 9743 7e39
000000f0: 0da1 bcbb d5f2 bfbc 9fe1 8e3b ac81 30ba
00000100: 84fa 6fba 5263 5438 ec69 833b 7def 4c3a
00000110: 8683 9539 91a5 8cba 6664 5939 4815 5739
-0.0019189606 -0.0023943712 -0.0018456788 -0.00051721826 0.0006257035 -0.0014576298 0.0010315161 0.0005219984
-0.0007508029 -0.00040579675 0.0002627878 -0.0002918487 -0.0010272852 -0.0013085855 0.0009451334 -0.00033311167
0.0027163303 0.0014166655 -0.00010159275 -0.00049360114 -0.0010284248 -0.00059637334 0.00096022716 -0.0007821833
0.0008150341 0.000834621 -0.0005043173 -0.00694598 0.0041093165 -0.00049803033 0.0021452974 -0.004624264
0.009263564 -0.0008119545 -0.003841726 0.01057549 0.00067964353 -0.001998099 0.00023517388 0.0028192813
0.0031530946 -0.001116009 0.033084087 0.0026543182 -0.0058948183 0.0010127709 0.0005463074 -0.0023752453
0.0005743443 0.00058237783 0.0017147593 0.0013936125 -0.0023304094 -0.0011359446 0.0005813 0.012101086
-0.0057740714 -0.003967595 -0.007483854 0.00024248507 -0.0057565034 -0.023431221 0.004360392 -0.000673319
-0.0009154456 5.0637238e-05 0.0040104296 0.0007817669 0.00028517487 -0.0010730495 0.00020732134 0.00020511926

model/time_distributed_11/conv2d_3/Conv2D f4 [16, 3, 3, 8]
00000000: bd27 4d3e 988d 62bc d843 6c3d 31c9 833b
00000010: f042 afbe 994c 8fbe 1b44 13be dfb6 aabd
00000020: 5c02 253c 71d1 2a3b 21b8 6e3d 7b61 c4bc
00000030: 3dc9 9ebe 58a5 7d3e 0655 3dbe d040 9fbd
00000040: d5c0 eebd ea7b 2ebb c504 283d 9c64 56bc
00000050: 5a91 aabe fc01 5b3d dae7 543d acad 57bd
00000060: 2562 3ebe a0c6 e1bc a099 523d 9646 b1bc
00000070: fafe 623d 08ad 003e 6a8c b1be 4883 debc
00000080: 94ab 703d 789f 42bd 72a6 c33c 8550 993a
00000090: a1d2 de3c 74c0 d3bc 6f63 a93d c6f9 9c3c
000000a0: 603b e43c 15c1 60bc b33b 023c 4a75 4cbc
000000b0: c7ee 683c afd5 88be e490 a73d 1aed fe3c
000000c0: ca4f ec3c fd70 61bd 2204 cf3c 9fa6 833c
000000d0: eb62 0ebd a189 c6bd 0703 24be f7f9 e4bc
000000e0: 1658 82bc 0006 0d3d 5d3f b63b b56a 413d
000000f0: 8635 7d3d bf8e 773a 1f40 20bd 2417 08bd
00000100: 6f7b 303d e330 b5bb 385b d63b 24f7 893d
00000110: 13c2 a73e 9ab4 11bd 50d9 a6be c49e 883d
00000120: abe8 fc3e 92d0 5c3d 6575 0ebc 7ebb 973d
00000130: 9411 4c3e 204e 05be 596d a1be 2c9c f93c
00000140: da54 cd3c 374a 393c 6a5d babc 05e1 6ebd
00000150: 27da 1cbe 708b 173e 990c c7bd 9a74 25ba
00000160: 2eb8 ecbe 57f5 8d3c 074e 0fbc 5325 51bc
00000170: 8a70 cabe 18c2 1abe a4f2 a53e a19f 163d
00000180: e9a9 89be 84c4 41bc 8b97 213c 40f4 fd3b
00000190: f874 cebe 9e01 573e 21ef 6abe 1f85 5d3d
000001a0: 6b5e 5a3e e02d 213c fe76 7e3c 9add be3d
000001b0: 8ba7 94be 55f2 92be e84f 33be 3003 6cbd
000001c0: 6ac7 e83d dbc9 2fbd 78ae 52bd ab8a 8f3c
000001d0: 22ca 843e dd6c a03b 60e1 4abc 28fa 983d
000001e0: aee0 1c3e 8567 f7bc 13b8 bd3c bad1 5b3d
000001f0: d18b 5a3d 7579 423e 1cf9 59be 71d9 a83c
00000200: 04c2 79be d30d 19bc 9e06 7a3d 6ce4 17bd
00000210: 1f6d 0dbe 7ff2 eebd ce4d e4bd 7cf2 8cbd
00000220: b6d3 07be f71f 22bd 46d5 4a3c 80ef 6b3d
00000230: ee88 c4be 1a6b 0dbe 9ac5 3e3d 80e7 37bd
00000240: 098c 0abc 0fc5 643c 9e63 623c 91d6 6ebc
00000250: 363a db3b ca78 90bb cddf aebc 90b5 863c
00000260: 9bb6 06bc 5b47 693c 551a 533c 9bac 74bc
00000270: 0ca8 fe3b 5727 da39 d71c 5bbc bf78 813c
00000280: 57c3 30bc cf09 6d3c 0804 473c f75a 79bc
00000290: a04f 073c 5e5e 743b 1424 96bc b9b0 753c
000002a0: ab42 2b3a 2e7d 8a39 74ab 7e3c f8fd f93c
000002b0: 1b5d 1bbc 6fbd c6b7 8a46 003c d23f a23c
000002c0: 5326 44bb 0c9b 683a dfca 793c dabf 013d
000002d0: 047b d3bb 3c70 17bb 3ca0 0abb 6220 a93c
000002e0: 47fb f3bb c5a7 d23a 159a 783c 71dd 053d
000002f0: 0351 ddba 12a8 dfbb 6c09 da3b 5aaa af3c
00000300: ef8e 69bc e216 7f3b 0b5c 7a3b 2dff 723b
00000310: 98f2 65bc 1c6f 7eba 2e53 7aba 6479 1a3d
00000320: 375b 30bc d046 323b cc56 933b 1ed8 843b
00000330: a8cb 93bc 74de 2b3b cbf8 29bb 770e 123d
00000340: 0b0c 99bc 8f8d ed3a affa b43b 7a40 9c3b
00000350: 4111 87bc ba70 3739 9a28 a4bb e32c 123d
00000360: d6d6 34be a4fc c1bb a1c5 3a3d 58b7 b23c
00000370: 2a15 d93d 2ae0 54bd c6df 7bbe 5dca 5c3d
00000380: 9e30 643e 7f90 0dbc bf2b 223d 6a75 bc3c
00000390: 093c cd3d 7629 9cbc 6b01 97be d460 403d
000003a0: 8151 a53c 6e14 6fb9 8cd2 003d c7ef 823b
000003b0: 29f9 95bd 14bc bc3d 44d2 f63d 7c6c 2d3d
000003c0: 4c6e c03e ef65 133b aca4 3cbb 09ea 863d
000003d0: e5b2 8ebe 04b6 2d3e 87e6 25be bac1 893d
000003e0: 2c72 d1bd c40b a23c 1941 37bc 1faa 363c
000003f0: 4453 58bd 20c6 ad3c dd10 1dbe a907 6e3c
0.2003469 -0.013827704 0.05768189 0.0040217866 -0.34230757 -0.27988127 -0.14381449 -0.08335661
0.010071363 0.0026064778 0.058281068 -0.023972264 -0.31012908 0.24770105 -0.18489465 -0.07776034
-0.116578735 -0.0026624152 0.041020174 -0.013085511 -0.3331402 0.05346869 0.051978923 -0.05265586
-0.18592127 -0.027560532 0.05141604 -0.021640103 0.055418946 0.12566006 -0.3467744 -0.02716221
0.05875738 -0.047515363 0.023883078 0.001169697 0.027200045 -0.025848605 0.082709186 0.01916207
0.027860343 -0.013717909 0.007948804 -0.012479136 0.014217085 -0.26725528 0.081819326 0.031118918
0.02884664 -0.055039395 0.025270525 0.016070662 -0.034762304 -0.096942194 -0.1601678 -0.027951224
-0.015911143 0.03442955 0.0055617527 0.047220904 0.061818622 0.0009443573 -0.03912365 -0.033225194
0.043086465 -0.0055295094 0.006541636 0.067365915 0.32765254 -0.035572626 -0.3258767 0.06670907
0.49396262 0.053909846 -0.008694981 0.07408808 0.1992858 -0.13018084 -0.31528738 0.030469976
0.025064874 0.011309198 -0.022749621 -0.058320064 -0.15317594 0.14799285 -0.097192 -0.00063116255
-0.46234268 0.017328901 -0.0087466305 -0.012765246 -0.39538985 -0.15113103 0.32411683 0.036773328
-0.26887444 -0.011826638 0.009862791 0.007750064 -0.40323615 0.2099671 -0.22942783 0.054082032
0.2132508 0.009837598 0.0155313 0.09319611 -0.29034075 -0.2870051 -0.1751095 -0.057620227
0.1136616 -0.042917114 -0.051435918 0.017522177 0.25935465 0.00489579 -0.012382835 0.074695885
0.15320083 -0.03020073 0.023159062 0.053666808 0.053355996 0.18991645 -0.21286434 0.020611497
-0.24390417 -0.009341675 0.061041467 -0.037083074 -0.13811158 -0.11667346 -0.111476526 -0.06882188
-0.13264355 -0.039581265 0.01237995 0.057601452 -0.3838572 -0.13810387 0.046575166 -0.04489851
-0.008456239 0.013962998 0.013817696 -0.014577524 0.006690289 -0.0044089304 -0.02134695 0.016443998
-0.0082222475 0.014238204 0.012884696 -0.0149337305 0.0077714976 0.0004160951 -0.013373575 0.015804647
-0.01078876 0.014467671 0.012146957 -0.015219442 0.00825873 0.0037287693 -0.01832775 0.014995747
0.00065330666 0.00026414677 0.015543807 0.03051661 -0.009482647 -2.3691651e-05 0.007829318 0.019805823
-0.002993007 0.00088732014 0.015246122 0.031677105 -0.0064538736 -0.0023107668 -0.0021152636 0.020645324
-0.007445726 0.0016071728 0.015173455 0.032681886 -0.0016885105 -0.0068254555 0.006653955 0.021443535
-0.014255269 0.0038923551 0.0038201835 0.0037078366 -0.01403489 -0.00097058876 -0.0009549138 0.037713423
-0.010763935 0.0027202852 0.004496431 0.0040540835 -0.018041447 0.0026225122 -0.0025935646 0.035658326
-0.0186825 0.0018123853 0.005523048 0.0047684284 -0.01648772 0.00017494234 -0.005009723 0.03568734
-0.17660078 -0.0059200097 0.04559863 0.02181594 0.1059974 -0.051971592 -0.24597082 0.053903926
0.22284171 -0.008640408 0.0395925 0.023005206 0.100212164 -0.019062739 -0.2949327 0.046967342
0.020180466 -0.00022800427 0.031450793 0.003995869 -0.07322914 0.092155606 0.12051824 0.042339787
0.3758415 0.0022491177 -0.0028784676 0.065876074 -0.2787086 0.16963965 -0.1620122 0.067264035
-0.10226855 0.019781 -0.011184954 0.0111489585 -0.052813783 0.021212637 -0.15338464 0.0145281935

model/time_distributed_8/conv2d_2/Conv2D f4 [8, 3, 3, 1]
00000000: b54d ecbc 4c30 0ebd 4a80 333d 0ff8 983d
00000010: 3f55 80bd e36c 673c 7742 49bd bc52 333c
00000020: a669 bd3c 0aa7 8d3b b11c d8b8 ea9b 01bb
00000030: a265 233b a21d 293b cce7 ebba 38f0 dc39
00000040: 9dca 9b3a f33a d939 aa33 2d3b 2988 f9bb
00000050: 5a35 c13a f461 9c3b 12ab 4f3b 2a66 aabb
00000060: 75ff a83a e31c 083a a7da 05bc 180b 683b
00000070: f8e9 04bc b01f 763b 342d b5bb 0a9a 583b
00000080: d2c7 ce3a cf45 1f3b 1bc8 133b cad5 143a
00000090: 17c6 28bc 8bb4 09bc d4a7 8d3a d400 6b3c
000000a0: 3553 00bd 4096 933c 514d a7bb a6ab d03b
000000b0: 671f b83c 0869 0dbd e970 673d 110c 923c
000000c0: 5281 093d 79ae c7bd 4e66 4c3d c8a2 0cbd
000000d0: 9d0f 713d 5572 13bd c4f5 ae3c e91b 5bbd
000000e0: 18a7 d13c b7d6 9dbc c96d b93c 78b5 60bb
000000f0: b590 093b c9e2 303d 6243 95bd 681e 93b9
00000100: c6e6 ecbb 8d7f 363c 5629 5f3c d756 bebc
00000110: 28c3 203c b60c 723b 6cda 89bb 9955 6c3a
-0.028845647 -0.03471403 0.043823518 0.074691884 -0.062662594 0.014125082 -0.04913565 0.010945018
0.023121666 0.004322891 -0.00010305027 -0.001977677 0.0024932404 0.0025805016 -0.0017998158 0.00042140647
0.0011885945 0.00041433386 0.00264285 -0.0076151085 0.0014740631 0.004772419 0.003168766 -0.005200167
0.0012893515 0.0005192293 -0.008169807 0.0035407003 -0.008112423 0.0037555508 -0.0055290703 0.0033050799
0.0015776104 0.0024303084 0.0022549692 0.0005677609 -0.010301135 -0.008404861 0.0010807463 0.014343459
-0.031329352 0.01801598 -0.0051056524 0.0063681183 0.022475911 -0.034523994 0.056504164 0.01782802
0.033570595 -0.09750075 0.049902253 -0.034334928 0.05885278 -0.035997707 0.021357425 -0.053493414
0.025592372 -0.019267423 0.022635357 -0.0034287851 0.0020990793 0.04318503 -0.07288243 -0.0002806068
-0.007229659 0.011138809 0.013620695 -0.023234768 0.009812154 0.0036933846 -0.004206946 0.00090154406

model/lstm/TensorArrayV2_1 f4 [120, 1, 32]
00000000: 0000 0000 0000 0000 0000 0000 0000 0000
00000010: 0000 0000 0000 0000 0000 0000 0000 0000
00000020: 0000 0000 0000 0000 0000 0000 0000 0000
00000030: 0000 0000 0000 0000 0000 0000 0000 0000
00000040: 0000 0000 0000 0000 0000 0000 0000 0000
00000050: 0000 0000 0000 0000 0000 0000 0000 0000
00000060: 0000 0000 0000 0000 0000 0000 0000 0000
00000070: 0000 0000 0000 0000 0000 0000 0000 0000
00000080: 0000 0000 0000 0000 0000 0000 0000 0000
00000090: 0000 0000 0000 0000 0000 0000 0000 0000
000000a0: 0000 0000 0000 0000 0000 0000 0000 0000
000000b0: 0000 0000 0000 0000 0000 0000 0000 0000
000000c0: 0000 0000 0000 0000 0000 0000 0000 0000
000000d0: 0000 0000 0000 0000 0000 0000 0000 0000
000000e0: 0000 0000 0000 0000 0000 0000 0000 0000
000000f0: 0000 0000 0000 0000 0000 0000 0000 0000
00000100: 0000 0000 0000 0000 0000 0000 0000 0000
00000110: 0000 0000 0000 0000 0000 0000 0000 0000
00000120: 0000 0000 0000 0000 0000 0000 0000 0000
00000130: 0000 0000 0000 0000 0000 0000 0000 0000
00000140: 0000 0000 0000 0000 0000 0000 0000 0000
00000150: 0000 0000 0000 0000 0000 0000 0000 0000
00000160: 0000 0000 0000 0000 0000 0000 0000 0000
00000170: 0000 0000 0000 0000 0000 0000 0000 0000
00000180: 0000 0000 0000 0000 0000 0000 0000 0000
00000190: 0000 0000 0000 0000 0000 0000 0000 0000
000001a0: 0000 0000 0000 0000 0000 0000 0000 0000
000001b0: 0000 0000 0000 0000 0000 0000 0000 0000
000001c0: 0000 0000 0000 0000 0000 0000 0000 0000
000001d0: 0000 0000 0000 0000 0000 0000 0000 0000
000001e0: 0000 0000 0000 0000 0000 0000 0000 0000
000001f0: 0000 0000 0000 0000 0000 0000 0000 0000
00000200: 0000 0000 0000 0000 0000 0000 0000 0000
00000210: 0000 0000 0000 0000 0000 0000 0000 0000
00000220: 0000 0000 0000 0000 0000 0000 0000 0000
00000230: 0000 0000 0000 0000 0000 0000 0000 0000
00000240: 0000 0000 0000 0000 0000 0000 0000 0000
00000250: 0000 0000 0000 0000 0000 0000 0000 0000
00000260: 0000 0000 0000 0000 0000 0000 0000 0000
00000270: 0000 0000 0000 0000 0000 0000 0000 0000
00000280: 0000 0000 0000 0000 0000 0000 0000 0000
00000290: 0000 0000 0000 0000 0000 0000 0000 0000
000002a0: 0000 0000 0000 0000 0000 0000 0000 0000
000002b0: 0000 0000 0000 0000 0000 0000 0000 0000
000002c0: 0000 0000 0000 0000 0000 0000 0000 0000
000002d0: 0000 0000 0000 0000 0000 0000 0000 0000
000002e0: 0000 0000 0000 0000 0000 0000 0000 0000
000002f0: 0000 0000 0000 0000 0000 0000 0000 0000
00000300: 0000 0000 0000 0000 0000 0000 0000 0000
00000310: 0000 0000 0000 0000 0000 0000 0000 0000
00000320: 0000 0000 0000 0000 0000 0000 0000 0000
00000330: 0000 0000 0000 0000 0000 0000 0000 0000
00000340: 0000 0000 0000 0000 0000 0000 0000 0000
00000350: 0000 0000 0000 0000 0000 0000 0000 0000
00000360: 0000 0000 0000 0000 0000 0000 0000 0000
00000370: 0000 0000 0000 0000 0000 0000 0000 0000
00000380: 0000 0000 0000 0000 0000 0000 0000 0000
00000390: 0000 0000 0000 0000 0000 0000 0000 0000
000003a0: 0000 0000 0000 0000 0000 0000 0000 0000
000003b0: 0000 0000 0000 0000 0000 0000 0000 0000
000003c0: 0000 0000 0000 0000 0000 0000 0000 0000
000003d0: 0000 0000 0000 0000 0000 0000 0000 0000
000003e0: 0000 0000 0000 0000 0000 0000 0000 0000
000003f0: 0000 0000 0000 0000 0000 0000 0000 0000
0.0 0.0 0.0 0.0 0.0 0.0 0.0 0.0
0.0 0.0 0.0 0.0 0.0 0.0 0.0 0.0
0.0 0.0 0.0 0.0 0.0 0.0 0.0 0.0
0.0 0.0 0.0 0.0 0.0 0.0 0.0 0.0
0.0 0.0 0.0 0.0 0.0 0.0 0.0 0.0
0.0 0.0 0.0 0.0 0.0 0.0 0.0 0.0
0.0 0.0 0.0 0.0 0.0 0.0 0.0 0.0
0.0 0.0 0.0 0.0 0.0 0.0 0.0 0.0
0.0 0.0 0.0 0.0 0.0 0.0 0.0 0.0
0.0 0.0 0.0 0.0 0.0 0.0 0.0 0.0
0.0 0.0 0.0 0.0 0.0 0.0 0.0 0.0
0.0 0.0 0.0 0.0 0.0 0.0 0.0 0.0
0.0 0.0 0.0 0.0 0.0 0.0 0.0 0.0
0.0 0.0 0.0 0.0 0.0 0.0 0.0 0.0
0.0 0.0 0.0 0.0 0.0 0.0 0.0 0.0
0.0 0.0 0.0 0.0 0.0 0.0 0.0 0.0
0.0 0.0 0.0 0.0 0.0 0.0 0.0 0.0
0.0 0.0 0.0 0.0 0.0 0.0 0.0 0.0
0.0 0.0 0.0 0.0 0.0 0.0 0.0 0.0
0.0 0.0 0.0 0.0 0.0 0.0 0.0 0.0
0.0 0.0 0.0 0.0 0.0 0.0 0.0 0.0
0.0 0.0 0.0 0.0 0.0 0.0 0.0 0.0
0.0 0.0 0.0 0.0 0.0 0.0 0.0 0.0
0.0 0.0 0.0 0.0 0.0 0.0 0.0 0.0
0.0 0.0 0.0 0.0 0.0 0.0 0.0 0.0
0.0 0.0 0.0 0.0 0.0 0.0 0.0 0.0
0.0 0.0 0.0 0.0 0.0 0.0 0.0 0.0
0.0 0.0 0.0 0.0 0.0 0.0 0.0 0.0
0.0 0.0 0.0 0.0 0.0 0.0 0.0 0.0
0.0 0.0 0.0 0.0 0.0 0.0 0.0 0.0
0.0 0.0 0.0 0.0 0.0 0.0 0.0 0.0
0.0 0.0 0.0 0.0 0.0 0.0 0.0 0.0

model/dense/BiasAdd/ReadVariableOp/resource f4 [256]
00000000: e5da 92bd 5ed8 e43a edff ed3c 2f7e a63d
00000010: 221d c23c df52 33bd c255 e7bd 63f9 55bd
00000020: f8bd 99bc 4435 98bd c1b9 80bd 8048 21bd
00000030: f90c 523d 88e8 60bd c9fc cabc 2a6c b6bc
00000040: 5a77 2ebd 5f12 49bd c311 ce3d 0e08 883d
00000050: ce6e 263d 60f5 023d 426d 8ebc 32f5 9d3d
00000060: ad0a 243d 89e3 183d e5c0 63b9 a07f c4ba
00000070: 8c0e 653d b781 433d 6ef7 53bd 5b10 313c
00000080: df23 83bd 10b9 8dbd d864 963c 7cbd 783d
00000090: 7a35 a7bc 2976 90bd aedf 57be 1337 3bbd
000000a0: fb87 6b3c 35bc b63a ce73 fabd 13d6 2e3d
000000b0: c8c7 b6bd 2977 b13c 6838 4a3c e29b 2bbd
000000c0: 71fe a63d 844b 8fbd bc72 063d a502 f63d
000000d0: 45de aebc 3aa0 003d a71a 56ba 98aa 243c
000000e0: 2137 fbbb 4781 f1bb f8cd 03bb cb14 7c3a
000000f0: 133b d83d 9ace 953b 2227 9abd 8faf a93c
00000100: 3f9b ce3c 1b19 87bd 5e04 a83d ce6a 2d3d
00000110: 0826 853d 5ce9 0e3d 572c 3c3d ad5d 4cbd
00000120: a287 4c3d 3b1b 40bc a58f 83bd 3af9 2c3c
00000130: 3efc fabc c948 2bbd cd22 59bb 49eb 1e3d
00000140: 78ed 9abc c878 bd3c 08f9 c8bc 04e1 203d
00000150: d8dd 90bc 6e01 d83b 2ce8 f1ba 439b 91bd
00000160: 8439 c43c f0d5 003d 6009 a3bd d9a7 87bd
00000170: c5a3 20bc 7bf7 373d 28f6 203d 7805 b0bd
00000180: faa7 2abd 1d25 8ebc 1e41 e7bb 417b 4d3d
00000190: 04bb 28bd d017 453d 0e82 c0ba c208 e4bd
000001a0: 5ca9 9bbb 35be d93c b700 893c 3f7f 0d3c
000001b0: 5322 993c 3126 9ebd 0a05 a83c f1d6 a7bb
000001c0: de25 6a3d 1049 793d e8d9 493d 795a 4abd
000001d0: 02ad 833d 4ca8 4dbc 0646 0abc f2a4 34bc
000001e0: 3be2 073c f301 07be 29f0 86bd 2a37 62bd
000001f0: 654f f53c ff8d 8f3d 2d95 043d 4f06 943c
00000200: 7b54 903d 0341 02bd 260f 34bd 268a c33c
00000210: 9162 2dbd 806d ffbd ec36 6a3d ef0e 1d3b
00000220: b54a 9abd 3f38 fd3d 3f92 e73c 2976 833d
00000230: 728f d2bc cc92 a5bc e2b7 043d 2b0b cfbc
00000240: 8466 babd ff53 5b3d f161 fc3c 7817 3e3d
00000250: 5955 f53d 1316 023d 8775 08bd fa66 1e3c
00000260: 417e 55bd 4c04 c6bd 654f 23bc 12f2 5bbd
00000270: b90c 17bd 4a77 82bd 579c fb3c fc80 b93d
00000280: dfed 51bd e0da 8abd 126c dabd 92d3 a5bc
00000290: d67e a9bd 4d34 84bd 3f7b 1e3d 9c34 403c
000002a0: 4777 6a3b 6ff6 093d 4984 17bd 831d 44bd
000002b0: c051 fc3d 19b5 993b 74b4 ab3c baf8 99bc
000002c0: 0da1 65bd 317f 6bbd 8de4 2ebd 7efc 353d
000002d0: 4a11 c43d d173 443d 92ab 613c b6c8 043d
000002e0: bb1f 403c 17d1 5639 2935 be3d 2b49 a0bd
000002f0: 05ad 013e 3a6a 86bd 7a9e 913d 978b b9bb
00000300: 5f07 2abd 9746 703d d2e7 67bd 111a fb3a
00000310: 2af1 babc 4fb2 833d 4c27 203d 56d2 2abd
00000320: 5af4 2e3d 4d9d 15bd ff3b 943b 6284 a7bd
00000330: 7b54 11be 082a dfba 6ab8 a33d 9738 cfbc
00000340: b3d5 a63c 3fb7 7fbc 25f3 25bd cf8a 0abd
00000350: ab72 5cbb e7d0 303d 879f 30bd ddfe 27bc
00000360: 297f 92bd d757 58bc e6b2 7abc ba1c 93b9
00000370: dbdd 1ebc 6ab0 0abd 2067 b63c e356 43be
00000380: 36ee b03c 51c7 42bd aa39 253d 91ed 23bb
00000390: 8eb0 d9bc b041 b03b d4dc e23c 3380 a73c
000003a0: 7e33 553d c4a7 783c 576f 0a3c e67c d23b
000003b0: af40 e1bc f0d5 533c 8379 8abd d9ef c1bc
000003c0: c498 20bd 25b1 d93c e31a 83bc 350b 70bd
000003d0: 38a9 5bbd 460a 543b f95e db3c 5b9e 51bd
000003e0: 8a42 e63c a6fb dcbc 701e aabc 0c17 63bd
000003f0: da94 0c3d 195c 123d a3ee 7e3d e39e bbbc
-0.07170657 0.0017459502 0.029052699 0.08129536 0.023695532 -0.043780204 -0.11295654 -0.052239787
-0.018767342 -0.074320346 -0.0628543 -0.039375782 0.051281903 -0.05490926 -0.02477874 -0.022268374
-0.04259429 -0.049089786 0.100619815 0.06642161 0.040633015 0.03197229 -0.017386083 0.07712783
0.040049244 0.03732637 -0.00021720266 -0.0014991648 0.055922076 0.047731128 -0.05174964 0.010807122
-0.06403326 -0.069200635 0.018358633 0.06072758 -0.020411242 -0.07053787 -0.21081421 -0.04570682
0.014375682 0.0013941588 -0.12229119 0.042684626 -0.08924824 0.021663265 0.01234255 -0.04189671
0.081539996 -0.06996825 0.032824263 0.12012223 -0.02134622 0.031402804 -0.00081674237 0.010050438
-0.007666484 -0.0073701474 -0.002011178 0.00096161355 0.105581425 0.004571748 -0.07526995 0.020713596
0.025220511 -0.06596585 0.08203958 0.042338185 0.065013945 0.034890518 0.045940723 -0.049894024
0.049934037 -0.011725242 -0.064238824 0.010557467 -0.030637857 -0.04181746 -0.0033132315 0.038798604
-0.018912062 0.023128882 -0.02453281 0.03927709 -0.017683908 0.0065919673 -0.0018456033 -0.07109692
0.023953207 0.031454027 -0.079607725 -0.06623811 -0.009804671 0.04491375 0.039297253 -0.08594793
-0.0416641 -0.017351681 -0.007057323 0.050166372 -0.041193977 0.048118412 -0.0014687197 -0.11134483
-0.004750414 0.026579956 0.016723974 0.008636295 0.018693125 -0.07722128 0.020510215 -0.0051220586
0.05716502 0.060860693 0.049280077 -0.049402688 0.06429483 -0.012552332 -0.008439546 -0.011025654
0.008293684 -0.13184337 -0.06588776 -0.05522839 0.029945085 0.070095055 0.032368828 0.018069414
0.07047363 -0.03180028 -0.04395976 0.023869585 -0.04233033 -0.12472057 0.057181284 0.00239652
-0.075337805 0.12364244 0.028267978 0.06419022 -0.025703166 -0.0202116 0.032401927 -0.02527388
-0.091015846 0.0535469 0.03080842 0.0464091 0.119791694 0.031759333 -0.033315208 0.009668106
-0.05212236 -0.09668788 -0.00996766 -0.053697653 -0.036877368 -0.06370409 0.030714197 0.09057805
-0.051252242 -0.06780028 -0.10665144 -0.020242486 -0.08276145 -0.06455288 0.038691755 0.011731293
0.0035776661 0.033682283 -0.03699139 -0.047879707 0.1232028 0.004690778 0.02096007 -0.01879536
-0.056061793 -0.057494346 -0.04269843 0.04443025 0.0957361 0.047962014 0.013773816 0.032417975
0.011726315 0.00020486522 0.09287483 -0.07826456 0.12663658 -0.0656323 0.07110305 -0.0056623924
-0.041510936 0.05866107 -0.056617565 0.0019157549 -0.022820074 0.06430494 0.039099976 -0.0417045
0.0427135 -0.036526967 0.0045237537 -0.08179547 -0.14192383 -0.0017026076 0.079941586 -0.025295539
0.020365572 -0.015607654 -0.040515084 -0.033823784 -0.0033637683 0.043167975 -0.043120887 -0.010253635
-0.0715316 -0.013204536 -0.015301442 -0.00028059428 -0.009696449 -0.033859648 0.02226597 -0.19076113
0.021597963 -0.047553364 0.040338196 -0.0025013427 -0.026573446 0.0053789243 0.02769319 0.020446872
0.05205106 0.015176717 0.008449397 0.0064235805 -0.027496664 0.012929425 -0.06761458 -0.023673939
-0.03920819 0.026573727 -0.016004032 -0.058604438 -0.053628176 0.0032354756 0.026778685 -0.05117641
0.0281079 -0.026975464 -0.020766467 -0.0554419 0.034321643 0.035732362 0.0622393 -0.022902912

model/last_layer/BiasAdd/ReadVariableOp/resource f4 [31]
00000000: 8930 98bd 05a4 0cbd 1779 133d 9388 1bbd
00000010: 58e7 86bc 1a5b 103c cae6 d33c ec0e 353c
00000020: 43ee 87bd 41ce 77bc b309 3dbc 231c 0c3b
00000030: 8d97 a7bc f7fb 933b c3bd 83bc 8a5b 313d
00000040: 5673 203c d6fd 253c 1986 9dbb bd70 cebc
00000050: 0f4a dfbc 9d80 833d df92 35bd 428d 2e3d
00000060: 40da 443c cb52 2d3d ad35 edbc 9286 483c
00000070: 1bbb f5bc fbe7 6bbc e8c3 95bc
-0.07431132 -0.03433611 0.036004152 -0.037972044 -0.016467735 0.008810783 0.025866885 0.011050921
-0.06637242 -0.015124858 -0.011537957 0.0021379075 -0.020458007 0.0045161205 -0.016081696 0.04330019
0.009793123 0.01013132 -0.0048072455 -0.025200242 -0.027256994 0.064210154 -0.04432952 0.042615183
0.0120149255 0.042315286 -0.028956259 0.012239115 -0.029996445 -0.01439857 -0.018281892

model/dense/MatMul f4 [256, 32]
00000000: 199e 81bd b910 bc3b dda7 463e cad3 e93b
00000010: 18e8 243d f964 bcbd ddd1 9a3d e258 563d
00000020: 8ee6 d9bd e84c 2d3d 8c74 64be 30bf abbd
00000030: 03f0 8ebe 84ed 24bd 6287 04be 7d02 b53d
00000040: ffe2 3abe 2fbc 96bc eedd ee3b a6e5 58bd
00000050: 8647 323e 4b3e eb3c 4956 803b 4233 143e
00000060: a14e dcbd becc f9bc 3549 463e e852 6e3d
00000070: b1f5 1e3e 1aaa 90bd 6ab6 1abc a9d4 c33c
00000080: a1b7 0e3d 2d8c f4bc ee51 44be 212b 4b3d
00000090: 640e b7bd 22c8 b93d 6309 14bd 6b09 35be
000000a0: 90e2 5e3d 414f 9d3d 2222 0f3e 6652 113d
000000b0: 3e83 da3e f45a 08be da2d b63d 3332 963d
000000c0: f386 3c3e 1421 4bbd 9fa0 833c 3add 143e
000000d0: 287a 1dbe 2feb ccbd 6638 65bc eae6 07be
000000e0: 259d 103e db28 7a3c 00e0 e0bd 6413 97b9
000000f0: 9df4 dcbc 3825 d73c 17f8 9d3d a2a5 713d
00000100: 006d 143e b4d4 1bbe 9c21 bd3c 57cc 41bd
00000110: 930d 4cbc 5e55 573d 0af9 bbbd 5592 613e
00000120: 5e6b c9bb eeea 74bc c97c d53d 696e 09bd
00000130: bf49 453e 208e f6b8 bbdf 5a3d d57b d0bd
00000140: 7009 b53c f42d 633c de9f 7bbb 6a9b 2abe
00000150: e548 f6bd 6243 173c 49bb 5b3c 6918 bdbc
00000160: a71b 003c 91b1 173d 7297 49bd d16c d5bd
00000170: 79f2 98be 35b4 a53e 8a76 b6bc 9276 65bd
00000180: aac2 483d 607f 013d 8a04 663c d396 6fbd
00000190: bdf3 eb3d 736a 3c3e 7372 2cbe ba6c 433d
000001a0: a4e2 953d dba6 f93d 8103 c8bd e755 a5bd
000001b0: 7eb3 de3d f03d e4bd 7bde 11be f7aa c4bd
000001c0: f008 9dbd a346 d73d b3df 36be 813d e4bc
000001d0: b4de 43bd c69e 983e b66a 79bd 3255 9e3c
000001e0: 541d 9d3d a5da 32be c68c 1b3d b059 a1bc
000001f0: 3adb 62bd 465a febd 64ad 463e 61c6 54bd
00000200: dc67 64bd ca94 bf3c 669b 6fbe 9ea2 4a3e
00000210: 3f06 b4bc 3282 afbc b9af 10be dc2c 2a3e
00000220: 9a68 d4bd 07b9 babd cabc e33d 8e34 99bd
00000230: 52bf 963d e655 1cbd b903 afbb ca94 393e
00000240: 3bac 93bd 6505 e0bd 302b ccbd 1723 a23d
00000250: 04d0 3c3c 920f 403a a44d d5bc 59de d0bc
00000260: ee41 adbc 951e 35bd a68d 05bd ee46 d93c
00000270: 80a5 a93d 329d 8ebd 04c0 3dbc 1772 e5be
00000280: 8bb1 813d 1f1c 7d3d aa7c d13d 2e04 f43d
00000290: a321 5dbd 08e6 91bc 90c3 9bbc f093 403d
000002a0: ef69 c9bd 11ec 8bbd 479d bf3d 0480 b73d
000002b0: c108 d03d b0a6 c6bc b537 82bd f518 b13c
000002c0: c0f2 f4bb fa92 2ebe 6946 ec3d d636 4c3d
000002d0: d0c4 05be 122b 0abe 2261 3b3c 9bcc 93be
000002e0: b203 ce3c 19b9 a9bc 1797 e0be e1de 13be
000002f0: 0850 3abd 08a9 e23c 163c 1ebd f894 06be
00000300: 7b98 27be be2b 603e 9131 45be 48fb c6bb
00000310: 2194 99bd 9442 243b de23 913d 814c 24be
00000320: 1d70 1a3e 1353 80bc 2b0d 053e f538 a03d
00000330: 47b8 da3c cfa8 49be b8b9 033e 4645 8a3d
00000340: 153c c9bd cb8f c43d 01c0 413e f058 e5bb
00000350: 749f c7bc 640f 01be 481e 053e 271c d53d
00000360: fcec ea3c a0c7 c63d b93a 53bd c4de 1a3e
00000370: 0966 263e 8d54 a5bd 1e91 4e3d c304 9fbc
00000380: fbdc fdbd 792b 04be c5a0 963d dc5d ba3c
00000390: a3f8 27bd 8a7e 753d 22ca 21bd e50b 1f3d
000003a0: 624f 87bd 8ea5 f1be 1391 d43d 1688 67bc
000003b0: bdd6 4abd 79c8 bf3d 1a10 493e d69a c73d
000003c0: d79e 18bd 9d29 76bd 39b0 63be a03b 11be
000003d0: 1f63 133c 8a86 2e3e 173e 92bc 55e0 f13d
000003e0: 42ea b23b c846 1bbe 01c3 babd e7b2 fbbc
000003f0: 0a5c 383e 4f1b f4bd d19c c33d 29da 83bd
-0.06328983 0.005739298 0.19399972 0.007135843 0.040260404 -0.091989465 0.075595595 0.05233086
-0.10639678 0.04230967 -0.22310084 -0.083860755 -0.2791749 -0.040265575 -0.1294227 0.08838365
-0.18250655 -0.01840028 0.0072896397 -0.052953385 0.17410097 0.028716227 0.003916536 0.14472678
-0.10757185 -0.030493136 0.19363864 0.058184534 0.15523411 -0.07063694 -0.009442905 0.023905115
0.03484309 -0.029851997 -0.19171879 0.049601678 -0.08938292 0.090713754 -0.036141764 -0.17679374
0.054415286 0.07681132 0.13977864 0.035478972 0.42678255 -0.13315946 0.08895464 0.073337935
0.18410854 -0.049592093 0.016067801 0.14537516 -0.1537863 -0.10005795 -0.013990497 -0.1327168
0.14122446 0.01526853 -0.109802246 -0.00028815411 -0.02697211 0.026262864 0.07713335 0.05899585
0.14494705 -0.15217859 0.023087315 -0.047314014 -0.012454408 0.052571647 -0.0917836 0.22028477
-0.0061468324 -0.01494859 0.104241915 -0.03355256 0.19266413 -0.00011756667 0.053436022 -0.10179869
0.022099227 0.013865937 -0.0038394849 -0.16660848 -0.12025622 0.009232374 0.0134113515 -0.023082929
0.007819093 0.037034575 -0.049216695 -0.10421146 -0.29872492 0.3236405 -0.02227332 -0.05602128
0.04901377 0.031615615 0.014039168 -0.058493447 0.11521099 0.18399982 -0.16840534 0.04771111
0.07318619 0.12190028 -0.09766293 -0.08073025 0.10874079 -0.11144626 -0.14245026 -0.096029215
-0.0766772 0.1051152 -0.17858772 -0.027861359 -0.047819808 0.29808635 -0.060892783 0.019327734
0.076716095 -0.17466219 0.03797605 -0.019696087 -0.055384852 -0.12419562 0.19402081 -0.051947
-0.05576311 0.023386378 -0.23399124 0.19788596 -0.021975635 -0.021424387 -0.14129533 0.16618675
-0.10371514 -0.091173224 0.11119993 -0.07480727 0.0736071 -0.038167857 -0.00534102 0.18123165
-0.07210585 -0.10938529 -0.09969175 0.07916849 0.011524204 0.0007326539 -0.026037998 -0.025496649
-0.021149602 -0.04421862 -0.03260579 0.02652308 0.0828352 -0.069635764 -0.011581425 -0.44813606
0.06332692 0.061794396 0.10228856 0.1191486 -0.053987157 -0.017809883 -0.01901415 0.047016084
-0.09834658 -0.068321355 0.0935617 0.08959964 0.1015792 -0.024249405 -0.063582815 0.021618346
-0.007475227 -0.17048255 0.11536867 0.049856983 -0.1306336 -0.13492993 0.0114367325 -0.2886704
0.025148246 -0.020718144 -0.43865272 -0.1444049 -0.04548648 0.027668491 -0.03863152 -0.13142765
-0.1636676 0.21891686 -0.1925719 -0.0060724355 -0.074989565 0.0025064098 0.07086919 -0.16044809
0.1508183 -0.015664613 0.12993304 0.07823364 0.026699198 -0.19693302 0.12863815 0.06751494
-0.09825913 0.09597739 0.189209 -0.0069991276 -0.024368025 -0.12603527 0.12999833 0.1040576
0.028677456 0.09706044 -0.051569674 0.15124041 0.16249861 -0.080727674 0.050431363 -0.01941145
-0.12395664 -0.12907209 0.07354883 0.022749834 -0.041008603 0.05993513 -0.03949941 0.038829703
-0.06606938 -0.4719662 0.10379233 -0.0141315665 -0.049521197 0.09364409 0.19635049 0.097463295
-0.037260856 -0.06009828 -0.22235192 -0.14182901 0.0089958 0.1704351 -0.017851872 0.11810366
0.0054600546 -0.1516372 -0.09119225 -0.030724956 0.1800386 -0.11919271 0.09551395 -0.06438095

model/last_layer/MatMul f4 [31, 256]
00000000: 64f1 4c3c 5aee df3d 81ba e6bb ec7e b93d
00000010: aa69 643d a1fb e0bc ff72 53bc 6062 92bd
00000020: dc5a 6c3c 61ef 843d ad59 d6bd 4085 7c3b
00000030: 16e8 463d 170c 0c3d e6e0 3fbd a78c ddbd
00000040: 6eae 593d 7cde 48bd a61b 983c 8a81 ac3d
00000050: 3791 263d 283c dcbd db47 99bc d34f 88bc
00000060: dee0 dc3d f87c 3dbd 7a74 423d 3ac7 e83d
00000070: 1914 acbd 7e25 4f3d ea0a a7bd ab14 863d
00000080: 935a 3fbd ea2a db3c 5ecf 943d 11c7 e53c
00000090: 7def 84bd c54b 7d3d d5a7 883d 8f1c 26bd
000000a0: 439b abbc 0b1c 593d f41f 8bbd c814 98bc
000000b0: a80f d33d 96f4 49bd da03 06be 2d7d cebc
000000c0: 8b15 f93b 2776 ae3d 3f7a b4bd 84fb 4c3d
000000d0: 6005 d13b 2523 503d a1e7 c6bd d17d 8cbd
000000e0: 71a6 b9bd 1ede fe3d 2954 c23d a400 273d
000000f0: fbcb 6ebd d1b6 e2bd 6d4a 8e3d afa1 aabd
00000100: e3ed a2bd 8d6b 913d f81d cb3c b6cb 16bd
00000110: d5f0 9abd 5bcb ff3c 6842 dabd 4d17 f7bd
00000120: 9e7b 3dbd ee08 743c 4bee 8cbd 154d a3bb
00000130: 4f3c 6f3d 82dc d43c 77e3 633d c444 cd3d
00000140: eaed e5bc 6678 e93d fc1a 88bd 1722 d93d
00000150: 7a8b b03d 5adb 79bd 18d3 01be 1549 9dbc
00000160: 3797 073d 33b5 99bd 174b 2cbd 4a3a 57bd
00000170: 1f70 20bd f3ae 053b d9c5 8b3d c381 a93d
00000180: b48d c9bd 8ff4 95bd 716d ac3d d66b 43bd
00000190: df97 753d c281 b3bd 3d6b 3fbd 07bb f63d
000001a0: 99e8 14bd 1c14 b93d 838a 5c3d 07ff 713d
000001b0: 5b01 ebbd e1af 6f3d 71b7 72bd 14c5 893d
000001c0: 55ff 26bd dd41 b03d 981d 373d bac9 853c
000001d0: 39fe 633d 41bc bbbd 93ae 2b3d eeea 963d
000001e0: 5855 003b 5c32 1a3d 1ced c33d b8fa b23d
000001f0: 2232 b23d 43b8 8cbc 9b17 b0bd 0820 933d
00000200: 0d1a 343d fcae 313d 5c17 38bc bca8 c0bc
00000210: 69fd c7bb 208d 0d3c 6f21 c73d 7923 84bd
00000220: 6aad 42bd 7262 ab3d 8991 ce3d 4ddb 92bd
00000230: 8b16 1bbc 8ea8 9639 77b5 a03d b3b4 6cbd
00000240: 56dd db3d 3702 d0bd d7e1 4e3d 3b65 58bc
00000250: e8cb 743d 1525 c1bb 7902 fbbc 561f 06be
00000260: 3849 e73c 189c 90bd e6a5 aabd 6f6a d43d
00000270: 92d1 af3d a9a0 373d 264e 443d 0ea2 11bd
00000280: 3adc a53d f784 103d 2533 af3d 2b72 4e3d
00000290: 7218 b2bd 1acd 163d f188 efbb d6bd e43d
000002a0: e3d9 a6bc 7273 dabd f3bf e33c 6e85 58bd
000002b0: 42a6 c53c 9d52 02be 1493 97bc acc4 803d
000002c0: 0950 b93d 77ec a43d e6b0 13bd 3101 02bd
000002d0: 592f 9bbd e386 923d 2944 683d 2f4f cabd
000002e0: 0f52 75bd c250 973d 0579 c4bd 0edf 2e3d
000002f0: 0223 e0bd 5ac7 153d 98a2 32bd 2ccb 4a3d
00000300: 3b96 9f3c 9fa5 b93d 006a 72bd b6e9 89bd
00000310: 8a29 05be 8916 cabd 3c54 f3bd acd4 ebbc
00000320: b70c 88bd 9e07 9ebd 7827 143d 1519 b13d
00000330: 233d c43c 0501 ce3c 010d d4bd 3baf f4bc
00000340: 23ea 6b3b 5833 ffbb c16c f53d 171e 79bd
00000350: d5c2 a5bd 5d23 87bd 6a14 c43d 5acc c83d
00000360: 5e54 753d d82b aabd 20bc 973d 754d 4dbc
00000370: 5a2d 273d 32b4 c5bd f5a0 9c3d 1b17 943d
00000380: 0d4e 973d de9d 533d c93c 99bd 7dc5 d8bd
00000390: 7d0d 4d3d aef7 b13d c4aa 91bd 73c6 c9bd
000003a0: e17d 653d d5f8 ac3d bc7a b73d 1fd8 3b3d
000003b0: 7310 49bd e688 b1bd d173 db3d 9797 37bd
000003c0: e6c2 09bd 6986 dfbd a747 af3d 6ddf 9ebd
000003d0: 4a44 f23d 9170 e03d 9cee ee3c afa3 af3d
000003e0: 9f3e 883d 6755 28bd 8d16 ad3d ac1d 983d
000003f0: 669d a6bd 1e0b bc3d 0f24 b3bd 26ec 9abd
0.012508724 0.10934134 -0.007041276 0.090574116 0.05576483 -0.027463736 -0.012905835 -0.0714767
0.014425959 0.064909704 -0.10466323 0.0038531572 0.04856118 0.034191217 -0.04684534 -0.10817843
0.053144865 -0.049040303 0.018567871 0.08423145 0.04066583 -0.107536614 -0.018711021 -0.016639626
0.107850775 -0.046261758 0.047474362 0.113661245 -0.08402271 0.050572865 -0.081563786 0.06546911
-0.046717238 0.026753861 0.07266115 0.028049024 -0.06490991 0.061839838 0.066726364 -0.04055458
-0.020948058 0.05300526 -0.06793204 -0.018564597 0.103057206 -0.04930552 -0.13087407 -0.025206173
0.007601445 0.085186295 -0.08812379 0.05004455 0.0063788146 0.050814766 -0.097121485 -0.06859935
-0.09064949 0.12444709 0.094887085 0.040772095 -0.0583 -0.11070026 0.06947789 -0.0833162
-0.079555295 0.07100592 0.024794564 -0.036815368 -0.07565466 0.031224897 -0.10657197 -0.12064991
-0.04626047 0.014894707 -0.06881388 -0.004983554 0.058407124 0.025984053 0.05563685 0.100228816
-0.028067548 0.11399917 -0.06645772 0.10602205 0.08620353 -0.061000206 -0.12678182 -0.019199887
0.033103194 -0.07505264 -0.0420638 -0.052545823 -0.039169427 0.0020398467 0.06824846 0.08276703
-0.09841481 -0.073220365 0.08419312 -0.047710262 0.05995929 -0.08764984 -0.04673313 0.120473914
-0.036354635 0.09037039 0.053843033 0.059081104 -0.11474868 0.05851734 -0.059256975 0.06727043
-0.040770847 0.086063124 0.044705957 0.016331542 0.055662367 -0.09166766 0.041914534 0.07369028
0.001958212 0.037645683 0.095667094 0.08739227 0.08700968 -0.017177707 -0.085982524 0.07183844
0.043970156 0.04337977 -0.011236038 -0.023517959 -0.006103207 0.008639604 0.09723174 -0.06452078
-0.04752866 0.08368386 0.100863524 -0.071707346 -0.009465824 0.00028735813 0.07847112 -0.057789516
0.10735576 -0.101566724 0.050508346 -0.013207729 0.059764773 -0.005894313 -0.030640827 -0.13097891
0.028233156 -0.070610225 -0.08332424 0.10371863 0.08584894 0.04483095 0.04792609 -0.035554938
0.080986455 0.035283055 0.08554677 0.050401848 -0.08696069 0.036816694 -0.007310026 0.11169021
-0.020367568 -0.10666551 0.02780149 -0.052861623 0.02412713 -0.12726827 -0.01850275 0.06287512
0.090484686 0.080529146 -0.036057375 -0.031739417 -0.0757739 0.07154634 0.056705628 -0.09878384
-0.05989271 0.0738845 -0.09593395 0.04269319 -0.10944177 0.03656707 -0.043612093 0.049510166
0.019480815 0.09064793 -0.05918312 -0.0673403 -0.13004127 -0.098675795 -0.11881301 -0.028787933
-0.0664305 -0.077162966 0.036170453 0.08647362 0.023954934 0.02514697 -0.10354043 -0.029868713
0.003599771 -0.007788103 0.11983634 -0.06081971 -0.08093802 -0.06598542 0.09574206 0.09804602
0.059894912 -0.08309144 0.07408929 -0.012530674 0.040814735 -0.0965351 0.076478876 0.072309695
0.07387934 0.051664226 -0.07482297 -0.10584543 0.05006169 0.08689819 -0.07112649 -0.09852304
0.05602825 0.084458984 0.089589566 0.045860406 -0.049087953 -0.086686894 0.107154496 -0.0448223
-0.033633135 -0.109143086 0.085585885 -0.07757459 0.11829431 0.1095897 0.029166512 0.08576142
0.06652569 -0.04109707 0.08451567 0.074275345 -0.0813549 0.09181808 -0.08747112 -0.07564573

model/time_distributed_10/batch_normalization_2/FusedBatchNormV3 f4 [8]
00000000: d01f d4bb 34cb 72bb fc5f 4b3b 955e bbbb
00000010: 726f 153c 42fc 49bd a031 e7bc b2de d5ba
-0.006473519 -0.0037047388 0.0031032553 -0.005718062 0.009120809 -0.049312837 -0.028221905 -0.0016316979

model/time_distributed_10/batch_normalization_2/FusedBatchNormV31 f4 [8]
00000000: ddd9 3d3e a410 5dbd 16dc 7cbd 448a 63bd
00000010: 75ec 163e 246f 9f3e c2ca d13e 79aa 833d
0.1854014 -0.053970948 -0.061733328 -0.055551782 0.14738639 0.3113948 0.40975004 0.064289995

model/time_distributed_13/batch_normalization_3/FusedBatchNormV3 f4 [16]
00000000: 4264 b2bd b9c9 19be fe28 bbba 601f fcbd
00000010: be1c a3bd 36f8 8f39 0dad b5bd 4660 39be
00000020: fc3e 00bb 9025 5039 acac 56bd e174 d9bc
00000030: c1c7 04be 0a32 6ab9 bb82 8abd 2d08 9e3c
-0.08710529 -0.15018357 -0.0014279184 -0.12310672 -0.079644665 0.00027460017 -0.088708974 -0.18103132
-0.0019568792 0.00019850419 -0.052410766 -0.02654499 -0.12966825 -0.0002233462 -0.06763216 0.019291008

model/time_distributed_13/batch_normalization_3/FusedBatchNormV31 f4 [16]
00000000: f849 1540 77d3 6a40 9ba4 213d b325 cf3f
00000010: 3e2c e13f 9d5c 5bbd 2556 0640 6f52 0940
00000020: d86f 8940 4acf 79bd 1eae 1540 d3e6 fd3f
00000030: 5cb5 2140 6a6e efbc d040 3840 6c63 5340
2.3326397 3.6691568 0.03946362 1.618338 1.7591627 -0.05355512 2.0990078 2.1456563
4.294903 -0.060988702 2.3387523 1.9836067 2.5266943 -0.029227454 2.8789558 3.3029432

model/time_distributed_2/batch_normalization/FusedBatchNormV3 f4 [8]
00000000: 19ca 913c f68a 9e3a 1fef 8b3b e0e2 2abd
00000010: f6d6 adbd 2ec9 933b eef2 efbd 8e50 e43a
0.017796563 0.0012095857 0.004270449 -0.04172027 -0.08488266 0.0045100665 -0.11716257 0.0017419027

model/time_distributed_2/batch_normalization/FusedBatchNormV31 f4 [8]
00000000: 091f 9dbc 9666 b5bc d2db 26bc 96a4 6c3d
00000010: 68a8 0a3e 5355 bcbc e992 143e 7367 753c
-0.019179838 -0.022143643 -0.010184245 0.05777415 0.13540804 -0.022989905 0.14509167 0.0149782775

model/time_distributed_5/batch_normalization_1/FusedBatchNormV3 f4 [16]
00000000: d89e 72bc 04be dcbd e0d4 86be 2e94 afbe
00000010: 0627 52bf 0749 b1be 06bb 47be c217 b6be
00000020: e744 96be 5f4b 09be 1555 12bf f0de f8be
00000030: d0d5 98bb 802e 86bb c62c 49bf 9825 75be
-0.014808379 -0.1077843 -0.26334286 -0.3429274 -0.82090795 -0.34626028 -0.19504938 -0.35565
-0.29349443 -0.13407658 -0.57161075 -0.48607588 -0.0046641603 -0.0040948987 -0.78583944 -0.23940122

model/time_distributed_5/batch_normalization_1/FusedBatchNormV31 f4 [16]
00000000: fb9a 9140 b3bb 4f40 ee51 6f40 d3da 2940
00000010: b73f 3840 bda0 5940 3f5a 5b40 303f 6940
00000020: 9fd8 6840 49f0 4040 6955 5e40 ae49 7b40
00000030: 95cf 9440 aefa b440 1182 5040 ed78 8b40
4.5501685 3.2458313 3.7393756 2.653981 2.8788888 3.4004357 3.4273832 3.6444817
3.6382215 3.0146658 3.473963 3.926372 4.6503396 5.6556005 3.2579386 4.3585114

model/lstm/while/lstm_cell_4/MatMul_4 f4 [32, 32]
00000000: 3fe8 1c3d a881 99bd 6589 d8be f366 17bf
00000010: d919 2b3e 28d9 353f 5191 283e fb44 4c3d
00000020: 738b e6be bcac 08be 1d7e 2ebf 1430 e63e
00000030: 549d cebe e0d3 87bd afd4 7a3e 988a 88be
00000040: 81c0 b5bd 9b00 72bc d842 733e b29d 3fbe
00000050: 41c0 bcbe 9b45 02bf 7fb0 dbbe 3cc2 3e3e
00000060: 3641 303e 7bce f1bc 9803 3abe bfa2 39bf
00000070: d1c0 24bd 588b 243e e845 833e 31a2 d93e
00000080: 21b3 bcbe 95fd 78be 0583 b13d e0ad 83bd
00000090: 8977 3d3d 589c 2f3e b021 a1be 7c8a d9be
000000a0: adb2 c8bd 80c3 74be 95b7 1bbf 0a40 683d
000000b0: d203 edbe fef1 7e3e 6b09 ea3e 0c7e 90be
000000c0: 02d3 9b3e dae6 a5bd 6c38 063f 7faa c2bd
000000d0: 5424 a43d e244 883e 7426 d9bd 26f0 763e
000000e0: 1aec d83d 0f00 e8bc 0bd1 39be b542 223e
000000f0: 9894 9e3e 9df6 32be 2740 a43e cbb6 4c3e
00000100: 6d9b 1abf 1ff1 503f aae2 bcbd e3cc 70bf
00000110: 7a93 f3bd 03bc 243e 11e2 833e e27f bbbd
00000120: 8ad7 da3e 0062 b43e 600e 4dbd 3cfe ea3e
00000130: 4fef 5f3e 0188 393e 35cd 3ebf 951b 75bf
00000140: 7e91 813d b9c6 543e 87b1 1d3e 1e3d a93d
00000150: 5646 59bc a576 d23e 973a aa3e 2d43 7bbe
00000160: abc2 923e b2f2 a33c 2b30 b53b c634 11be
00000170: 3892 45be 16f4 e2be 719d e8be 82ec aa3d
00000180: b69c 5dbb 0853 483d 00e4 48bd 2e51 efbb
00000190: 6949 3cbd 8adc 0c3d 16c4 adbd 7f13 4a3c
000001a0: fb80 6ebd d252 70bb cb20 fdba c9c9 89bd
000001b0: 5992 8c3c 54c9 a5bc 2a2c 99bc dc0a 113d
000001c0: 0707 d03c 24e1 02bd e508 cfbd c1d9 e4bd
000001d0: c4db 083d ec4e f43c b66f 843c 1ea8 603d
000001e0: 9f13 be3c 2773 583d e2e9 4c3d 7d56 d63b
000001f0: 2c85 103d ab25 9a3c 1b29 92bd 0026 88b9
00000200: ceb5 7bbe f85f 033f c99c 65be 084f 0dbf
00000210: 6daf 5d3e 135f 05bf cb67 733d 5359 d1bf
00000220: bf29 2dbf 4af9 e8bd 7e02 443e 091c 3b3e
00000230: d789 7fbe a91c 6c3f 57e9 483e 9969 903e
00000240: ee72 81be 3e26 26bf 60df f73e 30da 06be
00000250: 74da 8a3c 28d5 8cbe d3c1 0a3e 8775 583e
00000260: d8f1 c23e b69c dfbe 54d3 e43c 6636 21bf
00000270: f027 6dbe 9089 0e3f cb63 d5be 20a1 e43d
00000280: 7bb2 30be 99ed 20be ddea 4f3e c1b0 42bf
00000290: 0159 913f 4c4d 823c 0fa8 8abe 15aa c6be
000002a0: dc2e f3be f2d5 0dbf ca78 833f 48d9 d53f
000002b0: 1fe8 833e 2330 a33e b152 9dbf 1b33 45be
000002c0: 5ce1 3b3f fa80 60bf a0cb 1bbf aeee 123e
000002d0: 228e 0a3d fd1e fabe 8318 8e3e b461 d93e
000002e0: 273f 8fbd 4913 1bbf 3350 a3bf c79d 1b3f
000002f0: 39b1 d43e 1d9b 183f ad8d ca3e 000e c63d
00000300: b669 00be eed6 093e 8c1b 4ebe 4f63 24bf
00000310: 10cd d03e 481e 823f 1425 20be 5e4f 1b3f
00000320: a897 c0be f522 2ebe 0bc5 cdbe a42f d33e
00000330: 1f4c 6f3c e49e bf3e 1db8 65bd a51b d83d
00000340: a257 bc3e 25c9 ffbd db6d 82bd 90e7 4ebe
00000350: 806d 4b3e b4e0 943e 2b06 6dbe 6142 e7bd
00000360: 8725 273f 1c84 89be af49 45bf d03a d8be
00000370: 3979 753f e61e 03bf 38a0 61be a301 7e3e
00000380: 457e 67be 3c2c cb3e ec3c e13e 3dd7 d8be
00000390: 6792 303f 9c5e 5cbf 9d59 333f 28f4 38bf
000003a0: fdfe 943e 9e85 ea3e 193e 34bf 6d6a c53e
000003b0: 80db ad3d bb83 86bd 3cd7 1b3f 2043 06bf
000003c0: 58c5 883f 1c1f 01bf b50b 163d 9490 6cbf
000003d0: 1997 eabe 3300 3ebf 6d8a 243f 56c7 a83d
000003e0: a2d4 1f3e c297 c8be 7986 3c3e ccf6 0bbf
000003f0: 4036 87be 047f 48bf 69fc 84be 9aa1 3a3f
0.038307425 -0.07495433 -0.42292324 -0.59141463 0.16709079 0.7103448 0.16461684 0.049870472
-0.45028266 -0.13347143 -0.68161184 0.44958556 -0.40354407 -0.06632209 0.24495195 -0.2666824
-0.08874608 -0.014770652 0.23755968 -0.187125 -0.36865428 -0.5088746 -0.42908093 0.18628782
0.17212376 -0.029517403 -0.18165433 -0.72513956 -0.040222947 0.1606878 0.25639272 0.42506555
-0.36855415 -0.24315484 0.08667568 -0.064296484 0.046256576 0.17149484 -0.31471014 -0.42488468
-0.09799705 -0.23902702 -0.60827 0.056701697 -0.46291977 0.24897 0.4571031 -0.28221166
0.30434424 -0.08100672 0.5242984 -0.09505176 0.080147415 0.26615053 -0.106030375 0.24115047
0.10591908 -0.02832034 -0.1814615 0.15845759 0.30972743 -0.17476888 0.32080194 0.19991605
-0.6039341 0.8161792 -0.0922292 -0.9406263 -0.11893363 0.16087346 0.25758412 -0.09155251
0.42742568 0.35231018 -0.050062537 0.4589709 0.21868633 0.18118288 -0.7453187 -0.9574521
0.063265786 0.20778932 0.15399753 0.0826361 -0.013261398 0.41106144 0.33247826 -0.24537344
0.28664145 0.020013187 0.0055294237 -0.14180288 -0.1929406 -0.44326848 -0.45432618 0.083458915
-0.003381533 0.04890731 -0.049045563 -0.0073033785 -0.045968447 0.03439001 -0.08484666 0.01233375
-0.058228474 -0.0036670459 -0.0019312141 -0.067279406 0.017159628 -0.020237602 -0.018697817 0.035410747
0.025393976 -0.031952992 -0.10109118 -0.11174346 0.03341271 0.02982279 0.01616655 0.05484783
0.023202715 0.052844193 0.050027736 0.006541072 0.035283253 0.01881679 -0.071367465 -0.00025968254
-0.24581072 0.5131831 -0.2242309 -0.5519872 0.21648951 -0.52098197 0.059425157 -1.6355385
-0.67641824 -0.11375673 0.19141576 0.18272413 -0.24954925 0.9223123 0.19620262 0.28205565
-0.25282997 -0.649021 0.4841261 -0.1316917 0.01694987 -0.27506375 0.135505 0.21138583
0.38075137 -0.43674248 0.0279328 -0.6297363 -0.23159766 0.55678654 -0.41677698 0.11163545
-0.17255585 -0.15715636 0.20304437 -0.76050955 1.1355287 0.015905999 -0.27081344 -0.38801637
-0.47496688 -0.5540458 1.0271237 1.6706934 0.25763032 0.31872663 -1.229086 -0.19257776
0.73390746 -0.876968 -0.6085758 0.14348862 0.033826955 -0.48851767 0.27753076 0.42457354
-0.06994467 -0.605763 -1.275885 0.60787624 0.4154146 0.59611684 0.39561215 0.09670639
-0.12540326 0.13460895 -0.20127696 -0.6421403 0.4078145 1.0165491 -0.15639144 0.6066798
-0.37615705 -0.17005523 -0.40189394 0.41247284 0.014605551 0.3742591 -0.056083787 0.10552148
0.3678561 -0.12489537 -0.063686095 -0.20205522 0.1986599 0.29077685 -0.23146884 -0.11291958
0.6529164 -0.26858604 -0.7706556 -0.4223237 0.95888096 -0.5121902 -0.22033775 0.24805312
-0.22606762 0.39682186 0.43991792 -0.42351714 0.6897339 -0.8608186 0.70058614 -0.7224755
0.2910079 0.45805067 -0.70407254 0.3855776 0.08489132 -0.06568094 0.60875297 -0.52446175
1.0685225 -0.50438094 0.03663226 -0.9240811 -0.45818403 -0.74219054 0.6427372 0.08241145
0.15608457 -0.39178282 0.18410672 -0.5467346 -0.26408577 -0.7831881 -0.25973824 0.72902834
