HPC_Final_Study2_Complete_Test_Class_Balance_run_all/participants_session_transfer_train_fresh_model/participant_18/session_5/session_5_lite_models/indexpen_model_quant.tflite (tflite, 303344 bytes, 29 tensors)

model/time_distributed_6/conv2d_1/BiasAdd;model/time_distributed_6/conv2d_1/Conv2D;model/time_distributed_6/conv2d_1/BiasAdd/ReadVariableOp/resource f2 [16]
00000000: 3b27 6d2b c22c dc28 ab2c df2a 492d f52c
00000010: 5029 242c dc2e a72c 342d 272c 3b2c 862b
0.02824 0.058 0.07434 0.03796 0.07294 0.05368 0.0826 0.07745
0.0415 0.0647 0.1072 0.0727 0.0813 0.0649 0.0661 0.05878

model/time_distributed/conv2d/BiasAdd;model/time_distributed/conv2d/Conv2D;model/time_distributed/conv2d/BiasAdd/ReadVariableOp/resource f2 [8]
00000000: a025 61a9 cea6 25ab 26b0 8eaf f0aa 6c15
0.02197 -0.04202 -0.02658 -0.05582 -0.1296 -0.11804 -0.0542 0.001324

model/time_distributed_6/conv2d_1/Conv2D f2 [16, 3, 3, 1]
00000000: fa28 d428 c8ac c220 7826 71a8 56ab e528
00000010: 861e 22a4 db2d d8ac a7ad e431 98ae 588e
00000020: b5af cf2f b62c 4fb2 e52f a62a 1829 80ae
00000030: dfa8 1328 0f1e 99a3 8429 3ba9 b11c bca0
00000040: 78a3 2d26 b3a6 0e24 921e f2b0 c730 fea6
00000050: b82b b4a8 a0a7 c92a a3a1 2130 f6ac 30aa
00000060: b7a8 12ab 922d 3a26 2729 9daa ba29 0eb0
00000070: b82c 9814 b02c 6fad 2123 5d29 9dab 9aae
00000080: ca2d 5021 8527 80ab 1f26 c0ac 192a 8227
00000090: cda0 c11c 1c9d de2b 92ae ca2b 3c2e beb1
000000a0: 762d 252a f1ad 0e2a 3097 1b27 e1a8 2128
000000b0: 741c cea3 f1ae 9931 31ad 2921 5a2c 69ad
000000c0: fba8 8a30 67ae a7ac 2533 ccb0 abb0 6a2f
000000d0: be26 e22f 2fb1 b029 05ae fb31 5aae bead
000000e0: d830 58ac 92ad a132 7eb0 65a7 442e 56ab
000000f0: b020 58b0 082f 89a1 a228 a9a4 0aa3 9aa5
00000100: 0e1f bea1 10a7 b329 722c 3db0 742b c821
00000110: 54a6 0b21 96a1 8126 9892 1e2d 94ac f5a2
0.03888 0.03772 -0.0747 0.00929 0.02527 -0.0347 -0.0573 0.03824
0.00637 -0.01614 0.0915 -0.0757 -0.0883 0.1841 -0.103 -0.0003872
-0.1204 0.122 0.0736 -0.1971 0.12335 0.05194 0.0398 -0.10156
-0.03806 0.03183 0.005917 -0.01484 0.0431 -0.04086 0.00458 -0.00925
-0.01459 0.02412 -0.02617 0.01584 0.006416 -0.1545 0.1493 -0.02731
0.0603 -0.03674 -0.02979 0.053 -0.01101 0.129 -0.0775 -0.04834
-0.03683 -0.05524 0.08704 0.02432 0.04025 -0.05167 0.04474 -0.1267
0.0737 0.0011215 0.07324 -0.0849 0.01392 0.0419 -0.05948 -0.10315
0.09045 0.010376 0.02937 -0.0586 0.02391 -0.0742 0.04764 0.02933
-0.00938 0.004642 -0.00499 0.06146 -0.10266 0.06085 0.0974 -0.1794
0.0853 0.048 -0.09283 0.0473 -0.001755 0.02776 -0.03812 0.03226
0.00435 -0.01524 -0.10846 0.1749 -0.0811 0.01008 0.068 -0.08453
-0.0389 0.1418 -0.10004 -0.0727 0.2233 -0.1499 -0.1459 0.11584
0.02634 0.12317 -0.162 0.04443 -0.09406 0.1869 -0.09924 -0.0897
0.1514 -0.0679 -0.08704 0.2072 -0.1404 -0.02888 0.0979 -0.0573
0.009155 -0.1357 0.10986 -0.01081 0.0362 -0.0182 -0.01375 -0.02188
0.00689 -0.011215 -0.02759 0.04453 0.06946 -0.1324 0.05823 0.01129
-0.02472 0.00985 -0.01091 0.0254 -0.000805 0.07996 -0.07153 -0.01359

model/time_distributed/conv2d/Conv2D f2 [8, 3, 3, 1]
00000000: f998 0aa2 fc20 4095 721f cc9e 1c1d 07a4
00000010: 8594 4318 88a4 071c 2c19 0721 f5a3 86a4
00000020: 3e91 3616 369e 2d25 01a1 b61a a7a3 b494
00000030: 3f94 c023 85a3 b39a 6e96 d416 0c0c d0a1
00000040: 6c99 71a2 07a3 1119 2921 8219 ae1f 7b9c
00000050: 2399 8022 cc88 ff18 b01a 4795 699f bd14
00000060: ee24 5a1e f897 611f a398 f39a 2123 8095
00000070: 071e 7117 ada2 701f 9020 41a4 b0a0 301e
00000080: ab9f d99a 4fa2 2720 9126 0794 f09e 9e9c
-0.002428 -0.011795 0.009735 -0.001282 0.00727 -0.006638 0.00499 -0.01573
-0.001103 0.00208 -0.0177 0.003933 0.002525 0.00982 -0.01554 -0.01767
-0.00064 0.001516 -0.006065 0.02022 -0.00977 0.003277 -0.014946 -0.001148
-0.001037 0.01514 -0.01469 -0.003271 -0.00157 0.001667 0.000247 -0.01135
-0.002647 -0.01258 -0.013725 0.002474 0.01008 0.00269 0.0075 -0.004375
-0.002508 0.012695 -0.0001464 0.00244 0.003265 -0.001288 -0.007236 0.001157
0.01926 0.006203 -0.0019455 0.007206 -0.002264 -0.003393 0.01392 -0.001343
0.005886 0.001817 -0.01304 0.007263 0.00891 -0.01662 -0.009155 0.006042
-0.00749 -0.003344 -0.01232 0.00811 0.02565 -0.000983 -0.006775 -0.00451

model/lstm/TensorArrayV2_1 f2 [120, 1, 32]
00000000: 0000 0000 0000 0000 0000 0000 0000 0000
00000010: 0000 0000 0000 0000 0000 0000 0000 0000
00000020: 0000 0000 0000 0000 0000 0000 0000 0000
00000030: 0000 0000 0000 0000 0000 0000 0000 0000
00000040: 0000 0000 0000 0000 0000 0000 0000 0000
00000050: 0000 0000 0000 0000 0000 0000 0000 0000
00000060: 0000 0000 0000 0000 0000 0000 0000 0000
00000070: 0000 0000 0000 0000 0000 0000 0000 0000
00000080: 0000 0000 0000 0000 0000 0000 0000 0000
00000090: 0000 0000 0000 0000 0000 0000 0000 0000
000000a0: 0000 0000 0000 0000 0000 0000 0000 0000
000000b0: 0000 0000 0000 0000 0000 0000 0000 0000
000000c0: 0000 0000 0000 0000 0000 0000 0000 0000
000000d0: 0000 0000 0000 0000 0000 0000 0000 0000
000000e0: 0000 0000 0000 0000 0000 0000 0000 0000
000000f0: 0000 0000 0000 0000 0000 0000 0000 0000
00000100: 0000 0000 0000 0000 0000 0000 0000 0000
00000110: 0000 0000 0000 0000 0000 0000 0000 0000
00000120: 0000 0000 0000 0000 0000 0000 0000 0000
00000130: 0000 0000 0000 0000 0000 0000 0000 0000
00000140: 0000 0000 0000 0000 0000 0000 0000 0000
00000150: 0000 0000 0000 0000 0000 0000 0000 0000
00000160: 0000 0000 0000 0000 0000 0000 0000 0000
00000170: 0000 0000 0000 0000 0000 0000 0000 0000
00000180: 0000 0000 0000 0000 0000 0000 0000 0000
00000190: 0000 0000 0000 0000 0000 0000 0000 0000
000001a0: 0000 0000 0000 0000 0000 0000 0000 0000
000001b0: 0000 0000 0000 0000 0000 0000 0000 0000
000001c0: 0000 0000 0000 0000 0000 0000 0000 0000
000001d0: 0000 0000 0000 0000 0000 0000 0000 0000
000001e0: 0000 0000 0000 0000 0000 0000 0000 0000
000001f0: 0000 0000 0000 0000 0000 0000 0000 0000
0.0 0.0 0.0 0.0 0.0 0.0 0.0 0.0
0.0 0.0 0.0 0.0 0.0 0.0 0.0 0.0
0.0 0.0 0.0 0.0 0.0 0.0 0.0 0.0
0.0 0.0 0.0 0.0 0.0 0.0 0.0 0.0
0.0 0.0 0.0 0.0 0.0 0.0 0.0 0.0
0.0 0.0 0.0 0.0 0.0 0.0 0.0 0.0
0.0 0.0 0.0 0.0 0.0 0.0 0.0 0.0
0.0 0.0 0.0 0.0 0.0 0.0 0.0 0.0
0.0 0.0 0.0 0.0 0.0 0.0 0.0 0.0
0.0 0.0 0.0 0.0 0.0 0.0 0.0 0.0
0.0 0.0 0.0 0.0 0.0 0.0 0.0 0.0
0.0 0.0 0.0 0.0 0.0 0.0 0.0 0.0
0.0 0.0 0.0 0.0 0.0 0.0 0.0 0.0
0.0 0.0 0.0 0.0 0.0 0.0 0.0 0.0
0.0 0.0 0.0 0.0 0.0 0.0 0.0 0.0
0.0 0.0 0.0 0.0 0.0 0.0 0.0 0.0
0.0 0.0 0.0 0.0 0.0 0.0 0.0 0.0
0.0 0.0 0.0 0.0 0.0 0.0 0.0 0.0
0.0 0.0 0.0 0.0 0.0 0.0 0.0 0.0
0.0 0.0 0.0 0.0 0.0 0.0 0.0 0.0
0.0 0.0 0.0 0.0 0.0 0.0 0.0 0.0
0.0 0.0 0.0 0.0 0.0 0.0 0.0 0.0
0.0 0.0 0.0 0.0 0.0 0.0 0.0 0.0
0.0 0.0 0.0 0.0 0.0 0.0 0.0 0.0
0.0 0.0 0.0 0.0 0.0 0.0 0.0 0.0
0.0 0.0 0.0 0.0 0.0 0.0 0.0 0.0
0.0 0.0 0.0 0.0 0.0 0.0 0.0 0.0
0.0 0.0 0.0 0.0 0.0 0.0 0.0 0.0
0.0 0.0 0.0 0.0 0.0 0.0 0.0 0.0
0.0 0.0 0.0 0.0 0.0 0.0 0.0 0.0
0.0 0.0 0.0 0.0 0.0 0.0 0.0 0.0
0.0 0.0 0.0 0.0 0.0 0.0 0.0 0.0

model/dense_2/BiasAdd/ReadVariableOp/resource f2 [256]
00000000: 092f 2727 dc29 4f2c 2129 fc2b 3f30 dc28
00000010: 152d c12e ed28 7b30 542e e128 3e29 452f
00000020: c12c 0a2b cb28 552c e12c 732d 5c2e 922e
00000030: 0a2b ad22 ed2a 3d2a 8d2c bb2e 242f b12f
00000040: d328 672a 552c cd25 4729 8f28 b82a b528
00000050: 6b26 812c d72d 2a2b 712c a720 fd31 df2d
00000060: 211f c429 462d d82d cc30 2730 672e f928
00000070: f02c ef2c 8530 b22a a228 4b2e 0e2a b92d
00000080: 4c2e 7618 812d 6523 b728 d2a8 e12c af29
00000090: b81d 912e ce2b 762d b22c 4e26 dd2d 2a1c
000000a0: 6b28 c820 1029 592b 3029 fc26 7a2c fd2b
000000b0: 072d b12b 8c2d 4a2b 4229 212c 2c9e 612a
000000c0: 032c 952e d52d 4d2b e82c bc25 f52d 9523
000000d0: 3930 662a 369d b629 b727 0f24 fd28 6e2c
000000e0: 1422 132c ed26 e829 202e 7318 5e28 5d2c
000000f0: 662a e72e 7728 af2c 702b 472d 482b 202d
00000100: c429 b82a f730 6a2a 8e2c 7c25 ec2b ad2c
00000110: 212c d82d 9a2a 5029 272d f125 6a2e 5b2d
00000120: 552d ad2c 752c 1d29 ec2e 312c 042b 322f
00000130: 4328 9e2a 2b2b 9a2c 3e2a 242f 132c 7124
00000140: 8c2a ca26 4c2c 9929 1628 4a27 ca29 352d
00000150: bb2c fe9d 9030 232c 152d d02c 2c30 af2d
00000160: ae2b 5a27 b52d 452e 8d2d 442c c12a e229
00000170: 0829 cc28 7628 0a2d 1c28 fa2e 322a 5526
00000180: 1ea0 072b 3b28 5c2f bd29 c02e 832e 1d2c
00000190: ef28 0b31 222f 1a2c 242c a62c ff2d ac2e
000001a0: 5f2b 932a 9829 462e ff2b 642c 0d2c 1a2f
000001b0: 592c a129 e72c 2529 322a 531f 102c 5128
000001c0: b62f 4227 df2a 0e2d b926 d52d bd2e 8a2e
000001d0: 232c 1321 6e29 df2a f52d 992d cc1e 9f2c
000001e0: 5f2f 5728 312f 542a 8229 4a2a 2d25 1f2e
000001f0: b22d ed2e 6723 c4a8 fe2e e42d 4c28 622b
0.1099 0.02794 0.04578 0.0673 0.04007 0.06238 0.1327 0.03796
0.0794 0.1055 0.03848 0.14 0.0989 0.03812 0.04095 0.1136
0.0743 0.055 0.03745 0.0677 0.07623 0.08514 0.09937 0.10266
0.055 0.01304 0.0541 0.04874 0.0711 0.10516 0.1116 0.1202
0.0377 0.05002 0.0677 0.02266 0.04123 0.0356 0.0525 0.03677
0.02507 0.0704 0.09125 0.05597 0.0694 0.00909 0.1871 0.09174
0.00696 0.04504 0.0824 0.0913 0.1499 0.1298 0.10004 0.03885
0.07715 0.0771 0.1412 0.0523 0.0362 0.0983 0.0473 0.0894
0.0984 0.002178 0.086 0.01444 0.03683 -0.03766 0.07623 0.0444
0.005585 0.1026 0.06097 0.0853 0.07336 0.02463 0.0916 0.004066
0.03452 0.00934 0.03955 0.0574 0.04053 0.02728 0.06995 0.0624
0.07855 0.0601 0.0867 0.05695 0.04108 0.0645 -0.006027 0.04984
0.0627 0.10284 0.0911 0.05704 0.07666 0.0224 0.0931 0.01481
0.132 0.05 -0.00509 0.04462 0.03014 0.01585 0.03897 0.0692
0.01187 0.06366 0.02705 0.04614 0.0957 0.002172 0.03412 0.0682
0.05 0.10785 0.03488 0.0732 0.0581 0.08246 0.0569 0.0801
0.04504 0.0525 0.1552 0.0501 0.07117 0.02142 0.0619 0.07306
0.0645 0.0913 0.05157 0.0415 0.0805 0.02321 0.1002 0.0837
0.0833 0.07306 0.06964 0.03995 0.10815 0.0655 0.0548 0.1124
0.0333 0.0517 0.056 0.0719 0.04877 0.1116 0.06366 0.01735
0.05115 0.02652 0.06714 0.04373 0.03192 0.02847 0.04523 0.08136
0.0739 -0.00585 0.1426 0.06464 0.0794 0.0752 0.1304 0.0888
0.06 0.02872 0.0892 0.09796 0.08673 0.06665 0.05276 0.04596
0.0393 0.03748 0.03485 0.07874 0.0321 0.109 0.0484 0.02473
-0.00804 0.0549 0.03305 0.115 0.04483 0.10547 0.10175 0.0643
0.03854 0.1576 0.11145 0.0641 0.0647 0.07263 0.0937 0.10425
0.0576 0.05136 0.0437 0.098 0.06247 0.0686 0.0633 0.11096
0.06793 0.04398 0.0766 0.0402 0.0484 0.007153 0.0635 0.03372
0.1205 0.02835 0.05368 0.079 0.02626 0.0911 0.1053 0.1022
0.06464 0.00991 0.04242 0.05368 0.0931 0.08746 0.006638 0.0722
0.1152 0.0339 0.11237 0.04944 0.04303 0.04913 0.02022 0.09564
0.089 0.1082 0.01446 -0.03723 0.10925 0.09204 0.03357 0.05768

model/last_layer/BiasAdd/ReadVariableOp/resource f2 [31]
00000000: fe14 4615 9095 0e98 1120 ea0b c0a2 ae20
00000010: 8f1d 69a4 0221 9213 8624 b1a4 4d21 73a0
00000020: ab9f c38d 19a3 0920 3f99 c117 3926 df17
00000030: a820 8f90 1ba9 70a0 899e 84a4 789d
0.001219 0.001287 -0.001358 -0.00198 0.00794 0.0002415 -0.01318 0.00914
0.00543 -0.01723 0.00978 0.000924 0.01767 -0.01833 0.01035 -0.00869
-0.00749 -0.0003517 -0.01386 0.00788 -0.002562 0.001893 0.0243 0.001922
0.009094 -0.0005565 -0.0399 -0.00867 -0.006382 -0.01764 -0.00534

model/time_distributed_11/dense_1/BiasAdd/ReadVariableOp/resource f2 [64]
00000000: fea8 94a9 bfa9 b5a8 b0a2 9aab aba6 7aa8
00000010: 57a6 e0a7 d4aa 58a4 c5a7 2ea2 aca4 48a4
00000020: 5da6 11a1 2eac f2a8 bda2 4d9f 47a8 36a3
00000030: 0aa3 fe1e 67a7 84a7 d1a6 07aa 0da4 dea1
00000040: 10a6 71a8 b9a8 1ca5 4a97 5ca9 dbaa afa8
00000050: f5a1 01ab 6ea1 3da6 a6a7 b9a7 ecaa 3b1a
00000060: f9a4 30a9 85a6 98a9 9b01 079a 759c 6ba8
00000070: 60ac 2cad c89c 40aa f5a9 52a8 01ad 53a6
-0.039 -0.04358 -0.0449 -0.03677 -0.01306 -0.0594 -0.02605 -0.03497
-0.02477 -0.03076 -0.05334 -0.01697 -0.03035 -0.01207 -0.01825 -0.01672
-0.02486 -0.009895 -0.0653 -0.03864 -0.01316 -0.00713 -0.03342 -0.014084
-0.01375 0.00683 -0.02892 -0.02936 -0.02663 -0.0471 -0.01582 -0.01146
-0.02368 -0.0347 -0.0369 -0.01996 -0.00178 -0.04187 -0.05356 -0.0366
-0.011635 -0.05472 -0.010605 -0.02437 -0.02988 -0.03017 -0.05408 0.003042
-0.01942 -0.04053 -0.02547 -0.0437 2.45e-05 -0.002943 -0.004353 -0.03452
-0.06836 -0.0808 -0.00467 -0.04883 -0.04654 -0.03375 -0.0782 -0.0247

model/time_distributed_5/dense/BiasAdd/ReadVariableOp/resource f2 [32]
00000000: 2d25 1984 9597 28a4 4b1b 251c df19 f1a5
00000010: 2f1d b8a5 c926 cba7 1aa6 e2a0 019c e51d
00000020: b5aa 3aa5 349a 97a9 12a6 c928 53aa 849d
00000030: ee96 f8a8 5529 01a7 591d b4a8 2221 4ca6
0.02022 -6.25e-05 -0.001851 -0.01624 0.003561 0.004047 0.002867 -0.02321
0.005062 -0.02234 0.0265 -0.03044 -0.02383 -0.00954 -0.00391 0.005756
-0.0524 -0.02042 -0.003029 -0.04367 -0.02371 0.03738 -0.0494 -0.005386
-0.001692 -0.03882 0.04166 -0.02736 0.005222 -0.03674 0.010025 -0.0246

model/dense_2/MatMul f2 [256, 32]
00000000: 6c9e 9a31 4134 a333 702f 432b c4a3 e930
00000010: a831 9aab 1cb0 f933 2bad 1da5 2bb0 1630
00000020: e132 b4b2 6cb1 c9ad f4b4 8f27 a8af eeb3
00000030: 942f 4034 efa6 b39f 0621 da2f 1d9f a82a
00000040: 4e25 1b36 87ad 52b0 8fad ce2f 1fae 1c31
00000050: 56aa 82ad d6b2 4930 9d32 f8a9 c233 d6af
00000060: 0cb3 e3a7 ab34 c232 5133 74b1 ecaf 212e
00000070: cfb2 9325 d12e 2ab0 0bab cfb4 c49e e7b5
00000080: 472f a2aa 669e 2dac a1ad 6332 f232 e82b
00000090: 87b1 dcac 6e21 fa32 5830 d098 44b5 9e32
000000a0: 51ac d730 abab f3a6 e2a8 f031 4fa8 afb0
000000b0: 2932 24a6 a9b2 358c d2ac a2ac b921 50b1
000000c0: edab ce34 949a e41a daad b333 f8ab bda8
000000d0: 1daa d6ae c436 2e32 54a5 9ab1 8a31 b9b0
000000e0: e62f e820 6036 4a2c 0cb1 982c 7db2 dba5
000000f0: e8b3 d830 c833 92aa ac34 d026 19aa 452c
00000100: 4231 8eac 4cb3 b830 7d2e 48b4 a221 b232
00000110: 6394 8ea7 faa9 7429 e429 0a30 9da8 34a9
00000120: 4637 73b3 a4b5 42b0 522b bf2b 1731 90a8
00000130: 7e2f efa5 0bb1 da30 4da9 baae 2d2d 812c
00000140: 062c e1b8 e4a5 0532 0cb2 4cb2 d0a9 1c32
00000150: 56b1 0fb1 faab 4333 a6ad b831 5fa2 5221
00000160: bd31 fdb0 1021 b0af 7baa 7d2c 1b2f e132
00000170: abae f7b2 47ae a42c 72b3 4b35 cf30 7632
00000180: 1b32 e922 f535 f622 782b e331 10ad 202b
00000190: 1c2a ec2a dfb4 3328 97ae b3b4 fc25 09a6
000001a0: b1b4 202e bfa7 1baf 07a5 7a30 cfac feb4
000001b0: 882d ffae 8734 8fa8 2e34 8cb3 8326 80b0
000001c0: 1f2f d8aa afaf 0cb2 2317 9b9d 85b0 d02e
000001d0: 292e 37b0 e7af 9931 cfab 8ba5 282c 63a9
000001e0: abb4 b3a9 c524 6e2b 3f34 4a29 ffb2 19ac
000001f0: 6b25 09b0 7225 18ae 07b4 28aa 5424 ccb0
-0.00627 0.175 0.2659 0.2386 0.1162 0.05673 -0.01517 0.1534
0.1768 -0.0594 -0.1284 0.2491 -0.08075 -0.01997 -0.1302 0.1277
0.215 -0.2095 -0.1694 -0.0904 -0.3096 0.02953 -0.1196 -0.2478
0.1184 0.2656 -0.02708 -0.00752 0.00981 0.1227 -0.006947 0.052
0.02072 0.3816 -0.08636 -0.135 -0.08685 0.12195 -0.09564 0.1597
-0.0495 -0.08606 -0.2136 0.1339 0.2067 -0.04663 0.2424 -0.12244
-0.2202 -0.0308 0.2917 0.2112 0.2286 -0.1704 -0.1238 0.09576
-0.2128 0.02177 0.1065 -0.1301 -0.05502 -0.3005 -0.006607 -0.369
0.1137 -0.05182 -0.00625 -0.06525 -0.08795 0.1996 0.217 0.06177
-0.1727 -0.0759 0.010605 0.218 0.1357 -0.00235 -0.329 0.2068
-0.06744 0.1512 -0.0599 -0.02715 -0.03815 0.1855 -0.03366 -0.1464
0.1925 -0.02399 -0.2081 -0.0002568 -0.0753 -0.0724 0.01118 -0.166
-0.06192 0.3003 -0.003212 0.003365 -0.09143 0.2406 -0.06226 -0.03702
-0.04776 -0.1068 0.4229 0.1931 -0.02081 -0.175 0.1731 -0.1476
0.1234 0.00958 0.3984 0.067 -0.1577 0.0718 -0.2028 -0.02287
-0.2471 0.1514 0.2432 -0.05133 0.292 0.02661 -0.04764 0.0667
0.1643 -0.07117 -0.228 0.1475 0.1014 -0.2676 0.011 0.2092
-0.001071 -0.02951 -0.0467 0.0426 0.04602 0.1262 -0.03604 -0.04065
0.4546 -0.2328 -0.3525 -0.133 0.0572 0.06052 0.159 -0.03564
0.11707 -0.02318 -0.1576 0.1516 -0.0414 -0.1051 0.0809 0.0704
0.06287 -0.61 -0.02301 0.1881 -0.189 -0.1968 -0.0454 0.1909
-0.1667 -0.1581 -0.06232 0.2269 -0.08826 0.1787 -0.01244 0.01039
0.1793 -0.1559 0.00989 -0.1201 -0.05063 0.0701 0.111 0.215
-0.1042 -0.2177 -0.0981 0.0725 -0.2327 0.3308 0.1503 0.2019
0.1908 0.0135 0.3723 0.013596 0.05835 0.184 -0.0791 0.05566
0.04773 0.05408 -0.3044 0.0328 -0.10297 -0.2937 0.02338 -0.02357
-0.2932 0.0957 -0.03026 -0.111 -0.01964 0.1399 -0.07513 -0.312
0.0864 -0.1093 0.283 -0.0356 0.2612 -0.2358 0.02544 -0.1406
0.11127 -0.05347 -0.12006 -0.189 0.001742 -0.005474 -0.1412 0.10645
0.09625 -0.1317 -0.1235 0.1749 -0.061 -0.02165 0.06494 -0.04208
-0.2917 -0.04453 0.01863 0.05804 0.2654 0.04132 -0.2186 -0.064
0.02116 -0.1261 0.02127 -0.0952 -0.2517 -0.0481 0.0169 -0.1499

model/last_layer/MatMul f2 [31, 256]
00000000: 48b1 61ae 76ae cdb0 49ae a22c be26 aa26
00000010: 7ca8 28b0 a82d 08a7 f1b0 f2b2 60b1 732c
00000020: f6b0 19b0 0526 07b2 2cae 0a2a d92b 47ac
00000030: bfb0 ebaf a630 89ad 19b5 6ba6 391c c7b3
00000040: aaaf bead 33b1 6c2b 82a4 9529 d0ac 4bb1
00000050: 742e c423 46b0 ad25 a22e a8a8 90b0 ef2c
00000060: d62e 502d 46b1 3cab 0528 99ad 0aac a230
00000070: abb0 21b0 e1a8 64af 7794 f4b0 2eac aeb4
00000080: 8528 58b0 0f2b 6ba8 0225 b8ab 63b0 20b1
00000090: 05b5 4caf 7627 e4b1 24b0 c82b 082c 1a25
000000a0: 98ab 2eab 58af fdb0 0927 c1aa d31b fa2d
000000b0: 5b2d 6bb2 7fb0 cfa3 d3ac 3bb0 5130 0e2a
000000c0: 66aa 2da9 75b0 f5ad a82c e325 bba8 722c
000000d0: 192c b0b1 732c faaf f62a 8fad 6bac 3e27
000000e0: 722c 0f2c 65b2 40ac fbb2 5829 b22b d5ae
000000f0: c0af 25a9 8aa0 0eac b2b1 7228 82ae 9d2a
00000100: dd30 f6af af2d a3ab a330 3b27 f6b0 9eb3
00000110: 41b2 5a21 0e2d af2b 91aa 052a 66b3 ee20
00000120: 662a f6ae 802b 79a2 072f 2baf 1ba0 162f
00000130: 8fab e7b0 4925 1eae b6b0 bfb4 e6b1 9219
00000140: 07a1 a59d 66ac 281b 3628 412d dcb0 dcae
00000150: 93ab 17a9 73af eca9 602c a4ad 0e9e ddae
00000160: 5b2c 23a9 bba2 8fb0 e625 cbad 6b30 e729
00000170: ae2c 61b0 fdb1 59ad b92d 7eac aab4 8f20
00000180: db28 4b30 68b0 6bb0 bba9 8aad 4129 302a
00000190: b72b 722a 80b1 eb26 9728 cc2b b6a4 98b1
000001a0: 37ae b7b1 e221 139c fa2d e1ae df2d 10b4
000001b0: 87a6 6d2c a42d 1eb1 922a 26ac 2bad 712e
000001c0: c92d 042a aa2c 73af 97aa 112c 420c 8618
000001d0: 4529 0e20 afa7 52b2 9a30 fdb0 3dac 1cb1
000001e0: 2d2c ddaf 782b 27aa e41e 8eb2 07a4 07ad
000001f0: a425 992d a82c 6c2a ed29 a830 abb4 c62e
-0.165 -0.0997 -0.10095 -0.15 -0.0982 0.0724 0.02634 0.02603
-0.03503 -0.1299 0.0884 -0.02747 -0.1544 -0.217 -0.168 0.0695
-0.155 -0.128 0.02351 -0.1884 -0.09644 0.04718 0.0613 -0.06683
-0.1483 -0.1237 0.1453 -0.0865 -0.3186 -0.02507 0.004124 -0.243
-0.11975 -0.0897 -0.1625 0.05798 -0.01761 0.0436 -0.0752 -0.1654
0.1008 0.01517 -0.1335 0.02217 0.10364 -0.03638 -0.1426 0.0771
0.1068 0.083 -0.1648 -0.05652 0.0314 -0.08746 -0.0631 0.1448
-0.1459 -0.129 -0.03812 -0.1155 -0.00109 -0.1548 -0.0653 -0.2925
0.0353 -0.1357 0.05515 -0.03452 0.01956 -0.0603 -0.1371 -0.1602
-0.3137 -0.114 0.02914 -0.1841 -0.1294 0.0608 0.063 0.01993
-0.05933 -0.0561 -0.11475 -0.1559 0.02748 -0.05276 0.00382 0.0934
0.0837 -0.2006 -0.1405 -0.01525 -0.0754 -0.1322 0.1349 0.0473
-0.05 -0.04044 -0.1393 -0.0931 0.07275 0.023 -0.03696 0.06946
0.064 -0.1777 0.0695 -0.12463 0.05438 -0.08685 -0.06903 0.02829
0.06946 0.0634 -0.1998 -0.0664 -0.2181 0.04175 0.06012 -0.10675
-0.1211 -0.0402 -0.008865 -0.06335 -0.178 0.03473 -0.1017 0.05167
0.152 -0.1244 0.0888 -0.05966 0.1449 0.02824 -0.155 -0.238
-0.1954 0.01045 0.079 0.06003 -0.0513 0.04703 -0.2312 0.00963
0.05 -0.10876 0.0586 -0.01264 0.1098 -0.112 -0.00802 0.1107
-0.05905 -0.1532 0.02065 -0.0956 -0.1472 -0.2966 -0.1843 0.00272
-0.00982 -0.005512 -0.0687 0.003494 0.0329 0.0821 -0.1519 -0.1072
-0.05917 -0.03976 -0.1164 -0.04626 0.06836 -0.08813 -0.005913 -0.10724
0.06805 -0.04013 -0.013145 -0.1425 0.02304 -0.0905 0.1381 0.0461
0.0731 -0.1368 -0.1871 -0.08356 0.0894 -0.0702 -0.2915 0.0089
0.03793 0.1342 -0.1377 -0.1381 -0.04477 -0.08655 0.04105 0.04834
0.06027 0.05035 -0.1719 0.02702 0.03586 0.0609 -0.0184 -0.1748
-0.0971 -0.1786 0.01149 -0.00398 0.0934 -0.1075 0.09174 -0.254
-0.0255 0.06915 0.08813 -0.1599 0.05133 -0.0648 -0.08075 0.10065
0.0904 0.047 0.0729 -0.1164 -0.05148 0.06354 0.0002599 0.002209
0.04117 0.00792 -0.03001 -0.1975 0.1438 -0.1559 -0.0662 -0.1597
0.06525 -0.12286 0.05835 -0.04807 0.00673 -0.2048 -0.01573 -0.07855
0.02203 0.08746 0.07275 0.05017 0.0463 0.1455 -0.2917 0.10583

model/time_distributed_11/dense_1/MatMul f2 [64, 1488]
00000000: 3b27 7329 812b 2728 8d2c 802c c729 a52a
00000010: 0d2f 9ba9 732c 232b be2d 5a02 b31b 3b28
00000020: 8e1e 0c2b bd28 a81f 5621 f31f bc2a 562b
00000030: 45a6 49ab a428 472a 0e26 6c24 bb2d a12b
00000040: 8b24 4b29 69a8 4eac 578d b6a7 9a2b 0e2d
00000050: 112c 67a9 5c20 282c 3f2a e124 1029 672d
00000060: 6323 50a1 6da5 a01f fe26 3f2b 10a5 c324
00000070: f92b d9a2 1d29 4a16 4aa3 dd2d 212c c21d
00000080: e22d 5a2c 34a0 3f29 972b 2f2c 55aa 3f29
00000090: 0329 a4ac f927 0b2c 932c 9e2d 302d 1baa
000000a0: 0c2b 582d 792d 46a9 2624 6aa8 93a9 af2c
000000b0: ada9 cc25 ba96 df18 6ea6 e891 8ba6 66ae
000000c0: 102f 4b28 fa2b 4a26 7fa8 3e2d a2a7 e5a9
000000d0: 281c 77a1 0b1b b325 a3a4 f32c 8f9e b01d
000000e0: 9226 ce2b 6a29 5729 88a5 9827 bc2c b228
000000f0: 24a8 95a3 4c2b daa6 cca6 b223 fa2b e0a6
00000100: c32b 0e28 a72c aca7 2928 e21d e42d bb28
00000110: d6a4 0d2a 2ca3 040d 442b 792c ca20 b12c
00000120: 72a9 b425 5e1c 85a8 a225 08a9 042e 612c
00000130: c0a7 f8a6 ec2c d12b 6ca2 85a7 852a cc27
00000140: 6ca5 5a26 612d b2a5 102e 1fab aa2d e39d
00000150: 9826 848e 6b2c 8b27 6da4 372c 3526 3624
00000160: 15a6 d8ab 0da6 c6ab 3a29 dd24 b025 b921
00000170: a628 ada9 a22a 11a6 e424 b62a 369d ad24
00000180: 5f2b e39f d62c 2d22 6c26 e9a9 102c 63a1
00000190: 588f 8dab 2e2c 5021 8d2e 82a8 81a0 5a2c
000001a0: 5128 ebab 4e2e 7cab b329 032b 912c 20ab
000001b0: f62b 09ac c2a3 f72a fa2a aaac bea9 7c2a
000001c0: e92c beab b024 d729 abab 6329 7c28 48ad
000001d0: 482c 9386 2629 8427 0f29 c7a8 a525 932b
000001e0: 4928 90a4 692a 1d28 1622 95aa b81e 1aa7
000001f0: 64a1 2928 8f1b 4da9 8120 79ad 9b27 cd2d
0.02824 0.04257 0.05862 0.03244 0.0711 0.0703 0.04514 0.0519
0.11017 -0.0438 0.0695 0.05576 0.0897 3.59e-05 0.00376 0.03305
0.0064 0.05505 0.03702 0.007477 0.01042 0.007763 0.0526 0.0573
-0.02449 -0.05692 0.03625 0.04904 0.02365 0.01727 0.08954 0.0596
0.01775 0.04135 -0.03445 -0.06726 -0.000326 -0.03012 0.0594 0.079
0.06354 -0.0422 0.008514 0.06494 0.0488 0.01906 0.03955 0.0844
0.01443 -0.010376 -0.0212 0.007446 0.02731 0.0566 -0.01978 0.0186
0.0623 -0.013374 0.03995 0.001535 -0.01424 0.0916 0.0645 0.005623
0.0919 0.068 -0.00821 0.041 0.0593 0.06537 -0.04947 0.041
0.03915 -0.0725 0.03114 0.0632 0.0715 0.08777 0.08105 -0.0477
0.05505 0.0835 0.0855 -0.0412 0.0162 -0.0345 -0.04355 0.0732
-0.04434 0.02264 -0.001642 0.002378 -0.02512 -0.000721 -0.02556 -0.1
0.11035 0.03354 0.06232 0.02457 -0.03513 0.0819 -0.02982 -0.04605
0.00406 -0.01067 0.003439 0.02226 -0.01811 0.07733 -0.006405 0.005554
0.02567 0.06097 0.0423 0.04172 -0.0216 0.02966 0.074 0.03668
-0.03235 -0.01481 0.057 -0.02676 -0.02655 0.01503 0.06232 -0.02686
0.06064 0.03168 0.0727 -0.02997 0.0325 0.005745 0.09204 0.03696
-0.01889 0.04727 -0.01401 0.0003061 0.05676 0.0699 0.00935 0.0733
-0.04254 0.02228 0.004265 -0.0353 0.022 -0.0393 0.094 0.0684
-0.03027 -0.02722 0.0769 0.06107 -0.01254 -0.02937 0.05093 0.03046
-0.02118 0.02481 0.08405 -0.02225 0.0947 -0.05563 0.0885 -0.00575
0.02576 -0.0003977 0.06903 0.02946 -0.01729 0.06586 0.02425 0.01645
-0.02376 -0.06128 -0.02364 -0.06073 0.04083 0.019 0.02222 0.01118
0.03632 -0.04434 0.05182 -0.0237 0.0191 0.05243 -0.00509 0.01826
0.0576 -0.0077 0.07556 0.01206 0.02509 -0.04617 0.0635 -0.01052
-0.0004482 -0.059 0.0653 0.010376 0.10236 -0.03522 -0.0088 0.068
0.03372 -0.06186 0.0985 -0.05847 0.04453 0.05478 0.07135 -0.05566
0.0622 -0.06305 -0.01515 0.0544 0.0545 -0.0729 -0.04486 0.05066
0.0767 -0.0605 0.01831 0.04562 -0.0599 0.04208 0.03503 -0.0825
0.0669 -0.0001003 0.04022 0.02936 0.03952 -0.03732 0.02205 0.05917
0.03348 -0.01782 0.05008 0.03214 0.01189 -0.05142 0.00656 -0.02774
-0.01053 0.0325 0.00369 -0.0414 0.0088 -0.0855 0.02971 0.09064

model/time_distributed_3/batch_normalization/FusedBatchNormV3 f2 [8]
00000000: 49bc b3bc 3fbd 30bc c7ba 32bc d2bc 45bd
-1.071 -1.175 -1.312 -1.047 -0.847 -1.049 -1.205 -1.317

model/time_distributed_3/batch_normalization/FusedBatchNormV31 f2 [8]
00000000: 023b d73a 3a3b f93a 7c3b b23b ba3a de3a
0.876 0.855 0.9033 0.8716 0.9355 0.962 0.841 0.8584

model/time_distributed_5/dense/MatMul f2 [32, 168]
00000000: 2d33 612e 2231 f7ac c330 d828 b730 e72f
00000010: 1ea7 07b1 34a8 9231 bb30 7931 9cb1 7b30
00000020: d4ad 82ac 58b3 7bb2 3e32 1931 851b d8aa
00000030: f323 2e28 8caf 23b1 c52c 7e2c 50b0 1110
00000040: dab2 1430 4224 1ab2 6fb0 f020 c7b2 0325
00000050: 3632 fe8a c129 27b0 c61f 4b29 d330 a125
00000060: 822f 9f27 622a bd29 4f9a e5ad 2831 872d
00000070: 312d 5930 29b1 3bb2 8b30 30b3 c9b0 682a
00000080: c332 edae 4433 482d 20af 2b33 0132 8fae
00000090: 17ab 48a6 cca2 c22d 692d 9fae 3cb4 4faa
000000a0: 002f 9625 75b0 379e f1a5 73b3 ec1f 8aa8
000000b0: 80b2 422c 38b0 54ae ca29 962c 9db3 ffb2
000000c0: 35ae 8530 cfaa 852e ecaa 35ac 9a24 9829
000000d0: 182f 3fb1 e4a5 4332 122e 8eb1 301d 392d
000000e0: ecae 6a31 65a7 8db0 6731 d1af 69b0 b3a2
000000f0: 032d ebaa fe25 3cb1 e6ae 8aac 9426 acae
00000100: 21aa 8132 dfaa aab1 cdac fbb3 bcad d0af
00000110: 6317 6eae 1fb2 9619 fea5 321f 01b1 0db2
00000120: f3ae 8eb1 55b5 76ad deb1 a119 2cb3 c0b3
00000130: 94a7 48b4 9124 e8b0 46ad 6f9d efb2 dfa8
00000140: 642c 9c2c 30a7 642f 32a8 4b30 d431 0024
00000150: 9bac a928 de30 42ae 4a2d 6130 85af 6928
00000160: 55b0 1bab 8226 422f ad2d 3eb1 a729 6eae
00000170: 7cac ea2b 9c91 7faf 38a7 8028 b128 312e
00000180: db30 29ac 37a0 11ac 3eaa 1832 30ac c52e
00000190: 0e2a cc30 46b1 702f 542e 03ab dd25 afa7
000001a0: 8b27 929c dd2f 1eb1 ec28 db30 0a28 632a
000001b0: b930 ea32 f6af 0aad 42ac 6c2c d930 4227
000001c0: 0dad cc30 a7a8 28a4 b2a8 7533 7931 25b1
000001d0: 6d2a 9e2e a1a3 3c2d a1af 6db2 0cb4 26ab
000001e0: c1ad c622 f4af 96b5 e42f 84aa 4f30 adaa
000001f0: ee2c d62a 6da8 29a7 1d2e 3e9c 1aa7 07b0
0.2242 0.0997 0.1604 -0.0776 0.1488 0.03784 0.1473 0.1235
-0.0278 -0.1571 -0.03284 0.1741 0.1478 0.171 -0.1753 0.14
-0.09106 -0.07043 -0.2295 -0.2025 0.1951 0.1593 0.003672 -0.05347
0.015526 0.03265 -0.1179 -0.1605 0.0745 0.0702 -0.1348 0.0004964
-0.2141 0.1274 0.01663 -0.1907 -0.1385 0.00964 -0.2118 0.01958
0.1941 -0.0002134 0.04495 -0.1298 0.00759 0.04135 0.1508 0.02199
0.1173 0.02977 0.04987 0.04483 -0.00308 -0.0921 0.1611 0.08636
0.0811 0.1359 -0.1613 -0.1947 0.142 -0.2246 -0.1495 0.05005
0.2113 -0.1082 0.227 0.0825 -0.1113 0.224 0.1876 -0.1025
-0.0554 -0.02454 -0.013275 0.08997 0.08453 -0.10345 -0.2646 -0.0493
0.1094 0.02182 -0.1393 -0.00607 -0.02321 -0.2328 0.007736 -0.03546
-0.2031 0.0665 -0.1318 -0.0989 0.04523 0.07166 -0.2379 -0.2186
-0.097 0.1412 -0.0532 0.10187 -0.05408 -0.06573 0.01797 0.0437
0.11084 -0.164 -0.02301 0.1957 0.09485 -0.1736 0.005066 0.0816
-0.10815 0.1692 -0.02888 -0.1422 0.1688 -0.12213 -0.1378 -0.013084
0.0783 -0.05405 0.0234 -0.1636 -0.1078 -0.0709 0.0257 -0.10425
-0.04788 0.2032 -0.05368 -0.177 -0.075 -0.2494 -0.0896 -0.1221
0.001803 -0.10046 -0.1913 0.002728 -0.0234 0.007027 -0.1564 -0.1891
-0.1086 -0.1736 -0.3333 -0.0853 -0.1833 0.002748 -0.2241 -0.2422
-0.0296 -0.2676 0.01784 -0.1533 -0.0824 -0.005306 -0.2167 -0.03806
0.0686 0.072 -0.02808 0.1155 -0.03278 0.1342 0.1821 0.01563
-0.07196 0.0364 0.1521 -0.0978 0.08264 0.1368 -0.1175 0.03445
-0.1354 -0.0555 0.02542 0.1134 0.0887 -0.1638 0.04416 -0.10046
-0.07007 0.06183 -0.0006847 -0.1171 -0.0282 0.03516 0.03665 0.09674
0.1517 -0.065 -0.00823 -0.06354 -0.04877 0.1904 -0.0654 0.1058
0.0473 0.1499 -0.1648 0.1162 0.0989 -0.05478 0.0229 -0.03001
0.02946 -0.004463 0.12286 -0.1599 0.03845 0.1517 0.03156 0.0499
0.1476 0.2161 -0.1244 -0.07874 -0.0665 0.0691 0.1515 0.02835
-0.0789 0.1499 -0.03635 -0.01624 -0.03668 0.233 0.171 -0.1608
0.0502 0.1034 -0.0149 0.0818 -0.1192 -0.2008 -0.253 -0.05585
-0.0899 0.01323 -0.12427 -0.349 0.1233 -0.0509 0.1346 -0.05215
0.077 0.0534 -0.03458 -0.02797 0.0955 -0.004143 -0.02774 -0.1259

model/time_distributed_9/batch_normalization_1/FusedBatchNormV3 f2 [16]
00000000: 0cb5 7bb7 18b7 48b6 79b6 9ab7 00b7 b3b7
00000010: d2b5 b8b6 fcb7 95b7 8bb8 67b7 0bb8 a7b6
-0.3154 -0.4675 -0.4434 -0.3926 -0.4045 -0.475 -0.4375 -0.4812
-0.3638 -0.42 -0.499 -0.4739 -0.568 -0.4626 -0.5054 -0.4158

model/time_distributed_9/batch_normalization_1/FusedBatchNormV31 f2 [16]
00000000: 5b3d d33d e53d 743e 9a3e f13d f13d 9c3e
00000010: 333f 183e 573e 243d 6f3e 3f3e bb3e 893e
1.339 1.456 1.474 1.613 1.65 1.485 1.485 1.652
1.8 1.523 1.585 1.285 1.608 1.562 1.683 1.634

model/lstm/while/lstm_cell_2/MatMul_4 f2 [32, 32]
00000000: d599 f62c 1ab1 0323 3a2a 6089 122c 682d
00000010: cf1b 49b0 7e20 c7a6 0aad 9727 74ad c628
00000020: c028 03a4 8d28 15ad 5c14 98b0 a02e d02d
00000030: f1ac 8ea9 dfa0 0bae 37a5 b520 bdac 322a
00000040: 43b1 af16 7bac eea9 b92f cbaa b22e e2b2
00000050: 5b31 57b2 07ad 52b2 3bab cf25 fd28 84a3
00000060: 6626 02ae dc2d d929 da25 e2ab b0ae 9d2a
00000070: 1aa6 9e32 53af c0a8 9aaa 44a6 2fae 6fa4
00000080: 052c c124 08b1 37ae 1f2f e5b3 55b0 6eab
00000090: ca33 bf30 2031 b42b 3c33 9f33 a1b0 59ae
000000a0: 9c31 1724 672f 2a29 5d2b 05b4 b32b 4c30
000000b0: 96ad 8c2c 5626 de2c 92ae 6fae 932e 28ac
000000c0: 12b0 35ad cab2 7b32 1db1 98af 851d 92a8
000000d0: 4ab0 1c1a 5d31 0ab4 4b30 6f28 01a4 a2a8
000000e0: 33aa b431 4728 3824 79ab 1334 bb2e b7a8
000000f0: e12e 0824 31b0 1630 a82d 2122 5797 d0b0
00000100: e331 9fb4 162e bb27 9da8 b830 e521 ed28
00000110: e0b1 62a8 f7b1 07a3 82b4 93a9 1eb4 39ad
00000120: 852a 2a9d a628 2cb0 97a9 57ab 4426 73a5
00000130: 81a7 32ad 6926 aaad 1ba9 3629 d52c fd2b
00000140: 852c 85ad e6af 222c a5b4 ba2c 1333 512d
00000150: 75b0 eaad ebb4 1028 01b4 c32d 92b0 55a8
00000160: 7121 37a8 6f29 5a2c 85ad df2f 7d26 4326
00000170: 562a 089e eda3 992d 3d2a 292b 812d 1331
00000180: 7b32 bb31 f32c 782c 10b1 7b2d bcb0 b816
00000190: f0ae e3ac 3b19 cbaf 04ad a2ad 77af 6aab
000001a0: ee2f c529 7c2c fea8 e4b2 f530 dab1 deae
000001b0: a02e 3030 ed2e 95aa a02d c7b2 50b0 011e
000001c0: 912e 3c2e 97ac afaa 522e f12e cdac 2e9a
000001d0: 1c27 9729 712c eeaa c8ae 18ab 1c28 c3aa
000001e0: 1f29 daa1 a295 5092 a42e 5a31 a7b0 acac
000001f0: bc22 9f2c aaaa 38a8 63b0 5aac 45ab 292f
-0.002848 0.0775 -0.1594 0.013695 0.04865 -0.000164 0.0636 0.0845
0.003813 -0.1339 0.00877 -0.02647 -0.07874 0.02965 -0.0852 0.0373
0.0371 -0.01567 0.03555 -0.0794 0.001064 -0.1436 0.1035 0.0908
-0.0772 -0.0434 -0.009514 -0.0944 -0.02037 0.00919 -0.07404 0.0484
-0.1644 0.001632 -0.07 -0.04633 0.12067 -0.05307 0.1046 -0.2151
0.1674 -0.1981 -0.07855 -0.1975 -0.0565 0.02269 0.03897 -0.01468
0.025 -0.0939 0.09155 0.0457 0.02286 -0.06158 -0.1045 0.05167
-0.02383 0.2068 -0.11444 -0.0371 -0.05157 -0.02448 -0.0966 -0.01732
0.0628 0.01857 -0.1572 -0.0971 0.11127 -0.2467 -0.1354 -0.05804
0.2434 0.1483 0.1602 0.06018 0.2261 0.2382 -0.1447 -0.0992
0.1753 0.01598 0.11566 0.04034 0.05753 -0.2512 0.06015 0.1343
-0.0873 0.07104 0.02475 0.07605 -0.10266 -0.1005 0.1027 -0.06494
-0.1272 -0.08136 -0.2122 0.2025 -0.1598 -0.11865 0.00539 -0.0357
-0.134 0.002983 0.1676 -0.2524 0.1342 0.03464 -0.01564 -0.0362
-0.04843 0.1782 0.03342 0.01648 -0.05838 0.2546 0.10516 -0.03683
0.1075 0.01575 -0.131 0.1277 0.0884 0.01197 -0.001792 -0.1504
0.184 -0.2888 0.0951 0.0302 -0.03604 0.1475 0.01151 0.03848
-0.1836 -0.03424 -0.1864 -0.013725 -0.2817 -0.04355 -0.2573 -0.0816
0.05093 -0.005043 0.03632 -0.1304 -0.04367 -0.05734 0.02448 -0.02129
-0.02931 -0.0812 0.02504 -0.0885 -0.0399 0.0407 0.0755 0.0624
0.0706 -0.08624 -0.1234 0.0646 -0.2903 0.07385 0.2211 0.08307
-0.1393 -0.0924 -0.3074 0.03174 -0.2502 0.09 -0.1428 -0.03384
0.01063 -0.03293 0.04245 0.068 -0.08624 0.123 0.02534 0.02446
0.0495 -0.00589 -0.01548 0.08746 0.04874 0.05594 0.086 0.1586
0.2025 0.1791 0.07733 0.0698 -0.1582 0.08563 -0.148 0.00164
-0.1084 -0.07635 0.002554 -0.12177 -0.07837 -0.088 -0.11664 -0.05792
0.1239 0.04507 0.07007 -0.039 -0.2153 0.1549 -0.1829 -0.1073
0.1035 0.1309 0.1082 -0.05142 0.0879 -0.2118 -0.1348 0.005863
0.1026 0.0974 -0.0717 -0.05222 0.09875 0.10846 -0.075 -0.003017
0.02777 0.04367 0.0694 -0.05414 -0.10596 -0.05542 0.0321 -0.05283
0.04 -0.01143 -0.001375 -0.0007706 0.10376 0.1672 -0.1454 -0.073
0.01315 0.0722 -0.05206 -0.03296 -0.1371 -0.068 -0.0568 0.1119

model/lstm/while/lstm_cell_2/MatMul_5 f2 [32, 32]
00000000: 162c 51ad aba6 c82d 9da9 1930 2928 5c2a
00000010: 5c21 eeac 22b1 0c33 14b0 4ea9 ea2b 43af
00000020: 65a7 b02c ba29 052d 69a8 0e2a 4eaa 61aa
00000030: 03aa 3ba7 2930 c4a7 0e9c cab1 79ae 3e27
00000040: 882a 8931 bab0 522b 3dac 7d2d fa9b b828
00000050: a5ad e81c fbae 2333 67ae 0db0 8ba0 2aae
00000060: b5ae 93ac 6727 ca2a 40a0 992d 5820 58b0
00000070: c4b1 26a5 fdb2 d128 09b2 b030 dc26 19ae
00000080: 0e31 f32f a22e 12ac d3a4 2c31 00af 8e2e
00000090: a0a1 99ad ef22 8632 49ad 72b0 791b 9db2
000000a0: 0da3 18b1 081e 8e28 25ad fa2f e7ac 34b0
000000b0: 9aad b132 a8b1 7fb4 1aa1 0d33 f227 0cb3
000000c0: e4ab 0230 dea0 c39e b82b 07af 8b32 7828
000000d0: f8a4 7123 5fb0 971f c5b0 2d28 8bb0 faa8
000000e0: 77af 302c 61b3 5daa eab1 dc33 a828 1431
000000f0: 8eac b72d b0a5 2325 4ab4 5530 a72b 4032
00000100: b6ad 8fac 3729 2b26 caa9 dea3 e929 90ab
00000110: 9cb4 baaa bbb0 952f 40b2 a7a8 afad 3130
00000120: e6b0 4c30 899c d4aa b0ad fe2c 852c 9e1f
00000130: 0c34 28a7 d32c 82a9 0baa f9ae 7bb2 f69e
00000140: 1529 8031 cd36 6cb1 4db0 8a20 652f 48a4
00000150: cf28 3bae 309b 2d32 b9b1 781d ac22 bcaa
00000160: 4424 96b0 dc30 d4ae fe2d 7629 c12e 03a9
00000170: bcac 8b32 12a8 e8a1 32a0 abb2 4433 46b0
00000180: 4825 e125 2998 5fa7 d029 8592 8f29 49a8
00000190: 5ab2 5e2c 3eb2 ecad 36a3 5ba5 2eb0 2ba0
000001a0: 98a9 3027 54aa 0aad 1db3 0432 c3a7 71a8
000001b0: d130 59a8 ce2e 62ad 182e b6a0 0eb1 6f2c
000001c0: b92b 12a6 c99e b72a e3b0 912c 8529 a02a
000001d0: 572c 60a8 50b2 f624 6cae 88ad b89f 5927
000001e0: 6eb3 f9ac daa9 49af 64ae c42d 3b9b 0baf
000001f0: d42d 062f 6a30 57ae 2bac b52f d0a8 6f2a
0.06384 -0.08307 -0.02605 0.09033 -0.04385 0.128 0.0325 0.04968
0.01047 -0.077 -0.1604 0.2202 -0.1274 -0.04144 0.06183 -0.11346
-0.02888 0.07324 0.04474 0.0784 -0.03445 0.0473 -0.04926 -0.04984
-0.04697 -0.02824 0.13 -0.03033 -0.00396 -0.1809 -0.10114 0.02829
0.05103 0.173 -0.1477 0.0572 -0.0662 0.08575 -0.003895 0.03687
-0.0882 0.00479 -0.1091 0.223 -0.10004 -0.1266 -0.00887 -0.0963
-0.1048 -0.0715 0.02892 0.05304 -0.0083 0.08746 0.008484 -0.1357
-0.1802 -0.02011 -0.2184 0.03763 -0.1886 0.1465 0.0268 -0.0953
0.158 0.1242 0.10364 -0.0636 -0.01884 0.1616 -0.1094 0.1024
-0.01099 -0.08746 0.01354 0.2039 -0.0826 -0.1389 0.003649 -0.2067
-0.01377 -0.1592 0.00589 0.03558 -0.0804 0.12463 -0.0766 -0.1313
-0.0875 0.2091 -0.1768 -0.281 -0.009964 0.2203 0.03104 -0.2202
-0.06165 0.1252 -0.00951 -0.006603 0.0603 -0.1098 0.2045 0.0349
-0.01941 0.014534 -0.1366 0.007412 -0.149 0.03262 -0.142 -0.03888
-0.11664 0.0654 -0.2306 -0.0497 -0.1848 0.2456 0.03638 0.1587
-0.07117 0.0893 -0.02222 0.02007 -0.268 0.1354 0.05978 0.1953
-0.08923 -0.0712 0.04074 0.0241 -0.04523 -0.015366 0.04617 -0.05908
-0.288 -0.05255 -0.1478 0.11847 -0.1953 -0.03635 -0.0888 0.131
-0.1531 0.1343 -0.00443 -0.05334 -0.08887 0.078 0.0706 0.00744
0.253 -0.02795 0.0754 -0.04303 -0.0472 -0.10895 -0.2025 -0.006798
0.0397 0.1719 0.425 -0.1694 -0.1344 0.008865 0.11554 -0.01672
0.03757 -0.09735 -0.00351 0.193 -0.1788 0.00534 0.01303 -0.0526
0.01666 -0.1433 0.1519 -0.1067 0.0936 0.04266 0.1055 -0.03915
-0.074 0.2045 -0.0318 -0.011536 -0.008194 -0.2084 0.227 -0.1335
0.02063 0.02296 -0.002031 -0.0288 0.0454 -0.000796 0.04343 -0.03348
-0.1985 0.06824 -0.1951 -0.0925 -0.014084 -0.02092 -0.1306 -0.00814
-0.0437 0.02808 -0.04944 -0.07874 -0.2223 0.188 -0.03032 -0.0347
0.1505 -0.03397 0.1063 -0.0841 0.0952 -0.0092 -0.158 0.0693
0.06033 -0.02371 -0.006626 0.05246 -0.1527 0.07135 0.04312 0.05176
0.0678 -0.03418 -0.1973 0.01938 -0.10034 -0.0864 -0.007538 0.0287
-0.2322 -0.0777 -0.04572 -0.11383 -0.09985 0.0901 -0.00353 -0.11005
0.09106 0.10974 0.138 -0.09906 -0.0651 0.1204 -0.0376 0.05026

model/lstm/while/lstm_cell_2/MatMul_6 f2 [32, 32]
00000000: 4cab a3ac 7aac 9f30 0f97 deac 28ac daab
00000010: bab0 f92f a02d a52c 40a8 c32c 8aab 4d2e
00000020: 0c33 b62f 6430 2da5 b4ad 9821 4c1e 4f25
00000030: 9dae 432a 592c 7eae 00ad 24ad dc30 e42a
00000040: 632e 4ea8 7c31 8cb1 502d 402c e2b1 6530
00000050: a2b0 192f 66aa 01b5 2fab e391 3928 36b2
00000060: 02ad 052f 912c 5c2d f41c b9b3 c329 52ab
00000070: c3af 902c 28ac 9eb2 6830 17a2 8132 e733
00000080: 61a8 aca8 842e bbb4 bdac 2eb3 78a8 d59a
00000090: a0b0 7929 93ab d612 2fa7 3d34 c89e d831
000000a0: baac 1cb1 bba9 1bb0 9a26 5d31 2432 76b0
000000b0: 7033 9d1d 972e 1b9f b8ad 11ad 8aaf c0ab
000000c0: b6a0 b9ac 17b0 41a9 232b 0ea3 e22e 9230
000000d0: 12a6 50ab b1b0 df1b 98ac 7a2c 2c31 17ae
000000e0: bd30 341f c02f 43b1 c030 2327 932c c3ac
000000f0: aab0 4728 8f21 6230 1e18 4bad 1fb3 57aa
00000100: a82a 222a 1faa 3130 55ac e39d b6b1 7b2f
00000110: ee2b 5b28 03a7 8ea6 7ba8 cfac cd30 fab2
00000120: 122e 812e 6129 772d a62c ad2b bc2b 6790
00000130: 74b1 45b2 de35 d9b1 43ae b42b 6127 4436
00000140: edad 8515 3b38 0721 6da4 35a7 d3ae 8ca4
00000150: 2431 c5b0 d52d ce30 d82e fbac 361e 0234
00000160: 9c32 7bb2 752b 9fa8 c92a 86a4 6bb1 21aa
00000170: 7830 0328 0da5 46b0 46ad 53ae 799a 09b0
00000180: 3fac 3031 132e 49b5 d3ab a4b0 84ab 6c9b
00000190: ac2a 0d2f 56aa 0d24 71ac 82ac 9e2e 26af
000001a0: 52b0 04a9 d2af 5a99 98a0 2233 a530 d62f
000001b0: 702a 7436 c3b1 49a6 6631 43ac ff9e 2cb6
000001c0: 6d22 fca8 fc96 3027 602e 58ad 81ac ba31
000001d0: 5cac 73af d52c 29aa 3cb1 8ba8 49ab 392d
000001e0: bda8 85b3 fe2f 0030 c630 e6b0 1ea6 bd2a
000001f0: bcad f327 b42e afab 0fad 07ac 91ad d5a6
-0.057 -0.07245 -0.06995 0.1444 -0.001723 -0.07605 -0.06494 -0.06134
-0.1477 0.1246 0.0879 0.0726 -0.0332 0.0744 -0.0589 0.09845
0.2202 0.1205 0.1372 -0.02022 -0.0891 0.010925 0.00615 0.02074
-0.10333 0.04892 0.06793 -0.10144 -0.0781 -0.0803 0.1519 0.05383
0.0998 -0.03363 0.1714 -0.1733 0.083 0.0664 -0.1838 0.1373
-0.1448 0.1109 -0.05 -0.3127 -0.05612 -0.0007186 0.033 -0.1941
-0.07825 0.1097 0.07135 0.08374 0.004837 -0.2413 0.045 -0.0572
-0.1213 0.0713 -0.06494 -0.2068 0.1377 -0.011894 0.2032 0.247
-0.0342 -0.0365 0.1018 -0.2957 -0.07404 -0.2244 -0.0349 -0.003336
-0.1445 0.04276 -0.05917 0.0008345 -0.02806 0.265 -0.006622 0.1826
-0.07385 -0.1597 -0.04477 -0.1283 0.02579 0.1676 0.1919 -0.1394
0.2324 0.00548 0.10297 -0.00694 -0.08936 -0.07916 -0.1178 -0.06055
-0.0092 -0.0738 -0.1278 -0.04105 0.05576 -0.01378 0.10754 0.1428
-0.02371 -0.05713 -0.1466 0.003843 -0.0718 0.06995 0.1616 -0.09515
0.1481 0.007034 0.1211 -0.1644 0.1484 0.02788 0.0715 -0.0744
-0.1458 0.03342 0.01086 0.137 0.00201 -0.0827 -0.2225 -0.04953
0.052 0.0479 -0.04782 0.131 -0.0677 -0.00575 -0.1785 0.1169
0.06195 0.03403 -0.02739 -0.0256 -0.035 -0.07513 0.15 -0.218
0.09485 0.1016 0.04202 0.0854 0.07263 0.05997 0.06042 -0.0005374
-0.1704 -0.1959 0.3667 -0.1827 -0.09784 0.06018 0.02882 0.3916
-0.0926 0.001348 0.529 0.00982 -0.01729 -0.02815 -0.1066 -0.01776
0.1606 -0.149 0.0911 0.1501 0.10693 -0.0778 0.006065 0.2505
0.2065 -0.2025 0.05826 -0.0361 0.053 -0.01767 -0.1693 -0.04788
0.1396 0.03134 -0.01973 -0.1335 -0.0824 -0.0988 -0.00316 -0.1261
-0.06635 0.1621 0.0949 -0.3303 -0.06113 -0.145 -0.05872 -0.003624
0.05212 0.11017 -0.0495 0.01582 -0.0694 -0.07043 0.1034 -0.1117
-0.135 -0.03918 -0.1222 -0.002613 -0.00897 0.2229 0.1451 0.12244
0.0503 0.4033 -0.18 -0.02455 0.1687 -0.0666 -0.006832 -0.3857
0.01255 -0.03894 -0.001705 0.02808 0.0996 -0.0835 -0.0704 0.179
-0.0681 -0.1164 0.0755 -0.04813 -0.1636 -0.0355 -0.05692 0.0816
-0.03702 -0.235 0.1249 0.125 0.1492 -0.1531 -0.0239 0.05264
-0.0896 0.03105 0.10474 -0.06003 -0.07904 -0.0629 -0.087 -0.02669

model/lstm/while/lstm_cell_2/MatMul_7 f2 [32, 32]
00000000: 4626 b6b2 ad2d a326 2132 6c2c 67ac 0330
00000010: 81ab 13ae bf30 7530 1ba4 81b0 cab2 65ae
00000020: 8529 06b4 13ac 9f2c dc2f 302b 9da7 0f2d
00000030: 92aa 141f e38e 5eab 51b3 772f 2f30 0932
00000040: d4a8 8a28 0da9 802d 65a7 392c 4b25 c4a7
00000050: 93ab 3ba8 bbaf 3a2e 1cb2 7eac 01a9 7eaa
00000060: 60a2 84b0 9623 532d 25b2 9c30 2da9 9fae
00000070: 3ab3 e4aa d631 b3ad e1b3 fd32 d031 0f2f
00000080: 5ab1 86ae 3722 a333 dc2e a6a9 732c e92d
00000090: 5bb2 161e 4cb5 36b4 6caf a5ae b921 592c
000000a0: 1bae afaa 2bb1 4cb2 40ac 10ad 2e2d 9b20
000000b0: f025 2eb2 d92b a92c 3030 d72e a9ad dc35
000000c0: f3b0 23b0 bcb0 16ab ebae aab4 9831 7e2b
000000d0: b2b4 56a2 83b1 11b4 d0ad 5fab e5a9 e3ae
000000e0: 8a1e 9530 06b1 b7b5 a5ae 8135 2ea6 4320
000000f0: 8aab 8f2f e9a9 442a 352e da2d f599 b0ae
00000100: 9a25 11ae 432e 5229 0626 a826 f7b4 fbac
00000110: b72d 7930 6231 822d 88a9 c9b6 a299 2522
00000120: 38ab 59ae 552d 7934 6428 d6ad 1d28 5cb0
00000130: 641e c232 9d2f 9118 b1aa 4faf 0a29 17a5
00000140: 1e2e ecae 6aab 212c 59ac 3a34 3731 e42d
00000150: 48b0 edb1 08b2 8631 b32d c0ab 10b5 0cad
00000160: 93ac a0b3 0e2c 2f30 c8aa 9e2d 15a9 d4ad
00000170: 54a0 54a9 90b0 c296 7da7 542c f632 5c30
00000180: 7f29 66b4 211d d229 8531 362d ddaf 2e28
00000190: 8d2f 1130 781e c12e 8820 16ab 42b4 d2ae
000001a0: 1826 e32b 3a33 5f32 7a33 4fab 9faf 1c2f
000001b0: 3630 6eb1 f2a1 bead 62ad 83af e232 562a
000001c0: 4322 18ae cfb0 ee2e 7ba5 5723 3b23 01ac
000001d0: 9da8 be2d c8ac da31 40ab 1628 6523 31b0
000001e0: 1433 382d 2433 a532 6a2e 87a8 2623 e9a1
000001f0: 31af 4731 bbad 28b0 528f d532 87b0 6c9c
0.0245 -0.2097 0.0887 0.02592 0.1915 0.0691 -0.0688 0.1254
-0.05862 -0.0949 0.1483 0.1393 -0.01604 -0.1407 -0.2122 -0.0999
0.04312 -0.2515 -0.06366 0.0722 0.1228 0.05615 -0.02974 0.07904
-0.05133 0.006912 -0.0004203 -0.05756 -0.2286 0.11664 0.1307 0.1886
-0.03772 0.03546 -0.03946 0.08594 -0.02888 0.066 0.02068 -0.03033
-0.05917 -0.03305 -0.1208 0.0973 -0.1909 -0.0702 -0.0391 -0.05072
-0.01245 -0.1411 0.01482 0.0832 -0.192 0.144 -0.04044 -0.10345
-0.2258 -0.05383 0.1824 -0.08905 -0.2462 0.2184 0.1816 0.1103
-0.1672 -0.1019 0.01214 0.2386 0.1072 -0.04413 0.0695 0.09235
-0.1986 0.005943 -0.331 -0.2632 -0.11597 -0.1038 0.01118 0.06793
-0.0954 -0.05222 -0.1615 -0.1968 -0.0664 -0.0791 0.08093 0.008995
0.0232 -0.1931 0.0613 0.0728 0.1309 0.1069 -0.08844 0.3662
-0.1547 -0.1293 -0.148 -0.05536 -0.1081 -0.2915 0.1748 0.05853
-0.2935 -0.012375 -0.1722 -0.2542 -0.0908 -0.0576 -0.04605 -0.1076
0.006386 0.1432 -0.157 -0.3572 -0.1038 0.344 -0.02414 0.00832
-0.0589 0.1181 -0.04617 0.04895 0.097 0.09143 -0.002909 -0.1045
0.02188 -0.0948 0.09784 0.04156 0.02353 0.026 -0.3103 -0.0778
0.0893 0.1398 0.1682 0.08606 -0.0432 -0.424 -0.00275 0.012
-0.0564 -0.0992 0.0833 0.2795 0.0343 -0.0912 0.03214 -0.1362
0.00624 0.2112 0.11896 0.00223 -0.05228 -0.1142 0.03937 -0.01988
0.0956 -0.10815 -0.05792 0.0645 -0.06793 0.2642 0.163 0.09204
-0.1338 -0.1852 -0.1885 0.1726 0.08905 -0.06055 -0.3164 -0.07886
-0.0715 -0.2383 0.06335 0.1307 -0.05298 0.08777 -0.0397 -0.09106
-0.00845 -0.04163 -0.1426 -0.00165 -0.02925 0.0676 0.2175 0.1362
0.04294 -0.275 0.00501 0.04547 0.1725 0.0814 -0.12286 0.03265
0.118 0.1271 0.006317 0.1055 0.00885 -0.05536 -0.266 -0.10657
0.0238 0.0616 0.2258 0.1991 0.2336 -0.0571 -0.1191 0.1111
0.1316 -0.1697 -0.01161 -0.0897 -0.0841 -0.1174 0.2151 0.0495
0.01223 -0.0952 -0.1503 0.1083 -0.02141 0.014336 0.01412 -0.06256
-0.03604 0.0897 -0.0747 0.1829 -0.05664 0.03192 0.01444 -0.131
0.2212 0.08154 0.2231 0.2076 0.1002 -0.03537 0.01396 -0.01154
-0.11237 0.1649 -0.08954 -0.1299 -0.0004468 0.2135 -0.1415 -0.00432

model/lstm/while/lstm_cell_2/split_1 f2 [32]
00000000: 192c 44a8 e1ac 66ab d82d a021 702e 7026
00000010: e592 8f23 49a9 4e15 671f d324 67ac 1f2d
00000020: 37a0 639f 8aaa 35a5 f1a7 8f1e 4f28 f1a9
00000030: 3ca8 d326 6721 4124 6faf b3a8 5f21 a6ac
0.064 -0.03333 -0.07623 -0.0578 0.0913 0.01099 0.1006 0.02515
-0.0008416 0.01476 -0.0413 0.001295 0.00723 0.01884 -0.0688 0.08
-0.00823 -0.007214 -0.0511 -0.02034 -0.03102 0.006405 0.03366 -0.04642
-0.03308 0.02666 0.01055 0.01662 -0.11615 -0.0367 0.01049 -0.07263

model/lstm/while/lstm_cell_2/split_11 f2 [32]
00000000: 273c 0d3c 653c 0e3c 323c 1b3c 1f3c 193c
00000010: 463c 1f3c 3d3c 693c 273c 483c 1f3c 393c
00000020: 323c 133c 2e3c 303c 203c 133c 193c 033c
00000030: 133c 063c 173c 373c 2b3c 163c 183c 573c
1.038 1.013 1.099 1.014 1.049 1.026 1.03 1.024
1.068 1.03 1.06 1.103 1.038 1.07 1.03 1.056
1.049 1.019 1.045 1.047 1.031 1.019 1.024 1.003
1.019 1.006 1.022 1.054 1.042 1.021 1.023 1.085

model/lstm/while/lstm_cell_2/split_12 f2 [32]
00000000: 7828 e321 11a8 cca4 449a c226 7f9d 8f20
00000010: 4b17 7ca5 4c20 f225 45a4 b3a6 3ea9 bda8
00000020: 9d95 8fa7 0125 f588 2c26 ce1d 27a5 81a9
00000030: 35a5 4a1f b8a1 baa6 de99 d29c 0527 dea8
0.0349 0.0115 -0.03177 -0.01874 -0.00306 0.0264 -0.005367 0.0089
0.0017805 -0.02142 0.00839 0.02322 -0.01668 -0.02617 -0.04095 -0.03702
-0.00137 -0.02953 0.01955 -0.0001513 0.02411 0.00567 -0.02013 -0.043
-0.02034 0.00712 -0.01117 -0.02628 -0.002865 -0.004707 0.02742 -0.03802

model/lstm/while/lstm_cell_2/split_13 f2 [32]
00000000: 9222 2128 a82a cb24 3825 f32c 8527 3b23
00000010: 5d2d 551c c827 202e ad1d f12c 1e2b 432c
00000020: 832d 542c 4f24 7d30 212a b123 9e25 8c29
00000030: 562c 902a 4d2f 1328 132e eb26 06a8 fd2f
0.01283 0.03226 0.052 0.01872 0.02039 0.07733 0.02937 0.01412
0.0838 0.00423 0.0304 0.0957 0.005543 0.0772 0.0556 0.0666
0.0861 0.0676 0.01683 0.1403 0.04788 0.01502 0.02194 0.04333
0.06775 0.05127 0.1141 0.03183 0.0949 0.02702 -0.03143 0.1248

model/lstm/while/lstm_cell_2/MatMul f2 [32, 96]
00000000: b62a 722c e529 732c 4425 1d2d 7e2c af27
00000010: 1ca7 fd2c ee28 3d99 a22b 5c2b 9628 4729
00000020: 64a2 8c28 8129 5928 4d2a 7d2d c72a fe2a
00000030: 112d 112b 4e24 552e 8428 0e2a 492e 752d
00000040: 7524 9c8e 04a8 d927 8a24 3ba0 0080 2025
00000050: 2dab eda0 8b1b 3327 b127 2124 1b25 22a0
00000060: 0228 532d 2099 0629 7e29 0f2a 399a 6a1d
00000070: 3a24 6524 2793 1323 2d2c 8a95 f929 ed2b
00000080: 0529 2520 2216 4029 402c 4300 1fa8 6213
00000090: eb22 b01d 5e29 f119 e698 2f9c 6997 582c
000000a0: c929 c61e 8728 3617 162c 7f2c 1e28 c182
000000b0: 42aa d92a 032c 2326 439a 1820 8da4 5e23
000000c0: a3a8 43b0 0c28 58ae 1bae 3b24 cb25 4da8
000000d0: cd2a 8ba3 6324 17b1 6b30 6e30 e8ad e5ad
000000e0: 66ac b324 6ca9 21ab 9721 65ab 172a 55a1
000000f0: e7a8 0514 112d aeb2 ee2a 752f 2cac fa2f
00000100: 5c2d 47a0 9e2a 722d 5faf 7730 e417 f4aa
00000110: f42b 1182 7d31 8ba4 fba0 19a8 f3aa a220
00000120: c027 f4af cfa5 0732 d2a9 fbac 082a c6a6
00000130: 83ad 7aa8 7e20 ca31 4b2e 0921 8aaa aea9
00000140: d223 90a9 d424 a5a9 f3a8 3e23 1d28 422a
00000150: 0baf 8024 d72d 7c9a 559c 8cb0 95ad 00a4
00000160: 322c c724 952c 7f28 64a8 77ac 2ca7 6fa8
00000170: 949e 2122 70a6 5026 4ba2 661e a32b 3daf
00000180: 83ab b2a4 2b28 d51d 32ab ab24 c3ae 2d2e
00000190: ba2c 01ae 942b 1ba8 68ae d3b0 a627 3625
000001a0: b630 6eaa 7527 74ad 3f2c 4220 c52c e2a4
000001b0: 79ab e027 9a29 8aa9 d92c ba29 17ac e0ae
000001c0: 7da5 0b28 9a9a 44a9 c8a6 99a5 b4a3 70ab
000001d0: 35ad 2720 efa7 c9ab 29ae 59a5 03a1 d125
000001e0: 29ad 4523 4125 6fa6 b29e 50a9 7dad 14ab
000001f0: e72d 6099 ec9c 3521 06a3 fcab 59a9 e3a4
0.05243 0.06946 0.04605 0.0695 0.02057 0.0799 0.0702 0.03001
-0.02777 0.07794 0.0385 -0.002558 0.05963 0.0575 0.03583 0.04123
-0.01248 0.03552 0.043 0.03397 0.04922 0.08575 0.05295 0.05463
0.07916 0.0552 0.01682 0.09894 0.03528 0.0473 0.0982 0.08527
0.01741 -0.0004034 -0.03137 0.03065 0.01773 -0.00826 -0.0 0.02002
-0.05606 -0.00962 0.003683 0.02812 0.03004 0.01613 0.01994 -0.00807
0.0313 0.0832 -0.002502 0.03925 0.0429 0.04733 -0.003038 0.005287
0.01651 0.01717 -0.000873 0.01382 0.06525 -0.001352 0.04666 0.06192
0.0392 0.008095 0.001497 0.04102 0.0664 4e-06 -0.0322 0.000901
0.01351 0.005554 0.04193 0.002901 -0.002392 -0.004086 -0.001809 0.0679
0.0452 0.006615 0.03537 0.0017605 0.06384 0.07025 0.03217 -4.2e-05
-0.0489 0.0535 0.0627 0.02397 -0.003057 0.007996 -0.01778 0.01439
-0.03622 -0.1332 0.03162 -0.0991 -0.0954 0.01653 0.02263 -0.0336
0.05313 -0.01473 0.01714 -0.159 0.1381 0.1384 -0.0923 -0.0921
-0.0687 0.01836 -0.04236 -0.0557 0.01092 -0.05777 0.04758 -0.010414
-0.0383 0.000981 0.07916 -0.2087 0.05414 0.1165 -0.0652 0.12463
0.08374 -0.008354 0.0517 0.0851 -0.1152 0.1395 0.001926 -0.05432
0.06213 -3.153e-05 0.1715 -0.01775 -0.00973 -0.032 -0.0543 0.00905
0.03027 -0.12427 -0.02269 0.1884 -0.04547 -0.0778 0.04712 -0.02646
-0.0861 -0.03497 0.00877 0.1809 0.0983 0.009834 -0.0511 -0.04437
0.015274 -0.04346 0.01886 -0.0441 -0.03867 0.014145 0.03214 0.0489
-0.11005 0.01758 0.09125 -0.003166 -0.00423 -0.1421 -0.0872 -0.01563
0.06555 0.01866 0.0716 0.03513 -0.0343 -0.06976 -0.02802 -0.03464
-0.006424 0.01197 -0.02515 0.02466 -0.01229 0.00625 0.05966 -0.1131
-0.0587 -0.01834 0.03256 0.005695 -0.0562 0.01823 -0.10565 0.0965
0.07385 -0.0938 0.0592 -0.03207 -0.1001 -0.1508 0.02988 0.02036
0.1472 -0.05023 0.02913 -0.0852 0.06635 0.008316 0.0745 -0.01907
-0.05838 0.03076 0.04376 -0.04327 0.07574 0.04474 -0.0639 -0.1074
-0.02144 0.0316 -0.003223 -0.04114 -0.02649 -0.02187 -0.015045 -0.0581
-0.08136 0.00811 -0.03099 -0.06082 -0.09625 -0.02089 -0.00979 0.02272
-0.0806 0.0142 0.02052 -0.02513 -0.00654 -0.0415 -0.08575 -0.0553
0.0922 -0.002625 -0.004807 0.01017 -0.01372 -0.06238 -0.04178 -0.01909
