HPC_Final_Study2_Complete_Test_Class_Balance_run_all/participants_session_transfer_train_fresh_model/participant_9/session_2/session_2_lite_models/indexpen_model.tflite (tflite, 573028 bytes, 29 tensors)

model/time_distributed_6/conv2d_1/BiasAdd;model/time_distributed_6/conv2d_1/Conv2D;model/time_distributed_6/conv2d_1/BiasAdd/ReadVariableOp/resource f4 [16]
0	0x3ddaa50f	0.10676014
1	0x3d4ab94b	0.049493115
2	0x3d95dd22	0.07317568
3	0x3cb9a84b	0.022663256
4	0x3d7a86ee	0.061163835
5	0x3d780f28	0.06056133
6	0x3db956c9	0.09049756
7	0x3d66ec3e	0.05637764
8	0x3d4fd595	0.050740797
9	0x3d98d6d6	0.07462852
10	0x3d93440f	0.071907155
11	0x3d8eea38	0.069782674
12	0x3d917d56	0.07103984
13	0x3d974e98	0.073880374
14	0x3d92cfb1	0.0716852
15	0x3d98732f	0.074438445

model/time_distributed/conv2d/BiasAdd;model/time_distributed/conv2d/Conv2D;model/time_distributed/conv2d/BiasAdd/ReadVariableOp/resource f4 [8]
0	0xbd994117	-0.07483118
1	0xbe273687	-0.16329394
2	0xbc9af38b	-0.018914958
3	0xbe33f3ca	-0.17573467
4	0xbd1a9857	-0.03774294
5	0xbd45d42a	-0.04829804
6	0xbd960437	-0.07325023
7	0x3c9ff110	0.019524127

model/time_distributed_6/conv2d_1/Conv2D f4 [16, 3, 3, 1]
0	0x3d262faf	0.04057282
1	0x3d25c3b8	0.040469855
2	0xbd927c9c	-0.071526736
3	0x3c369da4	0.011145983
4	0x3cf03bee	0.029325452
5	0xbd05b381	-0.03264189
6	0xbd8e9cfc	-0.06963536
7	0x3d386cca	0.045025624
8	0x3ced51f6	0.028969746
9	0xbb74c2b8	-0.0037347507
10	0x3dbf5c86	0.09343819
11	0xbdb68afd	-0.08913229
12	0xbda069b4	-0.07832661
13	0x3e4370b2	0.19085959
14	0xbde0b755	-0.10972468
15	0xbc08779f	-0.008329301
16	0xbe00729f	-0.12543724
17	0x3e07075d	0.13186403
18	0x3d9b8fbd	0.07595775
19	0xbe4a2f31	-0.19744565
20	0x3dfa6828	0.122268975
21	0x3d901686	0.07035546
22	0x3d4fc7ef	0.05072778
23	0xbdf35603	-0.1188164
24	0xbd2ab0f5	-0.041672666
25	0x3d045b18	0.032313436
26	0x3c48a20c	0.012245666
27	0x3b0f2083	0.0021839447
28	0x3d62a126	0.055329464
29	0xbcfd1e50	-0.030898243
30	0x3b18ef0b	0.002333584
31	0xbc47d0bc	-0.012195762
32	0xbc6beb64	-0.014399383
33	0x3ceb5bf6	0.028730374
34	0xbc8cfb39	-0.017209636
35	0x3c453ea6	0.012038862
36	0x3c89b45f	0.01680964
37	0xbe1acb93	-0.1511672
38	0x3e0c3431	0.13691784
39	0xbc61113e	-0.013737021
40	0x3d54f54b	0.051991742
41	0xbd685a24	-0.05672659
42	0xbd065bc2	-0.03280235
43	0x3d6262c7	0.055269983
44	0xbb9111dc	-0.004427178
45	0x3e0f58c2	0.13998702
46	0xbd9e3952	-0.07725777
47	0xbd7a6505	-0.061131496
48	0xbd5490b2	-0.051895805
49	0xbd635352	-0.055499382
50	0x3dcee72d	0.10102687
51	0x3ce98452	0.028505478
52	0x3d20773c	0.03917621
53	0xbd5b2b5b	-0.053508144
54	0x3d5228bf	0.05130839
55	0xbdfd6ca3	-0.123742364
56	0x3d88c20f	0.06677639
57	0x3c94dd58	0.018171951
58	0x3d96d832	0.07365455
59	0xbdce87b8	-0.1008448
60	0x3ba506ae	0.0050361967
61	0x3d40f039	0.047104094
62	0xbd4ce580	-0.050023556
63	0xbdccdce1	-0.10003067
64	0x3da95870	0.08268821
65	0xbb94c0ea	-0.0045395987
66	0x3d2419a6	0.040063523
67	0xbd4e352b	-0.050343674
68	0x3cc8cc15	0.024511376
69	0xbdac29e4	-0.084064275
70	0x3d2b4f7d	0.041823853
71	0x3cdde7f8	0.02708815
72	0xbcb600e4	-0.022217222
73	0x3c06d4a9	0.008229413
74	0x3bfa819c	0.007644845
75	0x3d870358	0.06592435
76	0xbdcfd084	-0.10147193
77	0x3d7e1bee	0.062038355
78	0x3dd1cf65	0.102446355
79	0xbe344a00	-0.17606354
80	0x3d8203f5	0.06348411
81	0x3d3274d1	0.043568436
82	0xbdc53a97	-0.09630316
83	0x3d3698ac	0.044579193
84	0x3ca391e2	0.019967023
85	0x3cfc4f5a	0.030799557
86	0xbd672464	-0.05643119
87	0x3d0146bc	0.0315616
88	0x3c1fce38	0.009753756
89	0xbc14cca8	-0.009081997
90	0xbdbac6b2	-0.091199294
91	0x3e33ee2a	0.17571321
92	0xbdbda70f	-0.092603795
93	0x3cd804b6	0.026369434
94	0x3d92153f	0.071329586
95	0xbdbf5d42	-0.093439594
96	0xbd35eadc	-0.044413432
97	0x3e1651b7	0.14679609
98	0xbdc4af4e	-0.09603749
99	0xbd95ee3b	-0.073208295
100	0x3e688653	0.2270749
101	0xbe127631	-0.14302899
102	0xbe28d810	-0.16488671
103	0x3dfcc053	0.123413704
104	0x3d6054c8	0.054768354
105	0x3e071e55	0.13195165
106	0xbe2d6c3e	-0.16935822
107	0x3d23a912	0.03995616
108	0xbdbf679d	-0.093459345
109	0x3e40a2c6	0.18812093
110	0xbdc56d72	-0.09640016
111	0xbdbb15ba	-0.091350034
112	0x3e1d55b3	0.15364723
113	0xbd872e93	-0.0660068
114	0xbdb11900	-0.086473465
115	0x3e53b4d5	0.2067445
116	0xbe0e1d64	-0.13878399
117	0xbcdcb9af	-0.02694401
118	0x3dc7a98b	0.09749135
119	0xbd73f2b9	-0.05955765
120	0xbb9f4e76	-0.004861648
121	0xbe09327b	-0.13398163
122	0x3dfe8b04	0.12428859
123	0xba898dcf	-0.0010494533
124	0x3d1add30	0.037808597
125	0xbcaedb2e	-0.021344747
126	0xbca8111a	-0.020515967
127	0xbcb514db	-0.022104671
128	0x3c6c5cd7	0.014426432
129	0xbcb2e53d	-0.021837825
130	0xbcde22dc	-0.027116232
131	0x3d709854	0.05873902
132	0x3d9ff683	0.0781069
133	0xbe096a3e	-0.13419434
134	0x3d50f56f	0.051015314
135	0xbb252d9f	-0.0025204194
136	0xbcefb5e2	-0.029261533
137	0x3bdb381e	0.0066900393
138	0xbc1ac681	-0.009446741
139	0x3cebb78d	0.028774047
140	0x3b096ccf	0.0020969396
141	0x3d9dc4d0	0.07703555
142	0xbd979e6c	-0.074032634
143	0xbc8d3520	-0.017237246

model/time_distributed/conv2d/Conv2D f4 [8, 3, 3, 1]
0	0xbab29566	-0.0013624846
1	0xbcd3b654	-0.025843777
2	0x3b6d61e4	0.0036221677
3	0xbb353142	-0.0027647768
4	0x3c74ce6b	0.014941792
5	0xbadebbd1	-0.001699323
6	0x3c237e64	0.009978864
7	0xbcb03e1c	-0.021513991
8	0x3b7474ed	0.0037301139
9	0x3babb54f	0.0052401195
10	0xbce8cc66	-0.028417777
11	0x3b8394ab	0.0040155253
12	0xbbc261a4	-0.00593205
13	0x3c9fa9c7	0.019490136
14	0xb9873a74	-0.00025792758
15	0xbc4fa7ee	-0.012674315
16	0xbb9e6b2e	-0.004834554
17	0x3b387d0b	0.0028150703
18	0x3bd90143	0.006622465
19	0x3c8a0264	0.016846843
20	0xbb38791d	-0.002814836
21	0xbc924f24	-0.017860003
22	0xbc74032a	-0.0148933325
23	0x3c09b420	0.008404762
24	0x3c1970be	0.009365259
25	0x3c6364da	0.013879025
26	0xbcae7f46	-0.021300923
27	0xbbb9b0c1	-0.0056668227
28	0x3c4e5bd8	0.012595139
29	0x3c07018b	0.008240114
30	0x3c1b4054	0.009475786
31	0xbd23d351	-0.03999645
32	0xbc0317bc	-0.008001264
33	0xbc00840f	-0.007843985
34	0x3bdfed29	0.0068336916
35	0x3ade79a6	0.001697351
36	0x3c88c435	0.016695121
37	0xbcad0a5f	-0.02112311
38	0x3cd0e071	0.025497647
39	0xbba63e1f	-0.0050733234
40	0xbb86357a	-0.0040957304
41	0x3aadc8f6	0.0013258744
42	0xb9246eef	-0.00015681585
43	0x3bd79153	0.0065786033
44	0xbc1c5bc6	-0.009543365
45	0xbbd595d7	-0.0065181064
46	0x3b22e950	0.0024858303
47	0xb9727bb0	-0.00023124996
48	0x3c95be4b	0.018279215
49	0xbbf35887	-0.0074263248
50	0x3c614235	0.013748695
51	0x3c9a0cd6	0.018804949
52	0xbc822f28	-0.015891626
53	0xbb2b2454	-0.0026114183
54	0x3cd1ad6e	0.025595393
55	0xbc7939e1	-0.015211553
56	0x3b808e0e	0.0039231842
57	0x3b234620	0.0024913624
58	0x3bc8db9a	0.006129694
59	0xb9b80437	-0.00035098355
60	0x3ba295f2	0.0049617225
61	0xbc419d91	-0.011817352
62	0x3b0972fb	0.0020973075
63	0x3ae22908	0.001725466
64	0xba1bc284	-0.0005941766
65	0xbbf6b624	-0.007529037
66	0xbbd31c82	-0.0064426074
67	0xbc3dc43b	-0.0115824295
68	0x3d0ccd71	0.03437561
69	0xbb2c8ba3	-0.0026328347
70	0x3b66ba9a	0.0035206438
71	0xbca4dd65	-0.0201251

model/lstm/TensorArrayV2_1 f4 [120, 1, 32]
0	0x00000000	0.0
1	0x00000000	0.0
2	0x00000000	0.0
3	0x00000000	0.0
4	0x00000000	0.0
5	0x00000000	0.0
6	0x00000000	0.0
7	0x00000000	0.0
8	0x00000000	0.0
9	0x00000000	0.0
10	0x00000000	0.0
11	0x00000000	0.0
12	0x00000000	0.0
13	0x00000000	0.0
14	0x00000000	0.0
15	0x00000000	0.0
16	0x00000000	0.0
17	0x00000000	0.0
18	0x00000000	0.0
19	0x00000000	0.0
20	0x00000000	0.0
21	0x00000000	0.0
22	0x00000000	0.0
23	0x00000000	0.0
24	0x00000000	0.0
25	0x00000000	0.0
26	0x00000000	0.0
27	0x00000000	0.0
28	0x00000000	0.0
29	0x00000000	0.0
30	0x00000000	0.0
31	0x00000000	0.0
32	0x00000000	0.0
33	0x00000000	0.0
34	0x00000000	0.0
35	0x00000000	0.0
36	0x00000000	0.0
37	0x00000000	0.0
38	0x00000000	0.0
39	0x00000000	0.0
40	0x00000000	0.0
41	0x00000000	0.0
42	0x00000000	0.0
43	0x00000000	0.0
44	0x00000000	0.0
45	0x00000000	0.0
46	0x00000000	0.0
47	0x00000000	0.0
48	0x00000000	0.0
49	0x00000000	0.0
50	0x00000000	0.0
51	0x00000000	0.0
52	0x00000000	0.0
53	0x00000000	0.0
54	0x00000000	0.0
55	0x00000000	0.0
56	0x00000000	0.0
57	0x00000000	0.0
58	0x00000000	0.0
59	0x00000000	0.0
60	0x00000000	0.0
61	0x00000000	0.0
62	0x00000000	0.0
63	0x00000000	0.0
64	0x00000000	0.0
65	0x00000000	0.0
66	0x00000000	0.0
67	0x00000000	0.0
68	0x00000000	0.0
69	0x00000000	0.0
70	0x00000000	0.0
71	0x00000000	0.0
72	0x00000000	0.0
73	0x00000000	0.0
74	0x00000000	0.0
75	0x00000000	0.0
76	0x00000000	0.0
77	0x00000000	0.0
78	0x00000000	0.0
79	0x00000000	0.0
80	0x00000000	0.0
81	0x00000000	0.0
82	0x00000000	0.0
83	0x00000000	0.0
84	0x00000000	0.0
85	0x00000000	0.0
86	0x00000000	0.0
87	0x00000000	0.0
88	0x00000000	0.0
89	0x00000000	0.0
90	0x00000000	0.0
91	0x00000000	0.0
92	0x00000000	0.0
93	0x00000000	0.0
94	0x00000000	0.0
95	0x00000000	0.0
96	0x00000000	0.0
97	0x00000000	0.0
98	0x00000000	0.0
99	0x00000000	0.0
100	0x00000000	0.0
101	0x00000000	0.0
102	0x00000000	0.0
103	0x00000000	0.0
104	0x00000000	0.0
105	0x00000000	0.0
106	0x00000000	0.0
107	0x00000000	0.0
108	0x00000000	0.0
109	0x00000000	0.0
110	0x00000000	0.0
111	0x00000000	0.0
112	0x00000000	0.0
113	0x00000000	0.0
114	0x00000000	0.0
115	0x00000000	0.0
116	0x00000000	0.0
117	0x00000000	0.0
118	0x00000000	0.0
119	0x00000000	0.0
120	0x00000000	0.0
121	0x00000000	0.0
122	0x00000000	0.0
123	0x00000000	0.0
124	0x00000000	0.0
125	0x00000000	0.0
126	0x00000000	0.0
127	0x00000000	0.0
128	0x00000000	0.0
129	0x00000000	0.0
130	0x00000000	0.0
131	0x00000000	0.0
132	0x00000000	0.0
133	0x00000000	0.0
134	0x00000000	0.0
135	0x00000000	0.0
136	0x00000000	0.0
137	0x00000000	0.0
138	0x00000000	0.0
139	0x00000000	0.0
140	0x00000000	0.0
141	0x00000000	0.0
142	0x00000000	0.0
143	0x00000000	0.0
144	0x00000000	0.0
145	0x00000000	0.0
146	0x00000000	0.0
147	0x00000000	0.0
148	0x00000000	0.0
149	0x00000000	0.0
150	0x00000000	0.0
151	0x00000000	0.0
152	0x00000000	0.0
153	0x00000000	0.0
154	0x00000000	0.0
155	0x00000000	0.0
156	0x00000000	0.0
157	0x00000000	0.0
158	0x00000000	0.0
159	0x00000000	0.0
160	0x00000000	0.0
161	0x00000000	0.0
162	0x00000000	0.0
163	0x00000000	0.0
164	0x00000000	0.0
165	0x00000000	0.0
166	0x00000000	0.0
167	0x00000000	0.0
168	0x00000000	0.0
169	0x00000000	0.0
170	0x00000000	0.0
171	0x00000000	0.0
172	0x00000000	0.0
173	0x00000000	0.0
174	0x00000000	0.0
175	0x00000000	0.0
176	0x00000000	0.0
177	0x00000000	0.0
178	0x00000000	0.0
179	0x00000000	0.0
180	0x00000000	0.0
181	0x00000000	0.0
182	0x00000000	0.0
183	0x00000000	0.0
184	0x00000000	0.0
185	0x00000000	0.0
186	0x00000000	0.0
187	0x00000000	0.0
188	0x00000000	0.0
189	0x00000000	0.0
190	0x00000000	0.0
191	0x00000000	0.0
192	0x00000000	0.0
193	0x00000000	0.0
194	0x00000000	0.0
195	0x00000000	0.0
196	0x00000000	0.0
197	0x00000000	0.0
198	0x00000000	0.0
199	0x00000000	0.0
200	0x00000000	0.0
201	0x00000000	0.0
202	0x00000000	0.0
203	0x00000000	0.0
204	0x00000000	0.0
205	0x00000000	0.0
206	0x00000000	0.0
207	0x00000000	0.0
208	0x00000000	0.0
209	0x00000000	0.0
210	0x00000000	0.0
211	0x00000000	0.0
212	0x00000000	0.0
213	0x00000000	0.0
214	0x00000000	0.0
215	0x00000000	0.0
216	0x00000000	0.0
217	0x00000000	0.0
218	0x00000000	0.0
219	0x00000000	0.0
220	0x00000000	0.0
221	0x00000000	0.0
222	0x00000000	0.0
223	0x00000000	0.0
224	0x00000000	0.0
225	0x00000000	0.0
226	0x00000000	0.0
227	0x00000000	0.0
228	0x00000000	0.0
229	0x00000000	0.0
230	0x00000000	0.0
231	0x00000000	0.0
232	0x00000000	0.0
233	0x00000000	0.0
234	0x00000000	0.0
235	0x00000000	0.0
236	0x00000000	0.0
237	0x00000000	0.0
238	0x00000000	0.0
239	0x00000000	0.0
240	0x00000000	0.0
241	0x00000000	0.0
242	0x00000000	0.0
243	0x00000000	0.0
244	0x00000000	0.0
245	0x00000000	0.0
246	0x00000000	0.0
247	0x00000000	0.0
248	0x00000000	0.0
249	0x00000000	0.0
250	0x00000000	0.0
251	0x00000000	0.0
252	0x00000000	0.0
253	0x00000000	0.0
254	0x00000000	0.0
255	0x00000000	0.0

model/dense_2/BiasAdd/ReadVariableOp/resource f4 [256]
0	0x3d73a066	0.05947914
1	0x3d9d5663	0.076824926
2	0x3dec198a	0.11528309
3	0x3db78091	0.08960069
4	0x3dc984ef	0.09839808
5	0x3e022d6d	0.12712641
6	0xbbce72cb	-0.0063003055
7	0x3e182fde	0.1486201
8	0x3db86ed5	0.090055145
9	0x3d146a55	0.03623422
10	0x3d9b426e	0.0758103
11	0x3d7a81b8	0.061158866
12	0x3dda40b3	0.10656872
13	0x3e22457e	0.15846822
14	0x3d8ce05b	0.0687873
15	0x3e2cc43b	0.16871731
16	0x3dc765b7	0.097361974
17	0x3dd5145c	0.10404274
18	0x3d7c9e26	0.06167426
19	0x3d92fafe	0.07176779
20	0x3d7cbd79	0.061704133
21	0x3e0f5baf	0.13999818
22	0x3cc7cd42	0.024389867
23	0x3dc8a43a	0.09796949
24	0x3e0056d2	0.1253312
25	0x3d3b2488	0.045689136
26	0x3da5aabb	0.08089205
27	0x3cc36af3	0.023854708
28	0x3de2600d	0.110534765
29	0x3d33f98a	0.04393915
30	0x3d4b4cb3	0.049633693
31	0x3d5df507	0.054188754
32	0x3e265c61	0.16246177
33	0x3dfb5cb1	0.12273539
34	0x3dd55a8a	0.104176596
35	0x3e1bd0eb	0.15216415
36	0x3de46f24	0.11154011
37	0x3db06c07	0.086143546
38	0x3d820b38	0.06349796
39	0x3db430a7	0.08798342
40	0x3dec9776	0.115523264
41	0x3e05535d	0.13020082
42	0x3e17800c	0.1479494
43	0x3d5adfe2	0.053436168
44	0x3e072b72	0.13200167
45	0x3da5702d	0.080780365
46	0x3df63016	0.120208904
47	0x3ccdb074	0.025108553
48	0x3dca2fea	0.0987242
49	0x3d8f9c55	0.0701224
50	0x3dbbac2a	0.09163697
51	0x3de09487	0.10965829
52	0x3d051095	0.032486517
53	0x3dcff428	0.10153991
54	0x3d3e65aa	0.046483673
55	0x3d04a614	0.032384947
56	0x3de0ca10	0.1097604
57	0x3db0394d	0.08604679
58	0x3d09446e	0.033512525
59	0x3cbb51bb	0.02286612
60	0x3e1fcfe9	0.15606655
61	0x3d70adf8	0.05875966
62	0x3dc9cda9	0.0985368
63	0x3c09b1b3	0.008404183
64	0x3d8704bb	0.06592699
65	0x3e0382e7	0.12842904
66	0x3de401ba	0.11133142
67	0x3dd8eef6	0.10592453
68	0x3def1b82	0.116751686
69	0x3de4c786	0.111708686
70	0x3dc1a8f3	0.09456053
71	0x3d237817	0.03990945
72	0x3d826f09	0.063688345
73	0x3da3ecdd	0.080041625
74	0x3dd18bd5	0.10231749
75	0x3de26af3	0.11055555
76	0x3ce63d6b	0.028105458
77	0x3d965442	0.0734029
78	0x3d4c8988	0.049935848
79	0x3e2760ad	0.16345473
80	0x3d8524a3	0.065011285
81	0x3de67b97	0.11254042
82	0x3da24960	0.079241514
83	0x3dd9a428	0.106270134
84	0x3d2ad88f	0.041710433
85	0x3dd519e4	0.10405329
86	0x3d033aee	0.03203862
87	0x3deda048	0.11602837
88	0x3e03942f	0.12849496
89	0x3e4f4ddf	0.20244549
90	0x3e1306b5	0.14358027
91	0x3c493e04	0.012282852
92	0x3d819815	0.063278355
93	0x3d94cf3e	0.07266091
94	0x3dac5983	0.084155105
95	0x3e414af0	0.18876243
96	0x3dc1f5d1	0.09470714
97	0x3d0da2b1	0.034578983
98	0x3e5e3a44	0.21701914
99	0x3dc5df8f	0.09661781
100	0x3dc74bea	0.09731276
101	0x3e15f4c9	0.1464416
102	0x3d946acd	0.07246933
103	0x3dcbaec4	0.09945443
104	0x3ddffec7	0.10937267
105	0x3db38c7f	0.08767032
106	0x3d93cfe1	0.07217384
107	0x3dbcf059	0.0922553
108	0x3d8dbc35	0.06920663
109	0x3d9a2b6f	0.075278156
110	0xbb9da7d4	-0.0048112664
111	0x3da0398d	0.07823477
112	0x3da7bb73	0.0819005
113	0x3e291ede	0.16515681
114	0x3d6756d3	0.056479286
115	0x3db3e34a	0.08783586
116	0x3d89b2f9	0.067235895
117	0x3df8c752	0.12147392
118	0x3e27a3f8	0.16371143
119	0x3d9f1e64	0.077694684
120	0x3db33395	0.08750073
121	0x3da302ff	0.07959556
122	0x3d8d13bb	0.06888529
123	0x3e019590	0.1265471
124	0x3d5948e5	0.053048033
125	0x3d99e2c4	0.07513955
126	0x3dba940e	0.091102704
127	0x3d5a0d52	0.05323536
128	0x3d6f614e	0.058442406
129	0x3e1fdb52	0.15611008
130	0x3d12be1a	0.035825826
131	0x3d84470f	0.06458866
132	0x3dcde748	0.10053879
133	0x3dfca1c0	0.12335539
134	0x3e0745bb	0.13210194
135	0x3d029feb	0.03189079
136	0x3d97f6a9	0.074200936
137	0x3db8e558	0.09028119
138	0x3d84de34	0.064876944
139	0x3d840788	0.06446749
140	0x3db3395e	0.08751176
141	0x3dfd3152	0.12362923
142	0x3dfb71ba	0.12277551
143	0x3e02e473	0.12782459
144	0x3d9b0134	0.07568589
145	0x3dc95a27	0.09831648
146	0x3dfb298d	0.122637846
147	0x3df94318	0.12171
148	0x3c6a95a4	0.014317904
149	0x3d51cae9	0.0512189
150	0x3d5040b8	0.05084297
151	0x3d474ca4	0.048657075
152	0x3d6eed98	0.058332056
153	0x3da40a46	0.08009772
154	0x3e2aff4e	0.16698954
155	0x3d36d418	0.044635862
156	0x3db9de0e	0.09075557
157	0x3dff453f	0.124643795
158	0x3dd591c5	0.10428194
159	0x3e01554f	0.12630199
160	0x3dde59f0	0.10856998
161	0x3de021f5	0.10943977
162	0x3dfd10a5	0.1235669
163	0x3d718d4e	0.05897265
164	0x3e2053a2	0.15656903
165	0x3e1b5eef	0.15172933
166	0x3d27b1bf	0.040940996
167	0x3d8412c0	0.06448889
168	0x3e0da1bc	0.13831228
169	0x3e222a97	0.15836559
170	0x3da52291	0.08063234
171	0x3db1832d	0.08667598
172	0x3d7ce107	0.06173804
173	0x3dc242eb	0.0948542
174	0x3dc0b53d	0.094095685
175	0x3dd46b46	0.10372023
176	0x3e150ca6	0.14555606
177	0x3e04a5ac	0.12953824
178	0x3cc065cd	0.023486042
179	0x3db54f88	0.0885306
180	0x3dbbb080	0.09164524
181	0x3d945376	0.072424814
182	0x3d8a2daf	0.06746995
183	0x3db3bdbe	0.08776425
184	0x3e2b7d92	0.1674712
185	0x3cfc0f7e	0.030769106
186	0x3d8753c6	0.066077754
187	0x3d023634	0.031789973
188	0x3dc73182	0.0972624
189	0x3d158851	0.036506955
190	0x3e0405b0	0.12892795
191	0x3e0ebd51	0.13939406
192	0x3e3c0588	0.18361485
193	0x3d934038	0.07189983
194	0x3d9497da	0.07255526
195	0x3e0b9e17	0.13634525
196	0x3d55f2b4	0.052233413
197	0x3d443de3	0.047910582
198	0x3dd89b4f	0.10576498
199	0x3dd79315	0.105261005
200	0x3dc613ac	0.09671721
201	0x3d20bbde	0.039241664
202	0x3d047f29	0.032347832
203	0x3e024229	0.1272055
204	0x3d5fa64c	0.054601952
205	0x3ced72f7	0.028985484
206	0x3da26e94	0.07931247
207	0xbb7d35ad	-0.003863673
208	0x3daf5f58	0.08563107
209	0x3dbe818d	0.093020536
210	0x3d8b1174	0.06790438
211	0x3de39e85	0.111142196
212	0x3de922a6	0.11383562
213	0x3e2ee69f	0.17080162
214	0x3dfccf82	0.123442665
215	0x3e1d9aae	0.15391037
216	0x3de6b3af	0.11264741
217	0x3d3c3cba	0.04595635
218	0x3dcf9c43	0.101372264
219	0x3e1a6260	0.1507659
220	0x3e00b537	0.12569128
221	0x3d7ac367	0.061221506
222	0x3d69e509	0.05710319
223	0x3d3b09f9	0.045663808
224	0x3de54457	0.111946754
225	0x3dd49558	0.103800476
226	0x3dae76b9	0.08518738
227	0x3d1f61e6	0.038911723
228	0x3dd00156	0.10156505
229	0x3dc1e1cf	0.09466898
230	0x3da767db	0.08174106
231	0x3dc4b62d	0.0960506
232	0x3df6f710	0.12058842
233	0x3e036e97	0.12835155
234	0x3e12cd86	0.14336213
235	0x3d8b733c	0.068090886
236	0x3df29e13	0.118465565
237	0x3d430b1b	0.047618013
238	0x3d39a195	0.045320112
239	0x3d4bcbd0	0.049754918
240	0x3dc76e31	0.09737814
241	0x3dc6fc88	0.09716135
242	0x3d655a70	0.05599445
243	0x3df22ee0	0.11825347
244	0x3dd0d950	0.10197699
245	0x3dbdb4d6	0.09263007
246	0x3c65e100	0.014030695
247	0x3dc75cb3	0.09734478
248	0x3d932029	0.071838684
249	0x3d730f7a	0.05934093
250	0x3e22817d	0.15869708
251	0x3e2b9205	0.16754921
252	0x3e1b414e	0.1516163
253	0x3d9ba5f5	0.07600013
254	0x3dff030b	0.12451752
255	0x3dc0c53e	0.09412621

model/last_layer/BiasAdd/ReadVariableOp/resource f4 [31]
0	0x3b753b01	0.0037419202
1	0xbc9da388	-0.019243017
2	0xbc1c6205	-0.009544854
3	0x3c87b5c9	0.016566174
4	0xbc99a284	-0.018754251
5	0xba551c20	-0.0008129496
6	0xbc815014	-0.015785255
7	0x3c9987e3	0.018741554
8	0x3baffedd	0.0053709582
9	0xbcb887d3	-0.022525704
10	0xbbea5722	-0.0071515003
11	0x3a3326d4	0.0006834094
12	0xbd0dda23	-0.03463186
13	0xbbbc784c	-0.005751645
14	0x3c91108a	0.017708082
15	0x3c451aa2	0.012030276
16	0xbc2fd1d7	-0.010731182
17	0x3c212b91	0.009837047
18	0xbc1a0e8c	-0.009402882
19	0x3c24b160	0.010052055
20	0x3990f03f	0.00027644818
21	0x3c8a07d2	0.016849432
22	0xbb0653cc	-0.0020496724
23	0x3cbc5090	0.022987634
24	0xbcd76656	-0.026293915
25	0x3a7e09da	0.0009690799
26	0x3c1f1de7	0.009711719
27	0xbc9b4f93	-0.018958842
28	0x3c700784	0.014650229
29	0xbc45e30a	-0.012078056
30	0x3bef1f9f	0.0072974707

model/time_distributed_11/dense_1/BiasAdd/ReadVariableOp/resource f4 [64]
0	0xbd482223	-0.04886068
1	0xbc7d0aa6	-0.015444433
2	0xbd14d9af	-0.03634041
3	0x3b7d96e0	0.0038694665
4	0xbce7077e	-0.028201815
5	0xbc2119a7	-0.009832776
6	0xbc4f119c	-0.012638476
7	0xbd33c93b	-0.04389308
8	0xbd1467be	-0.03623175
9	0x3c15b88d	0.009138239
10	0xbccda9ad	-0.025105322
11	0xbc891c2f	-0.016737072
12	0xbd5152f2	-0.051104493
13	0xbc08f209	-0.008358487
14	0xbb8969a8	-0.0041935034
15	0xbd491f35	-0.049102027
16	0xbb7ff724	-0.003905722
17	0xbd86e2a5	-0.06586198
18	0xba1677f2	-0.0005739919
19	0xbd23729e	-0.03990423
20	0x3be60df6	0.0070207072
21	0x3caf045a	0.02136438
22	0xbcef79b1	-0.029232832
23	0xbc582a63	-0.0131936995
24	0xbce7a0cc	-0.028274916
25	0xbc05142c	-0.008122485
26	0xbd33d85f	-0.04390752
27	0xbcecaf2f	-0.028892128
28	0xbd3d2d76	-0.046185933
29	0x3c825151	0.015907915
30	0x3ad88d11	0.0016521533
31	0xbb0966a1	-0.0020965713
32	0xbd1091a6	-0.03529515
33	0x3b464a28	0.0030256603
34	0xbb5b26de	-0.0033439915
35	0x3b1a3294	0.0023528682
36	0xbc16fadd	-0.009215084
37	0xbc370bb8	-0.011172228
38	0xbcc3acb4	-0.023886062
39	0x39c46c5f	0.00037464776
40	0x3c732f05	0.014842753
41	0xbc96e887	-0.018421425
42	0xbcf4ea38	-0.02989684
43	0xbd4be44b	-0.049778264
44	0xbc4c5a24	-0.012472663
45	0xbd1263eb	-0.03573982
46	0xbcb89ee9	-0.022536712
47	0xbd50fa0d	-0.051019717
48	0xbd612094	-0.05496271
49	0xbc7aed3b	-0.015315349
50	0xbcfd5619	-0.030924844
51	0xbc6108bf	-0.013734995
52	0xba9fee2b	-0.0012201717
53	0xbc88c64b	-0.016696116
54	0xbccad4e0	-0.02475971
55	0xbc9d0ef7	-0.019172175
56	0xbc858427	-0.016298367
57	0xbce6a27f	-0.028153656
58	0x3c1403b2	0.009034084
59	0xbd4efbe3	-0.050533187
60	0xbd0ce5a0	-0.034398675
61	0x3bed98c0	0.0072508752
62	0xbccb54bb	-0.024820676
63	0xbc31fecd	-0.010863972

model/time_distributed_5/dense/BiasAdd/ReadVariableOp/resource f4 [32]
0	0xbd09b30b	-0.033618014
1	0xbc2897d4	-0.010290105
2	0x3d3ef6d0	0.046622097
3	0xbc4fee97	-0.012691162
4	0x3d5d77e4	0.054069415
5	0xbcde2f30	-0.02712211
6	0xbd2f5dd1	-0.04281408
7	0x3c8476fa	0.016170014
8	0x3d508cef	0.050915655
9	0x3c0e31d5	0.008678873
10	0x3d3415eb	0.043966215
11	0xbc9edeff	-0.019393442
12	0x3d18530b	0.03718857
13	0x3cf77401	0.030206682
14	0xbb9920fa	-0.0046731206
15	0xbd229e28	-0.03970161
16	0xbcc4c36e	-0.02401897
17	0xbbdb8ce1	-0.0067001437
18	0x3d06da42	0.03292299
19	0x3b3d900f	0.0028924977
20	0x3afa896f	0.0019114445
21	0xba829a73	-0.0009964242
22	0x3d8befae	0.06832825
23	0xbb8607ac	-0.00409027
24	0xbca3e39b	-0.020005992
25	0xbd5aed3d	-0.053448904
26	0x3ce9e8aa	0.028553326
27	0x3d22ad73	0.039716195
28	0x3bdc5c9d	0.0067249076
29	0xbd13e3a4	-0.036105767
30	0x3be3d145	0.006952437
31	0x3cab91d6	0.020943563

model/dense_2/MatMul f4 [256, 32]
0	0xbdfec28a	-0.12439449
1	0x3d453ca7	0.048153546
2	0x3e673fdb	0.22582953
3	0xbdc16ba3	-0.09444358
4	0x3e817e50	0.2529168
5	0x3d69fd4c	0.05712633
6	0xbe01b20c	-0.12665576
7	0x3e3ff197	0.18744503
8	0x3c422773	0.011850226
9	0xbd8449bd	-0.06459377
10	0x3df3a197	0.11896055
11	0x3dfbdd84	0.1229811
12	0xbd88fc59	-0.066887565
13	0x3db3ffbe	0.08789013
14	0xbcbf0007	-0.023315443
15	0xbd9311dc	-0.07181141
16	0x3c60b4c6	0.013714975
17	0x3e3f7265	0.18695982
18	0xbde3ae9a	-0.11117287
19	0x3d2bfa2c	0.04198663
20	0xbe5861f5	-0.21131118
21	0x3cd3910c	0.025826
22	0xbd60f3cc	-0.054920003
23	0xbe81f43e	-0.25381655
24	0x3e0511df	0.12995099
25	0x3e869a03	0.26289377
26	0x3df0ee05	0.117641486
27	0xbc910520	-0.01770264
28	0xbe8de90e	-0.2771687
29	0x3e6796b0	0.22616076
30	0xbe3895b7	-0.18025862
31	0xbdcb6c69	-0.09932787
32	0x3dc62a30	0.096760154
33	0x3e50fb0d	0.20408268
34	0x3dc0f243	0.09421208
35	0x3d30e89c	0.043190584
36	0xbe852ce8	-0.26010823
37	0x3d0bdcea	0.034146227
38	0xbdd992f1	-0.1062373
39	0x3e40ff17	0.18847309
40	0xbd9dc609	-0.07703788
41	0x3cd9251c	0.026506953
42	0xbe64a480	-0.22328377
43	0x3c5e9375	0.013584961
44	0x3e1eaf5f	0.15496586
45	0xbdacbbc5	-0.08434252
46	0x3e688b7a	0.22709456
47	0xbd3733dd	-0.044727195
48	0xbe82ee4f	-0.2557244
49	0x3dc599c2	0.096484676
50	0x3dcfc2ec	0.101446
51	0x3d9bc461	0.07605816
52	0x3d5b215f	0.053498622
53	0xbe1d6e9f	-0.1537423
54	0x3e6bf644	0.23043162
55	0x3d545da1	0.051847104
56	0xbe7fa466	-0.24965057
57	0xbe5bb02c	-0.21453923
58	0xbe7d0bd6	-0.24711546
59	0xbe0352fe	-0.12824628
60	0xbd4e9a81	-0.050440315
61	0xbe74a1e2	-0.23889878
62	0x3d57cc3c	0.052685007
63	0xbe9bb2b1	-0.30409768
64	0x3e30b88a	0.17257896
65	0x3e3398f9	0.17538823
66	0x3da4fb46	0.08055739
67	0xbe6385c3	-0.22218995
68	0xbd2196b3	-0.03945036
69	0x3c812cf1	0.0157685
70	0x3c9372ce	0.01799908
71	0x3da7ccf9	0.08193392
72	0xbe855e1d	-0.26048365
73	0x3e0677bb	0.13131611
74	0x3e8b335f	0.2718763
75	0xbda4d0ff	-0.08047675
76	0x3e7b21b0	0.2452457
77	0xbc7b380b	-0.015333186
78	0xbd30c2d4	-0.043154553
79	0x3e97e265	0.29664913
80	0xbbe90d87	-0.0071122083
81	0x3dee882c	0.116470665
82	0xbe19f4dc	-0.15034813
83	0x3c72926f	0.01480542
84	0xbd81fc25	-0.06346921
85	0x3e0e1a8e	0.13877317
86	0xbe7d682a	-0.24746767
87	0xbd9a67a9	-0.07539303
88	0x3df8c4f1	0.121469386
89	0x3e494b70	0.19657683
90	0xbc6722f6	-0.014107456
91	0x3eca7a06	0.39546221
92	0xbda350af	-0.079743735
93	0x3e05f59a	0.13081971
94	0x3e190697	0.1494392
95	0xbd867138	-0.065645635
96	0xbdbc4611	-0.091930516
97	0x3e1a62d3	0.15076761
98	0x3dbfa2e0	0.09357238
99	0xbd5bae9b	-0.053633314
100	0xbe06d0d5	-0.131656
101	0x3e70e830	0.23526073
102	0xbe172786	-0.1476117
103	0xbe37a01f	-0.17932175
104	0xbe485fde	-0.1956782
105	0xbe11feac	-0.14257306
106	0x3ec727ad	0.38897458
107	0xbdda89f7	-0.10670846
108	0x3e630f2c	0.22173756
109	0xbd9c9b91	-0.076468594
110	0x3d2f07f1	0.042732183
111	0xbd593096	-0.05302485
112	0x3d943290	0.072362065
113	0x3e06bec9	0.13158716
114	0xbd69fc1c	-0.057125196
115	0x3eb6df55	0.35717264
116	0xbe076e1a	-0.13225594
117	0xbc5bdab4	-0.013418842
118	0xbc0b4266	-0.008499717
119	0x3deca67e	0.11555193
120	0x3be006a4	0.006836729
121	0x3e3df76a	0.18551412
122	0x3e6683cf	0.22511218
123	0x3e919d3c	0.28440273
124	0x3dbaa6a7	0.09113818
125	0x3e817786	0.25286502
126	0xbe602ab9	-0.21891297
127	0x3d22be0b	0.03973202
128	0x3e737445	0.23774822
129	0x3dc1390d	0.0943471
130	0x39ba801a	0.00035572128
131	0xbe7a2f53	-0.24432115
132	0xbdd52a72	-0.104084864
133	0x3dd8fa7d	0.10594652
134	0xbd854914	-0.06508079
135	0x3d9632be	0.07333897
136	0xbe97601f	-0.29565522
137	0xbd80bd18	-0.06286067
138	0x3ea03c60	0.31296062
139	0x3cfa95ea	0.030589063
140	0x3eb821b5	0.35963216
141	0xbe325e5a	-0.17418805
142	0x3d559527	0.052144196
143	0x3e9d96d7	0.30779144
144	0x3b924ea6	0.004464942
145	0xbeb17894	-0.34662306
146	0xbdbc3147	-0.091890864
147	0x3c447c8b	0.011992584
148	0x3dc56cf5	0.096399225
149	0xbb21d646	-0.0024694367
150	0xbc11f62c	-0.00890879
151	0x3c53636b	0.012902121
152	0x3e45a087	0.19299518
153	0x3e146043	0.14489846
154	0xbd702828	-0.058632046
155	0x3e9717bf	0.29510304
156	0x3d8b9fc6	0.06817584
157	0x3cd8d298	0.026467606
158	0xbda36e79	-0.07980055
159	0xbe347245	-0.17621715
160	0x3d6785b1	0.056523982
161	0x3d610d61	0.0549444
162	0xbe0c556e	-0.13704464
163	0xbe1357b8	-0.14388931
164	0x3dea5bed	0.11443315
165	0xbe1fbee0	-0.15600157
166	0x3c97057b	0.01843523
167	0x3e0fe4ca	0.1405212
168	0xbdfc3be6	-0.12316112
169	0xbcb55181	-0.02213359
170	0x3da0bbd4	0.07848325
171	0x3ce637ea	0.028102834
172	0x3ed69bc1	0.41915706
173	0x3d0e9056	0.03480562
174	0x3c8b959e	0.017039116
175	0x3e6a73e4	0.22895771
176	0xbe8a398a	-0.26997024
177	0x3d0168e7	0.031594183
178	0x3e781c18	0.24229467
179	0xbd7bf91f	-0.061516877
180	0x3da71384	0.08158019
181	0x3dc1eea1	0.09469343
182	0xbe05d74c	-0.1307041
183	0x3e39633a	0.18104258
184	0xbe66bb2a	-0.22532335
185	0xbd5bfc48	-0.05370739
186	0xbe021e73	-0.12706928
187	0x3dbf8dbe	0.09353207
188	0x3e41a49b	0.18910448
189	0x3da937d4	0.082626015
190	0x3e4da061	0.20080711
191	0x3e131fd2	0.14367607
192	0x3e1fcc07	0.15605174
193	0xbdbb6575	-0.09150211
194	0x3c0b066a	0.008485416
195	0x3e4eb1a5	0.20184954
196	0x3d791072	0.0608067
197	0xbbcb49a2	-0.006203846
198	0x3df3ed62	0.119105116
199	0xbc9d63dc	-0.019212656
200	0x3e026f14	0.12737685
201	0x3dfe4e5d	0.1241729
202	0xbe0fdc9e	-0.14049003
203	0x3dc743e6	0.097297475
204	0xbe1eb8da	-0.15500203
205	0xbd086917	-0.033303346
206	0x3e04430d	0.12916203
207	0xbe4758ad	-0.19467421
208	0x3d8a3d8c	0.067500204
209	0x3e1bf90a	0.1523172
210	0x3d56173b	0.052268248
211	0xbd8ccdb6	-0.06875174
212	0x3e0d5715	0.1380275
213	0x3e165891	0.14682223
214	0xbd47eb2f	-0.048808273
215	0x3c70f65f	0.014707177
216	0x3d442533	0.04788704
217	0x3d0b90d7	0.034073677
218	0x3e76b844	0.2409373
219	0x3e1ce2fd	0.15320964
220	0x3cd311de	0.025765356
221	0xbde0f060	-0.10983348
222	0x3d685e1f	0.056730386
223	0xbe6de93c	-0.23233503
224	0x3e40c1b1	0.18823887
225	0x3e4b140a	0.19831863
226	0xba71e01d	-0.0009226816
227	0xbe4c5203	-0.1995316
228	0xbd7dfa92	-0.06200654
229	0xbd4cec43	-0.050030004
230	0xbde3b949	-0.11119325
231	0x3e83df53	0.2575632
232	0xbd946918	-0.072466075
233	0x3e3800b0	0.17969012
234	0x3dbf2b75	0.09334461
235	0x3df8fb35	0.12157289
236	0xbbb2db03	-0.005458237
237	0xbd3dd888	-0.04634908
238	0x3edaf117	0.42762062
239	0x3d74aca7	0.059734967
240	0xbe2155bd	-0.15755363
241	0x3daeff9d	0.08544848
242	0xbdda40c2	-0.10656883
243	0xbba431fa	-0.0050108405
244	0x3dc09fec	0.09405503
245	0x3d61bf7c	0.055114254
246	0xbe4eb82a	-0.2018744
247	0xbe8ccbbf	-0.27499196
248	0x3cc0ef82	0.023551706
249	0x3deb82f0	0.11499584
250	0xbe7c71fc	-0.24652857
251	0xbd668c49	-0.05628613
252	0xbe8b2256	-0.27174634
253	0xbd17e3a9	-0.037082348
254	0x3e011fa2	0.12609723
255	0xbddeaaa9	-0.108723946

model/last_layer/MatMul f4 [31, 256]
0	0xbe3da9b0	-0.18521762
1	0xbce1bf1b	-0.027556947
2	0xbde560c6	-0.11200099
3	0xbe081d11	-0.13292338
4	0xbd91b5f1	-0.07114781
5	0xbd4b06d8	-0.049567074
6	0x3db1270c	0.08650026
7	0xbddd5746	-0.10807662
8	0x3e0210c7	0.12701713
9	0xbd6a9a18	-0.05727586
10	0x3d0b06fc	0.033942208
11	0x3cb661f1	0.022263499
12	0xbb99f375	-0.004698212
13	0xbd738fee	-0.059463434
14	0xbd1a298a	-0.03763727
15	0xbe5210f6	-0.20514283
16	0x3bf9bc38	0.0076213144
17	0x3d1db1b2	0.03849954
18	0xbda8f39c	-0.0824959
19	0xbde3174d	-0.11088429
20	0xbe25c0d6	-0.16186842
21	0xbe2c1e80	-0.1680851
22	0xbdd58159	-0.10425062
23	0x3d669c3c	0.05630134
24	0xbd0dd0f4	-0.0346231
25	0xbcb6e0d6	-0.022324007
26	0xbe69a969	-0.22818531
27	0xbd6e2aa4	-0.058146134
28	0xbdc59faf	-0.09649598
29	0x3da36b3d	0.079794385
30	0x3da7da2f	0.08195912
31	0xbd6e32f2	-0.058154054
32	0xbdce0ad8	-0.10060662
33	0xbe65a6d3	-0.2242692
34	0x3c508a80	0.0127283335
35	0xbdfc68cd	-0.12324677
36	0xbe0ed468	-0.13948214
37	0xbc16fa17	-0.0092148995
38	0xbcfaa647	-0.030596865
39	0xbd1d5a80	-0.038416386
40	0xbe21ba99	-0.15793838
41	0x3c4f8f47	0.012668437
42	0xbe6d6779	-0.23184003
43	0xbc78b077	-0.015178791
44	0xbe08a792	-0.13345173
45	0xbcd06396	-0.025438111
46	0xbea8a38b	-0.32937273
47	0x3dd3e7d9	0.10346956
48	0xbe96761c	-0.29386985
49	0xbe27442e	-0.16334602
50	0xbcfdb40f	-0.030969648
51	0x3d1dc76a	0.038520254
52	0x3d0e3b53	0.034724545
53	0xbe2d19d0	-0.16904378
54	0x3dc86c67	0.09786301
55	0xbe5486df	-0.20754574
56	0xbd8e9fd0	-0.069640756
57	0xbe654e15	-0.22393067
58	0xbe04ad1f	-0.12956665
59	0x3d8fe8b8	0.070268095
60	0x3c1f0563	0.009705874
61	0xbe026c41	-0.12736608
62	0xbd5f692c	-0.05454366
63	0x3d7a009d	0.06103574
64	0x3d5893fb	0.0528755
65	0xbdd15180	-0.10220623
66	0xbe8c4234	-0.2739426
67	0x3d09bf0c	0.033629462
68	0x3b728ba6	0.0037009506
69	0x3c5e64f5	0.013573875
70	0xbd7561a8	-0.059907585
71	0xbd56f1fd	-0.05247687
72	0xbe1e8a2c	-0.15482396
73	0xbd88394b	-0.06651553
74	0xbd876b59	-0.06612272
75	0xbcfe6625	-0.031054566
76	0xbe3964d7	-0.18104874
77	0x3d82fb74	0.06395617
78	0xba9741d9	-0.001154001
79	0x3cef2d61	0.029196443
80	0xbe4dab3f	-0.20084856
81	0xbc933a82	-0.017972235
82	0xbe05ba67	-0.13059388
83	0xbcbcbf0d	-0.023040319
84	0x3bf24942	0.007393987
85	0x3cb39728	0.021922663
86	0xbdc922f9	-0.09821124
87	0xbe5823f5	-0.21107467
88	0xbe3ae87b	-0.18252747
89	0xbe21ed0b	-0.15813081
90	0xbe5660d2	-0.20935372
91	0x3d51b358	0.051196426
92	0x3e53f8e2	0.2070041
93	0x3cefc4c1	0.029268624
94	0xbe3c3bec	-0.18382233
95	0xbdba462f	-0.09095418
96	0x3d95458a	0.07288654
97	0x3d6c1c5b	0.05764423
98	0xbe58c820	-0.21170092
99	0xbdc246c2	-0.09486152
100	0xbe774427	-0.24147092
101	0xbbcf773e	-0.0063313534
102	0x3c7b873d	0.015352068
103	0xbecb0a59	-0.39656332
104	0x3bbdeaa6	0.0057957945
105	0x3cb972e1	0.022637786
106	0xbd67a09c	-0.056549653
107	0x3d13cd4a	0.03608445
108	0x3c938831	0.018009277
109	0x3da328dc	0.07966778
110	0x3cc0e389	0.023545997
111	0x3c907464	0.017633624
112	0x3de5464d	0.111950494
113	0xbe26a2c9	-0.16273035
114	0xbb301a39	-0.0026871099
115	0xbd3d478c	-0.04621081
116	0xbdb27fd1	-0.08715785
117	0xbde8fa2d	-0.11375842
118	0xbd9dccdc	-0.077050894
119	0x3cb081f6	0.021546345
120	0x3d9fdb90	0.0780555
121	0xbd835578	-0.06412786
122	0x3cfe4b47	0.031041754
123	0x3cad8431	0.021181198
124	0xbe3952b8	-0.18097961
125	0x3c30a692	0.010781901
126	0xbe1cda70	-0.15317702
127	0xbb92d7f9	-0.0044813124
128	0xbd00f5bf	-0.03148436
129	0x3cc3ecbf	0.0239166
130	0x3dec1c0c	0.11528787
131	0x3d02f8f8	0.031975716
132	0xbe742e74	-0.23845845
133	0x3c50bdea	0.012740592
134	0x3cb852f4	0.022500493
135	0x3d0d55b6	0.03450557
136	0x3a7b2dda	0.00095817226
137	0xbd7b27ed	-0.061317373
138	0xbe1eaf03	-0.15496449
139	0x3bcc82c8	0.0062411763
140	0x3da3dabe	0.08000706
141	0x3d8b924a	0.06815012
142	0xbc9a17f7	-0.018810255
143	0x3d4a51c7	0.049394395
144	0x3d4c9281	0.049944405
145	0x3de6789c	0.11253473
146	0xbda11528	-0.07865363
147	0xbe4023de	-0.18763682
148	0xbdb05a43	-0.08610966
149	0xbdaca63f	-0.084301464
150	0xbc12931c	-0.008946206
151	0x3c5af82e	0.013364835
152	0x3db8aa82	0.09016897
153	0xbc8c6ad6	-0.017140787
154	0xbcd8c9bf	-0.026463388
155	0x3d99b8fd	0.07505987
156	0xbe015dcf	-0.12633441
157	0xbdcb48d0	-0.09925997
158	0xbe08b147	-0.13348876
159	0xbccee6ac	-0.025256477
160	0xbd258d31	-0.040417854
161	0x3d6ae868	0.057350546
162	0xbdc26262	-0.09491421
163	0xbd9ab496	-0.07553975
164	0xbe1b24f2	-0.15150812
165	0xbe5c4067	-0.21508943
166	0x3d7c102b	0.061538856
167	0x3d915f12	0.07098211
168	0x3e0d0956	0.13773093
169	0x3da0644a	0.078316286
170	0xbbf77c1f	-0.007552638
171	0x3d3d0885	0.046150703
172	0xbe5c109a	-0.21490708
173	0x3d08b492	0.03337533
174	0xbc81ebbb	-0.015859475
175	0xbdda4394	-0.10657421
176	0xbe281c6a	-0.16417089
177	0xbe8d79ba	-0.27631932
178	0xbe020627	-0.1269766
179	0x3c945fba	0.018112052
180	0x3d6f3c41	0.058407072
181	0xbe108a7f	-0.14115332
182	0xbd8d8757	-0.0691058
183	0x3d9c5d30	0.076349616
184	0xbdb3b25c	-0.08774254
185	0xbd0053a2	-0.03132976
186	0xbcaa4142	-0.02078307
187	0xbd0fb428	-0.03508392
188	0x3d4d971b	0.050192934
189	0x3d45a73b	0.048255187
190	0x3c8656b0	0.016398758
191	0x3da52b32	0.080648795
192	0xbd9c6d42	-0.07638027
193	0x3cf8c3b1	0.03036675
194	0xbbd2fe0f	-0.0064389776
195	0xbe2de8b2	-0.16983297
196	0x3dddc16f	0.1082791
197	0x3c91e3fb	0.017808905
198	0x3e03c35c	0.12867492
199	0xbd8d54ca	-0.06900938
200	0xbd929f1e	-0.071592554
201	0xbcbd86fe	-0.023135658
202	0x3d622375	0.055209596
203	0x3d3a3a42	0.045465715
204	0x3b0235cc	0.0019868491
205	0x3d0ca55e	0.034337394
206	0xbd7cf277	-0.06175467
207	0x3d793cbc	0.060848936
208	0xbdcc6da6	-0.09981851
209	0xbc4f7cb6	-0.012664011
210	0xbd6ba324	-0.05752863
211	0xbd3776c6	-0.044791006
212	0xbe40ee8a	-0.18840995
213	0xbe446a87	-0.19181262
214	0xbd8888ea	-0.06666739
215	0xbe2c19dd	-0.16806741
216	0xbd50b0ba	-0.05094979
217	0xbbe4625d	-0.0069697336
218	0x3e0d1f6f	0.13781522
219	0xbd52339c	-0.05131875
220	0xbe1a7dd1	-0.15087058
221	0x3d393c97	0.0452238
222	0x3dbbfd22	0.091791406
223	0xbd4916bb	-0.049093943
224	0xbd507859	-0.050896022
225	0xbdeddb81	-0.11614133
226	0xbe75d485	-0.24006851
227	0x3cefb637	0.029261691
228	0xba1726a2	-0.00057659496
229	0xbca1733d	-0.01970827
230	0x3dc06b9e	0.09395526
231	0xbd269ba2	-0.040675767
232	0xbdbea359	-0.093085
233	0xbdc4d6cd	-0.096112825
234	0xbdfb7fa3	-0.12280204
235	0x3cf6bac4	0.030118354
236	0xbc243646	-0.010022705
237	0x3abe101d	0.0014500652
238	0x3dc21807	0.09477239
239	0x3e026354	0.12733203
240	0xbd0c5a8a	-0.034266032
241	0xbcc051e1	-0.023476543
242	0xbd2efbf5	-0.042720754
243	0xbc0b07a0	-0.008485705
244	0xbda2724c	-0.07931957
245	0xbe5ab8de	-0.21359584
246	0xbdba84ba	-0.09107347
247	0xbdc37898	-0.09544486
248	0xbe71f452	-0.23628357
249	0xbd0158dd	-0.031578887
250	0xbd8995a0	-0.06717992
251	0xbcc66bad	-0.024221266
252	0xbd9860af	-0.07440316
253	0xbdf63370	-0.1202153
254	0x3d47ffeb	0.048828047
255	0x3c0ef9f4	0.008726586

model/time_distributed_11/dense_1/MatMul f4 [64, 1488]
0	0x3dd5d9ee	0.104419574
1	0x3e245882	0.16049388
2	0x3d99985f	0.074997656
3	0x3c532c07	0.012888915
4	0x3cbf13dc	0.0233249
5	0x3d947ebe	0.07250737
6	0x3d80beab	0.06286367
7	0x3dfcd1e9	0.12344725
8	0x3e04b8ff	0.12961195
9	0xbd02c04b	-0.031921666
10	0x3da40605	0.08008961
11	0x3d5946e8	0.053046137
12	0x3d9cf6a0	0.076642275
13	0x3b1c5cf0	0.0023859106
14	0x3d5661b9	0.05233929
15	0x3d33f001	0.043930057
16	0x3dd2cff1	0.10293568
17	0x3e1950ad	0.14972182
18	0x3d802e50	0.062588334
19	0x3c4afc63	0.012389275
20	0xbcf3f089	-0.029777782
21	0x3c6b26cb	0.014352511
22	0x3da2f6da	0.079572394
23	0x3e0498e8	0.12948954
24	0xbb23d8de	-0.002500109
25	0xbc33a9d2	-0.010965781
26	0x3da3f596	0.08005826
27	0xb9de6b90	-0.0004242328
28	0x3c59925a	0.013279522
29	0x3caecab2	0.021336887
30	0x3df04b55	0.117331184
31	0x3d722b39	0.05912325
32	0x3d3b3733	0.04570694
33	0x3d8d9801	0.06913758
34	0xbc305687	-0.010762817
35	0xbd7250aa	-0.05915896
36	0x3ca93f97	0.020660205
37	0xbbc61772	-0.0060452754
38	0x3dd16ded	0.10226045
39	0x3e1b5d2b	0.1517226
40	0x3dc8d9c6	0.09807162
41	0x3cc691aa	0.02423938
42	0x3c8a7678	0.016902193
43	0x3cbb1db9	0.022841321
44	0x3cda5f00	0.026656628
45	0x3d116946	0.035500787
46	0x3d9e20d1	0.07721103
47	0x3dac23c9	0.08405263
48	0x3ca9f7ce	0.020748045
49	0xbcc64088	-0.024200693
50	0x381be024	3.7163627e-05
51	0x3c6e5885	0.014547472
52	0x3d3837a8	0.044974953
53	0x3dc8afaa	0.0979913
54	0x3d1dd7d2	0.0385359
55	0x3d85d180	0.065340996
56	0x3d89fb36	0.06737368
57	0x3d842a92	0.06453432
58	0x3dc23c3d	0.09484146
59	0xbd0df0c0	-0.034653425
60	0x3c33f212	0.010983007
61	0x3de29223	0.110630296
62	0x3da25001	0.07925416
63	0x3c2a98c1	0.010412396
64	0x3d9105b7	0.07081168
65	0x3c7bb004	0.01536179
66	0x3cd9e520	0.026598513
67	0x3d35e334	0.04440613
68	0x3d0989ac	0.03357856
69	0x3de4d2c5	0.111730136
70	0x3dbaafe8	0.09115583
71	0x3cadbb1e	0.021207388
72	0x3d429c40	0.047512293
73	0x3d257b92	0.04040105
74	0x3e3c5201	0.18390657
75	0x3d7fe705	0.062476177
76	0x3e3f6d63	0.18694071
77	0x3d9bbe9a	0.07604714
78	0x3dd20785	0.102553405
79	0x3d87a54f	0.06623327
80	0x3ca859a3	0.020550555
81	0x3d5d9f25	0.05410685
82	0x3dc6b4d6	0.097024605
83	0xbd5643b5	-0.052310664
84	0xbc536f3c	-0.012904938
85	0xbb9f9c52	-0.0048709298
86	0x3d8c04db	0.068368636
87	0x3db71c34	0.08940926
88	0x3e05a855	0.13052495
89	0x3dd5e91d	0.104448535
90	0x3dc15f96	0.0944206
91	0x3de9019f	0.11377262
92	0x3d84f1b9	0.064914174
93	0xbc8ae320	-0.016954005
94	0x3d94fefe	0.072751984
95	0x3db58864	0.08863905
96	0x3d6debad	0.058086086
97	0x3d3dbf89	0.04632524
98	0x3d764da2	0.06013263
99	0x3c185a2c	0.009298842
100	0xbd12d7f5	-0.035850484
101	0x3da480e1	0.08032394
102	0x3baaf80c	0.005217558
103	0x3d19a24d	0.037508298
104	0x3e269c6d	0.16270609
105	0x3cb7caa4	0.022435494
106	0x3d3bc9d4	0.045846775
107	0x3dc4b789	0.09605319
108	0x3cf0697e	0.029347178
109	0x3d62e6ef	0.055396017
110	0x3dc6fc3b	0.09716078
111	0x3e14a29f	0.1451516
112	0xbafc807e	-0.0019264368
113	0x3d90ff7a	0.07079978
114	0x3cd049a7	0.025425745
115	0x3cada08d	0.02119472
116	0xbd8291ad	-0.06375442
117	0x3c2b22eb	0.010445337
118	0x3dca8279	0.09888167
119	0x3e07daac	0.1326701
120	0xbbc598c1	-0.0060301726
121	0x3c0c2d3f	0.008555709
122	0x3db8e27c	0.090275735
123	0xbc2ba12d	-0.010475439
124	0x3d08fff2	0.033447213
125	0xbca5f22d	-0.02025708
126	0x3db8b7c7	0.09019428
127	0x3d9a765a	0.07542105
128	0x3d886d2f	0.0666145
129	0x3db81490	0.08988297
130	0x3d82125e	0.063511595
131	0xbd8435a2	-0.06455542
132	0xbd1a4d85	-0.037671585
133	0x3c0526c6	0.00812692
134	0x3dd55871	0.104172595
135	0x3ddc4aa7	0.10756426
136	0x3dbfafbc	0.093596905
137	0x3d3f854f	0.046757992
138	0x3c9320a2	0.017959896
139	0x3d5ed825	0.05440535
140	0x3e3c5a98	0.18393934
141	0x3d3a71d6	0.04551872
142	0x3dbea592	0.09308924
143	0x3e6356da	0.222011
144	0xbbb9c29c	-0.005668951
145	0x3db5cfab	0.088775
146	0x3d1615e4	0.03664197
147	0xbd8fdd15	-0.0702459
148	0xbcfc87d0	-0.03082648
149	0xbcb4831c	-0.022035174
150	0x3de5fd2f	0.112299316
151	0x3e12b4c1	0.14326765
152	0x3dac8f76	0.084258005
153	0xbd0b2849	-0.033973966
154	0x3db938ee	0.090440616
155	0x3e166684	0.14687544
156	0x3dc1cf7e	0.09463404
157	0xbcc613f4	-0.024179436
158	0x3e0eb44e	0.13935968
159	0x3e355e00	0.1771164
160	0x3d066b52	0.032817192
161	0x3de8252e	0.113352165
162	0x3e0af311	0.13569285
163	0xbd2145ad	-0.03937309
164	0x3d67c440	0.056583643
165	0xbd5c575c	-0.05379425
166	0x3de779fc	0.113025635
167	0x3dbbdf72	0.09173478
168	0x3e07f8ce	0.13278505
169	0xbcac24c0	-0.021013618
170	0x3daa163b	0.083050214
171	0x3dc41f74	0.09576312
172	0x3d5a1d41	0.053250555
173	0x3dcac710	0.099012494
174	0x3de2f10c	0.11081132
175	0x3e1709ab	0.14749782
176	0x3cb9751d	0.022638852
177	0x3d40f5ea	0.047109522
178	0x3d3f1948	0.04665497
179	0xbd8e7c3b	-0.06957289
180	0x3d634c9b	0.05549298
181	0x3ca78c85	0.020452747
182	0x3d4b9744	0.049704805
183	0x3e1dbe47	0.15404616
184	0x3e030724	0.12795693
185	0xbd3da62f	-0.046301063
186	0x3d309b98	0.043117136
187	0xbb2e0782	-0.0026554768
188	0x3d8dcbf8	0.069236696
189	0x3dd78ecf	0.105252855
190	0x3d89743b	0.06711622
191	0x3dc4aef2	0.09603681
192	0x3da3cb2d	0.07997737
193	0x3dcff5b8	0.10154289
194	0x3de91e29	0.11382706
195	0x3c90ffb1	0.017700048
196	0x3d2f9a23	0.042871606
197	0xbc8b9fa9	-0.017043905
198	0x3d97de2e	0.07415424
199	0x3e18d1e1	0.14923812
200	0x3d732de7	0.059369948
201	0xbd533367	-0.051562693
202	0x3d357a90	0.044306338
203	0x3ca8dff2	0.020614598
204	0x3df7e0f2	0.12103452
205	0x3d2cbc89	0.04217199
206	0x3d3ee611	0.046606127
207	0x3dd0e114	0.1019918
208	0x3d9a9b95	0.07549206
209	0x3daf6f9a	0.08566208
210	0x3dca7c32	0.098869696
211	0xbd440e93	-0.04786546
212	0x3d8a1c71	0.06743706
213	0x3daa427b	0.083134614
214	0x3d86761d	0.06565497
215	0x3dbb57a4	0.091475755
216	0x3df58bcc	0.11989555
217	0xbd5125ea	-0.05106155
218	0xbd0e71d7	-0.034776535
219	0x3da1097b	0.078631364
220	0x3d72edde	0.05930888
221	0x3cb380f8	0.021912083
222	0x3b121289	0.002228888
223	0x3d7169ea	0.0589389
224	0x3e0d37f6	0.13790879
225	0x3dc78992	0.09743036
226	0x3aca8eee	0.0015453973
227	0x3d653d7e	0.055966847
228	0xbcf8b2c0	-0.030358672
229	0x3dd33354	0.103125244
230	0x3c91e365	0.017808625
231	0x3d6ca018	0.057769865
232	0x3dc536fc	0.09629628
233	0x3cd3eda6	0.025870156
234	0xbc283e9f	-0.010268836
235	0x3d7f7056	0.06236299
236	0x3c85a793	0.016315257
237	0x3d9e82e8	0.07739812
238	0x3d74c140	0.05975461
239	0x3d12c1f4	0.0358295
240	0x3dddff8d	0.10839758
241	0x3df0e961	0.117632635
242	0x3d44b4f2	0.048024125
243	0x3cd063d9	0.025438236
244	0x3d92bacf	0.07164537
245	0x3cb7cd45	0.022436747
246	0xbcb5c72b	-0.022189697
247	0x3dd9176b	0.1060017
248	0x3bf1e74c	0.007382309
249	0x3d6b1588	0.05739358
250	0xbd1d3ae4	-0.03838624
251	0xba204869	-0.00061143056
252	0xbd02f599	-0.0319725
253	0x3cd82ee7	0.026389552
254	0x3d85648f	0.06513321
255	0x3da0e4b3	0.07856121

model/time_distributed_3/batch_normalization/FusedBatchNormV3 f4 [8]
0	0xbfb60fca	-1.4223568
1	0xbfbcf8d6	-1.4763439
2	0xbfd2d2ca	-1.6470578
3	0xbfc3639f	-1.5264777
4	0xbfe632d1	-1.7984258
5	0xbfc4bc04	-1.5369878
6	0xbfb3ff27	-1.4062241
7	0xbfdc5eaf	-1.7216395

model/time_distributed_3/batch_normalization/FusedBatchNormV31 f4 [8]
0	0x3f6b52e4	0.91923356
1	0x3f7ced5b	0.98799676
2	0x3f82597c	1.0183558
3	0x3f778f56	0.9670309
4	0x3f862ad5	1.0481821
5	0x3f7e08e8	0.9923234
6	0x3f84144f	1.0318698
7	0x3f78c778	0.97179365

model/time_distributed_5/dense/MatMul f4 [32, 168]
0	0x3e25efa0	0.16204691
1	0x3da4043a	0.08008619
2	0x3df2146a	0.118203
3	0xbdef6830	-0.11689794
4	0x3e4a12c5	0.19733723
5	0x3ca82507	0.020525469
6	0x3c9d2c96	0.0191863
7	0x3e38f8b7	0.18063627
8	0xbbb5227f	-0.005527794
9	0x3c988017	0.018615765
10	0xbe5da347	-0.21644317
11	0x3e57f414	0.21089202
12	0x3d60af98	0.05485496
13	0xbc6c5668	-0.014424898
14	0xbe678e53	-0.22612886
15	0x3e40d22b	0.18830173
16	0xbe0b9b28	-0.13633406
17	0xbe08df12	-0.13366345
18	0xbe65acd1	-0.22429205
19	0xbea02e56	-0.31285352
20	0x3e8a0d15	0.26963106
21	0x3df4de08	0.119564116
22	0x3dd02e3c	0.101650685
23	0xbdce798d	-0.10081778
24	0x3d4c170d	0.04982667
25	0xbd02d505	-0.031941433
26	0xbda6bc6f	-0.081414096
27	0xbe07b81c	-0.13253826
28	0x3e23495a	0.1594595
29	0x3db39077	0.08767789
30	0xbdf3e808	-0.11909491
31	0x3d9f1677	0.07767957
32	0xbe4d5956	-0.2005361
33	0x3dd4f0d7	0.10397499
34	0x3e0136d7	0.12618576
35	0xbe7e1ec6	-0.24816427
36	0xbda1ebf5	-0.07906333
37	0x3d221a96	0.039576136
38	0xbe3c8310	-0.18409371
39	0xbddac234	-0.106815726
40	0x3e19e22a	0.15027681
41	0xbce5d3fb	-0.028055182
42	0x3c2508fb	0.010072942
43	0xbe202d73	-0.15642338
44	0x3e0251fa	0.12726584
45	0x3dcd8769	0.10035593
46	0x3de72991	0.11287225
47	0x3b5c0c18	0.0033576544
48	0x3d2a24dd	0.04153906
49	0xbdfb3968	-0.12266809
50	0xbcd21986	-0.025646936
51	0x3de29bc4	0.11064866
52	0xbe150376	-0.14552101
53	0xbe3350c7	-0.17511283
54	0x3d8bf574	0.06833926
55	0xbc34db88	-0.011038668
56	0x3ddeac27	0.10872679
57	0x3ce26d8f	0.027640132
58	0xbe17b16f	-0.1481378
59	0xbe5f3477	-0.21797357
60	0x3d265d69	0.040616427
61	0xbd9ce92f	-0.07661664
62	0x3b847f49	0.004043494
63	0xbda55363	-0.080725454
64	0x3d846f05	0.06466488
65	0xbdbad029	-0.09121735
66	0x3e33798c	0.17526835
67	0xbd7e1f80	-0.06204176
68	0xbe6f79ff	-0.23386382
69	0x3e171f07	0.1475793
70	0x3cd5191a	0.026012946
71	0x3d2ee6a9	0.042700443
72	0xbe0759d4	-0.1321786
73	0xbdfc2f38	-0.12313694
74	0xbe144465	-0.14479215
75	0x3d49ee01	0.049299244
76	0xbcadb810	-0.021205932
77	0x3c596410	0.013268486
78	0xbdb0e912	-0.08638205
79	0xbe3aff9f	-0.18261574
80	0x3e127ff4	0.14306623
81	0x3c7408ad	0.014894647
82	0xbd93cc1c	-0.07216665
83	0x3c7de09e	0.015495447
84	0x3d567183	0.052354347
85	0xbe627e55	-0.22118504
86	0x3ddd3f3f	0.10803079
87	0xbc9da342	-0.019242886
88	0xbe62bfad	-0.22143431
89	0x3d9ec6a7	0.07752734
90	0xbe3a6e44	-0.18206125
91	0xbd3975a2	-0.0452782
92	0x3e19caab	0.15018718
93	0x3dd27b61	0.10277439
94	0xbe2c1b3c	-0.16807264
95	0xbe900d40	-0.2813511
96	0x3cf9c845	0.030491004
97	0x3dc36edb	0.095426284
98	0x3cc0ea2b	0.02354916
99	0x3e1c74dc	0.15278953
100	0xbd2363d1	-0.039890114
101	0x3c37dde2	0.011222335
102	0x3e141e9d	0.14464803
103	0xbdb866d4	-0.09003988
104	0x3e0dde63	0.13854365
105	0xbd741a64	-0.05959548
106	0xbe18fe33	-0.1494072
107	0xbc09b6e4	-0.008405421
108	0xbcbd7f3e	-0.023131963
109	0xbd6a9dba	-0.057279326
110	0x3d6c69d8	0.057718128
111	0x3d40a663	0.04703368
112	0xbd289dd2	-0.041166134
113	0x3d4d05bb	0.050054293
114	0xbde87646	-0.11350684
115	0xbe370242	-0.17871955
116	0x3e29ce6a	0.16582647
117	0x3da64d93	0.08120265
118	0x3db149ec	0.086566776
119	0x3dcf26f8	0.101148546
120	0xbd795a6e	-0.060877256
121	0xbe153cd4	-0.14573985
122	0xbd97fd43	-0.07421353
123	0xbe3842da	-0.17994252
124	0xbdb1297d	-0.086504914
125	0xbc8d90cb	-0.017280957
126	0xbd67bb40	-0.05657506
127	0xbe36df3d	-0.17858596
128	0xbd2bae74	-0.04191442
129	0x3dc204c7	0.094735675
130	0x3dd47bce	0.10375176
131	0xbe64aff7	-0.2233275
132	0xbe01b14e	-0.12665293
133	0xbe35a10c	-0.17737216
134	0x3e3b2ffe	0.18280026
135	0xbe34fd9c	-0.1767487
136	0x3da7e7fc	0.081985444
137	0xbc56b8e9	-0.013105609
138	0xbdfac76e	-0.122450694
139	0x3da2f1e8	0.07956296
140	0x3cb52c31	0.022115799
141	0x3d95ff03	0.0732403
142	0xbe1ee1ae	-0.15515777
143	0xbe0e2697	-0.13881908
144	0x3ce70d48	0.028204575
145	0xbdae1e93	-0.08501925
146	0xbdedb3e7	-0.11606579
147	0xb71fd3e0	-9.5264695e-06
148	0xbe35b1a3	-0.17743544
149	0x3d9e7aa1	0.07738233
150	0xbe197d27	-0.14989148
151	0xbe03199e	-0.12802741
152	0x3dc3422a	0.09534104
153	0x3c88d4b4	0.016702987
154	0x3db6c3cb	0.08924063
155	0x3d96d3e0	0.07364631
156	0xbd830916	-0.063982174
157	0x3e1a8536	0.15089878
158	0xbd8e8f2e	-0.06960903
159	0xbd2ac49d	-0.04169141
160	0xbda7cc6b	-0.081932865
161	0x3c22025b	0.009888257
162	0xbda4a869	-0.08039934
163	0x3d53c2b0	0.05169934
164	0xbd120c61	-0.035656337
165	0x3e7f4e4e	0.24932215
166	0x3dff8102	0.12475778
167	0x3cd39239	0.02582656
168	0xbdb6e7c7	-0.08930927
169	0x3dbb3c24	0.0914233
170	0x3d98687e	0.07441805
171	0xbddb85e7	-0.10718899
172	0x3ddae330	0.10687864
173	0x3d741a77	0.05959555
174	0xbdef8a8f	-0.1169635
175	0x3b83dcb0	0.0040241107
176	0xbdcedeac	-0.10101065
177	0xbcc4be59	-0.024016546
178	0x3db651a5	0.08902291
179	0x3dba7137	0.09103625
180	0x3db17487	0.08664804
181	0xbe17fb29	-0.14841904
182	0x3d063a42	0.032770403
183	0xbc96445b	-0.018343141
184	0xbd3ca6e4	-0.046057597
185	0x3df8ef76	0.121550485
186	0xbd0e062e	-0.034673862
187	0xbde3463f	-0.11097383
188	0xbe1423b3	-0.14466743
189	0x3d9c0346	0.07617812
190	0xbdc361a5	-0.095401086
191	0x3d4fe63e	0.050756685
192	0x3e074091	0.13208224
193	0xbcfe0fc5	-0.031013379
194	0x3c9e90d0	0.019356161
195	0x3c25ea65	0.010126685
196	0xbb58aefe	-0.0033063288
197	0x3e128891	0.14309908
198	0xbe1ca4e9	-0.15297283
199	0x3e15ba95	0.14621957
200	0x3d4679e9	0.048456106
201	0x3e399cd6	0.18126234
202	0xbe4036d4	-0.18770915
203	0xbc18bf88	-0.009323008
204	0x3d99f9b3	0.075183295
205	0xbd9c572c	-0.07633814
206	0x3dd629ec	0.10457215
207	0xbc8720be	-0.016495105
208	0x3d385456	0.045002304
209	0xbdc2fc02	-0.09520723
210	0x3daa7f66	0.083250806
211	0xbe030077	-0.12793146
212	0x3df6abdb	0.120444976
213	0x3e448c89	0.19194235
214	0x3e14521c	0.14484447
215	0x3cde210d	0.02711537
216	0x3d32cf5a	0.043654777
217	0x3e311f98	0.17297208
218	0xbe8556c0	-0.26042747
219	0xbe220152	-0.15820816
220	0xbcf89aa9	-0.030347185
221	0x3dde2d10	0.10848439
222	0x3e66cce1	0.22539093
223	0x3cc06fb4	0.023490764
224	0xbceb808d	-0.028747821
225	0x3e2e7c99	0.17039718
226	0xbde54b29	-0.11195976
227	0xbdd64651	-0.104626305
228	0x3d5c84e6	0.05383768
229	0x3e1dcf83	0.1541119
230	0x3deb865c	0.115002364
231	0x3d6cca52	0.057810135
232	0x3e54cae6	0.20780525
233	0x3e0f8200	0.14014435
234	0x3cb5c6f1	0.02218959
235	0x3e3fd053	0.18731813
236	0xbdfb8255	-0.12280718
237	0xbe01f69e	-0.12691733
238	0xbda2960a	-0.07938774
239	0xbe0b5d06	-0.13609704
240	0xbd5ce929	-0.053933296
241	0x3d58aacc	0.05289726
242	0xbe47fcd3	-0.19530039
243	0xbebc9c45	-0.36837974
244	0x3e167e4c	0.14696616
245	0xbdaeb4ce	-0.085305795
246	0x3d853f26	0.06506185
247	0xbb96d59d	-0.0046031014
248	0x3cc82924	0.02443368
249	0x3d2681f8	0.04065129
250	0xbd2a93b1	-0.041644756
251	0xbda4b879	-0.08042998
252	0x3dcd933e	0.1003785
253	0x3bd4725f	0.0064833607
254	0xbdc94ba8	-0.098288834
255	0xbdd66e74	-0.10470286

model/time_distributed_9/batch_normalization_1/FusedBatchNormV3 f4 [16]
0	0xbf13ced2	-0.5773746
1	0xbf1c366f	-0.6102056
2	0xbf14304c	-0.57886195
3	0xbed5e58b	-0.4177669
4	0xbf262456	-0.64899194
5	0xbf313a43	-0.69229525
6	0xbf08b1a1	-0.5339604
7	0xbf1037f1	-0.5633536
8	0xbf02cce9	-0.5109392
9	0xbf095157	-0.5363974
10	0xbf0f23a7	-0.55913776
11	0xbf2123aa	-0.62945044
12	0xbf2319e2	-0.6371137
13	0xbf2f8ed0	-0.6857729
14	0xbf0c53f2	-0.5481559
15	0xbf1ab88e	-0.6043786

model/time_distributed_9/batch_normalization_1/FusedBatchNormV31 f4 [16]
0	0x3fd0d05c	1.6313586
1	0x3fd24136	1.6426151
2	0x3fd18564	1.6368833
3	0x3fca9738	1.5827398
4	0x3feb686c	1.8391242
5	0x3fbef278	1.4917746
6	0x3fd84671	1.6896497
7	0x3fdeb3b4	1.7398591
8	0x3fde1924	1.7351422
9	0x3fc410ea	1.5317662
10	0x3fdd42f9	1.7286063
11	0x3fb7086f	1.4299449
12	0x3fe36bfe	1.7767332
13	0x3fdba4dd	1.7159687
14	0x3fd66b12	1.6751425
15	0x3fda2334	1.7041993
