HPC_Final_Study2_Complete_Test_Class_Balance_run_all/participants_session_transfer_train_fresh_model/participant_18/session_3/session_3_lite_models/indexpen_model.tflite (tflite, 573028 bytes, 29 tensors)

model/time_distributed_6/conv2d_1/BiasAdd;model/time_distributed_6/conv2d_1/Conv2D;model/time_distributed_6/conv2d_1/BiasAdd/ReadVariableOp/resource f4 [16]
000000 29 70 ac 3d 53 14 c4 3d be b2 ab 3d 45 ef 77 3d
       0.0841983 0.09574189 0.08383702 0.06053092
000010 ce c2 52 3d 20 93 55 3d 0c 60 7b 3d ff b8 a4 3d
       0.05145531 0.052142262 0.061370894 0.08043098
000020 0e 9c 52 3c e4 59 aa 3d 83 1a a9 3d b2 bb ab 3d
       0.012854589 0.083179265 0.0825701 0.083854094
000030 7c de 0a 3e 93 27 c9 3d 9d 16 c4 3d 16 17 48 3d
       0.13561434 0.09822001 0.09574626 0.04885014

model/time_distributed/conv2d/BiasAdd;model/time_distributed/conv2d/Conv2D;model/time_distributed/conv2d/BiasAdd/ReadVariableOp/resource f4 [8]
000000 d1 7c 9a bc 94 b2 00 3c 43 b6 d5 bd d0 fd 35 ba
       -0.018858345 0.007855076 -0.10435154 -0.0006942423
000010 b8 0d 0f bd af f6 b8 bd 55 2f b1 bd 29 0a 0e be
       -0.034925193 -0.09031426 -0.08651606 -0.13871063

model/time_distributed_6/conv2d_1/Conv2D f4 [16, 3, 3, 1]
000000 9f f8 38 3d 14 00 23 3d 82 34 97 bd 82 f8 74 3c
       0.04515898 0.039794996 -0.07383062 0.014951827
000010 3b 46 ea 3c 2f ad 0a bd e4 24 8c bd ff 59 1c 3d
       0.028597942 -0.033856567 -0.06842974 0.038171764
000020 3e cf bc 3c b2 7c 4c bc a4 b0 c0 3d a9 de a1 bd
       0.02304804 -0.012480902 0.094086915 -0.07903797
000030 ff f3 a8 bd 4c 3d 44 3e fe 3f d6 bd c4 d6 dc 3b
       -0.082496636 0.19164008 -0.10461424 0.0067394692
000040 41 63 ff bd 21 dd f2 3d 48 1d 8e 3d 8d 84 52 be
       -0.12470103 0.11858583 0.06939179 -0.20558377
000050 6f ab 00 3e 73 ba 46 3d f1 95 38 3d b2 79 ce bd
       0.12565397 0.048517656 0.04506487 -0.10081805
000060 be f2 2a bd 4e 0f c2 3c a6 14 89 3b 86 22 a0 3c
       -0.041735403 0.023688938 0.0041833697 0.019547712
000070 76 92 45 3d 5a f0 96 bd a9 16 5d 3c 82 83 fa bb
       0.04823538 -0.07370062 0.013494172 -0.0076450715
000080 5f 7a 79 bc 03 11 07 3c d5 80 ef bc f8 de 7e 3c
       -0.015226929 0.008243802 -0.029236237 0.01555609
000090 00 5e c5 bb 40 0a 1f be b1 0c 2a 3e 8a ed 8f bc
       -0.0060231686 -0.15531254 0.16606404 -0.017569322
0000a0 25 7c 82 3d 88 41 60 bd fa c5 03 bd 85 50 4b 3d
       0.06371335 -0.054749995 -0.032171227 0.049637336
0000b0 9b 8f 13 bc 7f 24 01 3e 7b 71 a5 bd 56 59 38 bd
       -0.009006406 0.12611578 -0.08078285 -0.045007072
0000c0 95 a0 2f bd 74 9a 6e bd e1 ad b8 3d a2 b4 df 3c
       -0.042877752 -0.058252767 0.0901754 0.027307812
0000d0 09 e8 22 3d 29 3e 66 bd 12 62 38 3d 55 1a 02 be
       0.039772067 -0.056211624 0.045015402 -0.12705357
0000e0 81 f2 9a 3d 8f 79 32 3c 62 a8 a5 3d e3 56 aa bd
       0.07565785 0.01089324 0.08088757 -0.083173536
0000f0 dd ba 13 3c ac a0 39 3d e5 21 5f bd 29 b2 be bd
       0.00901672 0.045319244 -0.054475684 -0.09311325
000100 1c 2f b9 3d e3 01 be ba a7 8e 03 3d 87 0f 59 bd
       0.090421885 -0.0014496412 0.032118466 -0.052993324
000110 68 91 05 3d ad 57 a1 bd 85 67 36 3d af a6 dd 3c
       0.032609373 -0.07878051 0.044532318 0.02705702
000120 c7 3e 45 bc db 4a 59 3c 8f c6 d3 3b c2 a9 4c 3d
       -0.012038893 0.013262476 0.006462879 0.04996658
000130 df 58 d9 bd 6a 20 87 3d 0d e8 e7 3d 04 91 33 be
       -0.10612654 0.06597979 0.11323557 -0.17535788
000140 b7 49 88 3d 63 90 81 3d 01 ea b5 bd 96 e6 26 3d
       0.06654685 0.06326368 -0.08882523 0.040747248
000150 87 d5 80 3c 1d 83 1b 3d 1e 3b 23 bd c1 54 e7 3c
       0.015726818 0.037966836 -0.0398513 0.028238656
000160 b4 1e 19 3b cc 08 7e bc b8 f1 e0 bd c8 44 33 3e
       0.0023364248 -0.015505027 -0.10983604 0.17506707
000170 79 9d a9 bd a6 9d cb 3b e6 96 8e 3d 24 6a a9 bd
       -0.08281989 0.0062138615 0.06962375 -0.08272198
000180 c6 d5 2c bd f2 39 11 3e e1 85 d5 bd 1b aa 8a bd
       -0.042196058 0.1418226 -0.10425926 -0.06770726
000190 a5 32 67 3e 93 f7 19 be 65 b4 13 be 58 f3 e7 3d
       0.22577913 -0.15035848 -0.14424284 0.11325711
0001a0 79 15 a4 3c d9 68 00 3e c4 29 2a be 03 c7 2a 3d
       0.02002977 0.12539996 -0.16617495 0.0416937
0001b0 68 8d b6 bd a8 c3 3f 3e 7c e9 cf bd d6 13 c5 bd
       -0.0891369 0.1872698 -0.101519555 -0.09622924
0001c0 2e a1 1d 3e 52 40 84 bd f9 9d 9d bd 1c 34 52 3e
       0.15393516 -0.064575806 -0.076961465 0.2052769
0001d0 a1 30 16 be e0 42 c0 bc 7a 9d c4 3d c0 30 6a bd
       -0.14666988 -0.023469388 0.09600349 -0.057175398
0001e0 4e 25 40 3c a9 5e 0a be 12 a9 f9 3d 1d a7 5e bb
       0.011727644 -0.13512672 0.12190451 -0.003397412
0001f0 fa 48 29 3d 84 48 af bc 1d e8 91 bc 41 a1 bd bc
       0.04132936 -0.021396883 -0.017810876 -0.02314818
000200 d7 50 5b 3c df fb 93 bc 22 3e cd bc d0 43 6d 3d
       0.013385973 -0.018064437 -0.025054041 0.057926
000210 e3 55 88 3d 5c 11 10 be 1f 7c 62 3d da 26 ad 3b
       0.066570066 -0.14069122 0.055294152 0.0052841725
000220 18 80 a3 bc 8d ba 3e 3c 0f 6c 8a bc 59 75 d0 3c
       -0.01995854 0.011641157 -0.01689723 0.02544658
000230 cd 65 b8 3b 2a aa b5 3d f1 c7 96 bd 09 af af bc
       0.00562737 0.08870347 -0.073623545 -0.021445768

model/time_distributed/conv2d/Conv2D f4 [8, 3, 3, 1]
000000 bc 51 a6 bb 5a 19 ab bc 98 0c b9 3c 3f e0 dd bb
       -0.0050756615 -0.020886112 0.022589013 -0.006771117
000010 7a 05 0a 3c ba 41 49 bc 2f df 73 3c 2d 66 63 bc
       0.008424157 -0.012283737 0.014884754 -0.013879341
000020 f2 b2 a0 3a 37 70 78 3b 88 de b7 bc de 2e 99 39
       0.0012260361 0.0037908682 -0.022444978 0.00029217353
000030 55 e4 07 bc ae aa 98 3c 41 21 63 bc 9a ee 98 bc
       -0.008294185 0.018636074 -0.013862909 -0.018668462
000040 7d 47 3e bb a7 f9 d1 3b ea 1d c6 ba c1 2f b3 b8
       -0.002903431 0.0064079347 -0.0015115116 -8.54428e-05
000050 c0 49 6d 3b f1 5f 53 3b df 92 32 3b 79 3f 33 3b
       0.0036207289 0.003225323 0.0027248187 0.0027351065
000060 a7 36 2d bb 3e 5c 50 3c 54 b7 e7 bc 18 94 aa bb
       -0.002643028 0.012717305 -0.02828566 -0.0052056424
000070 9d e3 63 3b 70 21 b6 3b 7b cd c0 3b b3 af db bc
       0.003477312 0.0055581853 0.00588387 -0.026817178
000080 2b 62 1e bb cd 82 43 bc 7e f4 25 bc ae 48 9d bb
       -0.00241674 -0.011933041 -0.010129092 -0.004799924
000090 44 ee 9c 3c 49 0a 92 bc c2 45 bc 3c 4d f5 4e ba
       0.019156583 -0.01782717 0.022982482 -0.0007894829
0000a0 f2 43 a3 b9 22 1e b4 36 a2 b3 e0 bb f1 99 16 3c
       -0.00031140406 5.367926e-06 -0.0068573514 0.009191976
0000b0 0c 8a c8 3b 3f 6d ba 3b 60 53 25 bb f1 9f 2b 3b
       0.006119972 0.0056892927 -0.0025226697 0.0026187862
0000c0 8b 66 90 3b db 08 92 bc 0e 86 48 3c fd 16 96 3c
       0.0044067553 -0.017826488 0.012238992 0.018321509
0000d0 44 57 38 bc 3f ee 65 bb dc 5d 46 3c 5e e2 c5 bb
       -0.0112512745 -0.0035084633 0.012107339 -0.006038948
0000e0 7d 6f eb 3b 18 9d 2a 3c 04 a0 1f 39 15 09 10 b9
       0.0071849213 0.010413431 0.00015223032 -0.00013736293
0000f0 4d 97 03 3c 3d 80 a7 bb ca 54 4e bb 96 40 d9 3a
       0.008031678 -0.0051117227 -0.0031483644 0.0016575034
000100 9b 61 02 bb f2 c6 3c bc 50 eb 85 bc c3 d5 02 bc
       -0.0019894603 -0.011522042 -0.016347557 -0.007985535
000110 91 e6 eb 3c 74 3a 0a bc b8 c8 9b 3b c5 44 0e bc
       0.028796466 -0.008436788 0.004754152 -0.008683388

model/lstm/TensorArrayV2_1 f4 [120, 1, 32]
000000 00 00 00 00 00 00 00 00 00 00 00 00 00 00 00 00
       0.0 0.0 0.0 0.0
000010 00 00 00 00 00 00 00 00 00 00 00 00 00 00 00 00
       0.0 0.0 0.0 0.0
000020 00 00 00 00 00 00 00 00 00 00 00 00 00 00 00 00
       0.0 0.0 0.0 0.0
000030 00 00 00 00 00 00 00 00 00 00 00 00 00 00 00 00
       0.0 0.0 0.0 0.0
000040 00 00 00 00 00 00 00 00 00 00 00 00 00 00 00 00
       0.0 0.0 0.0 0.0
000050 00 00 00 00 00 00 00 00 00 00 00 00 00 00 00 00
       0.0 0.0 0.0 0.0
000060 00 00 00 00 00 00 00 00 00 00 00 00 00 00 00 00
       0.0 0.0 0.0 0.0
000070 00 00 00 00 00 00 00 00 00 00 00 00 00 00 00 00
       0.0 0.0 0.0 0.0
000080 00 00 00 00 00 00 00 00 00 00 00 00 00 00 00 00
       0.0 0.0 0.0 0.0
000090 00 00 00 00 00 00 00 00 00 00 00 00 00 00 00 00
       0.0 0.0 0.0 0.0
0000a0 00 00 00 00 00 00 00 00 00 00 00 00 00 00 00 00
       0.0 0.0 0.0 0.0
0000b0 00 00 00 00 00 00 00 00 00 00 00 00 00 00 00 00
       0.0 0.0 0.0 0.0
0000c0 00 00 00 00 00 00 00 00 00 00 00 00 00 00 00 00
       0.0 0.0 0.0 0.0
0000d0 00 00 00 00 00 00 00 00 00 00 00 00 00 00 00 00
       0.0 0.0 0.0 0.0
0000e0 00 00 00 00 00 00 00 00 00 00 00 00 00 00 00 00
       0.0 0.0 0.0 0.0
0000f0 00 00 00 00 00 00 00 00 00 00 00 00 00 00 00 00
       0.0 0.0 0.0 0.0
000100 00 00 00 00 00 00 00 00 00 00 00 00 00 00 00 00
       0.0 0.0 0.0 0.0
000110 00 00 00 00 00 00 00 00 00 00 00 00 00 00 00 00
       0.0 0.0 0.0 0.0
000120 00 00 00 00 00 00 00 00 00 00 00 00 00 00 00 00
       0.0 0.0 0.0 0.0
000130 00 00 00 00 00 00 00 00 00 00 00 00 00 00 00 00
       0.0 0.0 0.0 0.0
000140 00 00 00 00 00 00 00 00 00 00 00 00 00 00 00 00
       0.0 0.0 0.0 0.0
000150 00 00 00 00 00 00 00 00 00 00 00 00 00 00 00 00
       0.0 0.0 0.0 0.0
000160 00 00 00 00 00 00 00 00 00 00 00 00 00 00 00 00
       0.0 0.0 0.0 0.0
000170 00 00 00 00 00 00 00 00 00 00 00 00 00 00 00 00
       0.0 0.0 0.0 0.0
000180 00 00 00 00 00 00 00 00 00 00 00 00 00 00 00 00
       0.0 0.0 0.0 0.0
000190 00 00 00 00 00 00 00 00 00 00 00 00 00 00 00 00
       0.0 0.0 0.0 0.0
0001a0 00 00 00 00 00 00 00 00 00 00 00 00 00 00 00 00
       0.0 0.0 0.0 0.0
0001b0 00 00 00 00 00 00 00 00 00 00 00 00 00 00 00 00
       0.0 0.0 0.0 0.0
0001c0 00 00 00 00 00 00 00 00 00 00 00 00 00 00 00 00
       0.0 0.0 0.0 0.0
0001d0 00 00 00 00 00 00 00 00 00 00 00 00 00 00 00 00
       0.0 0.0 0.0 0.0
0001e0 00 00 00 00 00 00 00 00 00 00 00 00 00 00 00 00
       0.0 0.0 0.0 0.0
0001f0 00 00 00 00 00 00 00 00 00 00 00 00 00 00 00 00
       0.0 0.0 0.0 0.0
000200 00 00 00 00 00 00 00 00 00 00 00 00 00 00 00 00
       0.0 0.0 0.0 0.0
000210 00 00 00 00 00 00 00 00 00 00 00 00 00 00 00 00
       0.0 0.0 0.0 0.0
000220 00 00 00 00 00 00 00 00 00 00 00 00 00 00 00 00
       0.0 0.0 0.0 0.0
000230 00 00 00 00 00 00 00 00 00 00 00 00 00 00 00 00
       0.0 0.0 0.0 0.0
000240 00 00 00 00 00 00 00 00 00 00 00 00 00 00 00 00
       0.0 0.0 0.0 0.0
000250 00 00 00 00 00 00 00 00 00 00 00 00 00 00 00 00
       0.0 0.0 0.0 0.0
000260 00 00 00 00 00 00 00 00 00 00 00 00 00 00 00 00
       0.0 0.0 0.0 0.0
000270 00 00 00 00 00 00 00 00 00 00 00 00 00 00 00 00
       0.0 0.0 0.0 0.0
000280 00 00 00 00 00 00 00 00 00 00 00 00 00 00 00 00
       0.0 0.0 0.0 0.0
000290 00 00 00 00 00 00 00 00 00 00 00 00 00 00 00 00
       0.0 0.0 0.0 0.0
0002a0 00 00 00 00 00 00 00 00 00 00 00 00 00 00 00 00
       0.0 0.0 0.0 0.0
0002b0 00 00 00 00 00 00 00 00 00 00 00 00 00 00 00 00
       0.0 0.0 0.0 0.0
0002c0 00 00 00 00 00 00 00 00 00 00 00 00 00 00 00 00
       0.0 0.0 0.0 0.0
0002d0 00 00 00 00 00 00 00 00 00 00 00 00 00 00 00 00
       0.0 0.0 0.0 0.0
0002e0 00 00 00 00 00 00 00 00 00 00 00 00 00 00 00 00
       0.0 0.0 0.0 0.0
0002f0 00 00 00 00 00 00 00 00 00 00 00 00 00 00 00 00
       0.0 0.0 0.0 0.0
000300 00 00 00 00 00 00 00 00 00 00 00 00 00 00 00 00
       0.0 0.0 0.0 0.0
000310 00 00 00 00 00 00 00 00 00 00 00 00 00 00 00 00
       0.0 0.0 0.0 0.0
000320 00 00 00 00 00 00 00 00 00 00 00 00 00 00 00 00
       0.0 0.0 0.0 0.0
000330 00 00 00 00 00 00 00 00 00 00 00 00 00 00 00 00
       0.0 0.0 0.0 0.0
000340 00 00 00 00 00 00 00 00 00 00 00 00 00 00 00 00
       0.0 0.0 0.0 0.0
000350 00 00 00 00 00 00 00 00 00 00 00 00 00 00 00 00
       0.0 0.0 0.0 0.0
000360 00 00 00 00 00 00 00 00 00 00 00 00 00 00 00 00
       0.0 0.0 0.0 0.0
000370 00 00 00 00 00 00 00 00 00 00 00 00 00 00 00 00
       0.0 0.0 0.0 0.0
000380 00 00 00 00 00 00 00 00 00 00 00 00 00 00 00 00
       0.0 0.0 0.0 0.0
000390 00 00 00 00 00 00 00 00 00 00 00 00 00 00 00 00
       0.0 0.0 0.0 0.0
0003a0 00 00 00 00 00 00 00 00 00 00 00 00 00 00 00 00
       0.0 0.0 0.0 0.0
0003b0 00 00 00 00 00 00 00 00 00 00 00 00 00 00 00 00
       0.0 0.0 0.0 0.0
0003c0 00 00 00 00 00 00 00 00 00 00 00 00 00 00 00 00
       0.0 0.0 0.0 0.0
0003d0 00 00 00 00 00 00 00 00 00 00 00 00 00 00 00 00
       0.0 0.0 0.0 0.0
0003e0 00 00 00 00 00 00 00 00 00 00 00 00 00 00 00 00
       0.0 0.0 0.0 0.0
0003f0 00 00 00 00 00 00 00 00 00 00 00 00 00 00 00 00
       0.0 0.0 0.0 0.0

model/dense_2/BiasAdd/ReadVariableOp/resource f4 [256]
000000 4b fe cb 3d b5 e8 c3 3d ed 25 c1 3d 26 96 96 3d
       0.09960612 0.0956587 0.09431062 0.07352857
000010 70 fd 09 3c 4d bd 28 3d ef b6 c3 3d 37 b8 a7 3d
       0.008422241 0.041196156 0.09556376 0.08189433
000020 a1 43 04 3c 4f 91 4f 3d fc 8f 3a 3c 94 af 95 3d
       0.008072765 0.050675686 0.011386868 0.073088795
000030 44 2e 75 3d 69 8c 86 3c 71 30 b7 3d 66 9d a4 3d
       0.059858575 0.016424375 0.08944786 0.08037834
000040 ba b4 ca 3c a1 d2 86 3d c1 d6 ca 3d 93 78 f6 3d
       0.02474438 0.06583143 0.09904242 0.120347165
000050 fc 69 e0 3d 0f 1b 65 3d 20 7b 2b 3d 7f 89 d0 3d
       0.10957715 0.05593401 0.041865468 0.10182475
000060 8d 3d f7 3d 8b 07 a9 3d 9e 2f d4 3d ee bb c1 3d
       0.12072287 0.08253392 0.10360645 0.09459673
000070 aa 4f 62 3d 74 6b da 3d 8a 14 52 3d 1c 74 ea 3d
       0.055251755 0.10665026 0.05128912 0.11447927
000080 27 3b a6 3d cf 03 c4 3d 2e b3 89 3d 2b 64 cd 3d
       0.08116751 0.09571039 0.06723629 0.10028871
000090 45 d0 f1 3d ab 08 b3 3d 0f b2 07 3e 4a 80 d3 3d
       0.118073024 0.08741888 0.13251518 0.103272036
0000a0 8d b3 f7 3d c8 9e 8b 3d 01 ed 37 3d 96 97 92 3d
       0.120947935 0.068173945 0.04490376 0.07157819
0000b0 1f cd 83 3d 2c b4 e9 3d e7 87 b3 3d a0 f2 b4 3d
       0.06435608 0.11411318 0.08766156 0.088353395
0000c0 19 df d9 3d e9 3f 9d 3d bc 9a bf 3d 01 e9 ad 3d
       0.106382556 0.076782055 0.09355685 0.084917076
0000d0 e3 b5 a9 3d dc 7d 8e 3d 23 bd 28 3e 55 60 c1 3d
       0.08286645 0.069575995 0.164784 0.09442202
0000e0 b1 44 a3 3d 35 72 b9 3d c5 e4 cf 3d 82 c3 71 3d
       0.07972086 0.090549864 0.10151056 0.05902434
0000f0 4a 93 f8 3c 7f bb 48 3d 99 d8 92 3d 74 fc 44 3d
       0.03034367 0.049006935 0.07170219 0.04809232
000100 e8 8f 75 3d 2f bd d4 3d d9 57 e3 3d ad c1 d6 3d
       0.059951693 0.103876464 0.1110074 0.104861595
000110 fb c0 aa 3d a7 a9 12 3e 71 9d ab 3d a3 a0 ee 3d
       0.08337589 0.1432253 0.08379639 0.11651733
000120 59 f1 d2 3d 65 ef c3 3d 46 f6 27 3d d0 87 ab 3d
       0.1029994 0.09567145 0.04100635 0.083755136
000130 89 39 23 3e dd 25 b0 3d 5a c5 cb 3d 5c 66 9c 3d
       0.15939917 0.08600972 0.09949751 0.07636711
000140 f1 8d ee 3d a1 22 22 3c 7c 40 a5 3d 83 3e 17 3d
       0.11648167 0.0098959515 0.0806894 0.03692485
000150 20 08 93 3d 72 10 97 3b 30 a4 c0 3c f4 26 2f 3d
       0.07179284 0.0046101147 0.02351579 0.042761758
000160 da ac 34 3d 24 eb 8f 3d 5b 82 87 3d 93 b7 90 3d
       0.044110157 0.070272714 0.0661666 0.07066264
000170 72 81 91 3d b9 9a 2f 3d a1 96 fa 3d 2f 57 07 3e
       0.07104768 0.042872164 0.122357614 0.13216852
000180 0a 93 07 3e 26 c4 9c 3c 2f b3 fb 3d d0 a4 30 3d
       0.13239685 0.0191365 0.12290036 0.043125927
000190 f7 57 a1 3d ea 73 c1 3d 41 06 ee 3d 44 8e 87 3d
       0.07878106 0.09445937 0.116222866 0.06618932
0001a0 7f c9 38 3d 70 24 d6 3d 44 37 27 3d b6 12 ee ba
       0.045114037 0.10456169 0.04082419 -0.0018163535
0001b0 00 a9 cd 3d ff 63 e1 3d bb 75 e6 3d b0 8d c6 3d
       0.10042 0.11005401 0.11252924 0.096949935
0001c0 56 7f a2 3d 4e a2 fd 3d 7a 1f 2d 3c d2 ad ca 3d
       0.07934444 0.12384473 0.010566587 0.09896435
0001d0 f0 d3 80 3d d5 04 31 3d 11 6a 82 3d 8d 4e 9f 3d
       0.06290424 0.0432175 0.06367887 0.07778654
0001e0 b8 1e e4 3d 45 c1 ae 3d 0c 6b 08 3e 02 2c a2 3d
       0.11138672 0.08532957 0.13322085 0.0791855
0001f0 c7 4b 0b 3e 2c f9 24 3e 69 1e 83 3d 9c 35 d6 3c
       0.13603126 0.16110677 0.06402285 0.02614861
000200 a9 d4 be 3d 54 aa a4 3d 65 ab 9b 3b 8b a8 c2 3d
       0.093179055 0.080403 0.0047506564 0.09504803
000210 24 37 a0 3d 0e c8 00 3e b5 f7 d7 3d cd 98 34 3d
       0.07823017 0.12576315 0.10545293 0.044091035
000220 dc 6c 02 3e 49 57 8a 3d a4 18 04 3e 32 36 17 3e
       0.12736839 0.067549296 0.12900025 0.14766768
000230 e1 95 96 3d 5f 99 9e 3d f4 48 01 3e 1d ca 81 3d
       0.07352806 0.07744097 0.12625486 0.06337378
000240 51 28 b8 3c e5 16 c0 3d 9a fb f2 3d 0d f6 c4 3d
       0.022480162 0.09379367 0.118643954 0.09617243
000250 99 49 12 3e 02 7a 64 3d 8e 89 a1 3d 18 02 95 3d
       0.14285888 0.05578042 0.078875646 0.0727579
000260 d3 dc 14 3e 08 fc 8f 3d 87 6a bc 3d 60 75 09 3d
       0.14537363 0.07030493 0.09200006 0.033559203
000270 17 13 84 3d 37 03 64 3d ff cf c2 3d b1 4f a2 3d
       0.064489536 0.05566713 0.09512328 0.07925356
000280 1a b2 49 3d 7f 7a 77 3d 47 d1 d5 3d 75 42 cb 3d
       0.049242117 0.060419556 0.10440307 0.09924785
000290 60 27 2f 3d 55 59 af 3d 68 89 c3 3d 21 a3 a5 3d
       0.04276216 0.085619606 0.095476925 0.08087755
0002a0 ec 59 c9 3d cd 0c 0c 3e 02 e2 9f 3d 52 5f d0 3d
       0.09831604 0.13676758 0.078067794 0.10174431
0002b0 06 d6 e5 3d 78 15 cb 3d d8 2c c0 3d 20 17 96 3d
       0.11222462 0.09916204 0.09383553 0.073286295
0002c0 a4 d1 f7 3d b0 4b cc 3d 41 0b e7 3d 48 8f aa 3d
       0.12100533 0.09975374 0.112814434 0.0832811
0002d0 37 5b 91 3d 2a f4 60 3d 0c 22 8a 3d f6 ff 2f 3d
       0.07097476 0.054920353 0.06744775 0.042968713
0002e0 16 cb 96 3d c9 c4 91 3d 54 26 ce 3d e2 fa 32 3d
       0.07362954 0.07117612 0.10065904 0.04369629
0002f0 e7 aa ae 3d 43 34 a0 3d bf f0 b3 3d 14 46 9e 3d
       0.08528691 0.07822468 0.08786153 0.0772821
000300 97 54 cb 3d 2e fb 5b 3d 54 1b 42 3d 56 3d c1 3d
       0.099282436 0.05370634 0.047389343 0.09435527
000310 1c d6 d5 3a c9 f7 5a 3d 5c 0c a8 3b 88 06 a2 3d
       0.001631442 0.053458963 0.0051284265 0.07911402
000320 8e 07 23 3d 85 12 f6 3d 33 f3 9e 3d a5 4a 03 3e
       0.039802127 0.12015251 0.0776123 0.12821443
000330 61 dc ca 3c a6 d4 d6 3d 41 d4 b0 3c 6e 17 c0 3d
       0.024763288 0.10489778 0.021585586 0.09379469
000340 da 31 90 3d b8 fc 67 3d 26 e3 8f 3d f4 7a 73 3d
       0.070407584 0.056637496 0.07025747 0.05944343
000350 09 81 d1 3d 3a c0 df 3d 44 20 a2 3d 3c dd 0b 3e
       0.1022969 0.10925336 0.079163104 0.13658613
000360 58 44 a7 3d cc cb f2 3d 9f 71 88 3d 53 eb 4c 3d
       0.081673324 0.118552774 0.066622965 0.05002911
000370 d8 45 2b 3e f3 c1 3c 3c 4b ac ae 3d 8b b2 71 3d
       0.16725862 0.0115208505 0.08528956 0.059008162
000380 06 6c 89 3d 8c 88 f5 3d a1 fa 58 3d 81 1e 52 3d
       0.06710057 0.11988935 0.052973393 0.051298622
000390 57 29 96 3d c6 f1 d6 3d 97 eb 1a 3d f4 d1 6d 3d
       0.07332104 0.104953334 0.037822332 0.058061555
0003a0 f6 17 c5 3d b8 09 73 3d b5 a2 c3 3d 56 ee fa 3c
       0.09623711 0.05933544 0.09552518 0.030631226
0003b0 b0 38 af 3d 16 b9 ae 3d 3d eb a9 3d 0a 50 7a bc
       0.08555734 0.08531396 0.08296821 -0.015277872
0003c0 c7 5a 90 3d e1 bd cf 3d 9a dd 5d 3d 6a a9 9e 3d
       0.070485644 0.101436384 0.054166414 0.07747157
0003d0 48 87 9b 3d fb 2f c3 3d f8 04 bb 3d b4 cc de 3d
       0.07594162 0.09530636 0.09131807 0.10878888
0003e0 61 bf 66 3d 94 ac d8 3d b6 a8 8a 3d e1 3f e8 3d
       0.056334857 0.10579792 0.0677046 0.11340309
0003f0 3b be 82 3d 82 4c 15 3e a8 b5 e2 3d 68 f8 c5 3d
       0.0638394 0.14579967 0.110698044 0.0966652

model/last_layer/BiasAdd/ReadVariableOp/resource f4 [31]
000000 75 e5 85 3c aa 3e dc bc b4 22 49 3c ef 4d 2a bc
       0.016344765 -0.02688535 0.01227634 -0.010394557
000010 a7 ba 25 bc 29 c1 60 bb f0 ed 05 3d 39 99 27 bb
       -0.010115302 -0.003429482 0.032697618 -0.0025573506
000020 0b 29 d5 bb 07 75 af bb 77 e8 a8 3a c6 18 6d bb
       -0.006505137 -0.005354527 0.0012886663 -0.0036178096
000030 f4 16 39 3b d9 e8 47 3b e3 88 d1 3c 29 ca 29 bb
       0.002824244 0.0030503778 0.025577968 -0.002590785
000040 2a 30 5e 3c e5 1a 37 3a 97 09 17 bb 2a cf 54 3c
       0.013561288 0.00069849036 -0.0023046487 0.012988845
000050 5b 2a c2 ba fb 78 0a bc de 27 da 3a ab 46 40 3c
       -0.0014813648 -0.008451696 0.0016643961 0.011735599
000060 47 c7 a2 bc 14 0b aa bb 5d 90 c7 bc 0d 56 cd bc
       -0.019870413 -0.005189309 -0.02436083 -0.025065446
000070 62 e1 92 bc fb 29 81 bb 49 9c 95 3b
       -0.017929737 -0.003941772 0.00456575

model/time_distributed_11/dense_1/BiasAdd/ReadVariableOp/resource f4 [64]
000000 a9 7e a9 bc 74 a5 4f bd b8 80 1e bd 8c 03 7d bd
       -0.02069028 -0.050694898 -0.038696975 -0.06177096
000010 f5 e3 95 bd 63 80 01 bc f1 aa 12 bd 40 6f 87 bc
       -0.0731887 -0.007904145 -0.035807554 -0.01653254
000020 8c e1 5f bd df e6 49 bc 20 c6 84 bd ed b9 de 3b
       -0.054658458 -0.01232311 -0.06483102 0.0067970664
000030 30 72 bc bc 1d c7 ff bb fc e3 c9 bc 82 fa 63 bd
       -0.023003668 -0.0078057186 -0.024644844 -0.055658825
000040 c9 7a d6 bc 0e a4 8b b9 00 2a 08 bd a7 3e 4a bc
       -0.026181595 -0.00026634376 -0.03324318 -0.012344039
000050 89 4a 57 bc f4 d4 95 bd 1f 0f ec bc c1 6c 1f bd
       -0.013140329 -0.07316008 -0.028815804 -0.038922075
000060 53 2d 42 bd b5 5d a3 bc bd e5 cc bc f0 1e 4c bd
       -0.047406506 -0.019942144 -0.025011891 -0.04983419
000070 1d 8d 97 bd 3b 42 24 bd af 44 0c bd a1 e0 17 bd
       -0.07399962 -0.040102225 -0.03424519 -0.037079457
000080 73 da c7 bc 65 cb fb bc f4 7e d0 bc d4 a6 df bc
       -0.024396157 -0.030736635 -0.025451161 -0.02730123
000090 29 a1 18 bd e6 8a 4d bd 31 3c f5 bc bc b1 a9 3b
       -0.03726307 -0.050181292 -0.029935928 0.0051786583
0000a0 7f 2d d8 3b 17 40 34 bd 0c 52 57 bd 03 20 e8 bc
       0.0065972204 -0.044006433 -0.05256848 -0.028335577
0000b0 4a ac e0 bc 01 25 bf bc 22 ab 4d bd ac 10 7b bc
       -0.027425904 -0.023333075 -0.050212033 -0.015323799
0000c0 07 1d e6 bc c0 2b af bc 5c db 38 bd b0 a2 14 3c
       -0.028090013 -0.021383166 -0.045131072 0.009071991
0000d0 58 fc 7b bc fa 9b 01 bd b7 da 50 ba 86 4f 52 bd
       -0.015379988 -0.03164289 -0.00079671614 -0.05134537
0000e0 9c 88 ae bc 6b d4 26 bd 66 a6 70 bd 9e 03 8f bb
       -0.021305375 -0.04072992 -0.05875244 -0.004364445
0000f0 fe 07 df bc da 7a 71 3b 9f 93 e0 bc a6 ae 2c bd
       -0.02722549 0.0036846907 -0.027414141 -0.042158745

model/time_distributed_5/dense/BiasAdd/ReadVariableOp/resource f4 [32]
000000 07 b2 98 bd 6d 75 c4 bc bc 29 30 3d 3f 09 80 3c
       -0.07455831 -0.023981774 0.04300855 0.015629409
000010 c4 7e f6 bc fb ee 94 3c 5d 1b 65 bb 0e c5 be ba
       -0.030089743 0.018180361 -0.0034958937 -0.0014554576
000020 47 64 b0 3c 8b 5d 02 bd a2 ba f2 3c 60 6e 59 bc
       0.021532191 -0.03182749 0.02963001 -0.013270944
000030 16 51 a2 ba 3a 98 ef bb 8d b0 e4 bc 9b f8 22 3b
       -0.0012383785 -0.007311848 -0.027916217 0.0024867419
000040 27 ef 3b 3d 7a 24 18 bd 84 c0 b4 bc 39 12 75 bd
       0.04588237 -0.03714416 -0.022064455 -0.05983183
000050 8a 67 de 3b 20 03 dc bc b3 cb 0e 3d 48 02 8d bc
       0.006787245 -0.026856959 0.03486223 -0.017213002
000060 a8 2b 8d 3a d6 fe 33 3c f1 ce b5 bc 3d 1b 8e bc
       0.0010770457 0.010986051 -0.022193404 -0.017346973
000070 da a2 96 bb b1 29 5e 3c dd cb 29 bd d2 1d 72 3a
       -0.00459705 0.013559745 -0.041454185 0.0009236011

model/dense_2/MatMul f4 [256, 32]
000000 1f 41 6f be f4 c5 b7 bd 65 fe 6f 3e b7 68 0b 3e
       -0.23364685 -0.089733034 0.23436888 0.13614164
000010 d0 9f 03 3e 3e d4 d5 bd 21 b9 1b 3e 34 36 82 bd
       0.12853932 -0.104408726 0.1520734 -0.06357995
000020 5c eb 90 3e c1 1c ce 3c ba de 30 3d 94 cd e7 3e
       0.28304565 0.025160195 0.04318116 0.4527403
000030 bf 9e b0 3c b3 45 66 3e a8 ec 8d be e3 dc b3 3c
       0.021560071 0.22487526 -0.27719617 0.021955913
000040 d5 a4 de 3c 95 93 13 be e5 de b3 bd 8d b1 d9 bd
       0.027178207 -0.14411767 -0.08782748 -0.10629568
000050 68 08 4b be 92 1c 02 3e 4f 23 d3 bd 87 76 c9 bd
       -0.19827425 0.12706211 -0.10309469 -0.098370604
000060 79 e6 90 3e d9 a4 91 3c 75 3b 9b 3d 1f 84 a2 3d
       0.28300837 0.0177788 0.075797 0.07935356
000070 24 cc bb ba 2c 7e cc 3c 54 9f 24 be 60 4b 7b bc
       -0.0014327806 0.024962507 -0.16076404 -0.015337795
000080 40 76 ea 3d 93 15 36 3e 5a 1e 87 3d b5 38 19 be
       0.11448336 0.17781667 0.06597586 -0.14963038
000090 d3 da 35 be 60 f3 67 3e 59 de 53 be a5 de 05 3e
       -0.17759256 0.22651434 -0.20690288 0.13073213
0000a0 89 f7 77 be f3 8f bb bd 9c 42 09 be 46 87 8a 3c
       -0.24215521 -0.091583155 -0.13404316 0.016910207
0000b0 a0 50 41 3d 23 8f 89 bd f0 17 48 3e 46 4f e1 bd
       0.04719603 -0.06716754 0.19540381 -0.11001448
0000c0 34 16 e7 bd dc a3 3a be af 5b 93 bd ec 5b f9 bc
       -0.11283532 -0.1822657 -0.07195222 -0.03043934
0000d0 5c 5a a1 3c 37 ff 89 be d0 c4 37 bd ce 09 67 3e
       0.019696407 -0.26952526 -0.04486543 0.22562334
0000e0 20 61 73 be 63 df 37 3b 81 2a bb 3c a0 81 fc bd
       -0.23767519 0.0028056733 0.022847416 -0.123294115
0000f0 5f 8f 8f 3c a5 ec 76 be 61 e2 d3 3b 7e 38 df be
       0.01752442 -0.2411371 0.0064661955 -0.43597788
000100 d8 7b 1f 3e d0 97 de 3d 9f 41 81 3e 05 1b dc bd
       0.15574586 0.108688 0.25245377 -0.10747341
000110 c7 17 02 be 6c 50 b8 3d 17 c3 17 bd 01 b4 68 3e
       -0.12704383 0.08999714 -0.037051287 0.22724916
000120 bf 34 2b be 1c f5 9a 3d 13 64 0e 3d 4b 7b f0 3d
       -0.1671934 0.07566282 0.034763407 0.11742266
000130 e9 74 7e 3d 64 a5 a6 bd 97 1e a6 bd 99 ae ec 3d
       0.062123213 -0.081370145 -0.08111303 0.11556739
000140 e6 91 78 bd fc 5b 54 3e f7 92 2d 3d 05 2a b7 3c
       -0.060686015 0.20738214 0.042376485 0.022358904
000150 f1 f4 80 bb 4f f1 51 3e 8d f4 3e bd 3c 54 57 bd
       -0.0039354493 0.20502208 -0.04661994 -0.052570567
000160 58 f3 92 3e 4a 69 5f 3e fb 0d a3 3d e4 dc c8 3d
       0.28701282 0.21817508 0.07961651 0.098077565
000170 7c 27 55 be 64 a3 bf bd 17 7c ae 3e 93 0c 85 be
       -0.20815843 -0.09357336 0.34079048 -0.25986156
000180 7a c1 7e 3d 1d a8 79 3e ec 5f aa bc f6 34 28 bd
       0.062196232 0.24380536 -0.020797692 -0.041066132
000190 88 db 10 be ef 71 6d 3d 08 2b 7c be fa 68 3f be
       -0.14146245 0.057969984 -0.2462579 -0.18692389
0001a0 f7 1e 17 be 4b 47 b4 3b 2a 48 81 bd 85 11 64 bd
       -0.14757906 0.005501663 -0.06312592 -0.05568077
0001b0 16 f1 ec 3c 45 0c 76 bd 03 37 5e 3e 42 d9 b8 bd
       0.028923552 -0.060070295 0.21700673 -0.09025814
0001c0 ab 8b ca bd 91 08 a4 3d 08 45 1d 3e ae 72 d4 3d
       -0.09889921 0.080094464 0.15358365 0.10373436
0001d0 13 90 1e be 96 df bb 3c 02 af 85 bd d6 37 40 bc
       -0.15484647 0.022933763 -0.06527521 -0.011732062
0001e0 c8 61 7e bd 3d fe b4 3d fa 2b ef 3d 0c 98 6f 3e
       -0.06210497 0.088375546 0.1167831 0.23397845
0001f0 a0 ad 83 3d b0 e2 0d 3e ac 6a 4e be 02 17 ad 3e
       0.06429601 0.13856006 -0.2015788 0.33806616
000200 23 dc 70 3e 94 60 fb 3d 77 f6 76 be 68 4d 04 3e
       0.23521475 0.1227428 -0.24117456 0.12920153
000210 f5 7c 92 be 81 e1 85 be be c4 7d bd a2 ba 83 bb
       -0.2861096 -0.26148608 -0.061955206 -0.004020051
000220 31 8a 26 be 12 03 8e bc 29 a9 6f bc f5 89 62 3d
       -0.16263653 -0.017335448 -0.014627733 0.055307347
000230 2a 1b 3d 3d b6 95 14 3e 3e 2a 6f 3e 81 f8 99 3e
       0.046168484 0.14510235 0.23355958 0.30072406
000240 8e b1 6b bd 89 50 09 be f6 04 6f bd e2 23 8f be
       -0.057542376 -0.13409628 -0.05835434 -0.27957064
000250 57 3b 19 be 0b 02 1a 3e fd 7c 89 bd 7c 9f 0a 3d
       -0.14964043 0.15039842 -0.06713293 0.033843502
000260 c1 42 bb 3e ae e6 67 3d 7a cb e9 bc 8c b4 53 3e
       0.36574367 0.056616478 -0.028539408 0.20674342
000270 3e 57 a8 3d ff 76 c7 3b ae a7 a2 bd 56 92 4a 3b
       0.08219765 0.0060871835 -0.079421386 0.0030909977
000280 dc 5b bb bc 4b df 13 be f4 9c 79 3d 91 52 98 be
       -0.02287095 -0.14440648 0.060940698 -0.29750493
000290 b0 3f 10 bd 15 77 cc bd 45 04 59 3e b4 46 ee 3e
       -0.035216987 -0.099836506 0.21193035 0.46538317
0002a0 87 76 96 3d d0 c3 0e bd 1e 74 b7 3e 92 c9 05 3e
       0.07346826 -0.03485471 0.35830778 0.13065174
0002b0 79 04 91 3e 03 c0 be 3d c8 bd 1b bd 8e 92 42 3c
       0.28323725 0.09313967 -0.038022786 0.011875762
0002c0 e4 82 1e 3c 32 c8 ad bd 78 2c a1 3d 53 51 a5 3e
       0.009674761 -0.0848545 0.0786981 0.32288608
0002d0 2a e6 a9 3e 3d 77 8e bc 50 8a ec bd 9d 00 ec 3c
       0.33183414 -0.017390842 -0.115498185 0.028808886
0002e0 2a 0b a8 bd c0 46 aa 3b 15 2d 33 3d cf c6 03 3e
       -0.082052544 0.0051964223 0.043744165 0.12868808
0002f0 3d 9f 5f 3d 98 f5 85 bd cc 86 5f 3e 87 13 f3 3c
       0.05459522 -0.06540984 0.21828765 0.029672397
000300 bd 2d ef 3d c1 bb 04 be 1b a0 bf bc 01 4c c0 3e
       0.11678646 -0.12962247 -0.023391774 0.37557986
000310 1b ea 4b 3e 68 90 4c be d2 41 f3 3d a4 e4 b4 bc
       0.19913523 -0.19976962 0.118777886 -0.02208168
000320 3f 92 69 bc fd bb c0 3e 54 29 1f be bf 7f 8a 3e
       -0.014256059 0.37643424 -0.15543109 0.27050588
000330 fa 37 0c be c9 8a 6e bd 59 5a 9d 3d 5c 98 3d be
       -0.13693228 -0.058237825 0.07683248 -0.18515152
000340 f1 2c d9 bd 9e 1e cd 3d 30 83 e7 bc f3 10 6c bd
       -0.10604275 0.100156054 -0.028260797 -0.05763335
000350 dc c8 e4 3a 6e 2a f1 3b c1 c0 1d bd f5 bf 20 be
       0.001745488 0.0073597943 -0.038513903 -0.15698226
000360 e5 fa f1 3e 6a e6 8a bb ee 4a 92 3e a1 77 9b 3e
       0.4726173 -0.0042388933 0.28572792 0.30364707
000370 03 78 83 3e 9b bf 04 be e1 32 fc bd a1 17 16 be
       0.256775 -0.12963717 -0.12314392 -0.14657451
000380 91 b3 59 3e 45 76 0b 3e ff b0 89 be 61 e3 36 be
       0.21259905 0.13619335 -0.2689285 -0.17860176
000390 91 81 95 3c d8 f6 fa b9 46 e7 e6 be 1c f2 4a bd
       0.018250259 -0.0004786763 -0.45098323 -0.0495473
0003a0 c2 11 23 bc 6d 8f d1 3d 24 ee 09 be ca 6d d3 3d
       -0.009952964 0.102324344 -0.1346975 0.10323675
0003b0 f1 cf a8 bd ed eb d0 3c 54 0b c9 3d ae 22 8f bd
       -0.08242787 0.025503123 0.09816614 -0.069890365
0003c0 8d 49 0a be 62 66 c7 bd 7f 0a ee bd 39 b0 2b 3d
       -0.1350462 -0.09736325 -0.11623096 0.041916106
0003d0 ce 73 0d 3d 84 56 47 bd c3 86 74 bd c0 29 b9 bd
       0.034534268 -0.048666492 -0.05969883 -0.09041166
0003e0 4a e1 ab 3d d8 7a 0e 3d b0 0b b1 bb 92 b6 46 be
       0.0839258 0.03478512 -0.0054030046 -0.19405583
0003f0 42 69 36 bc 1e e9 b7 bd f4 17 c1 be a0 76 a4 3d
       -0.011133494 -0.089800104 -0.37713587 0.080304384

model/last_layer/MatMul f4 [31, 256]
000000 98 35 2e 3d 69 9a de bd ab d2 b1 bd 9b 70 c9 bd
       0.04253158 -0.10869295 -0.0868276 -0.09835931
000010 37 7b 8a 3d 2e 9c c2 bd e4 a9 50 be ba da 5e 3d
       0.067617826 -0.09502445 -0.20377308 0.054407813
000020 69 64 98 3d 04 d5 46 3c 9d 0f 28 bd 86 06 61 be
       0.07441027 0.012135748 -0.041030515 -0.21975145
000030 35 31 10 be fb 08 34 3d 0f f0 27 3d c3 c1 15 3e
       -0.14081271 0.043953877 0.041000422 0.14624695
000040 b1 29 cf bc 9a a5 5d 3d 1a 0e 30 be 8b 0a f0 3d
       -0.025288435 0.054113008 -0.1719288 0.11720761
000050 b6 18 7e be 98 64 a9 bd 12 65 16 bd 9a a2 69 3d
       -0.24814114 -0.0827114 -0.036717482 0.057039835
000060 57 92 85 bd 94 8b b8 bd ea f5 bf 3d 87 0b a8 3d
       -0.06522053 -0.090109974 0.09373076 0.08205324
000070 4e 6b c2 bc 49 e7 41 bd fd e5 c5 3d 85 14 71 3b
       -0.023732807 -0.04733971 0.096630074 0.0036785912
000080 72 d8 4e bd 5c 57 8e 3d ca 6b 6f bd 40 8f 80 be
       -0.050499387 0.06950256 -0.058452405 -0.2510929
000090 75 59 e6 bd 55 c3 6d bd e8 b6 a0 3d 9e f8 df 3d
       -0.11247531 -0.05804761 0.078473866 0.10936092
0000a0 2d bb 25 bc af d9 5b 3d 0a db 47 3d ca 71 a3 be
       -0.010115427 0.053674396 0.048792876 -0.31922752
0000b0 aa a8 43 3d 16 73 b9 bd b3 45 f3 3c 63 16 e8 bc
       0.047768272 -0.09055154 0.029696321 -0.028330987
0000c0 3a 60 63 3c 18 3a 68 bd b0 e8 65 3d f3 bf 8f 3d
       0.013877923 -0.056696028 0.05613011 0.07019033
0000d0 65 28 11 be 48 97 a9 bd eb 1f 4e 3d 35 36 d6 3d
       -0.14175566 -0.08280808 0.050323408 0.10459558
0000e0 97 06 e9 bd 00 69 4d be b1 f9 27 bc 41 2d 97 bc
       -0.1137821 -0.20059586 -0.010252402 -0.018454196
0000f0 7d 65 a5 3d ee 54 35 bd df 7e 52 bc f0 84 d5 bd
       0.08075998 -0.04427045 -0.012847631 -0.104257464
000100 a1 36 9a 3c c4 9d 0a 3d 41 c8 3c be 03 78 c6 3d
       0.018824877 0.033841863 -0.18435766 0.09690859
000110 21 fd ba bc d5 bd 83 be 5f d8 bb bd b8 14 63 be
       -0.02282578 -0.25730768 -0.09172129 -0.22175872
000120 82 de 85 3d 04 f0 22 be e5 a6 ce bd d1 4e 41 bd
       0.065365806 -0.15911871 -0.10090426 -0.047194306
000130 fc ca d2 be 17 f1 ad 3d e7 3a 48 bc 7a 32 35 be
       -0.4117049 0.0849325 -0.012221075 -0.17695037
000140 08 ee e4 39 a8 10 b7 bd e8 7e 0d be 2f 0f 75 bd
       0.00043664896 -0.08938724 -0.13817942 -0.059828933
000150 af 38 2b 3d 8e 40 b4 3d a2 18 14 3d 4b 05 f9 3c
       0.041802105 0.08801375 0.036156304 0.030398032
000160 af 46 e1 bd 2c e8 12 3e d6 9c d2 3d 9c ef e4 bd
       -0.1099981 0.14346379 0.1028382 -0.11178514
000170 5c da 98 bd 5e 28 5a 3c 39 86 9b 3d 58 ab 2a 3e
       -0.07463524 0.013315288 0.0759396 0.16666925
000180 ae c9 06 be 75 7f 85 bc f9 6f 8b bd f6 05 4c 3d
       -0.13162872 -0.016296128 -0.068084665 0.049810372
000190 2a d0 02 3e 34 c2 a5 3b 7c 87 5d bd 80 b6 43 be
       0.12774721 0.005058551 -0.054084286 -0.19112587
0001a0 1a 25 58 3e ee 9f ae 3c 0c 65 a8 bd f3 11 8b 3d
       0.21107903 0.021316495 -0.08222398 0.06790533
0001b0 0a 5e 93 be 31 4e 08 bd 0c 91 89 be c7 fc 80 bd
       -0.28782684 -0.033277694 -0.26868474 -0.062982135
0001c0 27 cf 33 3e b6 04 c4 3d 43 48 a7 3d 36 a2 57 3d
       0.17559491 0.09571211 0.0816808 0.05264493
0001d0 15 b9 bb bd 64 e3 8a bd 77 c7 c6 bc fa 02 63 3c
       -0.09166161 -0.067816526 -0.024265034 0.01385569
0001e0 65 ee 51 bd 0a fa 9e bd 8c 91 f8 bb 61 94 c4 3d
       -0.05125274 -0.07762535 -0.00758571 0.095986135
0001f0 5b 05 6c be 97 b4 59 be 8a 28 22 3d db 61 84 3c
       -0.23048918 -0.21260296 0.039589442 0.016159942
000200 5e e7 9f 3d fe d4 44 be ff 37 a9 bc 44 fe 5a bd
       0.07807802 -0.19221875 -0.020656584 -0.053465143
000210 5a 80 dd 3d 39 1b c8 bd e0 00 03 be c8 6a 71 be
       0.10815497 -0.09770817 -0.12793303 -0.2357589
000220 fe 82 97 bd e3 2d b2 bd d6 05 8a be 61 06 c6 3d
       -0.07398032 -0.087001584 -0.26957577 0.096691854
000230 61 35 82 bd df b1 8f 3d dc 0c 34 3d 06 d5 9c bd
       -0.063578375 0.07016348 0.043957576 -0.076578185
000240 21 dd 82 bd 02 c6 0d 3d 60 9c fd bd 3e d9 8f be
       -0.06389833 0.034612663 -0.12383342 -0.2809543
000250 75 e4 2f be 78 ab 5c be e6 3e 34 be 20 b8 ec bd
       -0.17176993 -0.21549785 -0.17602119 -0.115585566
000260 78 39 33 3c 45 06 b5 3d 11 77 db bd 79 4d 35 bd
       0.010938995 0.088390864 -0.107160695 -0.044263337
000270 68 da fa bc f9 80 e6 3d ae 52 f5 bc d2 72 3f 3d
       -0.030621722 0.11255068 -0.029946651 0.04674036
000280 58 7a d0 bd d6 a3 98 bd 27 54 91 be 46 08 15 be
       -0.10179585 -0.07453124 -0.28384516 -0.14553937
000290 a5 7c 19 3d 11 96 82 3c e1 a6 84 bd 2b f2 34 3d
       0.037472386 0.015940698 -0.06477142 0.044176262
0002a0 5c 10 39 bd 9d b1 02 3d 54 7e e2 bc 96 dc 41 3d
       -0.045181617 0.031907666 -0.027648129 0.047329508
0002b0 17 b3 a6 bd 57 64 b2 bd 90 79 2e be 24 b5 0a be
       -0.081396274 -0.087105446 -0.1703856 -0.13545662
0002c0 d8 b4 5d be df 52 9c 3d a0 d3 9c be 98 92 33 be
       -0.21651018 0.07632994 -0.30630207 -0.1753639
0002d0 11 96 46 bd e2 ca 13 be 90 36 49 be 2a f7 03 bc
       -0.04848296 -0.14432862 -0.1964972 -0.008054534
0002e0 fc 55 3b be 94 ef 18 be 38 8b 5d 3d 0a f9 06 3e
       -0.18294519 -0.14935142 0.054087847 0.13180938
0002f0 c4 46 5e be 06 bb 96 be e5 ab 1f be 82 e8 bf 3c
       -0.21706682 -0.29439563 -0.15592916 0.023426298
000300 27 61 3f 3d 64 82 05 be 0f 9d 77 bd 0d 92 60 3d
       0.04672351 -0.13038021 -0.060452517 0.054826785
000310 14 93 1c 3d 2d 73 e3 bc 1c 8f db 3d 76 1e 55 bd
       0.038226202 -0.027764881 0.10720655 -0.052031003
000320 46 ca 85 3d d5 eb 62 be f6 9b f5 bd 17 14 a1 3c
       0.06532721 -0.22160275 -0.11992638 0.0196629
000330 5e b6 af bd 75 d1 81 be a4 5f af 3d 56 50 4e bd
       -0.08579706 -0.25355116 0.08563164 -0.050369583
000340 5d 7e 0a be 6d ec a3 3b e2 af 3e 3c e8 d8 12 bd
       -0.13524766 0.0050025494 0.011638613 -0.03585139
000350 b3 f5 46 be e9 d5 38 bc 1d 6a d6 bd 0e e7 4d 3c
       -0.19429664 -0.011281469 -0.10469458 0.012567295
000360 77 27 1d be 48 8b 0d be c2 74 4e bb 10 b6 1a be
       -0.15347086 -0.13822663 -0.0031502699 -0.15108514
000370 f8 35 7c 3b 6c 07 16 3e f8 94 0f 3d d4 7f 15 be
       0.0038484316 0.14651269 0.035054177 -0.14599544
000380 d6 a5 3e be 31 17 33 3d 9d fd b5 be 85 c3 82 be
       -0.18617949 0.04372329 -0.35545054 -0.25539795
000390 ed fb a2 39 22 87 16 be 53 9f fd bd 1f 57 35 3d
       0.00031086747 -0.14699987 -0.12383904 0.04427254
0003a0 fb 82 3e 3e 21 c7 a4 3d 56 98 1f be 2b 74 22 3d
       0.18604653 0.08045793 -0.15585455 0.039661568
0003b0 69 45 03 bd af cc c6 bd 3a 94 70 be 14 78 4b bd
       -0.032048617 -0.09707009 -0.23494044 -0.049675062
0003c0 22 5e 17 be 64 ea 12 be 0c e7 10 be 57 2e 97 3d
       -0.14782003 -0.14347225 -0.14150637 0.073818855
0003d0 26 6a 2a be ce 26 8d be 8f d6 83 3d 6c 8b 11 be
       -0.16642055 -0.27568668 0.06437408 -0.14213341
0003e0 7b 6f c4 bd cb a0 31 be a6 91 48 be 47 2e de bd
       -0.09591576 -0.17346494 -0.1958681 -0.108486705
0003f0 a0 2b 0c bd 24 63 c5 be 9d 6c e8 3d 1b ec 0b 3b
       -0.03422129 -0.385522 0.11348841 0.0021350447

model/time_distributed_11/dense_1/MatMul f4 [64, 1488]
000000 77 83 29 bb b2 5e bb 3c d8 31 24 3d 01 55 de bb
       -0.0025865713 0.022872303 0.040086597 -0.0067850356
000010 b1 c3 3a 3d dd 30 48 3d 67 c8 1c 3d eb dd 6e 3d
       0.045596782 0.048874725 0.038277056 0.058317106
000020 7c e7 c3 3d 60 2a 5b bd fd 2c 36 3d 6c 5e 2a 3d
       0.095656365 -0.05350721 0.044476498 0.041593954
000030 27 36 f8 3c 04 16 a9 bc 85 52 52 3c 9f c7 8b bc
       0.03029926 -0.02064038 0.012837057 -0.01706296
000040 06 a8 59 bd 02 ea f2 3c 02 34 45 bd 04 72 09 bd
       -0.053138755 0.0296526 -0.0481453 -0.033556
000050 03 45 72 bd ac 82 82 bd 00 70 1b bc 87 8f 84 3c
       -0.059147846 -0.0637258 -0.009487152 0.01618172
000060 ce 95 21 bd f7 ef b6 bd e0 eb bd 3b 41 b1 dc bc
       -0.039449506 -0.089324884 0.0057959408 -0.02693999
000070 dd 0e 71 bd bc fe 03 bd d7 55 b0 3d 9a 33 e6 bb
       -0.058852065 -0.032225356 0.08610123 -0.0070251944
000080 4f ad 2e bd 42 98 f6 3c 89 0c cb bd 83 ec c6 bd
       -0.04264575 0.030101899 -0.099145 -0.0971308
000090 2d d6 16 bd 96 8d cb bd c5 1e 95 3c 2e 36 83 3d
       -0.036825348 -0.09939115 0.018203149 0.06406818
0000a0 ef cb 28 3d 66 2d 76 bd 79 0d 0c bd 7e a0 d2 bc
       0.04121011 -0.06010189 -0.034192536 -0.025711294
0000b0 4d d9 0e bd d6 7f cb bc f6 33 07 3d 6e f5 c3 3b
       -0.034875203 -0.02484123 0.03300854 0.0059801852
0000c0 88 73 c0 bb 33 fb ed bc bb 24 4c bd a7 b0 53 3b
       -0.0058731474 -0.029050445 -0.049839716 0.0032301338
0000d0 4a 98 ac 3c 49 52 63 3b 75 b9 02 bd 03 21 dc 3b
       0.02106871 0.0034686497 -0.031915147 0.0067178025
0000e0 49 3f bb 3c d3 2c e3 bc e1 ec 0f 3d 4e d9 83 bd
       0.022857325 -0.027731335 0.035138015 -0.06437932
0000f0 b1 3f 61 bd bf 46 31 3d 18 05 9f 3c 82 87 53 bd
       -0.05499238 0.04328036 0.019411609 -0.051642902
000100 ed 7d 23 3d 4d 35 c2 bc 4c 11 17 bd 46 1a 52 3d
       0.039915014 -0.023707056 -0.03688173 0.051294588
000110 8c f4 0b 3d 72 5b c6 3b 63 91 1b bd b4 5d 39 bd
       0.034168765 0.0060533816 -0.03798045 -0.045255378
000120 9a 8b 47 bd ac f7 96 bd d6 fb 4c 3d 88 ed 95 bc
       -0.04871712 -0.073714584 0.050044857 -0.01830174
000130 6d c1 2f 3d 8c d2 48 3d b8 41 86 bc 77 c5 92 bd
       0.042909075 0.04902892 -0.016388759 -0.0716657
000140 c2 ba f6 bc e1 8e 1b bd 9f 5c 44 3d d7 28 04 bd
       -0.03011835 -0.037978057 0.047939893 -0.03226551
000150 a0 cd 07 bd 6c 2b 49 bd 7e be d4 bb d7 68 96 bd
       -0.033155084 -0.049113676 -0.006492435 -0.07344215
000160 26 14 a3 bc 92 a8 af 3c 57 39 26 3d e0 6f f4 3b
       -0.019907068 0.021442685 0.040582027 0.0074596256
000170 a1 f8 31 bc 1a e3 39 bd 8a e1 94 bd f1 e6 39 bd
       -0.0108625 -0.045382597 -0.07269581 -0.04538626
000180 29 32 a7 3c 0a b8 5b bd e3 11 be 3c c2 87 c5 3c
       0.02040966 -0.05364231 0.023201888 0.024112586
000190 c6 b0 92 bd b9 6f 11 3d fd 35 12 bd a3 3f 17 be
       -0.07162623 0.035506938 -0.03569602 -0.14770369
0001a0 bb 1e dc 3c c5 05 29 bd 6e 30 8d bb 2c a5 51 bc
       0.026870122 -0.041265268 -0.004308752 -0.012795728
0001b0 c5 02 19 bd 81 66 82 3c 72 0c 6c bd 42 b5 49 3c
       -0.037356157 0.015918018 -0.057629056 0.012311282
0001c0 78 25 56 bd 09 24 8a 3b 5e 11 4a 3c 95 b3 ab 3c
       -0.052281827 0.0042157215 0.012333242 0.020959655
0001d0 4b 47 7f bd 56 54 a8 bc ca 32 86 3d dd aa 20 bd
       -0.06232385 -0.020548027 0.06552656 -0.039225448
0001e0 90 82 95 bd f3 73 58 bd b2 a4 47 3d 85 21 9e bd
       -0.073002934 -0.052844953 0.04874105 -0.07721237
0001f0 cb 13 21 bd db 6f 28 bd 8f 0b 89 bc 34 43 52 bd
       -0.039325517 -0.0411223 -0.016729144 -0.05133362
000200 68 44 dd 3b 11 87 cd 3c 61 f6 25 3d df 33 5f bd
       0.0067525394 0.025088819 0.04051817 -0.054492828
000210 f6 2f e7 bc ff 3a 4e bd ab 2e 8c 3d 8b 1d e9 bc
       -0.028221112 -0.05034923 0.06844839 -0.02845647
000220 a9 e2 cd bc 3f 78 1f bc ca d5 e4 3a a2 d8 9c bc
       -0.025132494 -0.009733259 0.0017458734 -0.019146267
000230 36 a7 8d 3d 9e 2a 57 3c 6c 29 c3 bc bd 26 7d 3d
       0.069166586 0.013132719 -0.023823462 0.06180452
000240 5c 1e ae bd 70 fd fe 3c 29 11 91 bc 28 b4 60 bd
       -0.08501884 0.031126708 -0.017708378 -0.05485931
000250 86 70 2f bd bf 1e b9 bd 0d 0a 60 3d e8 26 9f 3c
       -0.04283192 -0.090390675 0.054697085 0.019427732
000260 3b 4c 35 bd 9c 28 b3 bd f7 92 92 3d ee 25 82 3d
       -0.044262152 -0.0874798 0.071569376 0.06354891
000270 26 4e 88 bb 8d 90 af bd f0 8c 3e 3d ea 8c b1 3c
       -0.0041597066 -0.08572493 0.046521127 0.021673638
000280 3b ca 72 bd dc 2a 05 3d fd 4c 4c 3d 0b d0 d8 bc
       -0.059274893 0.032511577 0.04987811 -0.02646639
000290 88 45 34 3d 91 82 c5 bd 9e eb 1f 3d ee c2 48 bd
       0.044011623 -0.09644044 0.03904306 -0.049014024
0002a0 98 83 09 3a 23 0c 77 bd 49 83 45 3d c2 c0 ae 3c
       0.0005245744 -0.06031431 0.048220906 0.021332148
0002b0 38 ec c8 bc 62 17 91 bb 0b 8a 18 3d eb 22 9b 3b
       -0.0245267 -0.0044278363 0.037241023 0.004734387
0002c0 2d d3 af bd 1f 2d 77 bd a7 d0 43 bd 68 c1 88 bd
       -0.085852005 -0.060345765 -0.04780641 -0.06677514
0002d0 a4 02 39 3d 29 51 b1 bc 1c 5d 94 bc 8d ab e6 bb
       0.045168534 -0.021645145 -0.018110804 -0.0070394934
0002e0 ca 36 af 3c a0 ed b7 bd 2a ac 7d 3c 0b 0b 0d bd
       0.02138843 -0.0898087 0.015482942 -0.03443436
0002f0 6b 75 10 3d b2 97 2a 3b 31 8e 0d 3d 00 b0 d5 bb
       0.03526823 0.002603036 0.034559432 -0.006521225
000300 76 db 23 bd 33 2c 8c bc 78 85 d0 3c ef 52 3a 3c
       -0.040004216 -0.01711092 0.025454268 0.011372312
000310 20 55 fd 3c 51 f6 92 bd 38 38 9d 3b c8 79 5f bc
       0.03092438 -0.071758874 0.0047979616 -0.013639875
000320 eb b1 9e 3b 06 52 c2 bd cb c6 85 3c 54 7c ee 3c
       0.004842987 -0.09488301 0.016330143 0.029112019
000330 f3 00 d7 3d 50 af 3c bd 79 a6 3a 3d 5e 21 20 3d
       0.10498228 -0.04606563 0.045568917 0.03909432
000340 30 34 89 bd ee c8 8a bd e9 dd f5 3c af 80 7b bd
       -0.06699407 -0.067766055 0.030013042 -0.06140202
000350 a9 9d 0e 3d 4b 23 05 3d f2 60 80 3b 1d b4 78 bd
       0.034818325 0.03250436 0.003917807 -0.060718644
000360 54 8d 74 3d 1e fd d2 bd 57 c6 3d bd 79 3d 9a 3d
       0.059705094 -0.103021845 -0.04633173 0.07531256
000370 46 2a a5 3d 20 98 7b bd 61 11 33 3c c1 09 3f 3c
       0.08064704 -0.061424375 0.010929436 0.01166004
000380 be 71 26 bc b3 84 81 bd 95 98 0f bd 42 d9 21 3d
       -0.010158954 -0.063241385 -0.035057623 0.039513834
000390 17 12 3c bd cd 46 16 3d a5 40 f4 bc bc 4a bb bd
       -0.04591569 0.036688615 -0.029815981 -0.09145114
0003a0 ae f8 68 3d 2e 18 f4 bc 40 61 1f bb 02 2b 4a 3d
       0.056877784 -0.029796686 -0.002431944 0.04935742
0003b0 84 62 65 3d 97 ed 8e bc e7 e3 87 3d 68 d2 06 3b
       0.056002155 -0.017447276 0.06635266 0.002057219
0003c0 fa 3f 0e bd 84 9f 31 bc 3e 6d c2 bb 3d 87 9c 3b
       -0.03472898 -0.010841254 -0.005933433 0.004776864
0003d0 1f 1f 1c 3d 30 a2 94 bd 07 68 88 bd c6 2a c0 bc
       0.038115617 -0.07257497 -0.06660467 -0.023457896
0003e0 1e 24 d4 bc e3 6e 14 bc 47 bd 30 bd 5d fd 6f bd
       -0.025896128 -0.009059641 -0.04314926 -0.058591235
0003f0 96 13 86 bb 48 6e 80 bd 79 22 89 3d aa 08 9b 3c
       -0.0040916903 -0.062710345 0.06696028 0.01892503

model/time_distributed_3/batch_normalization/FusedBatchNormV3 f4 [8]
000000 83 88 b4 bf 84 00 b8 bf 3f 0a 82 bf 4f c9 af bf
       -1.410416 -1.4375157 -1.0159377 -1.373331
000010 d0 c8 b2 bf bd 4c 9c bf 14 d8 7e bf 3d a4 bd bf
       -1.3967533 -1.2210919 -0.9954846 -1.4815747

model/time_distributed_3/batch_normalization/FusedBatchNormV31 f4 [8]
000000 cc c4 69 3f db d0 72 3f b1 26 4e 3f f3 32 66 3f
       0.91315913 0.9484994 0.8052779 0.8992149
000010 5c 81 5e 3f f3 6d 61 3f c7 d9 60 3f 01 bb 74 3f
       0.86916137 0.88058394 0.878323 0.95597845
