HPC_Final_Study2_Complete_Test_Class_Balance_run_all/participants_session_transfer_train_fresh_model/participant_13/session_1/session_1_lite_models/indexpen_model.tflite (tflite, 573028 bytes, 29 tensors)

model/time_distributed_6/conv2d_1/BiasAdd;model/time_distributed_6/conv2d_1/Conv2D;model/time_distributed_6/conv2d_1/BiasAdd/ReadVariableOp/resource f4 [16]
000000 43 50 fa 3d c3 27 a9 3d 79 1f ca 3d ac 91 80 3d
       0.1222234 0.08259537 0.09869284 0.06277785
000010 21 b3 de 3d 50 23 03 3e 09 8a 37 3e 21 ce f9 3d
       0.1087401 0.1280644 0.1792375 0.12197519
000020 e6 43 ad 3d 32 7f 0b 3e 7d 5e 2b 3e b9 86 e8 3d
       0.08460216 0.1362274 0.16735263 0.11353821
000030 3a e6 72 3d e8 a9 d8 3d 3b 6b 6e 3d a3 ee 48 3d
       0.059301592 0.10579282 0.05820773 0.049055707

model/time_distributed/conv2d/BiasAdd;model/time_distributed/conv2d/Conv2D;model/time_distributed/conv2d/BiasAdd/ReadVariableOp/resource f4 [8]
000000 85 41 1a be 13 32 d1 3d a9 3c aa 3d 16 08 d0 3c
       -0.15064056 0.10214629 0.08312351 0.02539448
000010 89 a1 eb bc 35 83 07 3d d9 d9 20 3e 62 37 77 3c
       -0.02876355 0.033084113 0.15708102 0.015088888

model/time_distributed_6/conv2d_1/Conv2D f4 [16, 3, 3, 1]
000000 65 2d 4c 3d 3d 44 34 3d 6a 4e 93 bd a6 f9 6f 3c
       0.04984798 0.04401039 -0.07192691 0.014646923
000010 f0 ea dd 3c cd c0 1c bd 16 ea 95 bd bd 4a 1d 3d
       0.027089566 -0.038269807 -0.07320039 0.038401354
000020 c8 7a ad 3c fc 3d 82 3c ae a3 c5 3d 41 3d d6 bd
       0.02117671 0.015898697 0.0965036 -0.10460902
000030 dd 62 ae bd 25 fa 3d 3e 61 20 e0 bd c8 77 84 bc
       -0.085149504 0.18552454 -0.10943676 -0.016170397
000040 7a 13 fd bd 68 ac 11 3e b3 17 b6 3d c0 7f 4b be
       -0.123572305 0.14225924 0.08891239 -0.19872952
000050 ca 0b d7 3d e7 d3 b0 3d 01 a6 41 3d 38 d0 06 be
       0.105002955 0.08634167 0.047277454 -0.13165367
000060 02 06 fc bc 38 68 05 3d 3a 4c 36 3b a6 79 7c 3c
       -0.030764583 0.032570094 0.002781643 0.015409863
000070 40 30 60 3d c1 bc 48 bd 11 ae 55 ba 20 6b 6d bc
       0.054733515 -0.049008135 -0.0008151243 -0.014490873
000080 97 92 93 bc 96 c1 b1 3c 64 ad b7 bc 47 b0 6b 3c
       -0.018014235 0.021698754 -0.022421546 0.0143852895
000090 1e 95 fa 3b 17 2e 10 be ff b2 2a 3e cd 21 1e bd
       0.0076471707 -0.14080082 0.16669844 -0.038606454
0000a0 ba 2f 46 3d f2 1a 11 bd 8f bc 0e bd 7b ae 5e 3d
       0.04838536 -0.035426088 -0.034847792 0.054365616
0000b0 c9 44 bf bb 99 37 1f 3e 81 07 93 bd ad d9 82 bd
       -0.0058370573 0.15548553 -0.07179166 -0.063891746
0000c0 d4 bb 4b bd ed e2 6e bd 83 8e c8 3d 53 a6 0b 3d
       -0.049739674 -0.058321882 0.09792807 0.034094166
0000d0 2e e2 30 3d f0 de 5a bd e6 48 56 3d 24 49 ff bd
       0.04318445 -0.053435266 0.052315615 -0.12465122
0000e0 2b 9e 87 3d 95 22 9a 3c d8 4a 94 3d 6a 4d d9 bd
       0.06621965 0.018815318 0.07240838 -0.10610469
0000f0 27 ba a1 3c 04 40 3f 3d 1f 89 80 bd 48 22 d8 bd
       0.019742085 0.04669191 -0.06276154 -0.10553414
000100 f5 c0 c1 3d 81 c4 8a 3c b7 2d e2 3c 1e 0a 59 bd
       0.09460632 0.016939403 0.02760969 -0.052988164
000110 52 4c f3 3c 1c 1c a5 bd 5d ba 28 3d dd 4d e0 3c
       0.029699478 -0.08062002 0.041193355 0.027380878
000120 ec b9 6b bc fc 13 5d 3b 65 96 09 bc 0a 74 7b 3d
       -0.014387589 0.0033733835 -0.008397673 0.06138996
000130 06 ee ce bd 90 93 83 3d d9 87 c3 3d 25 93 37 be
       -0.10103993 0.0642463 0.09547395 -0.17927225
000140 28 e2 94 3d da 29 67 3d cc 4b ba bd c8 c4 2f 3d
       0.072696984 0.056436397 -0.09096488 0.042912275
000150 72 61 7d 3c 1b 18 d5 3c 87 c0 85 bd dd 9d 07 3d
       0.015465127 0.026012471 -0.06530862 0.033109535
000160 80 b7 19 3c 69 de 5c bc aa 48 c7 bd cb 16 31 3e
       0.009382129 -0.013480761 -0.097306564 0.17293851
000170 1f 95 c2 bd 18 f5 26 3d af 54 98 3d fa 22 df bd
       -0.09501099 0.040761083 0.07438027 -0.10895343
000180 6b 24 25 bd 4d 56 17 3e 03 d1 d2 bd 9b c5 b1 bd
       -0.040317934 0.14779015 -0.10293772 -0.086802684
000190 77 0d 61 3e bf 5b 0c be 46 44 36 be e3 32 f2 3d
       0.21977793 -0.13706873 -0.17799482 0.11826112
0001a0 a8 54 6f 3d 1c 3c 02 3e 98 ca 31 be 89 b2 26 3d
       0.058430344 0.12718242 -0.1736244 0.04069761
0001b0 da 7d bc bd f8 32 41 3e 23 a8 ce bd 43 7b ba bd
       -0.09203692 0.188671 -0.10090663 -0.091055416
0001c0 0c a0 20 3e 4c e4 8c bd a0 8e a6 bd b1 1f 53 3e
       0.15686053 -0.06879482 -0.08132672 0.20617558
0001d0 8f 93 19 be ad 17 ad bc ed 9e cf 3d 48 28 71 bd
       -0.14997695 -0.021129454 0.101377346 -0.058876306
0001e0 2f 47 51 bc 98 d0 09 be 4e eb 06 3e 70 33 07 bc
       -0.012773319 -0.13458478 0.13175699 -0.00825201
0001f0 ca aa 25 3d 11 3e 52 bc 34 c9 a3 bc cf 45 ab bc
       0.04044608 -0.012832181 -0.019993402 -0.02090731
000200 0c 5f 55 3c d3 00 c7 bc 71 3c bb bc 2d 4a 8c 3d
       0.013023149 -0.024292385 -0.02285597 0.068500854
000210 48 70 97 3d 5e 1b 08 be 71 c1 83 3d 99 10 1d 3c
       0.07394463 -0.1329169 0.064333804 0.009586477
000220 75 ea eb bc d6 a9 6f bb ef 91 82 bc 8b e1 bd 3c
       -0.028798321 -0.0036569736 -0.015938727 0.023178836
000230 e2 cf d2 39 94 78 a9 3d 62 fc 95 bd 8a 72 a5 bc
       0.00040209206 0.082749516 -0.07323529 -0.020196218

model/time_distributed/conv2d/Conv2D f4 [8, 3, 3, 1]
000000 9a 56 28 3b 88 67 d1 bc 2f a1 6d 3c 5c 38 09 bc
       0.0025686384 -0.025562063 0.014503761 -0.0083752535
000010 4f fe 07 3d 24 8e a4 bb ce 9d f8 3b 78 aa a2 bc
       0.033201512 -0.0050218273 0.007587171 -0.019856676
000020 2e 43 9b 3b 2f ee 11 3c 7b 70 f4 bc 61 1b 68 3c
       0.004738233 0.008906885 -0.029838791 0.014166684
000030 c9 1e 25 bb 59 23 50 3c 4f af 91 bb d7 29 0f bc
       -0.0025195351 0.01270374 -0.0044459472 -0.008738003
000040 a9 d4 25 3c 1e c6 a7 3b 78 19 4f b9 90 2a a1 3c
       0.010121503 0.005120053 -0.00019750546 0.019673616
000050 05 2d 2d bc f7 6c f5 ba f3 42 0b bd d8 e2 dd 3c
       -0.0105698155 -0.0018724491 -0.033999395 0.027085707
000060 70 ff 3d b9 f2 c0 8d 3c 69 9b bd bc 89 90 6a bb
       -0.00018119602 0.017303918 -0.023145394 -0.0035791716
000070 c6 6f 92 3c a8 3f 44 3c be ae 83 3c 9e 46 09 bd
       0.017875563 0.011978067 0.016074535 -0.03351461
000080 a9 10 66 bc 37 3d 6b bc 40 a7 f3 3b e6 5d 61 3c
       -0.014042058 -0.0143578565 0.0074357092 0.013755297
000090 12 a1 58 3c e9 16 17 bc ec 44 e4 3c b0 e1 37 3b
       0.013221996 -0.009221771 0.027864896 0.0028058104
0000a0 33 fe 20 bc 16 a5 a0 bc bb e1 1d b7 03 b3 92 3b
       -0.009826231 -0.01960997 -9.410486e-06 0.0044769063
0000b0 ea 92 a0 bb 1d 08 36 bc bc 0b bf bb 7f 5d 19 bc
       -0.004900326 -0.011110333 -0.0058302563 -0.00936067
0000c0 00 7f 56 3c 14 02 00 bc 59 03 38 3c 52 e0 6c 3c
       0.013091803 -0.007812995 0.011231267 0.014457779
0000d0 e1 3d 1f bc 20 62 fa bb 95 87 8e 3c 9b 25 8c bc
       -0.009719343 -0.007641092 0.017398635 -0.017107775
0000e0 bc c2 dc 3b dd 17 01 3c 3e 58 08 ba b8 7b b4 bb
       0.0067370813 0.007879225 -0.00052011374 -0.0055079125
0000f0 3c 17 01 3c 14 a8 4d bc e2 f1 04 3b 50 cf 05 3c
       0.007879075 -0.01255228 0.0020285775 0.008167103
000100 7e 0e ba bb 20 c0 83 bb c3 b2 c2 bb 18 07 1a 3c
       -0.005677997 -0.004020706 -0.00594172 0.009401105
000110 6c d3 01 3d b0 0a 40 bc a0 10 95 3b aa ba a8 bc
       0.03169577 -0.011721298 0.004549101 -0.02059682

model/lstm/TensorArrayV2_1 f4 [120, 1, 32]
000000 00 00 00 00 00 00 00 00 00 00 00 00 00 00 00 00
       0.0 0.0 0.0 0.0
000010 00 00 00 00 00 00 00 00 00 00 00 00 00 00 00 00
       0.0 0.0 0.0 0.0
000020 00 00 00 00 00 00 00 00 00 00 00 00 00 00 00 00
       0.0 0.0 0.0 0.0
000030 00 00 00 00 00 00 00 00 00 00 00 00 00 00 00 00
       0.0 0.0 0.0 0.0
000040 00 00 00 00 00 00 00 00 00 00 00 00 00 00 00 00
       0.0 0.0 0.0 0.0
000050 00 00 00 00 00 00 00 00 00 00 00 00 00 00 00 00
       0.0 0.0 0.0 0.0
000060 00 00 00 00 00 00 00 00 00 00 00 00 00 00 00 00
       0.0 0.0 0.0 0.0
000070 00 00 00 00 00 00 00 00 00 00 00 00 00 00 00 00
       0.0 0.0 0.0 0.0
000080 00 00 00 00 00 00 00 00 00 00 00 00 00 00 00 00
       0.0 0.0 0.0 0.0
000090 00 00 00 00 00 00 00 00 00 00 00 00 00 00 00 00
       0.0 0.0 0.0 0.0
0000a0 00 00 00 00 00 00 00 00 00 00 00 00 00 00 00 00
       0.0 0.0 0.0 0.0
0000b0 00 00 00 00 00 00 00 00 00 00 00 00 00 00 00 00
       0.0 0.0 0.0 0.0
0000c0 00 00 00 00 00 00 00 00 00 00 00 00 00 00 00 00
       0.0 0.0 0.0 0.0
0000d0 00 00 00 00 00 00 00 00 00 00 00 00 00 00 00 00
       0.0 0.0 0.0 0.0
0000e0 00 00 00 00 00 00 00 00 00 00 00 00 00 00 00 00
       0.0 0.0 0.0 0.0
0000f0 00 00 00 00 00 00 00 00 00 00 00 00 00 00 00 00
       0.0 0.0 0.0 0.0
000100 00 00 00 00 00 00 00 00 00 00 00 00 00 00 00 00
       0.0 0.0 0.0 0.0
000110 00 00 00 00 00 00 00 00 00 00 00 00 00 00 00 00
       0.0 0.0 0.0 0.0
000120 00 00 00 00 00 00 00 00 00 00 00 00 00 00 00 00
       0.0 0.0 0.0 0.0
000130 00 00 00 00 00 00 00 00 00 00 00 00 00 00 00 00
       0.0 0.0 0.0 0.0
000140 00 00 00 00 00 00 00 00 00 00 00 00 00 00 00 00
       0.0 0.0 0.0 0.0
000150 00 00 00 00 00 00 00 00 00 00 00 00 00 00 00 00
       0.0 0.0 0.0 0.0
000160 00 00 00 00 00 00 00 00 00 00 00 00 00 00 00 00
       0.0 0.0 0.0 0.0
000170 00 00 00 00 00 00 00 00 00 00 00 00 00 00 00 00
       0.0 0.0 0.0 0.0
000180 00 00 00 00 00 00 00 00 00 00 00 00 00 00 00 00
       0.0 0.0 0.0 0.0
000190 00 00 00 00 00 00 00 00 00 00 00 00 00 00 00 00
       0.0 0.0 0.0 0.0
0001a0 00 00 00 00 00 00 00 00 00 00 00 00 00 00 00 00
       0.0 0.0 0.0 0.0
0001b0 00 00 00 00 00 00 00 00 00 00 00 00 00 00 00 00
       0.0 0.0 0.0 0.0
0001c0 00 00 00 00 00 00 00 00 00 00 00 00 00 00 00 00
       0.0 0.0 0.0 0.0
0001d0 00 00 00 00 00 00 00 00 00 00 00 00 00 00 00 00
       0.0 0.0 0.0 0.0
0001e0 00 00 00 00 00 00 00 00 00 00 00 00 00 00 00 00
       0.0 0.0 0.0 0.0
0001f0 00 00 00 00 00 00 00 00 00 00 00 00 00 00 00 00
       0.0 0.0 0.0 0.0
000200 00 00 00 00 00 00 00 00 00 00 00 00 00 00 00 00
       0.0 0.0 0.0 0.0
000210 00 00 00 00 00 00 00 00 00 00 00 00 00 00 00 00
       0.0 0.0 0.0 0.0
000220 00 00 00 00 00 00 00 00 00 00 00 00 00 00 00 00
       0.0 0.0 0.0 0.0
000230 00 00 00 00 00 00 00 00 00 00 00 00 00 00 00 00
       0.0 0.0 0.0 0.0
000240 00 00 00 00 00 00 00 00 00 00 00 00 00 00 00 00
       0.0 0.0 0.0 0.0
000250 00 00 00 00 00 00 00 00 00 00 00 00 00 00 00 00
       0.0 0.0 0.0 0.0
000260 00 00 00 00 00 00 00 00 00 00 00 00 00 00 00 00
       0.0 0.0 0.0 0.0
000270 00 00 00 00 00 00 00 00 00 00 00 00 00 00 00 00
       0.0 0.0 0.0 0.0
000280 00 00 00 00 00 00 00 00 00 00 00 00 00 00 00 00
       0.0 0.0 0.0 0.0
000290 00 00 00 00 00 00 00 00 00 00 00 00 00 00 00 00
       0.0 0.0 0.0 0.0
0002a0 00 00 00 00 00 00 00 00 00 00 00 00 00 00 00 00
       0.0 0.0 0.0 0.0
0002b0 00 00 00 00 00 00 00 00 00 00 00 00 00 00 00 00
       0.0 0.0 0.0 0.0
0002c0 00 00 00 00 00 00 00 00 00 00 00 00 00 00 00 00
       0.0 0.0 0.0 0.0
0002d0 00 00 00 00 00 00 00 00 00 00 00 00 00 00 00 00
       0.0 0.0 0.0 0.0
0002e0 00 00 00 00 00 00 00 00 00 00 00 00 00 00 00 00
       0.0 0.0 0.0 0.0
0002f0 00 00 00 00 00 00 00 00 00 00 00 00 00 00 00 00
       0.0 0.0 0.0 0.0
000300 00 00 00 00 00 00 00 00 00 00 00 00 00 00 00 00
       0.0 0.0 0.0 0.0
000310 00 00 00 00 00 00 00 00 00 00 00 00 00 00 00 00
       0.0 0.0 0.0 0.0
000320 00 00 00 00 00 00 00 00 00 00 00 00 00 00 00 00
       0.0 0.0 0.0 0.0
000330 00 00 00 00 00 00 00 00 00 00 00 00 00 00 00 00
       0.0 0.0 0.0 0.0
000340 00 00 00 00 00 00 00 00 00 00 00 00 00 00 00 00
       0.0 0.0 0.0 0.0
000350 00 00 00 00 00 00 00 00 00 00 00 00 00 00 00 00
       0.0 0.0 0.0 0.0
000360 00 00 00 00 00 00 00 00 00 00 00 00 00 00 00 00
       0.0 0.0 0.0 0.0
000370 00 00 00 00 00 00 00 00 00 00 00 00 00 00 00 00
       0.0 0.0 0.0 0.0
000380 00 00 00 00 00 00 00 00 00 00 00 00 00 00 00 00
       0.0 0.0 0.0 0.0
000390 00 00 00 00 00 00 00 00 00 00 00 00 00 00 00 00
       0.0 0.0 0.0 0.0
0003a0 00 00 00 00 00 00 00 00 00 00 00 00 00 00 00 00
       0.0 0.0 0.0 0.0
0003b0 00 00 00 00 00 00 00 00 00 00 00 00 00 00 00 00
       0.0 0.0 0.0 0.0
0003c0 00 00 00 00 00 00 00 00 00 00 00 00 00 00 00 00
       0.0 0.0 0.0 0.0
0003d0 00 00 00 00 00 00 00 00 00 00 00 00 00 00 00 00
       0.0 0.0 0.0 0.0
0003e0 00 00 00 00 00 00 00 00 00 00 00 00 00 00 00 00
       0.0 0.0 0.0 0.0
0003f0 00 00 00 00 00 00 00 00 00 00 00 00 00 00 00 00
       0.0 0.0 0.0 0.0

model/dense_2/BiasAdd/ReadVariableOp/resource f4 [256]
000000 3f 33 72 3d 10 11 f0 3c 6f 07 6f 3d 28 55 c6 3d
       0.059130903 0.029305011 0.0583567 0.09684211
000010 79 d1 a5 3d a1 a5 8f 3d 5c 1a 07 3e ce dc 01 3d
       0.08096594 0.07014013 0.13193649 0.031704716
000020 79 31 9d 3d c3 82 1f 3e 61 2e 09 3e 84 1c 40 3d
       0.07675452 0.15577225 0.13396598 0.046902195
000030 64 ca b9 3d fa c3 83 3d 24 55 a8 3d cb 92 e4 3d
       0.09071806 0.06433864 0.08219364 0.11160811
000040 c0 89 ea 3d fe 24 03 3e 18 0a f3 3d 66 08 7b 3d
       0.11452055 0.1280708 0.118671596 0.061287306
000050 2a 4e d0 39 f4 8e fc 3d 24 ab 17 3d 32 bf e4 3d
       0.00039731088 0.12331954 0.037028447 0.1116928
000060 9a 28 dc 3d e6 25 90 3c 0b 57 0c 3e eb e1 e5 3d
       0.10749932 0.017596196 0.1370508 0.11224731
000070 69 4f f6 3d 0f be c3 3d 2f 5e 4e 3b 54 3b 27 3d
       0.12026865 0.09557735 0.0031489243 0.040828064
000080 15 a4 83 3d 67 cf 52 3d f2 fe cd 3d 29 fe 0f 3d
       0.064277805 0.051467326 0.100583926 0.035154495
000090 78 fd 5b 3d 99 b8 3d 3d 37 36 ac 3d 21 d8 71 3d
       0.053708524 0.046318624 0.08408778 0.059044007
0000a0 21 1c 9d 3d 1c 77 18 3d d3 85 1f 3e ad fc d5 3d
       0.07671381 0.037222967 0.15578394 0.10448585
0000b0 3d c2 b2 3d 23 28 5b 3d 2b 16 ef 3d 21 2f 24 3d
       0.08728454 0.053505074 0.1167415 0.040084008
0000c0 8d 8b 72 3d 39 b2 a9 3d fe 42 92 3d 7b 96 88 3c
       0.059215117 0.082859464 0.07141684 0.016673317
0000d0 0c 9c d1 3d e0 a0 e4 3d 50 ee 78 3d 79 db 4e 3d
       0.10234842 0.11163497 0.060774148 0.050502274
0000e0 6a 9b bf 3d 91 2f 6a 3d 61 d1 be 3d 21 e7 69 3d
       0.09355815 0.05717427 0.093172796 0.057105187
0000f0 5b ca cd 3d 87 fa 77 3d fd 40 e1 3c df 09 3b 3d
       0.10048362 0.060541656 0.02749681 0.04566371
000100 fa d7 0f 3e 4d 76 59 3d 7a 58 c0 3d dc 2c 8f 3d
       0.14047232 0.053091336 0.093918756 0.06990978
000110 a7 42 d6 3d 5b 84 c7 3d 47 f6 ba 3c 29 86 0a 3e
       0.10461932 0.09742042 0.022822512 0.1352774
000120 d7 f7 2a 3e e8 08 e0 3d d1 55 24 3e 41 dc c1 3d
       0.16696106 0.10939199 0.16048361 0.09465838
000130 89 35 50 3d ea 0f 96 3b 49 cc a1 3d db ce a6 3d
       0.050832305 0.004579534 0.079002924 0.08144923
000140 4b a7 8b 3d e7 8a ca 3b 6d 49 e6 3d 82 65 70 3d
       0.06819018 0.006181109 0.112444736 0.058690555
000150 4d b2 e2 3c a6 50 31 3d b2 c4 48 3d 83 fa 01 3e
       0.027672911 0.043289803 0.04901571 0.12693219
000160 80 85 a6 3d a9 c0 41 3d 80 94 ae 3d 48 b2 9a 3d
       0.08130932 0.047302876 0.08524418 0.07553536
000170 70 a0 9d 3d 9f 45 f0 3d 6c 7d e6 3d b2 60 70 3d
       0.07696617 0.11732029 0.11254391 0.058685966
000180 14 77 b5 3d 83 f2 a3 3d 71 be ae 3d 07 01 c5 3d
       0.08860603 0.0800524 0.085324176 0.096193366
000190 27 7a 21 3d b9 6b 28 3d fa ab 0a 3d 2f ae ef 3d
       0.039423134 0.041118357 0.033855416 0.11703145
0001a0 45 b8 24 3d 5e 72 98 3d e3 48 05 3d c2 5e 91 3d
       0.040214796 0.07443689 0.032540213 0.07098152
0001b0 6e a4 03 3d c6 3d e9 3d 60 d2 e5 3d 20 be 9c 3c
       0.032139234 0.113887355 0.112217665 0.019133627
0001c0 d3 4f 20 3d a6 a6 05 3d dd 54 80 3d d1 ed c2 3d
       0.039138626 0.03262963 0.062661864 0.09518016
0001d0 8d 83 e3 3d 46 d2 67 3d aa d9 ac 3d 98 c5 bd 3d
       0.11109076 0.056597017 0.084399536 0.09266204
0001e0 3c 99 36 3d b6 f6 a6 3d 1d f8 87 3d 6e 01 e6 3d
       0.04457973 0.08152525 0.06639121 0.112307414
0001f0 7d 04 7d 3d 67 c5 af 3d eb 8d ba 3d f0 61 41 3d
       0.06177186 0.085825734 0.091091 0.04721254
000200 fd fd b2 3d 85 dc 21 3d 1f 07 a4 3d 05 34 6d 3d
       0.08739851 0.039516944 0.08009171 0.057910938
000210 85 af 1b 3e fb aa 80 3d 4c 91 3e 3d 60 f8 ad 3d
       0.15203674 0.06282612 0.046525285 0.084946394
000220 d0 35 d0 3d 86 94 cc 3d 64 8e 61 3c ff 38 1f 3e
       0.10166514 0.09989266 0.013766859 0.15549086
000230 0e 84 96 3d 64 4a bc 3d c9 b4 b3 3d 8d 19 d3 3d
       0.07349406 0.091938764 0.087747164 0.10307608
000240 a0 6f 3c 3d 56 30 cb 3d f1 a4 15 3e 1c 58 88 3d
       0.04600489 0.09921329 0.14613701 0.066574305
000250 7c ef 03 3e fc ea 18 3e 9c c1 8a 3d d7 35 82 3d
       0.12884325 0.1493339 0.06775209 0.063579254
000260 c4 63 c6 3d cb c5 65 3d 30 73 9c 3d 46 82 ef 3d
       0.096869975 0.056096833 0.07639158 0.116947696
000270 22 d3 d3 3d 70 35 c2 3d 86 a2 e8 3d 44 9f 82 3d
       0.10343005 0.09482849 0.11359124 0.06378034
000280 d7 d3 3e 3d c3 df d3 3d 8f af 81 3d 4a 22 8d 3d
       0.046588745 0.103454135 0.06332313 0.06891306
000290 21 5b 8b 3d cc 99 8f 3d 74 c8 a5 3d 4e 6e a1 3d
       0.06804491 0.07011756 0.08094874 0.07882367
0002a0 87 0f d1 3d 5d 34 5a 3d d5 05 8d 3d 12 fc 7c 3d
       0.1020804 0.053272594 0.06885878 0.06176383
0002b0 ae 0d 12 3d ed de 63 3d 02 6c 90 3c ae e8 d5 3d
       0.035657577 0.05563252 0.017629627 0.10444771
0002c0 e6 56 a8 3c 53 78 b6 3d ce d0 83 3d 2a 18 be 3d
       0.020549249 0.08909669 0.06436311 0.09281953
0002d0 20 b9 44 3d 8d df e8 3d bd 15 8e 3d 56 c4 06 3e
       0.04802811 0.11370764 0.0693774 0.13160834
0002e0 fb 7b a1 3d f4 2c b5 3d df 10 51 3d 9f f4 47 3d
       0.078849755 0.08846465 0.05104148 0.048817273
0002f0 66 40 50 3d 54 78 ac 3d 6a e6 c5 3d ff 19 a7 3d
       0.050842665 0.08421388 0.096630886 0.08159255
000300 58 8d a2 3d d0 25 89 3d b5 f3 91 3d 02 b7 e4 3d
       0.079371154 0.06696665 0.071265616 0.111677185
000310 b8 ca a2 3d 8b a2 c2 3d ab 9f f1 3d 40 88 04 3e
       0.07948822 0.09503659 0.117980324 0.129426
000320 88 95 21 3e 80 c0 ba 3d df 1f ca 3d 8a 8f 03 3e
       0.15779698 0.09118748 0.0986936 0.12847725
000330 f2 87 5b bb 5d f3 cb 3d 5f fc 84 3d 12 bc a1 3d
       -0.0033497778 0.09958527 0.064934485 0.078972
000340 90 d4 fe 3d 8b 9b e3 3d 40 7a 1c 3d 58 d0 c4 3d
       0.12442887 0.11113652 0.038202524 0.09610051
000350 6b 57 68 3d 4e cb b9 3d c4 fc ab 3d 87 a8 b4 3d
       0.056723993 0.090719804 0.083978206 0.088212065
000360 e8 3f b3 3d c5 7c 32 3d 94 6b 1a 3e 7d a5 ae 3d
       0.087524235 0.04357602 0.150801 0.08527658
000370 c8 a0 aa 3d 50 a9 a9 3d 78 86 36 3d ba 3d 0f 3d
       0.08331448 0.08284247 0.044561833 0.034970976
000380 45 3e d5 3d a4 c2 61 3d 9a a3 99 3d 12 39 00 3d
       0.104122676 0.055117264 0.07501908 0.031304426
000390 05 e2 c1 3d 17 75 c2 3d 78 1e 39 3d 8d 6c be 3d
       0.09466938 0.09494989 0.045195073 0.09298048
0003a0 66 34 81 3d 1e 0f 9b 3d 59 24 9c 3d de 17 42 3d
       0.06308822 0.07571243 0.0762412 0.047386043
0003b0 90 62 71 3d 98 8e c4 3d 15 11 12 3d b4 7f 51 3d
       0.058931887 0.0959751 0.035660822 0.051147178
0003c0 92 18 8d 3d 3f 44 d8 3d 82 60 de 3d a2 f9 8a 3d
       0.06889452 0.10559892 0.10858251 0.06785895
0003d0 75 71 bf 3d 90 43 76 3d 78 4d 98 3d 0d 5d 75 3d
       0.09347812 0.060123026 0.07436651 0.059903193
0003e0 14 fc 98 3d e0 79 74 3d 9c da 12 3d c1 14 2f 3d
       0.07469955 0.05968654 0.035853013 0.0427444
0003f0 a3 57 ca 3c e3 a2 d9 3d cf cb 86 3d 21 12 8d ba
       0.024699992 0.10626771 0.06581842 -0.0010762849

model/last_layer/BiasAdd/ReadVariableOp/resource f4 [31]
000000 e1 79 6a bc 4b 3f 15 3c 02 3b 0c ba 09 6f 88 bc
       -0.014311285 0.0091093285 -0.0005349369 -0.016654508
000010 84 65 5d bc 6e 27 46 bb 92 2d 71 bc c8 4f 99 bb
       -0.013512973 -0.0030235904 -0.014720337 -0.0046787
000020 85 dd 8f bb 5d 35 0c bb 91 bb 03 bb 8a 45 08 bc
       -0.004390421 -0.0021394112 -0.0020100812 -0.008317361
000030 a9 c3 e2 bb 3b 9e 63 bc f6 30 40 bc d4 6e 74 3c
       -0.006920297 -0.013892706 -0.011730423 0.014919002
000040 44 33 8b bb 7c 7e ed bb 61 cb ca bb e5 56 25 bc
       -0.0042480547 -0.007247744 -0.0061887954 -0.010091518
000050 fb 0a c7 3a 26 a3 be bb 41 39 84 3a 73 b9 27 3b
       0.0015185768 -0.0058177887 0.0010087864 0.0025592714
000060 97 15 e8 3b 2c 1c b4 bb d6 d3 b9 bc 2f a8 c5 bb
       0.007082652 -0.0054965224 -0.022684019 -0.006032012
000070 ea f9 20 3c f0 9e 9a 3c 31 15 99 3c
       0.009825209 0.018874615 0.018686863

model/time_distributed_11/dense_1/BiasAdd/ReadVariableOp/resource f4 [64]
000000 4d c0 99 bc 1e d4 85 3c c4 5a a1 bc c6 55 cd 3a
       -0.018768454 0.016336497 -0.0196966 0.0015665821
000010 0c 43 a4 3b 5c 9a ae bc 2d 60 01 bc 89 25 67 bc
       0.0050128754 -0.021313839 -0.007896465 -0.01410807
000020 04 16 6e bc 85 cc 20 bc 59 b9 25 ba a2 8d 03 bc
       -0.014531616 -0.009814386 -0.00063218694 -0.008029373
000030 22 36 67 bc e7 dd 74 3c 1e 9f 22 bc 62 a0 2c bc
       -0.014112027 0.014945484 -0.009925632 -0.010536285
000040 82 1c 45 bc 65 eb 51 bc c3 3e 47 3b de 9a ea bb
       -0.012030723 -0.01281247 0.00304024 -0.007159575
000050 eb 74 07 bc 4d 17 7c bc 78 39 60 bc 4b ee ff bc
       -0.0082676215 -0.015386415 -0.013685577 -0.031241557
000060 7f 35 56 ba 09 8b 9d bc 41 4f 7e bc 8e 30 19 3c
       -0.00081714237 -0.019231336 -0.015521825 0.009349955
000070 92 6f 9f 3b 8c 6e 59 bc 63 bd 13 bc 13 7f d5 bc
       0.004865595 -0.013270985 -0.009017321 -0.02606157
000080 53 1a 14 bd 69 8a c5 bc 52 a1 b4 3b f2 d8 db bb
       -0.036157917 -0.02411385 0.005512395 -0.0067092115
000090 ee 20 d7 ba 00 c0 cc 3b d5 4a 17 bc af 53 97 3b
       -0.0016413012 0.006248474 -0.00923415 0.00461813
0000a0 ec 1c 97 bc 66 dc 2e bc 35 f1 12 bd 00 ef 9e bc
       -0.018446408 -0.010672664 -0.035874564 -0.019401073
0000b0 28 7e bd bc 15 96 5c bc 55 04 0b bd a7 73 e2 bc
       -0.023131445 -0.013463517 -0.03393968 -0.027643038
0000c0 be 7e 24 bb 65 f3 49 bc c0 72 b7 bb 1a 93 7c bc
       -0.0025099958 -0.012326096 -0.005598396 -0.015415931
0000d0 55 b4 0b bb 8d 28 00 bd 67 3c f8 bc a1 b2 3f bd
       -0.0021317203 -0.031288672 -0.03030224 -0.046801213
0000e0 43 d7 57 bc 1c 1d 7d bc 35 f6 6f bb bf 34 07 3c
       -0.013173881 -0.015448835 -0.0036615257 0.008252322
0000f0 5a 18 90 3a 49 a2 44 3b 76 c0 01 bd 04 14 31 bc
       0.0010993585 0.0030003956 -0.031677686 -0.010807995

model/time_distributed_5/dense/BiasAdd/ReadVariableOp/resource f4 [32]
000000 a9 7b b8 bc 7f fd 03 bc 7b cf a9 3c 73 31 08 bd
       -0.022519903 -0.008056044 0.020728817 -0.033250283
000010 8b 10 a0 bc ea a8 fe bc dc 50 57 bc 1c e3 53 bc
       -0.019539138 -0.031086404 -0.013141837 -0.012932565
000020 ba 9f 15 3d 47 93 8c 3a 80 57 e5 b6 ba 07 18 bd
       0.03652928 0.0010725044 -6.834918e-06 -0.037116744
000030 53 fc b8 bc 9c cf e3 3b 64 a3 e3 3b 92 90 e0 bc
       -0.022581255 0.006952239 0.006946968 -0.027412686
000040 76 ac 9b bc a4 f9 58 3b cd fc 07 3d f8 72 c8 bc
       -0.019003134 0.0033107782 0.033200074 -0.024468884
000050 ac e8 c4 bc 67 a3 0d bd 0a 00 04 3d 2b 16 05 3c
       -0.024036728 -0.03457966 0.0322266 0.008122961
000060 77 c6 13 bd bc 77 95 bc ab c7 d7 3c 33 48 60 bb
       -0.036077943 -0.01824557 0.026340326 -0.0034222722
000070 d6 ce a2 3c 8c dd 0c bc 2c e0 ba bc 0f 15 31 bc
       0.019874018 -0.008597743 -0.022811972 -0.010808243

model/dense_2/MatMul f4 [256, 32]
000000 ba 35 10 bd 5e 47 33 3e 5f 8a 54 bc 6c 89 64 3d
       -0.035207488 0.17507693 -0.012972443 0.05579512
000010 2b 34 03 3e 6f 6d 87 be e4 e0 89 bd 94 72 0e 3e
       0.12812869 -0.2645068 -0.067323476 0.13910896
000020 5c ff 30 3c 85 a9 48 be 01 36 85 bd df 72 02 3e
       0.01080307 -0.19595917 -0.06504441 0.12739132
000030 48 9e 3a 3e 35 79 ae 3d 85 4c 00 be cd 10 18 3e
       0.18224442 0.08519212 -0.1252919 0.14850159
000040 e4 1e 7d 3d 5b b7 22 bd 0f ff e0 3d 2f 4e 8f bd
       0.061797038 -0.039725643 0.109861486 -0.06997334
000050 65 82 b9 bd 03 b3 3e 3e a6 76 ba bd 3a 89 36 be
       -0.09058074 0.18622975 -0.09104662 -0.17825785
000060 ae ea 09 bd 3b 0e 35 3e 28 63 21 bd 29 75 5d 3e
       -0.033671074 0.1768121 -0.039401203 0.21626724
000070 b1 2a a6 bd b8 a3 46 3e a3 56 4d be 15 2f bb bc
       -0.081136115 0.19398391 -0.2005258 -0.022849599
000080 09 81 94 3c db d5 1c 3e 3c 0e 8d 3c c3 7d b1 bc
       0.018127935 0.15315954 0.017218702 -0.021666413
000090 07 59 dd bd ea 05 70 3d 87 58 93 bc a1 26 aa 3d
       -0.10807996 0.05859939 -0.017986549 0.08308149
0000a0 43 c6 92 bd da bc 79 bd 1f 3b 87 be 77 1e c4 3d
       -0.07166722 -0.06097112 -0.26412293 0.09576123
0000b0 0b 5f 55 3e 87 fe 22 3d 3d 69 97 3d 70 bc 97 3d
       0.20837037 0.039793517 0.073931195 0.074089885
0000c0 59 33 44 be f8 19 4b bd 12 2f dc 3d a3 a4 a2 3d
       -0.19160213 -0.049585313 0.107511654 0.07941558
0000d0 ba 38 30 3d e6 cf 3c be f8 c7 1a 3c c7 c0 e7 3d
       0.04302285 -0.18438682 0.00944709 0.11316066
0000e0 0c d6 a7 bd 38 eb bf bd a9 4a 01 3d 9c 03 07 be
       -0.08195123 -0.09371036 0.031565342 -0.1318497
0000f0 58 76 91 bd 27 1c eb bd be 0a 07 3a 93 70 09 be
       -0.071026504 -0.11479979 0.0005151442 -0.1342185
000100 b0 f2 0c 3e c7 0c 91 3d 0a 2a 29 3d 99 3c 15 be
       0.13764453 0.07082515 0.041299857 -0.14573897
000110 e0 6e 0a be 00 88 89 3e b1 8f b2 bd 22 c2 d7 3d
       -0.13518858 0.26861572 -0.08718813 0.10535075
000120 b9 03 fc bd 68 dc 45 3d 25 f5 61 3e be 4e 30 bd
       -0.123053975 0.0483059 0.22066171 -0.043043844
000130 05 93 8b bb da e4 71 3d 80 d9 70 be 4e c9 29 3e
       -0.0042594695 0.05905614 -0.2352047 0.16580698
000140 3d d4 c8 bd 61 39 23 3e 64 fb ee bd 9d 58 a7 3d
       -0.09806106 0.15939857 -0.11669043 0.081711985
000150 99 24 0e bd 5f db 3e 3e 88 93 29 be e0 13 1f be
       -0.03470287 0.18638371 -0.16560185 -0.15534925
000160 6e 6e a4 3d 8f ba 4c 3d 44 f7 c0 3c a5 0c 38 3e
       0.08028875 0.049982604 0.023555405 0.17973574
000170 de 8f 99 3c f3 f3 47 3d 4d b6 60 3e a6 05 f4 bb
       0.018745359 0.048816632 0.21944542 -0.0074469624
000180 39 94 ba bd 16 27 77 3e f5 a0 47 3d a6 92 8a bc
       -0.091103025 0.24136004 0.048737485 -0.01691563
000190 b3 0c 35 be 93 a7 92 3e 5c a3 79 bd 1a 7e 00 bc
       -0.17680626 0.28643474 -0.060946807 -0.007842565
0001a0 cc 3b 33 be 66 de 57 bd ee 92 11 3d 84 b3 6c bd
       -0.1750328 -0.05270233 0.035540514 -0.057788387
0001b0 03 2e 91 3d 7b 18 2b 3c d8 35 76 3d ff 96 a0 bd
       0.07088854 0.010442848 0.060109943 -0.078413
0001c0 28 7a 56 bd c7 2d 9b 3d 4d 89 fb 3d 64 b1 8b 3e
       -0.05236259 0.07577091 0.122820474 0.27283776
0001d0 bf 2f f8 bc 16 0d d5 bc f9 ab 5a be 46 b1 8f bd
       -0.030296205 -0.026007216 -0.21354665 -0.07016234
0001e0 c7 14 85 be bc f0 17 3e a2 a7 94 3e 7c d3 ef 3d
       -0.25992414 0.14837927 0.29034144 0.11710259
0001f0 01 d8 b8 3c ac 37 a6 3d bd e5 12 be 47 af 5c 3e
       0.022563936 0.08116087 -0.1434545 0.21551238
000200 ee b8 31 3e e3 d5 86 3d 2c 9a 98 bd 00 1d 40 be
       0.17355701 0.065837644 -0.07451281 -0.18761063
000210 d1 2e 1e 3b f1 1b 09 bd ed a9 9b 3d 4b 57 59 3e
       0.0024136791 -0.033473913 0.0760077 0.21224706
000220 87 54 ab bd d5 1a 61 be 65 cd be 3d 21 ef aa 3d
       -0.08365732 -0.21982892 0.0931652 0.083463915
000230 6a d2 ee 3d 83 ef bf 3d 2d 80 6a 3e 33 af 84 3e
       0.11661227 0.09371855 0.22900458 0.25914916
000240 82 89 48 bd 11 77 4e be a0 cd a2 3b fb 1e 1e be
       -0.048959263 -0.20162608 0.00496836 -0.15441506
000250 0e 8d 15 3d 07 9f e8 3c 78 33 a6 3d 8c b4 21 be
       0.036511473 0.028396143 0.08115286 -0.1579153
000260 74 6b 03 3e df 1c 48 3e 09 85 22 bd b4 3f 66 bd
       0.12833959 0.19542263 -0.039677653 -0.056213096
000270 2f 45 e3 bd 1b d1 a5 3d 22 cb c9 bd 77 37 cd bd
       -0.1109718 0.08096524 -0.09853198 -0.10020345
000280 cd 58 23 be eb 1a 28 be df 7a 82 bd b3 bd 9c bc
       -0.15951844 -0.16416518 -0.06371092 -0.019133424
000290 1f fe 2c bd d1 27 ef bd 5a f8 35 3c 53 d9 00 3e
       -0.042234536 -0.11677516 0.011106575 0.12582903
0002a0 a3 17 8b bc ef 71 65 be ae 1f 25 3d 66 ab 2f 3d
       -0.016979044 -0.22406743 0.040313415 0.042888068
0002b0 0f e8 43 3e 96 33 0f 3d 6d 4d 16 3d 2f 39 41 3e
       0.19131492 0.034961306 0.036694933 0.1886947
0002c0 f2 ea c4 bb 2c 33 da bd 7b b4 6e 3e 0a 91 7c bd
       -0.006009453 -0.106542915 0.23311035 -0.061661758
0002d0 64 10 89 3d 8e 72 81 b9 a3 53 00 be cf 84 42 3c
       0.066925794 -0.00024690147 -0.12531905 0.011872484
0002e0 12 92 9d bc e3 a1 00 3e 6d 3d c7 3d 7b 92 19 be
       -0.01923469 0.12561755 0.09728513 -0.14997284
0002f0 49 12 de bc e4 19 83 bd d1 c0 7e 3c ea 18 1b 3e
       -0.027108328 -0.064014226 0.015548901 0.15146223
000300 5a 46 4f 3e 22 73 75 3d ef ba f9 3c c1 b4 22 3e
       0.2024168 0.059924252 0.030484645 0.15889265
000310 9a 8e 92 3e b6 02 5a bd e4 f9 2d 3d 18 2f cd 3d
       0.2862442 -0.05322524 0.042474642 0.10018748
000320 37 a2 ae bc 0a dc 96 3e fc e7 f5 bd c3 3d f9 bd
       -0.021317584 0.2946475 -0.12007138 -0.12169983
000330 e3 86 48 be 1a bf 99 bd 74 57 cd 3a 4e c1 63 be
       -0.19582705 -0.07507153 0.0015666322 -0.22241709
000340 9c 15 07 be 12 d5 46 3e 3d 53 c4 3d 86 fa 2e be
       -0.13191837 0.19417217 0.09586189 -0.17087755
000350 de 46 e9 bd 9b 41 19 3e 8e 59 02 be da ee 00 be
       -0.1139047 0.14966433 -0.12729475 -0.12591115
000360 5e b6 a7 bd cb 71 d7 3c 50 bf 1e 3e e8 d9 67 3e
       -0.08189081 0.026299378 0.15502667 0.22641718
000370 dd 8a 1e 3e aa f0 b3 3c 39 a5 95 3d e7 c7 11 be
       0.1548266 0.021965344 0.07306904 -0.14236413
000380 a4 50 16 3e a6 a7 91 3d bb 7f a9 bd b6 6e 2d be
       0.146792 0.071120545 -0.08276316 -0.16936764
000390 e3 54 b4 bc e8 e5 1c bd 45 51 89 be 02 62 39 3e
       -0.022013133 -0.038305193 -0.26819816 0.18103793
0003a0 7d 40 3d bd f3 c9 93 bd 95 7d e8 3d d2 71 22 3e
       -0.04620408 -0.07216253 0.11352078 0.15863732
0003b0 41 2e cc 3d 56 d2 1c bb 20 1e 17 3e c9 60 e0 3d
       0.0996976 -0.002392908 0.14757586 0.1095596
0003c0 3e 02 89 bd 43 f6 81 3d f2 52 57 3d ea cf 53 3d
       -0.06689881 0.06345799 0.052569337 0.051711954
0003d0 4b 7d 6f 3d 62 9a 02 3e 6f da 1a be 7c 48 55 be
       0.058469098 0.12754205 -0.15122388 -0.20828432
0003e0 7a ed cf bc 43 a2 89 3d a6 6a 88 bd 35 09 02 be
       -0.025381792 0.06720402 -0.066609666 -0.12698825
0003f0 78 b9 1d be f1 59 86 bc b5 02 39 3d 4e 48 70 bd
       -0.15402782 -0.01640031 0.045168597 -0.058662705

model/last_layer/MatMul f4 [31, 256]
000000 62 17 ef 3b da cc a0 bd 59 97 86 bc 04 ca b0 ba
       0.0072964886 -0.07851572 -0.01642959 -0.001348794
000010 31 4e 84 bd 60 2a b6 bd 49 50 b0 3d af b6 14 be
       -0.06460226 -0.08894801 0.08609063 -0.14522813
000020 e2 5f fe bd 20 62 42 ba 03 6c c9 bd 57 3e 8c bd
       -0.12420632 -0.00074151345 -0.09835055 -0.06847828
000030 ec dd a0 bc f8 dc 99 3d 9b b1 a6 bd 4e 5b 84 be
       -0.01963707 0.075128496 -0.08139344 -0.2585091
000040 eb da 1a 3d c0 83 fc bc 2b 48 09 be ab 5a 3f 3c
       0.037806433 -0.030824542 -0.13406436 0.011679332
000050 fd d9 45 bd a9 c5 35 be 40 6d 87 3c c8 0d ef bc
       -0.048303593 -0.17751183 0.016531587 -0.029181376
000060 04 ec 64 bd 00 ee 15 3e 7b 15 e2 bd 68 86 50 be
       -0.055889145 0.14641571 -0.11039253 -0.20363772
000070 67 a3 91 bb e5 b4 14 be a6 f7 44 bd d0 e3 5e 3c
       -0.004444528 -0.14522131 -0.04808774 0.013604119
000080 4a 52 a5 3b fe d6 f9 bd 47 17 d3 3b 5e 80 83 bd
       0.00504521 -0.1219921 0.006441984 -0.064209685
000090 00 76 9c 3d e7 f9 87 3d 49 54 47 bd a9 f8 8a 3d
       0.07639694 0.06639462 -0.048664365 0.067857094
0000a0 56 31 28 3d 7e 9a 07 bd 38 57 ae bd 83 6b 9d 3d
       0.041062675 -0.03310632 -0.085127294 0.07686522
0000b0 6b 51 01 be 2f 91 47 bc ac e2 da bd 88 32 e0 bd
       -0.12628715 -0.012180611 -0.106877655 -0.10947138
0000c0 fa c2 46 3d c7 c8 3d bd 7d 56 e3 3b 55 a1 e5 bd
       0.048525788 -0.046334054 0.0069378004 -0.11212412
0000d0 b4 88 7c bc e9 0a 94 3b 68 77 88 bd ba 57 8d 3d
       -0.015413452 0.004517902 -0.066634 0.06901498
0000e0 bb 33 86 bd a0 29 42 bd fb 0d f4 bc 74 c5 07 3b
       -0.065528356 -0.047402978 -0.029791823 0.0020717056
0000f0 17 56 04 be fb 5a af bc 78 8f 9f bc b7 db 93 bd
       -0.12923466 -0.021405688 -0.01947759 -0.07219642
000100 3e b9 9d bd 9a e8 51 3c e8 55 20 be ca 75 04 bb
       -0.07701348 0.012811804 -0.1565777 -0.002021181
000110 02 d3 87 bd 0c 83 db 3d a3 83 9b bc 8d ee 76 3d
       -0.066320434 0.107183546 -0.018983668 0.060286094
000120 f6 b4 aa 3b 7c 2d ed bd 71 54 e0 bd 72 97 66 bd
       0.0052095605 -0.11580941 -0.10953606 -0.056296773
000130 2a 2e 60 3d ca 36 1c 3d ac 3a b7 bd a3 9e 1d be
       0.054731525 0.03813819 -0.08946738 -0.15392546
000140 af 7b 4d bd 46 5f 59 bc 7a 4d 9d 3b b9 80 8d bd
       -0.050166782 -0.013267344 0.0048004957 -0.069093175
000150 28 42 1e 3d 96 be ba bc 11 1d 77 bd 24 7c 88 3d
       0.03863731 -0.022795957 -0.060330454 0.06664303
000160 c5 e8 83 bd f4 96 18 3d 56 3f d4 bd 70 aa b5 bd
       -0.06440882 0.037253335 -0.10363643 -0.08870399
000170 b9 09 78 bd f9 8c 22 3c 13 95 5a be 07 93 a3 bb
       -0.060556147 0.009921306 -0.2134593 -0.0049918923
000180 83 47 eb bd 4b eb 56 3c 08 ba 51 3d 65 f0 db bd
       -0.11488249 0.013117622 0.051202804 -0.10739211
000190 85 53 0f bc 1f af d5 bc f9 33 ba bc 39 a8 e9 3c
       -0.00874794 -0.02608448 -0.02272986 0.028522598
0001a0 7c a1 79 bd 4a 87 96 bd 6a 8c 2f bd 72 06 a8 3c
       -0.06094502 -0.07350023 -0.04285852 0.020510886
0001b0 88 88 29 be ec 08 86 be a3 96 eb 3c da 73 e6 bc
       -0.16555989 -0.26178682 0.028758353 -0.028131414
0001c0 34 89 95 bd 79 ad f5 bd a9 63 03 be 42 99 d3 3c
       -0.0730156 -0.11995978 -0.12830986 0.025829915
0001d0 74 e3 de 3c 7f 08 54 bd 5e 19 31 3d d3 83 0d bd
       0.027208067 -0.051765915 0.043237083 -0.034549545
0001e0 eb d2 9d bd 93 01 d9 bd 11 cd 69 be f5 7d 02 be
       -0.07706245 -0.105960034 -0.22832133 -0.12743361
0001f0 1d 46 13 3d b5 09 0d 3d ec 20 d6 bc 1f 4b 77 bd
       0.035955537 0.034433085 -0.026138745 -0.060374375
000200 b5 b5 b5 bd 71 f9 7e 3d 50 95 7c ba fd e7 cc 3d
       -0.088725485 0.062249605 -0.00096352864 0.10005186
000210 29 e5 4a be 14 d7 77 3d 5d f1 0c 3d 80 74 bd 3d
       -0.1981398 0.06050785 0.03440987 0.09250736
000220 e8 de 88 bd 9f d4 eb 3c db de e0 3c ee 5b 02 be
       -0.06683141 0.02878791 0.027450016 -0.12730381
000230 85 32 c2 bc 3a 58 ed bc b8 5a b1 3d db 4f 9a bd
       -0.02370573 -0.028972734 0.08659881 -0.075347625
000240 bf fb 2a bd 54 e0 53 bd 90 93 ce 3d b1 bb b7 3d
       -0.04174399 -0.051727608 0.10086739 0.08971346
000250 0c cc c1 3d f5 86 b2 bd 8d eb 91 bd 8b e4 6a bd
       0.09462747 -0.08717147 -0.07125006 -0.05734686
000260 39 28 97 bc ed 6e 1d be f7 b5 d1 3c 3f 76 c7 bc
       -0.018451797 -0.15374346 0.025599463 -0.024348376
000270 6b e2 e4 3c 39 bf f2 bd d9 5f ff bd c6 be 28 be
       0.027939996 -0.11852879 -0.12469453 -0.16479024
000280 8b 09 be bd ac 36 72 bb 94 5f ee 3d 66 4f 1a be
       -0.09279164 -0.0036958857 0.11639324 -0.1506935
000290 7e dc 87 bd e8 a0 5a bc a5 0f 68 bc e5 20 dc bc
       -0.066338524 -0.013344027 -0.014163886 -0.026871154
0002a0 31 13 b7 3a b9 a4 db bd 5d ea 9f 3b 86 a3 79 bd
       0.0013967511 -0.10724778 0.004880233 -0.060946964
0002b0 b2 43 2b 3d 71 85 85 3d 0f c3 d5 bc fc 27 f0 bd
       0.041812606 0.065195926 -0.026093988 -0.117263764
0002c0 f5 bd 1b bd a9 ee bf 3a d9 2e de bc 81 7d 42 3d
       -0.038022954 0.001464327 -0.027121948 0.04748297
0002d0 5c 6a 22 bc 55 58 4c bd b0 62 02 be 04 0d 76 3d
       -0.009913053 -0.049888927 -0.12732959 0.060071006
0002e0 d8 e3 91 bd 1d 54 48 3d 66 e1 f6 bd 1b e4 62 bd
       -0.07123536 0.04890834 -0.1205471 -0.05539332
0002f0 c9 6d c0 bb 71 9a a0 bd aa 10 3f 3d 7e 96 db bd
       -0.0058724624 -0.07841957 0.04664675 -0.107220635
000300 2e c9 1e be 0d e9 df 3c 7a 93 c1 bd 70 8b 07 be
       -0.15506431 0.027332807 -0.09451957 -0.13236785
000310 d7 34 86 3b 86 0b 32 3d e1 84 e4 3c c6 bb 63 3d
       0.0040956545 0.04346802 0.027895393 0.055598997
000320 9a 94 45 be bb ef 1e bd 48 20 5c bc e4 d3 2a be
       -0.19294968 -0.038802844 -0.013435431 -0.16682392
000330 a0 d7 87 3d c1 b2 be bd ed f7 52 bd 10 ce 32 bc
       0.06632924 -0.09311438 -0.05150597 -0.010913387
000340 ec 8a 4a bd 1c 24 30 3c d5 70 d0 ba cb c5 d9 bc
       -0.049448892 0.010750797 -0.0015902767 -0.026583573
000350 58 b2 a7 bd f5 5a 79 3d 6f b7 3b bd 2b af e5 bc
       -0.08188313 0.06087776 -0.045829233 -0.028037628
000360 83 3f 26 be d7 4e 41 bc 7c 1f 94 bc 73 5f 29 bd
       -0.16235165 -0.011798582 -0.01808142 -0.041350793
000370 27 3c 94 3d 91 c3 02 be 55 21 91 3c 5c 79 8c 3d
       0.07238036 -0.12769915 0.01771609 0.06859085
000380 b7 74 66 bc 4c 23 7d 3c 88 72 b4 bd 07 8e 21 bd
       -0.014065913 0.01545031 -0.088109076 -0.03944209
000390 1a 54 1f be 9c 7b d7 3d 25 9b ba bc c6 82 43 bd
       -0.15559426 0.105216235 -0.022779057 -0.047732137
0003a0 45 1f bf bd 00 7b 35 be 51 d2 71 be 03 9f de bd
       -0.09332136 -0.17722702 -0.23615386 -0.10870173
0003b0 98 af b8 bc c1 09 a1 3b 96 b9 6e 3d 7a 9e fd bd
       -0.022544667 0.004914493 0.058282457 -0.12383743
0003c0 14 b5 fd bd 35 c9 9f bc f4 16 64 bc 9c 54 c9 bd
       -0.123880535 -0.019505123 -0.013921488 -0.09830591
0003d0 da 19 10 3e 0f 3e 24 bd c6 55 fe bc 7e 8f 93 bd
       0.14072362 -0.040098246 -0.03104676 -0.07205103
0003e0 b0 71 7a 3d 68 d0 eb bd 73 be f4 bc ea ad a9 bc
       0.061143577 -0.1151436 -0.02987597 -0.020712811
0003f0 ce 9f 0a bc 4d 66 cc bc de c4 0a be ab 3b a5 bd
       -0.008460952 -0.024951125 -0.13551661 -0.080680214

model/time_distributed_11/dense_1/MatMul f4 [64, 1488]
000000 b9 92 29 3d 7f 3b f8 3c f7 3d 33 3d 92 bb 8e 3c
       0.04139969 0.030301807 0.043760266 0.017423425
000010 80 be 9f 3c 75 d1 90 3d b0 db 4f 3d da b5 aa 3c
       0.019500017 0.07071201 0.05074662 0.020838667
000020 1c c3 6b 3d 72 04 99 bc 7f 33 97 3d 72 db 7e 3c
       0.057559118 -0.018678878 0.07382869 0.0155552495
000030 64 d0 04 3d 2c 81 30 bc df 41 6e bd a5 89 be bc
       0.0324253 -0.0107729845 -0.05816829 -0.023258993
000040 94 b9 90 3c 28 8f 46 3d 4f e8 af 3c 5b b8 8c 3c
       0.017666616 0.04847637 0.021473078 0.017177751
000050 f7 46 5e bd 88 4e 10 3c f3 b2 44 3d 7d 25 08 3b
       -0.054266896 0.008807786 0.04802222 0.0020774298
000060 04 7b 4c bd 12 50 9d bc 17 3d 51 3d 0a 99 11 bc
       -0.049922004 -0.01920322 0.05108365 -0.008886585
000070 e0 ae 4b bd b8 6c 83 39 62 88 24 3d ba 23 ae 3b
       -0.04972732 0.0002506727 0.040169127 0.0053143175
000080 6e 63 17 bc 26 b6 63 3c 9d b1 22 bd f1 20 5f bd
       -0.0092400145 0.013898408 -0.039720166 -0.054474775
000090 b4 5a 40 bc be 9a b8 bc 2d ba 83 3d 70 41 40 3d
       -0.011740375 -0.022534724 0.064319946 0.046937406
0000a0 96 c6 db 3c b6 4c 5c 3b 7e 78 39 bc 8a b2 8f 3b
       0.026828092 0.003361506 -0.0113202315 0.004385297
0000b0 a7 78 14 bd bc a4 8a bb 51 9d 10 3c 09 43 ad 3c
       -0.036247876 -0.0042310636 0.00882657 0.021150129
0000c0 46 b5 2d bc 82 f5 bf bc 7b e6 10 bd 78 da 9d 3c
       -0.010602301 -0.023432497 -0.035376053 0.019269213
0000d0 81 92 46 3d d5 c6 4a 3d 58 a3 43 bc 72 c5 7d 3c
       0.04847956 0.049506027 -0.0119408 0.015488969
0000e0 e0 cf b4 3c e0 77 ac 3c bf a1 4b 3d e0 1d 4d bd
       0.022071779 0.021053255 0.0497148 -0.05007732
0000f0 27 75 8c bd 01 85 86 3d 44 0f 32 3d 7f 09 19 bd
       -0.068582825 0.06568337 0.04347159 -0.03736257
000100 bf 3a 5b 3d e7 f1 c2 3c 5d a8 0e bd ad 1f 80 3d
       0.05352282 0.023796989 -0.034828532 0.06256042
000110 44 b2 a3 3d e1 8b 21 3d ab 23 17 bd 8a 91 a3 3c
       0.07992986 0.03944004 -0.03689925 0.01996686
000120 22 7b 79 bc 27 4f 15 bd d6 78 33 3d 26 75 46 3b
       -0.015227111 -0.03645244 0.04381641 0.0030282228
000130 0c 04 e2 3c a2 78 9b 3d 18 8d 4c 3d 42 a6 3f bd
       0.02758982 0.07591368 0.049939245 -0.046789415
000140 d4 80 2f 3b 6f 69 96 3c 70 1b 58 3d c1 da e4 bc
       0.0026779668 0.018360822 0.05276054 -0.027936341
000150 36 d4 a3 3c 36 f0 24 bd 59 9e ad bc a5 06 ff 3c
       0.019998651 -0.040268146 -0.02119367 0.031131098
000160 87 a7 0e bd e6 82 47 3d 61 b1 85 3c c9 31 ad bb
       -0.034827735 0.04870882 0.016319932 -0.005285476
000170 c4 f4 3d bd 1f 4d 1e ba 2b 5c 0d bd c6 8a 81 bd
       -0.046376005 -0.00060387136 -0.034511726 -0.06325297
000180 28 89 a0 3d 3b 3e 9b 3b e5 56 0e 3d 7c 6d 05 3d
       0.078386605 0.004737643 0.034750838 0.032575116
000190 99 62 99 bc 1b ed b2 3d e5 54 2f bd 77 64 3b bd
       -0.018723773 0.087366305 -0.04280557 -0.045750108
0001a0 5e 8f ed 3b eb b5 b4 bb 6e 97 e9 3a fc d8 22 3b
       0.0072497567 -0.0055148504 0.0017821619 0.002484857
0001b0 58 b8 f6 bc 18 28 9f 3d a8 85 e7 bc 0e 16 b8 3b
       -0.030117199 0.07771319 -0.028261974 0.0056178635
0001c0 67 2e a2 3c 27 d3 5e 3d 6e ce 8e 3c b2 a9 4c 3d
       0.019797517 0.05440059 0.017432418 0.04996652
0001d0 ed 91 07 bb 05 77 65 3d f5 94 9d 3d 85 55 4f 3d
       -0.0020686344 0.05602171 0.07694427 0.050618667
0001e0 bb c5 42 bd 66 0d 4d bb c1 02 85 3d 1d b2 2a bd
       -0.04755185 -0.0031288504 0.06494666 -0.04167377
0001f0 8f 80 1f bd c3 1f d0 3c dd d8 d7 3c 86 fc 03 bd
       -0.038940962 0.02540577 0.026348526 -0.032223247
000200 4a d8 93 3d 5c a7 3c 3d 96 8c 20 3d 98 99 ac bc
       0.07218988 0.046058044 0.039196573 -0.021069333
000210 34 9c f2 3c b2 12 39 3d 1d 1b 98 3d 91 12 40 3d
       0.0296155 0.045183845 0.074270464 0.046892706
000220 50 46 e5 bc 4a d7 79 3d 4e 9e 16 bb eb 7f 33 bb
       -0.02798763 0.06099633 -0.002298254 -0.0027389477
000230 21 29 59 3d 86 80 ad 3d ed 05 81 bc b5 7a 6f 3d
       0.05301774 0.084717795 -0.015749896 0.058466632
000240 99 5e be bc b6 b4 b9 3c bd 71 a5 bc b6 84 ea bc
       -0.023238467 0.022669178 -0.020195836 -0.028627735
000250 3b 0f 45 3c e9 ce 52 bb 41 19 9f 3d 16 bc 94 3d
       0.012027557 -0.0032166785 0.07768489 0.07262437
000260 18 55 37 bd 07 a0 00 bc 44 ee 82 3d c3 05 9d 3d
       -0.044758886 -0.0078506535 0.06393102 0.076671146
000270 a7 98 c2 bc 19 e2 1e bc de d0 3f 3d 58 43 e2 3c
       -0.023754431 -0.009697461 0.04683005 0.027620003
000280 24 c4 82 3b 45 91 2f 3d 58 a5 40 3d ba ec 4c bb
       0.003990667 0.04286315 0.047032684 -0.003126903
000290 59 d7 ad 3d 69 4f ca bc 82 73 88 3d bb a7 3c bc
       0.0848834 -0.024696069 0.06662656 -0.011514599
0002a0 dd 5d 2e 3c 83 8c 9b 3c 2e 14 50 3d 74 35 33 3d
       0.010642496 0.0189879 0.050800495 0.04375215
0002b0 2a 57 08 bd 29 ad a5 3d 61 21 fe 3c 5d 79 41 3c
       -0.03328625 0.08089668 0.031021776 0.01180872
0002c0 bb 49 d0 3a e8 2f f6 bc 8e 56 f9 bc 66 dd 06 bd
       0.0015891114 -0.03005214 -0.03043678 -0.032925986
0002d0 03 53 7e 3d 66 3c 47 3d ef 09 70 3c 4b f8 49 3c
       0.062090885 0.048641585 0.014650806 0.012327264
0002e0 67 b8 b4 3c 72 6b ce bb e8 bf e3 3c 41 90 dd bc
       0.022060586 -0.0062994296 0.027801469 -0.027046325
0002f0 10 b4 95 ba ef 10 93 3d 2b d0 28 3c 0d f5 30 bb
       -0.0011421461 0.07180964 0.010303537 -0.002700153
000300 bd c4 64 3d a6 d6 31 3c 99 f6 57 3d 86 cf 44 3d
       0.055851687 0.010854399 0.05272541 0.048049472
000310 74 f3 3d 3d 3e 5d 99 bc 82 63 17 3d 7c 85 1a bc
       0.046374753 -0.01872122 0.036960132 -0.009431239
000320 74 f4 4f 3b 19 93 8f bc 01 9e dc 3c 87 f6 91 3c
       0.0031731399 -0.017526196 0.02693081 0.017817749
000330 10 35 43 3d 1f 6f e9 3b fa 13 ac 3c 5f b8 16 3d
       0.047658026 0.0071238424 0.02100562 0.036796924
000340 16 cd d7 3c 43 1c 15 bd 4b 20 72 3d 82 c5 d6 bc
       0.02634291 -0.036403906 0.05911283 -0.026217226
000350 11 47 4b 3d c8 33 94 3d a1 f6 0f 3d 71 e5 90 bd
       0.04962832 0.07236439 0.035147313 -0.070750125
000360 0c 78 5f 3d 6d 92 ad bc 75 2d 20 bd 49 d2 80 3d
       0.054557845 -0.021187985 -0.03910585 0.06290109
000370 7c df 34 3c 20 cf 8b bc 92 4a 65 bc 8d 80 4a bb
       0.011039611 -0.017066538 -0.01399483 -0.0030899376
000380 18 41 7a 3d b7 1c 0e bd a1 c1 bc bc f4 9f 8a 3d
       0.061097234 -0.034695353 -0.023041548 0.0676879
000390 89 2e 20 bd 8a 69 8a 3d 06 11 0a bb d7 af bc bd
       -0.03910688 0.06758411 -0.0021067276 -0.09213226
0003a0 d0 8f 22 3d 64 16 21 3d dc 45 61 3c 3b 7a 27 3d
       0.03968793 0.039327994 0.013749566 0.040888052
0003b0 0f 75 c7 bb 68 5b 6f 3c 9d ab 2d 3d 14 8e fa bb
       -0.0060869525 0.014609195 0.04239999 -0.0076463316
0003c0 17 59 76 3c 6d 0f 1d 3b 02 d1 43 3c 6b f8 0c 3d
       0.015035889 0.0023965493 0.011951687 0.034416597
0003d0 8a 1c 42 3d b6 08 e0 bc 95 55 a4 bc 21 86 f3 bc
       0.0473905 -0.027347904 -0.02006034 -0.029727044
0003e0 17 ae 20 bd c5 15 6e 3d 9f 75 88 bc 80 58 3f bd
       -0.039228525 0.05812623 -0.016657649 -0.04671526
0003f0 20 4a 0b bd 44 49 11 bd 62 58 2d 3d c8 3b 0b 3d
       -0.034006238 -0.035470262 0.042320617 0.03399256

model/time_distributed_3/batch_normalization/FusedBatchNormV3 f4 [8]
000000 fc 6d c9 bf 72 af cb bf cc fc e5 bf 63 71 e0 bf
       -1.573669 -1.5912917 -1.7967772 -1.7534603
000010 06 17 d0 bf 95 19 a4 bf b2 be af bf 4b f0 d3 bf
       -1.6257026 -1.2820307 -1.373007 -1.6557707

model/time_distributed_3/batch_normalization/FusedBatchNormV31 f4 [8]
000000 8b c6 71 3f 4a 4a 69 3f 6a c9 6b 3f a6 6d 71 3f
       0.9444358 0.9112898 0.9210421 0.94307935
000010 88 ab 7c 3f 77 13 6d 3f 4d 26 68 3f df 4a 6d 3f
       0.98699236 0.92607826 0.9068344 0.9269237
