HPC_Final_Study2_Complete_Test_Class_Balance/participants_session_transfer_train_fresh_model/participant_3/session_3/session_3_lite_models/indexpen_model_quant.tflite (tflite, 303344 bytes, 29 tensors)

model/time_distributed_6/conv2d_1/BiasAdd;model/time_distributed_6/conv2d_1/Conv2D;model/time_distributed_6/conv2d_1/BiasAdd/ReadVariableOp/resource f2 [16]
0.0397 0.0689 0.0984 0.02849 -0.003777 0.03668 0.1659 0.0633
0.03995 0.11926 0.1434 0.0649 -0.005093 0.03528 0.08704 0.1235
00000000: 1529 692c 4c2e 4b27 bc9b b228 4f31 0d2c
00000010: 1d29 a22f 9730 272c 379d 8428 922d e72f

model/time_distributed/conv2d/BiasAdd;model/time_distributed/conv2d/Conv2D;model/time_distributed/conv2d/BiasAdd/ReadVariableOp/resource f2 [8]
-0.05167 -0.0732 -0.1833 -0.043 -0.03656 -0.0718 -0.1733 -0.0585
00000000: 9daa afac deb1 81a9 aea8 98ac 8cb1 7dab

model/time_distributed_6/conv2d_1/Conv2D f2 [16, 3, 3, 1]
0.0456 0.0456 -0.06024 0.01631 0.02663 -0.04257 -0.0582 0.0361
0.011284 0.01619 0.09174 -0.1097 -0.0767 0.19 -0.1146 -0.002474
-0.11774 0.1215 0.0794 -0.2013 0.1142 0.0664 0.0463 -0.1102
-0.02037 0.02693 -0.001479 0.01584 0.05243 -0.05118 0.00747 -0.00562
-0.0158 0.01811 -0.02415 0.0003293 -0.01159 -0.1476 0.1847 -0.02475
0.065 -0.02792 -0.03026 0.0461 -0.01898 0.1494 -0.0788 -0.0731
-0.04852 -0.05698 0.09766 0.01059 0.03918 -0.0481 0.05508 -0.1324
0.05228 0.008446 0.0731 -0.0906 -0.000615 0.04254 -0.04538 -0.10486
0.0862 0.009384 0.04642 -0.04782 0.02686 -0.0792 0.04062 0.01552
-0.0102 0.010864 0.004066 0.05624 -0.1012 0.0599 0.1059 -0.1779
0.05426 0.0426 -0.1027 0.03476 0.02203 0.0295 -0.063 0.029
-0.00212 -0.0087 -0.0916 0.1781 -0.08923 0.01889 0.0685 -0.1034
-0.04758 0.142 -0.0909 -0.07166 0.2255 -0.1498 -0.1569 0.11395
0.036 0.11395 -0.163 0.04846 -0.0912 0.1826 -0.11145 -0.0851
0.1571 -0.06537 -0.06915 0.2145 -0.1467 -0.02629 0.0943 -0.0676
0.01196 -0.1299 0.12085 -0.003183 0.03564 -0.0192 -0.02388 -0.03143
0.001133 -0.003149 -0.02216 0.04553 0.0565 -0.1328 0.0516 0.01599
-0.02182 0.001499 -0.02174 0.0183 -0.00802 0.0868 -0.06476 -0.02477
00000000: d629 d629 b6ab 2d24 d126 73a9 73ab 9f28
00000010: c721 2524 df2d 05af e9ac 1432 56af 1199
00000020: 89af c72f 152d 71b2 4f2f 402c ed29 0eaf
00000030: 37a5 e526 0f96 0e24 b62a 8daa a61f c19d
00000040: 0ba4 a324 2fa6 650d efa1 b9b0 e931 56a6
00000050: 292c 26a7 bfa7 e729 dca4 c830 0bad aeac
00000060: 36aa 4bab 402e 6c21 0429 28aa 0d2b 3db0
00000070: b12a 5320 ae2c ccad 0a91 7229 cfa9 b6ae
00000080: 842d ce20 f129 1faa e026 12ad 3329 f223
00000090: 39a1 9021 2a1c 332b 7aae ab2b c72e b1b1
000000a0: f22a 7429 93ae 7328 a425 8d27 08ac 6d27
000000b0: 5798 74a0 ddad b331 b6ad d624 622c 9eae
000000c0: 17aa 8b30 d1ad 96ac 3733 cbb0 05b1 4b2f
000000d0: 9c28 4b2f 37b1 342a d6ad d831 22af 72ad
000000e0: 0731 2fac 6dac dd32 b2b0 bba6 092e 54ac
000000f0: 2022 28b0 bc2f 859a 9028 eaa4 1da6 06a8
00000100: a414 739a aca5 d429 3b2b 40b0 9b2a 1824
00000110: 96a5 2416 91a5 af24 1ba0 8e2d 25ac 57a6

model/time_distributed/conv2d/Conv2D f2 [8, 3, 3, 1]
0.002035 -0.02615 -0.0004835 -0.004833 0.00919 -0.0087 0.002386 -0.01023
0.004215 0.01098 -0.02519 0.0009503 -0.0137 0.02469 0.00955 -0.008705
-0.01178 -0.00695 -0.00476 0.01706 -0.008934 0.01254 -0.012024 0.007664
-0.002306 0.01884 -0.026 -0.001067 0.00788 0.004395 -0.001479 -0.01643
-0.002071 -0.011375 -0.012314 -0.001922 -0.000877 -0.01502 0.02612 -0.001817
-0.005062 -0.0198 -0.0115 0.01723 0.002213 0.005142 0.001034 0.00941
0.006607 -0.004883 0.00261 0.02588 0.0007644 -0.001874 0.014435 -0.00512
0.00381 0.01031 -0.0006747 -0.0005364 0.002663 0.00749 -0.002535 -0.007057
0.009445 0.009 -0.0148 -0.008095 0.01636 -0.00874 0.005234 -0.00997
00000000: 2b18 b2a6 ec8f f39c b520 74a0 e318 3da1
00000010: 511c 9f21 73a6 c913 04a3 5226 e420 75a0
00000020: 08a2 1e9f e09c 5e24 93a0 6c22 28a2 d91f
00000030: b998 d324 a8a6 5f94 0920 801c 0f96 35a4
00000040: 3e98 d3a1 4ea2 df97 2f93 b1a3 b026 7197
00000050: 2f9d 12a5 e3a1 6924 8818 441d 3c14 d120
00000060: c41e 009d 5819 a026 4312 ad97 6423 3e9d
00000070: ce1b 4721 8791 6590 7419 ab1f 3199 3a9f
00000080: d620 9c20 94a3 25a0 3024 7aa0 5c1d 1ba1

model/lstm/TensorArrayV2_1 f2 [120, 1, 32]
0.0 0.0 0.0 0.0 0.0 0.0 0.0 0.0
0.0 0.0 0.0 0.0 0.0 0.0 0.0 0.0
0.0 0.0 0.0 0.0 0.0 0.0 0.0 0.0
0.0 0.0 0.0 0.0 0.0 0.0 0.0 0.0
0.0 0.0 0.0 0.0 0.0 0.0 0.0 0.0
0.0 0.0 0.0 0.0 0.0 0.0 0.0 0.0
0.0 0.0 0.0 0.0 0.0 0.0 0.0 0.0
0.0 0.0 0.0 0.0 0.0 0.0 0.0 0.0
0.0 0.0 0.0 0.0 0.0 0.0 0.0 0.0
0.0 0.0 0.0 0.0 0.0 0.0 0.0 0.0
0.0 0.0 0.0 0.0 0.0 0.0 0.0 0.0
0.0 0.0 0.0 0.0 0.0 0.0 0.0 0.0
0.0 0.0 0.0 0.0 0.0 0.0 0.0 0.0
0.0 0.0 0.0 0.0 0.0 0.0 0.0 0.0
0.0 0.0 0.0 0.0 0.0 0.0 0.0 0.0
0.0 0.0 0.0 0.0 0.0 0.0 0.0 0.0
0.0 0.0 0.0 0.0 0.0 0.0 0.0 0.0
0.0 0.0 0.0 0.0 0.0 0.0 0.0 0.0
0.0 0.0 0.0 0.0 0.0 0.0 0.0 0.0
0.0 0.0 0.0 0.0 0.0 0.0 0.0 0.0
0.0 0.0 0.0 0.0 0.0 0.0 0.0 0.0
0.0 0.0 0.0 0.0 0.0 0.0 0.0 0.0
0.0 0.0 0.0 0.0 0.0 0.0 0.0 0.0
0.0 0.0 0.0 0.0 0.0 0.0 0.0 0.0
0.0 0.0 0.0 0.0 0.0 0.0 0.0 0.0
0.0 0.0 0.0 0.0 0.0 0.0 0.0 0.0
0.0 0.0 0.0 0.0 0.0 0.0 0.0 0.0
0.0 0.0 0.0 0.0 0.0 0.0 0.0 0.0
0.0 0.0 0.0 0.0 0.0 0.0 0.0 0.0
0.0 0.0 0.0 0.0 0.0 0.0 0.0 0.0
0.0 0.0 0.0 0.0 0.0 0.0 0.0 0.0
0.0 0.0 0.0 0.0 0.0 0.0 0.0 0.0
00000000: 0000 0000 0000 0000 0000 0000 0000 0000
00000010: 0000 0000 0000 0000 0000 0000 0000 0000
00000020: 0000 0000 0000 0000 0000 0000 0000 0000
00000030: 0000 0000 0000 0000 0000 0000 0000 0000
00000040: 0000 0000 0000 0000 0000 0000 0000 0000
00000050: 0000 0000 0000 0000 0000 0000 0000 0000
00000060: 0000 0000 0000 0000 0000 0000 0000 0000
00000070: 0000 0000 0000 0000 0000 0000 0000 0000
00000080: 0000 0000 0000 0000 0000 0000 0000 0000
00000090: 0000 0000 0000 0000 0000 0000 0000 0000
000000a0: 0000 0000 0000 0000 0000 0000 0000 0000
000000b0: 0000 0000 0000 0000 0000 0000 0000 0000
000000c0: 0000 0000 0000 0000 0000 0000 0000 0000
000000d0: 0000 0000 0000 0000 0000 0000 0000 0000
000000e0: 0000 0000 0000 0000 0000 0000 0000 0000
000000f0: 0000 0000 0000 0000 0000 0000 0000 0000
00000100: 0000 0000 0000 0000 0000 0000 0000 0000
00000110: 0000 0000 0000 0000 0000 0000 0000 0000
00000120: 0000 0000 0000 0000 0000 0000 0000 0000
00000130: 0000 0000 0000 0000 0000 0000 0000 0000
00000140: 0000 0000 0000 0000 0000 0000 0000 0000
00000150: 0000 0000 0000 0000 0000 0000 0000 0000
00000160: 0000 0000 0000 0000 0000 0000 0000 0000
00000170: 0000 0000 0000 0000 0000 0000 0000 0000
00000180: 0000 0000 0000 0000 0000 0000 0000 0000
00000190: 0000 0000 0000 0000 0000 0000 0000 0000
000001a0: 0000 0000 0000 0000 0000 0000 0000 0000
000001b0: 0000 0000 0000 0000 0000 0000 0000 0000
000001c0: 0000 0000 0000 0000 0000 0000 0000 0000
000001d0: 0000 0000 0000 0000 0000 0000 0000 0000
000001e0: 0000 0000 0000 0000 0000 0000 0000 0000
000001f0: 0000 0000 0000 0000 0000 0000 0000 0000

model/dense_2/BiasAdd/ReadVariableOp/resource f2 [256]
0.0537 0.1049 0.0662 0.0576 0.1342 0.01874 0.0792 0.0882
0.10297 0.04443 0.05762 0.0738 0.095 0.04803 0.065 0.0623
0.0663 0.03452 0.0838 0.056 0.0837 0.0618 0.05 0.05652
0.0972 0.06836 0.1254 0.01958 0.0791 0.01953 0.1293 0.0952
0.02011 -0.004623 0.1404 0.06366 0.02203 0.11554 0.1285 0.0866
0.0832 0.1289 0.0433 0.1111 0.05832 0.0717 0.04462 0.02713
0.05225 0.0418 0.07983 0.0704 0.0516 0.0659 0.1028 0.0745
0.0752 0.1044 0.11005 0.02284 0.10364 0.07825 0.09045 0.07904
0.0575 0.11676 0.0882 0.1686 0.0838 0.06113 0.11066 0.02335
0.0564 0.0748 0.02129 0.05307 0.07367 0.0879 0.03226 0.063
0.11816 0.04102 0.0854 0.07996 0.032 0.0572 0.0816 0.1156
0.05844 0.06915 0.01765 0.05466 0.08984 0.1273 0.154 0.04327
0.0917 0.07764 0.02037 0.0508 0.013405 0.04446 0.1774 0.068
0.0952 0.03613 -0.008575 0.02919 0.01697 0.07794 0.0683 0.1067
0.03656 0.03558 0.1464 0.08655 0.1954 0.1316 0.05734 0.04364
0.1378 0.0907 0.1026 0.0231 0.1525 0.0825 0.1008 0.03244
0.121 0.09735 0.0394 0.02536 0.0787 0.00711 0.03134 0.09894
0.07196 0.0754 0.01999 0.06854 0.03973 0.0945 0.0662 0.01881
0.10284 0.04776 0.0577 0.06235 0.0948 0.0512 0.1034 0.0953
0.06964 0.11237 0.08417 0.0838 0.04504 0.0558 0.04428 0.09393
0.01659 0.02118 0.05618 0.09247 0.1248 0.0477 0.0796 0.11383
0.1085 0.03354 0.1077 0.0796 0.1009 0.1123 0.10034 0.04266
0.05646 0.0935 0.1265 0.0637 0.04654 0.1183 0.0449 0.10144
0.1388 0.0923 0.08295 0.11523 0.02417 0.04837 0.06433 0.0336
0.01495 0.0396 0.0582 0.0691 0.0949 0.04312 0.10443 0.02292
-0.003307 0.0675 0.0431 0.07074 0.0219 0.08075 0.02524 0.05887
0.0999 0.07837 0.09875 0.0975 0.1022 0.02132 0.002003 0.02855
0.0687 0.02199 0.1162 -0.05606 0.097 0.1127 -0.01467 0.10455
0.0632 0.01125 0.0388 0.06305 0.03693 0.12177 0.0762 0.1186
0.0765 0.11383 0.0918 0.0266 0.07306 0.1203 0.09985 0.06396
0.0806 0.0743 0.05457 0.04153 0.0989 0.05676 0.0736 0.09216
0.0405 -0.01018 0.04803 0.02206 0.11053 0.0765 0.1481 0.0798
00000000: e02a b72e 3d2c 5f2b 4b30 cc24 122d a52d
00000010: 972e b029 602b b92c 142e 262a 292c f92b
00000020: 3e2c 6b28 5d2d 2b2b 5b2d e92b 662a 3c2b
00000030: 392e 602c 0330 0325 102d 0025 2330 182e
00000040: 2625 bc9c 7e30 132c a425 652f 1d30 8b2d
00000050: 532d 2030 8b29 1c2f 772b 972c b629 f226
00000060: b02a 5a29 1c2d 812c 9b2a 382c 942e c52c
00000070: d02c ae2e 0b2f d925 a22e 022d ca2d 0f2d
00000080: 5c2b 792f a52d 6531 5d2d d32b 152f fa25
00000090: 382b ca2c 7325 cb2a b72c a02d 2128 082c
000000a0: 902f 4029 772d 1e2d 1928 522b 392d 662f
000000b0: 7b2b 6d2c 8524 ff2a c02d 1330 ee30 8a29
000000c0: de2d f82c 3725 812a dd22 b129 ad31 5a2c
000000d0: 182e a028 64a0 7927 5824 fd2c 5f2c d42e
000000e0: ae28 8e28 af30 8a2d 4132 3630 572b 9629
000000f0: 6930 ce2d 912e ea25 e130 482d 742e 2728
00000100: be2f 3b2e 0b29 7e26 092d 481f 0328 552e
00000110: 9b2c d32c 1e25 632c 1629 0c2e 3d2c d124
00000120: 952e 1d2a 632b fb2b 112e 8e2a 9e2e 192e
00000130: 752c 312f 632d 5d2d c429 242b ab29 032e
00000140: 3f24 6c25 312b eb2d fd2f 1b2a 182d 492f
00000150: f22e 4b28 e52e 182d 752e 302f 6c2e 7629
00000160: 3a2b fc2d 0c30 142c f529 922f bf29 7e2e
00000170: 7130 e82d 4f2d 602f 3026 312a 1e2c 4d28
00000180: a823 1229 732b 6c2c 132e 8529 af2e de25
00000190: c69a 522c 8429 872c 9b25 2b2d 7626 892b
000001a0: 652e 042d 522e 3d2e 8a2e 7525 1a18 4f27
000001b0: 662c a125 702f 2dab 352e 362f 83a3 b12e
000001c0: 0b2c c321 f728 092c ba28 cb2f e02c 972f
000001d0: e52c 492f e02d cf26 ad2c b32f 642e 182c
000001e0: 292d c12c fc2a 5129 542e 442b b62c e62d
000001f0: 2f29 36a1 262a a625 132f e52c bd30 1b2d

model/last_layer/BiasAdd/ReadVariableOp/resource f2 [31]
-0.00973 -0.02467 0.02347 0.0328 0.02069 -0.02289 0.03038 7.94e-05
-0.01822 0.003635 0.01897 0.00105 0.013664 0.03238 0.01496 -0.00938
-0.02875 0.00424 -0.003279 -0.01402 -0.01438 -0.013885 -0.0159 -0.0346
0.03403 0.002201 -0.02512 -0.01697 -0.02788 -0.009346 -0.0326
00000000: fba0 51a6 0226 3328 4c25 dca5 c727 3405
00000010: aaa4 721b db24 4d14 ff22 2528 a923 cda0
00000020: 5ca7 571c b79a 2ea3 5da3 1ca3 12a4 6ea8
00000030: 5b28 8218 6ea6 58a4 23a7 c9a0 2ca8

model/time_distributed_11/dense_1/BiasAdd/ReadVariableOp/resource f2 [64]
-0.04138 -0.01724 -0.010925 -0.02837 -0.03065 -0.0215 -0.00874 -0.01302
-0.02481 -0.04147 -0.03867 -0.0268 -0.01875 -0.03836 -0.04028 -0.04062
-0.006336 -0.02567 -0.03644 -0.006443 -0.02702 -0.04874 -0.01837 -0.0325
-0.05453 -0.04898 -0.02655 -0.02814 -0.04852 -0.01682 -0.01895 -0.03525
-0.04047 -0.02704 -0.00459 -0.0214 -0.02882 -0.0152 -0.03418 -0.01319
-0.02144 -0.01848 -0.0593 -0.0314 -0.03952 -0.007122 -0.04437 -0.01252
-0.02934 -0.010666 -0.0446 -0.02695 -0.04312 -0.01834 -0.01204 0.0001844
-0.0342 -0.02223 -0.06042 -0.02348 -0.0412 0.00758 -0.0584 -0.02888
00000000: 4ca9 6aa4 98a1 43a7 d9a7 81a5 7aa0 aba2
00000010: 5aa6 4fa9 f3a8 dca6 cda4 e9a8 28a9 33a9
00000020: 7d9e 92a6 aaa8 999e eba6 3daa b4a4 29a8
00000030: fbaa 45aa cca6 34a7 36aa 4ea4 daa4 83a8
00000040: 2ea9 eca6 b39c 7aa5 61a7 c8a3 60a8 c1a2
00000050: 7da5 bba4 97ab 05a8 0fa9 4b9f aea9 69a2
00000060: 83a7 76a1 b5a9 e6a6 85a9 b2a4 2aa2 0b0a
00000070: 61a8 b1a5 bcab 03a6 46a9 c31f 7aab 65a7

model/time_distributed_5/dense/BiasAdd/ReadVariableOp/resource f2 [32]
-0.01823 -0.02124 -0.00704 0.02003 -0.004124 -0.009224 -0.0275 -0.005302
0.03882 -0.0063 0.011024 -0.0381 0.00868 -0.014404 0.01488 0.0313
-0.03146 -0.011086 -0.00704 -0.00585 -0.01367 -0.04208 0.01294 -0.05252
0.02151 -0.04364 0.006126 -0.0106 0.01126 0.04968 -0.02815 -0.02544
00000000: aba4 70a5 359f 2125 399c b9a0 0aa7 6e9d
00000010: f828 749e a521 e0a8 7220 60a3 9e23 0228
00000020: 07a8 ada1 359f fe9d 00a3 63a9 a022 b9aa
00000030: 8225 96a9 461e 6da1 c421 5c2a 35a7 83a6

model/dense_2/MatMul f2 [256, 32]
-0.1042 -0.0704 0.12085 0.1063 0.1553 -0.106 -0.1838 0.11395
0.05737 -0.1862 -0.02623 0.1423 -0.1057 0.1252 -0.12024 0.0866
0.08887 -0.00989 0.03445 -0.1065 -0.1425 0.1703 -0.02629 -0.271
0.1259 0.133 -0.006874 0.0535 -0.3525 0.2166 -0.1788 -0.01816
-0.0956 0.4585 0.05463 -0.2625 -0.0808 0.0636 -0.06903 0.1255
-0.1561 -0.09015 -0.1533 0.10236 0.0919 0.088 0.2375 0.04626
-0.04242 -0.02924 0.035 0.2542 0.1032 -0.3936 -0.083 0.1051
-0.0988 0.00989 0.0641 -0.266 -0.03708 -0.0007343 -0.0823 -0.1567
0.2773 0.09216 0.1439 -0.2402 0.005177 0.165 0.1863 0.03687
-0.1744 0.0526 0.0186 -0.01315 0.2283 0.03217 -0.01767 0.2252
0.0706 0.01403 -0.1449 0.0717 -0.01941 0.1494 -0.1458 0.01048
0.1172 0.10474 0.076 0.007248 -0.2087 0.1381 0.06976 -0.0426
-0.0942 0.1964 0.268 -0.2003 0.0291 0.2097 -0.11975 -0.05176
-0.1318 -0.1176 0.2494 0.0925 0.04822 0.03958 0.0886 -0.1079
0.1654 0.0753 0.209 0.3418 -0.08655 0.000324 -0.155 -0.09357
-0.0561 0.1733 -0.02396 0.05685 -0.1144 0.3462 -0.2385 0.0651
0.1952 0.11316 0.0883 -0.131 0.03506 -0.05005 0.3357 0.1935
0.03842 -0.1726 -0.04898 -0.03574 0.2812 0.1833 0.0694 0.2104
0.04956 -0.231 -0.227 -0.1874 0.2228 0.05402 -0.09204 0.0552
0.1144 0.1382 0.08795 0.2455 0.0663 -0.02539 -0.2573 -0.01787
-0.014854 -0.1652 0.083 0.1628 0.08093 0.03006 -0.1016 0.165
-0.01526 -0.1284 0.0845 0.105 0.1501 0.1907 -0.3135 0.214
0.08374 -0.010925 0.349 -0.02934 0.1495 0.1192 -0.04404 -0.2314
-0.05066 0.05933 -0.2281 -0.1544 -0.007404 0.01217 0.1107 0.1764
0.088 -0.2009 0.1213 0.09143 0.1049 0.005413 0.1437 -0.1598
0.09015 0.0882 -0.2188 -0.0952 0.0466 0.005924 0.10864 -0.0251
0.002037 0.1462 -0.1847 -0.10974 -0.10065 0.252 -0.0729 0.1296
0.0726 -0.1482 0.4285 0.2156 0.1781 -0.02806 0.04105 -0.0931
-0.233 0.0638 -0.1362 -0.1805 0.09235 0.03116 -0.1663 0.1757
0.05804 -0.0268 -0.12317 0.0474 -0.0787 0.1292 0.2418 -0.0508
0.03156 -0.1004 0.129 0.03827 -0.1324 -0.1597 -0.1997 -0.2141
0.1273 0.09283 -0.05032 -0.4011 -0.3618 -0.0762 -0.03372 0.04575
00000000: abae 81ac bc2f ce2e f830 c9ae e2b1 4b2f
00000010: 582b f5b1 b7a6 8e30 c4ae 0230 b2af 8b2d
00000020: b02d 10a1 6928 d1ae 8fb0 7331 bba6 56b4
00000030: 0730 4230 0a9f d92a a4b5 ee32 b9b1 a6a4
00000040: 1eae 5637 fe2a 33b4 2cad 122c 6bac 0430
00000050: ffb0 c5ad e8b0 8d2e e22d a22d 9a33 ec29
00000060: 6ea9 7ca7 7b28 1134 9b2e 4cb6 50ad ba2e
00000070: 53ae 1021 1a2c 42b4 bfa8 0492 44ad 04b1
00000080: 7034 e62d 9b30 b0b3 4d1d 4831 f631 b828
00000090: 95b1 bc2a c324 bca2 4e33 1e28 86a4 3533
000000a0: 852c 2f23 a3b0 972c f8a4 c830 aab0 5e21
000000b0: 802f b42e dd2c 6c1f aeb2 6b30 772c 74a9
000000c0: 07ae 4932 4a34 69b2 7327 b632 aaaf a0aa
000000d0: 38b0 87af fb33 ec2d 2c2a 1129 ac2d e8ae
000000e0: 4b31 d22c b032 7835 8aad 4f0d f6b0 fdad
000000f0: 2eab 8c31 22a6 472b 52af 8a35 a2b3 2b2c
00000100: 3f32 3e2f a72d 31b0 7d28 68aa 5f35 3132
00000110: eb28 86b1 45aa 93a8 8034 de31 712c bc32
00000120: 582a 64b3 44b3 ffb1 2133 ea2a e4ad 112b
00000130: 522f 6c30 a12d db33 3e2c 80a6 1eb4 93a4
00000140: 9ba3 49b1 502d 3631 2e2d b227 81ae 4831
00000150: d0a3 1cb0 682d b82e ce30 1a32 04b5 d932
00000160: 5c2d 98a1 9635 83a7 c930 a12f a3a9 68b3
00000170: 7caa 982b 4db3 f1b0 959f 3b22 162f a531
00000180: a22d 6eb2 c32f da2d b72e 8b1d 9930 1db1
00000190: c52d a52d 00b3 18ae f729 111e f42e 6da6
000001a0: 2c18 ae30 e9b1 06af 71ae 0834 aaac 2630
000001b0: a52c beb0 db36 e632 b331 2fa7 4129 f5ad
000001c0: 75b3 152c 5cb0 c7b1 e92d fa27 52b1 9f31
000001d0: 6e2b dca6 e2af 112a 09ad 2230 bd33 81aa
000001e0: 0a28 6dae 2130 e628 3db0 1cb1 64b2 dab2
000001f0: 1330 f12d 71aa 6bb6 cab5 e0ac 51a8 db29

model/last_layer/MatMul f2 [31, 256]
-0.07227 -0.0929 -0.08 -0.0941 -0.3691 -0.1268 -0.00512 0.1556
-0.0843 -0.11084 -0.05576 -0.1688 -0.1427 -0.05783 0.122 0.0761
-0.03232 0.02306 -0.1222 -0.07745 -0.04575 0.0005445 -0.03973 -0.08923
-0.02289 0.05783 -0.1987 -0.03827 -0.004406 -0.0454 -0.0888 -0.1678
-0.0696 -0.0949 -0.01682 -0.1313 -0.02794 -0.001959 -0.1178 0.0402
0.03647 0.1355 -0.0475 -0.04303 0.00724 -0.2417 0.01846 -0.02087
-0.0753 0.04767 -0.08887 0.0421 -0.0008736 -0.02113 0.05142 0.04913
-0.003437 0.0827 0.002432 0.05212 -0.007298 -0.02646 0.00709 -0.01235
-0.08936 -0.01878 -0.1935 -0.131 -0.0275 0.0963 -0.02312 -0.1469
0.08325 -0.01645 -0.0936 -0.06174 -0.0737 -0.12476 -0.02019 -0.0846
0.11584 0.1129 -0.1202 0.09766 -0.0697 -0.06866 -0.0938 -0.142
-0.0727 0.0649 -0.0649 0.06976 0.03897 -0.0871 0.01709 0.02791
0.02623 0.04504 -0.07385 -0.1626 -0.03357 -0.01643 0.0652 -0.0923
0.03876 -0.0887 -0.0331 -0.0523 -0.009384 -0.0439 -0.0852 0.00976
0.0594 -0.1637 -0.1903 -0.00584 -0.07855 0.05588 0.0827 -0.04483
0.0652 -0.1439 -0.1783 -0.0086 0.06305 -0.06854 0.00668 -0.03067
0.004585 0.01416 -0.05475 -0.01729 0.0623 -0.02556 -0.1351 -0.002068
-0.0525 0.04468 0.02458 0.02501 -0.00671 -0.04404 0.03577 -0.01216
-0.10974 -0.1588 -0.03894 -0.05725 -0.103 -0.12054 -0.177 -0.002607
0.2123 -0.06586 0.03528 -0.02563 -0.0184 -0.204 0.05267 -0.0527
-0.05997 0.003012 -0.05814 -0.01767 0.0753 -0.03592 0.002602 0.01692
-0.1064 0.1263 -0.0891 0.1069 -0.11884 0.05624 -0.11554 -0.1271
-0.0866 -0.08246 0.00997 0.06128 -0.08887 -0.0485 -0.1036 -0.0551
-0.03534 0.03467 -0.1727 -0.157 0.04123 -0.006115 -0.04694 -0.1637
-0.01394 0.07825 0.0598 0.01845 -0.02808 0.093 -0.04718 -0.11255
0.02924 -0.0766 -0.0707 -0.013 0.01163 -0.1659 -0.1925 -0.1334
-0.0379 -0.1235 -0.08716 0.01213 -0.1603 0.04672 -0.04144 -0.000995
0.046 -0.04367 0.0714 -0.05148 0.05432 0.1214 -0.04935 0.02022
-0.01904 0.1255 0.04602 -0.1389 0.04166 0.04874 -0.1349 -0.0876
-0.10895 0.07605 0.09686 0.07947 -0.1094 0.0566 0.01379 -0.134
-0.01252 0.01175 -0.0711 -0.1472 -0.1556 -0.1313 -0.06775 -0.0978
0.0764 0.02852 -0.0328 -0.004612 -0.251 0.03537 -0.013596 0.03168
00000000: a0ac f2ad 1fad 06ae e8b5 0fb0 3e9d fb30
00000010: 65ad 18af 23ab 67b1 91b0 67ab cf2f df2c
00000020: 23a8 e725 d2af f5ac dba9 7610 16a9 b6ad
00000030: dca5 672b 5cb2 e6a8 839c d0a9 afad 5fb1
00000040: 74ac 13ae 4ea4 34b0 27a7 0398 8aaf 2529
00000050: ab28 5630 14aa 82a9 6a1f bcb3 ba24 58a5
00000060: d2ac 1a2a b0ad 6429 2893 69a5 952a 4a2a
00000070: 0a9b 4b2d fb18 ac2a 799f c6a6 431f 53a2
00000080: b8ad cfa4 31b2 31b0 0aa7 2a2e eba5 b3b0
00000090: 542d 36a4 fead e7ab b8ac fcaf 2ba5 6aad
000000a0: 6a2f 3a2f b1af 402e 76ac 65ac 01ae 8bb0
000000b0: a7ac 272c 27ac 772c fd28 93ad 6024 2527
000000c0: b726 c429 baac 34b1 4ca8 35a4 2c2c e8ad
000000d0: f628 adad 3da8 b2aa cea0 9fa9 74ad ff20
000000e0: 9a2b 3db1 17b2 fb9d 07ad 272b 4b2d bda9
000000f0: 2c2c 9bb0 b5b1 67a0 092c 63ac d71e daa7
00000100: b21c 4023 02ab 6da4 f92b 8ba6 53b0 3c98
00000110: b8aa b829 4b26 6726 df9e a3a9 9428 3aa2
00000120: 06af 15b1 fca8 54ab 98ae b7af aab1 5799
00000130: cb32 37ac 8428 90a6 b6a4 87b2 be2a bfaa
00000140: adab 2b1a 71ab 86a4 d22c 99a8 5419 5524
00000150: cfae 0b30 b4ad d72e 9baf 332b 65af 11b0
00000160: 8bad 47ad 1b21 d82b b0ad 35aa a1ae 0eab
00000170: 86a8 7028 87b1 06b1 4729 439e 02aa 3db1
00000180: 23a3 022d a82b b924 30a7 f42d 0aaa 34af
00000190: 7c27 e7ac 86ac a8a2 f421 4fb1 29b2 45b0
000001a0: daa8 e7af 94ad 3622 21b1 fb29 4ea9 1394
000001b0: e329 97a9 922c 97aa f42a c52f 51aa 2d25
000001c0: e0a4 0430 e429 72b0 5529 3d2a 51b0 9bad
000001d0: f9ae de2c 332e 162d 00af 3f2b 0f23 4ab0
000001e0: 69a2 0422 8dac b6b0 fbb0 34b0 56ac 42ae
000001f0: e42c 4d27 33a8 b99c 04b4 8728 f6a2 0e28

model/time_distributed_11/dense_1/MatMul f2 [64, 1488]
0.06238 0.06854 0.05515 0.04565 0.0572 0.0892 0.0634 0.06494
0.0951 -0.00882 0.09235 0.04318 0.0605 0.010925 0.00844 0.02051
0.03687 0.0792 0.03177 0.0445 -0.01291 0.02472 0.06305 0.0493
-0.01616 -0.00876 0.0702 0.01657 -0.01044 0.02287 0.1022 0.05115
0.01762 0.04266 -0.0221 -0.02708 0.02946 -0.004406 0.0922 0.0945
0.0673 0.01894 0.02354 0.02989 0.01451 0.02121 0.0623 0.0739
0.001991 -0.0274 -0.00919 0.04526 0.07227 0.08154 0.02945 0.03735
0.05762 0.04126 0.0927 -0.01843 -0.01 0.09546 0.07874 0.01826
0.0695 0.04886 0.00404 0.08386 0.08575 0.06775 0.01445 0.03867
0.02791 -0.01828 0.09875 0.05112 0.08514 0.0857 0.0836 0.0081
0.02083 0.0613 0.0931 -0.01176 0.02596 -0.02716 0.02692 0.0678
0.003086 0.06104 0.06537 0.0359 0.005047 0.000344 -0.00938 -0.01764
0.09314 0.03955 0.06134 0.04825 -0.02321 0.0833 -0.01051 -0.010506
0.03778 -0.00672 0.03226 0.03607 0.00466 0.07605 -0.00573 0.04672
0.02745 0.07465 0.03632 0.06476 -0.01166 0.03778 0.0958 0.0678
-0.02097 -0.01168 0.08374 -0.01723 -0.008736 0.01746 0.0479 0.009735
0.0744 0.06464 0.05737 -0.0010195 0.0169 0.02448 0.092 0.04852
0.01033 0.05054 0.01758 0.01374 0.0802 0.08044 0.01536 0.105
-0.01883 0.05637 0.00231 -0.005093 0.00171 -0.00985 0.09125 0.0872
-0.007248 -0.01823 0.07983 0.0931 -0.004166 -0.010895 0.0808 0.0675
0.00928 0.06555 0.0734 0.01875 0.0814 -0.02437 0.08405 0.02026
0.03069 0.00979 0.0699 0.05853 -0.01257 0.0817 0.05875 0.04758
0.007015 -0.00767 -0.00748 -0.01292 0.0748 0.05197 0.03976 0.05405
0.04446 -0.00811 0.05112 -0.00657 0.03174 0.0781 0.04498 0.03784
0.0607 0.0387 0.07336 0.0649 0.0705 -0.01218 0.0646 0.0454
0.02711 -0.01935 0.05362 0.04346 0.09 0.01714 0.06128 0.0825
0.03806 -0.004498 0.0777 -0.00886 0.0859 0.0819 0.05707 -0.002222
0.0864 -0.02324 -0.0181 0.08905 0.04773 0.001787 0.0307 0.04346
0.07965 -0.00752 -0.00601 0.0824 -0.00028 0.0857 0.01563 -0.02136
0.0741 0.04355 0.02611 0.0632 0.02588 0.04166 0.08685 0.03226
0.04175 0.03482 0.02405 0.05 0.08246 -0.006966 -0.00896 0.04425
-0.00628 0.06915 -0.0074 -0.0241 -0.01617 -0.004948 0.08124 0.0642
00000000: fc2b 632c 0f2b d829 522b b52d 0f2c 282c
00000010: 162e 84a0 e92d 8729 be2b 9821 5220 4025
00000020: b828 122d 1128 b229 9ca2 5426 092c 4f2a
00000030: 23a4 7ca0 7e2c 3e24 58a1 db25 8a2e 8c2a
00000040: 8324 7629 a8a5 efa6 8b27 839c e72d 0c2e
00000050: 4f2c d924 0726 a727 6e23 6e25 f92b bb2c
00000060: 1418 04a7 b5a0 cb29 a02c 382d 8a27 c828
00000070: 602b 4829 ef2d b8a4 1fa1 1c2e 0a2d ad24
00000080: 732c 412a 231c 5e2d 7d2d 562c 6623 f328
00000090: 2527 aea4 522e 8b2a 732d 7c2d 5a2d 2620
000000a0: 5525 d92b f52d 05a2 a526 f4a6 e426 572c
000000b0: 521a d02b 2f2c 9828 2b1d a30d cda0 84a4
000000c0: f62d 1029 da2b 2d2a f1a5 552d 62a1 61a1
000000d0: d628 e29e 2128 9e28 c61c de2c de9d fb29
000000e0: 0727 c72c a628 252c f8a1 d628 222e 572c
000000f0: 5ea5 fba1 5c2d 69a4 79a0 7824 222a fc20
00000100: c32c 232c 582b 2d94 5424 4426 e32d 362a
00000110: 4a21 782a 8024 0923 222d 262d dd23 b82e
00000120: d2a4 372b bb18 379d 0117 0ba1 d72d 952d
00000130: 6c9f aba4 1c2d f52d 449c 94a1 2c2d 522c
00000140: c020 322c b32c cd24 362d 3da6 612d 3025
00000150: db27 0321 792c 7e2b 70a2 3b2d 852b 172a
00000160: 2f1f db9f a99f 9da2 ca2c a72a 1729 eb2a
00000170: b129 27a0 8b2a ba9e 1028 002d c229 d828
00000180: c52b f428 b22c 272c 832c 3ca2 222c d029
00000190: f126 f4a4 dd2a 9029 c32d 6324 d82b 482d
000001a0: df28 9b9c f92c 89a0 7f2d 3e2d 4e2b 8d98
000001b0: 882d f3a5 a2a4 b32d 1c2a 5217 dc27 9029
000001c0: 192d b39f 279e 462d 968c 7c2d 0024 78a5
000001d0: be2c 9329 af26 0b2c a026 5529 8f2d 2128
000001e0: 5829 7528 2826 662a 472d 229f 96a0 aa29
000001f0: 6e9e 6d2c 949f 2ba6 24a4 119d 332d 1c2c

model/time_distributed_3/batch_normalization/FusedBatchNormV3 f2 [8]
-1.1875 -1.463 -1.226 -1.169 -1.48 -0.9326 -0.8896 -1.201
00000000: c0bc dabd e7bc adbc ecbd 76bb 1ebb cebc

model/time_distributed_3/batch_normalization/FusedBatchNormV31 f2 [8]
0.798 0.8486 0.7925 0.82 0.8525 0.767 0.858 0.8286
00000000: 623a ca3a 573a 8f3a d23a 233a dd3a a13a

model/time_distributed_5/dense/MatMul f2 [32, 168]
0.205 0.10956 -0.0822 -0.0676 0.2098 -0.01915 0.03156 0.08514
0.0307 -0.0957 -0.1724 0.12225 0.11053 0.0875 -0.2306 0.04822
-0.275 -0.2283 -0.2795 -0.2184 0.1779 -0.01413 -0.00831 0.05972
0.1078 0.1107 -0.06305 -0.02747 0.12415 0.03418 -0.06445 0.0872
-0.2084 0.1262 -0.0202 -0.2135 -0.2112 0.1221 -0.07935 -0.1754
0.08527 -0.1081 -0.10205 -0.3328 0.07404 -0.01895 0.01721 -0.01158
0.0662 -0.01924 -0.1254 -0.1033 -0.1991 -0.02802 0.04608 0.05585
0.1302 0.12384 -0.0825 -0.1711 0.1149 -0.1447 -0.1718 -0.02432
0.1542 -0.0794 0.2073 -0.01973 -0.2603 0.1774 0.1313 -0.0592
-0.04388 -0.1185 0.1057 0.2411 0.0739 -0.03558 -0.1631 0.08075
0.1934 0.1881 -0.0514 0.161 0.1091 -0.1252 0.116 0.0791
-0.0981 0.0455 -0.1368 0.02539 -0.1288 0.1846 -0.0825 -0.2316
-0.12354 0.10706 0.002827 0.1545 -0.0182 -0.0725 -0.05112 0.1559
0.02016 -0.191 -0.0638 0.194 0.0436 -0.04236 0.1392 0.2052
-0.1444 0.1209 0.1605 -0.11273 0.0615 -0.04138 -0.03284 0.0945
-0.03035 -0.2139 -0.1307 -0.04675 -0.08887 -0.1296 0.0651 -0.2627
-0.11993 0.158 0.1698 -0.03156 -0.005924 -0.2015 0.06464 -0.06696
0.0895 -6.425e-05 -0.11365 0.1272 0.0634 0.0724 -0.1017 -0.0555
0.01677 -0.0657 -0.2118 0.06805 -0.11975 0.083 -0.08844 -0.1863
-0.10376 -0.06183 -0.0585 -0.2307 -0.086 0.01616 -0.1653 -0.03998
0.01636 0.01749 -0.09644 -0.11584 -0.06433 0.1148 0.1354 -0.1438
-0.08966 0.006004 0.1619 -0.3118 0.0976 0.1404 -0.1604 -0.010544
-0.05005 -0.04868 0.135 0.08826 0.01328 -0.1312 0.0987 -0.0883
-0.00733 0.02393 -0.083 -0.04184 -0.1144 0.01302 -0.089 -0.038
0.1826 -0.007652 0.006298 -0.05548 -0.02654 0.0466 0.01767 0.0989
0.1167 0.1909 -0.002968 -0.03876 0.0852 -0.01976 0.02382 -0.2487
0.06003 0.0753 0.02669 -0.0825 0.03473 0.0902 0.0673 0.1483
-0.02016 -0.04205 -0.1257 -0.0938 -0.1499 0.000827 0.1523 -0.02864
-0.09576 0.1103 -0.06696 -0.0973 0.008766 0.1177 0.1848 0.01935
0.1848 0.0441 -0.06934 0.127 -0.2097 -0.2842 -0.077 -0.4185
-0.0109 0.1785 -0.1019 -0.1791 0.1494 -0.1523 0.1112 0.2245
0.007637 0.03833 -0.00268 -0.07697 0.1191 0.09546 -0.11816 -0.06396
00000000: 8f32 032f 43ad 54ac b732 e7a4 0a28 732d
00000010: dc27 20ae 84b1 d32f 132f 9a2d 61b3 2c2a
00000020: 66b4 4eb3 79b4 fdb2 b131 3ca3 41a0 a52b
00000030: e62e 162f 09ac 08a7 f22f 6028 20ac 952d
00000040: abb2 0a30 2ca5 d5b2 c2b2 d02f 14ad 9db1
00000050: 752d ebae 88ae 53b5 bd2c daa4 6824 eea1
00000060: 3d2c eda4 03b0 9cae 5fb2 2ca7 e629 262b
00000070: 2b30 ed2f 48ad 7ab1 5b2f a1b0 7fb1 3aa6
00000080: ef30 15ad a232 0da5 2ab4 ad31 3430 94ab
00000090: 9ea9 96af c42e b733 bb2c 8ea8 38b1 2b2d
000000a0: 3032 0532 94aa 2731 fb2e 02b0 6d2f 102d
000000b0: 47ae d329 61b0 8026 1fb0 e831 48ad 69b3
000000c0: e8af da2e ca19 f230 a9a4 a4ac 8baa fd30
000000d0: 2925 1db2 15ac 3532 9529 6ca9 7430 9132
000000e0: 9fb0 bd2f 2331 37af df2b 4ca9 34a8 0c2e
000000f0: c5a7 d8b2 2fb0 fca9 b0ad 26b0 2b2c 34b4
00000100: adaf 0e31 6f31 0aa8 119e 73b2 232c 49ac
00000110: ba2d 3684 46af 1230 0f2c a22c 82ae 1bab
00000120: 4b24 34ac c7b2 5b2c aaaf 502d a9ad f6b1
00000130: a4ae eaab 7dab 62b3 81ad 2324 4ab1 1ea9
00000140: 3024 7a24 2cae 6aaf 1eac 592f 5530 9ab0
00000150: bdad 261e 2e31 fdb4 3f2e 7e30 22b1 66a1
00000160: 68aa 3baa 5230 a62d cd22 33b0 512e a7ad
00000170: 829f 2026 50ad 5ba9 52af ab22 b2ad dda8
00000180: d831 d69f 731e 1aab cba6 f729 8624 542e
00000190: 782f 1c32 149a f6a8 742d 0fa5 1926 f5b3
000001a0: af2b d22c d526 48ad 7228 c62d 4f2c bf30
000001b0: 29a5 62a9 06b0 01ae ccb0 c612 e030 55a7
000001c0: 21ae 0f2f 49ac 3aae 7d20 882f ea31 f424
000001d0: ea31 a529 70ac 1030 b6b2 8cb4 eeac b2b6
000001e0: 95a1 b631 86ae bbb1 c830 e0b0 1e2f 2f33
000001f0: d21f e828 7d99 edac 9f2f 1c2e 90af 18ac

model/time_distributed_9/batch_normalization_1/FusedBatchNormV3 f2 [16]
-0.3765 -0.501 -0.4692 -0.2795 -0.2937 -0.4329 -0.5737 -0.5205
-0.2854 -0.5864 -0.549 -0.3748 -0.2646 -0.355 -0.585 -0.4736
00000000: 06b6 02b8 82b7 79b4 b3b4 edb6 97b8 2ab8
00000010: 91b4 b1b8 64b8 ffb5 3cb4 aeb5 aeb8 94b7

model/time_distributed_9/batch_normalization_1/FusedBatchNormV31 f2 [16]
1.517 1.58 1.542 1.414 1.615 1.568 1.685 1.657
1.473 1.648 1.567 1.278 1.653 1.477 1.51 1.57
00000000: 113e 523e 2b3e a83d 763e 463e bd3e a13e
00000010: e43d 983e 453e 1d3d 9d3e e83d 0a3e 483e

model/lstm/while/lstm_cell_2/MatMul_4 f2 [32, 32]
0.00502 0.209 -0.02 -0.1317 0.09625 -0.0376 0.01295 0.09705
-0.03168 -0.2686 0.01727 -0.06192 -0.2196 0.04614 -0.0633 0.04678
0.0666 0.002254 0.11395 0.1345 0.0826 0.006725 0.1339 0.05005
-0.11224 0.0815 -0.1119 0.002993 -0.011894 0.216 -0.155 0.05612
-0.2095 -0.256 0.001866 0.131 -0.005352 -0.0895 0.0552 -0.1075
0.29 -0.10864 -0.007645 -0.05698 -0.1393 0.02919 0.1434 0.015144
0.0103 -0.168 0.2255 0.1046 0.1433 -0.03735 -0.06976 -0.1345
-0.09436 0.1433 -0.2397 0.03192 -0.105 -0.02046 -0.0319 0.0811
0.1865 -0.1411 0.03635 -0.06744 0.0919 -0.2262 -0.06235 -0.02435
0.0541 0.1145 -0.02983 0.01654 0.05377 0.251 -0.04633 -0.0742
0.014595 -0.0462 -0.091 -0.1182 -0.1237 -0.2091 -0.01614 0.11786
0.07416 0.0469 0.0213 0.1599 -0.11426 -0.1886 0.08325 0.02716
-0.1366 0.01512 -0.07886 0.2576 -0.1935 -0.02513 -0.1951 -0.082
0.1136 -0.03775 0.1631 -0.02156 0.05148 0.00724 -0.1048 0.2319
-0.2051 0.1311 0.1925 0.01772 0.04807 0.1471 -0.009415 -0.2483
0.1404 -0.2253 -0.06604 0.07056 0.07184 0.04297 0.1667 -0.1307
0.011765 -0.1996 0.04294 0.00928 -0.05157 0.01634 0.00982 -0.06824
0.01186 0.06537 -0.07794 -0.1179 -0.1375 0.02315 -0.013084 -0.03928
-0.11383 -0.0184 0.0857 -0.0102 0.01576 -0.0691 0.02907 0.03787
-0.03665 -0.05878 -0.01092 0.02972 0.0002604 0.00803 0.1161 0.1447
0.3062 -0.04742 -0.11 0.01299 -0.01477 0.05313 -0.01775 0.2004
-0.06067 -0.04428 -0.2615 -0.09924 -0.209 0.11304 0.1825 0.01999
0.06232 0.105 0.0807 0.1292 0.0637 0.0931 0.117 0.1155
0.05966 0.1092 0.07324 0.07404 0.002243 -0.06207 0.0495 -0.00538
0.06995 -0.01333 0.02509 0.0937 -0.1127 -0.002161 -0.0744 0.1153
-0.06082 -0.1048 -0.03305 -0.274 -0.1501 0.07837 -0.1576 0.0873
0.1882 -0.12067 0.11566 -0.01504 0.04868 0.0687 -0.157 0.0989
0.2471 0.08356 0.2389 0.10547 0.1151 -0.1521 -0.1578 0.1482
0.1646 0.0009046 -0.1317 -0.0392 0.01929 0.0483 -0.0673 -0.006638
0.0726 0.0712 0.08936 -0.01461 -0.1061 -0.0606 0.0325 -0.0385
-0.003754 0.03152 0.10754 0.0299 0.01444 0.0833 -0.14 -0.0646
-0.03192 0.10986 -0.191 -0.00801 -0.2344 -0.04797 -0.02293 0.1216
00000000: 241d b032 1fa5 37b0 292e d0a8 a122 362e
00000010: 0ea8 4cb4 6c24 edab 07b3 e829 0dac fd29
00000020: 432c 9e18 4b2f 4e30 492d e31e 4930 682a
00000030: 2faf 372d 29af 211a 17a2 e932 f6b0 2f2b
00000040: b4b2 19b4 a517 3130 7b9d baad 112b e1ae
00000050: a434 f4ae d49f 4bab 75b0 7927 9730 c123
00000060: 4621 60b1 3733 b22e 9630 c8a8 77ac 4eb0
00000070: 0aae 9630 acb3 1628 b8ae 3da5 15a8 312d
00000080: f831 84b0 a728 51ac e22d 3db3 fbab 3ca6
00000090: ed2a 542f a3a7 3c24 e22a 0434 eea9 c0ac
000000a0: 7923 eaa9 d3ad 91af ebaf b1b2 22a4 8b2f
000000b0: bf2c 012a 7425 1e31 50af 09b2 542d f426
000000c0: 5fb0 be23 0cad 1f34 31b2 6fa6 3eb2 3fad
000000d0: 452f d5a8 3831 85a5 972a 6a1f b5ae 6c33
000000e0: 90b2 3230 2932 8924 272a b530 d2a0 f2b3
000000f0: 7e30 36b3 3aac 842c 992c 8029 5631 2fb0
00000100: 0622 63b2 7f29 c020 9aaa 2f24 0721 5eac
00000110: 1322 2f2c fdac 8caf 66b0 ed25 b3a2 07a9
00000120: 49af b6a4 7c2d 39a1 0924 6cac 7127 d928
00000130: b1a8 86ab 97a1 9c27 440c 1d20 6e2f a130
00000140: e634 12aa 0aaf a722 90a3 cd2a 8ba4 6a32
00000150: c4ab aba9 2fb4 5aae b0b2 3c2f d731 1e25
00000160: fa2b b82e 2a2d 2230 142c f52d 7d2f 642f
00000170: a32b fd2e b02c bd2c 9818 f2ab 562a 829d
00000180: 7a2c d3a2 6c26 ff2d 36af 6d98 c3ac 612f
00000190: c9ab b5ae 3ba8 62b4 ceb0 042d 0bb1 962d
000001a0: 0632 b9af 672f b3a3 3b2a 662c 06b1 542e
000001b0: e833 592d a533 c02e 5e2f deb0 0db1 be30
000001c0: 4431 6913 37b0 05a9 f024 2f2a 4fac cc9e
000001d0: a52c 8f2c b82d 7ba3 caae c2ab 2928 eea8
000001e0: b09b 0928 e22e a827 6523 552d 7bb0 22ac
000001f0: 16a8 082f 1db2 1aa0 80b3 24aa dfa5 c82f

model/lstm/while/lstm_cell_2/MatMul_5 f2 [32, 32]
0.08905 -0.1276 -0.06238 0.186 0.005127 0.205 0.07654 0.05453
-0.03046 -0.1841 -0.4526 0.0473 -0.09717 0.09753 0.1322 0.05865
0.01503 -0.06836 -0.1443 -0.1428 -0.06 0.2086 -0.1776 0.1483
0.02957 -0.01066 0.3088 0.05743 0.01233 -0.2201 -0.1604 0.1106
0.0743 0.169 -0.1338 -0.07306 -0.004513 0.1515 -0.0886 0.0543
-0.1628 0.01032 -0.1095 0.03793 -0.0562 0.0822 0.02591 0.1071
0.0801 0.08344 -0.003445 0.0985 -0.125 0.1063 -0.02495 -0.1061
0.0487 0.09924 -0.2384 0.00417 -0.1752 0.07324 -0.06506 -0.0908
0.1589 0.0801 -0.00497 0.0733 -0.0452 0.05673 -0.2098 -0.05234
0.03082 0.03656 0.07404 -0.02815 0.1013 0.0663 -0.1594 -0.0793
-0.02145 0.02687 0.004517 -0.07153 0.04993 0.1718 0.0269 -0.0924
-0.05057 0.1631 -0.08496 -0.1515 0.02676 0.2305 -0.03735 -0.0771
0.003164 0.2866 -0.05725 -0.0255 0.1962 -0.07715 0.1018 -0.01011
0.01264 0.06174 -0.09216 -0.0184 -0.0649 -0.04196 -0.08167 0.093
-0.0665 0.1195 -0.1807 0.10986 -0.1355 0.0341 -0.03436 0.1735
-0.05347 0.1738 0.08746 0.0168 -0.09735 -0.0297 0.02681 0.11273
-0.1547 -0.0841 0.1015 -0.07385 0.06573 -0.0459 -0.03302 -0.04428
-0.2092 -0.0831 -0.0456 0.0598 -0.11505 0.0456 -0.012726 0.1329
-0.02461 0.064 0.07855 0.1598 -0.04584 0.01668 0.0123 -0.01993
0.2693 0.08075 0.03644 -0.03397 -0.1542 -0.0006022 -0.2191 -0.08813
0.07465 0.0611 0.03424 -0.1371 0.0005393 -0.04483 0.1467 0.008545
0.02666 -0.1223 -0.0922 0.05542 -0.1715 0.07495 0.0717 -0.1284
0.2057 0.010414 0.1382 -0.1968 0.03064 0.03906 0.1375 0.09064
-0.065 0.161 0.06903 0.05408 -0.03812 -0.2786 0.1921 -0.03412
0.0792 0.000573 -0.04257 -0.007294 0.151 -0.0371 0.01193 0.0653
-0.0711 0.05002 -0.1404 -0.116 -0.01286 -0.02385 -0.04834 -0.07056
-0.0447 -0.0843 0.0301 -0.06793 -0.00368 -0.00807 -0.11694 0.1466
0.10156 -0.05154 0.0892 0.0196 0.1443 0.06058 -0.0888 0.089
0.01599 -0.0785 -0.010635 0.02805 -0.0879 0.06616 0.10504 0.0596
0.03705 -0.1835 -0.2451 -0.0199 -0.1462 -0.0617 0.02559 0.02484
-0.2097 -0.1332 -0.02194 -0.096 -0.0977 0.011215 0.000914 -0.1292
0.0779 0.1453 0.09717 -0.02135 -0.02905 0.10376 -0.0904 0.03165
00000000: b32d 15b0 fcab f431 401d 8f32 e62c fb2a
00000010: cca7 e4b1 3eb7 0e2a 38ae 3e2e 3b30 822b
00000020: b223 60ac 9eb0 92b0 aeab ad32 afb1 bf30
00000030: 9227 75a1 f134 5a2b 5022 0bb3 22b1 142f
00000040: c12c 6831 48b0 adac 9f9c d930 acad f32a
00000050: 36b1 4921 02af db28 32ab 432d a226 db2e
00000060: 202d 572d 0e9b 4e2e 00b0 ce2e 63a6 caae
00000070: 3c2a 5a2e a1b3 451c 9bb1 b02c 2aac d0ad
00000080: 1631 202d 179d b12c c9a9 432b b7b2 b3aa
00000090: e427 ae28 bd2c 35a7 7c2e 3e2c 1ab1 13ad
000000a0: 7ea5 e126 a01c 94ac 642a 7f31 e326 eaad
000000b0: 79aa 3831 70ad d9b0 da26 6033 c8a8 efac
000000c0: 7b1a 9634 54ab 87a6 4732 f0ac 842e 2da1
000000d0: 7922 e72b e6ad b6a4 27ac 5fa9 3aad f42d
000000e0: 42ac a62f c8b1 082f 56b0 5d28 66a8 8d31
000000f0: d8aa 9031 992d 4d24 3bae 9aa7 dd26 372f
00000100: f3b0 62ad 7f2e baac 352c e0a9 3aa8 aba9
00000110: b2b2 52ad d6a9 a82b 5daf d629 84a2 4130
00000120: 4da6 192c 072d 1d31 dea9 4524 4c22 1aa5
00000130: 4f34 2b2d aa28 59a8 efb0 ef90 03b3 a4ad
00000140: c72c d22b 6228 63b0 6b10 bda9 b230 6020
00000150: d326 d4af e7ad 182b 7db1 cc2c 972c 1cb0
00000160: 9532 5521 6c30 4cb2 d827 0029 6630 cd2d
00000170: 29ac 2731 6b2c ec2a e1a8 75b4 2632 5ea8
00000180: 122d b210 73a9 789f d530 c0a8 1c22 2e2c
00000190: 8dac 672a 7eb0 6daf 96a2 1ba6 30aa 84ac
000001a0: b9a9 65ad b527 59ac 899b 22a0 7caf b130
000001b0: 802e 99aa b52d 0525 9e30 c12b afad b22d
000001c0: 1824 06ad 72a1 2e27 a0ad 3c2c b92e a12b
000001d0: be28 dfb1 d8b3 18a5 aeb0 e6ab 8d26 5c26
000001e0: b6b2 43b0 9ea5 25ae 41ae be21 7d13 22b0
000001f0: fc2c a630 382e 77a5 70a7 a42e c9ad 0d28

model/lstm/while/lstm_cell_2/MatMul_6 f2 [32, 32]
0.008064 -0.1183 -0.1897 0.14 -0.01545 -0.0995 -0.088 -0.1481
-0.1863 0.2747 0.03735 0.0521 0.01033 0.0777 0.10657 0.1288
0.2573 0.1582 -0.1179 -0.2537 -0.1041 -0.0381 0.043 0.174
-0.1285 -0.0329 0.10333 -0.10583 -0.1671 0.01059 0.1575 0.04813
0.1985 0.05615 0.05148 -0.1109 -0.03845 0.05988 -0.2357 0.0473
-0.1478 0.09265 0.0328 -0.1686 0.0368 -0.03021 0.03616 -0.0313
-0.1338 0.1964 -0.05554 0.1356 -0.0784 -0.1848 0.05096 0.0981
-0.0957 -0.01206 -0.04675 -0.2135 -0.0628 0.004017 0.167 0.18
0.0955 0.1353 0.02142 -0.193 -0.07825 -0.3008 -0.02016 -0.08777
0.0736 0.03802 0.0405 -0.03827 0.1225 0.1348 -0.2432 0.1489
-0.0716 -0.06198 0.1378 0.0383 0.11505 0.1113 0.2059 -0.2413
0.0933 0.00359 0.005478 -0.076 -0.132 0.0003998 -0.0936 0.1345
-0.05762 -0.1603 -0.0362 0.0337 0.00145 -0.03069 0.1725 0.1327
-0.012856 0.00783 -0.3108 0.06775 -0.1754 0.1301 0.02466 -0.1665
0.09894 -0.03105 0.0547 -0.3733 0.04648 -0.001269 0.001265 -0.1848
-0.0929 -0.0825 0.04428 0.1783 0.1262 -0.1578 -0.1216 0.01444
0.00979 0.2253 0.0642 -0.2307 -0.0188 -0.01367 -0.2249 0.1866
-0.05408 -0.10126 0.1366 0.02602 -0.0958 -0.03876 0.1636 -0.10016
-0.01018 0.0842 0.1522 0.2473 0.04623 0.0733 0.0484 -0.04663
-0.05603 0.2102 0.1664 -0.2957 -0.2245 0.2073 -0.03595 0.115
-0.1371 0.0781 0.04523 0.00941 0.1113 0.065 0.02371 0.02742
-0.06354 -0.1973 0.0504 0.06934 0.04358 -0.0168 0.11755 0.06198
0.3613 -0.2045 0.0409 -0.04468 -0.05316 -0.09296 -0.273 0.05438
0.10583 0.0878 0.1343 -0.1296 0.11646 0.02768 -0.0525 -0.1525
0.1138 -0.0334 0.0911 -0.2087 0.05457 -0.1349 0.05225 -0.009476
0.04773 0.09375 -0.01258 0.02687 4.905e-05 -0.05972 0.03754 -0.197
-0.04605 -0.1443 -0.1523 0.157 -0.02441 0.1202 0.09534 0.359
0.01536 0.2081 -0.05933 0.198 0.216 -0.00586 -0.03017 -0.02368
0.01741 -0.10675 0.01149 -0.01727 0.1652 -0.0738 0.0382 0.1354
-0.1465 -0.2004 0.07715 -0.0472 -0.2195 -0.0348 -0.00442 0.03906
0.0376 -0.2651 0.0929 0.1843 0.1095 -0.1617 0.01555 0.04956
-0.1112 0.1003 0.1206 -0.03976 -0.1384 -0.04468 -0.1819 -0.06635
00000000: 2120 92af 12b2 7b30 e9a3 5eae a2ad bdb0
00000010: f6b1 6534 c828 ab2a 4a21 f92c d22e 1f30
00000020: 1e34 1031 8caf 0fb4 aaae e0a8 8129 9131
00000030: 1db0 36a8 9d2e c6ae 59b1 6c21 0a31 292a
00000040: 5a32 302b 972a 19af eca8 aa2b 8bb3 0e2a
00000050: bbb0 ee2d 3328 65b1 b628 bca7 a128 02a8
00000060: 48b0 4932 1cab 5730 05ad eab1 862a 472e
00000070: 20ae 2da2 fca9 d5b2 05ac 1d1c 5831 c331
00000080: 1d2e 5430 7c25 2db2 02ad d0b4 29a5 9ead
00000090: b62c de28 2f29 e6a8 d72f 5030 c8b3 c430
000000a0: 95ac efab 6930 e728 5d2f 202f 9732 b9b3
000000b0: f92d 5a1b 9c1d ddac 39b0 8d0e fead 4e30
000000c0: 60ab 21b1 a2a8 5028 f015 dba7 8531 3f30
000000d0: 95a2 0220 f9b4 562c 9db1 2a30 5026 54b1
000000e0: 552e f3a7 002b f9b5 f329 3395 2e15 eab1
000000f0: f2ad 48ad ab29 b531 0a30 0db1 c8af 6523
00000100: 0321 3633 1c2c 62b3 d0a4 00a3 32b3 f931
00000110: ecaa 7bae 5f30 a926 22ae f6a8 3c31 69ae
00000120: 36a1 642d df30 ea33 eb29 b12c 322a f8a9
00000130: 2cab ba32 5331 bbb4 2fb3 a232 9aa8 5c2f
00000140: 63b0 002d ca29 d120 202f 292c 1226 0527
00000150: 11ac 50b2 742a 702c 9429 4da4 862f ef2b
00000160: c835 8bb2 3c29 b8a9 ceaa f3ad 5eb4 f62a
00000170: c62e 9f2d 4c30 26b0 742f 1627 b8aa e1b0
00000180: 482f 46a8 d52d aeb2 fc2a 51b0 b02a daa0
00000190: 1c2a 002e 71a2 e126 3703 a5ab ce28 4eb2
000001a0: e5a9 9eb0 e0b0 0631 40a6 b12f 1a2e be35
000001b0: dd23 a932 98ab 5632 e932 009e b9a7 10a6
000001c0: 7524 d5ae e221 6ca4 4931 b9ac e428 5530
000001d0: b0b0 6ab2 f02c 0baa 06b3 74a8 879c 0029
000001e0: d028 3eb4 f22d e631 022f 2db1 f623 582a
000001f0: 1eaf 6b2e b82f 17a9 6eb0 b8a9 d2b1 3fac

model/lstm/while/lstm_cell_2/MatMul_7 f2 [32, 32]
0.10236 -0.12415 -0.03705 0.0162 0.04745 0.09674 0.2113 0.1499
0.0251 -0.0414 -0.133 -0.1361 0.03384 -0.01936 -0.03021 0.07227
0.04257 -0.3354 -0.3674 -0.09283 -0.2349 0.2319 -0.1393 0.3052
0.1667 0.0657 0.3638 0.08765 0.1301 -0.1377 0.11743 0.2422
-0.0874 -0.09064 0.0224 0.2301 0.0832 0.075 -0.1586 -0.133
0.02118 0.0577 -0.05496 -0.0989 -0.1725 0.09045 -0.0784 0.1881
0.1752 0.04315 -0.10815 0.0386 -0.4033 0.3457 0.04645 -0.07806
-0.08997 -0.2798 0.11487 -0.1472 -0.138 0.085 0.1986 0.2632
-0.1295 -0.3005 -0.0096 0.2927 0.1472 -0.05087 0.04535 -0.05054
-0.04642 0.1779 -0.279 -0.1781 -0.0989 -0.0388 -0.1635 0.1473
-0.0743 -0.1117 -0.01383 -0.11566 -0.09467 0.02083 0.0942 0.06976
0.1373 -0.1982 0.0366 0.2505 0.0986 -0.0264 0.006794 0.1605
-0.2427 -0.1231 0.02203 -0.0704 0.10547 -0.03244 -0.04074 -0.01167
-0.0572 -0.0008354 -0.02945 -0.2893 -0.1015 -0.01077 -0.183 0.2466
0.05194 0.1707 0.1829 -0.1704 -0.02084 0.1997 -0.0929 -0.0835
0.1326 0.04468 0.04547 -0.0222 0.09216 -0.06445 -0.03015 -0.02028
-0.06976 -0.08545 -0.06216 -0.1062 -0.1876 -0.0366 -0.0415 -0.1569
0.1548 0.2507 0.1646 0.02573 0.05853 -0.3088 -0.03088 0.0174
-0.1102 0.1522 -0.04425 0.3225 -0.1553 0.00884 0.1293 -0.135
0.04782 0.1903 0.1262 0.1622 -0.01508 -0.1708 0.0639 0.0719
-0.01555 -0.1293 -0.1332 0.00901 -0.05466 0.1338 0.174 -0.0878
-0.00484 -0.02742 -0.2808 -0.10736 0.2452 0.1361 -0.251 0.0983
-0.03165 -0.1206 -0.005413 0.0976 -0.02257 0.0792 0.066 0.0375
0.06 -0.02647 0.05142 0.196 -0.10986 -0.03952 0.2328 0.10803
-0.0053 -0.2124 -0.012985 -0.064 0.09375 0.1522 0.0788 0.141
-0.01898 -0.01993 -0.1641 0.01054 -0.02515 0.05566 -0.09985 0.1092
0.02248 -0.1718 0.1403 0.05304 0.2166 0.006626 -0.2656 0.289
0.1752 0.01367 0.10693 -0.04108 0.1815 -0.02678 0.1598 0.14
-0.021 -0.1366 -0.1054 0.0557 -0.0675 -0.02655 0.0775 -0.1444
-0.0367 0.1288 -0.1934 0.0385 -0.0319 0.1163 -0.0672 0.04477
0.03418 0.1499 0.06573 0.107 -0.1708 -0.11224 0.0474 0.0821
0.03275 0.1357 0.03473 0.02179 0.1309 -0.02858 -0.1351 -0.01915
00000000: 8d2e f2af bea8 2624 132a 312e c332 cc30
00000010: 6d26 4da9 42b0 5bb0 5528 f5a4 bca7 a02c
00000020: 7329 5eb5 e1b5 f1ad 84b3 6c33 75b0 e234
00000030: 5631 342c d235 9c2d 2a30 68b0 842f c033
00000040: 98ad cdad bc25 5d33 532d cd2c 13b1 42b0
00000050: 6c25 632b 09ab 54ae 85b1 ca2d 05ad 0532
00000060: 9b31 8629 ecae f128 74b6 8835 f229 ffac
00000070: c2ad 7ab4 5a2f b6b0 6ab0 712d 5b32 3634
00000080: 25b0 cfb4 eaa0 af34 b630 83aa ce29 78aa
00000090: f1a9 b131 77b4 b3b1 54ae f7a8 3bb1 b730
000000a0: c1ac 26af 15a3 67af 0fae 5525 072e 772c
000000b0: 6530 58b2 af28 0234 4f2e c2a6 f51e 2331
000000c0: c4b3 e1af a425 81ac c02e 27a8 37a9 faa1
000000d0: 52ab d892 8aa7 a1b4 7fae 84a1 dbb1 e433
000000e0: a62a 7631 da31 74b1 56a5 6432 f2ad 58ad
000000f0: 3e30 b829 d229 afa5 e62d 20ac b8a7 31a5
00000100: 77ac 78ad f5ab ccae 01b2 afa8 50a9 05b1
00000110: f430 0334 4431 9626 7e2b f1b4 e8a7 7424
00000120: 0eaf df30 aaa9 2935 f8b0 8720 2330 52b0
00000130: 1f2a 1732 0a30 3131 b9a3 77b1 172c 9a2c
00000140: f6a3 23b0 43b0 9d20 ffaa 4830 9131 9fad
00000150: f59c 05a7 7eb4 dfae d933 5b30 04b4 4b2e
00000160: 0da8 b8af 8b9d 3f2e c7a5 122d 392c cd28
00000170: ae2b c7a6 952a 4632 08af 0fa9 7333 ea2e
00000180: 6d9d ccb2 a6a2 19ac 002e df30 0b2d 8330
00000190: dca4 1aa5 40b1 6521 70a6 202b 64ae fd2e
000001a0: c125 7fb1 7d30 ca2a ee32 c91e 40b4 a034
000001b0: 9b31 0023 d82e 42a9 cf31 dba6 1d31 7b30
000001c0: 60a5 5fb0 bfae 212b 52ac cca6 f62c 9fb0
000001d0: b3a8 1f30 30b2 ee28 15a8 712f 4dac bb29
000001e0: 6028 cc30 352c d92e 77b1 2faf 112a 412d
000001f0: 3128 5830 7228 9425 3030 51a7 53b0 e7a4

model/lstm/while/lstm_cell_2/split_1 f2 [32]
-0.02748 -0.005566 0.0701 -0.00304 0.03796 0.04898 0.1179 -0.0371
-0.000707 -0.01011 0.1273 0.04718 -0.0307 0.0364 -0.062 -0.02164
-0.0622 0.01254 -0.0828 -0.01373 -0.0775 0.08264 -0.02588 -0.08984
0.04733 0.00952 0.1124 0.02342 -0.1556 -0.02795 -0.005928 0.004852
00000000: 09a7 b39d 7d2c 3a9a dc28 452a 8c2f c0a8
00000010: cb91 2da1 1330 0a2a dca7 a928 f0ab 8aa5
00000020: f6ab 6c22 4dad 08a3 f6ac 4a2d a0a6 c0ad
00000030: 0f2a e020 322f ff25 fbb0 28a7 129e f81c

model/lstm/while/lstm_cell_2/split_11 f2 [32]
1.124 1.083 1.017 1.024 1.061 1.04 1.024 1.02
1.031 1.041 0.992 1.051 1.044 1.061 1.061 1.055
1.058 1.061 1.035 1.041 1.029 1.024 1.08 1.065
1.038 1.037 1.013 1.057 1.062 1.046 1.032 1.057
00000000: 7f3c 553c 113c 193c 3e3c 293c 193c 143c
00000010: 203c 2a3c f03b 343c 2d3c 3e3c 3e3c 383c
00000020: 3b3c 3e3c 243c 2a3c 1e3c 193c 523c 433c
00000030: 273c 263c 0d3c 3a3c 3f3c 2f3c 213c 3a3c

model/lstm/while/lstm_cell_2/split_12 f2 [32]
-0.02747 -0.002813 -0.01843 0.001514 0.01753 0.006863 0.01136 0.004173
0.01947 0.01145 -0.02522 -0.05927 0.02606 0.0372 0.00027 0.04648
0.00882 -0.02443 -0.03041 -0.01962 -0.001391 0.01683 -0.00832 0.00551
0.05127 -0.02888 0.03497 0.006027 0.02725 -0.01907 0.0195 0.02092
00000000: 08a7 c399 b8a4 3416 7d24 071f d121 461c
00000010: fc24 dd21 75a6 96ab ac26 c328 6c0c f329
00000020: 8420 41a6 c9a7 06a5 b395 4f24 43a0 a41d
00000030: 902a 65a7 7a28 2c1e fa26 e2a4 fe24 5b25

model/lstm/while/lstm_cell_2/split_13 f2 [32]
0.1354 0.0685 0.03183 0.1012 0.004353 0.05234 0.1081 0.02702
0.03053 0.0369 0.05774 0.02469 0.05563 0.006516 0.1059 0.0911
0.05814 0.04 0.07324 0.0725 0.06824 0.0858 0.03586 0.0745
0.007454 0.0596 0.0959 0.0819 0.08105 0.0508 0.00691 0.00772
00000000: 5530 622c 1328 7a2e 751c b32a eb2e eb26
00000010: d127 b928 642b 5226 1f2b ac1e c72e d52d
00000020: 712b 1f29 b02c a42c 5e2c 7e2d 9728 c52c
00000030: a21f a12b 232e 3e2d 302d 812a 131f e81f

model/lstm/while/lstm_cell_2/MatMul f2 [32, 96]
0.01073 -0.01232 -0.0986 0.1372 -0.04727 -0.075 -0.155 0.002754
0.01321 0.002262 0.10815 -0.1886 -0.0662 -0.1807 0.0001534 -0.08704
0.083 0.05255 -0.1646 0.02309 -0.0981 0.04077 -0.03192 -0.07874
0.0468 -0.01653 -0.1686 -0.03748 -0.00585 0.0801 -0.07794 0.00546
0.003435 -0.03986 -0.0594 0.0156 0.005486 0.02283 -0.1288 -0.1092
0.03076 -0.0004392 -0.04117 0.00989 -0.0472 0.0381 0.02824 -0.1214
-0.11084 0.007805 0.04688 -0.03117 -0.0532 -0.04993 -0.04022 -0.1111
-0.1329 0.0668 -0.003435 0.02731 0.00436 0.0004795 -0.0353 -0.05603
-0.10156 -0.1191 -0.0366 -1.29e-05 0.011406 0.003439 0.01724 -0.0158
-0.02037 -0.0514 -0.05777 -0.04645 -0.04956 0.10925 0.03117 0.09283
0.0162 -0.1174 0.05035 -0.02443 -0.004 0.01736 -0.01409 0.1498
-0.006203 0.0971 0.1318 0.0002823 -0.02022 -0.11835 -0.03366 0.1256
-0.0741 -0.03036 -0.01816 0.0376 -0.005356 -0.03897 0.06046 -0.06775
0.167 -0.05463 0.1023 -0.03925 -0.04813 -0.0012865 0.2112 -0.1116
-0.0302 0.02002 -0.02899 -0.044 -0.02031 -0.000154 0.1284 -0.02045
0.10944 0.11786 0.01956 -0.0563 0.142 -0.0474 -0.01272 -0.0439
-0.0098 -0.02098 0.02306 0.01363 0.003447 0.02202 -0.04443 -0.0714
-0.02191 -0.0527 0.09424 -0.014946 -0.08386 0.09283 -0.0733 -0.01014
-0.002657 -0.01593 -0.02081 0.04102 0.0671 -0.04532 0.05057 -0.02065
-0.006233 0.0706 0.009094 -0.05145 0.0411 0.004414 0.04996 -0.02908
0.04904 0.0651 0.03418 -0.0008206 0.03287 -0.000498 0.00759 0.02426
-0.008606 0.05347 -0.0837 -0.005558 -0.02533 -0.002333 -0.05887 0.08923
-0.000277 -0.08923 0.03464 -0.0071 0.0216 0.0778 -0.015045 0.0702
0.02121 0.02751 0.131 0.004757 -0.02068 -0.00988 -0.0272 -0.1278
0.0492 0.03745 0.04996 0.06946 0.01598 0.04086 -0.0582 0.1986
0.0924 0.0709 -0.006218 -0.0173 -0.0823 -6.1e-06 0.1826 -0.01096
0.06082 0.1399 0.0533 -0.0638 0.01548 0.0502 -0.07336 0.0851
0.00865 0.02727 0.04578 0.00937 0.0391 0.04706 0.0357 0.02563
0.002756 -0.03128 0.0747 -0.003237 -0.001079 0.01672 -0.01505 0.1434
0.05673 -0.0155 0.02835 -0.0623 0.0455 0.01413 0.1209 0.1934
0.05457 0.01379 -0.001871 -0.08075 0.0241 -0.03787 -0.006107 -0.0381
0.0776 0.0432 -0.006718 -0.0668 -0.00842 -0.04446 -0.03473 0.0692
00000000: 7e21 4fa2 4fae 6430 0daa cdac f6b0 a419
00000010: c322 a218 ec2e 09b2 3dac c8b1 0709 92ad
00000020: 502d ba2a 44b1 e925 47ae 3829 16a8 0aad
00000030: fe29 3ba4 65b1 cca8 fe9d 202d fdac 971d
00000040: 091b 1aa9 9aab fd23 9e1d d825 1fb0 fdae
00000050: e027 328f 45a9 1021 0baa e028 3b27 c5af
00000060: 18af fe1f 002a fba7 cfaa 64aa 26a9 1caf
00000070: 41b0 462c 099b fe26 771c db0f 85a8 2cab
00000080: 80ae 9faf afa8 d880 d721 0b1b 6a24 0ba4
00000090: 37a5 94aa 65ab f2a9 58aa fe2e fb27 f12d
000000a0: 2624 83af 722a 41a6 199c 7224 37a3 cb30
000000b0: 5a9e 372e 3830 a00c 2da5 93af 4fa8 0530
000000c0: beac c6a7 a6a4 d028 7c9d fda8 bd2b 56ac
000000d0: 5831 feaa 8c2e 06a9 29aa 4595 c232 24af
000000e0: bba7 2025 6ca7 a2a9 33a5 0c89 1c30 3ca5
000000f0: 012f 8b2f 0225 35ab 8b30 11aa 83a2 9fa9
00000100: 05a1 5fa5 e725 fb22 0f1b a325 b0a9 92ac
00000110: 9ca5 bfaa 082e a7a3 5ead f12d b1ac 31a1
00000120: 7199 14a4 54a5 4029 4b2c cda9 792a 49a5
00000130: 629e 852c a820 96aa 4329 851c 652a 72a7
00000140: 472a 2b2c 6028 b992 3528 1490 c61f 3626
00000150: 68a0 d82a 5bad b19d 7ca6 c798 89ab b62d
00000160: 8a8c b6ad 6f28 459f 8825 fb2c b4a3 7e2c
00000170: 6e25 0b27 3130 df1c 4ba5 0fa1 f7a6 17b0
00000180: 4c2a cb28 652a 722c 1724 3b29 73ab 5b32
00000190: ea2d 8a2c 5e9e 6ea4 44ad 6680 d831 9da1
000001a0: c92b 7a30 d32a 15ac ed23 6d2a b2ac 722d
000001b0: 6e20 fb26 dc29 cc20 0129 062a 9228 9026
000001c0: a519 01a8 c82c a19a 6b94 4824 b5a3 9730
000001d0: 432b f0a3 4227 f9ab d329 3c23 bd2f 3032
000001e0: fc2a 0f23 aa97 2bad 2b26 d9a8 419e e0a8
000001f0: f72c 8829 e19e 46ac 50a0 b1a9 72a8 6e2c
