HPC_Final_Study2_Complete_Test_Class_Balance_run_all/participants_session_transfer_train/participant_8/session_1/session_1_lite_models/indexpen_model_quant.tflite (tflite, 412752 bytes, 45 tensors)

model/time_distributed_3/conv2d_1/BiasAdd;model/time_distributed_11/conv2d_3/Conv2D;model/time_distributed_3/conv2d_1/Conv2D;model/time_distributed_3/conv2d_1/BiasAdd/ReadVariableOp/resource f2 [16]
-0.1992 -0.1722 -0.01656 -0.0357 0.1328 -0.0866 -0.1554 -0.01553
-0.07587 -0.1375 -0.00812 -0.07324 -0.2195 -0.1807 0.0683 -0.12036
00000000: 60b2 83b1 3da4 92a8 4030 8bad f9b0 f4a3
00000010: dbac 66b0 28a0 b0ac 06b3 c8b1 5f2c b4af

model/time_distributed/conv2d/BiasAdd;model/time_distributed_8/conv2d_2/Conv2D;model/time_distributed/conv2d/Conv2D;model/time_distributed/conv2d/BiasAdd/ReadVariableOp/resource f2 [8]
-0.04266 -0.01852 -0.01184 0.00815 0.0388 0.01521 0.1705 -0.01659
00000000: 76a9 bea4 10a2 2c20 f728 ca23 7531 3fa4

model/time_distributed_11/conv2d_3/BiasAdd;model/time_distributed_11/conv2d_3/Conv2D;model/time_distributed_11/conv2d_3/BiasAdd/ReadVariableOp/resource f2 [16]
-0.00327 0.0694 0.003876 0.02162 0.05405 -0.011375 -0.0165 0.0402
-0.01319 -0.01366 0.03845 -0.0305 0.02551 -0.00505 0.003956 -0.062
00000000: b29a 712c f01b 8925 eb2a d3a1 39a4 2529
00000010: c1a2 fea2 ec28 cfa7 8826 2c9d 0d1c f0ab

model/time_distributed_8/conv2d_2/BiasAdd;model/time_distributed_8/conv2d_2/Conv2D;model/time_distributed_8/conv2d_2/BiasAdd/ReadVariableOp/resource f2 [8]
0.0766 0.01206 0.002735 0.01254 -0.006817 0.10236 0.00942 0.001731
00000000: e72c 2d22 9a19 6c22 fb9e 8d2e d320 1717

model/time_distributed_3/conv2d_1/Conv2D f2 [16, 3, 3, 8]
0.0838 -0.0505 0.011086 -0.2275 0.013885 -0.003561 -0.0275 -0.0738
-0.06244 -0.01428 0.001712 0.09033 0.1058 0.02306 0.2267 -0.05734
-0.01161 -0.04538 -0.01474 0.0425 -0.2108 -0.0458 0.02115 0.002644
0.01163 -0.05502 -0.0005393 -0.04715 -0.06152 0.01382 0.1891 0.01614
-0.0396 0.03537 0.01619 0.3154 -0.1254 0.04163 -0.00692 0.02959
-0.0442 -0.006805 0.02206 -0.11487 0.02542 -0.0702 -0.2379 0.00876
0.002144 0.04596 0.05103 0.0856 -0.1204 -0.02792 0.11035 -0.01343
-0.0352 0.0426 0.009415 -0.143 -0.10846 -0.05225 0.2625 0.00428
-0.05014 -0.02046 -0.02342 -0.06915 -0.01901 -0.02504 0.4502 -0.02103
-0.004246 0.0235 -0.05475 -0.1165 0.10895 -0.03604 -0.3347 0.0872
0.03745 0.00852 0.00999 -0.046 0.1266 -0.02525 -0.0382 -0.0011835
-0.0472 -0.0392 0.06094 -0.0662 -0.1772 0.002691 0.3113 -0.06744
-0.00669 0.002806 -0.03754 0.1412 0.05896 0.003084 -0.1895 0.02588
-0.0969 -0.01953 0.06757 -0.02771 0.1011 -0.01947 -0.3542 0.01585
-0.08966 0.03302 0.010086 -0.1481 0.005302 0.05743 0.2266 -0.014244
0.001671 0.0293 -0.001525 -0.03622 0.1539 0.04102 0.00946 -0.04874
0.001206 -0.01359 0.05136 -0.1179 -0.09485 0.01166 0.1932 0.006737
0.04556 -0.04486 -0.014465 -0.02464 -0.1117 0.02518 0.3396 0.02716
-0.08905 -0.0697 0.02031 -0.1145 -0.1351 -0.0322 -0.1823 0.01544
-0.0692 -0.02565 -0.03061 -0.0758 0.002884 -0.01622 0.1708 0.01264
-0.06934 -0.09515 0.002853 0.0731 0.001251 0.03873 -0.2183 -0.007202
-0.03116 0.01259 -0.05807 0.1653 -0.2393 -0.03683 -0.3413 0.04086
-0.06555 0.04556 -0.009476 -0.0305 -0.095 -0.0675 -0.401 -0.002232
-0.008644 4.64e-05 0.03247 0.2258 0.05167 -0.0645 -0.2063 0.03873
0.01802 -0.02647 -0.04535 -0.06116 -0.014275 0.011 0.039 -0.03105
-0.01207 0.011795 0.01409 -0.359 -0.2329 -0.02908 0.1131 -0.04077
-0.00415 -0.01116 -0.007206 -0.01892 -0.3662 -0.0798 0.12274 0.001909
-0.000135 0.07874 -0.03818 -0.05914 0.014244 0.0611 0.0824 -0.00281
-0.0377 -0.03387 -0.03156 0.1431 -0.1406 -0.06476 -0.141 0.05008
-0.08777 -0.005707 0.0459 -0.263 -0.06076 -0.001968 0.052 -0.0771
0.002363 -0.0328 -0.03195 -0.03265 -0.00932 0.002768 0.0245 0.049
0.04715 0.01697 -0.0435 -0.09155 -0.1385 0.02948 -0.12366 0.05505
00000000: 5d2d 77aa ad21 48b3 1c23 4b9b 0aa7 b9ac
00000010: feab 50a3 0317 c82d c52e e725 4133 57ab
00000020: f2a1 cfa9 8ca3 7129 bfb2 dda9 6a25 6a19
00000030: f421 0bab 6b90 09aa e0ab 1323 0d32 2224
00000040: 12a9 8728 2524 0c35 03b0 5429 169f 9327
00000050: a8a9 f89e a625 5aaf 8226 7eac 9db3 7c20
00000060: 6418 e229 882a 7a2d b5af 26a7 102f e0a2
00000070: 81a8 7429 d220 93b0 f1ae b0aa 3334 621c
00000080: 6baa 3da5 ffa5 6dac dea4 69a6 3437 62a5
00000090: 599c 0426 02ab 75af f92e 9da8 5bb5 952d
000000a0: cb28 5d20 1d21 e3a9 0d30 77a6 e4a8 d994
000000b0: 0baa 05a9 cd2b 3dac acb1 8319 fb34 51ac
000000c0: da9e bf19 cea8 8530 8c2b 511a 10b2 a026
000000d0: 34ae 00a5 532c 18a7 782e fca4 abb5 0f24
000000e0: bdad 3a28 2a21 bdb0 6e1d 5a2b 4033 4ba3
000000f0: d816 8027 3f96 a3a8 ed30 4029 d820 3daa
00000100: f114 f5a2 932a 8caf 12ae f821 2f32 e61e
00000110: d529 bea9 68a3 4fa6 26af 7226 6f35 f426
00000120: b3ad 76ac 3325 54af 53b0 1fa8 d5b1 e823
00000130: 6eac 91a6 d6a7 daac e819 27a4 7731 7922
00000140: 70ac 17ae d819 ae2c 2015 f528 fcb2 609f
00000150: faa7 7222 6fab 4a31 a8b3 b7a8 76b5 3b29
00000160: 32ac d529 daa0 cfa7 14ae 52ac 6ab6 9298
00000170: 6da0 0a03 2828 3a33 9d2a 21ac 9ab2 f528
00000180: 9d24 c7a6 cea9 d4ab 4fa3 a221 fe28 f3a7
00000190: 2ea2 0a22 3723 beb5 74b3 72a7 3d2f 38a9
000001a0: 409c b7a1 619f d8a4 dcb5 1bad db2f d217
000001b0: 6c88 0a2d e3a8 92ab 4b23 d22b 462d c199
000001c0: d3a8 56a8 0aa8 9430 80b0 25ac 83b0 692a
000001d0: 9ead d89d e029 35b4 c7ab 0898 a82a efac
000001e0: d718 33a8 17a8 2ea8 c6a0 ab19 4626 462a
000001f0: 092a 5824 91a9 dcad 6fb0 8c27 eaaf 0c2b

model/time_distributed/conv2d/Conv2D f2 [8, 3, 3, 1]
9.763e-05 0.00416 -0.003626 -0.001796 -0.00426 0.004944 0.0003862 -0.000844
-0.00252 -1.615e-05 -0.00177 -0.004776 0.006763 0.0008907 0.00644 -0.01282
0.00299 -0.005974 -0.001025 0.001025 0.0004706 -0.003351 -0.002066 0.001222
0.001022 -0.00395 0.003017 -0.002243 -0.003372 -0.003592 0.01504 -0.00377
0.01297 -0.01698 0.002928 0.02115 0.00997 -0.012054 -0.003887 -0.0011215
-0.00949 -0.006424 0.0632 0.01142 -0.00936 -0.0009375 0.002594 0.0004675
0.00037 -0.0002666 0.0002887 0.00223 0.00547 0.00309 0.006252 0.01261
0.005703 -0.003897 -0.00703 0.001597 -0.00898 -0.05273 -0.001225 -0.003433
0.001648 0.002438 0.00614 -0.0003202 -0.0007153 -0.002943 0.002998 -0.00702
00000000: 6606 431c 6d9b 5b97 5d9c 101d 540e ea92
00000010: 2999 0f81 4097 e49c ed1e 4c13 981e 90a2
00000020: 201a 1e9e 3394 3314 b60f dd9a 3b98 0115
00000030: 3014 0b9c 2e1a 9898 e89a 5b9b b323 b99b
00000040: a422 59a4 ff19 6a25 1b21 2ca2 f69b 9894
00000050: dca0 949e 0b2c d921 cba0 ae93 5019 a90f
00000060: 100e 5e8c bb0c 9118 9a1d 541a 671e 7522
00000070: d71d fb9b 339f 8b16 99a0 c0aa 0595 089b
00000080: c016 fe18 4a1e 3f8d dc91 079a 241a 309f

model/time_distributed_11/conv2d_3/Conv2D f2 [16, 3, 3, 8]
0.1769 -0.02516 -0.03772 -0.02325 -0.3894 -0.3171 -0.105 -0.0906
-0.00942 -0.01064 -0.03009 -0.0539 -0.3604 0.2186 -0.1346 -0.08215
-0.1312 -0.01753 -0.0399 -0.04565 -0.3843 0.0268 0.108 -0.053
-0.2069 -0.04492 -0.02423 -0.07043 0.041 0.11847 -0.321 -0.05136
0.06122 -0.0676 -0.04007 -0.04092 0.00566 -0.03079 0.10315 -0.002047
0.05975 -0.03598 -0.04257 -0.0475 -0.01148 -0.2734 0.10614 0.0163
0.022 -0.08466 0.03186 -0.00925 -0.02731 -0.1102 -0.1624 -0.02657
-0.01714 0.01011 0.02066 0.01496 0.0645 0.01101 -0.02615 -0.02597
0.05676 -0.02205 0.02863 0.0304 0.3274 -0.0249 -0.3213 0.08496
0.502 0.07043 0.00595 0.0786 0.2328 -0.0718 -0.3352 0.04074
0.02086 0.0229 -0.002695 -0.0536 -0.1289 0.1989 -0.1115 0.01168
-0.47 0.02348 0.0181 -0.0066 -0.379 -0.1016 0.3105 0.0532
-0.294 0.0001745 0.0216 -0.00937 -0.3838 0.2122 -0.2373 0.04648
0.2002 0.0243 0.02686 0.07996 -0.264 -0.278 -0.1897 -0.07086
0.0989 -0.0247 -0.03967 0.00832 0.288 0.013535 -0.0094 0.06757
0.1461 -0.02097 0.03763 0.0372 0.1036 0.1791 -0.2382 0.0611
-0.2502 -0.001957 0.0658 -0.0442 -0.0938 -0.1223 -0.1175 -0.03177
-0.1437 -0.03925 0.00827 0.0603 -0.344 -0.1283 0.0806 -0.0082
0.01277 -0.02997 0.05566 0.02284 -0.01041 0.003832 -0.0117 0.0399
0.01281 -0.02946 0.0548 0.02391 -0.00807 0.00519 -0.00832 0.0397
0.01162 -0.02855 0.05444 0.02486 -0.00545 0.006767 -0.01591 0.04028
0.003637 0.01953 0.04852 0.01662 0.01307 0.010895 0.0016 0.03717
0.001126 0.02022 0.0474 0.01563 0.01552 0.01291 -0.006744 0.03485
-0.001112 0.02072 0.04547 0.01476 0.01982 0.01221 0.00399 0.03378
0.01772 0.00805 0.02905 0.001013 0.003468 -0.000983 -0.008995 0.0694
0.02136 0.01045 0.03047 0.00091 0.002926 0.0006404 -0.014145 0.07025
0.00533 0.01395 0.03366 0.000854 0.007385 -0.001217 -0.0172 0.0712
-0.208 -0.02562 0.01401 -0.02602 0.0799 -0.06696 -0.2479 0.03232
0.1886 -0.02675 0.012566 -0.02711 0.06805 -0.0244 -0.2786 0.02383
-0.014565 -0.01714 0.008224 -0.04623 -0.1137 0.0999 0.1484 0.01962
0.3953 0.0009127 -0.04053 0.05765 -0.3008 0.1836 -0.1274 0.04242
-0.05692 0.01865 -0.04248 0.001793 -0.0783 0.0425 -0.1201 -0.003576
00000000: a931 71a6 d4a8 f4a5 3bb6 13b5 b8ae ccad
00000010: d3a0 73a1 b4a7 e6aa c4b5 ff32 4fb0 42ad
00000020: 33b0 7da4 1ba9 d8a9 26b6 dc26 e92e c9aa
00000030: 9fb2 c0a9 34a6 82ac 3f29 952f 23b5 93aa
00000040: d62b 54ac 21a9 3da9 cc1d e2a7 9a2e 3198
00000050: a62b 9ba8 73a9 14aa e1a1 60b4 cb2e 2c24
00000060: a225 6bad 1428 bca0 fea6 0eaf 32b1 cda6
00000070: 63a4 2d21 4a25 a923 212c a321 b2a6 a6a6
00000080: 442b a5a5 5427 c827 3d35 60a6 24b5 702d
00000090: 0438 822c 181e 082d 7333 98ac 5db5 3729
000000a0: 5725 dd25 8599 dcaa 20b0 5d32 23af fb21
000000b0: 85b7 0326 a224 c29e 10b6 81ae f834 cf2a
000000c0: b4b4 b809 8825 cca0 24b6 ca32 98b3 f329
000000d0: 6832 3926 e026 1e2d 39b4 73b4 12b2 89ac
000000e0: 542e 53a6 14a9 4320 9c34 ee22 d0a0 532c
000000f0: ad30 5ea5 d128 c328 a12e bb31 9fb3 d22b
00000100: 01b4 0298 362c a8a9 01ae d4af 85af 11a8
00000110: 99b0 06a9 3c20 b82b 81b5 1bb0 292d 33a0
00000120: 8a22 aca7 202b d925 54a1 d91b fea1 1b29
00000130: 8f22 8ba7 042b 1f26 22a0 511d 43a0 1529
00000140: f321 4fa7 f82a 5d26 959d ee1e 13a4 2829
00000150: 731b 0025 362a 4124 b122 9421 8e16 c228
00000160: 9d14 2d25 112a 0024 f223 9c22 e89e 7628
00000170: 8e94 4e25 d229 8f23 1325 4022 161c 5328
00000180: 8924 1f20 7027 2614 1a1b 0794 9ba0 712c
00000190: 7825 5a21 cd27 7413 fe19 3f11 3ea3 7f2c
000001a0: 751d 2423 4f28 ff12 901f fc94 67a4 8f2c
000001b0: a8b2 8fa6 2c23 a9a6 1d2d 49ac efb3 2328
000001c0: 0932 d9a6 6f22 f1a6 5b2c 3fa6 75b4 1a26
000001d0: 75a3 63a4 3620 eba9 47af 652e c030 0625
000001e0: 5336 7a13 30a9 612b d0b4 e031 14b0 6e29
000001f0: 49ab c624 70a9 5817 03ad 7129 b0af 539b

model/time_distributed_8/conv2d_2/Conv2D f2 [8, 3, 3, 1]
-0.03494 -0.042 0.0359 0.0736 -0.06683 0.014465 -0.04846 0.02292
0.03955 0.003073 -0.0007977 -0.0009403 0.003532 0.003506 -0.002214 -0.0008354
1.72e-05 0.001144 0.00599 -0.006783 0.003645 0.001421 0.001846 -0.007206
0.002851 0.002663 -0.0002049 0.004475 -0.01037 -0.0004203 -0.007095 0.004986
0.007626 -0.001296 0.001518 0.001387 -0.00251 -0.003565 0.0003371 0.02046
-0.03986 -0.001874 0.001785 0.01724 0.02884 -0.01987 0.068 0.02895
0.03754 -0.097 0.0461 -0.015495 0.0771 -0.03111 0.02147 -0.05954
0.01622 -0.0131 0.02571 -0.0005364 0.01057 0.04327 -0.0871 -0.001349
-0.01395 4.68e-05 0.01944 -0.02055 0.003803 -0.00484 -0.00283 0.004185
00000000: 79a8 60a9 9828 b62c 47ac 6823 34aa de25
00000010: 1029 4b1a 8992 b493 3c1b 2e1b 8998 d892
00000020: 2101 b014 221e f29e 771b d215 9017 619f
00000030: d719 7419 b78a 951c 4fa1 e38e 449f 1b1d
00000040: cf1f 4f95 3816 ae15 2499 4d9b 860d 3d25
00000050: 1aa9 ad97 5017 6a24 6227 16a5 5a2c 6927
00000060: ce28 35ae e729 efa3 ef2c f7a7 7f25 9fab
00000070: 2724 b5a2 9526 6590 6921 8a29 93ad 8795
00000080: 24a3 1103 fa24 43a5 ca1b f59c cc99 491c

model/lstm/TensorArrayV2_1 f2 [120, 1, 32]
0.0 0.0 0.0 0.0 0.0 0.0 0.0 0.0
0.0 0.0 0.0 0.0 0.0 0.0 0.0 0.0
0.0 0.0 0.0 0.0 0.0 0.0 0.0 0.0
0.0 0.0 0.0 0.0 0.0 0.0 0.0 0.0
0.0 0.0 0.0 0.0 0.0 0.0 0.0 0.0
0.0 0.0 0.0 0.0 0.0 0.0 0.0 0.0
0.0 0.0 0.0 0.0 0.0 0.0 0.0 0.0
0.0 0.0 0.0 0.0 0.0 0.0 0.0 0.0
0.0 0.0 0.0 0.0 0.0 0.0 0.0 0.0
0.0 0.0 0.0 0.0 0.0 0.0 0.0 0.0
0.0 0.0 0.0 0.0 0.0 0.0 0.0 0.0
0.0 0.0 0.0 0.0 0.0 0.0 0.0 0.0
0.0 0.0 0.0 0.0 0.0 0.0 0.0 0.0
0.0 0.0 0.0 0.0 0.0 0.0 0.0 0.0
0.0 0.0 0.0 0.0 0.0 0.0 0.0 0.0
0.0 0.0 0.0 0.0 0.0 0.0 0.0 0.0
0.0 0.0 0.0 0.0 0.0 0.0 0.0 0.0
0.0 0.0 0.0 0.0 0.0 0.0 0.0 0.0
0.0 0.0 0.0 0.0 0.0 0.0 0.0 0.0
0.0 0.0 0.0 0.0 0.0 0.0 0.0 0.0
0.0 0.0 0.0 0.0 0.0 0.0 0.0 0.0
0.0 0.0 0.0 0.0 0.0 0.0 0.0 0.0
0.0 0.0 0.0 0.0 0.0 0.0 0.0 0.0
0.0 0.0 0.0 0.0 0.0 0.0 0.0 0.0
0.0 0.0 0.0 0.0 0.0 0.0 0.0 0.0
0.0 0.0 0.0 0.0 0.0 0.0 0.0 0.0
0.0 0.0 0.0 0.0 0.0 0.0 0.0 0.0
0.0 0.0 0.0 0.0 0.0 0.0 0.0 0.0
0.0 0.0 0.0 0.0 0.0 0.0 0.0 0.0
0.0 0.0 0.0 0.0 0.0 0.0 0.0 0.0
0.0 0.0 0.0 0.0 0.0 0.0 0.0 0.0
0.0 0.0 0.0 0.0 0.0 0.0 0.0 0.0
00000000: 0000 0000 0000 0000 0000 0000 0000 0000
00000010: 0000 0000 0000 0000 0000 0000 0000 0000
00000020: 0000 0000 0000 0000 0000 0000 0000 0000
00000030: 0000 0000 0000 0000 0000 0000 0000 0000
00000040: 0000 0000 0000 0000 0000 0000 0000 0000
00000050: 0000 0000 0000 0000 0000 0000 0000 0000
00000060: 0000 0000 0000 0000 0000 0000 0000 0000
00000070: 0000 0000 0000 0000 0000 0000 0000 0000
00000080: 0000 0000 0000 0000 0000 0000 0000 0000
00000090: 0000 0000 0000 0000 0000 0000 0000 0000
000000a0: 0000 0000 0000 0000 0000 0000 0000 0000
000000b0: 0000 0000 0000 0000 0000 0000 0000 0000
000000c0: 0000 0000 0000 0000 0000 0000 0000 0000
000000d0: 0000 0000 0000 0000 0000 0000 0000 0000
000000e0: 0000 0000 0000 0000 0000 0000 0000 0000
000000f0: 0000 0000 0000 0000 0000 0000 0000 0000
00000100: 0000 0000 0000 0000 0000 0000 0000 0000
00000110: 0000 0000 0000 0000 0000 0000 0000 0000
00000120: 0000 0000 0000 0000 0000 0000 0000 0000
00000130: 0000 0000 0000 0000 0000 0000 0000 0000
00000140: 0000 0000 0000 0000 0000 0000 0000 0000
00000150: 0000 0000 0000 0000 0000 0000 0000 0000
00000160: 0000 0000 0000 0000 0000 0000 0000 0000
00000170: 0000 0000 0000 0000 0000 0000 0000 0000
00000180: 0000 0000 0000 0000 0000 0000 0000 0000
00000190: 0000 0000 0000 0000 0000 0000 0000 0000
000001a0: 0000 0000 0000 0000 0000 0000 0000 0000
000001b0: 0000 0000 0000 0000 0000 0000 0000 0000
000001c0: 0000 0000 0000 0000 0000 0000 0000 0000
000001d0: 0000 0000 0000 0000 0000 0000 0000 0000
000001e0: 0000 0000 0000 0000 0000 0000 0000 0000
000001f0: 0000 0000 0000 0000 0000 0000 0000 0000

model/dense/BiasAdd/ReadVariableOp/resource f2 [256]
-0.02945 0.0704 0.02379 0.08185 0.01743 -0.02159 -0.1387 -0.03223
-0.05682 -0.125 0.002867 -0.0637 0.04904 -0.03177 0.02856 -0.0875
-0.03714 0.01245 0.0576 0.09406 0.03882 0.04092 0.0178 0.05157
0.01419 -0.02815 -0.06696 -0.004635 0.0685 0.0821 -0.06134 -0.02762
-0.0699 -0.01923 0.0359 0.00657 -0.02774 -0.03516 -0.1796 -0.000927
0.01617 -0.04108 -0.1316 0.0672 -0.04843 0.0275 -0.022 -0.033
0.03072 -0.012596 0.01241 0.0981 -0.0567 0.01457 -0.042 -0.04367
-0.013725 -0.02533 0.0084 0.02122 0.0804 -0.03625 0.02115 -0.05396
-0.01575 -0.0329 0.03564 -0.01125 0.0658 0.0519 0.013695 -0.0722
0.0611 0.007442 -0.08167 0.02763 0.02734 -0.0392 0.003178 0.03952
0.004837 -0.004654 -0.02464 0.07385 -0.00855 -0.03284 -0.0607 -0.0691
0.07556 -0.01837 -0.00548 -0.04697 0.01965 0.0355 0.09125 0.00627
-0.01677 -0.04337 -0.01817 0.0483 -0.01105 -0.0149 -0.0335 -0.0711
0.02907 0.05737 -0.02022 0.05338 -0.001987 -0.05353 -0.02542 0.03354
0.04187 0.06036 0.03683 0.01144 0.006992 0.0383 -0.01231 -0.05722
-0.05453 -0.08746 -0.02061 0.002686 0.0592 -0.01064 0.05298 0.02382
0.02061 -0.002728 0.000276 -0.02716 -0.006462 -0.10535 0.04608 -0.035
-0.11597 0.1209 0.03207 0.1036 -0.05624 0.00995 -0.02525 -0.02335
-0.05948 0.06137 0.0678 0.02428 0.07336 0.03937 -0.0816 0.00358
-0.08167 -0.125 -0.03876 -0.02496 -0.0641 -0.04175 0.01932 0.0778
-0.02267 -0.039 -0.00339 -0.002174 -0.00999 -0.02484 0.04965 0.00835
0.0418 0.02403 -0.07947 0.01639 0.0953 -0.008965 0.02495 -0.02167
0.01558 -0.0333 -0.0911 0.008835 0.0795 0.012955 0.02356 0.03888
0.007713 0.0392 0.03708 -0.05606 0.0455 -0.04993 0.0405 0.07385
-0.01023 0.01284 -0.04565 -0.0008984 -0.05142 0.0515 0.007782 -0.01277
0.07184 -0.0646 0.01104 -0.02466 -0.117 -0.01979 0.04587 -0.00913
-0.04236 0.00571 -0.01264 -0.02295 0.04648 0.0757 -0.07117 0.02489
-0.012314 0.03342 0.01501 -0.014465 -0.01578 -0.02965 0.02078 -0.1636
0.0498 -0.01674 0.06204 -0.004353 -0.01127 0.03436 0.01353 0.0285
0.07367 -0.02339 -0.03256 0.0809 -0.03598 -0.02092 -0.0341 -0.09
0.00726 -0.003407 -0.01738 -0.02005 -0.01903 0.04132 0.06604 0.06238
0.02065 -0.0534 -0.010025 -0.0019 0.04767 0.01822 -0.01823 0.02249
00000000: 8aa7 812c 1726 3d2d 7624 87a5 70b0 20a8
00000010: 46ab 00b0 df19 14ac 472a 11a8 5027 9aad
00000020: c1a8 6022 5f2b 052e f828 3d29 8f24 9a2a
00000030: 4423 35a7 49ac bf9c 622c 412d daab 12a7
00000040: 79ac eca4 9828 ba1e 1aa7 80a8 bfb1 9893
00000050: 2424 42a9 36b0 4d2c 33aa 0a27 a2a5 39a8
00000060: dd27 73a2 5b22 472e 42ab 7623 60a9 97a9
00000070: 07a3 7ca6 4d20 6f25 252d a4a8 6a25 e8aa
00000080: 08a4 36a8 9028 c3a1 362c a52a 0323 9fac
00000090: d22b 9f1f 3aad 1327 0027 05a9 821a 0f29
000000a0: f41c c49c 4fa6 ba2c 61a0 34a8 c5ab 6cac
000000b0: d62c b4a4 9d9d 03aa 0825 8b28 d72d 6c1e
000000c0: 4ba4 8da9 a7a4 2f2a a8a1 a1a3 4aa8 8dac
000000d0: 7127 582b 2da5 d52a 1298 daaa 82a6 4b28
000000e0: 5c29 ba2b b728 db21 291f e728 4da2 53ab
000000f0: fbaa 99ad 47a5 8019 942b 73a1 c82a 1926
00000100: 4725 9699 860c f4a6 9e9e beae e629 7ba8
00000110: 6caf bd2f 1b28 a12e 33ab 1821 77a6 faa5
00000120: 9dab db2b 572c 3726 b22c 0a29 39ad 551b
00000130: 3aad 00b0 f6a8 64a6 1aac 58a9 f224 fb2c
00000140: cea5 fea8 f19a 7498 1da1 5ca6 5b2a 4620
00000150: 5a29 2726 16ad 3224 192e 97a0 6326 8ca5
00000160: fa23 43a8 d5ad 8620 172d a222 0826 fa28
00000170: e61f 0529 bf28 2dab d329 64aa 2f29 ba2c
00000180: 3da1 9322 d8a9 5c93 95aa 982a f81f 8aa2
00000190: 992c 22ac a721 50a6 7daf 11a5 df29 ada0
000001a0: 6ca9 d91d 79a2 e0a5 f329 d82c 8eac 5f26
000001b0: 4ea2 4728 af23 68a3 0aa4 97a7 5225 3cb1
000001c0: 602a 49a4 f12b 759c c5a1 6628 ed22 4c27
000001d0: b72c fda5 2ba8 2d2d 9ba8 5ba5 5da8 c3ad
000001e0: 6f1f fa9a 73a4 22a5 dfa4 4a29 3a2c fc2b
000001f0: 4925 d6aa 22a1 c897 1a2a aa24 aba4 c225

model/last_layer/BiasAdd/ReadVariableOp/resource f2 [31]
-0.01596 -0.02026 0.04868 0.00134 0.03818 0.005756 0.0257 0.03036
-0.04926 -0.02475 -0.01319 -0.02292 0.00788 0.03528 -0.02261 0.01406
0.0101 0.02547 0.0294 -0.0268 -0.0216 0.01162 -0.06183 -0.00611
-0.01247 0.02563 -0.0889 -0.003376 -0.0387 -0.04227 -0.03125
00000000: 16a4 30a5 3b2a 7d15 e328 e51d 9426 c627
00000010: 4eaa 56a6 c1a2 dea5 0920 8428 caa5 3323
00000020: 2c21 8526 8727 dca6 88a5 f321 eaab 429e
00000030: 62a2 9026 b1ad ea9a f4a8 69a9 00a8

model/dense/MatMul f2 [256, 32]
0.03009 -0.008575 0.1903 0.02126 0.07996 -0.0872 0.05627 0.1368
-0.1426 0.03424 -0.1707 -0.005173 -0.2627 -0.004673 -0.2012 0.04697
-0.1633 0.03452 -0.04608 -0.05945 0.0058 0.02719 -0.01309 0.05487
-0.1178 -0.01085 0.0809 -0.06915 0.1409 -0.087 0.07794 -0.0623
0.0822 0.01968 -0.1567 0.05527 -0.05716 0.12006 -0.138 -0.1366
0.0506 0.05542 0.1216 0.0773 0.426 -0.1962 -0.003944 0.006046
0.01642 0.0696 0.08594 -0.0188 -0.1619 -0.0703 0.05954 -0.04794
-0.0209 0.05542 -0.0289 -0.03955 -0.02556 -0.0368 0.04443 0.01103
0.1427 -0.06113 -0.0787 -0.03354 0.08765 0.1131 -0.06354 0.1663
-0.02054 0.08997 0.0686 0.01904 0.2048 -0.01058 0.01149 -0.01753
-0.0010395 0.08923 0.0508 -0.004303 -0.01385 0.07623 -0.0885 -0.0786
0.0873 -0.02182 0.02504 -0.09015 -0.2351 0.253 0.01317 0.03757
0.0773 -0.0219 0.1403 0.0352 0.06085 0.1716 -0.0937 0.08636
-0.01602 0.05878 -0.0857 -0.04898 0.06104 -0.0762 -0.3206 0.011635
-0.1428 0.0364 -0.1616 0.05237 -0.0482 0.298 -0.1134 -0.00966
0.1543 -0.1572 0.000775 -0.0874 0.03476 -0.1116 0.1575 -0.05527
-0.1295 0.0387 -0.2693 0.1571 -0.0475 -0.01703 -0.11066 0.1547
-0.02313 -0.07355 0.04422 -0.1448 -0.0454 -0.0506 0.1322 0.06125
-0.1505 0.01508 -0.05145 -0.0385 0.07336 0.07947 0.0358 0.1782
-0.0758 -0.09406 0.02628 0.134 0.0456 -0.004112 -0.05588 -0.386
0.09247 0.053 0.04736 0.1295 0.006886 -0.04846 0.003933 0.05832
-0.1453 -0.07874 0.11774 0.06836 0.02776 0.00805 -0.1247 0.0102
0.005745 -0.09045 0.04263 0.0855 -0.061 -0.08136 -0.06128 -0.357
-0.01921 -0.05487 -0.4316 -0.1752 -0.08545 0.1022 -0.00195 -0.2058
-0.1051 0.2051 -0.1575 0.009895 0.02383 0.01688 0.1182 -0.04343
0.0876 0.02766 0.0989 0.1447 0.0243 -0.1609 -0.05157 0.05942
-0.1426 0.0591 0.1451 0.05997 -0.01787 -0.02095 0.05237 0.12445
0.04047 0.003738 -0.06683 0.0988 0.2964 -0.12225 -0.0336 -0.0918
-0.1056 -0.0631 0.03232 0.04016 -0.1713 -0.0003355 0.08746 0.00765
-0.01787 -0.377 0.1262 -0.0826 -0.02881 -0.00327 0.2032 0.1256
-0.04797 -0.1598 -0.1349 -0.0788 -0.0869 0.128 0.06223 0.1322
0.04 -0.09076 -0.1804 0.04858 0.09717 0.01522 -0.05026 -0.1459
00000000: b427 64a0 1732 7125 1e2d 95ad 342b 6130
00000010: 90b0 6228 76b1 4c9d 34b4 c99c 70b2 032a
00000020: 3ab1 6b28 e6a9 9cab f01d f626 b4a2 062b
00000030: 8aaf 8ea1 2d2d 6dac 8230 91ad fd2c f9ab
00000040: 432d 0a25 04b1 132b 51ab af2f 6ab0 5fb0
00000050: 7a2a 182b c82f f22c d136 47b2 0a9c 311e
00000060: 3424 742c 802d d0a4 2eb1 80ac 9f2b 23aa
00000070: 5aa5 182b 66a7 10a9 8ba6 b6a8 b029 a621
00000080: 9130 d3ab 09ad 4ba8 9c2d 3d2f 11ac 5231
00000090: 42a5 c22d 642c e024 8e32 6ba1 e221 7da4
000000a0: 4294 b62d 812a 689c 17a3 e12c aaad 08ad
000000b0: 962d 96a5 6926 c5ad 86b3 0c34 be22 cf28
000000c0: f22c 9ba5 7d30 8128 ca2b 7e31 ffad 872d
000000d0: 1aa4 862b 7cad 45aa d02b e0ac 21b5 f521
000000e0: 92b0 a928 2cb1 b42a 2baa c534 42af f2a0
000000f0: f030 08b1 5912 98ad 7328 24af 0a31 13ab
00000100: 25b0 f428 4fb4 0731 14aa 5ca4 15af f330
00000110: eca5 b5ac a929 a2b0 d0a9 7aaa 3b30 d72b
00000120: d1b0 b923 96aa eea8 b22c 162d 9528 b431
00000130: daac 05ae ba26 4a30 d629 369c 27ab 2db6
00000140: eb2d c92a 102a 2530 0d1f 34aa 071c 772b
00000150: a6b0 0aad 892f 602c 1b27 1f20 fbaf 3921
00000160: e21d caad 7529 792d cfab 35ad d8ab b6b5
00000170: eba4 06ab e8b6 9bb1 78ad 8a2e fd97 96b2
00000180: baae 9032 0ab1 1121 1a26 5224 912f 8fa9
00000190: 9b2d 1527 542e a130 3926 26b1 9aaa 9b2b
000001a0: 90b0 912b a530 ad2b 93a4 5da5 b42a f72f
000001b0: 2e29 a81b 47ac 532e be34 d3af 4da8 e0ad
000001c0: c2ae 0aac 2328 2429 7bb1 7f8d 992d d51f
000001d0: 93a4 08b6 0a30 49ad 60a7 b29a 8132 0530
000001e0: 24aa 1db1 51b0 0bad 90ad 1930 f72b 3b30
000001f0: 1f29 cfad c6b1 382a 382e cb23 6faa abb0

model/last_layer/MatMul f2 [31, 256]
-0.0246 -0.015015 0.06104 -0.03091 0.0723 -0.03534 -0.086 -0.0714
0.0005355 0.10803 -0.09174 -0.06506 0.071 0.09875 -0.04858 -0.04507
0.0838 -0.0972 -0.0564 0.0992 0.0451 -0.0944 -0.096 -0.04282
0.01733 -0.09845 0.036 0.05365 -0.0713 0.0345 -0.04147 0.01912
0.02374 -0.03668 0.0556 0.04645 0.00921 0.0857 0.0753 -0.01241
-0.10187 -0.07275 -0.03674 0.0727 0.06525 -0.01868 -0.05066 -0.01923
0.02643 0.05814 -0.01015 -0.04102 0.00329 0.1051 -0.04526 0.007706
-0.00462 -0.01244 0.1204 -0.05148 -0.07587 -0.02348 0.04642 0.01933
-0.06274 0.03134 -0.02452 -0.01862 -0.10895 0.04398 0.0326 -0.04398
0.008125 -0.01962 -0.0502 0.0467 0.04623 -0.06506 0.06076 0.04324
-0.04437 0.009186 -0.05377 0.0517 0.072 -0.0775 -0.0651 -0.04648
0.05005 -0.0771 -0.05176 -0.0818 -0.1431 0.07104 0.0215 0.0862
-0.04 -0.0206 0.05167 -0.10754 -0.0563 -0.0814 -0.0852 0.0681
0.005535 0.05463 0.0463 0.01363 -0.09033 0.10706 -0.08325 -0.02333
-0.02417 0.0513 -0.0679 0.06604 0.05243 -0.03014 0.06616 0.07935
0.03592 0.0581 0.089 0.0208 0.03748 -0.11316 -0.03342 0.07477
0.0702 0.081 -0.05234 -0.06274 -0.02536 -0.0613 0.05374 0.002525
-0.04208 -0.00971 0.09534 -0.05832 -0.07434 -0.00772 0.03552 -0.0349
0.04968 -0.0251 0.02773 0.0733 0.0814 0.03001 0.05106 -0.1008
0.011185 -0.0399 -0.01892 0.0806 -0.02693 0.0735 0.01139 0.01622
0.008514 -0.05698 0.10364 0.0503 0.01564 -0.0864 -0.0472 0.05182
-0.0518 -0.0858 -0.0172 -0.03091 0.01536 -0.0849 -0.04865 0.0756
-0.00956 0.0637 0.1205 -0.0734 -0.02618 0.0229 0.03647 -0.0399
-0.01494 0.0364 -0.068 0.06042 -0.05417 -0.0659 -0.01631 0.0592
0.0693 0.05737 0.01822 -0.0644 -0.0657 -0.05017 -0.0955 -0.03714
-0.06604 0.03912 0.0455 0.06555 0.1088 0.07837 -0.05084 0.01049
0.06244 0.04553 0.02576 0.005455 -0.075 -0.10284 0.08307 0.1175
0.053 0.01421 0.068 -0.000244 -0.0976 0.01221 0.05777 0.05743
-0.054 0.1337 -0.0776 -0.01344 0.07166 0.1421 -0.1086 -0.0748
-0.04984 0.0895 0.04663 0.08527 -0.01119 -0.09454 0.10297 -0.04807
-0.03903 -0.06033 0.0571 -0.071 0.03696 -0.02637 0.08997 0.03015
0.01985 0.01689 0.0739 0.01409 0.003702 0.00393 -0.05737 -0.03656
00000000: 4ca6 b0a3 d02b eaa7 a12c 86a8 81ad 92ac
00000010: 6310 ea2e dfad 2aac 8b2c 522e 38aa c5a9
00000020: 5d2d 39ae 38ab 592e c629 0bae 25ae 7ba9
00000030: 7024 4dae 9c28 de2a 90ac 6a28 4fa9 e524
00000040: 1426 b2a8 1e2b f229 b720 7c2d d22c 5ba2
00000050: 85ae a8ac b4a8 a72c 2d2c c8a4 7caa eca4
00000060: c426 712b 32a1 40a9 bd1a ba2e cba9 e41f
00000070: bb9c 5fa2 b52f 97aa dbac 03a6 f129 f324
00000080: 04ac 0328 47a6 c4a4 f9ae a129 2c28 a1a9
00000090: 2920 06a5 6daa fa29 eb29 2aac c72b 8929
000000a0: aea9 b420 e2aa 9e2a 9c2c f6ac 2bac f3a9
000000b0: 682a efac a0aa 3cad 94b0 8c2c 8125 842d
000000c0: 1fa9 46a5 9d2a e2ae 35ab 36ad 74ad 5c2c
000000d0: ab1d fe2a ed29 fb22 c8ad da2e 54ad f9a5
000000e0: 30a6 912a 58ac 3a2c b62a b7a7 3c2c 142d
000000f0: 9928 702b b22d 5325 cc28 3eaf 47a8 c92c
00000100: 7e2c 2f2d b3aa 04ac 7ea6 d9ab e12a 2c19
00000110: 63a9 f9a0 1a2e 77ab c2ac e89f 8c28 78a8
00000120: 5c2a 6da6 1927 b12c 362d af27 892a 74ae
00000130: ba21 1ba9 d8a4 292d e5a6 b42c d521 2724
00000140: 5c20 4bab a22e 702a 0124 88ad 0baa a22a
00000150: a1aa 7ead 67a4 eaa7 dd23 6fad 3aaa d72c
00000160: e5a0 142c b62f b3ac b4a6 dd25 ab28 1ba9
00000170: a6a3 a928 5aac bc2b efaa 38ac 2da4 942b
00000180: 6f2c 582b aa24 1fac 34ac 6caa 1dae c1a8
00000190: 3aac 0229 d329 322c f72e 042d 82aa 5f21
000001a0: fe2b d429 9826 961d cdac 95ae 512d 852f
000001b0: c92a 4723 5a2c ff8b 3fae 4022 652b 5a2b
000001c0: e9aa 4730 f7ac e2a2 962c 8c30 f3ae caac
000001d0: 61aa ba2d f829 752d bba1 0dae 972e 27aa
000001e0: ffa8 b9ab 4f2b 8bac bb28 c0a6 c22d b827
000001f0: 1525 5324 bb2c 3723 951b 061c 58ab aea8

model/time_distributed_10/batch_normalization_2/FusedBatchNormV3 f2 [8]
0.011536 0.01341 0.01791 0.014175 0.01694 -0.003416 -0.0153 0.01451
00000000: e821 de22 9624 4223 5624 ff9a d5a3 6e23

model/time_distributed_10/batch_normalization_2/FusedBatchNormV31 f2 [8]
0.0979 0.0698 0.05203 -0.04065 0.1299 0.1512 0.2717 0.05618
00000000: 442e 782c a92a 34a9 2830 d730 5934 312b

model/time_distributed_13/batch_normalization_3/FusedBatchNormV3 f2 [16]
-0.02882 -0.11127 -0.007107 -0.08075 -0.02434 -0.02106 -0.00426 -0.1322
0.007782 -0.005043 -0.05743 0.01556 -0.0599 0.02034 0.02681 0.05283
00000000: 61a7 1faf 479f 2bad 3ba6 64a5 5d9c 3bb0
00000010: f81f 2a9d 5aab f723 abab 3525 dd26 c32a

model/time_distributed_13/batch_normalization_3/FusedBatchNormV31 f2 [16]
3.01 3.68 0.05353 1.348 1.5625 -0.000903 2.771 1.509
4.168 0.02296 1.56 2.893 3.027 -0.5376 4.2 4.535
00000000: 0542 5c43 da2a 643d 403e 6693 8b41 093e
00000010: 2b44 e125 3d3e c941 0e42 4db8 3344 8944

model/time_distributed_2/batch_normalization/FusedBatchNormV3 f2 [8]
0.0007668 -0.000357 -0.01985 -0.0129 -0.0865 0.00926 -0.1134 -0.002747
00000000: 4812 d98d 15a5 9ba2 89ad be20 42af a099

model/time_distributed_2/batch_normalization/FusedBatchNormV31 f2 [8]
0.01136 0.00367 0.03592 0.02644 0.0829 0.0196 0.0695 0.0322
00000000: d121 841b 9928 c526 4e2d 0525 732c 1f28

model/time_distributed_5/batch_normalization_1/FusedBatchNormV3 f2 [16]
0.05142 -0.09045 -0.3198 -0.3645 -0.768 -0.3552 -0.1903 -0.343
-0.353 -0.1181 -0.5786 -0.4597 0.0584 -0.01501 -0.7563 -0.2717
00000000: 952a caad 1eb5 d5b5 25ba afb5 17b2 7db5
00000010: a6b5 8faf a1b8 5bb7 7a2b afa3 0dba 59b4

model/time_distributed_5/batch_normalization_1/FusedBatchNormV31 f2 [16]
6.062 3.598 2.758 2.666 3.316 3.533 3.414 3.81
3.26 3.365 3.94 3.717 5.34 6.0 3.184 4.45
00000000: 1046 3243 8441 5541 a242 1143 d442 9f43
00000010: 8542 bb42 e143 6f43 5745 0046 5e42 7344

model/lstm/while/lstm_cell_4/MatMul_4 f2 [32, 32]
0.04556 -0.1296 -0.4292 -0.5522 0.185 0.732 0.1901 0.0741
-0.4556 -0.1475 -0.681 0.4487 -0.402 -0.09595 0.2942 -0.2524
-0.08246 -0.02443 0.2834 -0.1814 -0.392 -0.545 -0.368 0.168
0.1423 -0.04053 -0.2181 -0.724 -0.009605 0.1412 0.251 0.415
-0.431 -0.2698 0.03638 -0.1016 0.06824 0.1812 -0.3 -0.4097
-0.1349 -0.2603 -0.599 0.08746 -0.444 0.2625 0.475 -0.301
0.3364 -0.1122 0.5337 -0.0944 0.06683 0.258 -0.1109 0.2372
0.09467 -0.014145 -0.2101 0.1272 0.3318 -0.1885 0.329 0.2042
-0.6084 0.823 -0.0727 -0.9146 -0.1562 0.1642 0.28 -0.09955
0.4414 0.3875 -0.1731 0.415 0.2473 0.1033 -0.7344 -0.957
0.0831 0.1915 0.2383 0.07745 -0.0295 0.3765 0.2888 -0.2213
0.2369 0.004658 0.02977 -0.1285 -0.1927 -0.4758 -0.4548 0.1455
-0.005234 0.04272 -0.05215 -0.014786 -0.005413 0.0461 -0.0727 -0.0008626
-0.05368 -0.02852 0.003265 -0.05762 -0.01162 -0.01984 -0.02478 0.02078
0.05264 -0.03772 -0.0884 -0.1111 0.01999 -0.00575 0.03647 0.0112
0.02315 0.0834 0.01755 0.001413 0.03854 -0.0088 -0.04233 0.0145
-0.2241 0.4858 -0.2133 -0.483 0.2081 -0.517 0.03616 -1.653
-0.7095 -0.1013 0.1785 0.1396 -0.2737 0.9336 0.2217 0.262
-0.2281 -0.6694 0.4077 -0.1132 0.0405 -0.278 0.1486 0.2869
0.4133 -0.444 -0.001326 -0.617 -0.261 0.49 -0.393 0.07544
-0.1956 -0.1364 0.2124 -0.7905 1.143 0.01898 -0.296 -0.376
-0.4607 -0.533 1.025 1.624 0.3037 0.3735 -1.162 -0.1703
0.7354 -0.8296 -0.6055 0.1351 0.0676 -0.4536 0.2194 0.4353
-0.0207 -0.638 -1.309 0.6465 0.433 0.548 0.4165 0.0921
-0.1406 0.1727 -0.2075 -0.5967 0.3428 0.994 -0.1478 0.652
-0.3806 -0.1677 -0.39 0.3918 -0.007126 0.385 -0.0652 0.09875
0.3384 -0.1396 -0.0579 -0.2101 0.2073 0.2874 -0.2144 -0.14
0.64 -0.2932 -0.7417 -0.4426 0.904 -0.4536 -0.2542 0.2242
-0.2101 0.38 0.4617 -0.3796 0.7163 -0.874 0.7427 -0.7188
0.275 0.4634 -0.7134 0.388 0.0583 -0.09875 0.5913 -0.533
1.075 -0.496 0.0411 -0.9565 -0.453 -0.72 0.631 0.136
0.11304 -0.4082 0.1746 -0.5913 -0.286 -0.7837 -0.2717 0.739
00000000: d529 26b0 deb6 6bb8 ec31 db39 1532 be2c
00000010: 4ab7 b8b0 73b9 2e37 6fb6 24ae b534 0ab4
00000020: 47ad 41a6 8934 ceb1 46b6 5cb8 e3b5 6031
00000030: 8e30 30a9 fbb2 cbb9 eba0 8530 0434 a436
00000040: e5b6 51b4 a828 81ae 5e2c cc31 cdb4 8eb6
00000050: 51b0 2ab4 cbb8 992d 1bb7 3334 9a37 d1b4
00000060: 6235 2eaf 4538 0bae 472c 2134 19af 9733
00000070: 0f2e 3ea3 b9b2 1230 4f35 08b2 4435 8932
00000080: deb8 963a a7ac 51bb 00b1 4131 7b34 5fae
00000090: 1037 3336 8ab1 a436 ea33 9c2e e0b9 a8bb
000000a0: 522d 2132 a033 f52c 8da7 0636 9f34 15b3
000000b0: 9533 c51c 9f27 1db0 2bb2 9db7 47b7 a830
000000c0: 5c9d 7829 adaa 92a3 8b9d e729 a7ac 1193
000000d0: dfaa 4da7 b01a 60ab f3a1 14a5 58a6 5225
000000e0: bd2a d4a8 a8ad 1caf 1e25 e39d ab28 bc21
000000f0: ed25 562d 7e24 ca15 ef28 81a0 6ba9 6d23
00000100: 2cb3 c637 d3b2 bab7 a932 23b8 a128 9dbe
00000110: adb9 7cae b631 7830 61b4 783b 1833 3134
00000120: 4db3 5bb9 8636 3faf 2f29 73b4 c130 9734
00000130: 9d36 1bb7 6e95 f0b8 2db4 d737 4ab6 d42c
00000140: 42b2 5db0 cc32 53ba 923c dc24 bcb4 04b6
00000150: 5fb7 44b8 1a3c 7f3e dc34 fa35 a6bc 73b1
00000160: e239 a3ba d8b8 5330 542c 42b7 0533 f736
00000170: 4da5 1bb9 3cbd 2c39 ee36 6238 aa36 e52d
00000180: 80b0 8731 a4b2 c6b8 7c35 f43b bbb0 3739
00000190: 17b6 5eb1 3db6 4536 4c9f 2936 2cac 522e
000001a0: 6a35 78b0 69ab b9b2 a232 9934 dcb2 7bb0
000001b0: 1f39 b1b4 efb9 15b7 3b3b 42b7 11b4 2d33
000001c0: b9b2 1436 6337 13b6 bb39 feba f139 c0b9
000001d0: 6634 6a37 b5b9 3536 762b 52ae bb38 44b8
000001e0: 4d3c f0b7 4329 a7bb 3fb7 c3b9 0c39 5a30
000001f0: 3c2f 88b6 9631 bbb8 93b4 45ba 59b4 e939

model/lstm/while/lstm_cell_4/MatMul_5 f2 [32, 32]
0.1041 0.0734 -0.003813 0.32 -0.07196 0.00806 -0.3738 0.508
0.2834 0.2076 0.0795 0.352 0.786 -0.099 0.4792 0.7354
-0.2463 0.05936 0.09735 0.1544 0.213 0.505 0.1354 -0.0696
0.4116 -0.2656 -0.422 0.3743 0.2793 -0.312 0.5996 -0.4429
-0.1652 0.2238 0.2524 -0.05655 0.00935 -0.464 0.1366 0.1329
-0.509 0.1918 0.2812 -0.3079 -0.352 -0.3857 0.368 -0.2119
0.1656 -0.322 0.0783 0.1406 0.2181 0.00671 -0.3386 0.563
-0.1554 -0.2756 0.1888 0.1512 -0.2065 0.4077 0.2556 -0.1406
0.3533 0.8027 0.1906 0.0469 0.6367 -0.096 -0.0473 0.2476
0.0366 -0.1289 -0.154 -0.1112 -0.414 0.1476 -0.1421 0.1361
0.1757 0.1214 -0.2357 -0.6963 -0.1921 0.10205 -0.2732 -0.449
0.1812 0.4546 0.5757 -0.03812 -0.02911 -0.408 -0.1251 -0.2167
0.364 0.0886 0.04883 0.1425 -0.1671 0.03632 -0.2261 0.01909
0.12476 0.2198 0.4104 0.000977 -0.011894 -0.0505 0.02603 0.0753
0.02574 0.1992 -0.3223 -0.0694 0.1481 0.2312 -0.1864 0.0284
0.0747 0.1294 0.1191 0.1179 -0.1302 0.1345 -0.1154 -0.1057
-0.2822 0.818 -0.0795 0.1444 -0.0577 0.3027 -0.0704 -0.04297
-0.2664 0.3494 -0.6465 0.009094 0.7446 0.4084 -0.4192 -0.497
-0.593 0.255 0.543 0.1244 0.2235 0.2457 -0.3909 0.2776
0.1401 0.4436 0.6245 -0.05124 -0.288 0.4148 -0.2717 0.01807
0.0749 -0.1793 -0.2114 -0.1236 -0.08636 -0.2087 -0.5654 0.01819
-0.631 0.264 0.584 -0.05692 0.2603 0.2017 -0.002834 0.02867
0.762 -0.475 0.2998 -0.184 0.1636 -0.8887 0.02039 0.8564
0.6484 0.02478 -0.841 0.1648 -0.1024 -0.463 0.4797 0.04855
0.05347 0.1282 -0.1014 0.3152 0.0655 -0.2966 0.3396 0.2815
0.05435 0.0993 -0.04028 -0.485 0.12305 0.3618 0.1344 0.3413
0.01192 0.2788 0.06165 0.2135 0.1267 0.2583 0.05148 0.0664
0.05988 0.361 0.1108 0.0608 0.1464 -0.0796 -0.2668 -0.01958
-0.1111 -0.4966 0.045 0.2123 0.3137 -0.712 -0.03105 0.2625
-0.3591 0.5737 0.61 0.4453 -0.1244 0.0913 1.027 0.04776
-0.5513 0.2524 -0.0717 0.4316 0.5054 -0.06586 0.04288 -1.071
0.231 0.1726 0.3643 -0.001502 -0.2438 -0.777 -0.0141 -0.9707
00000000: aa2e b32c cf9b 1f35 9bac 2020 fbb5 1038
00000010: 8934 a532 172d a235 4a3a 56ae ab37 e239
00000020: e2b3 992b 3b2e f130 d132 0a38 5530 74ac
00000030: 9636 40b4 c1b6 fd35 7834 feb4 cc38 16b7
00000040: 49b1 2933 0a34 3dab ca20 6db7 5f30 4130
00000050: 12b8 2332 8034 edb4 a2b5 2cb6 e335 c8b2
00000060: 4d31 27b5 032d 8030 fb32 df1e 6bb5 8138
00000070: f9b0 69b4 0b32 d730 9cb2 8636 1734 80b0
00000080: a735 6c3a 1932 012a 1839 25ae 0eaa ec33
00000090: af28 20b0 eeb0 1eaf a0b6 b930 8cb0 5b30
000000a0: 9f31 c52f 8bb3 92b9 26b2 882e 5fb4 2fb7
000000b0: cc31 4637 9b38 e1a8 74a7 87b6 01b0 efb2
000000c0: d335 ac2d 402a 8f30 59b1 a628 3cb3 e324
000000d0: fc2f 0933 9136 0014 17a2 77aa aa26 d22c
000000e0: 9726 6032 28b5 71ac bd30 6633 f7b1 4527
000000f0: c82c 2430 9f2f 8c2f 2bb0 4e30 63af c4ae
00000100: 84b4 8b3a 17ad 9f30 63ab d834 81ac 80a9
00000110: 43b4 9735 2cb9 a820 f539 8936 b5b6 f4b7
00000120: beb8 1434 5838 f62f 2733 dd33 41b6 7134
00000130: 7c30 1937 ff38 8faa 9cb4 a336 59b4 a024
00000140: cb2c bdb1 c4b2 e9af 87ad aeb2 86b8 a824
00000150: 0cb9 3934 ac38 49ab 2a34 7432 ce99 5727
00000160: 193a 9ab7 cc34 e3b1 3c31 1cbb 3825 da3a
00000170: 3039 5826 baba 4631 8eae 68b7 ad37 372a
00000180: d82a 1a30 7dae 0b35 312c bfb4 6f35 8134
00000190: f52a 5b2e 28a9 c3b7 e02f ca35 4d30 7635
000001a0: 1a22 7634 e42b d532 0e30 2234 972a 402c
000001b0: aa2b c735 172f c82b af30 18ad 45b4 03a5
000001c0: 1caf f2b7 c329 cb32 0535 b2b9 f3a7 3334
000001d0: bfb5 9738 e138 2037 f6af d82d 1c3c 1d2a
000001e0: 69b8 0a34 97ac e836 0b38 37ac 7d29 49bc
000001f0: 6433 8631 d435 2796 cdb3 37ba 38a3 c4bb

model/lstm/while/lstm_cell_4/MatMul_6 f2 [32, 32]
-0.02489 0.2937 -0.3003 0.2522 0.02692 -0.1267 -0.083 -0.396
0.5625 -0.4285 0.231 -0.0616 0.3599 -0.121 -0.3103 0.1309
0.281 0.495 0.3193 0.2737 0.5737 0.3906 0.05252 -0.3406
0.643 -0.02155 -0.1716 0.3123 0.175 0.2388 -0.09894 -0.0278
-0.010056 0.1283 0.1766 -0.4014 -0.1602 -0.535 0.4412 0.1566
-0.1846 0.5537 0.3877 -0.2698 -0.2815 0.0812 0.2444 -0.25
0.3604 -0.292 -0.2032 -0.3904 0.2515 0.0686 -0.2157 -0.1571
0.137 -0.3545 0.0391 -0.1492 -0.835 -0.00703 -0.1765 0.1505
0.1032 0.10724 -0.04312 -0.003609 0.1727 0.11566 -0.07446 -0.4321
-0.12164 0.5186 -0.05057 0.2517 0.03592 0.3423 0.0731 1.0205
-0.1514 0.1271 -0.11847 -0.501 -0.367 -0.04172 -0.3093 -0.08813
0.1669 0.645 0.6885 0.1593 -0.00612 -0.3455 0.02753 0.1947
0.0989 0.1705 0.08093 0.04266 -0.1981 0.09393 -0.4216 0.0927
-0.018 0.0769 0.3708 0.1497 0.07306 -0.02438 -0.02731 0.11176
-0.0697 -0.01605 -0.3376 -0.2612 0.01721 0.1785 -0.3105 -0.01738
0.159 0.11896 0.3918 0.06186 -0.02626 0.2377 0.0719 -0.06726
0.0636 -0.236 -0.5005 -0.3145 0.2291 0.1746 -0.2484 -0.634
0.1963 -0.926 0.7954 0.09985 0.0478 -0.373 -0.1215 0.445
-0.011635 -0.364 -0.379 -0.1702 0.0894 -0.1824 0.2212 0.1124
-0.06714 0.1544 -0.03183 0.311 0.1422 0.08075 0.337 0.1436
-0.03845 0.01268 -0.2009 0.05496 0.078 -0.01695 0.005184 -0.1681
0.281 0.153 -0.1381 0.5776 0.1371 -0.0469 0.2542 -0.2087
-0.2003 -0.1332 0.4685 0.03568 0.094 -0.2046 -0.4639 -0.3013
0.3267 -0.9185 0.04764 -0.0527 0.2834 0.0714 -0.412 -0.03114
0.05017 -0.08527 -0.1862 -0.05618 -0.4985 0.308 0.1812 0.11084
-0.1401 -0.1323 -0.1848 -0.1794 0.05417 0.0462 0.1718 -0.219
0.005924 0.3335 0.04874 0.01793 0.01132 -0.3538 0.1786 0.05313
-0.2578 0.3313 -0.1447 -0.1942 -0.1025 0.1913 -0.4773 0.0034
0.297 1.013 0.05078 -0.2452 -0.1366 0.1539 -0.07904 -0.7886
-0.1967 -0.281 0.2448 0.0728 0.06366 0.1357 -0.1858 -0.08215
0.06665 -0.3535 -0.3857 -0.287 0.1898 0.3345 0.2091 -0.0325
-0.3303 0.1981 0.9824 0.0848 -0.0997 -0.1304 -0.3623 -0.2864
00000000: 5fa6 b334 ceb4 0934 e426 0eb0 50ad 56b6
00000010: 8038 dbb6 6433 e3ab c235 beaf f7b4 3030
00000020: 7f34 ec37 1c35 6134 9738 4036 b92a 73b5
00000030: 2539 84a5 7eb1 ff34 9a31 a433 55ae 1ea7
00000040: 26a1 1b30 a731 6cb6 20b1 48b8 0f37 0331
00000050: e8b1 6e38 3436 51b4 81b4 322d d233 00b4
00000060: c435 acb4 81b2 3fb6 0634 642c e7b2 07b1
00000070: 6230 acb5 0129 c6b0 aeba 339f a6b1 d130
00000080: 9b2e dd2e 85a9 649b 8731 672f c4ac eab6
00000090: c9af 2638 79aa 0734 9928 7a35 ae2c 153c
000000a0: d8b0 1130 95af 02b8 dfb5 57a9 f3b4 a4ad
000000b0: 5731 2939 8239 1931 449e 87b5 0c27 3b32
000000c0: 542e 7531 2e2d 7629 57b2 032e bfb6 ef2d
000000d0: 9ca4 ec2c ef35 ca30 ad2c 3ea6 fea6 272f
000000e0: 76ac 1ca4 67b5 2eb4 6824 b631 f8b4 73a4
000000f0: 1731 9d2f 4536 eb2b b9a6 9b33 9a2c 4eac
00000100: 122c 8db3 01b8 08b5 5533 9631 f3b3 12b9
00000110: 4832 68bb 5d3a 642e 1e2a f8b5 c7af 1f37
00000120: f5a1 d3b5 10b6 72b1 b92d d6b1 1433 322f
00000130: 4cac f130 13a8 fa34 8d30 2b2d 6435 9830
00000140: eca8 7e22 6eb2 092b fe2c 57a4 4f1d 61b1
00000150: 7f34 e530 6bb0 9f38 6330 01aa 1134 aeb2
00000160: 69b2 43b0 7f37 9128 042e 8cb2 6cb7 d2b4
00000170: 3a35 59bb 192a bfaa 8934 922c 98b6 f9a7
00000180: 6c2a 75ad f5b1 31ab fab7 ee34 cc31 182f
00000190: 7cb0 3cb0 eab1 beb1 ef2a ea29 7f31 02b3
000001a0: 111e 5635 3d2a 9724 cc21 a9b5 b731 cd2a
000001b0: 20b4 4d35 a1b0 37b2 8fae 1f32 a3b7 f71a
000001c0: c134 0d3c 802a d9b3 5fb0 ed30 0fad 4fba
000001d0: 4bb2 7fb4 d533 a92c 132c 5830 f2b1 42ad
000001e0: 442c a8b5 2cb6 98b4 1332 5a35 b132 29a8
000001f0: 49b5 5732 dc3b 6d2d 61ae 2cb0 ccb5 95b4

model/lstm/while/lstm_cell_4/MatMul_7 f2 [32, 32]
0.5903 0.581 0.5537 -0.6606 -0.1292 -0.1299 -0.10474 0.176
-0.2347 -0.04584 0.08887 -0.4595 0.351 -0.05777 0.155 0.3984
-0.2068 0.01549 0.0416 -0.02597 0.0335 -0.0842 -1.095 0.246
0.4114 0.1484 0.02841 -0.1716 -0.0871 0.6274 0.6284 -0.2627
-0.1655 0.5044 -0.1665 -0.468 -0.3357 0.1404 -0.2136 -0.2754
-0.1847 -0.414 -0.6978 -0.04935 -0.783 -0.2123 -0.613 -0.2136
0.1205 -0.2385 0.5664 -0.1957 0.3838 -0.1217 -0.6987 0.2278
-0.2803 0.3823 0.564 -0.1351 -0.0853 0.08484 -0.3572 -0.0402
1.115 -0.271 1.061 -0.6055 1.516 -0.1978 -0.433 -0.5483
0.4668 0.891 -0.4229 1.256 0.2693 0.624 -0.1031 0.3396
0.201 0.708 -0.3933 0.2607 0.1362 0.93 0.5864 -0.3738
0.0988 -0.0908 -0.987 0.777 0.4255 -0.634 -0.502 0.1039
-0.7646 -0.4521 0.4165 1.672 0.0862 0.9697 1.305 -1.182
-0.234 0.6523 -0.873 -0.1298 -0.862 1.493 -0.306 -0.0962
0.7993 0.538 0.7256 -0.0949 -0.6626 -0.944 0.3503 0.1855
0.35 -0.134 -1.461 -0.4033 0.12054 0.4392 0.12335 1.046
-0.6562 0.519 0.2827 0.325 -0.69 -0.92 0.1284 -0.4275
-0.1074 0.571 -0.864 -0.582 0.9795 0.444 -0.8335 1.734
0.7383 -0.4485 -0.1703 -0.865 -0.506 -0.2443 0.5635 0.10376
0.503 -0.3674 -0.2505 -0.2568 -0.2866 0.09766 -0.4016 0.9937
-1.045 0.4307 0.4023 -0.03873 -0.4263 -1.273 0.2693 -0.283
0.3735 0.2617 -0.3584 0.06464 0.2651 -0.3484 0.1948 0.6567
0.5093 -1.235 -0.109 -0.1738 -0.2542 -0.4592 0.217 0.1038
0.5576 -0.2852 -0.2305 0.09766 -0.6646 -0.2434 -0.2651 0.5605
0.1093 -0.1664 -0.0766 0.5293 -0.02147 -0.0516 0.0815 0.5347
-0.2727 0.1333 -0.03564 -0.4995 0.2405 0.113 0.3137 0.543
-0.1788 0.297 -0.2114 0.2979 0.2495 0.0424 -0.6807 0.1792
-0.01747 0.2937 -0.02261 0.12256 0.02905 0.232 -0.1339 0.013725
-0.2098 -0.875 -0.8667 -0.492 0.0523 0.07227 -0.2659 0.969
-0.3643 -0.04807 0.594 -0.0643 -0.1392 0.1605 0.567 -0.607
-0.317 -0.1003 0.4692 0.387 -0.1304 -0.1137 0.538 -0.792
0.2012 0.8164 0.5303 -0.09595 0.139 -1.262 -0.1417 -0.4045
00000000: b938 a638 6e38 49b9 22b0 28b0 b4ae a231
00000010: 83b3 dea9 b02d 5ab7 9e35 65ab f630 6036
00000020: 9eb2 ee23 5329 a6a6 4a28 64ad 61bc df33
00000030: 9536 c030 4627 7eb1 93ad 0539 0739 34b4
00000040: 4cb1 0938 54b1 7db7 5fb5 7e30 d6b2 68b4
00000050: e9b1 a0b6 95b9 51aa 44ba cbb2 e7b8 d6b2
00000060: b62f a2b3 8838 43b2 2436 caaf 97b9 4a33
00000070: 7cb4 1e36 8338 53b0 76ad 6e2d b7b5 25a9
00000080: 763c 56b4 3e3c d8b8 103e 54b2 eeb6 63b8
00000090: 7837 213b c4b6 063d 4f34 fe38 99ae 6f35
000000a0: 6f32 aa39 4bb6 2c34 5c30 713b b138 fbb5
000000b0: 532e d0ad e5bb 373a cf36 12b9 04b8 a62e
000000c0: 1eba 3cb7 aa36 b03e 842d c23b 383d babc
000000d0: 7db3 3839 fcba 27b0 e5ba f93d e5b4 28ae
000000e0: 653a 4e38 ce39 13ae 4db9 8dbb 9b35 f031
000000f0: 9a35 4ab0 d8bd 74b6 b72f 0737 e52f 2f3c
00000100: 40b9 2738 8634 3335 85b9 5cbb 1c30 d7b6
00000110: e0ae 9138 e9ba a8b8 d63b 1b37 abba f03e
00000120: e839 2db7 73b1 ecba 0cb8 d1b3 8238 a42e
00000130: 0638 e1b5 02b4 1cb4 96b4 402e 6db6 f33b
00000140: 2ebc e436 7036 f5a8 d2b6 18bd 4f34 87b4
00000150: fa35 3034 bcb5 232c 3e34 93b5 3c32 4139
00000160: 1338 f1bc faae 90b1 11b4 59b7 f232 a52e
00000170: 7638 90b4 60b3 402e 51b9 cab3 3eb4 7c38
00000180: ff2e 53b1 e7ac 3c38 7fa5 9baa 372d 4738
00000190: 5db4 4430 90a8 feb7 b233 3b2f 0535 5838
000001a0: b9b1 c134 c4b2 c434 fc33 6d29 72b9 bc31
000001b0: 79a4 b334 caa5 d82f 7027 6d33 49b0 0723
000001c0: b7b2 00bb efba dfb7 b22a a02c 41b4 c13b
000001d0: d4b5 27aa c138 1dac 74b0 2331 8938 dbb8
000001e0: 12b5 6bae 8237 3136 2cb0 47af 4e38 56ba
000001f0: 7032 883a 3e38 24ae 7330 0cbd 89b0 79b6

model/lstm/while/lstm_cell_4/split_1 f2 [32]
-0.5034 -0.4973 -0.3506 0.02574 -0.4668 -0.5244 -0.626 -0.8184
-0.501 -0.6123 -0.588 -0.2355 -0.04764 -0.6084 -0.7393 -0.656
-0.3577 -0.5024 -0.1117 -0.2722 -0.4368 -0.3206 -0.438 -0.6743
-0.4353 -0.414 -0.512 1.788 -0.311 -0.269 -0.523 -0.265
00000000: 07b8 f5b7 9cb5 9726 78b7 32b8 02b9 8cba
00000010: 02b8 e6b8 b4b8 89b3 19aa deb8 eab9 3fb9
00000020: b9b5 05b8 26af 5bb4 fdb6 21b5 02b7 65b9
00000030: f7b6 a0b6 19b8 273f fab4 4eb4 2fb8 3db4

model/lstm/while/lstm_cell_4/split_11 f2 [32]
1.243 1.043 1.065 1.829 1.056 0.8374 1.135 1.278
1.143 0.9307 1.153 1.686 1.358 0.851 0.869 1.272
1.136 1.096 1.925 0.917 1.4375 1.147 1.314 1.007
0.946 1.169 0.9375 2.291 1.198 0.9614 0.908 0.8804
00000000: f93c 2c3c 433c 513f 393c b33a 8a3c 1d3d
00000010: 923c 723b 9d3c be3e 6f3d cf3a f43a 173d
00000020: 8b3c 623c b33f 563b c03d 973c 423d 073c
00000030: 913b ad3c 803b 9540 cb3c b13b 443b 0b3b

model/lstm/while/lstm_cell_4/split_12 f2 [32]
0.271 -0.1378 0.11847 0.2333 -0.05154 -0.113 -0.2484 0.1873
0.1724 0.0009494 0.1365 -0.01423 0.3376 -0.1346 -0.0555 0.2172
-0.2903 0.1487 0.1345 0.1377 0.2976 0.3591 -0.1473 -0.01904
-0.01738 0.0007606 0.10693 0.5635 -0.1294 0.02983 -0.1743 -0.2174
00000000: 5634 69b0 952f 7733 99aa 3baf f3b3 fe31
00000010: 8431 c713 5e30 49a3 6735 4fb0 1bab f332
00000020: a5b4 c230 4e30 6830 c334 bf35 b7b0 e0a4
00000030: 73a4 3b12 d82e 8238 24b0 a327 94b1 f5b2

model/lstm/while/lstm_cell_4/split_13 f2 [32]
-0.003475 -0.2578 -0.1636 -0.4438 -0.2164 -0.2169 0.3823 -0.05222
-0.01807 0.010635 0.111 -0.1464 -0.448 -0.2527 -0.705 0.25
-0.10284 -0.10297 -0.4094 -0.06506 -0.1951 0.02269 -0.0857 -0.04782
-0.2925 -0.00365 0.0951 -0.357 -0.0824 -0.4136 -0.494 -0.08453
00000000: 1e9b 20b4 3cb1 1ab7 edb2 f1b2 1e36 afaa
00000010: a0a4 7221 1b2f afb0 2bb7 0bb4 a4b9 0034
00000020: 95ae 97ae 8db6 2aac 3eb2 cf25 7cad 1faa
00000030: aeb4 7a9b 162e b6b5 46ad 9eb6 e7b7 69ad

model/lstm/while/lstm_cell_4/MatMul f2 [32, 1152]
-0.0508 0.06125 -0.01437 -0.01461 -0.075 -0.006123 0.04904 -0.01955
-0.02112 -0.10315 0.1991 0.01991 -0.05222 0.03818 -0.1611 -0.00811
-0.204 -0.2795 -0.05798 0.04132 0.0637 -0.0658 0.1697 -0.1427
-0.02176 0.00429 -0.04547 -0.07275 0.0013685 0.0468 0.1038 0.1888
-0.0945 -0.1462 0.06866 -0.2651 0.02307 -0.1437 -0.01979 -0.01613
0.2078 -0.00823 0.04044 0.002148 0.00225 -0.02115 -0.04926 -0.1465
-0.1676 -0.1934 0.1333 -0.05374 0.0191 -0.01924 -0.001304 -0.02812
-0.1848 -0.02158 -0.01294 0.02597 -0.11926 -0.03955 -0.06555 -0.02905
-0.1131 -0.03375 -0.01353 -0.1159 -0.09357 -0.273 0.10443 0.08295
-0.07886 -0.04953 -0.291 0.1019 -0.1643 0.04398 -0.256 -0.2256
0.10516 -0.0484 -0.0478 -0.1709 0.03955 -0.04498 -0.02379 -0.0008154
0.000981 -0.1448 -0.1809 0.03946 -0.117 -0.0851 0.01694 0.1085
0.1037 -0.0684 -0.02133 0.02948 0.10345 -0.03662 -0.1056 -0.1453
0.07324 0.07916 -0.0978 0.03586 0.0333 0.1272 0.02757 -0.04504
-0.0703 0.005047 0.0672 -0.0836 -0.0111 -0.04205 0.1167 0.07764
0.01047 0.03763 -0.0349 0.04153 0.107 0.1225 -0.04703 0.154
0.0641 0.1516 0.03656 -0.1588 -0.12354 0.05228 -0.1089 -0.006042
0.11884 -0.04596 -0.02185 -0.0546 0.0609 -0.014915 0.0714 0.0587
0.1576 -0.05258 -0.02425 -0.0431 0.025 0.1997 -0.1805 -0.1711
-0.08044 -0.05573 0.1328 -0.2203 -0.0783 -0.03152 0.0802 -0.03772
-0.007347 0.0934 0.05704 0.2198 -0.02536 -0.1663 -0.0457 0.04453
-0.1655 -0.042 0.1471 0.01598 -0.1399 -0.02715 -0.2046 -0.06854
-0.07385 0.02231 -0.0822 -0.01095 -0.041 0.12225 -0.06714 0.0201
0.0471 0.0948 -0.0909 -0.008644 0.0848 0.05286 0.0703 -0.04254
0.0242 0.02084 0.00771 -0.046 -0.01229 -0.005558 -0.005367 -0.0314
-0.012924 -0.02962 -0.001149 -0.0847 -0.06165 -0.01297 0.00833 0.0414
-0.01185 0.01427 0.007526 -0.0729 0.01384 -0.0056 0.0361 -0.01488
-0.01081 -0.0294 0.01344 -0.06058 -0.03595 -0.00887 -0.079 0.02539
-0.01457 0.05435 0.007015 -0.04782 0.02754 -0.005554 0.05542 0.00072
-0.1059 -0.02936 0.04636 -0.0341 0.01991 -0.008316 -0.0956 -0.059
-0.002745 0.03918 0.006134 -0.010864 0.005917 -0.005753 0.0672 0.00798
-0.1417 -0.02913 0.06177 -0.0367 -0.0282 -0.003729 -0.0255 0.0217
00000000: 81aa d72b 5ca3 7ba3 cdac 459e 472a 01a5
00000010: 68a5 9aae 5f32 1925 afaa e328 28b1 27a0
00000020: 87b2 79b4 6cab 4a29 142c 36ac 6e31 91b0
00000030: 92a5 651c d2a9 a8ac 9b15 fe29 a52e 0b32
00000040: 0cae aeb0 652c 3eb4 e825 99b0 11a5 21a4
00000050: a632 37a0 2d29 6618 9c18 6aa5 4eaa b0b0
00000060: 5db1 30b2 4430 e1aa e424 eda4 5795 33a7
00000070: eab1 86a5 a0a2 a626 a2af 10a9 32ac 70a7
00000080: 3daf 52a8 eda2 6baf fdad 5eb4 af2e 4f2d
00000090: 0cad 57aa a8b4 862e 42b1 a129 19b4 38b3
000000a0: bb2e 32aa 1eaa 78b1 1029 c2a9 17a6 ae92
000000b0: 0514 a2b0 cab1 0d29 7daf 72ad 5624 f22e
000000c0: a32e 61ac 76a5 8c27 9f2e b0a8 c2ae a6b0
000000d0: b02c 112d 42ae 9728 4328 1230 0f27 c4a9
000000e0: 80ac 2b1d 4d2c 5aad afa1 62a9 782f f82c
000000f0: 5c21 d128 78a8 5129 d92e d72f 05aa ee30
00000100: 1a2c da30 ae28 15b1 e8af b12a f8ae 309e
00000110: 9b2f e2a9 98a5 fdaa cc2b a3a3 922c 832b
00000120: 0b31 bbaa 35a6 84a9 6626 6432 c7b1 7ab1
00000130: 26ad 22ab 4030 0db3 03ad 09a8 222d d4a8
00000140: 869f fa2d 4d2b 0933 7ea6 52b1 d9a9 b329
00000150: 4cb1 60a9 b530 1724 7ab0 f3a6 8cb2 63ac
00000160: baac b625 43ad 9ba1 3fa9 d32f 4cac 2525
00000170: 072a 112e d1ad 6da0 6d2d c42a 802c 72a9
00000180: 3226 5625 e51f e3a9 4ba2 b19d 7f9d 05a8
00000190: 9ea2 95a7 b594 6cad e4ab a4a2 4420 4d29
000001a0: 11a2 4e23 b51f aaac 1623 bc9d 9f28 9ea3
000001b0: 89a1 87a7 e222 c1ab 9aa8 8ba0 0ead 8026
000001c0: 76a3 f52a 2f1f 1faa 0d27 b09d 182b e611
000001d0: c7ae 84a7 ef29 5da8 1925 42a0 1eae 8dab
000001e0: 9f99 0429 481e 90a1 0f1e e49d 4d2c 1620
000001f0: 89b0 75a7 e82b b3a8 38a7 a39b 87a6 8e25

model/lstm/while/lstm_cell_4/MatMul_1 f2 [32, 1152]
-0.001016 0.152 -0.0786 0.011955 -0.0706 0.06033 -0.0644 -0.1262
0.0321 0.0832 0.01813 -0.06213 -0.04965 -0.011375 0.0258 -0.02191
0.04892 0.1414 -0.143 0.1228 -0.04352 0.09784 0.1067 -0.1467
-0.0644 -0.004177 0.00875 0.06015 0.02582 0.02786 -0.0469 0.191
0.04312 -0.06274 -0.01721 -0.1407 0.01374 -0.0457 -0.1248 0.1248
0.00857 -0.0679 -0.0887 -0.109 -0.1116 -0.0349 -0.0788 -0.04297
-0.171 -0.0752 0.0273 -0.1167 -0.03806 -0.102 -0.0479 0.1644
-0.0544 0.0741 -0.00872 0.06616 -0.0346 -0.316 -0.1014 0.2343
0.006886 -0.09796 -0.06116 -0.0193 0.01025 -0.04794 0.06116 -0.0767
0.0801 -0.0271 -0.0535 -0.001761 -0.0844 -0.02756 -0.003967 -0.03632
-0.0392 0.0732 0.05075 -0.01001 0.03738 -0.03946 -0.0602 -0.01633
0.01689 0.1421 -0.01236 0.05627 0.0955 0.0309 -0.03754 -0.05386
0.006275 -0.0913 0.1028 0.0733 -0.04327 -0.04263 0.02243 0.01587
-0.05753 0.0687 -2.89e-05 0.01071 -0.02792 -0.007053 0.0734 0.07404
0.068 -0.0287 0.01694 0.1832 0.0257 -0.01481 -0.01343 0.0854
-0.04456 -0.0537 0.1377 -0.05936 0.0762 -0.04678 -0.0504 0.0728
-0.1573 -0.1797 0.06052 -0.03058 -0.0785 -0.01628 -0.01984 0.3755
-0.06464 0.007435 -0.2328 -0.0168 0.02835 0.11005 -0.05817 -0.0666
-0.1151 -0.2427 -0.0004003 -0.11 0.0616 -0.06058 -0.02313 0.0552
-0.1587 -0.03072 -0.04184 -0.2698 -0.03836 -0.2239 -0.0871 -0.3076
-0.1797 0.00327 -0.01723 0.1489 -0.0433 0.00883 -0.03055 -0.06506
0.11115 0.0237 -0.1826 0.0097 -0.00956 -0.00326 0.1053 -0.1182
-0.06464 0.07745 0.01512 0.0216 -0.03488 0.2214 0.247 -0.1414
0.1638 0.02974 0.0833 -0.01933 -0.07007 0.00896 0.01903 -0.082
-0.053 -0.04654 -0.002014 0.0516 0.05743 -0.02557 0.01194 0.0009336
-0.006115 -0.03912 -0.00721 0.03403 0.05463 -0.03004 0.0237 -0.00877
-0.05585 -0.02286 -0.0011015 0.0348 0.06537 -0.02565 -0.007793 0.01997
0.0653 -0.03928 -0.011024 0.04678 -0.0115 -0.03009 0.03815 0.02972
-0.0838 -0.1501 -0.000362 0.06027 0.06525 -0.02563 0.01358 0.04044
0.02821 -0.03915 0.00984 0.01264 -0.03705 -0.03168 -0.03787 0.01473
-0.03693 -0.1312 -0.0002806 0.05115 0.0902 -0.0253 0.02655 0.0251
0.01054 -0.03928 0.01346 0.00975 0.007236 -0.03256 -0.04846 -0.02364
00000000: 2994 dd30 08ad 1f22 85ac b92b 1fac 0ab0
00000010: 1c28 532d a424 f4ab 5baa d3a1 9b26 9ca5
00000020: 432a 8630 93b0 dc2f 92a9 432e d42e b2b0
00000030: 1fac 479c 7b20 b32b 9c26 2227 01aa 1d32
00000040: 8529 04ac 68a4 81b0 0923 d9a9 fdaf fd2f
00000050: 6320 58ac adad faae 24af 78a8 0bad 80a9
00000060: 79b1 d0ac fd26 78af dfa8 87ae 22aa 4331
00000070: f7aa be2c 77a0 3c2c 6ea8 0eb5 7dae 7f33
00000080: 0d1f 45ae d4ab f1a4 3f21 23aa d42b e9ac
00000090: 202d f0a6 d9aa 3797 67ad 0ea7 109c a6a8
000000a0: 05a9 af2c 7f2a 20a1 c928 0da9 b5ab 2ea4
000000b0: 5324 8c30 54a2 342b 1d2e e927 cea8 e5aa
000000c0: 6d1e d8ad 942e b12c 8aa9 75a9 be25 1024
000000d0: 5dab 662c e581 7c21 26a7 399f b32c bd2c
000000e0: 5a2c 59a7 5624 dd31 9426 95a3 e0a2 772d
000000f0: b4a9 e0aa 6830 99ab e02c fda9 74aa a92c
00000100: 09b1 c0b1 bf2b d4a7 06ad 2ba4 14a5 0236
00000110: 23ac 9d1f 73b3 4da4 4227 0b2f 72ab 43ac
00000120: 5eaf c4b3 8f8e 0aaf e32b c1ab eca5 112b
00000130: 14b1 dda7 5ba9 51b4 e9a8 2ab3 93ad ecb4
00000140: c0b1 b21a 69a4 c430 8ba9 8520 d2a7 2aac
00000150: 1d2f 1126 d8b1 f720 e5a0 ad9a bd2e 91af
00000160: 23ac f52c be23 8825 77a8 1633 e733 86b0
00000170: 3e31 9d27 552d f3a4 7cac 9620 df24 3fad
00000180: c9aa f5a9 2098 9b2a 5a2b 8ca6 1d22 a613
00000190: 439e 02a9 629f 5b28 fe2a b1a7 1126 7ea0
000001a0: 26ab daa5 8394 7428 2f2c 91a6 fb9f 1d25
000001b0: 2e2c 07a9 a5a1 fd29 e3a1 b4a7 e228 9c27
000001c0: 5dad ceb0 ee8d b72b 2d2c 90a6 f422 2d29
000001d0: 3927 03a9 0a21 7922 bea8 0ea8 d9a8 8b23
000001e0: baa8 33b0 998c 8c2a c62d 7aa6 cc26 6d26
000001f0: 6521 07a9 e422 fe20 691f 2ba8 34aa 0da6
