HPC_Final_Study2_Complete_Test_Class_Balance_run_all/participants_session_transfer_train/participant_1/session_2/session_2_lite_models/indexpen_model_quant.tflite (tflite, 412752 bytes, 45 tensors)

model/time_distributed_3/conv2d_1/BiasAdd;model/time_distributed_11/conv2d_3/Conv2D;model/time_distributed_3/conv2d_1/Conv2D;model/time_distributed_3/conv2d_1/BiasAdd/ReadVariableOp/resource f2 [16]
000000 0e b3 12 b1 d8 a7 0a a8 10 30 b5 ac 1e b0 d9 a3
       -0.2205 -0.1584 -0.03064 -0.03156 0.127 -0.07355 -0.1287 -0.01533
000010 e8 ac d5 af 30 9e 1d a9 37 b2 cc b1 94 2c 1b b0
       -0.07666 -0.1224 -0.006042 -0.03995 -0.1942 -0.1812 0.07153 -0.1283

model/time_distributed/conv2d/BiasAdd;model/time_distributed_8/conv2d_2/Conv2D;model/time_distributed/conv2d/Conv2D;model/time_distributed/conv2d/BiasAdd/ReadVariableOp/resource f2 [8]
000000 ff 24 f8 9d f1 1b ec 24 d1 2c 2b 9c 8c 31 bf 1c
       0.01952 -0.00583 0.003878 0.01923 0.07526 -0.00407 0.1733 0.004635

model/time_distributed_11/conv2d_3/BiasAdd;model/time_distributed_11/conv2d_3/Conv2D;model/time_distributed_11/conv2d_3/BiasAdd/ReadVariableOp/resource f2 [16]
000000 39 24 1b 2d a7 a0 5a 28 4b 29 82 27 70 9e 52 2c
       0.0165 0.0798 -0.00909 0.034 0.04135 0.02933 -0.006287 0.0675
000010 3f 15 2f a3 13 97 d7 a6 81 23 f9 9e 9c 24 d7 ab
       0.001281 -0.01403 -0.001727 -0.02672 0.014656 -0.00681 0.018 -0.06125

model/time_distributed_8/conv2d_2/BiasAdd;model/time_distributed_8/conv2d_2/Conv2D;model/time_distributed_8/conv2d_2/BiasAdd/ReadVariableOp/resource f2 [8]
000000 29 2d a8 9c 3e 0d 26 a0 1e 2a 8a 30 4e 26 4a a4
       0.0806 -0.004547 0.00032 -0.0081 0.0478 0.1418 0.02463 -0.01675

model/time_distributed_3/conv2d_1/Conv2D f2 [16, 3, 3, 8]
000000 61 2d 7e a8 eb 21 09 b4 03 98 f3 24 55 ac 8d a8
       0.08405 -0.0351 0.01156 -0.2522 -0.001959 0.01933 -0.0677 -0.03555
000010 1e a9 cd a5 db a3 41 2b 58 2e fb 26 dd 31 92 a8
       -0.03998 -0.02266 -0.01534 0.05667 0.0991 0.02727 0.1832 -0.0357
000020 e1 22 a4 aa 8b a6 df 24 65 b0 ef ab a3 a8 7b 25
       0.013435 -0.05188 -0.02556 0.01903 -0.1373 -0.06198 -0.03622 0.02141
000030 96 a6 f8 ab 4d 0d a6 ac 42 ac a3 26 d6 30 fb 06
       -0.02573 -0.06226 0.0003235 -0.07263 -0.0665 0.02592 0.1511 0.0001065
000040 5b ab 05 19 01 20 5a 34 0c ad 19 1d 9e 9c 78 28
       -0.05746 0.00245 0.00782 0.272 -0.07886 0.00498 -0.00451 0.0349
000050 77 a6 78 1e 48 28 54 ae 94 29 be ad 99 b3 e8 1c
       -0.02525 0.006317 0.03345 -0.0989 0.04358 -0.0897 -0.2374 0.00479
000060 5f a8 2b 28 03 2d 0b 2c 50 ad 21 a5 80 2f 74 a8
       -0.03415 0.03256 0.0783 0.0632 -0.083 -0.02003 0.1172 -0.0348
000070 c4 a7 32 24 1d 23 e0 b0 2e ac d5 ab 5b 34 b0 25
       -0.03033 0.01639 0.01389 -0.1523 -0.0653 -0.0612 0.2722 0.02222
000080 38 9d d3 a5 58 a5 46 ad e7 9e e5 a7 89 37 ad 1c
       -0.005096 -0.02275 -0.02087 -0.0824 -0.00674 -0.03084 0.471 0.004566
000090 cc 9e 0f 29 42 ad 19 b0 71 2d 63 a8 da b4 3a 2d
       -0.006638 0.03952 -0.08215 -0.128 0.085 -0.03427 -0.3032 0.08167
0000a0 67 26 74 9e fd 9d c3 a7 5d 2c 70 a2 08 a6 59 a1
       0.02501 -0.0063 -0.005848 -0.03032 0.0682 -0.01257 -0.02356 -0.010445
0000b0 01 27 5b 21 c0 29 9b ad 8d b1 34 29 27 35 03 ad
       0.02736 0.01046 0.04492 -0.0876 -0.1735 0.04065 0.322 -0.0783
0000c0 1d 1c ad 28 65 aa ae 31 ca 29 3e 1b b7 b0 14 2a
       0.004017 0.03653 -0.04996 0.1775 0.04523 0.003536 -0.1473 0.0475
0000d0 ab ae ff 9e 62 25 11 a6 69 2a c6 21 84 b5 02 28
       -0.1042 -0.006832 0.02103 -0.0237 0.05008 0.01128 -0.3447 0.0313
0000e0 d6 ad 9b 2a 96 22 41 b0 02 27 0d 2c c6 33 71 22
       -0.0912 0.0516 0.01286 -0.1329 0.02737 0.0633 0.2429 0.01258
0000f0 47 1e 22 2a eb a0 7c aa dc 31 d6 28 8e 28 9c a5
       0.00613 0.0479 -0.009605 -0.05066 0.1831 0.03778 0.03558 -0.02191
000100 f2 1f a3 18 3e 27 af b0 54 b0 60 22 0f 33 e3 2b
       0.00776 0.002264 0.02829 -0.1464 -0.1353 0.01245 0.2206 0.0616
000110 bd 28 4f 81 ae a4 5a 1d 8d b0 17 a8 b8 35 56 2c
       0.03702 -1.997e-05 -0.01828 0.005226 -0.1422 -0.03195 0.3574 0.06775
000120 1d a8 74 1d 39 a5 c0 b0 5b b1 a7 21 d2 b1 e0 26
       -0.03214 0.005325 -0.0204 -0.1484 -0.1674 0.01104 -0.1819 0.02686
000130 b4 aa f5 a8 b5 ac 55 ac 02 9d e4 2b 1a 32 59 22
       -0.05237 -0.03873 -0.07355 -0.0677 -0.00489 0.06165 0.1907 0.0124
000140 84 ac 14 ad 82 24 51 29 ce aa 0a 2b f5 af 23 ac
       -0.07056 -0.07935 0.01761 0.04153 -0.05316 0.055 -0.1243 -0.06464
000150 6a 14 ff 22 ea a2 59 31 e4 b2 ee 29 af b5 6e 29
       0.001078 0.013664 -0.013504 0.1671 -0.2153 0.04633 -0.3552 0.04242
000160 ca a6 90 27 08 a6 b8 ac e4 aa 90 a3 6f b5 dd 95
       -0.02652 0.02954 -0.02356 -0.0737 -0.05383 -0.01477 -0.3396 -0.001431
000170 55 a4 11 a7 aa 2a fa 32 ff 1f 87 a8 5c b0 82 28
       -0.01692 -0.0276 0.05206 0.218 0.00781 -0.03537 -0.1362 0.03522
000180 10 23 c3 a8 c4 a0 98 af 53 1f 77 2a e4 2a 3b a6
       0.013794 -0.0372 -0.00931 -0.11865 0.007153 0.0505 0.05383 -0.02434
000190 f4 96 21 20 46 22 5d b6 a0 b2 0b 94 da 30 56 a8
       -0.001698 0.008064 0.01225 -0.3977 -0.207 -0.000987 0.1516 -0.03387
0001a0 b5 98 64 a0 72 26 31 a1 99 b5 fb ab 7e 32 c0 22
       -0.002298 -0.008575 0.02518 -0.01014 -0.3499 -0.06235 0.2029 0.01318
0001b0 63 a7 1e 2d ef ac 8b ae 07 29 2c 29 0a 2b 54 15
       -0.02885 0.07996 -0.0771 -0.10223 0.03928 0.0404 0.055 0.001301
0001c0 57 a9 46 23 5b a0 5a 30 9f b0 07 a9 77 b0 20 21
       -0.04172 0.014206 -0.00851 0.136 -0.1444 -0.03928 -0.1395 0.01001
0001d0 15 ad a8 a4 d8 29 0b b4 a4 a9 b1 93 a7 2d a5 a9
       -0.0794 -0.01819 0.04565 -0.2527 -0.04407 -0.000939 0.0883 -0.0441
0001e0 c6 29 a6 a4 52 a8 d4 a3 07 a9 9d 94 3a 28 16 2b
       0.0451 -0.01816 -0.03375 -0.01529 -0.03928 -0.001126 0.03302 0.05536
0001f0 cc 2a 67 20 60 21 be a8 3a b1 31 24 5b b0 a6 23
       0.0531 0.0086 0.0105 -0.03705 -0.1633 0.01637 -0.1361 0.01494

model/time_distributed/conv2d/Conv2D f2 [8, 3, 3, 1]
000000 0d 91 15 91 3e 16 a5 96 c6 14 29 98 cf 14 21 8e
       -0.0006166 -0.0006204 0.001524 -0.001622 0.001165 -0.002031 0.001174 -0.000374
000010 89 0c 1b 18 d7 14 46 08 86 12 37 8d 75 11 66 90
       0.0002768 0.002005 0.001182 0.0001304 0.0007963 -0.0003183 0.000666 -0.000537
000020 96 0e 0f 95 34 92 b4 8d 5e 04 fc 0f 6b 04 10 14
       0.000402 -0.001235 -0.000757 -0.000348 6.664e-05 0.0004873 6.74e-05 0.000992
000030 a6 0f 64 8c 8c 95 68 90 ef 18 35 09 88 1c 9e 9c
       0.0004668 -0.000268 -0.001354 -0.000538 0.002409 0.0001589 0.004425 -0.00451
000040 8c 91 b2 1a 18 9b 8e 24 c7 1e ae 9e b4 1c cd 9f
       -0.000677 0.00327 -0.003464 0.01779 0.00662 -0.006523 0.004593 -0.007618
000050 7f 90 bb 9f 5a 28 71 1c 7c a0 25 12 ba 17 d9 95
       -0.000549 -0.00755 0.034 0.004337 -0.00876 0.00075 0.001886 -0.001428
000060 e0 15 c8 18 77 90 59 97 bc 92 c2 13 ae 97 28 1b
       0.001434 0.002335 -0.000545 -0.001794 -0.000822 0.000947 -0.001875 0.003494
000070 01 95 98 9d e0 1d f3 16 34 9a c6 a8 4b 97 24 87
       -0.001222 -0.005463 0.005737 0.001697 -0.003029 -0.0373 -0.0017805 -0.00010896
000080 a1 02 f6 91 65 0f 96 90 38 14 26 8a 30 0d a1 8c
       4.01e-05 -0.0007277 0.0004513 -0.00056 0.00103 -0.0001876 0.0003166 -0.0002825

model/time_distributed_11/conv2d_3/Conv2D f2 [16, 3, 3, 8]
000000 e1 31 a4 14 19 1e 4c a7 1b b5 49 b4 0c b0 5c ac
       0.1837 0.001133 0.005955 -0.0285 -0.319 -0.2678 -0.1265 -0.0681
000010 58 9d b9 23 b4 22 e4 aa ca b4 33 34 0c b1 f2 ab
       -0.00522 0.01508 0.01309 -0.05383 -0.2993 0.2625 -0.1577 -0.06207
000020 28 b0 7b 1f 87 1a 49 a9 53 b5 ad 2c 05 2d 83 a8
       -0.1299 0.007305 0.003187 -0.0413 -0.3328 0.07306 0.0784 -0.03525
000030 c2 b2 7d a9 e7 28 df ab 3f 2b 15 30 6d b5 60 a9
       -0.2112 -0.04288 0.0383 -0.0615 0.0566 0.1276 -0.339 -0.042
000040 85 28 cb ab 89 24 62 a8 12 25 ad a2 8e 2d 4d 1f
       0.0353 -0.06088 0.01772 -0.03424 0.0198 -0.01304 0.0868 0.00713
000050 6c 23 07 a6 36 21 94 a9 12 11 c8 b3 01 2e 53 25
       0.014496 -0.02354 0.01018 -0.04358 0.000619 -0.2432 0.0938 0.0208
000060 22 23 d9 a2 ce 25 a6 22 4d a3 1d af cb b1 97 a7
       0.01393 -0.013374 0.02267 0.012985 -0.01426 -0.11115 -0.181 -0.02965
000070 52 a6 15 2d 9d 21 f8 28 e0 2c 7a 20 13 a9 46 a8
       -0.02469 0.0794 0.01096 0.03882 0.0762 0.00874 -0.03964 -0.0334
000080 d1 29 55 29 a6 24 e7 2a 64 35 67 a9 61 b5 4d 2c
       0.04544 0.04166 0.01816 0.05392 0.337 -0.0422 -0.3362 0.0672
000090 c1 37 82 2a a1 22 48 2c d7 32 31 b0 84 b4 1d a4
       0.4846 0.05084 0.01295 0.0669 0.2137 -0.131 -0.2822 -0.01607
0000a0 ff 1c 8a 1f 96 13 3d ac be b0 ad 30 77 ab 01 aa
       0.00488 0.007362 0.000926 -0.0662 -0.1482 0.1461 -0.05832 -0.0469
0000b0 d1 b7 c8 21 ad 24 61 a5 74 b6 a9 b0 d3 35 71 a2
       -0.4885 0.01129 0.01826 -0.02101 -0.4033 -0.1456 0.364 -0.01258
0000c0 18 b4 bc a5 44 2b 3a a5 c6 b6 96 33 e0 b2 c2 1c
       -0.2559 -0.0224 0.05676 -0.02042 -0.4233 0.237 -0.2148 0.004646
0000d0 1d 33 5e 9c 57 2b 23 2c d3 b4 2f b4 1b b1 4d af
       0.2223 -0.004265 0.05734 0.06464 -0.3015 -0.2615 -0.1595 -0.1141
0000e0 9e 2f b1 aa af a3 e0 a3 f6 33 2c 28 59 21 ab 24
       0.119 -0.05228 -0.01501 -0.01538 0.2488 0.0326 0.010445 0.01823
0000f0 8d 31 2b a9 8c 28 03 24 0c 2d 73 32 5b b3 28 16
       0.1735 -0.04037 0.03552 0.01567 0.07886 0.2015 -0.2299 0.001503
000100 7f b2 31 a6 37 2c 50 ac 08 af 97 ae 2c b0 19 ae
       -0.203 -0.02419 0.06586 -0.0674 -0.10986 -0.10297 -0.1304 -0.0953
000110 92 ae 78 ab e3 1f ff 27 ce b5 2d af c7 2b 5d ac
       -0.10266 -0.05835 0.0077 0.03123 -0.3628 -0.1121 0.06076 -0.0682
000120 79 9f ae 9a c4 a2 c9 9f 44 a0 6f 10 ca 10 86 23
       -0.007298 -0.003262 -0.013214 -0.007603 -0.00833 0.000541 0.0005846 0.014694
000130 32 9d 22 98 b0 a2 4c 9f 03 a0 e4 18 bb 19 64 23
       -0.005074 -0.002018 -0.01306 -0.007126 -0.007835 0.002388 0.002798 0.014435
000140 68 96 65 94 b6 a2 ff 9e a7 9f b6 1c 48 9d 46 23
       -0.001564 -0.001073 -0.01311 -0.006832 -0.007473 0.0046 -0.005157 0.014206
000150 a9 87 2e 91 1a a4 08 9c 17 9f c7 0d 44 1e 7a 1f
       -0.0001169 -0.0006323 -0.01602 -0.003937 -0.006924 0.0003526 0.00612 0.0073
000160 77 99 e2 94 22 a4 d3 9b 33 9c 4b 19 a2 9a 8c 1f
       -0.002668 -0.001192 -0.01614 -0.00382 -0.0041 0.002584 -0.003239 0.00737
000170 5a 9f 62 95 22 a4 6f 9b ac 12 6d 13 7a 1d 01 20
       -0.00718 -0.001314 -0.01614 -0.00363 0.0008144 0.0009065 0.00535 0.00782
000180 d9 9c 4e 20 9d a1 18 96 dd 99 f4 91 2e 1d 3d 23
       -0.004734 0.00841 -0.01096 -0.001488 -0.002863 -0.0007267 0.00506 0.01414
000190 04 12 35 20 f8 a1 7c 94 a8 9b 51 1a 49 93 15 23
       0.0007343 0.00822 -0.01166 -0.001095 -0.003738 0.003084 -0.0008893 0.01383
0001a0 a0 a2 28 20 73 a2 99 90 91 87 bb 1a 06 95 39 23
       -0.01294 0.00812 -0.012596 -0.000561 -0.00011545 0.003286 -0.001226 0.01411
0001b0 12 b3 b5 a6 ca 27 06 24 6b 2d 0c a9 08 b4 04 2a
       -0.221 -0.0262 0.03043 0.01572 0.08466 -0.03943 -0.252 0.047
0001c0 df 31 2e a7 0d 28 39 24 a1 2c 42 1f 88 b4 c8 28
       0.1835 -0.02805 0.03165 0.0165 0.0723 0.007088 -0.2832 0.03735
0001d0 ad a4 ba a4 09 28 4a 99 f5 ae 22 30 67 30 20 28
       -0.01826 -0.01846 0.03152 -0.002583 -0.1087 0.1292 0.1376 0.03223
0001e0 1d 36 5f 13 8e 9e c4 2c 8e b4 98 31 b4 b0 12 2b
       0.382 0.0009 -0.0064 0.07446 -0.2847 0.1748 -0.147 0.05524
0001f0 4e ae ee 24 35 a0 2b 25 52 ab bf 27 83 b0 1e 1d
       -0.0985 0.01926 -0.00822 0.02019 -0.0572 0.03026 -0.141 0.004997

model/time_distributed_8/conv2d_2/Conv2D f2 [8, 3, 3, 1]
000000 ee a6 7c a8 16 29 fb 2c 09 ac 57 20 6d aa 56 22
       -0.02707 -0.03503 0.03973 0.0778 -0.06305 0.00848 -0.0502 0.012375
000010 83 26 02 99 f2 9d a7 94 8a 17 0c 1a 79 1a 6b 0e
       0.02544 -0.002445 -0.005806 -0.001136 0.001841 0.002953 0.00316 0.0003917
000020 9e 91 4e 9b 08 20 08 9d df 14 19 8c b3 09 47 9b
       -0.0006857 -0.003567 0.00787 -0.004913 0.001189 -0.00025 0.0001739 -0.003553
000030 30 97 23 1c 5d 10 c1 20 3d a0 c9 91 a1 8d f5 18
       -0.001755 0.00404 0.0005326 0.009285 -0.00828 -0.000706 -0.0003436 0.00242
000040 b8 98 e1 1c 24 94 7a 9b 64 95 10 8f b8 21 44 25
       -0.002304 0.004765 -0.001011 -0.00365 -0.001316 -0.000431 0.01117 0.02057
000050 76 a8 1d 1e a9 9e f1 19 43 26 96 a8 5e 2b e5 25
       -0.03485 0.00597 -0.006504 0.002901 0.02446 -0.03583 0.05756 0.02303
000060 fe 27 0d ae f2 29 5b a8 6b 2c d2 a7 61 25 b3 ab
       0.03122 -0.09454 0.04645 -0.03403 0.06903 -0.03055 0.02101 -0.06015
000070 42 22 07 a4 8d 26 f0 95 6f 1d 81 29 a0 ac 7c 22
       0.01222 -0.01573 0.02559 -0.00145 0.005306 0.043 -0.07227 0.012665
000080 65 a0 b5 99 a4 22 a2 a6 a0 21 53 9e c0 19 df 1d
       -0.00858 -0.002787 0.01297 -0.02591 0.01099 -0.006176 0.002808 0.005733

model/lstm/TensorArrayV2_1 f2 [120, 1, 32]
000000 00 00 00 00 00 00 00 00 00 00 00 00 00 00 00 00
       0.0 0.0 0.0 0.0 0.0 0.0 0.0 0.0
000010 00 00 00 00 00 00 00 00 00 00 00 00 00 00 00 00
       0.0 0.0 0.0 0.0 0.0 0.0 0.0 0.0
000020 00 00 00 00 00 00 00 00 00 00 00 00 00 00 00 00
       0.0 0.0 0.0 0.0 0.0 0.0 0.0 0.0
000030 00 00 00 00 00 00 00 00 00 00 00 00 00 00 00 00
       0.0 0.0 0.0 0.0 0.0 0.0 0.0 0.0
000040 00 00 00 00 00 00 00 00 00 00 00 00 00 00 00 00
       0.0 0.0 0.0 0.0 0.0 0.0 0.0 0.0
000050 00 00 00 00 00 00 00 00 00 00 00 00 00 00 00 00
       0.0 0.0 0.0 0.0 0.0 0.0 0.0 0.0
000060 00 00 00 00 00 00 00 00 00 00 00 00 00 00 00 00
       0.0 0.0 0.0 0.0 0.0 0.0 0.0 0.0
000070 00 00 00 00 00 00 00 00 00 00 00 00 00 00 00 00
       0.0 0.0 0.0 0.0 0.0 0.0 0.0 0.0
000080 00 00 00 00 00 00 00 00 00 00 00 00 00 00 00 00
       0.0 0.0 0.0 0.0 0.0 0.0 0.0 0.0
000090 00 00 00 00 00 00 00 00 00 00 00 00 00 00 00 00
       0.0 0.0 0.0 0.0 0.0 0.0 0.0 0.0
0000a0 00 00 00 00 00 00 00 00 00 00 00 00 00 00 00 00
       0.0 0.0 0.0 0.0 0.0 0.0 0.0 0.0
0000b0 00 00 00 00 00 00 00 00 00 00 00 00 00 00 00 00
       0.0 0.0 0.0 0.0 0.0 0.0 0.0 0.0
0000c0 00 00 00 00 00 00 00 00 00 00 00 00 00 00 00 00
       0.0 0.0 0.0 0.0 0.0 0.0 0.0 0.0
0000d0 00 00 00 00 00 00 00 00 00 00 00 00 00 00 00 00
       0.0 0.0 0.0 0.0 0.0 0.0 0.0 0.0
0000e0 00 00 00 00 00 00 00 00 00 00 00 00 00 00 00 00
       0.0 0.0 0.0 0.0 0.0 0.0 0.0 0.0
0000f0 00 00 00 00 00 00 00 00 00 00 00 00 00 00 00 00
       0.0 0.0 0.0 0.0 0.0 0.0 0.0 0.0
000100 00 00 00 00 00 00 00 00 00 00 00 00 00 00 00 00
       0.0 0.0 0.0 0.0 0.0 0.0 0.0 0.0
000110 00 00 00 00 00 00 00 00 00 00 00 00 00 00 00 00
       0.0 0.0 0.0 0.0 0.0 0.0 0.0 0.0
000120 00 00 00 00 00 00 00 00 00 00 00 00 00 00 00 00
       0.0 0.0 0.0 0.0 0.0 0.0 0.0 0.0
000130 00 00 00 00 00 00 00 00 00 00 00 00 00 00 00 00
       0.0 0.0 0.0 0.0 0.0 0.0 0.0 0.0
000140 00 00 00 00 00 00 00 00 00 00 00 00 00 00 00 00
       0.0 0.0 0.0 0.0 0.0 0.0 0.0 0.0
000150 00 00 00 00 00 00 00 00 00 00 00 00 00 00 00 00
       0.0 0.0 0.0 0.0 0.0 0.0 0.0 0.0
000160 00 00 00 00 00 00 00 00 00 00 00 00 00 00 00 00
       0.0 0.0 0.0 0.0 0.0 0.0 0.0 0.0
000170 00 00 00 00 00 00 00 00 00 00 00 00 00 00 00 00
       0.0 0.0 0.0 0.0 0.0 0.0 0.0 0.0
000180 00 00 00 00 00 00 00 00 00 00 00 00 00 00 00 00
       0.0 0.0 0.0 0.0 0.0 0.0 0.0 0.0
000190 00 00 00 00 00 00 00 00 00 00 00 00 00 00 00 00
       0.0 0.0 0.0 0.0 0.0 0.0 0.0 0.0
0001a0 00 00 00 00 00 00 00 00 00 00 00 00 00 00 00 00
       0.0 0.0 0.0 0.0 0.0 0.0 0.0 0.0
0001b0 00 00 00 00 00 00 00 00 00 00 00 00 00 00 00 00
       0.0 0.0 0.0 0.0 0.0 0.0 0.0 0.0
0001c0 00 00 00 00 00 00 00 00 00 00 00 00 00 00 00 00
       0.0 0.0 0.0 0.0 0.0 0.0 0.0 0.0
0001d0 00 00 00 00 00 00 00 00 00 00 00 00 00 00 00 00
       0.0 0.0 0.0 0.0 0.0 0.0 0.0 0.0
0001e0 00 00 00 00 00 00 00 00 00 00 00 00 00 00 00 00
       0.0 0.0 0.0 0.0 0.0 0.0 0.0 0.0
0001f0 00 00 00 00 00 00 00 00 00 00 00 00 00 00 00 00
       0.0 0.0 0.0 0.0 0.0 0.0 0.0 0.0

model/dense/BiasAdd/ReadVariableOp/resource f2 [256]
000000 5b a9 95 2a 43 25 22 2c 24 9c 0f 95 03 aa 69 a9
       -0.04184 0.05142 0.02055 0.0646 -0.004044 -0.001235 -0.04697 -0.04227
000010 fd a6 e0 ab 77 a4 85 a7 05 2a ab a8 db 1c 89 a5
       -0.0273 -0.06152 -0.01744 -0.02937 0.04703 -0.03647 0.00474 -0.02162
000020 28 a9 d8 a0 19 2d 2c 2c 16 26 4b 2a 40 a9 ed 27
       -0.04028 -0.00946 0.07965 0.0652 0.02377 0.04916 -0.04102 0.03096
000030 e9 29 ff 25 4c a8 00 9a 4f 2a 7a 28 1d a6 99 27
       0.04617 0.02342 -0.03357 -0.00293 0.0493 0.03497 -0.02388 0.02968
000040 9c ac e2 1a 6a 9d e4 28 e5 94 96 ab a7 b1 7a a4
       -0.072 0.00336 -0.005287 0.0382 -0.001195 -0.05927 -0.1766 -0.01749
000050 62 1f 29 9d 91 af ab 20 95 ab 30 2a c8 26 e6 a0
       0.00721 -0.00504 -0.1182 0.00912 -0.05923 0.04834 0.02649 -0.00957
000060 ad 2a 6a a5 0b a5 a0 2e 1c a9 f2 23 93 a0 c9 a7
       0.05215 -0.02115 -0.0197 0.1035 -0.03992 0.01552 -0.008934 -0.03041
000070 4e a6 ca 95 1e 24 42 a3 0b 2a d5 9e 15 ab 4e a4
       -0.02463 -0.001413 0.01608 -0.014175 0.0472 -0.00667 -0.05533 -0.01682
000080 0d 27 e7 a7 10 2a 76 28 6c 2c 06 25 78 9f 1f a8
       0.02754 -0.03087 0.04736 0.03485 0.0691 0.01962 -0.007294 -0.0322
000090 db 2c f1 9c 48 aa 6a 28 48 20 7f ab 0c 1c 5e 2c
       0.07587 -0.004826 -0.04907 0.0345 0.00836 -0.05856 0.003952 0.06824
0000a0 a9 a5 19 1d 67 a1 ca 28 aa 9a 23 98 8d a4 56 aa
       -0.02211 0.00498 -0.01055 0.0374 -0.003254 -0.00202 -0.01778 -0.0495
0000b0 5d a4 0b 94 4e ac 52 ab a2 25 98 8b 1b 2d 1f ac
       -0.01704 -0.000987 -0.06726 -0.0572 0.022 -0.0002317 0.0798 -0.0644
0000c0 e7 a8 f2 a5 6b a8 fa 29 d2 a9 7e 26 a5 25 72 ac
       -0.0383 -0.02322 -0.03452 0.0467 -0.04547 0.02536 0.02205 -0.06946
0000d0 28 a0 99 93 b7 a0 9b 19 5c 10 6e a8 ae 2a f4 24
       -0.00812 -0.0009274 -0.00921 0.002737 0.000532 -0.0346 0.0522 0.01935
0000e0 65 17 6f 25 9a 2a 47 aa e7 27 32 25 4f a2 08 a9
       0.001805 0.02122 0.05157 -0.04904 0.03087 0.0203 -0.01232 -0.0393
0000f0 40 aa 72 ae f6 ab f4 a4 44 25 cd 24 ca 25 51 99
       -0.04883 -0.1007 -0.0622 -0.01935 0.02057 0.01875 0.02261 -0.002596
000100 b7 29 b6 23 54 21 94 28 53 17 fc ad 67 28 f5 a5
       0.04465 0.01506 0.01041 0.03577 0.001788 -0.0935 0.0344 -0.02327
000110 38 a9 55 2d c0 2c 83 2d 0f a5 34 21 f0 a5 ef a3
       -0.04077 0.0833 0.0742 0.0861 -0.01976 0.01016 -0.0232 -0.015495
000120 a3 a7 3e a4 e7 2e 41 25 f1 2d 10 28 a9 aa 04 23
       -0.02983 -0.01657 0.10785 0.02052 0.09283 0.03174 -0.05203 0.0137
000130 8d aa c8 af 21 aa 05 ab 11 a4 28 a8 4e 9b 35 2a
       -0.05118 -0.1216 -0.04788 -0.05484 -0.01588 -0.03247 -0.003567 0.0485
000140 14 a7 e2 ac 45 ab 71 a1 f6 aa c3 ac 6a 2a 10 a6
       -0.02765 -0.0763 -0.0568 -0.01063 -0.05438 -0.0744 0.0501 -0.02368
000150 23 2c 05 21 db a9 aa a6 24 2d 10 28 2e 27 b7 20
       0.06464 0.0098 -0.04575 -0.02603 0.0803 0.03174 0.02805 0.00921
000160 b3 9d 6b a1 99 aa 7c a6 fb 27 63 26 48 2d ac 28
       -0.005566 -0.01058 -0.05154 -0.02533 0.03117 0.02495 0.0825 0.0365
000170 3b 23 70 26 56 2c 3c ad bf 2f f8 a9 b0 29 61 9d
       0.01412 0.02515 0.06775 -0.0818 0.12103 -0.04663 0.04443 -0.005253
000180 69 a5 29 2a e8 a8 6a a2 30 a5 ab 27 0d 25 60 a2
       -0.02113 0.04813 -0.03833 -0.01253 -0.02026 0.02995 0.01973 -0.01245
000190 90 2a 99 ab 6c 9d e6 ac ef af 2a 9e 24 25 2a 95
       0.05127 -0.05936 -0.005295 -0.07654 -0.12396 -0.00602 0.02008 -0.001261
0001a0 20 98 e3 28 05 18 7a a3 0a 24 51 2a 6e ac 63 23
       -0.002014 0.03818 0.001963 -0.0146 0.01578 0.04935 -0.0692 0.01443
0001b0 6e aa c7 22 60 11 c6 21 c2 1e 04 a7 58 a5 3c b1
       -0.05023 0.01324 0.000656 0.01128 0.0066 -0.0274 -0.02087 -0.1636
0001c0 81 24 14 a8 92 29 fd 29 f7 a2 7a 1c ba 24 12 28
       0.0176 -0.03186 0.04352 0.04678 -0.0136 0.00437 0.01846 0.0318
0001d0 01 2a 58 a9 b8 1a 9f 22 99 a7 e8 25 1a ac 54 a2
       0.0469 -0.04175 0.00328 0.01293 -0.02968 0.02307 -0.0641 -0.01236
0001e0 3c a7 46 25 7b a8 69 a9 39 aa 80 9d 63 2a 65 97
       -0.02826 0.0206 -0.035 -0.04227 -0.0486 -0.00537 0.0499 -0.001805
0001f0 99 25 96 a8 a3 25 bd a8 61 27 a8 27 34 2a 11 ab
       0.02187 -0.03583 0.02202 -0.03702 0.02882 0.0299 0.04846 -0.0552

model/last_layer/BiasAdd/ReadVariableOp/resource f2 [31]
000000 1f a5 79 a8 9c 26 6a 96 df 19 64 1e 22 26 b3 a0
       -0.02 -0.03494 0.02582 -0.001566 0.002867 0.00624 0.02396 -0.00918
000010 f9 a8 9b 24 7a 1a ea a6 40 0f 47 22 a0 24 fc 26
       -0.03885 0.01799 0.003162 -0.02701 0.0004425 0.01226 0.01807 0.02728
000020 32 28 4f 21 54 a5 6a a7 e1 a2 0b 22 40 9c 0a 9d
       0.03278 0.01037 -0.02081 -0.02896 -0.013435 0.0118 -0.00415 -0.00492
000030 73 a5 5b 22 ff ab 95 22 fe 21 16 a6 3d a2
       -0.02129 0.01241 -0.06247 0.012856 0.0117 -0.02377 -0.012184

model/dense/MatMul f2 [256, 32]
000000 01 2f 6c 25 48 2d 68 26 55 2d 35 1f 87 ad 49 30
       0.10944 0.02118 0.0825 0.02502 0.0833 0.00704 -0.08636 0.1339
000010 13 ae c4 2d 1f b4 91 a4 77 b1 94 21 3f b1 92 2a
       -0.0949 0.0901 -0.2576 -0.01784 -0.1708 0.010895 -0.164 0.05133
000020 3b b0 3f 2f 04 02 3b a4 53 32 5e a5 9a 20 52 2c
       -0.1322 0.1132 3.076e-05 -0.01653 0.1976 -0.02097 0.00899 0.0675
000030 b3 b1 74 25 d4 32 4e 22 f9 28 a8 ad f2 2d cb a9
       -0.1781 0.0213 0.2134 0.012314 0.03885 -0.0884 0.0929 -0.04526
000040 32 a1 36 2c 20 b1 37 ab 48 27 ec 29 cd ad f2 b0
       -0.01015 0.0658 -0.1602 -0.05637 0.02844 0.04626 -0.09064 -0.1545
000050 f6 2e 69 2c ac 2f d2 a9 4f 37 47 b0 a4 27 ec a9
       0.10876 0.0689 0.1199 -0.04547 0.4568 -0.1337 0.02985 -0.04626
000060 d2 2c 8e a9 85 1e 73 2e a6 b0 f9 ad 01 b0 b8 b0
       0.0753 -0.0434 0.006367 0.10077 -0.1453 -0.0933 -0.1251 -0.1475
000070 94 28 f8 a5 e1 a9 84 a2 97 a7 10 9c 5f 25 37 99
       0.03577 -0.02332 -0.04593 -0.012726 -0.02965 -0.003967 0.02098 -0.002546
000080 36 2f d9 b1 24 ad ac a9 5a 23 35 23 b8 af 15 34
       0.1127 -0.1827 -0.0803 -0.0443 0.01436 0.01408 -0.1206 0.2551
000090 6b 9d be a3 33 30 1d a9 26 32 d4 2c 23 30 74 a9
       -0.00529 -0.01512 0.1312 -0.03995 0.1921 0.07544 0.1293 -0.0426
0000a0 9a 2c 25 2e 6e ac 05 ae d2 a9 7a 2d 9b a5 0e ad
       0.0719 0.096 -0.0692 -0.09406 -0.04547 0.0856 -0.0219 -0.079
0000b0 76 27 7f 2a a7 2d 8f ad 9a b4 4c 35 3f 0d 0f 9e
       0.02914 0.05075 0.0883 -0.08685 -0.2876 0.331 0.0003202 -0.005917
0000c0 97 ad 75 ac 2f 32 78 2e 54 a2 16 31 ba ae ec 2d
       -0.08734 -0.06964 0.1932 0.1011 -0.01236 0.1589 -0.1051 0.0925
0000d0 bc 97 93 26 19 af e9 af 34 ad d2 ac cb b1 61 2c
       -0.001888 0.02568 -0.1109 -0.1236 -0.0813 -0.0753 -0.181 0.0684
0000e0 c4 b1 94 26 43 af 3e 2b 16 9c d0 34 17 22 96 29
       -0.1802 0.0257 -0.11346 0.05658 -0.00399 0.3008 0.011894 0.04364
0000f0 4e 30 5a ad c7 a8 82 26 49 2a 4f aa 7c 32 70 b0
       0.1345 -0.0836 -0.03732 0.02542 0.0491 -0.0493 0.2026 -0.1387
000100 ee ae 62 33 a5 b4 91 2f 09 29 66 25 97 ac 26 31
       -0.1083 0.2307 -0.2903 0.1182 0.03934 0.02109 -0.0717 0.1609
000110 ed ac e5 ad 06 32 9a a9 65 1e 69 ac a9 a4 0c 2c
       -0.07697 -0.0921 0.1882 -0.04376 0.006245 -0.0689 -0.0182 0.06323
000120 90 af cf 2b ec a8 c0 24 36 25 e6 2a bd a6 33 14
       -0.11816 0.061 -0.03845 0.01855 0.02036 0.0539 -0.02632 0.001025
000130 b7 0f 5a ac 77 ae c4 2e 79 23 44 af 8b 22 67 b7
       0.0004709 -0.068 -0.101 0.1057 0.014595 -0.1135 0.01278 -0.4626
000140 b6 2a 07 30 44 aa 38 2c d8 26 8a ad 2f 2c cf 24
       0.05243 0.1259 -0.04895 0.0659 0.02673 -0.08655 0.06537 0.01878
000150 3c ae 33 af 43 31 1c 2f fa a9 b9 26 e4 a6 13 a1
       -0.0974 -0.1125 0.1644 0.1111 -0.0467 0.02626 -0.02692 -0.00991
000160 98 25 d9 ae 4a 2c 07 2b 80 ac c8 ab 50 90 75 b5
       0.02185 -0.107 0.067 0.0549 -0.0703 -0.0608 -0.0005264 -0.341
000170 88 13 ff a8 9b b6 16 b0 fb a9 1d a5 8f 1e 69 b1
       0.0009193 -0.03903 -0.4128 -0.1277 -0.04672 -0.01997 0.006405 -0.1691
000180 29 ac 9c 34 94 ac ba 26 bc ac 93 28 f6 2f 64 b0
       -0.065 0.288 -0.07153 0.02628 -0.074 0.03574 0.1244 -0.1372
000190 15 2d 33 21 89 2d 82 30 9f 25 04 b3 cd 28 aa a8
       0.0794 0.010155 0.0865 0.1409 0.02196 -0.2192 0.0375 -0.03644
0001a0 7e b1 4f a1 0c 33 31 27 64 ad 04 ad 0c 30 3c 2e
       -0.1716 -0.01037 0.2202 0.02809 -0.0842 -0.07837 0.1265 0.0974
0001b0 6d 25 05 24 60 b1 26 28 91 31 2d aa af a9 76 ab
       0.0212 0.0157 -0.168 0.0324 0.174 -0.04825 -0.0444 -0.0583
0001c0 23 a9 74 aa 67 a6 0c a4 1a a5 65 2e 83 a9 ee 2a
       -0.04013 -0.0504 -0.02501 -0.01581 -0.01993 0.0999 -0.04306 0.05414
0001d0 3e a2 84 b6 bc 2e 03 1b cd ac e2 2b b1 33 e7 ac
       -0.01219 -0.4072 0.1052 0.003424 -0.075 0.06158 0.2404 -0.0766
0001e0 40 14 4e 26 b0 b3 6b b0 9f a8 c3 31 70 29 cf 2e
       0.001038 0.02463 -0.2402 -0.1381 -0.0361 0.18 0.04248 0.1064
0001f0 45 a5 1f b1 17 b1 65 26 5b 21 e5 ae 43 30 2f b0
       -0.02058 -0.16 -0.159 0.02498 0.01046 -0.1077 0.1332 -0.1307

model/last_layer/MatMul f2 [31, 256]
000000 c9 28 15 2c d0 28 62 2b 7a a5 91 9f f8 a8 c7 26
       0.03738 0.0638 0.0376 0.05768 -0.0214 -0.00739 -0.03882 0.02647
000010 9e 2f f8 2c 7d 23 95 ac fc 28 bb 29 88 ae ea ab
       0.119 0.07764 0.014626 -0.0716 0.03894 0.04477 -0.10205 -0.06183
000020 8d 2a 41 ab 7b 22 f4 2d 8e 24 9e ad e0 26 45 a8
       0.05118 -0.05667 0.01266 0.093 0.01779 -0.08777 0.02686 -0.03336
000030 40 2c 9b af 0e 30 0b 2c ff ae 99 2d 83 ad 98 2c
       0.0664 -0.11884 0.1267 0.0632 -0.1093 0.08746 -0.0861 0.0718
000040 f5 ac 9b 2e 8e 30 0e 30 22 ae 94 2c ba 2a e2 ab
       -0.07745 0.1032 0.1423 0.1267 -0.0958 0.07153 0.05255 -0.06158
000050 8d a2 23 29 6f ab ad 1e 3d 29 e4 ab 39 ab be ac
       -0.012794 0.04013 -0.05807 0.00652 0.04092 -0.06165 -0.05643 -0.0741
000060 e2 2a f8 1d a3 a4 ba ad 8c 2e 7f 28 c7 ac 55 ac
       0.05377 0.00583 -0.01811 -0.0895 0.1023 0.03513 -0.07465 -0.0677
000070 24 ac d1 2b 4a 26 3b a9 bd a9 0d aa bf 2c cd 28
       -0.0647 0.06107 0.02457 -0.04086 -0.04483 -0.04727 0.07416 0.0375
000080 48 ae de 2c 49 2c 08 ad 52 af 1a 2c bc a7 b4 ab
       -0.09814 0.07605 0.06696 -0.0786 -0.1144 0.0641 -0.03021 -0.06018
000090 07 2a 7d 29 87 af c0 27 d1 2e 9f a7 f5 2d 3c 9d
       0.0471 0.04288 -0.1176 0.03027 0.1065 -0.02977 0.0931 -0.00511
0000a0 f0 ad 26 2f d1 aa 44 24 97 21 50 a9 43 b0 43 af
       -0.0928 0.1117 -0.05325 0.01666 0.01092 -0.0415 -0.1332 -0.11346
0000b0 ab 2a d2 aa ab a0 75 ab 59 a9 66 2c 24 ab 1f 2e
       0.0521 -0.05328 -0.00912 -0.05826 -0.04178 0.0687 -0.0558 0.09564
0000c0 e6 a9 92 aa af 2d 8a af 24 2b 10 a5 84 ad e1 28
       -0.04608 -0.05133 0.0888 -0.1178 0.0558 -0.01978 -0.0862 0.03812
0000d0 f3 28 a0 2c f8 2d 49 23 66 ad e1 2e 17 a5 c6 ab
       0.03867 0.07227 0.09326 0.01423 -0.08435 0.1075 -0.01988 -0.06073
0000e0 11 a7 9a 26 90 2d 54 1c 1f 24 06 a9 10 2b d3 2f
       -0.0276 0.02579 0.0869 0.004227 0.0161 -0.03925 0.05518 0.12225
0000f0 cc 1c 67 26 c4 28 cd 28 71 26 de a9 14 21 c7 2e
       0.004684 0.02501 0.03723 0.0375 0.02516 -0.04584 0.00992 0.1059
000100 7d 2c 77 a2 84 aa 6e 98 66 aa 0f a5 36 2f 3a a9
       0.0701 -0.01263 -0.0509 -0.002163 -0.05 -0.01976 0.1127 -0.04083
000110 fc a8 f7 ab 8a 25 e6 af 67 a6 d5 ad b3 a7 c0 ac
       -0.03894 -0.06223 0.02164 -0.1234 -0.02501 -0.0911 -0.03008 -0.0742
000120 4a 2e e8 a8 39 2e cd 29 75 2c 9c aa 22 9c fc ad
       0.09827 -0.03833 0.0972 0.04532 0.06964 -0.05164 -0.004036 -0.0935
000130 79 a9 46 a6 1c ac 15 2e 52 2d 28 a3 8d 2d 31 26
       -0.04276 -0.0245 -0.0642 0.09503 0.0831 -0.01398 0.08673 0.02419
000140 8d 2c 6b a4 75 2a 49 2f b8 ac fe a8 b6 ab 9a 2a
       0.0711 -0.01726 0.05045 0.11383 -0.0737 -0.039 -0.06024 0.05157
000150 54 af 56 ac 56 20 6f ae 4a 20 82 a2 8f aa 68 29
       -0.1145 -0.06775 0.00847 -0.1005 0.00838 -0.01271 -0.05124 0.04224
000160 cf 2c 4d 2d 3d 2d 52 a0 f4 ac 11 2d 5d a1 86 ab
       0.07513 0.0828 0.08185 -0.00844 -0.0774 0.07916 -0.010475 -0.05878
000170 39 a9 f3 a4 e5 ac e2 24 eb ad 1d a3 e3 a8 01 a0
       -0.0408 -0.01933 -0.0765 0.01907 -0.09247 -0.01389 -0.03818 -0.00782
000180 21 2f 53 a1 37 a0 8a ae 7a ad 3c ad 24 a8 d2 a9
       0.1114 -0.0104 -0.00823 -0.1022 -0.0856 -0.0818 -0.03235 -0.04547
000190 f0 ad 97 ad 28 27 2b 2f 78 2b 81 28 50 a8 bf 29
       -0.0928 -0.08734 0.02795 0.112 0.05835 0.0352 -0.0337 0.0449
0001a0 2c a5 6d 25 5c 2b df 2d df a9 47 aa 2d 26 59 2e
       -0.0202 0.0212 0.0575 0.09174 -0.04587 -0.04904 0.02412 0.0992
0001b0 e0 2d 2c aa 0b 2e 09 ac 8d 25 32 ae 31 2d dc 2d
       0.0918 -0.04822 0.0944 -0.06305 0.02168 -0.0968 0.0811 0.09155
0001c0 53 25 cb 27 ec a8 5f ae 3d 26 4c 2f c8 a5 3e a3
       0.0208 0.03044 -0.03845 -0.09955 0.02437 0.114 -0.02258 -0.014145
0001d0 90 20 d1 23 11 29 9e 2b 0a ae 98 af 4d 2c bf ae
       0.00891 0.01527 0.03958 0.0595 -0.09436 -0.11865 0.0672 -0.1054
0001e0 14 a2 2b aa f1 28 00 a6 8f 2c 99 ab ed 2a 8c a4
       -0.01187 -0.0482 0.0386 -0.02344 0.0712 -0.05936 0.0541 -0.01776
0001f0 5d 29 15 ac 95 1f c9 2d 8e a9 15 a1 80 ae ce 1f
       0.0419 -0.0638 0.007404 0.0904 -0.0434 -0.009926 -0.10156 0.00762

model/time_distributed_10/batch_normalization_2/FusedBatchNormV3 f2 [8]
000000 83 a4 03 a1 1a 9b 01 a0 f0 9f 84 a5 28 a8 cf 88
       -0.01762 -0.00979 -0.003468 -0.00782 -0.00775 -0.02155 -0.03247 -0.0001467

model/time_distributed_10/batch_normalization_2/FusedBatchNormV31 f2 [8]
000000 31 31 40 2f f6 a8 9c a5 1a 32 15 34 e1 34 e4 21
       0.1622 0.1133 -0.03876 -0.02191 0.1907 0.2551 0.305 0.011505

model/time_distributed_13/batch_normalization_3/FusedBatchNormV3 f2 [16]
000000 f3 ae 2b b3 9f 18 bb b0 15 ab 4b 25 3d a5 27 b3
       -0.1086 -0.224 0.002256 -0.1478 -0.05533 0.02068 -0.02046 -0.2235
000010 8b ac ce 1d ae ac 23 a4 50 ad 2c 95 ea ad 11 23
       -0.071 0.00567 -0.0731 -0.01616 -0.083 -0.001263 -0.0924 0.0138

model/time_distributed_13/batch_normalization_3/FusedBatchNormV31 f2 [16]
000000 9d 3f fd 42 f7 aa cb 3f 3e 3d 28 b7 72 41 d6 3f
       1.903 3.494 -0.0544 1.948 1.311 -0.4473 2.723 1.959
000010 5f 43 9d 2c 31 40 36 3f e7 42 e7 ad 7e 41 71 43
       3.686 0.0721 2.096 1.803 3.451 -0.0922 2.746 3.72

model/time_distributed_2/batch_normalization/FusedBatchNormV3 f2 [8]
000000 3c 20 0e a0 26 9f e1 a5 f9 ac ee 1b a1 b0 a1 21
       0.00827 -0.00792 -0.00698 -0.02296 -0.0777 0.003872 -0.1447 0.010994

model/time_distributed_2/batch_normalization/FusedBatchNormV31 f2 [8]
000000 59 a3 f6 a8 ca 93 5e 2b 03 30 0c a3 30 2f 3b 91
       -0.01435 -0.03876 -0.000951 0.05756 0.1254 -0.01376 0.1123 -0.0006385

model/time_distributed_5/batch_normalization_1/FusedBatchNormV3 f2 [16]
000000 70 25 2b ae ac b4 80 b5 21 ba 8d b5 f2 b2 99 b6
       0.02124 -0.0964 -0.292 -0.3438 -0.766 -0.347 -0.217 -0.4124
000010 80 b5 5a b1 71 b8 28 b8 96 27 ff 9b ac b9 52 b4
       -0.3438 -0.1672 -0.555 -0.5195 0.02963 -0.003904 -0.709 -0.27

model/time_distributed_5/batch_normalization_1/FusedBatchNormV31 f2 [16]
000000 f9 44 2e 43 5b 43 80 41 7f 42 0c 43 d9 42 ee 42
       4.973 3.59 3.678 2.75 3.248 3.523 3.424 3.465
000010 05 42 56 41 52 43 30 42 ad 44 b9 45 4f 42 00 44
       3.01 2.668 3.66 3.094 4.676 5.723 3.154 4.0

model/lstm/while/lstm_cell_4/MatMul_4 f2 [32, 32]
000000 2b 29 b3 ae 16 b7 ef b8 11 31 60 39 38 30 b2 2d
       0.04037 -0.1047 -0.4429 -0.6167 0.1583 0.672 0.1318 0.089
000010 ad b7 f5 ae 60 b9 e5 37 b8 b6 b0 ac 55 33 e4 b3
       -0.4797 -0.1087 -0.672 0.4934 -0.42 -0.07324 0.2291 -0.2466
000020 be af cb a6 bb 32 e4 b0 e2 b5 fc b7 31 b7 4c 32
       -0.121 -0.02654 0.2103 -0.1528 -0.3677 -0.499 -0.4495 0.1968
000030 9d 31 3a 18 98 b1 a3 b9 70 a9 fa 30 a4 33 8c 36
       0.1754 0.002064 -0.1748 -0.7046 -0.04248 0.1555 0.2388 0.4092
000040 dd b6 a6 b4 0b 2d 89 ab 69 2a 9c 31 72 b4 f3 b5
       -0.429 -0.2905 0.0788 -0.05887 0.05008 0.1753 -0.2778 -0.3718
000050 84 ae d3 b3 5e b8 7c 29 3f b7 48 33 f8 37 4a b4
       -0.1018 -0.2445 -0.546 0.04285 -0.453 0.2275 0.498 -0.268
000060 88 34 5d ae 2f 38 c3 ac 53 29 0e 34 ff af 2d 33
       0.2832 -0.0994 0.523 -0.0744 0.0416 0.2534 -0.12494 0.2242
000070 d4 2f 8c aa d4 b1 69 31 4b 35 9e b1 ea 35 2d 32
       0.1223 -0.05115 -0.1821 0.1691 0.3308 -0.1755 0.3696 0.193
000080 cb b8 71 3a 23 a9 6d bb ea b0 1f 31 49 34 23 b0
       -0.599 0.805 -0.04013 -0.928 -0.1536 0.16 0.2678 -0.1293
000090 7a 36 ec 35 eb ae 9b 37 6f 32 fd 30 fd b9 cd bb
       0.4048 0.37 -0.1081 0.4753 0.201 0.1559 -0.7485 -0.975
0000a0 14 2f 6b 32 55 31 ad 2b eb a0 e8 35 47 36 ae b2
       0.1106 0.2006 0.1666 0.05997 -0.009605 0.3691 0.3923 -0.2087
0000b0 ec 34 b6 28 a2 25 70 b0 16 b2 0f b7 22 b7 8d 2e
       0.3076 0.0368 0.022 -0.1387 -0.1902 -0.4412 -0.4458 0.10236
0000c0 05 14 3a 24 1f ae 88 1b eb a4 4b 2d df ad b6 a1
       0.000981 0.01651 -0.09564 0.003677 -0.01921 0.0827 -0.09174 -0.011154
0000d0 48 ae dd ab 81 1e e3 ac 7a 2a 3d a4 68 a4 15 a8
       -0.09814 -0.06143 0.00635 -0.07635 0.0506 -0.01656 -0.01721 -0.0319
0000e0 2d 27 9e 9d 0a ae f3 ad 57 27 38 a4 84 2d 5d 2d
       0.02803 -0.005486 -0.09436 -0.09296 0.02867 -0.01648 0.0862 0.0838
0000f0 5a 2a f3 27 35 21 0d 25 3d 2d 46 28 04 ad a5 9c
       0.04962 0.03105 0.01017 0.01973 0.08185 0.0334 -0.07837 -0.004536
000100 23 b4 33 38 9a b2 36 b8 95 33 4d b8 cd 2d 87 be
       -0.2585 0.525 -0.2063 -0.5264 0.2369 -0.5376 0.09064 -1.632
000110 af b9 1e af 8f 33 9f 31 53 b3 3d 3b ce 32 f2 34
       -0.7104 -0.1112 0.2362 0.1757 -0.2289 0.905 0.2126 0.309
000120 9f b4 47 b9 d7 37 c1 b1 fe 9c 77 b4 8b 2f 40 32
       -0.2888 -0.6597 0.49 -0.1798 -0.004875 -0.279 0.11786 0.1953
000130 2b 36 0e b7 48 24 2a b9 3d b4 3f 38 e9 b5 67 2e
       0.3855 -0.441 0.01672 -0.6455 -0.265 0.531 -0.3694 0.10004
000140 30 b2 a1 b1 23 32 33 ba a4 3c 70 24 63 b4 ca b5
       -0.1934 -0.1759 0.1918 -0.775 1.16 0.01733 -0.2742 -0.3618
000150 53 b7 5b b8 21 3c 8b 3e 85 34 6a 35 ab bc f0 b1
       -0.4578 -0.5444 1.032 1.636 0.2825 0.3384 -1.167 -0.1855
000160 bc 39 27 bb ed b8 20 31 11 28 10 b8 36 34 1e 37
       0.717 -0.894 -0.6157 0.1602 0.03177 -0.508 0.2632 0.4448
000170 a6 a9 95 b8 20 bd f0 38 13 37 c7 38 94 36 b1 2d
       -0.04413 -0.5728 -1.281 0.617 0.4421 0.597 0.4111 0.0889
000180 6b b0 8d 30 a6 b3 2d b9 2e 36 06 3c 76 b1 07 39
       -0.1381 0.1422 -0.239 -0.647 0.3862 1.006 -0.1707 0.6284
000190 f2 b5 ec b1 4e b6 1b 37 54 a4 77 35 21 a9 26 2d
       -0.3716 -0.185 -0.394 0.444 -0.0169 0.3416 -0.04007 0.08044
0001a0 8d 35 b8 b0 91 ae b0 b1 61 32 a7 34 df b2 79 af
       0.347 -0.1475 -0.1026 -0.1777 0.1993 0.2908 -0.2147 -0.11676
0001b0 57 39 45 b4 e9 b9 09 b7 92 3b d6 b7 03 b3 3c 33
       0.6675 -0.2668 -0.739 -0.4397 0.9463 -0.4897 -0.2191 0.2261
0001c0 62 b3 32 36 f1 36 05 b7 a3 39 e7 ba 98 39 b8 b9
       -0.2307 0.3872 0.4338 -0.4387 0.7046 -0.863 0.699 -0.715
0001d0 29 34 2a 37 db b9 9d 36 3d 2a 26 ad 00 39 5a b8
       0.26 0.4478 -0.732 0.4133 0.04874 -0.08044 0.625 -0.544
0001e0 42 3c f6 b7 ea 22 5f bb 20 b7 ad b9 0a 39 96 30
       1.064 -0.4976 0.013504 -0.9214 -0.4453 -0.7095 0.63 0.1433
0001f0 86 2f a4 b6 8e 31 97 b8 cd b4 44 ba 40 b4 e7 39
       0.11755 -0.415 0.1736 -0.5737 -0.3 -0.783 -0.2656 0.738

model/lstm/while/lstm_cell_4/MatMul_5 f2 [32, 32]
000000 89 2e c3 2e 1c a0 5a 34 48 ab 53 a7 6d b6 fd 37
       0.1021 0.10565 -0.008026 0.272 -0.0569 -0.02861 -0.4016 0.4993
000010 bf 31 93 32 02 2d 57 36 a4 39 e6 af 8f 36 e5 39
       0.1796 0.2054 0.07825 0.3962 0.705 -0.1234 0.41 0.737
000020 5e b4 67 29 ac 2b 17 33 26 33 df 37 70 2c c2 a0
       -0.273 0.0422 0.05994 0.2216 0.2234 0.492 0.06934 -0.00929
000030 97 37 58 b3 2c b6 f8 35 9c 33 d2 b4 5d 38 53 b7
       0.4744 -0.2295 -0.3857 0.373 0.2378 -0.3013 0.5454 -0.4578
000040 47 b1 24 33 f1 33 12 ac 48 28 f7 b6 c6 30 a6 2f
       -0.1649 0.2231 0.2482 -0.0636 0.03345 -0.4353 0.1492 0.1195
000050 2e b8 be 32 bb 34 50 b4 de b5 05 b6 18 36 fa b1
       -0.5225 0.2107 0.2957 -0.2695 -0.3667 -0.3762 0.3809 -0.1868
000060 8c 30 e1 b4 fa 2e 8b 30 23 33 04 28 21 b6 51 38
       0.1421 -0.305 0.109 0.142 0.223 0.03137 -0.383 0.5396
000070 fe b0 f4 b4 ab 32 74 31 f1 b2 c2 36 56 33 bf af
       -0.156 -0.3096 0.2084 0.1704 -0.2169 0.4224 0.2292 -0.12103
000080 c0 35 a5 3a d5 32 fc 2b b5 38 c7 ae 99 a9 3e 34
       0.3594 0.8306 0.2135 0.06238 0.5884 -0.1059 -0.04373 0.2651
000090 a5 22 ce af 1f b0 be ad f4 b6 01 31 58 ae a5 30
       0.01298 -0.12195 -0.1288 -0.0897 -0.4346 0.1564 -0.0991 0.1451
0000a0 87 31 70 2f 88 b3 9d b9 c5 b2 3e 2f 2f b4 03 b7
       0.1727 0.1162 -0.2354 -0.7017 -0.2115 0.11316 -0.2615 -0.4382
0000b0 67 31 d1 36 d4 38 2f ac 70 ad 43 b6 84 af 7d b2
       0.1688 0.426 0.6035 -0.06537 -0.08496 -0.3914 -0.11743 -0.2028
0000c0 0d 36 92 2d 57 9c 64 31 84 b1 23 2c 1c b3 0b 25
       0.3782 0.08704 -0.00424 0.1685 -0.1724 0.06464 -0.2222 0.0197
0000d0 c1 2f c6 32 6c 36 3e 96 b9 a2 c8 a7 ff 24 21 26
       0.12115 0.2117 0.4014 -0.001524 -0.01313 -0.0304 0.01952 0.02394
0000e0 3f 28 15 33 18 b5 47 a9 b1 31 c9 32 0c b2 f5 2b
       0.03317 0.2213 -0.3184 -0.04123 0.1779 0.212 -0.189 0.06216
0000f0 3f 2c 5f 2f 1d 30 1e 2f 9c ae 70 31 70 b1 0d ae
       0.06635 0.1152 0.1285 0.1112 -0.1033 0.1699 -0.1699 -0.09454
000100 3b b4 cd 3a 68 a9 72 30 a5 aa 9f 34 2d a5 1e a9
       -0.2644 0.85 -0.04224 0.1389 -0.0519 0.2888 -0.02022 -0.03998
000110 50 b4 86 35 e6 b8 e7 27 97 3a c1 36 79 b6 d1 b6
       -0.2695 0.3452 -0.6123 0.03087 0.8237 0.422 -0.4045 -0.426
000120 fb b8 22 34 cb 38 32 30 95 32 7f 34 ac b6 1e 34
       -0.6226 0.2583 0.599 0.1311 0.2057 0.281 -0.417 0.2573
000130 42 30 9c 36 fb 38 86 ac da b4 34 37 98 b4 2b 22
       0.133 0.413 0.6226 -0.0707 -0.3032 0.4502 -0.287 0.01205
000140 f5 2a 58 b1 0f b4 fc b0 9d ae b9 b2 51 b8 d9 2a
       0.05435 -0.167 -0.2537 -0.1558 -0.10333 -0.2101 -0.5396 0.0535
000150 03 b9 bb 33 99 38 d4 ac e1 33 28 31 7a a8 9d 1e
       -0.6265 0.2416 0.5747 -0.07544 0.2462 0.1611 -0.03497 0.00646
000160 9a 39 58 b8 3d 35 f0 b2 f6 2e 7a bb 40 2c bf 3a
       0.7 -0.543 0.3274 -0.2168 0.10876 -0.9346 0.0664 0.8433
000170 d1 38 1d 29 93 ba 07 30 1b af 4b b6 28 38 42 2b
       0.602 0.03995 -0.822 0.1259 -0.111 -0.3933 0.5195 0.0567
000180 e2 2b 4b 30 6d ac 21 35 44 2c 6b b5 5d 35 a9 34
       0.06158 0.1342 -0.06915 0.3206 0.06665 -0.3386 0.3352 0.2913
000190 dd 2c 11 31 eb a7 6f b7 ef 2b 58 35 8c 2f 8b 35
       0.076 0.1583 -0.03093 -0.4646 0.06198 0.334 0.1179 0.3464
0001a0 b7 27 38 34 25 2b a8 32 83 30 e2 33 20 25 64 2d
       0.03014 0.2637 0.05582 0.208 0.141 0.2463 0.02002 0.0842
0001b0 8d 2d fd 35 5c 30 ad 2b 15 30 5c af 8f b4 cf a4
       0.08673 0.3743 0.1362 0.05997 0.1276 -0.115 -0.285 -0.01878
0001c0 00 af c2 b7 dd 2b 60 32 96 34 b6 b9 2b a9 57 34
       -0.1094 -0.4849 0.06143 0.1992 0.2866 -0.714 -0.04037 0.2712
0001d0 24 b6 a5 38 ba 38 01 37 a4 af 39 2c 33 3c 74 2c
       -0.3838 0.5806 0.591 0.4377 -0.1194 0.066 1.05 0.0696
0001e0 98 b8 e8 33 f9 ad e9 36 2a 38 54 a9 01 2b 2a bc
       -0.574 0.2471 -0.0933 0.432 0.5205 -0.04163 0.05472 -1.041
0001f0 73 33 de 31 f5 35 ee a1 19 b4 e0 b9 d0 a7 cf bb
       0.2328 0.1833 0.3723 -0.01158 -0.256 -0.7344 -0.03052 -0.976

model/lstm/while/lstm_cell_4/MatMul_6 f2 [32, 32]
000000 ff 2a b4 35 da b3 0c 34 22 27 88 ae 44 ae b4 b6
       0.05466 0.3564 -0.2454 0.253 0.02786 -0.10205 -0.0979 -0.419
000010 d2 37 9d b5 e3 33 89 a6 02 35 d1 ae 98 b4 f4 2e
       0.4888 -0.3508 0.2465 -0.02553 0.313 -0.1065 -0.287 0.10864
000020 f0 33 67 38 1e 34 09 34 5c 39 8b 36 9e 1b 8a b4
       0.248 0.5503 0.2573 0.2522 0.67 0.409 0.00372 -0.2837
000030 cc 38 9a ad 43 b0 e4 34 e0 2e b8 34 a9 ac be 1b
       0.5996 -0.0875 -0.1332 0.3057 0.1074 0.295 -0.0728 0.00378
000040 07 a3 77 30 ee 30 e4 b6 cb b0 77 b7 f7 36 35 30
       -0.013725 0.1395 0.154 -0.4307 -0.1498 -0.4666 0.4353 0.1315
000050 cc b2 3b 38 79 36 36 b4 56 b4 6b 2c 8f 33 25 b3
       -0.2124 0.529 0.4045 -0.2632 -0.271 0.06903 0.2362 -0.2233
000060 73 35 c4 b4 e6 b0 bb b6 64 33 7b 2c 3a b3 d5 b1
       0.3406 -0.2979 -0.1531 -0.4207 0.231 0.07 -0.2258 -0.1823
000070 78 30 05 b6 bd 29 18 b1 d9 ba 74 21 44 b1 73 30
       0.1396 -0.3762 0.04483 -0.1592 -0.856 0.01065 -0.1646 0.139
000080 3b 2f 87 2e 10 a9 eb 23 10 30 4a 2f d4 ac 19 b7
       0.113 0.102 -0.03955 0.015465 0.127 0.1139 -0.07544 -0.4436
000090 b0 b0 02 38 82 ad 54 34 06 23 e6 35 7f 2e 06 3c
       -0.1465 0.501 -0.08606 0.2705 0.01372 0.3687 0.1015 1.006
0000a0 73 b0 e8 2f 6a af 1e b8 24 b6 e6 aa 9b b4 33 ac
       -0.139 0.12354 -0.11584 -0.5146 -0.3838 -0.0539 -0.2878 -0.0656
0000b0 d5 30 49 39 9b 39 c7 30 83 14 3e b5 35 29 ab 32
       0.151 0.6606 0.7007 0.1493 0.0011015 -0.3276 0.04068 0.2084
0000c0 37 2e cd 30 5f 28 e8 2b c8 b2 10 2f 15 b7 e6 2d
       0.0971 0.15 0.03415 0.06177 -0.2119 0.11035 -0.4426 0.09216
0000d0 e7 a6 1e 2a 4c 36 ba 30 fb 2f fb 1e 33 ac 16 2d
       -0.02696 0.0478 0.3936 0.1477 0.1247 0.006817 -0.0656 0.07947
0000e0 11 ae d8 23 ad b5 68 b3 69 95 f4 31 72 b4 8a 1a
       -0.0948 0.01532 -0.3547 -0.2314 -0.001321 0.186 -0.2778 0.003193
0000f0 a5 32 7c 2b 38 36 99 2d 39 27 8b 34 91 1f 59 ad
       0.2076 0.05847 0.3887 0.08746 0.02821 0.284 0.00739 -0.08356
000100 08 2c 98 b3 00 b8 60 b4 4f 33 41 31 dd b3 27 b9
       0.063 -0.2373 -0.5 -0.2734 0.2284 0.1642 -0.2457 -0.644
000110 76 32 50 bb 60 3a db 2c cf 24 a6 b5 4c b0 2a 37
       0.2019 -0.914 0.797 0.07587 0.01878 -0.353 -0.1343 0.4478
000120 a6 9e 9e b5 9a b6 03 b1 d4 2d 4e b2 31 32 66 2e
       -0.006493 -0.351 -0.4126 -0.1566 0.09106 -0.197 0.1935 0.1
000130 e6 ac 16 31 d4 a8 7f 35 bc 30 e8 2d c1 35 29 30
       -0.07654 0.1589 -0.03772 0.3435 0.148 0.0923 0.3596 0.13
000140 a5 ab 4d 27 dc b1 51 2b 1a 2c d2 ab 72 1a 12 b0
       -0.05972 0.02852 -0.1831 0.05716 0.0641 -0.0611 0.003147 -0.1272
000150 bd 34 62 33 78 b0 50 38 ed 31 9d ac 51 35 87 b1
       0.2961 0.2307 -0.1396 0.539 0.1852 -0.0721 0.3323 -0.1727
000160 13 b1 47 af 69 37 e6 29 23 30 a8 b1 0e b8 90 b4
       -0.1586 -0.1137 0.4631 0.04608 0.1293 -0.1768 -0.507 -0.2852
000170 4c 35 94 bb 14 22 2f a8 88 34 09 a4 50 b6 9b a8
       0.331 -0.9473 0.01187 -0.03268 0.2832 -0.01576 -0.3945 -0.03598
000180 e5 2b 17 ac b0 b0 24 a9 34 b8 60 34 6d 31 02 2f
       0.06168 -0.0639 -0.1465 -0.04016 -0.5254 0.2734 0.1696 0.1095
000190 26 b0 cc ae 99 b1 1b b2 38 2e 78 2a 45 31 1f b2
       -0.1296 -0.1062 -0.1749 -0.1908 0.09717 0.05054 0.1647 -0.1913
0001a0 51 9c 33 36 4a 2c e6 23 fb 27 ec b4 3f 31 32 29
       -0.004215 0.3875 0.067 0.01543 0.03117 -0.3076 0.164 0.0406
0001b0 b6 b4 42 35 25 b0 8e b1 5e b0 9d 32 af b7 30 a2
       -0.2944 0.3286 -0.1295 -0.1736 -0.1365 0.2067 -0.4802 -0.012085
0001c0 47 34 25 3c 1a 2a 38 b4 19 b1 55 30 6e ac 19 ba
       0.2673 1.036 0.04767 -0.2637 -0.1593 0.1354 -0.0692 -0.762
0001d0 2a b2 30 b4 0a 34 03 2e 77 27 82 2d d7 b1 2e ad
       -0.1926 -0.2617 0.2524 0.09393 0.02916 0.08606 -0.1825 -0.08093
0001e0 20 26 9e b5 2f b6 1f b4 73 31 15 36 90 33 7f ad
       0.02393 -0.351 -0.3865 -0.2576 0.1703 0.3801 0.2363 -0.0859
0001f0 0e b5 23 32 04 3c 6b 2f 8f af a3 af b4 b5 01 b5
       -0.316 0.1918 1.004 0.1159 -0.1181 -0.1193 -0.3564 -0.3127

model/lstm/while/lstm_cell_4/MatMul_7 f2 [32, 32]
000000 4a 39 71 38 8d 38 90 b9 db af 95 b1 c5 b1 48 32
       0.661 0.555 0.569 -0.6953 -0.12274 -0.1744 -0.1803 0.1963
000010 bb b3 61 a4 aa 2e 8e b7 27 35 cf a7 47 2b 31 37
       -0.2416 -0.0171 0.1041 -0.4722 0.322 -0.0305 0.05685 0.4495
000020 45 b3 a4 2a eb a8 b9 19 d2 2e 88 a7 b4 bc d3 34
       -0.2272 0.05188 -0.03842 0.002794 0.10657 -0.02942 -1.176 0.3015
000030 12 37 87 33 0d 2d e9 b0 f5 ab 26 39 8e 38 21 b5
       0.442 0.2352 0.0789 -0.1534 -0.06216 0.6436 0.5693 -0.3206
000040 8e b0 18 38 3d b1 10 b8 40 b5 f9 2f 93 b3 ba b3
       -0.1423 0.5117 -0.1637 -0.508 -0.3281 0.1246 -0.2367 -0.2415
000050 04 b2 57 b6 0f b9 5a a9 2d ba 15 b3 c5 b8 ee b1
       -0.188 -0.3962 -0.6323 -0.0418 -0.772 -0.2213 -0.596 -0.1853
000060 17 2c 0b b4 a4 38 f8 b1 fc 35 b2 ac 0d ba 49 33
       0.0639 -0.2527 0.58 -0.1865 0.374 -0.07336 -0.7563 0.2277
000070 6a b4 d5 35 de 38 f0 ac e2 ae 67 2f 44 b5 a2 ab
       -0.276 0.3645 0.6084 -0.07715 -0.10754 0.11566 -0.329 -0.05963
000080 75 3c 32 b4 44 3c 14 b9 18 3e 27 b3 99 b6 c8 b8
       1.114 -0.2622 1.066 -0.635 1.523 -0.2235 -0.4124 -0.5977
000090 14 37 f0 3a f2 b6 36 3d 24 34 e5 38 ee ac 69 35
       0.4424 0.867 -0.434 1.303 0.2588 0.612 -0.077 0.3381
0000a0 4f 33 8c 39 af b6 fa 33 6e 30 95 3b 0f 39 c8 b5
       0.2284 0.6934 -0.4177 0.2493 0.1384 0.9478 0.6323 -0.3613
0000b0 fe 2e 88 b0 07 bc f7 39 8a 36 18 b9 e6 b7 28 30
       0.10925 -0.1416 -1.007 0.7456 0.4087 -0.6367 -0.4937 0.1299
0000c0 fd b9 07 b7 39 37 a6 3e 88 2d 97 3b 00 3d a2 bc
       -0.7485 -0.4392 0.4514 1.662 0.0864 0.9487 1.25 -1.158
0000d0 66 b3 0e 39 c6 ba 90 b0 e5 ba fb 3d 35 b4 75 ac
       -0.2312 0.632 -0.8467 -0.1426 -0.862 1.495 -0.263 -0.06964
0000e0 7d 3a b1 38 cc 39 67 ac 08 b9 3e bb d1 34 43 32
       0.811 0.5864 0.7246 -0.0688 -0.629 -0.9053 0.301 0.1957
0000f0 b4 35 ad b1 dc bd 75 b5 e8 2f 22 37 45 30 1f 3c
       0.3564 -0.1774 -1.465 -0.341 0.12354 0.4458 0.1334 1.03
000100 3f b9 f1 37 98 34 2f 34 46 b9 a3 bb fb 2f 61 b6
       -0.656 0.4963 0.287 0.2615 -0.659 -0.9546 0.1247 -0.3987
000110 75 ae 0c 38 37 ba 46 b8 50 3c 08 37 a4 ba 20 3f
       -0.1009 0.506 -0.777 -0.534 1.078 0.4395 -0.83 1.781
000120 a7 39 f4 b6 c9 ae e0 ba 48 b8 65 b3 65 38 a7 27
       0.7065 -0.4346 -0.106 -0.8594 -0.535 -0.2311 0.5493 0.02989
000130 76 38 79 b6 55 b4 56 b3 83 b4 9d 2f 51 b5 50 3b
       0.5576 -0.4045 -0.2708 -0.2292 -0.282 0.11896 -0.3323 0.914
000140 45 bc cb 36 0a 36 fb ad a4 b6 f8 bc af 34 b1 b4
       -1.067 0.4246 0.3774 -0.09344 -0.415 -1.242 0.2927 -0.2932
000150 02 36 ef 32 f1 b5 c8 28 97 34 be b5 5a 33 36 39
       0.3755 0.2167 -0.3713 0.03735 0.2869 -0.359 0.2297 0.6514
000160 68 37 fd bc d1 ad 59 b2 f0 b4 9c b7 18 34 88 2e
       0.463 -1.247 -0.0909 -0.1984 -0.3086 -0.4756 0.2559 0.10205
000170 2a 38 14 b5 be b3 a7 2b 29 b9 d0 b1 61 b2 a1 38
       0.5205 -0.3174 -0.242 0.05978 -0.645 -0.1816 -0.1993 0.5786
000180 af 2f 53 b1 f8 ac 34 38 a5 20 11 ac bd 2c 23 38
       0.12006 -0.1664 -0.07764 0.5254 0.00907 -0.06354 0.07404 0.517
000190 75 b3 0b 31 6e a7 04 b8 6d 32 29 2e d9 34 13 38
       -0.233 0.1576 -0.02902 -0.502 0.2008 0.09625 0.303 0.5093
0001a0 32 b1 7f 34 44 b3 e1 34 a9 34 59 2a 9b b9 14 33
       -0.1624 0.281 -0.227 0.305 0.2913 0.0496 -0.7007 0.2212
0001b0 60 23 ce 34 1e 1c 80 30 46 29 f2 31 b4 af 51 1c
       0.014404 0.3003 0.00402 0.1406 0.0412 0.1858 -0.12036 0.004215
0001c0 a2 b4 3f bb 47 bb 0d b8 1e 29 68 2c 1e b4 ed 3b
       -0.2896 -0.906 -0.9097 -0.5063 0.03998 0.06885 -0.2573 0.9907
0001d0 cd b5 ed ac d4 38 0c ac 79 af 91 30 c1 38 d1 b8
       -0.3625 -0.07697 0.6035 -0.06323 -0.11676 0.1427 0.594 -0.602
0001e0 41 b5 2a b0 29 37 be 36 a1 b1 2f b0 72 38 2e ba
       -0.3284 -0.1301 0.4475 0.4214 -0.1759 -0.1307 0.5557 -0.7725
0001f0 ae 33 c3 3a 2f 38 a5 ae 98 31 05 bd 4f b0 cb b6
       0.24 0.845 0.523 -0.1038 0.1748 -1.255 -0.1346 -0.4246

model/lstm/while/lstm_cell_4/split_1 f2 [32]
000000 d6 b7 0c b7 6b b5 27 28 9d b7 49 b8 29 b9 8f ba
       -0.4897 -0.4404 -0.3386 0.03244 -0.4758 -0.5356 -0.645 -0.82
000010 16 b8 df b8 b4 b8 08 b4 04 aa ea b8 c2 b9 51 b9
       -0.5107 -0.609 -0.588 -0.252 -0.047 -0.6143 -0.7197 -0.6646
000020 02 b6 80 b7 71 af 92 b3 7e b7 4d b5 16 b7 9b b9
       -0.3755 -0.4688 -0.1163 -0.2366 -0.4683 -0.3313 -0.4429 -0.7007
000030 9b b6 3f b7 d7 b7 19 3f 11 b5 23 b4 61 b8 50 b4
       -0.4128 -0.453 -0.49 1.774 -0.3167 -0.2585 -0.5474 -0.2695

model/lstm/while/lstm_cell_4/split_11 f2 [32]
000000 f8 3c 2e 3c 51 3c 46 3f 31 3c 8a 3a 89 3c 2f 3d
       1.242 1.045 1.079 1.818 1.048 0.8174 1.134 1.296
000010 a9 3c 69 3b 8d 3c be 3e 61 3d 08 3b f0 3a fd 3c
       1.165 0.9263 1.138 1.686 1.345 0.879 0.867 1.247
000020 7c 3c 89 3c a3 3f 87 3b c4 3d 93 3c 3c 3d da 3b
       1.121 1.134 1.909 0.941 1.441 1.144 1.309 0.9814
000030 6a 3b 94 3c 9d 3b 95 40 dd 3c c4 3b fb 3a 7c 3b
       0.927 1.145 0.9517 2.291 1.216 0.9707 0.8726 0.9355

model/lstm/while/lstm_cell_4/split_12 f2 [32]
000000 93 34 90 b0 76 2f cb 33 99 a9 98 ae 01 b3 69 32
       0.286 -0.1426 0.1166 0.2435 -0.04373 -0.103 -0.2189 0.2003
000010 76 31 da 1a 7d 30 77 a4 57 35 c7 b0 3e ab 16 33
       0.1707 0.003345 0.1403 -0.01744 0.3337 -0.1493 -0.05658 0.2214
000020 7b b4 0d 31 3b 30 f0 2e a3 34 6c 35 81 b0 c4 a6
       -0.28 0.1578 0.1322 0.1084 0.2898 0.3389 -0.1407 -0.02643
000030 af a8 1d a8 f8 2d 81 38 3d b0 dd 28 2d b1 2d b3
       -0.0366 -0.03214 0.09326 0.563 -0.1324 0.038 -0.1617 -0.2242

model/lstm/while/lstm_cell_4/split_13 f2 [32]
000000 67 28 57 b3 c2 b1 a7 b6 7f b2 b7 b3 25 36 d1 aa
       0.0344 -0.2294 -0.1799 -0.4158 -0.203 -0.2411 0.384 -0.05325
000010 4b a6 ea 24 a9 2e ed b0 84 b7 e5 b3 c4 b9 64 33
       -0.02458 0.0192 0.10406 -0.1539 -0.4697 -0.2467 -0.7207 0.231
000020 2a ad 22 ad c9 b5 b8 ab 60 b1 ab 27 17 ab 24 ab
       -0.0807 -0.0802 -0.3616 -0.0603 -0.168 0.02995 -0.0554 -0.0558
000030 b7 b4 b3 a9 b0 2d fd b5 eb a8 4b b6 0e b8 05 ac
       -0.2947 -0.04453 0.08887 -0.3743 -0.03842 -0.3933 -0.507 -0.0628
