HPC_Final_Study2_Complete_Test_Class_Balance_run_all/participants_session_transfer_train/participant_11/session_3/session_3_lite_models/indexpen_model.tflite (tflite, 768696 bytes, 45 tensors)

model/time_distributed_3/conv2d_1/BiasAdd;model/time_distributed_11/conv2d_3/Conv2D;model/time_distributed_3/conv2d_1/Conv2D;model/time_distributed_3/conv2d_1/BiasAdd/ReadVariableOp/resource f4 [16]
000000 1c 4a 63 be 10 d7 26 be 97 85 f5 bc 7a 8c 71 bd
       -0.22196239 -0.16292977 -0.029970927 -0.05897186
000010 39 38 18 3e 70 f7 91 bd 85 4b 04 be be 9b 0d bc
       0.14865197 -0.07127273 -0.12919433 -0.008643089
000020 17 82 bc bd d8 37 d9 bd e7 3e 28 bc f1 a0 70 bd
       -0.092045 -0.106063545 -0.010268903 -0.058747236
000030 34 c1 34 be 30 d5 45 be 57 d2 92 3d 03 b5 09 be
       -0.17651826 -0.19319606 0.071690254 -0.13447957

model/time_distributed/conv2d/BiasAdd;model/time_distributed_8/conv2d_2/Conv2D;model/time_distributed/conv2d/Conv2D;model/time_distributed/conv2d/BiasAdd/ReadVariableOp/resource f4 [8]
000000 ae b5 98 bb 03 00 89 3b f6 02 b3 bb 4a c0 f8 3c
       -0.00466033 0.0041809096 -0.0054629995 0.030365128
000010 3c 84 92 3d 1e d3 f1 bb 58 3d 26 3e a4 98 90 3b
       0.07154128 -0.0073799035 0.16234338 0.0044127274

model/time_distributed_11/conv2d_3/BiasAdd;model/time_distributed_11/conv2d_3/Conv2D;model/time_distributed_11/conv2d_3/BiasAdd/ReadVariableOp/resource f4 [16]
000000 fd 04 89 3c 5e 4b a2 3d 1a c7 7c bc 6b 40 05 3d
       0.016726011 0.079245314 -0.015428329 0.032532137
000010 6b cf 00 3d bf 51 71 bc 44 75 ab ba 1b 32 84 3d
       0.03144781 -0.014728962 -0.0013081213 0.06454869
000020 c9 23 54 3c 19 d1 df bc 8f e8 0c bc bd 7a b7 bc
       0.012947985 -0.027321385 -0.008600368 -0.022397393
000030 ea 40 cc 3b 22 7b ba 3c 43 d9 9a b9 6a c6 8a bd
       0.0062333243 0.022763792 -0.00029535042 -0.06776126

model/time_distributed_8/conv2d_2/BiasAdd;model/time_distributed_8/conv2d_2/Conv2D;model/time_distributed_8/conv2d_2/BiasAdd/ReadVariableOp/resource f4 [8]
000000 90 54 32 3d b1 9a 93 3c ec ca 32 3c d2 ac 0f 3c
       0.043537676 0.018018099 0.010912638 0.008769231
000010 f7 32 90 3c 27 20 df 3d c2 fa 18 3c 6c 0e 96 3c
       0.017602427 0.108948044 0.009337129 0.018317424

model/time_distributed_3/conv2d_1/Conv2D f4 [16, 3, 3, 8]
000000 36 15 61 3d d3 96 fb bc a9 2f 12 3c d0 48 73 be
       0.05495187 -0.030711567 0.008922496 -0.23758245
000010 cb 95 c6 3c e4 93 08 3d 6c b1 4f bd 44 c3 86 bc
       0.024241349 0.033344164 -0.050706312 -0.016450532
000020 ac db 7c bd 32 fb 9e bc 28 16 0f bd 7e 07 9c 3d
       -0.061732933 -0.019406889 -0.03493324 0.076186165
000030 8e e1 c0 3d e9 ff 56 3d 95 35 58 3e 73 0d 48 bc
       0.09418021 0.05249015 0.2111419 -0.012210238
000040 2f e0 34 bb 88 4c 6e bd ee 3b 7b bd c1 1f 36 3c
       -0.0027599444 -0.058178455 -0.06133645 0.011115969
000050 6e 73 1a be ed 16 46 bd 2f b8 47 bd 0d cb 64 3c
       -0.15083095 -0.048361707 -0.048759636 0.013964427
000060 6e 02 19 bd fb 1b 43 bd 08 67 c8 bc 8d 36 ca bc
       -0.037355833 -0.047634106 -0.024463192 -0.024684215
000070 fb 6f 2d bd a2 92 18 3d ff 26 26 3e ce 6e 26 3d
       -0.04234312 0.037249215 0.16225813 0.040633015
000080 e4 c4 a2 bd 10 83 68 3c d7 7f 41 bc 9a dd 99 3e
       -0.0794771 0.014191404 -0.011810265 0.3005188
000090 48 0a cd bd 6b 6a 02 3d a4 71 0a 3b 86 e2 1a 3c
       -0.100117266 0.03183977 0.0021124864 0.009453421
0000a0 f6 f2 3c bd 9b 92 59 3b af 76 73 ba 12 7f 08 be
       -0.046130143 0.0033198956 -0.00092873996 -0.13329723
0000b0 09 c5 82 3c 7b 96 52 bd 3a 83 83 be 6c d8 a3 bb
       0.015963094 -0.05141304 -0.25686055 -0.0050001647
0000c0 d4 da b8 bc 22 df 16 3d 3c 5f 22 3d 54 b3 b4 3d
       -0.022565283 0.03683389 0.039641604 0.088232666
0000d0 cc 09 82 bd b7 1e 43 3c 33 75 eb 3d c4 c6 3d 3b
       -0.06349525 0.011909178 0.11496963 0.0028957585
0000e0 ce d4 3c bd 68 6c 1f 3d f5 b5 57 bc 14 6d 04 be
       -0.046101384 0.038921744 -0.0131659405 -0.12932235
0000f0 71 fd e5 bd 57 ca 53 bd 4e 9a 84 3e bd 89 be 3c
       -0.11229981 -0.05170664 0.25898975 0.023259038
000100 28 7a 34 bd 71 b5 8c bc 54 58 92 bd 9b fd d0 bd
       -0.04406181 -0.017176362 -0.071457535 -0.102046214
000110 dc 4e 4e bc c6 1f 54 bc 40 fc e4 3e 4d b2 b3 bc
       -0.012592044 -0.0129470285 0.447237 -0.021935606
000120 e5 6b e5 3b c0 0c 2b bc d8 8f 43 bd be f9 f4 bd
       0.0070013874 -0.010440052 -0.047744602 -0.11961697
000130 ad 5e b7 3d be 7e e4 bc 33 5d 9e be d0 14 ab 3d
       0.08953605 -0.027892467 -0.3093048 0.08353579
000140 bb 38 28 3d dd 6c 4d bb 94 cd e8 bb 0e ad f3 bc
       0.041069727 -0.0031345405 -0.007104585 -0.029745605
000150 07 86 b6 3d 9a 0a 1e bd 7b 5f 69 bc 9d a1 9e ba
       0.089122824 -0.03858433 -0.014243956 -0.0012102608
000160 e1 c0 fe 3a 37 a9 cb bc 3a 87 01 3d 2f ab 9b bd
       0.0019436145 -0.024860961 0.031623103 -0.0760101
000170 de 2d 1d be fc 89 65 3c ac a2 9c 3e a8 0e 29 bd
       -0.15349528 0.014009949 0.3059286 -0.041273743
000180 8b 8a 46 3b 1e 61 60 3c f4 a2 26 bd 1f 75 32 3e
       0.003029498 0.01369503 -0.040682748 0.1742749
000190 75 14 b7 3c 29 74 30 bb 62 78 2c be 94 59 41 3d
       0.022348622 -0.0026924706 -0.16842797 0.04720457
0001a0 55 3c 94 bd 96 50 a8 3b 4d bb 01 3d dd df 3a bc
       -0.0723807 0.0051365597 0.031672765 -0.011405912
0001b0 43 62 60 3d f8 71 8c bc 5d 5c a3 be 35 5a 1a 3c
       0.05478121 -0.017144188 -0.31906405 0.009420921
0001c0 bc 1c d2 bd f1 23 36 bc 05 7e bf 3c ab 15 d1 bd
       -0.10259387 -0.011116968 0.02337552 -0.10209211
0001d0 a9 4b c2 3c 0e 17 42 3d 2a 19 8c 3e 09 2c b9 bc
       0.023717718 0.047385268 0.2736295 -0.022604005
0001e0 57 51 95 3c e9 6c 2e 3c c0 d5 c0 bc e7 7c 04 bd
       0.018227262 0.010646083 -0.023539424 -0.03234568
0001f0 46 b4 1c 3e e5 92 00 3d b6 b6 17 3d 17 50 fb bc
       0.15303144 0.03139009 0.03703948 -0.030677838
000200 8b df 1d 3d 7f 28 4d bc 71 1a d8 3c 91 c0 02 be
       0.038543265 -0.012521862 0.026379796 -0.12768771
000210 f3 3d 18 be 52 7b e2 bb 87 bb 57 3e ee 14 05 3d
       -0.14867382 -0.0069116736 0.2106763 0.032490663
000220 d3 4f 8e 3d 77 06 b5 bc 3b 41 80 bd cc 29 a5 3b
       0.06948819 -0.02209781 -0.06262442 0.005040383
000230 34 89 0f be 44 46 e0 bc 8b 8a c0 3e 5b 95 0f 3d
       -0.14017183 -0.027377255 0.376057 0.035054546
000240 61 0b ed bc 21 0e 1e bd 9e 46 02 3b 49 d7 9b bd
       -0.02893609 -0.038587693 0.0019878517 -0.07609422
000250 16 a7 2c be 31 a1 e8 bc f7 af 2d be 02 48 66 3d
       -0.16860613 -0.028397175 -0.16961657 0.056221016
000260 4f 36 c7 bc 13 a3 0c bd 81 95 69 bd ff 43 37 bd
       -0.024317889 -0.034335207 -0.057027344 -0.04474258
000270 bc 21 7f 3c 5d cc 48 3d 42 ac 18 3e 17 3c 4b 3d
       0.015572008 0.04902302 0.14909461 0.049617853
000280 ba 40 92 bd e9 93 d5 bd 99 ed 73 3b d8 c9 4d 3d
       -0.07141252 -0.10428602 0.0037220477 0.05024132
000290 87 dc 87 3c 1f 18 cb 3c 5a 98 31 be 02 63 c6 3b
       0.016584648 0.024791775 -0.17343274 0.006054283
0002a0 f8 a6 f2 3b a1 c5 6e bb 66 4e 22 bd ff 8b 50 3e
       0.007405158 -0.0036433714 -0.039625548 0.20365904
0002b0 e7 79 78 be 01 f6 43 3c 75 66 b4 be 76 09 a2 3d
       -0.24265252 0.011960507 -0.3523442 0.07911961
0002c0 9f b1 0b 3c d2 ca 6e 3d 49 14 c1 bc ce 2e b6 bd
       0.008526235 0.058298893 -0.023569243 -0.08895646
0002d0 1a b4 75 bd 12 c6 bb bb 39 75 c3 be c6 96 a4 3c
       -0.05998621 -0.005730399 -0.3817537 0.020091426
0002e0 28 7b 19 bd 99 30 8d bd 79 f2 d1 3c 0f b8 68 3e
       -0.037470967 -0.06894035 0.025628315 0.22726463
0002f0 bb 65 0b 3d 0a 4e 61 bd 2b e4 14 be db e8 8f 3d
       0.034032565 -0.055006064 -0.14540164 0.070268355
000300 08 0c 61 3d da 10 84 bd 5b ae 2a bd 4e 6a a7 bd
       0.054943115 -0.06448527 -0.041670185 -0.08174573
000310 8b 7c f6 3c 15 52 b9 3c f1 30 3a 3d 80 d8 1d bb
       0.030088684 0.022622148 0.04545683 -0.0024085343
000320 b8 7a d6 bb e5 02 b4 3c 69 a9 39 3c e9 ac bd be
       -0.006545391 0.021974036 0.011331894 -0.37045982
000330 21 8b 64 be 8a cc d8 bb d5 a1 06 3e 5a f3 f4 bc
       -0.22318698 -0.00661618 0.13147672 -0.029901195
000340 8c da 60 bc 98 47 f0 bc 80 e1 ab 3b 48 f3 9c bb
       -0.013723981 -0.029331014 0.0052453876 -0.0047897436
000350 8a 45 b5 be d1 12 63 bd c9 20 39 3e a1 97 27 3c
       -0.35404617 -0.055437867 0.18078913 0.010229022
000360 a9 26 61 bd b4 a4 64 3d 3c 3f b6 bb 4a 1f b4 bd
       -0.05496851 0.055821136 -0.0055617373 -0.087950304
000370 82 08 b2 3d 9d e6 35 3d c3 94 64 3d 01 6a 90 bc
       0.08693029 0.044409383 0.055805933 -0.017628672
000380 a4 51 0a bd 09 73 45 3a 30 9e b0 ba 5d 94 ef 3d
       -0.033769265 0.0007532095 -0.0013474878 0.1169822
000390 a0 79 13 be fb fb 1d bd 0e 0f 18 be 6e 66 51 bb
       -0.14401865 -0.038570385 -0.14849493 -0.0031951922
0003a0 9e 5d 18 bd 08 db 2b 3b 46 97 a1 3d de 97 5b be
       -0.037198655 0.0026223082 0.07890181 -0.21444651
0003b0 8a fd 12 bd 32 3f 65 3c 87 a4 b3 3d 30 1b 6b bd
       -0.035886325 0.013992118 0.087716155 -0.057398975
0003c0 d1 09 9e 3c 8c 32 d6 bc 9f 36 0e bd c7 4d 04 3b
       0.01929179 -0.02614715 -0.03472006 0.002018796
0003d0 00 3b 6c bc e9 16 c0 bb b7 5b fb 3c 4b 95 64 3c
       -0.014418364 -0.005862106 0.030683381 0.01395161
0003e0 b4 3a 90 3d c2 ec 23 3d 02 b1 a5 bc 94 a8 ad bd
       0.07042447 0.04002071 -0.020226005 -0.08479419
0003f0 c1 d9 26 be 89 01 dc bb af 67 0b be 15 4f ab bc
       -0.16294004 -0.00671405 -0.13613771 -0.020911733

model/time_distributed/conv2d/Conv2D f4 [8, 3, 3, 1]
000000 79 98 82 ba 66 b9 26 3b 67 83 ad b8 17 44 20 3b
       -0.0009963653 0.0025440096 -8.2737584e-05 0.0024454647
000010 b1 af 64 39 ab 48 79 3b 73 63 29 3b bb d6 b6 ba
       0.00021809225 0.0038037698 0.002584663 -0.0013949493
000020 fa a1 85 3b 60 90 a1 b9 db 56 1d 3a dc 58 1f b9
       0.004078147 -0.0003081588 0.0006002017 -0.00015196524
000030 f6 80 32 ba 3e e1 c6 39 ae 8c d5 3a b2 ee 2e ba
       -0.0006809378 0.0003793332 0.0016292536 -0.00066731416
000040 9f ff f7 b9 c3 87 43 3a 21 17 fd ba 3b fb 85 3a
       -0.00047301964 0.000745889 -0.0019309261 0.0010221967
000050 e1 57 8b ba af a7 02 3b 81 33 a3 ba a7 68 b3 39
       -0.0010631048 0.0019936373 -0.0012451262 0.00034219513
000060 92 53 39 37 5b 0c a5 3a de b2 d0 b9 07 7d 09 3c
       1.1046317e-05 0.0012592183 -0.00039806118 0.008391625
000070 3e 55 d1 bb 35 e3 fe ba a1 03 4b 3c c7 ec a1 bb
       -0.0063883355 -0.0019446375 0.012391002 -0.004941556
000080 e2 b7 a7 bb 2b 35 e5 ba 4d 67 4e bc 3b d2 6f 3c
       -0.005118356 -0.0017487159 -0.012597871 0.014637525
000090 3a ee ab bb 80 b6 20 bb 37 df cb 3b 86 6d 9d 3b
       -0.0052469047 -0.002452284 0.0062216776 0.004804316
0000a0 80 47 ef 38 4a 47 e5 3a eb a7 19 3d 37 88 09 3c
       0.00011409726 0.0017492559 0.037513655 0.008394293
0000b0 ba f6 97 bb 09 db f4 3a df fb 52 ba b0 ea 49 b9
       -0.0046375664 0.0018681 -0.0008048396 -0.00019256282
0000c0 24 36 95 ba b1 f6 ab ba fc 55 69 3b 6f 2f cd bb
       -0.0011383933 -0.0013119784 0.003560423 -0.006261758
0000d0 1a fb ba 3a 00 71 63 3b 64 b4 85 bb 69 73 2f bb
       0.0014265508 0.0034704804 -0.004080342 -0.002677167
0000e0 6d 4b a5 3b b0 8e 0d 3c fd 38 52 ba f1 ac 84 bb
       0.005044392 0.008639976 -0.0008019356 -0.0040489365
0000f0 0d f8 3b bc c8 d1 12 bd d6 d4 2f 3b 4b a0 31 bb
       -0.011472714 -0.035844594 0.002682974 -0.0027103599
000100 26 29 d3 ba 36 cc 15 3b ba 7d 0a bb 9a 67 6a 3a
       -0.0016110286 0.0022857315 -0.0021132068 0.00089418294
000110 c5 95 1a bb 18 57 7f ba e0 4e 5b bb f2 db e7 3a
       -0.0023587805 -0.0009740456 -0.0033463761 0.001768945

model/time_distributed_11/conv2d_3/Conv2D f4 [16, 3, 3, 8]
000000 0f 0d 5e 3e f6 40 e3 3a 97 c4 ba 3c 13 82 6d 3c
       0.21684669 0.0017338085 0.02279882 0.014496344
000010 47 a3 ac be 1f 0c 9b be 82 da f2 bd 91 c3 a8 bd
       -0.3371832 -0.30282685 -0.11858083 -0.08240426
000020 00 1b ed 3c ad 2e a4 3c c1 ec 01 3d c3 d0 7f bc
       0.028943539 0.020041788 0.031719927 -0.0156137375
000030 27 b0 9d be ea 0a 6b 3e 6a 78 1b be 47 93 a2 bd
       -0.30798456 0.22953382 -0.15182653 -0.07938247
000040 91 93 c6 bd cf 9d 8a 3c f6 ac ad 3c 27 03 e5 bb
       -0.09696115 0.016920952 0.021200638 -0.006988901
000050 a7 ce ab be ab ec 1d 3d 36 86 b7 3d e9 f6 52 bd
       -0.335561 0.038555782 0.089611456 -0.051505003
000060 bb 65 61 be 4c e4 65 bc 18 4d b3 3c 57 d7 b4 bc
       -0.22011463 -0.014031481 0.021887347 -0.022075338
000070 b2 91 77 3d 47 a8 1b 3e 2a b0 a4 be d0 4a 01 3c
       0.06044168 0.15200911 -0.32165653 0.007891372
000080 38 86 02 3d d6 28 fd bc e5 37 7e 3b ba 47 04 3b
       0.031866282 -0.030903261 0.003879064 0.0020184354
000090 e4 32 ad 3c 2e a5 5c 3b 9c 48 cd 3d c8 84 5c 3d
       0.02114243 0.003366779 0.10023615 0.053837568
0000a0 ec 41 90 3c 56 2a 55 3b 3b 8b 48 bb 15 9a 39 bc
       0.017609559 0.0032526455 -0.0030600566 -0.01132824
0000b0 ce 59 56 ba 77 ba 6f be 5f d3 ca 3d ab f8 86 3d
       -0.0008176834 -0.23410974 0.09903597 0.065903984
0000c0 0d a3 33 3d b8 e0 20 bd 17 73 12 3d 7c cb 4e 3c
       0.04385667 -0.03927681 0.03575429 0.012621757
0000d0 ee a8 6f bc 57 a5 c1 bd 53 ec 20 be 5c db 9f 3c
       -0.014627678 -0.09455364 -0.1571515 0.019513778
0000e0 81 ca b9 3b ad 14 51 3d 9b 3e c4 3c c2 c1 10 3d
       0.0056698923 0.05104511 0.023955634 0.03534103
0000f0 84 7f 96 3d c4 e7 a6 3c 58 7a 1d bc 60 d9 57 3c
       0.073485404 0.020374186 -0.009611689 0.013174385
000100 c9 a1 89 3d 3b cb 2d 3c b9 21 f0 3c ac 78 44 3d
       0.06720311 0.010607536 0.029312955 0.047966644
000110 55 d0 a8 3e dc 2c a4 bc 32 6a 90 be 52 7a ca 3d
       0.32971445 -0.020040922 -0.2820602 0.09886612
000120 a0 70 f1 3e 50 44 85 3d 7b c0 3e 3b b0 dc 47 3d
       0.4715624 0.0650717 0.0029106427 0.04879445
000130 6f 7d 43 3e 37 11 ec bd b2 06 af be 38 71 12 3d
       0.19090818 -0.11526721 -0.34184796 0.035752505
000140 f5 cd 80 3b a6 c0 9c 3c 31 1f 47 bc 90 f9 ad bd
       0.003930802 0.01913483 -0.012153433 -0.08494866
000150 3c 1c 29 be 4e 4f 22 3e b3 46 f8 bd a1 7d 95 b9
       -0.16514677 0.15850565 -0.1212286 -0.00028513095
000160 2e 09 f6 be 91 a6 b8 3c 9e a2 d6 39 62 5b 1c bd
       -0.4805388 0.022540363 0.0004093842 -0.038173087
000170 85 0f d4 be f7 dc 02 be 71 79 9b 3e fd 73 0c 3d
       -0.4141809 -0.12779604 0.3036609 0.034290303
000180 58 23 90 be d1 8b 8d bc 92 c2 b2 3b 18 1e 80 bc
       -0.28151965 -0.017278584 0.0054553235 -0.01563935
000190 0d c8 d5 be dc f3 53 3e de b1 74 be b4 68 62 3d
       -0.4175419 0.20698494 -0.23895976 0.055275634
0001a0 b2 ff 52 3e 40 dc 63 3c 5f b5 7e 3c 82 55 98 3d
       0.20605353 0.013907492 0.015546172 0.07438184
0001b0 34 10 98 be 63 65 94 be 57 01 31 be 3a 2b 88 bd
       -0.29699862 -0.28983602 -0.17285667 -0.0664887
0001c0 14 e4 d6 3d 8d e2 a5 bc c7 d1 46 bd e3 cd e4 b7
       0.10492721 -0.02024963 -0.048539903 -2.7275591e-05
0001d0 04 b2 85 3e 16 ee 11 bb 0b 34 ed 3b 2e c9 87 3d
       0.26112378 -0.0022267154 0.00723887 0.06630169
0001e0 b3 3f 2f 3e f5 8c 21 bd 5a 3c e5 3c 7a 44 e5 3c
       0.17114143 -0.039441068 0.02798288 0.027986754
0001f0 b4 32 a3 3d 36 09 3d 3e a6 b7 4b be 3c 58 fc 3c
       0.07968655 0.18460545 -0.19894275 0.030803792
000200 b5 71 5b be b0 d9 76 bc a7 e9 83 3d 48 b3 4a bd
       -0.21430095 -0.015066549 0.0644105 -0.049487382
000210 fb d5 fc bd ba 03 04 be 81 6f be bd b3 4c 80 bd
       -0.12345501 -0.12892047 -0.092986114 -0.06264629
000220 e6 f8 d0 bd 66 3a 41 bd 53 a4 11 3c 73 37 5a 3d
       -0.102037236 -0.047174834 0.008889276 0.053275537
000230 65 ea c2 be 86 51 15 be a5 d1 c5 3d 97 ee 95 bc
       -0.38069454 -0.1458188 0.09659127 -0.018302245
000240 43 7d 4e bc 85 df 90 3b 9c 59 97 3c 30 70 ca 3a
       -0.012603107 0.004421177 0.018475346 0.0015444811
000250 5a 83 40 3c 1f f5 12 3d 30 3a 8f bc 24 6b ab 3c
       0.011750067 0.035878297 -0.0174838 0.020925112
000260 58 ff 4c bc 7a 9b 98 3b 4c 13 9e 3c 24 a0 bd 3a
       -0.012512051 0.004657206 0.01929631 0.0014467281
000270 f7 04 56 3c 37 74 c9 3c 63 59 74 bc 2e 9e b7 3c
       0.013062707 0.024591548 -0.01491389 0.022414293
000280 91 f7 43 bc fe 10 9e 3b ea d7 a5 3c 12 b9 af 3a
       -0.01196088 0.004823803 0.020244557 0.0013406596
000290 d3 b8 6b 3c 57 d7 a5 3c 03 8a a6 bc c3 3b b6 3c
       0.014387327 0.020244284 -0.020329481 0.022245293
0002a0 3e 95 7f bb fb 6a a1 3c e2 44 80 3c 48 44 c7 3b
       -0.0038998867 0.019704333 0.015657846 0.006081138
0002b0 a0 9e 6c 3c 88 f1 b5 3b 81 69 72 bc bc 9c cc 39
       0.014442116 0.0055524744 -0.014795662 0.00039026688
0002c0 f6 d1 37 bc 09 e2 c1 3c a3 25 86 3c 6f 96 b3 3b
       -0.011219492 0.023667352 0.016375368 0.0054805796
0002d0 1d 0e 9d 3c 90 f3 3d 3c 83 2b c6 bc 82 f2 ee 39
       0.019171769 0.011593714 -0.02419067 0.0004557558
0002e0 af 33 b7 bc 94 30 e2 3c 95 1a 91 3c db e7 8c 3b
       -0.022363512 0.027611054 0.01771287 0.0043001003
0002f0 56 4d c2 3c ea a9 44 3c 99 ed 83 bc 23 a5 f4 37
       0.023718517 0.012003401 -0.016104506 2.9163964e-05
000300 3d 15 64 bc c4 6e 8c 3c 78 9a 75 3c e3 d6 1c bc
       -0.013921079 0.01714266 0.0149904415 -0.009572717
000310 f3 c8 d5 3c aa 93 ac 39 dc 37 2c bd eb 01 8c bc
       0.026096797 0.00032916415 -0.04204546 -0.017090758
000320 99 2a 96 bb 7c 86 99 3c 8d 33 85 3c 81 fb 2c bc
       -0.0045827148 0.018740885 0.016259933 -0.01055801
000330 3c 8b c0 3c d3 d2 01 3b 41 99 42 bd bb 2d 85 bc
       0.023503892 0.00198095 -0.047509436 -0.016257158
000340 0b cf 82 bc 70 4f 9d 3c ee dd 98 3c b7 40 44 bc
       -0.015967866 0.019202918 0.018660512 -0.01197832
000350 f9 70 d3 3c 8d de f6 3a 41 b3 3f bd 45 a7 8b bc
       0.025810705 0.0018834636 -0.04680181 -0.017047534
000360 8a 2a 28 be 45 dd b6 bc 72 6f 60 3d 9c db 3c 3d
       -0.16422477 -0.022322306 0.054793783 0.046107873
000370 f8 3a d9 3d 68 96 39 bd bf e1 8b be 47 b8 05 3d
       0.106069505 -0.045309454 -0.27320668 0.032646444
000380 14 78 73 3e 19 f4 b6 bc 1d d8 7d 3d cf 9f 26 3d
       0.23776275 -0.022333192 0.06197368 0.04067975
000390 29 f6 c5 3d 87 49 4e 3a 16 c0 a1 be 94 36 01 3d
       0.09666092 0.0007869233 -0.31591862 0.03154619
0003a0 4a 07 08 3d cd 8e 18 bc 2c 80 91 3d 71 cd 8a 3c
       0.033210076 -0.00931139 0.07104525 0.016943665
0003b0 73 40 a5 bd 97 32 fd 3d 7c de e4 3d ad 06 07 3d
       -0.08068933 0.12363165 0.11175248 0.03296535
0003c0 67 d5 c3 3e c2 47 39 bc 94 dc 8b 3c ce 92 af 3d
       0.3824875 -0.011308612 0.017072953 0.08572923
0003d0 d3 b6 8a be c0 27 52 3e 12 23 f5 bd 84 02 2e 3d
       -0.2709261 0.20522976 -0.1196958 0.042482868
0003e0 f3 81 bd bd 43 51 dc 3b 18 c4 3c 3c f8 ef 06 3d
       -0.092533015 0.0067235543 0.011521362 0.032943696
0003f0 f3 2e 3f bd e5 be 0e 3d 5d 4a f3 bd 89 01 e0 ba
       -0.046675634 0.03485002 -0.11879418 -0.0017090301

model/time_distributed_8/conv2d_2/Conv2D f4 [8, 3, 3, 1]
000000 c7 ab 8b bc 4d 64 cb bc 22 5b 40 3d ec e1 93 3d
       -0.017049683 -0.0248281 0.04696191 0.072208256
000010 66 5e 8d bd 74 84 71 3b ae 10 3f bd 6b df ac 3c
       -0.06902771 0.003685263 -0.046646766 0.021102628
000020 b2 58 1c 3d 1d d0 81 3b fa 24 11 ba cc 8c f5 b8
       0.038170524 0.0039615766 -0.0005536821 -0.00011708736
000030 f4 e6 e4 b9 c7 17 f4 3a 32 15 bc 3a 68 38 79 bb
       -0.00043659622 0.0018622809 0.0014349578 -0.0038028006
000040 16 87 4d 3b 15 7e 41 3b 01 a8 fb 3b c1 64 aa bb
       0.0031361035 0.0029524614 0.0076799397 -0.005199999
000050 77 b3 3c bb 4c a7 9e 3b 4a 7d 92 3b f7 ab 0a bc
       -0.0028793493 0.0048417207 0.004470502 -0.008463851
000060 8b a7 68 b9 91 e8 1a 3b 3b dd b6 ba 52 07 e1 3a
       -0.00022187659 0.0023637156 -0.001395143 0.0017168319
000070 c3 be f7 bb aa ec fd 3b d0 8e 84 b9 72 ac 5f 3b
       -0.0075605824 0.00774916 -0.00025283406 0.0034129885
000080 aa c9 88 bb 39 2e a5 3b dc 92 56 b9 46 0b ac bb
       -0.004174431 0.0050409106 -0.0002046334 -0.0052503673
000090 ec e8 f3 ba 3b 23 18 3a 39 9a e2 3b 0d 14 b8 3c
       -0.0018608845 0.00058035896 0.0069153574 0.022470498
0000a0 0c b4 02 bd 5c 65 11 3c ef 22 80 38 0b 4c 1b 3c
       -0.031909987 0.008874264 6.1100225e-05 0.009478579
0000b0 0f 8e f6 3b 34 47 28 bd ca c2 65 3d c9 ca dd 3c
       0.007524259 -0.04108353 0.05609397 0.027074235
0000c0 75 94 14 3d e8 81 c6 bd 65 7e 31 3d 68 48 00 bd
       0.036274392 -0.096927464 0.04333343 -0.031319052
0000d0 2f 5e 95 3d d1 0e bc bc da 03 ae 3c 8e 3d 65 bd
       0.07293355 -0.022956284 0.021242071 -0.055966906
0000e0 d0 28 bc 3c f0 50 91 bc e3 68 d0 3c 36 b2 52 b9
       0.02296868 -0.01773879 0.025440639 -0.0002009355
0000f0 50 25 31 3c a7 44 34 3d 11 78 93 bd 56 62 28 3b
       0.010812119 0.044010784 -0.07200635 0.0025693378
000100 b7 35 e7 bb 2a 47 d1 3b d1 56 9a 3c a7 77 c4 bc
       -0.007055964 0.0063866572 0.018840225 -0.023982836
000110 95 ab 2d 3c 5c 90 9b 3b b3 1f 63 3a c5 c2 2e bc
       0.01059999 0.0047474336 0.00086640863 -0.010666554

model/lstm/TensorArrayV2_1 f4 [120, 1, 32]
000000 00 00 00 00 00 00 00 00 00 00 00 00 00 00 00 00
       0.0 0.0 0.0 0.0
000010 00 00 00 00 00 00 00 00 00 00 00 00 00 00 00 00
       0.0 0.0 0.0 0.0
000020 00 00 00 00 00 00 00 00 00 00 00 00 00 00 00 00
       0.0 0.0 0.0 0.0
000030 00 00 00 00 00 00 00 00 00 00 00 00 00 00 00 00
       0.0 0.0 0.0 0.0
000040 00 00 00 00 00 00 00 00 00 00 00 00 00 00 00 00
       0.0 0.0 0.0 0.0
000050 00 00 00 00 00 00 00 00 00 00 00 00 00 00 00 00
       0.0 0.0 0.0 0.0
000060 00 00 00 00 00 00 00 00 00 00 00 00 00 00 00 00
       0.0 0.0 0.0 0.0
000070 00 00 00 00 00 00 00 00 00 00 00 00 00 00 00 00
       0.0 0.0 0.0 0.0
000080 00 00 00 00 00 00 00 00 00 00 00 00 00 00 00 00
       0.0 0.0 0.0 0.0
000090 00 00 00 00 00 00 00 00 00 00 00 00 00 00 00 00
       0.0 0.0 0.0 0.0
0000a0 00 00 00 00 00 00 00 00 00 00 00 00 00 00 00 00
       0.0 0.0 0.0 0.0
0000b0 00 00 00 00 00 00 00 00 00 00 00 00 00 00 00 00
       0.0 0.0 0.0 0.0
0000c0 00 00 00 00 00 00 00 00 00 00 00 00 00 00 00 00
       0.0 0.0 0.0 0.0
0000d0 00 00 00 00 00 00 00 00 00 00 00 00 00 00 00 00
       0.0 0.0 0.0 0.0
0000e0 00 00 00 00 00 00 00 00 00 00 00 00 00 00 00 00
       0.0 0.0 0.0 0.0
0000f0 00 00 00 00 00 00 00 00 00 00 00 00 00 00 00 00
       0.0 0.0 0.0 0.0
000100 00 00 00 00 00 00 00 00 00 00 00 00 00 00 00 00
       0.0 0.0 0.0 0.0
000110 00 00 00 00 00 00 00 00 00 00 00 00 00 00 00 00
       0.0 0.0 0.0 0.0
000120 00 00 00 00 00 00 00 00 00 00 00 00 00 00 00 00
       0.0 0.0 0.0 0.0
000130 00 00 00 00 00 00 00 00 00 00 00 00 00 00 00 00
       0.0 0.0 0.0 0.0
000140 00 00 00 00 00 00 00 00 00 00 00 00 00 00 00 00
       0.0 0.0 0.0 0.0
000150 00 00 00 00 00 00 00 00 00 00 00 00 00 00 00 00
       0.0 0.0 0.0 0.0
000160 00 00 00 00 00 00 00 00 00 00 00 00 00 00 00 00
       0.0 0.0 0.0 0.0
000170 00 00 00 00 00 00 00 00 00 00 00 00 00 00 00 00
       0.0 0.0 0.0 0.0
000180 00 00 00 00 00 00 00 00 00 00 00 00 00 00 00 00
       0.0 0.0 0.0 0.0
000190 00 00 00 00 00 00 00 00 00 00 00 00 00 00 00 00
       0.0 0.0 0.0 0.0
0001a0 00 00 00 00 00 00 00 00 00 00 00 00 00 00 00 00
       0.0 0.0 0.0 0.0
0001b0 00 00 00 00 00 00 00 00 00 00 00 00 00 00 00 00
       0.0 0.0 0.0 0.0
0001c0 00 00 00 00 00 00 00 00 00 00 00 00 00 00 00 00
       0.0 0.0 0.0 0.0
0001d0 00 00 00 00 00 00 00 00 00 00 00 00 00 00 00 00
       0.0 0.0 0.0 0.0
0001e0 00 00 00 00 00 00 00 00 00 00 00 00 00 00 00 00
       0.0 0.0 0.0 0.0
0001f0 00 00 00 00 00 00 00 00 00 00 00 00 00 00 00 00
       0.0 0.0 0.0 0.0
000200 00 00 00 00 00 00 00 00 00 00 00 00 00 00 00 00
       0.0 0.0 0.0 0.0
000210 00 00 00 00 00 00 00 00 00 00 00 00 00 00 00 00
       0.0 0.0 0.0 0.0
000220 00 00 00 00 00 00 00 00 00 00 00 00 00 00 00 00
       0.0 0.0 0.0 0.0
000230 00 00 00 00 00 00 00 00 00 00 00 00 00 00 00 00
       0.0 0.0 0.0 0.0
000240 00 00 00 00 00 00 00 00 00 00 00 00 00 00 00 00
       0.0 0.0 0.0 0.0
000250 00 00 00 00 00 00 00 00 00 00 00 00 00 00 00 00
       0.0 0.0 0.0 0.0
000260 00 00 00 00 00 00 00 00 00 00 00 00 00 00 00 00
       0.0 0.0 0.0 0.0
000270 00 00 00 00 00 00 00 00 00 00 00 00 00 00 00 00
       0.0 0.0 0.0 0.0
000280 00 00 00 00 00 00 00 00 00 00 00 00 00 00 00 00
       0.0 0.0 0.0 0.0
000290 00 00 00 00 00 00 00 00 00 00 00 00 00 00 00 00
       0.0 0.0 0.0 0.0
0002a0 00 00 00 00 00 00 00 00 00 00 00 00 00 00 00 00
       0.0 0.0 0.0 0.0
0002b0 00 00 00 00 00 00 00 00 00 00 00 00 00 00 00 00
       0.0 0.0 0.0 0.0
0002c0 00 00 00 00 00 00 00 00 00 00 00 00 00 00 00 00
       0.0 0.0 0.0 0.0
0002d0 00 00 00 00 00 00 00 00 00 00 00 00 00 00 00 00
       0.0 0.0 0.0 0.0
0002e0 00 00 00 00 00 00 00 00 00 00 00 00 00 00 00 00
       0.0 0.0 0.0 0.0
0002f0 00 00 00 00 00 00 00 00 00 00 00 00 00 00 00 00
       0.0 0.0 0.0 0.0
000300 00 00 00 00 00 00 00 00 00 00 00 00 00 00 00 00
       0.0 0.0 0.0 0.0
000310 00 00 00 00 00 00 00 00 00 00 00 00 00 00 00 00
       0.0 0.0 0.0 0.0
000320 00 00 00 00 00 00 00 00 00 00 00 00 00 00 00 00
       0.0 0.0 0.0 0.0
000330 00 00 00 00 00 00 00 00 00 00 00 00 00 00 00 00
       0.0 0.0 0.0 0.0
000340 00 00 00 00 00 00 00 00 00 00 00 00 00 00 00 00
       0.0 0.0 0.0 0.0
000350 00 00 00 00 00 00 00 00 00 00 00 00 00 00 00 00
       0.0 0.0 0.0 0.0
000360 00 00 00 00 00 00 00 00 00 00 00 00 00 00 00 00
       0.0 0.0 0.0 0.0
000370 00 00 00 00 00 00 00 00 00 00 00 00 00 00 00 00
       0.0 0.0 0.0 0.0
000380 00 00 00 00 00 00 00 00 00 00 00 00 00 00 00 00
       0.0 0.0 0.0 0.0
000390 00 00 00 00 00 00 00 00 00 00 00 00 00 00 00 00
       0.0 0.0 0.0 0.0
0003a0 00 00 00 00 00 00 00 00 00 00 00 00 00 00 00 00
       0.0 0.0 0.0 0.0
0003b0 00 00 00 00 00 00 00 00 00 00 00 00 00 00 00 00
       0.0 0.0 0.0 0.0
0003c0 00 00 00 00 00 00 00 00 00 00 00 00 00 00 00 00
       0.0 0.0 0.0 0.0
0003d0 00 00 00 00 00 00 00 00 00 00 00 00 00 00 00 00
       0.0 0.0 0.0 0.0
0003e0 00 00 00 00 00 00 00 00 00 00 00 00 00 00 00 00
       0.0 0.0 0.0 0.0
0003f0 00 00 00 00 00 00 00 00 00 00 00 00 00 00 00 00
       0.0 0.0 0.0 0.0

model/dense/BiasAdd/ReadVariableOp/resource f4 [256]
000000 4f 14 32 bd 21 cc f1 3c e9 33 3e 3d b7 53 d3 3d
       -0.0434764 0.029516282 0.046436224 0.10318702
000010 dd 98 45 bd ce f2 bd 3b 39 51 4a bd 8a 1e 1a bd
       -0.048241485 0.005796767 -0.049393866 -0.03762678
000020 10 ba 94 bc 3e 80 57 bd 1b 9d 78 bd bd 40 59 bd
       -0.018155128 -0.052612536 -0.060696702 -0.053040255
000030 db a0 85 3d 26 ef 32 bd 10 02 15 bc 8f 02 14 bd
       0.06524821 -0.0436851 -0.00909473 -0.036135253
000040 33 f8 e1 bc c5 18 e4 3c 03 74 62 3d 74 40 98 3d
       -0.02758417 0.027843842 0.05528642 0.074341685
000050 b4 5e 5d 3d 0d fd 7e 3c 34 92 57 bc ab cc 78 3d
       0.054045394 0.015563262 -0.013157416 0.06074206
000060 e3 eb 92 3c 75 95 37 3d 13 fb 39 bd c7 01 be 3c
       0.017934745 0.044820268 -0.04540546 0.023194207
000070 09 9b f2 3c fc 14 47 3d 22 9c 03 bd c5 76 00 3c
       0.029614942 0.048603997 -0.03213132 0.007840817
000080 7d 60 8c bd 54 27 85 bd 53 45 d5 bc e2 1a 70 3d
       -0.06854341 -0.06501642 -0.026034033 0.058619387
000090 49 43 08 bd 4b d3 35 bd eb 2e 33 be af c0 9e bc
       -0.033267293 -0.044390958 -0.17498367 -0.019378988
0000a0 52 f7 76 3c db f8 b2 bc d9 e8 04 be a2 ff 72 3d
       0.015073614 -0.02184718 -0.1297945 0.05932582
0000b0 88 60 3f bc 67 aa 34 3d 6d 48 16 3d 4b 30 8e bd
       -0.01168073 0.04410782 0.036690164 -0.06942805
0000c0 86 c1 ba 3d 70 4a 4a bb fa 0b 26 bc d4 f2 05 3e
       0.09118943 -0.0030867122 -0.010134691 0.13080913
0000d0 d8 79 89 bc ef 1c cd bc 02 2c ab bc 73 d0 04 bd
       -0.016781732 -0.02503821 -0.020895008 -0.032425355
0000e0 2a 06 00 bd be 42 25 bd 52 3f 1e 3d 79 32 93 bc
       -0.03125588 -0.040346853 0.038634606 -0.017968403
0000f0 41 03 76 3c 53 53 a3 3c 71 05 36 bd 1d f1 8c 3c
       0.015015424 0.019937193 -0.044438783 0.017204816
000100 c1 cd 8c 3d 06 a3 80 bd e9 bf c7 3d d3 8f 74 3d
       0.06875182 -0.06281094 0.09753401 0.059707474
000110 ca 0e a4 3d 3f c3 c0 3c d3 ab f4 bc 3b 82 f5 bc
       0.08010633 0.0235306 -0.029867088 -0.029969325
000120 48 25 83 3c 7c 69 1c bc aa 8c d7 bb c9 91 fb 3c
       0.016008988 -0.009546634 -0.0065780478 0.030709164
000130 53 92 82 bb 5e f8 35 bd 3b df 7f 3b a4 57 f8 3c
       -0.0039847284 -0.044426315 0.0039042968 0.030315228
000140 db 83 e5 bc fc 75 17 3c bc 8f c0 bc 25 c8 25 3d
       -0.028016975 0.009244438 -0.023506038 0.040474076
000150 4d 08 ae bb c5 f3 f7 bc 7c 09 40 bc 27 c5 ec bc
       -0.005311048 -0.030267606 -0.011721011 -0.028902603
000160 e6 91 41 3c be 34 e4 bc 10 5a 5b bd 93 16 63 bb
       0.01181457 -0.02785718 -0.053552687 -0.0034650906
000170 6e f3 17 3d 48 57 94 3c b9 d7 44 3d 96 29 7a bb
       0.037097387 0.018108025 0.04805729 -0.003817176
000180 44 25 bd 3a 39 c9 1b bd 72 c1 0e bd c8 73 95 3d
       0.0014430662 -0.038033698 -0.034852453 0.07297474
000190 c2 c2 10 bc 86 4c 5f 3c fd 5c 5d bb 39 24 77 bd
       -0.008835496 0.013629084 -0.003377735 -0.06033728
0001a0 77 ea c8 bb 2c a6 95 bc ff d7 96 bc e2 80 21 3d
       -0.006131466 -0.018267713 -0.018413542 0.039429553
0001b0 f1 a7 63 bc f2 54 32 bd c9 3f cf 3c 71 6a 0f 3d
       -0.013895021 -0.04353804 0.02529897 0.03501362
0001c0 29 23 8f 3c e4 d4 94 3d a3 32 68 3d 18 f1 56 3b
       0.01747282 0.07267168 0.056688916 0.0032797512
0001d0 4b 48 8d 3d de 77 14 3d d7 f1 cf bc ce 22 9c bd
       0.068985544 0.036247127 -0.025383873 -0.07623826
0001e0 12 58 5b bc a5 8b a3 bd 1e cf 87 bd d9 6b c0 bc
       -0.013387697 -0.079856195 -0.06631301 -0.023488926
0001f0 d4 13 71 3d a0 32 7e 3d 23 ec d2 3c 58 ab 77 3c
       0.0588568 0.06206 0.025747364 0.015116535
000200 b2 79 96 3a 02 7d 0f 3d c6 a1 d5 bc 77 18 0b 3d
       0.001148036 0.035031326 -0.026078116 0.03395888
000210 26 a2 31 bd 99 ef c0 bd 9b 2e 7e 3d f9 09 bb 3c
       -0.043367527 -0.094206996 0.062056165 0.022831904
000220 e4 93 25 bd a8 0d b5 3d cd 75 63 3d 33 a4 93 3d
       -0.040424243 0.08840495 0.055532265 0.07209053
000230 e3 a7 b9 bd 64 e4 97 bc 23 55 98 bc ca ca 08 bd
       -0.09065225 -0.018541522 -0.018595284 -0.03339652
000240 35 79 4d bd b0 6c 34 3d da dc 9d 3d 04 c0 ac b9
       -0.05016442 0.044048965 0.0770814 -0.0003294946
000250 b7 7b cc 3d ce d6 f4 3c da 84 4c bc 6b 23 87 bc
       0.09984534 0.029887583 -0.012482846 -0.01649638
000260 a6 6a a6 bd c8 5f d8 bd 4c 36 40 bd 67 d6 36 bd
       -0.0812581 -0.10565144 -0.04692678 -0.044638064
000270 90 d9 31 3c 54 63 12 bd 07 12 9e bc aa 12 92 3d
       0.010855094 -0.035739258 -0.019295705 0.07132466
000280 ea 01 ef bc d3 57 90 bd 7a ac d7 bd 4d 96 01 bc
       -0.029175717 -0.07048001 -0.10530944 -0.00790937
000290 0f fa c1 bb 00 b9 77 bd ce dd 85 3d c8 b6 18 bd
       -0.005919702 -0.060479164 0.065364465 -0.03728369
0002a0 4e 21 a0 bb e2 d6 3f 3c 63 23 a1 bd 95 03 79 bd
       -0.0048867827 0.011708947 -0.078680776 -0.06079443
0002b0 6b df 09 3d f2 5d 3c 3d 5d ec 6b 3d e6 2d 24 bd
       0.033660334 0.04598803 0.05759846 -0.040082835
0002c0 5c 70 92 3c 59 d4 37 bd db 28 35 bc 66 5b a7 bc
       0.017875843 -0.044880245 -0.011057104 -0.020429324
0002d0 17 26 80 3d c2 48 9a 3c 3f f4 86 3d c5 60 2b 3d
       0.06257265 0.018833522 0.06589555 0.041840333
0002e0 af 43 64 3d cd 59 d6 3c 67 50 a2 3d a3 ec 68 bd
       0.05572861 0.026165867 0.07925492 -0.0568663
0002f0 bb 4d ce 3d 6f 85 b1 bc 76 ba 1b 3d 2c 54 99 3c
       0.1007342 -0.021670071 0.03801962 0.018716894
000300 e4 c4 35 bd 01 59 41 3d 3f eb d4 ba b6 72 7d bb
       -0.044377223 0.04720402 -0.0016244425 -0.003867311
000310 92 fb 80 bd 4a 66 5c 3d 95 1b d0 3c ce 2d 8e bc
       -0.06297983 0.053808488 0.025403777 -0.017355826
000320 9f 81 c6 3c d3 ba 80 bd 77 bc 79 bc 60 e0 68 bd
       0.02423173 -0.06285634 -0.015242687 -0.056854606
000330 df 73 07 be f1 82 55 bc 3f 18 c5 3c 8a 9f 49 bd
       -0.13227795 -0.013031707 0.024059413 -0.049224414
000340 11 ba 1b bc c1 59 80 3c 8e 74 26 bc bb 1f bd 3c
       -0.009504811 0.015667798 -0.010159625 0.02308642
000350 56 1c d1 bb a4 c0 8b 3d dc 4e 6e bd 1e e3 f0 3b
       -0.0063815517 0.06823853 -0.058180675 0.007351293
000360 08 53 33 bd 1d d1 5a 3d ef 47 8c bc 13 3c d3 bb
       -0.043780357 0.053422082 -0.017124144 -0.0064463704
000370 ab 4a 70 bc 69 97 b4 bd a5 6b 39 bc ef fa 47 be
       -0.01466624 -0.08817942 -0.011317168 -0.19529317
000380 27 d6 1c 3c 80 bd 99 bb ef 60 88 3d fc 16 51 ba
       0.009572542 -0.0046917796 0.066591136 -0.0007976142
000390 70 be a5 bc a7 f0 8e 3b 82 a3 3a 3d c3 ee eb 3c
       -0.02023241 0.004362184 0.04556609 0.028800374
0003a0 fd 28 5e 3c aa d2 3e bd 96 7a 13 bd 30 8e f2 3c
       0.013559577 -0.046587624 -0.03600558 0.029608816
0003b0 54 d4 88 bc c4 26 d1 3b fe e7 81 bd 2a b8 91 3b
       -0.016702808 0.006382795 -0.06343077 0.004447003
0003c0 4c 47 07 bd 54 09 80 3d ea 70 06 bc da d8 f4 bc
       -0.03302698 0.06251779 -0.008205632 -0.02988856
0003d0 61 59 22 bd 81 10 d0 bc 45 1b c5 bb 1a c4 6e bb
       -0.03963602 -0.025398495 -0.0060152137 -0.0036432804
0003e0 08 b5 62 3d 26 5b 54 bc ea fe 97 3c 11 bb 4e bd
       0.055348426 -0.012961185 0.01855417 -0.05047137
0003f0 e2 f7 ac 3c 52 e8 68 3d 2a a7 4d 3c 77 d7 00 bd
       0.021114293 0.056862183 0.012552062 -0.031455483

model/last_layer/BiasAdd/ReadVariableOp/resource f4 [31]
000000 73 2c 2b bc 61 13 4a bd 52 60 4f 3d 09 55 1f bd
       -0.010447609 -0.049334887 0.050628968 -0.038899455
000010 de bc 20 bd d6 05 e6 bb 33 15 23 3c 5a 64 3b 3c
       -0.039242618 -0.0070197387 0.009953785 0.0114375
000020 9c e1 24 bd 83 a1 58 3c 1c 4e b5 3c b8 03 5c bd
       -0.04025422 0.013222101 0.022131972 -0.053714484
000030 5c 41 31 bb 90 2d 26 3c d7 41 2d bc 04 a7 27 3d
       -0.0027047014 0.010142699 -0.0105747795 0.040930763
000040 39 7a b0 3c f0 fe c2 3c 0e 16 65 bd ec 24 de bc
       0.021542655 0.023803204 -0.055929236 -0.027117215
000050 fd e0 a2 3c e5 66 e7 3b 7e 58 41 bd 8c 59 98 bb
       0.019882673 0.0070618265 -0.047203533 -0.0046493467
000060 82 f3 02 bb 71 f7 a1 3c 79 95 11 bd ad ba 0b 3d
       -0.0019981568 0.01977131 -0.03554294 0.034113575
000070 e5 19 fa ba 77 0f 88 bd 28 3d 8a bd
       -0.0019081203 -0.06643575 -0.06749946

model/dense/MatMul f4 [256, 32]
000000 e0 9b 96 3d c9 7a 79 3d f2 18 5d 3e 9c 10 28 3d
       0.073539495 0.060908113 0.21591547 0.041031465
000010 2d 44 65 3d 88 53 b7 bc 5a fd e8 3d fa 6c 04 3e
       0.05597322 -0.022378698 0.11376448 0.12932196
000020 5c a2 13 be b8 af 36 3d bc c9 19 be cc b7 2c 3d
       -0.14417404 0.044601172 -0.15018362 0.04216747
000030 0a 42 83 be 51 59 c2 bb aa cb 24 be 81 1e 8e 3c
       -0.2563632 -0.0059310575 -0.16093317 0.01734853
000040 c5 c9 2f be e8 8f 04 bd 5d 7f e0 3c 00 a3 5f 3d
       -0.17166813 -0.032363802 0.027404482 0.05459881
000050 0b 67 eb 3d c4 ab 4a 3d 65 6c f1 bb a7 32 ed 3c
       0.11494263 0.049480215 -0.007367658 0.028954817
000060 94 04 70 bd 2f ca f9 bc 51 86 c2 bc 5b cc b7 bc
       -0.058598116 -0.030491916 -0.023745688 -0.022436311
000070 91 d7 8e 3d 58 ae 0b bd fd 11 f4 3c 21 e4 a2 bd
       0.0697471 -0.034101814 0.029793734 -0.079536684
000080 5c 86 83 3d 7d 91 08 3d cf 56 46 be 56 a5 88 bd
       0.064221114 0.033341873 -0.19369052 -0.0667216
000090 5c 58 d6 3c d4 d6 88 bc 0d 0a 0a be d6 a4 cb bd
       0.02616518 -0.016704 -0.13480397 -0.09943549
0000a0 31 04 04 3e 57 9b 56 3d 61 7b 8d bb 8f 92 89 bd
       0.12892224 0.052394237 -0.0043176864 -0.06717407
0000b0 d0 94 e8 3e 3e 34 6f bd b9 92 5b 3d 70 bf 8b bd
       0.45426035 -0.05839943 0.053606723 -0.06823623
0000c0 ee c9 25 3e 19 87 a7 bc 19 e3 fd bc 60 37 2c bd
       0.16190311 -0.020450162 -0.030992078 -0.042044997
0000d0 dd 57 e7 bd 0b 49 2a be c9 cd 99 bd 24 98 5e bd
       -0.112960555 -0.16629426 -0.075099535 -0.05434431
0000e0 16 92 78 bd f3 0d 55 bd 8a 73 98 3d cb b2 80 bd
       -0.060686193 -0.052015256 0.07443912 -0.06284102
0000f0 8e 2b c6 bd d7 7f 59 3d 37 09 b1 bc 1c 0e a7 3d
       -0.09676276 0.053100433 -0.02161084 0.08156988
000100 5a 87 df 3d 72 38 21 be 53 f0 dc 3c 2a 57 83 bd
       0.10914488 -0.15744188 0.026970064 -0.064131096
000110 4a 43 50 3c be b6 bf bc c8 be c7 bc b6 de 77 3e
       0.012711355 -0.023402568 -0.024382964 0.24206051
000120 15 84 13 3d 64 a6 c8 3d c9 9f 89 3d ba 30 b7 bc
       0.036014635 0.097973615 0.0671993 -0.022362102
000130 0e f6 77 3e 92 bd 36 3d c1 69 84 3d f8 38 e9 bb
       0.24214956 0.044614382 0.064654835 -0.007117387
000140 e3 5d aa ba 7b 3d 66 3d c4 23 c1 bb 97 d6 6f bd
       -0.0012997951 0.056210976 -0.005894156 -0.05855426
000150 98 72 8e bd 28 46 2b 3d ac d7 f2 bc a6 ef 2a bd
       -0.06955451 0.041814953 -0.029643856 -0.041732453
000160 de 49 54 3c dd ed 9b 3d 67 46 56 3d 21 82 2a be
       0.012957064 0.07613728 0.052313235 -0.16651203
000170 29 49 5b be 5f dc b5 3e b8 29 a3 bd bc ce 94 3c
       -0.21414627 0.35519692 -0.079669416 0.018164985
000180 de 8a 1e 3e 13 73 a5 bc d1 d0 07 3e 4c 54 c6 3c
       0.15482661 -0.020196473 0.13263251 0.024210118
000190 45 3f 9b bb 64 03 74 3e e3 e7 1c be 9d 1b 2a 3d
       -0.004737767 0.23829418 -0.15322833 0.04153024
0001a0 44 36 d8 bc 4d a0 5c 3d b5 5c d6 bd 0b d4 4f bc
       -0.026393063 0.053863812 -0.10466901 -0.012684832
0001b0 64 fa d6 3d 92 c6 24 bd de 91 57 be a9 4c 0f bc
       0.10496977 -0.040228434 -0.21051738 -0.008746305
0001c0 2c ff c2 bd df af 9e 3d 29 22 e0 bd 5b bd 4b 3d
       -0.095213264 0.077483885 -0.109440155 0.04974113
0001d0 cf 7d 5b 3d 5b 7d 8e 3e 99 00 40 bd 8a 39 9b bd
       0.053586777 0.27830014 -0.04687557 -0.07579334
0001e0 d8 3f d9 3d 41 6b 04 be 52 c7 ab 3c da d1 d6 bd
       0.1060788 -0.12931539 0.020969067 -0.10489245
0001f0 75 b4 bf bc 8f fd b0 bd cc 20 69 3e 74 4d 14 bc
       -0.023401478 -0.086421125 0.22766417 -0.009051669
000200 29 01 61 bd 35 34 91 3d af 67 7e be 19 3b ed 3d
       -0.054932747 0.07090036 -0.2484424 0.115835376
000210 e7 73 18 bc 8d 7c 01 3c 70 90 c4 bd 28 04 19 3e
       -0.009304977 0.00790323 -0.09597862 0.14942992
000220 bd 44 fa 3c 9e b4 73 bc a0 e8 21 3e 29 55 63 be
       0.030550355 -0.014874605 0.15811396 -0.22200455
000230 30 3e 22 3e 09 dd bb bd f9 f8 14 3e 26 90 0d 3d
       0.15844035 -0.091730185 0.145481 0.0345613
000240 45 5e c5 3c 92 7e 30 3d e6 70 a5 bc cb ad 8b 3c
       0.024092803 0.043089457 -0.020195436 0.017050644
000250 13 57 ee bc ec bb b0 3c 75 ba 57 bd ba 8e 13 3d
       -0.029094255 0.021573983 -0.052668054 0.036024787
000260 92 35 80 3d 65 b4 33 bd 82 a4 27 bd 5d 86 e6 3d
       0.06260218 -0.04387321 -0.04092837 0.112560965
000270 0c c0 a6 bd 5d 22 ef 3d c4 c0 bc bc 70 7e b1 be
       -0.08142099 0.11676476 -0.023041137 -0.34666777
000280 8c de 68 3d ec 2e b0 3d 0b ca 2a 3d 82 05 a9 3c
       0.056852862 0.086027 0.04169659 0.02063251
000290 a9 10 47 bd 81 e8 b3 bd 0c a0 36 3d 03 71 02 3d
       -0.048599873 -0.08784581 0.044586226 0.031846058
0002a0 9c 0e b4 bd f1 95 b3 bd db 25 fa 3d dc b2 de 3d
       -0.08791849 -0.087688334 0.122142516 0.108739585
0002b0 aa 1d a1 3c 1a f1 2e 3d 8e bb 28 bd 09 f6 57 bd
       0.019667465 0.0427104 -0.04119449 -0.05272487
0002c0 26 b2 07 bb 19 72 00 be 19 1d 27 3e 44 d9 10 bc
       -0.002070555 -0.12543525 0.16319694 -0.008840863
0002d0 06 59 0c bd 9f 8b b9 bd 56 c0 30 3c 5b 0f 8a be
       -0.034264587 -0.09059834 0.010788044 -0.2696484
0002e0 dc 30 b0 bc 3c 33 81 3c 47 cd ca be 51 9c fa bd
       -0.021507673 0.0157715 -0.3960974 -0.12236846
0002f0 87 ec b0 bd 43 09 06 3d ed 43 2e bd b7 d4 c1 bd
       -0.08638864 0.032723676 -0.042545248 -0.094644
000300 2e 50 75 bd 5c 38 28 3e 8f 41 f6 bd 91 85 a6 3c
       -0.05989092 0.1642775 -0.12024223 0.020327361
000310 fa 68 dd bd 63 bc 34 bc ad 63 28 3e e8 97 10 be
       -0.10811038 -0.011031243 0.16444273 -0.14120448
000320 95 6c ec 39 d6 74 f3 bd 82 c0 06 3e 72 a5 ec 3d
       0.00045094328 -0.11887519 0.13159373 0.11554994
000330 49 84 0f 3c 4c a9 f2 bd 0b f1 00 3e 45 8f 9e 3d
       0.008759567 -0.11848697 0.1259195 0.0774217
000340 36 eb 50 bc 13 3a 05 bd 57 a9 04 3e 50 7c 45 bd
       -0.012751391 -0.032526087 0.12955223 -0.048214257
000350 ec dc 1a bc fb 8f 7b bd f6 ef e9 3d 0d 4e 5c 3e
       -0.009452086 -0.061416607 0.11422722 0.21514149
000360 54 22 18 bd 76 e3 e1 bc 86 c3 06 be 91 16 83 bd
       -0.037142113 -0.027574282 -0.13160524 -0.064007886
000370 8c f1 1d 3e d6 20 8c bc 32 ea b4 bd 9f 1a 36 bd
       0.15424174 -0.017105501 -0.08833732 -0.04445898
000380 99 f4 2a bd 97 88 90 bd 94 55 aa 3d a1 31 b2 bc
       -0.041737173 -0.070573024 0.08317104 -0.02175218
000390 f7 6d b0 bd 08 73 cc 3c 81 f7 81 3c 70 00 da 3d
       -0.08614724 0.024957195 0.01586509 0.10644615
0003a0 6f 41 ce bc 6a be cc be fc d3 39 3e b6 a9 a9 bd
       -0.025177686 -0.39989024 0.18147272 -0.08284323
0003b0 d5 b7 2a 3b 1b ef e3 3c 59 99 44 3e 1f dc 39 3b
       0.0026049514 0.027823975 0.19199122 0.0028359962
0003c0 d0 a7 1e bd ff a6 9c bd 94 6c 41 be a7 70 33 be
       -0.038734257 -0.076490395 -0.18889076 -0.17523442
0003d0 7a 6d c8 bd c1 e5 3e 3e b5 3e a3 3d c7 e3 35 3e
       -0.09786506 0.18642332 0.07970945 0.17762671
0003e0 eb 91 04 bd 3e 5b 98 bd 5c 0d 18 be 4c ac b5 bd
       -0.03236572 -0.07439278 -0.14848846 -0.08870754
0003f0 7e eb 08 3d 63 75 39 bc 38 a2 a1 3c 44 36 d9 bd
       0.033427708 -0.011319491 0.019730672 -0.106060535

model/last_layer/MatMul f4 [31, 256]
000000 e3 1e 77 bd d0 49 77 3d 21 b3 46 bc aa 75 3c 3d
       -0.06033219 0.060373127 -0.012127669 0.04601065
000010 d3 96 c0 3d 0f 5b c7 bd d1 54 e0 bd 08 d1 f3 bd
       0.094037674 -0.09734165 -0.109536774 -0.11905104
000020 0c 3f 8c 3d 24 c7 52 bb 5a c9 95 bd 6b 83 ac bd
       0.06847963 -0.0032162154 -0.073137954 -0.084235035
000030 4a 9e 19 3d 7e 7d 93 3d bb 7e b7 bd 15 18 6c bd
       0.03750447 0.0720167 -0.08959719 -0.057640154
000040 b7 51 5d 3d 8a 53 e6 bd 35 e3 96 3d 9f 75 e9 3d
       0.054033007 -0.112464026 0.07367555 0.113993876
000050 9e f0 68 3d 63 c5 98 bd c6 4c a9 bd a8 e7 67 bd
       0.056870095 -0.074595235 -0.082665965 -0.05661741
000060 5a 07 c6 3c 80 22 58 bc 8a 79 81 3d 1f 9b b2 3c
       0.024173427 -0.013191819 0.0632201 0.021802483
000070 9c ba f0 bd d9 d0 38 3c 95 a7 a2 bd bc 20 04 3d
       -0.11754343 0.011280262 -0.0794212 0.03225778
000080 f1 72 5d bc 81 c2 f1 3a 2c d7 ac 3d 20 42 66 bb
       -0.013516174 0.0018444808 0.08439478 -0.0035134628
000090 3f d1 4d bc f3 aa a2 3d 19 43 80 3d 5c 76 09 be
       -0.012562095 0.07942762 0.06262798 -0.13424057
0000a0 72 b2 97 bc dc 7e 97 bc 02 ea da 3c 40 20 50 3d
       -0.018517707 -0.018493108 0.026722912 0.050812006
0000b0 51 51 7e 3d 54 30 cf bc 1f 38 de bd 01 c7 ad bd
       0.062089268 -0.0252916 -0.10850548 -0.084852226
0000c0 c8 c1 82 ba 57 4e af 3d 2f e4 77 bd 3a b0 24 3d
       -0.0009975964 0.08559864 -0.060520347 0.040207125
0000d0 d9 67 5c 3b c2 f9 1b 3d 2d b9 11 bc 31 49 d7 bd
       0.0033631234 0.038079984 -0.008894247 -0.10512007
0000e0 b9 ab b7 bc a7 60 c7 3b 74 c7 ac 3d 1b c3 1f 3d
       -0.02242075 0.00608452 0.0843648 0.039004426
0000f0 33 ad 11 bd 3a 05 c9 bd fa 31 eb 3c ca b4 b4 3c
       -0.035565566 -0.0981545 0.028710354 0.022058863
000100 10 40 bc bd 9d a0 11 3d ac fc 81 3d d1 e4 43 bd
       -0.091919065 0.035553563 0.063470215 -0.04782564
000110 e1 84 90 bd 1f 1e 3d 3d 72 b4 e5 bd 23 df 6b bd
       -0.07056595 0.046171304 -0.11216058 -0.057585847
000120 72 4b 12 3c 14 88 16 3d 09 bb c1 bd 9a 88 d5 bc
       0.00892912 0.036750868 -0.09459502 -0.026066113
000130 44 81 ae 3c d6 da d5 bc 68 02 81 3d c2 c2 5e 3d
       0.021301873 -0.026105326 0.06299287 0.054384954
000140 7b a3 81 3c 70 47 a3 3d da 9e 55 bd 8b fa 2f 3d
       0.015825024 0.0797261 -0.052153446 0.042963546
000150 cb e7 57 3d ca 64 c1 bd 69 a6 b3 bd 92 ba 84 3b
       0.05271129 -0.09443052 -0.087719746 0.004050561
000160 98 6e 87 3a cb 08 b4 bd d1 dc c4 bd 6a 88 d0 bd
       0.0010332642 -0.087907396 -0.0961243 -0.10182269
000170 a7 de cc bb 99 9d 38 3d b2 e2 8f 3d c9 cf 57 3d
       -0.006252128 0.04507217 0.070256606 0.052688394
000180 3f 28 a6 bd a1 dd e7 bd 81 bb 89 3d e8 cc 02 be
       -0.08113145 -0.11321569 0.06725217 -0.12773478
000190 87 84 71 3c 34 ee 4b bd 90 a4 dc bb ae 9c b0 3d
       0.01474107 -0.049787715 -0.0067334846 0.08623634
0001a0 bc b5 92 bd ac 99 70 3d dd ce c6 3d 5a 0b bf 3c
       -0.07163569 0.058740303 0.09707425 0.023320843
0001b0 ef 9b e8 bd a2 68 e5 3d a3 82 08 bd eb 1a 4a 3d
       -0.11357867 0.11201598 -0.03332771 0.049342077
0001c0 54 f0 ae bd 6e c6 61 3d f5 5d e7 3d 7e 96 4d bd
       -0.08541933 0.055120878 0.11297218 -0.05019235
0001d0 7c 3e 14 bd 5c 3b 5a bb 61 84 a6 bb de f6 a2 3d
       -0.036192402 -0.003329954 -0.0050816988 0.079572424
0001e0 34 c8 68 bd 29 b6 4f bd 7c 41 2d 3c 0b 55 ea bb
       -0.056831554 -0.05071083 0.010574695 -0.007151251
0001f0 2f 70 88 3d 83 e8 dd bd 8c 82 d4 bb c0 b2 ec 3d
       0.06662022 -0.10835364 -0.006485289 0.11557531
000200 0e 50 8e bb d5 44 cd 3d 10 35 9f bd 7e c3 e3 bd
       -0.0043430394 0.10022894 -0.07773793 -0.111212716
000210 1c 66 7b bd 10 15 ed b6 27 94 b5 3d 64 86 a0 bd
       -0.061376676 -7.0656024e-06 0.088661484 -0.07838133
000220 39 44 c8 bd 30 58 65 3d a7 6e 50 3d 92 68 1c bd
       -0.097786374 0.055992305 0.050886776 -0.038185664
000230 7f 24 b2 bd d0 4a b0 bd df 62 dc 3d d4 cb c4 bd
       -0.08698367 -0.08608019 0.10761046 -0.0960919
000240 dd c9 d2 3d 7e cd f0 bd 24 8b 9e 3b 7c ec a2 3d
       0.102924086 -0.117579445 0.004838364 0.07955262
000250 a8 b4 77 3d 64 7a 5a 3d 48 7e 82 bc 48 c8 be bd
       0.06047502 0.053339377 -0.015929356 -0.09315544
000260 4f bf c6 bc e1 3e 04 bc 51 ff 98 bd a3 8b 20 3d
       -0.024261145 -0.008071632 -0.07470573 0.039195668
000270 f1 d2 84 3d 86 c2 ed 3b 91 1a 78 3d 44 26 04 3d
       0.064855464 0.007255855 0.06057221 0.032263055
000280 d2 a7 b5 3d 8a 95 17 bd c4 a5 99 3d fb 1a 88 3c
       0.088699 -0.037007846 0.075023204 0.016614428
000290 e8 82 47 bd 91 e6 ae bd 28 9f 0f bd 54 48 95 3d
       -0.048708826 -0.08540071 -0.035063893 0.07289186
0002a0 b7 8b b1 bd 64 1a 5b bd 5f c1 52 bb 57 2a e8 bc
       -0.086692266 -0.053491965 -0.0032158715 -0.028340502
0002b0 45 ce 73 3d a9 cc cb bc 47 0d 52 bd 09 f7 4a 3c
       0.059522886 -0.024877863 -0.051282194 0.012387999
0002c0 7f 8b b0 3c 57 4c 59 3c 19 56 89 3d 66 bd ce bc
       0.021550892 0.01326283 0.06705875 -0.025236797
0002d0 46 dd c6 bd f1 26 0c 3d f1 7a 72 bc 15 d2 8e bd
       -0.09710173 0.034216825 -0.014799819 -0.06973664
0002e0 7a fc 27 3d c8 fd 88 3d eb 8e 77 bd b5 f1 13 3d
       0.041012265 0.0668903 -0.06043903 0.03611918
0002f0 13 0a b4 bd 99 83 ca bd bf 1b e0 bd d9 a1 a6 3d
       -0.08790984 -0.098883815 -0.10942792 0.08136339
000300 c3 59 38 3d a5 44 59 3d ba 22 18 bd c6 68 69 bd
       0.04500748 0.05304398 -0.037142493 -0.056984685
000310 7e 7c b0 bd 49 1a a0 bd 9d 88 6d bd a2 b5 3f bd
       -0.08617495 -0.078175135 -0.057991613 -0.046804078
000320 4e d0 cf bd e1 c2 e8 bd d2 20 76 3d ba 69 3b 3d
       -0.10147153 -0.11365295 0.060089894 0.045755126
000330 87 10 1f 3c 56 81 db 3c df bc 2b bc d9 b9 1d 3c
       0.00970853 0.02679507 -0.010482042 0.009626829
000340 f8 94 81 3d 37 0d b1 3d b0 52 e5 3d ba 0d a8 bc
       0.06327242 0.08645099 0.11197412 -0.020514358
000350 15 e6 24 bd c5 94 d8 bd dd b8 5a 3d ed 00 c5 3c
       -0.040258486 -0.105752505 0.053398956 0.024048293
000360 25 30 49 3d 46 34 b4 bd e1 49 16 3d 75 b7 49 3d
       0.04911818 -0.08799033 0.03669155 0.049247224
000370 4d ae a7 3b 31 fb 44 bd ee 33 cc bb 69 56 01 3e
       0.005117214 -0.048091117 -0.0062317764 0.12630619
000380 42 ff 6f 3d 2c ff b7 3c ce df 9c bd 19 ab 8e bd
       0.058593042 0.022460543 -0.07659875 -0.06966228
000390 f5 f6 aa 3d 65 ec 91 3d 02 50 ae bd 6f c5 81 bd
       0.083478846 0.07125167 -0.08511354 -0.063364856
0003a0 76 b6 a1 3d a1 8d 89 3d c2 d8 f5 3d b8 19 43 3d
       0.0789613 0.06716467 0.12004234 0.04763195
0003b0 50 f4 50 bd c1 e2 54 bd a5 c3 bd 3c c3 96 10 3c
       -0.051014245 -0.051974062 0.02316458 0.008825007
0003c0 b0 02 c6 bd b9 20 cd bd bc 89 cf 3d 44 60 83 bc
       -0.09668481 -0.10016007 0.101336926 -0.016037114
0003d0 80 a8 44 3d 4c a7 a0 bc f9 b8 9b 3d 06 ae 41 bd
       0.048012257 -0.019611023 0.0760364 -0.047285102
0003e0 3c cc 93 3d 79 46 3d bd 8a 71 90 3d 29 a6 ce 3d
       0.07216689 -0.046209786 0.07052906 0.10090286
0003f0 bb 5e a5 bd 23 de 98 3d 97 41 4c bd a0 f3 86 bd
       -0.08074709 0.07464244 -0.04986724 -0.065894365

model/time_distributed_10/batch_normalization_2/FusedBatchNormV3 f4 [8]
000000 10 46 20 bc af e6 b1 bc d8 41 3d bb 63 c6 a1 3c
       -0.009782329 -0.021716444 -0.0028878357 0.019747918
000010 d6 ae 2e bc 40 6f b0 bc 21 6d 93 bc 2c a6 e5 ba
       -0.010661801 -0.021537423 -0.017996373 -0.0017520837

model/time_distributed_10/batch_normalization_2/FusedBatchNormV31 f4 [8]
000000 a8 49 14 3e 3a b2 17 3c 1a d6 9c 3c c9 4c b4 bb
       0.14481223 0.009258801 0.01914506 -0.0055023176
000010 f9 1f 75 3e b2 08 44 3e 5d 95 73 3e 9d 59 8f bd
       0.23937978 0.19143942 0.23787446 -0.06999514

model/time_distributed_13/batch_normalization_3/FusedBatchNormV3 f4 [16]
000000 ca 23 d5 bd 69 86 34 be ba f8 55 ba c4 a0 f3 bd
       -0.10407217 -0.17629398 -0.00081623683 -0.11895898
000010 62 e6 a0 bd 18 a9 a5 b7 66 6a 68 bd 18 76 1e be
       -0.07856442 -1.9748273e-05 -0.056742094 -0.15474737
000020 e6 c5 e2 bd f4 4d ef 3b c9 ea 19 bd 0a 0c e7 bb
       -0.110729024 0.007302994 -0.037577424 -0.0070509957
000030 ca 1d a9 bd 04 86 fd bc 6a 2f 42 bd d2 fb db 3c
       -0.08257635 -0.030947693 -0.0474085 0.026853476

model/time_distributed_13/batch_normalization_3/FusedBatchNormV31 f4 [16]
000000 22 2e 07 40 50 14 49 40 20 52 1b 3e b0 eb b9 3f
       2.1121907 3.1418648 0.15168047 1.4525051
000010 f0 47 c5 3f 14 d1 d1 3d b9 f8 f4 3f cb a3 c3 3f
       1.5412579 0.102449566 1.9138404 1.5284361
000020 cd 83 56 40 1e 29 07 3f f3 99 e1 3f 35 f7 2f 40
       3.3517945 0.52797115 1.7625107 2.7494633
000030 08 d4 12 40 56 d5 11 3f 78 ad 5e 40 35 c7 90 40
       2.2941914 0.5696615 3.4793377 4.5243173

model/time_distributed_2/batch_normalization/FusedBatchNormV3 f4 [8]
000000 ca e6 de bb f5 3f 94 bb 21 bc 9e bb a4 34 0d bc
       -0.0068024145 -0.004524226 -0.004844204 -0.0086185075
000010 b1 0f 99 bd 2a bb c7 bb 6a d0 06 be b4 44 16 3c
       -0.07473696 -0.0060953097 -0.13165441 0.009171654

model/time_distributed_2/batch_normalization/FusedBatchNormV31 f4 [8]
000000 77 41 01 bd 29 bd c8 bb 7d 58 74 ba 0c 25 e3 3c
       -0.031556573 -0.0061260653 -0.0009321047 0.027727626
000010 0b c7 e7 3d 96 6f 07 3d 06 86 ca 3d 09 d8 ec 3c
       0.11317261 0.0330654 0.09888844 0.028911607

model/time_distributed_5/batch_normalization_1/FusedBatchNormV3 f4 [16]
000000 88 b2 fb 3c 74 5e ae bd f4 82 98 be f2 ec a0 be
       0.030724779 -0.08514109 -0.2978741 -0.31430775
000010 80 6f 41 bf e4 b2 b7 be d1 bb 5a be 84 5f bf be
       -0.7556076 -0.3587867 -0.21360709 -0.3737756
000020 c6 a4 9d be 91 e5 25 be 13 e4 0d bf 00 c7 e4 be
       -0.30789775 -0.16200854 -0.5542614 -0.44683075
000030 70 d3 d3 3b 54 86 a5 3c 86 11 37 bf 0b 40 8a be
       0.0064644143 0.020205654 -0.71511114 -0.27001986

model/time_distributed_5/batch_normalization_1/FusedBatchNormV31 f4 [16]
000000 2d 8f ac 40 d0 eb 6d 40 bb 3f 61 40 59 72 55 40
       5.3924775 3.7175179 3.5195148 3.3351042
000010 f0 7e 36 40 f5 fd 6f 40 4d 05 52 40 f1 b5 6b 40
       2.8514977 3.7498753 3.2815735 3.6829798
000020 42 62 6d 40 a9 1a 0b 40 c3 fe 7d 40 eb 59 79 40
       3.7091222 2.1735022 3.9686744 3.8961132
000030 84 5a 9b 40 9e 82 be 40 92 1c 5b 40 d4 eb 8c 40
       4.8547993 5.9534445 3.4236188 4.4037876
