HPC_Final_Study2_Complete_Test_Class_Balance_run_all/participants_session_transfer_train/participant_13/session_3/session_3_lite_models/indexpen_model_quant.tflite (tflite, 412752 bytes, 45 tensors)

model/time_distributed_3/conv2d_1/BiasAdd;model/time_distributed_11/conv2d_3/Conv2D;model/time_distributed_3/conv2d_1/Conv2D;model/time_distributed_3/conv2d_1/BiasAdd/ReadVariableOp/resource f2 [16]
0	0xb335	-0.2252
1	0xb0a5	-0.1451
2	0xa2c6	-0.01323
3	0xa798	-0.02966
4	0x30d5	0.151
5	0xac27	-0.0649
6	0xb05a	-0.136
7	0xa8c0	-0.0371
8	0xaea9	-0.10406
9	0xae62	-0.09973
10	0x1e55	0.006184
11	0xaae0	-0.0537
12	0xb2d2	-0.2131
13	0xb1eb	-0.1849
14	0x2d96	0.0873
15	0xb0e7	-0.1532

model/time_distributed/conv2d/BiasAdd;model/time_distributed_8/conv2d_2/Conv2D;model/time_distributed/conv2d/Conv2D;model/time_distributed/conv2d/BiasAdd/ReadVariableOp/resource f2 [8]
0	0x9b96	-0.003704
1	0x1d04	0.004898
2	0x9492	-0.001116
3	0x9209	-0.0007367
4	0x2acf	0.0532
5	0x28c3	0.0372
6	0x30fd	0.1559
7	0xa532	-0.0203

model/time_distributed_11/conv2d_3/BiasAdd;model/time_distributed_11/conv2d_3/Conv2D;model/time_distributed_11/conv2d_3/BiasAdd/ReadVariableOp/resource f2 [16]
0	0x21de	0.01146
1	0x2c96	0.07166
2	0xa5ea	-0.0231
3	0x232a	0.01399
4	0x2c7f	0.07025
5	0xa0eb	-0.009605
6	0x9a07	-0.002943
7	0x2c38	0.0659
8	0xa2cc	-0.013275
9	0x2147	0.01031
10	0x21f1	0.011604
11	0xa4b9	-0.01845
12	0x2800	0.03125
13	0xa2b7	-0.013115
14	0x2452	0.01688
15	0xac92	-0.0714

model/time_distributed_8/conv2d_2/BiasAdd;model/time_distributed_8/conv2d_2/Conv2D;model/time_distributed_8/conv2d_2/BiasAdd/ReadVariableOp/resource f2 [8]
0	0x2c8f	0.0712
1	0x21b8	0.01117
2	0xa46f	-0.01732
3	0x2780	0.0293
4	0xa43f	-0.01659
5	0x3031	0.131
6	0x297c	0.04285
7	0x969b	-0.001613

model/time_distributed_3/conv2d_1/Conv2D f2 [16, 3, 3, 8]
0	0x2d89	0.0865
1	0xaab5	-0.0524
2	0x9b19	-0.003466
3	0xb465	-0.2747
4	0xa95d	-0.0419
5	0x2ccc	0.07495
6	0x9b1c	-0.003471
7	0x1de5	0.005756
8	0xa57e	-0.02145
9	0xa67b	-0.02531
10	0xa7ea	-0.03091
11	0x2c21	0.0645
12	0x2c17	0.0639
13	0x2867	0.0344
14	0x3329	0.2238
15	0xa60e	-0.02365
16	0x28b6	0.0368
17	0xa9e8	-0.04614
18	0xaa98	-0.0515
19	0x2000	0.007812
20	0xb20b	-0.1888
21	0xaa01	-0.0469
22	0x9cdd	-0.00475
23	0x2332	0.01405
24	0x23f4	0.01553
25	0xac78	-0.0698
26	0xa71f	-0.02782
27	0xab38	-0.0564
28	0xaeb1	-0.10455
29	0x2c2f	0.06537
30	0x31b7	0.1786
31	0x2956	0.0417
32	0xa6d3	-0.02666
33	0x1b3c	0.003532
34	0xa150	-0.010376
35	0x34a1	0.2893
36	0xafa3	-0.1193
37	0x2784	0.02936
38	0x1db7	0.00558
39	0x28fa	0.03888
40	0x1c20	0.00403
41	0x22c2	0.0132
42	0xa15e	-0.01048
43	0xae7b	-0.10126
44	0x24bd	0.01851
45	0xaaf6	-0.05438
46	0xb315	-0.2213
47	0x9c1a	-0.004005
48	0x9465	-0.001073
49	0x29a2	0.044
50	0x2908	0.0393
51	0x2d56	0.0834
52	0xafc9	-0.12164
53	0x1f7a	0.0073
54	0x2ecf	0.1064
55	0xa11a	-0.009964
56	0xa40e	-0.01584
57	0x27cb	0.03044
58	0xa57b	-0.02141
59	0xb066	-0.1375
60	0xaec7	-0.1059
61	0xa834	-0.03284
62	0x3417	0.2556
63	0x21e6	0.01152
64	0x98b6	-0.0023
65	0xa10d	-0.009865
66	0xacb6	-0.0736
67	0xacf0	-0.07715
68	0x9e6e	-0.00628
69	0xa55c	-0.02094
70	0x3758	0.459
71	0xa4a9	-0.0182
72	0x25e6	0.02304
73	0x25ea	0.0231
74	0xae27	-0.0961
75	0xb0a6	-0.1453
76	0x2d42	0.08215
77	0xa621	-0.02394
78	0xb4da	-0.3032
79	0x2f13	0.11053
80	0x29eb	0.04623
81	0x25e6	0.02304
82	0xa30b	-0.013756
83	0xa82f	-0.03268
84	0x2f88	0.1177
85	0xac5f	-0.0683
86	0xa6d4	-0.02667
87	0x2179	0.01069
88	0x9773	-0.001819
89	0x22ad	0.01304
90	0x28d7	0.0378
91	0xace2	-0.0763
92	0xb066	-0.1375
93	0xa220	-0.01196
94	0x34b9	0.2952
95	0xa83a	-0.03302
96	0x2459	0.01698
97	0x280a	0.03156
98	0xaaa9	-0.05203
99	0x3144	0.1646
100	0x267a	0.0253
101	0xa628	-0.02405
102	0xb123	-0.1605
103	0x2a4b	0.04916
104	0xadb1	-0.0889
105	0x252b	0.02019
106	0x2166	0.010544
107	0xa4bd	-0.01851
108	0x2de1	0.09186
109	0xa868	-0.03442
110	0xb530	-0.3242
111	0x265f	0.02489
112	0xae12	-0.09485
113	0x2685	0.02547
114	0x2489	0.01772
115	0xafaa	-0.11975
116	0x2868	0.03442
117	0x25a7	0.02208
118	0x344b	0.2683
119	0x22ab	0.01302
120	0x24ef	0.01927
121	0x27fa	0.03116
122	0x218e	0.01085
123	0xad3f	-0.082
124	0x3076	0.1394
125	0x257c	0.02142
126	0x28fd	0.03897
127	0x9bee	-0.003872
128	0x272b	0.028
129	0x9d0b	-0.004925
130	0x2bbe	0.0605
131	0xaf74	-0.11646
132	0xb06e	-0.1384
133	0x18b3	0.002295
134	0x3337	0.2255
135	0x2c7e	0.0702
136	0x29d4	0.04553
137	0xa7e8	-0.03088
138	0xa863	-0.03427
139	0x2811	0.03177
140	0xb12c	-0.1616
141	0xa98b	-0.0433
142	0x362d	0.386
143	0x2d3c	0.0818
144	0xa5c5	-0.02254
145	0x2466	0.01718
146	0x23d0	0.01526
147	0xaeed	-0.1082
148	0xaffb	-0.1247
149	0xa6b8	-0.02625
150	0xb15e	-0.1677
151	0x263a	0.02432
152	0xa4f2	-0.01932
153	0xa85e	-0.03412
154	0xa97a	-0.0428
155	0xab56	-0.0573
156	0x27fa	0.03116
157	0x2751	0.02858
158	0x319b	0.1752
159	0x980b	-0.001974
160	0xaa1b	-0.0477
161	0xad83	-0.0861
162	0xa307	-0.013725
163	0x294b	0.04135
164	0xa86d	-0.03458
165	0x247f	0.01756
166	0xb061	-0.1368
167	0xa952	-0.04156
168	0x26ad	0.02608
169	0x2a74	0.0504
170	0x2226	0.01201
171	0x3131	0.1622
172	0xb42d	-0.261
173	0x23ca	0.01521
174	0xb5b6	-0.357
175	0x2aaf	0.05222
176	0xa4d8	-0.01892
177	0x29b2	0.0445
178	0x8b51	-0.0002233
179	0xac55	-0.0677
180	0xad79	-0.0855
181	0xa107	-0.00982
182	0xb5ff	-0.3748
183	0x9de1	-0.00574
184	0x250e	0.01974
185	0xa9b2	-0.0445
186	0x25f5	0.02327
187	0x322f	0.1932
188	0x1088	0.000553
189	0xa91b	-0.0399
190	0xb14e	-0.1658
191	0x271a	0.02774
192	0x2a0c	0.04724
193	0x9c99	-0.00449
194	0xa888	-0.0354
195	0xaf72	-0.11633
196	0x2a67	0.05002
197	0x17ba	0.001886
198	0x2930	0.04053
199	0x2237	0.01214
200	0x24d1	0.01881
201	0x28b3	0.0367
202	0x1b4a	0.00356
203	0xb62a	-0.3853
204	0xb263	-0.1996
205	0x9bc6	-0.003796
206	0x3048	0.1338
207	0xa532	-0.0203
208	0x28eb	0.03842
209	0x987c	-0.00219
210	0xa5ee	-0.02316
211	0xa849	-0.03348
212	0xb5b7	-0.3572
213	0xab8e	-0.05902
214	0x31d7	0.1825
215	0x9cdb	-0.00474
216	0xa8bb	-0.03696
217	0x2e5e	0.0995
218	0x203e	0.008286
219	0xae0c	-0.0945
220	0x2de4	0.09204
221	0x2910	0.03955
222	0x2b41	0.05667
223	0xa4be	-0.01852
224	0xa8d5	-0.03775
225	0x29a7	0.04416
226	0x2179	0.01069
227	0x2f23	0.1115
228	0xb091	-0.1427
229	0xabc6	-0.06073
230	0xb0d0	-0.1504
231	0x2681	0.0254
232	0xaaf2	-0.05426
233	0x1d9b	0.005474
234	0x2ae4	0.05383
235	0xb3f6	-0.2488
236	0xab69	-0.0579
237	0xa5ef	-0.02318
238	0x2d71	0.085
239	0xac19	-0.064
240	0x29db	0.04575
241	0x1e06	0.005882
242	0x1caf	0.004574
243	0x213f	0.01025
244	0xa33e	-0.014145
245	0x2884	0.03528
246	0x1914	0.00248
247	0x2bcb	0.06088
248	0x2ca5	0.0726
249	0x2964	0.0421
250	0x24b9	0.01845
251	0xac73	-0.0695
252	0xb0b6	-0.1472
253	0x98aa	-0.002277
254	0xb01f	-0.1288
255	0x270d	0.02754

model/time_distributed/conv2d/Conv2D f2 [8, 3, 3, 1]
0	0x0c6a	0.0002694
1	0x15b6	0.001394
2	0x12b4	0.0008183
3	0x0c0d	0.0002472
4	0x911a	-0.0006227
5	0x15f7	0.001456
6	0x13c5	0.0009484
7	0x149d	0.001126
8	0x130b	0.0008597
9	0x8dc5	-0.0003521
10	0x86db	-0.0001046
11	0x95e7	-0.001441
12	0x9ae8	-0.003372
13	0x1566	0.001318
14	0x15f2	0.0014515
15	0x0a27	0.0001878
16	0x1bbd	0.003778
17	0x9ba0	-0.003723
18	0x9343	-0.0008864
19	0x8f9e	-0.000465
20	0x183f	0.002073
21	0x0b85	0.0002295
22	0x8c32	-0.000256
23	0x9598	-0.001366
24	0x9259	-0.000775
25	0x126a	0.000783
26	0x1221	0.000748
27	0x2030	0.00818
28	0x9e6d	-0.006275
29	0x12a6	0.0008116
30	0x2151	0.01038
31	0x14ec	0.001202
32	0x98c4	-0.002327
33	0x1d7c	0.005356
34	0x9b20	-0.003479
35	0x2285	0.01273
36	0x9e26	-0.006004
37	0x9cc8	-0.00467
38	0xa03c	-0.00827
39	0x21ff	0.01171
40	0x18be	0.002316
41	0x1fbc	0.007553
42	0x286c	0.03455
43	0x0801	0.0001222
44	0xa27c	-0.012665
45	0x8aa5	-0.0002028
46	0x9b35	-0.00352
47	0x184a	0.002094
48	0x125a	0.0007753
49	0x05cb	8.84e-05
50	0x182c	0.002037
51	0x99d9	-0.002855
52	0x9c53	-0.004223
53	0x103e	0.000518
54	0x146d	0.0010805
55	0x1554	0.001301
56	0x1b23	0.003485
57	0x10c1	0.0005803
58	0x2099	0.00898
59	0x14f0	0.001205
60	0xa151	-0.01038
61	0xa8ed	-0.03848
62	0xa020	-0.00806
63	0x9467	-0.001075
64	0x948a	-0.001108
65	0x90f4	-0.0006046
66	0x0f79	0.000456
67	0x0ae0	0.0002098
68	0x9918	-0.002487
69	0x14ce	0.001173
70	0x9875	-0.002176
71	0x13c1	0.0009465

model/time_distributed_11/conv2d_3/Conv2D f2 [16, 3, 3, 8]
0	0x3385	0.235
1	0xa57e	-0.02145
2	0x242a	0.01627
3	0xa017	-0.00799
4	0xb575	-0.341
5	0xb434	-0.2627
6	0xaeed	-0.1082
7	0xac27	-0.0649
8	0x2998	0.0437
9	0x9c78	-0.004364
10	0x25d5	0.02278
11	0xa8d3	-0.0377
12	0xb4e8	-0.3066
13	0x346d	0.2766
14	0xb0ce	-0.1501
15	0xaa81	-0.0508
16	0xad33	-0.08124
17	0x9fee	-0.007744
18	0x2273	0.012596
19	0xa6e9	-0.027
20	0xb548	-0.33
21	0x2e1f	0.09564
22	0x2d5b	0.0837
23	0xa4e8	-0.01917
24	0xb1fe	-0.1873
25	0xaca1	-0.0723
26	0x288f	0.0356
27	0xa8d3	-0.0377
28	0x28e3	0.03818
29	0x303f	0.1327
30	0xb478	-0.2793
31	0xa79a	-0.0297
32	0x2b6e	0.05804
33	0xadbe	-0.0897
34	0x2413	0.01591
35	0xa0ee	-0.00963
36	0x210e	0.00987
37	0x9ca8	-0.004547
38	0x3033	0.1312
39	0x2656	0.02475
40	0x2831	0.03275
41	0xaa9a	-0.05157
42	0x2117	0.00994
43	0xa427	-0.01622
44	0x9ae0	-0.003357
45	0xb38e	-0.2361
46	0x3012	0.1272
47	0x29b5	0.0446
48	0x2a3e	0.04877
49	0xad37	-0.0815
50	0x26d7	0.02672
51	0x9e72	-0.006294
52	0xa464	-0.01715
53	0xae55	-0.09894
54	0xb26b	-0.2006
55	0xa9f2	-0.04645
56	0x9b7b	-0.003653
57	0x2471	0.01735
58	0x245f	0.01707
59	0x2521	0.02003
60	0x2cb5	0.07355
61	0x24d3	0.01884
62	0xac58	-0.0679
63	0xaa12	-0.04742
64	0x2b56	0.0573
65	0xa24c	-0.0123
66	0x273b	0.02824
67	0x28b9	0.0369
68	0x355b	0.3347
69	0xa0bc	-0.00925
70	0xb5d3	-0.364
71	0x2ac8	0.05298
72	0x375e	0.4604
73	0x29fe	0.0468
74	0xa067	-0.0086
75	0x2cd4	0.07544
76	0x3292	0.2053
77	0xaf3f	-0.1132
78	0xb51f	-0.32
79	0x27a0	0.02979
80	0x9841	-0.002077
81	0x199a	0.002735
82	0xa4c9	-0.01869
83	0xabc3	-0.06064
84	0xb143	-0.1644
85	0x30ee	0.154
86	0xae2b	-0.0964
87	0x93e6	-0.000964
88	0xb7a7	-0.4783
89	0x1e94	0.006424
90	0x149e	0.001127
91	0xa4e6	-0.01913
92	0xb6cb	-0.4246
93	0xb09f	-0.1444
94	0x3543	0.3289
95	0x27d9	0.03065
96	0xb455	-0.2708
97	0x9504	-0.0012245
98	0x28e7	0.0383
99	0x9c3f	-0.004147
100	0xb615	-0.3801
101	0x327f	0.203
102	0xb2f7	-0.2177
103	0x2a4d	0.04922
104	0x32e6	0.2156
105	0x24ae	0.01828
106	0x2979	0.04276
107	0x2cff	0.07806
108	0xb458	-0.2715
109	0xb483	-0.282
110	0xb10f	-0.1581
111	0xac8c	-0.07104
112	0x2fa7	0.11957
113	0xa859	-0.03397
114	0xa627	-0.02403
115	0x9552	-0.001299
116	0x3441	0.2659
117	0x2529	0.02016
118	0x23d3	0.01528
119	0x2b03	0.05478
120	0x30e9	0.1534
121	0xa65c	-0.02484
122	0x2697	0.02574
123	0x288b	0.0355
124	0x2d86	0.0863
125	0x31e8	0.1846
126	0xb31f	-0.2225
127	0x29e1	0.04593
128	0xb3f2	-0.2483
129	0x9fdf	-0.007687
130	0x2bb1	0.0601
131	0xaa08	-0.04712
132	0xaf15	-0.11066
133	0xb008	-0.126
134	0xafbe	-0.121
135	0xab00	-0.0547
136	0xb080	-0.1406
137	0xa982	-0.04303
138	0x1f1d	0.006947
139	0x2a95	0.05142
140	0xb5fb	-0.3738
141	0xb0d9	-0.1515
142	0x2c4f	0.0673
143	0xa6fa	-0.02725
144	0x1a46	0.003063
145	0x986d	-0.002161
146	0x2011	0.00794
147	0x26e2	0.02689
148	0x9b46	-0.003551
149	0x2477	0.01744
150	0xa3a5	-0.01493
151	0xa35a	-0.01436
152	0x0dfe	0.0003657
153	0x9a7f	-0.003172
154	0x2069	0.00861
155	0x2698	0.02576
156	0x9a92	-0.003208
157	0x2479	0.01747
158	0xa191	-0.01087
159	0xa316	-0.01384
160	0x9a34	-0.003029
161	0x9cdc	-0.004745
162	0x20b1	0.00916
163	0x2655	0.02473
164	0x9a27	-0.003004
165	0x2464	0.01715
166	0xa44c	-0.01678
167	0xa2d6	-0.01335
168	0x1df3	0.00581
169	0xa4eb	-0.01921
170	0x23f5	0.01554
171	0xa21b	-0.011925
172	0xa41f	-0.0161
173	0x93b7	-0.0009418
174	0x2158	0.01044
175	0xa03c	-0.00827
176	0x1d6c	0.005295
177	0xa51a	-0.01993
178	0x2438	0.01648
179	0xa260	-0.01245
180	0xa288	-0.01276
181	0x990a	-0.00246
182	0x199a	0.002735
183	0x9def	-0.005795
184	0x1aa6	0.003246
185	0xa549	-0.02065
186	0x2452	0.01688
187	0xa23e	-0.01219
188	0x9fa7	-0.007473
189	0x9dc4	-0.00563
190	0x21dd	0.01145
191	0x9c25	-0.004047
192	0x2392	0.014786
193	0xa56e	-0.02121
194	0x2465	0.01717
195	0xa542	-0.02054
196	0x9bdc	-0.003838
197	0x14f1	0.001206
198	0x9c39	-0.004124
199	0xa4c1	-0.01857
200	0x221b	0.011925
201	0xa546	-0.0206
202	0x2457	0.01695
203	0xa520	-0.02002
204	0x9f15	-0.006916
205	0x1ae5	0.003366
206	0xa05c	-0.008514
207	0xa589	-0.02162
208	0xa020	-0.00806
209	0xa50f	-0.01976
210	0x242c	0.0163
211	0xa52d	-0.02022
212	0x9e36	-0.006065
213	0x1129	0.00063
214	0x9fad	-0.007496
215	0xa5e0	-0.02295
216	0xb1d8	-0.1826
217	0xa719	-0.02773
218	0x24e1	0.01906
219	0x2291	0.012825
220	0x2f5e	0.1151
221	0xa9e2	-0.04596
222	0xb33c	-0.2261
223	0x1d4e	0.00518
224	0x3308	0.2197
225	0xa842	-0.03326
226	0x24e7	0.01915
227	0x230f	0.01379
228	0x2ed1	0.1065
229	0x9fc7	-0.007595
230	0xb44b	-0.2683
231	0x9994	-0.002724
232	0x253f	0.0205
233	0xa707	-0.02745
234	0x24d6	0.01889
235	0x9c94	-0.00447
236	0xac77	-0.06976
237	0x2f52	0.1144
238	0x30c0	0.1484
239	0x9eee	-0.006767
240	0x366e	0.4019
241	0xa460	-0.01709
242	0xa54a	-0.02066
243	0x2ad3	0.0533
244	0xb428	-0.2598
245	0x31b9	0.1788
246	0xafaf	-0.12006
247	0x26bc	0.0263
248	0xacf3	-0.07733
249	0x9445	-0.001042
250	0xa75a	-0.02872
251	0x9593	-0.001361
252	0xa71e	-0.0278
253	0x287f	0.03513
254	0xaff6	-0.1244
255	0xa4cb	-0.01872

model/time_distributed_8/conv2d_2/Conv2D f2 [8, 3, 3, 1]
0	0xa4da	-0.01895
1	0xa7fd	-0.0312
2	0x2957	0.04172
3	0x2c72	0.06946
4	0xac9e	-0.07214
5	0x1baf	0.003752
6	0xab5c	-0.0575
7	0x241b	0.01604
8	0x28f7	0.0388
9	0x1993	0.002722
10	0x963f	-0.001525
11	0x1756	0.001791
12	0x1113	0.0006194
13	0x90c4	-0.0005817
14	0x9b4b	-0.003561
15	0x1687	0.001594
16	0x1858	0.002121
17	0x9c46	-0.004173
18	0x1daf	0.00555
19	0x9e10	-0.00592
20	0x162c	0.001507
21	0x9c7a	-0.00437
22	0x1405	0.000981
23	0x18ec	0.002403
24	0x9e57	-0.00619
25	0x14d7	0.001182
26	0x1d29	0.00504
27	0x1ec0	0.00659
28	0x9f9f	-0.007442
29	0x1835	0.002054
30	0x9c2e	-0.00408
31	0x1345	0.0008874
32	0x98a1	-0.00226
33	0x9a86	-0.003185
34	0x988c	-0.00222
35	0x14fc	0.001217
36	0x9a36	-0.003033
37	0x977c	-0.001827
38	0x1f62	0.00721
39	0x229e	0.012924
40	0xa855	-0.03384
41	0x2225	0.012
42	0x9f4a	-0.00712
43	0x21ee	0.01158
44	0x26c7	0.02647
45	0xa85c	-0.03406
46	0x2b07	0.0549
47	0x2477	0.01744
48	0x29db	0.04575
49	0xae18	-0.0952
50	0x28ea	0.0384
51	0xa8da	-0.0379
52	0x2c36	0.0658
53	0xa7ca	-0.03043
54	0x25af	0.0222
55	0xab55	-0.05728
56	0x2470	0.01733
57	0xa522	-0.02005
58	0x26b6	0.02621
59	0x1c75	0.004353
60	0x1b65	0.00361
61	0x2999	0.04373
62	0xac7c	-0.07007
63	0x8d84	-0.0003366
64	0xa07f	-0.00878
65	0x1e7f	0.006344
66	0x2313	0.01382
67	0xa715	-0.02766
68	0x22f6	0.013596
69	0x1ed5	0.00667
70	0x95e9	-0.001443
71	0x9d44	-0.005142

model/lstm/TensorArrayV2_1 f2 [120, 1, 32]
0	0x0000	0.0
1	0x0000	0.0
2	0x0000	0.0
3	0x0000	0.0
4	0x0000	0.0
5	0x0000	0.0
6	0x0000	0.0
7	0x0000	0.0
8	0x0000	0.0
9	0x0000	0.0
10	0x0000	0.0
11	0x0000	0.0
12	0x0000	0.0
13	0x0000	0.0
14	0x0000	0.0
15	0x0000	0.0
16	0x0000	0.0
17	0x0000	0.0
18	0x0000	0.0
19	0x0000	0.0
20	0x0000	0.0
21	0x0000	0.0
22	0x0000	0.0
23	0x0000	0.0
24	0x0000	0.0
25	0x0000	0.0
26	0x0000	0.0
27	0x0000	0.0
28	0x0000	0.0
29	0x0000	0.0
30	0x0000	0.0
31	0x0000	0.0
32	0x0000	0.0
33	0x0000	0.0
34	0x0000	0.0
35	0x0000	0.0
36	0x0000	0.0
37	0x0000	0.0
38	0x0000	0.0
39	0x0000	0.0
40	0x0000	0.0
41	0x0000	0.0
42	0x0000	0.0
43	0x0000	0.0
44	0x0000	0.0
45	0x0000	0.0
46	0x0000	0.0
47	0x0000	0.0
48	0x0000	0.0
49	0x0000	0.0
50	0x0000	0.0
51	0x0000	0.0
52	0x0000	0.0
53	0x0000	0.0
54	0x0000	0.0
55	0x0000	0.0
56	0x0000	0.0
57	0x0000	0.0
58	0x0000	0.0
59	0x0000	0.0
60	0x0000	0.0
61	0x0000	0.0
62	0x0000	0.0
63	0x0000	0.0
64	0x0000	0.0
65	0x0000	0.0
66	0x0000	0.0
67	0x0000	0.0
68	0x0000	0.0
69	0x0000	0.0
70	0x0000	0.0
71	0x0000	0.0
72	0x0000	0.0
73	0x0000	0.0
74	0x0000	0.0
75	0x0000	0.0
76	0x0000	0.0
77	0x0000	0.0
78	0x0000	0.0
79	0x0000	0.0
80	0x0000	0.0
81	0x0000	0.0
82	0x0000	0.0
83	0x0000	0.0
84	0x0000	0.0
85	0x0000	0.0
86	0x0000	0.0
87	0x0000	0.0
88	0x0000	0.0
89	0x0000	0.0
90	0x0000	0.0
91	0x0000	0.0
92	0x0000	0.0
93	0x0000	0.0
94	0x0000	0.0
95	0x0000	0.0
96	0x0000	0.0
97	0x0000	0.0
98	0x0000	0.0
99	0x0000	0.0
100	0x0000	0.0
101	0x0000	0.0
102	0x0000	0.0
103	0x0000	0.0
104	0x0000	0.0
105	0x0000	0.0
106	0x0000	0.0
107	0x0000	0.0
108	0x0000	0.0
109	0x0000	0.0
110	0x0000	0.0
111	0x0000	0.0
112	0x0000	0.0
113	0x0000	0.0
114	0x0000	0.0
115	0x0000	0.0
116	0x0000	0.0
117	0x0000	0.0
118	0x0000	0.0
119	0x0000	0.0
120	0x0000	0.0
121	0x0000	0.0
122	0x0000	0.0
123	0x0000	0.0
124	0x0000	0.0
125	0x0000	0.0
126	0x0000	0.0
127	0x0000	0.0
128	0x0000	0.0
129	0x0000	0.0
130	0x0000	0.0
131	0x0000	0.0
132	0x0000	0.0
133	0x0000	0.0
134	0x0000	0.0
135	0x0000	0.0
136	0x0000	0.0
137	0x0000	0.0
138	0x0000	0.0
139	0x0000	0.0
140	0x0000	0.0
141	0x0000	0.0
142	0x0000	0.0
143	0x0000	0.0
144	0x0000	0.0
145	0x0000	0.0
146	0x0000	0.0
147	0x0000	0.0
148	0x0000	0.0
149	0x0000	0.0
150	0x0000	0.0
151	0x0000	0.0
152	0x0000	0.0
153	0x0000	0.0
154	0x0000	0.0
155	0x0000	0.0
156	0x0000	0.0
157	0x0000	0.0
158	0x0000	0.0
159	0x0000	0.0
160	0x0000	0.0
161	0x0000	0.0
162	0x0000	0.0
163	0x0000	0.0
164	0x0000	0.0
165	0x0000	0.0
166	0x0000	0.0
167	0x0000	0.0
168	0x0000	0.0
169	0x0000	0.0
170	0x0000	0.0
171	0x0000	0.0
172	0x0000	0.0
173	0x0000	0.0
174	0x0000	0.0
175	0x0000	0.0
176	0x0000	0.0
177	0x0000	0.0
178	0x0000	0.0
179	0x0000	0.0
180	0x0000	0.0
181	0x0000	0.0
182	0x0000	0.0
183	0x0000	0.0
184	0x0000	0.0
185	0x0000	0.0
186	0x0000	0.0
187	0x0000	0.0
188	0x0000	0.0
189	0x0000	0.0
190	0x0000	0.0
191	0x0000	0.0
192	0x0000	0.0
193	0x0000	0.0
194	0x0000	0.0
195	0x0000	0.0
196	0x0000	0.0
197	0x0000	0.0
198	0x0000	0.0
199	0x0000	0.0
200	0x0000	0.0
201	0x0000	0.0
202	0x0000	0.0
203	0x0000	0.0
204	0x0000	0.0
205	0x0000	0.0
206	0x0000	0.0
207	0x0000	0.0
208	0x0000	0.0
209	0x0000	0.0
210	0x0000	0.0
211	0x0000	0.0
212	0x0000	0.0
213	0x0000	0.0
214	0x0000	0.0
215	0x0000	0.0
216	0x0000	0.0
217	0x0000	0.0
218	0x0000	0.0
219	0x0000	0.0
220	0x0000	0.0
221	0x0000	0.0
222	0x0000	0.0
223	0x0000	0.0
224	0x0000	0.0
225	0x0000	0.0
226	0x0000	0.0
227	0x0000	0.0
228	0x0000	0.0
229	0x0000	0.0
230	0x0000	0.0
231	0x0000	0.0
232	0x0000	0.0
233	0x0000	0.0
234	0x0000	0.0
235	0x0000	0.0
236	0x0000	0.0
237	0x0000	0.0
238	0x0000	0.0
239	0x0000	0.0
240	0x0000	0.0
241	0x0000	0.0
242	0x0000	0.0
243	0x0000	0.0
244	0x0000	0.0
245	0x0000	0.0
246	0x0000	0.0
247	0x0000	0.0
248	0x0000	0.0
249	0x0000	0.0
250	0x0000	0.0
251	0x0000	0.0
252	0x0000	0.0
253	0x0000	0.0
254	0x0000	0.0
255	0x0000	0.0

model/dense/BiasAdd/ReadVariableOp/resource f2 [256]
0	0xa8ab	-0.03647
1	0x26dd	0.02681
2	0x2481	0.0176
3	0x2e72	0.1007
4	0x1d25	0.005024
5	0x9931	-0.002535
6	0xac79	-0.0699
7	0xa59b	-0.0219
8	0xa900	-0.03906
9	0xaeae	-0.1044
10	0xabca	-0.06085
11	0xa74b	-0.02849
12	0x2cf9	0.0777
13	0xa965	-0.04214
14	0xa324	-0.01395
15	0xac5a	-0.068
16	0xa17f	-0.010735
17	0x20b5	0.00919
18	0x2c0d	0.0633
19	0x2c87	0.07074
20	0x2cf2	0.0773
21	0x27d9	0.03065
22	0x9919	-0.00249
23	0x28aa	0.03644
24	0x2ab8	0.0525
25	0x29ac	0.0443
26	0xa818	-0.03198
27	0x283e	0.03314
28	0x2565	0.02107
29	0x28fa	0.03888
30	0xa5e0	-0.02295
31	0x294b	0.04135
32	0xa82e	-0.03265
33	0xa81e	-0.03217
34	0x1d8d	0.00542
35	0x2834	0.03284
36	0xa4f3	-0.01933
37	0xaabc	-0.0526
38	0xb20a	-0.1887
39	0xa5bb	-0.02238
40	0x2708	0.02747
41	0x1d35	0.005085
42	0xadd8	-0.0913
43	0x290c	0.03943
44	0xa9a4	-0.04407
45	0x2465	0.01717
46	0x283a	0.03302
47	0xa9ab	-0.04428
48	0x2cd8	0.0757
49	0x928b	-0.0007987
50	0x9d04	-0.004898
51	0x2eeb	0.1081
52	0xab32	-0.0562
53	0x95be	-0.001402
54	0xa587	-0.02159
55	0xa596	-0.02182
56	0xa909	-0.03934
57	0xa484	-0.01764
58	0x1e3f	0.0061
59	0x10f3	0.000604
60	0x2a2d	0.04825
61	0xa45c	-0.01703
62	0xa8fa	-0.03888
63	0x12b8	0.00082
64	0x25c4	0.02252
65	0xab58	-0.05737
66	0x299c	0.04382
67	0x2bc3	0.06064
68	0x2aa9	0.05203
69	0x24f3	0.01933
70	0xa637	-0.02428
71	0xabdd	-0.06143
72	0x2996	0.04364
73	0x2688	0.02551
74	0xa8b4	-0.03674
75	0x2636	0.02426
76	0xaa5b	-0.04965
77	0xad91	-0.087
78	0x2580	0.02148
79	0x2ccb	0.0749
80	0x2499	0.01796
81	0xa2bf	-0.013176
82	0xa4b5	-0.01839
83	0x2ab9	0.05252
84	0x8b31	-0.0002195
85	0x9f70	-0.007263
86	0xa9c1	-0.04495
87	0xa4f4	-0.01935
88	0x28e6	0.03827
89	0x9f1b	-0.00694
90	0xacd1	-0.07526
91	0xa8e4	-0.0382
92	0x257c	0.02142
93	0x217c	0.01071
94	0x2be1	0.06155
95	0xa6e9	-0.027
96	0x1df1	0.005802
97	0x25fb	0.02336
98	0xa87b	-0.035
99	0x2de0	0.0918
100	0xaa18	-0.0476
101	0x0c93	0.0002792
102	0x2350	0.01428
103	0xad9d	-0.0877
104	0x26a2	0.02591
105	0x26bc	0.0263
106	0xa4e1	-0.01906
107	0x2a16	0.04755
108	0x26f0	0.0271
109	0x9a11	-0.002962
110	0x2a72	0.05035
111	0x210b	0.00985
112	0x2b18	0.05542
113	0x2d67	0.0844
114	0x2cb9	0.0738
115	0xa377	-0.01458
116	0x296c	0.04236
117	0x1e0b	0.0059
118	0xa483	-0.01762
119	0xa968	-0.04224
120	0xa184	-0.01077
121	0xae9c	-0.1033
122	0xa88e	-0.03558
123	0xa12e	-0.01012
124	0x248b	0.01775
125	0x2209	0.01179
126	0x2cac	0.073
127	0x243c	0.01654
128	0x28c1	0.03714
129	0x9e91	-0.006413
130	0x9cd9	-0.004734
131	0x282f	0.03268
132	0xa10f	-0.00988
133	0xadfd	-0.09357
134	0x2a56	0.0495
135	0x8480	-6.866e-05
136	0xaad6	-0.0534
137	0x2f2f	0.11224
138	0x2e23	0.0959
139	0x2e0d	0.09454
140	0x9ac5	-0.003305
141	0x25c0	0.02246
142	0x15e1	0.001435
143	0xa5e8	-0.02307
144	0xa6d5	-0.02669
145	0x2a12	0.04742
146	0x2d2e	0.08093
147	0x9720	-0.0017395
148	0x2ea1	0.1036
149	0x23a2	0.01491
150	0xaa62	-0.04987
151	0x243e	0.01657
152	0xaccc	-0.07495
153	0xad29	-0.0806
154	0xab1d	-0.05557
155	0xaa55	-0.04947
156	0xa98d	-0.04337
157	0xa426	-0.0162
158	0x2475	0.01741
159	0x2fe3	0.1232
160	0xa8ef	-0.03854
161	0xac08	-0.063
162	0xad5f	-0.0839
163	0x25fd	0.02339
164	0xa185	-0.01078
165	0xac52	-0.0675
166	0x2587	0.02159
167	0xa39c	-0.01486
168	0x2b1b	0.0555
169	0x2530	0.02026
170	0xab5c	-0.0575
171	0xa537	-0.02037
172	0x2c3e	0.0663
173	0x263d	0.02437
174	0x233f	0.01415
175	0xa768	-0.02893
176	0x22c9	0.01325
177	0xa7f8	-0.03113
178	0xa901	-0.0391
179	0x251c	0.01996
180	0x2978	0.04272
181	0x1cd7	0.004726
182	0x29da	0.04572
183	0x28d4	0.03772
184	0x287b	0.035
185	0x26fe	0.02731
186	0x2cd5	0.0755
187	0xab17	-0.0554
188	0x2e15	0.09503
189	0xaa34	-0.04846
190	0x275b	0.02873
191	0xa26b	-0.012535
192	0xa04e	-0.00841
193	0x26f1	0.02711
194	0xa8b5	-0.03677
195	0x20d1	0.00941
196	0xa784	-0.02936
197	0x272e	0.02805
198	0x22bd	0.01316
199	0x266e	0.02512
200	0x2c75	0.06964
201	0xa8fa	-0.03888
202	0x9b29	-0.003496
203	0xa7a6	-0.02988
204	0xaead	-0.1043
205	0xa867	-0.0344
206	0x29d0	0.0454
207	0xa853	-0.03378
208	0xa698	-0.02576
209	0x234d	0.01426
210	0xa47a	-0.01749
211	0x1c35	0.00411
212	0x24d2	0.01883
213	0x2af7	0.0544
214	0xae73	-0.10077
215	0x2577	0.02135
216	0xaafc	-0.05457
217	0x29c0	0.04492
218	0x9bcd	-0.003809
219	0x188f	0.002226
220	0x241f	0.0161
221	0xa7ab	-0.02995
222	0x1368	0.000904
223	0xb172	-0.1702
224	0x953c	-0.001278
225	0xa44c	-0.01678
226	0x2d2c	0.0808
227	0x2a61	0.04984
228	0xa942	-0.04108
229	0x9ebf	-0.006588
230	0x8445	-6.515e-05
231	0x26b7	0.02623
232	0x29bf	0.0449
233	0xa7f8	-0.03113
234	0xa55a	-0.0209
235	0x27de	0.03073
236	0xa1c7	-0.011284
237	0x1ff8	0.007782
238	0xa7e8	-0.03088
239	0x9c4d	-0.0042
240	0xaadf	-0.05368
241	0x2598	0.02185
242	0x9ec1	-0.006596
243	0xa96a	-0.0423
244	0xaab5	-0.0524
245	0x2852	0.03375
246	0x1f89	0.00736
247	0x1cd2	0.004707
248	0x288c	0.03552
249	0xa95f	-0.04196
250	0x2817	0.03195
251	0xa883	-0.03525
252	0x29ae	0.04437
253	0x29ba	0.04474
254	0x2a19	0.04764
255	0xa3e9	-0.01545

model/last_layer/BiasAdd/ReadVariableOp/resource f2 [31]
0	0xa44c	-0.01678
1	0x995e	-0.00262
2	0x2835	0.03287
3	0x9f09	-0.00687
4	0xa3bd	-0.015114
5	0x222b	0.01205
6	0x1fd4	0.007645
7	0x20db	0.00948
8	0xac98	-0.0718
9	0x9ac3	-0.003302
10	0xa3b7	-0.01507
11	0xa501	-0.01955
12	0xa0fe	-0.00975
13	0x2677	0.02525
14	0xa348	-0.01422
15	0x276c	0.02899
16	0x287b	0.035
17	0x21a2	0.011
18	0x2043	0.00832
19	0x9ab2	-0.00327
20	0x2671	0.02516
21	0x27d1	0.03053
22	0xa89d	-0.03604
23	0x9e88	-0.00638
24	0xa1e8	-0.011536
25	0x247f	0.01756
26	0xaa51	-0.04935
27	0x1db8	0.005585
28	0xa8d5	-0.03775
29	0x9f53	-0.007153
30	0xa6fc	-0.02728

model/dense/MatMul f2 [256, 32]
0	0x2a15	0.04752
1	0x2b63	0.0577
2	0x320b	0.1888
3	0x234a	0.01424
4	0x30af	0.1464
5	0xad3e	-0.0819
6	0x285e	0.03412
7	0x2fb0	0.1201
8	0xb0eb	-0.1537
9	0x2b76	0.0583
10	0xb3fa	-0.2493
11	0xad57	-0.08344
12	0xb3dd	-0.2457
13	0xa85c	-0.03406
14	0xb373	-0.2328
15	0x2c40	0.0664
16	0xb1d4	-0.1821
17	0x2cda	0.0758
18	0x2dac	0.0886
19	0xadd8	-0.0913
20	0x2f1c	0.1111
21	0xa67c	-0.02533
22	0x994c	-0.002586
23	0x2d6b	0.08466
24	0xb236	-0.1941
25	0x2985	0.04312
26	0x30cc	0.1499
27	0xaa55	-0.04947
28	0x2ebd	0.1053
29	0xabe3	-0.0616
30	0x29ad	0.04434
31	0x943c	-0.001034
32	0x292a	0.04034
33	0x25f3	0.02324
34	0xae87	-0.102
35	0xad3a	-0.08167
36	0x9a61	-0.003115
37	0x2867	0.0344
38	0xaf1c	-0.1111
39	0xb103	-0.1566
40	0x2e3d	0.0975
41	0x1db1	0.005558
42	0x2ace	0.05316
43	0xa7ef	-0.03099
44	0x380f	0.5073
45	0xadb0	-0.08887
46	0x2999	0.04373
47	0xa820	-0.03223
48	0x30cf	0.1503
49	0x970f	-0.001723
50	0x9eb3	-0.006542
51	0xac4a	-0.067
52	0xaf65	-0.11554
53	0xaf38	-0.1128
54	0xae40	-0.09766
55	0xac2e	-0.0653
56	0xa915	-0.0397
57	0x282d	0.03262
58	0x2341	0.01417
59	0xb004	-0.1255
60	0xaafd	-0.0546
61	0xac6b	-0.06903
62	0x2a84	0.0509
63	0x2df4	0.093
64	0x29eb	0.04623
65	0xacb0	-0.07324
66	0xa9b7	-0.04465
67	0x22f0	0.01355
68	0x2aa3	0.05185
69	0xad90	-0.0869
70	0xa8ae	-0.03656
71	0x2fcf	0.122
72	0x28e7	0.0383
73	0x2ba1	0.0596
74	0x3037	0.1317
75	0xac12	-0.0636
76	0x316d	0.1696
77	0x25ed	0.02315
78	0x2f0b	0.11005
79	0xa795	-0.02962
80	0x2d01	0.0782
81	0xa9ee	-0.04633
82	0x2ae3	0.0538
83	0x98b9	-0.002306
84	0xacd4	-0.07544
85	0xa9e4	-0.04602
86	0xaa20	-0.04785
87	0xb08e	-0.1423
88	0xa617	-0.02379
89	0x2f8c	0.1179
90	0xa7bd	-0.03023
91	0xab6c	-0.05798
92	0xb3e5	-0.2467
93	0x3538	0.3262
94	0xa885	-0.0353
95	0xa837	-0.03293
96	0x2e1c	0.09546
97	0x98c4	-0.002327
98	0x32ea	0.2161
99	0x2a48	0.04907
100	0x2824	0.03235
101	0x335a	0.2297
102	0xafbe	-0.121
103	0x29bc	0.0448
104	0x0b3b	0.0002207
105	0x2d91	0.087
106	0xb041	-0.1329
107	0xabe8	-0.06177
108	0x1e3a	0.00608
109	0xb0e4	-0.1528
110	0xb52f	-0.324
111	0x9241	-0.0007634
112	0xb171	-0.17
113	0x2b2f	0.05612
114	0xadd4	-0.09106
115	0x2e02	0.0939
116	0xacde	-0.07605
117	0x3473	0.278
118	0xa49d	-0.01802
119	0xac56	-0.06775
120	0x30e1	0.1525
121	0xb02d	-0.1305
122	0xab8b	-0.05893
123	0xac62	-0.0685
124	0x27a7	0.02989
125	0xb11e	-0.1599
126	0x33d8	0.2451
127	0xac24	-0.0647
128	0xaf3d	-0.1131
129	0x3234	0.1938
130	0xb4a8	-0.291
131	0x30f9	0.1554
132	0x240d	0.01582
133	0xa8d9	-0.03787
134	0xb08e	-0.1423
135	0x3105	0.1569
136	0xad05	-0.0784
137	0xa892	-0.0357
138	0x2f26	0.1117
139	0xb2b1	-0.2091
140	0x27f1	0.03102
141	0xb050	-0.1348
142	0xa499	-0.01796
143	0x2eeb	0.1081
144	0xb008	-0.126
145	0x262f	0.02415
146	0x21ef	0.01159
147	0xa968	-0.04224
148	0x2da2	0.088
149	0xa02d	-0.008156
150	0x9ce8	-0.00479
151	0x2eca	0.1061
152	0xaf79	-0.11676
153	0xa808	-0.0315
154	0x2abe	0.05267
155	0x307a	0.1399
156	0x29b5	0.0446
157	0xabfb	-0.06235
158	0xac87	-0.07074
159	0xb728	-0.4473
160	0x2f4b	0.11395
161	0x3096	0.1433
162	0xa686	-0.02548
163	0x2a8a	0.0511
164	0x9c42	-0.004158
165	0xac0b	-0.0632
166	0xa7d2	-0.03055
167	0xa498	-0.01794
168	0xacd5	-0.0755
169	0xac1e	-0.06433
170	0x2f5f	0.1152
171	0x3195	0.1744
172	0x29cd	0.04532
173	0x2463	0.01714
174	0xa9b5	-0.0446
175	0xaa72	-0.05035
176	0x214f	0.01037
177	0xb02e	-0.1306
178	0x227e	0.01268
179	0x2ef8	0.1089
180	0xad61	-0.08405
181	0xac10	-0.0635
182	0x11da	0.0007143
183	0xb5bb	-0.3582
184	0xa804	-0.03137
185	0xa80d	-0.03165
186	0xb6a4	-0.415
187	0xafa5	-0.11945
188	0xa816	-0.03192
189	0xb038	-0.1318
190	0xa7b5	-0.0301
191	0xb2c1	-0.211
192	0xae4b	-0.0983
193	0x3319	0.2218
194	0xb211	-0.1896
195	0x2d47	0.08246
196	0x28d8	0.03784
197	0x10df	0.0005946
198	0x309c	0.144
199	0xaabf	-0.0527
200	0xa37f	-0.01464
201	0x1e55	0.006184
202	0x308e	0.1423
203	0x2e99	0.1031
204	0xa941	-0.04105
205	0xb110	-0.1582
206	0x2a9c	0.05164
207	0x2c0c	0.06323
208	0xad84	-0.0862
209	0x2918	0.0398
210	0x323a	0.1946
211	0x2dfc	0.0935
212	0x286c	0.03455
213	0xad62	-0.0841
214	0x1b49	0.003557
215	0x2b59	0.0574
216	0x2b1a	0.05548
217	0xa411	-0.01588
218	0xb0fd	-0.1559
219	0x2a91	0.0513
220	0x3146	0.1648
221	0xa493	-0.01787
222	0xac03	-0.0627
223	0xad76	-0.0853
224	0xa6dc	-0.0268
225	0xaeb5	-0.1048
226	0x3176	0.1707
227	0xac0e	-0.06335
228	0xb05d	-0.1364
229	0x2e6f	0.1005
230	0x2a4e	0.04926
231	0x9e0a	-0.005898
232	0x26f4	0.02716
233	0xb714	-0.4424
234	0x2d10	0.0791
235	0x3020	0.1289
236	0xa878	-0.0349
237	0x2f88	0.1177
238	0x3163	0.1683
239	0x94c6	-0.001165
240	0xaac7	-0.05295
241	0xaf8d	-0.118
242	0xb23c	-0.1948
243	0xb0eb	-0.1537
244	0xaefd	-0.1092
245	0x30ff	0.1561
246	0x2d5d	0.0838
247	0x2f2a	0.11194
248	0x2880	0.03516
249	0xacfb	-0.0778
250	0xb178	-0.1709
251	0xa78a	-0.02945
252	0x3032	0.1311
253	0xaf3d	-0.1131
254	0x2e5e	0.0995
255	0xa9cf	-0.04538

model/last_layer/MatMul f2 [31, 256]
0	0xacd1	-0.07526
1	0x2782	0.02933
2	0x20af	0.00915
3	0x2697	0.02574
4	0x1d80	0.00537
5	0xab9c	-0.05945
6	0xaaf4	-0.05432
7	0xaf10	-0.11035
8	0x2c59	0.06793
9	0x1451	0.001054
10	0xa40c	-0.01581
11	0xabbc	-0.06042
12	0x2b43	0.05673
13	0x2994	0.04358
14	0xa896	-0.03583
15	0xa549	-0.02065
16	0x2921	0.04007
17	0xa353	-0.014305
18	0x2d60	0.084
19	0x28f1	0.0386
20	0x2975	0.04263
21	0xa586	-0.02158
22	0x2b0c	0.05505
23	0xadd5	-0.0911
24	0x2c77	0.06976
25	0xaed1	-0.1065
26	0x2818	0.03198
27	0x2af5	0.05435
28	0xaa4f	-0.0493
29	0xab1e	-0.0556
30	0xadb8	-0.08936
31	0x2236	0.01213
32	0xa72b	-0.028
33	0xa9f3	-0.04648
34	0x302d	0.1305
35	0xa21c	-0.01193
36	0xae01	-0.0938
37	0x298d	0.04337
38	0x2f64	0.1155
39	0xad58	-0.0835
40	0x2ea2	0.10364
41	0x2558	0.02087
42	0xaf06	-0.10974
43	0x2c01	0.06256
44	0x29af	0.0444
45	0x1cb2	0.004585
46	0xab70	-0.0581
47	0x1e0e	0.005913
48	0x2db8	0.08936
49	0x2de3	0.092
50	0xa197	-0.01092
51	0x2392	0.014786
52	0x2e6f	0.1005
53	0x26b7	0.02623
54	0xaec6	-0.10583
55	0xac76	-0.0697
56	0xac4d	-0.0672
57	0x2661	0.02492
58	0x29ee	0.04633
59	0xab8f	-0.05905
60	0xac7f	-0.07025
61	0xae36	-0.09705
62	0x216b	0.01058
63	0x2ac2	0.0528
64	0xab84	-0.05872
65	0x2e3a	0.0973
66	0x2c41	0.06647
67	0xae36	-0.09705
68	0xad27	-0.0805
69	0x27c8	0.0304
70	0xadcf	-0.09076
71	0xad92	-0.08704
72	0x232d	0.014015
73	0xaae5	-0.05386
74	0xa5d9	-0.02284
75	0x2dd0	0.0908
76	0x289f	0.0361
77	0xabf9	-0.0623
78	0x2c2b	0.0651
79	0x278d	0.0295
80	0xb03f	-0.1327
81	0x2d4e	0.0829
82	0xa5bd	-0.02242
83	0x27c2	0.0303
84	0x2813	0.03183
85	0xa4f0	-0.01929
86	0xacc0	-0.0742
87	0xae2f	-0.0966
88	0x2eb2	0.1046
89	0xaa08	-0.04712
90	0xa75f	-0.0288
91	0xa829	-0.0325
92	0xaa49	-0.0491
93	0xa53b	-0.02043
94	0x2964	0.0421
95	0x2989	0.04324
96	0xaccd	-0.075
97	0xae10	-0.0947
98	0x26dd	0.02681
99	0xaaab	-0.0521
100	0x9e19	-0.005955
101	0xafd6	-0.12244
102	0xa9b2	-0.0445
103	0x2b98	0.05933
104	0xac96	-0.07166
105	0x2ddc	0.09155
106	0x2829	0.0325
107	0x2dab	0.08856
108	0xadcf	-0.09076
109	0x2e0b	0.0944
110	0xad79	-0.0855
111	0x2dbf	0.0898
112	0xaf8b	-0.11786
113	0x2d71	0.085
114	0x2c11	0.06354
115	0x2e7a	0.1012
116	0xa5fc	-0.02338
117	0xa835	-0.03287
118	0x2435	0.01643
119	0x3035	0.1315
120	0xac7d	-0.0701
121	0x2aad	0.05215
122	0x2b73	0.0582
123	0x2cdc	0.0759
124	0x2546	0.0206
125	0xae5e	-0.0995
126	0xae77	-0.101
127	0x3012	0.1272
128	0x25c6	0.02255
129	0x225e	0.012436
130	0x9d96	-0.005455
131	0xa77f	-0.02928
132	0xabcf	-0.061
133	0xaa1b	-0.0477
134	0x154e	0.001295
135	0xae59	-0.0992
136	0xac61	-0.0684
137	0xabb8	-0.0603
138	0x2a82	0.05084
139	0xac97	-0.0717
140	0xaed1	-0.1065
141	0xac2c	-0.0652
142	0x2bea	0.06183
143	0xab5b	-0.05746
144	0x2d67	0.0844
145	0xad72	-0.0851
146	0x2ae2	0.05377
147	0x2669	0.02504
148	0x2a15	0.04752
149	0x2fa5	0.11945
150	0xab3f	-0.0566
151	0xad44	-0.0823
152	0x2d2a	0.0807
153	0xa1cf	-0.011345
154	0xa82c	-0.0326
155	0x25ff	0.02342
156	0x2f57	0.1147
157	0x2845	0.03336
158	0x2ccc	0.07495
159	0x2acd	0.05313
160	0x2c4b	0.0671
161	0xa622	-0.02396
162	0x2ea6	0.1039
163	0x29ff	0.04684
164	0xac66	-0.0687
165	0xac41	-0.06647
166	0xac64	-0.0686
167	0x2c65	0.06866
168	0xac81	-0.0704
169	0xaa36	-0.04852
170	0xae89	-0.1021
171	0xadcd	-0.09064
172	0x2cf5	0.07745
173	0xab50	-0.05713
174	0xa448	-0.01672
175	0x2d2f	0.081
176	0x28b3	0.0367
177	0x2d18	0.0796
178	0xa727	-0.02794
179	0xa53e	-0.02048
180	0xa965	-0.04214
181	0x2895	0.0358
182	0x29c9	0.0452
183	0xac57	-0.0678
184	0xab0c	-0.05505
185	0x2c62	0.0685
186	0xadb4	-0.0891
187	0x2ac1	0.05276
188	0xb00f	-0.1268
189	0xa033	-0.0082
190	0xacb2	-0.07336
191	0x2f2a	0.11194
192	0x2afe	0.05463
193	0x27ac	0.02997
194	0xaecd	-0.10626
195	0xaaa5	-0.0519
196	0x15d0	0.001419
197	0xaa6e	-0.05023
198	0xaa5e	-0.04974
199	0xad1f	-0.08
200	0xac77	-0.06976
201	0xab8a	-0.0589
202	0x2a9f	0.05173
203	0x254d	0.0207
204	0x2c13	0.06366
205	0x2cb6	0.0736
206	0xaa55	-0.04947
207	0x2f18	0.11084
208	0x2987	0.04318
209	0x2502	0.01956
210	0x2e54	0.0989
211	0x2c59	0.06793
212	0xaae7	-0.05392
213	0xad78	-0.08545
214	0x29de	0.04584
215	0x2777	0.02916
216	0x2cd4	0.07544
217	0xad5c	-0.08374
218	0x2d2f	0.081
219	0xac6f	-0.0693
220	0x2459	0.01698
221	0xad53	-0.0832
222	0xa182	-0.01076
223	0x290a	0.03937
224	0x2bd8	0.06128
225	0x2df2	0.0929
226	0xae45	-0.09796
227	0xadfb	-0.09344
228	0x3039	0.132
229	0x2a0b	0.0472
230	0xa987	-0.04318
231	0xadf7	-0.0932
232	0x288d	0.03555
233	0x2dba	0.0895
234	0x303a	0.1321
235	0x2845	0.03336
236	0xad9f	-0.0878
237	0xae32	-0.0968
238	0x2a52	0.04938
239	0xac0b	-0.0632
240	0xa5f8	-0.02332
241	0xb036	-0.1316
242	0x2d08	0.0786
243	0xa4eb	-0.01921
244	0x2c25	0.06476
245	0xa862	-0.03424
246	0x27b9	0.03017
247	0xa480	-0.01758
248	0x27a6	0.02988
249	0xaf14	-0.1106
250	0x2834	0.03284
251	0x19bd	0.002802
252	0xad07	-0.07855
253	0x2758	0.02869
254	0xab2b	-0.056
255	0xa42c	-0.0163

model/time_distributed_10/batch_normalization_2/FusedBatchNormV3 f2 [8]
0	0xa245	-0.012245
1	0x10fd	0.000609
2	0x9d2b	-0.005047
3	0x96bb	-0.001643
4	0x0224	3.266e-05
5	0xa792	-0.02957
6	0xa774	-0.02911
7	0xa1ed	-0.01157

model/time_distributed_10/batch_normalization_2/FusedBatchNormV31 f2 [8]
0	0x3306	0.2195
1	0xadf7	-0.0932
2	0x9935	-0.002542
3	0x2c93	0.0715
4	0x30b6	0.1472
5	0x3323	0.223
6	0x34d0	0.3008
7	0xa59e	-0.02194

model/time_distributed_13/batch_normalization_3/FusedBatchNormV3 f2 [16]
0	0xae24	-0.09595
1	0xb137	-0.163
2	0x0eb6	0.0004096
3	0xae97	-0.10297
4	0xb04a	-0.134
5	0x931e	-0.000869
6	0xa915	-0.0397
7	0xb20d	-0.1891
8	0x9f0c	-0.00688
9	0x9de4	-0.005753
10	0xab6c	-0.05798
11	0xa309	-0.01374
12	0xaef7	-0.1088
13	0x1a1f	0.002989
14	0xae17	-0.09515
15	0x2488	0.0177

model/time_distributed_13/batch_normalization_3/FusedBatchNormV31 f2 [16]
0	0x3f93	1.894
1	0x41fb	2.99
2	0x2e02	0.0939
3	0x3ebe	1.686
4	0x3f22	1.783
5	0x2a48	0.04907
6	0x411a	2.55
7	0x3f05	1.755
8	0x439a	3.8
9	0x2dc7	0.0903
10	0x400c	2.023
11	0x4173	2.725
12	0x416b	2.709
13	0x22ff	0.013664
14	0x416d	2.713
15	0x43a9	3.83

model/time_distributed_2/batch_normalization/FusedBatchNormV3 f2 [8]
0	0x2063	0.00857
1	0x1bc3	0.00379
2	0x19f7	0.002913
3	0xa6cb	-0.02654
4	0xadb5	-0.0892
5	0x1f9d	0.007435
6	0xaf74	-0.11646
7	0x1697	0.001609

model/time_distributed_2/batch_normalization/FusedBatchNormV31 f2 [8]
0	0x9c64	-0.004288
1	0x25d7	0.02281
2	0x949f	-0.001128
3	0x27ed	0.03096
4	0x2f1d	0.11115
5	0xa6f7	-0.0272
6	0x2db4	0.0891
7	0x1d7c	0.005356

model/time_distributed_5/batch_normalization_1/FusedBatchNormV3 f2 [16]
0	0x291d	0.03995
1	0xadbe	-0.0897
2	0xb52a	-0.3228
3	0xb609	-0.3772
4	0xbab3	-0.8374
5	0xb5c5	-0.3606
6	0xb1c0	-0.1797
7	0xb61c	-0.3818
8	0xb42a	-0.2603
9	0xb0a5	-0.1451
10	0xb8ee	-0.616
11	0xb7e7	-0.494
12	0x2b22	0.05573
13	0x21c7	0.011284
14	0xba5d	-0.7954
15	0xb2d8	-0.2139

model/time_distributed_5/batch_normalization_1/FusedBatchNormV31 f2 [16]
0	0x450a	5.04
1	0x42f1	3.47
2	0x4214	3.04
3	0x41bf	2.873
4	0x41f3	2.975
5	0x43dd	3.932
6	0x43f2	3.973
7	0x43bc	3.867
8	0x44d9	4.848
9	0x4114	2.54
10	0x435b	3.678
11	0x4408	4.03
12	0x4516	5.086
13	0x45cf	5.81
14	0x4279	3.236
15	0x44e8	4.906

model/lstm/while/lstm_cell_4/MatMul_4 f2 [32, 32]
0	0x2a6e	0.05023
1	0xb064	-0.1372
2	0xb743	-0.4539
3	0xb898	-0.574
4	0x31c3	0.18
5	0x39ac	0.709
6	0x31ff	0.1874
7	0x2b73	0.0582
8	0xb7fd	-0.4993
9	0xb0d9	-0.1515
10	0xb97c	-0.6855
11	0x3784	0.4697
12	0xb718	-0.4434
13	0xaccb	-0.0749
14	0x342b	0.2605
15	0xb4d5	-0.302
16	0xad92	-0.08704
17	0x1e63	0.006237
18	0x3364	0.231
19	0xb178	-0.1709
20	0xb632	-0.3872
21	0xb86a	-0.552
22	0xb6a6	-0.4155
23	0x3131	0.1622
24	0x3242	0.1956
25	0xab2e	-0.0561
26	0xb241	-0.1954
27	0xb9b0	-0.711
28	0xa456	-0.01694
29	0x31f2	0.1858
30	0x34ee	0.308
31	0x36d4	0.4268
32	0xb682	-0.4067
33	0xb389	-0.2355
34	0x2c2c	0.0652
35	0xae3b	-0.09735
36	0x2ba4	0.0597
37	0x3176	0.1707
38	0xb4e5	-0.306
39	0xb614	-0.38
40	0xaee3	-0.1076
41	0xb402	-0.2505
42	0xb82c	-0.5215
43	0x2d94	0.08716
44	0xb6ee	-0.433
45	0x341f	0.2576
46	0x3776	0.4663
47	0xb479	-0.2795
48	0x34dd	0.304
49	0xae4c	-0.0984
50	0x3801	0.5005
51	0xad6c	-0.0847
52	0x28a3	0.03622
53	0x3497	0.2869
54	0xafbd	-0.1209
55	0x3381	0.2345
56	0x2f4a	0.1139
57	0xa9fe	-0.0468
58	0xb164	-0.1685
59	0x314c	0.1655
60	0x353f	0.328
61	0xb138	-0.1631
62	0x3553	0.3328
63	0x3211	0.1896
64	0xb8b0	-0.586
65	0x3a67	0.8003
66	0xad1a	-0.0797
67	0xbb81	-0.938
68	0xb0fe	-0.156
69	0x3145	0.1647
70	0x3450	0.2695
71	0xae8b	-0.10223
72	0x36ca	0.4243
73	0x353c	0.3271
74	0xad90	-0.0869
75	0x368c	0.4092
76	0x3320	0.2227
77	0x30d3	0.1508
78	0xba04	-0.752
79	0xbbde	-0.9834
80	0x2ac3	0.05283
81	0x32db	0.2142
82	0x326d	0.2008
83	0x2c28	0.06494
84	0xa6b7	-0.02623
85	0x3639	0.389
86	0x35ce	0.3628
87	0xb2a6	-0.2078
88	0x3452	0.27
89	0x2333	0.01406
90	0x2228	0.012024
91	0xafd1	-0.12213
92	0xb1a3	-0.1761
93	0xb652	-0.395
94	0xb692	-0.4106
95	0x2db1	0.0889
96	0xa845	-0.03336
97	0x2ae9	0.054
98	0xaa83	-0.05087
99	0xa5dd	-0.0229
100	0xaa75	-0.05045
101	0x29d8	0.04565
102	0xa8d2	-0.03766
103	0x2acc	0.0531
104	0xacff	-0.07806
105	0xa788	-0.02942
106	0x8fa8	-0.0004673
107	0xad3f	-0.082
108	0x295c	0.04187
109	0xa03e	-0.008286
110	0x2270	0.01257
111	0x28e0	0.0381
112	0x1901	0.002443
113	0xaa15	-0.04752
114	0xada8	-0.0884
115	0xafe0	-0.12305
116	0x9c1f	-0.004025
117	0x20d4	0.00943
118	0x22f1	0.01356
119	0x2cc7	0.07465
120	0x28e5	0.03824
121	0x2cb3	0.0734
122	0x2d5c	0.08374
123	0x1519	0.001245
124	0x281c	0.0321
125	0x2910	0.03955
126	0xa8f8	-0.03882
127	0x23ca	0.01521
128	0xb34a	-0.2278
129	0x381c	0.5137
130	0xb2ba	-0.2102
131	0xb807	-0.5034
132	0x32c8	0.2119
133	0xb800	-0.5
134	0x2ab1	0.05228
135	0xbe86	-1.631
136	0xb981	-0.688
137	0xaf51	-0.1143
138	0x3411	0.2542
139	0x306b	0.1381
140	0xb3dd	-0.2457
141	0x3b66	0.925
142	0x3340	0.2266
143	0x34f7	0.3103
144	0xb48f	-0.285
145	0xb92c	-0.6465
146	0x374e	0.4565
147	0xb142	-0.1643
148	0x1ce7	0.004787
149	0xb3c4	-0.2427
150	0x2f8b	0.11786
151	0x322d	0.193
152	0x3603	0.3757
153	0xb6e3	-0.4304
154	0x2446	0.0167
155	0xb91c	-0.6387
156	0xb3c9	-0.2433
157	0x3844	0.533
158	0xb682	-0.4067
159	0x2c06	0.06287
160	0xb1dd	-0.1832
161	0xb055	-0.1354
162	0x31fe	0.1873
163	0xba61	-0.7974
164	0x3c7d	1.122
165	0x2422	0.01614
166	0xb5a4	-0.3525
167	0xb5dc	-0.3662
168	0xb7a6	-0.478
169	0xb849	-0.5356
170	0x3c2a	1.041
171	0x3e6f	1.608
172	0x34c9	0.299
173	0x364a	0.393
174	0xbc86	-1.131
175	0xb0b4	-0.147
176	0x39e0	0.7344
177	0xbafe	-0.874
178	0xb8bc	-0.592
179	0x3146	0.1648
180	0x2c51	0.06744
181	0xb705	-0.4387
182	0x3466	0.275
183	0x36a2	0.4146
184	0xa898	-0.0359
185	0xb8da	-0.6064
186	0xbd1c	-1.277
187	0x38f1	0.6177
188	0x366a	0.401
189	0x38a4	0.58
190	0x36a5	0.4153
191	0x2d7b	0.08563
192	0xaf2b	-0.112
193	0x31d3	0.182
194	0xb291	-0.2052
195	0xb8ce	-0.6006
196	0x35ef	0.3708
197	0x3c05	1.005
198	0xb093	-0.143
199	0x3912	0.634
200	0xb672	-0.4028
201	0xb164	-0.1685
202	0xb62a	-0.3853
203	0x3687	0.408
204	0xa920	-0.04004
205	0x3569	0.3381
206	0xb063	-0.1371
207	0x2bb2	0.06012
208	0x35a5	0.3528
209	0xb0e0	-0.1523
210	0xade6	-0.09216
211	0xb2a1	-0.2072
212	0x313c	0.1636
213	0x3436	0.2632
214	0xb2ce	-0.2126
215	0xb087	-0.1415
216	0x3950	0.664
217	0xb493	-0.286
218	0xb9b9	-0.7153
219	0xb74e	-0.4565
220	0x3b43	0.9077
221	0xb755	-0.4583
222	0xb2d0	-0.2129
223	0x3440	0.2656
224	0xb323	-0.223
225	0x35cb	0.362
226	0x36e1	0.43
227	0xb73c	-0.4521
228	0x39c3	0.72
229	0xbb0b	-0.8804
230	0x39bc	0.717
231	0xba28	-0.7695
232	0x3438	0.2637
233	0x3726	0.4468
234	0xba25	-0.768
235	0x36b4	0.419
236	0x2d1c	0.07983
237	0xad0a	-0.07874
238	0x3921	0.641
239	0xb872	-0.5557
240	0x3c6a	1.104
241	0xb7b2	-0.481
242	0x28f3	0.03867
243	0xbb27	-0.894
244	0xb6c2	-0.4224
245	0xb9ef	-0.7417
246	0x393a	0.6533
247	0x2fb0	0.1201
248	0x3116	0.1589
249	0xb670	-0.4023
250	0x3141	0.1642
251	0xb8d3	-0.603
252	0xb462	-0.274
253	0xba69	-0.8013
254	0xb414	-0.255
255	0x3a45	0.7837

model/lstm/while/lstm_cell_4/MatMul_5 f2 [32, 32]
0	0x2f15	0.11066
1	0x2caf	0.0732
2	0x9901	-0.002443
3	0x34d5	0.302
4	0xadfb	-0.09344
5	0xa415	-0.01595
6	0xb632	-0.3872
7	0x37b0	0.4805
8	0x334e	0.2283
9	0x32f4	0.2173
10	0x2cfe	0.078
11	0x3581	0.344
12	0x39cb	0.724
13	0xb09c	-0.144
14	0x3689	0.4084
15	0x39a8	0.707
16	0xb441	-0.2659
17	0x2ccf	0.07513
18	0x2d0e	0.079
19	0x3246	0.196
20	0x33cc	0.2437
21	0x37cc	0.4873
22	0x2e1e	0.0956
23	0xa3f8	-0.015564
24	0x377d	0.468
25	0xb380	-0.2344
26	0xb63a	-0.3892
27	0x3660	0.3984
28	0x346b	0.2761
29	0xb4e4	-0.3057
30	0x3884	0.5645
31	0xb731	-0.4495
32	0xb0cc	-0.1499
33	0x32e9	0.216
34	0x346e	0.2769
35	0xabe9	-0.0618
36	0x23d4	0.01529
37	0xb72d	-0.4485
38	0x3130	0.1621
39	0x302d	0.1305
40	0xb81d	-0.514
41	0x3396	0.237
42	0x3424	0.2588
43	0xb451	-0.2698
44	0xb5cc	-0.3623
45	0xb65c	-0.3975
46	0x35b9	0.3577
47	0xb166	-0.1687
48	0x3134	0.1626
49	0xb4b8	-0.295
50	0x2dfb	0.09344
51	0x2ff2	0.12415
52	0x3358	0.2295
53	0x2830	0.0327
54	0xb549	-0.3303
55	0x3842	0.532
56	0xb18a	-0.1731
57	0xb473	-0.278
58	0x322c	0.1929
59	0x3174	0.1704
60	0xb2bd	-0.2106
61	0x366d	0.4016
62	0x3402	0.2505
63	0xaea2	-0.10364
64	0x365e	0.398
65	0x3a83	0.814
66	0x330e	0.2205
67	0x2bb5	0.0602
68	0x38f5	0.6196
69	0xaf6f	-0.11615
70	0xab61	-0.05765
71	0x3459	0.2717
72	0x23d8	0.01532
73	0xb096	-0.1433
74	0xada8	-0.0884
75	0xb038	-0.1318
76	0xb606	-0.3765
77	0x30ae	0.1462
78	0xaf8a	-0.1178
79	0x2f1b	0.111
80	0x314c	0.1655
81	0x30cc	0.1499
82	0xb486	-0.2827
83	0xb98c	-0.6934
84	0xb1fa	-0.1868
85	0x3018	0.1279
86	0xb342	-0.2268
87	0xb74c	-0.456
88	0x33d4	0.2446
89	0x3603	0.3757
90	0x38a1	0.5786
91	0xabee	-0.06195
92	0xac52	-0.0675
93	0xb5d8	-0.3652
94	0xabaa	-0.05988
95	0xb431	-0.262
96	0x3558	0.334
97	0x3050	0.1348
98	0x29d9	0.0457
99	0x310a	0.1575
100	0xb2ca	-0.2122
101	0x2909	0.03934
102	0xb193	-0.1742
103	0x2c82	0.07043
104	0x2e12	0.09485
105	0x32b8	0.21
106	0x3697	0.4119
107	0xa7d0	-0.03052
108	0x1fb6	0.00753
109	0xab52	-0.0572
110	0x2d27	0.0805
111	0x2d3b	0.0817
112	0xa346	-0.014206
113	0x3089	0.1417
114	0xb52d	-0.3235
115	0xac44	-0.06665
116	0x3036	0.1316
117	0x32d0	0.2129
118	0xb35f	-0.2303
119	0x2b10	0.05518
120	0x2e9a	0.10315
121	0x3089	0.1417
122	0x3254	0.1978
123	0x2e9d	0.10333
124	0xb115	-0.1588
125	0x3211	0.1896
126	0xaf72	-0.11633
127	0xad51	-0.08307
128	0xb2da	-0.2141
129	0x3acb	0.849
130	0xa882	-0.03522
131	0x302d	0.1305
132	0xac22	-0.0646
133	0x357c	0.3428
134	0xab58	-0.05737
135	0xa8db	-0.03793
136	0xb415	-0.2551
137	0x3550	0.332
138	0xb8f5	-0.6196
139	0x263e	0.02438
140	0x3a54	0.791
141	0x3669	0.4006
142	0xb6c1	-0.422
143	0xb76c	-0.4639
144	0xb900	-0.625
145	0x3425	0.259
146	0x38e9	0.614
147	0x3091	0.1427
148	0x3242	0.1956
149	0x34f7	0.3103
150	0xb708	-0.4395
151	0x3424	0.2588
152	0x306d	0.1383
153	0x3768	0.463
154	0x391c	0.6387
155	0xab11	-0.0552
156	0xb49c	-0.288
157	0x3799	0.4749
158	0xb4d7	-0.3025
159	0xa321	-0.01392
160	0x2c60	0.06836
161	0xb1d8	-0.1826
162	0xb3ad	-0.2399
163	0xb15e	-0.1677
164	0xaf4f	-0.1142
165	0xb2c8	-0.2119
166	0xb8b2	-0.587
167	0x2866	0.03436
168	0xb93d	-0.655
169	0x33b4	0.2407
170	0x38aa	0.583
171	0xad71	-0.085
172	0x3482	0.2817
173	0x30ad	0.1461
174	0x173b	0.001765
175	0x29b8	0.04468
176	0x39bf	0.7183
177	0xb84f	-0.5386
178	0x3552	0.3325
179	0xb267	-0.2001
180	0x30be	0.1482
181	0xbb2f	-0.898
182	0x2c8a	0.0709
183	0x3a9c	0.826
184	0x38f1	0.6177
185	0x243f	0.01659
186	0xbaa6	-0.831
187	0x300d	0.1266
188	0xaf62	-0.11536
189	0xb713	-0.4421
190	0x382d	0.522
191	0x2730	0.02808
192	0x2ad2	0.05328
193	0x3019	0.128
194	0xad91	-0.087
195	0x3572	0.3403
196	0x2e46	0.098
197	0xb538	-0.3262
198	0x3564	0.337
199	0x34d2	0.3013
200	0x20d7	0.00945
201	0x3037	0.1317
202	0xa923	-0.04013
203	0xb81c	-0.5137
204	0x2dd4	0.09106
205	0x35c8	0.3613
206	0x2eff	0.1093
207	0x34e2	0.3052
208	0x2854	0.0338
209	0x3418	0.2559
210	0x2bfe	0.06244
211	0x3289	0.2042
212	0x3002	0.1252
213	0x33bf	0.2421
214	0x2825	0.03238
215	0x2e17	0.09515
216	0x2c4f	0.0673
217	0x35b5	0.3567
218	0x3020	0.1289
219	0x2c60	0.06836
220	0x305f	0.1366
221	0xad21	-0.08014
222	0xb2c8	-0.2119
223	0xa0fa	-0.00972
224	0xad05	-0.0784
225	0xb7fe	-0.4995
226	0x29fa	0.0467
227	0x3158	0.167
228	0x3512	0.317
229	0xb9bd	-0.7173
230	0xa4ee	-0.01926
231	0x3346	0.2273
232	0xb68e	-0.4097
233	0x3895	0.5728
234	0x385f	0.5464
235	0x3771	0.465
236	0xac7c	-0.07007
237	0x2e05	0.09406
238	0x3c48	1.07
239	0x2a49	0.0491
240	0xb83c	-0.5293
241	0x343e	0.2651
242	0xacfd	-0.07794
243	0x3682	0.4067
244	0x3808	0.504
245	0xaaef	-0.05417
246	0x2fb8	0.1206
247	0xbc0a	-1.01
248	0x32bf	0.2108
249	0x326d	0.2008
250	0x3596	0.349
251	0xaaba	-0.05255
252	0xb3b6	-0.241
253	0xba50	-0.789
254	0xaa96	-0.05145
255	0xbbb5	-0.9634

model/lstm/while/lstm_cell_4/MatMul_6 f2 [32, 32]
0	0x2c9e	0.07214
1	0x3500	0.3125
2	0xb3cd	-0.2438
3	0x343e	0.2651
4	0x291f	0.04
5	0xb075	-0.1393
6	0xad82	-0.08606
7	0xb6a0	-0.414
8	0x3837	0.527
9	0xb5c7	-0.361
10	0x32d6	0.2136
11	0xa90b	-0.0394
12	0x3568	0.338
13	0xade9	-0.09235
14	0xb531	-0.3245
15	0x2cd4	0.07544
16	0x3494	0.2861
17	0x3898	0.574
18	0x348c	0.2842
19	0x328f	0.205
20	0x395f	0.6714
21	0x367d	0.4055
22	0x2891	0.03568
23	0xb557	-0.3337
24	0x38e0	0.6094
25	0xad2c	-0.0808
26	0xb131	-0.1622
27	0x34d0	0.3008
28	0x302a	0.1301
29	0x345c	0.2725
30	0xb02c	-0.1304
31	0x19c0	0.002808
32	0x9bed	-0.00387
33	0x2d9a	0.0875
34	0x3168	0.169
35	0xb6ca	-0.4243
36	0xb0a3	-0.1449
37	0xb7a1	-0.4768
38	0x36b6	0.4194
39	0x3047	0.1337
40	0xb16a	-0.1692
41	0x3854	0.541
42	0x3654	0.3955
43	0xb48e	-0.2847
44	0xb43e	-0.2651
45	0x2df9	0.0933
46	0x3423	0.2585
47	0xb2ec	-0.2163
48	0x35c1	0.3596
49	0xb3b0	-0.2402
50	0xb202	-0.1877
51	0xb62f	-0.3865
52	0x346e	0.2769
53	0x2e7b	0.10126
54	0xb306	-0.2195
55	0xb228	-0.1924
56	0x30b1	0.1466
57	0xb593	-0.3484
58	0x2858	0.03394
59	0xaff6	-0.1244
60	0xba9e	-0.827
61	0xa3d7	-0.01531
62	0xb180	-0.1719
63	0x30d8	0.1514
64	0x2f5a	0.11487
65	0x2fdf	0.123
66	0x1436	0.001028
67	0x2759	0.0287
68	0x30fc	0.1558
69	0x3056	0.1355
70	0xab40	-0.05664
71	0xb68b	-0.409
72	0xaf53	-0.11444
73	0x37b9	0.4827
74	0xabdb	-0.06137
75	0x33df	0.246
76	0x2caa	0.0729
77	0x354d	0.3313
78	0x305f	0.1366
79	0x3c11	1.017
80	0xb22d	-0.193
81	0x3094	0.1431
82	0xb030	-0.1309
83	0xb822	-0.5166
84	0xb5e7	-0.369
85	0xa96c	-0.04236
86	0xb51a	-0.3188
87	0xae78	-0.1011
88	0x314b	0.1654
89	0x3900	0.625
90	0x3a00	0.75
91	0x30d7	0.1512
92	0xa7af	-0.03001
93	0xb488	-0.2832
94	0x2b23	0.05576
95	0x329d	0.2067
96	0x2d27	0.0805
97	0x323e	0.1951
98	0x2c47	0.06683
99	0x29dc	0.04578
100	0xb437	-0.2634
101	0x2dab	0.08856
102	0xb686	-0.4077
103	0x2ee0	0.1074
104	0xac43	-0.0666
105	0x2d7f	0.0859
106	0x35f1	0.3713
107	0x301c	0.1284
108	0x2e25	0.096
109	0xa1dd	-0.01145
110	0x1653	0.001544
111	0x2ffa	0.12463
112	0xae6b	-0.1003
113	0xa8d4	-0.03772
114	0xb586	-0.3452
115	0xb456	-0.271
116	0x9d62	-0.005257
117	0x3145	0.1647
118	0xb4ab	-0.2917
119	0x2846	0.0334
120	0x32e9	0.216
121	0x2ed0	0.10645
122	0x36b9	0.4202
123	0x2aaf	0.05222
124	0xa91c	-0.03992
125	0x342d	0.261
126	0x2bf4	0.06213
127	0xab2d	-0.05606
128	0x2cb6	0.0736
129	0xb402	-0.2505
130	0xb79f	-0.4763
131	0xb4aa	-0.2915
132	0x33b5	0.2408
133	0x304e	0.1345
134	0xb397	-0.2372
135	0xb928	-0.6445
136	0x31e5	0.1842
137	0xbb82	-0.9385
138	0x3a85	0.815
139	0x2d93	0.0871
140	0x2c5e	0.06824
141	0xb61f	-0.3826
142	0xb07f	-0.1405
143	0x375f	0.4607
144	0xa26f	-0.012566
145	0xb5b4	-0.3564
146	0xb708	-0.4395
147	0xb2bb	-0.2103
148	0x2b66	0.0578
149	0xb20d	-0.1891
150	0x3321	0.2228
151	0x2f64	0.1155
152	0x9d06	-0.004906
153	0x31c6	0.1804
154	0xa79f	-0.02977
155	0x34f8	0.3105
156	0x30d7	0.1512
157	0x2c22	0.0646
158	0x35f2	0.3716
159	0x3078	0.1396
160	0xaee7	-0.10785
161	0x2ce0	0.0762
162	0xb1e1	-0.1837
163	0x2cf9	0.0777
164	0x298a	0.04327
165	0xac06	-0.06287
166	0x29f5	0.04654
167	0xb017	-0.1278
168	0x3575	0.341
169	0x32ee	0.2166
170	0xb211	-0.1896
171	0x3853	0.5405
172	0x3200	0.1875
173	0xac33	-0.0656
174	0x34cd	0.3
175	0xb1c6	-0.1804
176	0xb21d	-0.191
177	0xb128	-0.1611
178	0x3813	0.5093
179	0x1d93	0.005444
180	0x2cc1	0.0743
181	0xb412	-0.2544
182	0xb848	-0.535
183	0xb4b3	-0.2937
184	0x34c0	0.2969
185	0xbba8	-0.957
186	0x2add	0.05362
187	0xac5b	-0.06805
188	0x340c	0.253
189	0x2a4a	0.04913
190	0xb60b	-0.3777
191	0x2041	0.00831
192	0x27f2	0.03104
193	0xad1c	-0.07983
194	0xb088	-0.1416
195	0xa948	-0.04126
196	0xb86e	-0.5537
197	0x3482	0.2817
198	0x311e	0.1599
199	0x30d2	0.1506
200	0xaefe	-0.10925
201	0xac19	-0.064
202	0xb150	-0.166
203	0xb2cc	-0.2124
204	0x2e19	0.0953
205	0x2785	0.02937
206	0x32c8	0.2119
207	0xb1cd	-0.1813
208	0xa807	-0.03146
209	0x35ca	0.3618
210	0x2b82	0.05865
211	0x28a5	0.0363
212	0x2723	0.02788
213	0xb4d0	-0.3008
214	0x309b	0.1439
215	0x2c44	0.06665
216	0xb48f	-0.285
217	0x3572	0.3403
218	0xafab	-0.1198
219	0xb15d	-0.1676
220	0xb044	-0.1333
221	0x3209	0.1886
222	0xb842	-0.532
223	0xa7f2	-0.03104
224	0x351b	0.319
225	0x3c10	1.016
226	0x2aeb	0.05405
227	0xb463	-0.2742
228	0xb123	-0.1605
229	0x2fcc	0.1218
230	0xaddf	-0.09174
231	0xba33	-0.775
232	0xb37b	-0.2338
233	0xb440	-0.2656
234	0x3319	0.2218
235	0x2dd1	0.0909
236	0x2ed5	0.10675
237	0x2d78	0.08545
238	0xb0fb	-0.1556
239	0xada5	-0.0882
240	0x2191	0.01087
241	0xb599	-0.3499
242	0xb69f	-0.4138
243	0xb372	-0.2327
244	0x326a	0.2004
245	0x358a	0.3462
246	0x3478	0.2793
247	0xadbd	-0.08966
248	0xb4d8	-0.3027
249	0x30dd	0.152
250	0x3bce	0.9756
251	0x2e23	0.0959
252	0xafff	-0.12494
253	0xafd9	-0.1226
254	0xb54c	-0.331
255	0xb51c	-0.3193
