HPC_Final_Study2_Complete_Test_Class_Balance/participants_session_transfer_train_fresh_model/participant_16/session_3/session_3_lite_models/indexpen_model_quant.tflite (tflite, 303344 bytes, 29 tensors)

model/time_distributed_6/conv2d_1/BiasAdd;model/time_distributed_6/conv2d_1/Conv2D;model/time_distributed_6/conv2d_1/BiasAdd/ReadVariableOp/resource f2 [16]
000000 93 2d 31 2d 93 2c b5 1a 8b 2b ff 2c 50 2b 1a 2d
       0.0871 0.0811 0.0715 0.003275 0.05893 0.07806 0.05713 0.0797
000010 f7 2b 1b 26 66 2a 7f 26 d3 2e a6 2a bc 2c 6b 2b
       0.06223 0.02385 0.05 0.02538 0.1066 0.05194 0.074 0.05795

model/time_distributed/conv2d/BiasAdd;model/time_distributed/conv2d/Conv2D;model/time_distributed/conv2d/BiasAdd/ReadVariableOp/resource f2 [8]
000000 5b ae 36 21 06 a4 82 a7 14 29 51 25 11 aa 49 28
       -0.0993 0.01018 -0.01572 -0.02933 0.03967 0.02077 -0.0474 0.03348

model/time_distributed_6/conv2d_1/Conv2D f2 [16, 3, 3, 1]
000000 5e 29 c5 28 f7 ac c6 22 4d 28 5a a7 e8 ab 9e 29
       0.04193 0.03726 -0.0776 0.01323 0.0336 -0.02872 -0.06177 0.04388
000010 b6 26 3e a1 00 2e 30 ad 4a ad f1 31 50 ae d7 9c
       0.02621 -0.01024 0.09375 -0.08105 -0.08264 0.1857 -0.09863 -0.004726
000020 06 b0 75 2f 03 2d 91 b2 62 2f c2 29 a0 29 5f ad
       -0.1257 0.1165 0.0783 -0.2052 0.11536 0.04498 0.04395 -0.0839
000030 5e a7 95 28 82 1f a9 0c e4 2a 3a a9 8e 22 ff 92
       -0.02878 0.0358 0.00733 0.0002844 0.05383 -0.04083 0.0128 -0.000854
000040 3f 97 bb 20 01 a9 43 20 a3 15 2c b1 9a 30 4b a7
       -0.001769 0.00924 -0.0391 0.00832 0.001376 -0.1616 0.1438 -0.02849
000050 c4 2c 2e a9 18 a7 4e 2a d2 a4 10 30 1d ad ee a9
       0.07446 -0.04047 -0.02771 0.04926 -0.01883 0.127 -0.0799 -0.04633
000060 d4 a9 e4 aa fb 2d 11 25 2d 29 51 aa 0b 2a 44 b0
       -0.04553 -0.05383 0.09344 0.01979 0.04044 -0.04935 0.0472 -0.1333
000070 d3 2b 6a 1d d3 2c fb ac f4 10 b8 29 9e aa c8 ad
       0.06113 0.005287 0.0754 -0.0778 0.0006046 0.04468 -0.0517 -0.09033
000080 0a 2e c9 19 03 27 1c ac 0d 26 ad ac 8a 29 dc 25
       0.09436 0.002825 0.02739 -0.0642 0.02364 -0.07306 0.04327 0.02289
000090 3c a5 b6 21 01 1f c4 2b cd ae 10 2b b6 2e c1 b1
       -0.02045 0.011154 0.00684 0.06067 -0.10626 0.05518 0.10486 -0.1798
0000a0 cd 2b 8e 28 44 ae dd 2b d4 21 f7 27 fe a9 2a 29
       0.06094 0.03558 -0.0979 0.06143 0.01138 0.03111 -0.0468 0.04034
0000b0 11 1e 3e a7 d2 ae be 31 09 ad fb 20 5d 2c 29 ac
       0.005924 -0.02829 -0.10657 0.1794 -0.0787 0.00973 0.0682 -0.065
0000c0 cd a8 97 30 bb ae 5a ac 0e 33 16 b1 38 b0 6d 2f
       -0.0375 0.1434 -0.10516 -0.068 0.2205 -0.1589 -0.1318 0.116
0000d0 63 25 39 2f 43 b1 07 2b 52 ae 32 32 9b ad ba ad
       0.02104 0.11285 -0.1644 0.0549 -0.09875 0.1936 -0.0876 -0.0895
0000e0 07 31 04 ac 78 ad b2 32 37 b0 41 a6 d8 2d 5e ac
       0.1571 -0.06274 -0.08545 0.2092 -0.1317 -0.02443 0.0913 -0.06824
0000f0 92 21 45 b0 0f 30 e9 9f b1 28 45 a4 4e a2 cb a4
       0.01088 -0.1334 0.1268 -0.007725 0.03665 -0.01668 -0.012314 -0.01872
000100 c3 22 fb a5 b5 a6 66 2b 71 2c 6d b0 b3 2a 0c 9e
       0.01321 -0.02336 -0.0262 0.0578 0.0694 -0.1383 0.05234 -0.005905
000110 39 a6 11 25 af a2 07 25 c9 a2 4e 2c f7 ac bc a3
       -0.0243 0.01979 -0.013054 0.01964 -0.01325 0.06726 -0.0776 -0.01511

model/time_distributed/conv2d/Conv2D f2 [8, 3, 3, 1]
000000 25 20 b0 a7 63 21 a0 17 3e 1d cb 21 eb 89 37 9f
       0.008095 -0.03003 0.01052 0.001862 0.00512 0.011314 -0.0001806 -0.007046
000010 d0 9d aa 20 54 a7 ca 20 6e 20 6d 21 5f 9a c1 a4
       -0.005676 0.00911 -0.02863 0.00935 0.00865 0.0106 -0.00311 -0.01857
000020 ef 20 8f 1a 8b 1f b7 1a 90 99 c8 a4 77 a0 d2 1c
       0.009636 0.003202 0.007366 0.003279 -0.002716 -0.01868 -0.00872 0.004707
000030 85 23 1d 28 72 a6 75 9a 82 9c df 24 a3 22 71 a4
       0.01469 0.03214 -0.02518 -0.003153 -0.004402 0.01903 0.01296 -0.01735
000040 ad 9b 81 a4 60 a2 b7 9b 56 23 a0 a0 27 27 0e a1
       -0.003748 -0.0176 -0.01245 -0.003767 0.01433 -0.00903 0.02794 -0.00987
000050 cd a3 4c 1c 0d 13 4a 21 07 a2 8d a0 a8 9e 1e 1f
       -0.015236 0.004196 0.0008607 0.01033 -0.01177 -0.00889 -0.0065 0.00695
000060 23 22 18 1e 3a a3 66 25 79 1b d0 a0 ff 1e f0 a0
       0.011986 0.00595 -0.014114 0.02109 0.003649 -0.0094 0.006832 -0.00964
000070 4f 1f 1d 1f 85 a1 f5 a4 96 20 30 a0 c9 98 a6 1b
       0.007137 0.006947 -0.01078 -0.01936 0.00896 -0.00818 -0.002337 0.003735
000080 fa 1d 6d 9d 6b a3 df a2 17 28 8b a0 58 23 81 9f
       0.005836 -0.0053 -0.01449 -0.01342 0.03195 -0.00887 0.01434 -0.007328

model/lstm/TensorArrayV2_1 f2 [120, 1, 32]
000000 00 00 00 00 00 00 00 00 00 00 00 00 00 00 00 00
       0.0 0.0 0.0 0.0 0.0 0.0 0.0 0.0
000010 00 00 00 00 00 00 00 00 00 00 00 00 00 00 00 00
       0.0 0.0 0.0 0.0 0.0 0.0 0.0 0.0
000020 00 00 00 00 00 00 00 00 00 00 00 00 00 00 00 00
       0.0 0.0 0.0 0.0 0.0 0.0 0.0 0.0
000030 00 00 00 00 00 00 00 00 00 00 00 00 00 00 00 00
       0.0 0.0 0.0 0.0 0.0 0.0 0.0 0.0
000040 00 00 00 00 00 00 00 00 00 00 00 00 00 00 00 00
       0.0 0.0 0.0 0.0 0.0 0.0 0.0 0.0
000050 00 00 00 00 00 00 00 00 00 00 00 00 00 00 00 00
       0.0 0.0 0.0 0.0 0.0 0.0 0.0 0.0
000060 00 00 00 00 00 00 00 00 00 00 00 00 00 00 00 00
       0.0 0.0 0.0 0.0 0.0 0.0 0.0 0.0
000070 00 00 00 00 00 00 00 00 00 00 00 00 00 00 00 00
       0.0 0.0 0.0 0.0 0.0 0.0 0.0 0.0
000080 00 00 00 00 00 00 00 00 00 00 00 00 00 00 00 00
       0.0 0.0 0.0 0.0 0.0 0.0 0.0 0.0
000090 00 00 00 00 00 00 00 00 00 00 00 00 00 00 00 00
       0.0 0.0 0.0 0.0 0.0 0.0 0.0 0.0
0000a0 00 00 00 00 00 00 00 00 00 00 00 00 00 00 00 00
       0.0 0.0 0.0 0.0 0.0 0.0 0.0 0.0
0000b0 00 00 00 00 00 00 00 00 00 00 00 00 00 00 00 00
       0.0 0.0 0.0 0.0 0.0 0.0 0.0 0.0
0000c0 00 00 00 00 00 00 00 00 00 00 00 00 00 00 00 00
       0.0 0.0 0.0 0.0 0.0 0.0 0.0 0.0
0000d0 00 00 00 00 00 00 00 00 00 00 00 00 00 00 00 00
       0.0 0.0 0.0 0.0 0.0 0.0 0.0 0.0
0000e0 00 00 00 00 00 00 00 00 00 00 00 00 00 00 00 00
       0.0 0.0 0.0 0.0 0.0 0.0 0.0 0.0
0000f0 00 00 00 00 00 00 00 00 00 00 00 00 00 00 00 00
       0.0 0.0 0.0 0.0 0.0 0.0 0.0 0.0
000100 00 00 00 00 00 00 00 00 00 00 00 00 00 00 00 00
       0.0 0.0 0.0 0.0 0.0 0.0 0.0 0.0
000110 00 00 00 00 00 00 00 00 00 00 00 00 00 00 00 00
       0.0 0.0 0.0 0.0 0.0 0.0 0.0 0.0
000120 00 00 00 00 00 00 00 00 00 00 00 00 00 00 00 00
       0.0 0.0 0.0 0.0 0.0 0.0 0.0 0.0
000130 00 00 00 00 00 00 00 00 00 00 00 00 00 00 00 00
       0.0 0.0 0.0 0.0 0.0 0.0 0.0 0.0
000140 00 00 00 00 00 00 00 00 00 00 00 00 00 00 00 00
       0.0 0.0 0.0 0.0 0.0 0.0 0.0 0.0
000150 00 00 00 00 00 00 00 00 00 00 00 00 00 00 00 00
       0.0 0.0 0.0 0.0 0.0 0.0 0.0 0.0
000160 00 00 00 00 00 00 00 00 00 00 00 00 00 00 00 00
       0.0 0.0 0.0 0.0 0.0 0.0 0.0 0.0
000170 00 00 00 00 00 00 00 00 00 00 00 00 00 00 00 00
       0.0 0.0 0.0 0.0 0.0 0.0 0.0 0.0
000180 00 00 00 00 00 00 00 00 00 00 00 00 00 00 00 00
       0.0 0.0 0.0 0.0 0.0 0.0 0.0 0.0
000190 00 00 00 00 00 00 00 00 00 00 00 00 00 00 00 00
       0.0 0.0 0.0 0.0 0.0 0.0 0.0 0.0
0001a0 00 00 00 00 00 00 00 00 00 00 00 00 00 00 00 00
       0.0 0.0 0.0 0.0 0.0 0.0 0.0 0.0
0001b0 00 00 00 00 00 00 00 00 00 00 00 00 00 00 00 00
       0.0 0.0 0.0 0.0 0.0 0.0 0.0 0.0
0001c0 00 00 00 00 00 00 00 00 00 00 00 00 00 00 00 00
       0.0 0.0 0.0 0.0 0.0 0.0 0.0 0.0
0001d0 00 00 00 00 00 00 00 00 00 00 00 00 00 00 00 00
       0.0 0.0 0.0 0.0 0.0 0.0 0.0 0.0
0001e0 00 00 00 00 00 00 00 00 00 00 00 00 00 00 00 00
       0.0 0.0 0.0 0.0 0.0 0.0 0.0 0.0
0001f0 00 00 00 00 00 00 00 00 00 00 00 00 00 00 00 00
       0.0 0.0 0.0 0.0 0.0 0.0 0.0 0.0

model/dense_2/BiasAdd/ReadVariableOp/resource f2 [256]
000000 88 25 4e 2f 44 21 aa 2d 46 24 f6 28 b4 25 86 24
       0.0216 0.11414 0.010284 0.0885 0.0167 0.03876 0.02228 0.01767
000010 de 2d 3e 2c 8f 22 54 2e 9e 2d fa 25 9b 29 1f 2c
       0.0917 0.0663 0.01281 0.0989 0.08777 0.02335 0.0438 0.0644
000020 e1 25 6c 2e 59 27 0f 2c aa 2c 1c 29 fa 2b bf 2c
       0.02296 0.10034 0.0287 0.0634 0.0729 0.03992 0.06232 0.07416
000030 ae 2e 5d 2b d5 2e 10 24 c5 2a 23 2a c4 2d af a7
       0.1044 0.05753 0.10675 0.01587 0.0529 0.04794 0.0901 -0.03001
000040 10 2e 31 2c f8 2f e5 2b 12 30 59 22 e0 2a fd 27
       0.0947 0.0655 0.1245 0.06168 0.1272 0.0124 0.0537 0.0312
000050 b5 2a cb 2c 4b 2e f0 2c 58 2c 0e 2b f7 a9 4a 2f
       0.0524 0.0749 0.0983 0.07715 0.0679 0.0551 -0.0466 0.1139
000060 63 2c 2c 22 9b 2b 7a 98 cb 24 65 2d 1d 2c d3 29
       0.06854 0.012054 0.05942 -0.002186 0.01872 0.0843 0.0643 0.0455
000070 73 2d 44 2a 46 25 60 2c 42 2f 59 2a 29 2c 72 30
       0.08514 0.04895 0.0206 0.06836 0.1134 0.0496 0.065 0.1389
000080 b0 2e db 2f 92 21 91 2b 46 2c 81 2d 7d a1 5c 2f
       0.1045 0.12274 0.01088 0.0591 0.0668 0.086 -0.01072 0.115
000090 4b 29 2e 2c 47 25 16 2e 56 2d 2e 25 de 2a 7a 2d
       0.04135 0.0653 0.02061 0.0951 0.0834 0.02023 0.05365 0.0856
0000a0 81 25 b2 2f 1a 2c 45 2e 6f 2d 37 a8 8f 29 88 2d
       0.0215 0.12024 0.0641 0.09796 0.0849 -0.03293 0.04343 0.0864
0000b0 cd 2e 6e 29 76 2b e9 2e d2 2b f2 a0 c1 2d e8 2d
       0.10626 0.04242 0.0583 0.108 0.0611 -0.00966 0.0899 0.0923
0000c0 36 2d 39 a4 15 2f ea 2f e8 2a 84 25 21 2f 0e 2c
       0.0814 -0.0165 0.11066 0.12366 0.05396 0.02155 0.1114 0.06335
0000d0 a8 2f 46 25 0a 2e d4 29 47 2d b2 a7 1b 2e f0 25
       0.1196 0.0206 0.09436 0.04553 0.08246 -0.03006 0.0954 0.0232
0000e0 9d 29 c1 2c d1 2e ee 14 bd 2b 1c 2d 73 28 b7 2f
       0.04385 0.0743 0.1065 0.001204 0.06046 0.07983 0.03476 0.12054
0000f0 bf a6 70 25 c2 2c 9f 29 43 26 18 2c e6 2b a4 2e
       -0.02635 0.02124 0.07434 0.0439 0.02446 0.06396 0.0617 0.10376
000100 89 2e d4 2d 6d 29 9d 29 17 1f f6 2b ef 27 f7 31
       0.1021 0.09106 0.0424 0.04385 0.006924 0.0622 0.03099 0.1864
000110 16 2d 50 2d 9b 2d 95 21 7b 2d 3d 30 d1 2f 81 2a
       0.07947 0.083 0.0876 0.0109 0.08563 0.1324 0.12213 0.0508
000120 01 2d b3 2d fe 24 5c 2d f9 2d cf 2b b1 28 bd 24
       0.0782 0.08905 0.0195 0.08374 0.0933 0.061 0.03665 0.01851
000130 59 29 07 29 52 2a c6 2a 86 2c 53 2e ea a1 80 2d
       0.04178 0.03928 0.04938 0.05292 0.0707 0.0988 -0.01155 0.08594
000140 50 2a 27 2c 6b 30 6b 2d 1b 25 9b 2c 42 24 1c 22
       0.04932 0.0649 0.1381 0.08466 0.01994 0.07196 0.01663 0.01193
000150 00 30 9d 2a 2f 2c bf 2c 12 2b 5f 2f 1c 2c a0 29
       0.125 0.05167 0.06537 0.07416 0.05524 0.1152 0.0642 0.04395
000160 c2 28 d8 2e e8 2e 76 2c e6 1c ec 29 0a 29 ae 2b
       0.03717 0.10693 0.1079 0.0697 0.004784 0.04626 0.03937 0.06
000170 71 2c 2e 2e 3c 26 be 2f aa 1c e0 2c ad 30 22 1c
       0.0694 0.09656 0.02435 0.121 0.004555 0.0762 0.1461 0.004036
000180 b6 2c 91 2c b4 29 00 2c 2c 2b 04 2f ec 29 88 30
       0.0736 0.07135 0.04456 0.0625 0.05603 0.1096 0.04626 0.1416
000190 a2 25 b6 2a 40 2f f6 2d 97 2e c8 2c c7 2c 81 2f
       0.022 0.05243 0.1133 0.09314 0.10297 0.0747 0.07465 0.11725
0001a0 d2 2f ea 28 a0 2e 63 2d ee 27 e5 25 bb 2e d8 2f
       0.1222 0.0384 0.1035 0.08417 0.03098 0.02303 0.10516 0.12256
0001b0 f7 2e cc 29 d3 26 fd 2c c9 2a 87 2c db 20 7a 2d
       0.1088 0.0453 0.02666 0.07794 0.053 0.07074 0.00948 0.0856
0001c0 eb 26 14 2a 45 2f 41 a2 00 a1 e5 2c 24 2f d2 2d
       0.02702 0.0475 0.1136 -0.012215 -0.009766 0.0765 0.1116 0.09094
0001d0 aa 2b d3 2d 2b 2a 97 2c 6e 2e 74 30 47 2c 47 1e
       0.05988 0.091 0.0482 0.0717 0.10046 0.1392 0.06683 0.00613
0001e0 0d 2e 86 2b ad 2d f1 2c 6e 24 69 28 11 21 b5 2e
       0.09454 0.05878 0.0887 0.0772 0.0173 0.03445 0.009895 0.1048
0001f0 8b 2d 2b 30 5e 2d 7b 2a 8f 2a 7d 2d ca 2e 03 30
       0.0866 0.1302 0.08386 0.05063 0.05124 0.08575 0.1061 0.1254

model/last_layer/BiasAdd/ReadVariableOp/resource f2 [31]
000000 57 9e 7d 92 9c 09 9e 14 b9 1c a5 27 44 1c 72 17
       -0.00619 -0.000792 0.0001712 0.001127 0.004612 0.02986 0.004166 0.001818
000010 ee 9e c5 9c aa 21 59 9f c2 94 a3 98 c6 1b 96 19
       -0.006767 -0.004658 0.01106 -0.007175 -0.001162 -0.002264 0.003796 0.002728
000020 06 9e a6 06 40 0e 7f 9d 15 a5 60 26 4e 10 41 26
       -0.005882 0.00010145 0.0003815 -0.005367 -0.01985 0.0249 0.0005255 0.02443
000030 e5 a6 10 1f f8 a3 01 a5 f5 a3 67 a4 b8 ab
       -0.02693 0.006897 -0.015564 -0.01955 -0.01554 -0.0172 -0.0603

model/time_distributed_11/dense_1/BiasAdd/ReadVariableOp/resource f2 [64]
000000 6d a1 3f 1a 32 9d 16 a8 4f 9a f5 aa 4a a8 ce a0
       -0.0106 0.00305 -0.005074 -0.03192 -0.00308 -0.05435 -0.0335 -0.009384
000010 24 a6 e8 9e 2e a5 f2 a8 ca a7 0f aa 1e a8 2e ac
       -0.02399 -0.006744 -0.02023 -0.03864 -0.03043 -0.04733 -0.03217 -0.0653
000020 47 a3 45 a7 14 a6 06 ad e0 a8 dd a7 96 a9 27 a9
       -0.01421 -0.0284 -0.02374 -0.0785 -0.0381 -0.03072 -0.04364 -0.04025
000030 12 ac 5a a5 e8 a1 2a a5 c6 a4 b8 a6 30 a1 1f a7
       -0.0636 -0.0209 -0.011536 -0.02017 -0.01865 -0.02625 -0.01013 -0.02782
000040 81 a9 c4 1c b2 1e 80 a8 c1 a7 79 a4 ca 25 94 aa
       -0.043 0.004654 0.00654 -0.03516 -0.03029 -0.01747 0.02261 -0.0514
000050 6c a7 c2 a6 79 9d eb aa a7 a1 13 aa 19 a6 32 a8
       -0.02899 -0.0264 -0.005344 -0.05405 -0.01104 -0.04745 -0.02382 -0.03278
000060 5e a8 5c a8 71 a3 4d 99 a7 ac 4f 92 f6 a9 32 a2
       -0.03412 -0.03406 -0.014534 -0.002588 -0.0727 -0.00077 -0.04657 -0.0121
000070 c6 aa bb a6 4c a8 9a a5 d2 a2 54 aa bb a9 92 a5
       -0.05292 -0.02629 -0.03357 -0.02188 -0.01332 -0.04944 -0.04477 -0.02176

model/time_distributed_5/dense/BiasAdd/ReadVariableOp/resource f2 [32]
000000 62 a5 f9 a4 33 2a cb a5 df 21 91 a1 07 0f 7f 1a
       -0.02103 -0.01942 0.04843 -0.02263 0.01147 -0.01087 0.000429 0.003172
000010 e7 27 3e 98 6f a1 60 a7 30 23 30 1a 67 26 58 22
       0.03087 -0.002071 -0.01061 -0.02881 0.01404 0.003021 0.02501 0.01239
000020 3a a8 5f a0 ed a8 92 aa 9b 20 8c ab 49 29 b8 99
       -0.03302 -0.00854 -0.03848 -0.05133 0.008995 -0.05896 0.0413 -0.002792
000030 9c 26 20 1f c4 99 e0 27 5b 25 ed 28 dd a4 ea 23
       0.02582 0.006958 -0.002815 0.03076 0.02092 0.03848 -0.019 0.01546

model/dense_2/MatMul f2 [256, 32]
000000 0d 28 30 32 56 32 b4 1f 87 2f 1c b0 51 ad c0 af
       0.03165 0.1934 0.198 0.007523 0.1176 -0.1284 -0.08307 -0.1211
000010 7c 31 2a b1 c7 a5 68 30 28 ac 6b 2e 9d b2 26 34
       0.1714 -0.1614 -0.02257 0.1377 -0.06494 0.1003 -0.2067 0.2593
000020 36 2c c4 b1 e0 b0 61 ab 39 ad 2c 2d cc ad 45 b0
       0.0658 -0.1802 -0.1523 -0.05765 -0.0816 0.0808 -0.0906 -0.1334
000030 3f 2a 1e 31 5f 19 a6 34 85 b1 cb 27 97 b3 72 33
       0.0488 0.1599 0.002623 0.2905 -0.1725 0.03044 -0.2372 0.2327
000040 50 2f 39 30 b4 2e be 2c 7e b3 3a 29 6c af 14 25
       0.11426 0.132 0.10474 0.0741 -0.2341 0.04083 -0.11597 0.01984
000050 41 ad e1 ac b0 ac 5b 32 01 35 b9 30 22 ae 14 ae
       -0.0821 -0.07623 -0.07324 0.1986 0.3127 0.1476 -0.0958 -0.095
000060 d0 b3 b4 31 4e 34 49 ac 17 31 60 b4 48 33 11 2d
       -0.2441 0.1782 0.269 -0.06696 0.159 -0.2734 0.2275 0.07916
000070 4a aa 73 ae 73 b4 66 25 99 b0 4c 22 0f af ee ab
       -0.04913 -0.10077 -0.278 0.02109 -0.1437 0.0123 -0.1103 -0.06195
000080 c3 2f 2b 31 64 25 08 b3 ec ad 47 2f de 2f 63 31
       0.1213 0.1615 0.02106 -0.2197 -0.0925 0.1137 0.1229 0.1683
000090 3f b3 39 28 a0 31 e1 28 63 2e 9e 2c e9 b1 17 33
       -0.2264 0.033 0.1758 0.03812 0.0998 0.07214 -0.1847 0.2216
0000a0 46 b0 37 a8 07 ae d8 33 0d 2b 6f 30 cf b1 55 ad
       -0.1335 -0.03293 -0.0942 0.2451 0.05508 0.1385 -0.1815 -0.0833
0000b0 bd 2e 1b 2a 23 30 f7 30 ed ab 6f 28 1c 31 9c b0
       0.1053 0.0477 0.1293 0.1552 -0.06192 0.03464 0.1597 -0.144
0000c0 5c a9 44 33 bd 2a a2 30 40 b3 3e 2e 82 ad d0 b0
       -0.04187 0.227 0.05264 0.1448 -0.2266 0.09753 -0.08606 -0.1504
0000d0 75 b1 17 ac 85 31 11 2e 81 30 8e 1c 2b 2e 38 b7
       -0.1705 -0.0639 0.1725 0.0948 0.1407 0.004448 0.0964 -0.4512
0000e0 e7 2e 8a 37 43 33 56 a5 e1 a8 a6 b1 d1 ad 23 28
       0.10785 0.4712 0.2269 -0.02084 -0.03812 -0.1765 -0.0909 0.03232
0000f0 dd b0 f5 2b 18 b2 a0 b4 5e 24 a9 ae 9d b1 87 30
       -0.152 0.06216 -0.1904 -0.289 0.01706 -0.10406 -0.1754 0.1415
000100 bf 30 16 2e 3a a4 2d b0 9b 27 b2 aa e0 30 e1 2e
       0.1483 0.0951 -0.01651 -0.1305 0.02971 -0.0523 0.1523 0.1075
000110 a7 25 4e ac 49 35 40 26 9a ac 51 24 d5 30 4a 34
       0.02208 -0.06726 0.3303 0.02441 -0.0719 0.01686 0.151 0.268
000120 e9 2b df b2 47 b0 41 25 4b 30 47 2f ad a7 72 b0
       0.0618 -0.2147 -0.1337 0.02052 0.1342 0.1137 -0.02998 -0.1389
000130 e0 2d 9a 2d 54 a3 32 32 f6 a9 39 2d 4b af c5 a8
       0.0918 0.0875 -0.01431 0.1936 -0.04657 0.0816 -0.11395 -0.03726
000140 83 1c 45 b2 ed 2c 70 30 58 30 e8 a0 54 21 45 32
       0.004406 -0.1959 0.07697 0.1387 0.1357 -0.00958 0.01041 0.1959
000150 3b ab ff ae bf 2a 9a 30 aa 2a d3 2d e9 b2 72 23
       -0.0565 -0.1093 0.0527 0.1438 0.05206 0.091 -0.216 0.01454
000160 b1 24 7a ab b8 2f c2 2c 16 30 e9 2f 32 b1 81 22
       0.01833 -0.0584 0.1206 0.07434 0.1277 0.1236 -0.1624 0.0127
000170 b6 aa 86 33 81 31 2a 2f 60 a7 88 31 34 2e 1b a4
       -0.05243 0.2351 0.172 0.11194 -0.02881 0.1729 0.0969 -0.01604
000180 3f 27 d4 b2 3a 32 f9 b1 c6 31 e0 28 4f 2d ad 25
       0.0283 -0.2134 0.1946 -0.1866 0.1804 0.0381 0.08295 0.02217
000190 71 a9 c5 33 8d b4 73 25 74 2d 65 af 1f 2a aa b0
       -0.0425 0.2428 -0.2844 0.02129 0.0852 -0.11554 0.04782 -0.1458
0001a0 1d 23 3b 90 ad aa eb a9 26 27 52 30 87 22 19 06
       0.01389 -0.0005164 -0.05215 -0.04623 0.02792 0.135 0.01275 9.304e-05
0001b0 2d 28 55 29 67 30 e8 2c 3b 35 c4 a2 0d 32 8a b4
       0.03262 0.04166 0.1376 0.07666 0.327 -0.013214 0.1891 -0.2837
0001c0 8f 31 dc 30 e4 ac 67 a9 7e aa db ad fb ab 9c 30
       0.1737 0.1519 -0.0764 -0.0422 -0.05072 -0.0915 -0.06235 0.144
0001d0 f1 24 4b a8 92 33 d5 2e 4f b0 d1 2c 45 2d cd b1
       0.0193 -0.03354 0.2366 0.10675 -0.1346 0.07526 0.08234 -0.1813
0001e0 29 ae 3c 1c 50 af a4 2e 85 30 41 30 d1 b0 24 b1
       -0.09625 0.004135 -0.11426 0.10376 0.1412 0.1329 -0.1505 -0.1606
0001f0 ed 28 16 30 69 ae d5 b6 84 b1 b3 2c e2 ab 65 b1
       0.03848 0.1277 -0.10016 -0.427 -0.1724 0.0734 -0.06158 -0.1686

model/last_layer/MatMul f2 [31, 256]
000000 f7 28 13 a6 3f 2c 93 ab e2 27 af ad 90 ab 6c a3
       0.0388 -0.02373 0.06635 -0.05917 0.03079 -0.0888 -0.05908 -0.014496
000010 a9 aa 35 28 1c 20 be 30 84 28 65 aa cf 22 f8 2c
       -0.05203 0.03287 0.008026 0.1482 0.03528 -0.04996 0.0133 0.07764
000020 73 30 62 b0 6a ae 07 ae ca 2e fb 30 45 a5 3f ac
       0.139 -0.137 -0.1002 -0.0942 0.1061 0.1556 -0.02058 -0.06635
000030 72 ac 61 ad f0 25 15 31 4a 2a 99 b0 61 2e 98 28
       -0.06946 -0.08405 0.0232 0.1588 0.04913 -0.1437 0.0997 0.0359
000040 49 ae 3c 28 12 ae d4 90 47 b4 ce a9 5c a8 d9 a7
       -0.0982 0.03308 -0.09485 -0.0005894 -0.2673 -0.04535 -0.03406 -0.03065
000050 4b 2c 09 ad cc 2c b9 1d 96 28 b3 a6 d4 2d 1d ac
       0.0671 -0.0787 0.07495 0.00559 0.03583 -0.02617 0.09106 -0.0643
000060 df 1e c9 a8 e7 28 09 a8 99 2c 44 28 ad a8 0d ad
       0.00671 -0.03738 0.0383 -0.03152 0.07184 0.03333 -0.03653 -0.0789
000070 3a b3 6a af cb ac cb b0 76 2e 54 b0 2c b0 e9 b3
       -0.2258 -0.11584 -0.0749 -0.1498 0.10095 -0.1353 -0.1304 -0.2472
000080 34 2e b4 96 d9 2a 5e 29 d9 22 67 b2 05 a7 dc ae
       0.0969 -0.0016365 0.0535 0.04193 0.013374 -0.2001 -0.02742 -0.1072
000090 10 2f 72 a9 2b a8 99 24 f7 b1 74 b0 34 af 88 a1
       0.11035 -0.04254 -0.03256 0.01796 -0.1864 -0.1392 -0.11255 -0.0108
0000a0 8d a5 4b b0 c6 27 56 b1 01 ad c6 28 cc 1e b2 24
       -0.02168 -0.1342 0.03036 -0.1667 -0.0782 0.0373 0.006638 0.01834
0000b0 ad 2c 31 a4 f3 2b 31 b4 b2 a2 0a 2d 1c 2b a2 b1
       0.07306 -0.01637 0.0621 -0.262 -0.01308 0.07874 0.05554 -0.176
0000c0 3f ad 00 af 4d ae 10 a8 0d 2b 23 a4 d7 30 0b a1
       -0.082 -0.1094 -0.09845 -0.03174 0.05508 -0.01616 0.1512 -0.00985
0000d0 ad 1f f1 24 22 a9 83 b1 c0 b0 2a a7 23 a9 0b af
       0.007496 0.0193 -0.0401 -0.1722 -0.1484 -0.02798 -0.04013 -0.11005
0000e0 12 b0 40 24 ae 29 88 a1 85 2e 16 2b 26 ac cd 9b
       -0.1272 0.0166 0.04437 -0.0108 0.10187 0.05536 -0.0648 -0.003809
0000f0 bb 9c 20 2f 96 26 06 b0 f5 a9 13 b0 ce a5 f7 24
       -0.00462 0.1113 0.02573 -0.1257 -0.04654 -0.1273 -0.02267 0.0194
000100 82 b3 01 b3 a5 a4 94 9a d2 28 91 b0 c4 aa 66 af
       -0.2346 -0.2189 -0.01814 -0.003212 0.03766 -0.1427 -0.05286 -0.1156
000110 6f 29 54 24 cc af eb b1 45 a7 ba 96 54 24 42 ae
       0.04245 0.0169 -0.1218 -0.1849 -0.0284 -0.001642 0.0169 -0.0978
000120 9e 29 15 9d b1 ad 43 ae 10 b0 05 b4 71 26 cd aa
       0.04388 -0.004963 -0.0889 -0.09784 -0.127 -0.2512 0.02516 -0.05313
000130 7a a7 fd 2e 45 b0 7d 21 73 29 7a 26 87 aa 02 29
       -0.0292 0.1092 -0.1334 0.01072 0.04257 0.0253 -0.051 0.03912
000140 d2 29 fb 25 cf ab c9 29 18 29 4f 25 23 95 3e 26
       0.04547 0.02336 -0.061 0.0452 0.0398 0.02074 -0.001254 0.02438
000150 71 b2 6f ae 48 2a cf ad 4a 29 e6 ac e4 9c bf 29
       -0.2013 -0.1005 0.04907 -0.09076 0.04132 -0.07654 -0.004776 0.0449
000160 7a 29 f7 ac 6b b1 67 af 2f 28 39 b3 2c 2d 94 a3
       0.0428 -0.0776 -0.1693 -0.11566 0.03268 -0.2257 0.0808 -0.0148
000170 82 b1 95 98 be 1c 10 b0 57 27 a5 ad 14 ae 5b 27
       -0.1721 -0.002237 0.00463 -0.127 0.02867 -0.0882 -0.095 0.02873
000180 db b0 01 b4 11 a7 f4 a8 63 ad 6c a6 71 2c 88 aa
       -0.1517 -0.2502 -0.0276 -0.0387 -0.08417 -0.02509 0.0694 -0.05103
000190 8b 27 54 b2 57 97 d9 af 07 2e 5c 2f f8 2d 55 a9
       0.02946 -0.1978 -0.001792 -0.1226 0.0942 0.115 0.09326 -0.04166
0001a0 4c b1 bf a7 c4 a9 92 aa 18 b1 77 ad 40 20 b6 af
       -0.1655 -0.03026 -0.04504 -0.05133 -0.1592 -0.0854 0.0083 -0.1205
0001b0 1f b1 e7 a2 90 b0 d7 2d 90 ad 0f ae 76 ae ea b1
       -0.16 -0.01348 -0.1426 0.09125 -0.0869 -0.09467 -0.10095 -0.1848
0001c0 2c 2c a3 9b 8c ad f5 28 20 19 97 a9 b3 ad 19 a3
       0.0652 -0.003729 -0.0867 0.03873 0.002502 -0.04367 -0.08905 -0.01386
0001d0 a9 22 aa 1c c1 aa e1 b4 e9 a7 8a a2 89 af 25 2f
       0.01301 0.004555 -0.05276 -0.305 -0.0309 -0.01277 -0.11774 0.11163
0001e0 ed a4 9e a4 2f ad 18 aa f5 a5 31 28 af a4 72 ac
       -0.01924 -0.01804 -0.081 -0.0476 -0.02327 0.03275 -0.0183 -0.06946
0001f0 cc 2d fb b4 b7 ae 59 b0 68 a4 d9 ab 80 a4 b1 b1
       0.0906 -0.3113 -0.1049 -0.1359 -0.01721 -0.0613 -0.01758 -0.1779

model/time_distributed_11/dense_1/MatMul f2 [64, 1488]
000000 a2 9d ea 26 91 9d ff 26 6d 17 f7 2a c1 20 93 24
       -0.0055 0.02701 -0.005436 0.02733 0.001813 0.0544 0.009285 0.01787
000010 a2 2b 9a a8 52 29 2b 1a 13 29 fe a5 b8 a9 e5 a4
       0.05963 -0.03595 0.04156 0.003012 0.03964 -0.0234 -0.04468 -0.01912
000020 c1 a5 3b 29 1c a5 40 28 28 ac ba a4 e4 26 17 9d
       -0.02248 0.04086 -0.01996 0.0332 -0.06494 -0.01846 0.02692 -0.00497
000030 29 ac 64 a5 51 29 73 a8 9d a6 22 a8 ad 27 8c 24
       -0.065 -0.02106 0.04153 -0.03476 -0.02583 -0.0323 0.02998 0.01776
000040 2a a3 d8 27 96 ab b0 a6 a2 a7 14 ab f7 2b d2 29
       -0.01399 0.03064 -0.05927 -0.02612 -0.02982 -0.0553 0.06223 0.04547
000050 9b 2b 43 1e 49 1e 46 a7 7a a6 1c a9 01 9b ee 2a
       0.05942 0.006115 0.006138 -0.02841 -0.0253 -0.03992 -0.00342 0.05414
000060 b9 a4 12 aa e3 a7 61 29 08 26 02 2b f1 18 17 a0
       -0.01845 -0.04742 -0.0308 0.04202 0.02356 0.05475 0.002413 -0.00799
000070 ad 25 36 28 e7 2c 0f ac ae aa c8 2b eb 1f fb a6
       0.02217 0.0329 0.0766 -0.0634 -0.0522 0.0608 0.007732 -0.02727
000080 5e 2c 39 2b 78 a8 f6 2c 61 27 63 2b 32 a8 da 9f
       0.06824 0.05643 -0.0349 0.0775 0.02882 0.0577 -0.03278 -0.007668
000090 a3 9e 55 aa d6 2c 86 28 d1 2b 45 2c 6e 27 03 a8
       -0.00648 -0.04947 0.07556 0.03534 0.06107 0.0667 0.02902 -0.03134
0000a0 45 26 10 2c b8 2c 0a a8 1b a7 9f a8 1f 9d 78 25
       0.02449 0.0635 0.0737 -0.03156 -0.02776 -0.0361 -0.005 0.02136
0000b0 3a a9 7e 27 25 29 43 26 ba 9f 82 a7 bf ab 52 ab
       -0.04083 0.02927 0.0402 0.02446 -0.007545 -0.02933 -0.06052 -0.0572
0000c0 d9 2c 07 28 f4 28 70 23 55 ab 3f 2c 49 a6 e2 ab
       0.07574 0.03146 0.0387 0.01453 -0.05728 0.06635 -0.02455 -0.06158
0000d0 61 27 20 a5 f7 24 c7 1e 3e a6 32 29 fd a8 ed 23
       0.02882 -0.02002 0.0194 0.00662 -0.02438 0.0406 -0.03897 0.01548
0000e0 54 a3 39 29 10 23 cd 22 79 ab 5c 26 e4 2b 55 25
       -0.01431 0.0408 0.013794 0.01328 -0.05838 0.02484 0.06165 0.02083
0000f0 8f ab 4e a8 0c 29 be ac 1c ac 78 a7 01 99 32 aa
       -0.05905 -0.03363 0.03943 -0.0741 -0.0642 -0.02917 -0.002443 -0.0484
000100 1d 24 11 29 78 28 7c ac fd a6 fc a1 b8 2a 62 14
       0.01607 0.03958 0.0349 -0.07007 -0.0273 -0.01169 0.0525 0.00107
000110 61 aa 6d 26 6e a6 87 ab 6e 21 c5 27 7f aa b2 25
       -0.04984 0.0251 -0.02512 -0.0588 0.010605 0.03035 -0.05075 0.02225
000120 b9 ad 99 28 18 ac bf ac 50 ac 8d ab 28 2a 45 27
       -0.0894 0.03592 -0.06396 -0.07416 -0.0674 -0.059 0.0481 0.0284
000130 fe ad 64 a9 c8 2a 27 1f b5 ab 0f ac 1f 1f 3b 9f
       -0.0936 -0.0421 0.05298 0.006985 -0.0602 -0.0634 0.006954 -0.00706
000140 e2 ac ed 24 8e 29 23 aa 81 2b 5d ab de 2d fb a9
       -0.0763 0.01924 0.0434 -0.04794 0.05862 -0.05753 0.0917 -0.04672
000150 20 a6 6d 24 b6 2c 28 17 86 ab c1 2a c2 20 55 20
       -0.02393 0.01729 0.0736 0.001747 -0.05878 0.05276 0.00929 0.00846
000160 32 ad 84 aa 1e ac 88 ad bd 28 14 24 28 2a 89 1e
       -0.0812 -0.0509 -0.06433 -0.0864 0.03702 0.01593 0.0481 0.006382
000170 34 21 cb a1 28 2d 4c aa 53 1c 4b 2a 5c 1b 78 27
       0.01016 -0.011314 0.08057 -0.0492 0.004223 0.04916 0.003593 0.02917
000180 70 a0 79 05 a3 28 a7 a0 2d 07 02 ab 0d 2b 0d a1
       -0.00867 8.35e-05 0.03622 -0.00909 0.0001095 -0.05475 0.05508 -0.009865
000190 08 1e 47 a7 31 2b 89 17 01 29 95 a4 5a 27 e2 2c
       0.00589 -0.02843 0.05618 0.00184 0.0391 -0.0179 0.02872 0.0763
0001a0 fe a8 0c ac e0 21 f8 ac 1b 28 7f 25 01 29 ab a8
       -0.039 -0.06323 0.011475 -0.07764 0.03207 0.02147 0.0391 -0.03647
0001b0 84 29 75 a8 fa a6 96 28 7a 21 c4 a8 73 a3 ff 25
       0.0431 -0.03482 -0.02725 0.03583 0.0107 -0.03723 -0.01455 0.02342
0001c0 d4 9d 63 ac f6 aa 12 24 ea 9f 7c 28 18 25 6c ab
       -0.00569 -0.06854 -0.05438 0.0159 -0.00773 0.03503 0.0199 -0.05798
0001d0 75 2a 6b 2a 7d 24 70 26 0a a5 61 26 78 2a 6e 28
       0.05045 0.05014 0.01753 0.02515 -0.01968 0.02492 0.05054 0.0346
0001e0 2d a7 ff 84 9a a6 51 a3 9b 2c 52 aa 3f a8 e8 28
       -0.02803 -7.623e-05 -0.02579 -0.01429 0.07196 -0.04938 -0.03317 0.03833
0001f0 a9 a4 ad 2b ae a3 f6 a8 53 aa 05 1b 8d 29 16 2c
       -0.0182 0.05997 -0.015 -0.03876 -0.0494 0.003428 0.04337 0.06384

model/time_distributed_3/batch_normalization/FusedBatchNormV3 f2 [8]
000000 88 bd 93 bd 23 be dd bd 81 be 28 bd 0d bd 15 be
       -1.383 -1.394 -1.534 -1.466 -1.626 -1.289 -1.263 -1.5205

model/time_distributed_3/batch_normalization/FusedBatchNormV31 f2 [8]
000000 92 3a a9 3a 58 3a e3 3a e5 3a 7f 3a 54 3b c8 3a
       0.8213 0.8325 0.793 0.861 0.862 0.812 0.916 0.8477

model/time_distributed_5/dense/MatMul f2 [32, 168]
000000 ae 30 db 2b 2f 28 34 b0 6d 31 42 2a e3 30 9f 2e
       0.1462 0.06137 0.03268 -0.1313 0.1696 0.0489 0.1527 0.10345
000010 0d 2f 2d 29 e7 ac 93 32 58 30 1a 32 13 ab 1f 32
       0.11017 0.04044 -0.0766 0.2054 0.1357 0.1907 -0.05527 0.1913
000020 a5 a4 56 aa 32 ac 90 b3 66 30 d0 2e 82 2a 4b a7
       -0.01814 -0.0495 -0.06555 -0.2363 0.1375 0.10645 0.05084 -0.02849
000030 2d 28 cb a5 51 af 1e aa 08 30 04 33 73 aa 95 21
       0.03262 -0.02263 -0.1143 -0.0478 0.126 0.2192 -0.05038 0.0109
000040 9c a9 fa 35 5d a6 63 25 47 25 0d 2b 38 ae fb 2b
       -0.04382 0.3735 -0.02486 0.02104 0.02061 0.05508 -0.09717 0.06235
000050 6c 2f 5a b1 0f 2a 50 2f f6 30 1a 2f 47 30 ad 2a
       0.11597 -0.1672 0.04733 0.11426 0.155 0.11096 0.1337 0.05215
000060 3a 2d a0 2e 11 ac ca 25 5f a8 3a b3 b2 20 a0 2b
       0.08167 0.1035 -0.06354 0.02261 -0.03415 -0.2258 0.00917 0.05957
000070 82 2d 67 2c 0a b2 4d ab 39 33 a1 af 91 a8 3d 2d
       0.08606 0.0688 -0.1887 -0.05704 0.2257 -0.1192 -0.03568 0.08185
000080 10 30 66 ae 2b 24 a3 2c 04 b3 23 31 a3 30 40 2b
       0.127 -0.1 0.01628 0.07245 -0.2192 0.1605 0.1449 0.05664
000090 67 a7 24 ae 40 2c 21 26 8e 2d b6 a1 1e ae a9 b4
       -0.02892 -0.09595 0.0664 0.02394 0.0868 -0.011154 -0.0956 -0.2913
0000a0 38 31 94 24 65 ab 27 28 a4 24 5b b3 8b 2a 79 99
       0.1631 0.01788 -0.05777 0.03244 0.01813 -0.2299 0.05112 -0.002672
0000b0 75 b0 e8 2c 57 b1 14 a4 4a ae 8a 2e 2f b4 95 b0
       -0.1393 0.07666 -0.1669 -0.01593 -0.09827 0.1022 -0.2615 -0.1432
0000c0 e4 30 db 31 d8 a9 4f 30 28 29 03 ab 71 31 e9 26
       0.1528 0.183 -0.04565 0.1346 0.04028 -0.05478 0.17 0.027
0000d0 6c 2b b6 b0 58 ad 5a 31 03 2f 86 af bf af 3c 31
       0.05798 -0.1472 -0.0835 0.1672 0.10956 -0.11755 -0.12103 0.1636
0000e0 75 b1 38 2e eb 2c fe a8 c8 30 d0 b1 53 a9 33 a5
       -0.1705 0.09717 0.07684 -0.039 0.1494 -0.1816 -0.0416 -0.02031
0000f0 07 2c fd af 76 af 95 b2 ba 22 fa b0 93 a5 0b b1
       0.0629 -0.1248 -0.1166 -0.2057 0.01314 -0.1555 -0.02177 -0.1576
000100 f7 ad 65 2d 28 30 a9 b4 73 ac fd b2 8e 29 21 b0
       -0.0932 0.0843 0.1299 -0.2913 -0.0695 -0.2184 0.0434 -0.129
000110 0e 2c 8b a7 46 b0 c9 2d 71 29 46 2d 9e ae b0 b1
       0.06335 -0.02946 -0.1335 0.0904 0.0425 0.0824 -0.1034 -0.1777
000120 29 ad 1e b3 1c b2 fe ad ab b4 af 13 bf b2 12 b3
       -0.0806 -0.2224 -0.1909 -0.0936 -0.2917 0.000938 -0.2108 -0.221
000130 5d 28 a2 a4 1d a6 12 28 b5 ac d2 27 12 b0 6f a0
       0.0341 -0.0181 -0.02388 0.0318 -0.07355 0.03055 -0.1272 -0.00866
000140 06 aa 91 26 33 ac c8 2a 30 ad 99 30 78 2f 5c 20
       -0.04706 0.02565 -0.0656 0.05298 -0.08105 0.1437 0.1167 0.008514
000150 00 b6 1a ae 9d 32 27 b5 80 2b ec 2f 62 a0 a3 1f
       -0.375 -0.09534 0.2067 -0.322 0.0586 0.1238 -0.00856 0.007458
000160 4b b3 68 b1 67 19 89 2a 72 a9 2e b1 56 2c 48 ad
       -0.2279 -0.169 0.002638 0.05106 -0.04254 -0.1619 0.06775 -0.0825
000170 22 2e 34 30 5e 25 e1 b0 ab b3 c4 2d 35 a9 bc a0
       0.0958 0.1313 0.02097 -0.1525 -0.2396 0.0901 -0.04068 -0.00925
000180 c0 31 5c 1d e8 16 87 18 f6 ac 5a 31 a0 ac 77 31
       0.1797 0.005234 0.001686 0.00221 -0.0775 0.1672 -0.07227 0.1708
000190 e0 2c f9 30 b9 25 cd 31 da 2e 1a 26 2e 32 d1 2f
       0.0762 0.1554 0.02235 0.1813 0.10706 0.02383 0.1931 0.12213
0001a0 9a 30 95 28 b1 a3 25 ad 0a 22 4f 31 75 31 e4 2e
       0.1438 0.0358 -0.01502 -0.0804 0.011795 0.1659 0.1705 0.10767
0001b0 16 b0 9c ad cf ae 51 ad 8e 2e ad 98 68 30 85 b2
       -0.1277 -0.08765 -0.1064 -0.08307 0.1024 -0.002283 0.1377 -0.2037
0001c0 ee b2 8e 2b 86 9b 4d ac ea 28 56 34 ab 34 b6 9d
       -0.2166 0.05902 -0.003674 -0.0672 0.0384 0.271 0.2917 -0.005577
0001d0 e9 31 09 2f 0a 2a 6c 31 de ab 45 ac 94 a4 1e a4
       0.1847 0.1099 0.04718 0.1694 -0.06146 -0.0667 -0.01788 -0.01608
0001e0 f5 ac de 2a b3 99 07 b0 32 2b ae b3 52 2a ee 28
       -0.07745 0.05365 -0.002783 -0.1259 0.0562 -0.24 0.04938 0.0385
0001f0 5e 28 c8 2d 35 a0 90 a8 58 30 11 a7 c2 ac a3 aa
       0.03412 0.09033 -0.00822 -0.03564 0.1357 -0.0276 -0.07434 -0.05185

model/time_distributed_9/batch_normalization_1/FusedBatchNormV3 f2 [16]
000000 84 b8 f9 b8 f7 b7 15 b5 ee b6 06 b9 04 b7 f4 b7
       -0.5645 -0.6216 -0.4978 -0.3176 -0.433 -0.628 -0.4385 -0.497
000010 cd b7 a6 b5 93 b7 52 b7 9d b8 bc b6 28 b8 59 b7
       -0.4875 -0.353 -0.4734 -0.4575 -0.5767 -0.421 -0.5195 -0.4592

model/time_distributed_9/batch_normalization_1/FusedBatchNormV31 f2 [16]
000000 29 3f e7 3e e0 3e 7d 3e a3 3e 18 3f d9 3e 2f 3e
       1.79 1.726 1.719 1.622 1.659 1.773 1.712 1.546
000010 51 3f 78 3e f4 3e f4 3d d9 3e 82 3e b4 3e 57 3e
       1.829 1.617 1.738 1.488 1.712 1.627 1.676 1.585

model/lstm/while/lstm_cell_2/MatMul_4 f2 [32, 32]
000000 41 b1 0a 28 a0 b0 ea 2a 1a 2d 4d ac 5a 2a 8f 2d
       -0.1642 0.03156 -0.1445 0.05402 0.0797 -0.0672 0.04962 0.08685
000010 35 2c 50 b0 83 a6 d7 a9 85 a2 2f 30 de a6 a2 24
       0.06573 -0.1348 -0.02544 -0.04562 -0.01273 0.1307 -0.02682 0.0181
000020 a2 2a 0e 21 43 27 26 b0 21 ab 1a af 4e 30 1f 31
       0.05182 0.00987 0.02837 -0.1296 -0.0557 -0.11096 0.1345 0.16
000030 5c b0 2e ac a2 ad 0a ac e1 2c 59 9e f7 ae eb 25
       -0.1362 -0.0653 -0.088 -0.0631 0.07623 -0.0062 -0.1088 0.02312
000040 74 b4 9d ac bc 1b 7a 9d 62 24 73 ae 27 29 96 af
       -0.2783 -0.0721 0.003777 -0.00535 0.01712 -0.10077 0.04025 -0.1185
000050 ab 31 6f ae 5f b5 73 ad 01 9b 2c 1b 62 32 18 b0
       0.1771 -0.1005 -0.3357 -0.08514 -0.00342 0.003502 0.1995 -0.1279
000060 dd a1 85 a7 56 2c e6 21 4e ac 5e 2d 45 af f3 1e
       -0.01145 -0.02937 0.06775 0.01152 -0.06726 0.08386 -0.1136 0.006786
000070 6b b1 90 30 c6 28 98 a1 08 28 b8 af e4 2e 2e 2a
       -0.1693 0.1426 0.0373 -0.010925 0.0315 -0.1206 0.10767 0.04828
000080 da 30 12 ac 0f 2c d9 a7 b5 1f d0 b1 18 b0 2b a7
       0.1516 -0.0636 0.0634 -0.03065 0.007526 -0.1816 -0.1279 -0.028
000090 bd 2c 61 25 05 ac 73 22 4a 30 ca 31 be af 54 24
       0.07404 0.02101 -0.0628 0.012596 0.134 0.1809 -0.121 0.0169
0000a0 02 af bb a8 54 b0 29 b0 28 2d 9d b3 72 9e 1b 2e
       -0.1095 -0.03696 -0.1353 -0.13 0.08057 -0.2379 -0.006294 0.0954
0000b0 8c 23 ac 28 16 28 e8 31 4c b1 44 af b6 2c 66 ab
       0.01474 0.0365 0.03192 0.1846 -0.1655 -0.1135 0.0736 -0.0578
0000c0 ab a7 6c 28 7f b0 af 2e 07 ae ca 1d 01 a9 39 a7
       -0.02995 0.03455 -0.1405 0.10443 -0.0942 0.005653 -0.0391 -0.02821
0000d0 fc 2e 53 2a 28 33 09 ae e5 23 bf a9 c6 2e 88 2c
       0.10913 0.0494 0.2236 -0.0943 0.01542 -0.0449 0.10583 0.0708
0000e0 cd ae b9 2a 0c ac 1f ad 48 31 67 30 a6 1e ff b0
       -0.10626 0.05252 -0.06323 -0.08 0.165 0.1376 0.006493 -0.1561
0000f0 bb 32 38 ae 25 2c 4c 2b 6d 1e 07 b2 91 2b e9 b1
       0.2103 -0.09717 0.06476 0.057 0.006275 -0.1884 0.0591 -0.1847
000100 30 2b 80 b1 9d 2a bb a9 f7 30 97 2c f6 2d 97 a6
       0.05615 -0.1719 0.05167 -0.04477 0.1552 0.0717 0.09314 -0.02574
000110 7f aa b4 26 6f ad 03 ac de ac 4d 2d f4 1e c9 b0
       -0.05075 0.02618 -0.0849 -0.0627 -0.07605 0.0828 0.00679 -0.1495
000120 de a8 ee a4 b4 2d 10 aa 79 29 a8 b0 c5 2c 19 26
       -0.03802 -0.01926 0.0891 -0.04736 0.04276 -0.1455 0.0745 0.02382
000130 3d a8 11 25 96 af ad a4 62 a5 43 2c bb 2c f6 1d
       -0.0331 0.01979 -0.1185 -0.01826 -0.02103 0.0666 0.0739 0.00582
000140 13 2f b4 ac f7 9d 33 a7 b3 b0 6b 27 aa ab e9 28
       0.11053 -0.0735 -0.005825 -0.02812 -0.1469 0.02898 -0.05988 0.03836
000150 a9 24 9a 95 41 b4 58 a5 6c b0 30 30 79 2d 5c 24
       0.0182 -0.001368 -0.2659 -0.02087 -0.1382 0.1309 0.0855 0.01703
000160 40 ad e7 2b ad 2c 71 31 6c 2e bf 2d b6 2c 0b 16
       -0.08203 0.06174 0.07306 0.17 0.10034 0.0898 0.0736 0.001475
000170 b3 1d 25 2d 66 a2 7f 2e b6 2c d6 a5 a4 2e 48 a6
       0.005566 0.0804 -0.0125 0.1015 0.0736 -0.0228 0.10376 -0.02454
000180 bd 30 63 2d d8 27 f1 2e b4 b0 13 a9 ce ad 34 aa
       0.1481 0.08417 0.03064 0.10846 -0.147 -0.03964 -0.0907 -0.04846
000190 f5 ae 4c 8e 96 24 e9 b0 ab ad 43 26 b7 ae 45 99
       -0.1087 -0.0003843 0.01791 -0.1534 -0.08856 0.02446 -0.1049 -0.002573
0001a0 ce 2f 62 28 a6 27 f9 18 61 b1 b7 2e 44 ae 3b 26
       0.12195 0.03424 0.02988 0.002428 -0.1681 0.1049 -0.0979 0.02434
0001b0 94 30 a4 2e b3 31 51 26 9c 24 0a b1 f8 b0 87 28
       0.1431 0.10376 0.1781 0.02467 0.018 -0.1575 -0.1553 0.03537
0001c0 4b 31 0b 2d a5 ad 79 24 9c 28 1c 30 a3 a2 5f a6
       0.1654 0.0788 -0.0882 0.01747 0.036 0.1284 -0.01296 -0.02489
0001d0 78 30 30 28 b3 2a 86 29 08 b2 ed 28 e3 ae 60 a6
       0.1396 0.0327 0.05234 0.04315 -0.1885 0.03848 -0.1076 -0.0249
0001e0 2f 2c b5 a4 a5 a1 48 28 40 30 59 32 ee b0 7c ab
       0.06537 -0.01839 -0.011024 0.03345 0.1328 0.1984 -0.154 -0.05847
0001f0 f2 9c 9a 30 83 ac 6d a7 b7 b1 90 2c d7 a9 7a 30
       -0.00483 0.1438 -0.0705 -0.029 -0.1786 0.0713 -0.04562 0.1399

model/lstm/while/lstm_cell_2/MatMul_5 f2 [32, 32]
000000 f0 2d 7a ae b0 26 8f 2d 11 af 4f 25 76 23 5f a1
       0.0928 -0.1012 0.02612 0.08685 -0.1104 0.02074 0.01457 -0.01049
000010 8f ae ab ad 15 b3 66 32 e2 b0 42 2e ca 29 05 b0
       -0.1025 -0.08856 -0.2213 0.2 -0.1526 0.0978 0.04523 -0.1256
000020 c4 ab 66 30 82 28 2d 31 60 ac f8 20 36 a4 db ab
       -0.06067 0.1375 0.03522 0.1617 -0.06836 0.009705 -0.01645 -0.06137
000030 a5 aa cf 99 f7 30 f2 26 80 a9 ae ad 5b af 34 2b
       -0.0519 -0.002836 0.1552 0.02713 -0.04297 -0.08875 -0.1149 0.05627
000040 6a 2c 2e 32 c2 b0 7a a9 d6 ae 8a 2d 75 a4 00 a9
       0.069 0.1931 -0.1487 -0.0428 -0.1068 0.08655 -0.01741 -0.03906
000050 0d ae 91 2e 52 a9 60 30 3e ac b0 1a 8b 28 69 2d
       -0.09454 0.1026 -0.04156 0.1367 -0.0663 0.003265 0.0355 0.08453
000060 38 b0 7b 28 0b a9 f2 a5 a6 ab cc 21 83 2c 48 b0
       -0.1318 0.035 -0.0394 -0.02322 -0.05975 0.01132 0.0705 -0.1338
000070 fc a5 b1 2a b8 b4 fc 2f f6 b0 b2 24 d0 ac 87 a9
       -0.02338 0.05228 -0.295 0.12476 -0.155 0.01834 -0.0752 -0.04318
000080 d6 2b 2d 2f 1c a6 84 2b f9 a9 bf 28 5f af 7e 27
       0.06122 0.1121 -0.02386 0.05872 -0.04666 0.03708 -0.1152 0.02927
000090 4b 2f 7f aa 02 1f b5 2c db 2b 36 2f 17 ac 80 af
       0.11395 -0.05075 0.006844 0.07355 0.06137 0.1127 -0.0639 -0.1172
0000a0 be a2 b3 aa 09 ae 70 b0 e1 a7 21 2f 5c a8 3b ad
       -0.01317 -0.05234 -0.0943 -0.1387 -0.03078 0.1114 -0.03406 -0.0817
0000b0 ff a9 98 31 0a af 24 b1 e9 a6 2c 34 a9 ab b2 ad
       -0.04684 0.1748 -0.11 -0.1606 -0.027 0.2607 -0.05984 -0.089
0000c0 21 af b3 9d 51 25 98 25 52 34 20 27 5a 32 0a 20
       -0.1114 -0.005566 0.02077 0.02185 0.27 0.02783 0.1985 0.00789
0000d0 86 31 1c 30 f8 b4 fc 27 98 af c3 28 07 af d0 27
       0.1726 0.1284 -0.3105 0.03119 -0.11865 0.0372 -0.1098 0.03052
0000e0 5f 2a 2c 2a fd b1 1e 30 e5 b2 4c 2f 07 30 ea 2d
       0.04977 0.04822 -0.1871 0.1287 -0.2155 0.114 0.1259 0.0924
0000f0 b0 a7 75 30 36 30 a1 ab 78 ac e1 ad b7 30 a6 30
       -0.03003 0.1393 0.1316 -0.0596 -0.0698 -0.09186 0.1473 0.1453
000100 45 b2 da ad 94 2e 3d b1 45 2c 58 ae 1d a8 07 a4
       -0.1959 -0.09143 0.1028 -0.1637 0.0667 -0.0991 -0.03214 -0.01573
000110 29 b3 23 aa 98 b0 d6 2f ad b1 a3 26 2e 2c 42 24
       -0.2238 -0.04794 -0.1436 0.12244 -0.1774 0.02592 0.0653 0.01663
000120 93 ad ab 26 89 aa a8 2d 7c af 6e 24 a9 2a 5b 2a
       -0.0871 0.02605 -0.05106 0.0884 -0.11694 0.0173 0.05203 0.04965
000130 80 34 ab ae 26 9f b4 ac ac b0 73 a3 3a b0 fe ae
       0.2812 -0.1042 -0.00698 -0.0735 -0.146 -0.01455 -0.1321 -0.10925
000140 ad 2b 18 2c da 2e b3 b0 2f af 7f 24 2b 2f e9 ab
       0.05997 0.06396 0.10706 -0.1469 -0.11224 0.01756 0.112 -0.0618
000150 94 2e 4a ad e6 ab 94 30 ee b1 c7 2d 30 a7 dd b1
       0.1028 -0.08264 -0.0617 0.1431 -0.1853 0.0903 -0.02808 -0.1832
000160 11 2b 0d a8 f2 30 89 ad b5 29 d6 2a 0c 31 12 a9
       0.0552 -0.03165 0.1545 -0.0865 0.0446 0.0534 0.1577 -0.0396
000170 2a ac 38 32 88 a8 9b 2a 05 af 80 b1 71 33 27 b0
       -0.06506 0.1943 -0.0354 0.0516 -0.1097 -0.1719 0.2325 -0.1298
000180 6c 28 d3 1e 22 26 9c a0 a3 2e 12 ab 1c a9 41 a9
       0.03455 0.006664 0.02396 -0.009 0.1037 -0.05524 -0.03992 -0.04105
000190 51 b0 d6 2d 50 b0 89 ad 77 a9 f0 22 27 b0 ec ae
       -0.1349 0.0912 -0.1348 -0.0865 -0.0427 0.01355 -0.1298 -0.10815
0001a0 36 a7 3d 2a b2 a5 9c a0 9c b0 9a 2e c9 ac 67 a7
       -0.02817 0.04874 -0.02225 -0.009 -0.144 0.10315 -0.07477 -0.02892
0001b0 1f 2d 6b 16 00 2c 28 ae 10 86 3e 2c 18 b1 13 2b
       0.08 0.001567 0.0625 -0.0962 -9.25e-05 0.0663 -0.1592 0.05527
0001c0 ba 2d de ad 48 29 56 28 b5 b1 94 2d 53 2f c1 28
       0.0895 -0.0917 0.04126 0.03387 -0.1783 0.08716 0.11444 0.03714
0001d0 9d 2c 30 a7 b4 b2 6c 29 f7 b0 d0 29 86 ab dd a3
       0.0721 -0.02808 -0.2095 0.04236 -0.1552 0.0454 -0.05878 -0.01536
0001e0 38 b3 37 ad 33 ad ad b0 17 af 32 20 5f 29 bb ae
       -0.2256 -0.0815 -0.08124 -0.1461 -0.1108 0.008194 0.04196 -0.10516
0001f0 b2 2e b3 30 24 31 0f ae 9d b1 01 35 7d a4 fd 29
       0.1046 0.1469 0.1606 -0.09467 -0.1754 0.3127 -0.01753 0.04678

model/lstm/while/lstm_cell_2/MatMul_6 f2 [32, 32]
000000 87 0b f3 2c e0 af 7e 32 80 b1 2e b0 88 af 37 b1
       0.0002297 0.07733 -0.12305 0.2029 -0.1719 -0.1306 -0.1177 -0.163
000010 93 b3 15 2e dc 34 04 30 59 24 c0 2d 2e ae e8 23
       -0.2367 0.09503 0.3037 0.1255 0.01698 0.08984 -0.09656 0.01544
000020 3b 35 e6 32 dd 34 50 b1 19 2b 1e b1 ef a5 1e 2c
       0.327 0.2156 0.304 -0.166 0.05545 -0.1599 -0.02318 0.06433
000030 08 b0 de 2c c7 b1 80 af 4c b0 51 ab 49 ad da 2f
       -0.126 0.07605 -0.1805 -0.1172 -0.1343 -0.05716 -0.0826 0.1227
000040 77 2d e1 ac a9 a1 17 b0 c4 2a 13 aa 14 b2 fa 30
       0.0854 -0.07623 -0.011055 -0.1278 0.05286 -0.04745 -0.19 0.1555
000050 e1 b2 c9 2b a0 2e 5a b1 40 ac a7 95 23 2a 05 ae
       -0.215 0.06082 0.1035 -0.1672 -0.0664 -0.00138 0.04794 -0.09406
000060 03 ae f1 34 d6 a9 fe ac 2f ad 44 b3 49 a6 35 26
       -0.09393 0.3088 -0.0456 -0.078 -0.081 -0.227 -0.02455 0.02425
000070 a8 b1 e3 a8 32 b3 df b3 b1 28 da aa 8d 2c 1b 31
       -0.1768 -0.03818 -0.2249 -0.246 0.03665 -0.05353 0.0711 0.1595
000080 a2 a2 75 a7 a6 2c d4 af bb 25 72 b1 0c a5 c9 2c
       -0.012955 -0.02913 0.07263 -0.1223 0.02238 -0.1702 -0.01971 0.07477
000090 52 ae 2e a4 db ae e4 ac d7 a6 3d 30 27 ac ac 2c
       -0.09875 -0.01633 -0.1071 -0.0764 -0.02672 0.1324 -0.0649 0.073
0000a0 66 2b 45 b3 9a 30 e1 a5 e6 a3 1b 2b 0c 2f ae b0
       0.0578 -0.2272 0.1438 -0.02296 -0.01543 0.0555 0.1101 -0.1462
0000b0 15 2f e8 a4 80 2c 4f 28 be a2 a8 a8 b7 ae 59 30
       0.11066 -0.01917 0.0703 0.03366 -0.01317 -0.03638 -0.1049 0.1359
0000c0 b2 9e 36 b0 af a7 83 a8 00 aa b0 21 bd 2e 24 2c
       -0.00654 -0.1316 -0.03001 -0.03525 -0.04688 0.01111 0.1053 0.0647
0000d0 a2 ab 96 a9 9f b3 3d 30 7a ad e0 30 23 aa a6 b1
       -0.05963 -0.04364 -0.2382 0.1324 -0.0856 0.1523 -0.04794 -0.1765
0000e0 3e 34 f0 aa a5 33 37 b4 6c 32 6f 1c 49 29 63 b0
       0.2651 -0.0542 0.2389 -0.2634 0.2007 0.00433 0.0413 -0.1371
0000f0 22 ac 69 2d d5 24 4a 25 d0 9a 1d b0 c1 ad cb a4
       -0.0646 0.08453 0.01888 0.02066 -0.003326 -0.1285 -0.0899 -0.01872
000100 89 ad 15 ac e3 2c fe ae e5 a5 56 a9 cc ac 54 32
       -0.0865 -0.0638 0.07635 -0.10925 -0.02303 -0.0417 -0.07495 0.1978
000110 79 29 3b 30 71 b4 b6 ad d9 a8 29 9e 86 30 a5 a7
       0.04276 0.1322 -0.2776 -0.08923 -0.03787 -0.006016 0.1414 -0.02986
000120 3f b1 ee 23 5e b3 30 34 c1 b0 ea 33 13 2f a2 a8
       -0.164 0.01549 -0.2302 0.2617 -0.1486 0.2473 0.11053 -0.0362
000130 32 14 1a b0 65 37 07 ab af a0 45 ac 04 33 07 30
       0.001024 -0.1282 0.4622 -0.0549 -0.00915 -0.0667 0.2192 0.1259
000140 ef ae 38 29 a5 2d 30 a5 24 2a e5 26 2b 2d 5c 2b
       -0.10834 0.04077 0.0882 -0.02026 0.04797 0.02693 0.08075 0.0575
000150 75 20 b9 ae 15 a9 e1 29 d3 2c 15 a6 25 a4 0f 2f
       0.008705 -0.10504 -0.0397 0.04593 0.0754 -0.02376 -0.01619 0.1103
000160 9f 32 7d b4 2c a2 6c 2b 70 ae 1e 25 e9 b1 a6 a9
       0.2069 -0.2805 -0.012054 0.05798 -0.1006 0.01999 -0.1847 -0.04413
000170 a2 31 e8 2c 0e 34 cd b0 43 2b e0 a9 11 2e 50 b1
       0.176 0.07666 0.2534 -0.15 0.05673 -0.0459 0.0948 -0.166
000180 dd ad cd ad 00 2f b5 ae 34 93 a9 b0 06 2d 96 29
       -0.0916 -0.09064 0.1094 -0.1048 -0.0008793 -0.1456 0.0785 0.04364
000190 07 11 3a 30 a0 a5 78 a6 59 b0 2f ac 8e 28 b8 ac
       0.0006137 0.1321 -0.02197 -0.02527 -0.1359 -0.06537 0.03558 -0.0737
0001a0 13 af 6b ae 65 af 97 a6 db 25 4b 30 1d 31 ad 2f
       -0.11053 -0.1003 -0.11554 -0.02574 0.02287 0.1342 0.1598 0.11993
0001b0 7c 29 57 31 c2 28 21 a9 10 2c 43 9f 86 28 f9 ae
       0.04285 0.1669 0.03717 -0.04007 0.0635 -0.00709 0.03534 -0.10895
0001c0 26 27 04 b3 2d 2d 63 2f 24 2c db a4 40 1e 13 2b
       0.02792 -0.2192 0.0809 0.1154 0.0647 -0.01897 0.006104 0.05527
0001d0 38 a5 f4 ac 3b a8 a1 ac 53 b3 10 1f c9 a7 93 30
       -0.02039 -0.0774 -0.03305 -0.0723 -0.2289 0.006897 -0.03041 0.143
0001e0 b0 b0 26 b6 ee ad e7 34 d4 2c ff a4 5e 29 c8 9b
       -0.1465 -0.3843 -0.09265 0.3064 0.07544 -0.01952 0.04193 -0.0038
0001f0 8e aa 71 9a c6 34 65 26 54 b0 a9 a6 ee 2a c7 aa
       -0.0512 -0.003145 0.2983 0.02498 -0.1353 -0.02602 0.05414 -0.05295

model/lstm/while/lstm_cell_2/MatMul_7 f2 [32, 32]
000000 1e 99 59 b0 7e 31 43 ac e3 30 6b 20 30 25 2e 32
       -0.002499 -0.1359 0.1716 -0.0666 0.1527 0.00863 0.02026 0.1931
000010 6b b1 a4 ac 3f 2d 4b 29 15 af ba ad 06 b2 51 2d
       -0.1693 -0.0725 0.082 0.04135 -0.11066 -0.0895 -0.1882 0.08307
000020 86 19 3a b6 45 af 8b a8 f3 2c 9f 31 c8 a8 bf 2a
       0.002697 -0.3892 -0.1136 -0.0355 0.07733 0.1757 -0.03735 0.0527
000030 d5 25 a3 30 32 2c 91 30 3a a4 1a 2e 88 2c fd ab
       0.02278 0.1449 0.06555 0.1427 -0.01651 0.09534 0.0708 -0.0624
000040 ad af d7 18 04 a3 e1 21 24 32 29 2f 08 24 2d ac
       -0.11993 0.002363 -0.0137 0.01148 0.1919 0.1119 0.01575 -0.06525
000050 10 2a 62 2e 43 28 4b 1a bd b0 6e 2d 30 2b 60 29
       0.04736 0.09973 0.0333 0.003073 -0.1481 0.08484 0.05615 0.042
000060 34 28 06 31 01 b2 9a 2b de b1 f4 30 5a 23 a1 b0
       0.03284 0.157 -0.1876 0.0594 -0.1833 0.1548 0.01436 -0.1447
000070 6e ae aa a8 a7 2d a0 b3 7a b0 a9 33 65 2d 3f 32
       -0.10046 -0.03644 0.0883 -0.2383 -0.1399 0.2394 0.0843 0.1952
000080 75 b4 a7 b3 83 2a 90 2b cb 33 2c 98 cb 2a c8 2f
       -0.2786 -0.2391 0.05087 0.05908 0.2435 -0.002037 0.05307 0.1216
000090 e2 a6 e7 2c 57 b8 4b b0 5d b1 ae 26 9b aa 6a 2a
       -0.02689 0.0766 -0.5425 -0.1342 -0.1676 0.0261 -0.0516 0.0501
0000a0 e9 af d3 b1 39 b2 47 b2 74 b0 a3 28 f1 2f 6c 2b
       -0.1236 -0.182 -0.1945 -0.1962 -0.1392 0.03622 0.1241 0.05798
0000b0 88 2e 0e ae 88 af 4b 30 c7 2f f4 a1 00 ad 7a 26
       0.10205 -0.0946 -0.1177 0.1342 0.1215 -0.01163 -0.0781 0.0253
0000c0 b1 af 40 b5 1f 2c d4 b3 f4 2b fa aa 96 30 27 2a
       -0.1202 -0.3281 0.0644 -0.2446 0.06213 -0.0545 0.1433 0.04807
0000d0 da 2d 54 2b 79 b2 af ae c5 ae 13 21 8b ad 64 aa
       0.09143 0.05725 -0.2023 -0.10443 -0.1058 0.00991 -0.0866 -0.04993
0000e0 b2 31 1c ad f8 ae e0 ad d3 9b cd 34 24 2a b5 a4
       0.178 -0.07983 -0.1089 -0.0918 -0.00382 0.3 0.04797 -0.01839
0000f0 d0 2e 4e 28 c1 2d cd aa 10 a6 b5 2d db ac d0 b4
       0.10645 0.03363 0.0899 -0.05313 -0.02368 0.0892 -0.07587 -0.3008
000100 cb ac c3 2a 7d a4 6f b2 2f 26 17 ae 8e b2 11 23
       -0.0749 0.05283 -0.01753 -0.201 0.02415 -0.09515 -0.2048 0.0138
000110 54 30 5b a4 28 2b 50 2c 46 a8 d0 b2 9d 2d 29 32
       0.1353 -0.01701 0.0559 0.0674 -0.0334 -0.2129 0.0877 0.1925
000120 13 b4 df 31 94 b3 52 34 67 24 14 33 4b a6 7c af
       -0.2546 0.1835 -0.2368 0.27 0.0172 0.2212 -0.02458 -0.11694
000130 77 a1 3f 2f 8c 28 d9 2d e3 a2 c6 ae fe 2e ea a8
       -0.01067 0.1132 0.03552 0.0914 -0.01345 -0.10583 0.10925 -0.0384
000140 37 29 83 b3 22 ad 49 2b da 28 e8 31 79 28 e9 2c
       0.04074 -0.2347 -0.0802 0.05692 0.0379 0.1846 0.03494 0.0767
000150 7b aa 87 b0 ef b4 91 29 5d 33 e1 2e b2 b1 20 af
       -0.05063 -0.1415 -0.3083 0.0435 0.2301 0.1075 -0.178 -0.1113
000160 7a a9 97 af 9f 2c 1c 34 5a 26 3c 2d f9 a8 fb 21
       -0.0428 -0.1186 0.0722 0.2568 0.02481 0.0818 -0.03885 0.01168
000170 71 28 08 23 88 b0 e8 ad fb 24 d0 33 09 34 28 b0
       0.0347 0.01373 -0.1416 -0.0923 0.01945 0.2441 0.2522 -0.1299
000180 52 a5 d5 af 7d 97 75 b0 2f 30 f3 2d f0 a2 08 30
       -0.02078 -0.1224 -0.001828 -0.1393 0.1307 0.09296 -0.01355 0.126
000190 0b 28 73 2f ce b2 0d 28 1b a8 f3 1b 27 ac 58 30
       0.0316 0.1164 -0.2126 0.03165 -0.03207 0.003881 -0.0649 0.1357
0001a0 6a a9 24 ac 62 25 13 34 7b 2d 99 30 ca b0 07 30
       -0.0423 -0.0647 0.02103 0.2546 0.08563 0.1437 -0.1497 0.1259
0001b0 e2 30 bc af 4f 30 b0 b0 72 30 fd 24 71 34 2c 27
       0.1526 -0.12085 0.1346 -0.1465 0.1389 0.01949 0.2776 0.02802
0001c0 c4 24 db 26 31 ad 01 2b 55 25 e6 99 f8 21 da 2b
       0.01862 0.02678 -0.0811 0.05472 0.02083 -0.00288 0.01166 0.06134
0001d0 27 b2 84 2e a0 b0 40 2d ec ae a7 2d 74 a4 e3 a6
       -0.1923 0.1018 -0.1445 0.08203 -0.10815 0.0883 -0.0174 -0.0269
0001e0 da 2c 6b 2f c9 2d 47 2c c8 ac 56 b1 07 a1 e7 aa
       0.0758 0.1159 0.0904 0.06683 -0.0747 -0.1667 -0.00982 -0.05392
0001f0 13 2c 68 32 87 ad 4e b1 02 30 64 34 ca aa 4c ae
       0.06366 0.2002 -0.08636 -0.1658 0.1252 0.2744 -0.05304 -0.0984

model/lstm/while/lstm_cell_2/split_1 f2 [32]
000000 de 1e 87 ac 06 92 80 25 ef 2e 52 25 01 20 c9 26
       0.006706 -0.07074 -0.0007353 0.02148 0.10834 0.02078 0.00782 0.0265
000010 8e a1 6c 25 0a ac 14 a5 07 29 c9 aa 44 1c 82 28
       -0.01085 0.02118 -0.0631 -0.01984 0.03928 -0.053 0.004166 0.03522
000020 0e 2b 77 21 23 a6 8a a6 57 21 d1 a9 a2 28 be 9f
       0.0551 0.01067 -0.02397 -0.02554 0.01043 -0.04544 0.0362 -0.00756
000030 88 26 01 a5 7a 9e b2 2a 43 a9 3d a8 72 21 c5 a9
       0.02551 -0.01955 -0.006325 0.0523 -0.0411 -0.0331 0.010635 -0.04507

model/lstm/while/lstm_cell_2/split_11 f2 [32]
000000 26 3c 0c 3c 0f 3c 40 3c 37 3c 35 3c 27 3c 4a 3c
       1.037 1.012 1.015 1.0625 1.054 1.052 1.038 1.072
000010 e2 3b 26 3c 13 3c 39 3c 03 3c 5f 3c 39 3c dd 3b
       0.9854 1.037 1.019 1.056 1.003 1.093 1.056 0.983
000020 07 3c 1e 3c d7 3b 39 3c 0b 3c 16 3c 2d 3c 1e 3c
       1.007 1.029 0.98 1.056 1.011 1.021 1.044 1.029
000030 36 3c 04 3c 24 3c 2a 3c 1a 3c 04 3c 1e 3c 07 3c
       1.053 1.004 1.035 1.041 1.025 1.004 1.029 1.007

model/lstm/while/lstm_cell_2/split_12 f2 [32]
000000 f8 0e 33 a7 5f 1d 6f 22 4c 23 2e 25 bc 24 b8 24
       0.0004253 -0.02812 0.005245 0.012566 0.01425 0.02023 0.0185 0.01843
000010 28 26 33 24 c4 a7 29 25 62 a0 2c 22 d9 a6 22 24
       0.02405 0.0164 -0.03033 0.02016 -0.00856 0.012054 -0.02675 0.01614
000020 c0 99 72 a8 10 a0 17 28 98 24 2f 24 2c 26 e4 a7
       -0.002808 -0.03473 -0.007935 0.03195 0.01794 0.01634 0.02411 -0.03082
000030 e8 24 06 9d 04 21 be 9f 2d a5 1b 26 90 21 7d 98
       0.01917 -0.004906 0.009796 -0.00756 -0.02022 0.02385 0.010864 -0.002192

model/lstm/while/lstm_cell_2/split_13 f2 [32]
000000 c5 25 20 2d 22 26 3b 2a dd 1a a8 1c 39 22 0d 2a
       0.02254 0.0801 0.02396 0.04868 0.003351 0.004547 0.01215 0.04727
000010 4f 2c 2f 27 ac 27 8e 24 2c 24 38 a4 37 15 58 27
       0.0673 0.02806 0.02997 0.01779 0.0163 -0.01648 0.001273 0.02869
000020 a8 2d 31 2a 3c 2a cc 2c a2 2c 4d 22 31 29 94 26
       0.0884 0.04837 0.0487 0.07495 0.0724 0.01231 0.04056 0.0257
000030 2a 2a 9a a0 69 21 fe 2c 43 20 12 a1 06 a2 90 29
       0.04816 -0.00899 0.01057 0.078 0.00832 -0.0099 -0.011765 0.04346
