HPC_Final_Study2_Complete_Test_Class_Balance/participants_session_transfer_train/participant_20/session_3/session_3_lite_models/indexpen_model_quant.tflite (tflite, 412752 bytes, 45 tensors)

model/time_distributed_3/conv2d_1/BiasAdd;model/time_distributed_11/conv2d_3/Conv2D;model/time_distributed_3/conv2d_1/Conv2D;model/time_distributed_3/conv2d_1/BiasAdd/ReadVariableOp/resource f2 [16]
000000 96 b2 e6 b0 ab a4 06 a9 a1 30 03 ac d2 b0 db a9
       -0.2058 -0.1531 -0.01823 -0.03925 0.1447 -0.0627 -0.1506 -0.04575
000010 22 ad 18 b0 23 99 55 a9 12 b2 cf b1 1c 2e 3e b0
       -0.0802 -0.1279 -0.002508 -0.04166 -0.1897 -0.1815 0.09546 -0.1326

model/time_distributed/conv2d/BiasAdd;model/time_distributed_8/conv2d_2/Conv2D;model/time_distributed/conv2d/Conv2D;model/time_distributed/conv2d/BiasAdd/ReadVariableOp/resource f2 [8]
000000 42 24 87 9f c2 22 d2 25 d6 2c 66 99 5c 32 6a 22
       0.01663 -0.00735 0.0132 0.02274 0.07556 -0.002636 0.1987 0.01253

model/time_distributed_11/conv2d_3/BiasAdd;model/time_distributed_11/conv2d_3/Conv2D;model/time_distributed_11/conv2d_3/BiasAdd/ReadVariableOp/resource f2 [16]
000000 6e 1d 0d 2d d3 20 da 28 0a 2c 12 a1 a7 9f 36 2a
       0.005302 0.0789 0.00942 0.0379 0.0631 -0.0099 -0.007473 0.04852
000010 c6 1e b2 27 bb 97 ed a7 57 22 7f 1e c3 15 ab ac
       0.006615 0.03006 -0.001887 -0.03096 0.01238 0.006344 0.001407 -0.07294

model/time_distributed_8/conv2d_2/BiasAdd;model/time_distributed_8/conv2d_2/Conv2D;model/time_distributed_8/conv2d_2/BiasAdd/ReadVariableOp/resource f2 [8]
000000 30 2c ba 26 a4 95 7c 1d 7a 9f c1 2e f1 24 79 87
       0.0654 0.02628 -0.001377 0.005356 -0.0073 0.1055 0.0193 -0.000114

model/time_distributed_3/conv2d_1/Conv2D f2 [16, 3, 3, 8]
000000 d1 2e 3c a8 2d 28 34 b4 05 a6 82 27 cd a6 fa a5
       0.1065 -0.03308 0.03262 -0.2627 -0.02351 0.02933 -0.02657 -0.02335
000010 fd a5 67 a8 1b a9 77 2c a4 2d ca 2b 68 32 c6 a3
       -0.02339 -0.0344 -0.0399 0.06976 0.08813 0.06085 0.2002 -0.01518
000020 bf 26 cd a7 60 a8 c2 20 71 b1 6e a9 aa a6 f5 28
       0.02635 -0.03047 -0.03418 0.00929 -0.17 -0.04242 -0.02603 0.03873
000030 a6 9d 02 ac 1e a9 33 aa ea ad 58 28 b6 31 94 22
       -0.005516 -0.0626 -0.03998 -0.04843 -0.0924 0.03394 0.1785 0.01285
000040 cc a8 fb 23 eb a0 6c 34 ca af b1 29 f5 1e 13 26
       -0.03748 0.01559 -0.009605 0.2764 -0.1217 0.04446 0.006794 0.02373
000050 e0 11 1a 28 2f 28 77 ae c1 25 6a aa 4b b3 94 28
       0.000717 0.03204 0.03268 -0.101 0.02248 -0.0501 -0.2279 0.03577
000060 7e a0 ba 2a e0 28 bb 2c 69 ac e4 a5 e6 2f 98 a5
       -0.00877 0.05255 0.0381 0.0739 -0.0689 -0.02301 0.1234 -0.02185
000070 56 a8 b7 27 10 22 e6 b0 20 af a7 a8 2e 34 0e a1
       -0.03387 0.03014 0.01184 -0.1531 -0.1113 -0.03635 0.2612 -0.00987
000080 e6 1f a2 a0 0a a5 2b ad 53 9d 23 8d 94 37 3e 9b
       0.007713 -0.00905 -0.01968 -0.08075 -0.0052 -0.0003135 0.4736 -0.003536
000090 c0 a5 11 25 ab ac 06 af 6d 2e a0 a5 3b b5 16 2b
       -0.02246 0.01979 -0.07294 -0.10974 0.1004 -0.02197 -0.327 0.05536
0000a0 45 28 b9 20 f0 1c 2a a1 27 2e a7 aa 7a a9 18 a2
       0.03336 0.009224 0.00482 -0.010086 0.0961 -0.05197 -0.0428 -0.0119
0000b0 6c a0 23 a2 5a 28 5b ac f4 b0 dd 29 1f 34 c5 aa
       -0.00864 -0.011986 0.034 -0.06805 -0.1548 0.0458 0.2576 -0.0529
0000c0 55 a5 a9 26 42 a9 5c 31 05 28 c4 98 e3 b1 e9 27
       -0.02083 0.02602 -0.04108 0.1675 0.0314 -0.002327 -0.184 0.0309
0000d0 c3 ad 12 1e 67 2a f8 a4 27 2d a3 9b 39 b5 75 17
       -0.09 0.005928 0.05002 -0.01941 0.0805 -0.003729 -0.3264 0.001821
0000e0 c6 ad e6 25 b7 26 ba af 37 29 be 2c 1f 34 20 a2
       -0.0902 0.02304 0.02623 -0.1207 0.04074 0.0741 0.2576 -0.01196
0000f0 66 a4 7d 28 78 21 5b ac 6a 30 1a 29 d9 25 77 aa
       -0.01718 0.03506 0.01068 -0.06805 0.138 0.03986 0.02284 -0.0505
000100 59 24 a3 15 5c 2a 10 b0 bb ae 12 26 28 33 86 24
       0.01698 0.001376 0.04968 -0.127 -0.10516 0.02371 0.2236 0.01767
000110 30 24 a5 a5 b4 a8 75 1b c4 b0 f0 21 26 36 23 25
       0.01636 -0.02205 -0.03674 0.003641 -0.1489 0.0116 0.3843 0.02007
000120 6b a6 3d 12 7a 22 7f ae f1 af 7e a6 4d b2 f3 29
       -0.02507 0.0007615 0.01265 -0.1015 -0.1241 -0.02536 -0.1969 0.04648
000130 10 a4 73 a8 f5 a4 9a ac d1 28 57 28 bd 30 5c 24
       -0.01587 -0.03476 -0.01936 -0.0719 0.03763 0.0339 0.1481 0.01703
000140 f0 a7 fb ad 08 20 db 2c 28 a0 1c 2c 34 b0 31 a4
       -0.031 -0.09344 0.00787 0.07587 -0.00812 0.0642 -0.1313 -0.01637
000150 55 25 72 28 15 a6 bc 32 1d b4 1e 21 02 b6 26 2a
       0.02083 0.03473 -0.02376 0.2104 -0.257 0.009995 -0.3755 0.04803
000160 2f 24 73 29 39 a4 15 ac cb a7 c1 20 35 b6 5c 18
       0.01634 0.04257 -0.0165 -0.0638 -0.03044 0.009285 -0.388 0.002129
000170 8f 24 4f a8 11 27 ff 32 76 2a 09 aa f1 b0 2f 2a
       0.0178 -0.03366 0.0276 0.2186 0.05048 -0.04715 -0.1544 0.0483
000180 38 2a 24 a0 50 ac 37 ad bb 1f dd 27 7b 2c 57 a8
       0.04858 -0.00809 -0.0674 -0.0815 0.00755 0.03072 0.07 -0.0339
000190 d6 25 6d 29 a5 a0 9f b5 a0 b2 9d 98 3b 30 29 a4
       0.0228 0.0424 -0.00907 -0.3513 -0.207 -0.002253 0.1322 -0.01625
0001a0 77 28 ad 18 6e 23 2d a2 85 b5 c0 ac 74 31 55 27
       0.03488 0.002283 0.01451 -0.01206 -0.345 -0.0742 0.1704 0.02864
0001b0 25 aa b0 2d b4 a8 c8 ad 37 29 a2 2a ea 2b 50 a7
       -0.048 0.08887 -0.03674 -0.09033 0.04074 0.05182 0.06183 -0.02856
0001c0 8f a9 af 26 af a6 06 30 b9 b0 6a a6 2b b1 32 a3
       -0.04343 0.02611 -0.02611 0.1257 -0.1476 -0.02505 -0.1615 -0.01405
0001d0 bc a9 72 aa fa 29 33 b4 db a7 bb 26 6a 2c 30 ad
       -0.0448 -0.05035 0.0467 -0.2625 -0.03069 0.02629 0.069 -0.08105
0001e0 28 27 09 23 3e 9b 9b 22 5f a7 b6 20 77 26 90 27
       0.02795 0.01374 -0.003536 0.0129 -0.0288 0.0092 0.02525 0.02954
0001f0 e3 29 ee 26 79 23 4e a9 f3 b0 99 26 48 b0 6d 1f
       0.046 0.02707 0.014595 -0.04144 -0.1547 0.02577 -0.1338 0.00725

model/time_distributed/conv2d/Conv2D f2 [8, 3, 3, 1]
000000 f6 15 c2 18 02 17 da 0e 96 93 32 1b d5 14 e8 17
       0.001455 0.002323 0.001711 0.0004182 -0.000926 0.003513 0.00118 0.00193
000010 97 99 2d 18 06 18 bd 98 58 1c 79 0a 7c 19 ba 12
       -0.00273 0.002039 0.001965 -0.002314 0.004242 0.0001975 0.002678 0.000821
000020 1d 97 79 95 76 0c 75 17 03 91 6e 90 82 18 55 9a
       -0.001737 -0.001336 0.0002723 0.001821 -0.000612 -0.0005407 0.002201 -0.003092
000030 6a 94 a5 93 10 18 54 9d 7c 1a a4 17 32 23 ae 1b
       -0.001078 -0.000933 0.001984 -0.005203 0.003166 0.001865 0.01405 0.00375
000040 ef 85 47 a2 ab 13 bd 24 28 9d 34 9c 8d 18 60 97
       -9.054e-05 -0.01226 0.000936 0.01851 -0.005035 -0.004105 0.002222 -0.001801
000050 22 1c 51 9e 48 29 0b 1e f0 9e 89 90 81 11 da 8f
       0.004036 -0.00617 0.04126 0.0059 -0.006775 -0.0005536 0.000672 -0.0004792
000060 a8 93 f6 82 90 94 68 1a e6 95 b8 97 88 a1 ad 20
       -0.0009346 -4.52e-05 -0.001114 0.003128 -0.00144 -0.001884 -0.0108 0.00913
000070 fb 19 d6 9c 34 9d 51 18 03 8b ec a7 ed 14 54 8c
       0.00292 -0.004723 -0.00508 0.002108 -0.000214 -0.03094 0.001203 -0.0002642
000080 e8 98 f8 80 6e 98 7c 10 09 92 71 9c 16 9a cc 16
       -0.002396 -1.48e-05 -0.002163 0.0005474 -0.0007367 -0.004337 -0.002972 0.001659

model/time_distributed_11/conv2d_3/Conv2D f2 [16, 3, 3, 8]
000000 2c 33 20 99 b3 06 a1 95 36 b5 57 b4 92 ae 72 ac
       0.2241 -0.002502 0.0001022 -0.001374 -0.3257 -0.2712 -0.10266 -0.06946
000010 ee 28 14 24 8d 1e 43 a7 c2 b4 29 34 c7 b0 7b ab
       0.0385 0.01593 0.006397 -0.02837 -0.2974 0.26 -0.1493 -0.05844
000020 77 ad 84 21 82 9c 07 a4 36 b5 6a 2c 33 2d c9 a6
       -0.0854 0.01077 -0.004402 -0.01573 -0.3257 0.069 0.08124 -0.0265
000030 31 b2 54 a9 3d 25 53 a6 e3 2b 64 31 54 b5 f5 a0
       -0.1935 -0.04163 0.02046 -0.0247 0.0616 0.1685 -0.333 -0.00968
000040 65 2b e3 ab 37 0d 74 1d 18 27 16 26 3f 2d 14 29
       0.05777 -0.0616 0.0003183 0.005325 0.02771 0.02377 0.082 0.03967
000050 71 29 e7 a6 fe 9e 10 9b 75 1f 12 b3 d1 2c eb 2a
       0.0425 -0.02696 -0.00683 -0.003448 0.007282 -0.221 0.07526 0.05405
000060 21 2a d5 aa ca 24 21 28 a8 a7 61 ae 29 b2 62 a3
       0.04788 -0.05338 0.0187 0.03226 -0.0299 -0.0997 -0.1925 -0.01442
000070 ab 21 fe 28 1a 1f 55 2b ea 2a 0c 27 61 aa 2f a4
       0.01107 0.039 0.006935 0.05728 0.05402 0.02753 -0.04984 -0.01634
000080 c7 2c 62 14 df 23 8e 2c e0 34 5c a1 8d b5 35 2d
       0.07465 0.00107 0.01537 0.07117 0.3047 -0.01047 -0.347 0.08136
000090 4d 37 9e 25 c0 a0 6e 2c 23 33 16 ac 29 b5 54 08
       0.4563 0.02194 -0.00928 0.0692 0.223 -0.06384 -0.3225 0.0001321
0000a0 e4 a3 2e a4 04 a5 f1 ab 0f b0 8c 32 6e ae 97 a7
       -0.01541 -0.01633 -0.01959 -0.06204 -0.1268 0.2046 -0.10046 -0.02965
0000b0 f3 b7 e5 9f a4 97 ed a3 f1 b5 15 ae 3e 35 42 20
       -0.4968 -0.00771 -0.001865 -0.01548 -0.3713 -0.09503 0.3276 0.008316
0000c0 c5 b4 64 a9 04 25 80 a5 62 b6 9c 33 07 b4 8d 27
       -0.298 -0.0421 0.01959 -0.02148 -0.399 0.2378 -0.2517 0.0295
0000d0 cc 31 79 a2 b0 25 7c 2c 5d b4 e5 b3 08 b2 c1 ad
       0.1812 -0.01264 0.02222 0.07007 -0.2727 -0.2467 -0.1885 -0.0899
0000e0 c9 2c 6c ab 35 aa b0 0e 85 34 2c 2a 2a 9f 04 29
       0.07477 -0.05798 -0.0485 0.0004082 0.2825 0.04822 -0.006996 0.03918
0000f0 69 30 3b ac ff 26 4d 21 54 2a c3 31 a2 b2 62 28
       0.1378 -0.0661 0.02733 0.01035 0.04944 0.18 -0.2073 0.03424
000100 ab b3 f7 a8 8a 2b 43 ac 69 b0 df af 90 ae 72 ac
       -0.2396 -0.0388 0.0589 -0.0666 -0.1378 -0.123 -0.10254 -0.06946
000110 41 b0 b3 ab 41 1a eb 28 0c b6 c7 af e4 2c b8 aa
       -0.1329 -0.06015 0.003054 0.03842 -0.378 -0.1215 0.0764 -0.0525
000120 02 a1 be a4 cc 1f 71 23 51 9d 96 1a 43 20 38 a1
       -0.00978 -0.01852 0.007614 0.014534 -0.00519 0.003216 0.00832 -0.01019
000130 56 9f 62 a4 81 1f 75 23 ee 9c 04 1e 6b 21 0f a1
       -0.007164 -0.01712 0.007328 0.014565 -0.004814 0.005875 0.01058 -0.00988
000140 b7 9d 49 a4 16 1f 70 23 a5 9c a6 1f fa 1c 22 a1
       -0.00558 -0.01674 0.00692 0.01453 -0.004536 0.00747 0.00486 -0.010025
000150 a0 9c 6d a5 43 9a d8 21 e9 1b 9d 12 fc 20 62 a2
       -0.004517 -0.0212 -0.003057 0.01141 0.003862 0.0008073 0.009735 -0.01247
000160 53 a1 54 a5 e6 99 52 21 f6 1f 60 14 2b 19 6b a2
       -0.0104 -0.02081 -0.00288 0.01039 0.007774 0.001068 0.002523 -0.012535
000170 35 a3 ee a4 e1 98 eb 20 99 22 49 96 f0 21 59 a2
       -0.01408 -0.01926 -0.002382 0.009605 0.012886 -0.001534 0.0116 -0.0124
000180 af 25 62 20 0f 9e b0 22 ac 1f 3a 98 cf 25 7d 22
       0.0222 0.00856 -0.005917 0.01306 0.007492 -0.002064 0.02269 0.01267
000190 5c 26 99 20 54 9d 16 22 d5 1f b5 0f a0 24 1b 22
       0.02484 0.00898 -0.005203 0.01189 0.00765 0.0004704 0.01807 0.011925
0001a0 4a 23 64 20 b2 9c b2 21 95 21 59 95 41 24 9b 21
       0.01424 0.008575 -0.004585 0.01112 0.0109 -0.001306 0.01662 0.01095
0001b0 fc b1 bc 9f 4f 28 23 25 0d 2d 19 a9 78 b3 5b 2a
       -0.187 -0.007553 0.03366 0.02007 0.0789 -0.03983 -0.2334 0.04965
0001c0 f0 32 15 a1 d5 27 03 25 24 2c 23 9b 5a b4 12 29
       0.2168 -0.009926 0.0306 0.01958 0.0647 -0.003485 -0.272 0.0396
0001d0 33 24 73 9b 84 26 9c 92 8c af 0d 2f b7 30 69 28
       0.0164 -0.003637 0.02545 -0.000807 -0.1179 0.11017 0.1473 0.03445
0001e0 64 36 93 23 0e a2 9f 2c ed b4 e8 31 96 af f3 28
       0.3994 0.01479 -0.011826 0.0722 -0.3079 0.1846 -0.1185 0.03867
0001f0 01 ad c4 27 7e a4 36 23 35 ad ef 28 13 af 9c a2
       -0.0782 0.03033 -0.01755 0.014084 -0.08136 0.03854 -0.11053 -0.01291

model/time_distributed_8/conv2d_2/Conv2D f2 [8, 3, 3, 1]
000000 01 a7 a5 a8 43 29 92 2c 47 ac da 20 81 aa 32 24
       -0.02736 -0.0363 0.0411 0.0714 -0.06683 0.009476 -0.0508 0.01639
000010 2f 29 7e 1d 18 9c 08 a0 b3 18 f9 15 96 98 43 98
       0.0405 0.005363 -0.003998 -0.00787 0.002295 0.001458 -0.00224 -0.00208
000020 37 1b 0a 1e a2 1d 30 9e e6 17 a7 97 10 14 2f 14
       0.003523 0.005898 0.0055 -0.006042 0.001928 -0.001868 0.000992 0.001021
000030 c2 14 62 11 14 9d a9 1e 50 a0 d7 13 81 99 4c 19
       0.001162 0.000657 -0.00496 0.006504 -0.00842 0.000957 -0.002687 0.002586
000040 b6 94 f7 82 26 16 a3 07 59 9d af 9f 35 15 67 25
       -0.00115 -4.524e-05 0.001501 0.0001165 -0.005222 -0.007504 0.001271 0.0211
000050 2d a8 d6 21 4e 18 3c 1f fd 22 33 a8 d9 2b 82 26
       -0.03262 0.0114 0.002102 0.007065 0.01365 -0.0328 0.0613 0.02542
000060 f4 28 22 ae 34 29 d6 a8 a5 2c 30 a6 fd 25 42 ab
       0.0387 -0.0958 0.04065 -0.03778 0.0726 -0.02417 0.02339 -0.0567
000070 65 24 a8 a4 a3 25 77 9e 93 1c 48 2a 86 ac f3 1e
       0.01717 -0.01819 0.02202 -0.006313 0.004467 0.04907 -0.0707 0.006786
000080 c4 9e 89 1b 26 24 75 a6 91 20 6b 92 75 9a 99 17
       -0.006607 0.00368 0.0162 -0.02522 0.00892 -0.0007834 -0.003153 0.001855

model/lstm/TensorArrayV2_1 f2 [120, 1, 32]
000000 00 00 00 00 00 00 00 00 00 00 00 00 00 00 00 00
       0.0 0.0 0.0 0.0 0.0 0.0 0.0 0.0
000010 00 00 00 00 00 00 00 00 00 00 00 00 00 00 00 00
       0.0 0.0 0.0 0.0 0.0 0.0 0.0 0.0
000020 00 00 00 00 00 00 00 00 00 00 00 00 00 00 00 00
       0.0 0.0 0.0 0.0 0.0 0.0 0.0 0.0
000030 00 00 00 00 00 00 00 00 00 00 00 00 00 00 00 00
       0.0 0.0 0.0 0.0 0.0 0.0 0.0 0.0
000040 00 00 00 00 00 00 00 00 00 00 00 00 00 00 00 00
       0.0 0.0 0.0 0.0 0.0 0.0 0.0 0.0
000050 00 00 00 00 00 00 00 00 00 00 00 00 00 00 00 00
       0.0 0.0 0.0 0.0 0.0 0.0 0.0 0.0
000060 00 00 00 00 00 00 00 00 00 00 00 00 00 00 00 00
       0.0 0.0 0.0 0.0 0.0 0.0 0.0 0.0
000070 00 00 00 00 00 00 00 00 00 00 00 00 00 00 00 00
       0.0 0.0 0.0 0.0 0.0 0.0 0.0 0.0
000080 00 00 00 00 00 00 00 00 00 00 00 00 00 00 00 00
       0.0 0.0 0.0 0.0 0.0 0.0 0.0 0.0
000090 00 00 00 00 00 00 00 00 00 00 00 00 00 00 00 00
       0.0 0.0 0.0 0.0 0.0 0.0 0.0 0.0
0000a0 00 00 00 00 00 00 00 00 00 00 00 00 00 00 00 00
       0.0 0.0 0.0 0.0 0.0 0.0 0.0 0.0
0000b0 00 00 00 00 00 00 00 00 00 00 00 00 00 00 00 00
       0.0 0.0 0.0 0.0 0.0 0.0 0.0 0.0
0000c0 00 00 00 00 00 00 00 00 00 00 00 00 00 00 00 00
       0.0 0.0 0.0 0.0 0.0 0.0 0.0 0.0
0000d0 00 00 00 00 00 00 00 00 00 00 00 00 00 00 00 00
       0.0 0.0 0.0 0.0 0.0 0.0 0.0 0.0
0000e0 00 00 00 00 00 00 00 00 00 00 00 00 00 00 00 00
       0.0 0.0 0.0 0.0 0.0 0.0 0.0 0.0
0000f0 00 00 00 00 00 00 00 00 00 00 00 00 00 00 00 00
       0.0 0.0 0.0 0.0 0.0 0.0 0.0 0.0
000100 00 00 00 00 00 00 00 00 00 00 00 00 00 00 00 00
       0.0 0.0 0.0 0.0 0.0 0.0 0.0 0.0
000110 00 00 00 00 00 00 00 00 00 00 00 00 00 00 00 00
       0.0 0.0 0.0 0.0 0.0 0.0 0.0 0.0
000120 00 00 00 00 00 00 00 00 00 00 00 00 00 00 00 00
       0.0 0.0 0.0 0.0 0.0 0.0 0.0 0.0
000130 00 00 00 00 00 00 00 00 00 00 00 00 00 00 00 00
       0.0 0.0 0.0 0.0 0.0 0.0 0.0 0.0
000140 00 00 00 00 00 00 00 00 00 00 00 00 00 00 00 00
       0.0 0.0 0.0 0.0 0.0 0.0 0.0 0.0
000150 00 00 00 00 00 00 00 00 00 00 00 00 00 00 00 00
       0.0 0.0 0.0 0.0 0.0 0.0 0.0 0.0
000160 00 00 00 00 00 00 00 00 00 00 00 00 00 00 00 00
       0.0 0.0 0.0 0.0 0.0 0.0 0.0 0.0
000170 00 00 00 00 00 00 00 00 00 00 00 00 00 00 00 00
       0.0 0.0 0.0 0.0 0.0 0.0 0.0 0.0
000180 00 00 00 00 00 00 00 00 00 00 00 00 00 00 00 00
       0.0 0.0 0.0 0.0 0.0 0.0 0.0 0.0
000190 00 00 00 00 00 00 00 00 00 00 00 00 00 00 00 00
       0.0 0.0 0.0 0.0 0.0 0.0 0.0 0.0
0001a0 00 00 00 00 00 00 00 00 00 00 00 00 00 00 00 00
       0.0 0.0 0.0 0.0 0.0 0.0 0.0 0.0
0001b0 00 00 00 00 00 00 00 00 00 00 00 00 00 00 00 00
       0.0 0.0 0.0 0.0 0.0 0.0 0.0 0.0
0001c0 00 00 00 00 00 00 00 00 00 00 00 00 00 00 00 00
       0.0 0.0 0.0 0.0 0.0 0.0 0.0 0.0
0001d0 00 00 00 00 00 00 00 00 00 00 00 00 00 00 00 00
       0.0 0.0 0.0 0.0 0.0 0.0 0.0 0.0
0001e0 00 00 00 00 00 00 00 00 00 00 00 00 00 00 00 00
       0.0 0.0 0.0 0.0 0.0 0.0 0.0 0.0
0001f0 00 00 00 00 00 00 00 00 00 00 00 00 00 00 00 00
       0.0 0.0 0.0 0.0 0.0 0.0 0.0 0.0

model/dense/BiasAdd/ReadVariableOp/resource f2 [256]
000000 8b ac c8 27 f0 a4 07 2f dc a1 fc 28 03 ad 0c a9
       -0.071 0.0304 -0.01929 0.1098 -0.011444 0.03894 -0.0783 -0.03943
000010 2a a5 0b b0 62 ac 9f aa 59 2b 43 ab 16 1c a9 aa
       -0.02017 -0.1263 -0.0685 -0.05173 0.0574 -0.05673 0.00399 -0.05203
000020 b6 a9 1f a4 55 2c 88 28 0a 28 8b 27 4f ab cd 24
       -0.04462 -0.0161 0.0677 0.0354 0.03156 0.02946 -0.0571 0.01875
000030 8a 27 34 26 94 1b fd 2a cc 24 6a 26 6a a8 b1 26
       0.02945 0.02423 0.0037 0.0546 0.01874 0.02505 -0.0345 0.02614
000040 fb aa 3f a8 a2 22 b7 27 73 9b b2 ac 40 b2 1d ab
       -0.05453 -0.03317 0.012955 0.03014 -0.003637 -0.07336 -0.1953 -0.05557
000050 0e 29 89 1a 97 ae 0e 27 f4 ac 93 2b 05 27 b7 9c
       0.0395 0.003191 -0.10297 0.02756 -0.0774 0.05917 0.02742 -0.004604
000060 cc 2e 5f aa f7 27 8e 2e 1d aa ae 25 19 a7 45 a4
       0.1062 -0.04977 0.03111 0.1024 -0.04776 0.02219 -0.02773 -0.01668
000070 3a 9a fa a4 44 24 be 26 0e 28 92 27 e1 a6 64 23
       -0.00304 -0.01944 0.01666 0.02634 0.03168 0.02957 -0.02687 0.014435
000080 8a 24 6f ab d2 2c 91 22 38 2c 42 21 ef 21 2a ac
       0.01773 -0.05807 0.0753 0.012825 0.0659 0.01027 0.01159 -0.06506
000090 71 2c e1 a5 b2 a9 aa 24 69 9e 78 ac 57 28 5d 2a
       0.0694 -0.02296 -0.0445 0.01822 -0.00626 -0.0698 0.0339 0.0497
0000a0 99 a8 78 a4 3d a6 e8 2c ac a4 1c a5 dc a6 bf a9
       -0.03592 -0.01746 -0.02437 0.07666 -0.01825 -0.01996 -0.0268 -0.0449
0000b0 95 24 e9 a7 13 ad 4c a6 34 27 1c a6 8a 2a 47 a0
       0.0179 -0.0309 -0.0793 -0.0246 0.02814 -0.02386 0.0511 -0.008354
0000c0 40 ac f0 a5 66 1b d0 28 cf aa 92 9c 93 21 7c ad
       -0.0664 -0.0232 0.003613 0.0376 -0.0532 -0.004463 0.01089 -0.0857
0000d0 89 23 37 2a 07 aa 4c 25 7f a4 4b ac 04 2d 77 25
       0.01472 0.04855 -0.0471 0.02069 -0.01756 -0.0671 0.07837 0.02135
0000e0 62 29 e1 2b 28 2a fc a8 52 1d 85 1d 61 ac e0 a9
       0.04205 0.06155 0.0481 -0.03894 0.005196 0.00539 -0.0684 -0.0459
0000f0 30 ab 89 ac cc a9 8f a9 16 24 c9 9c 7e 23 f8 28
       -0.05615 -0.07086 -0.0453 -0.04343 0.01596 -0.004673 0.01463 0.03882
000100 1b 2b 2b a5 49 a0 69 25 7b a6 4d ad 86 2c 3d a4
       0.0555 -0.02019 -0.00837 0.02113 -0.02531 -0.0828 0.0707 -0.01656
000110 80 aa 03 2d 9d 2c 5a 2b 8a 04 6c 25 ef 9c 9c a6
       -0.05078 0.0783 0.0721 0.05743 6.926e-05 0.02118 -0.004818 -0.02582
000120 59 aa b7 28 e6 2d 64 23 a1 2b 81 28 08 a2 f2 13
       -0.0496 0.03683 0.09216 0.014435 0.0596 0.0352 -0.01178 0.00097
000130 de ac c5 b0 55 a6 f0 a9 9e a9 bd a5 59 1c 1e 2e
       -0.07605 -0.149 -0.02473 -0.0464 -0.04388 -0.02242 0.004246 0.0956
000140 a2 a9 14 ab b0 ab 0a 22 17 aa 17 ab 71 27 18 1d
       -0.044 -0.0553 -0.06006 0.011795 -0.04758 -0.0554 0.02907 0.004974
000150 e2 2c de 1a e4 ad c1 a2 ad 2d 5f a6 06 28 5a a3
       0.0763 0.003353 -0.09204 -0.01319 0.0887 -0.02489 0.03143 -0.01436
000160 76 14 c7 a5 f8 a8 31 29 4b 2c d3 28 c5 2b 93 2c
       0.001089 -0.02257 -0.03882 0.04056 0.0671 0.0377 0.0607 0.0715
000170 94 28 1a 2c f6 29 82 ab a8 2d 98 a7 27 2b 58 9b
       0.03577 0.0641 0.04657 -0.05865 0.0884 -0.02966 0.05588 -0.003586
000180 29 a3 5e 21 25 a9 dc a8 2f a7 58 27 93 28 53 24
       -0.013985 0.01048 -0.0402 -0.03796 -0.02806 0.02869 0.03574 0.01689
000190 12 2a e5 a8 5b a5 4e ab 2c b0 5a a8 e3 28 82 a9
       0.04742 -0.03824 -0.02092 -0.05707 -0.1304 -0.034 0.03818 -0.04303
0001a0 ad a9 08 20 62 9d a8 a7 00 1f 5e 2a 0c ac cb 26
       -0.04434 0.00787 -0.005257 -0.0299 0.006836 0.04974 -0.06323 0.02654
0001b0 22 a5 b0 27 6e 26 4b 0a 1b a9 3f a9 2a 9f f1 b0
       -0.02005 0.03003 0.02512 0.000192 -0.0399 -0.041 -0.006996 -0.1544
0001c0 8f 2c 1f a9 9d 2d ff 24 e1 a7 d4 a2 48 9f bd a3
       0.0712 -0.04 0.0877 0.01952 -0.03078 -0.013336 -0.00711 -0.015114
0001d0 f4 2c 4f a5 49 20 a3 20 3d a4 36 24 de aa 6d a8
       0.0774 -0.02074 0.00837 0.009056 -0.01656 0.01645 -0.05365 -0.03458
0001e0 16 a9 a2 25 8c a6 40 aa 5a aa 7f 14 db 28 f4 9d
       -0.03973 0.022 -0.02557 -0.04883 -0.04962 0.001098 0.03793 -0.005814
0001f0 27 26 93 ab 85 1c 17 ab 85 2c d9 28 17 25 67 a8
       0.02403 -0.05917 0.004414 -0.0554 0.0706 0.03787 0.01988 -0.0344

model/last_layer/BiasAdd/ReadVariableOp/resource f2 [31]
000000 06 a8 d1 a7 f6 2a 9c a5 6f a3 22 25 86 27 8d 9c
       -0.03143 -0.03053 0.05438 -0.02191 -0.01452 0.02005 0.02939 -0.004444
000010 24 ac bb a0 ad a4 17 a6 9f a5 96 26 4d a1 b6 28
       -0.0647 -0.00924 -0.01826 -0.02379 -0.02196 0.02573 -0.01035 0.0368
000020 51 27 79 27 47 91 45 a6 7e 1c 09 28 8d a9 54 26
       0.02858 0.02919 -0.000644 -0.02449 0.004387 0.03152 -0.04337 0.02472
000030 74 a5 4d 24 71 ab b3 15 6d a4 24 1d 95 a4
       -0.0213 0.0168 -0.05814 0.001391 -0.01729 0.00502 -0.0179

model/dense/MatMul f2 [256, 32]
000000 e6 a1 82 2e ea 2d 60 a6 21 31 1e ad f1 2d ff 2d
       -0.01152 0.1017 0.0924 -0.0249 0.1603 -0.07996 0.09283 0.0937
000010 b6 b1 af 9f 93 b2 57 ac f5 b4 28 2a 81 aa 24 aa
       -0.1785 -0.007504 -0.2054 -0.0678 -0.3098 0.0481 -0.0508 -0.04797
000020 0f a2 ad 26 76 a5 eb ac 3d 31 ba 22 fa a3 62 30
       -0.01183 0.02608 -0.02133 -0.07684 0.1637 0.01314 -0.01558 0.137
000030 8b b1 84 ae d7 2f 32 a4 f4 26 de ae 6e a6 ce aa
       -0.1732 -0.1018 0.1225 -0.01639 0.02716 -0.1073 -0.02512 -0.05316
000040 5f 2c 98 30 e5 b2 f4 a3 12 2e 8e 2a 27 a9 e9 ae
       0.0683 0.1436 -0.2155 -0.01553 0.09485 0.0512 -0.04025 -0.108
000050 0f a8 fa 23 4a 30 55 9c 00 36 64 af 85 a7 39 ac
       -0.0317 0.01558 0.134 -0.00423 0.375 -0.1155 -0.02937 -0.066
000060 3a 2c 1d a8 5c 2b 12 2c 80 ae a7 ac 60 ae 16 b1
       0.06604 -0.03214 0.0575 0.0636 -0.10156 -0.0727 -0.0996 -0.1589
000070 14 a0 12 aa a7 ae 3f ad 7d ad 81 ab 75 96 55 ac
       -0.007965 -0.04742 -0.10394 -0.082 -0.08575 -0.05862 -0.001576 -0.0677
000080 82 2c 49 b0 9b 28 8f 21 81 29 73 28 d1 aa f3 32
       0.07043 -0.1339 0.03598 0.01086 0.043 0.03476 -0.05325 0.2172
000090 20 9d 5f 1c 94 a0 cc ac db 2c 2a 2c 30 30 4a a7
       -0.005005 0.00427 -0.00894 -0.07495 0.07587 0.06506 0.1309 -0.02847
0000a0 08 91 dd 2b 8a a1 d1 a8 31 2c 5c 2c b1 ac 41 aa
       -0.000614 0.06143 -0.01082 -0.03763 0.0655 0.0681 -0.0733 -0.04886
0000b0 5b 1d bb a9 17 26 ad ac df b1 95 35 b4 a3 0c a8
       0.00523 -0.04477 0.02379 -0.07306 -0.1835 0.3489 -0.015045 -0.03162
0000c0 89 28 e0 2b 36 2d 91 a9 9c 22 99 31 05 a3 a9 29
       0.03543 0.06152 0.0814 -0.0435 0.01291 0.1749 -0.01371 0.04422
0000d0 61 21 f4 2c 74 29 a2 95 c9 1d 52 b0 d9 b2 64 ac
       0.010506 0.0774 0.0426 -0.001375 0.00565 -0.135 -0.214 -0.0686
0000e0 fc af 37 2e c3 ae 74 2e fd ac 7c 35 8b 1e 73 a8
       -0.12476 0.0971 -0.10565 0.1008 -0.07794 0.3428 0.00639 -0.03476
0000f0 a6 31 60 ac bc ab e6 a7 89 27 80 b2 3f 33 34 ab
       0.1765 -0.06836 -0.06042 -0.03085 0.02943 -0.2031 0.2264 -0.05627
000100 b3 a4 e1 2c 12 b0 6d 31 62 1e 6e 2c d8 b1 8c 2f
       -0.01836 0.07623 -0.1272 0.1696 0.006233 0.0692 -0.1826 0.1179
000110 07 ac fb a8 01 2e a3 af 92 30 72 ae d0 aa 98 30
       -0.0629 -0.0389 0.0938 -0.1193 0.1428 -0.1007 -0.05322 0.1436
000120 43 b1 ad 22 f8 a8 d0 2b c3 24 11 2c 2f 9f d1 a8
       -0.1644 0.01304 -0.03882 0.06104 0.0186 0.06354 -0.007015 -0.03763
000130 5e 22 f1 a7 53 a7 55 28 50 2f 91 a6 65 2a 8c b6
       0.012436 -0.03102 -0.02861 0.03384 0.11426 -0.02565 0.04996 -0.4092
000140 1c 2d a1 25 b8 2b fd a6 e4 22 3a ad b3 28 15 18
       0.07983 0.02199 0.0603 -0.0273 0.01346 -0.08167 0.0367 0.001993
000150 5d ad b5 b0 60 2e 5b 2f bb 26 98 2c 39 a8 42 ad
       -0.0838 -0.1471 0.0996 0.1149 0.02629 0.0718 -0.033 -0.08215
000160 c6 28 de af 35 a0 f7 29 b1 ad 08 ac fb aa 06 b6
       0.0373 -0.1229 -0.00822 0.0466 -0.0889 -0.063 -0.05453 -0.3765
000170 93 aa f6 a5 57 b6 be b1 f2 9e 2e aa 0a 1d 94 b0
       -0.05136 -0.02328 -0.3962 -0.1794 -0.006783 -0.04828 0.00492 -0.1431
000180 32 af 93 34 2c b2 5a 2f 88 a7 13 9a 10 2f 4f b1
       -0.1124 0.286 -0.1929 0.11487 -0.02942 -0.002966 0.11035 -0.1659
000190 29 a2 39 a3 e9 31 f8 2d 25 1e a1 b1 9a 18 d6 2d
       -0.01203 -0.01411 0.1847 0.09326 0.006 -0.1759 0.002247 0.0912
0001a0 3e a1 06 a4 d8 32 3b 2e 57 24 e1 ae 07 2c 90 2b
       -0.01024 -0.01572 0.2139 0.09735 0.01695 -0.1075 0.0629 0.05908
0001b0 4e 2b a3 24 81 b0 40 2e 85 30 41 af 9f ac 1d ae
       0.05707 0.01811 -0.1407 0.09766 0.1412 -0.11334 -0.0722 -0.0955
0001c0 b9 ae a2 ab 13 2c 14 ab e0 ac 28 92 fb 2b 71 a7
       -0.10504 -0.05963 0.06366 -0.0553 -0.0762 -0.0007515 0.06235 -0.02907
0001d0 7d a9 d1 b6 1f 2e 7b 28 03 a8 c6 2c 38 30 63 1c
       -0.04288 -0.426 0.09564 0.035 -0.03134 0.0746 0.1318 0.004284
0001e0 a0 1d 4c b0 59 b2 8c b0 63 aa 75 31 7a 29 14 30
       0.005493 -0.1343 -0.1984 -0.1421 -0.0499 0.1705 0.0428 0.1274
0001f0 59 aa 21 b0 33 ae 8d a4 bb 2d 8d b0 a0 28 15 ad
       -0.0496 -0.129 -0.09686 -0.01778 0.08954 -0.1422 0.03613 -0.0794

model/last_layer/MatMul f2 [31, 256]
000000 d0 20 20 a5 55 2d b0 23 f5 9f 98 ae 5e ab cf ac
       0.0094 -0.02002 0.0833 0.015015 -0.00777 -0.103 -0.05756 -0.07513
000010 d8 29 5e 27 71 ae cf 27 0d 2a 54 2c 2c ab fa ac
       0.04565 0.02878 -0.10065 0.0305 0.04727 0.0676 -0.05603 -0.07776
000020 34 25 51 ad 96 20 0d 25 63 28 82 ac db 27 ef aa
       0.02032 -0.08307 0.00896 0.01973 0.03427 -0.07043 0.03069 -0.05417
000030 30 2c 46 ad 73 28 c7 2d 1a af d3 2a 53 ac 3a 2d
       0.0654 -0.0824 0.03476 0.0903 -0.11096 0.0533 -0.06757 0.08167
000040 f2 27 c7 25 53 25 88 a4 e7 a8 85 2d 50 2f ec ae
       0.03104 0.02257 0.0208 -0.0177 -0.0383 0.08624 0.11426 -0.10815
000050 ad 27 e5 9b ce ae b1 9b e6 2c 96 a6 f6 ac 4f 20
       0.02998 -0.003855 -0.1063 -0.003756 0.07654 -0.02573 -0.0775 0.008415
000060 95 a4 e1 29 36 ae 91 a5 6f 2f fa 29 c7 ac b2 ac
       -0.0179 0.04593 -0.09705 -0.02174 0.11615 0.0467 -0.07465 -0.07336
000070 ce ac 7e 1d 4d 2d 5a a7 6c a8 37 a9 4a 20 77 2d
       -0.0751 0.005363 0.0828 -0.02872 -0.03455 -0.04074 0.00838 0.0854
000080 14 ad 09 2c 9c 2c 0e ac 6f b0 30 23 29 ae 67 ac
       -0.07935 0.06305 0.072 -0.06335 -0.1385 0.01404 -0.09625 -0.0688
000090 02 2c 91 2b 33 21 9c 2e 22 2f 88 ac 8e 18 88 2a
       0.0626 0.0591 0.010155 0.1033 0.11145 -0.0708 0.002224 0.05103
0000a0 60 ad b2 2a 27 ad 4a a2 c7 28 07 ab eb ad 46 ae
       -0.084 0.0523 -0.0805 -0.01228 0.03732 -0.0549 -0.09247 -0.098
0000b0 6d 27 de 98 c5 a9 9e af 14 ad 3c 29 04 ab d4 2d
       0.029 -0.002377 -0.04507 -0.119 -0.07935 0.0409 -0.0548 0.09106
0000c0 9c ac 21 ae 02 2c 93 aa 72 2e 4c aa 33 a8 2f 28
       -0.072 -0.09576 0.0626 -0.05136 0.1007 -0.0492 -0.0328 0.03268
0000d0 51 2d 6b 2b 65 28 db a7 30 ad a7 2d 01 af bd a8
       0.08307 0.05795 0.03433 -0.03069 -0.08105 0.0883 -0.10944 -0.03702
0000e0 3b ae e8 21 a4 21 a0 2b 20 2c 91 a9 a7 2c 1b 26
       -0.09735 0.011536 0.01102 0.05957 0.06445 -0.0435 0.0727 0.02385
0000f0 76 20 dd 1e 5b 29 e6 27 7e 24 7d ac da ac 2b 26
       0.00871 0.006702 0.04184 0.03085 0.01755 -0.0701 -0.0758 0.0241
000100 7e 2e e6 2d 42 aa 30 ac 24 ae d7 26 07 28 fa ae
       0.10144 0.09216 -0.0489 -0.0654 -0.09595 0.02672 0.03146 -0.109
000110 02 a5 62 2c 95 24 0e a9 60 ae 41 9f e9 22 48 a9
       -0.01956 0.0685 0.0179 -0.0395 -0.0996 -0.007084 0.0135 -0.04126
000120 55 2d 56 ab 3c 23 6e 26 47 29 ba a8 6a ac 27 ad
       0.0833 -0.0573 0.01413 0.02512 0.04123 -0.03693 -0.069 -0.0805
000130 6e a4 d8 a8 03 a4 7a 25 2c 2c 09 27 8d 1c b3 19
       -0.0173 -0.03784 -0.01567 0.0214 0.0652 0.02748 0.004444 0.002783
000140 ca 28 30 a9 c1 25 09 1e b3 ac f9 a5 65 ac 74 24
       0.0374 -0.04053 0.02248 0.005894 -0.0734 -0.02333 -0.06866 0.0174
000150 cb aa f4 a3 50 9d 76 ae 07 2d 99 ab 91 a9 b3 28
       -0.05307 -0.01553 -0.005188 -0.10095 0.07855 -0.05936 -0.0435 0.0367
000160 d3 a1 b0 2c 63 a5 8f ab cd a7 b7 2c 1d 23 22 ac
       -0.011375 0.07324 -0.02104 -0.05905 -0.03047 0.07367 0.01389 -0.0646
000170 98 ac ec 23 23 ae 15 30 d3 ac 20 ad 00 aa 15 2e
       -0.0718 0.01547 -0.0959 0.1276 -0.0754 -0.0801 -0.04688 0.09503
000180 7f 2a 98 2b 4a ad 18 ad 08 ac 3d a8 b5 ae 37 ab
       0.05075 0.05933 -0.08264 -0.0796 -0.063 -0.0331 -0.1048 -0.05637
000190 67 a8 50 a9 69 2a 89 28 9f a3 4c 26 d1 ac 8c 20
       -0.0344 -0.0415 0.05008 0.03543 -0.014885 0.0246 -0.07526 0.00888
0001a0 a9 a3 86 98 cf 2e d9 2a ef ac 4b a8 a4 27 8f 29
       -0.01496 -0.002209 0.1064 0.0535 -0.0771 -0.03354 0.02985 0.04343
0001b0 25 27 43 a9 a1 2c a8 ac 04 2e 71 ad a9 2c 0d 2f
       0.02791 -0.0411 0.0723 -0.07275 0.094 -0.085 0.0728 0.11017
0001c0 f0 23 bf 2e 16 aa 7c ab 9a 2e 0a 2d 7b a6 d5 a8
       0.0155 0.1054 -0.04755 -0.05847 0.10315 0.07874 -0.02531 -0.03775
0001d0 6e 24 86 2e 7e 2e 4e 2c 47 a9 00 ad 3a 28 bc a3
       0.0173 0.1019 0.10144 0.06726 -0.04123 -0.0781 0.03302 -0.01511
0001e0 51 ae 1f ad e3 2d 35 a6 9d 2c 71 a6 9a 9f 3f a4
       -0.0987 -0.08 0.092 -0.02425 0.0721 -0.02516 -0.007423 -0.01659
0001f0 df 2b 4b ae 59 2a b4 2b 48 aa 54 2b 76 ad 24 a4
       0.0615 -0.0983 0.0496 0.06018 -0.04907 0.05725 -0.0853 -0.01617

model/time_distributed_10/batch_normalization_2/FusedBatchNormV3 f2 [8]
000000 49 9c e3 9d 18 12 06 1c 01 25 83 9f 79 a4 8e 9f
       -0.004185 -0.00575 0.000744 0.00393 0.01955 -0.007336 -0.01747 -0.007378

model/time_distributed_10/batch_normalization_2/FusedBatchNormV31 f2 [8]
000000 78 31 2c 2d 63 2a 3b 9e 04 30 46 31 a4 35 38 2d
       0.1709 0.0808 0.0499 -0.006084 0.1255 0.1648 0.3525 0.08154

model/time_distributed_13/batch_normalization_3/FusedBatchNormV3 f2 [16]
000000 9c aa 45 af 98 99 75 ae 3e aa 6f 98 aa a8 85 b0
       -0.05164 -0.1136 -0.002731 -0.1009 -0.04877 -0.002165 -0.03644 -0.1412
000010 3b a4 f0 9d 70 a5 a7 1e 14 aa 15 0c 73 9e 4d 28
       -0.01653 -0.0058 -0.02124 0.006496 -0.0475 0.0002491 -0.006298 0.0336

model/time_distributed_13/batch_normalization_3/FusedBatchNormV31 f2 [16]
000000 58 40 64 42 75 33 5a 3e 0e 3f 8d a0 84 43 e3 3f
       2.172 3.195 0.233 1.588 1.764 -0.00889 3.758 1.972
000010 29 44 7b 2c 0e 40 d2 41 3f 41 20 20 02 44 6b 44
       4.16 0.07 2.027 2.91 2.623 0.00806 4.008 4.418

model/time_distributed_2/batch_normalization/FusedBatchNormV3 f2 [8]
000000 e2 16 20 1a 8d 1d f7 a6 21 ae 7d 9b 9d af 8c 1a
       0.00168 0.00299 0.00542 -0.0272 -0.09576 -0.003656 -0.11896 0.003197

model/time_distributed_2/batch_normalization/FusedBatchNormV31 f2 [8]
000000 02 28 5d a6 d1 a8 17 2a 2e 2f 7d 26 3c 2f 40 26
       0.0313 -0.02486 -0.03763 0.04758 0.1122 0.02534 0.11304 0.02441

model/time_distributed_5/batch_normalization_1/FusedBatchNormV3 f2 [16]
000000 34 97 b3 ae b4 b4 b4 b5 7f ba cc b5 3b b1 0e b4
       -0.001759 -0.1047 -0.294 -0.3564 -0.812 -0.3623 -0.1635 -0.2534
000010 68 b5 1d af 93 b8 93 b7 a7 9e 44 22 41 ba b7 b3
       -0.338 -0.11115 -0.572 -0.4734 -0.006496 0.01224 -0.7817 -0.2411

model/time_distributed_5/batch_normalization_1/FusedBatchNormV31 f2 [16]
000000 b2 44 86 42 0d 43 b4 41 e7 41 95 42 f8 43 6f 44
       4.695 3.262 3.525 2.852 2.951 3.291 3.984 4.434
000010 41 43 9a 42 5b 43 09 44 08 44 4f 45 53 42 e1 44
       3.627 3.3 3.678 4.035 4.03 5.31 3.162 4.88

model/lstm/while/lstm_cell_4/MatMul_4 f2 [32, 32]
000000 5c 2a 47 af 29 b6 d2 b8 72 32 c9 39 d7 31 55 2c
       0.04968 -0.1137 -0.385 -0.6025 0.2014 0.723 0.1825 0.0677
000010 84 b7 eb af a5 b9 db 37 e1 b6 e3 ac 64 33 eb b3
       -0.4697 -0.1237 -0.7056 0.491 -0.43 -0.07635 0.231 -0.2474
000020 70 ad cb 24 7d 33 0d b1 f3 b5 20 b8 bb b6 bd 31
       -0.08496 0.01872 0.234 -0.1578 -0.3718 -0.5156 -0.4207 0.1793
000030 ab 30 1a 92 6e b1 c6 b9 22 a3 c7 30 9e 33 2a 37
       0.1459 -0.000745 -0.1697 -0.7217 -0.01393 0.1493 0.238 0.4478
000040 1e b7 56 b3 53 2c f5 ad 2b 26 59 31 c0 b4 8e b5
       -0.4448 -0.2292 0.06757 -0.0931 0.0241 0.1671 -0.2969 -0.3472
000050 73 af 91 b3 22 b8 62 26 e5 b6 b4 33 18 37 a9 b4
       -0.1164 -0.2365 -0.5166 0.02493 -0.431 0.2407 0.4434 -0.2913
000060 61 34 75 af d9 37 ff ad 1b 28 83 34 41 b1 70 32
       0.2737 -0.1165 0.4905 -0.0937 0.03207 0.282 -0.1642 0.2012
000070 db 2f 0a 1a b7 b0 5c 31 ff 34 47 b1 3d 35 c5 31
       0.12274 0.002949 -0.1473 0.1675 0.3123 -0.1649 0.3274 0.1803
000080 c0 b8 62 3a 47 ad 54 bb e8 b0 8e 31 08 34 14 b0
       -0.5938 0.798 -0.08246 -0.916 -0.1533 0.1736 0.252 -0.1274
000090 73 37 9e 35 b5 ad d1 36 75 33 2c 31 e8 b9 84 bb
       0.4656 0.351 -0.0892 0.426 0.233 0.1616 -0.7383 -0.9395
0000a0 a5 2c d1 32 3e 32 3e 2d 08 9c 20 36 08 35 e6 b2
       0.0726 0.213 0.1951 0.0819 -0.003937 0.3828 0.3145 -0.2156
0000b0 42 34 48 25 7b a4 6a af 21 b2 90 b6 c3 b6 dd 2d
       0.266 0.02063 -0.0175 -0.11584 -0.1915 -0.4102 -0.4226 0.0916
0000c0 24 21 30 28 a7 a8 91 9a 1b a6 fc 28 5e ad 42 21
       0.01004 0.0327 -0.03635 -0.003206 -0.02385 0.03894 -0.08386 0.01027
0000d0 25 aa 82 a6 a0 23 0e a9 2b 24 ae 18 65 1a 0c 29
       -0.048 -0.02542 0.01489 -0.0395 0.01628 0.002285 0.003122 0.03943
0000e0 b6 26 4d a6 1f af 47 ae 3c 28 7d 20 ae 29 5f 28
       0.02621 -0.02461 -0.11127 -0.0981 0.03308 0.008766 0.04437 0.03415
0000f0 c8 24 4e 2a 6e 28 fc 25 28 2b 3a 25 e4 a9 cc a4
       0.01868 0.04926 0.0346 0.02338 0.0559 0.02042 -0.04602 -0.01874
000100 2c b4 e9 37 d8 b3 5f b8 d2 32 49 b8 0b 2a 8b be
       -0.2607 0.4944 -0.2451 -0.5464 0.2131 -0.5356 0.0472 -1.636
000110 ca b9 e1 af 8a 31 27 31 49 b4 25 3b 38 32 22 34
       -0.7236 -0.1231 0.1731 0.161 -0.2678 0.893 0.1943 0.2583
000120 5c b3 36 b9 3e 37 2b b0 3d 9c 9b b4 93 30 ff 32
       -0.23 -0.6514 0.4526 -0.1302 -0.00414 -0.2878 0.143 0.2186
000130 b2 36 cb b6 69 9f 7f b9 e3 b3 12 38 61 b6 0a 30
       0.4185 -0.4246 -0.007236 -0.687 -0.2465 0.509 -0.3987 0.1262
000140 9f b2 28 af 68 32 35 ba 62 3c 36 a0 8d b3 f4 b5
       -0.2069 -0.1118 0.2002 -0.776 1.096 -0.008224 -0.236 -0.372
000150 21 b7 2b b8 27 3c 7e 3e 8a 34 a4 35 b5 bc a5 b1
       -0.4456 -0.521 1.038 1.623 0.2837 0.3525 -1.177 -0.1764
000160 ba 39 19 bb e7 b8 69 2f 18 2c 3e b7 ca 33 a5 36
       0.716 -0.887 -0.613 0.1158 0.06396 -0.4526 0.2434 0.4153
000170 a3 a6 e2 b8 fb bc 0d 39 12 36 ca 38 59 37 02 2f
       -0.02592 -0.6104 -1.245 0.6313 0.3794 0.5986 0.4592 0.1095
000180 37 b0 81 31 db b2 33 b9 0f 36 26 3c 3c b1 03 39
       -0.1317 0.172 -0.2142 -0.65 0.3787 1.037 -0.1636 0.6265
000190 73 b6 e5 b0 8f b6 df 36 31 21 aa 35 3d a6 2d 2f
       -0.403 -0.153 -0.41 0.4294 0.01014 0.354 -0.02437 0.1121
0001a0 d6 35 c4 b0 a2 aa 5f b3 d1 32 2c 35 c1 b2 ed ae
       0.3647 -0.1489 -0.05182 -0.2303 0.213 0.3232 -0.211 -0.1082
0001b0 e1 38 11 b4 eb b9 2a b7 36 3b 06 b8 49 b4 9f 33
       0.61 -0.2542 -0.7397 -0.4478 0.9014 -0.503 -0.2678 0.2382
0001c0 bd b2 22 36 fd 36 d8 b6 9c 39 1b bb a7 39 d7 b9
       -0.2106 0.3833 0.4368 -0.4277 0.701 -0.888 0.7065 -0.73
0001d0 2d 34 3d 37 ea b9 91 36 58 29 35 ae c2 38 78 b8
       0.261 0.4524 -0.7393 0.4104 0.04175 -0.097 0.5947 -0.5586
0001e0 54 3c fa b7 d1 25 4b bb 1d b7 f7 b9 48 39 90 2f
       1.082 -0.4985 0.02272 -0.9116 -0.4446 -0.7456 0.66 0.11816
0001f0 84 2f 72 b6 27 31 8e b8 8b b4 5d ba c7 b3 ed 39
       0.11743 -0.4028 0.161 -0.5693 -0.284 -0.7954 -0.243 0.7407

model/lstm/while/lstm_cell_4/MatMul_5 f2 [32, 32]
000000 74 2e ad 30 be 9d ee 34 66 af 1a a4 08 b6 c5 37
       0.1008 0.1461 -0.005608 0.308 -0.1156 -0.01602 -0.377 0.4856
000010 bb 32 b9 33 30 2b ff 35 1f 3a a3 af d9 36 f1 39
       0.2103 0.2413 0.05615 0.3748 0.765 -0.1193 0.428 0.7427
000020 17 b4 b8 2a ef 2d 6a 31 1c 34 f6 37 26 2b 73 2a
       -0.2556 0.0525 0.0927 0.1692 0.2568 0.4976 0.05585 0.05038
000030 7c 36 41 b4 12 b6 0a 36 45 33 63 b4 27 38 d8 b6
       0.4053 -0.2659 -0.3794 0.3774 0.2272 -0.2742 0.519 -0.4277
000040 60 b0 04 33 5d 34 59 ac c3 1f 4d b7 ac 30 05 30
       -0.1367 0.2192 0.2727 -0.06793 0.00758 -0.4563 0.146 0.1256
000050 41 b8 45 33 c7 34 f6 b4 5f b5 4d b6 7a 35 34 b3
       -0.5317 0.2272 0.2986 -0.31 -0.3357 -0.3938 0.3423 -0.2251
000060 8e 31 be b4 66 2d f0 2d 82 33 1e 2b 9c b5 34 38
       0.1736 -0.2964 0.08435 0.0928 0.2346 0.0556 -0.3506 0.5254
000070 b4 b0 8f b4 6b 32 06 31 e4 b2 ad 36 e7 32 3a b0
       -0.147 -0.285 0.2006 0.157 -0.2153 0.4172 0.2157 -0.1321
000080 2a 36 6d 3a c4 32 1a 2a d2 38 d9 ac 00 ac 40 34
       0.3853 0.803 0.2114 0.04767 0.6025 -0.07574 -0.0625 0.2656
000090 cc 28 68 b0 82 af f8 ae 37 b7 bf 30 7f b0 14 30
       0.03748 -0.1377 -0.1173 -0.1089 -0.451 0.1483 -0.1405 0.1274
0000a0 46 31 a8 30 63 b4 6f b9 71 b2 0a 2f ac b3 c0 b7
       0.1648 0.1455 -0.2742 -0.679 -0.2013 0.11 -0.2397 -0.4844
0000b0 48 33 47 37 af 38 5f ab 54 ab f3 b5 cf af b0 b3
       0.2275 0.4548 0.5854 -0.0576 -0.05725 -0.3718 -0.122 -0.2402
0000c0 b4 35 0b 30 09 2a bb 30 c2 b1 51 28 45 b2 80 28
       0.3564 0.1263 0.04715 0.1478 -0.1799 0.03372 -0.1959 0.03516
0000d0 86 2f d9 32 9e 36 c5 99 01 a4 75 aa cd 29 f7 2d
       0.11755 0.214 0.4136 -0.002817 -0.01564 -0.05045 0.04532 0.0932
0000e0 4d 25 0c 32 58 b5 e1 ad e1 30 29 33 01 b3 8f 2a
       0.0207 0.189 -0.334 -0.09186 0.1525 0.2238 -0.2189 0.05124
0000f0 36 2c 43 30 99 30 bd 2e 0b b1 28 31 77 af 14 ae
       0.0658 0.1332 0.1437 0.1053 -0.1576 0.1611 -0.11664 -0.095
000100 0f b4 c8 3a e7 ab 81 30 2d ac bc 34 21 ac e4 a4
       -0.2537 0.8477 -0.06174 0.1407 -0.06525 0.296 -0.0645 -0.0191
000110 38 b4 b0 35 f1 b8 bb 24 48 3a ed 35 c1 b6 76 b7
       -0.2637 0.3555 -0.6177 0.01848 0.785 0.3704 -0.422 -0.4663
000120 0f b9 36 34 dc 38 29 31 a4 32 4d 34 ce b6 60 33
       -0.6323 0.2632 0.6074 0.1613 0.2075 0.2688 -0.4253 0.2305
000130 78 30 0d 37 1b 39 5a aa ce b4 1a 37 93 b4 e4 28
       0.1396 0.4407 0.638 -0.04962 -0.3003 0.4438 -0.286 0.0382
000140 53 2b e9 b0 37 b3 19 b1 0d b0 07 b3 12 b8 a5 21
       0.05722 -0.1534 -0.2255 -0.1593 -0.1266 -0.2196 -0.509 0.011024
000150 ec b8 5a 34 8b 38 ff ad 6f 34 00 31 b3 a2 ff 28
       -0.615 0.272 0.568 -0.0937 0.277 0.1562 -0.013084 0.03903
000160 0a 3a 6d b8 0c 35 51 b3 14 31 37 bb 8a 2c bf 3a
       0.755 -0.553 0.3154 -0.2286 0.1587 -0.902 0.0709 0.8433
000170 ce 38 e1 25 c5 ba 7f 30 c8 af fa b6 17 38 23 2d
       0.6006 0.02296 -0.846 0.1405 -0.1216 -0.436 0.511 0.08026
000180 c8 26 a8 30 b1 ad c2 34 7c 2c f1 b4 7a 35 c6 34
       0.02649 0.1455 -0.0889 0.2974 0.07007 -0.3088 0.3423 0.2983
000190 30 1e ba 30 ee aa a7 b7 7f 2f 70 35 9f 32 0a 36
       0.006042 0.1477 -0.05414 -0.4783 0.1171 0.3398 0.2069 0.3774
0001a0 06 27 55 33 a0 2d 0a 33 8b 30 13 34 2c 29 e4 2e
       0.02744 0.2291 0.0879 0.22 0.142 0.2546 0.0404 0.10767
0001b0 ff 2b af 35 d8 2e 45 2c c9 2f 3b b1 80 b4 68 9e
       0.06247 0.3552 0.10693 0.0667 0.12164 -0.1635 -0.2812 -0.006256
0001c0 50 af a8 b7 47 2c 66 32 ec 34 9c b9 29 a7 2b 34
       -0.11426 -0.4785 0.06683 0.2 0.3076 -0.701 -0.02797 0.2605
0001d0 4a b6 ce 38 c6 38 2b 37 ef b0 84 2d 21 3c 7a 2a
       -0.393 0.6006 0.5967 0.448 -0.1542 0.0862 1.032 0.0506
0001e0 7c b8 1c 34 2f ae 44 36 e9 37 20 ac 4e 2c 43 bc
       -0.5605 0.2568 -0.0966 0.3916 0.4944 -0.06445 0.06726 -1.065
0001f0 96 32 45 32 30 36 27 a6 0e b4 4e ba 08 aa d6 bb
       0.2058 0.1959 0.3867 -0.02403 -0.2534 -0.788 -0.04712 -0.9795

model/lstm/while/lstm_cell_4/MatMul_6 f2 [32, 32]
000000 0f 2b e4 34 c2 b2 58 34 27 25 4d af 4f ad 4b b6
       0.05515 0.3057 -0.2112 0.2715 0.02013 -0.1141 -0.08295 -0.3933
000010 5c 38 46 b5 b2 32 e3 a8 d8 35 7b af 36 b4 3e 30
       0.545 -0.3296 0.2092 -0.03818 0.3652 -0.1169 -0.2632 0.1326
000020 4c 34 78 38 bf 34 74 33 20 39 0e 37 05 24 f9 b4
       0.2686 0.5586 0.2966 0.2329 0.6406 0.441 0.0157 -0.3108
000030 86 38 51 ad 72 b0 04 35 35 2e 3c 34 c0 ae 1a 1c
       0.5654 -0.08307 -0.1389 0.3135 0.097 0.2646 -0.10547 0.004005
000040 04 22 cc 2f 8a 31 ed b6 5d b1 1e b8 bc 36 8a 30
       0.01175 0.1218 0.1731 -0.4329 -0.1676 -0.5146 0.421 0.1418
000050 22 b2 5b 38 36 36 5e b4 41 b4 9d 2a 44 33 1a b4
       -0.1917 0.5444 0.3882 -0.273 -0.2659 0.05167 0.227 -0.2563
000060 a9 35 83 b4 e3 b1 62 b6 4f 34 47 2d 4e b3 9c b0
       0.3538 -0.282 -0.184 -0.399 0.2693 0.08246 -0.2283 -0.144
000070 60 31 a0 b5 04 2c 2b b0 d0 ba ac 14 55 b1 81 30
       0.168 -0.3516 0.06274 -0.1302 -0.8516 0.001141 -0.1666 0.1407
000080 8f 2f 2f 2e 88 a4 08 24 69 30 36 30 4c ac 96 b6
       0.1181 0.0966 -0.0177 0.01575 0.1378 0.1316 -0.06714 -0.4116
000090 d2 b0 2f 38 5c ab 7f 34 52 23 7a 35 fd 2d 0a 3c
       -0.1506 0.523 -0.0575 0.281 0.0143 0.3423 0.09357 1.01
0000a0 4c b1 83 30 70 b0 0f b8 fd b5 c0 aa 94 b4 bb ad
       -0.1655 0.141 -0.1387 -0.5073 -0.3743 -0.05273 -0.2861 -0.08954
0000b0 20 31 4b 39 c6 39 1f 31 83 9e da b4 1e 26 b8 32
       0.1602 0.6616 0.7217 0.16 -0.00636 -0.3032 0.0239 0.21
0000c0 ea 2d 52 31 c1 2d 07 2a 2b b3 c4 2d b7 b6 c1 2d
       0.0924 0.1663 0.0899 0.0471 -0.224 0.0901 -0.4197 0.0899
0000d0 4c a9 e8 2c 7a 36 59 31 17 2d 06 24 a4 19 df 2f
       -0.04138 0.07666 0.4048 0.1671 0.0795 0.01572 0.002754 0.123
0000e0 79 ad 55 a6 bf b5 0a b4 e3 23 92 31 8d b4 c8 1f
       -0.0855 -0.02473 -0.3591 -0.2524 0.0154 0.1741 -0.2844 0.0076
0000f0 33 32 56 2d 45 36 13 2d 06 a0 50 34 50 2c fc ad
       0.1937 0.0834 0.3918 0.0793 -0.00786 0.2695 0.0674 -0.0935
000100 b0 2c 45 b3 e2 b7 be b4 93 32 b3 31 36 b4 23 b9
       0.07324 -0.2272 -0.4927 -0.2964 0.2054 0.1781 -0.2632 -0.642
000110 81 32 52 bb 4f 3a bc 2d 79 28 39 b6 ea ae d1 37
       0.2032 -0.915 0.7886 0.0896 0.03494 -0.389 -0.10803 0.4885
000120 d3 16 c8 b5 42 b6 4c b2 0f 2e d1 b1 ed 32 ff 2f
       0.001666 -0.3613 -0.391 -0.1968 0.09467 -0.1818 0.2164 0.12494
000130 a5 ad 37 31 6b a5 21 35 6c 30 11 2c 3d 35 d2 30
       -0.0882 0.163 -0.02116 0.3206 0.1382 0.06354 0.3274 0.1506
000140 87 ab 57 20 39 b1 0d 2f 27 2e 57 ad 4b 9e c3 af
       -0.0588 0.00848 -0.1632 0.11017 0.0961 -0.08344 -0.006145 -0.1213
000150 4d 35 dc 32 bc b0 92 38 1f 33 dd a9 78 35 32 b0
       0.3313 0.2144 -0.148 0.5713 0.2225 -0.0458 0.3418 -0.1311
000160 d9 b1 7f af 70 37 c8 2b ae 2e 79 b2 74 b8 d6 b4
       -0.1827 -0.1171 0.4648 0.0608 0.1044 -0.2023 -0.5566 -0.3022
000170 3f 35 83 bb bc 16 22 aa bc 34 73 1f ac b6 60 a6
       0.328 -0.939 0.001644 -0.0479 0.296 0.007275 -0.417 -0.0249
000180 e4 2c 79 ae 2c b1 67 a7 f9 b7 cd 34 1d 31 eb 2e
       0.0764 -0.10114 -0.1616 -0.02892 -0.4983 0.3 0.1598 0.1081
000190 a6 ae 6a b0 6d b1 2c b2 a2 2c 99 2c 06 32 5c b2
       -0.1039 -0.138 -0.1696 -0.1929 0.0724 0.07184 0.1882 -0.1987
0001a0 d7 0d 8b 36 f9 27 e1 29 9d 24 1c b5 f4 30 4f 29
       0.0003564 0.409 0.03114 0.04593 0.01802 -0.3193 0.1548 0.04147
0001b0 5c b3 cf 34 b9 b0 c9 b1 c4 ae f0 33 d1 b7 7e a4
       -0.23 0.3005 -0.1476 -0.1808 -0.1057 0.248 -0.4885 -0.01755
0001c0 e5 34 22 3c 75 2a 35 b4 67 b1 a0 30 82 af 42 ba
       0.306 1.033 0.05045 -0.263 -0.1688 0.1445 -0.1173 -0.782
0001d0 44 b4 4f b4 52 34 f8 2c 36 2a 79 2f c2 b1 9f ad
       -0.2666 -0.2693 0.27 0.07764 0.04852 0.11676 -0.1799 -0.0878
0001e0 fb 2a 65 b5 c2 b6 77 b4 54 32 91 35 85 33 74 ad
       0.05453 -0.3372 -0.4224 -0.279 0.1978 0.348 0.235 -0.0852
0001f0 38 b5 f8 31 df 3b 92 2f 0e b0 ba ae 62 b5 20 b5
       -0.3262 0.1865 0.984 0.1183 -0.1267 -0.1051 -0.3364 -0.3203

model/lstm/while/lstm_cell_4/MatMul_7 f2 [32, 32]
000000 f4 38 b0 38 b6 38 2b b9 3a b0 43 b1 72 b0 cd 30
       0.619 0.586 0.589 -0.646 -0.1321 -0.1644 -0.1389 0.15
000010 ef b3 8b a4 64 2d 35 b7 91 35 67 a9 fe 2d e8 36
       -0.2479 -0.01775 0.0842 -0.4504 0.348 -0.0422 0.0936 0.4316
000020 a5 b3 45 28 c6 20 1f a0 5c 2d d4 ab a2 bc de 34
       -0.2389 0.03336 0.00932 -0.00805 0.08374 -0.06116 -1.158 0.3042
000030 e2 36 cd 31 49 2d 48 b1 d2 ad 75 39 cb 38 68 b4
       0.4302 0.1813 0.0826 -0.165 -0.09094 0.682 0.599 -0.2754
000040 4c b1 28 38 fb b1 19 b8 c0 b5 81 2f 26 b3 0c b4
       -0.1655 0.5195 -0.1869 -0.512 -0.3594 0.11725 -0.2234 -0.253
000050 ac b2 2c b6 50 b9 87 ab 53 ba 6b b3 10 b9 78 b3
       -0.2085 -0.3857 -0.664 -0.0588 -0.7905 -0.2318 -0.633 -0.2334
000060 9b 2e 55 b3 a2 38 ab b3 35 36 64 ad e8 b9 14 32
       0.1032 -0.2291 0.579 -0.2396 0.388 -0.0842 -0.7383 0.19
000070 9c b4 f0 35 b4 38 aa af c3 af e2 2f da b5 41 a6
       -0.288 0.371 0.588 -0.11975 -0.1213 0.12317 -0.3657 -0.02443
000080 6f 3c 5f b4 50 3c d7 b8 1b 3e c1 b2 81 b6 a5 b8
       1.108 -0.2732 1.078 -0.605 1.526 -0.211 -0.4065 -0.5806
000090 01 38 40 3b 03 b7 17 3d 1b 34 b4 38 a1 ae 10 35
       0.5005 0.9062 -0.4382 1.272 0.2566 0.588 -0.1036 0.3164
0000a0 a1 33 c2 39 9c b6 28 34 3a 30 84 3b dd 38 58 b6
       0.2384 0.7197 -0.413 0.2598 0.1321 0.9395 0.608 -0.3965
0000b0 0e 30 a1 ae e8 bb 36 3a a5 36 3f b9 cc b7 40 30
       0.1267 -0.1036 -0.9883 0.7764 0.4153 -0.656 -0.4873 0.1328
0000c0 ea b9 00 b7 51 37 a9 3e 58 2d 71 3b 21 3d b8 bc
       -0.7393 -0.4375 0.4573 1.665 0.0835 0.93 1.282 -1.18
0000d0 22 b3 1a 39 fd ba 21 b0 fe ba 2e 3e 0f b4 6a a8
       -0.2229 0.6377 -0.8735 -0.129 -0.874 1.545 -0.2537 -0.0345
0000e0 35 3a 60 38 f3 39 a6 aa 19 b9 79 bb c4 34 64 33
       0.776 0.547 0.7437 -0.05194 -0.637 -0.934 0.2979 0.231
0000f0 71 36 86 b1 d6 bd 13 b6 93 2f 7a 37 3b 30 07 3c
       0.4026 -0.1726 -1.459 -0.3796 0.11835 0.4673 0.1322 1.007
000100 1a b9 21 38 a4 34 7a 34 6d b9 93 bb a1 2e ab b6
       -0.6377 0.516 0.29 0.2798 -0.678 -0.947 0.1036 -0.4167
000110 8f ae 5c 38 7b ba 38 b8 f5 3b 65 37 88 ba df 3e
       -0.1025 0.545 -0.81 -0.5273 0.9946 0.4622 -0.8164 1.718
000120 c7 39 c3 b6 44 b0 18 bb 47 b7 e7 b2 61 38 86 2c
       0.722 -0.4226 -0.1333 -0.8867 -0.4548 -0.2157 0.5474 0.0707
000130 3e 38 8b b6 2c b4 70 b3 a9 b4 1f 30 fe b5 c9 3b
       0.5303 -0.409 -0.2607 -0.2324 -0.2913 0.1288 -0.3745 0.973
000140 43 bc 9e 37 0e 36 88 ad 41 b7 e9 bc a5 34 37 b5
       -1.065 0.476 0.3784 -0.0864 -0.4534 -1.228 0.2903 -0.326
000150 2f 36 3d 33 65 b6 0c 29 f1 34 d8 b5 83 32 2b 39
       0.3865 0.2262 -0.3997 0.03943 0.3088 -0.3652 0.2035 0.646
000160 2e 38 07 bd 22 ad f6 b2 8a b4 54 b7 42 34 ff 2e
       0.5225 -1.257 -0.0802 -0.2175 -0.2837 -0.458 0.266 0.1093
000170 38 38 34 b5 19 b4 9c 2a 78 b9 74 b2 c3 b2 f3 38
       0.5273 -0.3252 -0.256 0.05164 -0.6836 -0.2017 -0.2113 0.6187
000180 0e 2e fd b1 95 ae b9 37 7f a5 35 a8 63 2d 12 38
       0.0946 -0.1871 -0.10284 0.4827 -0.02147 -0.03287 0.08417 0.509
000190 fe b4 36 30 ce a7 ef b7 c9 33 d0 2d ca 35 0f 38
       -0.312 0.1316 -0.03049 -0.4958 0.2433 0.0908 0.3618 0.5073
0001a0 1b b1 02 34 b6 b1 ed 34 20 34 46 2a 55 b9 21 33
       -0.1595 0.2505 -0.1785 0.3079 0.2578 0.049 -0.6665 0.2228
0001b0 57 a1 8c 34 b7 a7 22 30 52 26 a1 31 82 af 85 1f
       -0.01043 0.2842 -0.03014 0.1292 0.02469 0.1759 -0.1173 0.007343
0001c0 ab b4 f3 ba 44 bb 12 b8 a1 2a 00 2e 0a b4 d0 3b
       -0.2917 -0.8687 -0.908 -0.509 0.0518 0.09375 -0.2524 0.9766
0001d0 6f b6 62 ad f1 38 da aa 2c b1 18 30 58 38 01 b9
       -0.402 -0.0841 0.6177 -0.05353 -0.1616 0.1279 0.543 -0.6255
0001e0 5f b5 38 b0 98 37 96 36 e4 b0 d2 b0 8c 38 53 ba
       -0.3357 -0.1318 0.4746 0.4116 -0.1528 -0.1506 0.5684 -0.7905
0001f0 66 31 ca 3a 34 38 11 b0 ab 30 18 bd b1 b1 b4 b6
       0.1687 0.8486 0.5254 -0.1271 0.1459 -1.273 -0.1779 -0.419

model/lstm/while/lstm_cell_4/split_1 f2 [32]
000000 ec b7 e2 b6 36 b5 b9 2a 08 b8 15 b8 29 b9 a4 ba
       -0.495 -0.4302 -0.3257 0.05252 -0.504 -0.5103 -0.645 -0.83
000010 ab b7 a9 b8 99 b8 cf b3 1d ad df b8 ce b9 39 b9
       -0.4792 -0.5825 -0.5747 -0.244 -0.0799 -0.609 -0.7256 -0.653
000020 45 b6 b7 b7 7f af 12 b4 a8 b6 6c b5 71 b7 87 b9
       -0.3918 -0.4822 -0.1171 -0.2544 -0.416 -0.3389 -0.465 -0.691
000030 da b7 19 b7 06 b8 26 3f ed b4 96 b3 b4 b8 52 b4
       -0.4907 -0.4436 -0.503 1.787 -0.3079 -0.237 -0.588 -0.27

model/lstm/while/lstm_cell_4/split_11 f2 [32]
000000 00 3d 35 3c 53 3c 4b 3f 3e 3c a8 3a 80 3c 20 3d
       1.25 1.052 1.081 1.823 1.061 0.832 1.125 1.281
000010 ab 3c 74 3b 94 3c b8 3e 53 3d f7 3a eb 3a 0b 3d
       1.167 0.9316 1.145 1.68 1.331 0.8706 0.8647 1.261
000020 86 3c 90 3c b6 3f 59 3b c8 3d 95 3c 30 3d e0 3b
       1.131 1.141 1.928 0.9185 1.445 1.1455 1.297 0.9844
000030 5a 3b 92 3c 81 3b 8d 40 dc 3c 00 3c 13 3b 50 3b
       0.919 1.143 0.938 2.275 1.215 1.0 0.8843 0.914

model/lstm/while/lstm_cell_4/split_12 f2 [32]
000000 90 34 3a b0 0c 30 02 34 4f a9 73 ae 21 b3 a0 32
       0.2852 -0.1321 0.1265 0.2505 -0.04147 -0.10077 -0.2228 0.207
000010 00 32 4c a2 a3 30 6c 9b 8f 35 5e b0 dd ac ef 32
       0.1875 -0.0123 0.1449 -0.003624 0.3474 -0.1365 -0.076 0.2167
000020 c9 b4 ad 30 91 2f e9 2e b4 34 92 35 d6 b0 ef a6
       -0.299 0.1461 0.1182 0.108 0.294 0.3481 -0.1511 -0.02708
000030 dd a4 b4 a5 a1 2d 65 38 c7 ae 3a 28 e5 b1 45 b3
       -0.019 -0.02228 0.08795 0.5493 -0.1059 0.03302 -0.1842 -0.2272

model/lstm/while/lstm_cell_4/split_13 f2 [32]
000000 2f 27 c0 b3 69 b1 e1 b6 a0 b2 f9 b3 e8 35 09 ac
       0.02806 -0.2422 -0.1691 -0.43 -0.207 -0.2491 0.3691 -0.06305
000010 5b a1 7c 28 5f 2f 24 b1 80 b7 ba b3 91 b9 99 33
       -0.01046 0.03503 0.1152 -0.1606 -0.4688 -0.2415 -0.696 0.2374
000020 23 af 8d ac 20 b6 39 ae b9 b0 dd 22 7a ae 99 ac
       -0.1115 -0.0711 -0.3828 -0.0972 -0.1476 0.013405 -0.1012 -0.07184
000030 72 b5 6d aa 33 2e 8c b5 bb a9 03 b6 4d b8 13 ab
       -0.3403 -0.0502 0.09686 -0.3467 -0.04477 -0.3757 -0.5376 -0.05527
