HPC_Final_Study2_Complete_Test_Class_Balance_run_all/participants_session_transfer_train_fresh_model/participant_20/session_4/session_4_lite_models/indexpen_model.tflite (tflite, 573028 bytes, 29 tensors)

model/time_distributed_6/conv2d_1/BiasAdd;model/time_distributed_6/conv2d_1/Conv2D;model/time_distributed_6/conv2d_1/BiasAdd/ReadVariableOp/resource f4 [16]
0.104057066 0.062441215 0.10564713 0.050108172 0.093184024 0.12564485 0.05975685 0.09097479
0.027760733 0.06560714 0.025413638 0.082753375 0.010777608 0.09100213 0.02873139 0.0735136
00000000: df1b d53d 5cc2 7f3d 865d d83d 3a3e 4d3d
00000010: 44d7 be3d 0ba9 003e 99c3 743d fe50 ba3d
00000020: 7a6a e33c 095d 863d 4330 d03c 9a7a a93d
00000030: 9094 303c 535f ba3d 185e eb3c 4c8e 963d

model/time_distributed/conv2d/BiasAdd;model/time_distributed/conv2d/Conv2D;model/time_distributed/conv2d/BiasAdd/ReadVariableOp/resource f4 [8]
-0.054681964 0.05354019 -0.030050965 0.015639713 -0.026219355 -0.116852656 -0.115177564 -0.19039004
00000000: 32fa 5fbd f54c 5b3d 712d f6bc db1e 803c
00000010: f9c9 d6bc 7250 efbd 37e2 ebbd 9bf5 42be

model/time_distributed_6/conv2d_1/Conv2D f4 [16, 3, 3, 1]
0.035683826 0.040984415 -0.06690549 0.013467119 0.02522714 -0.04133498 -0.06250734 0.040180136
0.013103081 -0.009875689 0.086546645 -0.09490726 -0.088629745 0.19304645 -0.092304066 -0.009286958
-0.12906161 0.119974054 0.06671442 -0.20150748 0.1311906 0.067260146 0.042208515 -0.10875068
-0.036144234 0.030476835 0.011211375 0.013412575 0.059827585 -0.042067543 0.00719401 -0.0103556225
-0.018075088 0.020564387 -0.031006783 0.018191341 0.020975074 -0.14875767 0.14305127 -0.015611451
0.05459274 -0.06381267 -0.033071563 0.055928733 -0.01278515 0.14133641 -0.07211942 -0.057481468
-0.05931131 -0.056657035 0.10306256 0.022689035 0.03532297 -0.05183053 0.04533435 -0.1221547
0.08804592 0.009342577 0.07731541 -0.0783409 0.011486458 0.04850945 -0.055396408 -0.08952076
0.090805575 -0.0036984715 0.039353177 -0.054466866 0.018632758 -0.0786765 0.04122411 0.024724359
-0.017452454 0.007040076 0.0042740223 0.056231078 -0.10535869 0.062453203 0.11446492 -0.18105735
0.0625091 0.049817044 -0.095600784 0.043518674 0.0193989 0.03325077 -0.0506396 0.03906254
0.004398763 -0.022283109 -0.097658165 0.17552376 -0.0896332 0.0026466264 0.069662064 -0.07363071
-0.04304494 0.14949878 -0.10506714 -0.06710757 0.22830336 -0.14468582 -0.15126511 0.11675842
0.031511743 0.12533543 -0.17247336 0.05040369 -0.09186347 0.19184661 -0.09623205 -0.09003743
0.15807617 -0.061379503 -0.08081974 0.21908067 -0.14200054 -0.010225554 0.10254751 -0.0698209
-0.0029005683 -0.13622318 0.12215478 0.00044160133 0.03793599 -0.022844546 -0.01381066 -0.024248952
0.0042263796 -0.024791898 -0.023718607 0.068746775 0.08182719 -0.13498396 0.056281667 0.0026558058
-0.024961734 0.0089755505 -0.008229982 0.028970229 0.006775143 0.07533425 -0.07955498 -0.017488247
00000000: 3429 123d 46df 273d bf05 89bd 31a5 5c3c
00000010: 26a9 ce3c de4e 29bd d903 80bd ed93 243d
00000020: 4eae 563c a4cd 21bc 5e3f b13d bd5e c2bd
00000030: 8383 b5bd f8ad 453e ea09 bdbd 5328 18bc
00000040: ba28 04be f5b4 f53d 92a1 883d fa57 4ebe
00000050: d456 063e b0bf 893d d6e2 2c3d adb8 debd
00000060: fa0b 14bd 8eaa f93c eaaf 373c 6bc0 5b3c
00000070: c50d 753d 044f 2cbd bbbb eb3b a1aa 29bc
00000080: 3512 94bc a576 a83c f001 febc 0206 953c
00000090: ebd3 ab3c ee53 18be 087c 123e 2cc7 7fbc
000000a0: a39c 5f3d 38b0 82bd 0c76 07bd 8715 653d
000000b0: ce78 51bc 7eba 103e 59b3 93bd b071 6bbd
000000c0: 6bf0 72bd 3511 68bd 7712 d33d 5bde b93c
000000d0: d2ae 103d 404c 54bd 83b0 393d 3e2c fabd
000000e0: 6b51 b43d 9c11 193c 8b57 9e3d 3271 a0bd
000000f0: b231 3c3c d8b1 463d 58e7 62bd a956 b7bd
00000100: 46f8 b93d 0e62 72bb cc30 213d a618 5fbd
00000110: baa3 983c 2521 a1bd 9dda 283d bd8a ca3c
00000120: 73f8 8ebc 70b0 e63b 190d 8c3b 8f52 663d
00000130: 4cc6 d7bd eece 7f3d 956c ea3d 1967 39be
00000140: c504 803d f50c 4c3d 58ca c3bd a340 323d
00000150: 71ea 9e3c f631 083d 786b 4fbd 0b00 203d
00000160: 8023 903b 118b b6bc 0101 c8bd 80bc 333e
00000170: 9c91 b7bd 0673 2d3b fcaa 8e3d b3cb 96bd
00000180: e44f 30bd 3516 193e 712d d7bd b26f 89bd
00000190: 5bc8 693e 8528 14be 3ee5 1abe 0a1f ef3d
000001a0: 7512 013d ee57 003e db9c 30be 1a74 4e3d
000001b0: ea22 bcbd 7073 443e 4f15 c5bd 8b65 b8bd
000001c0: b8de 213e 1369 7bbd d284 a5bd af56 603e
000001d0: 9768 11be 1589 27bc 6e04 d23d 43fe 8ebd
000001e0: 7617 3ebb 177e 0bbe 492c fa3d ba86 e739
000001f0: c562 1b3d 7c24 bbbc 1b46 62bc bda5 c6bc
00000200: 717d 8a3b 6118 cbbc 864d c2bc 1ccb 8c3d
00000210: 0495 a73d 3c39 0abe 9b87 663d 070d 2e3b
00000220: 8d7c ccbc 300e 133c 0cd7 06bc f952 ed3c
00000230: 0502 de3b d848 9a3d b9ed a2bd 8343 8fbc

model/time_distributed/conv2d/Conv2D f4 [8, 3, 3, 1]
-0.004660816 -0.016763886 -0.0010895377 0.003461164 -0.010605535 0.0020837546 -0.0026655016 0.001394189
-0.0059590354 0.005572917 -0.020016598 0.008930881 -0.0048230225 0.017569026 0.00039639566 -0.008799846
-0.017144 -0.005027157 -0.0027383177 0.004594047 -0.011336066 -0.0056654126 -0.018837513 0.006852308
-0.00478876 0.015409999 -0.019792534 0.004322172 0.0026893257 0.015734402 -0.0001537815 -0.014790953
-0.011994781 -0.017468866 -0.008841192 0.005173953 -0.00077192753 -0.0061359922 0.026797157 0.0008589047
-0.011435 -0.0133588705 -0.007746464 0.0136304395 0.00081012415 -0.0011445314 -0.0023491438 -0.0011951975
0.014924684 -0.008664035 0.004486192 0.0152321905 0.0012722039 0.0029977032 0.014127263 -0.016174302
0.007773028 0.010720244 -0.0062240507 -0.006035212 0.0020807649 -0.0016841305 -0.0037346233 -0.007415741
-0.0030276503 -0.002911877 -0.009398578 0.009789278 0.017960439 0.0012921736 0.004199889 0.003937104
00000000: c2b9 98bb 6b54 89bc d2ce 8eba b2d4 623b
00000010: d6c2 2dbc 9a8f 083b b2af 2ebb 38bd b63a
00000020: 0344 c3bb 049d b63b d9f9 a3bc d452 123c
00000030: 720a 9ebb ebec 8f3c 53d3 cf39 3b2d 10bc
00000040: 9371 8cbc d9ba a4bb 5975 33bb a989 963b
00000050: e8ba 39bc eda4 b9bb 2151 9abc 5389 e03b
00000060: 08eb 9cbb 387a 7c3c f423 a2bc 02a1 8d3b
00000070: 663f 303b 6fe5 803c 6840 21b9 c155 72bc
00000080: c285 44bc de1a 8fbc a6da 10bc 438a a93b
00000090: 2e5b 4aba 6f10 c9bb b685 db3c 1e28 613a
000000a0: de59 3bbc 2adf 5abc 0dd6 fdbb 3552 5f3c
000000b0: 835e 543a 1a04 96ba 18f4 19bb 2ca8 9cba
000000c0: a986 743c 99f3 0dbc e800 933b 7090 793c
000000d0: 14c0 a63a 1d75 443b 0976 673c f87f 84bc
000000e0: e3b4 fe3b f6a3 2f3c 1ff3 cbbb 07c3 c5bb
000000f0: 715d 083b 0bbe dcba 95c0 74bb bfff f2bb
00000100: 8b6b 46bb 30d5 3ebb 7efc 19bc 3563 203c
00000110: c521 933c 275e a93a 399f 893b d202 813b

model/lstm/TensorArrayV2_1 f4 [120, 1, 32]
0.0 0.0 0.0 0.0 0.0 0.0 0.0 0.0
0.0 0.0 0.0 0.0 0.0 0.0 0.0 0.0
0.0 0.0 0.0 0.0 0.0 0.0 0.0 0.0
0.0 0.0 0.0 0.0 0.0 0.0 0.0 0.0
0.0 0.0 0.0 0.0 0.0 0.0 0.0 0.0
0.0 0.0 0.0 0.0 0.0 0.0 0.0 0.0
0.0 0.0 0.0 0.0 0.0 0.0 0.0 0.0
0.0 0.0 0.0 0.0 0.0 0.0 0.0 0.0
0.0 0.0 0.0 0.0 0.0 0.0 0.0 0.0
0.0 0.0 0.0 0.0 0.0 0.0 0.0 0.0
0.0 0.0 0.0 0.0 0.0 0.0 0.0 0.0
0.0 0.0 0.0 0.0 0.0 0.0 0.0 0.0
0.0 0.0 0.0 0.0 0.0 0.0 0.0 0.0
0.0 0.0 0.0 0.0 0.0 0.0 0.0 0.0
0.0 0.0 0.0 0.0 0.0 0.0 0.0 0.0
0.0 0.0 0.0 0.0 0.0 0.0 0.0 0.0
0.0 0.0 0.0 0.0 0.0 0.0 0.0 0.0
0.0 0.0 0.0 0.0 0.0 0.0 0.0 0.0
0.0 0.0 0.0 0.0 0.0 0.0 0.0 0.0
0.0 0.0 0.0 0.0 0.0 0.0 0.0 0.0
0.0 0.0 0.0 0.0 0.0 0.0 0.0 0.0
0.0 0.0 0.0 0.0 0.0 0.0 0.0 0.0
0.0 0.0 0.0 0.0 0.0 0.0 0.0 0.0
0.0 0.0 0.0 0.0 0.0 0.0 0.0 0.0
0.0 0.0 0.0 0.0 0.0 0.0 0.0 0.0
0.0 0.0 0.0 0.0 0.0 0.0 0.0 0.0
0.0 0.0 0.0 0.0 0.0 0.0 0.0 0.0
0.0 0.0 0.0 0.0 0.0 0.0 0.0 0.0
0.0 0.0 0.0 0.0 0.0 0.0 0.0 0.0
0.0 0.0 0.0 0.0 0.0 0.0 0.0 0.0
0.0 0.0 0.0 0.0 0.0 0.0 0.0 0.0
0.0 0.0 0.0 0.0 0.0 0.0 0.0 0.0
00000000: 0000 0000 0000 0000 0000 0000 0000 0000
00000010: 0000 0000 0000 0000 0000 0000 0000 0000
00000020: 0000 0000 0000 0000 0000 0000 0000 0000
00000030: 0000 0000 0000 0000 0000 0000 0000 0000
00000040: 0000 0000 0000 0000 0000 0000 0000 0000
00000050: 0000 0000 0000 0000 0000 0000 0000 0000
00000060: 0000 0000 0000 0000 0000 0000 0000 0000
00000070: 0000 0000 0000 0000 0000 0000 0000 0000
00000080: 0000 0000 0000 0000 0000 0000 0000 0000
00000090: 0000 0000 0000 0000 0000 0000 0000 0000
000000a0: 0000 0000 0000 0000 0000 0000 0000 0000
000000b0: 0000 0000 0000 0000 0000 0000 0000 0000
000000c0: 0000 0000 0000 0000 0000 0000 0000 0000
000000d0: 0000 0000 0000 0000 0000 0000 0000 0000
000000e0: 0000 0000 0000 0000 0000 0000 0000 0000
000000f0: 0000 0000 0000 0000 0000 0000 0000 0000
00000100: 0000 0000 0000 0000 0000 0000 0000 0000
00000110: 0000 0000 0000 0000 0000 0000 0000 0000
00000120: 0000 0000 0000 0000 0000 0000 0000 0000
00000130: 0000 0000 0000 0000 0000 0000 0000 0000
00000140: 0000 0000 0000 0000 0000 0000 0000 0000
00000150: 0000 0000 0000 0000 0000 0000 0000 0000
00000160: 0000 0000 0000 0000 0000 0000 0000 0000
00000170: 0000 0000 0000 0000 0000 0000 0000 0000
00000180: 0000 0000 0000 0000 0000 0000 0000 0000
00000190: 0000 0000 0000 0000 0000 0000 0000 0000
000001a0: 0000 0000 0000 0000 0000 0000 0000 0000
000001b0: 0000 0000 0000 0000 0000 0000 0000 0000
000001c0: 0000 0000 0000 0000 0000 0000 0000 0000
000001d0: 0000 0000 0000 0000 0000 0000 0000 0000
000001e0: 0000 0000 0000 0000 0000 0000 0000 0000
000001f0: 0000 0000 0000 0000 0000 0000 0000 0000
00000200: 0000 0000 0000 0000 0000 0000 0000 0000
00000210: 0000 0000 0000 0000 0000 0000 0000 0000
00000220: 0000 0000 0000 0000 0000 0000 0000 0000
00000230: 0000 0000 0000 0000 0000 0000 0000 0000
00000240: 0000 0000 0000 0000 0000 0000 0000 0000
00000250: 0000 0000 0000 0000 0000 0000 0000 0000
00000260: 0000 0000 0000 0000 0000 0000 0000 0000
00000270: 0000 0000 0000 0000 0000 0000 0000 0000
00000280: 0000 0000 0000 0000 0000 0000 0000 0000
00000290: 0000 0000 0000 0000 0000 0000 0000 0000
000002a0: 0000 0000 0000 0000 0000 0000 0000 0000
000002b0: 0000 0000 0000 0000 0000 0000 0000 0000
000002c0: 0000 0000 0000 0000 0000 0000 0000 0000
000002d0: 0000 0000 0000 0000 0000 0000 0000 0000
000002e0: 0000 0000 0000 0000 0000 0000 0000 0000
000002f0: 0000 0000 0000 0000 0000 0000 0000 0000
00000300: 0000 0000 0000 0000 0000 0000 0000 0000
00000310: 0000 0000 0000 0000 0000 0000 0000 0000
00000320: 0000 0000 0000 0000 0000 0000 0000 0000
00000330: 0000 0000 0000 0000 0000 0000 0000 0000
00000340: 0000 0000 0000 0000 0000 0000 0000 0000
00000350: 0000 0000 0000 0000 0000 0000 0000 0000
00000360: 0000 0000 0000 0000 0000 0000 0000 0000
00000370: 0000 0000 0000 0000 0000 0000 0000 0000
00000380: 0000 0000 0000 0000 0000 0000 0000 0000
00000390: 0000 0000 0000 0000 0000 0000 0000 0000
000003a0: 0000 0000 0000 0000 0000 0000 0000 0000
000003b0: 0000 0000 0000 0000 0000 0000 0000 0000
000003c0: 0000 0000 0000 0000 0000 0000 0000 0000
000003d0: 0000 0000 0000 0000 0000 0000 0000 0000
000003e0: 0000 0000 0000 0000 0000 0000 0000 0000
000003f0: 0000 0000 0000 0000 0000 0000 0000 0000

model/dense_2/BiasAdd/ReadVariableOp/resource f4 [256]
0.08649014 0.09694282 0.13194771 0.0755213 0.060831312 0.039787028 0.08940358 0.064685225
0.11704543 0.07196584 -0.0021615515 0.07233775 0.08402051 0.033545177 0.064053215 0.062320124
0.10066073 0.063878715 0.11116767 0.13757716 0.13595374 0.07980163 0.07448382 0.12905648
0.11315919 0.08566165 0.033024266 -0.03334807 0.085768074 0.0675889 0.117257684 0.10525115
0.11325022 0.084912576 0.056837544 0.11825916 0.11560862 0.08141079 0.04527249 0.013604193
-0.034044955 0.09635269 0.09592748 0.059599694 0.029431552 0.014763949 0.113169566 0.059377164
0.07154508 0.08982923 0.12658973 0.101616554 0.031005092 0.04057519 0.04989415 0.1021261
0.046077244 0.09119633 0.12602167 0.097622596 0.05759901 0.06286422 0.040623568 0.07164714
0.08672614 0.031437412 0.11292268 0.042841062 0.0440068 0.04640105 0.07492851 0.06694753
0.025305182 0.031305324 0.10787897 0.12955332 0.08741712 0.061334997 0.13283066 0.02706338
0.06411144 0.053683598 0.079202935 0.049004015 0.05905464 0.07018147 0.059195552 0.07817229
0.13909084 0.12624003 0.06145084 0.052268464 0.06586021 0.0676909 0.05803168 0.10994045
0.007815924 0.13852409 0.07364679 0.08152648 0.060589153 0.11274249 0.062232472 0.020854216
0.030031992 0.06650018 0.054234385 0.10488922 0.02698314 0.037159543 0.015937554 0.10419904
0.014639052 0.041708 0.11057852 0.06923983 0.039698012 0.034734745 0.047023553 0.12839556
0.06455761 0.08240701 0.06541976 0.06698602 0.08844585 0.03657012 0.047375344 0.080622524
0.044711784 0.075186744 0.051168375 0.052890047 0.19054765 0.0041340757 0.08658419 0.11630887
0.07713629 0.12497642 0.06660129 0.11754156 0.050626628 -0.050760172 0.056917258 0.073486954
0.060038168 0.02952128 0.0943683 0.08941917 0.0485531 0.05737658 0.08043893 0.09537249
0.053372737 0.0994472 0.021634776 0.08404748 0.06230723 0.07361154 0.13207293 0.0024204883
0.070227206 0.06337778 0.076685525 0.10664658 0.07467416 0.043936163 0.035928678 0.048218183
0.033320203 0.044610724 0.08495798 0.119129896 0.09031158 0.117968015 0.11306482 0.051298182
0.056142252 0.0724462 0.12504436 0.054188956 0.020082911 0.10781123 0.025933089 0.07497741
0.0008050909 0.08209802 0.067190856 0.06457301 0.09575702 0.002196476 0.113128856 0.10694354
0.079704 0.016758652 0.011197543 0.10835131 0.045729745 0.036770754 0.067713134 0.07733497
0.07810206 0.15767948 -0.009542524 0.05025832 0.038562432 0.05309376 0.11245195 0.04787988
0.053335786 0.08908301 0.111310445 0.117605515 0.09269273 0.05857018 0.04244537 0.09574383
0.073879436 0.055134553 0.07700132 0.006198664 0.050640766 0.10112212 0.050551444 0.028370682
0.14013286 0.079854704 0.09518356 0.10223626 0.06017431 0.04537533 0.07614253 0.09330636
0.1308851 0.071991265 0.027855221 0.032720983 0.026665961 0.15011483 0.03482937 0.09518532
0.017443247 0.101167805 0.08838512 0.09962927 0.03273478 0.025878934 0.1448429 0.057565335
0.0036686375 0.07119186 0.12664914 0.05641694 0.024572253 0.06584323 -0.0077504735 0.036537927
00000000: be21 b13d f589 c63d 4d1d 073e e9aa 9a3d
00000010: 412a 793d b9f7 223d 3919 b73d b079 843d
00000020: 84b5 ef3d d462 933d d1a8 0dbb d025 943d
00000030: f212 ac3d ab66 093d 552e 833d 6343 7f3d
00000040: 3627 ce3d d8d2 823d e0ab e33d 07e1 0c3e
00000050: 7537 0b3e 096f a33d f98a 983d 6227 043e
00000060: 01c0 e73d 606f af3d 7444 073d fc97 08bd
00000070: 2ca7 af3d 0d6c 8a3d cc24 f03d ea8d d73d
00000080: bbef e73d a5e6 ad3d 7cce 683d dc31 f23d
00000090: 36c4 ec3d b3ba a63d a56f 393d 1fe4 5e3c
000000a0: b972 0bbd 8f54 c53d a075 c43d cf1e 743d
000000b0: 701a f13c 7ee4 713c 72c5 e73d 7835 733d
000000c0: 3a86 923d 63f8 b73d bda0 013e 571c d03d
000000d0: 64fe fd3c 2c32 263d cf5d 4c3d 7d27 d13d
000000e0: 7ebb 3c3d 24c5 ba3d d30b 013e 5bee c73d
000000f0: f1ec 6b3d f5be 803d e664 263d bcbb 923d
00000100: 799d b13d 84c4 003d 0244 e73d 1c7a 2f3d
00000110: 7940 343d 070f 3e3d 1e74 993d c91b 893d
00000120: d04c cf3c 033a 003d a6ef dc3d a0a9 043e
00000130: bf07 b33d 683a 7b3d c304 083e 06b4 dd3c
00000140: dc4c 833d 55e3 5b3d 2635 a23d 6fb8 483d
00000150: 47e3 713d 4dbb 8f3d 0977 723d cb18 a03d
00000160: d46d 0e3e 1145 013e e0b3 7b3d 7517 563d
00000170: b8e1 863d 87a1 8a3d a0b2 6d3d 7528 e13d
00000180: 5c0e 003c 42d9 0d3e 21d4 963d 5bf7 a63d
00000190: 552c 783d 89e5 e63d 7ae7 7e3d 76d6 aa3c
000001a0: a705 f63c 3f31 883d e024 5e3d 29d0 d63d
000001b0: bf0b dd3c 9b34 183d 798f 823c 4e66 d53d
000001c0: a2d8 6f3c 02d6 2a3d fe76 e23d 9dcd 8d3d
000001d0: 629a 223d 0546 0e3d c59b 403d 207a 033e
000001e0: c836 843d 02c5 a83d ccfa 853d f72f 893d
000001f0: 1923 b53d 8dca 153d a60c 423d 6c1d a53d
00000200: b423 373d 82fb 993d ee95 513d 3ca3 583d
00000210: ec1e 433e 2477 873b 0d53 b13d 5833 ee3d
00000220: a2f9 9d3d a3f3 ff3d 4266 883d a1b9 f03d
00000230: de5d 4f3d e6e9 4fbd 1222 693d 5480 963d
00000240: 95ea 753d 9dd6 f13c 2b44 c13d 6621 b73d
00000250: 9edf 463d b403 6b3d 2abd a43d a752 c33d
00000260: 5f9d 5a3d f9aa cb3d 6a3b b13c 1621 ac3d
00000270: de35 7f3d a6c1 963d 203e 073e 0ea1 1e3b
00000280: 48d3 8f3d 36cc 813d 4d0d 9d3d 8669 da3d
00000290: c4ee 983d 68f6 333d f329 133d 6e80 453d
000002a0: c47a 083d bcb9 363d 73fe ad3d 60fa f33d
000002b0: 47f5 b83d 3799 f13d 878e e73d 0b1e 523d
000002c0: 6bf5 653d ac5e 943d a10b 003e 3df5 5d3d
000002d0: eb84 a43c 22cc dc3d a171 d43c c28d 993d
000002e0: bc0c 533a 0223 a83d 5c9b 893d db3e 843d
000002f0: 421c c43d c1f2 0f3b 1ab0 e73d 3705 db3d
00000300: da3b a33d 7149 893c e675 373c 4be7 dd3d
00000310: 1d4f 3b3d ee9c 163d 2fad 8a3d cc61 9e3d
00000320: f9f3 9f3d bb76 213e 3f58 1cbc abdb 4d3d
00000330: a4f3 1d3d d878 593d 354d e63d b11d 443d
00000340: a076 5a3d 2771 b63d bbf6 e33d 29db f03d
00000350: b0d5 bd3d 49e7 6f3d 32db 2d3d 5715 c43d
00000360: 1a4e 973d c5d4 613d deb2 9d3d 2a1e cb3b
00000370: b16c 4f3d 1d19 cf3d 080f 4f3d a269 e83c
00000380: fd7e 0f3e dd8a a33d 99ef c23d 3f61 d13d
00000390: 5679 763d 7bdb 393d 9df0 9b3d 6817 bf3d
000003a0: be06 063e 2870 933d a230 e43c 7006 063d
000003b0: 9372 da3c b4b7 193e 3ea9 0e3d 85f0 c23d
000003c0: 24e5 8e3c 1131 cf3d 4203 b53d 6e0a cc3d
000003d0: e814 063d 0f00 d43c b251 143e a1c9 6b3d
000003e0: 866d 703b 0acd 913d 50b0 013e 7315 673d
000003f0: c04b c93c d1d8 863d aff7 fdbb cba8 153d

model/last_layer/BiasAdd/ReadVariableOp/resource f4 [31]
0.016299361 -0.0012015487 0.0040402804 -0.0046751015 0.0048378618 -0.0012718567 -0.0047703483 0.0026308459
-0.026977556 -0.007735459 0.00782789 0.014820485 -0.009527325 0.013177167 -0.0033967455 0.011437212
-0.0004999355 0.013532204 0.009127679 0.0015868568 -0.007697318 -0.0055566328 0.006125068 -0.025818685
-0.007065744 -0.0023793923 -0.010027084 -0.004864092 -0.027399832 -0.023728436 0.0036179116
00000000: 3d86 853c 497d 9dba 5464 843b 9831 99bb
00000010: ed86 9e3b 6eb4 a6ba 9550 9cbb 456a 2c3b
00000020: 0900 ddbc bc79 fdbb 8d40 003c 9fd1 723c
00000030: 7f18 1cbc 0be5 573c ef9b 5ebb 2563 3b3c
00000040: 1a0e 03ba 2db6 5d3c 438c 153c 14fe cf3a
00000050: c939 fcbb 6a14 b6bb cbb4 c83b b581 d3bc
00000060: c287 e7bb 94ef 1bbb a348 24bc f662 9fbb
00000070: 9d75 e0bc 2362 c2bc 7c1a 6d3b

model/time_distributed_11/dense_1/BiasAdd/ReadVariableOp/resource f4 [64]
-0.01682201 -0.05586813 0.012315559 -0.0010380441 -0.00965056 -0.057742212 -0.016515149 -0.03275668
-0.045895718 -0.0049571223 -0.01226398 -0.0053561567 -0.013665488 -0.031250343 -0.023595596 -0.054537706
-0.034470875 -0.0089303125 -0.0705209 -0.007571534 0.02327526 -0.040187687 -0.03947861 -0.032117017
-0.02291021 -0.020597883 -0.017887225 -0.030974912 -0.03560017 -0.029275585 -0.0271363 -0.02638885
-0.017902877 -0.02794094 -0.028447289 -0.061138786 -0.03647504 0.0014156348 -0.045261387 0.0024457036
-0.012586766 -0.04897026 -0.0077974526 -0.0035307677 -0.043672267 -0.024862409 0.02550947 -0.039618228
-0.044166677 -0.055842735 -0.061217785 -0.029319441 -0.01346904 -0.06120396 -0.020306904 -0.012496343
-0.021210305 -0.017343618 -0.008288446 0.00904987 -0.021278325 -0.0029262356 -0.083685204 -0.018973757
00000000: 50ce 89bc fbd5 64bd 33c7 493c fb0e 88ba
00000010: 621d 1ebc 1983 6cbd c74a 87bc de2b 06bd
00000020: 26fd 3bbd 5b6f a2bb dcee 48bc b382 afbb
00000030: 36e5 5fbc 5c00 00bd 8d4b c1bc ee62 5fbd
00000040: 5531 0dbd 7250 12bc 436d 90bd a11a f8bb
00000050: c2ab be3c d89b 24bd 53b4 21bd 228d 03bd
00000060: 31ae bbbc e4bc a8bc 3b88 92bc 19bf fdbc
00000070: 7cd1 11bd 5ad3 efbc f24c debc 6e2d d8bc
00000080: 0ea9 92bc 66e4 e4bc 4a0a e9bc aa6c 7abd
00000090: da66 15bd d28c b93a 0164 39bd 1948 203b
000000a0: b938 4ebc 0a95 48bd c681 ffbb 7464 67bb
000000b0: b1e1 32bd 40ac cbbc 3cf9 d03c b946 22bd
000000c0: 1ee8 34bd 5abb 64bd 80bf 7abd 532f f0bc
000000d0: 40ad 5cbc 01b1 7abd aa5a a6bc 76bd 4cbc
000000e0: 3cc1 adbc 3414 8ebc 43cc 07bc e845 143c
000000f0: e24f aebc 16c6 3fbb 2663 abbd da6e 9bbc

model/time_distributed_5/dense/BiasAdd/ReadVariableOp/resource f4 [32]
-0.0005615104 -0.02425831 0.058682118 -0.004924944 -0.014870777 0.026860623 -0.027856044 -0.00358105
0.040575664 -0.033977948 -0.011068897 -0.032661326 -0.004982875 -0.002946192 -0.03885176 0.016962705
-0.0211719 -0.0319211 -0.051379487 -0.026475746 -0.06565904 -0.028141884 -0.03490397 -0.045001797
-0.03976789 -0.06984023 0.0023053451 -0.04608738 0.009932297 -0.004078897 -0.033515375 -0.044170655
00000000: 5332 13ba 5db9 c6bc a95c 703d 6d61 a1bb
00000010: 8fa4 73bc cf0a dc3c 5c32 e4bc 0db0 6abb
00000020: ab32 263d 762c 0bbd 525a 35bc e2c7 05bd
00000030: 6347 a3bb e614 41bb 0623 1fbd 5ff5 8a3c
00000040: b170 adbc b3bf 02bd 4c73 52bd aae3 d8bc
00000050: 3f78 86bd cf89 e6bc 77f7 0ebd ce53 38bd
00000060: a8e3 22bd 6508 8fbd 4615 173b 1fc6 3cbd
00000070: 13bb 223c 45a8 85bb 6b47 09bd 4aec 34bd

model/dense_2/MatMul f4 [256, 32]
-0.016974146 -0.061478857 0.1239304 0.051239874 0.104080096 -0.17450915 -0.19485897 0.18475896
0.20306982 -0.09665293 -0.09284885 0.19117372 0.07226201 0.16740707 -0.011824976 0.04956593
0.08441714 -0.23496604 0.08862962 -0.13326912 -0.03161707 0.16302826 -0.06897335 -0.24496157
-0.032475296 0.12337451 -0.09050008 0.03265151 -0.12367166 -0.078778856 -0.2033745 0.18780811
-0.06712683 0.14344941 -0.032845415 -0.00275012 -0.37093046 -0.04638294 -0.1624789 0.2841646
0.0076371557 -0.040767767 -0.18826802 0.019063156 0.12522744 0.021928411 -0.16445011 0.0132537
-0.1910162 0.04577464 0.27482098 0.23856704 0.10047283 -0.32146242 -0.044074178 -0.0028589712
-0.102772355 -0.06528492 -0.2524433 -0.024288617 -0.037404455 -0.18422304 -0.08777179 0.1084228
0.16093853 0.16923702 0.1583343 -0.19633363 -0.03455902 0.093273036 0.020330835 -0.038717154
0.04565536 0.11962188 -0.13312532 0.008901731 0.0070808385 0.010879035 -0.021685645 0.069993444
-0.06536334 0.24994658 -0.039727423 -0.0916684 0.3393369 0.06676431 -0.080932766 0.06556553
-0.18379158 0.057426408 -0.07800685 0.28615326 -0.05654522 0.0848652 0.34798497 -0.024209889
-0.1586467 0.29471546 0.010244167 -0.06988212 -0.015788272 0.011342006 0.0006782701 0.019777859
-0.058270723 -0.15892813 0.33542073 0.061794944 -0.062464245 -0.049722243 0.13789092 -0.2155637
0.058909386 0.2414837 0.18958199 0.0362284 -0.019879095 -0.11359284 0.055691052 -0.0013904935
-0.25136882 0.17866609 0.13417882 0.09147693 -0.28855807 0.060656406 -0.36762685 0.16093902
0.013986522 0.21026567 -0.12384126 -0.25534832 0.0071111093 -0.09647876 -0.18290457 0.3242178
0.14862126 -0.36908367 0.101356395 0.05552523 0.111586824 0.0613545 0.074767396 0.15903577
0.057923228 -0.33440062 0.008406433 -0.15778483 0.13435876 0.20122887 -0.015433478 -0.09180891
0.048739117 0.15221837 0.031220932 0.14529762 0.10959804 -0.13739999 -0.10874635 0.103860706
-0.07716726 0.08162274 -0.17682251 -0.14839916 0.021010622 -0.08412797 -0.20881473 0.28421086
0.14534838 -0.2777193 -0.049894124 0.040624484 0.1651965 0.11046055 -0.0078045926 0.13248041
-0.014167118 -0.11974305 0.34506795 -0.020660048 -0.013974889 0.13711415 -0.180597 0.016881559
-0.10038298 0.104479246 -0.15927722 0.019808892 0.13754214 -0.136401 0.22063424 0.32523936
0.030122317 -0.034356967 0.17039019 -0.057797786 0.14984453 -0.07036622 0.07162865 -0.06441839
0.07587779 0.31202975 -0.16645078 0.07062163 -0.18027681 -0.1640398 0.049899627 -0.2970237
0.0836318 0.02310388 -0.16449721 -0.13318138 0.08705775 0.27042016 -0.097143576 0.1361687
-0.20366237 -0.040122077 0.25978982 0.14975734 0.10842626 0.08274441 0.08237887 -0.28740138
-0.04070102 0.38743734 -0.18432786 -0.31641462 0.06473955 -0.1056035 -0.22844036 0.21532696
0.14370066 -0.30434674 -0.12504384 0.1972691 -0.021251412 -0.16349147 0.12877306 -0.03022011
-0.08457583 0.030338954 -0.0033527259 0.01397079 0.11624731 0.11356269 -0.18316148 -0.11387154
-0.058246158 0.14713942 -0.08835549 0.0026769359 -0.110298075 -0.0026236644 0.078485206 0.01305666
00000000: 5d0d 8bbc 41d1 7bbd 39cf fd3d e7e0 513d
00000010: f227 d53d 87b2 32be 1c89 47be 7431 3d3e
00000020: 89f1 4f3e f9f1 c5bd 8a27 bebd 0bc3 433e
00000030: 1bfe 933d c26c 2b3e 8bbd 41bc a505 4b3d
00000040: e5e2 ac3d f09a 70be 7283 b53d b377 08be
00000050: e780 01bd e1f0 263e e641 8dbd 35d7 7abe
00000060: d104 05bd c6ab fc3d 1b58 b9bd 97bd 053d
00000070: 9147 fdbd cf56 a1bd 6841 50be c550 403e
00000080: cb79 89bd 67e4 123e ea88 06bd 5b3b 34bb
00000090: 99ea bdbe 0afc 3dbd de60 26be 067e 913e
000000a0: 1b41 fa3b 1afc 26bd 55c9 40be 562a 9c3c
000000b0: 9f3b 003e 36a3 b33c 9c65 28be 0c26 593c
000000c0: c099 43be 307e 3b3d 56b5 8c3e eb4a 743e
000000d0: b3c4 cd3d b996 a4be 2087 34bd 945d 3bbb
000000e0: 507a d2bd 1ab4 85bd 4040 81be ecf8 c6bc
000000f0: 6a35 19bd f7a4 3cbe b2c1 b3bd c60c de3d
00000100: 12cd 243e 784c 2d3e 6322 223e af0b 49be
00000110: c28d 0dbd ef05 bf3d da8c a63c e195 1ebd
00000120: 1d01 3b3d 51fc f43d 0152 08be 91d8 113c
00000130: 6106 e83b fb3d 323c 18a6 b1bc b958 8f3d
00000140: 37dd 85bd fff1 7f3e 39b9 22bd a4bc bbbd
00000150: 91bd ad3e babb 883d 14c0 a5bd 3847 863d
00000160: dc33 3cbe f437 6b3d 0ec2 9fbd ae82 923e
00000170: f69b 67bd cecd ad3d 162b b23e d153 c6bc
00000180: 4874 22be f2e4 963e 27d7 273c 5b1e 8fbd
00000190: 6856 81bc d2d3 393c f0cd 313a 2d05 a23c
000001a0: 48ad 6ebd 0ebe 22be 44bc ab3e b21c 7d3d
000001b0: 82da 7fbd 8da9 4bbd 4733 0d3e bbbc 5cbe
000001c0: f84a 713d 8147 773e c821 423e 3b64 143d
000001d0: 7cd9 a2bc 5da3 e8bd 4d1c 643d 3841 b6ba
000001e0: 6ab3 80be 3ef4 363e 2c66 093e 4258 bb3d
000001f0: e2bd 93be da72 783d 9639 bcbe 33cd 243e
00000200: ba27 653c e24f 573e 7da0 fdbd 04bd 82be
00000210: 4f04 e93b a896 c5bd 564b 3bbe e0ff a53e
00000220: 2c30 183e 89f8 bcbe f193 cf3d 6c6e 633d
00000230: a287 e43d db4e 7b3d a61f 993d 46da 223e
00000240: e840 6d3d 8f36 abbe 23bb 093c 5992 21be
00000250: 5895 093e f10e 4e3e b3dc 7cbc 4f06 bcbd
00000260: aba2 473d 22df 1b3e 0ac3 ff3c e6c8 143e
00000270: f074 e03d 95b2 0cbe 68b6 debd ecb4 d43d
00000280: de09 9ebd d329 a73d f610 35be f3f5 17be
00000290: 781e ac3c 494b acbd 87d3 55be 1684 913e
000002a0: 35d6 143e 3931 8ebe c85d 4cbd dc65 263d
000002b0: 4529 293e 2439 e23d abbd ffbb f2a8 073e
000002c0: 331d 68bc d83b f5bd bfac b03e 433f a9bc
000002d0: eff6 64bc a767 0c3e 6cee 38be 324b 8a3c
000002e0: 9895 cdbd 37f9 d53d 9119 23be 4246 a23c
000002f0: d9d7 0c3e b4ac 0bbe f1ed 613e c685 a63e
00000300: 14c3 f63c e4b9 0cbd c47a 2e3e 5fbd 6cbd
00000310: d870 193e 2a1c 90bd 0bb2 923d caed 83bd
00000320: d165 9b3d 5dc2 9f3e 1372 2abe 13a2 903d
00000330: 7c9a 38be 0dfa 27be 8d63 4c3d 7e13 98be
00000340: 2647 ab3d 5944 bd3c f571 28be b360 08be
00000350: 554b b23d 8374 8a3e 36f3 c6bd cf6f 0b3e
00000360: de8c 50be 0c57 24bd 2c03 853e fd59 193e
00000370: 960e de3d e775 a93d 41b6 a83d 4626 93be
00000380: 1db6 26bd 305e c63e 71c0 3cbe 1901 a2be
00000390: 2b96 843d a646 d8bd 45ec 69be ac7e 5c3e
000003a0: 4426 133e 56d3 9bbe 7e0b 00be e900 4a3e
000003b0: 7117 aebc 4f6a 27be 16dd 033e 2a90 f7bc
000003c0: 1836 adbd 6689 f83c 68b9 5bbb bee5 643c
000003d0: 1213 ee3d 8e93 e83d af8e 3bbe 7b35 e9bd
000003e0: 8693 6ebd b7ab 163e b9f3 b4bd 886f 2f3b
000003f0: f5e3 e1bd c9f1 2bbb dabc a03d 9aeb 553c

model/last_layer/MatMul f4 [31, 256]
0.11168268 0.01774334 -0.15515809 -0.050643377 0.096041255 0.044523302 -0.11354809 0.098001964
-0.08476523 -0.15399057 0.013147793 0.013735565 0.011016423 -0.029868715 -0.046532385 0.034896147
-0.030015027 -0.057940654 -0.15663807 -0.21096417 -0.093803786 -0.031202463 -0.18424788 -0.019229991
0.077347696 -0.1104317 -0.095627755 -0.06903749 0.082862124 -0.15034707 -0.195123 -0.119974986
-0.057719167 0.054275937 -0.030056827 -0.04990046 -0.15600406 -0.18467423 -0.2205986 -0.08346619
0.111115724 -0.080973655 -0.0892191 0.026449244 -0.0026591534 0.08099616 -0.018058343 0.04618779
-0.049324594 -0.10633826 0.021283131 0.0026746292 0.011855217 -0.12767096 0.02301923 -0.069334
-0.13205743 -0.14670314 -0.12212391 -0.024236534 -0.13338077 0.036309008 -0.12552124 0.08180232
-0.052076712 0.04055478 -0.06446401 -0.02507782 0.03208861 -0.11744641 -0.081760205 -0.13378468
-0.11746084 -0.08117963 -0.038629558 0.02995744 0.02445246 0.019965526 -0.01419375 0.0037196772
-0.056927644 0.08625094 -0.037549887 -0.13103335 -0.094195396 -0.1672206 -0.056024086 -0.06437952
0.09189962 -0.08004019 0.18413673 -0.08367398 -0.14738663 0.027961213 -0.21038327 -0.03342284
-0.037246153 -0.1496795 -0.009988946 -0.019568108 -0.15696308 0.10901235 -0.20302057 0.14587495
-0.111179255 0.0138941975 -0.04085324 -0.123537175 0.096278764 -0.0017063546 0.093781844 -0.12471141
0.020292768 -0.043557607 -0.042943086 0.05020155 0.029438572 0.01930258 0.16742799 -0.12634927
0.23473386 -0.057109844 -0.032443795 0.0919568 0.029275592 -0.053941667 -0.15535304 0.0128471805
-0.054394305 -0.08326024 -0.17435835 0.045868196 -0.118783794 0.004091979 -0.027820854 -0.021792678
0.12459383 -0.038254768 -0.14254303 -0.17228921 0.14933385 0.04997744 -0.05688215 -0.090930745
-0.017482033 -0.0049232617 -0.022835724 -0.047177397 -0.048127107 -0.076622635 0.07300662 -0.14348632
-0.07711947 0.02793116 0.07195741 -0.09002614 -0.062859386 -0.16846573 -0.04315046 0.14957665
0.22372371 0.14362893 0.052941702 -0.023188155 -0.04465398 -0.09703033 0.043669816 -0.07179089
-0.07534466 -0.015739633 -0.102997005 0.04694765 -0.114916384 -0.058745798 0.102945365 -0.089412406
0.07825078 0.053625915 -0.1737978 0.04718297 0.010289246 0.03589564 -0.068335585 -0.053434256
-0.12547131 0.11283048 -0.07355086 0.11336366 -0.13208783 -0.063215576 -0.15520881 -0.0066859378
0.06536248 -0.13161078 0.06693487 -0.110251784 0.06941895 -0.042749956 -0.02388548 0.06312758
0.029757887 -0.22656204 0.088437185 0.06900562 -0.14535952 -0.0021336183 0.07686744 -0.1392524
0.039720803 -0.069730416 0.019926054 -0.07180318 -0.17035355 0.019185966 -0.095336385 0.0107411975
0.054965373 0.0038948145 0.0075882445 0.10124536 0.010881971 -0.05572911 -0.12511078 0.012813594
-0.017639985 -0.13499129 -0.1336477 0.07626667 0.01664698 -0.12896909 -0.10583066 -0.14821067
-0.116236016 0.023538359 -0.011532734 0.066712156 -0.15697859 -0.05364241 0.10762505 0.08854319
-0.10512728 -0.001267088 -0.099058926 -0.040704053 -0.0788309 -0.16910133 0.001911311 -0.15904056
-0.07984131 0.067472115 -0.080841936 -0.10569069 0.08931954 -0.16767617 0.0011317673 0.095661774
00000000: e4b9 e43d 7b5a 913c c3e1 1ebe 6e6f 4fbd
00000010: 47b1 c43d 115e 363d e78b e8bd 41b5 c83d
00000020: 6599 adbd b4af 1dbe d769 573c 230b 613c
00000030: 3a7e 343c 3caf f4bc be98 3ebd 43ef 0e3d
00000040: 13e2 f5bc 2e53 6dbd bb65 20be fe06 58be
00000050: 331c c0bd 4f9c ffbc 7aab 3cbe 3788 9dbc
00000060: 7868 9e3d 042a e2bd 7cd8 c3bd 8763 8dbd
00000070: 9eb3 a93d 95f4 19be 53ce 47be 72b5 f5bd
00000080: ef6a 6cbd 7250 5e3d bc39 f6bc 6d64 4cbd
00000090: 87bf 1fbe 3e1b 3dbe 99e4 61be 52f0 aabd
000000a0: a490 e33d 84d5 a5bd 81b8 b6bd 16ac d83c
000000b0: 3145 2ebb 51e1 a53d 17ef 93bc 682f 3d3d
000000c0: 9608 4abd e0c7 d9bd f659 ae3c d548 2f3b
000000d0: 623c 423c 2dbc 02be d392 bc3c fcfe 8dbd
000000e0: 103a 07be 5939 16be 1a1c fabd b28b c6bc
000000f0: f894 08be c1b8 143d a488 00be fa87 a73d
00000100: 644e 55bd c51c 263d b505 84bd 0070 cdbc
00000110: 596f 033d be87 f0bd e571 a7bd dafe 08be
00000120: 4f8f f0bd 8141 a6bd 073a 1ebd 4e69 f53c
00000130: 8750 c83c be8e a33c e78c 68bc d4c5 733b
00000140: f62c 69bd 55a4 b03d e9cd 19bd 9b2d 06be
00000150: 84e9 c0bd e13b 2bbe 8379 65bd 69d9 83bd
00000160: de35 bc3d 1cec a3bd 578e 3c3e 435d abbd
00000170: 85ec 16be ea0e e53c b66e 57be 63e6 08bd
00000180: 6c8f 18bd 9545 19be ada8 23bc 4c4d a0bc
00000190: eeba 20be de41 df3d a0e4 4fbe 3e60 153e
000001a0: f3b1 e3bd 7da4 633c ba55 27bd 0f01 fdbd
000001b0: cd2d c53d c2a7 dfba b210 c03d b268 ffbd
000001c0: 053d a63c 7669 32bd 17e5 2fbd 24a0 4d3d
000001d0: 2929 f13c 7220 9e3c 3e72 2b3e b461 01be
000001e0: 135e 703e 03ec 69bd c9e3 04bd d953 bc3d
000001f0: 5ed3 ef3c f0f1 5cbd de14 1fbe fb7c 523c
00000200: 90cc 5ebd 5884 aabd ff8a 32be 4ae0 3b3d
00000210: eb44 f3bd 0216 863b 8fe8 e3bc 8f86 b2bc
00000220: 0d2b ff3d 08b1 1cbd cdf6 11be 956c 30be
00000230: f9ea 183e 25b5 4c3d 42fd 68bd e639 babd
00000240: 7b36 8fbc 5053 a1bb fc11 bbbc 163d 41bd
00000250: ee20 45bd 54ec 9cbd 7f84 953d 14ee 12be
00000260: d0f0 9dbd e3cf e43c 685e 933d a05f b8bd
00000270: 6cbc 80bd 4882 2cbe 89be 30bd 9f2a 193e
00000280: d417 653e 7613 133e 66d9 583d 16f5 bdbc
00000290: 17e7 36bd d6b7 c6bd 1fdf 323d 1a07 93bd
000002a0: 4d4e 9abd 67f0 80bc 18f0 d2bd 2e4c 403d
000002b0: 4859 ebbd 6f9f 70bd 05d5 d23d da1d b7bd
000002c0: f241 a03d d9a6 5b3d 0df8 31be ee42 413d
000002d0: 3a94 283c 4e07 133d 87f3 8bbd e1dd 5abd
000002e0: 8d7b 00be ab13 e73d d5a1 96bd 352b e83d
000002f0: 0842 07be 2b77 81bd 0fef 1ebe b615 dbbb
00000300: c4dc 853d fac4 06be 2615 893d b0cb e1bd
00000310: 862b 8e3d 941a 2fbd 7bab c3bc 0849 813d
00000320: d0c6 f33c e1ff 67be 8e1e b53d d252 8d3d
00000330: 20d9 14be 2dd4 0bbb ad6c 9d3d 2e98 0ebe
00000340: 48b2 223d d2ce 8ebd f73b a33c 8c0d 93bd
00000350: 2971 2ebe e32b 9d3c b93f c3bd d9fb 2f3c
00000360: 5f23 613d 2540 7f3b cfa6 f83b ba59 cf3d
00000370: 4b4a 323c 3544 64bd 0a1d 00be 1cf0 513c
00000380: bb81 90bc 283b 0abe f1da 08be b331 9c3d
00000390: 3f5f 883c 7910 04be bfbd d8bd 8ac4 17be
000003a0: 260d eebd 84d3 c03c cbf3 3cbc 62a0 883d
000003b0: ffbe 20be 25b8 5bbd 866a dc3d 2256 b53d
000003c0: f94c d7bd 6b14 a6ba 68df cabd 4bb9 26bd
000003d0: 1872 a1bd e628 2dbe f484 fa3a 87db 22be
000003e0: d783 a3bd d22e 8a3d 7590 a5bd 5c74 d8bd
000003f0: 2aed b63d 4db3 2bbe cf57 943a 52ea c33d

model/time_distributed_11/dense_1/MatMul f4 [64, 1488]
0.049489804 0.073627025 0.034620695 0.037997305 0.028920498 0.06596612 0.043439977 0.08044714
0.07840735 -0.026841568 0.07460002 0.034270383 0.049338978 0.0005952393 -0.034544103 -0.020710755
0.020995617 0.08084587 0.0009236528 0.035502587 -0.0535123 0.011042783 0.032729767 0.04707543
-0.044816345 -0.039339222 0.054554597 0.005066094 -0.016407546 0.007247904 0.056620542 0.0048231306
0.01689027 0.04966811 -0.06665754 -0.029086113 -0.03866709 -0.029486826 0.03412923 0.07058597
0.03883684 -0.024562424 0.00073368865 0.018021481 -0.0064463234 -0.013136285 0.015842136 0.02950332
0.008669939 -0.040771257 -0.02936523 0.025479242 0.0033517643 0.049869895 -0.021334497 0.006435314
0.0060957503 0.016593855 0.056692407 -0.05321608 -0.05292788 0.04398015 0.020354167 -0.008551604
0.028989218 -0.013192457 -0.010598785 0.045283213 0.028911544 0.01912914 -0.019460201 -0.021248844
0.0046446887 -0.034200713 0.071502805 0.0035434414 0.048387818 0.03901444 0.0533949 -0.010163701
-0.047587108 -0.026539398 0.033378318 -0.053388607 -0.021738833 -0.08793199 -0.02549237 -0.003051012
-0.015574981 0.032430913 0.041739248 -0.008222858 -0.026336309 -0.039819025 -0.041486565 -0.032886993
0.0307412 -0.039420217 0.0060340916 0.008411813 -0.07241643 0.046464544 -0.060341053 -0.07240159
0.04110593 -0.025031898 -0.006043604 0.007840483 -0.04887213 0.05270761 -0.030097514 0.023328556
-0.021540396 0.02311264 -0.0060504805 0.02579122 -0.060044426 0.03361503 0.05469701 0.030558411
-0.05864244 -0.014144203 0.06550505 -0.048449945 -0.017417228 0.0021773712 0.0037545012 -0.035606224
0.04793754 0.03657372 0.040413994 -0.034642812 -0.024843602 0.030955099 0.08739456 0.047771096
-0.02102973 0.06538498 0.03578541 -0.0064504733 0.096760064 0.0570526 -0.037328254 0.076662
-0.024420233 0.035159923 -0.006116556 -0.028996764 -0.025531394 -0.012280778 0.095133476 0.10179872
-0.016854575 -0.017119769 0.10210449 0.07721936 -0.004110272 -0.038939774 0.020945504 0.05896316
0.016921893 0.06536681 0.0705047 0.014404102 0.05339679 -0.035610795 0.07015275 0.040348087
0.021678835 -0.0039113597 0.078640275 0.050112884 -0.02767859 0.048916325 0.004691566 0.033899315
0.023348378 0.0014750377 -0.009102348 -0.002998778 0.03883431 0.03341294 0.019325087 0.06476337
-0.0050449786 -0.03799165 0.054434206 -0.024572518 0.005163317 0.063332945 -0.011996073 0.013724829
0.071604304 0.049083024 0.04118651 0.07171966 0.009837893 -0.0344742 0.031534728 0.03955529
-0.03523681 -0.060125846 0.03876159 0.0017124899 0.035735123 0.004066063 0.0144641185 0.044533607
0.028832734 -0.0025735956 0.038943753 0.00069978286 0.034408055 0.04445512 0.00029885187 -0.027791683
0.011558797 -0.08112079 -0.06728824 0.035801943 -0.049126614 -0.007766671 -0.019783596 -0.019310579
0.049292635 -0.023919107 -0.033896375 0.084467545 -0.0408998 0.059980553 -0.03508306 -0.039844148
-0.022176795 -0.004038676 -0.026138455 0.014082166 -0.08539336 0.04365242 0.025841998 -0.0609881
-0.026390286 -0.019901425 0.00875164 0.023458399 0.058832176 -0.0106819 -0.03387574 0.015568012
-0.11344645 0.04096912 -0.041413233 -0.06071161 -0.103809945 -0.0021939962 0.008090173 -0.03308636
00000000: d2b5 4a3d c4c9 963d 6ece 0d3d 10a3 1b3d
00000010: aeea ec3c 3f19 873d 1eee 313d 78c1 a43d
00000020: 0894 a03d d9e2 dbbc e5c7 983d 1a5f 0c3d
00000030: ab17 4a3d d509 1c3a 1e7e 0dbd 9aa9 a9bc
00000040: 00ff ab3c 8592 a53d 4a21 723a 296b 113d
00000050: b72f 5bbd caec 343c a60f 063d 2bd2 403d
00000060: 5891 37bd 2a22 21bd a474 5f3d 7a01 a63b
00000070: 1e69 86bc d37f ed3b f1ea 673d 5a0b 9e3b
00000080: 775d 8a3c ca70 4b3d c083 88bd 0046 eebc
00000090: 6261 1ebd 5b8e f1bc 17cb 0b3d 618f 903d
000000a0: 6113 1f3d 2337 c9bc 0355 403a c9a1 933c
000000b0: ae3b d3bb 9339 57bc 5ec7 813c f2b0 f13c
000000c0: 5c0c 0e3c c3ff 26bd 5a8f f0bc d8b9 d03c
000000d0: 46a9 5b3b 6044 4c3d afc5 aebc 54df d23b
000000e0: dcbe c73b d6ef 873c 4c36 683d 1bf9 59bd
000000f0: e8ca 58bd 8824 343d c8bd a63c 071c 0cbc
00000100: cc7a ed3c 2d25 58bc 87a6 2dbc e47a 393d
00000110: e7d7 ec3c b7b4 9c3c 006b 9fbc 0e12 aebc
00000120: 7932 983b 0c16 0cbd 1070 923d 1539 683b
00000130: 4e32 463d 9bcd 1f3d 9cb4 5a3d a785 26bc
00000140: b3ea 42bd 2769 d9bc b4b7 083d 03ae 5abd
00000150: a315 b2bc b015 b4bd 60d5 d0bc 7df3 47bb
00000160: 352e 7fbc 47d6 043d c6f6 2a3d 2bb9 06bc
00000170: 3ebf d7bc 4619 23bd d1ed 29bd 83b4 06bd
00000180: f8d4 fb3c 1877 21bd a1b9 c53b b3d1 093c
00000190: 114f 94bd 9b51 3e3d 2e28 77bd 4947 94bd
000001a0: b15e 283d b20f cdbc 6d09 c6bb 5f75 003c
000001b0: 252e 48bd efe3 573d 108f f6bc 871b bf3c
000001c0: 7c75 b0bc b856 bd3c 1c43 c6bb 1c48 d33c
000001d0: 25f1 75bd eaaf 093d f909 603d a255 fa3c
000001e0: 0e33 70bd 16bd 67bc 8327 863d 7373 46bd
000001f0: 93ae 8ebc 3ab2 0e3b 140e 763b d5d7 11bd
00000200: 275a 443d 53ce 153d 2589 253d 9fe5 0dbd
00000210: cf84 cbbc 8c95 fd3c ebfb b23d a0ab 433d
00000220: 8a46 acbc 8fe8 853d b993 123d 7e5e d3bb
00000230: 242a c63d fdaf 693d 83e5 18bd f700 9d3d
00000240: f10c c8bc da03 103d 646d c8bb 9f8a edbc
00000250: 3727 d1bc 5135 49bc 57d5 c23d d97b d03d
00000260: 9b12 8abc c23e 8cbc 291c d13d 2f25 9e3d
00000270: 76af 86bb 507f 1fbd e895 ab3c 5b83 713d
00000280: c89f 8a3c 09df 853d c564 903d 2fff 6b3c
00000290: 98b6 5a3d a0dc 11bd 3fac 8f3d 0944 253d
000002a0: d097 b13c dd2a 80bb 270e a13d 2b43 4d3d
000002b0: 36be e2bc 7c5c 483d b5bb 993b 02da 0a3d
000002c0: 1945 bf3c 0d56 c13a 0422 15bc 2587 44bb
000002d0: ba10 1f3d 02dc 083d a54f 9e3c a8a2 843d
000002e0: 5950 a5bb 229d 1bbd 67f6 5e3d 4e4c c9bc
000002f0: 0b31 a93b b4b4 813d 2d8b 44bc 1bde 603c
00000300: 47a5 923d 480b 493d 30b3 283d c2e1 923d
00000310: 1d2f 213c d234 0dbd 8f2a 013d ba04 223d
00000320: 7954 10bd 8546 76bd 79c4 1e3d a075 e03a
00000330: fe5e 123d 9c3c 853b e9fa 6c3c df68 363d
00000340: a032 ec3c c5a9 28bb 7c83 1f3d a271 373a
00000350: 76ef 0c3d 9216 363d 38af 9c39 62ab e3bc
00000360: 1c61 3d3c a822 a6bd 6bce 89bd 0fa5 123d
00000370: fd38 49bd 8f7f febb 3511 a2bc 3831 9ebc
00000380: 13e7 493d 01f2 c3bc edd6 0abd 52fd ac3d
00000390: 8c86 27bd 2bae 753d 41b3 0fbd 9e33 23bd
000003a0: 1cac b5bc df56 84bb 5020 d6bc e3b8 663c
000003b0: b7e2 aebd e1cc 323d 99b2 d33c a8ce 79bd
000003c0: 7130 d8bc 5008 a3bc 0a63 0f3c d42b c03c
000003d0: 02fa 703d 2303 2fbc 4ac1 0abd fa10 7f3c
000003e0: 9d56 e8bd 3ccf 273d eca0 29bd bdac 78bd
000003f0: 4f9a d4bd 26c9 0fbb a58c 043c 9085 07bd

model/time_distributed_3/batch_normalization/FusedBatchNormV3 f4 [8]
-0.9907507 -1.3512211 -1.0916072 -1.3038069 -1.3702602 -0.91060793 -1.1581367 -0.9148872
00000000: d6a1 7dbf d0f4 acbf c9b9 8bbf 25e3 a6bf
00000010: b064 afbf 9a1d 69bf d33d 94bf 0c36 6abf

model/time_distributed_3/batch_normalization/FusedBatchNormV31 f4 [8]
0.88392663 0.83446926 0.8019355 0.7945391 0.8705151 0.83672446 0.8508923 0.8460287
00000000: 0449 623f c79f 553f a54b 4d3f ea66 4b3f
00000010: 14da 5e3f 9333 563f 14d4 593f 5695 583f

model/time_distributed_5/dense/MatMul f4 [32, 168]
0.22036596 0.14615424 0.12105784 -0.09336615 0.17203738 0.036110196 0.085806824 0.20312643
0.09388764 -0.023084376 -0.045187622 0.10846013 0.0950447 0.17339225 -0.10520908 0.1256736
-0.0768367 -0.044690166 -0.11152107 -0.12319071 0.10918465 0.10687326 -0.0033884186 0.11148499
0.008927292 -0.020531427 -0.11906912 -0.03208308 0.110051736 0.17027555 -0.031657107 -7.036724e-05
-0.13261724 0.10168796 0.032168124 -0.24674247 -0.12992848 0.10145481 -0.08002855 -0.030678427
0.1119377 -0.12386133 -0.009334903 -0.050971348 0.014184841 0.1284809 0.1039573 0.034065604
0.1291857 0.0061362255 0.08978992 0.06399986 -0.020909807 -0.06829982 0.12649292 -0.021774251
0.07913845 0.11748691 -0.15011406 -0.03491928 0.25151357 -0.21081758 -0.045575954 0.04044201
0.10123456 -0.11336624 0.11555789 0.06820699 -0.099265315 0.121365294 0.12648112 0.08628732
-0.02842931 -0.08120899 0.0771497 0.06399204 0.17455593 0.03182767 -0.06155789 -0.04557244
0.11686494 0.10240109 -0.08340817 0.014915319 -0.024398008 -0.21552287 0.112526506 -0.04101155
-0.1619823 0.1765636 -0.19676436 -0.043535642 0.20467639 0.076971665 -0.19541265 -0.09513992
0.01806348 0.085799575 0.17132059 0.10841275 -0.05227505 -0.06811674 0.12898105 0.061275255
0.058812194 -0.12713839 0.009264588 0.08964889 0.025106143 -0.084593825 -0.0008818967 0.14704221
-0.1515066 0.116883956 -0.012129169 -0.105703816 0.048956074 -0.09485295 -0.081018224 0.088917084
0.023669487 -0.108668685 -0.045727927 -0.0653792 0.072048694 0.004717441 -0.12806834 -0.13312458
0.00915414 0.24279751 0.18826495 -0.09033123 -0.02350528 -0.14204443 0.154784 -0.17652526
0.08111157 -0.05358461 -0.106983125 0.081097886 0.02948129 0.029004239 -0.14010847 -0.18514474
-0.13732637 -0.20027736 -0.21320325 -0.05974834 -0.23509473 -0.048943363 -0.2096704 -0.25734627
-0.016944317 -0.02229695 -0.03183384 -0.18594253 -0.08956137 -0.020382522 -0.19007435 -0.0653495
-0.115740076 0.08459035 0.02669769 0.019024147 -0.025366735 0.21164073 0.060451362 0.05612885
-0.13307573 -0.069922864 0.12928806 -0.22228804 0.052836597 0.15548387 -0.17125107 -0.06876767
-0.067736804 -0.02403986 0.18269685 0.10822887 0.027051002 -0.13668019 0.04477867 -0.13834889
-0.10697024 0.14930895 -0.023057356 -0.05435659 -0.12579787 -0.013876712 -0.10035448 0.16893244
0.15867296 -0.05550064 0.037381943 0.014236932 -0.04814326 0.20896977 0.0003546928 0.1636991
0.01012714 0.052044474 -0.08473629 0.02849935 0.09119548 -0.040176958 0.057875328 -0.04525581
0.13202384 0.0063871304 0.080156334 -0.09306654 -0.016061561 0.16358073 0.1882929 0.031201608
0.070793845 0.13782004 -0.124469 -0.01136736 -0.027419744 -0.027394857 0.1404182 0.04260897
-0.17412913 0.10063831 -0.044383384 0.058301903 0.10476482 0.1299936 0.12160235 -0.19919688
0.2702314 0.07968238 0.03385762 0.12549312 -0.071631 -0.27352667 -0.10963164 -0.1007904
0.033547774 0.066198684 -0.15615092 -0.25372803 0.14236563 -0.059731472 0.1164743 0.05303322
-0.027062917 0.070013285 -0.034688666 -0.12106424 0.06610476 -0.06735908 -0.031934716 -0.1008663
00000000: 9da7 613e 75a9 153e 2ced f73d c136 bfbd
00000010: 912a 303e 49e8 133d 7dbb af3d 6000 503e
00000020: 2a48 c03d 721b bdbc a816 39bd 5820 de3d
00000030: cca6 c23d bd8d 313e dc77 d7bd 95b0 003e
00000040: 8f5c 9dbd 090d 37bd 2965 e4bd 694b fcbd
00000050: 349c df3d 5ee0 da3d 3b10 5ebb 3e52 e43d
00000060: c743 123c 8631 a8bc 83da f3bd 8c69 03bd
00000070: ce62 e13d b75c 2e3e e2aa 01bd 2092 93b8
00000080: d0cc 07be c741 d03d b9c2 033d 0faa 7cbe
00000090: f90b 05be 8ac7 cf3d 02e6 a3bd 5351 fbbc
000000a0: 983f e53d 02ab fdbd 6cf1 18bc 55c7 50bd
000000b0: 8967 683c 7f90 033e 91e7 d43d 6088 0b3d
000000c0: 4249 043e 6412 c93b c7e3 b73d 5c12 833d
000000d0: 0b4b abbc c7e0 8bbd 5c87 013e ea5f b2bc
000000e0: 5713 a23d fa9c f03d 80b7 19be 8507 0fbd
000000f0: 63c6 803e 90e0 57be daad 3abd 85a6 253d
00000100: 1154 cf3d 8f2c e8bd 9da9 ec3d 1bb0 8b3d
00000110: 9d4b cbbd 5e8e f83d 4484 013e 68b7 b03d
00000120: 96e4 e8bc e650 a6bd a900 9e3d 420e 833d
00000130: cabe 323e bb5d 023d 2024 7cbd 2baa 3abd
00000140: e356 ef3d aab7 d13d e7d1 aabd 625f 743c
00000150: 55de c7bc 07b2 5cbe 4c74 e63d bafb 27bd
00000160: b0de 25be 17cd 343e 997c 49be 6e52 32bd
00000170: b096 513e 52a3 9d3d 411a 48be b8d8 c2bd
00000180: ddf9 933c b0b7 af3d aa6e 2f3e 8107 de3d
00000190: 5d1e 56bd ca80 8bbd 9c13 043e c3fb 7a3d
000001a0: 0ee5 703d 9130 02be 80ca 173c d699 b73d
000001b0: 66ab cd3c 873f adbd 162f 67ba 3c92 163e
000001c0: 8c24 1bbe db60 ef3d 6cb9 46bc 3e7b d8bd
000001d0: 2a86 483d 4342 c2bd e2ec a5bd 291a b63d
000001e0: 83e6 c13c b08d debd 354d 3bbd 88e5 85bd
000001f0: 448e 933d c394 9a3b 5924 03be cf51 08be
00000200: 3ffb 153c e99f 783e 87c8 403e 94ff b8bd
00000210: 258e c0bc 1874 11be b27f 1e3e 0ac3 34be
00000220: d31d a63d 897b 5bbd f819 dbbd a616 a63d
00000230: bf82 f13c 4c9a ed3c 9878 0fbe 9596 3dbe
00000240: 499f 0cbe 8215 4dbe f451 5abe adba 74bd
00000250: acbc 70be d678 48bd d6b3 56be e4c2 83be
00000260: cfce 8abc 18a8 b6bc 3364 02bd b867 3ebe
00000270: f46b b7bd 3ff9 a6bc daa2 42be f5d5 85bd
00000280: 2209 edbd b53d ad3d 1db5 da3c 87d8 9b3c
00000290: e6cd cfbc 59b8 583e d99b 773d 5de7 653d
000002a0: 0145 08be b833 8fbd 1764 043e 7a9f 63be
000002b0: 306b 583d 2a37 1f3e 715c 2fbe 10d6 8cbd
000002c0: 98b9 8abd 3eef c4bc e214 3b3e 19a7 dd3d
000002d0: 109a dd3c e4f5 0bbe d769 373d 55ab 0dbe
000002e0: 3713 dbbd 72e4 183e c8e2 bcbc 04a5 5ebd
000002f0: 28d1 00be 265b 63bc a686 cdbd a0fc 2c3e
00000300: 2a7b 223e a454 63bd cf1d 193d 0542 693c
00000310: de31 45bd 2cfc 553e 10f6 b939 bda0 273e
00000320: 4eec 253c 962c 553d 388a adbd 7877 e93c
00000330: b2c4 ba3d 9890 24bd ae0e 6d3d 285e 39bd
00000340: 4231 073e 224b d13b 0129 a43d ac99 bebd
00000350: 8993 83bc b581 273e dbcf 403e 849a ff3c
00000360: 5dfc 903d b220 0d3e 9ae9 febd 2a3e 3abc
00000370: 5f9f e0bc 2e6b e0bc cac9 0f3e be86 2e3d
00000380: e84e 32be 751b ce3d 5acb 35bd facd 6e3d
00000390: f08e d63d 0b1d 053e a70a f93d 44fa 4bbe
000003a0: c55b 8a3e 8430 a33d 4aae 0a3d 4581 003e
000003b0: 46b3 92bd b00b 8cbe 8e86 e0bd 326b cebd
000003c0: 6469 093d 2d93 873d 07e6 1fbe a4e8 81be
000003d0: 4cc8 113e fda8 74bd 148a ee3d 5d39 593d
000003e0: 0db3 ddbc 2063 8f3d b415 0ebd 87f0 f7bd
000003f0: ef61 873d 8ff3 89bd facd 02bd fe92 cebd

model/time_distributed_9/batch_normalization_1/FusedBatchNormV3 f4 [16]
-0.4908378 -0.5432539 -0.48642918 -0.23690708 -0.43386185 -0.5874609 -0.38688055 -0.42959094
-0.33128372 -0.38509843 -0.35095322 -0.4944719 -0.32813892 -0.44840956 -0.43105388 -0.38794154
00000000: 184f fbbe b012 0bbf 3f0d f9be c597 72be
00000010: 2423 debe d663 16bf 3515 c6be 58f3 dbbe
00000020: 059e a9be 9f2b c5be 24b0 b3be 6c2b fdbe
00000030: d301 a8be f095 e5be 18b3 dcbe 46a0 c6be

model/time_distributed_9/batch_normalization_1/FusedBatchNormV31 f4 [16]
1.5148526 1.4890229 1.4902192 1.1831063 1.3614893 1.3640335 1.5198226 1.5068791
1.7385696 1.2965773 1.5908809 1.3987955 1.744501 1.4169827 1.6710827 1.1681027
00000000: b1e6 c13f 4d98 be3f 81bf be3f 0770 973f
00000010: 4845 ae3f a698 ae3f 8c89 c23f 6ae1 c03f
00000020: 7389 de3f 3ff6 a53f fca1 cb3f bb0b b33f
00000030: cf4b df3f b05f b53f 0ae6 d53f 6484 953f
