HPC_Final_Study2_Complete_Test/participants_session_transfer_train_fresh_model/participant_2/session_1/session_1_lite_models/indexpen_model.tflite (tflite, 573028 bytes, 29 tensors)

model/time_distributed_6/conv2d_1/BiasAdd;model/time_distributed_6/conv2d_1/Conv2D;model/time_distributed_6/conv2d_1/BiasAdd/ReadVariableOp/resource f4 [16]
0	0x3c0fd674	0.008779157
1	0x3d895c4e	0.06707059
2	0x3cc6702c	0.02422341
3	0x3c8f0b68	0.017461494
4	0x3dd55665	0.10416869
5	0x3d36b0d3	0.044602226
6	0xbc01538a	-0.007893452
7	0x3d820fb4	0.063506514
8	0x3c9d6fe1	0.019218387
9	0x3db26a67	0.08711701
10	0x3c56794d	0.013090444
11	0x3db195df	0.08671164
12	0x3d359f7f	0.04434156
13	0x3e12786e	0.14303753
14	0x3cb78aa3	0.022404974
15	0x3d433b34	0.047663882

model/time_distributed/conv2d/BiasAdd;model/time_distributed/conv2d/Conv2D;model/time_distributed/conv2d/BiasAdd/ReadVariableOp/resource f4 [8]
0	0xbc818635	-0.015811065
1	0xbd0fc77a	-0.035102345
2	0x3c86f128	0.016472414
3	0x3cee9a5a	0.029126335
4	0xbca98fa1	-0.02069837
5	0xbc9b8f10	-0.018989116
6	0x3b906b4e	0.004407323
7	0x3d207049	0.039169583

model/time_distributed_6/conv2d_1/Conv2D f4 [16, 3, 3, 1]
0	0x3d77f500	0.060536385
1	0x3d4163fe	0.0472145
2	0xbd98c162	-0.0745876
3	0x3c80a323	0.01570279
4	0x3cb93281	0.02260709
5	0xbd50187f	-0.05080461
6	0xbd2f75de	-0.042837016
7	0x3d3797fb	0.044822674
8	0x3be95544	0.00712076
9	0x3c903bf0	0.017606705
10	0x3dc0e989	0.09419543
11	0xbdda9722	-0.106733575
12	0xbd8af83f	-0.067856304
13	0x3e4157d6	0.18881163
14	0xbdf8f42a	-0.121559456
15	0xbc03961a	-0.0080313925
16	0xbdff9cbe	-0.12481068
17	0x3df8ca3a	0.12147947
18	0x3dc6b00c	0.09701547
19	0xbe47696f	-0.19473813
20	0x3dd296d7	0.10282677
21	0x3dac185e	0.08403085
22	0x3d3a6f5d	0.04551636
23	0xbdfc5b03	-0.123220466
24	0xbd02b87c	-0.03191422
25	0x3ce9aae5	0.028523872
26	0x3b39d308	0.0028354544
27	0x3c8c0bf9	0.017095553
28	0x3d5bf28d	0.05369811
29	0xbd68580a	-0.056724586
30	0x3c463246	0.012096947
31	0xbbe2929f	-0.0069144513
32	0xbc6ac938	-0.014330201
33	0x3c4ea0e8	0.012611605
34	0xbcfcd911	-0.030865224
35	0x3c7eefca	0.0155601
36	0x3aba44f5	0.0014211225
37	0xbe17fd87	-0.14842807
38	0x3e225c7f	0.15855597
39	0xbcbb5466	-0.022867393
40	0x3d762b02	0.06009961
41	0xbd158490	-0.036503375
42	0xbd02ae53	-0.03190453
43	0x3d680498	0.056645006
44	0xbaf4a92b	-0.0018666139
45	0x3e1b739d	0.15180822
46	0xbd9662b6	-0.07343046
47	0xbd83f9ad	-0.06444106
48	0xbd8e31e0	-0.06943107
49	0xbd813748	-0.06309372
50	0x3dd69b7b	0.10478874
51	0x3d2644c2	0.040592916
52	0x3d378d63	0.04481257
53	0xbd645b47	-0.05575111
54	0x3d8671c9	0.065646715
55	0xbdf4d00f	-0.119537465
56	0x3d7ca045	0.061676282
57	0x3cf7e913	0.030262506
58	0x3d9c9dc9	0.07647283
59	0xbdd5e98c	-0.10444936
60	0x3c410f03	0.011783364
61	0x3d35185a	0.044212677
62	0xbd732f21	-0.059371118
63	0xbdec9184	-0.115511924
64	0x3daf4ca5	0.08559541
65	0x3c59968d	0.013280523
66	0x3d0eb185	0.034837265
67	0xbd576caf	-0.052593883
68	0x3ce8d868	0.028423503
69	0xbd850e4b	-0.06496867
70	0x3d3a648c	0.045506045
71	0x3cb62f17	0.022239251
72	0xbccc019a	-0.024903107
73	0x3c139e5c	0.009009924
74	0x3c5ae5b2	0.013360428
75	0x3d53a386	0.05166962
76	0xbddcc579	-0.107798524
77	0x3d6d55d0	0.057943165
78	0x3dcf70b0	0.10128915
79	0xbe30e16a	-0.17273489
80	0x3d726a9e	0.05918371
81	0x3d4da088	0.050201923
82	0xbdc4a114	-0.09601036
83	0x3d28c219	0.04120073
84	0x3ce4e180	0.027939558
85	0x3ceb36a3	0.028712576
86	0xbd8e1b7d	-0.06938837
87	0x3d2bc8c4	0.041939512
88	0x3bf75454	0.0075478945
89	0xbcad0ed4	-0.021125235
90	0xbdaec6ad	-0.08533988
91	0x3e36fcf6	0.17869934
92	0xbdce1138	-0.10061878
93	0x3d37dfeb	0.04489128
94	0x3d8d676e	0.06904493
95	0xbde1590c	-0.110033125
96	0xbd066364	-0.03280963
97	0x3e14dac4	0.14536577
98	0xbddca13b	-0.1077294
99	0xbd888655	-0.06666247
100	0x3e66b357	0.2252935
101	0xbe1f2e8f	-0.15545104
102	0xbe4723a6	-0.19447193
103	0x3decaf81	0.11556912
104	0x3d9319e2	0.07182671
105	0x3e078932	0.1323593
106	0xbe3003d9	-0.17188968
107	0x3d2907fb	0.041267376
108	0xbdb9e5a4	-0.090770036
109	0x3e440f47	0.19146453
110	0xbdcb1362	-0.09915806
111	0xbdbdb7dc	-0.09263584
112	0x3e1f426c	0.15552682
113	0xbd8d2112	-0.06891073
114	0xbdaef76d	-0.085432865
115	0x3e5543ea	0.20826688
116	0xbe0e883b	-0.13919155
117	0xbd0e7870	-0.034782827
118	0x3dca5422	0.09879328
119	0xbd44f028	-0.048080593
120	0xbcb6964c	-0.022288464
121	0xbe07b0bc	-0.13251013
122	0x3e10e687	0.14150439
123	0xbbf6b585	-0.007528963
124	0x3d2debbf	0.042461153
125	0xbc30d62f	-0.010793253
126	0xbd16cbbb	-0.036815386
127	0xbd084719	-0.03327093
128	0x3bdf7e7f	0.0068204994
129	0xbd0b50a1	-0.03401244
130	0xbcb36b1b	-0.021901658
131	0x3d9f54f0	0.077798724
132	0x3d811a7c	0.063038796
133	0xbe0ba3c2	-0.13636687
134	0x3d7a2a74	0.061075643
135	0x3c092a27	0.008371866
136	0xbcc7ba63	-0.024380868
137	0x3beddc4c	0.0072589274
138	0xbc682db4	-0.014171053
139	0x3cb61f76	0.022231799
140	0xbb36c662	-0.0027889241
141	0x3d955fd6	0.0729367
142	0xbd95197a	-0.0728025
143	0xbc8a9b1b	-0.016919663

model/time_distributed/conv2d/Conv2D f4 [8, 3, 3, 1]
0	0x3c946abb	0.0181173
1	0xbce01011	-0.027351411
2	0xba2657e9	-0.0006345497
3	0x3b1be09e	0.0023785005
4	0x3cdb8c80	0.026800394
5	0xbbdc6f9c	-0.006727172
6	0x3aaf7034	0.001338488
7	0xbca54190	-0.020172864
8	0xbad35a84	-0.0016124998
9	0x3c196f5c	0.009364929
10	0xbd37c078	-0.044861287
11	0x3c54e8fc	0.012995001
12	0xb95a5081	-0.0002082009
13	0x3d10cf8c	0.035354182
14	0xbc2b44a4	-0.010453377
15	0xbc90ea56	-0.017689865
16	0xba324168	-0.00067999074
17	0x3a85c4cd	0.0010205746
18	0xbb8e5439	-0.004343536
19	0x3ccf235f	0.025285421
20	0xbce5b9f1	-0.028042765
21	0x3bb01289	0.0053733033
22	0xbd30a549	-0.04312638
23	0x3d17106f	0.036880907
24	0xbc2eb992	-0.010664361
25	0x3d363638	0.0444853
26	0xbd311554	-0.04323323
27	0xbb95b879	-0.00456911
28	0x3c9c35f9	0.019068705
29	0x3c66da11	0.014090077
30	0x3ccb7f41	0.024840953
31	0xbd24bc26	-0.040218495
32	0xbc1ecc5a	-0.009692276
33	0xbc9f46ab	-0.019442877
34	0x3c882766	0.01662035
35	0x3bb41930	0.0054961666
36	0x3c0841cb	0.0083164675
37	0xbcb748e9	-0.022373633
38	0x3d231cc3	0.03982235
39	0x3b9b2dac	0.004735669
40	0x3949385f	0.00019189854
41	0xbccbfd8c	-0.024901174
42	0xbbed0b7a	-0.007234034
43	0x3c8db3c3	0.017297631
44	0xbbdb9b30	-0.0067018494
45	0xbc8a2ce0	-0.016867101
46	0x3ba8dd1d	0.005153312
47	0x38f4ee46	0.000116792085
48	0x3ccd5b43	0.025067931
49	0xbc10db5f	-0.008841365
50	0x3b9f7105	0.004865768
51	0x3d1e554b	0.03865556
52	0xbc87e4f8	-0.016588673
53	0x3ac605c4	0.001510792
54	0x3d0afedb	0.033934455
55	0xbcc8dea1	-0.02452022
56	0x3c44ec77	0.012019268
57	0xbad49e22	-0.0016221444
58	0x3c1e5b7a	0.009665364
59	0xbb6b95e4	-0.0035947496
60	0x3c8b3763	0.016994184
61	0xbc44c201	-0.012009145
62	0x3c092c7d	0.008372423
63	0x3c814e97	0.015784545
64	0xbb0b4b63	-0.002125465
65	0xbc52bafc	-0.012861963
66	0xbcba6919	-0.022755193
67	0xbc5d84b3	-0.0135204075
68	0x3d8e8f70	0.06960952
69	0xbb12eb63	-0.0022418133
70	0x3c410974	0.011782039
71	0xbd11d98a	-0.035607852

model/lstm/TensorArrayV2_1 f4 [120, 1, 32]
0	0x00000000	0.0
1	0x00000000	0.0
2	0x00000000	0.0
3	0x00000000	0.0
4	0x00000000	0.0
5	0x00000000	0.0
6	0x00000000	0.0
7	0x00000000	0.0
8	0x00000000	0.0
9	0x00000000	0.0
10	0x00000000	0.0
11	0x00000000	0.0
12	0x00000000	0.0
13	0x00000000	0.0
14	0x00000000	0.0
15	0x00000000	0.0
16	0x00000000	0.0
17	0x00000000	0.0
18	0x00000000	0.0
19	0x00000000	0.0
20	0x00000000	0.0
21	0x00000000	0.0
22	0x00000000	0.0
23	0x00000000	0.0
24	0x00000000	0.0
25	0x00000000	0.0
26	0x00000000	0.0
27	0x00000000	0.0
28	0x00000000	0.0
29	0x00000000	0.0
30	0x00000000	0.0
31	0x00000000	0.0
32	0x00000000	0.0
33	0x00000000	0.0
34	0x00000000	0.0
35	0x00000000	0.0
36	0x00000000	0.0
37	0x00000000	0.0
38	0x00000000	0.0
39	0x00000000	0.0
40	0x00000000	0.0
41	0x00000000	0.0
42	0x00000000	0.0
43	0x00000000	0.0
44	0x00000000	0.0
45	0x00000000	0.0
46	0x00000000	0.0
47	0x00000000	0.0
48	0x00000000	0.0
49	0x00000000	0.0
50	0x00000000	0.0
51	0x00000000	0.0
52	0x00000000	0.0
53	0x00000000	0.0
54	0x00000000	0.0
55	0x00000000	0.0
56	0x00000000	0.0
57	0x00000000	0.0
58	0x00000000	0.0
59	0x00000000	0.0
60	0x00000000	0.0
61	0x00000000	0.0
62	0x00000000	0.0
63	0x00000000	0.0
64	0x00000000	0.0
65	0x00000000	0.0
66	0x00000000	0.0
67	0x00000000	0.0
68	0x00000000	0.0
69	0x00000000	0.0
70	0x00000000	0.0
71	0x00000000	0.0
72	0x00000000	0.0
73	0x00000000	0.0
74	0x00000000	0.0
75	0x00000000	0.0
76	0x00000000	0.0
77	0x00000000	0.0
78	0x00000000	0.0
79	0x00000000	0.0
80	0x00000000	0.0
81	0x00000000	0.0
82	0x00000000	0.0
83	0x00000000	0.0
84	0x00000000	0.0
85	0x00000000	0.0
86	0x00000000	0.0
87	0x00000000	0.0
88	0x00000000	0.0
89	0x00000000	0.0
90	0x00000000	0.0
91	0x00000000	0.0
92	0x00000000	0.0
93	0x00000000	0.0
94	0x00000000	0.0
95	0x00000000	0.0
96	0x00000000	0.0
97	0x00000000	0.0
98	0x00000000	0.0
99	0x00000000	0.0
100	0x00000000	0.0
101	0x00000000	0.0
102	0x00000000	0.0
103	0x00000000	0.0
104	0x00000000	0.0
105	0x00000000	0.0
106	0x00000000	0.0
107	0x00000000	0.0
108	0x00000000	0.0
109	0x00000000	0.0
110	0x00000000	0.0
111	0x00000000	0.0
112	0x00000000	0.0
113	0x00000000	0.0
114	0x00000000	0.0
115	0x00000000	0.0
116	0x00000000	0.0
117	0x00000000	0.0
118	0x00000000	0.0
119	0x00000000	0.0
120	0x00000000	0.0
121	0x00000000	0.0
122	0x00000000	0.0
123	0x00000000	0.0
124	0x00000000	0.0
125	0x00000000	0.0
126	0x00000000	0.0
127	0x00000000	0.0
128	0x00000000	0.0
129	0x00000000	0.0
130	0x00000000	0.0
131	0x00000000	0.0
132	0x00000000	0.0
133	0x00000000	0.0
134	0x00000000	0.0
135	0x00000000	0.0
136	0x00000000	0.0
137	0x00000000	0.0
138	0x00000000	0.0
139	0x00000000	0.0
140	0x00000000	0.0
141	0x00000000	0.0
142	0x00000000	0.0
143	0x00000000	0.0
144	0x00000000	0.0
145	0x00000000	0.0
146	0x00000000	0.0
147	0x00000000	0.0
148	0x00000000	0.0
149	0x00000000	0.0
150	0x00000000	0.0
151	0x00000000	0.0
152	0x00000000	0.0
153	0x00000000	0.0
154	0x00000000	0.0
155	0x00000000	0.0
156	0x00000000	0.0
157	0x00000000	0.0
158	0x00000000	0.0
159	0x00000000	0.0
160	0x00000000	0.0
161	0x00000000	0.0
162	0x00000000	0.0
163	0x00000000	0.0
164	0x00000000	0.0
165	0x00000000	0.0
166	0x00000000	0.0
167	0x00000000	0.0
168	0x00000000	0.0
169	0x00000000	0.0
170	0x00000000	0.0
171	0x00000000	0.0
172	0x00000000	0.0
173	0x00000000	0.0
174	0x00000000	0.0
175	0x00000000	0.0
176	0x00000000	0.0
177	0x00000000	0.0
178	0x00000000	0.0
179	0x00000000	0.0
180	0x00000000	0.0
181	0x00000000	0.0
182	0x00000000	0.0
183	0x00000000	0.0
184	0x00000000	0.0
185	0x00000000	0.0
186	0x00000000	0.0
187	0x00000000	0.0
188	0x00000000	0.0
189	0x00000000	0.0
190	0x00000000	0.0
191	0x00000000	0.0
192	0x00000000	0.0
193	0x00000000	0.0
194	0x00000000	0.0
195	0x00000000	0.0
196	0x00000000	0.0
197	0x00000000	0.0
198	0x00000000	0.0
199	0x00000000	0.0
200	0x00000000	0.0
201	0x00000000	0.0
202	0x00000000	0.0
203	0x00000000	0.0
204	0x00000000	0.0
205	0x00000000	0.0
206	0x00000000	0.0
207	0x00000000	0.0
208	0x00000000	0.0
209	0x00000000	0.0
210	0x00000000	0.0
211	0x00000000	0.0
212	0x00000000	0.0
213	0x00000000	0.0
214	0x00000000	0.0
215	0x00000000	0.0
216	0x00000000	0.0
217	0x00000000	0.0
218	0x00000000	0.0
219	0x00000000	0.0
220	0x00000000	0.0
221	0x00000000	0.0
222	0x00000000	0.0
223	0x00000000	0.0
224	0x00000000	0.0
225	0x00000000	0.0
226	0x00000000	0.0
227	0x00000000	0.0
228	0x00000000	0.0
229	0x00000000	0.0
230	0x00000000	0.0
231	0x00000000	0.0
232	0x00000000	0.0
233	0x00000000	0.0
234	0x00000000	0.0
235	0x00000000	0.0
236	0x00000000	0.0
237	0x00000000	0.0
238	0x00000000	0.0
239	0x00000000	0.0
240	0x00000000	0.0
241	0x00000000	0.0
242	0x00000000	0.0
243	0x00000000	0.0
244	0x00000000	0.0
245	0x00000000	0.0
246	0x00000000	0.0
247	0x00000000	0.0
248	0x00000000	0.0
249	0x00000000	0.0
250	0x00000000	0.0
251	0x00000000	0.0
252	0x00000000	0.0
253	0x00000000	0.0
254	0x00000000	0.0
255	0x00000000	0.0

model/dense_2/BiasAdd/ReadVariableOp/resource f4 [256]
0	0x3bb67338	0.0055679344
1	0xbc96c658	-0.018405125
2	0x3c5c5158	0.013447128
3	0x3c340695	0.010987897
4	0xbc806a9c	-0.015675835
5	0x3cb13c73	0.02163527
6	0x3d0ec372	0.03485436
7	0x3b96676e	0.0045899665
8	0x3ab56209	0.0013838421
9	0x3d9ef7af	0.07762086
10	0x3cfb81e8	0.030701593
11	0x3c2e8121	0.010650904
12	0x3d938755	0.07203547
13	0x3df71ce0	0.12066054
14	0x39fdf8f0	0.00048441393
15	0xbb2af262	-0.0026084413
16	0xbca6ab2a	-0.02034529
17	0x3d250fba	0.0402982
18	0xbb305b2c	-0.0026909811
19	0x3c31ea9f	0.010859161
20	0x3cb35fb6	0.021896224
21	0x3cacb765	0.021083543
22	0xbc4ed5e3	-0.012624237
23	0x3d37c5d2	0.04486639
24	0x3cdd8636	0.027041536
25	0x3ce3853c	0.027773492
26	0x3c77009f	0.015075832
27	0x3d46aa4a	0.048502244
28	0x3c7d0a9b	0.015444423
29	0x3bcdf0c3	0.0062848045
30	0xba07e1c4	-0.0005183483
31	0x3a82abe0	0.0009969436
32	0x3c4b82c0	0.01242131
33	0x3d40415f	0.046937343
34	0x3c0cd979	0.008596771
35	0x3cfa67ee	0.030567136
36	0x3d52c387	0.051456
37	0x3c2d38a3	0.010572585
38	0x3b1213bf	0.0022289602
39	0x3cc6776f	0.024226872
40	0x3d5bf7c0	0.05370307
41	0xbca01066	-0.01953907
42	0x3bd86fd6	0.0066051288
43	0xbb93ba2f	-0.004508279
44	0x3c6ec75f	0.014573901
45	0x3ca13267	0.019677354
46	0xbc2a8a3b	-0.010408933
47	0x3d1f1fd3	0.03884871
48	0xbc8eb000	-0.017417908
49	0xbcad9f8b	-0.02119424
50	0x3b5c1817	0.0033583695
51	0x3c7e8787	0.015535242
52	0x3c10bf09	0.008834609
53	0x3c73cf2f	0.014880939
54	0x3da2112a	0.0791343
55	0xbc183f1e	-0.009292392
56	0x3d25c738	0.040473193
57	0xba16ae14	-0.00057479856
58	0x3d91bc17	0.071159534
59	0x3d38d653	0.04512627
60	0x3c86c598	0.016451642
61	0x3cfd14ab	0.030893644
62	0x3c8bb2b4	0.017052986
63	0x3b8ab293	0.0042327135
64	0x3c910cac	0.017706238
65	0x3d5a2811	0.053260867
66	0x3d106482	0.0352521
67	0x3d26504f	0.040603932
68	0xbc756e5e	-0.014979927
69	0xbc2ed887	-0.010671741
70	0x3cc9ecf1	0.024649115
71	0x3c6a1546	0.014287299
72	0x3d0e83ba	0.034793593
73	0x3d9d42b2	0.07678737
74	0xbc4eef0c	-0.012630235
75	0xbbee0e61	-0.0072648977
76	0x3cf3b4a7	0.029749228
77	0x3c978823	0.018497532
78	0x3c2f6fcf	0.01070781
79	0xbc344143	-0.011001888
80	0x3caf9b83	0.021436458
81	0xbcb843ea	-0.022493321
82	0x3c2bd29d	0.010487226
83	0x3cf0de8e	0.029402997
84	0x3d76a46f	0.06021541
85	0x3bb80a9e	0.0056165
86	0x3ccfe7d5	0.0253791
87	0x3cc7c3e7	0.024385406
88	0x3cecea26	0.028920244
89	0x3c7b5b11	0.015341536
90	0x3cb16446	0.02165426
91	0x3a6d5f39	0.0009055022
92	0x3b3de784	0.0028977105
93	0x3d06221d	0.032747377
94	0xbd13f7ca	-0.036124982
95	0xbc9fc1e0	-0.019501626
96	0x3c15bd66	0.009139394
97	0xbc9ee6b0	-0.01939711
98	0x3da14a86	0.07875542
99	0xbd022c4d	-0.03178053
100	0x3d82efde	0.06393407
101	0xbc2cdf52	-0.010551291
102	0xbc8866da	-0.016650606
103	0x3bbcdad6	0.005763392
104	0xbc24e696	-0.010064742
105	0x3d3acdcc	0.04560642
106	0x3d0e4bcd	0.034740258
107	0x3c53e04d	0.012931895
108	0x3c48dacc	0.0122591965
109	0x3cd80b54	0.02637259
110	0x3da32f64	0.079680234
111	0xbc1bba37	-0.009504846
112	0x3cea4963	0.028599447
113	0x3bd3392a	0.0064460235
114	0x3d475580	0.048665524
115	0xbd1bf4c7	-0.038075235
116	0xbc33928a	-0.010960231
117	0x3bf55482	0.0074868808
118	0xbcf9cda6	-0.030493569
119	0xbb003805	-0.001956464
120	0x3b3ca8ac	0.002878706
121	0x3cba11df	0.0227136
122	0x3cee984f	0.02912536
123	0xbc86062b	-0.016360363
124	0x3cdd2de4	0.026999421
125	0xbcf93f7f	-0.030425785
126	0x3c3385cf	0.010957195
127	0x3cc50ef1	0.024054976
128	0x3cf80955	0.030277887
129	0x3ccab93c	0.02474653
130	0x3d4044c9	0.0469406
131	0x3da74cf5	0.08168975
132	0xbac39ab9	-0.001492343
133	0xbc56c90e	-0.013109459
134	0x3cfaa7b6	0.030597549
135	0xbc9053e5	-0.017618129
136	0x3d1fd4b4	0.03902121
137	0x3d01793e	0.031609766
138	0xbbb63c28	-0.0055613704
139	0x3d2662a1	0.040621404
140	0xbc9493e6	-0.01813693
141	0xbc51c616	-0.012803575
142	0x3d4f59bb	0.050622683
143	0x3d6b3e20	0.057432294
144	0x3b712013	0.00367928
145	0x3cf01bc8	0.029310122
146	0x3c318834	0.010835696
147	0x39ec864c	0.00045113487
148	0xbcb60c55	-0.022222677
149	0x3cd89817	0.02643971
150	0xbcbc79ce	-0.0230073
151	0x3cb99b08	0.022656932
152	0x3d2502ac	0.04028575
153	0x3c426e90	0.0118671805
154	0x3bfd58ab	0.0077315173
155	0x3ce98259	0.028504537
156	0xbcddcbca	-0.027074713
157	0x3d58ea66	0.052957915
158	0x3d0e0597	0.0346733
159	0x3cf19193	0.02948836
160	0x3c906dbb	0.017630449
161	0x3d1eac69	0.038738642
162	0x3cdbf8e7	0.026852084
163	0x3cebb021	0.028770508
164	0x3c814ca8	0.015783623
165	0x3c3fdae9	0.011709907
166	0x3badf6c3	0.0053089573
167	0xb97dbdea	-0.00024198709
168	0x3d40bb70	0.047053754
169	0x3c0a60e5	0.008445953
170	0xbc94bbeb	-0.018156013
171	0x3b529904	0.0032134661
172	0x3c69ed85	0.0142778205
173	0x3d8a09ef	0.06740176
174	0xbc4b6529	-0.012414255
175	0xbc687066	-0.014186954
176	0xbc82e3ea	-0.015977819
177	0xbc0e978c	-0.008703124
178	0x3d17ccf5	0.037060697
179	0x3c02193a	0.007940585
180	0x3bbf1f07	0.005832556
181	0x3c201a10	0.009771839
182	0x3b1ed0ab	0.0024233263
183	0xbbf07ef8	-0.0073393546
184	0xbc8fd460	-0.017557323
185	0x3c8005fb	0.015627852
186	0x3c5ff179	0.013668411
187	0x3d3f9876	0.046776257
188	0x3d9ca06b	0.07647785
189	0x3d041bab	0.03225295
190	0x3d2e7e6d	0.042601038
191	0x3d2ee3b9	0.042697642
192	0x3c994ee8	0.018714383
193	0x3cea2137	0.028580291
194	0x3d5eba72	0.054377027
195	0x3c3aa527	0.011391914
196	0x3b5f7782	0.0034098332
197	0xbc02b2ce	-0.007977201
198	0x3d165cda	0.036709644
199	0x3d13dd9d	0.03610002
200	0x3d0b0d65	0.03394832
201	0xbad826e4	-0.0016491082
202	0x3c2f9a9a	0.010718012
203	0x3c0b9a86	0.008520728
204	0x3c6fef6c	0.014644485
205	0x3ceda5ca	0.029009718
206	0xbba7800a	-0.005111699
207	0x3c92cf80	0.01792121
208	0x3ca6f1ed	0.020379031
209	0x3ce3752a	0.02776583
210	0xbac08f6d	-0.0014691182
211	0x3c3ca113	0.011513012
212	0x3ca37a53	0.01995579
213	0x3d052a5c	0.0325111
214	0x3c1b2623	0.009469542
215	0xbd330fbc	-0.043716177
216	0x3d1a1cf7	0.03762528
217	0x3c4b1ec6	0.012397474
218	0xbd7b3ab7	-0.06133529
219	0x3d0a23dd	0.03372561
220	0x3c4e50b2	0.012592481
221	0x3d28e055	0.041229565
222	0x3ccfb3fe	0.025354382
223	0x3d067560	0.03282678
224	0x3d00dd25	0.0314609
225	0xbb1346f4	-0.0022472711
226	0x3ca1e2aa	0.019761402
227	0xb79dd700	-1.8815976e-05
228	0x3c5c8cfa	0.013461346
229	0x3d5c1a2a	0.05373589
230	0x3cf7325b	0.030175379
231	0x3d3775b4	0.044789985
232	0x3b2c864c	0.0026325164
233	0x3d32b1c9	0.04362658
234	0xbc2ddf25	-0.010612284
235	0xbc9cd326	-0.019143652
236	0xbc57a862	-0.013162704
237	0xbc512dcd	-0.012767267
238	0xbc4d045b	-0.012513245
239	0x3ca23fa4	0.019805737
240	0x3c807415	0.015680352
241	0x3d09b4ae	0.033619575
242	0x3d50e369	0.050998125
243	0x3d003d76	0.031308614
244	0x3d06c95d	0.03290688
245	0x3bbc593d	0.0057479427
246	0xbc867676	-0.016413908
247	0xbc92f3ff	-0.017938612
248	0x3ba154eb	0.004923453
249	0x3cea804e	0.028625634
250	0x3d03a2f9	0.032137845
251	0x3cbc9bd2	0.02302352
252	0xbbae09ea	-0.0053112404
253	0xbc452d62	-0.012034746
254	0x3c8577bb	0.016292443
255	0x3a5df842	0.0008467474

model/last_layer/BiasAdd/ReadVariableOp/resource f4 [31]
0	0xbbcd426a	-0.0062640207
1	0x3b9b4c6d	0.0047393353
2	0x3c1c74d1	0.009549336
3	0xbaa4b4a2	-0.001256604
4	0xbbac3a2f	-0.0052559595
5	0xbbdbc939	-0.006707337
6	0xba235675	-0.00062308396
7	0xbba4957e	-0.0050227037
8	0xbc0f8dd4	-0.008761842
9	0x3a2caee0	0.00065873377
10	0xbc024361	-0.007950635
11	0x3bfe0344	0.007751854
12	0xbb4160fd	-0.0029507272
13	0xbc169daa	-0.0091928635
14	0xbbc509c4	-0.006013127
15	0x3a7a767c	0.0009554399
16	0x3b9fedf3	0.0048806607
17	0xbbef2324	-0.0072978903
18	0xbcc88686	-0.024478208
19	0xbb303229	-0.0026885367
20	0xbb8c9118	-0.0042897575
21	0xbcb8e345	-0.022569308
22	0xbbd6e25d	-0.0065577463
23	0x3b644ec9	0.0034836999
24	0xbc30f201	-0.010799886
25	0xbc1f6632	-0.009728955
26	0x3bc31320	0.0059532076
27	0xbaed9494	-0.0018125945
28	0xbbd191de	-0.0063955626
29	0x3b78079c	0.0037846332
30	0x3b436486	0.0029814555

model/time_distributed_11/dense_1/BiasAdd/ReadVariableOp/resource f4 [64]
0	0xbc716ad9	-0.014734947
1	0xbc2c66bb	-0.01052254
2	0xbca13fa8	-0.019683674
3	0x3bd24499	0.006416869
4	0xbbedf09c	-0.007261349
5	0x3bbf7d30	0.005843781
6	0x3c209168	0.009800293
7	0x3cc0eb73	0.023549771
8	0xbc89140c	-0.016733192
9	0xbca63b08	-0.02029182
10	0xbc52b6da	-0.012860978
11	0xbc9b3b7e	-0.018949267
12	0x3c2f00e5	0.010681366
13	0xbcc73960	-0.02431935
14	0xbc85b745	-0.016322741
15	0xbca25978	-0.019818053
16	0xbc06267e	-0.008187888
17	0xbcce7c92	-0.025205884
18	0xbcca9be2	-0.024732534
19	0xbbc33e4c	-0.005958354
20	0xbc37bb35	-0.011214067
21	0x3c51cc33	0.012805033
22	0xbc3e0458	-0.011597715
23	0x3c129313	0.008946198
24	0xbccf5c83	-0.025312668
25	0xbcee355d	-0.02907818
26	0xbc1a9624	-0.00943521
27	0xbcd7f4fa	-0.026361931
28	0xbc88c98a	-0.016697664
29	0xbc30ec33	-0.010798502
30	0xbc023dc3	-0.007949295
31	0xbcb77335	-0.022393802
32	0x3b404adf	0.0029341502
33	0xbc4a646d	-0.012353045
34	0xbc8ca56b	-0.017168721
35	0xbcacf1c4	-0.021111377
36	0x3c62c4b3	0.013840842
37	0x3c460b71	0.012087689
38	0x387671b4	5.8756865e-05
39	0xbbdd24cb	-0.006748771
40	0xbc1fd3e5	-0.009755109
41	0xbc9d01a9	-0.01916583
42	0xbc386acf	-0.011255934
43	0xbb872baa	-0.004125078
44	0xbc0167cc	-0.007898282
45	0x3c0a4762	0.008439871
46	0x3ba367fa	0.00498676
47	0x3b9ddc42	0.0048175165
48	0xbcb472ea	-0.022027452
49	0xbc565c0d	-0.01308347
50	0xbc100164	-0.008789394
51	0xbca4fe68	-0.020140842
52	0x3c00361e	0.007825403
53	0xbcb8bc60	-0.022550762
54	0xbc6308d3	-0.013857084
55	0xbc86f368	-0.016473487
56	0xbc27ed46	-0.0102494415
57	0x3b7669ca	0.0037599676
58	0xbcb7a6a2	-0.022418324
59	0xbbc9acab	-0.006154617
60	0xbc9caa05	-0.01912404
61	0xbc482848	-0.012216635
62	0x3cb37261	0.021905126
63	0xbbc550d6	-0.0060215993

model/time_distributed_5/dense/BiasAdd/ReadVariableOp/resource f4 [32]
0	0xbcef8631	-0.029238792
1	0x3bf6659c	0.007519437
2	0x3b05d882	0.0020423238
3	0xbb1729f4	-0.0023065777
4	0x3b7bfbda	0.0038449676
5	0xbc3f02aa	-0.01165835
6	0xbd22c1db	-0.039735656
7	0xbc322cc3	-0.01087493
8	0x3cd14cfc	0.025549404
9	0xbbe71a11	-0.007052668
10	0x3bc4a1ea	0.006000747
11	0xbcffd7e8	-0.031230882
12	0xbc332fd5	-0.010936697
13	0x3c688b17	0.014193318
14	0x3b0c7cc2	0.0021436666
15	0xbd19b03c	-0.037521586
16	0xbce4561b	-0.02787309
17	0x3ca8808d	0.02056911
18	0x3cc140a7	0.023590399
19	0x3cdd5679	0.027018772
20	0xbb9cb86b	-0.0047827265
21	0xbc947cb5	-0.018125871
22	0x3c14bdd0	0.009078458
23	0xbc8d87e4	-0.017276712
24	0xbccd967f	-0.025096176
25	0x3c6eba1b	0.014570738
26	0xbc8cda59	-0.01719396
27	0xbac5e4b6	-0.0015098068
28	0xbc9f0256	-0.019410294
29	0xbb68cdc6	-0.003552304
30	0xbc2dfbf0	-0.010619149
31	0xbc66b990	-0.0140823275

model/dense_2/MatMul f4 [256, 32]
0	0xbd4e46c2	-0.05036045
1	0x3da83257	0.082127266
2	0x3e1036dc	0.14083427
3	0x3d92908b	0.07156476
4	0x3e02b6cf	0.12765048
5	0xbe085c32	-0.1331642
6	0xbca49f3a	-0.020095456
7	0x3da84d5e	0.082178816
8	0x3da847fd	0.08216856
9	0xbe1136da	-0.1418108
10	0x3b528fc3	0.0032129146
11	0x3e06029b	0.13086931
12	0xbad32856	-0.0016110044
13	0x3d9b8255	0.07593218
14	0xbe2398c9	-0.15976252
15	0x3db0ee93	0.086392544
16	0x3d896554	0.0670878
17	0xbd55cdc6	-0.052198194
18	0xbdd30852	-0.10304321
19	0x3bd480d8	0.006485086
20	0xbdc05b00	-0.09392357
21	0x3df5c602	0.120006576
22	0xbda2cdc8	-0.07949406
23	0xbdcae310	-0.0990659
24	0x3d80fbe3	0.062980436
25	0x3dfef34f	0.12448751
26	0x3b14e2e4	0.0022718245
27	0x3e1d9193	0.15387563
28	0xbdce8e43	-0.10085728
29	0x3db76474	0.08954707
30	0xbe1566e5	-0.14590032
31	0x3d610b4e	0.05494242
32	0xbcb3c6b2	-0.021945331
33	0x3da8d866	0.082444
34	0x3b63a727	0.0034737082
35	0x3d3df3f4	0.04637523
36	0xbdeb45e3	-0.11487939
37	0x3d0cfec9	0.03442267
38	0xbdad46be	-0.084607586
39	0x3e1ee38b	0.15516488
40	0xbdafa4ce	-0.08576356
41	0xbd6be37c	-0.057589993
42	0xbe028c3a	-0.12748805
43	0x3db20aca	0.08693464
44	0x3dde4b15	0.108541645
45	0xbbc14362	-0.0058979252
46	0x3d783292	0.060595103
47	0xbca8fce1	-0.020628395
48	0xbdd8a0e0	-0.105775595
49	0xba84399e	-0.0010087972
50	0x3dcd5d6f	0.10027587
51	0x3dd7af16	0.10531442
52	0x3db59d18	0.08867854
53	0xbde311c5	-0.11087374
54	0x3dac8e39	0.08425564
55	0x3de98f88	0.114043295
56	0xbe0c078e	-0.13674757
57	0xbdf57b92	-0.1198646
58	0xbd51bb5d	-0.051204074
59	0xbd9941e4	-0.07483271
60	0x3b659192	0.0035029394
61	0xbd01a6a2	-0.031653054
62	0x3c7516d7	0.014959059
63	0xbdc564ea	-0.096383885
64	0x3de52d20	0.111902475
65	0x3d1da06b	0.038483065
66	0x3b50edda	0.0031880052
67	0xbdf359a3	-0.11882331
68	0xbdb35033	-0.08755531
69	0x3dc0d1cd	0.09415016
70	0x3df752fa	0.120763734
71	0x3df3a061	0.11895824
72	0xbdd36d1b	-0.103235446
73	0x3c38cd5e	0.011279432
74	0x3d3890c3	0.04505993
75	0xba5ccf7b	-0.0008423251
76	0x3dce0551	0.10059608
77	0xbda7f110	-0.08200276
78	0xbdd5281a	-0.104080394
79	0x3e16e71a	0.14736596
80	0x3be4bbb8	0.0069803856
81	0x3c178734	0.0092485435
82	0xbdb34236	-0.08752863
83	0xbc3cee59	-0.011531436
84	0xbd80eff9	-0.06295771
85	0x3e3e0c80	0.18559456
86	0xbd68bfb5	-0.05682345
87	0xbd1fcca3	-0.039013516
88	0x3d33f665	0.043936152
89	0x3d24c9d2	0.040231533
90	0x3ce43a24	0.027859755
91	0x3e307a6a	0.17234197
92	0xbd78757a	-0.06065891
93	0x3db3a3b0	0.08771455
94	0x3e5d4f12	0.21612194
95	0xbd83ee58	-0.06441945
96	0xbdf4fc73	-0.11962213
97	0x3e1ea7f9	0.15493764
98	0x3dba7f73	0.0910634
99	0xbcd225a8	-0.025652722
100	0xbc51f574	-0.012814868
101	0x3e0227fb	0.12710564
102	0xbe0cf96a	-0.13767019
103	0xbe0cc0e5	-0.13745458
104	0xbc884aaf	-0.016637174
105	0xbd77b7f2	-0.06047816
106	0x3e29150b	0.16511934
107	0x3d3349e2	0.043771632
108	0x3e1a6aee	0.15079853
109	0xbc2a9476	-0.010411372
110	0x3df79037	0.12088054
111	0xbe1631ae	-0.14667389
112	0xbd14e28c	-0.036348864
113	0x3dd13648	0.102154315
114	0x3da2e7b6	0.079543516
115	0x3e413a98	0.18870008
116	0xbdb8ff24	-0.09033039
117	0x3c307eb5	0.010772397
118	0xbd806010	-0.062683225
119	0x3d35f502	0.04442311
120	0xbda22f8b	-0.07919224
121	0x3c5320cc	0.012886237
122	0x3e0f9c6a	0.14024511
123	0x3e01ee00	0.12688446
124	0x3d71c38a	0.05902437
125	0x3d7698d6	0.06020435
126	0xbe060e8a	-0.13091484
127	0x3e3e3a44	0.18576914
128	0x3e04d96f	0.1297357
129	0x3d5be52f	0.053685363
130	0xbcd72189	-0.026261108
131	0xbd977cba	-0.073968366
132	0xbd612ced	-0.054974485
133	0xbd834860	-0.06410289
134	0x3db46e12	0.08810057
135	0x3e17320f	0.1476519
136	0xbd4d71c8	-0.05015734
137	0xbdb5b589	-0.08872516
138	0x3d27dd6e	0.040982656
139	0x3dc6fab0	0.097157836
140	0x3da44fdb	0.08023044
141	0xbcc5b825	-0.024135659
142	0x3e04f414	0.12983733
143	0x3df4e05c	0.11956856
144	0x3d436876	0.047707044
145	0xbe412353	-0.18861131
146	0xbdb095d9	-0.08622331
147	0xbda65f01	-0.08123589
148	0x3b53bb4b	0.003230768
149	0x3dac643d	0.084175564
150	0x3c999d3e	0.018751737
151	0xbdab9ad1	-0.08379138
152	0x3da02c56	0.078209564
153	0x3d874f24	0.06606892
154	0xbd3b7d8f	-0.04577404
155	0x3dbd950c	0.09256944
156	0x3cbc28c3	0.022968655
157	0x3caca839	0.021076309
158	0xbd51e917	-0.051247682
159	0xbd427e7c	-0.047483906
160	0xbd955f2b	-0.072935425
161	0xbe56893d	-0.2095079
162	0x3d47db3b	0.04879306
163	0x3d696b29	0.05698696
164	0xbd64c436	-0.055851184
165	0x3cf447f6	0.02981947
166	0x3cd7e930	0.02635631
167	0x3defd335	0.117102064
168	0xbd76a784	-0.06021835
169	0xbd8ec3f1	-0.069709666
170	0x3d969638	0.07352871
171	0x3b478570	0.0030444525
172	0x3e1e0e00	0.15435028
173	0x3e3663f7	0.17811571
174	0xbda79d61	-0.081843145
175	0x3e0d5fa8	0.13806021
176	0x3dfd0d4a	0.1235605
177	0x3da54d5b	0.08071395
178	0x3e638c86	0.22221574
179	0x3cf8df5f	0.03037995
180	0xbd3f56d3	-0.04671366
181	0x3d780555	0.06055196
182	0x3c931c88	0.01795794
183	0xbcd17dfd	-0.025572771
184	0xbd9bda61	-0.07610012
185	0x3cfc1808	0.030773178
186	0xbdf80e6e	-0.12112127
187	0xbe3529fd	-0.17691799
188	0x3c7cf754	0.015439827
189	0xbdb6e059	-0.0892951
190	0xbbc77472	-0.0060868794
191	0x3d9135a1	0.07090307
192	0x3e16d931	0.1473129
193	0xbdda90a8	-0.10672122
194	0x3d99367d	0.07481096
195	0xbc89493a	-0.01675855
196	0x3cec2e46	0.028830659
197	0xbbeb428a	-0.007179563
198	0x3df5283b	0.11970564
199	0xbca19757	-0.019725485
200	0xba51876a	-0.00079928956
201	0x3debb62a	0.115093544
202	0xbdf4d047	-0.11953788
203	0x3d855f8c	0.06512365
204	0xbd923db3	-0.071406744
205	0xbe486e44	-0.19573313
206	0x3d4ff41a	0.050769903
207	0xbc385abd	-0.011252102
208	0x3d4ba1b7	0.04971477
209	0x3d3aa08b	0.045563262
210	0x3ca864a6	0.020555805
211	0xbdd3f9ac	-0.103503555
212	0xbd305c4b	-0.043056767
213	0x3e2594f6	0.16170105
214	0xbd2995f4	-0.041402772
215	0x3d322c53	0.043499302
216	0x3d1669c7	0.03672197
217	0xbd043177	-0.032273736
218	0x3e0037dd	0.1252131
219	0x3e14c19b	0.1452698
220	0x3dd4b6e2	0.10386445
221	0x3d17aeae	0.037031822
222	0x3da48287	0.080327086
223	0xbe352d43	-0.17693047
224	0x3d53ab9d	0.051677335
225	0xbb717a11	-0.003684644
226	0xbdaa8361	-0.0832584
227	0xbdf86b21	-0.12129808
228	0xbd94ebf4	-0.07271567
229	0xbd668bc8	-0.05628565
230	0xbcc89ced	-0.02448889
231	0x3e0bd86b	0.13656776
232	0xbd4fa297	-0.050692167
233	0x3ca52be8	0.020162538
234	0xbab915f0	-0.0014120918
235	0x3de5fe96	0.11230199
236	0x3c8e62a5	0.017381022
237	0xbbd758a9	-0.0065718484
238	0x3dd493d2	0.10379757
239	0x3c63a2a3	0.013893756
240	0xbc6c477c	-0.01442134
241	0x3c97456b	0.018465718
242	0x3cdfc679	0.027316319
243	0x3d048a54	0.032358482
244	0x3baa3ce4	0.005195247
245	0x3e01b5f3	0.12667064
246	0x3c831236	0.015999895
247	0xbe13daf8	-0.14438999
248	0x3ccc03fa	0.02490424
249	0x3d44b6d1	0.04802591
250	0xbe31d283	-0.1736546
251	0xbe49ea0e	-0.19718191
252	0xbdb9da21	-0.09074808
253	0xbda66914	-0.08125511
254	0xbccfcbc9	-0.025365727
255	0xbdb5de0f	-0.08880245

model/last_layer/MatMul f4 [31, 256]
0	0xba7acd4b	-0.0009567334
1	0x3d31865e	0.043341033
2	0x3d0af203	0.033922207
3	0xbd36d768	-0.04463902
4	0x3cc15dac	0.023604237
5	0x3c925451	0.01786247
6	0xbce5ac8b	-0.028036376
7	0xbd7e5735	-0.062094886
8	0xbd603ac9	-0.054743562
9	0x3ceef98b	0.029171726
10	0xbd16f6ce	-0.036856465
11	0xbcfc9dc2	-0.030836944
12	0xbd36eed0	-0.044661343
13	0xbc7fb96f	-0.015608176
14	0xbd593814	-0.053031996
15	0x3c84f162	0.016228382
16	0xbcb6c293	-0.022309577
17	0xbb5d2ba1	-0.0033747929
18	0xbc7c97cb	-0.01541705
19	0x3c66aec3	0.014079752
20	0x3ad02c2f	0.0015882308
21	0xbc0dc355	-0.008652528
22	0xbd088433	-0.0333292
23	0xbdb52eec	-0.0884684
24	0xbdd4b6f5	-0.10386459
25	0xbce51c7c	-0.027967684
26	0xbcafc93a	-0.021458257
27	0xbb64b054	-0.0034895139
28	0xbcc1b370	-0.023645133
29	0xbd86e0be	-0.06585835
30	0xbce7437b	-0.02823042
31	0xbd4dcd83	-0.05024482
32	0xbd8ecedb	-0.06973048
33	0xbc047005	-0.008083348
34	0x3d560542	0.052251108
35	0xbc526f60	-0.012843937
36	0xbd9a14d0	-0.07523501
37	0xbcf2e119	-0.02964835
38	0xbcfdb651	-0.030970724
39	0x3d7fc505	0.06244375
40	0xbd4ea994	-0.05045469
41	0xbb9b6d38	-0.0047432445
42	0x3c027def	0.007964595
43	0x3d4314b9	0.047627185
44	0xbd48974c	-0.048972413
45	0xbce25934	-0.027630426
46	0xbdbcaf01	-0.09213067
47	0xbd078d71	-0.033093873
48	0xbc7db8b1	-0.015485928
49	0x3d1a3590	0.037648737
50	0xbcd66a3f	-0.026173709
51	0xbd8b3db2	-0.06798877
52	0xbbc83d87	-0.0061108503
53	0x3d48e7b5	0.049049098
54	0xbdd44f15	-0.10366646
55	0xbc11a00e	-0.008888258
56	0xbd0c03c5	-0.034183282
57	0x3d544e15	0.051832277
58	0xbb846be3	-0.0040411814
59	0xbd058295	-0.032595236
60	0xbd9a7009	-0.075409
61	0xbd4370e0	-0.047715068
62	0x3d290b85	0.04127075
63	0x3cb80990	0.022465497
64	0xbc78a2f3	-0.015175569
65	0xbd2099f3	-0.039209317
66	0xbd32e311	-0.04367358
67	0xbd4ceb4a	-0.050029077
68	0xbc5bf383	-0.013424757
69	0x3c3eb803	0.0116405515
70	0xbc1bf823	-0.00951961
71	0xbd1330f3	-0.035935353
72	0xbc5cc7c8	-0.013475366
73	0xbdcb3206	-0.099216506
74	0xbd7ca4b1	-0.0616805
75	0x3d263bb2	0.040584274
76	0x3d6d11fe	0.057878487
77	0x3d375d86	0.044766925
78	0x3d109739	0.035300467
79	0xbcbfd152	-0.023415241
80	0x3cb9ae9a	0.022666264
81	0xbd5e29e6	-0.054239176
82	0xbd4e2b9b	-0.050334554
83	0xbd9b42de	-0.07581113
84	0xbbc889ff	-0.006119966
85	0xbd0a3c01	-0.03374863
86	0x3cebfd95	0.02880744
87	0x3d4ca763	0.04996432
88	0x3d12afd1	0.035812203
89	0xbdb21a32	-0.086964026
90	0x3c322f9f	0.010875612
91	0x3cb6f422	0.022333208
92	0x3ce4c423	0.027925557
93	0x3d61932e	0.055072002
94	0xbdfcf8a9	-0.12352116
95	0xbd6101c7	-0.054933336
96	0x3c42a6b8	0.011880569
97	0xbd5bbbb6	-0.053645812
98	0xbc9b9116	-0.01899008
99	0x3d317e8e	0.043333583
100	0xbd614a9b	-0.05500279
101	0xbd475f38	-0.048674792
102	0x3d65c777	0.056098428
103	0x3c7af506	0.015317207
104	0x3c8d51a8	0.01725085
105	0x3cb28cfa	0.021795738
106	0xbc2682c6	-0.010163015
107	0xbcb90afe	-0.02258825
108	0xbc98ae8b	-0.018637916
109	0xbd9484a2	-0.0725186
110	0xbd5e8d0d	-0.054333735
111	0xbd517c31	-0.05114383
112	0x3c685bd4	0.01418205
113	0xbdb294eb	-0.0871981
114	0xbce328c6	-0.027729403
115	0x3c14177e	0.009038804
116	0xbd6c4b3e	-0.057688944
117	0x3c3e86a1	0.011628778
118	0x3a618bfe	0.00086039293
119	0xbd61822d	-0.055055786
120	0xbd8b5e0b	-0.06805047
121	0xbb6ed1ca	-0.0036440962
122	0xbd677829	-0.056511078
123	0xbb9ea39a	-0.00484128
124	0x3d0b844a	0.034061708
125	0xbc2ab761	-0.0104196975
126	0xbdc390c8	-0.09549099
127	0xbc89db18	-0.016828105
128	0xbd3015df	-0.042989608
129	0xbbd1b426	-0.006399649
130	0xbd9f2bc3	-0.07772019
131	0xbdbaceaf	-0.09121453
132	0xbd38f7bf	-0.045158144
133	0xbd3e6085	-0.046478767
134	0xbd214a8d	-0.039377738
135	0xbd2e115d	-0.042497028
136	0xbd29c86d	-0.041450907
137	0xbcef5088	-0.029213205
138	0xbce99ab6	-0.028516155
139	0x3cdddb8c	0.027082227
140	0xbd54b7f9	-0.051933262
141	0xbb86eedf	-0.004117831
142	0xbdad67de	-0.08467077
143	0xbd4e1044	-0.05030848
144	0xbcd7f8a0	-0.02636367
145	0x3cfb51eb	0.03067871
146	0xbdb58621	-0.08863474
147	0xbbe42a25	-0.006963032
148	0xbd5a3881	-0.053276543
149	0xbd844714	-0.064588696
150	0xbbeb6000	-0.007183075
151	0xbd0ddc27	-0.03463378
152	0xbbd4ed9e	-0.0064980527
153	0xbc300ad3	-0.010744768
154	0xba96b55e	-0.0011498143
155	0xbd54b05d	-0.051926006
156	0xbbec4773	-0.007210666
157	0xbd1c26c8	-0.038122922
158	0x3c1c0b55	0.009524186
159	0xbbe16488	-0.0068784393
160	0xbd1e258d	-0.03861003
161	0xbd9e88f2	-0.07740964
162	0xbc32ff4b	-0.010925124
163	0xbc94556f	-0.018107144
164	0xbd8e9b9e	-0.069632754
165	0x3cc1cd63	0.023657506
166	0x3ca8c061	0.020599546
167	0xbd7f7f73	-0.062377404
168	0xbce87373	-0.028375363
169	0x3d23c88b	0.039986175
170	0x3c0c65b4	0.00856917
171	0x3d1f9eaa	0.038969673
172	0xbc3df094	-0.011593003
173	0xbd44d854	-0.04805787
174	0x3cf53b7f	0.029935597
175	0x3d0d9d81	0.034574036
176	0x3d70e22e	0.05880945
177	0x3b8d5138	0.0043126605
178	0x3d689a16	0.056787573
179	0x3c123f34	0.008926202
180	0x3c865aca	0.016400713
181	0x3d1f108b	0.038834136
182	0xbd17a718	-0.037024587
183	0x3d084f08	0.033278495
184	0xbd0bf011	-0.034164492
185	0x3d42a604	0.047521606
186	0x3cd1fc67	0.02563305
187	0x3b91b4c3	0.0044465973
188	0xbc7c5fe6	-0.015403723
189	0x3baf28cb	0.005345439
190	0x3d24ce2f	0.040235694
191	0xbd19fd67	-0.03759518
192	0xbd0f2b3c	-0.03495334
193	0xbd6c30e9	-0.05766383
194	0x3cdae68d	0.026721263
195	0xbd66f064	-0.056381598
196	0xbdc16abe	-0.094441876
197	0xbc1e43b9	-0.009659701
198	0xbc70c92d	-0.014696402
199	0x3c2460cd	0.010032845
200	0xbb9a1a55	-0.004702846
201	0x3c9b76b4	0.0189775
202	0xbd632816	-0.05545815
203	0x3d22831e	0.039675824
204	0xbd14fbe0	-0.03637302
205	0xbd342dc0	-0.043988943
206	0x3cf680a9	0.030090647
207	0x3ca50e9f	0.020148573
208	0x3c919d95	0.017775336
209	0xbd402b42	-0.046916254
210	0xbd4ac6fd	-0.049506176
211	0xbdc8d7e2	-0.098068014
212	0xbd536bed	-0.051616598
213	0xbcf2778f	-0.029598026
214	0x3d21272f	0.03934401
215	0xbdf42787	-0.11921602
216	0xbdb9d2cb	-0.09073409
217	0x3c90448e	0.017610814
218	0xbc5a57ae	-0.0133265685
219	0xbdb789d3	-0.08961835
220	0x3d150bd6	0.03638824
221	0xbb98ab77	-0.004659112
222	0xbd283a3d	-0.041071165
223	0xbccfcbf1	-0.025365802
224	0xbcac9f5e	-0.021072086
225	0xbd206fcc	-0.039169118
226	0x3cd9240b	0.026506444
227	0xbbfde1a5	-0.007747846
228	0xbd72f852	-0.059318848
229	0xbd67819f	-0.0565201
230	0x3cde794d	0.02715745
231	0xbce5dea1	-0.02806026
232	0xbcc49a67	-0.023999406
233	0xbc70c00c	-0.014694225
234	0xbb50b7ce	-0.0031847837
235	0xbcd91faa	-0.026504356
236	0xbd4bf4b6	-0.04979392
237	0x3be8b16f	0.00710123
238	0x3ce7f570	0.028315276
239	0xbd47515c	-0.048661575
240	0xbd7fdc56	-0.062465988
241	0x3c9d0114	0.019165553
242	0xbe23d4b9	-0.15999116
243	0xbc58a4cf	-0.013222887
244	0x3d1dabff	0.038494106
245	0x3c831710	0.016002208
246	0xbb874e3f	-0.0041292007
247	0xb6366990	-2.7181559e-06
248	0xba974042	-0.0011539536
249	0x3cec2ebd	0.02883088
250	0xbdb7d863	-0.08976819
251	0xbd53ade6	-0.051679514
252	0x3d0e06b0	0.034674346
253	0x3c8f2714	0.017474689
254	0x3d0df106	0.034653686
255	0xbcd072c4	-0.02544535

model/time_distributed_11/dense_1/MatMul f4 [64, 1488]
0	0x3d14793a	0.036248423
1	0x3d4de09b	0.05026303
2	0x3d0d3145	0.034470815
3	0x3cd83838	0.026393995
4	0x3d0293a3	0.03187908
5	0x3d88ca3e	0.066792
6	0x3d29d104	0.0414591
7	0x3d15c349	0.03656319
8	0x3d8da4b7	0.069161825
9	0xbcda4e1b	-0.026648572
10	0x3d8844a4	0.06653717
11	0x3c643cc0	0.0139305
12	0x3d1ed080	0.03877306
13	0xbc1ca20e	-0.009560121
14	0xbc8b1736	-0.016978841
15	0xbc1c83e9	-0.009552934
16	0x3c200429	0.009766617
17	0x3d674be5	0.056468863
18	0x3c1b2258	0.009468637
19	0x3ccdf2bf	0.025140164
20	0xbd19620e	-0.037447028
21	0x3b786f1f	0.003790803
22	0x3d24261b	0.040075403
23	0x3cae2eb8	0.021262512
24	0xbd29bb0c	-0.041438147
25	0xbceb8ef5	-0.02875469
26	0x3d3d529c	0.04622136
27	0xbc111f2e	-0.0088575315
28	0xbcff611b	-0.031174233
29	0x3adee7a4	0.001700629
30	0x3da2c583	0.079478286
31	0x3cc4518f	0.023964671
32	0xbc27907b	-0.010227318
33	0x3c6a133d	0.014286813
34	0xbd3ca02f	-0.0460512
35	0xbd44491d	-0.04792129
36	0x3adeb443	0.0016990978
37	0xbce1c64c	-0.027560376
38	0x3d896c83	0.0671015
39	0x3d87f5db	0.0663869
40	0x3d2e2b15	0.042521555
41	0xbbaaac20	-0.005208507
42	0xbb13cb34	-0.0022551538
43	0x3b9ba716	0.004750143
44	0xbc0e6233	-0.008690405
45	0xbb594b05	-0.0033156287
46	0x3d1f9219	0.03895769
47	0x3d42ffe7	0.04760733
48	0xbcaaa55b	-0.0208308
49	0xbd485afc	-0.048914894
50	0xbd104ed2	-0.03523142
51	0x3caf9cc7	0.021437062
52	0x3d2868dc	0.041115627
53	0x3d59b835	0.05315419
54	0x3bc79335	0.0060905465
55	0x3c0517ed	0.00812338
56	0x3d07b0f4	0.03312774
57	0x3c50fba0	0.012755305
58	0x3d914163	0.0709255
59	0xbd376c54	-0.044781044
60	0xbd01e9c7	-0.031717088
61	0x3d8a9b73	0.06767931
62	0x3d65e4a3	0.056126248
63	0xbc0a7dac	-0.008452814
64	0x3d540932	0.05176658
65	0x3d01cb23	0.031687867
66	0xbc9b0bbf	-0.0189265
67	0x3d6749de	0.05646693
68	0x3d597e5e	0.05309903
69	0x3d254893	0.040352415
70	0xbbcf7055	-0.0063305297
71	0x3c2b3de8	0.010451771
72	0x3b1731d8	0.002307048
73	0xbd469d49	-0.048489843
74	0x3d99a51f	0.075021975
75	0x3cbf76f5	0.023372153
76	0x3d75be2b	0.05999581
77	0x3d76c333	0.06024475
78	0x3d6aff56	0.057372414
79	0xbc73612c	-0.014854711
80	0x3a10f15d	0.000552913
81	0x3d2e99c6	0.04262712
82	0x3d93a1b1	0.072085746
83	0xbd24a0ac	-0.04019229
84	0xbc2186cb	-0.009858797
85	0xbd4aa831	-0.049476806
86	0x3b0fbb11	0.0021931569
87	0x3d04e184	0.03244163
88	0xbcb3d4c5	-0.021952042
89	0x3cf8862c	0.030337416
90	0x3d21df7e	0.03951978
91	0x3c33d58d	0.010976207
92	0xbcd3f27d	-0.025872463
93	0xbcc2ccab	-0.023779234
94	0xbd043b26	-0.03228297
95	0xbd246fac	-0.04014556
96	0x3d8e5daa	0.06951459
97	0x3cd03978	0.025418028
98	0x3d3148a7	0.043282177
99	0x3c89e5ce	0.016833212
100	0xbd5462a4	-0.051851884
101	0x3d8b327a	0.06796737
102	0xbd12ada0	-0.035810113
103	0xbd1862b0	-0.03720349
104	0x3c5850e0	0.013202876
105	0xbd044c0c	-0.032299086
106	0x3bcebdce	0.0063092476
107	0x3c37c623	0.011216673
108	0xbce328f6	-0.027729493
109	0x3d6bfcb2	0.057614036
110	0xbcce0e0b	-0.02515318
111	0x3c9f7a36	0.019467454
112	0xba5d0c3e	-0.0008432305
113	0x3d7ba928	0.061440617
114	0x3c626eaa	0.01382033
115	0x3cf06ed0	0.029349715
116	0xbd10525c	-0.035234794
117	0x3ccd67f0	0.025073975
118	0x3d8754d5	0.06607977
119	0x3d48b5c3	0.049001466
120	0xbd3ec0f3	-0.04657073
121	0xbd09f788	-0.03368333
122	0x3d7159f8	0.05892369
123	0xbd327a26	-0.04357352
124	0xbd33d1c4	-0.04390122
125	0x3a823f1c	0.0009937021
126	0x3cd11ace	0.025525477
127	0xbce899b8	-0.028393611
128	0x3d4c85ac	0.049932167
129	0x3d7c6c5b	0.061626773
130	0x3d18c961	0.037301425
131	0xbd27d943	-0.04097868
132	0xba210249	-0.0006142003
133	0x3c498554	0.012299854
134	0x3d860b9c	0.06545183
135	0x3d26b7be	0.040702574
136	0xbce15b1d	-0.027509267
137	0x3d091c5e	0.03347432
138	0xbbdcf788	-0.006743375
139	0xbc4df5ff	-0.012570857
140	0x3d466c5e	0.04844319
141	0x3d82f805	0.06394962
142	0xbc891239	-0.016732322
143	0x3d681fb2	0.056670852
144	0xbd441293	-0.047869276
145	0x3d3bac6e	0.04581874
146	0xbc8f8e98	-0.017524049
147	0xbd3715a4	-0.044698372
148	0xbc88cced	-0.016699279
149	0xbcc792eb	-0.024362048
150	0x3d9577d9	0.0729825
151	0x3d8c3d7a	0.06847663
152	0xbd426de0	-0.047468066
153	0xbce8a394	-0.028398313
154	0x3d785566	0.060628317
155	0x3d8d125b	0.06888267
156	0xbcf6a304	-0.030107029
157	0xbccf36b7	-0.025294645
158	0x3d3dad2f	0.04630774
159	0x3cda0def	0.026617972
160	0xbcc752bd	-0.024331445
161	0x3d3860a4	0.04501404
162	0x3d5869fb	0.052835446
163	0xbc891fd7	-0.016738815
164	0x3d803f7d	0.062621094
165	0xbd1b79e7	-0.037958052
166	0x3d8d2ac3	0.06892922
167	0xbbad4dcb	-0.0052888147
168	0x3af8e612	0.0018989465
169	0x3bbe87ac	0.005814513
170	0x3d51d758	0.05123076
171	0x3d154810	0.036445677
172	0xbd1a5e76	-0.03768774
173	0x3d8f6c86	0.07003121
174	0x3d0bd9f1	0.034143392
175	0x3c74b153	0.0149348555
176	0xbcffefce	-0.031242277
177	0xbd271bf9	-0.04079816
178	0xbd006fde	-0.031356685
179	0xbd338627	-0.04382911
180	0x3d5d7995	0.054071028
181	0x3d2c235d	0.042025913
182	0x3c9fc539	0.019503223
183	0x3cbb6558	0.022875473
184	0x3cb4b6ad	0.022059763
185	0xbc50e113	-0.012748974
186	0x3cdda999	0.02705841
187	0xbce320bd	-0.027725572
188	0x3bbac44a	0.005699669
189	0x3d880a84	0.06642631
190	0x3cca2ff4	0.024681069
191	0x3c4748ff	0.0121634
192	0x3ca56c43	0.020193225
193	0x39e30880	0.00043303147
194	0x3d34822b	0.04406945
195	0x3d1bb856	0.038017593
196	0x3d3a8b58	0.045543045
197	0xbcbea282	-0.02327085
198	0x3d43897e	0.047738545
199	0x3c559036	0.013034871
200	0x3b9ee390	0.004848905
201	0xbca7c9fe	-0.02048206
202	0x3cf8a5cf	0.030352501
203	0x3c951bac	0.018201672
204	0x3d895d57	0.06707256
205	0x3aca3bb1	0.0015429166
206	0x3d1db54d	0.03850298
207	0x3d68971a	0.056784727
208	0xbb75d120	-0.0037508681
209	0xbd457687	-0.04820874
210	0x3d4c28b4	0.049843505
211	0xbd0343cf	-0.03204709
212	0x3d84d6c2	0.06486274
213	0x3d8ac6a5	0.0677617
214	0x3d3b3b84	0.045711055
215	0xbd09dce9	-0.033657942
216	0x3d7f29f0	0.062295854
217	0xbccfc606	-0.02536298
218	0xbd16fd6c	-0.036862776
219	0x3d80f6fc	0.062971085
220	0x3d064cdc	0.032788143
221	0xbc9ab483	-0.018884903
222	0x3a9d4bde	0.001200076
223	0x3cb61c69	0.022230344
224	0x3d31d1df	0.04341304
225	0xbd4299dd	-0.047510017
226	0xbd0462b7	-0.032320704
227	0x3d864bbd	0.06557415
228	0xbcac0597	-0.02099876
229	0x3d8d96e5	0.069135465
230	0x3b8d51cc	0.0043127295
231	0xbd6e0356	-0.05810865
232	0x3d6b8f77	0.057509866
233	0x3d2b336e	0.041797094
234	0x3c239a53	0.009985524
235	0x3d25cf3e	0.040480845
236	0x3be862a1	0.0070918356
237	0x3ca9b887	0.020717872
238	0x3d5ea423	0.05435575
239	0x3c7fd298	0.015614174
240	0x3c569c0a	0.013098726
241	0x3c2ad74b	0.010427306
242	0x3b2ceef5	0.0026387547
243	0x3d11eb1d	0.035624612
244	0x3d824636	0.06361048
245	0xbcc3c773	-0.023898816
246	0xbcb52a18	-0.022114798
247	0x3c1cc2f0	0.009567961
248	0xbcbb8f42	-0.02289546
249	0x3d88d53b	0.066812955
250	0xbcb3abc7	-0.021932496
251	0xbd43566b	-0.047689836
252	0xbd0156b1	-0.031576816
253	0xbccecb0c	-0.025243305
254	0x3d43148e	0.047627024
255	0x3d363b7c	0.044490322

model/time_distributed_3/batch_normalization/FusedBatchNormV3 f4 [8]
0	0xbf9eb348	-1.2398462
1	0xbfa836a5	-1.3141676
2	0xbfa59888	-1.2937174
3	0xbf978f9f	-1.1840705
4	0xbfa6c5bb	-1.3029093
5	0xbf60b422	-0.8777486
6	0xbf4edfc8	-0.80810213
7	0xbf86d100	-1.0532532

model/time_distributed_3/batch_normalization/FusedBatchNormV31 f4 [8]
0	0x3ecba379	0.39773157
1	0x3e8e7377	0.27822468
2	0x3e778277	0.24170862
3	0x3e90f3dd	0.28311053
4	0x3e98f5b6	0.29874963
5	0x3e3725a9	0.1788546
6	0x3e3bb2c6	0.18329915
7	0x3e46fd94	0.1943267

model/time_distributed_5/dense/MatMul f4 [32, 168]
0	0x3dcdae21	0.10042978
1	0x3d4a1f9c	0.04934655
2	0x3c952f7b	0.018211117
3	0xbe007203	-0.12543492
4	0x3dc73d1e	0.09728454
5	0x3de86d7d	0.11349008
6	0x3e196976	0.14981636
7	0x3e2313e7	0.15925561
8	0xbc0a65d4	-0.008447129
9	0x3c976845	0.018482337
10	0x3c9c4bad	0.019079054
11	0x3dc32d14	0.09530082
12	0x3df77f60	0.12084842
13	0x3e1d59db	0.15366308
14	0xbdba7d57	-0.09105938
15	0x3da320a8	0.07965213
16	0xbdba0137	-0.09082263
17	0xbdb32a72	-0.0874833
18	0xbe092e5b	-0.1339659
19	0xbdcb931c	-0.09940168
20	0x3c8ba78e	0.01704767
21	0x3e052f7e	0.13006398
22	0x3d24d4dc	0.04024206
23	0xbbc84444	-0.0061116535
24	0x3d09796d	0.033563066
25	0x3c1bebdc	0.0095166825
26	0xbdb104fd	-0.086435296
27	0xbd530c64	-0.05152549
28	0x3e203668	0.15645754
29	0x3d704b8e	0.058665805
30	0xbde0e8b7	-0.10981887
31	0x3cb7df03	0.022445207
32	0xbe2c7932	-0.16843107
33	0x3e4db521	0.20088626
34	0x3ddc26c0	0.107495785
35	0xbb92c5fa	-0.004479167
36	0xbd4a3160	-0.049363494
37	0x3dc0a115	0.09405724
38	0xbe24ee39	-0.161065
39	0x3d17c5ec	0.037053987
40	0x3e38d3e5	0.18049581
41	0xbd553cb2	-0.052059837
42	0x3d4496d6	0.04799541
43	0xbe48371c	-0.19552273
44	0xbc31f5d6	-0.0108618345
45	0x3dbed37d	0.09317682
46	0x3d837e71	0.06420601
47	0xbca3459b	-0.019930651
48	0x3e16ecbf	0.14738749
49	0x3c5ba4c3	0.0134059815
50	0x3bf02b9f	0.007329419
51	0x3d2741aa	0.040834107
52	0x3cb6199c	0.022229008
53	0xbe007738	-0.12545478
54	0x3dfe906d	0.12429891
55	0x3ce3ab7e	0.027791735
56	0x3e01f844	0.12692362
57	0x3de2c9b9	0.11073632
58	0xbe446f01	-0.1918297
59	0xbe0840f3	-0.13306026
60	0x3dd75138	0.10513538
61	0xbe0d9311	-0.13825633
62	0xbc188cdb	-0.009310926
63	0x3da4fd4f	0.08056127
64	0x3d185696	0.03719195
65	0xbd8daceb	-0.06917747
66	0x3e50d475	0.20393546
67	0xbbb6af08	-0.0055750646
68	0xbdad6b8d	-0.08467779
69	0x3e28a90d	0.16470738
70	0x3e0cc366	0.13746414
71	0x3ddde4ec	0.10834679
72	0xbceed3e1	-0.029153766
73	0xbdafc593	-0.08582606
74	0xbd51fc97	-0.05126628
75	0x3d53f13a	0.051743723
76	0x3db3a8e1	0.087724455
77	0x3d8334cd	0.06406555
78	0xbd9bf354	-0.076147705
79	0xbdb1ded8	-0.08685082
80	0x3e3f8ae1	0.18705322
81	0x3d8e2ba9	0.06941921
82	0xbd54c306	-0.0519438
83	0x3d3a2127	0.045441773
84	0x3d5797ad	0.052634884
85	0xbdf1230f	-0.11774265
86	0x3d8d2bae	0.06893097
87	0xbb9c7597	-0.00477476
88	0xbde3ceb9	-0.111234136
89	0x3e211aa5	0.1573282
90	0xbd4c8fba	-0.049941756
91	0x3dd491bc	0.10379359
92	0x3de78b79	0.11305899
93	0x3e4dd4c2	0.20100692
94	0xbe07c90f	-0.13260292
95	0xbe2296c5	-0.15877827
96	0x3caa4ea0	0.020789444
97	0x3d9e2dbb	0.07723566
98	0x3d68717d	0.056748856
99	0x3e8ac680	0.27104568
100	0xbdec556b	-0.1153973
101	0xbc1e8764	-0.009675834
102	0x3dca55da	0.09879656
103	0x3d263ba1	0.04058421
104	0x3e5ef778	0.2177409
105	0x3bfde57c	0.007748304
106	0xbd303b7d	-0.043025482
107	0x3e15fc89	0.14647116
108	0x3dac6844	0.084183246
109	0xbe7a5716	-0.24447283
110	0x3d08d05f	0.033401843
111	0x3d9d3c9a	0.076775745
112	0xbdca4068	-0.09875566
113	0x3e78b441	0.24287511
114	0xbc64bb92	-0.013960736
115	0x3c406f2e	0.011745257
116	0x3e77ecce	0.24211428
117	0xbe185117	-0.14874683
118	0xbd996354	-0.074896485
119	0x3d9004af	0.07032143
120	0xbd24b89a	-0.040215112
121	0xbda32334	-0.07965699
122	0xbe1d08f8	-0.15335453
123	0xbdf1a614	-0.11799255
124	0x3d1adf75	0.03781076
125	0xbd97ea9f	-0.07417797
126	0xbda96288	-0.082707465
127	0xbe24daa0	-0.16099024
128	0xbdcaf06c	-0.09909138
129	0x3ddbc472	0.10730828
130	0x3e2323d7	0.1593164
131	0xbdbead45	-0.09310392
132	0x3d874389	0.06604678
133	0xbd75f322	-0.060046323
134	0x3e5e3cd0	0.21702886
135	0xbd9dfd43	-0.077143215
136	0x3db56e38	0.08858913
137	0x3b473b7f	0.0030400453
138	0xbddbb4f5	-0.10727874
139	0x3dd8e17b	0.10589882
140	0x3d826715	0.063673176
141	0x3dcf48ee	0.10121332
142	0xbdaeb015	-0.08529679
143	0xbd9f2180	-0.077700615
144	0x3c11686f	0.008874997
145	0xbddbafc0	-0.10726881
146	0xbe2792c2	-0.16364577
147	0x3dcc8a6f	0.099873416
148	0xbe31fb4f	-0.17381023
149	0x3da5f55b	0.081034385
150	0xbddd8aaa	-0.10817464
151	0xbe346fe5	-0.1762081
152	0x3c22bc98	0.00993266
153	0xbdd97434	-0.10617867
154	0xbd09cd45	-0.033643026
155	0x3bff9670	0.007799916
156	0xbe421eef	-0.18957113
157	0x3db3affd	0.087738015
158	0xbe0b52ec	-0.13605851
159	0xbda2f6e4	-0.07957247
160	0xbe0e88ae	-0.13919327
161	0x3da33216	0.079685375
162	0xbe0fd6df	-0.1404681
163	0xbc54b64d	-0.012982917
164	0xbd7ff166	-0.062486075
165	0x3e259183	0.1616879
166	0x3d8c430a	0.06848724
167	0xbcc5d11d	-0.024147565
168	0xbe5a7cc1	-0.21336652
169	0xbd6b047b	-0.05737732
170	0x3e1d9cac	0.15391797
171	0xbe27088d	-0.16311856
172	0x3be68cab	0.007035812
173	0x3e53843f	0.20655917
174	0xbd93b299	-0.07211799
175	0x3d96de4a	0.07366617
176	0xbdeec1c7	-0.11658054
177	0xbce7a133	-0.028275108
178	0x3dad2cd0	0.08455813
179	0x3d414b60	0.047191024
180	0x3cb0c7cf	0.021579651
181	0xbdaa6426	-0.08319883
182	0x3d947067	0.072480015
183	0xbd91dd02	-0.07122232
184	0xbd1feb10	-0.039042532
185	0x3e10743e	0.14106843
186	0x3cd04277	0.025422318
187	0xbd573939	-0.052544806
188	0xbd8eb42b	-0.06967958
189	0x3df71104	0.12063792
190	0xbc760c10	-0.015017524
191	0x3dd6ec78	0.104943216
192	0x3def2fb4	0.116790205
193	0xbd8311a1	-0.06399847
194	0x3c785b71	0.01515852
195	0x3d92b3e5	0.071632184
196	0xbd6458fa	-0.055748917
197	0x3dcb0b1a	0.09914227
198	0xbe2e685c	-0.17031997
199	0x3df9cd64	0.12197378
200	0xbd6327a1	-0.055457715
201	0x3e3c125a	0.18366376
202	0xbdf42c91	-0.11922563
203	0x3e0c2d78	0.1368922
204	0x3d5f827c	0.0545678
205	0xbe12f894	-0.14352638
206	0xbd33cde3	-0.04389752
207	0xbd3e14f0	-0.046406686
208	0x3e33cea8	0.17559302
209	0x3e29da60	0.1658721
210	0x3d8098ef	0.0627917
211	0xbe4f6553	-0.20253496
212	0x3d760e22	0.06007207
213	0x3e1f8d50	0.1558125
214	0x3db18779	0.086684175
215	0x3d97b2a0	0.07407117
216	0x3d62af62	0.05534304
217	0x3d753bfe	0.059871666
218	0xbe19a8ee	-0.15005848
219	0xbe22acd4	-0.15886241
220	0x3d4a0abe	0.04932665
221	0x3d6eb8be	0.058281653
222	0x3e34c205	0.17652138
223	0xbd06faa2	-0.032953866
224	0xbca00296	-0.019532483
225	0x3e2f72f2	0.17133692
226	0xbd16bd37	-0.036801543
227	0x3d0642fe	0.032778732
228	0x3d5e5c73	0.054287385
229	0x3e5e3cf6	0.21702942
230	0x3e4510c9	0.19244684
231	0x3c29a210	0.01035358
232	0x3e40ac9b	0.18815844
233	0x3e22e2cf	0.15906833
234	0x3de97fcf	0.11401331
235	0x3dc9b777	0.09849446
236	0xbe29a04b	-0.16565053
237	0xbdd67acd	-0.10472641
238	0xbd3a806e	-0.045532636
239	0xbe364d39	-0.17802896
240	0xbdab6db3	-0.08370533
241	0x3d98e18b	0.07464894
242	0xbe35ccd3	-0.17753915
243	0xbe68e3ef	-0.227432
244	0x3e28e9d6	0.16495451
245	0xbe32c024	-0.17456108
246	0x3d8cc70b	0.06873902
247	0x3d14255e	0.03616845
248	0x3c9f038b	0.01941087
249	0x3d989981	0.074511535
250	0xbd560dfb	-0.052259427
251	0xbdb97c42	-0.090569034
252	0x3dcb05ff	0.09913253
253	0xbcd2c627	-0.025729252
254	0xbe3a078b	-0.1816694
255	0xbdc7256f	-0.09723937

model/time_distributed_9/batch_normalization_1/FusedBatchNormV3 f4 [16]
0	0xbe80cb77	-0.2515523
1	0xbee3795a	-0.4442852
2	0xbebdb834	-0.37054598
3	0xbe851bb0	-0.25997686
4	0xbecf788f	-0.40521666
5	0xbec6bb41	-0.38814738
6	0xbeacfc44	-0.33786213
7	0xbeaa5cd3	-0.33273944
8	0xbe8d7a51	-0.27632383
9	0xbec07ca7	-0.37595102
10	0xbeb7a008	-0.35864282
11	0xbee9286d	-0.45538655
12	0xbebe5f69	-0.37182167
13	0xbed1faf2	-0.4101177
14	0xbec4a521	-0.38407233
15	0xbead936e	-0.33901542

model/time_distributed_9/batch_normalization_1/FusedBatchNormV31 f4 [16]
0	0x3f240cb5	0.6408189
1	0x3f5b5855	0.8568166
2	0x3f561991	0.8363276
3	0x3f8e161c	1.1100497
4	0x3f6ef904	0.9334872
5	0x3ee5df53	0.44896945
6	0x3f76d723	0.9642202
7	0x3f739e36	0.95163286
8	0x3f5f7a08	0.8729558
9	0x3f1da909	0.6158605
10	0x3f4c9dc4	0.7992823
11	0x3f3acf03	0.72972125
12	0x3fa2a351	1.270609
13	0x3f05740b	0.5213019
14	0x3f0941a0	0.5361576
15	0x3f6db364	0.92851853
