HPC_Final_Study2_Complete_Test/participants_session_transfer_train_fresh_model/participant_2/session_4/session_4_lite_models/indexpen_model.tflite (tflite, 573028 bytes, 29 tensors)

model/time_distributed_6/conv2d_1/BiasAdd;model/time_distributed_6/conv2d_1/Conv2D;model/time_distributed_6/conv2d_1/BiasAdd/ReadVariableOp/resource f4 [16]
0	0x3d751f8e	0.059844546
1	0x3c8dcba2	0.017309014
2	0x3d7d49cc	0.061837956
3	0x3da44cd4	0.08022466
4	0x3d80ad31	0.06283034
5	0x3d918364	0.07105139
6	0x3d4ac018	0.0494996
7	0x3da31bb8	0.07964271
8	0xbd96dc7e	-0.07366274
9	0x3db55c12	0.08855452
10	0x3d15b752	0.03655178
11	0x3d9a97e9	0.07548506
12	0x3c9b139c	0.018930249
13	0x3da93af0	0.082631946
14	0x3d8ad9e8	0.067798436
15	0x3cb0defe	0.021590706

model/time_distributed/conv2d/BiasAdd;model/time_distributed/conv2d/Conv2D;model/time_distributed/conv2d/BiasAdd/ReadVariableOp/resource f4 [8]
0	0xbb970f32	-0.0046099657
1	0xbd9c0a5f	-0.07619166
2	0x3b81e8da	0.0039645256
3	0xbb369142	-0.0027857576
4	0xbb9fbe83	-0.0048750057
5	0xbdefa68c	-0.11701688
6	0xbd326c0f	-0.043560084
7	0xbdb4de9a	-0.088315204

model/time_distributed_6/conv2d_1/Conv2D f4 [16, 3, 3, 1]
0	0x3d25edf4	0.040510133
1	0x3d56ae21	0.052412156
2	0xbd30a754	-0.043128327
3	0xbc32a358	-0.010903202
4	0x3cb5f290	0.02221039
5	0xbced8105	-0.028992185
6	0xbce06937	-0.02739392
7	0x3d327d61	0.043576602
8	0xbc2203e1	-0.00988862
9	0xbc90490c	-0.017612956
10	0x3db70e67	0.08938294
11	0xbda714f4	-0.08158293
12	0xbd9f542b	-0.07779726
13	0x3e44ce8d	0.19219418
14	0xbddbfc9d	-0.107415415
15	0x3cccbf29	0.024993496
16	0xbdf818c6	-0.121141
17	0x3db78987	0.08961778
18	0x3da58617	0.08082216
19	0xbe4ea14e	-0.2017872
20	0x3e000ec9	0.1250564
21	0x3d2d7e42	0.042356737
22	0x3d3215c5	0.043477792
23	0xbdb4a28b	-0.08820065
24	0xbcf8b015	-0.0303574
25	0x3cca950a	0.02472927
26	0x3af2ebbf	0.0018533393
27	0xbb278752	-0.0025562835
28	0x3d68ac86	0.056805156
29	0xbcfecea1	-0.031104388
30	0xbbee9523	-0.007280962
31	0xbc91bc39	-0.017789947
32	0xbc534861	-0.012895674
33	0x3c99cafd	0.01877355
34	0xbccc5162	-0.02494115
35	0x3c685a1f	0.014181643
36	0x3afedf70	0.0019445252
37	0xbe12cd71	-0.14336182
38	0x3e2f8cf2	0.1714361
39	0xbc7a6cea	-0.015284756
40	0x3d570870	0.05249828
41	0xbd6044de	-0.054753177
42	0xbcfdfa5f	-0.031003175
43	0x3d427c25	0.047481675
44	0xbc2055fd	-0.009786126
45	0x3dfa1078	0.122101724
46	0xbd9edca1	-0.077569254
47	0xbd38993d	-0.045068014
48	0xbd45d685	-0.048300285
49	0xbd622d35	-0.055218894
50	0x3dc24f4e	0.094877824
51	0x3c929b0e	0.017896201
52	0x3d1f870a	0.038947143
53	0xbd3a3c75	-0.045467813
54	0x3d485e5a	0.048918106
55	0xbdfdb073	-0.12387171
56	0x3d9d481f	0.07679772
57	0x3c7fe9ab	0.015619676
58	0x3d9a0ad3	0.07521596
59	0xbdb2f862	-0.087387815
60	0xbb39040c	-0.0028231172
61	0x3d40bdd5	0.047056038
62	0xbd045aaa	-0.032313026
63	0xbdc58b3d	-0.09645698
64	0x3db7d206	0.08975606
65	0x3bc5b030	0.006032966
66	0x3d23e778	0.040015668
67	0xbd53778c	-0.05162768
68	0x3ce719f3	0.028210616
69	0xbd55079a	-0.052009203
70	0x3d1e79c2	0.038690336
71	0x37bfa6e8	2.2846696e-05
72	0xbc353fb7	-0.011062554
73	0x3b7af8d1	0.0038295279
74	0xbbc11e7b	-0.005893526
75	0x3d58bf71	0.052916948
76	0xbddc67dc	-0.10761997
77	0x3d6dfcdf	0.058102485
78	0x3db96e0a	0.090541914
79	0xbe305dcf	-0.17223285
80	0x3da175d2	0.078838006
81	0x3d45434a	0.048159875
82	0xbdbb1ca9	-0.09136326
83	0x3d50036d	0.050784517
84	0xb965a586	-0.00021900804
85	0x3cf289d2	0.029606733
86	0xbd23d3b1	-0.039996807
87	0x3ca772df	0.020440517
88	0x3ba599dc	0.005053742
89	0xbb805b2c	-0.0039171185
90	0xbdc8d904	-0.098070174
91	0x3e32df9e	0.17468116
92	0xbdb3d9f9	-0.08781809
93	0x3bb84725	0.0056237155
94	0x3d8b4bd7	0.06801575
95	0xbd9c15ab	-0.0762132
96	0xbd4640d0	-0.048401654
97	0x3e0e8982	0.13919643
98	0xbdaf407d	-0.08557222
99	0xbd6bff9c	-0.057616815
100	0x3e66e58a	0.225485
101	0xbe275f86	-0.16345033
102	0xbe010b4c	-0.12601966
103	0x3df3830c	0.118902296
104	0x3c51c839	0.012804084
105	0x3dd3a6de	0.10334562
106	0xbe24caf9	-0.16093053
107	0x3d851cff	0.06499671
108	0xbdb43dfe	-0.088008866
109	0x3e3e388b	0.18576257
110	0xbde5276b	-0.11189159
111	0xbdac8799	-0.08424301
112	0x3e22ce1e	0.1589894
113	0xbd869785	-0.06571869
114	0xbdb7a02a	-0.08966096
115	0x3e530898	0.20608747
116	0xbe03d75b	-0.1287512
117	0xbc779293	-0.01511063
118	0x3dc4a64d	0.09602032
119	0xbd9660ca	-0.0734268
120	0x3c540c4c	0.012942385
121	0xbe0958e2	-0.13412812
122	0x3deecf7d	0.11660669
123	0xbbe5ea96	-0.00701649
124	0x3d11d829	0.035606537
125	0xbc8fc9f7	-0.017552359
126	0xbc9101a3	-0.017700976
127	0xbcc0df75	-0.023544053
128	0x3c0436df	0.008069723
129	0xbaca562c	-0.0015437058
130	0xbcd90195	-0.026490012
131	0x3d13f867	0.036125567
132	0x3d624dc2	0.055249937
133	0xbe003627	-0.12520657
134	0x3d6679c7	0.05626848
135	0x3c47e495	0.012200494
136	0xbca70043	-0.020385867
137	0x3bb5abe2	0.0055441717
138	0xbc6ed072	-0.014576064
139	0x3ca60536	0.020266157
140	0x3ab025e6	0.0013439029
141	0x3d7541e3	0.059877288
142	0xbd955f08	-0.072935164
143	0xbb857eb9	-0.0040739444

model/time_distributed/conv2d/Conv2D f4 [8, 3, 3, 1]
0	0xbb6fbcc9	-0.003658103
1	0xbc880c5d	-0.016607458
2	0xbb841a18	-0.004031431
3	0xbb25abd6	-0.0025279424
4	0xbb5bff0e	-0.0033568772
5	0x3a965fc7	0.0011472636
6	0x3c43e9e9	0.011957624
7	0xbc337095	-0.010952135
8	0xbc270dae	-0.010196133
9	0x3c5a5122	0.013325008
10	0xbc9060d4	-0.017624296
11	0xbb5ef33c	-0.003401949
12	0xbc027c68	-0.007964231
13	0x3c0aee0f	0.008479609
14	0x3ab14132	0.0013523458
15	0xbc86d3bb	-0.016458383
16	0x3c01b4ed	0.007916671
17	0x3bf69131	0.0075246324
18	0x3c5ac863	0.01335344
19	0xbbf388c6	-0.007432076
20	0xbbeacaab	-0.007165273
21	0xbc577daf	-0.013152524
22	0xbbf79837	-0.007555987
23	0x3c453977	0.0120376265
24	0xbae6078a	-0.0017549854
25	0x3cac058a	0.020998735
26	0xbc9e1071	-0.01929495
27	0xbc020a1e	-0.007936982
28	0x3c25d70e	0.010122074
29	0x3af9705b	0.0019030677
30	0x3b87f917	0.004149567
31	0xbc6c8cd3	-0.014437872
32	0x3a9c53fd	0.0011926886
33	0xbc8ba380	-0.017045736
34	0x3b2e5f45	0.0026607078
35	0xbc3e4e95	-0.011615415
36	0xbc51efe9	-0.012813547
37	0xbc38ee8a	-0.011287341
38	0x3c3aa6f2	0.011392342
39	0xba4de958	-0.00078549003
40	0x3c6e179c	0.014531996
41	0xbc1ff38c	-0.009762656
42	0x3c20f760	0.009824604
43	0x3c119940	0.008886635
44	0x3c109324	0.008824144
45	0xbbcfe8ee	-0.006344906
46	0x39c1ac93	0.00036940406
47	0x393b3a50	0.00017855433
48	0x3c1e7e01	0.009673596
49	0xbbf4efc9	-0.0074748737
50	0xba2861e0	-0.0006423276
51	0x3cbc1856	0.022960823
52	0xbbf66ee6	-0.0075205443
53	0x39f70a7a	0.00047119317
54	0x3c8c537d	0.017129654
55	0x3b4303a2	0.0029756804
56	0xbad4a5cd	-0.0016223729
57	0x3b502bad	0.0031764314
58	0x3bf1a5ff	0.0073745246
59	0x3b47cfe7	0.003048891
60	0xbb5c1fd2	-0.0033588302
61	0xba16bad0	-0.0005749883
62	0xbc03f46e	-0.008053882
63	0x3b572b0c	0.0032832054
64	0x3c117d0f	0.008879914
65	0x398e588d	0.00027150326
66	0xbc46db0e	-0.012137188
67	0x3bee71d1	0.0072767516
68	0x3cd500e9	0.02600141
69	0x3b5d0128	0.0033722613
70	0xbbf5ff4a	-0.0075072395
71	0xbc867045	-0.016410956

model/lstm/TensorArrayV2_1 f4 [120, 1, 32]
0	0x00000000	0.0
1	0x00000000	0.0
2	0x00000000	0.0
3	0x00000000	0.0
4	0x00000000	0.0
5	0x00000000	0.0
6	0x00000000	0.0
7	0x00000000	0.0
8	0x00000000	0.0
9	0x00000000	0.0
10	0x00000000	0.0
11	0x00000000	0.0
12	0x00000000	0.0
13	0x00000000	0.0
14	0x00000000	0.0
15	0x00000000	0.0
16	0x00000000	0.0
17	0x00000000	0.0
18	0x00000000	0.0
19	0x00000000	0.0
20	0x00000000	0.0
21	0x00000000	0.0
22	0x00000000	0.0
23	0x00000000	0.0
24	0x00000000	0.0
25	0x00000000	0.0
26	0x00000000	0.0
27	0x00000000	0.0
28	0x00000000	0.0
29	0x00000000	0.0
30	0x00000000	0.0
31	0x00000000	0.0
32	0x00000000	0.0
33	0x00000000	0.0
34	0x00000000	0.0
35	0x00000000	0.0
36	0x00000000	0.0
37	0x00000000	0.0
38	0x00000000	0.0
39	0x00000000	0.0
40	0x00000000	0.0
41	0x00000000	0.0
42	0x00000000	0.0
43	0x00000000	0.0
44	0x00000000	0.0
45	0x00000000	0.0
46	0x00000000	0.0
47	0x00000000	0.0
48	0x00000000	0.0
49	0x00000000	0.0
50	0x00000000	0.0
51	0x00000000	0.0
52	0x00000000	0.0
53	0x00000000	0.0
54	0x00000000	0.0
55	0x00000000	0.0
56	0x00000000	0.0
57	0x00000000	0.0
58	0x00000000	0.0
59	0x00000000	0.0
60	0x00000000	0.0
61	0x00000000	0.0
62	0x00000000	0.0
63	0x00000000	0.0
64	0x00000000	0.0
65	0x00000000	0.0
66	0x00000000	0.0
67	0x00000000	0.0
68	0x00000000	0.0
69	0x00000000	0.0
70	0x00000000	0.0
71	0x00000000	0.0
72	0x00000000	0.0
73	0x00000000	0.0
74	0x00000000	0.0
75	0x00000000	0.0
76	0x00000000	0.0
77	0x00000000	0.0
78	0x00000000	0.0
79	0x00000000	0.0
80	0x00000000	0.0
81	0x00000000	0.0
82	0x00000000	0.0
83	0x00000000	0.0
84	0x00000000	0.0
85	0x00000000	0.0
86	0x00000000	0.0
87	0x00000000	0.0
88	0x00000000	0.0
89	0x00000000	0.0
90	0x00000000	0.0
91	0x00000000	0.0
92	0x00000000	0.0
93	0x00000000	0.0
94	0x00000000	0.0
95	0x00000000	0.0
96	0x00000000	0.0
97	0x00000000	0.0
98	0x00000000	0.0
99	0x00000000	0.0
100	0x00000000	0.0
101	0x00000000	0.0
102	0x00000000	0.0
103	0x00000000	0.0
104	0x00000000	0.0
105	0x00000000	0.0
106	0x00000000	0.0
107	0x00000000	0.0
108	0x00000000	0.0
109	0x00000000	0.0
110	0x00000000	0.0
111	0x00000000	0.0
112	0x00000000	0.0
113	0x00000000	0.0
114	0x00000000	0.0
115	0x00000000	0.0
116	0x00000000	0.0
117	0x00000000	0.0
118	0x00000000	0.0
119	0x00000000	0.0
120	0x00000000	0.0
121	0x00000000	0.0
122	0x00000000	0.0
123	0x00000000	0.0
124	0x00000000	0.0
125	0x00000000	0.0
126	0x00000000	0.0
127	0x00000000	0.0
128	0x00000000	0.0
129	0x00000000	0.0
130	0x00000000	0.0
131	0x00000000	0.0
132	0x00000000	0.0
133	0x00000000	0.0
134	0x00000000	0.0
135	0x00000000	0.0
136	0x00000000	0.0
137	0x00000000	0.0
138	0x00000000	0.0
139	0x00000000	0.0
140	0x00000000	0.0
141	0x00000000	0.0
142	0x00000000	0.0
143	0x00000000	0.0
144	0x00000000	0.0
145	0x00000000	0.0
146	0x00000000	0.0
147	0x00000000	0.0
148	0x00000000	0.0
149	0x00000000	0.0
150	0x00000000	0.0
151	0x00000000	0.0
152	0x00000000	0.0
153	0x00000000	0.0
154	0x00000000	0.0
155	0x00000000	0.0
156	0x00000000	0.0
157	0x00000000	0.0
158	0x00000000	0.0
159	0x00000000	0.0
160	0x00000000	0.0
161	0x00000000	0.0
162	0x00000000	0.0
163	0x00000000	0.0
164	0x00000000	0.0
165	0x00000000	0.0
166	0x00000000	0.0
167	0x00000000	0.0
168	0x00000000	0.0
169	0x00000000	0.0
170	0x00000000	0.0
171	0x00000000	0.0
172	0x00000000	0.0
173	0x00000000	0.0
174	0x00000000	0.0
175	0x00000000	0.0
176	0x00000000	0.0
177	0x00000000	0.0
178	0x00000000	0.0
179	0x00000000	0.0
180	0x00000000	0.0
181	0x00000000	0.0
182	0x00000000	0.0
183	0x00000000	0.0
184	0x00000000	0.0
185	0x00000000	0.0
186	0x00000000	0.0
187	0x00000000	0.0
188	0x00000000	0.0
189	0x00000000	0.0
190	0x00000000	0.0
191	0x00000000	0.0
192	0x00000000	0.0
193	0x00000000	0.0
194	0x00000000	0.0
195	0x00000000	0.0
196	0x00000000	0.0
197	0x00000000	0.0
198	0x00000000	0.0
199	0x00000000	0.0
200	0x00000000	0.0
201	0x00000000	0.0
202	0x00000000	0.0
203	0x00000000	0.0
204	0x00000000	0.0
205	0x00000000	0.0
206	0x00000000	0.0
207	0x00000000	0.0
208	0x00000000	0.0
209	0x00000000	0.0
210	0x00000000	0.0
211	0x00000000	0.0
212	0x00000000	0.0
213	0x00000000	0.0
214	0x00000000	0.0
215	0x00000000	0.0
216	0x00000000	0.0
217	0x00000000	0.0
218	0x00000000	0.0
219	0x00000000	0.0
220	0x00000000	0.0
221	0x00000000	0.0
222	0x00000000	0.0
223	0x00000000	0.0
224	0x00000000	0.0
225	0x00000000	0.0
226	0x00000000	0.0
227	0x00000000	0.0
228	0x00000000	0.0
229	0x00000000	0.0
230	0x00000000	0.0
231	0x00000000	0.0
232	0x00000000	0.0
233	0x00000000	0.0
234	0x00000000	0.0
235	0x00000000	0.0
236	0x00000000	0.0
237	0x00000000	0.0
238	0x00000000	0.0
239	0x00000000	0.0
240	0x00000000	0.0
241	0x00000000	0.0
242	0x00000000	0.0
243	0x00000000	0.0
244	0x00000000	0.0
245	0x00000000	0.0
246	0x00000000	0.0
247	0x00000000	0.0
248	0x00000000	0.0
249	0x00000000	0.0
250	0x00000000	0.0
251	0x00000000	0.0
252	0x00000000	0.0
253	0x00000000	0.0
254	0x00000000	0.0
255	0x00000000	0.0

model/dense_2/BiasAdd/ReadVariableOp/resource f4 [256]
0	0x3e0b81e5	0.1362377
1	0x3c322a62	0.010874363
2	0x3dbdaf31	0.09261931
3	0x3e23a075	0.15979178
4	0x3d839956	0.06425731
5	0x3e1d6408	0.1537019
6	0x3d12fa64	0.035883322
7	0x3d859580	0.065226555
8	0x3d96f75b	0.07371398
9	0x3d1b3fce	0.037902646
10	0x3dbc6e5b	0.09200736
11	0x3e09f6c5	0.13473041
12	0x3cee083c	0.02905666
13	0x3da2907d	0.07937715
14	0x3e210132	0.15723112
15	0x3dabe89b	0.08393975
16	0x3d0127de	0.03153216
17	0x3dce5c7f	0.10076236
18	0x3db40cdc	0.08791515
19	0x3e31853d	0.17335983
20	0x3da46ee3	0.080289625
21	0x3dbceeb1	0.09225214
22	0x3c87451a	0.016512442
23	0x3dd2137a	0.10257621
24	0x3dd4a24e	0.1038252
25	0xbd7eeb98	-0.0622364
26	0x3d199f73	0.03750558
27	0x3c180232	0.009277867
28	0x3d80add1	0.06283153
29	0x3d84a48a	0.06476696
30	0x3d250e37	0.04029676
31	0x3df75759	0.12077207
32	0x3dc21708	0.09477049
33	0x3d87d246	0.06631903
34	0x3db20b29	0.08693535
35	0x3c71fc11	0.01476957
36	0x3e1c07a1	0.15237285
37	0x3de11b5c	0.109915465
38	0x3e094202	0.13404086
39	0x3e2b7183	0.1674252
40	0x3d9c7b15	0.076406635
41	0x3de9e581	0.114207275
42	0x3cccbca9	0.024992304
43	0x3c2468c9	0.010034748
44	0x3e048c27	0.12944089
45	0xbc1991e6	-0.009373164
46	0x3d762cd4	0.060101345
47	0x3ddb66b3	0.10712948
48	0x3db296f3	0.087201975
49	0x3daa6b1d	0.083212115
50	0x3dd8c575	0.10584537
51	0x3e0fed3c	0.14055341
52	0x3dcdb19e	0.100436434
53	0x3db835a7	0.08994608
54	0x3d96d9dc	0.07365772
55	0x3d7af631	0.061269943
56	0x3d60c2c9	0.05487326
57	0x3df7437e	0.1207342
58	0x3e095648	0.1341182
59	0x3de1c853	0.11024537
60	0x3d65a747	0.05606773
61	0x3b051204	0.0020304928
62	0x3caf0fd6	0.021369856
63	0x3dcdecfc	0.10054967
64	0x3d66c308	0.05633834
65	0x3dee0a3e	0.11623047
66	0x3c5bcd11	0.013415591
67	0x3da6ca9e	0.08144115
68	0x3d9609e3	0.073261045
69	0x3e192f47	0.14959441
70	0x3e165e9d	0.1468453
71	0x3e06de94	0.13170844
72	0x3df074c1	0.11741019
73	0x3d3373ec	0.043811724
74	0x3dbc85ea	0.092052296
75	0x3c0c58d4	0.0085661
76	0x3d8eb607	0.06968313
77	0x3da7c0f3	0.08191099
78	0x3db1d3fd	0.08683012
79	0x3c383f7f	0.011245607
80	0x3e0944d6	0.13405165
81	0x3d2bd4d0	0.041951
82	0x3d348b8c	0.044078395
83	0x3db1b8b0	0.086778045
84	0x3e0bca63	0.13651423
85	0xbc477851	-0.012174682
86	0x3d412bad	0.047160793
87	0x3c262d1f	0.010142594
88	0x3dbabdf6	0.091182634
89	0x3d3b30f0	0.045700967
90	0xbc9403a4	-0.018068142
91	0x3dcc88c2	0.09987022
92	0x3d86e4e0	0.06586623
93	0x3d9400be	0.07226704
94	0x3e057a00	0.1303482
95	0x3d17c265	0.037050623
96	0x3d3997a3	0.045310628
97	0x3dd2ba36	0.10289423
98	0x3d2021d7	0.039094772
99	0x3dc1b401	0.09458161
100	0x3dc7924c	0.09744701
101	0x3d8a0c3e	0.06740616
102	0x3daace26	0.08340101
103	0x3d326a7f	0.043558594
104	0x3cf23f6b	0.029571256
105	0x3cb10619	0.021609353
106	0x3dab7528	0.08371955
107	0x3e07422c	0.13208836
108	0x3d087652	0.033315964
109	0x3dca5bde	0.098808035
110	0x3dbce35d	0.092230536
111	0x3dc94caa	0.09829076
112	0x3cfbff8c	0.030761503
113	0x3ddf19e7	0.10893612
114	0x3da9c379	0.082892366
115	0x3e1f4b72	0.15556124
116	0x3d150d0b	0.036389392
117	0x3d134618	0.03595552
118	0x3cdfab2e	0.027303305
119	0x3d8f579e	0.069991335
120	0x3d8ab594	0.067729145
121	0x3d9b40cd	0.07580719
122	0x3d3352c7	0.043780115
123	0x3d8c3cd4	0.068475395
124	0x3d290d6a	0.04127256
125	0x3cc8b167	0.024498655
126	0x3d2fd588	0.04292825
127	0x3d6a9643	0.057272207
128	0x3d97ccd7	0.07412117
129	0x3d9bc5c3	0.076060794
130	0x3d88bb72	0.06676377
131	0x3ce140e0	0.027496755
132	0x3dac895e	0.08424638
133	0x3d94d9a3	0.072680734
134	0x3c8887ec	0.016666375
135	0x3dc648ba	0.0968184
136	0x3d79fabc	0.061030135
137	0x3b210ec3	0.002457545
138	0x3d6202ec	0.055178568
139	0x3daaff9f	0.08349537
140	0x3d18f211	0.037340228
141	0x3dc9c0de	0.098512396
142	0x3d8b784d	0.06810055
143	0x3e22150c	0.15828341
144	0x3dade6b6	0.0849127
145	0x3dbd0919	0.09230251
146	0x3d961522	0.073282495
147	0x3de3c4c8	0.111215174
148	0x3d8e8bb5	0.06960241
149	0x3df8289c	0.121171206
150	0x3dc21171	0.09475983
151	0x3e1e931b	0.15485804
152	0x3deee08a	0.11663921
153	0x3ccc9f24	0.024978228
154	0xbbee3f5c	-0.0072707366
155	0xbcde28de	-0.027119096
156	0x3d7fed6b	0.06248228
157	0x3d97ab68	0.0740574
158	0x3dc4e083	0.09613135
159	0xbbbf3076	-0.0058346344
160	0x3dee165e	0.1162536
161	0x3c8aec0c	0.016958259
162	0x3dd40a51	0.1035353
163	0x3dddf551	0.10837806
164	0x3da0881a	0.07838459
165	0x3d4f2460	0.0505718
166	0x3dd09226	0.101841256
167	0x3ce506a9	0.027957277
168	0x3e024829	0.1272284
169	0x3cd4f6c8	0.02599658
170	0x3dca8a50	0.09889662
171	0x3d6e4240	0.05816865
172	0x3e332cb8	0.17497528
173	0x3db9315a	0.09042616
174	0x3ddabf08	0.106809676
175	0x3dea3b58	0.114371
176	0x3db04ae8	0.08608037
177	0x3d9acb5a	0.075583175
178	0x3e2bbc1f	0.16770981
179	0x3e09e630	0.13466716
180	0x3da180bc	0.07885882
181	0x3df58419	0.11988086
182	0x3d3c42f0	0.045962274
183	0x3d523ad0	0.05132562
184	0x3d58a20f	0.052888926
185	0x3e52f767	0.20602189
186	0x3dca3b92	0.098746434
187	0x3db1af99	0.08676071
188	0x3d816c79	0.06319518
189	0x3dfc42fb	0.12317463
190	0x3d5b4f62	0.053542502
191	0xbb63088c	-0.0034642546
192	0x3cd3e81f	0.02586752
193	0x3deadccd	0.11467896
194	0x3d31baf2	0.043391176
195	0x3ddc2b23	0.10750415
196	0x3d3b5618	0.045736402
197	0x3d785c74	0.060635045
198	0x3d6b45c7	0.05743959
199	0x3d1ea2d9	0.038729522
200	0x3d8c0453	0.06836762
201	0x3e1597d4	0.14608699
202	0xbc0b1e23	-0.008491072
203	0x3d2c58b7	0.042076793
204	0xbb92e3f4	-0.0044827405
205	0x3e0fdfd3	0.14050226
206	0x3c51a337	0.012795261
207	0x3d1f5cee	0.038906984
208	0x3da23386	0.079199836
209	0x3dca1d24	0.098688394
210	0x3da92948	0.08259827
211	0x3d856679	0.06513686
212	0x3da9cd2b	0.08291086
213	0x3d9f44c6	0.07776789
214	0x3bb4b61c	0.005514873
215	0x3cf90e6b	0.030402383
216	0x3e0ba4fc	0.13637155
217	0x3dbe6b40	0.092978
218	0x3e031291	0.12800051
219	0x3df6525d	0.12027428
220	0x3c90112a	0.01758631
221	0x3d09137d	0.03346585
222	0x3debcba7	0.11513453
223	0x3da4607f	0.08026218
224	0x3da2ed49	0.07955415
225	0x3d8f4147	0.069948725
226	0x3e1ce6bb	0.15322392
227	0x3dc32e77	0.09530347
228	0x3dae4dd0	0.08510935
229	0x3dafc2ef	0.085821025
230	0x3d948bb5	0.072532095
231	0x3e010a83	0.12601666
232	0x3d745e37	0.059660163
233	0x3ccbd4f2	0.024881814
234	0x3e4406b2	0.19143179
235	0x3cce48b1	0.025181146
236	0x3e0e63a4	0.13905197
237	0x3d9cb7e5	0.076522626
238	0x3d57ad38	0.05265543
239	0x3c03b432	0.008038567
240	0x3c935fc9	0.01799001
241	0x3cce1065	0.025154302
242	0x3daf3891	0.08555711
243	0x3c22c9af	0.00993578
244	0x3bd1c3c0	0.006401509
245	0x3de426c6	0.11140208
246	0x3dcaec9c	0.09908411
247	0x3db7c14e	0.08972417
248	0x3e1d6837	0.15371786
249	0x3e01b3e4	0.12666279
250	0x3e0affcc	0.13574141
251	0x3de91e04	0.11382678
252	0x3deadc50	0.114678025
253	0x3df11333	0.1177124
254	0x3e0032c2	0.12519363
255	0x3e21d607	0.15804301

model/last_layer/BiasAdd/ReadVariableOp/resource f4 [31]
0	0xbc743fd7	-0.014907799
1	0x3c6fe30e	0.014641536
2	0xbc0fe2ea	-0.008782128
3	0x3b8ad1b2	0.0042364234
4	0x3b066ee5	0.0020512876
5	0xbba4a4ef	-0.0050245444
6	0x3c9325b3	0.017962312
7	0x3b007781	0.001960248
8	0xbcddaa39	-0.027058708
9	0xbd4a15d4	-0.049337223
10	0x3cb9b609	0.022669809
11	0x3bfd167b	0.007723627
12	0x3cc24666	0.02371521
13	0x3c6c1cd8	0.014411174
14	0xbc2cfdcc	-0.010558557
15	0xbc8ee78a	-0.01744439
16	0xbb8c640c	-0.0042843875
17	0x3c7200f1	0.014770732
18	0x3c992118	0.018692538
19	0xbbe801b6	-0.007080282
20	0xbcb84b13	-0.022496736
21	0xbc873c9b	-0.016508391
22	0x3c01de02	0.007926466
23	0x3d6ace5a	0.0573257
24	0x3c7e37bc	0.015516218
25	0x3c827400	0.015924454
26	0xbd1dcf71	-0.03852791
27	0xbd1b9a18	-0.037988752
28	0xbba390be	-0.00499162
29	0x3930b540	0.00016852189
30	0xbbab5f95	-0.0052299

model/time_distributed_11/dense_1/BiasAdd/ReadVariableOp/resource f4 [64]
0	0xbcfbd3c4	-0.030740626
1	0xbd654c88	-0.05598119
2	0xbd34fa9d	-0.044184316
3	0xbc80ca4f	-0.015721468
4	0x3bb8819c	0.005630685
5	0xbcd9c380	-0.02658248
6	0x3cc0bc01	0.023527147
7	0xb9cc5931	-0.00038976365
8	0xbc764807	-0.015031821
9	0xbcac55ce	-0.021037009
10	0xbd04eb22	-0.032450803
11	0x3cb8a7fe	0.022541042
12	0xbd285822	-0.041099675
13	0xbc47a2fa	-0.012184853
14	0x3bd40665	0.006470489
15	0xbcbf1cf6	-0.02332924
16	0xbd0364fb	-0.032078724
17	0x3c0651a0	0.008198172
18	0xbd598f78	-0.053115338
19	0xbd23da48	-0.04000309
20	0xbd03f7c6	-0.032218717
21	0xbc9c3137	-0.019066436
22	0xbd0e5578	-0.034749478
23	0x3c348994	0.011019129
24	0xbc932231	-0.01796064
25	0xbcbda354	-0.02314917
26	0xbc5779b2	-0.013151573
27	0x3c81efff	0.01586151
28	0xbd0dc1bf	-0.0346086
29	0xba903302	-0.001100153
30	0xbd025b95	-0.03182562
31	0xbd6db8ce	-0.05803757
32	0xbceea944	-0.029133447
33	0xbd17eb7d	-0.037089814
34	0xbbc3dd0a	-0.0059772776
35	0xbd3215af	-0.04347771
36	0xbd1bceb5	-0.038038928
37	0xbcb5ce73	-0.02219317
38	0xbb011c75	-0.00197008
39	0x3c9a0073	0.018799042
40	0x3c4ba8e8	0.012430407
41	0xb98386eb	-0.0002508679
42	0x3d0ccd94	0.034375742
43	0x3c15b94c	0.0091384165
44	0xbccbde6b	-0.02488633
45	0xbd5f23f6	-0.054477654
46	0xbd2c1ebc	-0.042021498
47	0xbd4d490d	-0.050118495
48	0xbd1dafb5	-0.038497645
49	0xbcbbbabb	-0.022916188
50	0xbc633b9c	-0.013869192
51	0x3ca5f2cc	0.020257376
52	0xbcf36cec	-0.029715024
53	0xbc75970b	-0.014989625
54	0x3c61c83f	0.013780653
55	0xbd050a7e	-0.03248071
56	0x3ce8c331	0.028413387
57	0xbd195f05	-0.037444133
58	0xbc6f391c	-0.014601018
59	0xbcd866ff	-0.0264163
60	0xbcd6a2d7	-0.026200695
61	0x3c28690d	0.010278952
62	0xbd2c904b	-0.042129796
63	0xbd24910a	-0.040177383

model/time_distributed_5/dense/BiasAdd/ReadVariableOp/resource f4 [32]
0	0xbc724221	-0.014786274
1	0xbc796aed	-0.015223247
2	0x3bd52867	0.0065050605
3	0xbd4c9439	-0.049946044
4	0xbc9add6d	-0.018904412
5	0x3cc7c6b8	0.024386749
6	0xbcb26003	-0.021774298
7	0xbd029e79	-0.031889413
8	0x3d98efa3	0.07467582
9	0x3c39eea6	0.011348402
10	0x3ce52a4d	0.027974272
11	0xbd5f5326	-0.054522656
12	0xbcae47eb	-0.021274528
13	0x3d261b1f	0.04055321
14	0xbbaef741	-0.0053395336
15	0x3cc209e0	0.02368635
16	0xbd0e1ce3	-0.034695517
17	0xbce37b28	-0.027768686
18	0xbc54f0cf	-0.012996866
19	0xbcb4c125	-0.022064755
20	0x3d1901ba	0.037355162
21	0x3b4f42ec	0.0031625582
22	0xbc36727b	-0.011135693
23	0xbba8a3f0	-0.005146496
24	0x3b8c1159	0.004274529
25	0xb9e5a559	-0.00043801477
26	0x3cd5b7c8	0.02608861
27	0x3cb05fc3	0.021530038
28	0x3c87999c	0.016552739
29	0x3bf597be	0.0074948957
30	0xbce7e28d	-0.02830627
31	0xbd13f379	-0.036120865

model/dense_2/MatMul f4 [256, 32]
0	0x3aefdc45	0.0018299898
1	0x3e0a407f	0.13501166
2	0x3e50a249	0.20374407
3	0xbd1f499b	-0.038888555
4	0x3e899428	0.26870847
5	0xbe454aed	-0.19266863
6	0x3b5254aa	0.003209392
7	0x3eb77ba8	0.3583653
8	0x3e5b6c71	0.21428086
9	0x3e6282c7	0.221202
10	0x3db0f6ef	0.08640849
11	0x3e4bf1c1	0.1991644
12	0x3d742a6b	0.059610765
13	0x3df7479e	0.12074207
14	0xbe6edc2d	-0.23326178
15	0x3e5cb295	0.21552499
16	0x3de480fc	0.11157414
17	0xbe13bb19	-0.14426841
18	0xbaa70c50	-0.0012744758
19	0xbdea5dfc	-0.11443707
20	0xbe8f295a	-0.27961236
21	0xbd6a751c	-0.05724059
22	0xbe280827	-0.1640936
23	0xbdf54413	-0.11975875
24	0x3dfee9ec	0.12446961
25	0x3e445281	0.19172098
26	0x3e1747ae	0.14773437
27	0x3dfcddfc	0.12347028
28	0xbd6df753	-0.058097195
29	0xbdacefe8	-0.08444196
30	0xbec3f4e7	-0.38272783
31	0xbda2d980	-0.07951641
32	0x3d8c7d83	0.06859877
33	0xbcbb2b8a	-0.02284791
34	0x3d4ff12d	0.050767113
35	0x3cf9c7e3	0.030490821
36	0xbe30ff91	-0.17284991
37	0xbe9d2ddf	-0.3069906
38	0xbd5f51f5	-0.05452152
39	0x3d306959	0.043069217
40	0xbe569b4f	-0.20957683
41	0xbe1341c2	-0.14380553
42	0xbdf32961	-0.11873127
43	0x3d7b4e89	0.061354194
44	0x3e691174	0.22760564
45	0xbb3ba39b	-0.0028631452
46	0xbd47b39b	-0.04875527
47	0x3db0e7a2	0.086379305
48	0xbe760847	-0.24026595
49	0xbe0f73a0	-0.14008951
50	0x3dffb9bc	0.12486598
51	0x3d3dcd05	0.0463381
52	0x3e7f9674	0.24959737
53	0xbe7ba643	-0.24575143
54	0x3e114aac	0.14188641
55	0x3d4ecc8d	0.050488044
56	0xbdf47a12	-0.119373456
57	0xbe0ba814	-0.13638335
58	0x3e251db5	0.16124614
59	0xbd3c2a76	-0.04593893
60	0x3e276cc5	0.16350086
61	0xbe73fbf5	-0.23826583
62	0x3cb7128d	0.022347713
63	0xbe036afb	-0.12833779
64	0xbcb00ede	-0.021491464
65	0x3cb154f6	0.021646958
66	0x3d426beb	0.0474662
67	0xbe1b825c	-0.15186447
68	0x3e57943b	0.21052639
69	0x3e808852	0.25104004
70	0x3e040e29	0.12896027
71	0xbddf26a9	-0.10896046
72	0x3c6a974d	0.0143182995
73	0x3e4472fd	0.1918449
74	0xbd3b40f4	-0.04571624
75	0x3a4cd415	0.0007813585
76	0x3e4a39b8	0.1974858
77	0x3d9cee66	0.076626584
78	0xbe234923	-0.15945868
79	0x3e59b9fd	0.21262355
80	0xbdb7b504	-0.08970073
81	0x3ec43ab1	0.38326028
82	0xbc636560	-0.01387915
83	0xbd0da327	-0.034579422
84	0x3db06736	0.08613436
85	0x3e2f9f7d	0.17150684
86	0xbcca2964	-0.02467794
87	0xbd769676	-0.060202084
88	0x3cda1c2f	0.026624767
89	0xbc167cad	-0.009184998
90	0xbe571789	-0.21005072
91	0x3e33bf68	0.17553484
92	0xbd4a0839	-0.049324248
93	0x3c26d1cf	0.010181858
94	0x3da1f0f8	0.07907289
95	0x3e2cf662	0.16890863
96	0xbe0ea5e6	-0.13930473
97	0x3edd1879	0.43182734
98	0x3e590f84	0.21197325
99	0xbe421728	-0.18954146
100	0x3e6fe07b	0.23425476
101	0x3d3cfcdb	0.04613958
102	0xbe395546	-0.18098935
103	0xbe280839	-0.16409387
104	0xbe2386d8	-0.15969408
105	0x3e23e9fb	0.16007225
106	0x3d826e14	0.06368652
107	0x3e2dad47	0.16960631
108	0x3e789d26	0.24278697
109	0x3d346b43	0.044047605
110	0xbc890090	-0.016723901
111	0x3d1e59f5	0.03866001
112	0x3bb18eaa	0.005418618
113	0x3d9d98f9	0.07695193
114	0x3e2e115d	0.16998811
115	0xbb70cfb2	-0.003674489
116	0xbed17228	-0.40907407
117	0xbd7a0f85	-0.061049957
118	0xbd3c3933	-0.045952987
119	0xbd2d7d2a	-0.042355694
120	0xbe389737	-0.18026434
121	0xbc3ed0cd	-0.011646462
122	0x3e1901b1	0.14942051
123	0x3e36e534	0.17860872
124	0xbca0d0d3	-0.019630825
125	0x3cec9fd5	0.028884808
126	0xbe7413ce	-0.2383568
127	0x3e9a72c1	0.30165675
128	0x3e35be5f	0.17748402
129	0xbd67f8c4	-0.056633726
130	0x3d9f0e3a	0.077663854
131	0xbdf21d5b	-0.11822005
132	0xbe32b522	-0.17451909
133	0xbde30da6	-0.110865876
134	0x3ddedd4a	0.10882051
135	0x3ed2dafb	0.41182694
136	0xbcc106f5	-0.023562888
137	0x3d9a4e54	0.07534471
138	0x3df25c8f	0.118340604
139	0x3e07d2de	0.13264033
140	0x3e3d8575	0.18507941
141	0x3dd2a1c6	0.10284762
142	0x3c0bd020	0.008533508
143	0x3e3bb407	0.18330394
144	0x3da0297d	0.07820413
145	0xbe82ab16	-0.25521153
146	0xbc3a48a0	-0.011369854
147	0xbe0515f5	-0.12996657
148	0xbd3713ab	-0.04469649
149	0x3bc952ec	0.0061439183
150	0xbd1bdc30	-0.038051784
151	0xbe595ddb	-0.2122721
152	0x3e1fc7f0	0.15603614
153	0x3daae5e0	0.083446264
154	0x3d289fca	0.04116801
155	0x3d828cb4	0.06374493
156	0x3e085c68	0.133165
157	0xbe077316	-0.13227496
158	0xbe22ee0c	-0.1591112
159	0xbec25064	-0.37951958
160	0xbca395d2	-0.0199689
161	0xbd20cae3	-0.039255988
162	0x3dab53b1	0.08365572
163	0xbdf21e54	-0.11822191
164	0x3e0bcbc0	0.13651943
165	0xbde1c979	-0.11024756
166	0xbdce8d26	-0.10085516
167	0x3e5aa073	0.21350269
168	0xbcb83638	-0.022486791
169	0x3eb7530c	0.35805547
170	0x3d952854	0.072830826
171	0x3df4b3e0	0.11948371
172	0x3e83dc56	0.2575404
173	0x3e696969	0.22794117
174	0xbd8f8718	-0.07008189
175	0x3e9b621a	0.30348283
176	0x3dbea5ac	0.09308943
177	0x3cc576aa	0.024104435
178	0x3e5a14ea	0.2129704
179	0xbe1e3235	-0.1544884
180	0xbe3fbef3	-0.18725185
181	0xbe0016c5	-0.12508686
182	0xbdef1530	-0.11673963
183	0xbc3e285c	-0.011606302
184	0xbce77376	-0.028253298
185	0x3d4519aa	0.04812018
186	0x3e0acc5f	0.13554524
187	0xbc677ccf	-0.014128878
188	0x3daf1fc3	0.0855098
189	0xbe617f7c	-0.22021288
190	0xbd7d4229	-0.061830673
191	0x3d594fe3	0.0530547
192	0x3d634b0e	0.0554915
193	0xbdcc861b	-0.09986516
194	0x3dccbc13	0.0999681
195	0xbc365ae7	-0.011130071
196	0x3ea69ca7	0.3254139
197	0x3c55a659	0.013040149
198	0xbd17dadd	-0.03707396
199	0xbd009349	-0.031390462
200	0x3d2f9918	0.04287061
201	0x3da5f765	0.081038274
202	0xbe18da1a	-0.14926949
203	0x3e645ea9	0.22301735
204	0x3c838c68	0.016058162
205	0xbdccf430	-0.100075126
206	0x3d195ac6	0.037440084
207	0xbccabe5a	-0.02474897
208	0xbde521ee	-0.11188112
209	0x3e5c1530	0.21492457
210	0x3c11c829	0.00889782
211	0xbd21888c	-0.039436862
212	0xbc3c1205	-0.011478906
213	0x3dfa0f41	0.12209941
214	0xbccbdd12	-0.024885688
215	0xbd78d499	-0.060749624
216	0xbd8e1bbf	-0.06938886
217	0x3a1bae6c	0.00059387716
218	0x3d695673	0.05696721
219	0x3e44e6fe	0.19228742
220	0x3dc6ba6e	0.097035274
221	0xbb532c7a	-0.0032222555
222	0x3d88df3a	0.06683202
223	0x3dd7451b	0.10511228
224	0x3d476226	0.048677586
225	0x3e9b6c68	0.30356145
226	0x3d01560f	0.031576212
227	0xbdc34e51	-0.09536422
228	0x3c013bce	0.007887794
229	0xbdadf538	-0.084940374
230	0xbeaf1940	-0.34198952
231	0x3c95dd73	0.018294072
232	0xbe747bd4	-0.23875362
233	0x3df62402	0.12018587
234	0xbdb139c1	-0.08653594
235	0x3e8663d9	0.26248053
236	0x3d832aa3	0.06404617
237	0x3db0902a	0.08621247
238	0x3e67a4dc	0.22621483
239	0x3bc51c7b	0.006015358
240	0xbe1c84a0	-0.15284967
241	0xbdb892b2	-0.09012355
242	0x3b8495bb	0.0040461696
243	0xbd647f74	-0.05578561
244	0x3c344423	0.011002573
245	0x3e480e02	0.19536594
246	0xbd025a71	-0.031824533
247	0xbebbab46	-0.3665411
248	0xbdedcc43	-0.116112255
249	0xbc70af03	-0.014690164
250	0xbb803a12	-0.0039131725
251	0xbd86c8af	-0.06581246
252	0xbe80b601	-0.25138858
253	0xbab16828	-0.0013535069
254	0xbdc674be	-0.096902356
255	0xbd06120f	-0.032732066

model/last_layer/MatMul f4 [31, 256]
0	0x3c344c37	0.011004499
1	0x3e0096d5	0.12557538
2	0x3d7b3748	0.061332017
3	0x3c599658	0.013280474
4	0xbd873f92	-0.06603922
5	0x3bb06e7e	0.0053842654
6	0x3d90f57e	0.07078074
7	0xbc9adaeb	-0.018903216
8	0xbc40c743	-0.011766258
9	0x3c918b4c	0.017766617
10	0xbe751f9d	-0.23937841
11	0xbc4d4d54	-0.0125306435
12	0xbe1c3279	-0.15253629
13	0xbda282b1	-0.07935084
14	0xbcbe7fa5	-0.023254225
15	0xbc9fc01e	-0.019500788
16	0xbd841241	-0.06448794
17	0xbddab454	-0.10678926
18	0xbd9ac69b	-0.07557412
19	0x3c2f435c	0.010697212
20	0x3d3828f4	0.04496093
21	0xbb897af9	-0.0041955677
22	0x3c1037b9	0.008802348
23	0xbd71d829	-0.059044037
24	0xbd12b97a	-0.035821415
25	0xbc1cba15	-0.00956585
26	0xbd8b3819	-0.06797809
27	0xbd2a0693	-0.041510176
28	0xbe0bcfae	-0.13653442
29	0x39fed701	0.00048606846
30	0xbdee40f8	-0.116334856
31	0xbe3ac6f9	-0.18239965
32	0xbd932783	-0.07185271
33	0xbdc75b45	-0.09734205
34	0xbc4c0680	-0.012452722
35	0xbbc332da	-0.0059569897
36	0x3caa93f0	0.020822495
37	0xbeb5bd08	-0.35495782
38	0xbde36ecc	-0.11105117
39	0xbe01b250	-0.12665677
40	0x3cde6563	0.027147954
41	0x3ce0ca11	0.027440103
42	0x3c098e68	0.008395769
43	0xbc6f7b6a	-0.014616827
44	0x3d66a3d6	0.05630859
45	0x3e239efa	0.15978613
46	0xbae26738	-0.0017273193
47	0xbd9b4956	-0.07582347
48	0x3d48e578	0.049046963
49	0xbe03e877	-0.12881647
50	0x3d2dbed3	0.042418312
51	0x3d64bef1	0.05584616
52	0xbcea44f0	-0.028597325
53	0x3d68d9e2	0.056848414
54	0xbd02834b	-0.031863492
55	0xbda60eab	-0.081082664
56	0xbe10878e	-0.1411421
57	0xbe616e71	-0.22014786
58	0x3d77273a	0.060340144
59	0x3d82bc6a	0.063835934
60	0x3d649a40	0.055811167
61	0x3c91a327	0.017777992
62	0xbcf8589b	-0.030315688
63	0xbd515e0f	-0.051115092
64	0x3d6dd931	0.058068458
65	0xbe60396b	-0.21896903
66	0x3d83812f	0.06421124
67	0xbe2dd235	-0.16974719
68	0xbe0b498e	-0.13602278
69	0x3cc70b12	0.02429727
70	0xbca05d36	-0.019575696
71	0x3d4bfc4a	0.04980115
72	0xbd25304f	-0.040329274
73	0x3dbe50d7	0.09292763
74	0x3d5def0f	0.054183062
75	0xbe1afce8	-0.15135539
76	0x3cdefff4	0.027221657
77	0xbe5eef6c	-0.2177102
78	0x3ccf4c3e	0.02530491
79	0xbdbb61dc	-0.091495246
80	0xbd37b261	-0.04484785
81	0xbe737b36	-0.2377747
82	0x3da672f6	0.08127396
83	0xbb8f8970	-0.0043803975
84	0xbcf5a116	-0.029984038
85	0x3d555516	0.052083097
86	0xbd1f1e7b	-0.038847428
87	0xbe116b34	-0.14201051
88	0x3db27547	0.08713775
89	0xbdac8b15	-0.08424965
90	0x3d633370	0.055468976
91	0xbd05e74d	-0.03269129
92	0xbec9aa19	-0.39387587
93	0xbd414c8f	-0.047192153
94	0xbc9888cd	-0.01861992
95	0xbded601a	-0.115905955
96	0x3ce0151a	0.027353812
97	0xbdba0d8a	-0.090846136
98	0x3d95a9b1	0.07307757
99	0x3d4310e3	0.047623526
100	0xbddcf662	-0.10789181
101	0x3e11558c	0.1419279
102	0xbd2450ed	-0.04011624
103	0x3e05002b	0.12988345
104	0xbde3186f	-0.11088645
105	0xbda3541c	-0.07975027
106	0x3d9abd26	0.075556085
107	0x3d4f9847	0.050682332
108	0x3cedd6aa	0.029033024
109	0xbcf538a0	-0.029934227
110	0x3d82d2a5	0.063878335
111	0x3c81a245	0.015824446
112	0xbd3f9402	-0.04677201
113	0xbd0a08b4	-0.033699706
114	0x3d48978b	0.048972648
115	0xbdaab705	-0.083356895
116	0x3dcbb044	0.099457294
117	0xbd9d0542	-0.076670185
118	0xbb3c56c4	-0.002873824
119	0xbe95cb7d	-0.29256812
120	0xbcfd2e6c	-0.030905925
121	0x3d5d665d	0.0540527
122	0x3d321f0e	0.043486647
123	0xbcdbfc50	-0.02685371
124	0x3d0f7eda	0.035033084
125	0xbd9738e2	-0.073838964
126	0xbd9b13a9	-0.07572109
127	0x3dac16c2	0.08402778
128	0x3cabfedd	0.020995552
129	0xbe28a441	-0.16468908
130	0x3d0f02fb	0.03491495
131	0x3d7943c1	0.06085563
132	0x3ba95363	0.005167411
133	0x3c547c47	0.012969083
134	0x3d9a4b1b	0.075338565
135	0xbd63234b	-0.05545358
136	0x3cf75fa7	0.030196978
137	0xbd9b34e1	-0.07578445
138	0xbe5d12ca	-0.21589199
139	0xbe4ea8b6	-0.20181546
140	0xbca39a96	-0.019971173
141	0x3dad783c	0.084701985
142	0xbe38a584	-0.18031889
143	0xbcbd3bab	-0.023099741
144	0x3db38c5d	0.087670065
145	0x3d948354	0.07251611
146	0x3cb9ccd7	0.022680683
147	0x3c8f3d11	0.017485173
148	0x3de1329e	0.109959826
149	0x3c1b42bd	0.009476361
150	0x3d1a1fba	0.037627913
151	0x3bb763ca	0.0055966126
152	0x3cc4de20	0.024031699
153	0xbd896b55	-0.06709925
154	0xbe03d58b	-0.12874429
155	0xbc5d302a	-0.013500253
156	0xbd9f26e4	-0.0777109
157	0xbdfd50a5	-0.12368897
158	0xbe017760	-0.12643194
159	0xbc5c2cb4	-0.013438392
160	0x3cee2424	0.029069968
161	0x3dac70fb	0.08419987
162	0xbde7b3a0	-0.113135576
163	0x3e1208a6	0.14261112
164	0x3d2fdada	0.042933322
165	0x3da4f963	0.08055379
166	0x3c5eddc7	0.0136026805
167	0xbd88b48f	-0.06675064
168	0x3ccdee34	0.025137998
169	0xbe65c11e	-0.2243695
170	0x3c711bfd	0.014716146
171	0xbd510558	-0.051030487
172	0xbdcdb8c3	-0.10045006
173	0x3ca86d2a	0.020559866
174	0xb95ec950	-0.00021246565
175	0x3bb10e4f	0.005403317
176	0x3e0951a6	0.13410053
177	0xbd973250	-0.07382643
178	0xbc6d3ebf	-0.014480292
179	0x3d1b3e06	0.037900947
180	0xbd6dfd49	-0.05810288
181	0xbdf5664d	-0.11982403
182	0xbd9af35a	-0.07565947
183	0xbdb20618	-0.086925685
184	0x3e370a08	0.1787492
185	0xbe00b27c	-0.12568086
186	0xbdafb028	-0.08578521
187	0xbce5a60e	-0.028033283
188	0x3d20848d	0.03918891
189	0xbd2f1b23	-0.04275049
190	0x3dccb464	0.09995344
191	0x3cc6a282	0.024247412
192	0x3da12df0	0.0787009
193	0xbdbdcddf	-0.092677824
194	0x3d8ce10d	0.068788625
195	0x3d22bf31	0.039733116
196	0x3cfe75a3	0.031061953
197	0x3c273660	0.010205835
198	0x3cb086d5	0.021548668
199	0xbc21d025	-0.009876286
200	0xbdebc21d	-0.115116335
201	0x3d18405f	0.037170764
202	0xbd0eae4b	-0.034834187
203	0xbe57ac5c	-0.21061844
204	0xbe3769c3	-0.17911439
205	0x3d40e7b8	0.047095984
206	0x3d667e79	0.056272957
207	0xbc4c1068	-0.012455083
208	0xbd7547c1	-0.059882883
209	0xbdadefee	-0.084930286
210	0x3dc13c1a	0.094352916
211	0x3c554169	0.013016083
212	0xbc087e7b	-0.008330937
213	0x3caa9192	0.020821366
214	0xbe024785	-0.12722595
215	0x3d964775	0.07337848
216	0xbe9d9759	-0.30779532
217	0xbd4e9b08	-0.050440818
218	0x3ca94355	0.02066199
219	0xbd9b8681	-0.07594014
220	0x3d8bc9c1	0.06825591
221	0x3cbea259	0.023270773
222	0xbe65b88d	-0.22433682
223	0x3c872251	0.016495856
224	0x3cee5a45	0.029095778
225	0xbe3785fc	-0.17922205
226	0xbd034951	-0.03205234
227	0x3da9fc31	0.08300055
228	0xbe5e9534	-0.21736604
229	0xbcd7a146	-0.026322018
230	0xba20cc20	-0.00061339326
231	0x3d4739b0	0.048639
232	0x3befb257	0.007314961
233	0x3ccad833	0.024761295
234	0xbd4dbf9f	-0.050231572
235	0xbd13f935	-0.036126334
236	0x3d6e1f9f	0.058135625
237	0xbcb69e60	-0.022292316
238	0x3c0b6eb6	0.008510282
239	0xbd81f7d9	-0.06346101
240	0x3ce88c1b	0.02838712
241	0xbd0820ba	-0.033234335
242	0x3d4931f1	0.049119893
243	0x3d3734ff	0.044728275
244	0xbbe383a9	-0.0069431853
245	0x3caf87a0	0.021426976
246	0xbd4d587a	-0.050133206
247	0xbcb73c48	-0.022367612
248	0xbce3ba87	-0.027798904
249	0x3dae77ac	0.08518919
250	0x3d542830	0.05179614
251	0x3d33d3ac	0.043903038
252	0x3bd8e5dd	0.0066191987
253	0x3d80171e	0.06254409
254	0xbde6e7f4	-0.1127471
255	0xbd6c226b	-0.05765001

model/time_distributed_11/dense_1/MatMul f4 [64, 1488]
0	0x3d014887	0.031563308
1	0x3cf5d01e	0.030006465
2	0x3cead8f9	0.028667914
3	0x3cf04674	0.02933047
4	0x3cfcd6eb	0.0308642
5	0x3d84fe93	0.06493869
6	0x3d1d1d0b	0.038357776
7	0x3d2025d4	0.039098576
8	0x3d814752	0.063124314
9	0xbd13a30f	-0.036044177
10	0x3d8347b8	0.06410164
11	0x3cdc32c5	0.026879678
12	0x3d0bb678	0.034109563
13	0xbb37a69e	-0.0028022896
14	0xbc677e00	-0.014129162
15	0xbc164510	-0.009171739
16	0x398bd611	0.00026671638
17	0x3d248ad9	0.040171478
18	0xbb20a770	-0.0024513863
19	0x3cc3b768	0.023891166
20	0xbd11418c	-0.0354629
21	0x3c01beba	0.007919008
22	0x3ce74c43	0.028234607
23	0x3ce4de3e	0.027938005
24	0xbd5f5230	-0.05452174
25	0xbd2aa66d	-0.041662622
26	0x3d188754	0.037238434
27	0x3abaddff	0.0014256834
28	0xbd1ab017	-0.03776559
29	0x3c015170	0.007892951
30	0x3da04eb3	0.07827511
31	0x3c762dd3	0.015025574
32	0xbc8efd78	-0.017454848
33	0x3badcb93	0.005303809
34	0xbd7a6e4a	-0.061140336
35	0xbd439a97	-0.04775485
36	0x3b67b987	0.0035358386
37	0xbcca7800	-0.024715424
38	0x3d4976af	0.04918545
39	0x3d8bf406	0.06833653
40	0x3cdd0772	0.02698109
41	0xbc9af62b	-0.01891621
42	0xbc169825	-0.0091915475
43	0x3af9a6f8	0.0019046953
44	0xbc046025	-0.008079563
45	0xbb18de22	-0.002332576
46	0x3d2f78da	0.042839862
47	0x3d113e87	0.03546002
48	0xbcb6cff1	-0.022315951
49	0xbd7bd882	-0.061485775
50	0xbd4034cb	-0.046925347
51	0x3ce6433b	0.02810823
52	0x3d313ead	0.043272663
53	0x3d66263d	0.05618881
54	0xbbbe9a5a	-0.00581674
55	0x3b389731	0.002816629
56	0x3c978dfa	0.018500317
57	0x3b827305	0.0039809966
58	0x3d9472bd	0.07248447
59	0xbd2f47af	-0.042792972
60	0xbca6b61d	-0.02035051
61	0x3d92e8c0	0.071733
62	0x3d66f859	0.056389187
63	0xbc55c9cf	-0.013048603
64	0x3d63ec62	0.055645354
65	0x3ce7d707	0.028300775
66	0xbcb7c7d1	-0.022434147
67	0x3d84a3ab	0.0647653
68	0x3d628086	0.05529835
69	0x3d43c8e0	0.04779899
70	0xbb8f1fb3	-0.0043677925
71	0x3a83ecf5	0.0010065126
72	0xbc8c6ed6	-0.017142694
73	0xbd4c9868	-0.049950033
74	0x3dd4fc8a	0.103997305
75	0x3d0ae1fe	0.03390693
76	0x3db92410	0.090400815
77	0x3d8024f4	0.06257048
78	0x3d76f372	0.06029076
79	0xbc07a4fc	-0.008279081
80	0x3c1b1450	0.009465292
81	0x3d2dbdd0	0.042417347
82	0x3dc5cc20	0.096580744
83	0xbcddfdaa	-0.027098496
84	0xbc291a9f	-0.010321288
85	0xbd441f88	-0.047881633
86	0x3cdafb35	0.026731113
87	0x3ce68100	0.028137684
88	0xbcedf65e	-0.029048141
89	0x3d0a0a98	0.03370151
90	0x3d9625c1	0.0733142
91	0x3cb96492	0.022630963
92	0x3baf9e5d	0.0053594545
93	0xbcd12faa	-0.025535423
94	0xbcc43c6d	-0.023954595
95	0xbca6d76b	-0.020366391
96	0x3d86466b	0.065564
97	0x3bc357cd	0.0059613944
98	0x3d626ad7	0.05527767
99	0x3cb29c66	0.021803092
100	0xbd94efb3	-0.072722815
101	0x3d60f917	0.05492505
102	0xbc6f5ea8	-0.01460997
103	0xbd6729e3	-0.05643643
104	0x3b3c83fd	0.0028765195
105	0xbd1c976f	-0.038230356
106	0x3d19e691	0.0375734
107	0x3c22c835	0.009935428
108	0x3b09b33f	0.002101138
109	0x3d2f3dd1	0.042783562
110	0xbcb1e678	-0.021716341
111	0x3d284135	0.04107781
112	0xbc5a1aa8	-0.013312019
113	0x3d377786	0.04479172
114	0x3c9c56b1	0.019084306
115	0x3cd83f8f	0.026397495
116	0xbd8811bb	-0.06644007
117	0x3b24e1e6	0.002515906
118	0x3da24115	0.0792257
119	0x3ca539ae	0.020169105
120	0xbd8631ca	-0.06552465
121	0xbd4e16c1	-0.05031467
122	0x3daad7c9	0.08341939
123	0xbd4d6f55	-0.050155003
124	0xbc8089ca	-0.015690703
125	0xbca492c6	-0.020089518
126	0x3ccc99f0	0.024975747
127	0xbc09abe2	-0.008402796
128	0x3cf9d72e	0.030498113
129	0x3d25b497	0.040455427
130	0x3d32d6b3	0.043661784
131	0xbd54d847	-0.05196407
132	0xbd049d40	-0.032376528
133	0xbc4d1a2a	-0.012518445
134	0x3d96fb85	0.07372192
135	0x3bccc25b	0.006248755
136	0xbd0e5cc0	-0.034756422
137	0x3c67b7d6	0.014142951
138	0x3c41025a	0.011780346
139	0xbca5bece	-0.020232584
140	0x3d8d355a	0.06894942
141	0x3d281b1e	0.041041486
142	0xbbaaaec4	-0.005208822
143	0x3dad6dd4	0.08468214
144	0xbd8df5fc	-0.069316834
145	0x3d0dd2bf	0.03462481
146	0xbbc352d9	-0.005960804
147	0xbd7ac807	-0.061225917
148	0xbd490278	-0.04907462
149	0xbd596e27	-0.053083565
150	0x3d94675d	0.072462775
151	0x3d366335	0.044528205
152	0xbd4fbc60	-0.050716758
153	0xbd5e53f6	-0.05427929
154	0x3d89f972	0.06737031
155	0x3d80fd42	0.06298305
156	0xbc84fd5e	-0.016234096
157	0xbd372ea9	-0.044722233
158	0x3d830595	0.06397549
159	0x3d4cb4e3	0.049977195
160	0xbd2d3b06	-0.042292617
161	0x3d1ed02e	0.038772754
162	0x3d80fc71	0.062981494
163	0xbd222e35	-0.039594848
164	0x3d18d064	0.03730811
165	0xbd8462fa	-0.06464191
166	0x3d89344a	0.066994265
167	0xbc8e6020	-0.01737982
168	0xbc64499d	-0.013933566
169	0xbcc1fba9	-0.023679571
170	0x3d88492c	0.066545814
171	0x3cf5dbe7	0.030012084
172	0xbc2416ec	-0.010015231
173	0x3d632fe6	0.0554656
174	0x3d3d01df	0.046144363
175	0x3d1c33ef	0.038135465
176	0xbd514b65	-0.051097292
177	0xbd0edc8e	-0.034878306
178	0xbcfc866c	-0.030825816
179	0xbd984fdf	-0.07437109
180	0x3d258d76	0.04041811
181	0x3c7b4940	0.015337288
182	0x3c3a5fc9	0.011375376
183	0x3c8cde67	0.017195893
184	0x3cb72028	0.0223542
185	0xbd2b6c0a	-0.04185108
186	0x3d1d1de7	0.038358595
187	0xbce815b4	-0.028330661
188	0x3d066c2e	0.032818012
189	0x3d42c0d6	0.047547184
190	0x3d334189	0.04376367
191	0x3d20a913	0.03922374
192	0xba481f61	-0.00076340704
193	0x3cc984dd	0.024599487
194	0x3d57c0d6	0.052674137
195	0x3c324595	0.010880847
196	0x3d43f882	0.047844417
197	0xbd382e05	-0.044965763
198	0x3d2bc1e4	0.041932955
199	0x3cb45271	0.022011967
200	0x3c1eec05	0.009699826
201	0xbd3e10f5	-0.04640289
202	0x3d0eae48	0.034834176
203	0x3c96bf91	0.018401893
204	0x3db3bef8	0.08776659
205	0xbc361886	-0.011114245
206	0x3d8394e3	0.06424882
207	0x3d9e728c	0.07736692
208	0xbc9b5a93	-0.018964088
209	0xbc428582	-0.011872651
210	0x3d6ca782	0.057776935
211	0xbd5a4642	-0.05328966
212	0x3d8e0da0	0.069361925
213	0x3d4c6140	0.049897432
214	0x3d1358e8	0.03597346
215	0xb8875900	-6.453879e-05
216	0x3d857a27	0.06517439
217	0xbd41c1bd	-0.047303904
218	0xbd335892	-0.04378564
219	0x3d9429bd	0.072345234
220	0x3d25b7f0	0.04045862
221	0xbcae3e4a	-0.021269936
222	0x3cf30df8	0.029669747
223	0x3d0cbadf	0.0343579
224	0x3d011ea6	0.03152337
225	0xbc4bce72	-0.012439357
226	0xbcffb395	-0.031213561
227	0x3d4936ef	0.049124654
228	0xbc5ff619	-0.013669514
229	0x3d43ad9e	0.047772996
230	0xbbfcd2fa	-0.00771558
231	0xbca672b2	-0.020318363
232	0x3d6b9958	0.057519287
233	0x3cc45eee	0.023971047
234	0x3b581d70	0.003297653
235	0x3d320280	0.043459415
236	0x3c7b37e8	0.015333153
237	0x3c8343c6	0.016023528
238	0x3da907b8	0.08253425
239	0x3cc42a8e	0.023946073
240	0x3c5f3429	0.013623276
241	0x3ce61fbc	0.028091304
242	0x39985efc	0.00029062468
243	0x3cdf9fd5	0.027297894
244	0x3d9268d2	0.07148899
245	0xbd4e651d	-0.050389398
246	0xbcf8072e	-0.030276861
247	0x3d381af6	0.044947587
248	0xbc399aa9	-0.011328378
249	0x3d695086	0.05696156
250	0xbcf5ec34	-0.030019857
251	0xbd4b76f4	-0.04967399
252	0xbce09572	-0.027415011
253	0xbce3c826	-0.0278054
254	0x3d9e5611	0.077312596
255	0x3d6ac33c	0.057315096

model/time_distributed_3/batch_normalization/FusedBatchNormV3 f4 [8]
0	0xbf943521	-1.1578714
1	0xbfaab25b	-1.333568
2	0xbfb8b25f	-1.4429435
3	0xbfa42699	-1.2824279
4	0xbfa60300	-1.2969666
5	0xbf900020	-1.1250038
6	0xbf89e9a3	-1.0774425
7	0xbfa5c08f	-1.2949389

model/time_distributed_3/batch_normalization/FusedBatchNormV31 f4 [8]
0	0x3f725108	0.94654894
1	0x3f6907ab	0.91027325
2	0x3f71faf7	0.94523567
3	0x3f7f85a6	0.99813306
4	0x3f6713f1	0.90264803
5	0x3f60e3d7	0.87847656
6	0x3f816993	1.0110344
7	0x3f76f228	0.9646325

model/time_distributed_5/dense/MatMul f4 [32, 168]
0	0x3e2073ef	0.15669225
1	0x3db76a2b	0.08955797
2	0x3d94a55a	0.07258101
3	0xbe9d976d	-0.3077959
4	0x3de6ceb7	0.112698965
5	0x3da0a777	0.078444414
6	0x3e8e4372	0.27785832
7	0x3da71354	0.081579834
8	0x3cd01a1b	0.025403073
9	0x3d10d499	0.035359
10	0xbd9f54fd	-0.07779882
11	0x3e67e807	0.22647105
12	0x3ddd559c	0.10807344
13	0x3d2b999b	0.041894536
14	0xbdcf483a	-0.10121198
15	0x3e18b3ea	0.14912382
16	0x3d730a1c	0.059335813
17	0xbd1a52d2	-0.03767664
18	0xbdc82ae2	-0.09773804
19	0xbdebbebe	-0.115109906
20	0x3e5aa1cb	0.21350782
21	0x3d65268c	0.055944964
22	0xbd3008e3	-0.042977225
23	0xb9f85874	-0.0004736815
24	0x3daf3ecf	0.08556902
25	0xbda5a9a0	-0.08088994
26	0xbd978141	-0.073977
27	0xbca3d8c4	-0.020000823
28	0x3e057b94	0.13035423
29	0xbcbd6569	-0.023119645
30	0xbe14626e	-0.14490673
31	0x3d93a6d2	0.07209553
32	0xbe68f050	-0.22747922
33	0x3e0db7bb	0.13839619
34	0xbcb65ee2	-0.02226204
35	0xbc8a093b	-0.016850105
36	0xbe2758fe	-0.16342542
37	0x3d397f33	0.045287322
38	0xbda2f67d	-0.0795717
39	0xbd09f073	-0.033676576
40	0x3e097c9d	0.13426442
41	0xbdbc53df	-0.09195685
42	0x3caea127	0.021317078
43	0xbdf73253	-0.120701455
44	0xbd8052fe	-0.062658295
45	0x3d5fd9b3	0.054650974
46	0x3db41169	0.08792383
47	0xbd9ebca8	-0.07750827
48	0x3e1f1196	0.15534052
49	0x3d9ff219	0.07809848
50	0x3e202578	0.15639293
51	0x3c890a48	0.016728535
52	0x3e76cc98	0.24101484
53	0xbd0e9290	-0.03480774
54	0x3d522e56	0.05131372
55	0x3c298e4d	0.010348869
56	0x3d9c7897	0.07640188
57	0x3d64dd75	0.05587526
58	0xbe32e450	-0.17469907
59	0x3d2e45a9	0.0425469
60	0x3d56b843	0.05242182
61	0xbe6f8de3	-0.23393969
62	0xbd720441	-0.059086088
63	0x3d6624c7	0.056187417
64	0x3db8e6f7	0.09028428
65	0xbc63bc72	-0.013899909
66	0x3db7c8ea	0.08973868
67	0x3dce35d8	0.10068864
68	0xbdb3c02c	-0.08776888
69	0x3e4f6d24	0.20256478
70	0x3e1fae45	0.15593822
71	0x3d50e09a	0.050995447
72	0xbd074e49	-0.033033643
73	0xbe4d5efa	-0.20055762
74	0xbdcc9548	-0.09989411
75	0x3ddabb9d	0.10680316
76	0x39cc4396	0.00038960268
77	0x3d25320d	0.040330935
78	0xbe173ac0	-0.14768505
79	0xbe2e4de3	-0.17021899
80	0x3e3ad11c	0.18243831
81	0x3cb4f699	0.022090243
82	0xbd82db8e	-0.06389533
83	0x3d63f4cd	0.055653382
84	0xbb304338	-0.0026895534
85	0xbe850b49	-0.25985172
86	0xbcba3a80	-0.022732973
87	0xbd47eda1	-0.048810605
88	0xbe0f232e	-0.13978264
89	0x3d45b222	0.048265584
90	0xbe385b77	-0.18003641
91	0x3c1b103f	0.009464323
92	0x3d7fcf57	0.062453594
93	0x3e104842	0.14090064
94	0xbe9129a7	-0.2835209
95	0xbe7fb94c	-0.24973029
96	0x3cb6ed56	0.022329967
97	0x3e1c6e55	0.15276463
98	0x3dba0aec	0.090841144
99	0x3ddc1c17	0.10747545
100	0xbdc67fb5	-0.09692327
101	0x3c8fc0eb	0.017548045
102	0x3e774b1b	0.24149744
103	0x3de0cec5	0.10976938
104	0x3dba912c	0.091097206
105	0xbe58e8aa	-0.21182504
106	0xbdb653a0	-0.08902669
107	0xbe1809b8	-0.14847457
108	0xbdf7b8bc	-0.12095782
109	0xbdde2db5	-0.10848562
110	0x3e3a46fb	0.1819114
111	0x3d40b172	0.047044225
112	0xbe1433a5	-0.14472826
113	0xbc1efa08	-0.009703167
114	0xbe29b683	-0.16573529
115	0xbdedb654	-0.11607042
116	0x3dedc361	0.11609531
117	0xbe79bc36	-0.24388203
118	0xbe30e4df	-0.17274807
119	0xbcd74e4e	-0.026282456
120	0x3c0f29ee	0.008738024
121	0xbcb760bd	-0.022384996
122	0xbdaf5514	-0.08561149
123	0x3d427eea	0.047484316
124	0xbdec5f9a	-0.11541672
125	0xbde9ab78	-0.11409658
126	0x3d2a31e0	0.04155147
127	0x3b36c92c	0.0027890904
128	0xbc7085a2	-0.014680298
129	0x3e214a72	0.15751055
130	0x3dbee69c	0.09321329
131	0xbe4d9382	-0.20075801
132	0x3c2a054e	0.010377241
133	0xbe46934f	-0.19392131
134	0x3dac270f	0.08405887
135	0xbe09a422	-0.13441518
136	0x3dba4d14	0.09096733
137	0xbd8c55d7	-0.0685231
138	0xbe07f373	-0.13276462
139	0x3d599975	0.053124864
140	0x3c966bcf	0.018361954
141	0x3cece218	0.028916404
142	0xbe2b3e25	-0.16722925
143	0xbe0fa129	-0.14026321
144	0xbccd67b3	-0.025073862
145	0xbde1e981	-0.110308655
146	0xbe465c3c	-0.19371122
147	0x3cb9cec7	0.022681607
148	0xbe459fa6	-0.19299182
149	0xbbb85f67	-0.005626607
150	0xbe359905	-0.17734154
151	0xbe8597d1	-0.2609239
152	0xbd235f1b	-0.03988562
153	0xbd2e7abe	-0.042597525
154	0xbb533860	-0.0032229647
155	0xbe1421d0	-0.14466023
156	0xbdde3ed6	-0.10851829
157	0xbd5c0373	-0.053714227
158	0xbe3ad571	-0.18245484
159	0xbdbdcbd1	-0.092673905
160	0xbe2ae934	-0.16690522
161	0x3e4c6db5	0.19963725
162	0x3cbf5eaa	0.023360569
163	0x3de00059	0.10937566
164	0xbe3174eb	-0.17329757
165	0x3d3fd9fc	0.046838745
166	0x3d920d68	0.07131463
167	0x3c1b2d8f	0.009471311
168	0xbe059c5c	-0.13047928
169	0xbd4075a0	-0.046987176
170	0x3c9f512d	0.019447887
171	0xbe6ea3eb	-0.23304717
172	0x3d586c17	0.052837458
173	0x3e1f583e	0.15561005
174	0xbe0c3426	-0.13691768
175	0xbd6a9131	-0.05726737
176	0xbe25f175	-0.1620539
177	0x3ce4caf6	0.02792881
178	0xbd8bc89c	-0.068253726
179	0x3dd6badb	0.104848586
180	0x3e0c256b	0.13686149
181	0xbe3d120f	-0.1846392
182	0xbc82c0d4	-0.015961088
183	0xbc431768	-0.011907436
184	0xbdd028b4	-0.101640135
185	0xbdc4c86b	-0.09608539
186	0x3ded685e	0.11592172
187	0xbe141f1b	-0.14464991
188	0xbd8224e5	-0.06354693
189	0x3e3ae96f	0.1825311
190	0xbd11dcb6	-0.035610877
191	0x3e084eae	0.13311264
192	0x3e5c5381	0.21516229
193	0xbd993986	-0.07481675
194	0xbaeec6b9	-0.0018217183
195	0x3db4f159	0.08835096
196	0xbdd76637	-0.10517543
197	0x3d061752	0.032737084
198	0xbe4e2b49	-0.201337
199	0x3e421e1b	0.18956797
200	0x3d1b30ee	0.03788846
201	0x3dbae3bf	0.0912547
202	0xbe311d4a	-0.17296329
203	0x3e77506e	0.24151775
204	0x3bcfa775	0.006337101
205	0xbd99e483	-0.07514288
206	0x3cfb25f1	0.03065774
207	0xbdd57b46	-0.10423903
208	0x39457ed9	0.00018834638
209	0x3dc2a6e4	0.09504488
210	0xbbc41117	-0.0059834826
211	0xbdd2463f	-0.10267305
212	0x3c9a4a82	0.018834356
213	0x3d5feac1	0.05466724
214	0x3e34d012	0.17657498
215	0x3dac295d	0.08406327
216	0x3d61cde5	0.055127997
217	0x3e1f15e0	0.15535688
218	0xbdfaf5e2	-0.1225393
219	0xbddfd300	-0.10928917
220	0xbc9913f9	-0.018686282
221	0x3d9a935b	0.07547637
222	0x3e7bdac4	0.24595171
223	0xbe0f359e	-0.13985297
224	0xbe2d6071	-0.1693132
225	0x3b62465a	0.0034526796
226	0xbd8678c3	-0.06566002
227	0xbd204733	-0.0391304
228	0xbd03a4b9	-0.032139514
229	0x3e06de74	0.13170797
230	0x3e45d9c2	0.1932135
231	0xbe2882cc	-0.16456145
232	0x3da44450	0.08020842
233	0x3dff528d	0.12466917
234	0x3c7bae66	0.015361404
235	0x3c5052a5	0.0127150165
236	0xbe365c56	-0.17808661
237	0xbe1ebb01	-0.15501024
238	0xbc3c4b03	-0.011492494
239	0xbe24f70c	-0.16109866
240	0x3d20ba3d	0.03924011
241	0xbd43663f	-0.04770493
242	0xbe148044	-0.14502054
243	0xbe99c6e3	-0.3003455
244	0x3e02b52c	0.12764424
245	0xbd3e4731	-0.046454612
246	0x3e67a532	0.22621611
247	0xbc8c8822	-0.017154757
248	0x3db1de59	0.086849876
249	0x3e013acc	0.12620085
250	0xbb7b5b9c	-0.0038354164
251	0x3c6ca8b1	0.014444516
252	0x3defbba6	0.11705713
253	0xbdc7ea9f	-0.09761547
254	0xbe5551c2	-0.2083197
255	0xbda835af	-0.08213364

model/time_distributed_9/batch_normalization_1/FusedBatchNormV3 f4 [16]
0	0xbed8bd14	-0.42331755
1	0xbec376e9	-0.3817666
2	0xbee17a77	-0.44038746
3	0xbecab76c	-0.39593065
4	0xbf0077c9	-0.5018278
5	0xbf0f3102	-0.55934155
6	0xbecb377a	-0.39690763
7	0xbee5d576	-0.4488942
8	0xbded6480	-0.115914345
9	0xbf00ac5a	-0.5026299
10	0xbea60eed	-0.32433262
11	0xbed5e6fc	-0.4177779
12	0xbea5faf3	-0.32418022
13	0xbee5e317	-0.44899818
14	0xbee08efc	-0.43859088
15	0xbed48868	-0.4151032

model/time_distributed_9/batch_normalization_1/FusedBatchNormV31 f4 [16]
0	0x3fc219dc	1.5164142
1	0x3fc9c3f7	1.5762929
2	0x3fcb067c	1.5861354
3	0x3fc1cd15	1.5140711
4	0x3fe821bb	1.8135294
5	0x3fc1181a	1.508548
6	0x3fdd2781	1.7277681
7	0x3fd98d48	1.6996241
8	0x3fdde457	1.7335309
9	0x3fd4b54c	1.6617827
10	0x3fcbcf64	1.5922666
11	0x3fa768af	1.3078822
12	0x3fc32761	1.5246392
13	0x3fcf1108	1.6177073
14	0x3fca7f45	1.582009
15	0x3fd142f1	1.6348554
