HPC_Final_Study2_Complete_Test_Class_Balance/participants_session_transfer_train/participant_3/session_4/session_4_lite_models/indexpen_model.tflite (tflite, 768696 bytes, 45 tensors)

model/time_distributed_3/conv2d_1/BiasAdd;model/time_distributed_11/conv2d_3/Conv2D;model/time_distributed_3/conv2d_1/Conv2D;model/time_distributed_3/conv2d_1/BiasAdd/ReadVariableOp/resource f4 [16]
-0.22075696 -0.14796202 -0.018379752 -0.020634126 0.15340689 -0.0649955 -0.15691334 -0.011829851
-0.0911874 -0.12527917 -0.042155728 -0.048640415 -0.2099923 -0.17992455 0.05218038 -0.11131126
00000000: 1d0e 62be 5b83 17be 2291 96bc e608 a9bc
00000010: b216 1d3e 5c1c 85bd e4ad 20be fed1 41bc
00000020: 76c0 babd 2f49 00be 7cab 2cbd 2c3b 47bd
00000030: 3908 57be 243e 38be 18bb 553d 28f7 e3bd

model/time_distributed/conv2d/BiasAdd;model/time_distributed_8/conv2d_2/Conv2D;model/time_distributed/conv2d/Conv2D;model/time_distributed/conv2d/BiasAdd/ReadVariableOp/resource f4 [8]
0.0039006076 -0.009649309 0.01409256 -0.0043404964 0.049175106 -0.001872586 0.1584618 -0.02225379
00000000: 56a1 7f3b 2318 1ebc 7be4 663c b93a 8ebb
00000010: d66b 493d 8f71 f5ba cf43 223e 954d b6bc

model/time_distributed_11/conv2d_3/BiasAdd;model/time_distributed_11/conv2d_3/Conv2D;model/time_distributed_11/conv2d_3/BiasAdd/ReadVariableOp/resource f4 [16]
0.012238013 0.067513525 -0.011878776 0.05057597 0.032800537 -0.021036537 -0.00028842027 0.066832684
0.007237367 -0.019160679 -0.001225059 -0.023518188 0.039267767 -0.022122301 -0.019426184 -0.045417123
00000000: f281 483c 8844 8a3d 339f 42bc c028 4f3d
00000010: db59 063d d154 acbc 1d37 97b9 93df 883d
00000020: 6f27 ed3b dbf6 9cbc 2992 a0ba 37a9 c0bc
00000030: 3dd7 203d d439 b5bc a923 9fbc 4e07 3abd

model/time_distributed_8/conv2d_2/BiasAdd;model/time_distributed_8/conv2d_2/Conv2D;model/time_distributed_8/conv2d_2/BiasAdd/ReadVariableOp/resource f4 [8]
0.070938565 0.004078211 -0.018378925 0.0017694884 -0.006610274 0.14786978 0.023470256 -0.01715247
00000000: 3d48 913d 83a2 853b 668f 96bc 2eee e73a
00000010: ff9a d8bb 2d6b 173e b244 c03c 5683 8cbc

model/time_distributed_3/conv2d_1/Conv2D f4 [16, 3, 3, 8]
0.064829715 -0.04627831 0.0116118435 -0.25923216 -0.018632505 0.014212089 -0.02279569 -0.060364775
-0.02027655 -0.015326068 -0.024837954 0.0415547 0.09274516 0.024623953 0.20327242 -0.05467522
0.06328365 -0.04751082 -0.016558856 0.014691455 -0.17109556 -0.03519583 0.020476554 0.0076015666
0.0046064733 -0.07392669 0.0023592052 -0.058672138 -0.066581145 0.0025096855 0.15290383 -0.0010519193
-0.030042648 0.0028401946 -0.0073340107 0.25169665 -0.11315531 0.020842653 0.0055640535 0.012136843
0.006510944 0.009548684 0.04170308 -0.10899892 0.0140316775 -0.042149037 -0.21250284 -0.014973506
0.009952405 0.03860386 0.07030666 0.09544002 -0.09042104 -0.04221364 0.104570076 -0.03189916
-0.023992464 0.0249631 0.004163055 -0.15494287 -0.099300675 -0.0672525 0.25061208 -0.01155496
-0.008689966 -0.022041189 -0.018956337 -0.085503876 -0.011127174 -0.02962059 0.47589654 -0.031847466
0.024102544 0.02580011 -0.08179917 -0.12252512 0.09055249 -0.025944978 -0.33323136 0.06897327
0.06536364 0.005337466 -0.046837177 -0.021907367 0.107304744 -0.055422276 -0.04264944 -0.01065383
-0.00092707796 -0.016314322 0.024363255 -0.05479103 -0.14858082 0.028605195 0.26895306 -0.03178239
0.0012185515 0.028209627 -0.061381754 0.14860915 0.035825703 -0.014095115 -0.1848876 0.037538573
-0.07019388 0.011180878 0.0023261209 -0.010658872 0.10323181 -0.005794895 -0.31747895 0.012611551
-0.094726756 0.00967064 0.0070771887 -0.13257517 0.027277019 0.08991428 0.24156289 0.0069285943
-0.00013849071 0.03958224 -0.027938735 -0.059361503 0.13917997 0.021637602 0.05662114 -0.035175327
0.026917187 0.009187301 0.020389073 -0.13829747 -0.10511387 0.009558371 0.25455168 0.040317256
0.033543255 -0.02297905 -0.04814103 0.007494291 -0.16356349 0.017901564 0.37796554 0.032499555
-0.07877431 0.026502306 -0.0067217206 -0.11448818 -0.14267142 0.012208632 -0.17402269 0.04438946
-0.0506131 0.03423266 -0.06882877 -0.042035658 0.018402359 0.08912606 0.15435806 0.055254154
-0.0689498 -0.018927224 0.0009788995 0.055344924 -0.00070650014 0.09657875 -0.18128808 -0.01009504
-0.047730718 0.028898697 -0.0067342427 0.16616924 -0.27751037 0.05190358 -0.3327893 0.047322012
-0.07250479 0.09456945 -0.0092544975 -0.045959316 -0.09264088 0.030755661 -0.36436608 0.030333415
-0.04788452 -0.011928312 0.01570189 0.20906335 0.040672317 0.0056409803 -0.14733696 0.06964072
-0.008276805 -0.04555991 -0.051406767 -0.114335045 -0.032960232 0.040460426 0.07227735 -0.011595551
-0.031890783 0.040939346 -0.00862106 -0.34793565 -0.25977448 -0.00034665546 0.1381436 -0.007267301
-0.021502571 -0.00066181895 -0.021604454 -0.026817719 -0.3644993 -0.043896966 0.16934866 0.027917178
-0.06328518 0.06526042 -0.053798642 -0.0828428 0.07469143 0.059098713 0.06401665 -0.0029341914
-0.0510147 0.03715817 -0.043326735 0.13157111 -0.14324172 -0.013776051 -0.13946418 0.017178664
-0.050347205 -0.00072361476 0.02685034 -0.24697782 -0.02235702 0.04824828 0.09455266 -0.05791177
0.003073513 0.0014645158 -0.043902434 0.0073377686 -0.01293884 0.021252653 0.023688836 0.03724038
0.043138582 0.04164275 -0.045628954 -0.069035605 -0.15017252 0.050695762 -0.14051658 0.0058135632
00000000: 71c5 843d 538e 3dbd 9a3f 3e3c 14ba 84be
00000010: 32a3 98bc d2d9 683c 07be babc 0e41 77bd
00000020: 021b a6bc 301a 7bbc f778 cbbc 4335 2a3d
00000030: 2df1 bd3d 2cb8 c93c a526 503e 20f3 5fbd
00000040: dc9a 813d b59a 42bd 70a6 87bc 6eb4 703c
00000050: ad33 2fbe 8129 10bd 72be a73c 9016 f93b
00000060: e6f1 963b e066 97bd e59c 1a3b 3252 70bd
00000070: b25b 88bd 8979 243b d292 1c3e 8ee0 89ba
00000080: 001c f6bc 8f22 3a3b 2452 f0bb 62de 803e
00000090: f9bd e7bd 36be aa3c aa52 b63b 9cd9 463c
000000a0: c259 d53b 1572 1c3c d9d0 2a3d d33a dfbd
000000b0: 1fe5 653c 78a4 2cbd 589a 59be 7053 75bc
000000c0: 690f 233c 151f 1e3d f0fc 8f3d 0f76 c33d
000000d0: ab2e b9bd 36e8 2cbd d628 d63d b2a8 02bd
000000e0: d88b c4bc 6a7f cc3c 3d6a 883b 58a9 1ebe
000000f0: 275e cbbd aebb 89bd 3a50 803e 0451 3dbc
00000100: 5c60 0ebc b98f b4bc 524a 9bbc a81c afbd
00000110: c04e 36bc e1a6 f2bc b6a8 f33e 7d72 02bd
00000120: b372 c53c c15a d33c 5386 a7bd 73ee fabd
00000130: 9573 b93d 908a d4bc 4d9d aabe dc41 8d3d
00000140: 5fdd 853d e9e5 ae3b 57d8 3fbd 1477 b3bc
00000150: 97c2 db3d 7802 63bd 2eb1 2ebd 678d 2ebc
00000160: 2607 73ba 9da5 85bc 7395 c73c 8f6c 60bd
00000170: 9225 18be 7155 ea3c 37b4 893e 402e 02bd
00000180: ceb7 9f3a e017 e73c 6f6b 7bbd ff2c 183e
00000190: f9bd 123d 32ef 66bc 2d53 3dbe 0cc2 193d
000001a0: cfc1 8fbd 0030 373c d571 183b 8da2 2ebc
000001b0: 336b d33d 1ae3 bdbb 9a8c a2be aea0 4e3c
000001c0: 1a00 c2bd 9b71 1e3c c3e7 e73b c9c1 07be
000001d0: 0e74 df3c fa24 b83d 435c 773e 4309 e33b
000001e0: d137 11b9 fd20 223d c6df e4bc 0c25 73bd
000001f0: 3285 0e3e 5741 b13c 92eb 673d 0114 10bd
00000200: 6f81 dc3c 5586 163c fc06 a73c da9d 0dbe
00000210: f145 d7bd b79a 1c3c 9954 823e b523 253d
00000220: a764 093d 903e bcbc 872f 45bd ab92 f53b
00000230: 307d 27be 4da6 923c b384 c13e 411e 053d
00000240: 6d54 a1bd 5d1b d93c e141 dcbb c778 eabd
00000250: 7518 12be b706 483c 0133 32be b9d1 353d
00000260: af4f 4fbd 8c37 0c3d 19f6 8cbd 952d 2cbd
00000270: 8bc0 963c b987 b63d 0a10 1e3e 2e52 623d
00000280: 8e35 8dbd 440d 9bbc 6b4e 803a 5cb1 623d
00000290: 6c34 39ba 14cb c53d 95a3 39be ab65 25bc
000002a0: 4981 43bd f6bc ec3c ecaa dcbb 4528 2a3e
000002b0: d715 8ebe d998 543d 5c63 aabe bad4 413d
000002c0: 647d 94bd a1ad c13d 2da0 17bc d63f 3cbd
000002d0: 80ba bdbd 4cf3 fb3c 318e babe c87d f83c
000002e0: 8f22 44bd f76e 43bc 40a1 803c b414 563e
000002f0: 0498 263d f9d7 b83b 80df 16be cb9f 8e3d
00000300: 709b 07bc 079d 3abd e78f 52bd 7e28 eabd
00000310: 4f01 07bd d5b9 253d 2606 943d 44fb 3dbc
00000320: e99f 02bd 04b0 273d 593f 0dbc 9f24 b2be
00000330: 2901 85be 4fbf b5b9 8475 0d3e 8a22 eebb
00000340: 2926 b0bc eb7d 2dba d3fb b0bc d5b0 dbbc
00000350: a79f babe 4ecd 33bd bc69 2d3e 91b2 e43c
00000360: a99b 81bd 41a7 853d f75b 5cbd 7ca9 a9bd
00000370: d2f7 983d 7e11 723d 291b 833d 904b 40bb
00000380: caf4 50bd 2a33 183d 6077 31bd 94ba 063e
00000390: f5ad 12be f2b4 61bc b3cf 0ebe 45ba 8c3c
000003a0: df38 4ebd f7b0 3dba 3ff5 db3c c1e7 7cbe
000003b0: 1226 b7bc fd9f 453d d3a4 c13d e434 6dbd
000003c0: fe6c 493b fff4 bf3a 0ad3 33bd aa71 f03b
000003d0: 6efd 53bc 0b1a ae3c 170f c23c 5e89 183d
000003e0: 15b2 303d 9791 2a3d 6de5 3abd 8a62 8dbd
000003f0: d3c6 19be 5ca6 4f3d 94e3 0fbe b47f be3b

model/time_distributed/conv2d/Conv2D f4 [8, 3, 3, 1]
0.001682939 -0.000115895404 0.0036609583 -0.0004240109 0.002902065 -0.0058769817 0.0073545547 0.005097786
0.0048897183 0.00017564057 -0.0027470377 0.0011819771 1.8363367e-05 0.0007036066 0.0028826927 -0.0019508583
0.0012616186 -0.0017304723 -0.0038516466 0.00028001596 0.001592039 -0.003003925 -0.0024701562 0.0009174265
0.0060074935 0.005684845 -0.003938554 0.00028735987 -0.0028000784 -0.01809782 -0.00755498 -0.00035008133
0.013792554 -0.01299197 -0.0024495316 0.01636342 0.0009752856 0.00181529 0.0032250066 0.004523324
0.0015660177 -0.0025330845 0.048325118 0.0007661446 -0.0032446655 -0.0005824801 0.0020029938 0.0020441706
-9.525663e-05 -0.00018318974 -0.00022418959 -0.0040879105 -0.0016623373 0.00035550754 -0.009486887 0.0020477658
0.006302929 0.003020685 -0.010846921 0.004454194 0.0027883884 -0.03991275 -0.004373551 0.00031178797
-1.5288504e-05 0.00016222219 0.0017203882 -0.0020269956 0.0015786745 0.0009323375 -0.001929255 -0.0018613306
00000000: 1096 dc3a df0c f3b8 b0ec 6f3b c84d deb9
00000010: 9230 3e3b b293 c0bb 7afe f03b 540b a73b
00000020: ee39 a03b 282c 3839 a507 34bb 92ec 9a3a
00000030: 080b 9a37 3d72 383a 8feb 3c3b f1b3 ffba
00000040: e55c a53a 04d1 e2ba e86b 7cbb 1bcf 9239
00000050: f7ab d03a 80dd 44bb 58e2 21bb 737f 703a
00000060: 82da c43b f047 ba3b fc0e 81bb caa8 9639
00000070: 8581 37bb e141 94bc c48f f7bb 1f8b b7b9
00000080: 2afa 613c 46dc 54bc 5288 20bb 940c 863c
00000090: 4faa 7f3a 06ef ed3a a25a 533b 6438 943b
000000a0: d642 cd3a 1b02 26bb 8ff0 453d 18d7 483a
000000b0: 74a4 54bb 94b1 18ba a944 033b 7ef7 053b
000000c0: 84c4 c7b8 9f16 40b9 6f14 6bb9 e1f3 85bb
000000d0: c9e2 d9ba 6a63 ba39 e36e 1bbc cf33 063b
000000e0: cd88 ce3b aff6 453b 49b7 31bc 7df4 913b
000000f0: 65bd 363b 8d7b 23bd 0150 8fbb 7977 a339
00000100: d03f 80b7 301a 2a39 a67e e13a 58d7 04bb
00000110: 87eb ce3a 1c68 743a 0edf fcba e4f7 f3ba

model/time_distributed_11/conv2d_3/Conv2D f4 [16, 3, 3, 8]
0.18122117 -0.0054464987 0.0024937566 0.0074088154 -0.32039747 -0.2809402 -0.12873405 -0.05225405
-0.008802522 0.012140949 0.009100028 -0.023295632 -0.2984493 0.24875563 -0.15309212 -0.043898433
-0.131537 0.007522572 -0.001519465 -0.016333481 -0.3301032 0.057307515 0.09593272 -0.016074069
-0.22036366 -0.03704947 0.016794194 -0.037579913 0.031332117 0.1318997 -0.32305804 -0.016963493
0.040038656 -0.056381524 -0.00804829 -0.015727362 -0.0017996934 -0.008087662 0.09489753 0.031541318
0.032284345 -0.020932946 -0.020052599 -0.03137883 -0.019026598 -0.23918009 0.094628744 0.04641581
0.05037597 -0.015012803 0.0045939544 0.01083766 -0.036359943 -0.11483538 -0.19181913 -0.03843398
0.0026437258 0.07723555 -0.01643902 0.034808874 0.049921807 -0.0008406985 -0.050833218 -0.03989474
0.06899024 0.034582343 -0.0167613 0.047871254 0.30764803 -0.041978 -0.33577278 0.06012269
0.45476276 0.009218813 0.00060210546 0.0641138 0.20683251 -0.08322579 -0.33084714 0.020397428
-0.018157573 -0.030697051 -0.011293532 -0.069290094 -0.15228279 0.20300795 -0.11184581 -0.009671137
-0.50853586 -0.02215995 0.0063696825 -0.025459407 -0.4045287 -0.094192795 0.31358653 0.027135687
-0.31343463 -0.05062758 0.042347174 -0.016777514 -0.3992546 0.22589499 -0.18801562 0.053661775
0.17891638 -0.020990634 0.047535945 0.069131695 -0.2782938 -0.27153677 -0.14536604 -0.06576525
0.08489012 -0.06870093 -0.020053867 -0.0055265957 0.27473462 0.031245174 0.010029755 0.061262846
0.12907799 -0.05417872 0.034563787 0.031469658 0.08534089 0.19402325 -0.20564157 0.025852734
-0.2593026 -0.03446443 0.07225402 -0.05527137 -0.11566831 -0.11246874 -0.09026838 -0.06624692
-0.15419802 -0.066836156 0.023807075 0.039067723 -0.36581957 -0.14255649 0.07256195 -0.03733121
-0.02281125 -0.018831251 0.007301033 -0.009549686 -0.014052876 0.006919862 -0.0064477087 -0.003510415
-0.025207063 -0.016459346 0.0063673817 -0.0088622505 -0.012923332 0.010357307 -0.0034851704 -0.0036413665
-0.027313039 -0.01457647 0.0054211305 -0.008249208 -0.01271259 0.01298091 -0.009625833 -0.0041335267
-0.019618005 -0.0042506186 0.001529688 -0.0048570824 -0.017319648 0.011819671 -0.00048392703 -0.02834425
-0.022587335 -0.0031533514 0.0011193819 -0.0033774239 -0.015391153 0.013117456 -0.0035218073 -0.028384103
-0.029042779 -0.0017091075 0.0015475195 -0.0030105435 -0.011795894 0.009787427 0.00575627 -0.029566683
-0.0143786445 0.0003134011 0.013238442 -0.008645169 0.0010472278 -0.0003345649 0.02239301 -0.010386
-0.008447633 0.0016822343 0.013464902 -0.007955121 -0.00016780215 0.0004033287 0.019494426 -0.010956099
-0.01988406 0.0021672575 0.014798396 -0.0066597443 0.0054591266 0.0025995255 0.017594108 -0.009826107
-0.17664139 -0.03295203 0.054661773 0.014183637 0.099173315 -0.07053733 -0.2472562 0.043775614
0.23090652 -0.036244534 0.051021464 0.014073404 0.08714793 -0.035831586 -0.2780505 0.032825977
0.03567482 -0.027691945 0.046106923 -0.004581554 -0.093996055 0.077931255 0.14574817 0.025616016
0.391533 -0.016542805 -0.00019491771 0.075375356 -0.30892062 0.15291448 -0.15347345 0.050526664
-0.07854518 -0.00046236467 -0.0046554115 0.022017475 -0.09700215 0.013864518 -0.14077204 0.0025788783
00000000: 0b92 393e 8b78 b2bb 4b6e 233b a6c5 f23b
00000010: 230b a4be 65d7 8fbe dcd2 03be 5808 56bd
00000020: 7438 10bc d5ea 463c 4918 153c 7bd6 bebc
00000030: 59ce 98be ccb9 7e3e 2ec4 1cbe d8ce 33bd
00000040: a3b1 06be e87f f63b c928 c7ba cbcd 85bc
00000050: 4903 a9be 49bb 6a3d 6078 c43d c4ad 83bc
00000060: 03a7 61be 2fc1 17bd fa93 893c 65ed 19bd
00000070: 1b56 003d b710 073e dd67 a5be 06f7 8abc
00000080: 93ff 233d 50f0 66bd fadc 03bc abd6 80bc
00000090: b1e3 ebba 1d82 04bc a359 c23d 7831 013d
000000a0: 973c 043d 927b abbc 5945 a4bc 1787 00bd
000000b0: abdd 9bbc a0eb 74be b7cc c13d 811e 3e3d
000000c0: 0857 4e3d 42f8 75bc e288 963b 7190 313c
000000d0: 2aee 14bd d02e ebbd 3c6c 44be f36c 1dbd
000000e0: 5c42 2d3b ac2d 9e3d 20ab 86bc c093 0e3d
000000f0: cf7a 4c3d 5262 5cba 7e36 50bd ab68 23bd
00000100: c14a 8d3d 37a6 0d3d fe4e 89bc a614 443d
00000110: 0b84 9d3e 20f1 2bbd 69ea abbe 3643 763d
00000120: aad6 e83e 810a 173c 9dd6 1d3a 194e 833d
00000130: e7cb 533e 4872 aabd cc64 a9be 8218 a73c
00000140: 31bf 94bc 6278 fbbc 8208 39bc f7e7 8dbd
00000150: 05f0 1bbe 51e1 4f3e 6b0f e5bd b073 1ebc
00000160: 682f 02bf c988 b5bc c5b8 d03b 3f90 d0bc
00000170: 631e cfbe 27e8 c0bd 6a8e a03e a94b de3c
00000180: 817a a0be de5e 4fbd 3b74 2d3d ff70 89bc
00000190: 196b ccbe 0451 673e 2b87 40be 73cc 5b3d
000001a0: db35 373e 8df4 abbc 0db5 423d eb94 8d3d
000001b0: 867c 8ebe de06 8bbe d6da 14be eeaf 86bd
000001c0: dfda ad3d 13b3 8cbd 0248 a4bc 7218 b5bb
000001d0: 04aa 8c3e e1f5 ff3c d753 243c c0ee 7a3d
000001e0: 052d 043e 81ea 5dbd c292 0d3d 54e6 003d
000001f0: 34c7 ae3d 08ae 463e b493 52be 1dc9 d33c
00000200: 4fc3 84be 932a 0dbd eaf9 933d 3b64 62bd
00000210: 82e3 ecbd 0356 e6bd a1de b8bd 77ac 87bd
00000220: 16e6 1dbe 65e1 88bd 0e07 c33c 7a05 203d
00000230: b44c bbbe 54fa 11be 5c9b 943d 9ce8 18bd
00000240: a9de babc ff43 9abc 813d ef3b 4976 1cbc
00000250: 093e 66bc 02c0 e23b 4d47 d3bb fe0e 66bb
00000260: 0b7f cebc c0d5 86bc 78a5 d03b f932 11bc
00000270: 62bc 53bc b2b1 293c 7567 64bb fea3 6ebb
00000280: 98bf dfbc 25d2 6ebc bda3 b13b b027 07bc
00000290: 7848 50bc e2ad 543c abb5 1dbc 8972 87bb
000002a0: f0b5 a0bc c648 8bbb d07f c83a 2928 9fbb
000002b0: efe1 8dbc 4ba7 413c 96b7 fdb9 3332 e8bc
000002c0: 1309 b9bc 75a8 4ebb 39b8 923a c557 5dbb
000002d0: 2d2b 7cbc 99ea 563c 1fce 66bb c785 e8bc
000002e0: 1feb edbc 2204 e0ba 23d6 ca3a 8a4c 45bb
000002f0: 9143 41bc 725b 203c 189f bc3b d435 f2bc
00000300: 6894 6bbc fc4f a439 0de6 583c 78a4 0dbc
00000310: 2243 893a 8a68 afb9 8c71 b73c 0b2a 2abc
00000320: f167 0abc 6b7e dc3a e49b 5c3c 3256 02bc
00000330: 0cf4 2fb9 dd75 d339 c6b2 9f3c 3681 33bc
00000340: e5e3 a2bc 8c08 0e3b f974 723c fc39 dabb
00000350: 79e2 b23b cd5c 2a3b 8521 903c aefd 20bc
00000360: 7be1 34be b5f8 06bd 06e5 5f3d 7c62 683c
00000370: 611b cb3d e075 90bd bb30 7dbe 0f4e 333d
00000380: c272 6c3e 2675 14bd e2fb 503d 2294 663c
00000390: 9d7a b23d 24c4 12bd a35c 8ebe 8874 063d
000003a0: c31f 123d 38da e2bc 9dda 3c3d dc20 96bb
000003b0: 0181 c0bd 6c9a 9f3d 023f 153e aed8 d13c
000003c0: 0377 c83e c784 87bc d362 4cb9 655e 9a3d
000003d0: d82a 9ebe 9d95 1c3e 2528 1dbe 0cf5 4e3d
000003e0: 4cdc a0bd 8969 f2b9 6c8c 98bb fe5d b43c
000003f0: 10a9 c6bd 0128 633c 8c26 10be 6602 293b

model/time_distributed_8/conv2d_2/Conv2D f4 [8, 3, 3, 1]
-0.025936333 -0.03649721 0.040754214 0.063744985 -0.07637638 0.0027163732 -0.037798826 0.024789527
0.038477223 0.004678192 0.003641461 0.0072559617 -0.0012606133 -0.0016041577 -0.004187525 0.0019927267
0.006944804 0.0064754602 -0.0001213741 -0.008058153 0.005710183 -0.00041547255 0.0009397723 -0.0018494627
0.004467086 0.0018157482 -0.0044387667 0.0013139036 -0.008275119 0.0071784933 0.0015771086 0.0056448085
0.0005026775 0.0035772263 0.0008038511 -0.0044370065 0.007108888 0.0021361257 0.006196812 0.0178945
-0.038468916 -0.0010602919 -0.0028810943 0.006082437 0.020928726 -0.03304694 0.060520332 0.025613602
0.024168344 -0.102395825 0.043543074 -0.031475347 0.056104336 -0.03817645 0.025504047 -0.054299477
0.019196128 -0.012831783 0.029587403 0.0061788727 0.0056957845 0.042922534 -0.07882126 0.005396874
-0.0064692907 0.0075692246 0.014109339 -0.025573997 0.005914968 0.0032294348 0.0006256122 0.0034482754
00000000: 6f78 d4bc 197e 15bd e4ed 263d bb8c 823d
00000010: 386b 9cbd 2e05 323b f1d2 1abd 6813 cb3c
00000020: 4b9a 1d3d 854b 993b 94a5 6e3b 6bc3 ed3b
00000030: 2a3b a5ba 9a42 d2ba 8137 89bb 6898 023b
00000040: 3d91 e33b 1930 d43b 398a feb8 5806 04bc
00000050: 7d1c bb3b c8d3 d9b9 0d5b 763a ac69 f2ba
00000060: a260 923b 66fe ed3a 1373 91bb 4a37 ac3a
00000070: 5d94 07bc 9139 eb3b fcb6 ce3a 16f8 b83b
00000080: 1ec6 033a e66f 6a3b 89b9 523a 4f64 91bb
00000090: adf1 e83b 3efe 0b3b a00e cb3b 7d97 923c
000000a0: 9591 1dbd 7ef9 8aba bed0 3cbb 2e4f c73b
000000b0: b872 ab3c 3a5c 07bd 2be4 773d 9ed3 d13c
000000c0: b1fc c53c e7b4 d1bd 395a 323d 4bec 00bd
000000d0: a9cd 653d e95e 1cbd dded d03c 2169 5ebd
000000e0: 3341 9d3c 663c 52bc 4861 f23c 2478 ca3b
000000f0: b4a3 ba3b 8acf 2f3d 0a6d a1bd 43d8 b03b
00000100: 58fc d3bb 4207 f83b db2a 673c 8f80 d1bc
00000110: 59d2 c13b eda4 533b 2000 243a 76fc 613b

model/lstm/TensorArrayV2_1 f4 [120, 1, 32]
0.0 0.0 0.0 0.0 0.0 0.0 0.0 0.0
0.0 0.0 0.0 0.0 0.0 0.0 0.0 0.0
0.0 0.0 0.0 0.0 0.0 0.0 0.0 0.0
0.0 0.0 0.0 0.0 0.0 0.0 0.0 0.0
0.0 0.0 0.0 0.0 0.0 0.0 0.0 0.0
0.0 0.0 0.0 0.0 0.0 0.0 0.0 0.0
0.0 0.0 0.0 0.0 0.0 0.0 0.0 0.0
0.0 0.0 0.0 0.0 0.0 0.0 0.0 0.0
0.0 0.0 0.0 0.0 0.0 0.0 0.0 0.0
0.0 0.0 0.0 0.0 0.0 0.0 0.0 0.0
0.0 0.0 0.0 0.0 0.0 0.0 0.0 0.0
0.0 0.0 0.0 0.0 0.0 0.0 0.0 0.0
0.0 0.0 0.0 0.0 0.0 0.0 0.0 0.0
0.0 0.0 0.0 0.0 0.0 0.0 0.0 0.0
0.0 0.0 0.0 0.0 0.0 0.0 0.0 0.0
0.0 0.0 0.0 0.0 0.0 0.0 0.0 0.0
0.0 0.0 0.0 0.0 0.0 0.0 0.0 0.0
0.0 0.0 0.0 0.0 0.0 0.0 0.0 0.0
0.0 0.0 0.0 0.0 0.0 0.0 0.0 0.0
0.0 0.0 0.0 0.0 0.0 0.0 0.0 0.0
0.0 0.0 0.0 0.0 0.0 0.0 0.0 0.0
0.0 0.0 0.0 0.0 0.0 0.0 0.0 0.0
0.0 0.0 0.0 0.0 0.0 0.0 0.0 0.0
0.0 0.0 0.0 0.0 0.0 0.0 0.0 0.0
0.0 0.0 0.0 0.0 0.0 0.0 0.0 0.0
0.0 0.0 0.0 0.0 0.0 0.0 0.0 0.0
0.0 0.0 0.0 0.0 0.0 0.0 0.0 0.0
0.0 0.0 0.0 0.0 0.0 0.0 0.0 0.0
0.0 0.0 0.0 0.0 0.0 0.0 0.0 0.0
0.0 0.0 0.0 0.0 0.0 0.0 0.0 0.0
0.0 0.0 0.0 0.0 0.0 0.0 0.0 0.0
0.0 0.0 0.0 0.0 0.0 0.0 0.0 0.0
00000000: 0000 0000 0000 0000 0000 0000 0000 0000
00000010: 0000 0000 0000 0000 0000 0000 0000 0000
00000020: 0000 0000 0000 0000 0000 0000 0000 0000
00000030: 0000 0000 0000 0000 0000 0000 0000 0000
00000040: 0000 0000 0000 0000 0000 0000 0000 0000
00000050: 0000 0000 0000 0000 0000 0000 0000 0000
00000060: 0000 0000 0000 0000 0000 0000 0000 0000
00000070: 0000 0000 0000 0000 0000 0000 0000 0000
00000080: 0000 0000 0000 0000 0000 0000 0000 0000
00000090: 0000 0000 0000 0000 0000 0000 0000 0000
000000a0: 0000 0000 0000 0000 0000 0000 0000 0000
000000b0: 0000 0000 0000 0000 0000 0000 0000 0000
000000c0: 0000 0000 0000 0000 0000 0000 0000 0000
000000d0: 0000 0000 0000 0000 0000 0000 0000 0000
000000e0: 0000 0000 0000 0000 0000 0000 0000 0000
000000f0: 0000 0000 0000 0000 0000 0000 0000 0000
00000100: 0000 0000 0000 0000 0000 0000 0000 0000
00000110: 0000 0000 0000 0000 0000 0000 0000 0000
00000120: 0000 0000 0000 0000 0000 0000 0000 0000
00000130: 0000 0000 0000 0000 0000 0000 0000 0000
00000140: 0000 0000 0000 0000 0000 0000 0000 0000
00000150: 0000 0000 0000 0000 0000 0000 0000 0000
00000160: 0000 0000 0000 0000 0000 0000 0000 0000
00000170: 0000 0000 0000 0000 0000 0000 0000 0000
00000180: 0000 0000 0000 0000 0000 0000 0000 0000
00000190: 0000 0000 0000 0000 0000 0000 0000 0000
000001a0: 0000 0000 0000 0000 0000 0000 0000 0000
000001b0: 0000 0000 0000 0000 0000 0000 0000 0000
000001c0: 0000 0000 0000 0000 0000 0000 0000 0000
000001d0: 0000 0000 0000 0000 0000 0000 0000 0000
000001e0: 0000 0000 0000 0000 0000 0000 0000 0000
000001f0: 0000 0000 0000 0000 0000 0000 0000 0000
00000200: 0000 0000 0000 0000 0000 0000 0000 0000
00000210: 0000 0000 0000 0000 0000 0000 0000 0000
00000220: 0000 0000 0000 0000 0000 0000 0000 0000
00000230: 0000 0000 0000 0000 0000 0000 0000 0000
00000240: 0000 0000 0000 0000 0000 0000 0000 0000
00000250: 0000 0000 0000 0000 0000 0000 0000 0000
00000260: 0000 0000 0000 0000 0000 0000 0000 0000
00000270: 0000 0000 0000 0000 0000 0000 0000 0000
00000280: 0000 0000 0000 0000 0000 0000 0000 0000
00000290: 0000 0000 0000 0000 0000 0000 0000 0000
000002a0: 0000 0000 0000 0000 0000 0000 0000 0000
000002b0: 0000 0000 0000 0000 0000 0000 0000 0000
000002c0: 0000 0000 0000 0000 0000 0000 0000 0000
000002d0: 0000 0000 0000 0000 0000 0000 0000 0000
000002e0: 0000 0000 0000 0000 0000 0000 0000 0000
000002f0: 0000 0000 0000 0000 0000 0000 0000 0000
00000300: 0000 0000 0000 0000 0000 0000 0000 0000
00000310: 0000 0000 0000 0000 0000 0000 0000 0000
00000320: 0000 0000 0000 0000 0000 0000 0000 0000
00000330: 0000 0000 0000 0000 0000 0000 0000 0000
00000340: 0000 0000 0000 0000 0000 0000 0000 0000
00000350: 0000 0000 0000 0000 0000 0000 0000 0000
00000360: 0000 0000 0000 0000 0000 0000 0000 0000
00000370: 0000 0000 0000 0000 0000 0000 0000 0000
00000380: 0000 0000 0000 0000 0000 0000 0000 0000
00000390: 0000 0000 0000 0000 0000 0000 0000 0000
000003a0: 0000 0000 0000 0000 0000 0000 0000 0000
000003b0: 0000 0000 0000 0000 0000 0000 0000 0000
000003c0: 0000 0000 0000 0000 0000 0000 0000 0000
000003d0: 0000 0000 0000 0000 0000 0000 0000 0000
000003e0: 0000 0000 0000 0000 0000 0000 0000 0000
000003f0: 0000 0000 0000 0000 0000 0000 0000 0000

model/dense/BiasAdd/ReadVariableOp/resource f4 [256]
0.040628508 -0.0071645584 0.0023931495 0.064154506 -0.035704747 -0.007029999 -0.08416083 -0.03264638
-0.06487795 -0.086076245 -0.049524944 -0.012206412 0.07008309 -0.04534442 -0.024027802 -0.03164329
-0.0012943506 0.015170555 0.0944615 0.0920864 0.03581026 0.036665417 -0.021912515 0.058370575
0.03390067 0.041716546 -0.04562215 -0.00114132 0.023422506 0.070055686 -0.012457059 -0.003050235
-0.08549591 -0.062432673 -0.032222535 0.03864263 -0.01554938 -0.0823172 -0.18271248 -0.035261445
0.029349737 -0.016765937 -0.122280404 0.08037815 -0.0141760055 0.029111193 0.025258517 -0.024858272
0.10121115 -0.051092822 -0.0012530443 0.113184854 -0.021297332 0.0006842827 0.01602394 -0.035262834
-0.048037104 -0.04304138 0.005582506 0.046560142 0.030442901 0.036592163 -0.026095372 0.0057006544
0.04854326 -0.104463585 0.027329043 0.06259264 0.04448459 0.019520368 0.02756685 -0.07310048
0.060496528 -0.011026872 -0.020721655 -0.014555721 -0.007124878 -0.044260703 -0.0019676608 0.052006364
-0.0025947553 0.025008893 -0.023090707 0.0109561905 -0.015408986 -0.009128192 -0.04374917 0.0069388356
0.023813473 -0.04008536 -0.064913645 0.011607507 0.026454734 -0.021129636 0.05604899 -0.081452675
0.0009952782 0.019186188 -0.04347182 0.059524 -0.040929936 0.020520149 0.010777075 -0.08143567
-0.018971065 0.026787126 -0.002560559 -0.005841559 0.02534842 -0.03247327 0.068672046 0.005534578
0.023657752 0.04576713 0.03375198 -0.014611867 0.0872391 0.00064826506 -0.03356614 -0.044859607
-0.037565943 -0.086148396 -0.011588709 -0.023963813 0.0037941264 0.017984036 0.055083845 0.026049526
0.028569493 -0.008399146 -0.006362579 0.014785819 -0.048584886 -0.07000347 0.05649263 0.002478442
-0.07347413 0.118201986 0.028562939 0.10467899 -0.0056524146 -0.0130201345 -0.03255654 -0.04565987
-0.053737804 0.08222438 0.07843014 -0.0036005846 0.11618837 0.0033212267 -0.029837893 -0.025022801
-0.06856968 -0.09061219 -0.053983886 -0.033122618 -0.02620822 -0.023081837 0.0030361696 0.10531495
-0.07716668 -0.040556125 -0.062479578 0.013195495 0.032813326 -0.049735446 0.010914489 -0.034634158
0.04236024 -0.010908654 -0.06593096 -0.067327745 0.053301923 0.06619288 0.014870306 -0.025744593
-0.020433515 -0.00021116769 -0.031828444 0.016337851 0.05962108 -0.018817568 0.0644813 0.050733466
0.047380973 -0.0081272125 0.11697994 0.0110703735 0.15578152 -0.011681925 0.026331035 0.0027676297
-0.009790668 0.0048274817 -0.0040647117 -0.024952991 -0.03416365 0.03430462 0.050332997 0.017403014
0.029125558 -0.02761216 0.00044939131 -0.05806497 -0.12172461 -0.0004307706 0.034171853 -0.087714985
-0.017439166 -0.010566013 -0.039002556 0.029538732 -0.010182269 0.10498343 -0.029897051 -0.010700572
-0.061467182 0.028178612 0.0062248055 -0.0057363613 0.006782363 -0.085853785 0.0032191793 -0.14369915
0.037665777 -0.013039674 0.046121314 0.032210313 -0.018324234 0.021749217 0.011498329 0.011091938
0.011422602 -0.009489143 -0.037843354 0.048047166 -0.057806116 -0.008469295 -0.043740153 -0.045578398
-0.02210839 -0.011309205 -0.04643481 -0.026035884 -0.09120106 0.0016037237 0.015304947 0.036287338
-0.0034028732 0.015622045 -0.00029061415 -0.056107108 0.077280484 0.04207152 0.033558544 -0.06188075
00000000: 146a 263d acc4 eabb 63d6 1c3b 7063 833d
00000010: 243f 12bd e85b e6bb 835c acbd 36b8 05bd
00000020: bbde 84bd be48 b0bd abda 4abd 67fd 47bc
00000030: b987 8f3d 12bb 39bd f4d5 c4bc 659c 01bd
00000040: 33a7 a9ba eb8d 783c 0875 c13d cb97 bc3d
00000050: c7ad 123d 7a2e 163d e081 b3bc fc15 6f3d
00000060: 6edb 0a3d f8de 2a3d 4bde 3abd 5898 95ba
00000070: 8ee0 bf3c 5b79 8f3d b118 4cbc 74e6 47bb
00000080: 7b18 afbd 67b9 7fbd c7fb 03bd bc47 1e3d
00000090: d4c2 7ebc ec95 a8bd fb18 3bbe 4e6e 10bd
000000a0: dc6e f03c b858 89bc 266e fabd 4d9d a43d
000000b0: 7a42 68bc 997a ee3c f3ea ce3c 93a3 cbbc
000000c0: cb47 cf3d b546 51bd 313d a4ba 76cd e73d
000000d0: be77 aebc 6f61 333a a344 833c c36f 10bd
000000e0: 8ec2 44bd 284c 30bd 74ed b63b d9b5 3e3d
000000f0: 6463 f93c aae1 153d f6c5 d5bc 8ecc ba3b
00000100: 4cd5 463d 01f1 d5bd 28e1 df3c 9230 803d
00000110: 7935 363d 2ee9 9f3c e0d3 e13c b4b5 95bd
00000120: 35cb 773d 0eaa 34bc 76c0 a9bc 1e7b 6ebc
00000130: cf77 e9bb b64a 35bd dff3 00bb a004 553d
00000140: c50c 2abb 73df cc3c b928 bdbc 9881 333c
00000150: f975 7cbc 6a8e 15bc 5432 33bd 2c5f e33b
00000160: 7914 c33c 8c30 24bd 72f1 84bd 6a2d 3e3c
00000170: 99b7 d83c 0f18 adbc a093 653d a9d0 a6bd
00000180: ff73 823a 5a2c 9d3c 820f 32bd 70cf 733d
00000190: 26a6 27bd df19 a83c 5492 303c bfc7 a6bd
000001a0: 3569 9bbc ad70 db3c 0dcf 27bb 8c6a bfbb
000001b0: 7da7 cf3c b102 05bd eea3 8c3d 685b b53b
000001c0: e7cd c13c 5076 3b3d 843f 0a3d 9d66 6fbc
000001d0: 6aaa b23d 55f0 293a a67c 09bd b5be 37bd
000001e0: bfde 19bd 926e b0bd 92de 3dbc c24f c4bc
000001f0: e1a6 783b 4253 933c 999f 613d d165 d53c
00000200: 920a ea3c 929c 09bc 2e7d d0bb 3840 723c
00000210: f200 47bd fb5d 8fbd d164 673d 5b6d 223b
00000220: 9b79 96bd e213 f23d d3fc e93c f061 d63d
00000230: e437 b9bb 6752 55bc 025a 05bd d805 3bbd
00000240: 2c1c 5cbd 4165 a83d fb9f a03d c9f7 6bbb
00000250: 2bf4 ed3d f0a8 593b 996e f4bc 9efc ccbc
00000260: 436e 8cbd e292 b9bd 351e 5dbd 95ab 07bd
00000270: 9fb2 d6bc 1f16 bdbc 79fa 463b 5daf d73d
00000280: 9009 9ebd 2e1e 26bd 96ea 7fbd eb31 583c
00000290: 4467 063d 65b7 4bbd afd2 323c 8cdc 0dbd
000002a0: ee81 2d3d 36ba 32bc d006 87bd 21e3 89bd
000002b0: 1e53 5a3d 2290 873d 95a2 733c 53e6 d2bc
000002c0: 3064 a7bc e56c 5db9 8b5e 02bd f5d6 853c
000002d0: 3c35 743d 4d27 9abc c60e 843d e5cd 4f3d
000002e0: 8d12 423d 0028 05bc 2e93 ef3d 8360 353c
000002f0: 3185 1f3e 8b65 3fbc 2fb4 d73c 1f61 353b
00000300: 0a69 20bc da2f 9e3b 4631 85bb 376a ccbc
00000310: 2fef 0bbd 0083 0c3d f929 4e3d c490 8e3c
00000320: b998 ee3c e632 e2bc 489c eb39 89d5 6dbd
00000330: c14a f9bd 0dd9 e1b9 c9f7 0b3d eaa3 b3bd
00000340: 95dc 8ebc 121d 2dbc 25c1 1fbd 36fb f13c
00000350: 88d3 26bc 8d01 d73d a9ea f4bc 7451 2fbc
00000360: 03c5 7bbd d5d6 e63c 74f9 cb3b 16f8 bbbb
00000370: 963e de3b 1cd4 afbd def8 523b df25 13be
00000380: 6e47 1a3d 5ba4 55bc b4e9 3c3d f6ee 033d
00000390: b41c 96bc 6a2b b23c 7d63 3c3c f6ba 353c
000003a0: de25 3b3c 5a78 1bbc a201 1bbd 1bcd 443d
000003b0: 1bc6 6cbd ccc2 0abc e028 33bd 6ab0 3abd
000003c0: a81c b5bc 3e4a 39bc 6d32 3ebd 3549 d5bc
000003d0: 9fc7 babd 0a34 d23a 9ac1 7a3c 08a2 143d
000003e0: bd02 5fbb 9bf3 7f3c 925d 98b9 91d0 65bd
000003f0: 3b45 9e3d 3053 2c3d af74 093d ab76 7dbd

model/last_layer/BiasAdd/ReadVariableOp/resource f4 [31]
-0.08049452 -0.049261246 0.040089726 -0.00038551874 -0.010499852 0.014241914 0.0027821376 -0.00078217423
-0.08220853 -0.004573825 0.0133774225 0.0018733077 -0.017533036 0.0076030935 -0.026622077 0.010657323
0.0037468316 0.010803485 -0.0036029252 -0.019677993 -0.019075282 0.055080764 -0.027136436 0.02660965
0.01521462 0.045342892 -0.033151124 0.029501457 -0.029421465 0.011914312 -0.05198482
00000000: 50da a4bd 29c6 49bd 2035 243d 731f cab9
00000010: 9207 2cbc eb56 693c 8654 363b d30a 4dba
00000020: f25c a8bd 06e0 95bb fa2c 5b3c c789 f53a
00000030: 71a1 8fbc 5f23 f93b 8b16 dabc 0d9c 2e3c
00000040: 678d 753b 1a01 313c 0e1f 6cbb be33 a1bc
00000050: c443 9cbc 5e9c 613d 3b4d debc 7bfc d93c
00000060: be46 793c 78b9 393d 79c9 07bd 0aad f13c
00000070: 4905 f1bc 3f34 433c 09ee 54bd

model/dense/MatMul f4 [256, 32]
0.016028825 -0.0835584 0.13423708 0.019724006 0.05583357 -0.0368329 0.056888446 0.11426356
-0.161029 -0.006910033 -0.22037183 0.07824654 -0.31039226 0.11860292 -0.14190513 0.08189367
-0.14421901 0.07413311 -0.010993196 0.013676074 0.24283412 -0.02196803 -0.0384805 0.008265543
-0.15656798 -0.009684588 0.15298446 -0.0115514975 0.11508625 -0.12768464 0.06463632 -0.006096076
0.036795206 0.084102474 -0.15941446 -0.057301935 -0.06661417 0.07483637 -0.031963393 -0.13992357
0.12197951 0.07750154 0.101570964 0.095712826 0.46260074 -0.11594686 0.0211033 -0.01003758
0.12917869 -0.11554823 0.00784581 0.018316448 -0.2135368 -0.08182878 -0.05514935 -0.05636024
0.10001519 -0.090873614 -0.1218807 0.0074443105 -0.07108865 0.04129737 -0.022436308 0.05445064
0.16033396 -0.094248235 -0.08874786 -0.102980964 0.026344053 0.0011931397 -0.09880908 0.15383159
0.07784814 0.034843784 0.09751532 -0.072803594 0.19907083 0.004169127 0.18532945 -0.15250657
0.03153111 0.14160565 0.0087353075 -0.13443987 -0.050078806 0.0323746 0.022071473 -0.022465624
-0.028532729 0.1047647 0.07300787 -0.04683208 -0.3192246 0.34509885 0.01650076 -0.03626855
0.052764557 0.07059673 0.14929514 -0.0056807827 -0.007080198 0.26088864 -0.07139811 0.064126156
-0.030530494 0.009655634 -0.064960755 -0.011097602 0.007580622 -0.09501548 -0.22301164 -0.035866097
-0.08882408 0.06698756 -0.0815814 0.022269333 0.09809792 0.3612 -0.036896553 0.059834782
0.15637645 -0.21030188 -0.052294772 0.014110935 -0.004315677 -0.17822109 0.17982285 -0.02510995
-0.06945004 0.1110751 -0.1824004 0.17407154 -0.01462902 0.043558292 -0.19806199 0.08260779
-0.027419748 -0.024375131 0.08552567 -0.1063482 0.1304621 -0.023510098 0.021868838 0.077191494
-0.10395623 -0.049093697 -0.0063847634 0.07735158 0.048627734 0.027955435 -0.072399236 -0.012286398
-0.038687844 -0.09466282 0.0012312308 0.058512103 -0.0010662761 -0.011162906 -0.06527689 -0.39645255
0.10611589 0.04628228 0.019944312 0.05516563 -0.010495036 0.016997315 0.026313636 -0.029154548
-0.07391752 -0.11279436 0.1631134 0.2330911 0.051297415 0.08009951 -0.06782477 -0.014029938
0.009407201 -0.059077375 0.06449423 0.1694975 -0.011213279 -0.07514757 -0.053407636 -0.4052556
0.018640613 -0.008875372 -0.4615876 -0.16163898 0.040153995 -0.08514928 0.0434911 -0.13713089
-0.12693693 0.1674573 -0.1720499 0.057216376 -0.06418317 0.013757041 0.043034412 -0.065870576
0.14942147 0.06039401 0.113870285 0.092438444 0.08946629 -0.17628133 0.037631765 0.058154922
-0.01271918 0.04959968 0.18103759 0.083474614 -0.03175061 -0.10613715 0.05258238 0.12116615
0.055181462 0.04382599 -0.123307884 0.1383544 0.014471834 -0.0100577185 -0.040896934 -0.053379524
-0.09744885 -0.109554455 0.0010817419 0.0027919032 -0.020975119 -0.020033937 -0.0008898811 -0.005822248
-0.05445464 -0.45949003 0.12523183 -0.019300828 0.060185257 0.086539365 0.2510938 0.06973193
0.061697166 -0.07229128 -0.23439185 -0.13410747 -0.02657017 0.06846696 0.015049314 0.09542178
-0.06429261 -0.1089859 -0.09553525 -0.05975817 0.087462775 -0.035979256 0.015980715 -0.104970045
00000000: e24e 833c ab20 abbd 7275 093e 3d94 a13c
00000010: beb1 643d 18de 16bd dc03 693d 0303 ea3d
00000020: c9e4 24be 8f6d e2bb 27a9 61be b93f a03d
00000030: bceb 9ebe 16e6 f23d 944f 11be deb7 a73d
00000040: 26ae 13be 1ad3 973d ce1c 34bc 9d11 603c
00000050: 82a9 783e 4cf6 b3bc bb9d 1dbd 336c 073c
00000060: 5b53 20be 1bac 1ebc f5a7 1c3e 7e42 3dbc
00000070: 57b2 eb3d c3bf 02be 0c60 843d 98c1 c7bb
00000080: 92b6 163d eb3d ac3d 8b3d 23be 6fb5 6abd
00000090: 036d 88bd d043 993d 0cec 02bd 2048 0fbe
000000a0: 65d0 f93d 21b9 9e3d 7004 d03d 1605 c43d
000000b0: 01da ec3e 8c75 edbd d4e0 ac3c a974 24bc
000000c0: 6b47 043e 8da4 ecbd b68b 003c 600c 963c
000000d0: 64a9 5abe d995 a7bd 49e4 61bd ffd9 66bd
000000e0: c4d4 cc3d f21b babd 979c f9bd 67ef f33b
000000f0: ed96 91bd 6e27 293d 59cc b7bc a207 5f3d
00000100: 962e 243e 3805 c1bd 70c1 b5bd afe7 d2bd
00000110: 7ccf d73c 2063 9c3a 6a5c cabd 0786 1d3e
00000120: d86e 9f3d 5bb8 0e3d 1db6 c73d 0d1a 95bd
00000130: 39d9 4b3e 2c9d 883b 01c7 3d3e af2a 1cbe
00000140: c426 013d 1201 113e 891e 0f3c 9baa 09be
00000150: 6f1f 4dbd 3b9b 043d 3ccf b43c d409 b8bc
00000160: 78bd e9bc e08e d63d 2685 953d ffd2 3fbd
00000170: 6871 a3be ccb0 b03e 9a2c 873c 558e 14bd
00000180: a61f 583d 0595 903d d3e0 183e dc25 babb
00000190: 0101 e8bb 3293 853e 2c39 92bd 9354 833d
000001a0: 161b fabc aa32 1e3c 250a 85bd b7d2 35bc
000001b0: de66 f83b 7a97 c2bd 2a5d 64be 54e8 12bd
000001c0: 66e9 b5bd c630 893d 2614 a7bd 2d6e b63c
000001d0: 90e7 c83d 35ef b83e d720 17bd 5115 753d
000001e0: 2621 203e 6059 57be 0b33 56bd 8d31 673c
000001f0: 866a 8dbb 977f 36be 7b23 383e 62b3 cdbc
00000200: d33b 8ebd 587b e33d 2cc7 3abe cf3f 323e
00000210: 8fae 6fbc 2e6a 323d c3d0 4abe 462e a93d
00000220: 619f e0bc 5bae c7bc 1528 af3d 16cd d9bd
00000230: db97 053e 4098 c0bc 4726 b33c 9316 9e3d
00000240: 01e7 d4bd 7916 49bd 4737 d1bb 816a 9e3d
00000250: e02d 473d cc02 e53c 0d46 94bd e34c 49bc
00000260: 2577 1ebd 95de c1bd 4061 a13a 63aa 6f3d
00000270: 4ac2 8bba 9fe4 36bc e4af 85bd d4fb cabe
00000280: 4a53 d93d 7d92 3d3d 4162 a33c 5bf5 613d
00000290: 5ff3 2bbc f43d 8b3c b28f d73c 85d5 eebc
000002a0: 1262 97bd bb00 e7bd 3307 273e 6faf 6e3e
000002b0: 3d1d 523d 360b a43d b7e7 8abd d3dd 65bc
000002c0: a920 1a3c 1efb 71bd 8d15 843d c190 2d3e
000002d0: e7b7 37bc f8e6 99bd f7c1 5abd a97d cfbe
000002e0: 33b4 983c 026a 11bc 3655 ecbe b084 25be
000002f0: 8478 243d bf62 aebd b923 323d 0a6c 0cbe
00000300: c1fb 01be ed79 2b3e d92d 30be b85b 6a3d
00000310: 7772 83bd 3665 613c da44 303d 27e7 86bd
00000320: f101 193e b65f 773d d334 e93d 5e50 bd3d
00000330: 1a3a b73d 1883 34be c423 1a3d db33 6e3d
00000340: 1c64 50bc 0929 4b3d eb61 393e bdf4 aa3d
00000350: ed0c 02bd 6f5e d9bd 9f60 573d f525 f83d
00000360: f505 623d e282 333d d888 fcbd c7ac 0d3e
00000370: 451b 6d3c 21c9 24bc 8b83 27bd 7da4 5abd
00000380: 4393 c7bd 165e e0bd 3cc9 8d3a 5df8 363b
00000390: 03d4 abbc 361e a4bc e946 69ba 8ec8 bebb
000003a0: d40b 5fbd 4742 ebbe c63c 003e c51c 9ebc
000003b0: d184 763d 8d3b b13d 5e8f 803e 9dcf 8e3d
000003c0: 2bb6 7c3d 730d 94bd 6b04 70be 7853 09be
000003d0: afa9 d9bc 6838 8c3d 6691 763c 7f6c c33d
000003e0: d8ab 83bd 0034 dfbd fca7 c3bd fcc4 74bd
000003f0: af1f b33d fc5e 13bd fde9 823c 89fa d6bd

model/last_layer/MatMul f4 [31, 256]
-0.030351704 0.042038966 0.003040534 -0.0041004447 0.080847755 -0.096829124 0.03762527 -0.02080708
0.12014187 0.065998 -0.03973386 -0.09581267 -0.02532197 0.06529469 -0.112891324 -0.02345023
-0.011166319 -0.09104427 -0.0012550496 0.04267152 0.07034139 -0.09099246 -0.08748636 -0.06929226
0.03151897 -0.09599264 0.14347042 0.08975128 -0.14237586 0.060461998 -0.0008065213 0.017485445
0.055169053 0.089145616 0.111018784 0.078461945 -0.050199743 0.07832118 0.0892619 -0.04027957
0.020153413 -0.050677273 0.053138554 0.017392011 0.04876678 -0.062414188 -0.092141196 -0.008773885
0.056242704 0.0919691 -0.05985507 0.0096899355 0.0101068895 0.07389579 -0.053119306 -0.038463715
-0.03668733 0.06577856 0.049811378 -0.07263065 -0.05868738 -0.07752924 0.08699315 -0.027813196
-0.06938381 0.1005553 0.080144346 -0.038324554 -0.13623634 0.0334909 -0.095013976 -0.069866255
-0.00092807226 -0.059482437 -0.050894573 0.09265731 0.05740611 -0.09063425 0.0027513413 0.098613515
-0.121184126 0.09313252 -0.03196642 0.03141666 0.09492372 -0.10567577 -0.06998334 -0.05087107
0.024400417 -0.100229286 0.0077734874 -0.034722816 -0.08533007 0.042453256 -0.0129873715 0.11155488
-0.046152283 -0.049061727 0.07188469 -0.14837831 0.056574505 -0.12783775 -0.07376599 0.064494014
0.09810698 0.096026376 0.05755362 0.07863292 -0.11216804 0.06590663 -0.06908818 -0.042092916
-0.1272114 0.10019423 0.035105422 0.04313228 -0.05553359 -0.08801645 0.030359454 0.087472074
-0.08351534 -0.038667686 0.049898494 0.08621622 0.076765485 -0.048710186 -0.048685875 0.12372672
0.054100353 0.102068275 -0.09041296 -0.0048325267 -0.07255308 0.0037905895 0.028653095 -0.080415234
-0.07873735 -0.10956421 0.07253269 -0.04528902 -0.10337201 -0.04838873 0.11791148 -0.018189918
0.12753509 -0.10233843 0.047582235 0.09147188 0.10721852 0.12113031 -0.050817188 -0.0390704
-0.038450796 -0.06605154 -0.039038207 0.0740634 0.06731268 0.041564617 0.046167236 0.07799309
0.118485644 -0.10882112 0.07080855 0.09854009 -0.104647145 0.013090983 -0.015514149 0.06918155
-0.09675592 -0.07811778 0.0166028 0.004398305 0.06707227 -0.028642245 -0.08029585 0.062658496
0.04928436 0.06801564 -0.0066227447 -0.058378313 -0.0983737 0.035561565 0.0690945 -0.07455716
-0.121549875 0.0971975 -0.059700888 0.102125175 -0.09431227 -0.06902608 -0.037243027 0.009462196
0.08134886 0.04228118 -0.04320175 -0.041661996 -0.0323228 -0.052520007 -0.101112396 -0.048513222
-0.029723613 -0.06479216 0.10964477 0.1110562 -0.009464609 0.044649027 -0.08256709 -0.029931908
0.09934566 0.1036251 0.09923947 0.077638775 -0.04576466 -0.07057167 0.07562637 0.06747716
0.08478598 -0.08479925 0.054428097 -0.075253546 0.01190836 -0.007763422 0.062318124 0.038462892
0.12871 0.032410223 -0.12130167 -0.10787471 0.093877085 0.060376544 -0.097498685 -0.046764165
-0.015702268 0.07639791 0.15255857 0.08425482 -0.023014797 -0.04323192 0.034561407 -0.045962483
-0.09126198 -0.07771742 0.111582585 -0.047708634 0.07501171 -0.06405469 0.074349836 -0.080897376
0.094347864 -0.092775024 0.08388324 0.039383844 -0.11166078 0.015878651 -0.06392066 -0.00013089899
00000000: 23a4 f8bc 0d31 2c3d b243 473b 065d 86bb
00000010: 8293 a53d 594e c6bd f51c 1a3d 9c73 aabc
00000020: f10c f63d f629 873d f9bf 22bd 6f39 c4bd
00000030: 0570 cfbc 39b9 853d 9133 e7bd b21a c0bc
00000040: f0f2 36bc 6b75 babd 7a80 a4ba 55c8 2e3d
00000050: 260f 903d 415a babd 0c2c b3bd 1ae9 8dbd
00000060: 091a 013d ca97 c4bd e9e9 123e 85cf b73d
00000070: faca 11be 00a7 773d ba6c 53ba a33d 8f3c
00000080: f2f8 613d fa91 b63d d15d e33d a8b0 a03d
00000090: 3f9e 4dbd db66 a03d f1ce b63d 31fc 24bd
000000a0: c518 a53c f992 4fbd d0a7 593d b179 8e3c
000000b0: adbf 473d 05a6 7fbd 86b4 bcbd 57c0 0fbc
000000c0: c05e 663d 4c5a bc3d 972a 75bd 89c2 1e3c
000000d0: 5e97 253c ad56 973d a193 59bd 218c 1dbd
000000e0: 7445 16bd e9b6 863d 0407 4c3d 61bf 94bd
000000f0: 2e62 70bd a6c7 9ebd 7729 b23d 80d8 e3bc
00000100: 1919 8ebd f0ef cd3d b822 a43d 35fa 1cbd
00000110: 8a81 0bbe c12d 093d b096 c2bd 0a16 8fbd
00000120: e049 73ba dba3 73bd d476 50bd 1ec3 bd3d
00000130: ab22 6b3d 739e b9bd d94f 343b e2f5 c93d
00000140: 622f f8bd 43bc be3d 39ef 02bd c1ae 003d
00000150: 5e67 c23d 8a6c d8bd 6d53 8fbd 2f5e 50bd
00000160: 62e3 c73c 0345 cdbd bdb8 fe3b 8339 0ebd
00000170: 88c1 aebd 77e3 2d3d fcc8 54bc e376 e43d
00000180: 2d0a 3dbd f3f4 48bd 4838 933d 7cf0 17be
00000190: abba 673d e6e7 02be a012 97bd 7015 843d
000001a0: 50ec c83d 7aa9 c43d 58bd 6b3d 4c0a a13d
000001b0: 5bb8 e5bd 0efa 863d 1b7e 8dbd 9f69 2cbd
000001c0: b543 02be a232 cd3d b4ca 0f3d 79ab 303d
000001d0: 3177 63bd f841 b4bd 64b4 f83c 8f24 b33d
000001e0: 170a abbd 0262 1ebd 5d62 4c3d 2192 b03d
000001f0: 3937 9d3d 5584 47bd d76a 47bd 6f64 fd3d
00000200: 5598 5d3d 2c09 d13d 6e2a b9bd 2c5a 9ebb
00000210: b696 94bd 8a6b 783b e5b9 ea3c beb0 a4bd
00000220: 0c41 a1bd 3363 e0bd 058c 943d fb80 39bd
00000230: b4b4 d3bd 4333 46bd 937b f13d 0603 95bc
00000240: 8f98 023e d096 d1bd 97e5 423d 9c55 bb3d
00000250: 6295 db3d 2b13 f83d af25 50bd 4908 20bd
00000260: 957e 1dbd 0846 87bd 87e6 1fbd 8dae 973d
00000270: 3bdb 893d a93f 2a3d db19 3d3d d7ba 9f3d
00000280: 9aa8 f23d 9bdd debd 1304 913d 63cf c93d
00000290: 3e51 d6bd 907b 563c 0f2f 7ebc 0eaf 8d3d
000002a0: f827 c6bd 37fc 9fbd 9802 883c a81f 903b
000002b0: 305d 893d 24a3 eabc 2772 a4bd 1953 803d
000002c0: 66de 493d c94b 8b3d 9c03 d9bb 191e 6fbd
000002d0: 2778 c9bd 01a9 113d 6b81 8d3d 6db1 98bd
000002e0: 24ef f8bd 7c0f c73d eb88 74bd 0127 d13d
000002f0: cb26 c1bd 8c5d 8dbd 258c 18bd 5407 1b3c
00000300: 3b9a a63d 082f 2d3d 51f4 30bd c5a5 2abd
00000310: ea64 04bd 381f 57bd 0414 cfbd cdb5 46bd
00000320: ef7e f3bc c1b1 84bd 708d e03d 6f71 e33d
00000330: 7311 1bbc e6e1 363d ef18 a9bd c333 f5bc
00000340: bd75 cb3d 6539 d43d 103e cb3d 1401 9f3d
00000350: b973 3bbd e187 90bd 00e2 9a3d 7731 8a3d
00000360: 46a4 ad3d 3bab adbd ffef 5e3d 881e 9abd
00000370: 481b 433c 4e64 febb 4a41 7f3d 448b 1d3d
00000380: 8ecc 033e 95c0 043d 036d f8bd 6aed dcbd
00000390: a142 c03d 654d 773d 64ad c7bd c88b 3fbd
000003a0: 0ba2 80bc 8276 9c3d 5038 1c3e cb8d ac3d
000003b0: 8789 bcbc f413 31bd 4390 0d3d 2843 3cbd
000003c0: 90e7 babd 502a 9fbd 6985 e43d 216a 43bd
000003d0: bd9f 993d 1b2f 83bd ba44 983d 86ad a5bd
000003e0: 7439 c13d d500 bebd faca ab3d f450 213d
000003f0: 68ae e4bd f213 823c d6e8 82bd ee41 09b9

model/time_distributed_10/batch_normalization_2/FusedBatchNormV3 f4 [8]
0.0065321475 0.00013101776 0.004244043 -6.791239e-05 0.013341591 -0.03494182 -0.019303124 0.0042478135
00000000: a00b d63b d061 0939 9d11 8b3b 306c 8eb8
00000010: b096 5a3c 271f 0fbd 9621 9ebc 3e31 8b3b

model/time_distributed_10/batch_normalization_2/FusedBatchNormV31 f4 [8]
0.16802426 0.04170169 -0.0060174833 0.049218044 0.1730128 0.23031482 0.3490501 0.05194347
00000000: 8d0e 2c3e 64cf 2a3d 4f2e c5bb dc98 493d
00000010: 442a 313e a6d7 6b3e b2b6 b23e adc2 543d

model/time_distributed_13/batch_normalization_3/FusedBatchNormV3 f4 [16]
-0.06307247 -0.12474483 0.008337207 -0.11975064 -0.063971326 -0.0057221223 -0.063798055 -0.16148056
-0.011478079 0.0053271614 -0.044724606 -0.010550552 -0.12128096 -0.0046958867 0.007293809 0.010142987
00000000: 242c 81bd 387a ffbd c898 083c d33f f5bd
00000010: 6603 83bd a480 bbbb 8ea8 82bd 295b 25be
00000020: 8d0e 3cbc 788f ae3b 2631 37bd 39dc 2cbc
00000030: 2762 f8bd f4df 99bb e800 ef3b c52e 263c

model/time_distributed_13/batch_normalization_3/FusedBatchNormV31 f4 [16]
2.1082814 3.9750195 -0.09893564 1.4015732 1.8684698 0.056471515 1.8344198 1.6079869
4.662575 0.07207511 2.5663834 1.6703615 2.0548341 0.20865344 2.8847895 3.727295
00000000: 15ee 0640 b866 7e40 c59e cabd c066 b33f
00000010: 052a ef3f ad4e 673d 45ce ea3f 84d2 cd3f
00000020: d033 9540 1e9c 933d a03f 2440 68ce d53f
00000030: 6782 0340 3fa9 553e 64a0 3840 008c 6e40

model/time_distributed_2/batch_normalization/FusedBatchNormV3 f4 [8]
-0.01580906 -0.0024353433 0.0038703275 -0.018708847 -0.075374395 -0.001611576 -0.13678083 0.006644042
00000000: 0082 81bc 489a 1fbb 52a5 7d3b 4c43 99bc
00000010: e45d 9abd 843b d3ba 4610 0cbe 44b6 d93b

model/time_distributed_2/batch_normalization/FusedBatchNormV31 f4 [8]
-0.03233359 -0.009431486 -0.00877956 0.03053152 0.10202836 0.013442605 0.1069353 -0.017338192
00000000: 3a70 04bd 8586 1abc 25d8 0fbc 3d1d fa3c
00000010: 3ff4 d03d 5f3e 5c3c e500 db3d d308 8ebc

model/time_distributed_5/batch_normalization_1/FusedBatchNormV3 f4 [16]
0.049144037 -0.10379511 -0.33538827 -0.36058027 -0.82586604 -0.35391772 -0.16751021 -0.3773015
-0.3244134 -0.12995681 -0.48280433 -0.46699414 0.035406984 0.007634498 -0.72081304 -0.26923537
00000000: 424b 493d 8892 d4bd 03b8 abbe fa9d b8be
00000010: f56b 53bf b434 b5be cc87 2bbe aa2d c1be
00000020: 8319 a6be 6613 05be 2132 f7be db19 efbe
00000030: ea06 113d d02a fa3b 3487 38bf 38d9 89be

model/time_distributed_5/batch_normalization_1/FusedBatchNormV31 f4 [16]
5.501364 3.218073 3.3489416 2.297141 2.9704876 3.1956472 3.817407 3.6601052
3.4982588 2.9170632 4.5685043 4.1863456 4.946349 5.975602 3.6818335 4.633986
00000000: 2d0b b040 e8f4 4d40 0f55 5640 5c04 1340
00000010: 781c 3e40 7c85 4c40 6550 7440 2a3f 6a40
00000020: 79e3 5f40 2ab1 3a40 3031 9240 8bf6 8540
00000030: 7e48 9e40 2238 bf40 29a3 6b40 9d49 9440

model/lstm/while/lstm_cell_4/MatMul_4 f4 [32, 32]
0.011817806 -0.12546849 -0.44029683 -0.5649972 0.1937175 0.7344251 0.18091759 0.028042158
-0.41940525 -0.14449827 -0.69706005 0.48392326 -0.39623806 -0.0579936 0.2565718 -0.26608315
-0.06256066 -0.014292754 0.26898807 -0.16731215 -0.39994693 -0.5396977 -0.40324083 0.1654795
0.16299833 -0.036273293 -0.2381496 -0.70403075 -0.009949137 0.1522742 0.2570852 0.45344913
-0.40617764 -0.23496656 0.074305445 -0.05553872 0.051293455 0.15675874 -0.30172777 -0.4369473
-0.13376994 -0.21618341 -0.5926055 0.04942501 -0.46581164 0.23544051 0.44968876 -0.2794381
0.30546963 -0.09899303 0.49537468 -0.11964289 0.061988585 0.2767696 -0.14845817 0.23199753
0.12765254 0.0075656646 -0.1594657 0.14523454 0.28084198 -0.20075552 0.33437884 0.21301174
-0.59724635 0.8302492 -0.09367985 -0.931063 -0.16428237 0.15763557 0.2585429 -0.07439949
0.36835575 0.36005652 -0.10263899 0.4209464 0.19805653 0.16764793 -0.7037316 -0.98772705
0.06804893 0.20981967 0.1730911 0.068926066 -0.007323846 0.3956454 0.30136797 -0.21427298
0.26321623 0.010964418 0.026146827 -0.15326941 -0.22680278 -0.39908177 -0.44088525 0.10625034
0.045960553 0.043485083 -0.028697299 0.020146979 -0.04829024 0.008920551 -0.10760989 0.024906341
-0.044663437 0.015315922 0.015844142 -0.041196678 -0.0028635187 -0.0078050536 0.014649795 0.053793706
0.022365319 -0.0367675 -0.11283611 -0.059711844 0.058515795 0.037465252 0.018413447 0.056937046
-0.0047704903 0.048394945 0.051182132 0.0329631 0.029991843 0.0018318656 -0.07293525 -0.039397176
-0.23062657 0.5304973 -0.22041003 -0.5177275 0.21021745 -0.54855686 0.1277483 -1.6379751
-0.66985005 -0.117351286 0.18959007 0.12632862 -0.2514829 0.8792028 0.1792671 0.28239092
-0.23304911 -0.6626761 0.49806395 -0.18036936 0.024822265 -0.27939826 0.14168309 0.21607201
0.38702005 -0.45325673 0.013799004 -0.64370006 -0.26062977 0.5402859 -0.39483994 0.14086093
-0.16741578 -0.17633925 0.20543022 -0.74836886 1.1327319 0.022102673 -0.25567564 -0.35405105
-0.47649792 -0.5520509 1.0588589 1.6875411 0.25721285 0.3429997 -1.1756212 -0.17634308
0.7197596 -0.8637564 -0.5905115 0.14988731 0.032497767 -0.46684235 0.27043235 0.409545
-0.05566526 -0.5885128 -1.2831601 0.62199134 0.41709802 0.591349 0.4198249 0.08625657
-0.15047167 0.10596714 -0.20270318 -0.6173951 0.41614193 1.0192864 -0.16009772 0.618096
-0.3480619 -0.17656413 -0.37171692 0.43091086 -0.0075968746 0.40843493 -0.056550886 0.1043499
0.3453756 -0.12357356 -0.09738663 -0.20534727 0.18149392 0.27659258 -0.21399398 -0.1631242
0.6506783 -0.27820677 -0.7860991 -0.42892417 0.98066664 -0.48769838 -0.1907113 0.21826282
-0.2362866 0.36218345 0.41367316 -0.4432412 0.7195272 -0.8767655 0.7373566 -0.7300451
0.2412584 0.42265436 -0.69244784 0.4135933 0.0773091 -0.06671184 0.63355356 -0.55026394
1.0813987 -0.4965521 0.03550052 -0.9165224 -0.5139342 -0.7553879 0.6685673 0.10224835
0.157028 -0.4247425 0.15940759 -0.56504995 -0.26272538 -0.7716345 -0.2576282 0.7440422
00000000: 799f 413c d07a 00be 966e e1be a8a3 10bf
00000010: e15d 463e 4903 3c3f 7642 393e abb8 e53c
00000020: 49bc d6be 5bf7 13be 8772 32bf cac4 f73e
00000030: b7df cabe b28a 6dbd 615d 833e 0d3c 88be
00000040: ce1f 80bd 282c 6abc ceb8 893e e053 2bbe
00000050: d8c5 ccbe a129 0abf 9575 cebe 7573 293e
00000060: 09e9 263e 4e93 14bd 7ddd 73be 5c3b 34bf
00000070: b501 23bc c5ed 1b3e aca0 833e 7c2a e83e
00000080: 84f6 cfbe 139b 70be 742d 983d 927c 63bd
00000090: 1619 523d 5d85 203e 107c 9abe 8eb7 dfbe
000000a0: fdfa 08be 2f5f 5dbe feb4 17bf e171 4a3d
000000b0: dd7e eebe 5117 713e 9b3d e63e 8312 8fbe
000000c0: 8466 9c3e dcbc cabd c0a1 fd3e 5507 f5bd
000000d0: bee7 7d3d bfb4 8d3e 6b05 18be c390 6d3e
000000e0: 59b7 023e 65e9 f73b fa4a 23be 5db8 143e
000000f0: 85ca 8f3e db92 4dbe b433 ab3e c01f 5a3e
00000100: 23e5 18bf 368b 543f 39db bfbd 255a 6ebf
00000110: a339 28be 386b 213e bc5f 843e c35e 98bd
00000120: 2099 bc3e 5459 b83e 6434 d2bd 4986 d73e
00000130: 55cf 4a3e e6ab 2b3e c127 34bf aedb 7cbf
00000140: 3d5d 8b3d f8da 563e cb3e 313e 1c29 8d3d
00000150: e0fc efbb 0992 ca3e e74c 9a3e 606a 5bbe
00000160: 47c4 863e 1aa4 333c df31 d63c a8f2 1cbe
00000170: fd3e 68be 7254 ccbe b6bb e1be c799 d93d
00000180: 2241 3c3d 6a1d 323d 9916 ebbc 470b a53c
00000190: fdcb 45bd 8127 123c 9362 dcbd 6208 cc3c
000001a0: 02f1 36bd a2ef 7a3c 93cb 813c d9bd 28bd
000001b0: dfa9 3bbb 89c1 ffbb b205 703c ca56 5c3d
000001c0: 7937 b73c 8599 16bd 9e16 e7bd 6894 74bd
000001d0: 42ae 6f3d 2a75 193d ccd7 963c d236 693d
000001e0: c651 9cbb c739 463d 5ba4 513d 5104 073d
000001f0: 74b1 f53c 361b f03a 145f 95bd ef5e 21bd
00000200: 5f29 6cbe acce 073f 2bb3 61be ca89 04bf
00000210: 3e43 573e 396e 0cbf 73d0 023e 2ba9 d1bf
00000220: 4b7b 2bbf df55 f0bd e623 423e 4a5c 013e
00000230: 5ec2 80be 6f13 613f cb91 373e 8b95 903e
00000240: 6da4 6ebe 24a5 29bf 3d02 ff3e bfb2 38be
00000250: 1058 cb3c 4a0d 8fbe 5f15 113e fb41 5d3e
00000260: 7e27 c63e 4411 e8be 3815 623c 87c9 24bf
00000270: 4471 85be 2d50 0a3f 7628 cabe d93d 103e
00000280: 0b6f 2bbe 4792 34be 4d5c 523e 1a95 3fbf
00000290: 5cfd 903f aa10 b53c ebe7 82be 2e46 b5be
000002a0: 89f7 f3be 3553 0dbf b088 873f 5901 d83f
000002b0: 67b1 833e a89d af3e c17a 96bf 4893 34be
000002c0: 2a42 383f 241f 5dbf c32b 17bf 0f7c 193e
000002d0: 611c 053d f605 efbe 1c76 8a3e e2af d13e
000002e0: 4101 64bd c6a8 16bf 973e a4bf d33a 1f3f
000002f0: df8d d53e a662 173f 4af3 d63e 49a7 b03d
00000300: 3f15 1abe 4d05 d93d 6c91 4fbe 9b0d 1ebf
00000310: 8e10 d53e fa77 823f a8f0 23be 8a3b 1e3f
00000320: 2b35 b2be 3acd 34be ae51 bebe 59a0 dc3e
00000330: 34ef f8bb 621e d13e e7a1 67bd 66b5 d53d
00000340: 12d5 b03e 2214 fdbd a472 c7bd 8e46 52be
00000350: 8bd9 393e 8b9d 8d3e 3d21 5bbe 080a 27be
00000360: da92 263f 1e71 8ebe ca3d 49bf f39b dbbe
00000370: f80c 7b3f 9ab3 f9be d349 43be 4a80 5f3e
00000380: 1df5 71be 1c70 b93e f8cc d33e 83f0 e2be
00000390: ef32 383f b473 60bf 67c3 3c3f 3ce4 3abf
000003a0: 710c 773e 2766 d83e 4344 31bf 80c2 d33e
000003b0: 3c54 9e3d 38a0 88bd 9130 223f 19de 0cbf
000003c0: 466b 8a3f 143c febe fe68 113d 36a1 6abf
000003d0: 3191 03bf 1a61 41bf 3a27 2b3f 9567 d13d
000003e0: f3cb 203e d977 d9be be3b 233e 1da7 10bf
000003f0: f183 86be d789 45bf d8e7 83be 8d79 3e3f
