HPC_Final_Study2_Complete_Test_Class_Balance/participants_session_transfer_train/participant_21/session_4/session_4_lite_models/indexpen_model_quant.tflite (tflite, 412752 bytes, 45 tensors)

model/time_distributed_3/conv2d_1/BiasAdd;model/time_distributed_11/conv2d_3/Conv2D;model/time_distributed_3/conv2d_1/Conv2D;model/time_distributed_3/conv2d_1/BiasAdd/ReadVariableOp/resource f2 [16]
-0.2123 -0.1703 -0.01361 -0.05945 0.1318 -0.06033 -0.132 -0.01994
-0.1064 -0.1366 0.00454 -0.05472 -0.1794 -0.1918 0.0579 -0.1233
00000000: cbb2 73b1 f8a2 9cab 3830 b9ab 39b0 1ba5
00000010: cfae 5fb0 a61c 01ab beb1 23b2 692b e4af

model/time_distributed/conv2d/BiasAdd;model/time_distributed_8/conv2d_2/Conv2D;model/time_distributed/conv2d/Conv2D;model/time_distributed/conv2d/BiasAdd/ReadVariableOp/resource f2 [8]
0.00278 -0.007294 0.01421 0.00752 0.04837 0.00443 0.1737 -0.000982
00000000: b219 789f 4723 b31f 312a 891c 8f31 0694

model/time_distributed_11/conv2d_3/BiasAdd;model/time_distributed_11/conv2d_3/Conv2D;model/time_distributed_11/conv2d_3/BiasAdd/ReadVariableOp/resource f2 [16]
-0.000826 0.0681 -0.00704 0.01373 0.03204 -0.001838 -0.00853 0.06555
-0.002333 -0.003904 -0.003277 -0.01034 0.04913 -0.0171 0.0204 -0.04645
00000000: c492 5c2c 359f 0823 1a28 8797 5ea0 322c
00000010: c798 ff9b b69a 4ba1 4a2a 61a4 3925 f2a9

model/time_distributed_8/conv2d_2/BiasAdd;model/time_distributed_8/conv2d_2/Conv2D;model/time_distributed_8/conv2d_2/BiasAdd/ReadVariableOp/resource f2 [8]
0.059 0.00607 -0.007195 -0.01101 -0.0083 0.1147 0.013855 -0.015396
00000000: 8d2b 371e 5e9f a3a1 40a0 572f 1823 e2a3

model/time_distributed_3/conv2d_1/Conv2D f2 [16, 3, 3, 8]
0.09216 -0.0507 0.01502 -0.2761 -0.02516 0.04608 -0.04364 -0.0411
-0.02602 0.00858 -0.01791 0.02895 0.0728 0.0261 0.2197 -0.02031
0.02547 -0.02266 0.00446 0.01539 -0.1736 -0.011375 -0.002832 0.0196
0.0003176 -0.0495 -0.01703 -0.0767 -0.0874 0.05 0.1631 -0.000723
-0.05066 0.06854 0.003117 0.2998 -0.11 0.04544 0.0288 0.01936
-0.02397 0.03915 0.05008 -0.0855 -0.00843 -0.03644 -0.2218 -0.006702
-0.0164 0.0634 0.0803 0.04437 -0.10406 7.117e-05 0.10425 -0.0484
-0.03458 0.0725 -0.00873 -0.12103 -0.1285 -0.01779 0.2727 -0.01825
0.0095 0.03114 0.01378 -0.07104 -0.0488 0.01109 0.4578 -0.00815
0.00605 0.0192 -0.06537 -0.1197 0.10504 -0.0097 -0.3223 0.0791
0.0398 0.007027 -0.02711 -0.02711 0.0893 -0.03656 -0.05573 -0.01519
-0.00838 0.00506 0.03412 -0.0438 -0.1543 0.03558 0.2698 -0.0536
0.01287 0.0356 -0.02452 0.173 0.06104 0.014366 -0.1893 0.01073
-0.0871 0.006783 0.00791 0.00689 0.07434 -0.001384 -0.35 -0.00776
-0.09143 0.04416 0.02371 -0.13 0.03537 0.0833 0.2252 -0.004524
0.00102 0.04675 0.01955 -0.055 0.1619 0.04022 0.03897 -0.03647
0.01582 -0.00788 0.01974 -0.1365 -0.1376 -0.003504 0.2152 0.04636
0.02055 -0.02895 -0.0546 -0.01625 -0.1669 0.01906 0.363 0.04062
-0.06964 0.02577 -0.03162 -0.1043 -0.1256 -0.02846 -0.1791 0.0335
-0.049 -0.009 -0.03564 -0.06216 -0.01585 0.04254 0.1472 0.02324
-0.06506 -0.08905 0.02225 0.02019 0.001685 0.0614 -0.1611 -0.05164
-0.02768 0.0636 0.01341 0.2056 -0.2339 0.004204 -0.4138 0.0325
-0.01128 0.0698 0.015205 -0.0946 -0.0081 -0.01014 -0.3984 0.01086
-0.0046 -0.03174 0.0362 0.1852 0.0646 -0.05417 -0.1833 0.0425
0.003664 -0.011955 -0.00334 -0.1238 0.0568 0.013756 0.03006 -0.0307
-0.003057 0.02693 0.02362 -0.3596 -0.1744 -0.01503 0.1257 -0.01266
0.01079 -0.002884 -0.01478 -0.005264 -0.32 -0.0775 0.1654 0.0173
-0.04294 0.06104 -0.002537 -0.0944 0.04236 0.02582 0.04684 -0.0007186
-0.06323 0.04358 -0.009766 0.1349 -0.1819 -0.01602 -0.1223 0.0204
-0.04935 -0.01122 0.01773 -0.2451 -0.03894 0.01166 0.11115 -0.04797
0.03427 -0.01558 -0.02687 0.01426 -0.04636 0.01913 0.0209 0.04163
0.05157 0.03192 -0.015564 -0.05103 -0.157 0.01447 -0.1425 -0.00334
00000000: e62d 7daa b123 6bb4 71a6 e629 96a9 43a9
00000010: a9a6 6520 96a4 6927 a92c ae26 0833 33a5
00000020: 8526 cda5 911c e123 8eb1 d3a1 cd99 0525
00000030: 340d 56aa 5ca4 e9ac 98ad 662a 3831 ec91
00000040: 7caa 632c 621a cc34 0aaf d129 5f27 f524
00000050: 23a6 0329 692a 79ad 51a0 aaa8 19b3 dd9e
00000060: 33a4 0f2c 242d ae29 a9ae aa04 ac2e 32aa
00000070: 6da8 a42c 78a0 bfaf 1db0 8ea4 5d34 aca4
00000080: dd20 f927 0e23 8cac 3faa ae21 5337 2ca0
00000090: 321e ea24 2fac a9af b92e f7a0 28b5 102d
000000a0: 1829 321f f1a6 f1a6 b72d aea8 22ab c7a3
000000b0: 4aa0 2e1d 5e28 9ba9 f0b0 8e28 5134 dcaa
000000c0: 9722 8f28 47a6 8931 d02b 5b23 0fb2 7e21
000000d0: 93ad f21e 0d20 0e1f c22c ab95 9ab5 f29f
000000e0: daad a729 1226 29b0 8728 552d 3533 a29c
000000f0: 2e14 fc29 0125 0aab 2e31 2629 fd28 aba8
00000100: 0d24 09a0 0e25 5eb0 67b0 2d9b e332 ef29
00000110: 4325 69a7 fdaa 29a4 57b1 e124 cf35 3329
00000120: 75ac 9926 0ca8 adae 05b0 49a7 bbb1 4a28
00000130: 46aa 9ca0 90a8 f5ab 0fa4 7229 b630 f325
00000140: 2aac b3ad b225 2b25 e716 dc2b 28b1 9caa
00000150: 16a7 122c de22 9432 7cb3 4e1c 9fb6 2928
00000160: c6a1 782c c923 0eae 26a0 31a1 60b6 8f21
00000170: b69c 10a8 a228 ed31 222c efaa deb1 7129
00000180: 811b 1fa2 d79a ecaf 452b 0b23 b227 dca7
00000190: 439a e526 0c26 c1b5 95b1 b2a3 0630 7ba2
000001a0: 8621 e899 91a3 649d 1fb5 f6ac 4b31 6e24
000001b0: 7fa9 d02b 3299 0bae 6c29 9c26 ff29 e391
000001c0: 0cac 9429 00a1 5130 d2b1 1aa4 d4af 3925
000001d0: 51aa bfa1 8a24 d8b3 fca8 f821 1d2f 24aa
000001e0: 6328 faa3 e1a6 4d23 efa9 e624 5a25 5429
000001f0: 9a2a 1628 f8a3 88aa 06b1 6923 8fb0 d79a

model/time_distributed/conv2d/Conv2D f2 [8, 3, 3, 1]
0.002916 -0.001169 0.0003948 0.001366 -0.000555 0.001484 -0.002054 0.0007763
0.0001358 -0.001612 -0.000477 -0.004307 -0.003614 0.00443 -0.00648 0.00556
-0.005028 0.003265 0.002136 -5.656e-05 -0.0005183 0.0005665 -0.00133 -0.002762
0.001697 0.002506 0.00486 0.004646 0.00285 0.00947 0.0042 -0.001806
0.0005836 -0.01212 -0.00496 0.01973 -0.009476 -0.0006504 0.01054 0.006565
-0.00447 -0.00886 0.04578 -0.002363 -0.003431 -0.001997 -0.001207 0.000855
0.001773 0.0008216 -0.002584 0.0008826 -0.001062 -0.00207 0.002596 -0.00931
0.0002973 -0.002062 0.00462 0.00407 -0.00908 -0.04007 -0.002293 -0.000549
-0.0001285 -0.000892 -0.0001233 0.0002666 0.001107 7.993e-05 -0.000354 -0.000556
00000000: f919 ca94 780e 9815 8c90 1416 3598 5c12
00000010: 7308 9a96 d18f 699c 679b 891c a39e b21d
00000020: 269d b01a 6018 b583 3f90 a410 7395 a899
00000030: f316 2219 fa1c c21c d619 d920 4d1c 6697
00000040: c810 35a2 149d 0d25 daa0 5491 6521 b91e
00000050: 949c 89a0 dc29 d798 079b 1798 f294 0113
00000060: 4317 bb12 4b99 3b13 5a94 3d98 5119 c4a0
00000070: df0c 3998 bb1c 2b1c a6a0 21a9 b298 7f90
00000080: 3688 4f93 0a88 5e0c 8914 3d05 cd8d 8e90

model/time_distributed_11/conv2d_3/Conv2D f2 [16, 3, 3, 8]
0.1959 0.00598 -0.007435 -0.002054 -0.3442 -0.2695 -0.11194 -0.06036
0.01187 0.02298 -0.003305 -0.02985 -0.3154 0.2705 -0.1443 -0.05685
-0.1181 0.01787 -0.01628 -0.01866 -0.3445 0.08417 0.0968 -0.02898
-0.192 -0.02644 -0.002846 -0.01112 0.0672 0.1484 -0.3052 -0.02261
0.05576 -0.039 -0.02576 0.015594 0.03302 0.006393 0.10925 0.02223
0.04095 -0.000335 -0.0321 0.003174 0.01564 -0.2275 0.1008 0.04025
0.03928 -0.0363 0.01634 0.02193 -0.02307 -0.0991 -0.1707 -0.010605
0.0002573 0.0579 0.00131 0.0497 0.06836 0.02869 -0.02051 -0.01533
0.0634 0.02228 0.00407 0.067 0.3274 -0.00806 -0.328 0.0873
0.4768 0.039 -0.01364 0.0738 0.2258 -0.1255 -0.3523 0.0163
0.007492 -0.00432 -0.0195 -0.05835 -0.1279 0.1466 -0.1383 -0.00862
-0.4785 0.001178 0.00345 -0.013535 -0.3757 -0.1438 0.2827 0.03357
-0.2822 -0.03296 0.03763 0.00921 -0.3865 0.1744 -0.2406 0.06635
0.2054 -0.007427 0.0402 0.09827 -0.2605 -0.3157 -0.1809 -0.0628
0.1052 -0.0582 -0.0329 0.02594 0.2908 -0.01517 0.003426 0.06433
0.1451 -0.05026 0.0089 -0.003897 0.0675 0.1813 -0.2228 0.04327
-0.2415 -0.03143 0.04114 -0.08594 -0.1234 -0.1181 -0.1053 -0.05664
-0.1398 -0.0612 -0.01573 0.01752 -0.3809 -0.1244 0.0826 -0.03665
-0.006523 -0.01325 -0.002419 -0.002968 -0.00619 -0.004566 -0.00749 0.004406
-0.004753 -0.014824 -0.002668 -0.003008 -0.00526 -0.002983 -0.005848 0.004185
-0.00391 -0.01562 -0.002693 -0.002476 -0.004326 -4.053e-05 -0.01327 0.00403
0.001543 -0.001683 -0.002338 0.0098 -0.00561 0.0007224 0.00896 0.002964
-0.001918 -0.0009985 -0.00323 0.010605 -0.00349 0.001937 0.0005093 0.001474
-0.00748 -0.0003738 -0.003963 0.01142 0.000453 0.000572 0.00789 0.001409
-0.00814 -0.0008945 -0.0008297 0.00487 -0.0006866 -0.00249 0.007538 0.003345
-0.00426 -0.0003695 -0.000306 0.00607 -0.002083 -0.001178 0.00362 0.00543
-0.01613 0.0001467 3.44e-05 0.007 0.0005355 -0.001513 0.002745 0.006214
-0.191 -0.002075 -0.003521 0.01865 0.1068 -0.02731 -0.2517 0.06012
0.2047 -0.00652 -0.011154 0.02034 0.09424 0.01758 -0.2852 0.0484
-9.716e-05 0.00224 -0.01807 0.002968 -0.08856 0.1349 0.142 0.0422
0.3716 0.004093 -0.03412 0.0896 -0.288 0.1808 -0.1133 0.0673
-0.10333 0.02155 -0.0447 0.03503 -0.06726 0.0409 -0.10626 0.01932
00000000: 4532 201e 9d9f 3598 82b5 50b4 2aaf baab
00000010: 1422 e225 c59a a4a7 0cb5 5434 9eb0 47ab
00000020: 8faf 9324 2ba4 c7a4 83b5 632d 322e 6ba7
00000030: 25b2 c5a6 d499 b2a1 4d2c c030 e2b4 caa5
00000040: 232b fea8 98a6 fc23 3a28 8c1e fe2e b125
00000050: 3e29 7d8d 1ca8 801a 0124 48b3 742e 2729
00000060: 0729 a5a8 2f24 9d25 e8a5 58ae 76b1 6ea1
00000070: 370c 692b 5e15 5d2a 602c 5827 40a5 d9a3
00000080: 0f2c b425 2b1c 4a2c 3d35 20a0 3fb5 962d
00000090: a137 fe28 fca2 b92c 3a33 04b0 a3b5 2c24
000000a0: ac1f 6c9c fea4 78ab 18b0 b130 6db0 6aa0
000000b0: a8b7 d314 111b eea2 03b6 9ab0 8634 4c28
000000c0: 84b4 38a8 d128 b720 2fb6 9531 b3b3 3f2c
000000d0: 9332 9b9f 2529 4a2e 2bb4 0db5 cab1 05ac
000000e0: bc2e 73ab 36a8 a426 a734 c4a3 041b 1e2c
000000f0: a530 6faa 8f20 fb9b 522c cd31 21b3 8a29
00000100: bab3 06a8 4429 80ad e6af 8faf bdae 40ab
00000110: 79b0 d5ab 07a4 7c24 18b6 f6af 492d b1a8
00000120: ae9e c9a2 f498 149a 579e ad9c ab9f 831c
00000130: de9c 97a3 7799 299a 639d 1c9a fd9d 491c
00000140: 019c ffa3 8499 1299 6e9c a882 cba2 201c
00000150: 5216 e596 ca98 0521 bf9d eb11 9620 121a
00000160: db97 1794 9d9a 6e21 269b ef17 2c10 0a16
00000170: a99f 208e 0f9c d921 6c0f b010 0a20 c515
00000180: 2ba0 5493 cc92 fd1c a091 1999 b81f da1a
00000190: 5d9c 0e8e 038d 371e 4498 d394 6a1b 8f1d
000001a0: 21a4 cf08 4102 2b1f 6310 3296 9f19 5d1e
000001b0: 1db2 4098 369b c624 d62e fea6 07b4 b22b
000001c0: 8d32 ad9e b6a1 3525 082e 8024 90b4 322a
000001d0: 5e86 9618 a0a4 141a abad 5130 8b30 6729
000001e0: f235 311c 5ea8 bc2d 9cb4 c931 40af 4f2c
000001f0: 9dae 8425 b9a9 7c28 4eac 3c29 cdae f224

model/time_distributed_8/conv2d_2/Conv2D f2 [8, 3, 3, 1]
-0.01451 -0.02855 0.04398 0.0648 -0.0685 0.010216 -0.05173 0.01682
0.03069 0.003176 -0.001033 -0.000691 -0.002663 0.001921 0.00327 -0.00477
0.003769 0.005486 0.009224 -0.00436 0.002163 -0.001781 -0.0002351 -0.0003605
0.001054 0.002699 2.47e-05 0.005653 -0.008415 0.001458 -0.00296 0.0037
0.001378 -0.001062 -0.00248 0.001185 -0.001678 -0.00813 -0.004486 0.015564
-0.03093 0.01782 -0.003336 0.01071 0.01862 -0.03262 0.05545 0.01584
0.03043 -0.0942 0.04886 -0.02785 0.0722 -0.03262 0.02676 -0.05396
0.02016 -0.01184 0.02232 -0.009026 0.00688 0.04742 -0.0728 0.004524
-0.007355 0.006306 0.01263 -0.02754 0.011505 0.0004666 0.0004897 5.805e-05
00000000: 6ea3 4fa7 a129 262c 62ac 3b21 9faa 4e24
00000010: db27 811a 3b94 a991 7499 de17 b21a e29c
00000020: b81b 9e1d b920 779c 6e18 4c97 b48b e88d
00000030: 5114 8719 9e01 ca1d 4fa0 f915 109a 941b
00000040: a515 5a94 1499 db14 e096 2aa0 989c f823
00000050: eba7 9024 d59a 7c21 c424 2da8 192b 0e24
00000060: ca27 07ae 412a 21a7 9f2c 2da8 da26 e8aa
00000070: 2925 10a2 b725 9fa0 0c1f 122a a9ac a21c
00000080: 889f 751e 7722 0da7 e421 a50f 0310 ce03

model/lstm/TensorArrayV2_1 f2 [120, 1, 32]
0.0 0.0 0.0 0.0 0.0 0.0 0.0 0.0
0.0 0.0 0.0 0.0 0.0 0.0 0.0 0.0
0.0 0.0 0.0 0.0 0.0 0.0 0.0 0.0
0.0 0.0 0.0 0.0 0.0 0.0 0.0 0.0
0.0 0.0 0.0 0.0 0.0 0.0 0.0 0.0
0.0 0.0 0.0 0.0 0.0 0.0 0.0 0.0
0.0 0.0 0.0 0.0 0.0 0.0 0.0 0.0
0.0 0.0 0.0 0.0 0.0 0.0 0.0 0.0
0.0 0.0 0.0 0.0 0.0 0.0 0.0 0.0
0.0 0.0 0.0 0.0 0.0 0.0 0.0 0.0
0.0 0.0 0.0 0.0 0.0 0.0 0.0 0.0
0.0 0.0 0.0 0.0 0.0 0.0 0.0 0.0
0.0 0.0 0.0 0.0 0.0 0.0 0.0 0.0
0.0 0.0 0.0 0.0 0.0 0.0 0.0 0.0
0.0 0.0 0.0 0.0 0.0 0.0 0.0 0.0
0.0 0.0 0.0 0.0 0.0 0.0 0.0 0.0
0.0 0.0 0.0 0.0 0.0 0.0 0.0 0.0
0.0 0.0 0.0 0.0 0.0 0.0 0.0 0.0
0.0 0.0 0.0 0.0 0.0 0.0 0.0 0.0
0.0 0.0 0.0 0.0 0.0 0.0 0.0 0.0
0.0 0.0 0.0 0.0 0.0 0.0 0.0 0.0
0.0 0.0 0.0 0.0 0.0 0.0 0.0 0.0
0.0 0.0 0.0 0.0 0.0 0.0 0.0 0.0
0.0 0.0 0.0 0.0 0.0 0.0 0.0 0.0
0.0 0.0 0.0 0.0 0.0 0.0 0.0 0.0
0.0 0.0 0.0 0.0 0.0 0.0 0.0 0.0
0.0 0.0 0.0 0.0 0.0 0.0 0.0 0.0
0.0 0.0 0.0 0.0 0.0 0.0 0.0 0.0
0.0 0.0 0.0 0.0 0.0 0.0 0.0 0.0
0.0 0.0 0.0 0.0 0.0 0.0 0.0 0.0
0.0 0.0 0.0 0.0 0.0 0.0 0.0 0.0
0.0 0.0 0.0 0.0 0.0 0.0 0.0 0.0
00000000: 0000 0000 0000 0000 0000 0000 0000 0000
00000010: 0000 0000 0000 0000 0000 0000 0000 0000
00000020: 0000 0000 0000 0000 0000 0000 0000 0000
00000030: 0000 0000 0000 0000 0000 0000 0000 0000
00000040: 0000 0000 0000 0000 0000 0000 0000 0000
00000050: 0000 0000 0000 0000 0000 0000 0000 0000
00000060: 0000 0000 0000 0000 0000 0000 0000 0000
00000070: 0000 0000 0000 0000 0000 0000 0000 0000
00000080: 0000 0000 0000 0000 0000 0000 0000 0000
00000090: 0000 0000 0000 0000 0000 0000 0000 0000
000000a0: 0000 0000 0000 0000 0000 0000 0000 0000
000000b0: 0000 0000 0000 0000 0000 0000 0000 0000
000000c0: 0000 0000 0000 0000 0000 0000 0000 0000
000000d0: 0000 0000 0000 0000 0000 0000 0000 0000
000000e0: 0000 0000 0000 0000 0000 0000 0000 0000
000000f0: 0000 0000 0000 0000 0000 0000 0000 0000
00000100: 0000 0000 0000 0000 0000 0000 0000 0000
00000110: 0000 0000 0000 0000 0000 0000 0000 0000
00000120: 0000 0000 0000 0000 0000 0000 0000 0000
00000130: 0000 0000 0000 0000 0000 0000 0000 0000
00000140: 0000 0000 0000 0000 0000 0000 0000 0000
00000150: 0000 0000 0000 0000 0000 0000 0000 0000
00000160: 0000 0000 0000 0000 0000 0000 0000 0000
00000170: 0000 0000 0000 0000 0000 0000 0000 0000
00000180: 0000 0000 0000 0000 0000 0000 0000 0000
00000190: 0000 0000 0000 0000 0000 0000 0000 0000
000001a0: 0000 0000 0000 0000 0000 0000 0000 0000
000001b0: 0000 0000 0000 0000 0000 0000 0000 0000
000001c0: 0000 0000 0000 0000 0000 0000 0000 0000
000001d0: 0000 0000 0000 0000 0000 0000 0000 0000
000001e0: 0000 0000 0000 0000 0000 0000 0000 0000
000001f0: 0000 0000 0000 0000 0000 0000 0000 0000

model/dense/BiasAdd/ReadVariableOp/resource f2 [256]
-0.044 0.01913 0.01999 0.09924 -0.02084 -0.006474 -0.0879 -0.05814
-0.01055 -0.10156 -0.02924 -0.03232 0.0862 -0.02382 -0.0107 -0.0499
-0.03265 -0.01971 0.0906 0.0958 0.07086 0.01457 -0.0431 0.06186
0.03027 0.02228 -0.0638 0.03503 0.02286 0.03503 -0.03943 0.02765
-0.02272 -0.0485 -0.01979 0.0435 -0.00938 -0.04572 -0.2107 -0.04538
0.01412 0.0225 -0.10004 0.07715 -0.0341 -0.005592 0.04462 -0.0349
0.05417 -0.02234 0.00583 0.11395 -0.02791 0.02061 0.03238 -0.05173
-0.04367 -0.00158 -0.02951 0.01968 0.05237 -0.00749 -0.03293 0.0002248
0.04352 -0.0829 0.07904 0.04044 0.05402 -0.00998 -0.03888 -0.07275
0.0851 -0.009 -0.05255 0.02573 -0.0079 0.0001413 -0.01923 0.0584
0.00277 0.0389 -0.0104 0.07935 0.01736 -0.0402 -0.02441 0.00656
0.0261 -0.01214 -0.081 -0.0309 0.0815 0.005062 0.1078 -0.0861
-0.03087 -0.02643 -0.01095 0.0651 -0.0621 0.0268 -0.001286 -0.1086
-0.01494 -0.0004005 -0.01489 -0.005436 -0.003572 -0.03366 0.03067 0.06036
0.02188 0.09784 0.1036 0.007595 0.0693 0.0007186 -0.01761 -0.04666
-0.01353 -0.1099 -0.06775 -0.02643 0.002151 0.06042 0.04932 0.04785
0.05295 0.0399 0.007713 0.006958 -0.01651 -0.11786 0.07684 -0.00848
-0.09875 0.11426 0.0557 0.04697 -0.03873 -0.00618 -0.0224 -0.00656
-0.0714 0.00848 0.02971 0.00907 0.0988 -0.003517 -0.02783 -0.0005813
-0.0681 -0.1467 -0.02594 -0.03815 -0.03247 -0.03104 0.001475 0.07837
-0.02942 -0.0709 -0.0611 0.003191 -0.01717 -0.0785 0.03406 0.001899
0.04636 -0.005062 -0.04312 -0.01996 0.0885 0.00538 0.0009365 -0.03078
-0.0158 -0.0083 -0.05487 0.0431 0.05856 -0.0005727 0.05676 0.0237
0.0508 0.02618 0.05917 -0.05548 0.11804 -0.04822 0.01706 -0.010284
-0.05762 0.03787 -0.064 0.014046 -0.04733 0.04886 0.008675 -0.04385
0.04187 -0.05466 0.00856 -0.03394 -0.1123 -0.0341 0.07043 -0.0205
-0.047 0.02719 0.0416 0.03528 0.02873 0.0672 -0.0687 -0.00706
-0.05032 0.01826 0.02211 -0.01049 -0.01628 -0.06415 0.02167 -0.2035
0.0674 -0.01796 0.06204 0.04318 0.007732 -0.00844 0.01837 0.01712
0.06125 -0.006634 0.00168 0.0413 -0.03497 -0.00344 -0.04214 -0.03906
-0.1205 0.02057 -0.02238 -0.04727 -0.09015 0.01843 0.03384 0.06036
0.05267 -0.05273 0.00995 -0.02814 0.03717 0.0505 0.00951 -0.03964
00000000: a2a9 e624 1e25 5a2e 56a5 a19e a0ad 71ab
00000010: 67a1 80ae 7ca7 23a8 842d 19a6 7aa1 63aa
00000020: 2ea8 0ca5 cc2d 222e 892c 7623 84a9 eb2b
00000030: c027 b425 15ac 7c28 da25 7c28 0ca9 1427
00000040: d1a5 35aa 11a5 9129 cda0 daa9 beb2 cfa9
00000050: 3b23 c325 67ae f02c 5da8 ba9d b629 78a8
00000060: ef2a b8a5 f81d 4b2f 25a7 4725 2528 9faa
00000070: 97a9 7996 8ea7 0a25 b42a ab9f 37a8 5e0b
00000080: 9229 4ead 0f2d 2d29 ea2a 1ca1 faa8 a8ac
00000090: 722d 9ca0 baaa 9626 0ba0 a108 eca4 7a2b
000000a0: ac19 fb28 53a1 142d 7224 25a9 40a6 b81e
000000b0: ae26 37a2 2fad e9a7 372d 2f1d e62e 83ad
000000c0: e7a7 c4a6 9ba1 2b2c f3ab dc26 4495 f3ae
000000d0: a6a3 908e a0a3 919d 519b 4fa8 da27 ba2b
000000e0: 9a25 432e a12e c71f 6f2c e311 82a4 f9a9
000000f0: eda2 09af 56ac c4a6 6818 bc2b 502a 202a
00000100: c72a 1b29 e61f 201f 3aa4 8baf eb2c 57a0
00000110: 52ae 502f 212b 032a f5a8 549e bca5 b89e
00000120: 92ac 5720 9b27 a520 532e 349b 20a7 c390
00000130: 5cac b2b0 a4a6 e2a8 28a8 f2a7 0b16 042d
00000140: 88a7 8aac d2ab 891a 65a4 06ad 5c28 c717
00000150: ef29 2f9d 85a9 1ca5 aa2d 821d ac13 e1a7
00000160: 0ba4 40a0 06ab 8429 7f2b b190 442b 1126
00000170: 812a b426 932b 1aab 8e2f 2caa 5e24 44a1
00000180: 60ab d928 19ac 3123 0faa 412a 7120 9da9
00000190: 5c29 ffaa 6220 58a8 30af 5da8 822c 3fa5
000001a0: 04aa f626 5329 8428 5b27 4d2c 66ac 3b9f
000001b0: 71aa ad24 a925 5fa1 2ba4 1bac 8c25 83b2
000001c0: 502c 99a4 f12b 8729 eb1f 52a0 b424 6224
000001d0: d72b cb9e e216 4929 7aa8 0c9b 65a9 00a9
000001e0: b6af 4425 bba5 0daa c5ad b824 5528 ba2b
000001f0: be2a c0aa 1821 34a7 c228 772a de20 13a9

model/last_layer/BiasAdd/ReadVariableOp/resource f2 [31]
-0.01846 -0.0221 0.01839 -0.00505 -0.00405 -0.01747 -0.005665 0.04477
-0.05997 0.01726 -0.00823 -0.0374 -0.01289 0.04117 -0.004276 0.007774
-0.0002217 0.03656 -0.02394 -0.0183 -0.0088 0.03433 -0.0211 0.01122
0.001783 0.03195 -0.0446 0.02876 -0.025 -0.0267 -0.035
00000000: baa4 a8a5 b524 2c9d 269c 79a4 cd9d bb29
00000010: adab 6b24 37a0 caa8 9aa2 4529 619c f61f
00000020: 448b ae28 21a6 afa4 81a0 6528 67a5 bf21
00000030: 4e17 1728 b5a9 5d27 66a6 d6a6 7ba8

model/dense/MatMul f2 [256, 32]
-0.05243 0.0588 0.1895 -0.07806 0.0757 0.001174 0.0898 0.03223
-0.05746 0.06073 -0.2278 0.0609 -0.3042 0.0617 -0.1925 -0.008965
-0.1646 -0.02509 0.05795 -0.000706 0.1832 -0.03226 -0.02242 0.0786
-0.1304 -0.007454 0.14 0.0759 0.1835 -0.1454 0.01248 0.0212
0.1216 0.01368 -0.1761 0.02086 0.05923 0.0783 -0.1648 -0.02365
0.02754 0.0689 0.06216 0.001237 0.4822 -0.11914 -0.02339 -0.04227
0.11 0.01506 -0.0382 0.0784 -0.16 -0.1002 -0.0721 -0.1265
-0.02136 -0.03726 -0.03537 -0.0682 -0.1178 0.0367 0.0578 -0.0844
0.1503 -0.10565 -0.07416 -0.0144 0.0726 0.02649 -0.125 0.284
0.02417 0.0407 0.06274 -0.1195 0.1649 -0.0313 0.07025 -0.03119
-0.05667 0.1362 -0.05914 -0.1743 -0.08026 0.1087 0.01665 0.03035
0.006306 0.01038 0.10364 -0.08844 -0.2578 0.3047 0.04156 -0.1219
0.05704 0.0841 0.03357 0.00858 -0.003658 0.2294 -0.1059 -0.03506
0.01508 0.0423 0.01605 -0.02701 0.05405 -0.1631 -0.06696 -0.02795
-0.05402 0.09924 -0.1401 0.0878 -0.03017 0.2634 0.02892 -0.02467
0.1552 -0.06604 -0.01425 0.04288 0.0274 -0.1595 0.2405 -0.08813
-0.1332 0.193 -0.2654 0.1337 0.10596 -0.05762 -0.0807 0.227
-0.07587 -0.04898 0.1892 -0.2195 -0.007793 -0.0941 -0.00452 0.05554
-0.166 0.06885 0.03766 0.05475 -0.02182 0.02934 -0.08075 -0.0116
-0.0864 0.01146 -0.0975 0.03687 -0.0284 0.03754 -0.0737 -0.4688
0.0671 0.1293 0.07404 -0.03653 0.033 -0.05182 0.0168 0.0456
-0.02869 -0.01461 0.1014 0.1708 -0.05392 0.08405 -0.10156 -0.1393
-0.0561 -0.0891 0.06335 0.12024 -0.0883 -0.004932 -0.0633 -0.352
-0.03049 -0.0803 -0.4167 -0.11884 -0.0712 -0.0644 -0.05756 -0.134
-0.1054 0.3096 -0.1065 0.05405 -0.02998 0.02673 0.1165 -0.1918
0.0436 0.07275 0.0452 0.11487 -0.042 -0.2013 -0.0507 -0.01974
-0.0495 -0.011475 0.2029 0.076 0.01613 -0.11194 0.11444 0.10425
-0.00979 -0.01639 -0.11945 0.11633 0.1069 -0.1121 -0.04953 -0.0629
-0.06885 -0.0455 0.0965 0.0176 -0.0497 0.0696 0.02832 0.01286
-0.069 -0.3928 0.124 -0.04633 -0.01403 0.04877 0.11694 0.06964
-0.03464 -0.1266 -0.1387 -0.1334 -0.0837 0.2289 0.00893 0.1407
0.05997 -0.1242 -0.1349 -0.05252 0.0633 -0.07947 0.0376 -0.06006
00000000: b6aa 872b 1032 ffac d82c cf14 bf2d 2028
00000010: 5bab c62b 4ab3 cc2b deb4 e62b 29b2 97a0
00000020: 44b1 6ca6 6b2b c991 dd31 21a8 bda5 082d
00000030: 2cb0 a29f 7b30 dc2c df31 a7b0 6422 6d25
00000040: c82f 0123 a3b1 5725 952b 032d 46b1 0ea6
00000050: 0d27 692c f52b 1115 b737 a0af fda5 69a9
00000060: 0a2f b623 e4a8 052d 1fb1 6aae 9dac 0cb0
00000070: 78a5 c5a8 87a8 5dac 8aaf b328 662b 67ad
00000080: cf30 c3ae bfac 5fa3 a52c c826 00b0 8b34
00000090: 3026 3629 042c a6af 4731 02a8 7f2c fca7
000000a0: 41ab 5c30 92ab 94b1 23ad f52e 4324 c527
000000b0: 751e 5121 a22e a9ad 20b4 e034 5229 cdaf
000000c0: 4d2b 622d 4c28 6520 7e9b 5733 c7ae 7da8
000000d0: b923 6a29 1c24 eaa6 eb2a 38b1 49ac 28a7
000000e0: eaaa 5a2e 7cb0 9f2d b9a7 3734 6727 51a6
000000f0: f730 3aac 4ca3 7d29 0427 1bb1 b233 a4ad
00000100: 43b0 2d32 3fb4 4730 c82e 60ab 2aad 4433
00000110: dbac 45aa 0e32 06b3 fb9f 06ae a19c 1c2b
00000120: 50b1 682c d228 022b 96a5 8327 2bad f0a1
00000130: 88ad de21 3dae b828 45a7 ce28 b8ac 80b7
00000140: 4b2c 2330 bd2c ada8 3928 a2aa 4d24 d629
00000150: 58a7 7ba3 7d2e 7731 e7aa 612d 80ae 75b0
00000160: 2eab b4ad 0e2c b22f a7ad 0d9d 0dac a2b5
00000170: cea7 24ad abb6 9baf 8fac 1fac 5eab 4ab0
00000180: bfae f434 d1ae eb2a ada7 d826 752f 23b2
00000190: 9529 a82c c929 5a2f 60a9 71b2 7daa 0ea5
000001a0: 56aa e0a1 7e32 dd2c 2124 2aaf 532f ac2e
000001b0: 03a1 32a4 a5af 722f d72e 2daf 57aa 07ac
000001c0: 68ac d3a9 2d2e 8124 5daa 742c 4027 9622
000001d0: 6aac 49b6 f02f eea9 2fa3 3e2a 7c2f 752c
000001e0: 6fa8 0db0 70b0 45b0 5bad 5333 9220 8130
000001f0: ad2b f3af 51b0 b9aa 0d2c 16ad d028 b0ab

model/last_layer/MatMul f2 [31, 256]
-0.04364 0.09 0.08203 0.0743 0.03223 -0.09717 -0.02487 -0.09894
0.10205 0.0715 -0.08075 -0.0927 -0.003872 0.10095 -0.1161 -0.0119
0.04523 -0.0625 0.04288 0.07104 0.0304 -0.09955 -0.012436 -0.02956
0.03546 -0.05774 0.02919 0.04648 -0.01903 -0.0192 -0.0552 0.05078
-0.0982 0.101 0.05624 0.0954 -0.02353 0.0631 0.07367 -0.03732
0.002516 0.012276 -0.07275 0.0267 0.1006 0.009766 -0.04172 0.011635
0.054 0.01566 -0.0992 -0.0768 0.06033 0.03372 -0.0004392 -0.0885
0.013435 0.04044 0.063 -0.0868 -0.12 -0.011795 0.02054 0.0568
-0.092 0.02615 0.014534 -0.05463 -0.0684 0.01336 -0.04034 -0.10535
-0.0091 0.010216 -0.06226 0.0704 0.0654 -0.01244 0.05203 0.0005264
-0.0949 0.0913 -0.0202 0.01857 0.01707 -0.0244 -0.0627 -0.04083
0.079 -0.05304 -0.04797 -0.0615 -0.07324 0.0516 0.06366 0.09814
-0.05637 -0.0007553 0.10187 -0.0314 0.0609 -0.05957 -0.0928 0.0661
-0.03012 -0.005344 0.08777 0.0785 -0.10095 0.03075 -0.02362 0.04868
-0.05795 0.0349 0.0343 0.076 0.0409 -0.1045 0.06744 0.1284
-0.05295 -0.01675 0.04913 0.03976 0.02736 0.01255 -0.1027 0.09674
0.00786 0.07587 -0.02824 -0.03528 -0.0813 -0.007362 0.0281 -0.1049
-0.0656 0.06274 0.0634 -0.0874 -0.09955 -0.04834 0.1064 -0.05707
0.0902 -0.0983 0.0606 0.0631 0.08 0.12103 -0.02844 -0.0835
-0.08136 -0.0644 -0.05582 0.10077 0.01474 0.08124 0.02507 0.04916
0.11725 -0.03586 0.0892 -0.000284 -0.03143 -0.03026 -0.02298 0.04126
-0.0717 -0.00632 -0.06213 -0.072 0.05386 0.01051 -0.0539 0.014656
0.004772 0.0507 -0.02724 0.02573 -0.0525 0.0649 0.001991 -0.02136
-0.00897 0.01808 -0.03586 0.02396 -0.03717 -0.0735 -0.08 0.0918
0.1223 0.0085 -0.03284 -0.0827 -0.0861 -0.0591 -0.06085 -0.0973
-0.09644 -0.03366 0.07794 0.0753 -0.04834 0.0426 -0.09894 0.04526
0.0694 0.07477 0.09436 0.01089 -0.1199 -0.1407 0.03375 0.08093
0.0778 -0.06793 0.0666 -0.1042 -0.005962 -0.08234 0.01044 0.05045
-0.02406 -0.00849 -0.0796 -0.04474 0.06018 0.1017 -0.08 -0.03784
0.00814 0.06604 0.0636 0.0791 -0.05457 -0.05887 0.06726 -0.0819
-0.02965 -0.09143 0.0718 -0.01379 0.0702 0.0971 0.04984 0.01326
0.03555 -0.02995 0.081 0.06494 0.00459 0.03087 -0.0795 -0.095
00000000: 96a9 c32d 402d c12c 2028 38ae 5ea6 55ae
00000010: 882e 932c 2bad efad ee9b 762e 6eaf 18a2
00000020: ca29 00ac 7d29 8c2c c827 5fae 5ea2 91a7
00000030: 8a28 64ab 7927 f329 dfa4 eaa4 11ab 802a
00000040: 49ae 772e 332b 1b2e 06a6 0a2c b72c c7a8
00000050: 2719 4922 a8ac d626 702e 0021 57a9 f521
00000060: e92a 0224 59ae eaac b92b 5128 328f aaad
00000070: e122 2d29 082c 8ead aeaf 0aa2 4225 452b
00000080: e3ad b226 7123 feaa 61ac d722 2aa9 beae
00000090: a9a0 3b21 f8ab 812c 302c 5fa2 a92a 5010
000000a0: 13ae d82d 2ca5 c124 5f24 3fa6 03ac 3aa9
000000b0: 0e2d caaa 24aa dfab b0ac 9b2a 132c 482e
000000c0: 37ab 3092 852e 05a8 cc2b a0ab f0ad 3b2c
000000d0: b6a7 799d 9e2d 062d 76ae df27 0ca6 3b2a
000000e0: 6bab 7828 6428 dd2c 3c29 b0ae 512c 1c30
000000f0: c7aa 4aa4 4a2a 1729 0127 6d22 93ae 312e
00000100: 0620 db2c 3ba7 84a8 34ad 8a9f 3227 b7ae
00000110: 33ac 042c 0f2c 98ad 5fae 30aa cf2e 4eab
00000120: c62d 4bae c22b 0a2c 1f2d bf2f 48a7 58ad
00000130: 35ad 1fac 25ab 732e 8c23 332d 6b26 4b2a
00000140: 812f 97a8 b52d a78c 06a8 bfa7 e2a5 4829
00000150: 97ac 799e f4ab 9cac e52a 6221 e6aa 8123
00000160: e31c 7d2a f9a6 9626 b8aa 272c 1418 78a5
00000170: 98a0 a124 97a8 2226 c2a8 b4ac 1fad e02d
00000180: d42f 5a20 34a8 4bad 83ad 91ab caab 3aae
00000190: 2cae 4fa8 fd2c d22c 30aa 7429 55ae cb29
000001a0: 712c c92c 0a2e 9321 acaf 81b0 5228 2e2d
000001b0: fb2c 59ac 432c abae 1b9e 45ad 5821 752a
000001c0: 29a6 59a0 18ad baa9 b42b 822e 1fad d8a8
000001d0: 2b20 3a2c 122c 102d fcaa 89ab 4e2c 3ead
000001e0: 97a7 daad 982c 0fa3 7e2c 372e 612a ca22
000001f0: 8d28 aba7 2f2d 282c b31c e727 17ad 14ae

model/time_distributed_10/batch_normalization_2/FusedBatchNormV3 f2 [8]
-0.01022 0.001472 0.00796 -0.008705 0.004253 -0.02834 -0.0204 -0.004215
00000000: 3ca1 0816 1320 75a0 5b1c 41a7 39a5 519c

model/time_distributed_10/batch_normalization_2/FusedBatchNormV31 f2 [8]
0.2146 0.0448 0.03912 0.01744 0.1201 0.228 0.3044 0.05325
00000000: de32 bc29 0229 7724 b02f 4c33 df34 d12a

model/time_distributed_13/batch_normalization_3/FusedBatchNormV3 f2 [16]
-0.0684 -0.1235 -0.0007443 -0.09784 -0.0759 -0.00086 -0.0667 -0.1694
-0.04123 -0.001629 -0.0368 -0.01901 -0.1262 -0.001139 -0.06525 0.01449
00000000: 61ac e7af 1992 43ae dcac 0c93 45ac 6cb1
00000010: 47a9 ac96 b6a8 dea4 0ab0 aa94 2dac 6b23

model/time_distributed_13/batch_normalization_3/FusedBatchNormV31 f2 [16]
2.105 3.254 0.03802 1.953 1.673 -0.2089 2.402 1.444
4.0 -0.06183 1.842 3.139 1.853 0.00762 2.725 3.922
00000000: 3640 8242 de28 d03f b13e afb2 ce40 c73d
00000010: 0044 eaab 5e3f 4742 693f ce1f 7341 d843

model/time_distributed_2/batch_normalization/FusedBatchNormV3 f2 [8]
-0.01762 -0.001449 -0.0123 -0.02065 -0.0786 -0.005314 -0.11444 -0.006622
00000000: 83a4 ef95 4ca2 49a5 08ad 719d 53af c89e

model/time_distributed_2/batch_normalization/FusedBatchNormV31 f2 [8]
0.01741 0.03116 0.02196 0.04538 0.1088 -0.015205 0.1014 0.00427
00000000: 7524 fa27 9f25 cf29 f72e c9a3 7d2e 5f1c

model/time_distributed_5/batch_normalization_1/FusedBatchNormV3 f2 [16]
-0.00416 -0.0899 -0.3237 -0.3132 -0.7847 -0.3696 -0.208 -0.3318
-0.3071 -0.1185 -0.5825 -0.4712 0.003813 0.03494 -0.722 -0.2732
00000000: 439c c1ad 2eb5 03b5 47ba eab5 a8b2 4fb5
00000010: eab4 96af a9b8 8ab7 cf1b 7928 c7b9 5fb4

model/time_distributed_5/batch_normalization_1/FusedBatchNormV31 f2 [16]
4.55 3.645 3.312 3.2 3.385 3.47 3.473 4.055
3.648 2.613 3.758 4.254 4.8 6.16 3.574 4.23
00000000: 8d44 4a43 a042 6642 c542 f142 f242 0e44
00000010: 4c43 3a41 8443 4144 cd44 2946 2643 3b44

model/lstm/while/lstm_cell_4/MatMul_4 f2 [32, 32]
0.02605 -0.1085 -0.3984 -0.584 0.196 0.6724 0.1814 0.07623
-0.4404 -0.0999 -0.689 0.479 -0.3767 -0.0952 0.2434 -0.2202
-0.1019 -0.00972 0.272 -0.1716 -0.3862 -0.5176 -0.4314 0.1813
0.1401 -0.03815 -0.2043 -0.7017 -0.01162 0.1556 0.2551 0.4297
-0.4333 -0.263 0.04977 -0.0769 0.03912 0.1644 -0.2737 -0.3875
-0.0829 -0.2424 -0.5366 0.0638 -0.4392 0.2317 0.4502 -0.2708
0.2915 -0.13 0.514 -0.08124 0.081 0.277 -0.09985 0.2065
0.0995 -0.0701 -0.1959 0.155 0.3271 -0.1498 0.3337 0.1675
-0.6133 0.806 -0.05588 -0.9585 -0.131 0.1847 0.2646 -0.0795
0.4236 0.348 -0.11566 0.4624 0.2031 0.10376 -0.741 -0.9497
0.08984 0.2142 0.181 0.06744 -0.02986 0.3687 0.322 -0.2278
0.2688 0.02415 0.001491 -0.1328 -0.1558 -0.4734 -0.4473 0.11536
0.009895 0.02359 -0.05188 0.000809 -0.03775 0.0456 -0.0771 0.02661
-0.04956 -0.0231 0.0053 -0.05533 0.086 -0.002409 -0.02599 0.05334
0.00828 -0.005302 -0.0884 -0.1283 0.03064 0.01979 0.03378 0.02501
0.01067 0.05243 0.02313 0.02574 0.03687 0.02536 -0.0436 -0.02896
-0.2428 0.489 -0.2329 -0.539 0.2227 -0.4897 0.05206 -1.634
-0.692 -0.1236 0.2239 0.1687 -0.2727 0.9434 0.2343 0.2793
-0.2417 -0.67 0.4407 -0.1271 0.03577 -0.2725 0.1718 0.1873
0.3916 -0.4465 -0.02385 -0.645 -0.2197 0.4973 -0.3909 0.0501
-0.1685 -0.1581 0.2197 -0.725 1.107 0.01201 -0.3005 -0.377
-0.4727 -0.523 1.029 1.601 0.2507 0.3848 -1.219 -0.1753
0.7305 -0.8735 -0.623 0.1388 0.04233 -0.482 0.245 0.4287
-0.03177 -0.5957 -1.2705 0.61 0.4155 0.5977 0.3884 0.10016
-0.1305 0.1492 -0.2179 -0.6206 0.406 0.9785 -0.1332 0.6196
-0.3936 -0.1888 -0.3694 0.3962 -0.02892 0.3452 -0.0384 0.05875
0.3655 -0.1552 -0.08496 -0.1875 0.1915 0.2683 -0.1992 -0.1449
0.687 -0.2844 -0.748 -0.451 0.9146 -0.4822 -0.2054 0.2382
-0.225 0.3816 0.439 -0.4062 0.6855 -0.901 0.707 -0.6924
0.2578 0.4565 -0.7197 0.394 0.0577 -0.0786 0.6147 -0.555
1.073 -0.5166 0.04218 -0.9443 -0.4902 -0.7393 0.649 0.132
0.1399 -0.402 0.1642 -0.5586 -0.3047 -0.786 -0.2472 0.7476
00000000: ab26 f2ae 60b6 acb8 4632 6139 ce31 e12c
00000010: 0cb7 65ae 83b9 aa37 07b6 18ae ca33 0cb3
00000020: 86ae faa0 5a34 7eb1 2eb6 24b8 e7b6 cd31
00000030: 7c30 e2a8 8ab2 9db9 f3a1 fb30 1534 e036
00000040: efb6 35b4 5f2a ecac 0229 4331 61b4 33b6
00000050: 4ead c2b3 4bb8 152c 07b7 6a33 3437 55b4
00000060: aa34 29b0 1d38 33ad 2f2d 6f34 64ae 9c32
00000070: 5e2e 7dac 45b2 f630 3c35 cbb0 5735 5c31
00000080: e8b8 733a 27ab abbb 31b0 e931 3c34 17ad
00000090: c736 9135 67af 6637 8032 a42e eeb9 99bb
000000a0: c02d db32 cb31 512c a5a7 e635 2735 4ab3
000000b0: 4d34 2f26 1b16 40b0 fcb0 93b7 28b7 622f
000000c0: 1121 0a26 a4aa a112 d5a8 d629 efac d026
000000d0: 58aa eaa5 6d1d 15ab 812d ef98 a7a6 d42a
000000e0: 3d20 6e9d a8ad 1bb0 d827 1125 5328 6726
000000f0: 7721 b62a ec25 9726 b828 7e26 95a9 6aa7
00000100: c5b3 d337 74b3 50b8 2033 d6b7 aa2a 89be
00000110: 89b9 e9af 2a33 6631 5db4 8c3b 7f33 7834
00000120: bcb3 5cb9 0d37 11b0 9428 5cb4 7f31 fe31
00000130: 4436 25b7 1ba6 29b9 08b3 f537 41b6 6a2a
00000140: 64b1 0fb1 0833 cdb9 6e3c 2622 cfb4 08b6
00000150: 90b7 2fb8 1e3c 673e 0334 2836 e0bc 9cb1
00000160: d839 fdba fcb8 7130 6b29 b6b7 d733 dc36
00000170: 11a8 c4b8 15bd e138 a636 c838 3736 692e
00000180: 2db0 c630 f9b2 f7b8 7f36 d43b 43b0 f538
00000190: 4cb6 0bb2 e9b5 5736 67a7 8635 eaa8 852b
000001a0: d935 f7b0 70ad 00b2 2132 4b34 60b2 a3b0
000001b0: 7f39 8db4 fcb9 37b7 513b b7b7 93b2 9f33
000001c0: 33b3 1b36 0637 80b6 7c39 35bb a839 8ab9
000001d0: 2034 4e37 c2b9 4e36 632b 08ad eb38 71b8
000001e0: 4b3c 22b8 6629 8ebb d8b7 eab9 3139 3930
000001f0: 7a30 6fb6 4131 78b8 e0b4 4aba e9b3 fb39

model/lstm/while/lstm_cell_4/MatMul_5 f2 [32, 32]
0.0912 0.1406 -0.01228 0.3105 -0.07404 -0.004032 -0.3672 0.4888
0.1976 0.2327 0.065 0.3738 0.7285 -0.1517 0.4226 0.7036
-0.2632 0.042 0.0997 0.1815 0.2052 0.4866 0.07074 -0.0004344
0.4087 -0.2668 -0.389 0.3882 0.2524 -0.2856 0.532 -0.438
-0.1481 0.2415 0.2551 -0.0771 -0.012566 -0.4717 0.1371 0.12213
-0.5176 0.2394 0.2803 -0.2976 -0.3638 -0.435 0.34 -0.2042
0.1451 -0.3193 0.1015 0.10785 0.2333 0.0455 -0.3499 0.538
-0.1904 -0.3025 0.1886 0.1823 -0.2283 0.416 0.2451 -0.1477
0.387 0.759 0.2134 0.0709 0.662 -0.0689 -0.0847 0.2568
0.006607 -0.1643 -0.127 -0.05792 -0.452 0.1865 -0.1235 0.11926
0.1733 0.1764 -0.2825 -0.637 -0.18 0.10266 -0.2705 -0.4583
0.2252 0.4514 0.566 -0.04163 -0.02322 -0.3757 -0.08685 -0.223
0.3362 0.1141 0.04825 0.1351 -0.1779 0.03415 -0.189 0.03363
0.0822 0.2112 0.397 0.007183 -0.00569 -0.07404 0.02724 0.0947
0.03668 0.1796 -0.3533 -0.1573 0.109 0.2018 -0.1968 0.03027
0.0891 0.1425 0.129 0.07306 -0.1523 0.1418 -0.1001 -0.07947
-0.2297 0.843 -0.0598 0.1444 -0.05548 0.3237 -0.06274 -0.04764
-0.2612 0.3071 -0.623 0.01596 0.7495 0.4285 -0.3962 -0.4783
-0.6304 0.2783 0.5454 0.1532 0.2058 0.2576 -0.3994 0.2401
0.1425 0.4744 0.6196 -0.0564 -0.282 0.4668 -0.3015 0.003796
0.08655 -0.1821 -0.2233 -0.12134 -0.106 -0.1929 -0.546 0.02908
-0.642 0.2502 0.5576 -0.07935 0.2296 0.2241 -0.0406 0.01103
0.7417 -0.5386 0.3206 -0.2207 0.1377 -0.922 0.0656 0.8525
0.593 0.03488 -0.8315 0.1273 -0.0965 -0.418 0.4658 0.06107
0.0526 0.1356 -0.07184 0.3032 0.1192 -0.3452 0.3418 0.292
0.02077 0.1458 -0.01633 -0.475 0.10236 0.349 0.115 0.308
0.01561 0.2489 0.0708 0.2141 0.1173 0.2534 0.05627 0.04205
0.0832 0.3718 0.1121 0.0649 0.1313 -0.11676 -0.2477 -0.02997
-0.1254 -0.4678 0.03085 0.1465 0.2979 -0.701 -0.005833 0.258
-0.4438 0.5684 0.5537 0.4553 -0.1404 0.07 1.065 0.0742
-0.6006 0.2349 -0.04315 0.4219 0.4236 -0.1266 0.03372 -1.019
0.2147 0.1888 0.404 -0.0529 -0.2588 -0.755 0.00898 -0.9526
00000000: d62d 8030 4aa2 f834 bdac 219c e0b5 d237
00000010: 5332 7233 292c fb35 d439 dbb0 c336 a139
00000020: 36b4 6029 612e cf31 9132 c937 872c 1e8f
00000030: 8a36 45b4 39b6 3636 0a34 92b4 4238 02b7
00000040: bdb0 ba33 1534 efac 6fa2 8cb7 6330 d12f
00000050: 24b8 a933 7c34 c3b4 d2b5 f6b6 7135 89b2
00000060: a530 1cb5 7f2e e72e 7733 d329 99b5 4e38
00000070: 18b2 d7b4 0932 d531 4eb3 a836 d833 bab0
00000080: 3136 123a d432 8a2c 4c39 69ac 6cad 1c34
00000090: c41e 42b1 10b0 6aab 3bb7 f831 e7af a22f
000000a0: 8c31 a531 85b4 19b9 c3b1 922e 54b4 55b7
000000b0: 3533 3937 8738 54a9 f2a5 03b6 8fad 23b3
000000c0: 6135 4d2f 2d2a 5330 b1b1 5f28 0cb2 4e28
000000d0: 432d c232 5a36 5b1f d49d bdac f926 102e
000000e0: b228 bf31 a7b5 09b1 fa2e 7532 4cb2 c027
000000f0: b42d 8f30 2130 ad2c e0b0 8a30 68ae 16ad
00000100: 5ab3 be3a a8ab 9f30 1aab 2e35 04ac 19aa
00000110: 2eb4 ea34 fcb8 1624 ff39 db36 57b6 a7b7
00000120: 0bb9 7434 5d38 e730 9632 1f34 64b6 af33
00000130: 8f30 9737 f538 38ab 83b4 7837 d3b4 c61b
00000140: 8a2d d4b1 25b3 c4af c9ae 2cb2 5eb8 7227
00000150: 23b9 0134 7638 14ad 5933 2c33 32a9 a621
00000160: ef39 4fb8 2135 10b3 6830 60bb 332c d23a
00000170: be38 7728 a7ba 1330 2dae b0b6 7437 d12b
00000180: bc2a 5730 99ac da34 a12f 86b5 7835 ac34
00000190: 5125 aa30 2ea4 9ab7 8d2e 9635 5c2f ee34
000001a0: fe23 f733 882c da32 822f 0e34 342b 6229
000001b0: 532d f335 2d2f 272c 3430 79af edb3 aca7
000001c0: 03b0 7cb7 e627 b030 c434 9cb9 f99d 2134
000001d0: 1ab7 8c38 6e38 4937 7eb0 7b2c 433c c02c
000001e0: ceb8 8433 86a9 c036 c736 0db0 5128 13bc
000001f0: df32 0b32 7736 c5aa 24b4 0aba 9920 9fbb

model/lstm/while/lstm_cell_4/MatMul_6 f2 [32, 32]
0.01391 0.3225 -0.239 0.2585 0.04117 -0.1469 -0.08026 -0.4006
0.513 -0.3584 0.2256 -0.02853 0.3296 -0.1575 -0.3154 0.09393
0.269 0.537 0.2778 0.2096 0.64 0.4143 0.0536 -0.3337
0.592 -0.0792 -0.138 0.285 0.1135 0.267 -0.09076 -0.007214
-0.02797 0.1451 0.1438 -0.4485 -0.1725 -0.4521 0.4504 0.138
-0.254 0.505 0.3518 -0.2742 -0.287 0.03625 0.2494 -0.2664
0.3271 -0.3015 -0.1868 -0.4033 0.2076 0.0691 -0.2184 -0.1643
0.1201 -0.3655 0.0362 -0.1665 -0.8486 0.005665 -0.1472 0.1631
0.11176 0.10394 0.00703 0.0264 0.212 0.12445 -0.0663 -0.44
-0.1309 0.5127 -0.0705 0.2778 0.02448 0.375 0.10254 1.021
-0.168 0.1465 -0.1267 -0.498 -0.3608 -0.04752 -0.3252 -0.06714
0.1681 0.6396 0.715 0.157 -0.01782 -0.3022 0.05228 0.2205
0.08905 0.1937 0.0871 0.03735 -0.23 0.09607 -0.4426 0.0943
-0.07465 0.0818 0.3684 0.1698 0.1053 -0.02077 -0.066 0.1395
-0.06097 -0.01224 -0.39 -0.304 0.0002218 0.163 -0.2876 0.0106
0.2036 0.0934 0.3909 0.0489 -0.02443 0.269 0.08484 -0.08057
0.0815 -0.2386 -0.4797 -0.2974 0.2078 0.1209 -0.2917 -0.62
0.1982 -0.8975 0.8315 0.07477 0.04227 -0.394 -0.1344 0.4907
0.01872 -0.3613 -0.415 -0.1881 0.0684 -0.1744 0.2166 0.09424
-0.0326 0.191 -0.01374 0.354 0.1198 0.07465 0.3486 0.1296
-0.05942 0.01038 -0.2042 0.02419 0.09863 -0.0718 7.653e-05 -0.1444
0.3208 0.1732 -0.1344 0.582 0.2169 -0.05908 0.3442 -0.1744
-0.1575 -0.1149 0.4546 0.05295 0.1051 -0.1936 -0.49 -0.3306
0.3643 -0.916 -0.01736 -0.0431 0.3052 -0.01685 -0.3801 -0.04004
0.05417 -0.0738 -0.1666 -0.05176 -0.549 0.3086 0.166 0.1112
-0.1252 -0.1305 -0.1907 -0.1813 0.1032 0.05368 0.1748 -0.1722
0.000592 0.3755 0.05496 0.02243 0.0288 -0.31 0.1481 0.07666
-0.2861 0.3203 -0.1373 -0.1729 -0.1083 0.209 -0.518 -0.001522
0.3367 1.011 0.0807 -0.2462 -0.1427 0.1428 -0.1322 -0.769
-0.2646 -0.2563 0.2437 0.1113 0.0522 0.1748 -0.1461 -0.06586
0.0002366 -0.3276 -0.4246 -0.2627 0.2 0.3884 0.2183 -0.07306
-0.325 0.1865 1.011 0.1313 -0.1169 -0.1317 -0.375 -0.3235
00000000: 1f23 2935 a6b3 2334 4529 b3b0 23ad 69b6
00000010: 1b38 bcb5 3833 4ea7 4635 0ab1 0cb5 032e
00000020: 4e34 4c38 7234 b532 1f39 a136 dc2a 57b5
00000030: bc38 12ad 6ab0 8f34 442f 4634 cfad 639f
00000040: 29a7 a530 9a30 2db7 85b1 3cb7 3537 6a30
00000050: 10b4 0a38 a135 63b4 98b4 a428 fb33 43b4
00000060: 3c35 d3b4 fab1 74b6 a532 6c2c fdb2 42b1
00000070: b02f d9b5 a228 54b1 caba cd1d b6b0 3831
00000080: 272f a72e 331f c226 c932 f72f 3eac 0ab7
00000090: 30b0 1a38 83ac 7234 4426 0036 902e 163c
000000a0: 60b1 b030 0eb0 f8b7 c6b5 15aa 34b5 4cac
000000b0: 6131 1e39 b839 0631 90a4 d6b4 b12a 0e33
000000c0: b32d 3332 932d c828 5cb3 262e 15b7 092e
000000d0: c7ac 3c2d e535 6f31 bd2e 51a5 39ac 7730
000000e0: ceab 44a2 3db6 ddb4 450b 3731 9ab4 6d21
000000f0: 8432 fa2d 4136 422a 41a6 4e34 6e2d 28ad
00000100: 372d a3b3 adb7 c2b4 a632 bd2f abb4 f6b8
00000110: 5832 2ebb a73a c92c 6929 4eb6 4db0 da37
00000120: cb24 c8b5 a4b6 05b2 612c 95b1 ee32 082e
00000130: 2ca8 1d32 09a3 aa35 ab2f c72c 9435 2630
00000140: 9bab 5121 89b2 3126 502e 98ac 0405 9fb0
00000150: 2235 8b31 4db0 a838 f132 90ab 8235 95b1
00000160: 0ab1 5baf 4637 c72a ba2e 32b2 d7b7 4ab5
00000170: d435 54bb 72a4 84a9 e234 50a4 15b6 20a9
00000180: ef2a b9ac 55b1 a0aa 64b8 f034 5031 1e2f
00000190: 02b0 2db0 1ab2 cdb1 9b2e df2a 9831 83b1
000001a0: da10 0236 092b be25 5f27 f6b4 bd30 e82c
000001b0: 94b4 2035 65b0 88b1 eeae b032 25b8 3c96
000001c0: 6335 0b3c 2a2d e1b3 91b0 9230 3bb0 27ba
000001d0: 3cb4 1ab4 cc33 202f ae2a 9831 adb0 37ac
000001e0: c10b 3eb5 cbb6 34b4 6632 3736 fc32 adac
000001f0: 33b5 f831 0b3c 3430 7baf 37b0 00b6 2db5

model/lstm/while/lstm_cell_4/MatMul_7 f2 [32, 32]
0.597 0.6035 0.588 -0.6313 -0.11316 -0.1637 -0.10547 0.1423
-0.2152 -0.02367 0.0712 -0.4443 0.3481 -0.06165 0.10333 0.4363
-0.2329 0.023 0.03894 -0.01717 0.05515 -0.06396 -1.154 0.3098
0.4177 0.1687 0.07587 -0.1654 -0.1039 0.6533 0.5938 -0.2515
-0.1438 0.517 -0.17 -0.511 -0.329 0.171 -0.1976 -0.2952
-0.1653 -0.4023 -0.6895 -0.05313 -0.7905 -0.2161 -0.607 -0.2073
0.0982 -0.2161 0.586 -0.202 0.4111 -0.06635 -0.7124 0.2097
-0.3364 0.3325 0.5503 -0.10187 -0.083 0.1332 -0.3494 -0.02933
1.103 -0.2734 1.058 -0.597 1.523 -0.1934 -0.4185 -0.567
0.4375 0.8867 -0.4597 1.267 0.2546 0.641 -0.1415 0.3118
0.2308 0.716 -0.411 0.2468 0.1237 0.91 0.62 -0.3577
0.0995 -0.10864 -0.9946 0.756 0.4575 -0.655 -0.5117 0.1425
-0.7856 -0.4136 0.4092 1.656 0.06775 0.945 1.276 -1.154
-0.2134 0.618 -0.872 -0.1351 -0.873 1.48 -0.2932 -0.0641
0.8325 0.5337 0.7256 -0.1021 -0.653 -0.9595 0.336 0.1743
0.3982 -0.187 -1.488 -0.3774 0.0945 0.4365 0.1501 1.049
-0.644 0.5435 0.3066 0.2686 -0.6875 -0.9155 0.1152 -0.4307
-0.11163 0.5625 -0.8057 -0.5405 0.9746 0.457 -0.794 1.761
0.722 -0.4238 -0.1354 -0.907 -0.4756 -0.2001 0.5493 0.05142
0.4832 -0.4102 -0.287 -0.2484 -0.298 0.1224 -0.369 0.95
-1.074 0.435 0.365 -0.05875 -0.4517 -1.213 0.2983 -0.332
0.3765 0.2118 -0.4019 0.035 0.2844 -0.3245 0.2197 0.6353
0.5073 -1.264 -0.0776 -0.1931 -0.2961 -0.4795 0.2544 0.1417
0.501 -0.329 -0.2627 0.03812 -0.647 -0.1886 -0.262 0.6255
0.0941 -0.1567 -0.09015 0.528 0.01721 -0.07855 0.1048 0.494
-0.2698 0.1482 -0.02504 -0.51 0.1998 0.0958 0.3206 0.4727
-0.143 0.255 -0.1873 0.2998 0.24 0.03375 -0.668 0.1888
0.01315 0.263 -0.02591 0.1256 0.01611 0.2047 -0.09265 0.01736
-0.288 -0.8423 -0.933 -0.5376 0.03738 0.1228 -0.2418 0.976
-0.4546 -0.10266 0.58 -0.057 -0.2057 0.1287 0.5425 -0.6797
-0.3445 -0.1486 0.5024 0.4219 -0.2311 -0.1835 0.5654 -0.773
0.221 0.8667 0.523 -0.1505 0.1528 -1.208 -0.1527 -0.4194
00000000: c738 d438 b438 0db9 3eaf 3db1 c0ae 8e30
00000010: e3b2 0fa6 8f2c 1cb7 9235 e4ab 9d2e fb36
00000020: 74b3 e325 fc28 65a4 0f2b 18ac 9ebc f534
00000030: af36 6631 db2c 4bb1 a6ae 3a39 c038 06b4
00000040: 9ab0 2338 71b1 17b8 44b5 7931 53b2 b9b4
00000050: 4ab1 70b6 84b9 cdaa 53ba eab2 dbb8 a2b2
00000060: 492e eab2 b038 77b2 9436 3fac b3b9 b632
00000070: 62b5 5235 6738 85ae 50ad 4330 97b5 82a7
00000080: 693c 60b4 3b3c c7b8 183e 30b2 b2b6 89b8
00000090: 0037 183b 5bb7 113d 1334 2139 87b0 fd34
000000a0: 6333 ba39 93b6 e633 eb2f 483b f638 b9b5
000000b0: 5e2e f4ae f5bb 0c3a 5237 3db9 18b8 8f30
000000c0: 49ba 9eb6 8c36 a03e 562c 8f3b 1b3d 9ebc
000000d0: d4b2 f238 faba 53b0 fcba ec3d b1b4 1aac
000000e0: a93a 4538 ce39 89ae 39b9 adbb 6035 9431
000000f0: 5f36 fcb1 f4bd 0ab6 0c2e fc36 ce30 323c
00000100: 27b9 5938 e834 4c34 80b9 53bb 5f2f e4b6
00000110: 25af 8038 72ba 53b8 cc3b 5037 5aba 0b3f
00000120: c739 c8b6 55b0 42bb 9cb7 67b2 6538 952a
00000130: bb37 90b6 98b4 f3b3 c5b4 d52f e7b5 9a3b
00000140: 4cbc f636 d735 85ab 3ab7 dabc c634 50b5
00000150: 0636 c732 6eb6 7b28 8d34 31b5 0833 1539
00000160: 0f38 0ebd f7ac 2eb2 bdb4 acb7 1234 8930
00000170: 0238 44b5 34b4 e128 2db9 09b2 31b4 0139
00000180: 062e 04b1 c5ad 3938 6824 07ad b52e e737
00000190: 51b4 be30 69a6 14b8 6532 222e 2135 9037
000001a0: 93b0 1434 feb1 cc34 ae33 5228 58b9 0b32
000001b0: bc22 3534 a2a6 0530 2024 8d32 eead 7224
000001c0: 9cb4 bdba 77bb 4db8 c928 dc2f bdb3 cf3b
000001d0: 46b7 92ae a438 4cab 95b2 1e30 5738 70b9
000001e0: 83b5 c1b0 0538 c036 65b3 dfb1 8638 2fba
000001f0: 1233 ef3a 2f38 d1b0 e430 d5bc e3b0 b6b6

model/lstm/while/lstm_cell_4/split_1 f2 [32]
-0.4856 -0.4612 -0.3481 0.05423 -0.483 -0.5156 -0.644 -0.8184
-0.5137 -0.6147 -0.577 -0.2411 -0.05695 -0.601 -0.713 -0.6587
-0.3726 -0.4834 -0.1127 -0.258 -0.4375 -0.3325 -0.439 -0.666
-0.4524 -0.4429 -0.4966 1.783 -0.3113 -0.272 -0.5713 -0.2908
00000000: c5b7 61b7 92b5 f12a bab7 20b8 27b9 8cba
00000010: 1cb8 ebb8 9eb8 b7b3 4aab cfb8 b4b9 45b9
00000020: f6b5 bcb7 36af 21b4 00b7 52b5 06b7 54b9
00000030: 3db7 16b7 f2b7 223f fbb4 5ab4 92b8 a7b4

model/lstm/while/lstm_cell_4/split_11 f2 [32]
1.241 1.063 1.077 1.809 1.062 0.822 1.136 1.279
1.167 0.9297 1.163 1.677 1.325 0.898 0.8706 1.268
1.132 1.138 1.929 0.917 1.429 1.142 1.312 0.969
0.9517 1.15 0.9463 2.277 1.219 0.988 0.894 0.9165
00000000: f73c 413c 4f3c 3c3f 3f3c 933a 8b3c 1e3d
00000010: ab3c 703b a73c b53e 4d3d 2f3b f73a 123d
00000020: 873c 8d3c b73f 563b b73d 913c 3f3d c13b
00000030: 9d3b 9a3c 923b 8e40 e03c e73b 273b 553b

model/lstm/while/lstm_cell_4/split_12 f2 [32]
0.2773 -0.153 0.1208 0.2468 -0.01962 -0.12054 -0.2291 0.2208
0.1923 -0.004223 0.1488 -0.002354 0.3357 -0.1372 -0.06006 0.2162
-0.2803 0.157 0.124 0.1199 0.302 0.35 -0.1316 -0.0234
-0.03009 -0.01389 0.10547 0.5566 -0.1238 0.02805 -0.1556 -0.216
00000000: 7034 e5b0 bb2f e633 06a5 b7af 55b3 1133
00000010: 2732 539c c330 d298 5f35 64b0 b0ab eb32
00000020: 7cb4 0631 f02f ac2f d534 9a35 36b0 fea5
00000030: b4a7 1da3 c02e 7438 ecaf 2e27 fbb0 e9b2

model/lstm/while/lstm_cell_4/split_13 f2 [32]
0.011894 -0.2527 -0.1836 -0.4436 -0.2019 -0.2625 0.3643 -0.07434
-0.01087 0.005737 0.1309 -0.1688 -0.4656 -0.2211 -0.704 0.2394
-0.1109 -0.07513 -0.3696 -0.0858 -0.187 0.0223 -0.08777 -0.05893
-0.3179 -0.05603 0.0786 -0.3718 -0.07306 -0.3926 -0.505 -0.0396
00000000: 1722 0bb4 e0b1 19b7 76b2 33b4 d435 c2ac
00000010: 91a1 e01d 3030 67b1 73b7 13b3 a2b9 a933
00000020: 19af cfac eab5 7ead fcb1 b525 9ead 8bab
00000030: 16b5 2cab 082d f3b5 adac 48b6 0ab8 12a9

model/lstm/while/lstm_cell_4/MatMul f2 [32, 1152]
-0.0438 0.05923 -0.04944 -0.03262 -0.0874 0.02141 -0.00498 0.006176
0.01851 -0.06903 0.15 -0.03796 -0.02457 0.06946 -0.1615 0.01348
-0.226 -0.3394 -0.0892 0.06635 0.0916 -0.0915 0.1404 -0.08514
-0.0643 -0.0079 -0.024 -0.1499 -0.02301 0.03464 0.0477 0.12067
-0.153 -0.102 0.04233 -0.2551 -0.01956 -0.1682 0.05206 0.02016
0.0999 0.03094 -0.02127 0.05457 -0.06274 -0.03876 -0.0585 -0.1148
-0.1595 -0.1611 0.0966 -0.1222 0.01964 -0.00347 -0.03452 -0.01753
-0.1782 -0.0288 -0.0743 0.007195 -0.12494 -0.0439 -0.0291 -0.02971
-0.05978 -0.03998 0.05112 -0.1542 -0.0658 -0.2496 0.04672 0.08685
-0.0287 -0.1262 -0.24 0.0356 -0.1467 -0.0042 -0.1819 -0.1974
0.09283 -0.0875 -0.04593 -0.1025 0.0769 -0.09344 0.002445 -0.02765
-0.03802 -0.1389 -0.1613 0.07806 -0.05228 -0.1327 0.04114 0.08875
0.07983 -0.04938 -0.04318 0.02705 0.0596 -0.006325 -0.1445 -0.1674
0.09015 0.04208 -0.05396 0.03204 0.0245 0.1798 0.012726 -0.08734
-0.05658 -0.04984 0.1057 -0.07495 0.01732 -0.05334 0.1372 0.1018
0.05597 0.04712 -0.05246 0.04922 0.02377 0.156 -0.0105 0.1694
0.0334 0.1428 0.1104 -0.1094 -0.1539 0.04858 -0.1204 0.0436
0.0924 -0.03406 -0.002146 -0.0195 0.04706 -0.04388 0.02876 0.0989
0.0955 -0.06082 -0.0756 -0.01862 -0.05887 0.1562 -0.1755 -0.122
-0.1483 -0.0693 0.10284 -0.1436 -0.01904 -0.003775 0.0474 -0.03323
-0.001559 0.0268 -0.02481 0.1401 0.001196 -0.1271 -0.10016 0.0606
-0.1462 -0.01058 0.1449 -0.04074 -0.0893 0.007553 -0.1143 -0.10333
-0.09106 -0.01929 -0.0135 0.007706 0.05383 0.0819 -0.065 -0.02043
0.0309 0.04166 -0.08716 -0.04977 0.0804 0.02129 0.05103 -0.06354
0.0289 0.0291 -0.007645 -0.07684 -0.00462 0.005432 -0.00842 -0.02924
-0.01076 -0.003168 -0.06573 -0.1409 -0.067 -0.002056 0.01698 0.05463
0.02971 -0.00624 -0.00801 -0.1489 0.00534 0.006073 0.00735 -0.01371
-0.0772 -0.003231 -0.03915 -0.0827 -0.0855 -0.002594 -0.1111 0.01165
0.0537 0.03464 -0.00847 -0.08905 0.001401 0.006157 0.0827 -0.008095
-0.07904 -0.003428 0.03302 -0.0794 -0.0355 -0.002441 -0.1118 -0.03806
0.0718 0.05643 -0.00821 -0.0869 0.003878 0.006134 0.0883 0.004597
-0.1481 -0.003334 0.03802 -0.05063 -0.0413 -0.002266 -0.03696 0.06006
00000000: 9ba9 952b 54aa 2da8 98ad 7b25 199d 531e
00000010: bd24 6bac cd30 dca8 4aa6 722c 2bb1 e722
00000020: 3bb3 6eb5 b5ad 3f2c dd2d dbad 7e30 73ad
00000030: 1dac 0ba0 25a6 ccb0 e4a5 6f28 1b2a b92f
00000040: e5b0 87ae 6b29 15b4 02a5 62b1 aa2a 2925
00000050: 652e ec27 72a5 fc2a 04ac f6a8 7dab 59af
00000060: 1bb1 28b1 2f2e d2af 0725 1b9b 6ba8 7da4
00000070: b4b1 5fa7 c1ac 5e1f ffaf 9fa9 73a7 9ba7
00000080: a7ab 1ea9 8b2a efb0 36ac fdb3 fb29 8f2d
00000090: 59a7 0ab0 aeb3 8f28 b2b0 4d9c d2b1 51b2
000000a0: f12d 9aad e1a9 8fae ec2c fbad 0219 14a7
000000b0: dea8 72b0 29b1 ff2c b1aa 3fb0 4429 ae2d
000000c0: 1c2d 52aa 87a9 ed26 a12b 7a9e a0b0 5bb1
000000d0: c52d 6329 e8aa 1a28 4626 c131 8422 97ad
000000e0: 3eab 61aa c42e ccac 6f24 d4aa 6430 842e
000000f0: 2a2b 082a b7aa 4d2a 1626 fe30 60a1 6c31
00000100: 4628 9230 112f 00af edb0 382a b5af 9529
00000110: ea2d 5ca8 6598 fea4 062a 9ea9 5d27 542e
00000120: 1d2e c9ab d7ac c4a4 89ab 0031 9eb1 cfaf
00000130: bfb0 6fac 952e 98b0 e0a4 bb9b 112a 41a8
00000140: 6396 dc26 5aa6 7c30 e614 11b0 69ae c22b
00000150: aeb0 6ba1 a330 37a9 b7ad bc1f 51af 9dae
00000160: d4ad f0a4 e9a2 e41f e42a 3e2d 29ac 3ba5
00000170: e927 5529 94ad 5faa 252d 7325 882a 11ac
00000180: 6627 7327 d49f ebac bb9c 901d 50a0 7ca7
00000190: 82a1 7d9a 35ac 82b0 4aac 3698 5924 fe2a
000001a0: 9b27 649e 1aa0 c4b0 781d 381e 871f 05a3
000001b0: f1ac 9e9a 03a9 4bad 79ad 5099 1caf f721
000001c0: e02a 6f28 56a0 b3ad bd15 4e1e 4b2d 25a0
000001d0: 0fad 059b 3a28 15ad 8ba8 0099 28af dfa8
000001e0: 982c 392b 34a0 90ad f11b 481e a72d b51c
000001f0: bdb0 d49a de28 7baa 49a9 a498 bba8 b02b

model/lstm/while/lstm_cell_4/MatMul_1 f2 [32, 1152]
-0.03952 0.1873 -0.05356 -0.03134 -0.11273 0.05997 -0.01952 -0.085
0.05048 0.0441 -0.01825 0.003296 -0.06082 -0.02432 0.012695 0.00538
0.05417 0.1283 -0.11884 0.1426 -0.0153 0.10315 0.0856 -0.1952
-0.05603 -0.03387 0.01857 0.05435 0.02942 -0.01469 -0.01881 0.1476
0.01388 -0.077 -0.0156 -0.1179 0.01924 -0.0317 -0.1252 0.1301
-0.01752 -0.0434 -0.07306 -0.1176 -0.1019 -0.05893 -0.0645 -0.07086
-0.215 -0.10803 -0.00262 -0.1355 -0.06137 -0.0958 -0.03488 0.1931
-0.0483 0.06274 -0.01153 0.05722 -0.06287 -0.2886 -0.1299 0.2537
-0.001546 -0.0804 -0.07043 -0.0517 -0.00844 -0.0756 0.02217 -0.04974
0.08997 -0.00609 -0.0752 -0.04102 -0.074 -0.04068 0.01704 -0.007713
-0.02028 0.06995 -0.03111 -0.04343 0.048 -0.0446 -0.0678 -0.05695
0.0002897 0.0788 -0.0204 0.0629 0.0673 0.0265 -0.05548 -0.07196
0.002005 -0.0533 0.0954 0.0956 -0.028 -0.007427 -0.005157 -0.001826
-0.065 -0.009895 0.0527 -0.01198 -0.03604 -0.01678 0.0818 0.0695
0.0389 -0.0283 0.0301 0.216 0.0974 0.001675 -0.03305 0.09515
-0.004738 -0.03308 0.1342 -0.0167 0.07886 0.01895 0.00877 0.0233
-0.1273 -0.1736 0.0678 -0.04193 -0.088 0.02254 -0.003716 0.3506
-0.02988 0.00475 -0.2389 -0.01917 0.01775 0.0925 -0.0577 -0.0382
-0.1514 -0.256 0.03476 -0.0991 0.04572 -0.0555 -0.04736 0.07
-0.1438 -0.002857 0.0231 -0.2808 -0.0447 -0.2073 -0.0773 -0.2776
-0.2019 0.001965 0.0372 0.132 -0.04852 -0.011856 -0.03223 -0.03223
0.0807 0.04437 -0.1844 0.03403 -0.01189 -0.0006585 0.0803 -0.0866
-0.06168 0.04837 0.04764 0.02779 -0.0331 0.2544 0.2173 -0.10284
0.1581 0.0481 0.0935 -0.00959 -0.05728 0.05704 0.02751 -0.01816
-0.004326 -0.0403 -0.0104 0.00983 0.009346 -0.00441 -0.01384 0.02861
-0.01045 -0.002794 0.02141 -0.01457 -0.00348 -0.008736 0.03223 0.0374
0.03177 -0.00211 -0.00987 -0.04993 0.01241 -0.003706 -0.0283 0.05627
0.02042 -0.002817 0.01834 0.01318 -0.05377 -0.00852 0.05267 0.05075
0.0349 -0.0997 -0.00818 -0.003325 0.01477 -0.003607 -0.02293 0.0586
-0.04407 -0.002796 0.0563 -0.0177 -0.10065 -0.00864 -0.04013 -0.00873
0.0437 -0.065 -0.0087 -0.01773 0.03842 -0.00403 0.008026 0.01921
-0.05127 -0.002804 0.02298 -0.03152 -0.0785 -0.008965 -0.01102 -0.05484
00000000: 0fa9 fe31 dbaa 03a8 37af ad2b ffa4 71ad
00000010: 762a a529 aca4 c01a c9ab 3aa6 8022 821d
00000020: ef2a 1b30 9baf 9030 d5a3 9a2e 7a2d 3fb2
00000030: 2cab 56a8 c124 f52a 8827 85a3 d1a4 b930
00000040: 1b23 eeac fda3 8caf ed24 0fa8 02b0 2a30
00000050: 7ca4 8ea9 adac 87af 86ae 8bab 21ac 89ac
00000060: e1b2 eaae 5e99 56b0 dbab 22ae 77a8 2e32
00000070: 2faa 042c e7a1 532b 06ac 9eb4 28b0 0f34
00000080: 5596 25ad 82ac 9eaa 52a0 d7ac ad25 5eaa
00000090: c22d 3c9e d0ac 40a9 bcac 35a9 5d24 e69f
000000a0: 31a5 7a2c f7a7 8fa9 252a b5a9 57ac 4aab
000000b0: bf0c 0b2d 39a5 072c 4f2c c926 1aab 9bac
000000c0: 1b18 d3aa 1b2e 1e2e 2ba7 9b9f 489d 7b97
000000d0: 29ac 11a1 bf2a 22a2 9da8 4ca4 3c2d 732c
000000e0: fb28 3fa7 b527 e932 3c2e dc16 3ba8 172e
000000f0: da9c 3ca8 4b30 46a4 0c2d da24 7e20 f725
00000100: 13b0 8eb1 572c 5ea9 a2ad c525 9c9b 9c35
00000110: a6a7 dd1c a5b3 e8a4 8b24 ec2d 63ab e4a8
00000120: d8b0 19b4 7328 58ae da29 1bab 10aa 7b2c
00000130: 9ab0 da99 ea25 7eb4 b9a9 a2b2 f2ac 71b4
00000140: 76b2 0618 c328 3930 36aa 12a2 20a8 20a8
00000150: 2a2d ae29 e7b1 5b28 16a2 6591 242d 8bad
00000160: e5ab 312a 192a 1d27 3da8 1234 f432 95ae
00000170: 0f31 282a fc2d e9a0 55ab 4d2b 0b27 a6a4
00000180: 6e9c 29a9 53a1 0821 c920 849c 16a3 5327
00000190: 5aa1 b999 7b25 76a3 219b 79a0 2028 ca28
000001a0: 1128 5298 0ea1 64aa 5b22 979b 3fa7 342b
000001b0: 3a25 c599 b224 c022 e2aa 5da0 be2a 7f2a
000001c0: 7828 61ae 30a0 cf9a 9023 639b dfa5 802b
000001d0: a4a9 ba99 352b 88a4 71ae 6ca0 23a9 78a0
000001e0: 9829 29ac 74a0 8aa4 eb28 209c 1c20 eb24
000001f0: 90aa be99 e225 09a8 06ad 97a0 a4a1 05ab
