HPC_Final_Study2_Complete_Test_Class_Balance_run_all/participants_session_transfer_train/participant_9/session_2/session_2_lite_models/indexpen_model.tflite (tflite, 768696 bytes, 45 tensors)

model/time_distributed_3/conv2d_1/BiasAdd;model/time_distributed_11/conv2d_3/Conv2D;model/time_distributed_3/conv2d_1/Conv2D;model/time_distributed_3/conv2d_1/BiasAdd/ReadVariableOp/resource f4 [16]
000000 32 04 46 be e5 87 26 be 64 84 e9 bc 9e 98 68 bd
       -0.19337538 -0.16262777 -0.028505512 -0.056786172
000010 08 5d ee 3d e9 e1 65 bd c6 d6 12 be a4 fb 16 bd
       0.11638838 -0.056123648 -0.14339742 -0.036861077
000020 c7 e0 bd bd 65 f5 f4 bd f4 4a 1f bd 05 f5 92 bd
       -0.092713885 -0.11960868 -0.03888984 -0.0717564
000030 7b 5e 49 be 63 4d 43 be 7c 90 1e 3d c1 e2 ff bd
       -0.19664948 -0.1907249 0.03871201 -0.12494422

model/time_distributed/conv2d/BiasAdd;model/time_distributed_8/conv2d_2/Conv2D;model/time_distributed/conv2d/Conv2D;model/time_distributed/conv2d/BiasAdd/ReadVariableOp/resource f4 [8]
000000 1f 73 41 3c a6 4c 05 bc 02 06 72 bc 0f df 8a 3c
       0.011807232 -0.00813595 -0.01477194 0.016952066
000010 86 51 97 3d e1 e3 f1 3c 7e 0a 18 3e 18 8f 4a 3c
       0.07388596 0.029527606 0.14847752 0.012363218

model/time_distributed_11/conv2d_3/BiasAdd;model/time_distributed_11/conv2d_3/Conv2D;model/time_distributed_11/conv2d_3/BiasAdd/ReadVariableOp/resource f4 [16]
000000 dd 0e 2b bc 1a 72 8f 3d 99 2a 32 3c 67 ee 02 3d
       -0.010440555 0.07004185 0.010874414 0.03196564
000010 38 8e 50 3d 22 c2 57 bb 1c 8d 4e 3c 08 d9 68 3d
       0.05091688 -0.0032922109 0.012606885 0.056847602
000020 ea 8d 17 3a 57 af bd bb 26 fc 01 3c 00 d8 30 3c
       0.000578134 -0.0057887244 0.007933652 0.010793686
000030 4d 65 59 3b e1 b6 24 b9 3d 3f 34 3c 43 a6 92 bd
       0.0033171952 -0.00015708386 0.011001405 -0.07160618

model/time_distributed_8/conv2d_2/BiasAdd;model/time_distributed_8/conv2d_2/Conv2D;model/time_distributed_8/conv2d_2/BiasAdd/ReadVariableOp/resource f4 [8]
000000 5c b9 b3 3d f4 d1 1a 3a 56 c4 8f 3c 37 28 68 3a
       0.08775589 0.0005905919 0.017549675 0.000885609
000010 ca eb d0 3b 8b c3 02 3e a4 52 49 3c 7a 29 8a bc
       0.0063757645 0.12769906 0.0122877695 -0.01686548

model/time_distributed_3/conv2d_1/Conv2D f4 [16, 3, 3, 8]
000000 a4 8e 6a 3d 8f b7 67 bd 4c 58 1e 3d e6 eb 85 be
       0.05726494 -0.05657154 0.038658425 -0.2615654
000010 2b f0 f4 3c 97 d7 a3 3c 2a 5e 83 bd 95 bd 53 bd
       0.029899677 0.020000262 -0.06414445 -0.05169447
000020 84 d9 d8 bc 8e 99 eb bb f8 c9 db 3b c9 e2 4d 3d
       -0.026470907 -0.007189936 0.006707426 0.050265107
000030 51 08 e6 3d d0 c3 1b 3d 87 28 48 3e 9a 0c 6c bd
       0.11232055 0.03802854 0.1954671 -0.057629205
000040 e8 5a 33 3d 85 8d fc bc 87 54 c3 bb 95 c2 a8 3c
       0.043787867 -0.0308292 -0.005961004 0.020600596
000050 9f 77 27 be 4d a4 1b bd 64 49 bf bc 10 bf 88 b9
       -0.16354226 -0.037998486 -0.023350425 -0.00026082294
000060 4d e2 0b bd ec eb 8a bd 9e 24 40 3c ec c3 87 bd
       -0.034151364 -0.0678328 0.01172748 -0.06629166
000070 ea 98 b8 bd 03 c6 79 3c 7a 51 29 3e 22 1b 0b ba
       -0.09013541 0.015244964 0.16534987 -0.00053064723
000080 f4 88 3a bd 92 b4 3e 3c 87 a5 b9 3c bb a3 95 3e
       -0.045540765 0.011639731 0.022661937 0.2922648
000090 94 59 b3 bd 02 cc 65 3c ab be 73 3c 26 2e c9 bb
       -0.0875732 0.01402569 0.014877002 -0.0061395345
0000a0 46 66 c6 bb 44 ee f9 3c 9b ca eb 3c b1 3f 90 bd
       -0.0060546724 0.030509122 0.028783133 -0.07043398
0000b0 9d 4c d3 3c 84 61 98 bd 44 d7 5e be a9 c1 75 bc
       0.025793368 -0.07440475 -0.21761805 -0.014999785
0000c0 db 5f 98 bc 2d 55 5c 3d 8d 6b 9c 3d ca cd 93 3d
       -0.018600395 0.053792167 0.07637701 0.072169855
0000d0 54 6b 95 bd 60 c0 10 38 a6 84 1c 3e 5f 91 8f bc
       -0.07295862 3.451144e-05 0.15284976 -0.017525373
0000e0 95 28 1f bd 5d ba 8a 3c 72 51 c1 3c 8b 4e 13 be
       -0.03885706 0.016934568 0.023598406 -0.1438543
0000f0 c1 38 03 be 40 d6 9e bd a0 57 90 3e 75 a7 cc bc
       -0.12814619 -0.07755709 0.28191853 -0.024982193
000100 e2 2c 65 bc df af af bc 7f 8e a3 bc 58 55 c8 bd
       -0.013987752 -0.021446167 -0.019965408 -0.09781903
000110 2a 64 15 bd 9e 4f 11 bd ae 47 f7 3e 40 e6 35 bd
       -0.036472477 -0.03547632 0.48296875 -0.044409037
000120 12 6d 63 3c 27 b2 7d 3c a5 fa c5 bd 64 1c 19 be
       0.013880985 0.015484369 -0.09666947 -0.14952236
000130 7f a7 a8 3d 09 83 cc bc ba 31 a4 be 35 6a 82 3d
       0.08235072 -0.024964826 -0.32069188 0.06367914
000140 78 11 05 3d 14 ee 50 bb 5d 2c 04 3c ea 47 bd bc
       0.032487363 -0.0031880187 0.008067218 -0.02310558
000150 c4 e1 c7 3d 07 e0 62 bd 45 8a 85 bc ca e5 da bc
       0.09759858 -0.05538943 -0.016301284 -0.0267209
000160 9b aa 2e bc 3e 90 e8 bb cb 3f 50 3d d0 33 7e bd
       -0.010660793 -0.007097273 0.050842088 -0.06206113
000170 4e 99 46 be 27 7f 02 3d ed 2d a0 3e eb 1d 91 bd
       -0.19394419 0.031859543 0.3128504 -0.070857845
000180 8a 7c a2 3b 64 93 d7 3c 6a 13 94 bd 47 6b 33 3e
       0.004958694 0.026315399 -0.072302654 0.17521392
000190 9d c0 39 3d cc eb ea bb 15 02 3c be 44 1d d6 3c
       0.045349706 -0.0071692225 -0.18360169 0.026137002
0001a0 12 2d a2 bd e4 08 4d 3c e3 62 0c 3d fd c3 98 ba
       -0.07918753 0.012514327 0.034273993 -0.0011655089
0001b0 11 12 9b 3d 50 12 71 bc 8e 12 a9 be 1a ba 83 3c
       0.07571805 -0.014713839 -0.3302197 0.016079951
0001c0 88 16 be bd bd 09 30 3d 8c cd 12 3d 65 06 fb bd
       -0.09281641 0.042978037 0.035840556 -0.12257079
0001d0 ff b9 41 3d 1a b1 a2 3d ff 36 7c 3e 13 1b 3f bb
       0.04729652 0.07943936 0.24630354 -0.0029160425
0001e0 75 8b 47 3c de 64 46 3b 45 6f 02 bd 9d 1e 57 bd
       0.012179245 0.0030272524 -0.031844396 -0.05251943
0001f0 e8 8e 19 3e 7c 75 0b 3d eb e2 14 bb bf 80 0d bd
       0.1499592 0.03404759 -0.0022718261 -0.03454661
000200 27 3b e9 3c 9b 6b 4c 3c 95 60 8e 3c 0a d5 08 be
       0.028470589 0.012476827 0.017380038 -0.13362518
000210 04 71 ee bd ac 34 a1 3b ca 9f 50 3e 56 20 30 3d
       -0.1164265 0.004919609 0.20373455 0.042999588
000220 ec a6 5d 3d 66 b7 2a 3c bd 2f a4 bc 9d e7 2b 3c
       0.054114267 0.010419702 -0.020042295 0.010492233
000230 23 73 00 be c2 2d f3 bb df 93 be 3e 5e 5c 34 3d
       -0.12543921 -0.0074212262 0.37222192 0.0440334
000240 08 17 37 bd 7e 6b 9c bc e8 fe ff bc d2 62 a1 bd
       -0.0446997 -0.019094225 -0.031249478 -0.078801766
000250 1e a4 0b be b4 6f 07 bc d1 1e 11 be bd b3 1a 3d
       -0.13636824 -0.008266378 -0.14171912 0.037769068
000260 72 20 6a bd c9 06 5b bb 40 4e f3 bd 44 56 17 bd
       -0.05715985 -0.0033420792 -0.118801594 -0.036947504
000270 7c 37 26 bd ec de bd 3c 9a 34 46 3e 49 fc ac 3b
       -0.040580258 0.023177586 0.19356003 0.005279098
000280 e6 64 65 bd 7e 60 6d bd a1 56 18 3c 4f 69 9f 3c
       -0.056004427 -0.05795335 0.009297998 0.019459395
000290 29 27 8b bd e5 bd 24 3d 34 a9 35 be 38 b3 9b bd
       -0.067945786 0.04022016 -0.17740327 -0.07602543
0002a0 39 ba fe 3b 9c cc b1 3c f9 d6 13 bd 7a d3 46 3e
       0.0077736643 0.02170401 -0.036093686 0.1941661
0002b0 80 50 5a be 37 f3 e9 3c eb 4e c8 be bd 42 27 3d
       -0.21319771 0.028558357 -0.3912271 0.04083513
0002c0 03 08 59 bd c6 02 ac 3d 8e 65 8b bd 19 72 18 bd
       -0.052986156 0.083989665 -0.068064794 -0.037218187
0002d0 6b 10 3a bd d6 a5 55 3c 19 e7 aa be a8 7b 45 bc
       -0.045425814 0.013040027 -0.3337944 -0.012053408
0002e0 9e a7 33 bc 58 01 01 bc 7d 02 48 3d 2e 1d 4e 3e
       -0.010965256 -0.0078738555 0.048830498 0.20128319
0002f0 60 54 37 37 41 01 15 bd 57 db 19 be f6 8c cd 3c
       1.0927295e-05 -0.03637815 -0.15025078 0.02509163
000300 62 21 68 3c 20 9f 9e bc a6 30 24 bd 68 85 ae bd
       0.014168115 -0.019362986 -0.040085457 -0.08521539
000310 9d 35 1c 3d c1 17 15 3d 52 8b 81 3d c2 82 19 bd
       0.038137067 0.036399607 0.06325401 -0.037478216
000320 4f 83 bc 3b a5 b2 10 3d e6 f7 2c bc c5 4f a8 be
       0.005752958 0.03532662 -0.0105571505 -0.3287336
000330 83 66 79 be 63 04 20 3c a4 89 17 3e d4 2a 63 bd
       -0.24355511 0.009766671 0.147986 -0.055460766
000340 7b cc 00 3c 3d 2a 7f 3c d3 cd 56 bb a7 21 a3 bc
       0.007861252 0.015574035 -0.003277649 -0.019913508
000350 9e fc c9 be 39 a6 82 bd 65 41 22 3e e3 d2 44 ba
       -0.39450544 -0.06379361 0.15845259 -0.0007508231
000360 2a 1f 65 bd ae 10 c2 3d 59 7c 5e bd 6a 86 c6 bd
       -0.055937923 0.09475838 -0.054317806 -0.09693606
000370 23 c4 6e 3d fc 17 ec 3c 90 da 78 3d 87 50 55 3c
       0.05829252 0.02882003 0.060755312 0.0130196875
000380 9a 9d 08 bd c0 0e 34 3d 19 45 1a 3c bd 30 e5 3d
       -0.033353426 0.04395938 0.009415888 0.11190937
000390 e9 fb 2e be 82 d1 38 bc c9 75 29 be 43 fb 58 3d
       -0.17088284 -0.011280419 -0.16548838 0.052973997
0003a0 0a 37 a8 bd ee bd 31 bc 69 03 9b 3d 03 01 8f be
       -0.08213623 -0.010848505 0.0756901 -0.2793046
0003b0 e9 44 56 bd 79 d3 be 3c 2c 47 39 3d 69 d3 24 bd
       -0.05231181 0.023294197 0.04523389 -0.04024068
0003c0 1c 44 1f 3d 47 b0 60 bc 83 02 af bc 71 e2 85 3c
       0.038883314 -0.013713903 -0.021363502 0.016343327
0003d0 d1 f3 ab 3b 86 b7 e2 bb 50 af 02 3d b1 f0 c6 3c
       0.005247571 -0.0069188504 0.031905472 0.024284692
0003e0 af 2f 95 3d 98 59 65 3d 58 fd 4a 3c 7d b8 ae bd
       0.072844855 0.055993646 0.012389503 -0.08531282
0003f0 cd ce 2e be 37 25 28 3d 33 76 06 be 11 0e 10 3d
       -0.17071076 0.041051116 -0.13131027 0.035169665

model/time_distributed/conv2d/Conv2D f4 [8, 3, 3, 1]
000000 e1 7a 05 bb 25 95 3d 3b 0c c6 b6 b9 cd af be 38
       -0.002036743 0.0028928008 -0.00034861302 9.0926515e-05
000010 18 01 92 bb e5 a5 20 bb da a7 39 3b cc 35 eb 3a
       -0.004455697 -0.0024512943 0.0028328807 0.001794511
000020 c5 7d f6 3a ba 15 27 bb 83 7b 9d ba 86 a9 30 3b
       0.0018805793 -0.0025495128 -0.0012014959 0.0026956513
000030 9c 35 1d b9 35 a1 29 bb 24 ed de bb ae ee ed 3a
       -0.00014992658 -0.002588344 -0.0068031717 0.0018152797
000040 b1 1b 20 3a ab 80 7f 3b bc fd 1d ba 42 77 45 bb
       0.0006107642 0.0038986604 -0.0006026884 -0.0030130898
000050 02 62 45 bb 49 a6 b1 3b 7c 45 4d 39 95 04 d1 3b
       -0.0030118232 0.005421434 0.00019576208 0.00637872
000060 90 2f 00 bb dd bb 62 bb 59 00 0b bb 68 59 2d bb
       -0.00195596 -0.0034596839 -0.0021209924 -0.0026450995
000070 65 b8 2a 3b a9 8b 9b 3a ff b9 25 3c cd cb fb bb
       0.002604985 0.0011867183 0.010115146 -0.007684207
000080 77 29 b1 bb e5 9e 3b bb 42 10 89 bb fb 65 8f 3c
       -0.0054065543 -0.0028628644 -0.0041828463 0.017504683
000090 9e ba 91 bb 74 bd c6 bb e6 b7 bf 3b 01 ba 12 3a
       -0.0044472953 -0.006065065 0.00585078 0.0005597175
0000a0 77 38 3f 3a 9c 5a 3e bb 62 b4 5e 3d 18 b5 44 ba
       0.00072944857 -0.0029045707 0.054371245 -0.0007503792
0000b0 2c 23 78 bb 6e 06 85 3b 6f b6 06 b8 36 86 8f 39
       -0.003786276 0.0040596044 -3.2117994e-05 0.0002737508
0000c0 b3 b1 f2 b8 0a 3e 97 39 1d 0c 42 3b 93 1c 12 3b
       -0.00011572558 0.00028847187 0.002960927 0.0022294864
0000d0 92 99 88 ba 42 61 23 b9 e2 a4 5b ba 1c c0 a1 3c
       -0.0010421744 -0.00015581123 -0.00083787565 0.019744925
0000e0 e1 08 96 bb 81 1f b4 3a 82 24 38 3a 0b b3 b3 3b
       -0.004578695 0.0013742299 0.0007024483 0.00548399
0000f0 b3 c4 a2 bb a6 ba 2c bd 21 c1 d4 bb a5 15 bd 3a
       -0.004967296 -0.04217019 -0.0064927493 0.0014426006
000100 ec e2 3b 3a b6 ec e8 b9 47 cd 52 bb 3d db a0 b9
       0.0007167298 -0.00044426852 -0.0032165812 -0.00030680923
000110 ed fc 1a 39 57 a4 1c 3b 0f 92 00 b9 42 df d3 b9
       0.00014780807 0.0023901665 -0.00012261442 -0.00040411396

model/time_distributed_11/conv2d_3/Conv2D f4 [16, 3, 3, 8]
000000 c6 9a 54 3e 7e ea 9c 3c 60 50 b2 bb 2d b9 ba 3b
       0.20762166 0.019154783 -0.0054417104 0.005698344
000010 fc f0 c1 be 58 28 82 be 61 30 ce bd 06 5a 7f bd
       -0.3787917 -0.25421405 -0.10067821 -0.062341712
000020 12 f4 95 3c fa eb 0c 3d 75 1d 1e 3b 60 b1 a7 bc
       0.018304858 0.034404732 0.0024126444 -0.020470321
000030 f3 66 b1 be 51 f4 8b 3e ec 0b 06 be 9d dd 67 bd
       -0.34648857 0.27334836 -0.13090485 -0.05660783
000040 d1 1e e0 bd cc db e7 3c 2c c6 f5 bb fd ab f3 bb
       -0.10943378 0.02830305 -0.0075004306 -0.007436274
000050 74 db bc be dc 71 a5 3d 7c 1a e6 3d ae 46 f3 bc
       -0.3688618 0.080783576 0.1123552 -0.029696789
000060 1d 94 43 be 9a 62 e3 bc f4 07 24 3c 70 8e 99 bc
       -0.1909947 -0.027756978 0.010011662 -0.018744677
000070 18 ed 62 3d 7b 73 0d 3e bb ef 9c be 43 03 b2 bc
       0.05540189 0.13813584 -0.3065165 -0.021730071
000080 cb 06 73 3d 02 b2 67 bd ff 0e 37 bc e5 5d bd 3b
       0.05933265 -0.056566246 -0.011173009 0.0057790154
000090 9f c9 c4 3c 4b 8d 9a bb 07 69 f5 3d cd 37 d3 3c
       0.024021922 -0.0047165505 0.11982923 0.025783444
0000a0 8c 15 2b 3d 50 e0 fa bc c2 9a a8 bc 29 6d e0 bb
       0.041768596 -0.030624539 -0.020581607 -0.0068489504
0000b0 d3 1a d5 3b 87 37 7b be a8 56 ef 3d 5c 25 24 3d
       0.006503442 -0.24532901 0.1168645 0.04007469
0000c0 b9 54 0c 3d 8b ee 7f bd d9 2b a8 3c 62 a1 db 3c
       0.034260485 -0.06248335 0.02052872 0.026810352
0000d0 b7 d3 1f bd de b2 f7 bd 82 ae fb bd 71 14 ee bc
       -0.039020266 -0.12094663 -0.12289144 -0.029062482
0000e0 35 88 01 3c 0b 73 9a 3c d9 4c d2 3b 69 7f 5c 3d
       0.007906009 0.018853685 0.0064178524 0.053832445
0000f0 a1 0e 56 3d c5 b5 be 3b e9 65 ca 3b 6e a3 00 bd
       0.052260045 0.0058200085 0.0061766994 -0.03140586
000100 f8 d1 94 3d 26 a9 b5 bc 19 a8 1d 3c 6a 79 8f 3d
       0.07266611 -0.022175383 0.009622597 0.0700558
000110 bd 74 a0 3e 55 83 83 bc 3e bb 90 be 9b 33 89 3d
       0.31339064 -0.016053835 -0.28267854 0.06699296
000120 a7 cc f8 3e 84 98 9d 3c f5 f9 26 3b 5b e5 a8 3d
       0.48593637 0.019237764 0.0025478576 0.08246871
000130 b2 b7 4d 3e 9f 9f 01 be 17 88 b2 be 44 7e 90 3c
       0.20089605 -0.12658547 -0.34869453 0.017638333
000140 1d 14 9a 3c d3 4e df bc 00 94 f5 bb 31 18 56 bd
       0.018808419 -0.027259266 -0.0074944496 -0.052269164
000150 72 a6 18 be b5 cc 11 3e be c2 fd bd 10 af 52 bc
       -0.14907244 0.14238246 -0.1239066 -0.012859121
000160 4e 6c ec be 5d bd ca bc be 0c 56 3c 34 0c 18 bc
       -0.4617638 -0.024748499 0.013064561 -0.009280253
000170 1e 9c c7 be dc db 20 be 02 01 9a 3e 75 53 cb 3c
       -0.38986295 -0.1570887 0.30078894 0.024820069
000180 27 0f 8c be 26 f7 1f bd 55 05 36 3d ab 1b 28 bc
       -0.2735531 -0.03905406 0.04443868 -0.010260503
000190 16 2a c8 be 67 3b 4c 3e 59 58 6a be 97 05 69 3d
       -0.3909461 0.19944535 -0.22885264 0.056890097
0001a0 dd 3b 52 3e 59 56 53 bc 5a ca 3f 3d 7e e4 99 3d
       0.20530649 -0.012899005 0.046823837 0.075142846
0001b0 40 41 8d be fb 12 9c be a3 22 33 be 9c 17 7b bd
       -0.27588844 -0.3048323 -0.17493682 -0.061301813
0001c0 ee 20 db 3d 23 bb 71 bd d6 d4 c2 bc 97 f3 54 3a
       0.1069964 -0.059016358 -0.023783129 0.0008123456
0001d0 ab ff 8c 3e 9d 45 79 bc ba b5 0e 3c 5a b9 90 3d
       0.2753881 -0.015214351 0.008710319 0.07066603
0001e0 db f0 13 3e 7f f6 5d bd 7b d4 24 3d cb 58 62 3c
       0.14447348 -0.054190155 0.0402417 0.013815115
0001f0 8a ba 25 3d 4a 2a 31 3e a5 37 68 be 0b 68 c7 3c
       0.0404611 0.17301288 -0.22677477 0.024341604
000200 51 72 53 be cc 98 1d bd 72 f7 9d 3d 6e db 8e bd
       -0.20649077 -0.038475797 0.07713212 -0.06975447
000210 73 28 18 be 5d dd 01 be e8 b4 0a be 10 6d 8b bd
       -0.1485918 -0.126821 -0.13545573 -0.068079114
000220 f5 4a a5 bd f5 3b 9a bd c6 9e c3 3c 4c d9 f6 3c
       -0.080709375 -0.07530967 0.02387942 0.030132912
000230 b4 b5 c5 be 97 78 03 be c6 49 41 3d 5c 18 26 bd
       -0.3861519 -0.1283897 0.047189496 -0.040550575
000240 1e e2 84 bc 05 b5 03 3c f7 86 05 3c bf 66 d6 bc
       -0.016221102 0.008038764 0.008149854 -0.02617204
000250 95 22 0e bd 7c 48 cd 3b ed 6f 6d 3c 21 09 8e bb
       -0.03470095 0.0062647443 0.014492017 -0.0043345843
000260 39 ff 56 bc 53 a3 02 3c 4f 25 1b 3c e0 89 e0 bc
       -0.013122373 0.00797351 0.009469344 -0.027409494
000270 ef 6d 0a bd b2 53 c2 3b 98 86 8b 3c 43 a3 75 bb
       -0.033796247 0.0059303874 0.017031953 -0.0037481345
000280 d2 30 4b bc f1 ad e7 3b 79 76 33 3c 68 ae ed bc
       -0.012401776 0.007070296 0.010953539 -0.029013827
000290 18 88 06 bd 42 5b ef 3b 2f 10 48 3c fe 5b 64 bb
       -0.032844633 0.00730458 0.01221089 -0.003484487
0002a0 18 ab a1 3c f7 d8 0e bc ae 07 a4 3c bd 89 33 ba
       0.019734904 -0.008718721 0.020023193 -0.00068488327
0002b0 f3 19 79 3b a1 9f e6 bc 85 22 23 3c bd 72 85 bc
       0.0038009852 -0.028152289 0.009956961 -0.016290063
0002c0 b7 53 80 3c e6 ff 37 bc 28 c8 ae 3c 36 52 aa b9
       0.015664918 -0.011230445 0.021335676 -0.0003248618
0002d0 74 d8 02 3c fd 68 fc bc d0 39 d5 b9 29 e9 8f bc
       0.007986177 -0.030811781 -0.000406696 -0.017567234
0002e0 c5 74 ef 3b f8 b8 55 bc 08 fe b7 3c dd 1a bc b8
       0.007307621 -0.013044588 0.022459999 -8.969542e-05
0002f0 5f 18 5b 3c 9d 9b 19 bd 39 b2 4c 3c f8 31 90 bc
       0.01337251 -0.03750192 0.0124936635 -0.017601952
000300 86 11 9c 3c be f2 d8 3c 59 97 65 bc 37 45 16 bc
       0.019051325 0.026482936 -0.014013135 -0.009171776
000310 a9 b6 29 3c 07 b1 21 3a d6 f5 a3 3c 86 ad aa 3c
       0.010358491 0.0006168042 0.020014685 0.020834696
000320 bf 95 c0 3c ae a7 ce 3c b6 1e 97 bc 99 e1 20 bc
       0.023508905 0.02522644 -0.018447261 -0.009819412
000330 09 2b 1f 3c 2c 66 be 3b 33 eb 60 3c 1d 4a c9 3c
       0.00971485 0.0058105197 0.013727951 0.024571473
000340 a6 50 3d 3c 58 33 c0 3c ed e7 a5 bc 22 1a 2b bc
       0.011554873 0.023461983 -0.020252192 -0.010443242
000350 79 a3 42 3c 44 00 e9 3b a8 89 74 3c 94 49 e2 3c
       0.011879795 0.0071106274 0.014925398 0.027622975
000360 52 79 55 be 65 38 06 bc b5 c8 7a 3c 47 04 bc 3b
       -0.20847061 -0.008192156 0.015306641 0.0057378146
000370 7d b7 d6 3d d7 f4 27 bd 7c 23 62 be 8a 98 1a 3d
       0.10484216 -0.04100498 -0.22083849 0.03774313
000380 66 23 4f 3e 53 96 6a bc a3 5e 69 3c b6 71 64 3b
       0.20228347 -0.014318067 0.014243755 0.0034857816
000390 b4 2b b9 3d 36 15 d3 38 9e 1c 85 be 43 3e dd 3c
       0.09041539 0.00010065215 -0.25998396 0.027007228
0003a0 69 65 b0 3b 03 3c fd bb 04 75 56 3c 5f cf 8f bc
       0.005383183 -0.007728101 0.013089422 -0.017554937
0003b0 7e 48 c1 bd 72 ea ec 3d 0c 78 23 3e 66 f6 a8 3c
       -0.09437655 0.115681544 0.15963763 0.020625304
0003c0 d8 4b bf 3e 07 d8 06 bc 31 26 2d 3b 48 40 39 3d
       0.37362552 -0.008230216 0.002642047 0.04522732
0003d0 33 5e 8b be c6 97 39 3e 8b 77 f8 bd a1 68 4a 3d
       -0.27220306 0.18124303 -0.12132176 0.04941619
0003e0 13 70 c3 bd 69 29 df 3b b4 df fa 39 1a 3d 1c bc
       -0.09542861 0.0068103564 0.00047850388 -0.009536052
0003f0 32 87 5d bd 4a 88 18 3d 9e 8a e9 bd 7d 7c 93 3a
       -0.05408401 0.03723935 -0.11403392 0.001125231

model/time_distributed_8/conv2d_2/Conv2D f4 [8, 3, 3, 1]
000000 85 5a a7 bc b5 a4 06 bd 7a 68 04 3d 65 c0 8c 3d
       -0.020428905 -0.03287192 0.0323262 0.06872634
000010 aa d7 92 bd 61 e3 1a 38 f5 5c 5d bd 2f 71 81 3c
       -0.07170041 3.6928224e-05 -0.05404373 0.01580104
000020 3a 39 1c 3d dd 64 81 3b d9 1a 6e bb 4f df b6 bb
       0.038140513 0.0039487914 -0.003633192 -0.0055808197
000030 f2 73 4c ba a9 ef 87 3a fd 54 b6 3a fb 6d 27 bb
       -0.00077992596 0.0010371107 0.0013910827 -0.0025547731
000040 06 fe 61 3a c2 5d 80 bb 5a 85 02 ba 8e 6b d0 bb
       0.0008620921 -0.003917427 -0.00049789774 -0.006360478
000050 be ca 15 3c d7 17 3c 3b 82 eb 37 3b 3b 58 b2 bb
       0.009142576 0.0028700733 0.0028063958 -0.005442647
000060 25 57 32 3b a2 85 20 3b cb 61 4d bb 5f 8a 86 3b
       0.0027212587 0.0024493714 -0.0031338807 0.0041058506
000070 65 50 f8 bb a6 2e 1f 3b cb 7c 8f bb 23 b8 65 3b
       -0.007577943 0.002428928 -0.00437889 0.003505238
000080 40 fc 2f 3b 06 cb 63 3a e9 1c 42 bb be 81 ca 39
       0.0026853234 0.00086896156 -0.0029619283 0.00038625108
000090 fb db 09 ba 0f 74 62 bb 8f fb ce 3a cb 1d 8a 3c
       -0.0005258915 -0.003455404 0.0015791523 0.01685991
0000a0 56 49 03 bd 4d d2 48 3c a4 0a 7c bb 26 cd 54 3c
       -0.03205236 0.012257171 -0.003845849 0.012988364
0000b0 26 32 9e 3c f0 bd 10 bd bc 9d 6b 3d 6c 0a c5 3c
       0.019311022 -0.03533739 0.057523474 0.024052821
0000c0 01 68 18 3d 29 a1 c8 bd 35 fc 21 3d 42 3f 16 bd
       0.03720856 -0.09796364 0.039547164 -0.03668142
0000d0 e4 b8 87 3d 47 92 17 bd 8c a3 bc 3c a1 3e 7d bd
       0.06627062 -0.037004735 0.023027204 -0.061827306
0000e0 af e3 30 3c 8d a2 5d bc 6a 06 e2 3c 5d 2a fd 39
       0.0107964715 -0.013527525 0.02759095 0.00048287484
0000f0 3a 9c 28 3c 10 f8 45 3d 10 50 98 bd 34 29 cd 3b
       0.010291154 0.048332274 -0.07437146 0.0062610153
000100 14 e8 18 bc 8b 8a 22 3b 3f 77 3f 3c f8 e9 d6 bc
       -0.0093326755 0.0024801816 0.011686145 -0.026234612
000110 9a 71 4a 3c a3 d2 a8 3a 21 27 c7 38 c4 3f 8a ba
       0.012356186 0.0012880157 9.496348e-05 -0.0010547568

model/lstm/TensorArrayV2_1 f4 [120, 1, 32]
000000 00 00 00 00 00 00 00 00 00 00 00 00 00 00 00 00
       0.0 0.0 0.0 0.0
000010 00 00 00 00 00 00 00 00 00 00 00 00 00 00 00 00
       0.0 0.0 0.0 0.0
000020 00 00 00 00 00 00 00 00 00 00 00 00 00 00 00 00
       0.0 0.0 0.0 0.0
000030 00 00 00 00 00 00 00 00 00 00 00 00 00 00 00 00
       0.0 0.0 0.0 0.0
000040 00 00 00 00 00 00 00 00 00 00 00 00 00 00 00 00
       0.0 0.0 0.0 0.0
000050 00 00 00 00 00 00 00 00 00 00 00 00 00 00 00 00
       0.0 0.0 0.0 0.0
000060 00 00 00 00 00 00 00 00 00 00 00 00 00 00 00 00
       0.0 0.0 0.0 0.0
000070 00 00 00 00 00 00 00 00 00 00 00 00 00 00 00 00
       0.0 0.0 0.0 0.0
000080 00 00 00 00 00 00 00 00 00 00 00 00 00 00 00 00
       0.0 0.0 0.0 0.0
000090 00 00 00 00 00 00 00 00 00 00 00 00 00 00 00 00
       0.0 0.0 0.0 0.0
0000a0 00 00 00 00 00 00 00 00 00 00 00 00 00 00 00 00
       0.0 0.0 0.0 0.0
0000b0 00 00 00 00 00 00 00 00 00 00 00 00 00 00 00 00
       0.0 0.0 0.0 0.0
0000c0 00 00 00 00 00 00 00 00 00 00 00 00 00 00 00 00
       0.0 0.0 0.0 0.0
0000d0 00 00 00 00 00 00 00 00 00 00 00 00 00 00 00 00
       0.0 0.0 0.0 0.0
0000e0 00 00 00 00 00 00 00 00 00 00 00 00 00 00 00 00
       0.0 0.0 0.0 0.0
0000f0 00 00 00 00 00 00 00 00 00 00 00 00 00 00 00 00
       0.0 0.0 0.0 0.0
000100 00 00 00 00 00 00 00 00 00 00 00 00 00 00 00 00
       0.0 0.0 0.0 0.0
000110 00 00 00 00 00 00 00 00 00 00 00 00 00 00 00 00
       0.0 0.0 0.0 0.0
000120 00 00 00 00 00 00 00 00 00 00 00 00 00 00 00 00
       0.0 0.0 0.0 0.0
000130 00 00 00 00 00 00 00 00 00 00 00 00 00 00 00 00
       0.0 0.0 0.0 0.0
000140 00 00 00 00 00 00 00 00 00 00 00 00 00 00 00 00
       0.0 0.0 0.0 0.0
000150 00 00 00 00 00 00 00 00 00 00 00 00 00 00 00 00
       0.0 0.0 0.0 0.0
000160 00 00 00 00 00 00 00 00 00 00 00 00 00 00 00 00
       0.0 0.0 0.0 0.0
000170 00 00 00 00 00 00 00 00 00 00 00 00 00 00 00 00
       0.0 0.0 0.0 0.0
000180 00 00 00 00 00 00 00 00 00 00 00 00 00 00 00 00
       0.0 0.0 0.0 0.0
000190 00 00 00 00 00 00 00 00 00 00 00 00 00 00 00 00
       0.0 0.0 0.0 0.0
0001a0 00 00 00 00 00 00 00 00 00 00 00 00 00 00 00 00
       0.0 0.0 0.0 0.0
0001b0 00 00 00 00 00 00 00 00 00 00 00 00 00 00 00 00
       0.0 0.0 0.0 0.0
0001c0 00 00 00 00 00 00 00 00 00 00 00 00 00 00 00 00
       0.0 0.0 0.0 0.0
0001d0 00 00 00 00 00 00 00 00 00 00 00 00 00 00 00 00
       0.0 0.0 0.0 0.0
0001e0 00 00 00 00 00 00 00 00 00 00 00 00 00 00 00 00
       0.0 0.0 0.0 0.0
0001f0 00 00 00 00 00 00 00 00 00 00 00 00 00 00 00 00
       0.0 0.0 0.0 0.0
000200 00 00 00 00 00 00 00 00 00 00 00 00 00 00 00 00
       0.0 0.0 0.0 0.0
000210 00 00 00 00 00 00 00 00 00 00 00 00 00 00 00 00
       0.0 0.0 0.0 0.0
000220 00 00 00 00 00 00 00 00 00 00 00 00 00 00 00 00
       0.0 0.0 0.0 0.0
000230 00 00 00 00 00 00 00 00 00 00 00 00 00 00 00 00
       0.0 0.0 0.0 0.0
000240 00 00 00 00 00 00 00 00 00 00 00 00 00 00 00 00
       0.0 0.0 0.0 0.0
000250 00 00 00 00 00 00 00 00 00 00 00 00 00 00 00 00
       0.0 0.0 0.0 0.0
000260 00 00 00 00 00 00 00 00 00 00 00 00 00 00 00 00
       0.0 0.0 0.0 0.0
000270 00 00 00 00 00 00 00 00 00 00 00 00 00 00 00 00
       0.0 0.0 0.0 0.0
000280 00 00 00 00 00 00 00 00 00 00 00 00 00 00 00 00
       0.0 0.0 0.0 0.0
000290 00 00 00 00 00 00 00 00 00 00 00 00 00 00 00 00
       0.0 0.0 0.0 0.0
0002a0 00 00 00 00 00 00 00 00 00 00 00 00 00 00 00 00
       0.0 0.0 0.0 0.0
0002b0 00 00 00 00 00 00 00 00 00 00 00 00 00 00 00 00
       0.0 0.0 0.0 0.0
0002c0 00 00 00 00 00 00 00 00 00 00 00 00 00 00 00 00
       0.0 0.0 0.0 0.0
0002d0 00 00 00 00 00 00 00 00 00 00 00 00 00 00 00 00
       0.0 0.0 0.0 0.0
0002e0 00 00 00 00 00 00 00 00 00 00 00 00 00 00 00 00
       0.0 0.0 0.0 0.0
0002f0 00 00 00 00 00 00 00 00 00 00 00 00 00 00 00 00
       0.0 0.0 0.0 0.0
000300 00 00 00 00 00 00 00 00 00 00 00 00 00 00 00 00
       0.0 0.0 0.0 0.0
000310 00 00 00 00 00 00 00 00 00 00 00 00 00 00 00 00
       0.0 0.0 0.0 0.0
000320 00 00 00 00 00 00 00 00 00 00 00 00 00 00 00 00
       0.0 0.0 0.0 0.0
000330 00 00 00 00 00 00 00 00 00 00 00 00 00 00 00 00
       0.0 0.0 0.0 0.0
000340 00 00 00 00 00 00 00 00 00 00 00 00 00 00 00 00
       0.0 0.0 0.0 0.0
000350 00 00 00 00 00 00 00 00 00 00 00 00 00 00 00 00
       0.0 0.0 0.0 0.0
000360 00 00 00 00 00 00 00 00 00 00 00 00 00 00 00 00
       0.0 0.0 0.0 0.0
000370 00 00 00 00 00 00 00 00 00 00 00 00 00 00 00 00
       0.0 0.0 0.0 0.0
000380 00 00 00 00 00 00 00 00 00 00 00 00 00 00 00 00
       0.0 0.0 0.0 0.0
000390 00 00 00 00 00 00 00 00 00 00 00 00 00 00 00 00
       0.0 0.0 0.0 0.0
0003a0 00 00 00 00 00 00 00 00 00 00 00 00 00 00 00 00
       0.0 0.0 0.0 0.0
0003b0 00 00 00 00 00 00 00 00 00 00 00 00 00 00 00 00
       0.0 0.0 0.0 0.0
0003c0 00 00 00 00 00 00 00 00 00 00 00 00 00 00 00 00
       0.0 0.0 0.0 0.0
0003d0 00 00 00 00 00 00 00 00 00 00 00 00 00 00 00 00
       0.0 0.0 0.0 0.0
0003e0 00 00 00 00 00 00 00 00 00 00 00 00 00 00 00 00
       0.0 0.0 0.0 0.0
0003f0 00 00 00 00 00 00 00 00 00 00 00 00 00 00 00 00
       0.0 0.0 0.0 0.0

model/dense/BiasAdd/ReadVariableOp/resource f4 [256]
000000 bc 9b d2 bc 3c 6d 96 3c 27 a3 dc 3c 10 02 38 3d
       -0.025709026 0.018362634 0.026933266 0.044923842
000010 66 f7 3a bd af b6 19 bb 4c 1a 72 bd 40 ab 3a bd
       -0.045646094 -0.0023454835 -0.05910711 -0.045573473
000020 ec c8 09 3b a4 ec 07 be 80 5d 71 bd 11 85 a4 3c
       0.00210243 -0.13273865 -0.05892706 0.020082982
000030 6e 82 99 3d 71 3b 0a bd 76 d0 a3 3c 51 a9 6a bd
       0.074955806 -0.033748094 0.019996863 -0.05729038
000040 d8 93 b9 bc 4a d9 f0 3c 9d 86 52 3d 3f cf e3 3c
       -0.022653505 0.029400486 0.05139791 0.027808784
000050 36 d8 9a 3c c9 69 61 3c a2 c8 1e bd e4 ab 9a 3d
       0.018901926 0.013758131 -0.038765557 0.07552317
000060 f1 79 83 3c be bb 7c 3c 42 87 47 bd 08 54 1f bd
       0.016049357 0.015425621 -0.048712976 -0.038898498
000070 b3 16 3d 3d b7 59 8e 3d 2c bb 8a bc 5e 5e ca bb
       0.046164226 0.069507055 -0.016934954 -0.0061758
000080 46 b5 a7 bd a7 67 87 bd 02 9a 5c bd ea 97 c2 bb
       -0.08188872 -0.06611567 -0.05385781 -0.0059385197
000090 cb 1c 1b bc eb 7c 09 bd fc 89 2c be ea 78 89 3b
       -0.009467314 -0.033566397 -0.16849512 0.0041953223
0000a0 51 a6 c4 bc e3 a4 c8 3a 74 06 93 bd 22 1d a9 3c
       -0.024005087 0.0015307929 -0.07178965 0.020643774
0000b0 7e 64 27 bd 19 e9 37 3d a7 00 c6 3c 64 9f ea bc
       -0.04086732 0.044900034 0.024170233 -0.028640456
0000c0 1a 30 a1 3d aa 16 31 bd 97 84 f8 bb b4 d0 dc 3d
       0.07870503 -0.043234505 -0.0075841653 0.107819945
0000d0 13 12 27 bc f9 0f df bc bf ae 23 bc c3 b4 33 bd
       -0.01019718 -0.027229296 -0.009990393 -0.04387356
0000e0 a1 fa 53 bd 3f cd cf bc 19 ec 29 3d 83 58 a3 bb
       -0.05175269 -0.025366424 0.041484926 -0.0049849167
0000f0 e5 63 04 3d 6f 13 a7 3b 48 63 bf bd a8 bf 97 3c
       0.03232183 0.005098752 -0.09345108 0.018524006
000100 f7 55 23 3d e9 db a3 bd 42 60 92 3d 3d 71 29 3d
       0.039876904 -0.08000929 0.07147266 0.041367758
000110 fe 8d 26 3d 6f 7c c0 3c b2 d2 47 bd b2 1e 09 bd
       0.040662758 0.023496835 -0.04878492 -0.03347654
000120 38 b3 3b 3d fc 9f 74 bd d2 2e 59 3c 8b f3 7c 3d
       0.045825213 -0.059722885 0.013255792 0.0617557
000130 fd 0f 34 3c d6 c3 bc bc 12 20 8c 3c 86 6b 56 3d
       0.01099014 -0.0230426 0.017105136 0.052348636
000140 c3 ab 0a bd 60 62 83 3c 71 2d 96 3c 83 e7 28 3d
       -0.03385521 0.01603812 0.018332215 0.04123641
000150 80 90 a5 bc 59 3d b7 bc 00 05 25 bd 8f 40 ff bc
       -0.020210505 -0.02236812 -0.04028797 -0.031158714
000160 d4 2c 4b 3d ab d8 5c bc 3a bf 8f bd 60 26 ca bc
       0.0496033 -0.013479392 -0.070188954 -0.024676502
000170 18 72 79 3c bd 2c 0e 3d f1 c6 9c 3d 71 02 b7 bd
       0.015224956 0.034710634 0.076551326 -0.089360125
000180 81 18 62 ba 23 c6 9a bc 89 77 86 bd 6e d8 8f 3d
       -0.0008624867 -0.018893307 -0.06565768 0.070237026
000190 8b 82 52 bd 92 95 11 3d ab d0 69 bb 37 c2 95 bd
       -0.051394027 0.035543032 -0.0035677354 -0.07312434
0001a0 56 20 97 bc 8c 49 95 3c de 6c ea bc 8f 76 80 3c
       -0.018448036 0.018223546 -0.028616365 0.015681533
0001b0 28 a7 01 3d 94 e6 bd bc 55 fd 96 3c ee 7e a8 3c
       0.031653553 -0.023181237 0.018431345 0.020568337
0001c0 15 5d 64 3d a5 81 88 3d cd 6e f4 3c b3 c6 02 bd
       0.055752832 0.06665353 0.02983799 -0.031927776
0001d0 ac f9 54 3d 09 56 89 bc 5c 7f e9 ba 21 c6 d5 bd
       0.05199592 -0.016764658 -0.0017814445 -0.10438181
0001e0 d4 3b 95 3c b5 b6 f0 bd ae db bc bc 27 90 33 bc
       0.018217005 -0.117535986 -0.02305397 -0.010959662
0001f0 31 98 75 3d 3d bc 87 3d ed 47 01 3d 9c f2 0d bd
       0.059959594 0.066277005 0.031562734 -0.0346552
000200 b9 db 7a 3d f7 cf 63 bc 54 df 7b bb ea 99 22 3c
       0.0612447 -0.013904563 -0.0038432674 0.009924391
000210 ee 28 9a bd 16 83 e6 bd c8 f5 86 3a ec 5c d3 3c
       -0.07527338 -0.112554714 0.0010296637 0.025801145
000220 ea 57 b6 bd 12 b2 e5 3d 0f 86 ba 3c 43 fc c0 3d
       -0.08903487 0.11215605 0.022769002 0.09423115
000230 d3 d8 76 bd d1 d0 23 3d 70 11 19 bd 57 49 53 bd
       -0.060265373 0.039994065 -0.037370145 -0.051583614
000240 91 c7 c2 bd bf d5 73 3d cb 1a 9f 3d 57 62 6c bc
       -0.095107205 0.059530016 0.07768782 -0.014427743
000250 4c ac c6 3d e5 99 de 3c 10 4c 0d bd 11 4a fa 3a
       0.09700832 0.027172992 -0.034496367 0.001909556
000260 58 d3 f5 bc 5a d3 ec bd 79 42 7e bd 83 db 51 3c
       -0.030008003 -0.115637496 -0.062075112 0.012808683
000270 37 e8 17 bd c1 f1 8a bc bd e5 66 3a a9 06 77 3d
       -0.03708669 -0.01696098 0.00088080374 0.060309086
000280 69 73 85 bd f5 ec 0f bd eb 98 b7 bd 00 dd 9e bc
       -0.06516153 -0.03513809 -0.08964714 -0.01939249
000290 c1 74 b9 bc 73 fd 1e bd 0b 46 12 3d d0 5f 0c 3c
       -0.02263868 -0.038815927 0.03571133 0.008567765
0002a0 a8 eb a0 3d 93 90 1e 3d 3b b7 e6 bd bb a4 a6 bd
       0.07857448 0.038712095 -0.11265417 -0.081368886
0002b0 ca 14 3f 3d fb 11 2f 3d 79 5b 88 3b 0d 70 39 bd
       0.046650685 0.042741757 0.004161295 -0.045272876
0002c0 f0 28 05 bd d0 dc 22 3d 40 f8 33 bc 84 68 07 3d
       -0.032509744 0.039761364 -0.01098448 0.03305866
0002d0 e9 26 18 3d a6 41 4b 3c 46 ce af 3d f2 6d 85 3d
       0.037146483 0.0124057885 0.085842654 0.06515111
0002e0 5e 0f 9a 3d cc 2c dc 3b 03 65 e2 3d 30 8a 7b bd
       0.07522462 0.0067192074 0.11054423 -0.061411083
0002f0 75 e6 0a 3e e4 20 ab bb 53 08 9e 3d 7c f3 4b bc
       0.13564475 -0.0052224267 0.077164315 -0.012448188
000300 83 c4 bf bc b2 ce e5 3c 3e e9 1e bd 29 bf 2b 3c
       -0.023409134 0.028052662 -0.038796656 0.010482588
000310 87 e4 07 3c 9c ce 8c 3d 3f 11 35 3d 25 cb 08 bd
       0.008294231 0.06875345 0.0442059 -0.03339686
000320 8e 05 8b 3c 8e 28 80 bd 40 48 62 bd 22 63 a4 bd
       0.016970422 -0.06257735 -0.055244684 -0.080267206
000330 60 4f db bd 2c a7 86 3c 9d ec 90 3d df 40 30 bd
       -0.10708499 0.016437136 0.070763804 -0.043030616
000340 c1 31 8f 3c fc f9 c1 3c 6f 80 f6 bc 9d 88 85 bc
       0.01747978 0.023678772 -0.030090539 -0.016300494
000350 79 f1 90 3c 54 82 38 3d d0 5e c3 bd 05 46 92 3c
       0.017693268 0.045046166 -0.095395684 0.017855654
000360 5f 00 67 bd d2 bf 4f 3d dc a5 e0 3c 1b ec 6b 3d
       -0.05639684 0.050720043 0.027422838 0.057598215
000370 22 6b 80 bc 6a 21 52 bd 3a cf 63 bc b2 8e 3e be
       -0.015676085 -0.051301397 -0.013904387 -0.18609121
000380 fb d4 56 3d fd 1c e8 3c ba 2d 28 3d ea 70 d8 3c
       0.052449208 0.028334135 0.041059233 0.02642103
000390 8f 4c 0c bd 51 ba 12 3c b5 27 58 3c 3d c4 9e bb
       -0.0342527 0.008955554 0.013193061 -0.004845171
0003a0 e0 13 bb 3d 86 1c d5 bc 88 1d 22 bd 89 f6 06 3d
       0.0913465 -0.026014578 -0.039578944 0.032949958
0003b0 c9 73 e8 bc 77 f5 35 3d f4 fb a3 bd 63 d7 39 bd
       -0.028375523 0.044423547 -0.080070406 -0.045371424
0003c0 c2 d4 99 bd 8e 8c 8b 3d 21 83 d2 bc 9b fd 1f 3c
       -0.075112835 0.06813918 -0.025697293 0.009765054
0003d0 93 0e a2 bd f5 4e f7 bc 3b be 73 3d d2 3b 6f 3c
       -0.07912936 -0.030189017 0.05950759 0.014601665
0003e0 f9 3e 1c 3d 24 cb 25 3d d4 9d 54 bc cb 1e df bc
       0.038145993 0.040476933 -0.012977082 -0.027236363
0003f0 c2 5e 25 3d ca 98 c4 3c be 31 2a 3d 9b 5d f7 bb
       0.04037357 0.023998637 0.041551344 -0.0075490004

model/last_layer/BiasAdd/ReadVariableOp/resource f4 [31]
000000 6f f3 ee bc b1 30 39 bd b5 96 5a 3d d9 d9 1b bd
       -0.029168813 -0.04521245 0.05336638 -0.038049553
000010 7e 69 50 3b 5f 64 1a 3c 93 dc f0 3c 78 b5 59 3c
       0.003180116 0.009423344 0.029402053 0.013287894
000020 24 f4 b5 bd 9d 9d a4 3c a6 d6 c7 3c 8a 6f 9e bc
       -0.08884457 0.020094687 0.024394345 -0.019340295
000030 68 0a 0a bc d7 ce 14 3c 3d 75 5d bb 0a 4a 33 3d
       -0.008425333 0.009082518 -0.0033791803 0.04377178
000040 3a 56 b1 bb 22 88 08 3d 5f fa 41 bc 9f ad 90 3b
       -0.0054118903 0.03333295 -0.011839478 0.0044152285
000050 7f 29 12 bd 69 c9 2a 3d 53 f3 53 bd 1d 65 0f 3c
       -0.035684105 0.041695986 -0.051745724 0.008752135
000060 ac 25 07 bd 73 06 4c 3c 88 06 9a 3c 95 04 f3 3b
       -0.03299491 0.0124527095 0.018801942 0.0074163177
000070 e5 22 07 bd 7f 8c 93 bc 1c 6f 4d bd
       -0.032992262 -0.01801133 -0.05015479

model/dense/MatMul f4 [256, 32]
000000 71 bd 63 3d 2c 76 52 3d eb 65 17 3e b8 e8 86 3c
       0.055600587 0.05138223 0.14784972 0.01646839
000010 8a ec aa 3d 55 54 6f bd e7 da aa 3d ae 4f c1 3d
       0.083458975 -0.058430035 0.083425336 0.09439026
000020 c8 ea 21 be fd 58 90 3c 5d ad 6d be 30 ae 6d bd
       -0.15812218 0.017620558 -0.23210664 -0.058027446
000030 77 37 89 be 69 99 96 bc 38 06 3c be 07 50 1b 3d
       -0.2680013 -0.018383699 -0.18361747 0.037918117
000040 3a 8e b2 bd 9f 5d d9 bb 19 0d c7 3c 52 e8 f9 bd
       -0.08718534 -0.006633475 0.024298238 -0.12202515
000050 1d 6a 35 3e b3 c6 95 3d f3 41 a7 3b 05 d0 2f 3e
       0.1771626 0.073132895 0.0051042973 0.17169197
000060 23 01 f7 bd 03 f5 97 bd 6a fb 37 3e a4 e6 e9 3b
       -0.12060764 -0.07419779 0.17967 0.00713809
000070 47 3b cc 3c 71 22 f7 bd 35 b2 09 bd d0 76 97 3c
       0.02493061 -0.12067116 -0.033617217 0.018489271
000080 a0 6c f0 3d 94 b7 81 bb 97 2c f5 bd 2e ed 25 bc
       0.117394686 -0.003958652 -0.119713955 -0.010127349
000090 4f 31 72 3d 5b 9c 8a 3d 98 d4 cd bd 14 59 35 bd
       0.059129056 0.06768104 -0.10050315 -0.044274405
0000a0 36 23 51 3d 6a 6d fc 3c 33 95 70 bb a8 53 cb 3d
       0.05105897 0.030813891 -0.0036710023 0.099280655
0000b0 1f 7f c9 3e 7e 7f c2 bb 44 de f6 bc 8d 08 d3 bc
       0.39354798 -0.0059356084 -0.030135281 -0.025760913
0000c0 4b 51 43 bd bb e0 57 3d 52 23 2b bd e1 3e a1 3d
       -0.04768495 0.052704554 -0.04178173 0.07873321
0000d0 c7 a1 a8 bd cd 15 97 bd 18 76 81 bd 63 a7 db bd
       -0.082339816 -0.07377205 -0.06321353 -0.10725286
0000e0 49 40 6a bb f2 c4 d9 bc bb 73 dd 3a 7f ee 91 bd
       -0.0035743883 -0.026583169 0.0016895452 -0.07125568
0000f0 2a 16 e7 3c 27 c1 05 bd cd 04 a6 3d d6 a3 02 bd
       0.02820881 -0.032654908 0.081063844 -0.031894527
000100 8b 2c 4f 3e 77 3a fe bd 15 32 1f bd e7 7c 63 3d
       0.20231836 -0.12413495 -0.03886612 0.055539038
000110 d2 7b 43 bc 51 58 35 bd 2d a7 a9 bc 0c a5 57 3e
       -0.0119313765 -0.04427368 -0.020709598 0.21059054
000120 8b a4 d0 bd 72 f4 e7 bc 3e 47 bd 3d a0 0e 9f bd
       -0.10187634 -0.028314803 0.09242104 -0.07766461
000130 1d bd 08 3e 26 97 46 3d 38 80 a7 3d 44 1c 9e bd
       0.13353391 0.04848399 0.08178753 -0.07720235
000140 7f 3e b5 3d 15 7f 59 bd af 41 a9 bc 80 47 e0 bd
       0.08849811 -0.05309971 -0.020661203 -0.109511375
000150 d1 9e 51 bd 01 f1 8e 3d 9a 0c 47 3c 3c a1 53 39
       -0.05117685 0.069795616 0.012149001 0.00020182593
000160 9e 92 88 38 b3 8a 3a bd b7 a8 85 bc c2 37 32 be
       6.512295e-05 -0.04554243 -0.016315801 -0.17404082
000170 53 c0 90 be 60 5f c0 3e 76 8d bf bd 5d 89 cc bd
       -0.28271732 0.37572765 -0.093531534 -0.099871375
000180 7e ae 58 3d a5 29 c5 bc 58 06 ae 3c 67 30 bf 3d
       0.052900784 -0.02406771 0.02124326 0.09335404
000190 62 e2 7b 3d 25 42 2e 3e c1 32 d0 bd ed 81 91 3d
       0.061495192 0.1701742 -0.101659305 0.071048595
0001a0 b2 07 7e bd d7 59 bb 3c 3d 11 3d bd ec 67 c7 bc
       -0.062019058 0.022869987 -0.046159018 -0.024341546
0001b0 af 7e 43 bd 99 c4 49 bd 70 89 51 be 5c 15 3c 3d
       -0.047728237 -0.049259756 -0.20462584 0.045918807
0001c0 c5 55 88 bd 7b 90 e6 3a 4c a8 0f be a7 cd bb 3d
       -0.06656984 0.0017590666 -0.14029044 0.091700844
0001d0 92 a2 ad 3d c1 c7 44 3e d2 f1 66 bd 44 74 72 bd
       0.084782735 0.19216825 -0.05638296 -0.05919291
0001e0 04 56 ef 3d 38 c8 1d be dd 65 33 bd 67 70 c2 3c
       0.11686328 -0.15408409 -0.043798316 0.023735238
0001f0 98 37 ac bd 6c fa 0f be 70 c5 39 3e 59 59 23 be
       -0.08409041 -0.14060372 0.18141723 -0.15952052
000200 c7 29 2f bd e7 23 15 3e 2d bb 66 be b3 74 2f 3e
       -0.04276445 0.14564477 -0.2253234 0.17134361
000210 7f 32 0d 3d 25 de 03 bc 81 af 13 be 26 e2 eb 3d
       0.034471985 -0.008048569 -0.14422418 0.11517744
000220 22 b7 17 be c0 ae 89 bd 56 28 e4 3d a9 ac 36 be
       -0.14815953 -0.06722784 0.11140506 -0.17839302
000230 67 2e c6 bc ee de 20 be ee c4 8a 3c e9 c2 c2 3d
       -0.024192048 -0.15710041 0.016939607 0.095098324
000240 9f 84 ef bd 31 bc 91 3d 7d b6 a3 3c df 8d aa bc
       -0.11695217 0.07115973 0.019984478 -0.020819603
000250 5c da 1d 3d 08 fb b7 3d 18 66 a4 3c 6f ac 3f 3d
       0.03853832 0.08983427 0.020068213 0.046795305
000260 80 f9 92 bd 38 e4 84 3a 56 14 b3 3c dd 27 9e 3d
       -0.071764946 0.0010138815 0.021860283 0.07722447
000270 b1 fa 51 bb e2 d4 93 bc 89 60 05 3d cd 76 f3 be
       -0.0032040293 -0.018045846 0.032562766 -0.47551575
000280 b5 79 ec 3c b1 54 a2 3d 62 9c 4a 3c 63 6d 97 bb
       0.028866628 0.0792631 0.012366386 -0.004621194
000290 55 d5 45 39 de c1 dd bd 52 91 ce bc be 91 96 3c
       0.00018866856 -0.10827993 -0.025215778 0.018380042
0002a0 d0 49 f4 bc 1f 9b 94 bd da c2 67 3d f6 1d a6 3d
       -0.029820353 -0.072561495 0.05658231 0.08111183
0002b0 e5 2b ae 3c 16 d6 8b bc 3e ea 5f bd ac 0d 63 bd
       0.021261165 -0.017069858 -0.05466675 -0.05543296
0002c0 c4 12 c6 bc 2d bc 28 3c 67 bd 5b 3d 37 80 dc 3b
       -0.02417887 0.010298771 0.053647425 0.0067291516
0002d0 04 98 dc bd 09 61 26 be 4c 1a 42 3d 26 34 9d be
       -0.10771182 -0.16247953 0.04738836 -0.3070385
0002e0 5f a9 ff bd 90 9a cb 3d 8f 41 94 be fa 60 36 be
       -0.12483477 0.0994159 -0.28956267 -0.17810431
0002f0 33 e1 44 bc b7 5b 64 bd 1b f0 84 3d 87 ae 1a be
       -0.012016582 -0.05575153 0.06491109 -0.1510564
000300 f1 74 25 bd 98 06 73 3e ff b9 06 be df 0f 07 bd
       -0.040394727 0.23732984 -0.1315689 -0.03297412
000310 e7 9d 6c bd db 14 21 bd c5 03 24 3e 64 1d 27 be
       -0.057767775 -0.03932653 0.16017063 -0.16319805
000320 96 e6 a8 3d f6 87 33 bc e1 87 79 3d 4e 28 ec 3d
       0.08247106 -0.010957709 0.0609206 0.11531125
000330 ac 41 a0 3b f9 c7 05 be e4 48 34 3d df e5 a5 bd
       0.004890641 -0.13064565 0.044014826 -0.08100485
000340 70 e4 93 bd 94 8b 08 3c 49 85 67 3e 56 ea 7b bd
       -0.07221305 0.008334059 0.22609438 -0.061502777
000350 ac c4 bc 3c 40 db 1d be f3 4a b1 3d f6 69 29 3e
       0.023043 -0.15415668 0.086568736 0.16544327
000360 f7 c3 3c bd 07 24 82 3d 3b 85 5a bd d5 fe b2 3d
       -0.046085324 0.06354528 -0.053349715 0.087400116
000370 f9 64 eb 3d 9e 31 15 bc a8 de 9d bd 42 de 6c 3c
       0.114938684 -0.009106068 -0.07708484 0.014457287
000380 f1 a9 4a bd b0 7c 09 be 83 e1 91 bc ab e0 e5 3c
       -0.049478475 -0.13426471 -0.017807728 0.028061232
000390 c5 13 b4 bd aa 0c e7 3c cc 18 64 bd 7e d8 07 bd
       -0.08792833 0.02820428 -0.05568771 -0.033165447
0003a0 fc cc 5d 3c 03 1d d5 be 5a 30 fc 3d 2a dd d1 bd
       0.013537642 -0.41623697 0.1231391 -0.10247262
0003b0 7b c6 c6 3d f0 c9 01 bd c3 16 a1 3e ed ce 04 bd
       0.09705826 -0.031686723 0.31462678 -0.032423902
0003c0 5e 59 bd 3d 6a a0 b5 bd b8 5f 29 be 84 04 2c be
       0.09245561 -0.08868487 -0.1654042 -0.16798598
0003d0 e3 01 71 bd b5 c8 90 3d 7b 7d 87 3d 5b 32 2f 3e
       -0.05883969 0.07069532 0.066157304 0.17109053
0003e0 d7 15 49 bd 95 f5 66 bd 03 28 82 bd d3 a1 c7 bc
       -0.049093094 -0.05638655 -0.06355288 -0.024369156
0003f0 e3 22 40 b9 5c e3 9a 3d aa a6 0c 3d 24 dc d5 bd
       -0.00018323543 0.075628966 0.03433863 -0.10442379

model/last_layer/MatMul f4 [31, 256]
000000 00 97 5c bd 3f e2 71 3b fa 2d 5b bc 99 11 8b 3d
       -0.053854942 0.0036908535 -0.013377661 0.06790466
000010 39 b5 69 3d 83 76 a5 bc d2 98 bd bd 80 4b 3e bc
       0.057057593 -0.020198112 -0.09257664 -0.01161468
000020 ac fc 16 3d 51 07 c0 3d 57 06 b4 bd 4b 0f d2 bd
       0.03686206 0.093763955 -0.08790272 -0.10256823
000030 54 d5 bd 3c e6 80 c2 3d ef e9 16 be 2b 93 b6 bc
       0.023173012 0.09497242 -0.14737676 -0.022286972
000040 14 4d bf 3c f5 90 32 bd 9b d9 a3 3d 54 58 cb 3d
       0.023352183 -0.043595273 0.08000489 0.09928957
000050 78 be 9d 3d 70 d9 ae bb e6 b8 b0 bd 2c 99 0d bd
       0.07702345 -0.005335979 -0.086290166 -0.034569904
000060 21 d7 cf 3d 23 9c c3 bd e9 bc 9c 3d fb 34 a9 3d
       0.101484545 -0.09551265 0.07653219 0.08262058
000070 70 30 b8 bd d0 43 0e 3d e5 94 3c bd 58 bd b2 3d
       -0.08993614 0.03473264 -0.046040434 0.08727521
000080 b9 d1 7a bc 00 43 82 bc ec a6 de 3d 22 c8 6e 3d
       -0.015308791 -0.015901089 0.108716816 0.05829633
000090 be 46 4c bd f0 d8 da bc d2 55 3c 3d d0 14 1c bd
       -0.049872153 -0.026714772 0.045980282 -0.038105786
0000a0 ca 7b 2a bd 09 3b 1f bd 7c 51 94 bd 73 ff 93 bd
       -0.04162196 -0.03887466 -0.072421044 -0.072264574
0000b0 b0 9f c3 3c 34 c3 bd bd ac b5 9d bd 8a 44 59 bd
       0.023879856 -0.09265748 -0.07700667 -0.05304388
0000c0 7a 7e 7f 3d b0 ae b4 3d 09 15 4e bd 37 76 ee 3c
       0.062376477 0.088223815 -0.05031303 0.029109104
0000d0 7d b6 32 3d 80 47 81 3c e8 99 81 bb c4 c8 33 bd
       0.043631066 0.015781164 -0.0039551146 -0.043892637
0000e0 14 56 53 bd 3a 00 89 3d ab 82 81 bc d9 eb 6c bd
       -0.051595762 0.06689496 -0.015809378 -0.05784211
0000f0 40 07 80 bd d6 c7 ed bd 6e 60 5c 3d 69 08 e1 3c
       -0.06251383 -0.11610381 0.0538029 0.02746983
000100 0a eb c3 bd 2e 9d 3e 3d 17 cc fc 3c 8f 80 a3 bd
       -0.095663145 0.046536617 0.030859036 -0.07983505
000110 03 ad c1 bd 06 a9 06 3d 3b 1b 52 bd 43 98 c3 bd
       -0.094568275 0.032876037 -0.0512955 -0.09550526
000120 5c 38 26 bd dc d9 3a 3d d9 8a d9 bd a0 1d 14 3c
       -0.040581092 0.045617923 -0.10622186 0.009040266
000130 07 5e 6e 3d ca 90 43 bd 75 86 5e bc 74 22 a2 3d
       0.05819514 -0.047745503 -0.013581862 0.07916728
000140 fe 2a 44 bd 97 96 97 3d 1e 16 aa bd 01 d5 6c 3d
       -0.047892563 0.074017696 -0.08305 0.057820324
000150 7d 6e 3b 3d e3 e6 85 bd 25 1d 77 bd e9 5b 43 bd
       0.045759667 -0.06538179 -0.06033053 -0.047695074
000160 70 34 be 3d 56 81 58 bd 91 3d 22 bd 91 3e d1 bd
       0.092873454 -0.05285772 -0.039609496 -0.10217012
000170 a8 7c 70 bd e0 44 1f 3d 2c 54 ab 3c 43 a9 bf 3d
       -0.05871263 0.038884044 0.02091416 0.09358456
000180 bd 0a d4 bd 83 b4 84 bd f9 b2 99 3d 53 7c 88 bd
       -0.10353611 -0.064797424 0.075048395 -0.06664338
000190 e1 ec a6 3d 7b 4b 0b bd 7d 04 81 bd 69 ea d0 3d
       0.0815065 -0.03400753 -0.06299684 0.1020096
0001a0 5f 8b 93 3d 17 13 30 3d c2 50 54 3c fe 01 bf 3d
       0.07204317 0.042986955 0.012958707 0.09326552
0001b0 b9 e5 9e bd a2 91 89 3d 5c 27 94 bc 9a 15 34 bd
       -0.0775866 0.067172304 -0.018085174 -0.043965913
0001c0 1b 5b 8b bd 5d 55 05 3c 6c d2 09 3d 2c 82 f7 bc
       -0.06804486 0.008138028 0.03364794 -0.030213438
0001d0 c1 54 d1 3c 92 32 b2 bc 0d 72 a8 3d 3d 1c a3 3d
       0.02555311 -0.02175263 0.082248785 0.079643704
0001e0 e7 ee 46 3d ad 29 51 bd 2a c1 ba 3d bb 8d 8c 3d
       0.04856768 -0.051065136 0.09118874 0.068629704
0001f0 65 19 bd bc 90 56 4e bd 0e c3 84 bd c4 3e 1c 3e
       -0.023083398 -0.05037552 -0.06482516 0.15258318
000200 45 b2 e4 3b df c7 97 3d c8 e3 ab bd 32 c5 0d bd
       0.006979259 0.07411169 -0.08393055 -0.03461189
000210 20 fe 40 bd a4 18 2f 3c d8 8c 21 3d c1 e6 bc bc
       -0.047117352 0.010687027 0.03944096 -0.02305925
000220 7f 7b ac bd 2a c5 8f bd 0d 79 d0 3d 98 6b da bd
       -0.084219925 -0.07020028 0.101793386 -0.10665053
000230 2f 5d 2f bd 81 d8 88 bd 7f 1c 58 3d 9c d8 fa bb
       -0.042813476 -0.0668192 0.05276155 -0.0076552164
000240 5a 78 29 3d b7 ca a1 bb d3 c7 5a 3d 72 15 93 3d
       0.04137454 -0.0049374956 0.053413223 0.07181825
000250 d8 22 00 3e 5c 95 0b 3b 75 87 87 bd 60 eb 13 be
       0.12513292 0.0021298742 -0.06617633 -0.14445257
000260 d0 6f a7 bd f5 8a 5f bd c8 c0 84 bd ce 5c 53 3c
       -0.081756234 -0.05457588 -0.064820826 0.012900544
000270 4f 85 b9 bb 8f b3 d4 3c cc 79 d7 3c 47 b9 26 bd
       -0.0056616436 0.025964526 0.026303194 -0.040704038
000280 f5 64 36 3d e0 bd 3f bd b4 d2 a5 3d 4a 7c 71 3d
       0.044529874 -0.04681194 0.08096829 0.058956422
000290 91 eb f3 bd 93 ea 66 bd c2 c7 3e bd af 7b 8c 3d
       -0.11910165 -0.05637605 -0.046577223 0.06859528
0002a0 e4 aa 83 bd 90 73 0b bc 9f 5a 58 bd 11 c4 55 bc
       -0.06429079 -0.008511439 -0.052820798 -0.013047234
0002b0 70 2a 8b 3b f2 d0 a2 bd 01 7f 89 bd 34 7c a8 3d
       0.0042470023 -0.079500094 -0.06713677 0.08226815
0002c0 e2 df f8 3c 33 fd f5 3c 66 13 ac bd a8 e8 7f bc
       0.030380193 0.030027961 -0.084021375 -0.015619434
0002d0 e8 90 1f bd 15 bf 7a bc 99 a1 64 3d 60 ff 1f bd
       -0.038956553 -0.015304347 0.055818174 -0.039061904
0002e0 03 71 56 bd 41 14 ab 3d 2e 55 ef bd a6 a2 cf 3c
       -0.05235387 0.083534725 -0.116861686 0.025346112
0002f0 f4 f5 ce bd b1 6f ef bd 67 32 34 bd 7c d7 08 3d
       -0.101055056 -0.11691225 -0.04399338 0.033408627
000300 5e d3 7c 3d 28 97 a0 3c 2e 56 0b bd 3b 86 2a bd
       0.061725013 0.019603327 -0.034017734 -0.04163192
000310 c9 07 6e bd 5a da be bc 54 85 08 be 55 8b d3 bd
       -0.058112893 -0.023297478 -0.1333211 -0.1032931
000320 39 5f 75 bc 08 d8 5e bd cf 54 df 3d e5 91 b9 3d
       -0.014976316 -0.054405242 0.10904848 0.0906103
000330 97 40 c7 3c c9 2b 1a 3d 54 f0 93 bd 7f af 15 bd
       0.024322791 0.037639413 -0.07223573 -0.03654432
000340 57 b8 e1 bc 41 1f 57 3d d7 4f 80 3d 23 22 d2 3c
       -0.02755372 0.05252004 0.06265228 0.025651043
000350 f6 e4 a8 bd 1c b0 6d bd 78 66 ff 3d 1f 1a 0f 3d
       -0.08246796 -0.05802928 0.12470716 0.03493702
000360 89 df 5d 3d a9 65 1d bd 79 d4 d2 bb 70 81 8d bd
       0.054168258 -0.03842703 -0.00643402 -0.06909454
000370 64 19 3c 3c e1 d1 2c bc 3b ca 7c 3d 47 e7 c7 3d
       0.011480663 -0.010548086 0.0617163 0.097609095
000380 1e 32 f3 bc bc b2 0a 3c 60 7c 20 bd ed f3 da bc
       -0.029686984 0.008465465 -0.039181113 -0.026727641
000390 64 66 ba 3d 01 f9 98 3d a4 68 a5 bc 56 fe 90 bd
       0.09101561 0.07469369 -0.020191498 -0.07079761
0003a0 cc fd cf 3c f5 46 b3 3d df cb a2 3d 4a 21 b7 3d
       0.025389574 0.08753768 0.079490416 0.08941896
0003b0 23 b2 36 bb 9c 02 a1 bd f5 b7 01 3e 9b e3 98 3c
       -0.0027877174 -0.07861826 0.1266783 0.018663218
0003c0 a8 5f 8e bc 09 b9 6a bd ae e7 d6 3d 6b 5f 57 bd
       -0.017379597 -0.05730537 0.10493408 -0.052581232
0003d0 89 53 7a 3d 55 be 82 3d 47 f9 28 3c d0 70 b3 ba
       0.06111482 0.06383959 0.010313339 -0.0013690237
0003e0 90 d4 b4 3d 3e f6 82 bd 57 5f bd 3c f1 ee 2a 3d
       0.088296056 -0.06394623 0.02311675 0.04173178
0003f0 29 be 8f 3c 18 5a bb 3d 36 eb 71 bd c2 71 43 bd
       0.01754673 0.091480434 -0.059062205 -0.04771591

model/time_distributed_10/batch_normalization_2/FusedBatchNormV3 f4 [8]
000000 32 ca a0 bc e0 24 82 b8 ba e5 50 bc 16 2a 8d bc
       -0.019627664 -6.2057516e-05 -0.012750084 -0.017231982
000010 20 2b d3 3b d4 88 b9 bc 7c e2 7d bc 36 61 ce 3b
       0.00644435 -0.022648253 -0.015495893 0.0062982095

model/time_distributed_10/batch_normalization_2/FusedBatchNormV31 f4 [8]
000000 69 fc 3a 3e ca 1c 81 3d 43 01 01 3d bd d9 38 bc
       0.1826035 0.06304319 0.031495344 -0.011282382
000010 f2 26 0d 3e 25 3e 5b 3e 49 dd a5 3e 93 ff bf 3c
       0.13784388 0.21410425 0.3239539 0.023437297

model/time_distributed_13/batch_normalization_3/FusedBatchNormV3 f4 [16]
000000 7d 39 24 bd 8a af d1 bd 80 1d 0a b8 d6 4c ee bd
       -0.040093888 -0.102385595 -3.2929238e-05 -0.11635749
000010 66 ad 7c bd 2c e2 83 bb 8b 07 92 bd 78 3b f6 bd
       -0.061688803 -0.0040247645 -0.07130345 -0.120230615
000020 b0 e6 23 bd 21 f9 5c 3a dc cc 16 bd 46 40 22 bd
       -0.040014923 0.0008429457 -0.036816463 -0.039612077
000030 e3 aa 10 bd 4f 7d d4 ba f2 3d 76 bd e6 b6 03 3d
       -0.03531922 -0.0016211661 -0.06011767 0.032156847

model/time_distributed_13/batch_normalization_3/FusedBatchNormV31 f4 [16]
000000 25 cb 08 40 58 e4 68 40 f8 6c 85 3e b2 d7 f1 3f
       2.137399 3.638937 0.260597 1.889395
000010 6a fd 91 3f 03 e7 b3 bd d7 23 21 40 0f 64 a2 3f
       1.1405461 -0.08784296 2.5178125 1.2686785
000020 85 0a 49 40 79 ab ad bd c5 5c fe 3f 39 27 08 40
       3.141267 -0.084799714 1.9872061 2.127394
000030 8d dd 21 40 86 a7 6a be b6 d0 4f 40 22 3a 8b 40
       2.5291474 -0.22915468 3.2471137 4.3508463

model/time_distributed_2/batch_normalization/FusedBatchNormV3 f4 [8]
000000 2a 51 58 bb fe 98 2e bc f8 3b 13 bc f3 19 07 3c
       -0.0033007362 -0.010656593 -0.008986466 0.008245933
000010 c1 fd a2 bd e1 1b 6d 3b 71 41 c4 bd f8 c9 cb bb
       -0.07958556 0.0036179947 -0.095827945 -0.006219145

model/time_distributed_2/batch_normalization/FusedBatchNormV31 f4 [8]
000000 94 cb 9d bc 6c 42 e4 3c 48 94 4a 3d 53 85 d6 3c
       -0.019262113 0.027863704 0.04945782 0.02618662
000010 ce 52 e4 3d be 35 88 bc 84 50 c9 3d 48 5a d6 3a
       0.11148606 -0.016627189 0.0982981 0.001635381

model/time_distributed_5/batch_normalization_1/FusedBatchNormV3 f4 [16]
000000 20 ab 38 3b 54 d0 99 bd 85 1a 79 be 95 7c 8d be
       0.002817817 -0.075104386 -0.24326523 -0.2763411
000010 ed c9 2b bf 09 b2 ad be 7c 91 3b be 24 9c 31 be
       -0.6710499 -0.33924893 -0.18317217 -0.17344719
000020 c8 aa 98 be 1c 4c f8 bd 38 a2 e7 be 25 69 e4 be
       -0.29817796 -0.12123892 -0.4524095 -0.4461147
000030 9e 8b 0e 3d 20 cb 1a 3d bd 3f 24 bf 1c a2 76 be
       0.034801118 0.03779137 -0.64159757 -0.24085277

model/time_distributed_5/batch_normalization_1/FusedBatchNormV31 f4 [16]
000000 37 d5 aa 40 05 de 81 40 fc 77 79 40 72 ac 5e 40
       5.338527 4.058352 3.8979483 3.4792752
000010 bd fb 47 40 99 71 70 40 e0 02 5e 40 e8 ac b0 40
       3.12474 3.7569335 3.4689255 5.5211067
000020 bc 4b 65 40 63 c3 3e 40 9a 81 8e 40 fe bc 78 40
       3.5827475 2.9806755 4.4533205 3.8865352
000030 07 7f 99 40 5d 39 bd 40 38 3b 65 40 17 19 8d 40
       4.7967563 5.9132524 3.5817394 4.4093127
