HPC_Final_Study2_Complete_Test_Class_Balance_run_all/participants_session_transfer_train_fresh_model/participant_16/session_1/session_1_lite_models/indexpen_model_quant.tflite (tflite, 303344 bytes, 29 tensors)

model/time_distributed_6/conv2d_1/BiasAdd;model/time_distributed_6/conv2d_1/Conv2D;model/time_distributed_6/conv2d_1/BiasAdd/ReadVariableOp/resource f2 [16]
0.1232 0.07855 0.02019 0.0756 0.0937 0.09265 0.0373 0.1421
0.12115 0.1198 0.04092 0.12445 0.0843 0.1383 0.1079 0.10706
00000000: e32f 072d 2b25 d72c ff2d ee2d c628 8c30
00000010: c12f ab2f 3d29 f72f 652d 6d30 e82e da2e

model/time_distributed/conv2d/BiasAdd;model/time_distributed/conv2d/Conv2D;model/time_distributed/conv2d/BiasAdd/ReadVariableOp/resource f2 [8]
0.02095 0.0759 0.0645 0.00955 0.03766 0.11456 0.05865 0.02357
00000000: 5d25 dc2c 212c e420 d228 552f 822b 0926

model/time_distributed_6/conv2d_1/Conv2D f2 [16, 3, 3, 1]
0.04868 0.04623 -0.06775 0.006855 0.0223 -0.0415 -0.07166 0.03754
0.02643 0.02092 0.0977 -0.11084 -0.07587 0.1873 -0.1182 -0.002733
-0.1169 0.1356 0.0757 -0.2054 0.11115 0.07086 0.04666 -0.11505
-0.03177 0.0259 0.0027 0.00825 0.04248 -0.0716 0.01012 -0.00607
-0.01173 0.01495 -0.02937 0.01305 0.01591 -0.1494 0.147 -0.02206
0.0583 -0.03915 -0.03418 0.0538 -0.00488 0.1465 -0.07025 -0.05115
-0.05566 -0.057 0.1004 0.03665 0.04257 -0.05585 0.05377 -0.129
0.06006 0.01765 0.0759 -0.0968 0.01022 0.04703 -0.05573 -0.1043
0.0936 0.01495 0.03894 -0.05493 0.02142 -0.06433 0.0458 0.02028
-0.02364 0.00501 0.003813 0.07086 -0.0972 0.06107 0.1119 -0.1699
0.06213 0.05078 -0.0908 0.05234 0.01917 0.03036 -0.05966 0.03574
0.00806 -0.01675 -0.09705 0.173 -0.098 0.03091 0.07007 -0.0984
-0.04117 0.1417 -0.1034 -0.0717 0.2214 -0.1483 -0.1647 0.11804
0.04987 0.1406 -0.1676 0.03952 -0.09686 0.1829 -0.1069 -0.0892
0.1584 -0.0664 -0.07935 0.2081 -0.1418 -0.01772 0.10016 -0.06082
0.000692 -0.1279 0.1277 -0.006756 0.04065 -0.01535 -0.02321 -0.0257
0.009796 -0.02574 -0.0239 0.06433 0.08527 -0.1362 0.0432 0.0002537
-0.0322 -0.001555 -0.01298 0.02377 -0.002441 0.0767 -0.072 -0.01474
00000000: 3b2a eb29 56ac 051f b525 50a9 96ac ce28
00000010: c426 5b25 412e 18af dbac fe31 91af 9999
00000020: 7baf 5730 d82c 93b2 1d2f 892c f929 5daf
00000030: 11a8 a126 8819 3920 7029 95ac 2e21 379e
00000040: 01a2 a823 85a7 ae22 1324 c8b0 b430 a6a5
00000050: 762b 03a9 60a8 e32a ff9c b030 7fac 8caa
00000060: 20ab 4cab 6d2e b128 7329 26ab e22a 21b0
00000070: b02b 8524 dc2c 32ae 3c21 052a 22ab adae
00000080: fe2d a823 fc28 08ab 7c25 1eac dd29 3125
00000090: 0da6 211d cf1b 892c 39ae d12b 292f 70b1
000000a0: f42b 802a d0ad b32a e824 c627 a3ab 9328
000000b0: 2020 4aa4 36ae 8931 46ae ea27 7c2c 4cae
000000c0: 45a9 8930 9eae 97ac 1633 bfb0 45b1 8e2f
000000d0: 622a 8030 5db1 0f29 33ae da31 d7ae b5ad
000000e0: 1231 40ac 14ad a932 8ab0 89a4 692e c9ab
000000f0: ab11 18b0 1630 eb9e 3429 dca3 f1a5 94a6
00000100: 0421 97a6 1ea6 1e2c 752d 5cb0 8829 280c
00000110: 1fa8 5f96 a5a2 1626 0099 e92c 9cac 8ca3

model/time_distributed/conv2d/Conv2D f2 [8, 3, 3, 1]
0.01733 -0.03284 0.01365 -0.006683 0.03702 -0.00977 0.013145 -0.01513
0.00503 0.01391 -0.03087 0.0118 -0.011604 0.02058 -0.001187 -0.0099
0.0006146 0.001136 -0.006638 0.014626 -0.0124 0.006977 -0.02672 0.02658
0.001354 0.02611 -0.02493 -0.004166 0.005684 0.01572 0.02252 -0.03001
-0.011086 -0.01443 0.00798 0.01098 -0.003445 -0.01588 0.03506 -0.00702
-0.00606 -0.02419 -0.001204 0.01077 -0.004322 -0.0136 0.005795 -0.004684
0.01979 -0.01656 0.01385 0.01576 -0.00912 -0.0007305 0.01958 -0.01927
0.000944 -0.002218 0.01031 0.00612 0.01656 -0.0153 0.001853 0.01135
-0.009415 -0.01298 -0.015335 -0.004383 0.03705 -0.004017 -0.000551 -0.02599
00000000: 7024 34a8 fd22 d89e bd28 01a1 bb22 bfa3
00000010: 271d 1f23 e7a7 0b22 f1a1 4525 dd94 12a1
00000020: 0911 a714 cc9e 7d23 59a2 251f d7a6 ce26
00000030: 8c15 af26 62a6 449c d21d 0624 c425 afa7
00000040: ada1 63a3 1620 9f21 0e9b 11a4 7d28 309f
00000050: 359e 31a6 ee94 8421 6d9c f7a2 ef1d cc9c
00000060: 1125 3da4 1723 0924 aba0 fc91 0325 efa4
00000070: bc13 8b98 4721 441e 3d24 d5a3 9717 d021
00000080: d2a0 a5a2 daa3 7d9c be28 1d9c 8490 a7a6

model/lstm/TensorArrayV2_1 f2 [120, 1, 32]
0.0 0.0 0.0 0.0 0.0 0.0 0.0 0.0
0.0 0.0 0.0 0.0 0.0 0.0 0.0 0.0
0.0 0.0 0.0 0.0 0.0 0.0 0.0 0.0
0.0 0.0 0.0 0.0 0.0 0.0 0.0 0.0
0.0 0.0 0.0 0.0 0.0 0.0 0.0 0.0
0.0 0.0 0.0 0.0 0.0 0.0 0.0 0.0
0.0 0.0 0.0 0.0 0.0 0.0 0.0 0.0
0.0 0.0 0.0 0.0 0.0 0.0 0.0 0.0
0.0 0.0 0.0 0.0 0.0 0.0 0.0 0.0
0.0 0.0 0.0 0.0 0.0 0.0 0.0 0.0
0.0 0.0 0.0 0.0 0.0 0.0 0.0 0.0
0.0 0.0 0.0 0.0 0.0 0.0 0.0 0.0
0.0 0.0 0.0 0.0 0.0 0.0 0.0 0.0
0.0 0.0 0.0 0.0 0.0 0.0 0.0 0.0
0.0 0.0 0.0 0.0 0.0 0.0 0.0 0.0
0.0 0.0 0.0 0.0 0.0 0.0 0.0 0.0
0.0 0.0 0.0 0.0 0.0 0.0 0.0 0.0
0.0 0.0 0.0 0.0 0.0 0.0 0.0 0.0
0.0 0.0 0.0 0.0 0.0 0.0 0.0 0.0
0.0 0.0 0.0 0.0 0.0 0.0 0.0 0.0
0.0 0.0 0.0 0.0 0.0 0.0 0.0 0.0
0.0 0.0 0.0 0.0 0.0 0.0 0.0 0.0
0.0 0.0 0.0 0.0 0.0 0.0 0.0 0.0
0.0 0.0 0.0 0.0 0.0 0.0 0.0 0.0
0.0 0.0 0.0 0.0 0.0 0.0 0.0 0.0
0.0 0.0 0.0 0.0 0.0 0.0 0.0 0.0
0.0 0.0 0.0 0.0 0.0 0.0 0.0 0.0
0.0 0.0 0.0 0.0 0.0 0.0 0.0 0.0
0.0 0.0 0.0 0.0 0.0 0.0 0.0 0.0
0.0 0.0 0.0 0.0 0.0 0.0 0.0 0.0
0.0 0.0 0.0 0.0 0.0 0.0 0.0 0.0
0.0 0.0 0.0 0.0 0.0 0.0 0.0 0.0
00000000: 0000 0000 0000 0000 0000 0000 0000 0000
00000010: 0000 0000 0000 0000 0000 0000 0000 0000
00000020: 0000 0000 0000 0000 0000 0000 0000 0000
00000030: 0000 0000 0000 0000 0000 0000 0000 0000
00000040: 0000 0000 0000 0000 0000 0000 0000 0000
00000050: 0000 0000 0000 0000 0000 0000 0000 0000
00000060: 0000 0000 0000 0000 0000 0000 0000 0000
00000070: 0000 0000 0000 0000 0000 0000 0000 0000
00000080: 0000 0000 0000 0000 0000 0000 0000 0000
00000090: 0000 0000 0000 0000 0000 0000 0000 0000
000000a0: 0000 0000 0000 0000 0000 0000 0000 0000
000000b0: 0000 0000 0000 0000 0000 0000 0000 0000
000000c0: 0000 0000 0000 0000 0000 0000 0000 0000
000000d0: 0000 0000 0000 0000 0000 0000 0000 0000
000000e0: 0000 0000 0000 0000 0000 0000 0000 0000
000000f0: 0000 0000 0000 0000 0000 0000 0000 0000
00000100: 0000 0000 0000 0000 0000 0000 0000 0000
00000110: 0000 0000 0000 0000 0000 0000 0000 0000
00000120: 0000 0000 0000 0000 0000 0000 0000 0000
00000130: 0000 0000 0000 0000 0000 0000 0000 0000
00000140: 0000 0000 0000 0000 0000 0000 0000 0000
00000150: 0000 0000 0000 0000 0000 0000 0000 0000
00000160: 0000 0000 0000 0000 0000 0000 0000 0000
00000170: 0000 0000 0000 0000 0000 0000 0000 0000
00000180: 0000 0000 0000 0000 0000 0000 0000 0000
00000190: 0000 0000 0000 0000 0000 0000 0000 0000
000001a0: 0000 0000 0000 0000 0000 0000 0000 0000
000001b0: 0000 0000 0000 0000 0000 0000 0000 0000
000001c0: 0000 0000 0000 0000 0000 0000 0000 0000
000001d0: 0000 0000 0000 0000 0000 0000 0000 0000
000001e0: 0000 0000 0000 0000 0000 0000 0000 0000
000001f0: 0000 0000 0000 0000 0000 0000 0000 0000

model/dense_2/BiasAdd/ReadVariableOp/resource f2 [256]
0.0758 0.03854 0.0687 0.06174 0.05447 0.05893 0.0691 0.0199
0.05844 0.0723 0.07635 0.0392 0.02591 0.01784 0.07544 0.0233
0.0712 0.04065 0.02524 0.0662 0.0374 0.0535 0.04596 0.0684
0.0432 0.01852 0.0816 0.04633 0.0491 0.04092 0.05435 0.08307
0.02441 0.0851 0.0482 0.0289 0.07764 -0.007652 0.0319 0.1007
0.02658 0.007603 0.03928 0.04916 0.03983 0.04208 0.0482 0.0423
0.075 0.06335 0.05496 0.04938 0.05063 0.00865 0.05344 0.04492
0.0691 0.06256 0.1048 0.03455 0.12256 0.0385 0.12463 0.0851
0.0519 0.04315 0.0748 0.0599 0.038 0.0771 0.0948 0.0633
0.09045 0.0576 0.05188 0.04193 0.1019 0.03656 0.10077 0.07025
0.074 0.0501 0.0546 0.0793 0.0454 0.0689 0.0428 0.08374
0.02477 0.05722 0.0348 0.04657 0.07635 0.04794 0.0634 0.0969
0.0755 0.01842 0.0807 0.0663 0.0711 0.03021 0.0323 0.03223
0.03418 0.0348 0.05023 0.07556 0.0825 0.0656 0.02861 0.0355
0.02963 0.0656 0.0722 0.07056 0.07764 0.12244 0.04553 0.0772
0.0973 0.04703 0.04984 0.0389 0.05307 0.0845 0.01923 0.05447
0.0495 0.105 0.05453 0.0855 0.038 0.064 0.05295 0.05466
0.05106 0.0439 0.09607 0.04178 0.02823 0.02084 0.05792 0.05304
0.0709 0.05676 0.02396 0.06036 -0.001142 0.05054 0.05396 0.0764
0.03864 0.02629 0.0521 0.04333 0.07635 0.0486 0.1065 0.0778
0.04715 0.03964 0.06113 0.02821 0.05814 0.0929 0.04837 0.04465
0.12244 0.05933 0.06506 0.04752 0.02466 0.0567 -0.012276 0.04626
0.001835 0.06866 0.04767 0.03284 0.02998 0.05197 0.1022 0.05017
0.07135 0.0677 0.09406 0.0753 0.0769 -0.009125 0.0861 0.02327
0.05792 0.05408 0.05566 0.0725 0.04025 0.04007 0.07477 0.0686
0.0688 0.0526 0.087 0.0619 0.03326 0.04907 0.03296 0.068
0.09515 0.02722 0.02023 0.09375 0.0196 0.04358 0.09094 0.02654
0.0786 0.04303 0.08405 0.0519 0.02438 0.0584 0.06305 0.04095
0.09064 0.0772 0.01688 0.06088 0.04868 0.1295 0.04913 0.0582
0.01096 0.04306 0.03976 0.04163 0.1142 0.0635 0.0674 0.0283
0.03973 0.0737 0.02777 0.07336 0.0683 0.0748 0.05118 0.0409
0.0759 0.03342 0.0449 0.01926 0.07544 0.03525 0.02997 0.07104
00000000: da2c ef28 662c e72b f92a 8b2b 6c2c 1825
00000010: 7b2b a12c e32c 0529 a226 9124 d42c f725
00000020: 8f2c 3429 7626 3d2c ca28 d92a e229 612c
00000030: 8829 be24 392d ee29 492a 3d29 f52a 512d
00000040: 4026 722d 2b2a 6627 f82c d69f 1528 722e
00000050: ce26 c91f 0729 4b2a 1929 6329 2b2a 6a29
00000060: cd2c 0e2c 092b 522a 7b2a 6e20 d72a c029
00000070: 6c2c 012c b52e 6c28 d82f ee28 fa2f 722d
00000080: a52a 8629 ca2c ab2b dd28 ef2c 112e 0d2c
00000090: ca2d 5f2b a42a 5e29 862e ae28 732e 7f2c
000000a0: bc2c 6a2a fd2a 132d d029 692c 7a29 5c2d
000000b0: 5726 532b 7428 f629 e32c 232a 0f2c 342e
000000c0: d52c b724 2a2d 3e2c 8d2c bc27 2228 2028
000000d0: 6028 7428 6e2a d62c 482d 332c 5327 8b28
000000e0: 9627 332c 9f2c 842c f82c d62f d429 f12c
000000f0: 3a2e 052a 612a fb28 cb2a 682d ec24 f92a
00000100: 562a b82e fb2a 792d dd28 192c c72a ff2a
00000110: 892a 9f29 262e 5929 3a27 5625 6a2b ca2a
00000120: 8a2c 442b 2226 ba2b ad94 782a e82a e42c
00000130: f228 bb26 ab2a 8c29 e32c 392a d12e fb2c
00000140: 092a 1329 d32b 3927 712b f22d 312a b729
00000150: d62f 982b 2a2c 152a 5026 422b 49a2 ec29
00000160: 8417 652c 1a2a 3428 ad27 a72a 8a2e 6c2a
00000170: 912c 552c 052e d22c ec2c aca0 832d f525
00000180: 6a2b ec2a 202b a42c 2729 2129 c92c 642c
00000190: 672c bc2a 912d ec2b 4228 482a 3828 5a2c
000001a0: 172e f826 2e25 002e 0525 9429 d22d cb26
000001b0: 082d 8229 612d a52a 3e26 7a2b 092c 3e29
000001c0: cd2d f12c 5224 cb2b 3b2a 2530 4a2a 732b
000001d0: 9d21 8329 1729 5429 4f2f 102c 502c 3f27
000001e0: 1629 b82c 1c27 b22c 5f2c ca2c 8d2a 3c29
000001f0: dc2c 4728 bf29 ee24 d42c 8328 ac27 8c2c

model/last_layer/BiasAdd/ReadVariableOp/resource f2 [31]
-0.005566 -0.01532 -0.00751 0.01768 -0.00721 -0.00263 -0.00561 0.01388
0.00566 -0.0126 0.0022 -0.004234 -0.00897 0.002708 2.44e-05 0.01808
-0.00788 0.00427 -0.002329 -0.011566 -0.0006967 0.003815 0.00384 -0.00774
-0.01888 -0.01107 -0.01183 -0.01282 0.00779 -0.003675 -0.03363
00000000: b39d d8a3 b19f 8724 629f 6399 bf9d 1b23
00000010: cc1d 74a2 8118 569c 98a0 8c19 9901 a124
00000020: 09a0 5f1c c598 eca1 b591 d01b dd1b ed9f
00000030: d5a4 aba1 0fa2 90a2 fa1f 879b 4ea8

model/time_distributed_11/dense_1/BiasAdd/ReadVariableOp/resource f2 [64]
-0.029 -0.010345 -0.0272 -0.02274 -0.01659 -0.02216 -0.02242 0.00393
-0.004623 -0.02216 0.01456 -0.01976 -0.02733 0.01286 -0.01428 -0.02501
-0.0002174 0.000597 -0.01324 0.004936 -0.009285 -0.01054 -0.02081 0.003149
-0.0216 -0.02536 -0.02051 -0.02728 -0.03732 -0.01595 -0.0111 -0.008766
-0.01807 -0.03537 -0.02197 -0.02036 -0.02472 -0.02557 -0.005325 -0.002934
-0.00812 -0.03378 -0.01183 -0.006405 -0.03287 -0.01204 -0.01234 -0.02025
-0.00812 -0.002499 -0.01327 -0.003643 0.005356 -0.009285 -0.01628 -0.01588
-0.01277 -0.010284 -0.00686 -0.01383 0.005833 0.00305 -0.006348 -0.02188
00000000: 6da7 4ca1 f7a6 d2a5 3fa4 aca5 bda5 061c
00000010: bc9c aca5 7423 0fa5 ffa6 9622 50a3 67a6
00000020: 208b e410 c7a2 0e1d c1a0 65a1 54a5 731a
00000030: 88a5 7ea6 40a5 fca6 c7a8 15a4 afa1 7da0
00000040: a0a4 87a8 a0a5 36a5 54a6 8ca6 749d 029a
00000050: 28a0 53a8 0fa2 8f9e 35a8 2aa2 51a2 2fa5
00000060: 28a0 1e99 cba2 769b 7c1d c1a0 2ba4 11a4
00000070: 8aa2 44a1 069f 15a3 f91d 3f1a 809e 9aa5

model/time_distributed_5/dense/BiasAdd/ReadVariableOp/resource f2 [32]
-0.03732 -0.00281 0.02225 -0.01186 0.00851 -0.01836 -0.01504 0.02046
0.01105 0.01492 0.02461 -0.01653 -0.00438 -0.005894 0.0094 -0.0463
0.008545 -0.01089 -0.0005455 -0.02608 0.0046 0.00197 0.01991 0.004402
0.001596 0.02505 -0.00471 0.001874 0.02112 0.04 0.00129 0.002632
00000000: c7a8 c199 b225 13a2 5b20 b3a4 b3a3 3d25
00000010: a821 a423 4d26 3ba4 7c9c 099e d020 eda9
00000020: 6020 93a1 7890 ada6 b61c 0918 1925 821c
00000030: 8a16 6a26 d39c ad17 6825 1f29 4915 6419

model/dense_2/MatMul f2 [256, 32]
-0.05338 0.1315 0.1958 0.1144 0.0917 -0.1487 -0.04028 0.0684
0.21 -0.1729 0.0622 0.1525 0.0563 0.1775 -0.06256 0.05194
0.0686 -0.06143 -0.0713 0.05234 -0.08673 0.1389 -0.1455 -0.1892
0.01636 0.1604 0.01016 0.01671 -0.05176 0.10767 -0.1816 -0.05597
0.0375 0.0944 0.12463 0.1008 -0.2198 -0.0792 -0.07574 0.2212
-0.1361 -0.0444 -0.2155 0.1489 0.1041 0.02824 0.0739 0.01107
-0.3176 -0.08307 0.0373 0.05765 0.11926 -0.1886 0.1957 0.1646
-0.1805 -0.09155 -0.01724 -0.0995 0.05786 -0.076 0.005726 -0.02312
0.07935 0.01662 0.05777 -0.1348 -0.015495 0.11914 0.00717 0.1976
-0.1092 0.01303 0.1155 0.01648 0.1998 0.08325 -0.1451 0.1239
-0.01452 0.02687 -0.09845 0.08264 -0.01273 -0.03622 -0.2079 -0.1556
0.03992 -0.0625 0.1681 0.0704 -0.1351 0.0703 0.1199 0.02051
-0.06125 0.2272 0.05496 0.03406 -0.1244 0.10626 -0.1403 -0.1481
-0.00443 -0.1343 0.2175 -0.02797 0.1521 0.06082 0.2092 -0.0925
0.000522 0.0905 0.0924 0.2456 -0.0849 0.002813 -0.02887 -0.02281
-0.1454 0.1615 0.0857 -0.0009747 0.193 0.1951 -0.113 0.10724
0.1625 0.1428 -0.05777 -0.05624 0.0715 -0.08057 -0.01475 0.226
-0.02762 -0.0945 0.1675 0.2051 0.1033 0.0767 0.1862 0.1794
0.00504 -0.2352 -0.136 0.02113 0.02292 0.07056 -0.1714 -0.171
-0.00803 0.1083 -0.1274 0.04626 0.06805 0.02809 -0.0677 -0.1488
-0.0736 -0.1096 0.0124 -0.07874 0.0887 -0.0784 -0.12134 0.1156
0.05435 -0.1998 0.06207 -0.00409 0.2257 0.1912 0.04434 0.1498
-0.01878 0.00466 0.1478 0.00634 -0.0761 0.02617 -0.182 -0.012665
-0.06003 0.006725 0.0889 -0.128 -0.0847 -0.0012245 0.0572 0.1425
0.1219 0.0645 0.03735 0.1223 0.1018 -0.1561 0.1622 -0.005367
-0.03397 0.257 -0.2001 0.1139 -0.1395 -0.1672 0.1846 -0.01831
-0.06256 0.1072 -0.04858 -0.1588 0.09424 0.0638 0.05692 0.02098
0.01874 0.07635 0.2178 0.1112 0.2185 0.02794 0.08905 -0.0925
0.125 0.01262 -0.10754 -0.079 0.09827 -0.1244 0.01131 0.2266
-0.0684 0.0285 -0.0241 0.213 0.004944 0.02332 0.2333 -0.0825
0.003891 -0.1542 -0.04022 -0.1005 0.062 0.0677 -0.1465 -0.1599
-0.05084 0.04086 -0.11163 -0.05933 -0.007217 -0.02911 0.05017 -0.2189
00000000: d5aa 3530 4432 522f de2d c2b0 28a9 612c
00000010: b832 88b1 f62b e130 352b ae31 01ac a62a
00000020: 642c ddab 90ac b32a 8dad 7230 a8b0 0eb2
00000030: 3024 2231 3421 4724 a0aa e42e d0b1 2aab
00000040: cd28 0b2e fa2f 742e 09b3 12ad d9ac 1433
00000050: 5bb0 afa9 e5b2 c430 aa2e 3b27 bb2c ab21
00000060: 15b5 51ad c628 612b a22f 09b2 4332 4431
00000070: c7b1 dcad 6aa4 5eae 682b ddac dd1d eba5
00000080: 142d 4124 652b 50b0 efa3 a02f 581f 5332
00000090: fdae ac22 642f 3824 6532 542d a5b0 ee2f
000000a0: 6fa3 e126 4dae 4a2d 85a2 a3a8 a7b2 fbb0
000000b0: 1c29 00ac 6131 812c 53b0 802c ac2f 4025
000000c0: d7ab 4533 092b 5c28 f6af cd2e 7db0 bdb0
000000d0: 899c 4cb0 f632 29a7 de30 c92b b232 ecad
000000e0: 4710 cb2d ea2d dc33 6fad c319 64a7 d7a5
000000f0: a7b0 2b31 7c2d fc93 2d32 3e32 3baf dd2e
00000100: 3331 9230 65ab 33ab 932c 28ad 8da3 3b33
00000110: 12a7 0cae 5c31 9032 9c2e e92c f531 be31
00000120: 291d 87b3 5ab0 6925 de25 842c 7cb1 79b1
00000130: 1da0 ee2e 14b0 ec29 5b2c 3127 55ac c3b0
00000140: b6ac 04af 5922 0aad ad2d 05ad c4af 662f
00000150: f52a 65b2 f22b 309c 3933 1e32 ad29 cb30
00000160: cfa4 c61c bb30 7e1e dfac b326 d3b1 7ca2
00000170: afab e31e b12d 19b0 6cad 0495 522b 8f30
00000180: cd2f 212c c828 d42f 842e ffb0 3131 7f9d
00000190: 59a8 1d34 67b2 4a2f 77b0 5ab1 e831 b0a4
000001a0: 01ac dc2e 38aa 15b1 082e 152c 492b 5f25
000001b0: cc24 e32c f832 1e2f fe32 2727 b32d ecad
000001c0: 0030 7622 e2ae 0ead 4a2e f6af ca21 4033
000001d0: 61ac 4c27 2ba6 d132 101d f825 7733 48ad
000001e0: f81b efb0 26a9 6fae f02b 552c b0b0 1eb1
000001f0: 82aa 3b29 25af 98ab 649f 74a7 6c2a 01b3

model/last_layer/MatMul f2 [31, 256]
0.0062 -0.076 -0.01686 0.05963 -0.0911 -0.00278 -0.2379 -0.07965
-0.06445 0.05167 -0.1422 -0.10864 -0.1158 0.04187 0.04468 0.0355
-0.09753 -0.07025 0.04056 0.0784 0.02548 -0.1184 -0.039 0.001266
-0.05566 0.0007987 -0.03757 -0.0766 -0.0886 0.069 -0.07855 -0.00813
0.00809 0.03735 -2e-06 -0.02448 0.02763 0.07513 -0.03662 -0.1487
-0.0727 -0.05136 -0.0266 -0.1781 0.006023 -0.0347 -0.04785 0.002062
0.07556 0.04312 -0.0662 -0.0682 0.04153 -0.1348 -0.1305 -0.01409
0.06158 0.02281 0.0634 -0.06073 -0.0636 -0.05972 -0.12415 -0.1934
-0.012886 0.01058 -0.0782 -0.0404 -0.03543 0.0775 -0.04422 -0.13
0.02298 0.08563 -0.06934 -0.1747 -0.04715 -0.09814 -0.01198 0.02571
-0.1373 -0.07117 0.01162 -0.02715 -0.01776 -0.08 -0.1181 -0.0231
-0.0464 -0.1913 0.014 -0.1345 -0.1346 -0.02032 0.09216 0.0533
-0.02974 0.01839 -0.0167 -0.0974 0.05463 -0.0739 0.05316 -0.06714
0.04208 -0.000849 0.02283 -0.1631 -0.010506 -0.04074 -0.01706 0.05405
-0.125 0.02061 0.0004027 0.06323 -0.05222 -0.1387 -0.0681 0.03
-0.09845 -0.05405 -0.004017 -0.0497 -0.02791 -0.1646 -0.05713 -0.05444
-0.001485 -0.02812 -0.02008 -0.1109 -0.004585 -0.158 -0.1498 -0.3125
0.04663 -0.004795 -0.1037 0.0096 0.0239 -0.08167 0.04984 -0.0862
-0.04266 0.06964 -0.01289 0.07404 -0.02913 0.0314 0.02089 0.04907
0.075 -0.05164 -0.01636 0.05963 -0.03503 -0.1448 0.004154 -0.2144
-0.1472 -0.05695 -0.05777 -0.01584 0.008575 -0.05856 -0.1288 -0.03452
-0.1752 -0.1327 0.04318 -0.10034 0.0333 0.02705 -0.0885 0.05325
-0.0952 0.000289 0.0002354 -0.08777 -0.1458 0.01358 0.02191 -0.2091
-0.02315 -0.02284 0.01933 0.02103 -0.06216 -0.0324 -0.04742 -0.05203
-0.09656 -0.006115 -0.2131 -0.012405 -0.005215 0.04514 -0.10315 -0.02794
-0.1098 -0.02525 0.05615 -0.0964 -0.1077 -0.02312 -0.1298 -0.2323
0.0475 -0.03174 0.00846 0.03418 -0.03867 -0.11005 0.0323 -0.135
0.00476 -0.00805 -0.1929 -0.1293 -0.01903 -0.03683 -0.1043 0.06238
-0.10876 -0.1356 0.01988 -0.0907 -0.0916 0.0101 -0.115 0.00571
0.05838 -0.04083 -0.03534 -0.06024 0.0186 0.05707 -0.1769 -0.02338
0.09076 -0.05804 -0.02716 -0.1407 -0.1279 0.04672 0.02155 -0.0099
0.003725 0.0369 0.05814 -0.10535 -0.12494 -0.12317 0.001222 -0.03882
00000000: 591e ddac 51a4 a22b d5ad b299 9db3 19ad
00000010: 20ac 9d2a 8db0 f4ae 69af 5c29 b829 8b28
00000020: 3eae 7fac 3129 052d 8626 94af fea8 2f15
00000030: 20ab 8b12 cfa8 e7ac acad 6a2c 07ad 2aa0
00000040: 2420 c828 2280 44a6 1327 cf2c b0a8 c2b0
00000050: a7ac 93aa cfa6 b3b1 2b1e 71a8 20aa 3918
00000060: d62c 8529 3dac 5dac 5129 50b0 2db0 37a3
00000070: e22b d725 0f2c c6ab 12ac a5ab f2af 30b2
00000080: 99a2 6b21 01ad 2ca9 89a8 f62c a9a9 29b0
00000090: e225 7b2d 70ac 97b1 09aa 48ae 22a2 9526
000000a0: 65b0 8eac f321 f3a6 8ca4 1fad 8faf eaa5
000000b0: f0a9 1fb2 2b23 4eb0 4fb0 34a5 e62d d32a
000000c0: 9da7 b524 46a4 3cae fe2a bbac ce2a 4cac
000000d0: 6329 f492 d825 38b1 61a1 37a9 5ea4 eb2a
000000e0: 00b0 4725 990e 0c2c afaa 70b0 5cac ae27
000000f0: 4dae ebaa 1d9c 5daa 25a7 44b1 50ab f8aa
00000100: 1596 33a7 24a5 19af b29c 0eb1 cbb0 00b5
00000110: f829 e99c a3ae ea20 1e26 3aad 612a 84ad
00000120: 76a9 752c 9aa2 bd2c 75a7 0528 5925 482a
00000130: cd2c 9caa 30a4 a22b 7ca8 a2b0 411c dcb2
00000140: b6b0 4aab 65ab 0ea4 6420 7fab 1fb0 6ba8
00000150: 9bb1 3fb0 8729 6cae 4328 ed26 aaad d12a
00000160: 18ae bc0c b70b 9ead aab0 f422 9c25 b1b2
00000170: eda5 d9a5 f324 6225 f5ab 26a8 12aa a9aa
00000180: 2eae 439e d2b2 5aa2 579d c729 9aae 27a7
00000190: 07af 77a6 302b 2bae e5ae eba5 27b0 6fb3
000001a0: 142a 10a8 5520 6028 f3a8 0baf 2228 52b0
000001b0: e01c 1fa0 2cb2 23b0 dfa4 b7a8 adae fc2b
000001c0: f6ae 57b0 1725 cead ddad 2c21 5caf d91d
000001d0: 792b 3aa9 86a8 b6ab c324 4e2b a9b1 fca5
000001e0: cf2d 6eab f4a6 81b0 18b0 fb29 8425 12a1
000001f0: a11b b928 712b beae ffaf e2af 0115 f8a8

model/time_distributed_11/dense_1/MatMul f2 [64, 1488]
0.0623 0.03705 0.04434 0.02739 0.0566 0.07965 0.0632 0.0377
0.0852 -0.006874 0.0827 0.0119 0.05103 0.0005426 -0.02225 0.00326
0.0346 0.04962 0.01918 0.03644 -0.0177 0.0227 0.05194 0.02132
-0.03278 -0.01255 0.05484 -0.007538 -0.01738 0.01686 0.06805 0.0289
0.01933 0.01765 -0.04492 -0.02893 0.0161 -0.00323 0.05975 0.06635
0.04605 -0.000515 -0.01321 0.01776 -0.0279 0.02121 0.02522 0.0379
-0.000683 -0.0521 -0.03543 0.03305 0.0629 0.0823 -0.00745 0.00942
0.01104 0.0175 0.05698 -0.0361 -0.04947 0.09015 0.0321 -0.03111
0.07465 0.03516 -0.02022 0.0714 0.0711 0.0605 -0.00927 0.01161
-0.00703 -0.04 0.0745 0.03564 0.062 0.07495 0.0401 -0.02414
0.0272 0.04855 0.07556 -0.02005 0.01149 -0.03067 0.01355 0.03732
-0.02618 0.043 0.0496 0.00642 -0.0198 -0.006756 -0.04785 -0.043
0.0922 0.02849 0.04434 0.04 -0.03595 0.0966 -0.02167 -0.03824
0.022 -0.01692 0.01624 0.01929 -0.02028 0.08185 -0.03592 0.02353
0.01423 0.0658 0.0213 0.05426 -0.02092 0.0612 0.0801 0.04855
-0.0365 -0.01272 0.06885 -0.0327 -0.03111 0.02759 0.01472 -0.02118
0.05405 0.05792 0.0448 -0.01752 0.00712 0.05054 0.07697 0.03723
-0.01148 0.05054 -0.003014 -0.001427 0.05545 0.0977 -0.02422 0.0667
-0.04977 0.04083 -0.00632 -0.03033 -0.01489 0.005653 0.0931 0.0688
-0.05795 -0.00798 0.07947 0.06726 -0.01348 -0.01464 0.02751 0.03445
-0.04044 0.02159 0.082 -0.005276 0.0565 -0.02153 0.1268 -0.03296
-0.013115 0.04294 0.10803 0.03992 0.0175 0.0604 0.01898 0.03568
-0.04654 -0.05988 0.01029 -0.02292 0.0503 0.03967 0.0804 -0.00535
0.04697 0.01802 0.0834 0.002403 0.0636 0.04483 0.05783 0.06836
0.01752 -0.007656 0.0787 0.05862 0.05054 -0.0402 0.079 0.01616
0.031 -0.00737 0.06006 0.04413 0.119 -0.015205 0.0882 0.1017
0.00454 -0.04688 0.05524 -0.01552 0.07086 0.05588 0.05066 -0.00926
0.0719 -0.03644 -0.02849 0.0917 0.09644 -0.02649 0.03894 0.04602
0.0629 -0.0339 -0.0356 0.0802 -0.02629 0.06137 0.002312 -0.03992
0.05392 0.01625 0.00965 0.06305 0.06033 0.01613 0.0743 0.0215
0.0541 0.02596 -0.004356 0.0484 0.05292 -0.03873 -0.03357 0.01718
-0.02272 0.03702 -0.02823 -0.02997 -0.00728 -0.0372 0.06805 0.03772
00000000: f92b be28 ad29 0327 3f2b 192d 0b2c d328
00000010: 742d 0a9f 4b2d 1822 882a 7210 b2a5 ad1a
00000020: 6e28 5a2a e924 aa28 88a4 d025 a62a 7525
00000030: 32a8 6da2 052b b89f 73a4 5124 5b2c 6627
00000040: f324 8524 c0a9 68a7 1f24 9d9a a62b 3f2c
00000050: e529 3890 c3a2 8c24 24a7 6e25 7526 da28
00000060: 9891 abaa 89a8 3b28 072c 442d a19f d320
00000070: a721 7b24 4b2b 9fa8 55aa c52d 1c28 f7a7
00000080: c72c 8028 2da5 922c 8d2c be2b bfa0 f221
00000090: 339f 1fa9 c52c 9028 f02b cc2c 2229 2ea6
000000a0: f726 372a d62c 22a5 e221 daa7 f022 c728
000000b0: b4a6 8129 592a 931e 12a5 eb9e 20aa 81a9
000000c0: e72d 4b27 ad29 1f29 9aa8 2f2e 8ca5 e5a8
000000d0: a225 55a4 2824 f024 31a5 3d2d 99a8 0626
000000e0: 4923 362c 7425 f22a 5ba5 d52b 202d 372a
000000f0: aca8 83a2 682c 30a8 f7a7 1027 8923 6ca5
00000100: eb2a 6a2b bc29 7ca4 4a1f 782a ed2c c428
00000110: e1a1 782a 2c9a d895 192b 412e 33a6 452c
00000120: 5faa 3a29 799e c4a7 a0a3 ca1d f52d 672c
00000130: 6bab 16a0 162d 4e2c e7a2 7fa3 0b27 6928
00000140: 2da9 8725 3f2d 679d 3b2b 83a5 0f30 38a8
00000150: b7a2 7f29 ea2e 1c29 7b24 bb2b dc24 9128
00000160: f5a9 aaab 4521 dea5 702a 1429 252d 7a9d
00000170: 032a 9d24 562d ec18 122c bd29 672b 602c
00000180: 7c24 d79f 092d 812b 782a 25a9 0e2d 2324
00000190: f027 8c9f b02b a629 9e2f c9a3 a52d 822e
000001a0: a61c 00aa 122b f2a3 892c 272b 7c2a bea0
000001b0: 9a2c aaa8 4ba7 de2d 2c2e c8a6 fc28 e429
000001c0: 072c 57a8 8fa8 222d bba6 db2b bc18 1ca9
000001d0: e72a 2924 f120 092c b92b 2124 c12c 8125
000001e0: ed2a a526 769c 322a c62a f5a8 4ca8 6624
000001f0: d1a5 bd28 3aa7 aca7 749f c3a8 5b2c d428

model/time_distributed_3/batch_normalization/FusedBatchNormV3 f2 [8]
-1.687 -1.569 -1.548 -1.661 -1.72 -1.409 -1.288 -1.775
00000000: bfbe 47be 31be a5be e1be a3bd 27bd 1abf

model/time_distributed_3/batch_normalization/FusedBatchNormV31 f2 [8]
0.824 0.805 0.7954 0.888 0.878 0.7744 0.762 0.8037
00000000: 983a 713a 5d3a 1b3b 063b 323a 193a 6e3a

model/time_distributed_5/dense/MatMul f2 [32, 168]
0.0947 0.0816 -0.009544 -0.1667 0.1318 0.0269 0.06165 0.02487
0.009254 -0.0751 -0.05692 0.1348 0.04016 0.2405 -0.1678 0.0571
-0.0695 -0.0841 -0.07007 -0.1951 0.0919 0.01596 -0.02074 0.03406
0.08496 -0.01857 -0.0827 -0.1366 0.1484 0.1671 -0.0737 -0.001383
-0.2246 0.1256 0.04504 -0.0661 -0.1385 0.1791 -0.1421 -0.03387
0.1511 -0.0756 -0.138 -0.172 0.1205 0.03494 0.1137 0.01701
0.03534 -0.12305 0.036 0.01709 -0.235 -0.0433 0.1048 -0.0296
0.1318 0.11804 -0.06714 -0.188 0.1323 -0.2551 -0.0723 -0.0318
0.2451 0.0349 0.2039 0.1699 -0.0681 0.1192 0.2532 0.0679
-0.1583 -0.2272 -0.01143 0.02815 0.0461 -0.0439 -0.2446 -0.12366
0.2172 0.09314 -0.04282 0.1309 0.09576 -0.10864 0.1589 0.002182
-0.02223 0.2297 -0.05988 0.0386 0.09454 0.183 -0.06714 -0.03293
0.07654 0.177 0.04642 0.1437 -0.05518 0.005615 0.1495 0.0823
0.1611 -0.05817 -0.1289 0.11505 0.1276 -0.1595 0.1405 0.11096
-0.1743 0.1122 -0.0274 0.0115 0.0801 -0.01952 -0.0813 -0.0815
-0.00749 0.01839 -0.10803 -0.131 0.03595 0.0467 -0.103 -0.06586
0.02333 0.1168 0.1573 -0.1056 -0.05203 -0.2172 0.1663 -0.0726
0.07806 -0.003546 -0.10187 0.1328 0.05603 0.1315 -0.0905 -0.0863
0.03818 -0.06195 -0.1462 0.06476 -0.1118 0.128 -0.0794 -0.156
-0.0875 -0.1603 -0.0906 -0.0794 -0.1885 0.10486 -0.1372 -0.04138
-0.1544 0.07776 -0.11426 -0.02354 -0.10803 0.1427 -0.0008807 -0.09033
-0.10284 0.1696 0.08044 -0.189 -0.02437 -0.009346 -0.3008 0.05463
-0.1808 -0.06122 -0.02182 0.04932 0.002104 -0.1488 0.0305 -0.2278
-0.1002 0.03284 0.1385 -0.1423 -0.04608 0.01968 -0.09485 -0.001506
0.2544 0.005882 0.01442 -0.0197 -0.02759 0.1743 -0.0627 0.0747
0.09735 0.1392 -0.04932 0.2009 -0.04456 0.03616 0.1631 -0.0986
0.014984 0.04352 0.0411 -0.1714 0.08716 0.1473 0.01123 0.03235
0.1315 0.07996 -0.1647 -0.004204 -0.02821 0.02466 0.2422 -0.004852
-0.0845 0.063 -0.0893 -0.01999 -0.02867 0.1565 0.06186 -0.07184
0.1882 0.1594 0.1515 0.07684 -0.2473 -0.2625 -0.11005 -0.1206
-0.1523 -0.09357 -0.1598 -0.1807 0.1385 -0.0459 0.059 -0.005543
0.01053 0.0513 -0.05768 -0.0694 0.12146 0.06134 -0.0592 -0.11255
00000000: 102e 392d e3a0 56b1 3830 e326 e42b 5e26
00000010: bd20 ceac 49ab 5030 2429 b233 5fb1 4f2b
00000020: 73ac 62ad 7cac 3eb2 e22d 1624 4fa5 5c28
00000030: 702d c1a4 4bad 5fb0 c030 5931 b8ac aa95
00000040: 30b3 0530 c429 3bac 6fb0 bb31 8cb0 56a8
00000050: d630 d7ac 6ab0 81b1 b62f 7928 472f 5b24
00000060: 8628 e0af 9c28 6024 85b3 8ba9 b52e 94a7
00000070: 3830 8e2f 4cac 04b2 3c30 15b4 a1ac 12a8
00000080: d833 7828 8632 7031 5cac a12f 0d34 582c
00000090: 11b1 45b3 daa1 3527 e729 9fa9 d4b3 eaaf
000000a0: f332 f62d 7ba9 3030 212e f4ae 1631 7818
000000b0: b1a5 5a33 aaab f128 0d2e db31 4cac 37a8
000000c0: e62c aa31 f129 9930 10ab c01d c930 442d
000000d0: 2831 72ab 20b0 5d2f 1530 1bb1 7f30 1a2f
000000e0: 94b1 2e2f 04a7 e321 202d ffa4 34ad 37ad
000000f0: ab9f b524 eaae 31b0 9a28 fa29 98ae 37ac
00000100: f925 7a2f 0931 c2ae a9aa f3b2 5231 a5ac
00000110: ff2c 439b 85ae 4030 2c2b 3530 cbad 86ad
00000120: e328 eeab aeb0 252c 28af 1930 15ad feb0
00000130: 9aad 21b1 ccad 15ad 08b2 b62e 64b0 4ca9
00000140: f1b0 fa2c 50af 07a6 eaae 9130 3793 c8ad
00000150: 95ae 6d31 262d 0cb2 3da6 c9a0 d0b4 fe2a
00000160: c9b1 d6ab 96a5 502a 4f18 c3b0 cf27 4ab3
00000170: 6aae 3428 6f30 8eb0 e6a9 0a25 12ae 2b96
00000180: 1234 061e 6223 0ba5 10a7 9431 03ac c82c
00000190: 3b2e 7430 50aa 6e32 b4a9 a128 3831 4fae
000001a0: ac23 9229 4329 7cb1 942d b730 c021 2428
000001b0: 3530 1e2d 45b1 4e9c 39a7 5026 c033 f89c
000001c0: 68ad 082c b7ad 1ea5 57a7 0231 eb2b 99ac
000001d0: 0632 1a31 d930 eb2c eab3 33b4 0baf b8af
000001e0: e0b0 fdad 1db1 c8b1 6f30 e0a9 8d2b ad9d
000001f0: 6421 912a 62ab 71ac c62f da2b 94ab 34af

model/time_distributed_9/batch_normalization_1/FusedBatchNormV3 f2 [16]
-0.633 -0.6636 -0.475 -0.507 -0.6724 -0.6562 -0.5103 -0.6567
-0.6475 -0.687 -0.5444 -0.577 -0.6787 -0.6514 -0.6323 -0.6685
00000000: 10b9 4fb9 9ab7 0eb8 61b9 40b9 15b8 41b9
00000010: 2eb9 7fb9 5bb8 9eb8 6eb9 36b9 0fb9 59b9

model/time_distributed_9/batch_normalization_1/FusedBatchNormV31 f2 [16]
1.583 1.542 1.434 1.97 2.104 1.33 1.686 1.84
1.707 1.701 1.538 1.2 1.918 1.595 1.423 1.75
00000000: 553e 2b3e bc3d e13f 3540 523d be3e 5c3f
00000010: d43e ce3e 273e cd3c ac3f 613e b13d 003f

model/lstm/while/lstm_cell_2/MatMul_4 f2 [32, 32]
-0.0737 0.0602 -0.1366 0.0511 0.0281 -0.04034 0.0902 0.1022
-0.03616 -0.1313 0.01052 -0.1395 -0.05518 0.07434 -0.02621 0.04422
-0.01675 -0.00951 0.09894 -0.112 -0.03317 -0.0993 0.1953 0.1404
-0.05017 -0.05887 -0.011055 -0.0686 -0.07385 0.004555 -0.1164 0.02785
-0.02121 -0.02017 0.04413 0.0575 0.04214 -0.11475 0.1351 -0.1868
0.3018 -0.058 -0.10333 0.0999 -0.1508 0.03925 0.1398 -0.0752
0.11084 -0.1328 -0.10095 -0.03528 0.1247 -0.11334 -0.1646 -0.0956
-0.1592 0.1951 0.04727 -0.05954 -0.0249 0.047 0.0178 0.0903
0.08545 -0.02037 0.01178 -0.03506 0.055 -0.1943 -0.1383 0.02097
0.1214 0.07477 0.0317 0.03195 0.1035 0.2969 -0.05188 -0.0643
-0.03093 0.002886 -0.0974 -0.0963 0.03583 -0.281 0.0642 0.01062
-0.02971 0.006283 0.0428 0.02783 -0.1119 0.02461 0.11945 0.0642
-0.0915 0.05008 -0.1081 0.1854 -0.01576 -0.02774 -0.1271 -0.0267
0.06134 -0.09863 0.2366 -0.03677 0.12445 0.0812 0.03412 -0.04446
-0.09937 0.004753 -0.0287 -0.00973 0.10864 -0.0258 -0.02333 -0.2119
0.0742 -0.0549 0.0718 0.018 -0.06555 0.005016 0.05502 -0.1118
0.11017 -0.05933 -0.03314 0.0972 0.02461 -0.1201 0.0701 0.01498
0.005234 0.0602 -0.0111 0.01493 -0.10187 -0.00505 0.10077 -0.1109
-0.08154 -0.05188 0.09717 -0.10004 0.06714 -0.2206 0.1462 0.01526
-0.1456 0.02444 0.01974 -0.004852 0.02827 0.1371 0.09503 0.1261
0.0717 -0.02286 -0.05655 0.05 0.001412 0.01672 -0.03275 0.0721
0.02533 0.1037 -0.2131 -0.0279 -0.1454 0.00976 0.0986 0.01776
-0.0405 0.09766 0.0757 0.0909 0.09357 0.1022 0.1221 -0.0359
0.03333 0.07135 0.00978 0.08154 0.1963 -0.06274 0.11786 0.02081
0.1879 0.12335 0.0635 0.2303 -0.1404 -0.1696 -0.0441 0.07654
-0.1725 -0.043 0.06757 -0.06476 -0.0644 0.034 -0.01324 -0.09186
0.11426 -0.01188 0.00475 0.01889 -0.1037 0.02707 -0.0645 0.007664
0.0747 0.01796 0.2372 0.03424 0.04614 -0.1354 -0.1361 0.0556
0.08356 0.0677 -0.09503 -0.03537 0.0792 0.03748 -0.08704 -0.01197
0.1176 0.01628 0.1149 -0.02934 -0.04166 -0.03065 0.04694 -0.09
0.1255 -0.081 -0.0745 -0.01804 0.1675 0.1306 -0.2471 -0.07745
-0.07294 0.02525 -0.04617 0.0133 -0.1499 -0.01389 -0.11 0.0981
00000000: b8ac b52b 5fb0 8a2a 3227 2aa9 c62d 8a2e
00000010: a1a8 34b0 6321 77b0 10ab c22c b6a6 a929
00000020: 4aa4 dea0 552e 2baf 3fa8 5bae 4032 7e30
00000030: 6caa 89ab a9a1 64ac baac aa1c 73af 2127
00000040: 6ea5 2aa5 a629 5c2b 6529 58af 5330 fab1
00000050: d434 6dab 9dae 652e d3b0 0629 7930 d0ac
00000060: 182f 40b0 76ae 84a8 fb2f 41af 44b1 1eae
00000070: 18b1 3e32 0d2a 9fab 60a6 042a 8f24 c72d
00000080: 782d 37a5 0822 7da8 0a2b 38b2 6db0 5e25
00000090: c52f c92c 0f28 1728 a02e c034 a4aa 1dac
000000a0: eba7 e919 3cae 2aae 9628 7fb4 1c2c 7021
000000b0: 9ba7 6f1e 7a29 2027 29af 4d26 a52f 1c2c
000000c0: dbad 692a ebae ef31 09a4 1aa7 11b0 d6a6
000000d0: da2b 50ae 9233 b5a8 f72f 322d 5e28 b1a9
000000e0: 5cae de1c 59a7 fba0 f42e 9ba6 f9a5 c8b2
000000f0: c02c 07ab 982c 9c24 32ac 231d 0b2b 28af
00000100: 0d2f 98ab 3ea8 392e 4d26 b0af 7d2c ab23
00000110: 5c1d b52b afa1 a523 85ae 2c9d 732e 19af
00000120: 38ad a4aa 382e 67ae 4c2c 0fb3 ae30 d023
00000130: a9b0 4226 0e25 f89c 3d27 6330 152e 0930
00000140: 972c daa5 3dab 662a c915 4824 31a8 9d2c
00000150: 7c26 a32e d2b2 24a7 a7b0 ff20 4f2e 8c24
00000160: 2fa9 402e d82c d12d fd2d 8a2e d02f 98a8
00000170: 4428 912c 0221 382d 4832 04ac 8b2f 5425
00000180: 0332 e52f 102c 5f33 7eb0 6db1 a5a9 e62c
00000190: 85b1 81a9 532c 25ac 1fac 5a28 c7a2 e1ad
000001a0: 502f 15a2 dd1c d624 a3ae ee26 21ac d91f
000001b0: c82c 9924 9733 6228 e829 55b0 5bb0 1e2b
000001c0: 592d 552c 15ae 87a8 122d cc28 92ad 21a2
000001d0: 872f 2b24 5b2f 83a7 55a9 d9a7 022a c3ad
000001e0: 0430 2fad c5ac 9ea4 5c31 2e30 e8b3 f5ac
000001f0: abac 7726 e9a9 cf22 ccb0 1da3 0aaf 472e

model/lstm/while/lstm_cell_2/MatMul_5 f2 [32, 32]
0.02716 -0.0783 0.02249 0.1239 -0.02608 0.05206 0.06506 0.05637
-0.002893 -0.0511 -0.143 0.2218 -0.099 -0.00606 0.1401 -0.02954
-0.06573 0.09357 0.03268 0.0986 -0.03305 0.04984 0.010086 -0.0381
-0.07086 -0.0324 0.10834 -0.00804 -0.01207 -0.1702 -0.08575 0.01058
0.0687 0.1262 -0.2219 -0.06573 -0.0378 0.06067 -0.02573 -0.0569
0.04388 0.07996 -0.02995 0.1742 -0.09424 -0.03104 0.04294 0.02672
0.06073 -0.02647 -0.05154 -0.002699 -0.0677 -0.02411 0.03796 -0.1426
-0.04376 0.0778 -0.2357 0.02827 -0.0681 0.02835 0.08575 -0.1283
-0.0255 0.0758 0.0627 0.012596 -0.00993 0.04733 -0.1361 0.06714
0.00646 0.02205 0.0175 0.04053 0.0577 0.0833 -0.007965 -0.1321
-0.0541 0.04437 0.00316 -0.07214 -0.1371 0.1597 0.0159 -0.05432
-0.00402 0.1554 -0.08435 -0.1757 0.08997 0.2091 0.0155 -0.0745
-0.1251 0.2183 -0.07465 0.02008 0.1538 -0.106 0.1322 -0.00658
0.0743 0.04526 -0.03052 -0.02637 -0.12354 -0.08887 -0.1028 0.06146
-0.0325 0.07416 -0.1631 0.0698 -0.174 0.05566 0.03238 0.1597
-0.07635 0.1544 -0.05283 0.02977 -0.02365 -0.03464 0.03644 0.15
-0.1584 -0.0909 0.05814 -0.0113 0.00837 -0.1217 0.00301 -0.0182
-0.2073 0.02339 -0.04318 0.08 -0.1295 -0.0676 0.0629 0.03506
-0.0355 0.0949 0.2255 0.0781 -0.1456 0.0741 0.0614 0.06647
0.2803 0.00579 -0.00167 0.02252 -0.1431 0.000731 -0.1225 -0.03366
0.06824 0.1166 0.03802 -0.1522 0.05136 -0.00922 0.1246 0.03726
0.03305 -0.000796 0.02592 0.1455 -0.2063 0.005745 0.05432 -0.2837
0.1599 -0.0791 0.174 -0.1844 0.0542 0.002993 0.1295 -0.03635
-0.133 0.1357 0.04114 -0.021 -0.099 -0.222 0.3171 -0.06168
-0.04056 -0.05713 0.0288 -0.02008 0.1132 -0.0654 -0.04868 -0.0157
-0.0983 0.0689 -0.1211 -0.1311 0.0489 -0.00721 -0.1534 -0.08936
-0.0683 -0.06506 -0.01293 0.06256 -0.141 0.1137 -0.08527 -0.00694
0.1032 -0.01987 0.073 -0.08405 0.0477 0.01918 -0.1631 0.0805
0.03912 -0.07056 0.00944 0.0216 -0.1315 0.02457 0.0678 0.0467
0.0851 -0.01746 -0.2181 -0.01145 -0.09515 -0.0764 -0.01068 0.01313
-0.2275 -0.1003 -0.0367 -0.10516 -0.129 0.08966 -0.05502 -0.05753
0.0486 0.1492 0.1008 -0.05524 -0.06665 0.1328 -0.02205 0.07477
00000000: f426 03ad c225 ee2f ada6 aa2a 2a2c 372b
00000010: ed99 8aaa 93b0 1933 56ae 359e 7c30 90a7
00000020: 35ac fd2d 2f28 4f2e 3ba8 612a 2a21 e0a8
00000030: 89ac 26a8 ef2e 1ea0 2ea2 72b1 7dad 6b21
00000040: 662c 0a30 1ab3 35ac d7a8 c42b 96a6 48ab
00000050: 9e29 1e2d aba7 9331 08ae f2a7 7f29 d726
00000060: c62b c7a6 99aa 8799 55ac 2ca6 dc28 90b0
00000070: 9aa9 fb2c 8bb3 3d27 5cac 4227 7d2d 1bb0
00000080: 87a6 da2c 032c 7322 16a1 0f2a 5bb0 4c2c
00000090: 9d1e a525 7b24 3029 632b 552d 14a0 3ab0
000000a0: edaa ae29 791a 9eac 63b0 1c31 1224 f4aa
000000b0: 1e9c f930 66ad 9fb1 c22d b132 f023 c5ac
000000c0: 01b0 fc32 c7ac 2425 ec30 c9ae 3b30 bd9e
000000d0: c12c cb29 d0a7 c0a6 e8af b0ad 94ae de2b
000000e0: 29a8 bf2c 38b1 782c 91b1 202b 2528 1c31
000000f0: e3ac f130 c3aa 9f27 0ea6 6fa8 aa28 cd30
00000100: 12b1 d1ad 712b c9a1 4920 caaf 2a1a a9a4
00000110: a2b2 fd25 87a9 1f2d 25b0 54ac 072c 7d28
00000120: 8ba8 132e 3733 002d a9b0 be2c dc2b 412c
00000130: 7c34 ee1d d796 c425 94b0 fd11 d7af 4fa8
00000140: 5e2c 762f de28 dfb0 932a b8a0 f92f c528
00000150: 3b28 8592 a326 a830 9ab2 e21d f42a 8ab4
00000160: 1e31 10ad 9131 e7b1 f02a 211a 2530 a7a8
00000170: 42b0 5830 4429 60a5 56ae 1bb3 1335 e5ab
00000180: 31a9 50ab 5f27 24a5 3f2f 30ac 3baa 05a4
00000190: 4bae 692c c0af 32b0 422a 629f e9b0 b8ad
000001a0: 5fac 2aac 9fa2 012c 83b0 472f 75ad 1b9f
000001b0: 9b2e 16a5 ac2c 61ad 1b2a e924 38b1 272d
000001c0: 0229 84ac d520 8825 35b0 4a26 572c fa29
000001d0: 722d 78a4 fbb2 dda1 17ae e4ac 78a1 b922
000001e0: 48b3 6bae b3a8 bbae 21b0 bd2d 0bab 5dab
000001f0: 392a c630 742e 12ab 44ac 4030 a5a5 c92c

model/lstm/while/lstm_cell_2/MatMul_6 f2 [32, 32]
-0.1393 -0.10535 -0.037 0.11694 -0.02744 -0.0982 -0.02287 -0.0763
-0.2164 0.1848 0.0729 0.0636 -0.05182 0.03192 -0.05243 0.1414
0.2937 0.1287 0.1583 0.05515 -0.1353 0.07 -0.04092 0.09467
-0.0985 0.09467 -0.000715 -0.01431 -0.072 -0.0832 0.1505 0.0004506
0.09625 -0.0857 -0.05618 -0.086 -0.04034 0.005962 -0.1993 0.04068
-0.0749 0.0003154 -0.0003264 -0.143 -0.10004 0.0191 0.05072 -0.05048
0.0836 0.1703 -0.0875 -0.003086 -0.01738 -0.2551 -0.0541 -0.06836
-0.1123 0.03069 -0.1506 -0.2437 0.04962 -0.055 0.0896 0.1626
-0.1131 0.00531 -0.02806 -0.214 0.00501 -0.09265 -0.02733 0.0521
0.007423 -0.01438 0.002161 -0.1036 -0.05768 0.211 -0.0693 0.005844
0.06635 -0.158 0.1704 -0.001814 -0.0659 0.1013 0.0791 -0.173
0.2184 -0.01865 0.0478 -0.04434 -0.1515 -0.1329 -0.1381 0.1309
-0.00921 0.0004587 -0.0362 -0.00403 -0.01721 0.00715 0.1305 0.1578
-0.0176 -0.0313 -0.2151 0.1067 -0.1161 0.0652 0.05045 -0.03397
0.02664 0.0568 0.066 -0.1699 0.1691 0.05344 0.0463 -0.1263
-0.0584 0.1628 0.01886 0.1266 0.0481 -0.1475 -0.1636 -0.03427
0.03564 0.0866 0.0448 -0.04965 -0.0911 -0.0736 -0.1982 0.1498
-0.000811 0.0894 -0.05396 0.04117 0.04034 -0.1054 0.1516 -0.2266
0.07477 0.1595 0.1556 0.0446 -0.04712 0.1499 0.02895 -0.00607
-0.02122 -0.03122 0.2324 -0.2161 -0.1447 0.00507 0.07666 0.2126
-0.1338 0.04947 0.05008 0.01004 -0.007698 0.01747 -0.05212 -0.0771
0.09064 -0.2446 0.03433 -0.02977 0.2069 0.02747 -0.01208 0.1155
0.1792 -0.1665 0.0232 0.0277 -0.05206 -0.007664 -0.1974 -0.00988
0.1048 0.077 0.117 -0.1432 0.0557 -0.0464 -0.05435 -0.152
0.03946 -0.05096 0.04504 -0.09283 0.00782 -0.1549 0.03114 -0.0102
0.01512 0.10596 0.01732 0.02477 -0.1217 -0.0793 0.05133 0.02219
-0.1943 0.002485 -0.1122 -0.0321 0.0771 0.0696 0.2578 0.1334
-0.0224 0.2195 -0.01929 -0.04004 0.1504 0.003633 0.005875 -0.03796
0.04858 -0.0728 -0.01688 0.01558 0.01533 -0.11975 0.0634 0.1197
-0.161 -0.06125 0.01011 -0.0639 -0.1938 0.02571 -0.04742 0.1167
-0.08075 -0.2715 0.10114 0.1122 0.1271 -0.1044 -0.007706 0.12305
-0.1139 0.01904 0.082 0.02246 -0.02585 -0.0753 -0.1095 -0.05975
00000000: 75b0 beae bca8 7c2f 06a7 49ae dba5 e2ac
00000010: edb2 ea31 aa2c 122c a2aa 1628 b6aa 8630
00000020: b334 1e30 1131 0f2b 54b0 7b2c 3da9 0f2e
00000030: 4eae 0f2e db91 54a3 9cac 53ad d130 620f
00000040: 292e 7cad 31ab 81ad 2aa9 1b1e 61b2 3529
00000050: cbac 2b0d 598d 93b0 67ae e424 7e2a 76aa
00000060: 5a2d 7331 9aad 529a 73a4 15b4 edaa 60ac
00000070: 30af db27 d2b0 ccb3 5a2a 0aab bc2d 3431
00000080: 3daf 701d 2fa7 d9b2 211d eead ffa6 ab2a
00000090: 9a1f 5da3 6d18 a1ae 62ab c132 6fac fc1d
000000a0: 3f2c 0eb1 7431 6e97 38ac 7c2e 102d 89b1
000000b0: fd32 c6a4 1e2a ada9 d9b0 41b0 6bb0 3030
000000c0: b7a0 840f a2a8 209c 68a4 521f 2d30 0d31
000000d0: 81a4 02a8 e2b2 d42e 6eaf 2c2c 752a 59a8
000000e0: d226 452b 392c 70b1 6931 d72a ed29 0bb0
000000f0: 7aab 3631 d424 0d30 282a b8b0 3cb1 63a8
00000100: 9028 8b2d bc29 5baa d5ad b6ac 58b2 cb30
00000110: a592 b92d e8aa 4529 2a29 bfae da30 40b3
00000120: c92c 1b31 fb30 b529 08aa cc30 6927 379e
00000130: 6fa5 fea7 7033 eab2 a1b0 311d e82c ce32
00000140: 48b0 552a 692a 2421 e29f 7924 acaa efac
00000150: cd2d d4b3 6528 9fa7 9f32 0827 2fa2 642f
00000160: bc31 54b1 f025 1727 aaaa d99f 51b2 0fa1
00000170: b52e ee2c 7d2f 95b0 212b f0a9 f5aa ddb0
00000180: 0d29 86aa c429 f1ad 0120 f5b0 f927 39a1
00000190: be23 c82e 6f24 5726 caaf 13ad 922a ae25
000001a0: 38b2 1719 2eaf 1ca8 ef2c 742c 2034 4530
000001b0: bca5 0633 f0a4 20a9 d030 711b 041e dca8
000001c0: 382a a9ac 52a4 fa23 d923 aaaf 0f2c a92f
000001d0: 27b1 d7ab 2d21 17ac 34b2 9526 12aa 782f
000001e0: 2bad 58b4 792e 2e2f 1130 aeae e49f e02f
000001f0: 4aaf e024 3f2d c025 9ea6 d2ac 02af a6ab

model/lstm/while/lstm_cell_2/MatMul_7 f2 [32, 32]
0.05194 -0.010956 0.02907 0.0886 0.1527 -0.01128 -0.0087 0.1721
-0.01646 -0.06946 0.0891 0.0601 -0.01231 -0.1449 -0.0951 0.0955
-0.1348 -0.1859 -0.06757 -0.02875 0.06775 0.07196 0.04523 -0.00055
-0.014114 0.08466 -0.06476 -0.0944 0.1646 -0.02876 -0.01762 -0.02908
0.00348 0.003805 -0.1093 0.1212 0.2056 0.0763 -0.0932 -0.1097
0.04456 0.0499 0.03528 0.09283 -0.1626 -0.01485 0.005936 0.06537
0.252 0.0236 -0.09357 0.0477 -0.12366 0.0457 -0.07153 -0.11694
-0.1935 -0.04352 0.1802 -0.199 -0.01428 0.1381 0.2142 0.308
-0.2708 -0.043 0.01749 0.11914 0.288 -0.0006456 -0.1381 0.006447
0.01996 -0.02368 -0.1383 -0.1226 -0.03867 0.06665 0.02638 -0.0479
-0.06934 0.01979 0.01047 -0.03305 -0.03214 -0.0874 0.0496 -0.02248
0.0832 -0.1578 -0.03012 -0.02791 0.008224 0.1638 -0.0807 0.1682
-0.2213 -0.10175 -0.03125 -0.03934 0.09827 -0.1415 0.126 0.0466
-0.004013 -0.03998 -0.04724 -0.2125 0.0143 -0.1037 0.03455 0.1127
0.04065 0.05716 0.01628 -0.1807 0.0325 0.11615 0.1091 -0.0524
0.01633 0.1069 -0.02135 -0.001976 0.10156 -0.05066 -0.01378 -0.0973
0.009155 0.1733 -0.1395 -0.0774 -0.06946 -0.14 -0.1372 -0.1615
0.1384 0.0872 0.3237 0.1221 -0.0336 -0.2961 0.12006 0.000466
-0.0712 0.1359 0.02069 0.1775 -0.03137 -0.0707 0.06274 -0.2255
0.01033 0.2788 0.05145 0.0964 0.02397 -0.01753 0.0502 0.0812
0.01775 -0.03564 -0.1971 0.0826 0.04327 0.1252 0.1594 0.06226
-0.1039 -0.004814 -0.0941 0.02322 0.1278 0.0418 -0.015434 -0.02512
-0.0899 -0.1913 0.0383 0.1089 0.0707 0.07416 0.1497 -0.05222
-0.02115 0.1328 -0.1328 0.07306 0.10126 0.0944 0.1755 0.03595
-0.01257 -0.08704 0.0725 0.05087 0.03766 -0.06995 0.007362 0.0633
0.001505 0.1091 0.001487 0.1209 -0.0007777 -0.0469 -0.0369 0.0749
-0.1808 -0.04816 0.2177 0.1714 0.1115 -0.01265 -0.05624 0.1144
0.06082 -0.06476 0.03357 -0.08203 0.2368 -0.06494 0.2218 0.1283
-0.01402 -0.093 -0.1489 0.001712 0.0389 -0.05353 -0.0328 -0.0928
-0.01747 0.04312 -0.0912 0.1458 0.003347 0.063 0.02998 -0.0628
0.1619 0.157 -0.02388 -0.00319 0.04904 -0.1866 -0.02011 -0.0869
-0.1 0.1346 -0.05005 -0.1632 0.1337 0.117 -0.2393 0.0306
00000000: a62a 9ca1 7127 ac2d e330 c6a1 74a0 8231
00000010: 37a4 72ac b42d b12b 4da2 a3b0 16ae 1d2e
00000020: 50b0 f3b1 53ac 5ca7 562c 9b2c ca29 8190
00000030: 3aa3 6b2d 25ac 0bae 4431 5da7 83a4 72a7
00000040: 211b cb1b ffae c22f 9432 e22c f7ad 05af
00000050: b429 632a 8428 f12d 34b1 9aa3 141e 2f2c
00000060: 0834 0b26 fdad 1b2a eaaf d929 94ac 7caf
00000070: 31b2 92a9 c431 5eb2 50a3 6b30 db32 ee34
00000080: 55b4 81a9 7a24 a02f 9c34 4a91 6bb0 9a1e
00000090: 1c25 10a6 6db0 d9af f3a8 442c c126 22aa
000000a0: 70ac 1125 5c21 3ba8 1da8 98ad 592a c1a5
000000b0: 532d 0db1 b6a7 25a7 3620 3e31 2aad 6231
000000c0: 15b3 83ae 00a8 09a9 4a2e 87b0 0830 f729
000000d0: 1c9c 1ea9 0caa cdb2 5223 a3ae 6c28 362f
000000e0: 3429 512b 2b24 c8b1 2928 6f2f fb2e b5aa
000000f0: 2e24 d72e 77a5 0c98 802e 7caa 0ea3 3aae
00000100: b020 8c31 77b0 f4ac 72ac 7bb0 64b0 2bb1
00000110: 6e30 952d 2e35 d02f 4da8 bdb4 af2f a30f
00000120: 8fac 5930 4c25 ae31 04a8 86ac 042c 37b3
00000130: 4a21 7634 962a 2b2e 2326 7da4 6d2a 322d
00000140: 8b24 90a8 4fb2 492d 8a29 0230 1a31 f82b
00000150: a6ae ee9c 06ae f225 1730 5a29 e7a3 6ea6
00000160: c1ad 1fb2 e728 f82e 862c bf2c ca30 afaa
00000170: 6aa5 4030 40b0 ad2c 7b2e 0b2e 9e31 9a28
00000180: 70a2 92ad a42c 832a d228 7aac 8a1f 0d2c
00000190: 2a16 fb2e 1716 bd2f 5f92 01aa b9a8 cb2c
000001a0: c9b1 2aaa f732 7c31 232f 7aa2 33ab 522f
000001b0: c92b 25ac 4c28 40ad 9433 28ac 1933 1b30
000001c0: 2ea3 f4ad c4b0 0317 fb28 daaa 33a8 f0ad
000001d0: 79a4 8529 d6ad aa30 db1a 082c ad27 05ac
000001e0: 2e31 0631 1da6 889a 472a f9b1 26a5 90ad
000001f0: 66ae 4f30 68aa 39b1 4730 7d2f a8b3 d527

model/lstm/while/lstm_cell_2/split_1 f2 [32]
0.001479 0.0482 0.05814 0.07837 0.0765 -0.000644 0.05887 0.0361
0.004757 0.03775 0.0299 0.011284 0.0004153 0.02614 0.02794 0.0717
0.07983 0.0804 -0.0016575 0.03714 0.01098 0.01545 0.05325 0.02562
0.01336 0.001896 0.013695 0.02768 0.04858 0.01965 0.03348 0.0465
00000000: 0f16 2b2a 712b 042d e52c 4791 892b 9f28
00000010: df1c d528 a827 c721 ce0e b126 2727 972c
00000020: 1c2d 252d ca96 c128 9f21 e923 d12a 8f26
00000030: d722 c417 0323 1627 382a 0825 4928 f429

model/lstm/while/lstm_cell_2/split_11 f2 [32]
1.019 1.008 0.9727 1.006 0.9956 1.0205 0.9995 0.9775
1.004 0.9976 1.03 1.006 0.9863 0.9976 1.022 0.984
0.976 1.003 1.035 0.993 1.038 1.03 0.9824 1.021
1.012 0.983 1.021 0.9854 1.018 1.0205 0.9976 1.003
00000000: 133c 083c c83b 063c f73b 153c ff3b d23b
00000010: 043c fb3b 1f3c 063c e43b fb3b 173c df3b
00000020: cf3b 033c 243c f23b 273c 1f3c dc3b 163c
00000030: 0c3c dd3b 163c e23b 123c 153c fb3b 033c

model/lstm/while/lstm_cell_2/split_12 f2 [32]
-0.03342 0.01246 -0.01159 0.01352 0.0002782 -0.007137 0.01018 -0.02185
0.01859 -0.00555 2.42e-05 -0.02858 0.01331 0.01272 -0.001908 0.0003347
0.003834 -0.00705 0.0063 -0.02145 -0.002377 -0.004383 0.01092 -0.001652
0.00635 -0.01092 0.00972 -0.02675 0.006695 0.01974 0.003763 -0.01476
00000000: 47a8 6122 efa1 ec22 8f0c 4f9f 3621 98a5
00000010: c224 af9d 9601 51a7 d122 8322 d197 7c0d
00000020: da1b 389f 741e 7ea5 de98 7d9c 9721 c496
00000030: 811e 97a1 fa20 d9a6 db1e 0e25 b51b 8fa3

model/lstm/while/lstm_cell_2/split_13 f2 [32]
0.0354 0.0411 0.073 0.03595 0.0574 0.03207 0.035 0.05127
0.01478 0.04575 0.0006967 0.0725 0.02289 0.0271 0.04773 0.096
0.06616 0.06415 0.01115 0.04297 0.01519 0.0142 0.0895 0.02568
0.02864 0.02141 0.01499 0.02513 0.05054 0.01627 0.04868 0.0546
00000000: 8828 4329 ac2c 9a28 592b 1b28 7b28 902a
00000010: 9123 db29 b511 a42c dc25 f026 1c2a 252e
00000020: 3c2c 1b2c b521 8029 c723 4523 ba2d 9326
00000030: 5527 7b25 ad23 6f26 782a 2a24 3b2a fd2a

model/lstm/while/lstm_cell_2/MatMul f2 [32, 96]
-0.0795 0.013954 0.06775 -0.0322 0.04184 -0.006596 0.0446 0.02446
0.03674 0.04745 0.11566 0.05988 -0.00896 0.02238 0.0305 -0.005444
-0.02481 -0.0178 -0.03473 -0.00481 0.02467 -0.004375 0.1829 0.0835
0.04843 0.0732 0.0171 -0.0342 0.109 -0.02437 -0.006443 -0.01773
-0.01804 -0.003994 -0.04028 -0.0471 -0.03992 0.03232 -0.01863 -0.02718
-0.00994 -0.0842 -0.012054 -0.04166 -0.000641 -0.04105 -0.038 -0.03278
-0.0318 0.05 0.01595 -0.01796 0.010216 0.01991 -0.0378 -0.0825
-0.01685 -0.01356 -0.03635 0.04196 0.02998 -0.004456 0.0753 -0.0851
0.009605 -0.0613 -0.02324 0.007492 0.0635 0.0674 0.0333 -0.08527
-0.00581 -0.02365 0.03375 0.04605 -0.0934 -0.0718 -0.02797 0.003725
0.02017 0.02078 0.01707 -0.001785 -0.00623 0.02962 0.003813 -0.0642
0.00799 0.01232 0.03029 -0.009026 -0.000177 -0.0007253 -0.07385 0.0672
0.1031 -0.0414 0.02016 -0.04364 0.1239 0.0915 -0.0334 -0.05872
-0.0809 0.0747 -0.0637 0.02695 0.04407 0.08594 -0.01053 -0.0373
0.08417 0.1225 0.0539 0.001024 -0.0549 0.02184 0.002565 0.0514
-0.1153 0.08496 0.10474 0.04825 -0.003325 0.0699 -0.07324 0.0267
0.04456 -0.02542 0.04556 -0.1292 -0.03247 0.0651 -0.03494 0.01846
0.0429 0.0447 0.0234 0.02437 0.0759 0.00895 -0.05774 0.000841
-0.01646 -0.02548 -0.00899 0.0556 0.01971 -0.11847 0.09125 -0.04068
0.01381 -0.05783 0.04977 0.05118 -0.01732 -0.01461 -0.02115 -0.00516
0.04605 0.03925 0.0676 -0.03638 -0.02975 -0.03357 0.02222 0.0411
0.02773 -0.0895 0.015396 0.02898 -0.00495 0.06976 -0.1288 0.01956
0.0726 0.04745 -0.00985 0.0623 0.014465 -0.02887 -0.008766 0.0694
-0.0812 -0.005096 0.02458 -0.02954 -0.05594 0.08954 -0.03006 -0.04623
-0.01772 0.083 0.03864 0.08923 0.0325 0.1486 -0.03116 0.02646
0.088 0.1197 0.03293 -0.01653 0.02095 -0.1077 0.10297 0.12427
0.0702 0.00794 0.0525 -0.00506 0.05194 0.0879 0.05237 0.12244
0.03363 0.05652 0.0583 0.03084 0.0865 0.1866 -0.05234 -0.0418
0.0643 0.005283 0.05396 -0.02832 0.0512 0.06177 -0.1714 0.139
0.0641 -0.0157 0.05643 -0.002892 -0.00807 -0.00436 0.105 0.003521
0.11487 0.0698 0.03735 0.02513 0.02292 0.0108 -0.03757 0.02315
0.0755 0.0468 -0.0336 -0.05334 0.00478 -0.02867 -0.1198 0.0193
00000000: 17ad 2523 562c 1fa8 5b29 c19e b529 4326
00000010: b428 132a 672f aa2b 96a0 bb25 cf27 939d
00000020: 5aa6 8fa4 72a8 ed9c 5126 7b9c da31 582d
00000030: 332a af2c 6124 61a8 fa2e 3da6 999e 8aa4
00000040: 9ea4 179c 28a9 07aa 1ca9 2328 c5a4 f5a6
00000050: 17a1 64ad 2ca2 55a9 4091 41a9 dda8 32a8
00000060: 12a8 662a 1524 99a4 3b21 1925 d7a8 48ad
00000070: 50a4 f1a2 a7a8 5f29 ad27 909c d22c 72ad
00000080: eb20 d9ab f3a5 ac1f 102c 502c 4328 75ad
00000090: f39d 0ea6 5228 e529 faad 98ac 29a7 a11b
000000a0: 2a25 5225 5f24 5097 619e 9527 cf1b 1cac
000000b0: 1720 4f22 c127 9fa0 cd89 f191 baac 4d2c
000000c0: 992e 4da9 2925 96a9 ee2f db2d 46a8 84ab
000000d0: 2dad c82c 14ac e626 a429 802d 64a1 c6a8
000000e0: 632d d72f e62a 3214 07ab 9725 4119 942a
000000f0: 61af 702d b42e 2d2a cf9a 792c b0ac d626
00000100: b429 82a6 d529 22b0 28a8 2b2c 79a8 ba24
00000110: 7e29 b929 fe25 3d26 dc2c 9520 64ab e412
00000120: 37a4 86a6 9aa0 1e2b 0c25 95af d72d 35a9
00000130: 1223 67ab 5f2a 8d2a 6fa4 7ba3 6aa5 499d
00000140: e529 0629 542c a8a8 9ea7 4ca8 b025 4329
00000150: 1927 baad e223 6b27 129d 772c 1fb0 0225
00000160: a52c 132a 0ba1 f92b 6823 64a7 7da0 712c
00000170: 32ad 389d 4b26 90a7 29ab bb2d b2a7 eba9
00000180: 89a4 502d f228 b62d 2928 c130 faa7 c626
00000190: a22d a92f 3728 3ba4 5d25 e5ae 972e f42f
000001a0: 7e2c 1120 b82a 2e9d a62a a02d b42a d62f
000001b0: 4e28 3c2b 762b e527 892d f931 b3aa 5aa9
000001c0: 1d2c 691d e82a 40a7 8e2a e82b 7cb1 7330
000001d0: 1a2c 05a4 392b ec99 22a0 779c b82e 361b
000001e0: 5a2f 782c c828 6f26 de25 8821 cfa8 ed25
000001f0: d52c fe29 4da8 d4aa e51c 57a7 abaf f124
