HPC_Final_Study2_Complete_Test_Class_Balance/participants_session_transfer_train_fresh_model/participant_21/session_3/session_3_lite_models/indexpen_model.tflite (tflite, 573028 bytes, 29 tensors)

model/time_distributed_6/conv2d_1/BiasAdd;model/time_distributed_6/conv2d_1/Conv2D;model/time_distributed_6/conv2d_1/BiasAdd/ReadVariableOp/resource f4 [16]
0.10654255 0.096115366 0.09059496 0.05373868 0.107630745 0.062097527 0.107718766 0.09695681
0.00908665 0.06866454 0.079420425 0.050694577 0.078743994 0.067396596 0.038721148 0.038702406
00000000: fb32 da3d 22d8 c43d da89 b93d 171d 5c3d
00000010: 826d dc3d fa59 7e3d a89b dc3d 4b91 c63d
00000020: 2ce0 143c ff9f 8c3d 2da7 a23d 1ea5 4f3d
00000030: 8844 a13d 3a07 8a3d 119a 1e3d 6a86 1e3d

model/time_distributed/conv2d/BiasAdd;model/time_distributed/conv2d/Conv2D;model/time_distributed/conv2d/BiasAdd/ReadVariableOp/resource f4 [8]
-0.11837756 -0.07956295 -0.021800771 -0.005573036 -0.13034467 -0.12257016 -0.10423907 0.04437331
00000000: ef6f f2bd e6f1 a2bd 8897 b2bc 049e b6bb
00000010: 1379 05be 1006 fbbd 4b7b d5bd cac0 353d

model/time_distributed_6/conv2d_1/Conv2D f4 [16, 3, 3, 1]
0.03618594 0.048410818 -0.051310025 0.005877265 0.02394713 -0.037422743 -0.05399686 0.045536723
0.012500501 -0.01490487 0.09376093 -0.068358086 -0.08125619 0.18879068 -0.1131782 0.010852223
-0.12851647 0.111974515 0.06624911 -0.20049353 0.13281626 0.050183956 0.042917002 -0.097911276
-0.030138852 0.025126385 0.0038376504 0.0033666908 0.050958004 -0.045366153 0.012566744 -0.0008047951
-0.0019126429 0.0058886204 -0.031591468 0.009382265 -0.0012103079 -0.15812062 0.16189335 -0.0077941064
0.061270252 -0.056909975 -0.02237941 0.05387507 -0.021328636 0.13934225 -0.07137409 -0.04779537
-0.04120367 -0.055873547 0.09463896 0.02154779 0.0378575 -0.054730903 0.045791417 -0.12094547
0.082954645 0.0020239379 0.07426892 -0.08602204 0.0015948594 0.04947984 -0.050750807 -0.10275505
0.08285887 -0.0026261995 0.046502724 -0.056373548 0.01636773 -0.07276819 0.045894325 0.025324782
-0.0035684688 0.011771045 3.9445702e-05 0.057655625 -0.107275106 0.05873349 0.0968435 -0.17861591
0.08998223 0.04761944 -0.08962595 0.055596918 -0.0021378035 0.030111484 -0.04349144 0.033722527
0.005996001 -0.017350232 -0.090952165 0.17403424 -0.09079193 -0.000796031 0.06377639 -0.06708252
-0.048178185 0.15033373 -0.09381202 -0.054131515 0.22275198 -0.16460411 -0.14493115 0.11608719
0.023581354 0.121671185 -0.17303805 0.04240773 -0.0948822 0.18684177 -0.0992016 -0.08955316
0.15348645 -0.07428666 -0.087853484 0.21358863 -0.13539636 -0.0226953 0.097486906 -0.062202923
0.011125016 -0.13633573 0.12004292 -0.014807312 0.033508193 -0.027207028 -0.012973905 -0.021727297
0.0050117797 -0.013048136 -0.02188471 0.055240866 0.06769038 -0.1436092 0.05436366 0.0073992345
-0.02602463 0.0011757407 -0.011390028 0.01902755 -0.005982278 0.078347534 -0.0754878 -0.009261771
00000000: b537 143d 6c4a 463d 762a 52bd 1296 c03b
00000010: c62c c43c 9748 19bd d02b 5dbd b784 3a3d
00000020: e7ce 4c3c 8e33 74bc bb05 c03d 53ff 8bbd
00000030: a569 a6bd 5852 413e f9c9 e7bd 86cd 313c
00000040: d299 03be e552 e53d 9dad 873d 2d4e 4dbe
00000050: fc00 083e b18d 4d3d bdc9 2f3d b585 c8bd
00000060: c1e5 f6bc d9d5 cd3c 1781 7b3b b3a3 5c3b
00000070: 57b9 503d dcd1 39bd bfe4 4d3c e3f8 52ba
00000080: a5b1 faba 54f5 c03b 0e66 01bd 12b8 193c
00000090: 32a3 9eba 5fea 21be 5fc7 253e b465 ffbb
000000a0: 84f6 7a3d 6f1a 69bd 0655 b7bc 1bac 5c3d
000000b0: 64b9 aebc bcaf 0e3e 942c 92bd 14c5 43bd
000000c0: 2ec5 28bd a9db 64bd 12d2 c13d fe84 b03c
000000d0: 7710 1b3d 832d 60bd c88f 3b3d 42b2 f7bd
000000e0: 20e4 a93d 0ba4 043b 4e1a 983d 532c b0bd
000000f0: 9a0a d13a 5fab 4a3d 14e0 4fbd 3d71 d2bd
00000100: e9b1 a93d 511c 2cbb a479 3e3d f3e7 66bd
00000110: 9e15 863c 7d07 95bd b0fb 3b3d eb75 cf3c
00000120: f9dc 69bb 57db 403c 8072 2538 4e28 6c3d
00000130: 0db3 dbbd 8792 703d e355 c63d 17e7 36be
00000140: 9a48 b83d 9a0c 433d cf8d b7bd 98b9 633d
00000150: 641a 0cbb 5cac f63c 1524 32bd a220 0a3d
00000160: 1a7a c43b 1322 8ebc 2145 babd 0836 323e
00000170: 1ff1 b9bd bcac 50ba 329d 823d 8f62 89bd
00000180: 7d56 45bd 16f1 193e 8420 c0bd 02b9 5dbd
00000190: 1819 643e fb8d 28be d568 14be 1fbf ed3d
000001a0: af2d c13c be2e f93d e330 31be bab3 2d3d
000001b0: 9951 c2bd 7353 3f3e 352a cbbd a667 b7bd
000001c0: 8d2b 1d3e 9b23 98bd 87ec b3bd fab6 5a3e
000001d0: 58a5 0abe 7eeb b9bc 37a7 c73d 7ec8 7ebd
000001e0: b345 363c 989b 0bbe 10d9 f53d 5e9a 72bc
000001f0: e33f 093d 46e1 debc 8090 54bc 72fd b1bc
00000200: db39 a43b d9c7 55bc 9047 b3bc 3f44 623d
00000210: 41a1 8a3d 4a0e 13be 6eac 5e3d 4775 f23b
00000220: 9b31 d5bc 501b 9a3a 3d9d 3abc aadf 9b3c
00000230: fc06 c4bb ac74 a03d 5999 9abd afbe 17bc

model/time_distributed/conv2d/Conv2D f4 [8, 3, 3, 1]
0.0073305364 -0.01694481 0.0077870404 -0.012080263 0.007245631 -0.012485386 0.0026059917 -0.013286883
0.0013777501 0.005574581 -0.026528424 -0.0008574589 0.0034221923 0.0023441173 -0.0009052531 -0.0016112643
-0.006305752 0.0032965115 -0.002790007 0.005701529 -0.013977421 0.009868946 -0.009822661 0.012300624
-0.008298095 0.018608766 -0.03044701 -0.004098138 0.009938356 0.0041336585 -0.0023963992 -0.01940531
0.0006302023 -0.014626201 -0.0026770448 -0.0018763753 -0.0036341876 0.0001649891 0.013759026 -0.0012582956
-0.010149293 -0.019912848 0.0046081534 0.006638552 -0.018337594 -0.0063873013 -0.00062765565 -0.0010965627
0.009148227 -0.008177957 0.010719152 0.027941568 -0.023107361 0.009171746 0.023113735 0.003949834
-0.0021614914 -0.0045924885 0.0012841771 -0.006821179 -0.0008729234 -0.0014419493 0.0017409506 -0.0051043937
-0.0037851813 -0.010602078 -0.010170506 -0.015067449 0.030872503 0.005995257 0.006428568 -0.008837126
00000000: ff34 f03b d8cf 8abc 6e2a ff3b 4cec 45bc
00000010: c26c ed3b 818f 4cbc 49c9 2a3b 3ab1 59bc
00000020: 9f95 b43a faaa b63b 2352 d9bc 18c7 60ba
00000030: dc46 603b c39f 193b 824e 6dba 0f31 d3ba
00000040: 7ba0 cebb 490a 583b 8dd8 36bb e4d3 ba3b
00000050: 8e01 65bc 5cb1 213c 3aef 20bc 8e88 493c
00000060: bcf4 07bc 6971 983c 026c f9bc ac49 86bb
00000070: 7cd4 223c a473 873b e80c 1dbb e2f7 9ebc
00000080: 2934 253a bca2 6fbc 5c71 2fbb b5f0 f5ba
00000090: 8d2b 6ebb ed00 2d39 8a6d 613c 65ed a4ba
000000a0: 3849 26bc 4520 a3bc feff 963b 3688 d93b
000000b0: b938 96bc 914c d1bb 4289 24ba 8aba 8fba
000000c0: 72e2 153c d6fc 05bc 629f 2f3c b7e5 e43c
000000d0: a64b bdbc 1745 163c 0459 bd3c 9c6d 813b
000000e0: cfa7 0dbb 967c 96bb d551 a83a 3284 dfbb
000000f0: e6d4 64ba caff bcba 9c30 e43a c242 a7bb
00000100: ce10 78bb 57b4 2dbc 32a2 26bc 76dd 76bc
00000110: 55e8 fc3c dc73 c43b bda6 d23b 98c9 10bc

model/lstm/TensorArrayV2_1 f4 [120, 1, 32]
0.0 0.0 0.0 0.0 0.0 0.0 0.0 0.0
0.0 0.0 0.0 0.0 0.0 0.0 0.0 0.0
0.0 0.0 0.0 0.0 0.0 0.0 0.0 0.0
0.0 0.0 0.0 0.0 0.0 0.0 0.0 0.0
0.0 0.0 0.0 0.0 0.0 0.0 0.0 0.0
0.0 0.0 0.0 0.0 0.0 0.0 0.0 0.0
0.0 0.0 0.0 0.0 0.0 0.0 0.0 0.0
0.0 0.0 0.0 0.0 0.0 0.0 0.0 0.0
0.0 0.0 0.0 0.0 0.0 0.0 0.0 0.0
0.0 0.0 0.0 0.0 0.0 0.0 0.0 0.0
0.0 0.0 0.0 0.0 0.0 0.0 0.0 0.0
0.0 0.0 0.0 0.0 0.0 0.0 0.0 0.0
0.0 0.0 0.0 0.0 0.0 0.0 0.0 0.0
0.0 0.0 0.0 0.0 0.0 0.0 0.0 0.0
0.0 0.0 0.0 0.0 0.0 0.0 0.0 0.0
0.0 0.0 0.0 0.0 0.0 0.0 0.0 0.0
0.0 0.0 0.0 0.0 0.0 0.0 0.0 0.0
0.0 0.0 0.0 0.0 0.0 0.0 0.0 0.0
0.0 0.0 0.0 0.0 0.0 0.0 0.0 0.0
0.0 0.0 0.0 0.0 0.0 0.0 0.0 0.0
0.0 0.0 0.0 0.0 0.0 0.0 0.0 0.0
0.0 0.0 0.0 0.0 0.0 0.0 0.0 0.0
0.0 0.0 0.0 0.0 0.0 0.0 0.0 0.0
0.0 0.0 0.0 0.0 0.0 0.0 0.0 0.0
0.0 0.0 0.0 0.0 0.0 0.0 0.0 0.0
0.0 0.0 0.0 0.0 0.0 0.0 0.0 0.0
0.0 0.0 0.0 0.0 0.0 0.0 0.0 0.0
0.0 0.0 0.0 0.0 0.0 0.0 0.0 0.0
0.0 0.0 0.0 0.0 0.0 0.0 0.0 0.0
0.0 0.0 0.0 0.0 0.0 0.0 0.0 0.0
0.0 0.0 0.0 0.0 0.0 0.0 0.0 0.0
0.0 0.0 0.0 0.0 0.0 0.0 0.0 0.0
00000000: 0000 0000 0000 0000 0000 0000 0000 0000
00000010: 0000 0000 0000 0000 0000 0000 0000 0000
00000020: 0000 0000 0000 0000 0000 0000 0000 0000
00000030: 0000 0000 0000 0000 0000 0000 0000 0000
00000040: 0000 0000 0000 0000 0000 0000 0000 0000
00000050: 0000 0000 0000 0000 0000 0000 0000 0000
00000060: 0000 0000 0000 0000 0000 0000 0000 0000
00000070: 0000 0000 0000 0000 0000 0000 0000 0000
00000080: 0000 0000 0000 0000 0000 0000 0000 0000
00000090: 0000 0000 0000 0000 0000 0000 0000 0000
000000a0: 0000 0000 0000 0000 0000 0000 0000 0000
000000b0: 0000 0000 0000 0000 0000 0000 0000 0000
000000c0: 0000 0000 0000 0000 0000 0000 0000 0000
000000d0: 0000 0000 0000 0000 0000 0000 0000 0000
000000e0: 0000 0000 0000 0000 0000 0000 0000 0000
000000f0: 0000 0000 0000 0000 0000 0000 0000 0000
00000100: 0000 0000 0000 0000 0000 0000 0000 0000
00000110: 0000 0000 0000 0000 0000 0000 0000 0000
00000120: 0000 0000 0000 0000 0000 0000 0000 0000
00000130: 0000 0000 0000 0000 0000 0000 0000 0000
00000140: 0000 0000 0000 0000 0000 0000 0000 0000
00000150: 0000 0000 0000 0000 0000 0000 0000 0000
00000160: 0000 0000 0000 0000 0000 0000 0000 0000
00000170: 0000 0000 0000 0000 0000 0000 0000 0000
00000180: 0000 0000 0000 0000 0000 0000 0000 0000
00000190: 0000 0000 0000 0000 0000 0000 0000 0000
000001a0: 0000 0000 0000 0000 0000 0000 0000 0000
000001b0: 0000 0000 0000 0000 0000 0000 0000 0000
000001c0: 0000 0000 0000 0000 0000 0000 0000 0000
000001d0: 0000 0000 0000 0000 0000 0000 0000 0000
000001e0: 0000 0000 0000 0000 0000 0000 0000 0000
000001f0: 0000 0000 0000 0000 0000 0000 0000 0000
00000200: 0000 0000 0000 0000 0000 0000 0000 0000
00000210: 0000 0000 0000 0000 0000 0000 0000 0000
00000220: 0000 0000 0000 0000 0000 0000 0000 0000
00000230: 0000 0000 0000 0000 0000 0000 0000 0000
00000240: 0000 0000 0000 0000 0000 0000 0000 0000
00000250: 0000 0000 0000 0000 0000 0000 0000 0000
00000260: 0000 0000 0000 0000 0000 0000 0000 0000
00000270: 0000 0000 0000 0000 0000 0000 0000 0000
00000280: 0000 0000 0000 0000 0000 0000 0000 0000
00000290: 0000 0000 0000 0000 0000 0000 0000 0000
000002a0: 0000 0000 0000 0000 0000 0000 0000 0000
000002b0: 0000 0000 0000 0000 0000 0000 0000 0000
000002c0: 0000 0000 0000 0000 0000 0000 0000 0000
000002d0: 0000 0000 0000 0000 0000 0000 0000 0000
000002e0: 0000 0000 0000 0000 0000 0000 0000 0000
000002f0: 0000 0000 0000 0000 0000 0000 0000 0000
00000300: 0000 0000 0000 0000 0000 0000 0000 0000
00000310: 0000 0000 0000 0000 0000 0000 0000 0000
00000320: 0000 0000 0000 0000 0000 0000 0000 0000
00000330: 0000 0000 0000 0000 0000 0000 0000 0000
00000340: 0000 0000 0000 0000 0000 0000 0000 0000
00000350: 0000 0000 0000 0000 0000 0000 0000 0000
00000360: 0000 0000 0000 0000 0000 0000 0000 0000
00000370: 0000 0000 0000 0000 0000 0000 0000 0000
00000380: 0000 0000 0000 0000 0000 0000 0000 0000
00000390: 0000 0000 0000 0000 0000 0000 0000 0000
000003a0: 0000 0000 0000 0000 0000 0000 0000 0000
000003b0: 0000 0000 0000 0000 0000 0000 0000 0000
000003c0: 0000 0000 0000 0000 0000 0000 0000 0000
000003d0: 0000 0000 0000 0000 0000 0000 0000 0000
000003e0: 0000 0000 0000 0000 0000 0000 0000 0000
000003f0: 0000 0000 0000 0000 0000 0000 0000 0000

model/dense_2/BiasAdd/ReadVariableOp/resource f4 [256]
0.043995757 0.027280258 0.083955 0.052205935 0.033656083 0.064084075 0.0909852 0.07610034
0.07290161 0.09479033 0.051949218 0.11084315 0.0966079 0.029723043 0.1150225 0.08648164
0.04115871 0.14360695 0.13882035 0.07939823 0.18726571 0.03341025 0.094690084 0.20961906
0.12376975 0.050733276 0.04524002 0.08052059 0.022014188 0.099704415 0.089433834 0.10496265
0.09302841 0.0673075 0.08483812 0.061953645 0.041962355 0.10925096 0.1142079 0.054433204
0.048151936 0.057747725 0.05812781 0.09989059 0.074534565 0.08277978 0.053927258 0.078594
0.11429295 0.08559738 0.068997286 0.087699234 0.07921016 0.136001 0.08987797 0.08858868
0.11627023 0.09891231 0.1385013 0.13110586 0.04082705 0.012203373 0.1038209 0.06612621
0.11370948 0.10470763 0.057585515 0.11989153 0.10399756 0.10601501 0.089602895 0.06810698
0.16612364 0.103473224 0.09944239 0.08204229 0.082781225 0.06273824 0.20459853 0.11410259
0.119994245 0.116407834 0.035112917 0.098995335 0.121413626 0.08782739 0.08247541 0.04904682
0.075951815 0.033810396 0.05608395 0.10584498 0.077188574 0.11793323 0.11400957 0.1394624
0.030119145 0.1446817 0.07485048 0.13151784 0.121970996 0.10145595 0.057847485 0.101327665
0.0374138 0.06469426 0.10686056 0.09553812 0.13149258 0.057436507 0.10996469 0.17592211
0.039928902 0.11353018 0.057089146 0.15626329 0.07502556 0.02017463 0.1277802 0.17424007
0.066112265 0.120639436 0.1079171 0.04768051 0.04543425 0.05125162 0.004500703 0.05916885
0.09402917 0.020335764 0.1334176 0.06420395 0.085653566 0.07100602 0.065822825 0.10167273
0.06505401 0.025794037 0.09878459 0.14146294 0.060675334 0.11001928 0.055563215 0.073630676
0.023513362 0.08038572 0.102383 0.026057268 0.14203651 0.15754937 0.07162532 0.082941
0.11684316 0.12997293 0.05609326 0.09633866 0.12392162 0.01642059 0.14289968 0.121488824
0.010350765 0.095729575 0.08651543 0.08195673 0.04056279 0.07033465 0.09313972 0.102473125
0.0023351987 0.09425143 0.0025185926 0.04283465 0.05416814 0.12947425 0.12186821 0.041960407
0.09518319 0.076379776 0.16165479 0.08380401 0.031762406 0.043683346 0.15692323 0.058864363
0.06688397 0.04500543 0.11938646 0.09210565 0.10175654 0.052071147 0.06685586 0.09626264
0.074185215 0.091892175 0.104644604 0.114562556 0.07812575 0.03127918 0.02447125 0.08009162
0.05896453 0.10595388 0.03140005 0.043808322 0.08500203 0.11725894 0.090952344 0.10690592
0.11646038 0.14963731 0.06653046 0.03939046 0.1143921 -0.0087913545 0.05198137 0.12965083
0.06605165 0.041291095 0.102731906 0.06822461 0.05555305 0.08495486 0.059801202 0.059582394
0.028646892 0.07369849 0.075316496 -0.0024265128 0.11784505 0.06737508 0.081186935 0.14988257
0.08663652 0.079253 0.0313978 0.080700465 0.061597478 0.08221134 0.08282789 0.0047151037
0.071621485 0.12772374 0.07757175 0.04462728 0.10031465 0.17604259 0.045980018 0.03676803
0.07303287 0.09798588 0.0969208 0.12137532 0.08666881 0.14246993 0.12732293 0.05670467
00000000: e534 343d d97a df3c 99f0 ab3d e4d5 553d
00000010: f6da 093d 833e 833d 7356 ba3d 7fda 9b3d
00000020: 704d 953d 6f21 c23d b4c8 543d bc01 e33d
00000030: 5dda c53d bd7d f33c eb90 eb3d 491d b13d
00000040: 0996 283d b30d 133e ec26 0e3e 8a9b a23d
00000050: 95c2 3f3e 30d9 083d e0ec c13d 61a6 563e
00000060: ff7a fd3d b2cd 4f3d 994d 393d fbe7 a43d
00000070: 1957 b43c d431 cc3d 1629 b73d a8f6 d63d
00000080: ae85 be3d 84d8 893d 9cbf ad3d 1bc3 7d3d
00000090: b8e0 2b3d f8be df3d d5e5 e93d 5af5 5e3d
000000a0: f73a 453d e188 6c3d 6d17 6e3d 7093 cc3d
000000b0: 94a5 983d 7288 a93d d4e2 5c3d e4f5 a03d
000000c0: 6c12 ea3d ae4d af3d 734e 8d3d a89b b33d
000000d0: f038 a23d d943 0b3e f111 b83d fb6d b53d
000000e0: 161f ee3d 8a92 ca3d 49d3 0d3e 9d40 063e
000000f0: 443a 273d a8f0 473c 0da0 d43d 2e6d 873d
00000100: 84e0 e83d f470 d63d cade 6b3d b189 f53d
00000110: acfc d43d 661e d93d b981 b73d ac7b 8b3d
00000120: 511c 2a3e c5e9 d33d 74a8 cb3d ca05 a83d
00000130: 3489 a93d e87c 803d 4782 513e 9eae e93d
00000140: 8bbf f53d 3b67 ee3d 90d2 0f3d 11be ca3d
00000150: b5a7 f83d d9de b33d dee8 a83d 51e5 483d
00000160: a08c 9b3d c57c 0a3d 49b8 653d 41c5 d83d
00000170: 0b15 9e3d fa86 f13d d97d e93d 3bcf 0e3e
00000180: 6dbc f63c 7127 143e 354b 993d 9dac 063e
00000190: eecb f93d 23c8 cf3d 7cf1 6c3d e184 cf3d
000001a0: 363f 193d 6d7e 843d b6d9 da3d 7da9 c33d
000001b0: fea5 063e 8b42 6b3d 2b35 e13d ed24 343e
000001c0: 7d8c 233d 8382 e83d 4fd6 693d 7c03 203e
000001d0: 00a7 993d 4445 a53c d0d8 023e fd6b 323e
000001e0: de65 873d cf11 f73d a403 dd3d a34c 433d
000001f0: 4419 3a3d 38ed 513d a27a 933b 095b 723d
00000200: 5e92 c03d 3097 a63c a09e 083e 5c7d 833d
00000210: 236b af3d 9b6b 913d 1ece 863d cb39 d03d
00000220: 093b 853d 044e d33c 934f ca3d a9db 103e
00000230: b386 783d ca51 e13d 4196 633d aecb 963d
00000240: 189f c03c 45a1 a43d 2eae d13d 0d76 d53c
00000250: 0572 113e 9f54 213e 4cb0 923d f9dc a93d
00000260: 774b ef3d a017 053e 0cc2 653d 344d c53d
00000270: 9eca fd3d 7984 863c 4b54 123e 22cf f83d
00000280: 4196 293c de0d c43d 002f b13d eed8 a73d
00000290: 2b25 263d 9d0b 903d 0ac0 be3d 6edd d13d
000002a0: 220a 193b e506 c13d f90e 253b 6373 2f3d
000002b0: 69df 5d3d e694 043e 0a96 f93d adde 2b3d
000002c0: 68ef c23d 006d 9c3d d588 253e 70a1 ab3d
000002d0: 4c19 023d 4fed 323d 7cb0 203e c21b 713d
000002e0: 76fa 883d 9d57 383d e380 f43d e3a1 bc3d
000002f0: bc65 d03d 8e48 553d baeb 883d 5925 c53d
00000300: 6bee 973d f731 bc3d e94f d63d c69f ea3d
00000310: 6500 a03d 991e 003d ee77 c83c 1307 a43d
00000320: ca84 713d 59fe d83d 579d 003d 5b70 333d
00000330: 8b15 ae3d 7525 f03d 3945 ba3d 7ef1 da3d
00000340: c882 ee3d 863a 193e 1f41 883d e457 213d
00000350: 6846 ea3d 9d09 10bc 6bea 543d 30c3 043e
00000360: 1646 873d da20 293d 1b65 d23d 58b9 8b3d
00000370: 988b 633d d0fc ad3d 1bf2 743d ab0c 743d
00000380: e3ac ea3c 3cef 963d 893f 9a3d 2106 1fbb
00000390: bf58 f13d f2fb 893d 5645 a63d d17a 193e
000003a0: 7d6e b13d 664f a23d fb9a 003d 4946 a53d
000003b0: a34d 7c3d 6b5e a83d aba1 a93d 2881 9a3b
000003c0: 49ae 923d 03ca 023e f0dd 9e3d 18cb 363d
000003d0: c471 cd3d 8244 343e 8b55 3c3d 139a 163d
000003e0: 4292 953d d2ac c83d 6a7e c63d a093 f83d
000003f0: 6b7f b13d a3e3 113e f160 023e 2843 683d

model/last_layer/BiasAdd/ReadVariableOp/resource f4 [31]
-0.0016655495 0.0054440135 -0.0032073788 0.0135783 -0.009484344 0.0044970447 0.017266069 -0.00024882465
-0.044579387 -0.0028661685 -0.002767853 0.0023162067 -0.01230008 -0.00046236248 0.024805482 0.011124615
-0.004889356 0.016833171 0.013709663 0.009760092 0.0056558433 0.01810907 0.012356721 -0.020427644
-0.017814243 -0.0013893921 -0.0031809101 -0.023066565 -0.0031056553 -0.009955145 -0.054521445
00000000: 914e daba b263 b23b e332 52bb 8577 5e3c
00000010: 3964 1bbc f25b 933b 9271 8d3c ae74 82b9
00000020: e098 36bd 54d6 3bbb de64 35bb 80cb 173b
00000030: 4686 49bc 3e69 f2b9 de34 cb3c 0444 363c
00000040: e436 a0bb b8e5 893c 7f9e 603c cbe8 1f3c
00000050: a754 b93b 7959 943c d873 4a3c e057 a7bc
00000060: 2def 91bc 431c b6ba d176 50bb 18f6 bcbc
00000070: 4088 4bbb e81a 23bc e151 5fbd

model/time_distributed_11/dense_1/BiasAdd/ReadVariableOp/resource f4 [64]
-0.003506293 0.008508321 -0.020045483 0.0020658246 0.011148448 -0.020114465 -0.037338298 0.0006852705
-0.028622914 -0.04058627 -0.042383898 -0.0035303452 -0.0075227427 0.006175206 -0.06265849 -0.037712134
-0.0307209 -0.0057714717 -0.0005870905 -0.010365576 -0.043637265 -0.034514043 -0.02623525 -0.027336903
-0.045653798 -0.013620607 -0.019097 -0.019989168 -0.020115046 0.0041057677 -0.030283974 -0.033628877
-0.013807016 -0.011395024 0.0032358405 -0.024564782 -0.004878802 -0.042307165 -0.014809897 0.009367159
0.0045899455 -0.037620105 -0.03901694 0.003448611 -0.02787309 -0.0122056985 -0.027927304 -0.02960587
-0.022196176 -0.045304682 -0.02507155 -0.044884454 -0.021432782 -0.031027146 -0.008768736 -0.015711356
-0.016567323 -0.0106160445 -0.02482693 -0.04871783 -0.024539802 -0.007340286 -6.534002e-05 -0.028292872
00000000: d6c9 65bb 7c66 0b3c 6d36 a4bc c962 073b
00000010: fba7 363c 17c7 a4bc 0bf0 18bd baa3 333a
00000020: 9a7a eabc ca3d 26bd bd9a 2dbd 5d5d 67bb
00000030: 5781 f6bb 6259 ca3b 1853 80bd 0a78 1abd
00000040: 66aa fbbc 9d1e bdbb fae6 19ba 60d4 29bc
00000050: fdbc 32bd 995e 0dbd 4feb d6bc a4f1 dfbc
00000060: 7aff 3abd f728 5fbc 5071 9cbc 53c0 a3bc
00000070: 4fc8 a4bc ad89 863b 1916 f8bc 6fbe 09bd
00000080: d336 62bc 32b2 3abc 6510 543b 153c c9bc
00000090: 5cde 9fbb 474a 2dbd 36a5 72bc b678 193c
000000a0: 4167 963b 8a17 1abd 3ad0 1fbd 1702 623b
000000b0: 1b56 e4bc 69fa 47bc cdc7 e4bc 0288 f2bc
000000c0: c1d4 b5bc 6791 39bd da62 cdbc c3d8 37bd
000000d0: cd93 afbc a42c febc bfaa 0fbc 1ab5 80bc
000000e0: 32b8 87bc ebee 2dbc d961 cbbc 598c 47bd
000000f0: b207 c9bc c886 f0bb 2807 89b8 74c6 e7bc

model/time_distributed_5/dense/BiasAdd/ReadVariableOp/resource f4 [32]
-0.031926215 -0.024468997 0.05114876 -0.05811784 0.014436448 -0.016515763 -0.004988512 0.03771767
0.042268254 -0.04013145 0.061216835 -0.04377971 0.012502098 -0.024759535 0.0006755844 -0.014701021
-0.012484802 -0.011128638 -0.00079531875 -0.024278998 0.033595555 -0.009739163 0.0536473 0.0029073844
-0.0030657782 -0.01546682 -0.030026922 -0.024603264 0.0022274423 0.013161411 -0.074486755 0.039899454
00000000: 10c5 02bd 3573 c8bc 5d81 513d f90c 6ebd
00000010: da86 6c3c 114c 87bc ac76 a3bb d87d 1a3d
00000020: 7a21 2d3d e060 24bd 81be 7a3d 5a52 33bd
00000030: 9ad5 4c3c 82d4 cabc b419 313a 8ddc 70bc
00000040: 0e8d 4cbc e454 36bc f07c 50ba c0e4 c6bc
00000050: 7e9b 093d 0391 1fbc 45bd 5b3d d189 3e3b
00000060: 39eb 48bb 8c68 7dbc 05fb f5bc c98c c9bc
00000070: 48fa 113b f5a2 573c 838c 98bd 9c6d 233d

model/dense_2/MatMul f4 [256, 32]
0.12752683 0.33849338 0.23082444 0.30834264 -0.069050625 -0.20338792 0.008961173 0.14570065
-0.052017786 -0.07181183 0.044143587 0.22191821 0.050681602 0.15046763 -0.13894597 0.22342603
-0.14057764 -0.121468216 -0.12673327 -0.16283895 0.012330299 0.08767705 -0.09091004 -0.19655703
0.06388666 0.038499303 -0.11037133 0.17947572 -0.0064237504 0.08127083 -0.048865467 0.10087985
0.02413734 0.05577155 0.121052876 0.10843585 -0.15523657 -0.0014038442 0.12281205 0.15117194
-0.1891574 -0.02944873 -0.27834514 0.21191244 0.28069165 0.038609833 -0.10014912 0.021683875
-0.2771633 -0.099400386 0.032115687 -0.024933834 0.13995725 -0.12097982 0.083904766 0.12194327
-0.18943036 -0.15634729 -0.06968033 0.043749332 0.015789896 -0.14461087 0.10296953 0.11290482
0.28274104 0.009168198 0.30474707 -0.060142655 -0.10873498 0.21070157 0.17553927 0.15284646
-0.22724238 0.029257156 -0.03038255 0.120479144 0.032039244 0.07430794 -0.23533711 0.32429004
-0.074539274 0.03882681 -0.15567057 -0.012186385 -0.09482565 -0.043508027 -0.014262862 -0.18882057
0.20932382 -0.058195043 -0.028518671 0.03604774 0.08856633 -0.055098988 0.26420242 -0.0632281
-0.15084577 0.046198353 -0.027166033 -0.211192 -0.13127182 0.21628137 -0.21806884 -0.22460066
0.11655988 -0.101661004 0.14795016 -0.0013205754 0.12130576 0.27703935 0.064139105 -0.061327893
0.07468543 0.24357477 0.208901 0.16571829 -0.13952246 0.036329057 -0.06299525 0.064899944
-0.18522093 0.06294531 -0.012809389 0.13639362 0.06839891 0.35310373 -0.25675786 0.06486591
0.14099675 0.27191633 0.010882702 0.37192455 -0.2599958 -0.10662419 0.07403797 0.11881303
-0.24050848 0.03948571 0.118434824 0.17033035 0.17428486 -0.05721287 0.117689356 0.30763805
-0.09449571 -0.20408227 -0.1192245 -0.19713423 0.087780066 0.09084535 0.05268981 -0.18854685
0.102559984 0.04959998 -0.08216523 0.26289716 0.022550594 -0.05631197 -0.050832897 -0.086823635
-0.041407485 -0.3303982 -0.0051528243 0.011239526 0.12664458 0.07315079 -0.077823445 0.14956795
0.02689588 -0.0920301 -0.114788435 0.102314524 0.35404003 0.26377106 -0.021908892 0.17467336
0.059347693 -0.0507293 0.24949238 0.09006007 -0.03218582 0.07761604 -0.09440962 -0.013996044
-0.063704155 -0.03128674 -0.05197016 0.017912023 0.06262376 -0.068572655 0.017421167 0.11468552
0.12843247 0.09368027 0.12508544 0.14106913 0.16014147 -0.10312588 0.062985875 0.061901722
-0.098844215 0.23971331 0.08790453 0.16524048 -0.08126274 -0.3368871 -0.015557497 -0.24931785
-0.060692187 0.09169773 -0.14920945 -0.22336167 -0.12227927 0.18995698 0.0940652 -0.053181455
0.033062793 -0.11264749 0.1069863 0.07610194 0.27632022 -0.11148951 -0.025243893 -0.10750923
0.1860122 0.16451767 -0.02494998 -0.28911188 -0.06522135 -0.026801161 -0.27389112 0.23931536
-0.03176598 0.0042805313 0.14834169 0.19724758 -0.2911058 -0.007571827 0.0969711 -0.1160613
-0.041171316 -0.018352615 -0.04455687 0.0068914294 -0.08437823 0.06288979 -0.033700496 -0.16438922
0.04233716 -0.0057075457 -0.13779423 -0.25945488 0.019932803 -0.089053124 -0.04896647 -0.19446105
00000000: 6596 023e 014f ad3e 3e5d 6c3e 16df 9d3e
00000010: 6a6a 8dbd ec44 50be e2d1 123c 8d32 153e
00000020: 9a10 55bd 1512 93bd e8cf 343d 873e 633e
00000030: 8397 4f3d 3014 1a3e da47 0ebe cbc9 643e
00000040: 96f3 0fbe 54c4 f8bd 5ec6 01be 41bf 26be
00000050: 0605 4a3c 0690 b33d 0b2f babd 3f46 49be
00000060: 02d7 823d 72b1 1d3d 5d0a e2bd 7cc8 373e
00000070: 537e d2bb 5271 a63d 2827 48bd 189a ce3d
00000080: acbb c53c b570 643d 92ea f73d 9d13 de3d
00000090: 56f6 1ebe 3201 b8ba e284 fb3d d1cc 1a3e
000000a0: 7ab2 41be 773e f1bc 4183 8ebe 93ff 583e
000000b0: d1b6 8f3e 5825 1e3d fb1a cdbd 62a2 b13c
000000c0: 59e8 8dbe 6e92 cbbd bd8b 033d 0a42 ccbc
000000d0: f450 0f3e 45c4 f7bd 43d6 ab3d 65bd f93d
000000e0: 08fa 41be 8119 20be 90b4 8ebd 8032 333d
000000f0: d059 813c df14 14be b0e1 d23d a43a e73d
00000100: 6fc3 903e 3636 163c cf07 9c3e 2558 76bd
00000110: 72b0 debd 27c2 573e 91c0 333e c883 1c3e
00000120: 3ab2 68be b4ac ef3c d3e4 f8bc c5bd f63d
00000130: 953b 033d c32e 983d 36fc 70be 5809 a63e
00000140: 0ca8 98bd dc08 1f3d 1b68 1fbe 67a9 47bc
00000150: f333 c2bd 7935 32bd c7ae 69bc 2e5a 41be
00000160: fc58 563e ed5d 6ebd fd9f e9bc cca6 133d
00000170: 4462 b53d 7aaf 61bd 8a45 873e bc7d 81bd
00000180: 5077 1abe 7c3a 3d3d 4d8b debc b742 58be
00000190: 1f6c 06be dd78 5d3e 704d 5fbe b7fd 65be
000001a0: f2b6 ee3d a533 d0bd 3f80 173e 2817 adba
000001b0: 286f f83d 1ad8 8d3e 5d5b 833d f532 7bbd
000001c0: adf4 983d aa6b 793e 25ea 553e 0eb2 293e
000001d0: fade 0ebe c7cd 143d a703 81bd 43ea 843d
000001e0: 8eaa 3dbe 78e9 803d 79de 51bc c5aa 0b3e
000001f0: ba14 8c3d 03ca b43e c475 83be 6bd8 843d
00000200: 7461 103e 9e38 8b3e 5c4d 323c e56c be3e
00000210: 2b1e 85be c95d dabd 38a1 973d 3f54 f33d
00000220: db47 76be c5bb 213d f58d f23d 146b 2e3e
00000230: bb77 323e 0b58 6abd 1e07 f13d bc82 9d3e
00000240: f886 c1bd f1fa 50be fa2b f4bd 8edd 49be
00000250: 09c6 b33d 200d ba3d 45d1 573d 6d12 41be
00000260: f80a d23d 5929 4b3d 3e46 a8bd 759a 863e
00000270: 06bc b83c 61a7 66bd 2836 50bd 97d0 b1bd
00000280: e59a 29bd f429 a9be 06d9 a8bb fd25 383c
00000290: 1eaf 013e 15d0 953d e661 9fbd 5728 193e
000002a0: c054 dc3c 477a bcbd 3316 ebbd 478a d13d
000002b0: bc44 b53e 000d 873e 477a b3bc 93dd 323e
000002c0: 9116 733d 87c9 4fbd ee7a 7f3e 6a71 b83d
000002d0: 47d5 03bd 29f5 9e3d d559 c1bd aa4f 65bc
000002e0: 5377 82bd 8626 00bd aade 54bd 3cbc 923c
000002f0: e340 803d d26f 8cbd d6b6 8e3c 3ee0 ea3d
00000300: cd83 033e 71db bf3d 6616 003e 6d74 103e
00000310: 20fc 233e a933 d3bd bdfe 803d a98c 7d3d
00000320: d66e cabd 6877 753e 4a07 b43d cd34 293e
00000330: 146d a6bd 777c acbe dfe4 7ebc 2e4d 7fbe
00000340: 5f98 78bd 05cc bb3d 5dca 18be ecb8 64be
00000350: 8e6d fabd 1584 423e 41a5 c03d ccd4 59bd
00000360: da6c 073d bab3 e6bd a21b db3d 55db 9b3d
00000370: d879 8d3e 9d54 e4bd 48cc cebc cd2d dcbd
00000380: fb79 3e3e 5277 283e e763 ccbc 7906 94be
00000390: c592 85bd 1c8e dbbc 753b 8cbe 160f 753e
000003a0: 0b1d 02bd b343 8c3b e2e6 173e 45fb 493e
000003b0: d20b 95be 171d f8bb c998 c63d 8cb1 edbd
000003c0: 41a3 28bd 3958 96bc 4481 36bd 80d1 e13b
000003d0: 7ece acbd 5dcc 803d 8809 0abd a655 28be
000003e0: bb69 2d3d 5d06 bbbb ee19 0dbe 45d7 84be
000003f0: 1e4a a33c 7c61 b6bd 1191 48bd cc20 47be

model/last_layer/MatMul f4 [31, 256]
-0.06776416 -0.0043905945 -0.11650114 -0.022148523 -0.09279107 0.11374098 -0.09719696 -0.019496392
-0.017292093 -0.059009373 -0.039539378 -0.06348712 -0.0179707 0.08104513 0.034368627 -0.0034406998
0.06663995 0.053844698 -0.005128218 0.035733037 -0.14049794 -0.023578221 0.110020295 0.032592583
-0.041270487 -0.07433938 -0.03461736 0.11497435 0.00066021027 0.0762078 0.019488659 -0.11698993
-0.022953628 -0.10464946 -0.026764018 -0.08136428 0.0053039608 0.0635724 -0.070991695 -0.12444059
0.01436612 0.059136692 -0.030632341 0.081656866 0.011768213 0.06325098 -0.043454785 -0.012135628
0.027229782 -0.120777175 0.05569925 0.11023115 -0.010772802 -0.032384157 -0.0045537557 0.038216423
0.05316189 -0.11609851 -0.0036534048 -0.053735834 -0.064830035 0.0344709 -0.14639124 -0.014459132
0.075904876 0.023262616 -0.035799373 0.08074422 -0.026604855 -0.02914628 -0.23537484 -0.03960685
-0.0003710795 0.08394781 -0.14409328 -0.18214104 -0.01819454 -0.08781901 -0.24973746 0.027460419
-0.12231235 0.03860523 -0.027829943 0.035794713 -0.1291251 0.014653041 0.008938722 -0.009765663
-0.09829703 0.058509246 -0.018807173 -0.099660486 -0.1302867 -0.13391462 -0.0029763859 -0.10769422
-0.0033016761 -0.12532386 0.00043835695 -0.07471933 0.08007363 0.03456585 -0.02003059 -0.12874898
-0.054569732 -0.032016512 -0.042790614 0.11636369 -0.13494015 0.006913581 -0.10554921 0.009547295
0.08737644 0.042595357 -0.07214723 0.07405073 -0.17547773 -0.0011879811 -0.016828908 0.095052995
-0.010179816 0.03412586 0.016974423 -0.045812085 -0.074022174 -0.08522125 -0.018273452 0.1089011
-0.005786569 -0.17158024 -0.06526586 -0.04458432 0.00371058 0.032637622 -0.09695513 0.0068656425
-0.05250203 0.09734412 -0.06842833 0.072166115 -0.041129686 -0.11003459 0.11656643 -0.018428458
-0.08054831 0.02328528 -0.10263465 0.005263784 -0.0010579936 0.045893706 -0.05471204 -0.0074197273
0.022313742 -0.017010897 -0.048638534 0.019027922 -0.07920667 -0.049918797 0.16713081 -0.09280277
-0.03913162 0.06485193 -0.052828327 -0.07821744 0.053062394 0.05619571 0.0074563157 0.033181172
0.07325864 -0.14111094 0.013311522 -0.029580057 0.021068534 -0.029225808 -0.03594807 -0.052119203
-0.17110844 0.11125122 -0.16744521 0.0045841234 -0.057075344 0.1430576 0.0737196 -0.12960702
0.055950843 0.03239215 -0.026239324 0.073177174 -0.08486259 -0.084267385 -0.03084323 -0.06624587
-0.084946916 0.060349155 -0.057027165 -0.010049467 -0.038658146 -0.05619554 0.040328372 -0.015081209
-0.005465808 0.07807902 0.02731066 -0.09434022 -0.027873227 -0.15578063 0.016373787 -0.14034086
-0.031548418 -0.011403534 -0.12347308 0.06615934 0.01423992 -0.02866566 -0.042560976 -0.11008157
0.050361417 0.014292678 0.008536607 0.06803743 -0.01830938 0.05824848 0.02979153 0.06943344
0.008933213 0.09943506 -0.21231548 -0.007992743 0.025385512 -0.047392163 -0.12259257 -0.07169671
-0.06182199 -0.06230466 -0.047692977 -0.023961524 0.035609256 -0.087777965 0.07783804 -0.07907301
0.034242082 -0.061701022 -0.018364096 -0.03692366 -0.07548958 0.02081069 -0.10883688 -0.09895353
-0.15667965 -0.0132131 0.10854512 -0.034402896 0.020889675 -0.034113877 0.04752656 -0.08118271
00000000: f0c7 8abd fade 8fbb 2698 eebd d270 b5bc
00000010: 3f09 bebd 08f1 e83d 330f c7bd e6b6 9fbc
00000020: 26a8 8dbc d0b3 71bd 0bf4 21bd 8905 82bd
00000030: 4a37 93bc fdfa a53d 1ec6 0c3d 5d7d 61bb
00000040: 877a 883d 428c 5c3d 9c0a a8bb ce5c 123d
00000050: b1de 0fbe 1d27 c1bc 5252 e13d cd7f 053d
00000060: 3e0b 29bd 3f3f 98bd efca 0dbd ac77 eb3d
00000070: f611 2d3a d612 9c3d aea6 9f3c 6b98 efbd
00000080: 3f09 bcbc 7552 d6bd 3740 dbbc 51a2 a6bd
00000090: d9cc ad3b 3f32 823d 1864 91bd b5da febd
000000a0: e05f 6b3c 5139 723d adf0 fabc b73b a73d
000000b0: 76cf 403c bb89 813d a5fd 31bd 83d4 46bc
000000c0: fe10 df3c 065a f7bd e624 643d dfc0 e13d
000000d0: 6880 30bc 40a5 04bd ac37 95bb d388 1c3d
000000e0: 48c0 593d 0ec5 edbd f66d 6fbb 1b1a 5cbd
000000f0: 9cc5 84bd 5c31 0d3d 96e7 15be ffe5 6cbc
00000100: 0474 9b3d 3e91 be3c 5da2 12bd 3a5d a53d
00000110: 6df2 d9bc 2ec4 eebc 1a06 71be cb3a 22bd
00000120: 738d c2b9 d4ec ab3d 308d 13be 2e83 3abe
00000130: b70c 95bc 74da b3bd 2dbb 7fbe acf4 e03c
00000140: e67e fabd 8520 1e3d 9ffb e3bc 7a9d 123d
00000150: 5f39 04be 4f13 703c b873 123c 2900 20bc
00000160: f44f c9bd 64a7 6f3d 8011 9abc cc1a ccbd
00000170: e069 05be ea20 09be 780f 43bb ca8e dcbd
00000180: ef60 58bb e654 00be 46d3 e539 7306 99bd
00000190: a5fd a33d ec94 0d3d 3117 a4bc c6d6 03be
000001a0: 8384 5fbd bf23 03bd 3645 2fbd 1650 ee3d
000001b0: c02d 0abe 528b e23b 2f2a d8bd 426c 1c3c
000001c0: 6bf2 b23d 7878 2e3d edc1 93bd e9a7 973d
000001d0: 6fb0 33be 08b6 9bba c7dc 89bc 25ab c23d
000001e0: 3ec9 26bc 8fc7 0b3d f20d 8b3c 74a5 3bbd
000001f0: f098 97bd 7b88 aebd 35b2 95bc 8a07 df3d
00000200: 429d bdbb bbb2 2fbe 1baa 85bd 0c9e 36bd
00000210: 342d 733b 07af 053d 6990 c6bd 2ff9 e03b
00000220: 5e0c 57bd 5b5c c73d 2724 8cbd d4cb 933d
00000230: 9a77 28bd d159 e1bd 61ba ee3d 47f7 96bc
00000240: 83f6 a4bd c6c0 be3c 1e32 d2bd d27b ac3b
00000250: 60ac 8aba 0afb 3b3d bb19 60bd 2f21 f3bb
00000260: 4fcb b63c 705a 8bbc 3339 47bd 72e0 9b3c
00000270: 1b37 a2bd a777 4cbd 5724 2b3e 610f bebd
00000280: 7a48 20bd 17d1 843d 8462 58bd 7730 a0bd
00000290: f457 593d 792d 663d 1c54 f43b fbe8 073d
000002a0: a008 963d 637f 10be 9218 5a3c e051 f2bc
000002b0: eb97 ac3c f66a efbc 493e 13bd f27a 55bd
000002c0: 0d37 2fbe aed7 e33d c276 2bbe 6a36 963b
000002d0: d6c7 69bd b17d 123e 4dfa 963d b4b7 04be
000002e0: b62c 653d a2ad 043d daf3 d6bc eadd 953d
000002f0: 70cc adbd 6194 acbd f1aa fcbc eaab 87bd
00000300: a6f8 adbd ad30 773d 5195 69bd 85a6 24bc
00000310: 0158 1ebd 4b2d 66bd 5d2f 253d 2d17 77bc
00000320: 851a b3bb e5e7 9f3d 9bba df3c 7235 c1bd
00000330: 6556 e4bc f584 1fbe 5222 863c 84b5 0fbe
00000340: ea38 01bd e3d5 3abc 74df fcbd 8c7e 873d
00000350: 8e4e 693c 3fd4 eabc 6b54 2ebd 7272 e1bd
00000360: c647 4e3d d62b 6a3c 20dd 0b3c 3557 8b3d
00000370: 8efd 95bc f595 6e3d 5e0d f43c 1f33 8e3d
00000380: 9c5c 123c 9ca4 cb3d 3b69 59be fef3 02bc
00000390: 47f5 cf3c 491e 42bd d011 fbbd bad5 92bd
000003a0: 0e39 7dbd 2c33 7fbd b659 43bd f54a c4bc
000003b0: 03db 113d efc4 b3bd 8d69 9f3d 08f1 a1bd
000003c0: 6d41 0c3d 36ba 7cbd 4d70 96bc 443d 17bd
000003d0: 489a 9abd 2e7b aa3c dfe5 debd 26a8 cabd
000003e0: a170 20be c27b 58bc e74c de3d 0dea 0cbd
000003f0: d320 ab3c feba 0bbd 36ab 423d 1f43 a6bd

model/time_distributed_11/dense_1/MatMul f4 [64, 1488]
-0.0042989124 0.033154856 0.03354523 0.01264894 0.028542388 0.051362466 0.06679201 0.029975938
0.07314714 -0.033778917 0.08534247 -0.00033812484 0.044603497 -0.046747867 -0.024208166 0.011710456
-0.029766317 0.04836318 0.01632709 0.016729593 -0.031651758 -0.016477093 0.06752333 0.022212038
-0.03350191 -0.03990314 0.06157658 -0.01845218 -0.016142417 -0.033494197 0.08404078 0.042971555
-0.046040006 0.031366855 -0.026007785 -0.04582504 0.019502021 -0.0630482 0.08284894 0.07906197
0.0773369 -0.01673481 -0.012948183 -0.011398133 -0.016615625 -0.038760085 0.06028056 0.051222328
-0.041132983 -0.018231694 -0.019950502 0.017289784 0.062549 0.012648633 -0.011202261 0.08333977
0.050338615 -0.00035707696 0.032234218 -0.072966136 -0.07106573 0.060355444 0.066086516 -0.031654485
0.037237983 0.03339762 -0.026651362 0.045891307 0.07611695 0.010157277 -0.040238872 0.07643664
-0.025247 -0.060602825 0.04737148 0.0039182543 0.03835864 0.07666241 0.04632361 -0.049584463
-0.006147504 0.012704303 0.064119734 -0.056331404 0.01369584 -0.050721705 -0.026316114 0.078334
-0.06656668 0.03403343 0.025669836 0.021053994 -0.03503833 0.00035437022 -0.055809125 -0.06726041
0.045896493 -0.031241072 0.00789408 0.0036968065 -0.044218373 0.07262713 -0.052395895 -0.0593715
-0.01766623 -0.016417073 -0.0039660935 0.028740307 -0.02761463 0.06820156 -0.05322972 0.01101963
-0.017706566 0.008064036 -0.03278824 0.026728088 -0.042721983 0.025168894 0.056153916 0.0062276423
-0.04600278 -0.023826627 0.047975414 -0.034187533 -0.033656504 0.00019710357 0.012895814 -0.022625975
0.042339474 0.024988273 0.006089248 -0.034744307 -0.019219514 0.017091963 0.05825218 -0.0052235993
-0.036989063 0.026135677 -0.03109525 -0.018216496 0.05694328 0.058372352 -0.037507646 0.0652785
-0.04620144 0.020671912 -0.037007987 -0.032141678 -0.04894879 -0.018433094 0.076102085 0.031180318
-0.053827655 -0.046194267 0.04808622 0.07278287 -0.0009419904 -0.039596092 0.025331266 0.046998724
-0.020070879 0.022554053 0.032625634 0.0031116228 0.012376204 -0.046540994 0.076092124 -0.048772126
0.0049094656 -0.026911957 0.04201941 0.036146577 0.009857056 0.0382539 0.019304192 0.0476005
-0.031235537 -0.05630977 -0.033944853 -0.017744182 0.006089265 0.030454926 0.04562284 -0.019097438
0.043664478 -0.051071435 0.027775062 -0.02359451 0.06463471 0.02831723 0.024556361 0.04891021
0.020808892 0.010237321 0.04813798 0.07607043 -0.00241034 -0.04615419 0.06334763 -0.012937624
0.045912314 -0.07274574 0.024830017 0.025536101 0.12018503 -0.045189068 0.05567038 0.079132564
0.008956222 -0.0133632915 0.0636651 0.012992087 0.023256248 0.0502403 0.05064186 -0.042932272
0.08988645 -0.08067853 -0.049624003 0.058844212 0.0613044 -0.056673672 0.022001084 0.028407525
0.05087828 -0.022843638 -0.018246787 0.096440375 -0.058656864 0.056190614 0.0061382214 -0.049626227
0.055043787 -0.014738715 -0.00881963 0.023431646 0.038276415 -0.016967911 0.073087566 0.012673371
0.010767722 0.01302009 -0.0011174798 0.059821125 0.016197888 -0.048660804 -0.039794553 0.016146181
-0.030452669 0.0069315336 -0.052411962 -0.07450141 -0.025350226 -0.064323545 0.070408635 0.035092384
00000000: e4dd 8cbb 63cd 073d b966 093d 803d 4f3c
00000010: bad1 e93c 7361 523d 40ca 883d 1990 f53c
00000020: 2bce 953d c35b 0abd 08c8 ae3d 5946 b1b9
00000030: 28b2 363d b17a 3fbd 3450 c6bc 36dd 3f3c
00000040: 7ed8 f3bc 7818 463d 64c0 853c 800c 893c
00000050: 46a5 01bd f8fa 86bc ac49 8a3d 05f6 b53c
00000060: 4c39 09bd 7a71 23bd b937 7c3d 0729 97bc
00000070: 1a3d 84bc 3631 09bd 931d ac3d f102 303d
00000080: 7294 3cbd 887a 003d 470e d5bc 0ab3 3bbd
00000090: b4c2 9f3c 6a1f 81bd b4ac a93d 3eeb a13d
000000a0: cf62 9e3d 7117 89bc 9e24 54bc 3cbf 3abc
000000b0: 7e1d 88bc e5c2 1ebd c0e8 763d 81ce 513d
000000c0: 0f7b 28bd a25a 95bc 3c6f a3bc 4ea3 8d3c
000000d0: b119 803d 363c 4f3c b089 37bc 0bae aa3d
000000e0: dd2f 4e3d 0f36 bbb9 0708 043d 456f 95bd
000000f0: e98a 91bd 4537 773d 5e58 873d 22a8 01bd
00000100: db86 183d f1cb 083d f553 dabc 86f8 3b3d
00000110: 34e3 9b3d b56a 263c 84d1 24bd d08a 9c3d
00000120: ccd2 cebc ab3a 78bd 9908 423d b364 803b
00000130: f31d 1d3d 2e01 9d3d d3bd 3d3d 1419 4bbd
00000140: 0071 c9bb b525 503c 3551 833d c2bb 66bd
00000150: 8464 603c 90c1 4fbd e494 d7bc 946d a03d
00000160: 1d54 88bd a366 0b3d 8c49 d23c 6d79 ac3c
00000170: 5a84 0fbd c4ca b939 1c98 64bd d3bf 89bd
00000180: f6fd 3b3d 47ed ffbc 2c56 013c 1f46 723b
00000190: 531e 35bd 88bd 943d 149d 56bd 882f 73bd
000001a0: c5b8 90bc 197d 86bc 01f6 81bb cb70 eb3c
000001b0: 1438 e2bc 42ad 8b3d 6807 5abd ae8b 343c
000001c0: 5c0d 91bc 051f 043c f64c 06bd ddf4 da3c
000001d0: 3ffd 2ebd ff2e ce3c a601 663d 4011 cc3b
000001e0: 696d 3cbd 0f30 c3bc de81 443d 3a08 0cbd
000001f0: 67db 09bd 96ad 4e39 f748 533c 1c5a b9bc
00000200: 286c 2d3d 35b4 cc3c 5188 c73b 0c50 0ebd
00000210: 3e72 9dbc 7204 8c3c d799 6e3d ba2a abbb
00000220: d881 17bd 7d1a d63c 77bb febc c33a 95bc
00000230: 5b3d 693d d917 6f3d 9ea1 19bd bcb0 853d
00000240: b93d 3dbd 2458 a93c b095 17bd fea6 03bd
00000250: 877e 48bd 0001 97bc 69db 9b3d de6d ff3c
00000260: 637a 5cbd 3336 3dbd 0ef6 443d 2f0f 953d
00000270: e8ef 76ba 832f 22bd 8483 cf3c bc81 403d
00000280: af6b a4bc 47c3 b83c 75a2 053d 5eec 4b3b
00000290: 90c5 4a3c c5a1 3ebd 30d6 9b3d 48c5 47bd
000002a0: 95df a03b 7776 dcbc 8b1c 2c3d 6f0e 143d
000002b0: 7d7f 213c 1fb0 1c3d d323 9e3c bef8 423d
000002c0: abe1 ffbc 13a5 66bd c209 0bbd 3f5c 91bc
000002d0: 7588 c73b 9c7c f93c 04df 3a3d 3b72 9cbc
000002e0: 86d9 323d 4830 51bd 8788 e33c 4649 c1bc
000002f0: 345f 843d 89f9 e73c 6c2a c93c 1356 483d
00000300: 6977 aa3c 70ba 273c 552c 453d d0ca 9b3d
00000310: cbf6 1dbb 2d0c 3dbd 67bc 813d 54f8 53bc
00000320: 8d0e 3c3d b8fb 94bd 5268 cb3c 1631 d13c
00000330: 9223 f63d 2c18 39bd a006 643d 4110 a23d
00000340: 1ebd 123c b5f1 5abc d962 823d c3dc 543c
00000350: e383 be3c c6c8 4d3d d76d 4f3d c0d9 2fbd
00000360: 6316 b83d c93a a5bd 8a42 4bbd a106 713d
00000370: 531a 7b3d a722 68bd 9e3b b43c e6b6 e83c
00000380: be65 503d 9522 bbbc 497a 95bc 8882 c53d
00000390: 2e42 70bd 2128 663d 2223 c93b df44 4bbd
000003a0: 9875 613d a77a 71bc 3680 10bc b9f3 bf3c
000003b0: bbc7 1c3d 4a00 8bbc efae 953d f8a3 4f3c
000003c0: 196b 303c 3752 553c 6678 92ba ff06 753d
000003d0: 6fb1 843c 8d50 47bd 9dff 22bd ff44 843c
000003e0: e077 f9bc eb21 e33b edad 56bd 3294 98bd
000003f0: 47ab cfbc 10bc 83bd 6732 903d 08bd 0f3d

model/time_distributed_3/batch_normalization/FusedBatchNormV3 f4 [8]
-1.0950459 -1.2790549 -1.3907386 -1.3119023 -1.3014708 -1.5118198 -1.2517055 -1.5308259
00000000: 772a 8cbf 12b8 a3bf b903 b2bf 6aec a7bf
00000010: 9896 a6bf 5083 c1bf e337 a0bf 1af2 c3bf

model/time_distributed_3/batch_normalization/FusedBatchNormV31 f4 [8]
0.93145794 0.9135466 0.84264785 0.9056874 0.87339795 0.8638127 0.8782795 0.888018
00000000: 0774 6e3f 31de 693f c5b7 573f 21db 673f
00000010: 0297 5f3f d422 5d3f edd6 603f 2655 633f

model/time_distributed_5/dense/MatMul f4 [32, 168]
0.12397674 0.021333043 0.02083089 -0.20046982 0.025051722 -0.02335731 0.070046715 0.04630601
0.15122285 0.08905788 -0.10835856 0.14613432 0.12266872 0.1450162 -0.09268716 0.13660817
0.023841986 -0.05567208 -0.077309586 -0.22505935 0.1728294 -0.00089245965 -0.027790071 -0.14950395
0.13750587 0.11110179 -0.06617949 -0.028589929 0.21442972 0.12872268 -0.13741541 0.12157707
-0.20011204 0.14097169 -0.09189938 -0.26249596 -0.13327393 0.10470786 -0.12553175 0.10217175
0.09713303 -0.21042144 0.10709774 -0.14378089 0.11332369 0.14733388 0.10455641 -0.008067281
0.1049044 -0.018451054 0.0057311766 0.15349464 -0.009208434 -0.082243465 0.1533803 -0.09092997
0.14326307 0.002996595 -0.27646214 -0.18434213 0.032290123 -0.056685593 -0.10210058 -0.015684837
0.11379867 -0.06244711 -0.0044182856 -0.138627 -0.15702067 0.059768915 0.042721353 0.16177803
-0.20105977 -0.22520545 -0.020435961 0.20761481 0.04302235 0.11203511 -0.095211126 -0.12375191
0.1408298 0.10649168 -0.06960038 0.08370968 0.052642673 -0.16726288 0.14562269 0.046180937
-0.20471744 0.09452821 -0.08236026 0.04909518 0.1520902 0.22871986 -0.06894536 -0.23488346
0.058823626 0.16308187 -0.00553403 0.1125964 -0.017819565 -0.05273566 0.19196598 -0.03212174
0.1946927 0.040813934 -0.10363074 0.08843382 0.11849234 -0.14980459 -0.02899741 0.17241776
-0.09578038 0.16178536 -0.04307841 0.0052860007 0.10133823 0.10084837 -0.07515976 0.020235434
-0.13956173 -0.21063174 -0.09931395 -0.12937462 -0.04604859 -0.20097078 -0.0798898 -0.28303957
-0.0492193 0.15193772 0.10462348 -0.11755015 -0.04982042 -0.16582535 0.17474522 -0.09971381
0.079812676 -0.061464913 -0.11502185 0.13416186 0.09063175 0.087526225 -0.13262795 -0.10770517
-0.02481774 -0.09827463 -0.16609329 0.110606715 -0.14344017 0.0690417 -0.093079746 -0.24509159
-0.0630525 -0.070730425 -0.03032459 -0.11554665 -0.15669517 -0.023704505 -0.16855174 0.01957717
-0.11017735 -0.03311288 -0.1295929 -0.071818694 -0.15159927 0.09992286 0.099373564 0.0061647682
-0.12327455 0.039472837 0.17280069 -0.10527811 0.18118058 0.122031756 -0.074441925 -0.043520264
-0.20952103 -0.21490927 -0.029794758 0.1338551 -0.055384517 -0.34469575 -0.15041894 -0.021573076
-0.15200277 0.048844475 0.09456987 -0.26177093 -0.019235935 0.18882008 0.17370379 -0.070491835
0.11808287 -0.12990339 0.012106108 -0.02291973 -0.06128397 0.13322523 -0.17952317 0.11902511
0.0067560133 0.13773216 -0.2316293 0.05273479 0.09536003 -0.008892571 0.01376008 -0.11551673
0.027750153 0.083733015 -0.039969817 -0.06566552 -0.07015249 0.1402962 0.023298025 0.032913625
0.04456782 0.0020044877 -0.21589282 -0.11624153 -0.014791418 -0.042682443 0.11781744 -0.10477623
-0.082502976 0.17639612 0.043810844 -0.19504753 -0.07901922 0.22420417 0.22517031 0.053361867
0.15195535 0.12424176 0.029830566 0.115447134 -0.032660846 0.010166718 -0.26879644 -0.2627064
-0.12568463 0.11785344 -0.30332756 -0.2996404 0.17795877 -0.17084982 0.24070743 -0.09222465
0.019951057 0.038540024 -0.039596166 -0.087803446 0.10704351 -0.034146294 -0.12249366 -0.06001118
00000000: 84e7 fd3d a2c2 ae3c 8ba5 aa3c f647 4dbe
00000010: 4539 cd3c d457 bfbc a774 8f3d 5fab 3d3d
00000020: 2ada 1a3e fa63 b63d 18eb ddbd 3ca4 153e
00000030: bd39 fb3d 207f 143e c4d2 bdbd 03e3 0b3e
00000040: 4550 c33c 6808 64bd 7d54 9ebd f575 66be
00000050: 31fa 303e f4f3 69ba 01a8 e3bc 9017 19be
00000060: 57ce 0c3e 5689 e33d 1d89 87bd 6d35 eabc
00000070: 7793 5b3e e1cf 033e a0b6 0cbe 66fd f83d
00000080: 2cea 4cbe e25a 103e be35 bcbd df65 86be
00000090: f678 08be 1371 d63d 658b 00be 6c3f d13d
000000a0: afed c63d b878 57be 0f56 db3d 4c3b 13be
000000b0: 4016 e83d b1de 163e ac21 d63d a12c 04bc
000000c0: 1ed8 d63d aa26 97bc 98cc bb3b b32d 1d3e
000000d0: f9de 16bc 436f a8bd ba0f 1d3e 7e39 babd
000000e0: 8eb3 123e 8662 443b 728c 8dbe 2fc4 3cbe
000000f0: a642 043d 272f 68bd 1c1a d1bd 7d7d 80bc
00000100: 470f e93d 8ac8 7fbd 44c7 90bb 3cf4 0dbe
00000110: 07ca 20be 40d0 743d 96fc 2e3d 24a9 253e
00000120: 9de2 4dbe 429c 66be 5169 a7bc fa98 543e
00000130: 3438 303d aa72 e53d 0dfe c2bd a471 fdbd
00000140: b035 103e 4f18 da3d a58a 8ebd fb6f ab3d
00000150: d89f 573d f646 2bbe 1d1e 153e 3928 3d3d
00000160: 73a1 51be 0298 c13d 7fac a8bd 0718 493d
00000170: 89bd 1b3e 8a35 6a3e 3a33 8dbd 4a85 70be
00000180: 0bf1 703d effe 263e cf56 b5bb f198 e63d
00000190: 56fa 91bc 5901 58bd bb92 443e 1692 03bd
000001a0: 865d 473e 832c 273d 5a3c d4bd ca1c b53d
000001b0: 1dac f23d 6066 19be fa8b edbc 488e 303e
000001c0: 8128 c4bd 10ab 253e fd72 30bd 3036 ad3b
000001d0: 6b8a cf3d 9789 ce3d 5ced 99bd c8c4 a53c
000001e0: 45e9 0ebe d9af 57be 1d65 cbbd c87a 04be
000001f0: 729d 3cbd 49cb 4dbe 439d a3bd 90ea 90be
00000200: 2d9a 49bd 9095 1b3e d644 d63d 22be f0bd
00000210: 7f10 4cbd 1fce 29be 69f0 323e c136 ccbd
00000220: d474 a33d a2c2 7bbd 9390 ebbd ba61 093e
00000230: 249d b93d f340 b33d 9fcf 07be 8794 dcbd
00000240: 934e cbbc 3644 c9bd 5c14 2abe c685 e23d
00000250: fbe1 12be bc65 8d3d 98a0 bebd 4af9 7abe
00000260: ab21 81bd 1ddb 90bd 466b f8bc b9a3 ecbd
00000270: b374 20be f32f c2bc d498 2cbe 4d60 a03c
00000280: aaa4 e1bd 5fa1 07bd 00b4 04be ae15 93bd
00000290: d73c 1bbe 5ba4 cc3d 5e84 cb3d d301 ca3b
000002a0: 5e77 fcbd 45ae 213d aaf2 303e 0d9c d7bd
000002b0: 6787 393e c9eb f93d 0275 98bd 4e42 32bd
000002c0: ae8c 56be 2d11 5cbe 2314 f4bc 5011 093e
000002d0: e0da 62bd f67b b0be 6c07 1abe 05ba b0bc
000002e0: 9da6 1bbe 2511 483d d9ad c13d d706 86be
000002f0: ae94 9dbc 0d5a 413e 68df 313e 065e 90bd
00000300: 6fd5 f13d 6505 05be b258 463c 28c2 bbbc
00000310: e604 7bbd 326c 083e ecd4 37be 70c3 f33d
00000320: 8c61 dd3b a909 0d3e 3b30 6dbe 6f00 583d
00000330: 1f4c c33d 25b2 11bc f571 613c 0994 ecbd
00000340: 4a54 e33c 377c ab3d 64b7 23bd a57b 86bd
00000350: 1cac 8fbd cfa9 0f3e 80db be3c 70d0 063d
00000360: bf8c 363d b95d 033b 0213 5dbe 0a10 eebd
00000370: b457 72bc c9d3 2ebd 454a f13d ec94 d6bd
00000380: 52f7 a8bd 2fa1 343e 0073 333d 8aba 47be
00000390: d4d4 a1bd c795 653e 0c93 663e f991 5a3d
000003a0: 2f9a 1b3e 7772 fe3d 3b5f f43c 8c6f ec3d
000003b0: 61c7 05bd 4e92 263c b09f 89be 7481 86be
000003c0: 79b3 00be 255d f13d c04d 9bbe 776a 99be
000003d0: d33a 363e 41f3 2ebe 027c 763e 47e0 bcbd
000003e0: 6670 a33c 25dc 1d3d 972f 22bd 4bd2 b3bd
000003f0: a139 db3d fcdc 0bbd f5dd fabd 48ce 75bd

model/time_distributed_9/batch_normalization_1/FusedBatchNormV3 f4 [16]
-0.4771907 -0.6288668 -0.50775886 -0.39312467 -0.6308018 -0.4941942 -0.47500923 -0.58014923
-0.28706393 -0.5380594 -0.46907425 -0.5516426 -0.5515919 -0.46655387 -0.57336485 -0.39573765
00000000: 5752 f4be 6afd 20bf 7cfc 01bf a347 c9be
00000010: 3a7c 21bf 0607 fdbe 6934 f3be a984 14bf
00000020: 0bfa 92be 43be 09bf 802a f0be 7338 0dbf
00000030: 2035 0dbf 26e0 eebe 0ac8 12bf 209e cabe

model/time_distributed_9/batch_normalization_1/FusedBatchNormV31 f4 [16]
1.3300803 1.6311373 1.5502661 1.4885526 1.875321 1.2611264 1.6301591 1.6178845
1.9930747 1.6318095 1.6384212 1.3782859 1.7979273 1.5408725 1.526343 1.4774575
00000000: 1240 aa3f 1bc9 d03f 1f6f c63f e488 be3f
00000010: 850a f03f 976c a13f 0ea9 d03f d716 cf3f
00000020: 121d ff3f 22df d03f c9b7 d13f ac6b b03f
00000030: 7b22 e63f 4f3b c53f 355f c33f 541d bd3f
