HPC_Final_Study2_Complete_Test_Class_Balance_run_all/participants_session_transfer_train_fresh_model/participant_2/session_2/session_2_lite_models/indexpen_model_quant.tflite (tflite, 303344 bytes, 29 tensors)

model/time_distributed_6/conv2d_1/BiasAdd;model/time_distributed_6/conv2d_1/Conv2D;model/time_distributed_6/conv2d_1/BiasAdd/ReadVariableOp/resource f2 [16]
00000000: e82a 0c2d 1d2c 812c b929 eb2c 999f 2e2a
00000010: b72b c428 b52a d72d 3726 a028 ea2e 202b
0.05396 0.07886 0.0643 0.0704 0.0447 0.07684 -0.00742 0.04828
0.06027 0.03723 0.0524 0.09125 0.02428 0.03613 0.10803 0.05566

model/time_distributed/conv2d/BiasAdd;model/time_distributed/conv2d/Conv2D;model/time_distributed/conv2d/BiasAdd/ReadVariableOp/resource f2 [8]
00000000: dc1e a5b0 71af b3a7 ac30 1129 08af e223
0.0067 -0.1451 -0.1163 -0.03008 0.146 0.03958 -0.10986 0.015396

model/time_distributed_6/conv2d_1/Conv2D f2 [16, 3, 3, 1]
00000000: 0a2a be29 62ac 111e 2027 50a8 f7a8 3129
00000010: 441d 4b9b ff2d c4ad 2bad 1032 4baf 0224
00000020: 89af b62e 062d 9cb2 5f2f ce2a 1c2a 31ae
00000030: aea7 1b28 ca12 301a 782a 41a9 5f21 4ca1
00000040: 2ea5 2724 97a5 4324 d99d e8b0 2731 7fa5
00000050: 4a2b f8a9 1aa8 512a f1a4 3830 c7ac a7a9
00000060: aea9 4fab ae2d 3726 3229 2eaa 392b ceaf
00000070: a92c ee20 fd2c 64ad 7097 b129 dda9 42af
00000080: 512d 7b20 2f29 b1aa 1527 0dac b229 c624
00000090: 5aa2 921d 5298 892b 8aae d52b 4a2e 8cb1
000000a0: b52b c829 09ae 8a29 161e 8826 24aa b525
000000b0: 921e b59d 38ae bb31 b7ad 2622 cd2c 33ad
000000c0: 8aaa 7830 d4ad 9eaa 5733 80b1 eab0 642f
000000d0: 5628 842f 3db1 7b2a 63ae fb31 80ae e2ad
000000e0: 1331 a4ac 77ad dd32 23b0 ffa5 312e 99ab
000000f0: 1e20 59b0 de2e 8aa0 3429 2fa4 93a5 97a6
00000100: 441f a89e 5ca6 6d29 022c 0eb0 602b 5a1f
00000110: 31a5 651e 9d9d a226 1386 972c acac 5c9e
0.04718 0.04486 -0.0685 0.005924 0.02783 -0.0337 -0.0388 0.04056
0.005142 -0.003561 0.0937 -0.0901 -0.08075 0.1895 -0.11395 0.01566
-0.11774 0.10486 0.0785 -0.2065 0.1152 0.05316 0.04773 -0.09674
-0.03 0.03207 0.0008287 0.003021 0.05054 -0.04105 0.01049 -0.010345
-0.02023 0.01622 -0.02184 0.01665 -0.00571 -0.1533 0.161 -0.02147
0.05695 -0.04663 -0.03204 0.04935 -0.0193 0.1318 -0.07465 -0.04416
-0.04437 -0.0571 0.08875 0.02428 0.0406 -0.04828 0.05643 -0.12195
0.0728 0.00963 0.07794 -0.0842 -0.001816 0.04446 -0.0458 -0.1134
0.08307 0.00875 0.0405 -0.05228 0.02766 -0.0633 0.0445 0.01865
-0.012405 0.00544 -0.00211 0.05887 -0.1022 0.0612 0.09827 -0.1733
0.0602 0.04517 -0.0943 0.04327 0.005943 0.02551 -0.04797 0.0223
0.006416 -0.005573 -0.09717 0.1791 -0.0893 0.01201 0.075 -0.08124
-0.0511 0.1396 -0.09106 -0.0517 0.2294 -0.1719 -0.1536 0.1155
0.03387 0.11743 -0.1637 0.05063 -0.0998 0.1869 -0.10156 -0.0919
0.1586 -0.0725 -0.0854 0.2145 -0.1293 -0.02342 0.09674 -0.05936
0.00804 -0.1359 0.1073 -0.008865 0.04065 -0.01634 -0.02177 -0.02574
0.007095 -0.0065 -0.02484 0.0424 0.0626 -0.1267 0.05762 0.00718
-0.02028 0.006245 -0.00548 0.02591 -9.27e-05 0.0717 -0.073 -0.00621

model/time_distributed/conv2d/Conv2D f2 [8, 3, 3, 1]
00000000: f224 99a4 ea19 c6a2 2c28 fa17 2ba1 fda1
00000010: eb9f ff20 8aa8 be17 7c1c 3124 071b fca1
00000020: d499 7b0e 829e 3624 21a4 6a19 15a6 c225
00000030: 94a2 ab26 b2a7 c6a1 c924 0e24 7f22 01a7
00000040: 5d9f c59f 8a1c 9e1c 3b15 45a2 4427 f79f
00000050: f494 27a4 aa8c 3223 279f eba2 8e18 9e9b
00000060: 8f23 efa4 2621 0624 629e 7ca0 e925 47a1
00000070: 5420 141f 469f 4418 ac20 fe9f 141b a021
00000080: ef9d ee9a c9a3 5d98 3c28 6e20 2194 5ea4
0.01932 -0.01796 0.002888 -0.01323 0.0326 0.001947 -0.01009 -0.011696
-0.007732 0.00976 -0.03546 0.00189 0.00438 0.01637 0.003431 -0.01169
-0.002846 0.0003955 -0.006355 0.01645 -0.01613 0.002644 -0.02376 0.02249
-0.01285 0.02605 -0.03006 -0.01128 0.01869 0.01584 0.01269 -0.02736
-0.00719 -0.007587 0.004433 0.00451 0.001277 -0.012245 0.02838 -0.00778
-0.001209 -0.01622 -0.0002847 0.01405 -0.006985 -0.01351 0.002224 -0.00372
0.01476 -0.01927 0.010056 0.01572 -0.006233 -0.00876 0.02309 -0.01031
0.00845 0.006912 -0.007103 0.002083 0.009125 -0.007805 0.003456 0.01099
-0.005795 -0.003384 -0.015205 -0.00213 0.03308 0.00865 -0.001008 -0.01706

model/lstm/TensorArrayV2_1 f2 [120, 1, 32]
00000000: 0000 0000 0000 0000 0000 0000 0000 0000
00000010: 0000 0000 0000 0000 0000 0000 0000 0000
00000020: 0000 0000 0000 0000 0000 0000 0000 0000
00000030: 0000 0000 0000 0000 0000 0000 0000 0000
00000040: 0000 0000 0000 0000 0000 0000 0000 0000
00000050: 0000 0000 0000 0000 0000 0000 0000 0000
00000060: 0000 0000 0000 0000 0000 0000 0000 0000
00000070: 0000 0000 0000 0000 0000 0000 0000 0000
00000080: 0000 0000 0000 0000 0000 0000 0000 0000
00000090: 0000 0000 0000 0000 0000 0000 0000 0000
000000a0: 0000 0000 0000 0000 0000 0000 0000 0000
000000b0: 0000 0000 0000 0000 0000 0000 0000 0000
000000c0: 0000 0000 0000 0000 0000 0000 0000 0000
000000d0: 0000 0000 0000 0000 0000 0000 0000 0000
000000e0: 0000 0000 0000 0000 0000 0000 0000 0000
000000f0: 0000 0000 0000 0000 0000 0000 0000 0000
00000100: 0000 0000 0000 0000 0000 0000 0000 0000
00000110: 0000 0000 0000 0000 0000 0000 0000 0000
00000120: 0000 0000 0000 0000 0000 0000 0000 0000
00000130: 0000 0000 0000 0000 0000 0000 0000 0000
00000140: 0000 0000 0000 0000 0000 0000 0000 0000
00000150: 0000 0000 0000 0000 0000 0000 0000 0000
00000160: 0000 0000 0000 0000 0000 0000 0000 0000
00000170: 0000 0000 0000 0000 0000 0000 0000 0000
00000180: 0000 0000 0000 0000 0000 0000 0000 0000
00000190: 0000 0000 0000 0000 0000 0000 0000 0000
000001a0: 0000 0000 0000 0000 0000 0000 0000 0000
000001b0: 0000 0000 0000 0000 0000 0000 0000 0000
000001c0: 0000 0000 0000 0000 0000 0000 0000 0000
000001d0: 0000 0000 0000 0000 0000 0000 0000 0000
000001e0: 0000 0000 0000 0000 0000 0000 0000 0000
000001f0: 0000 0000 0000 0000 0000 0000 0000 0000
0.0 0.0 0.0 0.0 0.0 0.0 0.0 0.0
0.0 0.0 0.0 0.0 0.0 0.0 0.0 0.0
0.0 0.0 0.0 0.0 0.0 0.0 0.0 0.0
0.0 0.0 0.0 0.0 0.0 0.0 0.0 0.0
0.0 0.0 0.0 0.0 0.0 0.0 0.0 0.0
0.0 0.0 0.0 0.0 0.0 0.0 0.0 0.0
0.0 0.0 0.0 0.0 0.0 0.0 0.0 0.0
0.0 0.0 0.0 0.0 0.0 0.0 0.0 0.0
0.0 0.0 0.0 0.0 0.0 0.0 0.0 0.0
0.0 0.0 0.0 0.0 0.0 0.0 0.0 0.0
0.0 0.0 0.0 0.0 0.0 0.0 0.0 0.0
0.0 0.0 0.0 0.0 0.0 0.0 0.0 0.0
0.0 0.0 0.0 0.0 0.0 0.0 0.0 0.0
0.0 0.0 0.0 0.0 0.0 0.0 0.0 0.0
0.0 0.0 0.0 0.0 0.0 0.0 0.0 0.0
0.0 0.0 0.0 0.0 0.0 0.0 0.0 0.0
0.0 0.0 0.0 0.0 0.0 0.0 0.0 0.0
0.0 0.0 0.0 0.0 0.0 0.0 0.0 0.0
0.0 0.0 0.0 0.0 0.0 0.0 0.0 0.0
0.0 0.0 0.0 0.0 0.0 0.0 0.0 0.0
0.0 0.0 0.0 0.0 0.0 0.0 0.0 0.0
0.0 0.0 0.0 0.0 0.0 0.0 0.0 0.0
0.0 0.0 0.0 0.0 0.0 0.0 0.0 0.0
0.0 0.0 0.0 0.0 0.0 0.0 0.0 0.0
0.0 0.0 0.0 0.0 0.0 0.0 0.0 0.0
0.0 0.0 0.0 0.0 0.0 0.0 0.0 0.0
0.0 0.0 0.0 0.0 0.0 0.0 0.0 0.0
0.0 0.0 0.0 0.0 0.0 0.0 0.0 0.0
0.0 0.0 0.0 0.0 0.0 0.0 0.0 0.0
0.0 0.0 0.0 0.0 0.0 0.0 0.0 0.0
0.0 0.0 0.0 0.0 0.0 0.0 0.0 0.0
0.0 0.0 0.0 0.0 0.0 0.0 0.0 0.0

model/dense_2/BiasAdd/ReadVariableOp/resource f2 [256]
00000000: 782b ae2d fc2c 9d2d fd25 262e 722f 5c2c
00000010: 952a 852f 8f2e 892c 9e2f 0030 4d30 8f2c
00000020: a22a 602a 5b30 1130 fe2c 3125 0829 b32d
00000030: c529 682c 592b 7d2d d52c 2c31 3e30 3530
00000040: fe2a 6724 d82c 032d 312c 042c 5f2e db2e
00000050: 622d 332d a92e 0330 8630 652c 132c 1f2a
00000060: 802c 1c30 582c 622e 252d 132e b72f d22c
00000070: 1030 d32d 2d2b 732d 042d 7727 3e31 f52b
00000080: 632c 5b2c 2528 0320 4030 4927 552c cc2d
00000090: 4e28 902d 352e e0a4 4a2c d92b e12c ee2f
000000a0: 1e2e c92c 2430 be2e 3c30 392e a830 7a2b
000000b0: 502e d32c 2d2c 8230 472d 6c2d 4f31 382c
000000c0: ad2a 4d2f 602e 422a 332c 4d2e 022d 072d
000000d0: a12d fc2c 302e a32c 282d 5b29 7130 8a2f
000000e0: 872e 5e2c 4f2e 7e2d f72f 432c 052d 3b2e
000000f0: 962c 7230 e82f 452a c01f 0f2f 242e 612c
00000100: 4330 6a25 0333 c52e 172b fb2e ea2e e52f
00000110: ad28 2d2c d230 7f2d 6029 e929 912c 142d
00000120: 2f29 2b2f ae2e e72b 702e 492f d828 c52c
00000130: de2e d92d 6a2a 1b2e 9f2c 24a0 732f 472d
00000140: 802d 952e cc2d 962f 902c b72d f52c 442d
00000150: 392d 9231 0530 ce29 922b de2d 542d 082f
00000160: 742e d32c 2829 b32e 952d 6e2d 7b2e 0730
00000170: 8930 c130 722d 2230 c629 1b2f 2b2b 3d2d
00000180: 512e 5f31 bf2b c52c a62d 712a f92c a12d
00000190: 772b b930 9a2d bd2e de2f 182e f72f b92e
000001a0: ff22 5231 942d bc2d 072b a428 4c2b c82d
000001b0: ae2f 3730 fc2f 5e2f 152d 1b2b fb28 502e
000001c0: d42d 8126 a62d b72e b22d f02a e92e 2c2e
000001d0: 402f fa2c 732c 4330 b12d 952f 4830 582e
000001e0: e028 8f2d 9f2f 792e 0828 802c 7f2c 762c
000001f0: fd29 2e2e c72d 762f fe2b 282f 7d2d fe29
0.05835 0.08875 0.0779 0.0877 0.02339 0.09607 0.11633 0.0681
0.05142 0.1175 0.1025 0.07086 0.119 0.125 0.1344 0.0712
0.05182 0.0498 0.1361 0.1271 0.078 0.02028 0.0393 0.08905
0.04507 0.06885 0.0574 0.08575 0.0755 0.1616 0.1326 0.1315
0.05463 0.0172 0.0757 0.0783 0.0655 0.06274 0.09955 0.1071
0.0841 0.08124 0.10406 0.1254 0.1414 0.06866 0.06366 0.04782
0.0703 0.1284 0.0679 0.09973 0.0804 0.0949 0.12054 0.0753
0.127 0.091 0.05606 0.08514 0.07837 0.02916 0.1638 0.06216
0.06854 0.06805 0.03238 0.007835 0.1328 0.02846 0.0677 0.0906
0.03363 0.0869 0.097 -0.01904 0.067 0.0613 0.07623 0.1239
0.0956 0.07477 0.1294 0.10535 0.1323 0.0972 0.1455 0.0584
0.09863 0.0754 0.06525 0.1409 0.08246 0.0847 0.1659 0.0659
0.05215 0.1141 0.0996 0.0489 0.0656 0.09845 0.07825 0.07855
0.08795 0.0779 0.0967 0.07245 0.08057 0.04184 0.1388 0.1178
0.102 0.06824 0.0986 0.0858 0.12445 0.0666 0.0784 0.09735
0.07166 0.1389 0.12354 0.04898 0.00757 0.1103 0.09595 0.0684
0.1332 0.02115 0.2191 0.1058 0.0554 0.1091 0.10803 0.12335
0.03653 0.06525 0.1506 0.0859 0.042 0.04617 0.07135 0.07935
0.0405 0.112 0.1044 0.06174 0.1006 0.11383 0.03784 0.0745
0.1073 0.0914 0.0501 0.0954 0.0722 -0.00809 0.1164 0.08246
0.08594 0.10284 0.0906 0.1185 0.0713 0.0893 0.07745 0.0823
0.0816 0.1741 0.1256 0.04535 0.05914 0.0917 0.08325 0.10986
0.1008 0.0754 0.04028 0.1047 0.0872 0.08484 0.10126 0.1259
0.1417 0.1486 0.0851 0.1292 0.0451 0.111 0.056 0.08185
0.0987 0.1678 0.06052 0.0745 0.08826 0.05032 0.0777 0.08795
0.05832 0.1476 0.0875 0.1053 0.1229 0.0952 0.12445 0.10504
0.013664 0.1663 0.08716 0.0896 0.0549 0.03625 0.057 0.09033
0.12 0.1317 0.12476 0.1151 0.0794 0.0555 0.0389 0.09863
0.09106 0.0254 0.08826 0.1049 0.089 0.0542 0.108 0.09644
0.1133 0.07776 0.0695 0.1332 0.0889 0.11847 0.1338 0.0991
0.0381 0.08685 0.1191 0.10114 0.0315 0.0703 0.07025 0.0697
0.04678 0.09656 0.0903 0.1166 0.06244 0.1118 0.08575 0.0468

model/last_layer/BiasAdd/ReadVariableOp/resource f2 [31]
00000000: b9a0 499c 54a1 5f1e 25a4 7ba4 9921 c8a0
00000010: 65a3 d0a1 731f 6720 6b24 64a0 56a2 3da3
00000020: f4a4 c523 419c 1322 a924 2ba6 2e9a afa0
00000030: ea24 0624 a721 a321 b9a1 eb1d dc9f
-0.009224 -0.004185 -0.01041 0.00622 -0.01619 -0.0175 0.01093 -0.00934
-0.01444 -0.01135 0.007275 0.0086 0.01726 -0.008575 -0.012375 -0.01414
-0.01935 0.015175 -0.004154 0.01186 0.0182 -0.0241 -0.003017 -0.00915
0.0192 0.01572 0.01104 0.01101 -0.01118 0.00578 -0.007675

model/time_distributed_11/dense_1/BiasAdd/ReadVariableOp/resource f2 [64]
00000000: 2a9e eca9 aea8 0ca7 5f1b e61a 45a9 3424
00000010: 9ba4 f2a4 9218 609c da21 5421 2ea5 7ea9
00000020: 48a5 f521 d7a7 62a7 2310 b821 d625 9e1e
00000030: 19a7 f6a4 36a3 37a4 e981 8da7 59a8 96a8
00000040: 7120 7a27 4aa4 d4a5 0b21 baa5 4ca3 6da7
00000050: 8999 d3a6 6ea4 38aa e0a8 2018 5da2 94a4
00000060: aea7 24a8 dda6 eaa7 46a8 8ea5 6aa9 0da6
00000070: 259e c0a5 6ba7 1e1e 12a5 5fa7 9398 63aa
-0.00602 -0.04626 -0.03656 -0.02753 0.0036 0.003368 -0.04117 0.01642
-0.01799 -0.01932 0.002232 -0.004272 0.01143 0.01041 -0.02023 -0.0429
-0.02063 0.011635 -0.03062 -0.02884 0.000505 0.01117 0.0228 0.006462
-0.02773 -0.01938 -0.014084 -0.01646 -2.915e-05 -0.0295 -0.03397 -0.03583
0.008675 0.0292 -0.01675 -0.02277 0.00985 -0.02237 -0.01425 -0.029
-0.002703 -0.02666 -0.0173 -0.04858 -0.0381 0.002014 -0.01243 -0.01788
-0.03 -0.03235 -0.02681 -0.03091 -0.0334 -0.0217 -0.0423 -0.02364
-0.006 -0.02246 -0.02898 0.005974 -0.0198 -0.0288 -0.002234 -0.0499

model/time_distributed_5/dense/BiasAdd/ReadVariableOp/resource f2 [32]
00000000: 68a4 8820 dd20 a8a2 9ea3 19a0 ada6 1aa0
00000010: bc2c 0f23 bf21 96a9 529d ef1d 781e 0da2
00000020: 7b20 8421 de96 27a1 f59a 7911 f92a 2ba9
00000030: 0699 c9a3 1325 2ea4 501b 09a2 07a3 37a7
-0.01721 0.00885 0.0095 -0.013 -0.01488 -0.008 -0.02608 -0.00801
0.074 0.01379 0.01122 -0.04364 -0.005196 0.005795 0.006317 -0.01182
0.00875 0.01077 -0.001677 -0.01006 -0.003397 0.000668 0.05447 -0.04037
-0.002453 -0.015205 0.01982 -0.01633 0.00357 -0.01179 -0.013725 -0.02818

model/dense_2/MatMul f2 [256, 32]
00000000: 71ad ffa8 1534 2e31 122b 3c1c e02a 8b30
00000010: 1733 6bb0 c631 2e30 0931 2b9e 7cb3 d331
00000020: a032 55b0 76b1 f496 35ad d532 7faf 01b4
00000030: 342d fd29 67b0 0d34 0baf 8c19 3cae 18b1
00000040: 3eaf 5334 6b30 5c2c 99b0 63b0 7d25 0832
00000050: 7cb2 e8ad 4ea4 d034 7333 85af bea5 5719
00000060: b1b3 1530 e42f 2f2b fa29 ecb0 d12b 6830
00000070: 74b3 2cb1 11b4 14ae 1baa 4db3 b830 0eaf
00000080: 312d 8826 6e30 39af 0db0 0c33 5f2f 2233
00000090: 5cac 51ab 4734 472c 4928 5cb1 58b1 0d35
000000a0: 9bb1 e708 70ac 8e2c bdaf 9b32 7fb1 a0b4
000000b0: 5e2b 76af 3cad e635 eab0 ec18 7332 cc98
000000c0: 76b4 ac2f a12d d7b1 7ab0 b232 c928 1db7
000000d0: 60b4 27b1 d832 8b28 ba34 e42a 9d31 cfb1
000000e0: 06a6 e332 3120 1233 bdb1 f3ac 79ac 8131
000000f0: d3ac 9830 7c18 ddad 9aa8 8931 13ae 0733
00000100: 162c d9af 33ac c1ae 022e 122c a328 9e34
00000110: 2ca8 2bb0 802e 852d 3d32 772e 742c 542e
00000120: 4031 1aae 14b2 c322 5eab 0434 6fae aab2
00000130: 1830 4029 afac 9b31 eca8 002f 7dac 11b4
00000140: 50ad d4b2 f2a9 9d30 49aa f7a9 992b 5834
00000150: d230 ea1d c71b f130 9335 0b34 f1ae 1132
00000160: 082a fab0 0f31 78ac a32d 202f 8395 e228
00000170: 47b0 01ab bcab 3430 18ae 3faf 7730 792a
00000180: 522b 5eb5 0735 602a caac 292c fd30 39b0
00000190: e52d f131 e6ad b32f 5c25 7b2d a8a9 8bb3
000001a0: 122e f733 de27 63ad a4a4 2930 f2a9 8f1a
000001b0: b82c 2db0 d02e 8b35 e82c a7ae bd2e f4ac
000001c0: 2926 2e30 f3ae a3b1 0729 31b0 52aa 3732
000001d0: 8b29 2b29 6b2f 5132 862c 49b3 f130 ecac
000001e0: 12af c228 1128 c930 f32c 012a 17b0 66ae
000001f0: 4ba5 6a2c 7eb1 18af 81b1 61b1 722a a1ae
-0.085 -0.03903 0.2551 0.1619 0.05524 0.004135 0.0537 0.142
0.2216 -0.1381 0.1804 0.1306 0.1573 -0.006023 -0.2339 0.182
0.207 -0.1354 -0.1707 -0.001698 -0.08136 0.2135 -0.1171 -0.2502
0.0813 0.04678 -0.1376 0.2532 -0.11005 0.002708 -0.0974 -0.1592
-0.11316 0.2703 0.1381 0.0681 -0.1437 -0.1371 0.02144 0.1885
-0.2026 -0.0923 -0.01682 0.3008 0.2328 -0.1175 -0.02243 0.002607
-0.2404 0.1276 0.1233 0.05612 0.0467 -0.1538 0.06107 0.1377
-0.2329 -0.1616 -0.2542 -0.095 -0.0477 -0.2281 0.1475 -0.1102
0.0811 0.02551 0.1384 -0.11285 -0.1266 0.2202 0.1152 0.2229
-0.0681 -0.05716 0.2673 0.06683 0.03348 -0.1675 -0.167 0.3157
-0.1752 0.0001496 -0.06934 0.07117 -0.1209 0.2064 -0.1718 -0.289
0.05756 -0.1166 -0.0818 0.3687 -0.1536 0.002403 0.2015 -0.002342
-0.2788 0.1199 0.08795 -0.1825 -0.1399 0.2092 0.03738 -0.4446
-0.2734 -0.161 0.2139 0.0355 0.2954 0.05383 0.1754 -0.1815
-0.02353 0.2152 0.00819 0.221 -0.1793 -0.07733 -0.0699 0.172
-0.0754 0.1436 0.00219 -0.0916 -0.03595 0.173 -0.0949 0.2196
0.06384 -0.1226 -0.0656 -0.1055 0.0939 0.0636 0.03622 0.2886
-0.0326 -0.1302 0.10156 0.08624 0.195 0.101 0.0696 0.0989
0.1641 -0.09534 -0.19 0.01321 -0.05756 0.251 -0.1005 -0.2083
0.1279 0.04102 -0.0732 0.1752 -0.03845 0.1094 -0.0701 -0.2542
-0.083 -0.2134 -0.04645 0.1442 -0.0491 -0.0466 0.05936 0.2715
0.1506 0.005775 0.003798 0.1544 0.3484 0.2527 -0.10846 0.1896
0.04712 -0.1555 0.1581 -0.0698 0.0881 0.1113 -0.001346 0.03815
-0.1337 -0.05472 -0.06042 0.1313 -0.0952 -0.1132 0.1395 0.05057
0.0572 -0.3354 0.3142 0.0498 -0.0748 0.065 0.1559 -0.132
0.0921 0.1857 -0.09216 0.1203 0.02094 0.08563 -0.0442 -0.2357
0.09485 0.2489 0.03073 -0.08417 -0.01813 0.13 -0.04645 0.003202
0.0737 -0.1305 0.10645 0.3464 0.07666 -0.10394 0.1053 -0.0774
0.02406 0.1306 -0.1086 -0.1761 0.03928 -0.131 -0.04938 0.1942
0.0433 0.04037 0.1159 0.1974 0.0707 -0.2277 0.1544 -0.0769
-0.1105 0.03717 0.03177 0.1495 0.07733 0.0469 -0.1278 -0.1
-0.02068 0.069 -0.1716 -0.11084 -0.172 -0.1681 0.05035 -0.1036

model/last_layer/MatMul f2 [31, 256]
00000000: 1ca4 3c29 0125 bcad f8a2 adad 69ae 152e
00000010: 67aa 57a9 26a8 d9a2 1bb0 3a86 0cac d1a9
00000020: 5ea8 e9b1 1ba9 aea2 93a4 2229 4ea8 a3ab
00000030: 182a fd28 bb2c 28b0 79af 3f19 ca27 6cab
00000040: a427 50a8 dc2a 311f 662c 01aa 891c 81ac
00000050: 52a8 de17 122c 3829 53b0 03aa a991 2cab
00000060: 9aa4 15ae 0328 90a5 e6a7 10a5 ffad 0bac
00000070: 1bac d226 512f cea7 5629 29ac 17ad d329
00000080: 4b2c 3728 b52c caa5 5726 9524 f5a8 9529
00000090: a4a9 51ad aaa1 a4ad bc2d 292a 1fae 4a25
000000a0: 46a3 361e 5529 19b1 f72a f6aa cc2e 40aa
000000b0: 0e1d 9fae d2a5 280c 1024 c52b 41ad c922
000000c0: 0825 56a8 0e97 9023 1c2d 6a26 b4ad 6a28
000000d0: 03af d4aa 592c 16b0 e829 f6b0 78ac bba5
000000e0: 86a0 5ca4 d3ac 6dab 0d2c f9a6 7926 baa6
000000f0: 1725 eaad fc2d 352c b499 22a7 2ea8 1f2f
00000100: 77a5 e1b0 f6b6 1fb3 5ba8 e3b1 bbae 2e2a
00000110: 0f2c f8a3 95a8 6fad a92c d22d 33ad 3894
00000120: 6baf 1e2b f8ae 55ab 5ba5 db2b f69c 24ab
00000130: 04b0 93a5 942d 2d2e 7ba5 74a8 dfae 19ad
00000140: fc28 d6a8 a630 6a9c 23ac caa5 252c 96aa
00000150: 32af 62ab 1c9d fc27 3a25 4a24 532a dba4
00000160: 1e29 da9d ee9f ee17 41ad e229 8aad 58ad
00000170: 40a9 aa2c b52b e821 69ac 4eb2 2da6 ca25
00000180: 742c 75b1 eba5 0e26 fda5 8eac 41b1 3324
00000190: 91af 13b3 fd29 b5ad 95aa bd29 7723 3e2c
000001a0: 86ac 3a1e 59ac 59aa 4928 7ea7 eba6 fda3
000001b0: e9a1 522a aea7 f62d 0daa e79f 06a9 1e30
000001c0: be27 aaa9 342c 5028 8f29 2d9e 9d2b 2e28
000001d0: 3cae daab 461e 262e 69ac da24 75a9 faad
000001e0: 4aa2 f4a9 99a9 9396 6829 3aa5 a7af 492a
000001f0: 872a 9f1d 3321 6225 4029 402d 782d 4329
-0.01605 0.0409 0.01955 -0.0896 -0.01361 -0.0887 -0.10016 0.09503
-0.05002 -0.04172 -0.0324 -0.013374 -0.1283 -9.5e-05 -0.06323 -0.04544
-0.03412 -0.1847 -0.0399 -0.01305 -0.01787 0.0401 -0.03363 -0.05966
0.0476 0.03897 0.0739 -0.1299 -0.11676 0.002562 0.03043 -0.05798
0.02985 -0.0337 0.0536 0.007023 0.0687 -0.0469 0.00443 -0.0704
-0.03375 0.001921 0.0636 0.04077 -0.1351 -0.04697 -0.000691 -0.05603
-0.01797 -0.09503 0.03134 -0.02173 -0.03085 -0.01978 -0.0937 -0.0632
-0.06415 0.02664 0.1143 -0.03049 0.0417 -0.065 -0.0795 0.0455
0.0671 0.03293 0.07355 -0.02261 0.02477 0.0179 -0.03873 0.0436
-0.04407 -0.08307 -0.01106 -0.08813 0.0896 0.04813 -0.09564 0.02066
-0.014206 0.006065 0.04166 -0.1593 0.0544 -0.05438 0.1062 -0.04883
0.004936 -0.10345 -0.02274 0.0002537 0.01587 0.0607 -0.0821 0.01325
0.01965 -0.03387 -0.001722 0.01477 0.07983 0.02505 -0.0891 0.0345
-0.10956 -0.05334 0.06793 -0.1277 0.04614 -0.155 -0.0698 -0.02238
-0.008835 -0.01703 -0.0754 -0.058 0.0633 -0.02724 0.02528 -0.02628
0.01988 -0.0924 0.0935 0.06573 -0.002785 -0.02786 -0.03265 0.11127
-0.02135 -0.1525 -0.435 -0.2225 -0.03403 -0.184 -0.10516 0.04828
0.0634 -0.015564 -0.0358 -0.0849 0.0728 0.09094 -0.08124 -0.00103
-0.1159 0.0556 -0.1089 -0.05728 -0.02092 0.06137 -0.004845 -0.0558
-0.1255 -0.02177 0.08716 0.0965 -0.02141 -0.0348 -0.10736 -0.07965
0.03894 -0.03778 0.1453 -0.00431 -0.06464 -0.02261 0.06476 -0.05145
-0.1124 -0.05768 -0.00499 0.03119 0.02042 0.01675 0.0494 -0.01897
0.03998 -0.005714 -0.007744 0.001936 -0.0821 0.04596 -0.08655 -0.0835
-0.04102 0.0729 0.0602 0.011536 -0.0689 -0.197 -0.02412 0.02261
0.0696 -0.1705 -0.02312 0.02365 -0.02339 -0.07117 -0.1642 0.0164
-0.1182 -0.2211 0.04678 -0.0892 -0.05142 0.04483 0.01458 0.0663
-0.0707 0.00608 -0.06793 -0.0496 0.03348 -0.02927 -0.02702 -0.0156
-0.01154 0.04938 -0.03 0.09314 -0.04727 -0.007717 -0.03925 0.1287
0.03024 -0.04425 0.0657 0.0337 0.04343 -0.00603 0.05948 0.03265
-0.0974 -0.06134 0.006126 0.09607 -0.0689 0.01895 -0.04263 -0.0934
-0.01228 -0.0465 -0.04373 -0.001605 0.04224 -0.02042 -0.11957 0.0491
0.051 0.00549 0.010155 0.02103 0.04102 0.08203 0.08545 0.0411

model/time_distributed_11/dense_1/MatMul f2 [64, 1488]
00000000: 1518 1622 2e28 be20 4227 e72b 692a 6e23
00000010: 8d2d b0a1 672d d895 d425 0fa7 daa5 3723
00000020: 74a5 1a28 390e fb9a 5da9 5da0 2e29 5021
00000030: 60a8 7ea6 132b 30a6 fcaa d2a2 162d 5628
00000040: ada7 1325 5aaa 84ac 279a b2a8 ef2a 922c
00000050: 4a28 39a1 8e94 a89d 64a5 2ca4 5129 e928
00000060: 82a5 cba8 86a4 5124 842a d329 ffa1 5226
00000070: 8d26 7023 d82b 5ca9 0cab e82a 5c2b 9ca5
00000080: 732a 9027 11a5 192b ff2b 4527 ffa5 1d24
00000090: c9a5 7ea9 cd2c 1824 8f29 0e2a d92a cfa8
000000a0: 5793 3928 002a b9a7 2624 a2ab b9a5 4528
000000b0: 57aa 0628 5328 5b1b e7a8 1aa7 f2a9 1cac
000000c0: a72b e199 9599 f126 d8a5 b82c 50ab 26ab
000000d0: dc24 f7a6 7d9d 0d25 97a8 742c d2a7 a020
000000e0: d29d ec2a 6ca6 cd25 26a3 e428 3727 b02b
000000f0: 7aa9 42a9 4a26 35a3 c8ab 2224 5627 6eaa
00000100: ed2a df29 8a9c 77aa 4820 161d 6426 ba2a
00000110: 28aa 2326 86a9 4fa1 5e24 0f2b 46a8 2f25
00000120: 14a9 2a25 d7aa 95aa 2fa5 96a8 4329 a22c
00000130: 62ac e5a8 7428 862a c6ab 80a8 1824 f79b
00000140: c5a3 9c24 5327 93a7 2e2a dca8 3529 45a1
00000150: 46a4 e79f ac28 e226 82ac 0e2c 3699 a4a1
00000160: 25a7 acac c7a9 3fac f429 4f2a 049b e723
00000170: 7b14 24a8 0425 7ea8 d7a5 b22b c0a2 43a0
00000180: bc25 52a6 3928 fe22 dc28 8ea6 f625 231c
00000190: c9a2 c9a9 f225 2324 5829 53a3 949a 8129
000001a0: 94a1 3fac fc28 ecaa bc29 782b a225 d6ab
000001b0: 682a 23aa b3a9 e32a 6a18 a8a8 a4a8 d121
000001c0: ec27 b2ac 52a9 082a 9fa9 2e2a f1a4 99ae
000001d0: 7b2a e625 d598 d327 d0a4 fc9f 3228 b41b
000001e0: 2c98 899e 609c 5425 4729 6aaa 7da9 63a7
000001f0: 90a8 d52a 82a8 53ab 6aab b9ab db27 7825
0.001993 0.01189 0.03265 0.00926 0.02835 0.06174 0.05008 0.01451
0.08673 -0.01111 0.0844 -0.001427 0.02277 -0.02757 -0.02286 0.01409
-0.0213 0.03204 0.0003798 -0.003408 -0.0419 -0.00852 0.04047 0.010376
-0.03418 -0.02536 0.05527 -0.02417 -0.05457 -0.01332 0.07947 0.03387
-0.02998 0.01982 -0.04962 -0.07056 -0.003004 -0.03668 0.05417 0.0714
0.0335 -0.0102 -0.001112 -0.005524 -0.02106 -0.0163 0.04153 0.03836
-0.02151 -0.03745 -0.01767 0.01686 0.0509 0.0455 -0.01171 0.02469
0.02559 0.01453 0.06128 -0.04187 -0.05505 0.05396 0.0575 -0.02191
0.05038 0.02954 -0.01979 0.05545 0.06247 0.0284 -0.02342 0.01607
-0.0226 -0.0429 0.075 0.01599 0.04343 0.0473 0.0535 -0.03757
-0.000896 0.033 0.04688 -0.03017 0.0162 -0.05963 -0.02235 0.03336
-0.04953 0.03143 0.03378 0.003592 -0.0383 -0.02774 -0.04645 -0.0642
0.05978 -0.00287 -0.002726 0.02711 -0.02283 0.0737 -0.05713 -0.05585
0.01898 -0.0272 -0.00536 0.01973 -0.03586 0.0696 -0.03055 0.00903
-0.005684 0.05408 -0.02509 0.02266 -0.01396 0.0382 0.02818 0.06006
-0.0428 -0.04108 0.02457 -0.01408 -0.0608 0.01614 0.02866 -0.05023
0.0541 0.04587 -0.004433 -0.0505 0.00836 0.004967 0.02496 0.05255
-0.0481 0.02397 -0.04315 -0.01037 0.01706 0.05515 -0.0334 0.02025
-0.03967 0.02017 -0.05344 -0.05142 -0.02025 -0.03583 0.0411 0.0724
-0.0685 -0.03824 0.0348 0.05096 -0.06073 -0.03516 0.01599 -0.00389
-0.015175 0.018 0.02861 -0.02959 0.04828 -0.03796 0.04068 -0.01029
-0.0167 -0.007717 0.0365 0.02689 -0.07043 0.06335 -0.002544 -0.01102
-0.02791 -0.073 -0.04514 -0.06635 0.0465 0.0493 -0.003426 0.015434
0.001094 -0.03235 0.01959 -0.0351 -0.02281 0.06012 -0.01318 -0.00832
0.0224 -0.02469 0.033 0.01366 0.03796 -0.0256 0.02328 0.00404
-0.01325 -0.0452 0.02322 0.01616 0.04175 -0.014305 -0.003212 0.043
-0.010895 -0.06635 0.03894 -0.05408 0.0448 0.05835 0.022 -0.06122
0.05005 -0.04794 -0.04453 0.0538 0.002155 -0.03638 -0.03625 0.01136
0.03094 -0.07336 -0.04156 0.04712 -0.0439 0.04828 -0.0193 -0.1031
0.05063 0.02304 -0.00236 0.03056 -0.0188 -0.007797 0.03278 0.003761
-0.002037 -0.006382 -0.004272 0.02081 0.04123 -0.0501 -0.04288 -0.02885
-0.03564 0.05338 -0.03522 -0.05722 -0.05792 -0.06033 0.03069 0.02136

model/time_distributed_3/batch_normalization/FusedBatchNormV3 f2 [8]
00000000: abbe 8cbe ddbe 54be 7fbf 2bbe 3dbd f7be
-1.667 -1.637 -1.716 -1.582 -1.874 -1.542 -1.31 -1.741

model/time_distributed_3/batch_normalization/FusedBatchNormV31 f2 [8]
00000000: 703b 4f3b 413b 263b 043c 523b 663b af3b
0.9297 0.9136 0.9067 0.8936 1.004 0.915 0.925 0.9604

model/time_distributed_5/dense/MatMul f2 [32, 168]
00000000: 6231 a429 3e2d 20af ba30 ab2b be2f d630
00000010: 342c be29 6ca7 8734 0133 702e 9520 c731
00000020: f420 c627 44b1 5eb5 282d df2c 2d28 5e30
00000030: 512e 8625 2aae 55ad 102f 8533 202a b92b
00000040: 3ab0 d130 8430 e3ab 8518 a532 a7ad 65a7
00000050: 942f 08b4 7325 8c2c 8b20 9a1e eb29 d42c
00000060: 9b2f 7e24 61a2 f225 52a4 80b2 8f29 bf1d
00000070: a42e f930 ebac 10b3 96b0 33b0 8b22 aeae
00000080: af2c e79d d8aa a01e 79ac 2b30 5991 b42e
00000090: bab2 4cb3 bf95 6831 2d31 3a2e ffaf 14b1
000000a0: 8631 5b2a 52ad e22f 092f b1b2 b230 bc1d
000000b0: d6ae 8d31 76ae ed29 2c2b 5631 30ad e4b1
000000c0: 8527 6932 beaf 8032 4cac 1cad 1e2f 9d28
000000d0: 4e31 d5b0 8baa a426 d22f 92b0 2022 932e
000000e0: b4aa 2b32 1daa ee31 8b2f 24af e1af a028
000000f0: 01af 4cb0 24b4 83b0 ff24 96b0 5a9c 7ab4
00000100: a6ab c42e 1533 8fb2 329a 1db0 be2f cfb0
00000110: 2a2e b2a0 37af 8e2d c625 092d 07b0 5ead
00000120: 5c28 b4ac 57b1 a221 29b3 4b2b d6b0 06b1
00000130: e1a0 f09a 7cad 1eb0 0cad d130 a4a2 0faa
00000140: e5b0 20a5 17ab fd2e e8ad be33 1f33 37ae
00000150: 85b1 a5ac 532f 6aae caa5 de29 03ad 2929
00000160: eaad 38ad 652a ca1f 11b0 2eab 342e 3c21
00000170: 49b1 6c2f 74ab 27b4 e62f bf2a 0ab0 55a5
00000180: 4c2d b2a9 9629 8fa2 7baf cb2c 82b3 9d2d
00000190: 80a1 d630 2db2 eb2f 2229 e4af c52d 0fb1
000001a0: e0a5 7aa8 082c 6828 c72e 232e 9c2a 3f34
000001b0: 042a 4d2e feb4 56b2 87ae 3032 6332 ca2c
000001c0: 16aa e62c e027 46b0 5f2d 1335 4535 4ead
000001d0: 7833 7b30 daac c930 5fb2 76b4 97ac f8b3
000001e0: cc24 1e31 5120 42b4 442e 90b1 d1ac 34a1
000001f0: afa1 e02b dea7 b9ac b02f 4d26 1cb1 6eae
0.1682 0.04407 0.0819 -0.1113 0.1477 0.0599 0.121 0.1511
0.0657 0.04486 -0.02899 0.283 0.2189 0.1006 0.00895 0.1805
0.009674 0.03036 -0.1646 -0.3354 0.08057 0.0761 0.03262 0.1365
0.0987 0.02158 -0.0963 -0.0833 0.11035 0.235 0.04785 0.06033
-0.1321 0.1505 0.1411 -0.0616 0.002207 0.2076 -0.0883 -0.02888
0.1184 -0.252 0.02129 0.07104 0.00887 0.006447 0.04623 0.07544
0.11884 0.01755 -0.01246 0.02322 -0.01688 -0.2031 0.04343 0.00561
0.10376 0.1554 -0.07684 -0.2207 -0.1433 -0.1312 0.01278 -0.1044
0.0732 -0.005764 -0.05347 0.00647 -0.0699 0.1302 -0.000653 0.10474
-0.2102 -0.228 -0.001403 0.169 0.1617 0.0973 -0.12494 -0.1587
0.1726 0.04965 -0.0831 0.12317 0.1099 -0.2091 0.1467 0.0056
-0.1068 0.1735 -0.10095 0.0463 0.05603 0.1667 -0.08105 -0.1841
0.02937 0.2003 -0.121 0.2031 -0.06714 -0.07983 0.1112 0.03604
0.1658 -0.151 -0.05112 0.02594 0.1222 -0.1428 0.01196 0.1027
-0.05237 0.1927 -0.04776 0.1853 0.11786 -0.1116 -0.1231 0.03613
-0.10944 -0.1343 -0.2588 -0.141 0.01952 -0.1433 -0.00425 -0.2798
-0.05975 0.1057 0.2213 -0.205 -0.003025 -0.1285 0.121 -0.1503
0.0963 -0.00917 -0.11273 0.0868 0.02255 0.0787 -0.1259 -0.08386
0.03406 -0.0735 -0.1669 0.011 -0.2238 0.05698 -0.1511 -0.157
-0.00953 -0.003387 -0.0857 -0.1287 -0.07886 0.1505 -0.01297 -0.04733
-0.153 -0.02002 -0.0554 0.1092 -0.0923 0.242 0.2225 -0.0971
-0.1725 -0.0726 0.11444 -0.1002 -0.02261 0.04584 -0.0783 0.0403
-0.0924 -0.08154 0.04996 0.007607 -0.1271 -0.0561 0.0969 0.01022
-0.1652 0.11597 -0.05823 -0.2595 0.1234 0.0527 -0.1262 -0.02083
0.08276 -0.0445 0.04364 -0.01281 -0.1169 0.0749 -0.2346 0.0877
-0.01074 0.1511 -0.193 0.1237 0.0401 -0.1233 0.09015 -0.1581
-0.02295 -0.03497 0.063 0.03442 0.1059 0.0959 0.05164 0.2654
0.047 0.09845 -0.312 -0.198 -0.102 0.1934 0.1996 0.0748
-0.04755 0.07654 0.03076 -0.1335 0.0839 0.3171 0.3293 -0.0829
0.2334 0.14 -0.0758 0.1495 -0.1991 -0.2788 -0.0717 -0.249
0.01874 0.1599 0.00843 -0.266 0.0979 -0.1738 -0.07526 -0.01016
-0.0111 0.06152 -0.03073 -0.0738 0.1201 0.02461 -0.1597 -0.10046

model/time_distributed_9/batch_normalization_1/FusedBatchNormV3 f2 [16]
00000000: 97b6 81b7 79b7 a9b5 43b7 62b8 72b5 21b7
00000010: a1b6 64b7 76b6 b0b7 a1b5 17b7 d5b7 f0b6
-0.4119 -0.469 -0.467 -0.3538 -0.4539 -0.548 -0.3403 -0.4456
-0.4143 -0.462 -0.4038 -0.4805 -0.3518 -0.443 -0.4895 -0.4336

model/time_distributed_9/batch_normalization_1/FusedBatchNormV31 f2 [16]
00000000: 0a3e 8a3d ce3d 4c3e 663f 303d ae3e 6a3e
00000010: ad3d 7e3e 123e 6c3c 663e 3a3e 553d e33d
1.51 1.385 1.451 1.574 1.85 1.297 1.67 1.604
1.419 1.623 1.518 1.105 1.6 1.557 1.333 1.472

model/lstm/while/lstm_cell_2/MatMul_4 f2 [32, 32]
00000000: 3aad ae2f a2b0 2a21 7429 2530 052e e52e
00000010: c4a8 16b1 2d1e baa4 1cae 0e28 13b0 792d
00000020: 8a25 aaa4 d622 0eaa 1aae 8db3 722e e823
00000030: e9ad f1ae 2fab f415 1aad 4e2d 64ad 9e30
00000040: 61af 1e25 1c2d 44aa a0a7 e1aa 432f 1fb1
00000050: 7834 fdae 5fb0 5522 7cb0 e52e c32f 602f
00000060: 3499 c4b0 efa8 272c e125 f1ac 35ad 9424
00000070: 09b1 b433 e5ad cca8 ffad bea6 b924 b0a8
00000080: 3032 85a9 16ae edac 6fa9 b7b1 caa7 d92c
00000090: 192f 0130 4d0a 7b30 1c2a 682f ddb0 59b2
000000a0: 292c bfa0 adaf 08b1 092d f0b3 ed28 d62e
000000b0: abb0 7b2a 61ac 0333 04b0 bdb1 fd30 e1ae
000000c0: 72ad d62a ffaa 6831 5cb0 b3aa 9daa b8a2
000000d0: 6d21 ceac 9231 7327 922e 10a8 77ac 4a26
000000e0: f9b0 0e2d d9a8 2928 082b 8619 f526 36b0
000000f0: 7b2d 9dae 40ad b930 afa9 9aaf af2d 7da6
00000100: a42d 51b0 2faf 1129 18a8 8726 ba20 4cb0
00000110: 272b 2e2d 1cb1 46a9 09b1 63b0 282c 18b0
00000120: 079e e7a9 ab32 0f29 7632 b5b4 3131 af30
00000130: a2b1 e42f fea8 fbac 5323 a9ae 7b2a 3b30
00000140: 272d 10ae db2c 211e 6eb2 fc2a 0c92 e52f
00000150: c0a4 f82c afb3 9e26 96b0 8a30 ed1e 7511
00000160: fdad 3222 cd2d 492e 7f26 8a30 712b 08b0
00000170: f39d 4028 87a2 9030 1b28 a6ac 8830 3e9a
00000180: 4b30 c92e 7aaa 872d 0db0 baa2 73aa e7ae
00000190: 83ad 14b0 57a6 8eb2 eca8 1728 acab aea6
000001a0: 432f b02b 9ca8 7628 4db3 392e 38b0 b72c
000001b0: 6431 5031 cd30 9d9c 91aa 78af 37b0 fb93
000001c0: 172e 012c 27af 4dae 542c 4b30 8c25 12aa
000001d0: fe2c 3829 d72e eba6 29ae 83ab efa4 81aa
000001e0: f32c 3f2d 6bad 32ad 0c30 6033 9faf 4918
000001f0: 44a4 612c 0eb1 ed2e d8b2 2cb0 6629 4f2e
-0.08167 0.12 -0.1448 0.010086 0.0426 0.1295 0.09406 0.1077
-0.03723 -0.1589 0.00603 -0.01846 -0.09546 0.03168 -0.1273 0.0855
0.02164 -0.01822 0.01335 -0.0473 -0.09534 -0.236 0.1007 0.01544
-0.09235 -0.10846 -0.05612 0.001453 -0.0797 0.0829 -0.0842 0.1443
-0.1153 0.01999 0.07983 -0.04895 -0.02979 -0.05374 0.11346 -0.16
0.2793 -0.1092 -0.1366 0.01237 -0.1401 0.1077 0.1213 0.11523
-0.00254 -0.1489 -0.03854 0.0649 0.02296 -0.0772 -0.08136 0.01788
-0.1573 0.2407 -0.0921 -0.03748 -0.0937 -0.02634 0.01845 -0.03662
0.1934 -0.04312 -0.0951 -0.07697 -0.04245 -0.1786 -0.03043 0.07574
0.1109 0.1251 0.0001923 0.14 0.04773 0.1157 -0.152 -0.1984
0.065 -0.00927 -0.11993 -0.1572 0.0787 -0.248 0.03848 0.1068
-0.1459 0.05063 -0.0684 0.2191 -0.1255 -0.1793 0.1559 -0.1075
-0.0851 0.0534 -0.05466 0.169 -0.1362 -0.05234 -0.05167 -0.01312
0.0106 -0.0751 0.1741 0.0291 0.10266 -0.03174 -0.06976 0.02457
-0.1554 0.079 -0.03787 0.0325 0.05493 0.002697 0.02718 -0.1316
0.08563 -0.10333 -0.08203 0.1476 -0.0444 -0.1188 0.0888 -0.02534
0.08813 -0.1349 -0.11224 0.03958 -0.03198 0.0255 0.00923 -0.1343
0.05588 0.08093 -0.1597 -0.0412 -0.1573 -0.1371 0.06494 -0.1279
-0.005886 -0.0461 0.2084 0.03952 0.2019 -0.2942 0.1622 0.1464
-0.176 0.1233 -0.039 -0.0778 0.014305 -0.10406 0.05063 0.1322
0.0805 -0.0947 0.07587 0.005985 -0.2009 0.05457 -0.000738 0.12335
-0.01855 0.07764 -0.2401 0.02585 -0.1433 0.1418 0.006763 0.000666
-0.09357 0.0121 0.09064 0.0982 0.02538 0.1418 0.05814 -0.126
-0.00581 0.0332 -0.01275 0.1426 0.03207 -0.07263 0.1416 -0.003048
0.1342 0.106 -0.0506 0.08636 -0.1266 -0.01314 -0.05038 -0.10785
-0.0861 -0.1274 -0.02477 -0.2048 -0.03845 0.03195 -0.05994 -0.0261
0.11346 0.06006 -0.036 0.03485 -0.2281 0.0972 -0.1318 0.07367
0.1685 0.166 0.15 -0.004505 -0.0513 -0.1167 -0.1317 -0.000974
0.09515 0.06256 -0.11176 -0.09845 0.0676 0.1342 0.02167 -0.04742
0.078 0.04077 0.1069 -0.02702 -0.09625 -0.0587 -0.01927 -0.0508
0.07733 0.082 -0.08466 -0.0812 0.1265 0.2305 -0.1191 0.002092
-0.01666 0.0684 -0.158 0.1082 -0.2139 -0.1304 0.04218 0.0986

model/lstm/while/lstm_cell_2/MatMul_5 f2 [32, 32]
00000000: 9d28 f9ac 9da9 ef30 aea8 f325 cd2a b12c
00000010: 859f 30aa e8ad 1232 4ca8 b616 642d 4421
00000020: d6b0 ad28 f428 c92c 0eac ec2a 7321 50ae
00000030: b4b0 cfad dd2d ec2e bfa4 1fb0 bdac ac30
00000040: d628 5230 d8b1 9eac f9ac ec23 3dad e528
00000050: a92b a130 5db1 7f2a 77a4 3ea6 f42c fe2a
00000060: 21a8 32a9 ed28 c32b 679f b0a4 ea2d 41a9
00000070: 80a4 7a2c ecb3 4199 6daa 5ca7 b024 43ad
00000080: bfa7 da2d ca2a a224 e915 7323 a7af cba0
00000090: c299 1216 f715 34a9 5f30 ab2f ad2c 5fb2
000000a0: e9ad 1c2c f7af 98a4 cead aa30 1f20 83b0
000000b0: 321c 3d2f f7ad dcb1 682b ec33 23ad a7ac
000000c0: 05b0 1933 f7ac 9d22 eb32 2da8 be2e 99ac
000000d0: 6828 542d dcab 6fa4 ee9c ee28 9caf ebad
000000e0: c6af 9732 feb2 961e 14b3 b529 86a8 c332
000000f0: 22a9 932c 00ac 7829 93ad 8cab 512c aa2e
00000100: 14b1 aead 2f27 53ad 542c 30a8 3919 adae
00000110: 14b2 19ad 1828 a830 e8ad 1d24 1619 772b
00000120: c09b 1930 4a2c ac32 56aa d48a a328 8724
00000130: 3734 7ca8 47ac 3625 10b1 6629 fdb0 4bac
00000140: ff26 8e2d 3f2c 07b3 74a9 1ea5 cb2b aeae
00000150: eb99 3ab1 72aa 1d31 beae 4026 4716 83af
00000160: 7f2c 65a9 4e31 a0ac c0ad a42e a42d a020
00000170: 6baa 3533 6226 53a4 d5a9 88ad 4631 baac
00000180: 9f25 ae96 01a2 b22a 8629 69a7 10a7 b89b
00000190: 76ab 1c2d f2af 11ae 80a0 f3a1 f2b2 c7ac
000001a0: b5a8 3ba7 68a9 9aa7 caae c829 66a7 9ba9
000001b0: c425 7bad 04a4 c4a3 9c19 10a6 e2a8 6b2d
000001c0: bc30 7aac 40ad ad2c c9ad 072d b923 c428
000001d0: 2b30 052a e9b3 4cad b0af bbab 5a2c 0619
000001e0: 10b4 c5ae 7eab c1b3 4dac 9e2b 0428 6699
000001f0: 1630 ee30 d031 0fab 5bab ee2e 85a9 872a
0.03604 -0.0777 -0.04385 0.1542 -0.03656 0.02324 0.05313 0.0733
-0.007343 -0.04834 -0.0923 0.1897 -0.03357 0.001638 0.0842 0.010284
-0.1511 0.03653 0.0387 0.07477 -0.06335 0.05408 0.01064 -0.09863
-0.147 -0.09076 0.0916 0.10815 -0.01854 -0.1288 -0.07404 0.146
0.03778 0.135 -0.1826 -0.07214 -0.0777 0.01547 -0.08185 0.03824
0.05984 0.1447 -0.1676 0.05075 -0.01744 -0.02438 0.0774 0.05463
-0.03226 -0.0406 0.03848 0.06064 -0.00723 -0.01831 0.0924 -0.04105
-0.01758 0.06995 -0.2476 -0.002565 -0.0502 -0.02875 0.01831 -0.0822
-0.03026 0.09143 0.05304 0.0181 0.001443 0.01455 -0.11957 -0.00936
-0.002811 0.001482 0.001456 -0.04065 0.1366 0.1198 0.07306 -0.1991
-0.09235 0.0642 -0.12445 -0.01794 -0.0907 0.1458 0.00805 -0.141
0.004097 0.1131 -0.0932 -0.1831 0.05786 0.2476 -0.08026 -0.0727
-0.1256 0.2218 -0.0776 0.01292 0.2162 -0.03262 0.10535 -0.07184
0.03442 0.08325 -0.0614 -0.01732 -0.004814 0.0385 -0.1189 -0.09247
-0.12146 0.2059 -0.2185 0.00643 -0.2212 0.0446 -0.03534 0.2113
-0.0401 0.0715 -0.0625 0.04272 -0.0871 -0.05896 0.06744 0.1041
-0.1587 -0.08875 0.02806 -0.0832 0.0676 -0.0327 0.00255 -0.1043
-0.19 -0.07965 0.03198 0.1455 -0.0923 0.01607 0.002483 0.05832
-0.003784 0.128 0.067 0.2085 -0.0495 -0.0002084 0.03622 0.01768
0.2634 -0.03503 -0.06683 0.02036 -0.1582 0.04218 -0.1559 -0.0671
0.02733 0.0868 0.06635 -0.2196 -0.0426 -0.01999 0.06088 -0.1044
-0.00289 -0.1633 -0.05035 0.1598 -0.10535 0.02441 0.001533 -0.1174
0.07025 -0.04214 0.1658 -0.07227 -0.08984 0.10376 0.08813 0.00903
-0.05014 0.2252 0.02493 -0.01689 -0.04556 -0.0864 0.1648 -0.07385
0.02196 -0.001631 -0.01173 0.0523 0.04315 -0.02895 -0.02759 -0.003769
-0.0583 0.07983 -0.12415 -0.0948 -0.00879 -0.01162 -0.217 -0.07465
-0.03677 -0.02824 -0.04224 -0.0297 -0.1061 0.04517 -0.0289 -0.0438
0.02252 -0.08563 -0.01569 -0.01517 0.002739 -0.02368 -0.03815 0.08466
0.148 -0.06995 -0.08203 0.07306 -0.0904 0.07855 0.01508 0.03723
0.1302 0.04703 -0.2472 -0.08276 -0.1201 -0.0604 0.068 0.002453
-0.254 -0.1058 -0.05853 -0.2423 -0.0672 0.0595 0.03137 -0.002636
0.1277 0.154 0.1816 -0.05515 -0.05746 0.1083 -0.04312 0.051

model/lstm/while/lstm_cell_2/MatMul_6 f2 [32, 32]
00000000: 95ad b2b3 9aaf fa30 87a1 0bae 22a7 c2ac
00000010: 29af f930 852d c82c 1524 0e2d 9ea8 5e2f
00000020: 2b34 7b2f fb2e b326 8daf 8e2d 252b ed2c
00000030: 08ac 8329 da2c c3a9 71ae faac 752f bb2b
00000040: 8131 85ad a2a6 95a6 efa3 ee10 82b1 c430
00000050: 88b1 df2f 63ab bdb0 c0ae 2ea5 0b2d 82b0
00000060: a6ac ea2a 8419 3594 9eac 0cb3 3e28 5f24
00000070: 45a9 149c 43ae 3db3 83a4 5eac ee30 cf33
00000080: 91a8 1c30 f2a7 4ab3 699e c0ae 62a8 9725
00000090: 69a4 7728 3e1e 0cac 40ae ef2e bcad 3029
000000a0: f227 0eaf 722f 59b0 201f a125 bc2e 54ae
000000b0: 222b 7b22 57a4 fe9c f3ad edb1 2fad 002d
000000c0: c8af ae08 d623 8bac 1da2 5929 142d 5730
000000d0: 51a8 2fad 7ab2 6f2e d9a5 5731 dd29 ce21
000000e0: 2520 be25 1430 99b2 1a34 642f 3e2f 2bae
000000f0: 0eaf b21d 582c c430 4626 d8b0 49b0 e3a4
00000100: 22a9 5631 86a8 5eac aeac a6ad 1bb1 ff2d
00000110: 7e21 0321 7026 88a9 4d29 1cad 2a30 2cb0
00000120: 50a7 bd2f bb09 0f2e a018 6a30 6428 23a9
00000130: 461d 59a2 e433 edb1 3eab 912c 87aa 9a32
00000140: 69ab 2aae c12d a72a 4129 9ba4 9b2a 9aa3
00000150: e42c beb2 8b21 b029 2e31 2595 0027 ac28
00000160: b434 dcae 592c 17a4 6db0 1429 16b0 a0ac
00000170: 2b2f df2b 3c30 26ac c721 f929 e79a dbaf
00000180: 6f1e 53af 502c 38af 799d e3ac 942c a8a8
00000190: 45aa 372f 6a9e 312e 88b0 19af 442b 93af
000001a0: bfac cea1 e2ac 97ac cd2a ff2d c22d 3f32
000001b0: 7b28 df32 3326 54ab 6228 ab26 c3a7 06b2
000001c0: 072e 3ab1 f3a6 432a 4630 8ea9 3ca7 ee2d
000001d0: e72d 1bb1 092b b1af e5b1 76ae 27b0 9925
000001e0: da2a 45b3 ac2b 362c 3b31 09b2 6c22 f52c
000001f0: fcaf 5523 212c a728 aaaf 12b2 76a0 08b0
-0.0872 -0.2405 -0.1188 0.1555 -0.010796 -0.0944 -0.02786 -0.07434
-0.1119 0.1554 0.08624 0.0747 0.01595 0.079 -0.03607 0.1151
0.2605 0.1169 0.1091 0.02617 -0.118 0.0868 0.05582 0.07697
-0.063 0.04306 0.0758 -0.045 -0.10065 -0.07776 0.1165 0.0604
0.172 -0.08624 -0.02591 -0.02571 -0.015495 0.000602 -0.1721 0.1489
-0.1729 0.123 -0.0577 -0.1481 -0.10547 -0.02023 0.0788 -0.1409
-0.07263 0.05402 0.002693 -0.001027 -0.07214 -0.2202 0.03314 0.01707
-0.04117 -0.003983 -0.09784 -0.2262 -0.01762 -0.06824 0.154 0.244
-0.03568 0.1284 -0.03104 -0.2278 -0.00626 -0.10547 -0.03424 0.02184
-0.01723 0.03488 0.006096 -0.06323 -0.09766 0.10834 -0.0896 0.04053
0.03104 -0.1102 0.11633 -0.1359 0.006958 0.02199 0.1052 -0.0989
0.05573 0.01266 -0.01695 -0.004875 -0.09296 -0.1852 -0.081 0.0781
-0.1216 0.0001428 0.015305 -0.071 -0.01194 0.04178 0.07935 0.1356
-0.03372 -0.081 -0.2024 0.1005 -0.02284 0.1669 0.0458 0.01134
0.008095 0.02243 0.1274 -0.2062 0.2563 0.1155 0.11316 -0.0964
-0.1102 0.00556 0.0679 0.1489 0.0245 -0.1514 -0.1339 -0.01909
-0.0401 0.1667 -0.03534 -0.06824 -0.0731 -0.08826 -0.1595 0.0937
0.01073 0.00979 0.02515 -0.0432 0.0414 -0.07983 0.1301 -0.1304
-0.02856 0.1209 0.0001749 0.09467 0.002258 0.138 0.0343 -0.04013
0.00515 -0.0124 0.2466 -0.1852 -0.05658 0.07135 -0.051 0.2063
-0.0579 -0.0963 0.0899 0.05197 0.04105 -0.01799 0.0516 -0.01485
0.0764 -0.2107 0.010826 0.04443 0.1619 -0.001256 0.02734 0.0365
0.294 -0.1072 0.06793 -0.01598 -0.1383 0.03967 -0.1277 -0.07227
0.112 0.0615 0.1323 -0.0648 0.011284 0.04666 -0.00337 -0.12274
0.006283 -0.11444 0.0674 -0.1128 -0.005344 -0.07635 0.07153 -0.03638
-0.04898 0.11273 -0.006264 0.09674 -0.1416 -0.1109 0.05676 -0.11835
-0.07416 -0.01134 -0.0763 -0.0717 0.05313 0.0937 0.08997 0.1952
0.035 0.2147 0.02422 -0.05725 0.03424 0.02605 -0.03032 -0.1882
0.0942 -0.1633 -0.02715 0.04892 0.1335 -0.0434 -0.02826 0.09265
0.0922 -0.1595 0.05496 -0.1202 -0.1842 -0.10095 -0.1298 0.02187
0.05353 -0.2272 0.05994 0.0658 0.1635 -0.1886 0.01254 0.07745
-0.12476 0.01432 0.0645 0.03635 -0.11975 -0.1897 -0.00871 -0.126

model/lstm/while/lstm_cell_2/MatMul_7 f2 [32, 32]
00000000: 1ba2 9c96 5728 0ca8 ba29 4724 d526 7c2f
00000010: dba7 6ab0 e028 692c a92d b1b2 15b2 e5ab
00000020: 152c 3cb1 49ae 39ae 9da1 1bad a5a5 3c2c
00000030: a0ae ea2f 59ae 65ad e229 3a2b 3230 9426
00000040: 93aa 332d 0b25 3a31 8730 8825 83ad 9daf
00000050: b125 da26 92ab 1ea4 c024 8da7 0429 9531
00000060: 5732 972c 87a6 712e 6db1 a132 0821 23ac
00000070: 29b2 0caf a19d 82ac 55ac 1329 0231 9f32
00000080: 59b4 ce28 b8af a62d 4a34 bba4 0329 6030
00000090: a6b1 d6af 11b1 87af 16a5 89ad 0caa bca7
000000a0: 5fa6 17ae 0bb1 822c b6b1 72b1 fcaa e82d
000000b0: 682f c3a4 acaf d531 c12a aa30 daae e3a8
000000c0: bdaa 5aaa e3ad e3a6 4625 ffb0 da30 fc26
000000d0: 1cab 322e 8fac 0daf 37ae ddad faae f6a1
000000e0: a0a7 2d2f 1027 c3b5 552c d12d 7325 4caa
000000f0: 97ad 21a9 2aaf 3d2c 72a5 8db3 7c9f a825
00000100: 98b0 009d 4c19 5cac 73ad 572f a2b0 76b0
00000110: 922a e3a0 ed30 0e32 322c 74b0 85a5 2a2e
00000120: 65ad d72a 96a7 a935 c9a7 292f d52c e4b0
00000130: ff97 492b 97a5 8331 a6ac 7aad fc29 fd07
00000140: 442d 17b4 7624 8da7 55b0 e331 5730 de24
00000150: 15b0 36ac cdb2 892f 1831 4832 cbb2 d4ae
00000160: 489f 5ab3 682c 0730 8ea6 f92f c32c f2b0
00000170: c1a5 ba24 1fb1 cb2c dca9 592f 6931 e22d
00000180: 22ac f2ab 822f 5b27 a2ae 1c2d 92ab 1faa
00000190: eb27 7027 192c 1e2e 8529 9825 3cb1 4b2a
000001a0: 61b0 172b 5733 8f33 d42a 7aa6 61b0 98a2
000001b0: 6810 5aac 9ba9 41a6 282c a5ad e333 c633
000001c0: 2da6 c0ac caad 9dad 37ad b52c 0e24 43ae
000001d0: d3ac 2122 0ab0 042c d12a 8330 c2a2 88ad
000001e0: 762e fd34 a6ac 5e28 baae aba8 77a9 f61d
000001f0: c6a7 a330 fab0 1624 9a24 ac27 29af 78b0
-0.011925 -0.001614 0.0339 -0.03162 0.04474 0.01671 0.02669 0.11694
-0.03069 -0.138 0.0381 0.0689 0.08844 -0.2091 -0.1901 -0.06168
0.0638 -0.1636 -0.0982 -0.0972 -0.01096 -0.0798 -0.02205 0.06616
-0.1035 0.12366 -0.0992 -0.0843 0.04596 0.05646 0.1311 0.0257
-0.05136 0.08124 0.0197 0.1633 0.1415 0.0216 -0.0861 -0.11896
0.02223 0.02676 -0.05914 -0.01608 0.01855 -0.0295 0.03918 0.1744
0.1981 0.0717 -0.0255 0.10065 -0.1696 0.2072 0.00983 -0.06464
-0.1925 -0.1101 -0.005497 -0.07043 -0.0677 0.03964 0.1565 0.2069
-0.2717 0.03754 -0.1206 0.08826 0.268 -0.01848 0.03915 0.1367
-0.1765 -0.12244 -0.1583 -0.1176 -0.01987 -0.0865 -0.04724 -0.03021
-0.02489 -0.09515 -0.1576 0.07043 -0.1785 -0.1702 -0.05457 0.0923
0.1157 -0.0186 -0.1199 0.1823 0.05276 0.1458 -0.10706 -0.03818
-0.05264 -0.04962 -0.092 -0.0269 0.0206 -0.1561 0.1516 0.02728
-0.05554 0.0968 -0.0712 -0.11017 -0.0971 -0.0916 -0.109 -0.01164
-0.02979 0.1121 0.02759 -0.36 0.0677 0.0909 0.02129 -0.0492
-0.08734 -0.04007 -0.11194 0.0662 -0.02127 -0.236 -0.00731 0.0221
-0.1436 -0.004883 0.002586 -0.0681 -0.08514 0.1147 -0.1448 -0.1394
0.05133 -0.009544 0.1539 0.1892 0.06555 -0.1392 -0.02156 0.0963
-0.0843 0.05344 -0.02963 0.3538 -0.03041 0.1119 0.0755 -0.1528
-0.001952 0.05692 -0.02184 0.1722 -0.07263 -0.0856 0.04675 0.0001219
0.0823 -0.2556 0.01743 -0.0295 -0.1354 0.184 0.1356 0.01901
-0.1276 -0.0658 -0.2125 0.11774 0.1592 0.1963 -0.2123 -0.1067
-0.00711 -0.2297 0.06885 0.1259 -0.0256 0.1246 0.0744 -0.1545
-0.02248 0.01846 -0.16 0.0749 -0.04578 0.1148 0.1691 0.0919
-0.0646 -0.06207 0.1173 0.02873 -0.10364 0.07983 -0.05914 -0.04782
0.03093 0.02905 0.064 0.0956 0.04312 0.02185 -0.1636 0.04916
-0.1368 0.0554 0.2294 0.2362 0.05334 -0.0253 -0.1368 -0.01288
0.000538 -0.068 -0.0438 -0.02443 0.06494 -0.0882 0.2465 0.2429
-0.02412 -0.0742 -0.09045 -0.0877 -0.0815 0.07355 0.01584 -0.09784
-0.0754 0.01197 -0.1262 0.06274 0.05325 0.141 -0.0132 -0.0864
0.10095 0.3118 -0.07263 0.03412 -0.1051 -0.03647 -0.0427 0.00582
-0.03036 0.1449 -0.1555 0.01596 0.01797 0.02997 -0.1119 -0.1396

model/lstm/while/lstm_cell_2/split_1 f2 [32]
00000000: 4d27 612b 362c a92b eea8 3d2c 74a2 a22d
00000010: 00aa 6fa3 d328 56a9 7529 922d 3928 4a2b
00000020: 932d 122d d2a4 0b27 d6aa ef20 979e 1e28
00000030: c0a7 1325 ea96 0725 2729 09ab 182a 8ea5
0.02852 0.05765 0.0658 0.05984 -0.0385 0.0662 -0.0126 0.088
-0.04688 -0.01452 0.0377 -0.0417 0.04263 0.08704 0.033 0.05695
0.0871 0.0792 -0.01883 0.02751 -0.0534 0.009636 -0.006435 0.03217
-0.03027 0.01982 -0.001688 0.01964 0.04025 -0.05496 0.0476 -0.0217

model/lstm/while/lstm_cell_2/split_11 f2 [32]
00000000: 133c c93b e43b 133c 1f3c d63b 4a3c e63b
00000010: 323c 003c f03b 133c ef3b d33b 0f3c ea3b
00000020: fd3b fe3b 1c3c 043c 2e3c f83b 0b3c f63b
00000030: 1a3c 093c 2a3c 163c f33b 1a3c fe3b fa3b
1.019 0.973 0.9863 1.019 1.03 0.9795 1.072 0.9873
1.049 1.0 0.992 1.019 0.9917 0.978 1.015 0.9893
0.9985 0.999 1.027 1.004 1.045 0.996 1.011 0.995
1.025 1.009 1.041 1.021 0.9937 1.025 0.999 0.997

model/lstm/while/lstm_cell_2/split_12 f2 [32]
00000000: c39f d0a0 0a10 d319 aba0 911e 509c 0e28
00000010: a11d 4926 281d bfa6 6620 1ba1 10a8 301d
00000020: e09c 4e9e e120 c597 dba0 f024 7da0 19a6
00000030: 2ea7 d199 f0a6 4128 73a4 829f 6225 b81c
-0.00758 -0.0094 0.000493 0.002844 -0.00912 0.006413 -0.00421 0.03168
0.005497 0.02455 0.005035 -0.02635 0.00859 -0.00997 -0.03174 0.005066
-0.00476 -0.006157 0.00953 -0.001897 -0.00948 0.01929 -0.008766 -0.02382
-0.02805 -0.00284 -0.0271 0.03323 -0.01738 -0.00733 0.02103 0.00461

model/lstm/while/lstm_cell_2/split_13 f2 [32]
00000000: 1f2c c927 782a 3a2b 0e2a e92a f329 152d
00000010: a127 ea2b 0024 0f2c 2c2c 292d fe25 a02d
00000020: e52d 042b fe2c 4429 0b2c 562c 662c b929
00000030: 2316 a92b 4b25 d52b 1127 712d 6b27 9e2a
0.0644 0.03041 0.05054 0.05646 0.0473 0.054 0.04648 0.0794
0.0298 0.06183 0.01563 0.0634 0.0652 0.0806 0.0234 0.0879
0.0921 0.0548 0.078 0.04114 0.0632 0.06775 0.0687 0.0447
0.001498 0.05984 0.02068 0.0612 0.0276 0.085 0.02898 0.0517

model/lstm/while/lstm_cell_2/MatMul f2 [32, 96]
00000000: 7023 e2a8 e429 be29 7027 e32d 482c 5f24
00000010: 9eb3 009d 882d 2eaa cb32 672c 69aa 1997
00000020: c9ac 66ad e032 c62d 2f29 c52d 7c31 00af
00000030: 949d f32f a22c e82b ee2e 01a4 fa2b 3a2e
00000040: 272c 46a5 2628 3eaa d12a 1c29 c9a5 4c25
00000050: 6bac 60ac ca29 1dad 391f 8b2c 36a1 75a9
00000060: 2d2c fa2d 86aa 8c30 24ae 8129 cba0 8aad
00000070: f9aa daa7 71ab ce2f 9fa9 7a8e 37a5 efab
00000080: 0023 dd23 2929 18a5 b428 bb2d 9c30 f325
00000090: 5121 86a7 262f ce28 90a7 cb2a 1325 8328
000000a0: 0417 d82b 66a9 8da8 7b31 e529 0122 4c99
000000b0: fba7 9610 9aa4 5024 a215 652a 0ea9 32a6
000000c0: 9c24 e730 f2b0 b62c 4530 77a8 6d30 e4b1
000000d0: 4e2d 9e89 9d27 f291 1c30 2b2c 1f30 58a9
000000e0: 1bad 729c e830 2f31 282d 3f30 3a30 caab
000000f0: 342e 999f 3430 af1e 82a8 2430 f229 bbaa
00000100: fb2c 2327 839a f62b f6a9 3c20 5e33 0b2c
00000110: 2123 2b2b 8a25 e030 462f 9330 53a2 2e2c
00000120: 7a2a 2d11 8d9a 0e30 c92d c0a7 4d24 2ea9
00000130: e12c 7ea8 0e2d 1a2f ab03 92a2 44ad 2c2b
00000140: 9e27 da2a 3b30 952b 7c27 bca4 cc28 d71e
00000150: 7d2c 9014 c32e 05ac 4691 d02b ca1a 062b
00000160: dd22 b42e cea9 2e28 4029 96ac 429b 8a01
00000170: 21ab 0930 602c 2325 1aa0 382d 6aa8 31a9
00000180: 292d f630 2f9d d528 b0ae cf2e 0d29 0ba9
00000190: 46aa 2120 d328 52a5 1aac b6a6 0330 ee2e
000001a0: 9526 9f2d d530 1e2e bfaa 442c 5ba8 db2c
000001b0: 502c 3e29 a624 3825 d82f 5d2a a829 1aa0
000001c0: a82f 6223 2324 152e bba5 1910 9eab 4d2e
000001d0: a226 a32f 6fad ffab 221f 499c 2b20 0e23
000001e0: 5f29 752e 5e98 cb2e 95aa deac 181e 5bb0
000001f0: 7f30 12ad 2bac 6329 e9a8 30a9 762c 2b24
0.01453 -0.03815 0.04602 0.04486 0.02905 0.092 0.0669 0.01707
-0.238 -0.004883 0.0864 -0.04828 0.2123 0.0688 -0.05008 -0.001733
-0.07477 -0.08435 0.2148 0.0902 0.0405 0.09015 0.1714 -0.1094
-0.005447 0.1242 0.0724 0.06177 0.1083 -0.01564 0.06232 0.0973
0.0649 -0.0206 0.0324 -0.04877 0.05325 0.03992 -0.0226 0.02069
-0.06903 -0.06836 0.04523 -0.0799 0.007053 0.071 -0.01018 -0.04263
0.06525 0.0934 -0.05096 0.1421 -0.09595 0.043 -0.00936 -0.08655
-0.05447 -0.03067 -0.05814 0.12195 -0.0439 -0.0003953 -0.02037 -0.06198
0.01367 0.01536 0.0403 -0.0199 0.03674 0.08954 0.144 0.02324
0.01038 -0.02939 0.1117 0.03754 -0.02954 0.05307 0.01982 0.03525
0.001713 0.06128 -0.04218 -0.03555 0.1713 0.04605 0.01173 -0.002586
-0.03117 0.00056 -0.01797 0.01685 0.001375 0.04996 -0.0395 -0.0242
0.018 0.1532 -0.1545 0.0736 0.1334 -0.03488 0.1383 -0.1841
0.0829 -0.0001714 0.02974 -0.0007257 0.1284 0.0651 0.1288 -0.04175
-0.0798 -0.00434 0.1533 0.162 0.08057 0.1327 0.1321 -0.06085
0.0969 -0.00742 0.1313 0.006527 -0.03522 0.1294 0.04645 -0.05258
0.0778 0.02788 -0.00318 0.0622 -0.04657 0.00827 0.2302 0.0632
0.01392 0.056 0.02164 0.1523 0.11365 0.143 -0.01235 0.0653
0.0506 0.000632 -0.003199 0.1267 0.0904 -0.03027 0.0168 -0.04047
0.07623 -0.0351 0.079 0.11096 5.597e-05 -0.01283 -0.0823 0.05603
0.02975 0.05353 0.1322 0.05923 0.02924 -0.0185 0.03748 0.00668
0.0701 0.001114 0.10565 -0.0628 -0.0006437 0.06104 0.003315 0.05487
0.013405 0.10474 -0.04535 0.03265 0.04102 -0.07166 -0.003544 2.35e-05
-0.0557 0.1261 0.06836 0.02007 -0.00801 0.08154 -0.0345 -0.04056
0.0806 0.155 -0.005062 0.03775 -0.1045 0.1064 0.03946 -0.0394
-0.049 0.008064 0.0377 -0.02078 -0.0641 -0.02621 0.1254 0.1083
0.02571 0.0878 0.151 0.0956 -0.0527 0.06665 -0.03403 0.07587
0.0674 0.04095 0.01816 0.02039 0.12256 0.0497 0.0442 -0.00801
0.1196 0.01442 0.01616 0.09503 -0.02238 0.0005 -0.0595 0.09845
0.02591 0.1193 -0.0849 -0.06247 0.006966 -0.004185 0.00814 0.01378
0.04196 0.1009 -0.002132 0.10614 -0.05142 -0.07605 0.00595 -0.1361
0.1405 -0.0792 -0.0651 0.04208 -0.03836 -0.04053 0.0697 0.01628
