HPC_Final_Study2_Complete_Test_Class_Balance_run_all/participants_session_transfer_train/participant_12/session_2/session_2_lite_models/indexpen_model.tflite (tflite, 768696 bytes, 45 tensors)

model/time_distributed_3/conv2d_1/BiasAdd;model/time_distributed_11/conv2d_3/Conv2D;model/time_distributed_3/conv2d_1/Conv2D;model/time_distributed_3/conv2d_1/BiasAdd/ReadVariableOp/resource f4 [16]
-0.22177933 -0.17213233 -0.012173726 -0.056219053 0.17873697 -0.06876546 -0.1615059 0.012272996
-0.10034127 -0.16922274 -0.031740606 -0.04192523 -0.19144036 -0.21731101 0.069165014 -0.14922786
00000000: 1f1a 63be 7543 30be 4f74 47bc f345 66bd
00000010: d306 373e e8d4 8cbd cd61 25be ad14 493c
00000020: b97f cdbd ba48 2dbe 7002 02bd cab9 2bbd
00000030: f108 44be c786 5ebe 63a6 8d3d 30cf 18be

model/time_distributed/conv2d/BiasAdd;model/time_distributed_8/conv2d_2/Conv2D;model/time_distributed/conv2d/Conv2D;model/time_distributed/conv2d/BiasAdd/ReadVariableOp/resource f4 [8]
0.0007974226 -0.004666114 -0.006902786 0.0030961744 0.06297668 0.012410227 0.16903897 0.004292783
00000000: 200a 513a 34e6 98bb c430 e2bb 30e9 4a3b
00000010: ebf9 803d 4454 4b3c 8d18 2d3e 79aa 8c3b

model/time_distributed_11/conv2d_3/BiasAdd;model/time_distributed_11/conv2d_3/Conv2D;model/time_distributed_11/conv2d_3/BiasAdd/ReadVariableOp/resource f4 [16]
0.024419695 0.061291195 -0.0068058246 0.0700813 0.021258634 -0.018519945 0.011974692 0.06285586
0.013516389 -0.0039914325 -0.0063019814 -0.017584888 0.01790689 -0.018657774 -0.0142528685 -0.065507725
00000000: d00b c83c 7a0c 7b3d 6503 dfbb c986 8f3d
00000010: 9626 ae3c 24b7 97bc 8031 443c 93ba 803d
00000020: d873 5d3c 90ca 82bb da80 cebb 2f0e 90bc
00000030: 78b1 923c 30d8 98bc dd84 69bc ea28 86bd

model/time_distributed_8/conv2d_2/BiasAdd;model/time_distributed_8/conv2d_2/Conv2D;model/time_distributed_8/conv2d_2/BiasAdd/ReadVariableOp/resource f4 [8]
0.08512102 0.025169551 0.0049680807 0.03225112 -0.023453984 0.15066487 0.03956978 -0.009684537
00000000: ee53 ae3d 6030 ce3c 48cb a23b c019 043d
00000010: 9222 c0bc e447 1a3e ec13 223d e4ab 1ebc

model/time_distributed_3/conv2d_1/Conv2D f4 [16, 3, 3, 8]
0.08872504 -0.07152143 0.006497587 -0.2525022 0.0118875615 0.00037293258 -0.07110609 0.006335567
-0.0034946422 -0.01919857 -0.015804145 0.043299373 0.16284284 0.04292262 0.18208581 -0.0074127675
0.04758039 -0.0032567247 -0.013743095 0.02021721 -0.1339733 -0.015427244 -0.02393573 0.042566676
0.018229757 -0.09324839 -0.038187858 -0.061321046 -0.08373965 0.0059717502 0.17249955 0.030273767
-0.0224419 0.023132116 -0.0039078943 0.28112328 -0.07787542 0.007713576 0.022499269 0.034317095
-0.027332073 0.034453005 0.039470993 -0.085500605 0.014533911 -0.03495627 -0.22499977 0.025685202
0.011223042 0.04805592 0.048661333 0.09436702 -0.09819475 -0.023640618 0.120033905 0.035279963
-0.03351221 0.02880646 -0.0054804333 -0.12811351 -0.092937686 -0.0489953 0.27307585 0.039695732
-0.03304791 -0.006920462 -0.007998446 -0.08929797 -0.009562951 -0.042909466 0.4709561 -0.0055371164
0.012286872 0.017105518 -0.105422795 -0.11411695 0.09958651 -0.03334207 -0.29964477 0.06919499
0.02192256 -0.0051306775 -0.02143028 -0.015663508 0.09077808 -0.034482084 -0.017691642 -0.009544815
-0.012856403 -0.02547739 -0.010027684 -0.061172448 -0.16575609 0.025248269 0.2859576 -0.06568978
0.00024373023 0.024496695 -0.07543969 0.19701235 0.05782688 -0.007340584 -0.17548127 0.028345585
-0.0955583 0.0013953098 0.014112095 0.014925376 0.079249255 0.016447786 -0.34901756 -0.0029034414
-0.11988079 -0.007703405 -0.0056127203 -0.12593618 0.027419442 0.07728202 0.2600043 -0.0062986687
0.005460255 0.046174902 -0.021357965 -0.033647314 0.16038811 0.032207705 0.043811347 -0.018915867
0.030886846 0.0061668716 0.031827215 -0.10074267 -0.12510994 0.020539533 0.18726125 0.036020324
0.0057772426 -0.050946526 -0.064259656 0.0016914412 -0.107646614 -0.006104033 0.3717297 0.046746273
-0.066145204 -0.0181561 -0.021675564 -0.15096271 -0.12399349 -0.029274847 -0.12142114 0.046966854
-0.016380752 -0.04772933 -0.03946243 -0.06620977 -0.02750048 0.036684383 0.20978287 0.015079748
-0.045330156 -0.08995474 0.029898148 -0.0065890425 -0.027061095 0.06260028 -0.14657986 -0.027492685
-0.0047916956 0.035387572 -0.0112519665 0.20796016 -0.24519102 -0.0063440087 -0.34594667 0.06422459
-0.02708618 0.05122978 -0.03181048 -0.063585535 -0.103224255 0.020101933 -0.39163333 0.025370037
-0.021966571 -0.058896314 0.007810086 0.1816638 0.05897785 -0.034573723 -0.12607929 0.045669634
0.021920377 -0.013046587 -0.04327067 -0.09877855 -0.0055553904 0.023945866 0.03482749 -0.027767856
0.013358941 0.014350003 -0.017687077 -0.3816682 -0.23655945 0.022740254 0.13240469 -0.008977497
0.027329069 -0.02580676 -0.024964517 -0.0047010556 -0.36414638 -0.06280725 0.1632166 0.030018369
-0.06954641 0.049497355 -0.036136076 -0.070535064 0.062290307 0.051565323 0.06502141 0.011531883
-0.060138848 -0.011495918 -0.008452097 0.12875107 -0.14165463 -0.03364703 -0.16557133 0.03640421
-0.05951646 -0.013739569 0.053077 -0.29298687 -0.02865216 0.007440681 0.04835821 -0.041113727
0.007976514 -0.014824609 -0.013633153 0.004778585 -0.031932868 0.03899641 0.011634815 0.047225792
0.058640525 0.021224603 -0.005522923 -0.06256854 -0.16234891 0.032617334 -0.14708121 0.029667968
00000000: 79b5 b53d d479 92bd b6e9 d43b f847 81be
00000010: 0cc4 423c 2a86 c339 12a0 91bd 979a cf3b
00000020: 5e06 65bb 5246 9dbc b277 81bc af5a 313d
00000030: 46c0 263e a1cf 2f3d b474 3a3e cde6 f2bb
00000040: a8e3 423d c66e 55bb b82a 61bc 909e a53c
00000050: 4c30 09be 8dc2 7cbc dd14 c4bc 655a 2e3d
00000060: 9256 953c 03f9 bebd df6a 1cbd c72b 7bbd
00000070: b27f abbd acae c33b b9a3 303e b100 f83c
00000080: 13d8 b7bc 907f bd3c cb0d 80bb 64ef 8f3e
00000090: 267d 9fbd 2ac2 fc3b 6350 b83c 1590 0c3d
000000a0: 83e7 dfbc 981e 0d3d 56ac 213d f11a afbd
000000b0: a41f 6e3c 4e2e 0fbd 5766 66be c669 d23c
000000c0: dae0 373c 49d6 443d 1b51 473d 7f43 c13d
000000d0: 541a c9bd f8a9 c1bc 56d4 f53d b981 103d
000000e0: 1944 09bd 86fb eb3c 3595 b3bb 3030 03be
000000f0: 1d56 bebd 4caf 48bd 99d0 8b3e fe97 223d
00000100: 3f5d 07bd 0bc5 e2bb ea0b 03bc dbe1 b6bd
00000110: ecad 1cbc d6c1 2fbd 2821 f13e b370 b5bb
00000120: e04e 493c df20 8c3c e8e7 d7bd 26b6 e9bd
00000130: 03f4 cb3d b291 08bd 0a6b 99be 1ab6 8d3d
00000140: f196 b33c 3e1f a8bb 8e8e afbc c250 80bc
00000150: dce9 b93d 163d 0dbd 10ee 90bc db61 1cbc
00000160: aaa3 52bc f6b5 d0bc 284b 24bc f68f 7abd
00000170: f7bb 29be 75d5 ce3c 0969 923e 5d88 86bd
00000180: d691 7f39 4bad c83c 2080 9abd 9bbd 493e
00000190: e1db 6c3d 4889 f0bb 5db1 33be 0035 e83c
000001a0: 12b4 c3bd d4e2 b63a 6b36 673c 9089 743c
000001b0: 6f4d a23d 82bd 863c 6eb2 b2be aa47 3ebb
000001c0: 0f84 f5bd d86c fcbb e9ea b7bb 6af5 00be
000001d0: bd9e e03c 0946 9e3d 491f 853e 1065 cebb
000001e0: f0eb b23b e521 3d3d e6f6 aebc c4d1 09bd
000001f0: c83c 243e 3aec 033d 8773 333d 73f5 9abc
00000200: 6906 fd3c 7813 ca3b 415d 023d 2c52 cebd
00000210: d21c 00be 8642 a83c 6ac1 3f3e 0c8a 133d
00000220: 064f bd3b 4ead 50bd 919a 83bd 59b3 dd3a
00000230: d475 dcbd 5704 c8bb 5b53 be3e 0579 3f3d
00000240: 2377 87bd 1abc 94bc f490 b1bc f895 1abe
00000250: 4df0 fdbd ced1 efbc a6ab f8bd 5160 403d
00000260: ed30 86bc d47f 43bd 5ba3 21bd fd98 87bd
00000270: b048 e1bc 5d42 163d 52d1 563e 0c11 773c
00000280: 1dac 39bd 313a b8bd f6ec f43c e5e8 d7bb
00000290: 3baf ddbc 9334 803d 0819 16be 5738 e1bc
000002a0: a803 9dbb 8ff2 103d 2b5a 38bc 82f3 543e
000002b0: 5b13 7bbe 67e1 cfbb ec1f b1be 2f88 833d
000002c0: d6e3 ddbc 51d6 513d b54b 02bd 2239 82bd
000002d0: 3d67 d3bd cfac a43c 2a84 c8be d3d4 cf3c
000002e0: 3df3 b3bc 433d 71bd c0eb ff3b 1306 3a3e
000002f0: c292 713d 2d9d 0dbd ee1a 01be 1510 3b3d
00000300: 5d92 b33c 5ac1 55bc 963c 31bd 694c cabd
00000310: fe09 b6bb 1f2a c43c 45a7 0e3d 6a79 e3bc
00000320: 76df 5a3c 461c 6b3c 7de4 90bc 046a c3be
00000330: a43c 72be c549 ba3c 1895 073e 5a16 13bc
00000340: 36e1 df3c b368 d3bc 6382 ccbc 500b 9abb
00000350: 6571 babe 16a1 80bd 4122 273e 15e9 f53c
00000360: 596e 8ebd bdbd 4a3d 6c03 14bd b074 90bd
00000370: 1f24 7f3d 2936 533d f229 853d 39f0 3c3c
00000380: 2754 76bd 6059 3cbc aa7a 0abc 52d7 033e
00000390: e90d 11be 78d1 09bd 888b 29be 951c 153d
000003a0: 88c7 73bd ee1b 61bc 4567 593d 6002 96be
000003b0: efb7 eabc f5d0 f33b 4213 463d de66 28bd
000003c0: edaf 023c ebe2 72bc 975d 5fbc ad95 9c3b
000003d0: 0acc 02bd b3ba 1f3d f39f 3e3c d56f 413d
000003e0: 0c31 703d 38df ad3c a3f9 b4bb ef23 80bd
000003f0: cb3e 26be c199 053d 759c 16be 3d0a f33c

model/time_distributed/conv2d/Conv2D f4 [8, 3, 3, 1]
0.0014314754 0.0011556884 0.0015033828 0.00064719305 0.0027144726 -0.004222734 0.005903825 -0.002626968
0.003112554 0.0012453137 -0.0059223864 0.0021443754 0.0011326405 -0.002072205 0.004862641 -0.004993513
0.0006135336 -0.0021465435 0.006607184 -0.0031951847 0.002200989 0.00043582486 -0.0006573795 -0.0006102988
-0.0006158101 0.002167443 0.002585862 0.012445595 -0.01000264 0.015164698 -0.0031004625 -0.0030208116
-0.011209911 0.004849326 0.005765064 0.023428932 0.0010535617 0.0026952028 -0.0021684056 0.0024957852
0.0005544342 -0.003135606 0.043917317 0.0039588637 -0.014634474 8.274805e-05 0.00041581847 0.00017307833
0.0007634763 -0.0020212128 -0.00033435738 0.00069960806 0.00064696284 0.001964749 -0.0033347814 0.0005381014
-0.0005480042 -0.0065628416 0.010390959 0.0011931794 -0.0054246294 -0.04631271 -0.004356237 0.00010131736
0.0016185113 -0.00021195863 0.0033234651 0.0005858519 -0.00024257816 -0.0012196234 -0.0007972064 0.00034759345
00000000: 58a0 bb3a 787a 973a 280d c53a 64a8 293a
00000010: 4be5 313b dc5e 8abb e074 c13b 3629 2cbb
00000020: fefb 4b3b cb39 a33a 9410 c2bb a688 0c3b
00000030: 1c75 943a d5cd 07bb ca56 9f3b a0a0 a3bb
00000040: 8bd5 203a 06ad 0cbb 1481 d83b 4e66 51bb
00000050: 783e 103b 6c7f e439 fe53 2cba 76fc 1fba
00000060: 516e 21ba a90b 0e3b 9177 293b 9ce8 4b3c
00000070: 1de2 23bc 5a75 783c 2131 4bbb cff8 45bb
00000080: c6a9 37bc 18e7 9e3b dde8 bc3b 08ee bf3c
00000090: aa17 8a3a 00a2 303b cf1b 0ebb 5490 233b
000000a0: 7357 113a bd7e 4dbb a5e2 333d 5bb9 813b
000000b0: 6fc5 6fbc 0589 ad38 3602 da39 5c7c 3539
000000c0: 0724 483a 5376 04bb b04c afb9 e765 373a
000000d0: f198 293a 05c3 003b 598c 5abb 600f 0d3a
000000e0: f0a7 0fba 1b0d d7bb d73e 2a3c 7564 9c3a
000000f0: 17c1 b1bb 65b2 3dbd c4be 8ebb 587a d438
00000100: 3a24 d43a 3641 5eb9 7ece 593b db93 193a
00000110: 945c 7eb9 c5db 9fba 9efb 50ba 343d b639

model/time_distributed_11/conv2d_3/Conv2D f4 [16, 3, 3, 8]
0.17488639 -0.011760016 0.028803749 -0.025217691 -0.35905296 -0.28794494 -0.117054455 -0.074957974
-0.01278846 0.0026798858 0.036862206 -0.055783965 -0.33343992 0.24469934 -0.14658123 -0.06321015
-0.13568467 -0.0047798357 0.025450582 -0.048129883 -0.36091062 0.05403073 0.0991262 -0.030801047
-0.22866845 -0.018504633 0.035854712 -0.070046715 0.049615256 0.16772556 -0.32177657 -0.02588652
0.027831772 -0.03934316 0.01206278 -0.04255263 0.01232628 0.021612871 0.0871245 0.027978903
0.016170429 -0.0073403604 0.0004973429 -0.050789014 -0.009805996 -0.21488346 0.07836303 0.049256552
0.024911659 -0.042401478 0.030815214 0.005745271 -0.037619334 -0.08108234 -0.19451356 -0.03814639
-0.017934384 0.04735227 0.015119136 0.030195262 0.049538713 0.04010269 -0.042653233 -0.03476409
0.045297224 0.005812851 0.019334491 0.04356497 0.3031111 -0.008358821 -0.33663273 0.07878547
0.47112116 0.03880394 -0.0009928775 0.034769773 0.24639231 -0.06287211 -0.31431106 -0.004578645
0.0033715488 -0.005478552 -0.012170812 -0.09515268 -0.11059606 0.20247728 -0.10065449 -0.04141057
-0.47848538 -0.002252435 0.006000659 -0.049229804 -0.36258152 -0.10473357 0.32021573 -0.005754748
-0.28076002 -0.044102248 0.02960744 -0.03296916 -0.36738786 0.21333466 -0.24227321 -0.01108488
0.20761372 -0.012904559 0.029783867 0.05508077 -0.23998556 -0.27440232 -0.18391879 -0.12851296
0.1042875 -0.0535449 -0.041289147 -0.020010293 0.31217536 0.024372384 -0.022192625 0.008620112
0.14435503 -0.0558023 0.052449495 0.023247737 0.0717447 0.17199565 -0.21475416 -0.022781545
-0.23536813 -0.036942553 0.07965331 -0.055416863 -0.116719924 -0.13682255 -0.10913476 -0.11475262
-0.13534595 -0.067568846 0.01742944 0.045925513 -0.36441895 -0.13701448 0.07947545 -0.08890285
0.0063977456 0.0071717715 -0.016819753 -0.0024453665 -0.0053446353 -0.008174549 -0.0055260677 0.011813078
0.0053840727 0.006295315 -0.016810205 -0.0028723588 -0.0040384554 -0.0074258917 -0.003549397 0.010004665
0.004255629 0.0053425855 -0.016445998 -0.0032923226 -0.0031701094 -0.0069482634 -0.0075877123 0.007984294
0.008845694 -0.0070456937 -0.0030740772 0.0010904399 -0.0004980813 -0.019733317 -0.005481061 0.020357981
0.0067824787 -0.00732021 -0.003758379 -0.00022249314 0.0031984402 -0.016601238 -0.012971448 0.020153109
0.0014161441 -0.007424305 -0.004540221 -0.0012644059 0.008174342 -0.015788306 -0.004743976 0.02007641
0.004805862 -0.0021859452 -0.0014030847 0.0012957256 -0.0076341173 -0.0010761607 -0.00751208 0.017415937
0.006822912 -0.003104777 -0.0015418676 0.0013041426 -0.007550218 -0.0008656981 -0.007916579 0.017070573
-0.0059090336 -0.004460964 -0.0017050625 0.00086334 -0.0028703704 -0.0032570986 -0.0064489795 0.016688447
-0.15438871 -0.011907528 0.037815694 0.03869294 0.077196516 -0.042654596 -0.25564405 0.045631897
0.24311094 -0.009417227 0.034480155 0.04057648 0.06414602 -0.0034468325 -0.28234 0.04662176
0.040370286 0.0041415365 0.029454073 0.020781947 -0.116509385 0.117811136 0.1455928 0.05232739
0.35927233 0.008094234 0.018911112 0.0723718 -0.32007182 0.17382172 -0.119384825 0.06464261
-0.11193276 0.022608664 0.016650556 0.014842057 -0.09880192 0.0427732 -0.10648413 0.021264177
00000000: 6b15 333e 15ad 40bc d7f5 eb3c 5595 cebc
00000010: cad5 b7be 856d 93be 3fba efbd 9183 99bd
00000020: b086 51bc 06a1 2f3b d3fc 163d ba7d 64bd
00000030: a3b8 aabe 7792 7a3e 6419 16be 5374 81bd
00000040: ecf0 0abe 2ba0 9cbb bd7d d03c d723 45bd
00000050: 47c9 b8be 544f 5d3d ad02 cb3d 7a52 fcbc
00000060: 1028 6abe 0797 97bc 64dc 123d a774 8fbd
00000070: 5e39 4b3d 40c0 2b3e e6bf a4be f80f d4bc
00000080: 75ff e33c 4b26 21bd f7a2 453c ab4b 2ebd
00000090: 2af4 493c 7a0d b13c 546e b23d 0334 e53c
000000a0: d977 843c 6887 f0bb 1e60 023a 2408 50bd
000000b0: 54a9 20bc 690a 5cbe cc7c a03d 3dc1 493d
000000c0: 8913 cc3c 2cad 2dbd 3070 fc3c d442 bc3b
000000d0: bb16 1abd 7f0e a6bd 902e 47be 643f 1cbd
000000e0: 21eb 92bc 74f4 413d 41b6 773c 0e5c f73c
000000f0: 1be9 4a3d b842 243d 28b5 2ebd ca64 0ebd
00000100: 9589 393d ba79 be3b 5e63 9e3c 2f71 323d
00000110: 6131 9b3e 70f3 08bc 205b acbe 475a a13d
00000120: cb36 f13e e1f0 1e3d 7123 82ba c06a 0e3d
00000130: 444e 7c3e 18c3 80bd 61ed a0be 7508 96bb
00000140: 34f5 5c3b 6d85 b3bb 1668 47bc 69df c2bd
00000150: 3080 e2bd 3456 4f3e f123 cebd 219e 29bd
00000160: 09fc f4be 979d 13bb 2da1 c43b 31a5 49bd
00000170: 49a4 b9be 8e7e d6bd 51f3 a33e 5392 bcbb
00000180: c7bf 8fbe 8fa4 34bd 4d8b f23c ab0a 07bd
00000190: 431a bcbe 6774 5a3e 7816 78be 5b9d 35bc
000001a0: b198 543e a56d 53bc 4cfd f33c 609c 613d
000001b0: c6be 75be 767e 8cbe 3555 3cbe e798 03be
000001c0: af94 d53d e651 5bbd cf1e 29bd a0ec a3bc
000001d0: 73d5 9f3e 98a8 c73c 4fcd b5bc 5f3b 0d3c
000001e0: ced1 133e f490 64bd 48d5 563d 0a72 be3c
000001f0: e3ee 923d a11f 303e 84e8 5bbe 5da0 babc
00000200: 5804 71be 1351 17bd 4621 a33d cbfc 62bd
00000210: db0a efbd 361b 0cbe 0c82 dfbd 6c03 ebbd
00000220: 2198 0abe 8961 8abd 2fc8 8e3c 641c 3c3d
00000230: 1f95 babe 864d 0cbe 06c4 a23d b312 b6bd
00000240: 2ea4 d13b 2e01 eb3b 94c9 89bc 7142 20bb
00000250: 0d22 afbb 8bee 05bc 0414 b5bb a48b 413c
00000260: e06c b03b ee48 ce3b 8eb5 89bc 2f3e 3cbb
00000270: 0555 84bb e554 f3bb 009d 68bb 9bea 233c
00000280: ce72 8b3b db10 af3b c2b9 86bc 02c4 57bb
00000290: 9cc1 4fbb 42ae e3bb 58a2 f8bb 8ed0 023c
000002a0: 88ed 103c 90df e6bb 7576 49bb 17ed 8e3a
000002b0: ac91 02ba c4a7 a1bc 799a b3bb c8c5 a63c
000002c0: 8e3f de3b 5fde efbb 234f 76bb 0c4d 69b9
000002d0: ec9c 513b 52ff 87bc 3286 54bc 2218 a53c
000002e0: e99d b93a 9647 f3bb 22c6 94bb 6cba a5ba
000002f0: aded 053c 7a56 81bc 5b73 9bbb 4977 a43c
00000300: 7e7a 9d3b 1342 0fbb b6e7 b7ba 56d5 a93a
00000310: 9e27 fabb f60d 8dba e527 f6bb deab 8e3c
00000320: bc92 df3b 8479 4bbb 7e18 caba c4ef aa3a
00000330: d267 f7bb 04f0 62ba 8ab4 01bc 96d7 8b3c
00000340: 91a0 c1bb 472d 92bb 677c dfba c451 623a
00000350: d31c 3cbb 0c75 55bb f651 d3bb 36b6 883c
00000360: 1318 1ebe cb17 43bc a1e4 1a3d 7d7c 1e3d
00000370: 3519 9e3d 96b6 2ebd c7e3 82be 83e8 3a3d
00000380: 13f2 783e b64a 1abc 103b 0d3d 8633 263d
00000390: fd5e 833d 41e4 61bb de8e 90be 75f6 3e3d
000003a0: 505b 253d bab5 873b ab49 f13c e73e aa3c
000003b0: 799c eebd f746 f13d 4716 153e 3f55 563d
000003c0: 8bf2 b73e ae9d 043c 7aeb 9a3c ab37 943d
000003d0: 74e0 a3be 52fe 313e 0880 f4bd 5863 843d
000003e0: 013d e5bd ce35 b93c bf66 883c 192c 733c
000003f0: a958 cabd f332 2f3d 5a14 dabd 3632 ae3c

model/time_distributed_8/conv2d_2/Conv2D f4 [8, 3, 3, 1]
-0.030399863 -0.03413152 0.043899793 0.060901616 -0.0717559 0.011233725 -0.03488462 0.023725098
0.028241953 0.00908494 0.0016474595 -0.0008269793 -0.00031676542 -0.0003821865 -0.004060262 -0.0013030464
0.0016051094 -0.0011238162 0.0020086549 -0.0060634897 0.007314742 0.0021180129 0.0022065858 -0.00011079708
-0.0018319557 0.0001548467 -0.0010141034 0.0026356974 -0.008064046 0.0048030056 -0.00030168582 0.005641659
0.0028982859 0.0019376767 0.00088008505 0.0016863777 -0.005322023 -0.003593406 0.0051978896 0.016918078
-0.03533322 0.0057630953 -0.005304877 -0.0069124405 -0.0014165976 -0.031895723 0.060357664 0.023335801
0.034217563 -0.099545255 0.043902565 -0.027270569 0.07294841 -0.028719766 0.025182964 -0.057104725
0.0177478 -0.007958696 0.030735405 -0.0007197632 0.010972912 0.05105888 -0.06433489 0.0019646282
-0.011217297 0.002181113 0.0069092107 -0.03058986 0.012568503 -0.0006595793 -0.0017088468 0.0018873478
00000000: 2209 f9bc 7ecd 0bbd 45d0 333d f973 793d
00000010: c2f4 92bd a80d 383c 2de3 0ebd 235b c23c
00000020: ab5b e73c 00d9 143c 91ef d73a a4c9 58ba
00000030: 8913 a6b9 3460 c8b9 f20b 85bb fbca aaba
00000040: 8962 d23a 044d 93ba a3a3 033b 3db0 c6bb
00000050: 81b0 ef3b 5cce 0a3b 5e9c 103b bb5b e8b8
00000060: 3c1e f0ba 585e 2239 aaeb 84ba aabb 2c3b
00000070: 0f1f 04bc 8862 9d3b 962b 9eb9 aadd b83b
00000080: 2bf1 3d3b a4f9 fd3a 82b5 663a 7209 dd3a
00000090: 5d64 aebb 597f 6bbb 0f53 aa3b c897 8a3c
000000a0: 91b9 10bd 59d8 bc3b 89d4 adbb c181 e2bb
000000b0: 21ad b9ba 17a5 02bd 9939 773d b92a bf3c
000000c0: b727 0c3d 62de cbbd 2dd3 333d 8766 dfbc
000000d0: fa65 953d b745 ebbc 814c ce3c a5e6 69bd
000000e0: d663 913c 3165 02bc d1c8 fb3c 7eae 3cba
000000f0: bbc7 333c 1e23 513d 03c2 83bd fec0 003b
00000100: c1c8 37bc 01f1 0e3b a966 e23b 9697 fabc
00000110: 1fec 4d3c 9ee7 2cba 62fb dfba e260 f73a

model/lstm/TensorArrayV2_1 f4 [120, 1, 32]
0.0 0.0 0.0 0.0 0.0 0.0 0.0 0.0
0.0 0.0 0.0 0.0 0.0 0.0 0.0 0.0
0.0 0.0 0.0 0.0 0.0 0.0 0.0 0.0
0.0 0.0 0.0 0.0 0.0 0.0 0.0 0.0
0.0 0.0 0.0 0.0 0.0 0.0 0.0 0.0
0.0 0.0 0.0 0.0 0.0 0.0 0.0 0.0
0.0 0.0 0.0 0.0 0.0 0.0 0.0 0.0
0.0 0.0 0.0 0.0 0.0 0.0 0.0 0.0
0.0 0.0 0.0 0.0 0.0 0.0 0.0 0.0
0.0 0.0 0.0 0.0 0.0 0.0 0.0 0.0
0.0 0.0 0.0 0.0 0.0 0.0 0.0 0.0
0.0 0.0 0.0 0.0 0.0 0.0 0.0 0.0
0.0 0.0 0.0 0.0 0.0 0.0 0.0 0.0
0.0 0.0 0.0 0.0 0.0 0.0 0.0 0.0
0.0 0.0 0.0 0.0 0.0 0.0 0.0 0.0
0.0 0.0 0.0 0.0 0.0 0.0 0.0 0.0
0.0 0.0 0.0 0.0 0.0 0.0 0.0 0.0
0.0 0.0 0.0 0.0 0.0 0.0 0.0 0.0
0.0 0.0 0.0 0.0 0.0 0.0 0.0 0.0
0.0 0.0 0.0 0.0 0.0 0.0 0.0 0.0
0.0 0.0 0.0 0.0 0.0 0.0 0.0 0.0
0.0 0.0 0.0 0.0 0.0 0.0 0.0 0.0
0.0 0.0 0.0 0.0 0.0 0.0 0.0 0.0
0.0 0.0 0.0 0.0 0.0 0.0 0.0 0.0
0.0 0.0 0.0 0.0 0.0 0.0 0.0 0.0
0.0 0.0 0.0 0.0 0.0 0.0 0.0 0.0
0.0 0.0 0.0 0.0 0.0 0.0 0.0 0.0
0.0 0.0 0.0 0.0 0.0 0.0 0.0 0.0
0.0 0.0 0.0 0.0 0.0 0.0 0.0 0.0
0.0 0.0 0.0 0.0 0.0 0.0 0.0 0.0
0.0 0.0 0.0 0.0 0.0 0.0 0.0 0.0
0.0 0.0 0.0 0.0 0.0 0.0 0.0 0.0
00000000: 0000 0000 0000 0000 0000 0000 0000 0000
00000010: 0000 0000 0000 0000 0000 0000 0000 0000
00000020: 0000 0000 0000 0000 0000 0000 0000 0000
00000030: 0000 0000 0000 0000 0000 0000 0000 0000
00000040: 0000 0000 0000 0000 0000 0000 0000 0000
00000050: 0000 0000 0000 0000 0000 0000 0000 0000
00000060: 0000 0000 0000 0000 0000 0000 0000 0000
00000070: 0000 0000 0000 0000 0000 0000 0000 0000
00000080: 0000 0000 0000 0000 0000 0000 0000 0000
00000090: 0000 0000 0000 0000 0000 0000 0000 0000
000000a0: 0000 0000 0000 0000 0000 0000 0000 0000
000000b0: 0000 0000 0000 0000 0000 0000 0000 0000
000000c0: 0000 0000 0000 0000 0000 0000 0000 0000
000000d0: 0000 0000 0000 0000 0000 0000 0000 0000
000000e0: 0000 0000 0000 0000 0000 0000 0000 0000
000000f0: 0000 0000 0000 0000 0000 0000 0000 0000
00000100: 0000 0000 0000 0000 0000 0000 0000 0000
00000110: 0000 0000 0000 0000 0000 0000 0000 0000
00000120: 0000 0000 0000 0000 0000 0000 0000 0000
00000130: 0000 0000 0000 0000 0000 0000 0000 0000
00000140: 0000 0000 0000 0000 0000 0000 0000 0000
00000150: 0000 0000 0000 0000 0000 0000 0000 0000
00000160: 0000 0000 0000 0000 0000 0000 0000 0000
00000170: 0000 0000 0000 0000 0000 0000 0000 0000
00000180: 0000 0000 0000 0000 0000 0000 0000 0000
00000190: 0000 0000 0000 0000 0000 0000 0000 0000
000001a0: 0000 0000 0000 0000 0000 0000 0000 0000
000001b0: 0000 0000 0000 0000 0000 0000 0000 0000
000001c0: 0000 0000 0000 0000 0000 0000 0000 0000
000001d0: 0000 0000 0000 0000 0000 0000 0000 0000
000001e0: 0000 0000 0000 0000 0000 0000 0000 0000
000001f0: 0000 0000 0000 0000 0000 0000 0000 0000
00000200: 0000 0000 0000 0000 0000 0000 0000 0000
00000210: 0000 0000 0000 0000 0000 0000 0000 0000
00000220: 0000 0000 0000 0000 0000 0000 0000 0000
00000230: 0000 0000 0000 0000 0000 0000 0000 0000
00000240: 0000 0000 0000 0000 0000 0000 0000 0000
00000250: 0000 0000 0000 0000 0000 0000 0000 0000
00000260: 0000 0000 0000 0000 0000 0000 0000 0000
00000270: 0000 0000 0000 0000 0000 0000 0000 0000
00000280: 0000 0000 0000 0000 0000 0000 0000 0000
00000290: 0000 0000 0000 0000 0000 0000 0000 0000
000002a0: 0000 0000 0000 0000 0000 0000 0000 0000
000002b0: 0000 0000 0000 0000 0000 0000 0000 0000
000002c0: 0000 0000 0000 0000 0000 0000 0000 0000
000002d0: 0000 0000 0000 0000 0000 0000 0000 0000
000002e0: 0000 0000 0000 0000 0000 0000 0000 0000
000002f0: 0000 0000 0000 0000 0000 0000 0000 0000
00000300: 0000 0000 0000 0000 0000 0000 0000 0000
00000310: 0000 0000 0000 0000 0000 0000 0000 0000
00000320: 0000 0000 0000 0000 0000 0000 0000 0000
00000330: 0000 0000 0000 0000 0000 0000 0000 0000
00000340: 0000 0000 0000 0000 0000 0000 0000 0000
00000350: 0000 0000 0000 0000 0000 0000 0000 0000
00000360: 0000 0000 0000 0000 0000 0000 0000 0000
00000370: 0000 0000 0000 0000 0000 0000 0000 0000
00000380: 0000 0000 0000 0000 0000 0000 0000 0000
00000390: 0000 0000 0000 0000 0000 0000 0000 0000
000003a0: 0000 0000 0000 0000 0000 0000 0000 0000
000003b0: 0000 0000 0000 0000 0000 0000 0000 0000
000003c0: 0000 0000 0000 0000 0000 0000 0000 0000
000003d0: 0000 0000 0000 0000 0000 0000 0000 0000
000003e0: 0000 0000 0000 0000 0000 0000 0000 0000
000003f0: 0000 0000 0000 0000 0000 0000 0000 0000

model/dense/BiasAdd/ReadVariableOp/resource f4 [256]
-0.009294332 0.009603325 -0.0037204337 0.015534571 -0.08067246 -0.019207308 -0.06514637 -0.013322942
0.012178218 -0.090353884 -0.005028418 0.0119236 0.013479283 -0.06435861 0.019108504 -0.038292065
-0.037315097 0.022408681 -0.024114175 0.058661498 -0.0052725356 0.038364153 -0.011276286 0.028148593
0.09385694 0.037663493 -0.08906927 -0.03733469 0.03729107 0.07124132 -0.07839502 0.0422834
-0.06311543 -0.029458359 -0.034175076 -0.007306773 0.030565256 -0.054745566 -0.20697619 0.00030955847
-0.054594226 -0.012365834 -0.09764594 0.07053314 -0.063912995 0.07176155 0.08856347 -0.033752345
0.12921658 0.0024996446 0.0022840288 0.077608675 -0.014658396 -0.047745537 -0.021233909 0.013027172
-0.02413913 -0.03138204 0.01890507 -0.024346147 0.041696172 0.06620277 -0.07624871 0.027728843
0.009019761 0.005973672 0.097354375 0.0050015817 0.07016823 0.030286606 -0.017625894 -0.053545207
0.054256327 0.006390187 -0.0031232855 -0.009889665 -0.055239394 -0.09664914 0.025961146 0.068007775
-0.017845094 0.023745846 -0.0041446364 0.012985778 0.036195897 -0.057356514 -0.05180144 0.051022727
0.016720634 -0.03833826 -0.045231584 -0.028514428 -0.02288256 0.04059074 0.04666134 -0.108615205
-0.0045637884 0.045179937 -0.011872254 0.085309334 -0.081360444 0.06705893 -0.036985584 -0.12983583
-0.036649935 -0.018358098 -0.0013568187 0.056499325 0.004904036 -0.029162688 0.026687533 0.041892596
0.06281138 0.04567447 -0.007434392 -0.07359147 0.05494601 0.036892664 -0.026387561 -0.0834066
0.03735102 -0.082582295 -0.048854414 -0.05307589 0.028198462 0.05897992 0.0077455533 0.026066974
0.009091219 -0.0077143805 -0.07425814 0.07208138 0.00937547 -0.08252603 0.03273197 0.068404086
-0.040377136 0.115363136 0.02003045 0.12950234 -0.07592063 0.0065187085 -0.0104690045 -0.033844654
-0.042237576 0.038764134 0.022558374 0.041010633 0.03868444 0.007635169 -0.047470957 0.08268407
-0.02759538 -0.09004583 -0.014603153 -0.024444954 -0.034366205 -0.006540175 0.010970179 0.042205896
-0.088405855 -0.123389155 -0.12140832 -0.01961904 -0.015585358 -0.05884705 0.024019007 -0.01609074
0.037312903 0.01615642 -0.020182252 -0.010395453 0.017030949 0.08850405 0.012945337 0.0113617545
-0.017635435 -0.04718438 -0.055010755 0.0045247013 0.0060796547 0.019356746 0.060184337 0.06871216
0.08258518 -0.015333993 0.08986015 -0.029106056 0.11547644 -0.0023105491 0.05571348 -0.004234351
-0.072762676 -0.012799456 -0.05057107 0.061338454 -0.07378729 0.048056927 0.024733158 -0.0057797185
0.04258172 -0.035862267 -0.024825886 -0.05837894 -0.100759596 -0.00464246 0.1050687 -0.10143553
0.003824682 -0.02572787 -0.012491692 -0.0009700145 -0.007655301 0.0024104496 -0.06406113 0.034814365
-0.067560114 0.050028414 -0.0027583158 0.018962521 -0.024106376 -0.04281305 0.031714518 -0.19058703
0.08383861 -0.0038185911 0.06485238 0.051016226 -0.05241511 -0.0130921975 0.052324057 0.034450922
0.091467835 -0.038044076 -0.0787363 -0.011579924 0.009850057 -0.022975182 -0.059289016 -0.028091589
0.073991664 0.07889386 -0.036335755 -0.007251069 -0.074458644 0.044468135 -0.023085933 0.039174348
-0.030549135 0.029210096 -0.06554634 -0.030661378 0.057326667 0.058389794 0.051896006 -0.085885786
00000000: 4147 18bc 4457 1d3c 85d2 73bb b784 7e3c
00000010: 9a37 a5bd a558 9dbc 766b 85bd 7848 5abc
00000020: 2687 473c 750b b9bd 6dc5 a4bb 345b 433c
00000030: 36d8 5c3c 72ce 83bd 7089 9c3c 24d8 1cbd
00000040: b7d7 18bd 6992 b73c 178b c5bc 0a47 703d
00000050: 3cc5 acbb bb23 1d3d 2cc0 38bc e197 e63c
00000060: 1138 c03d 0945 1a3d f369 b6bd 43ec 18bd
00000070: 85be 183d f8e6 913d 918d a0bd 5c31 2d3d
00000080: aa42 81bd a852 f1bc 2afb 0bbd a86d efbb
00000090: fd63 fa3c e33c 60bd 91f1 53be 3c4c a239
000000a0: 329e 5fbd 119a 4abc 98fa c7bd ae73 903d
000000b0: d1e4 82bd b8f7 923d c460 b53d e63f 0abd
000000c0: 5a51 043e 14d1 233b a5af 153b 4cf1 9e3d
000000d0: c529 70bc d390 43bd bcf2 adbc eb6f 553c
000000e0: 6dbf c5bc 748a 00bd cede 9a3c 9271 c7bc
000000f0: 9bc9 2a3d 5195 873d 4928 9cbd 9927 e33c
00000100: 9fc7 133c cbbe c33b bb61 c73d 4fe4 a33b
00000110: 5cb4 8f3d 9e1b f83c 2e64 90bc 3852 5bbd
00000120: e23b 5e3d c664 d13b 09b0 4cbb 4308 22bc
00000130: b442 62bd fcef c5bd 78ac d43c a947 8b3d
00000140: e02f 92bc a686 c23c bbcf 87bb 4dc2 543c
00000150: 2642 143d aaee 6abd bf2d 54bd 35fd 503d
00000160: b6f9 883c 9408 1dbd c144 39bd 1797 e9bc
00000170: 3574 bbbc 7a42 263d f61f 3f3d a671 debd
00000180: d58b 95bb 990e 393d d883 42bc a9b6 ae3d
00000190: 4ea0 a6bd 3156 893d 327e 17bd aff3 04be
000001a0: 3e1e 16bd b963 96bc 48d7 b1ba d66b 673d
000001b0: 09b2 a03b 97e6 eebc d09f da3c 9297 2b3d
000001c0: 41a3 803d 2715 3b3d 339c f3bb 20b7 96bd
000001d0: 110f 613d c31c 173d ba2a d8bc 14d1 aabd
000001e0: 62fd 183d e820 a9bd 911b 48bd 1b66 59bd
000001f0: 7600 e73c ee94 713d 69ce fd3b 688a d53c
00000200: 56f3 143c eac8 fcbb a714 98bd 679f 933d
00000210: 929b 193c 6803 a9bd f511 063d 7117 8c3d
00000220: 7f62 25bd 8243 ec3d e616 a43c 439c 043e
00000230: 467c 9bbd e49a d53b 3086 2bbc b1a0 0abd
00000240: 4f01 2dbd 24c7 1e3d 57cc b83c c4fa 273d
00000250: 9373 1e3d 7130 fa3b e870 42bd 4456 a93d
00000260: b50f e2bc f369 b8bd 1042 6fbc c940 c8bc
00000270: 94c3 0cbd f74e d6bb 44bc 333c 17e0 2c3d
00000280: 210e b5bd 74b3 fcbd eda4 f8bd 1cb8 a0bc
00000290: bb59 7fbc 9b09 71bd 82c3 c43c bad0 83bc
000002a0: 6ad5 183d 785a 843c 4055 a5bc b151 2abc
000002b0: 7d84 8b3c 9d41 b53d ae18 543c a726 3a3c
000002c0: 3078 90bc 6944 41bd f552 61bd f243 943b
000002d0: d737 c73b 0a92 9e3c da83 763d f6b8 8c3d
000002e0: 6b22 a93d 6e3b 7bbc 9908 b83d d36f eebc
000002f0: e97e ec3d 956c 17bb d133 643d 50c0 8abb
00000300: 9904 95bd cfb4 51bc 9c23 4fbd 083e 7b3d
00000310: ca1d 97bd 57d7 443d 319d ca3c cb63 bdbb
00000320: 2b6a 2e3d 50e4 12bd a85f cbbc c11e 6fbd
00000330: 0c5b cebd c71f 98bb 422e d73d 6ebd cfbd
00000340: 84a7 7a3b 41c3 d2bc f4a9 4cbc 9248 7eba
00000350: 52d9 fabb a2f8 1d3b 7b32 83bd 8299 0e3d
00000360: f55c 8abd 98ea 4c3d dcc4 34bb 4a57 9b3c
00000370: bc7a c5bc bd5c 2fbd 15e7 013d 3f29 43be
00000380: 94b3 ab3d 5441 7abb 53d1 843d 64f6 503d
00000390: 3ab1 56bd a880 56bc c051 563d 691c 0d3d
000003a0: 7d53 bb3d 1bd4 1bbd 7f40 a1bd b9b9 3dbc
000003b0: 2262 213c 7336 bcbc 0ad9 72bd 5520 e6bc
000003c0: f188 973d 1b93 a13d cdd4 14bd 609a edbb
000003d0: c67d 98bd 3824 363d b61e bdbc 4875 203d
000003e0: 2e42 fabc 034a ef3c 293d 86bd 922d fbbc
000003f0: 5ecf 6a3d 232a 6f3d e890 543d e3e4 afbd

model/last_layer/BiasAdd/ReadVariableOp/resource f4 [31]
-0.023305506 -0.024890078 -0.008879457 -0.019751593 -0.0053131757 -0.026222952 0.017640427 0.055085693
-0.06756076 0.031371184 0.07228218 -0.0066593927 -0.04719061 -0.048882343 0.0008081024 -0.005757642
-0.025121775 -0.015387448 0.03426331 0.0030272636 -0.045205127 0.04045984 -0.08126713 0.040981166
-0.0045683575 0.020139756 -0.013516175 0.00686313 0.050344076 -0.02011198 -0.07448466
00000000: 30eb bebc 47e6 cbbc 247b 11bc 18ce a1bc
00000010: 261a aebb 84d1 d6bc a882 903c 89a1 613d
00000020: 4c5d 8abd 127f 003d ae08 943d 0937 dabb
00000030: f14a 41bd da38 48bd d6d6 533a 9aaa bcbb
00000040: 2ecc cdbc a21b 7cbc af57 0c3d 0e65 463b
00000050: 0329 39bd 38b9 253d 626f a6bd dedb 273d
00000060: 29b2 95bb 21fc a43c f272 5dbc 1be4 e03b
00000070: 9735 4e3d e1c1 a4bc 6a8b 98bd

model/dense/MatMul f4 [256, 32]
0.0032848965 0.05058213 0.23001507 -0.08507818 0.05706444 -0.0524849 0.13027386 0.083067656
-0.13744462 -0.011264976 -0.14627533 0.07213145 -0.26110145 0.048846986 -0.16752198 0.020574551
-0.17659312 0.013055435 0.0590803 -0.055276852 0.069944516 0.074746355 -0.0028489358 0.10098565
-0.099753425 0.029655367 0.033326026 -0.082631834 0.13247526 -0.11080616 0.014549688 0.056456424
0.09660388 -0.0011787888 -0.16836855 0.052892633 0.030507687 0.038835827 -0.08113428 -0.102240145
0.014925764 0.081133984 -0.034944035 -0.03207146 0.41115767 -0.107879095 -0.02509412 -0.05231393
0.13063231 0.041946575 0.048323557 0.059945058 -0.06314712 -0.14237109 -0.075917244 -0.097872734
-0.027799824 -0.01605489 0.030362241 -0.10821221 -0.07427026 0.00316309 0.08231449 -0.015347615
0.070866585 -0.13226855 -0.06992897 -0.08579924 -0.061323814 0.1018607 -0.10864394 0.11305993
0.06021762 0.06645108 0.046000782 0.023540812 0.16170765 -0.01582531 0.07449994 -0.030451547
-0.03671965 0.077580325 0.023849932 -0.04467224 -0.052333873 0.09252698 -0.015257333 -0.041358564
0.10852237 -0.0037028468 0.040800195 -0.021749638 -0.2054247 0.24633981 0.019559989 0.055371813
0.062130734 -0.09598842 0.011482916 0.08972819 -0.04315983 0.22945897 -0.17489192 0.040599626
0.037043847 0.0459834 -0.037619594 -0.03738315 0.118435316 -0.10378623 -0.10015945 0.030405002
-0.087792784 0.03465359 -0.15023848 0.11174298 -0.019155238 0.23796587 -0.015156831 -0.07195586
0.19628337 -0.13158333 -0.04132173 0.0025277704 -0.036500163 -0.03407782 0.18164027 -0.07405931
-0.0028289903 0.012331013 -0.24857715 0.18784739 0.0067541176 -0.008642081 -0.15948378 0.091564745
-0.065474324 0.011026269 0.06166397 -0.21012409 0.13817275 -0.093661234 0.028879946 0.08938534
0.03950942 -0.026859313 0.004192477 0.08142146 0.015137828 -0.04961211 -0.06798943 -0.044665102
-0.0014638464 -0.08622589 -0.0037218372 0.037510093 -0.053184133 0.076682195 -0.019244118 -0.38796318
0.041083638 0.049325485 0.036178984 0.050620325 -0.0887796 0.0076812636 -0.009084523 -0.00816354
-0.041177906 -0.048794143 0.16742434 0.103358336 0.018550027 -0.068004616 -0.1329815 -0.007960387
0.006063639 -0.09979067 0.09114389 0.058134675 -0.10251282 -0.02153425 0.02425572 -0.2769252
0.00418275 0.057611197 -0.37232897 -0.062031884 0.0032491444 -0.076021135 0.033099934 -0.10967344
-0.1090031 0.10278122 -0.06167354 0.046599075 -0.06954696 0.04461295 0.06021771 -0.12634133
0.09720603 -0.0047481945 0.14265607 0.0727672 0.033246275 -0.16629134 0.03885046 0.020503879
-0.080700606 0.08463348 0.09708207 0.09116155 -0.05252227 -0.0060429145 0.1419838 0.066043794
0.091789715 0.043924887 -0.119362526 0.093949415 0.17323469 -0.039925396 0.086395286 -0.013802592
-0.0335941 -0.096207224 0.0979903 -0.022864804 -0.054607805 0.0026334524 -0.012171612 0.01046624
-0.022440312 -0.38185045 0.046044488 -0.021821154 -0.0024508697 0.02488798 0.1865911 0.020394439
-0.09114943 -0.037163783 -0.12940688 -0.17234817 -0.09221927 0.115719765 0.059432026 0.093556866
-0.05528289 -0.02011787 -0.07838658 -0.09166313 0.11968732 -0.002948808 0.09031245 -0.09058826
00000000: 6b47 573b 352f 4f3d 1289 6b3e 783d aebd
00000010: 67bc 693d 68fa 56bd 8366 053e 601f aa3d
00000020: 48be 0cbe bc90 38bc 33c9 15be a7b9 933d
00000030: 17af 85be c713 483d e28a 2bbe f68b a83c
00000040: d4d4 34be 77e6 553c 2ffe 713d fb69 62bd
00000050: 123f 8f3d 9e14 993d 36b5 3abb 91d1 ce3d
00000060: 864b ccbd d0ef f23c df80 083d e13a a9bd
00000070: 98a7 073e 57ee e2bd d161 6e3c da3e 673d
00000080: 41d8 c53d 9781 9aba ce68 2cbe f2a5 583d
00000090: 42eb f93c 5112 1f3d bb29 a6bd 4863 d1bd
000000a0: 318b 743c 9329 a63d 7a21 0fbd 5d5d 03bd
000000b0: 4283 d23e b7ef dcbd 2f92 cdbc 2247 56bd
000000c0: 7ac4 053e 2cd0 2b3d ecee 453d f388 753d
000000d0: 4753 81bd bac9 11be 807a 9bbd 8071 c8bd
000000e0: 75bc e3bc 8b85 83bc 3cba f83c 5d9e ddbd
000000f0: 021b 98bd d84b 4f3b 8094 a83d 9074 7bbc
00000100: 8022 913d 6871 07be eb36 8fbd 83b7 afbd
00000110: ae2e 7bbd 589c d03d b780 debd f78b e73d
00000120: c0a6 763d 8117 883d 516b 3c3d a9d8 c03c
00000130: b196 253e 15a4 81bc 6d93 983d 8675 f9bc
00000140: 5867 16bd 6fe2 9e3d ef60 c33c 3dfa 36bd
00000150: 0b5c 56bd c97e bd3d e5f9 79bc 9967 29bd
00000160: fa40 de3d 76ab 72bb 1b1e 273d 4c2c b2bc
00000170: da5a 52be 8140 7c3e 453c a03c 8ecd 623d
00000180: cc7c 7e3d 9495 c4bd d722 3c3c 6ac3 b73d
00000190: 5dc8 30bd 4bf7 6a3e de16 33be cb4b 263d
000001a0: 4abb 173d 1759 3c3d 0117 1abd 131f 19bd
000001b0: 378e f23d e08d d4bd 6620 cdbd e913 f93c
000001c0: b4cc b3bd ecf0 0d3d 1ed8 19be 81d9 e43d
000001d0: 72eb 9cbc 53ad 733e 5b54 78bc 985d 93bd
000001e0: 82fe 483e c8bd 06be f940 29bd f3a8 253b
000001f0: 3281 15bd 2f95 0bbd e8ff 393e 68ac 97bd
00000200: 9566 39bb 0408 4a3c 028b 7ebe 115b 403e
00000210: a551 dd3b 8497 0dbc b74f 23be 4c86 bb3d
00000220: 6717 86bd 86a7 343c 5c93 7c3d c52a 57be
00000230: 287d 0d3e 76d1 bfbd a395 ec3c a90f b73d
00000240: a1d4 213d 1008 dcbc 0c61 893b 4bc0 a63d
00000250: a704 783c 1136 4bbd 0b3e 8bbd c1f2 36bd
00000260: 89de bfba 3397 b0bd 11ea 73bb 2fa4 193d
00000270: 9bd7 59bd 8e0b 9d3d d7a5 9dbc 1ca3 c6be
00000280: 5147 283d 8509 4a3d 6a30 143d 4257 4f3d
00000290: 14d2 b5bd 1cb3 fb3b 40d7 14bc 5ec0 05bc
000002a0: 2aaa 28bd 5edc 47bd 4971 2b3e 89ad d33d
000002b0: 3af6 973c 0146 8bbd 4d2c 08be 486c 02bc
000002c0: 7eb1 c63b 0d5f ccbd a6a9 ba3d a01e 6e3d
000002d0: 3ef2 d1bd 9868 b0bc efb3 c63c 24c9 8dbe
000002e0: 730f 893b b8f9 6b3d e7a1 bebe 2515 7ebd
000002f0: 99ef 543b f8b0 9bbd cc93 073d 789c e0bd
00000300: 043d dfbd f67e d23d 659d 7cbd acde 3e3d
00000310: a36e 8ebd 12bc 363d d8a6 763d 9f5f 01be
00000320: f413 c73d be96 9bbb 6f14 123e f806 953d
00000330: 3f2d 083d 4748 2abe a921 1f3d c0f7 a73c
00000340: 5c46 a5bd 5154 ad3d f7d2 c63d e8b2 ba3d
00000350: 9721 57bd a403 c6bb 3464 113e f841 873d
00000360: 3ffc bb3d 95ea 333d 5774 f4bd 8d68 c03d
00000370: 6f64 313e d088 23bd 03f0 b03d 4424 62bc
00000380: f899 09bd 4b08 c5bd 23af c83d f84e bbbc
00000390: 6fac 5fbd 0096 2c3b 716b 47bc 987a 2b3c
000003a0: bfd4 b7bc e781 c3be 2599 3c3d 47c2 b2bc
000003b0: c59e 20bb e1e1 cb3c bd11 3f3e 3d12 a73c
000003c0: 8dac babd 0d39 18bd 3d83 04be 0a7c 30be
000003d0: 75dd bcbd 7cfe ec3d ff6e 733d be9a bf3d
000003e0: 5070 62bd 3bce a4bc 2589 a0bd e1b9 bbbd
000003f0: a01e f53d ca40 41bb bcf5 b83d 5686 b9bd

model/last_layer/MatMul f4 [31, 256]
-0.08284358 0.05857314 0.10054593 0.083196945 0.06927836 -0.06546934 0.0051035276 -0.061489783
0.11152243 0.034659807 -0.049965315 -0.018276885 0.02328988 0.067850225 -0.059441656 -0.020794015
0.049742892 -0.060943782 -0.009303435 0.058747876 0.07322589 -0.096501485 0.03588405 -0.0043373494
0.030633226 -0.1136943 0.053179044 0.053017 -0.03733723 -0.013529579 -0.005929964 -0.0221059
0.038482357 0.06777684 0.06470342 0.07049215 -0.07064225 0.041970592 0.07087292 0.0029600132
0.016054647 -0.041870534 0.028580433 0.059417408 0.05799695 -0.0471047 -0.09384463 0.02692054
-0.025881428 0.044774633 -0.07056711 -0.046654627 -0.020325083 0.030088546 -0.0358604 -0.08469333
-0.06593647 0.03455056 0.005153062 -0.062686145 -0.01860484 -0.014083264 0.09695746 -0.056332793
-0.052168105 0.06465405 0.046551473 0.007830791 -0.058014497 0.043657087 -0.026291607 -0.115441695
-0.058625445 0.003211769 -0.032167327 0.023846434 0.058990847 0.0067005293 0.019466039 0.008858712
-0.038057342 0.054813985 -0.0118596675 0.01934309 0.02396493 0.0060296464 -0.0044725956 -0.054502256
0.058717687 -0.0688411 -0.08109203 -0.04742905 -0.060027473 -0.05157359 0.08419875 0.07313573
-0.036441952 -0.03896579 0.047154646 -0.074164405 0.03350088 -0.098180555 -0.08954159 0.0856034
0.034296412 0.06105566 0.106147595 -0.015037394 -0.08326506 0.05069112 -0.01736514 0.00020430102
-0.068852566 0.051044516 0.07861409 0.080240205 -0.029017692 -0.121605694 0.032935604 0.045412786
-0.075707726 -0.053889535 0.06221024 0.0060930876 0.10344619 -0.09085692 -0.03818394 0.06730702
0.04498914 0.0434795 -0.011402661 -0.004445695 0.026172243 -0.055776477 0.07944939 -0.05231713
-0.0566684 0.045911204 0.041083317 -0.047042515 -0.0047393152 0.019838167 0.046008322 -0.06415534
0.11211384 -0.017120432 0.035678227 0.0040523633 0.020393202 0.003823555 -0.001415652 -0.06693822
0.065566055 0.02413995 -0.043762937 0.020529168 -0.03844913 0.026831014 0.08543793 0.027074212
0.053332247 -0.026179064 0.116867706 0.08556824 -0.017739154 -0.051423844 -0.09359017 0.015337126
-0.04026873 0.023983072 -0.09589055 -0.02137212 0.025212992 0.04775013 -0.07836877 0.022838982
0.022372426 0.029762719 0.036389254 -0.033220626 -0.012925427 0.008631825 0.050647102 -0.032233004
0.03239048 0.09447467 -0.118903756 -0.025154022 -0.03514545 -0.07393205 -0.059234485 0.10542084
0.1152087 0.051693756 -0.058387384 0.003855225 0.07205786 -0.080920145 -0.04555584 -0.033631112
-0.037851818 -0.07993578 0.05817503 0.11150772 0.05490424 -0.014471299 -0.085215434 0.06478389
-0.033891708 0.079358265 0.009370903 0.053768303 -0.023290709 -0.10554216 0.00569593 0.01748805
0.021076879 -0.10198343 0.10580447 -0.054915175 -0.06977466 -0.0056042066 0.09398775 0.062549986
0.032563478 0.08074377 -0.07992895 -0.07813092 0.00091980613 0.11218791 -0.06859922 -0.07166817
0.046062946 0.04215614 0.10300939 0.09391074 -0.06346073 -0.08069238 0.076293126 -0.017435096
-0.04215209 -0.12219133 0.072057396 0.010741899 0.028746942 0.027098835 -0.0036513386 0.066052206
-0.016616236 -0.095313825 0.07944632 0.052389927 -0.0745725 0.06820527 8.861993e-05 -0.027235223
00000000: e5a9 a9bd 64ea 6f3d 06eb cd3d 2963 aa3d
00000010: d0e1 8d3d ca14 86bd 7e3b a73b b6dc 7bbd
00000020: df65 e43d 71f7 0d3d 6ea8 4cbd 68b9 95bc
00000030: 6bca be3c 0ff5 8a3d 1879 73bd 3658 aabc
00000040: 34bf 4b3d 30a0 79bd 6f6d 18bc 9da1 703d
00000050: 75f7 953d 92a2 c5bd 27fb 123d 5320 8ebb
00000060: 88f2 fa3c 8fd8 e8bd 45d2 593d 5b28 593d
00000070: ecee 18bd 2bab 5dbc 2550 c2bb 6f17 b5bc
00000080: ad9f 1d3d 95ce 8a3d 3a83 843d 305e 903d
00000090: e2ac 90bd 5be9 2b3d d225 913d c8fc 413b
000000a0: 0985 833c 7080 2bbd 8321 ea3c ab5f 733d
000000b0: 368e 6d3d dcf0 40bd 9d31 c0bd 7788 dc3c
000000c0: 4a05 d4bc 9b65 373d 7d85 90bd ec18 3fbd
000000d0: ca80 a6bc 417c f63c 5be2 12bd b273 adbd
000000e0: b309 87bd e384 0d3d 04db a83b 9861 80bd
000000f0: 2d69 98bc 7ebd 66bc a291 c63d 37bd 66bd
00000100: 39ae 55bd 5869 843d c2ac 3e3d b84c 003c
00000110: 9ca0 6dbd c6d1 323d 7f61 d7bc b26c ecbd
00000120: 3c21 70bd 8b7c 523b e3c1 03bd 9959 c33c
00000130: 63a0 713d 1d90 db3b 3e77 9f3c 2224 113c
00000140: 04e2 1bbd a184 603d 0d4f 42bc 6675 9e3c
00000150: 1a52 c43c 5794 c53b da8e 92bb c23d 5fbd
00000160: f581 703d 90fc 8cbd 9413 a6bd f744 42bd
00000170: 5edf 75bd d43e 53bd 6570 ac3d 30c8 953d
00000180: 2844 15bd 989a 1fbd 3b25 413d 82e3 97bd
00000190: 3838 093d e312 c9bd 9561 b7bd d650 af3d
000001a0: 657a 0c3d 8015 7a3d e963 d93d 675f 76bc
000001b0: df86 aabd 7ea1 4f3d 5741 8ebc a339 5639
000001c0: 9302 8dbd 0e14 513d 6d00 a13d fa54 a43d
000001d0: 83b6 edbc 680c f9bd 7ce7 063d c202 3a3d
000001e0: a70c 9bbd 46bb 5cbd 2ad0 7e3d 86a8 c73b
000001f0: 99db d33d 3113 babd c366 1cbd 43d8 893d
00000200: 8846 383d 8f17 323d 3ad2 3abc 31ad 91bb
00000210: 2c67 d63c e075 64bd 5db6 a23d 7d4a 56bd
00000220: 201d 68bd 630d 3c3d fb46 283d a7af 40bd
00000230: 424c 9bbb a783 a23c 3973 3c3d e063 83bd
00000240: f19b e53d 2640 8cbc 5523 123d b0c9 843b
00000250: a50f a73c 9c94 7a3b 668d b9ba e816 89bd
00000260: 7f47 863d 25c1 c53c c440 33bd c92c a83c
00000270: d67c 1dbd b7cc db3c 15fa ae3d bdca dd3c
00000280: ea72 5a3d 7a75 d6bc 5658 ef3d 673e af3d
00000290: b451 91bc cfa1 52bd 34ac bfbd 9248 7b3c
000002a0: d3f0 24bd 2678 c43c 4462 c4bd 9614 afbc
000002b0: 7a8b ce3c a495 433d ce7f a0bd d118 bb3c
000002c0: 6146 b73c f2d0 f33c e60c 153d 5a12 08bd
000002d0: 2cc5 53bc 806c 0d3c 5673 4f3d c106 04bd
000002e0: e1ab 043d f07b c13d d083 f3bd cf0f cebc
000002f0: adf4 0fbd b069 97bd dc9f 72bd e2e6 d73d
00000300: 8af2 eb3d d5bc 533d 9c27 6fbd f1a7 7c3b
00000310: 1293 933d 76b9 a5bd c398 3abd c7c0 09bd
00000320: 820a 1bbd 5fb5 a3bd f148 6e3d 295e e43d
00000330: 45e3 603d 0719 6dbc 6e85 aebd 6bad 843d
00000340: 08d2 0abd 9686 a23d 6a88 193c 273c 5c3d
00000350: 28cc bebc 7d26 d8bd eda4 ba3b 1943 8f3c
00000360: 6ba9 ac3c b0dc d0bd 04b0 d83d bcee 60bd
00000370: 04e6 8ebd 7ea3 b7bb a67c c03d 351a 803d
00000380: 4861 053d fd5c a53d cab1 a3bd 1b03 a0bd
00000390: 251f 713a c6c2 e53d bf7d 8cbd c3c6 92bd
000003a0: 80ac 3c3d ebab 2c3d 96f6 d23d 4654 c03d
000003b0: b3f7 81bd 0c42 a5bd 923f 9c3d 0cd4 8ebc
000003c0: aca7 2cbd 733f fabd d492 933d cafe 2f3c
000003d0: b57e eb3c 60fe dd3c 4c4b 6fbb 6146 873d
000003e0: c61e 88bc e533 c3bd c1b4 a23d d296 563d
000003f0: 78b9 98bd 34af 8b3d 76d9 b938 671c dfbc

model/time_distributed_10/batch_normalization_2/FusedBatchNormV3 f4 [8]
-0.0056319535 0.0058518113 0.002146287 -0.004400542 0.012670089 -0.033559166 -0.013572995 0.0018758485
00000000: 408c b8bb 8dc0 bf3b b8a8 0c3b 6c32 90bb
00000010: 3496 4f3c 5675 09bd 4461 5ebc 08df f53a

model/time_distributed_10/batch_normalization_2/FusedBatchNormV31 f4 [8]
0.13904469 0.043962933 -0.043331224 0.056634776 0.10145177 0.214045 0.22787227 0.069724314
00000000: bb61 0e3e 7a12 343d 157c 31bd def9 673d
00000010: f2c5 cf3d 9d2e 5b3e 5957 693e 9fcb 8e3d

model/time_distributed_13/batch_normalization_3/FusedBatchNormV3 f4 [16]
-0.048612952 -0.1043714 -0.00022235088 -0.11253726 -0.054938085 -0.002103102 -0.06758627 -0.16555469
-0.03400038 0.00044193052 -0.037603926 -0.019225419 -0.06397517 -0.0006917684 0.003319826 0.021279618
00000000: 601e 47bd acc0 d5bd dc26 69b9 ef79 e6bd
00000010: c206 61bd 32d4 09bb ac6a 8abd 2b87 29be
00000020: fc43 0bbd e9b2 e739 9306 1abd a07e 9dbc
00000030: 6a05 83bd cb57 35ba 7091 593b 9852 ae3c

model/time_distributed_13/batch_normalization_3/FusedBatchNormV31 f4 [16]
2.3279388 3.480779 0.048666757 1.4141744 2.1693354 0.14244251 2.2718067 1.7577971
4.661332 0.1320059 1.4221226 2.159694 3.3653212 -0.13844992 3.8299327 3.7407444
00000000: f3fc 1440 15c5 5e40 cb56 473d ab03 b53f
00000010: 64d6 0a40 73dc 113e 4865 1140 7fff e03f
00000020: a229 9540 8e2c 073e 1d08 b63f 6d38 0a40
00000030: 6c61 5740 d1c5 0dbe 9e1d 7540 5b68 6f40

model/time_distributed_2/batch_normalization/FusedBatchNormV3 f4 [8]
-0.0071110786 -0.022709206 0.001979633 -0.029004764 -0.08437741 0.007985338 -0.110130504 -0.02251631
00000000: 0d04 e9bb a808 babc bbbc 013b 669b edbc
00000010: 10ce acbd efd4 023c 1a8c e1bd 2074 b8bc

model/time_distributed_2/batch_normalization/FusedBatchNormV31 f4 [8]
0.0066756457 0.027542513 0.0111376215 0.035436317 0.10324449 -0.00024734973 0.08695457 0.016977256
00000000: 60bf da3b d6a0 e13c 927a 363c ac25 113d
00000010: d971 d33d b8ae 81b9 3d15 b23d e313 8b3c

model/time_distributed_5/batch_normalization_1/FusedBatchNormV3 f4 [16]
0.012265734 -0.10247474 -0.29671872 -0.33669427 -0.84363973 -0.37283397 -0.15608433 -0.40119353
-0.28869796 -0.063798204 -0.5564236 -0.47632086 0.020274013 0.033731118 -0.73248166 -0.2212861
00000000: 38f6 483c 47de d1bd 84eb 97be 3163 acbe
00000010: c6f8 57bf 18e4 bebe 92d4 1fbe 3d69 cdbe
00000020: 38d0 93be a2a8 82bd c771 0ebf 54e0 f3be
00000030: b015 a63c a429 0a3d eb83 3bbf d398 62be

model/time_distributed_5/batch_normalization_1/FusedBatchNormV31 f4 [16]
5.4968576 3.7116344 3.0731003 3.1843898 2.7072797 3.5435264 4.3268714 3.238041
4.080486 4.045132 4.292282 3.8823335 5.81969 6.5862765 3.1168914 5.136226
00000000: 42e6 af40 6b8b 6d40 adad 4440 0bcd 4b40
00000010: 1244 2d40 23c9 6240 bb75 8a40 103c 4f40
00000020: 5793 8240 b971 8140 605a 8940 2778 7840
00000030: e73a ba40 c7c2 d240 267b 4740 f75b a440

model/lstm/while/lstm_cell_4/MatMul_4 f4 [32, 32]
0.018786028 -0.10865093 -0.42643166 -0.6054707 0.16676857 0.7010202 0.19600922 0.04982866
-0.47854933 -0.15054034 -0.71188575 0.5173791 -0.42740622 -0.12508641 0.26574358 -0.27830875
-0.08246811 -0.0463799 0.21942724 -0.21145597 -0.39376625 -0.540768 -0.3894888 0.15194659
0.15737994 -0.010392353 -0.20356467 -0.7598172 -0.043983568 0.15513714 0.2785864 0.47786164
-0.404849 -0.25913185 0.08232487 -0.062443864 0.051611416 0.15609418 -0.28453222 -0.3887698
-0.117545165 -0.22723028 -0.5481885 0.05635192 -0.45078573 0.2533054 0.49035972 -0.2743141
0.26951116 -0.102025196 0.5112921 -0.066132225 0.055398747 0.27451864 -0.16606408 0.23939128
0.1071825 -0.0040279995 -0.11586416 0.11967608 0.32306033 -0.15314095 0.31271088 0.18251857
-0.6119441 0.826377 -0.050661113 -0.95351774 -0.15260564 0.14003694 0.27264693 -0.12430819
0.43889228 0.3781572 -0.11753359 0.41684923 0.25359264 0.1374822 -0.73475057 -0.91285455
0.114846334 0.17529377 0.22692391 0.07843956 -0.033886783 0.37547657 0.34600973 -0.14502598
0.25893286 0.037649557 0.006995488 -0.16913718 -0.22777474 -0.45522425 -0.472557 0.1523565
-0.01404478 0.007125873 -0.06744104 -0.012585037 -0.0054892665 0.075265 -0.092611484 -0.03501708
-0.07813005 -0.005656692 -0.0046286336 -0.022894546 -0.019706972 -0.020900637 0.03716125 0.037874047
0.05863565 -0.016528796 -0.11389065 -0.065545104 0.017215723 -0.0006992994 0.07234147 -0.0003290695
0.028653285 0.050221205 0.004323407 -0.0010715794 0.047739632 -0.029250903 -0.0639135 -0.00044451962
-0.26952446 0.49424055 -0.21242478 -0.53775615 0.23405324 -0.53522784 0.06930613 -1.6405811
-0.7201964 -0.112119555 0.16898118 0.16025351 -0.26609832 0.96095145 0.21802168 0.28892124
-0.25593758 -0.6500802 0.44805348 -0.13751204 0.015053833 -0.30366424 0.12947056 0.22272545
0.42780024 -0.41257784 0.012896116 -0.67027235 -0.20462306 0.4864976 -0.3877487 0.120682925
-0.18738104 -0.19049248 0.19664244 -0.7888414 1.1593411 -0.0064604674 -0.30862448 -0.35478103
-0.4718026 -0.5443352 1.0482297 1.6168892 0.29483765 0.3722147 -1.1610688 -0.16884002
0.720639 -0.8603548 -0.628655 0.15174553 0.07256555 -0.47984445 0.26800838 0.4188387
-0.011177072 -0.5712512 -1.2897512 0.6201374 0.45888436 0.5299498 0.42007884 0.049867716
-0.10760181 0.15053546 -0.19458294 -0.6295143 0.401398 0.9878519 -0.16371554 0.6326207
-0.3889028 -0.15594982 -0.35500538 0.4616604 0.015937528 0.33894068 -0.071740925 0.108958915
0.3373772 -0.13057388 -0.11226755 -0.21755306 0.19083819 0.301745 -0.24484767 -0.12630123
0.6686096 -0.26764244 -0.7078693 -0.40306136 0.9020529 -0.45560437 -0.23117514 0.22068629
-0.2470355 0.42000112 0.44262457 -0.45968872 0.6836838 -0.8714401 0.74240106 -0.69312453
0.30958298 0.43896684 -0.7309433 0.40048963 0.05426439 -0.13786708 0.6016721 -0.55439144
1.0341492 -0.54409844 0.058811255 -0.93625593 -0.45322904 -0.7144106 0.6658665 0.10713678
0.11797681 -0.4317709 0.18384759 -0.58048123 -0.2973754 -0.8087025 -0.24800338 0.74740124
00000000: 28e5 993c 6184 debd 4055 dabe 2100 1bbf
00000010: 61c5 2a3e 0f76 333f a4b6 483e 2319 4c3d
00000020: 6b04 f5be 3f27 1abe 253e 36bf f572 043f
00000030: fdd4 dabe a716 00be 8b0f 883e 7c7e 8ebe
00000040: 0ae5 a8bd daf8 3dbd 89b1 603e ea87 58be
00000050: bb9b c9be c66f 0abf 136b c7be e397 1b3e
00000060: 3528 213e b044 2abc 4273 50be 6183 42bf
00000070: 1d28 34bd 45dc 1e3e e0a2 8e3e 48aa f43e
00000080: 5e48 cfbe eeac 84be f199 a83d 23c5 7fbd
00000090: 7e66 533d 27d7 1f3e 35ae 91be d60c c7be
000000a0: 85bb f0bd 0eaf 68be 1556 0cbf 45d1 663d
000000b0: 63cd e6be 3fb1 813e 6e10 fb3e e672 8cbe
000000c0: 5efd 893e 96f2 d0bd 0ae4 023f 5570 87bd
000000d0: cce9 623d b58d 8c3e b40c 2abe fd22 753e
000000e0: 8082 db3d 4ffd 83bb 304a edbd bc18 f53d
000000f0: 2a68 a53e fbd0 1cbe a41b a03e 26e6 3a3e
00000100: 5ea8 1cbf 718d 533f 0782 4fbd bd19 74bf
00000110: a744 1cbe d865 0f3e 6198 8b3e 4b95 febd
00000120: 7db6 e03e d29d c13e 73b5 f0bd 436d d53e
00000130: e5d6 813e 22c8 0c3e 9d18 3cbf d6b0 69bf
00000140: 8e34 eb3d 3680 333e be5e 683e eca4 a03d
00000150: decc 0abd 773e c03e 3028 b13e b181 14be
00000160: d992 843e 6c36 1a3d 683a e53b 4c32 2dbe
00000170: c83d 69be 2713 e9be fef2 f1be 5803 1c3e
00000180: 141c 66bc 2880 e93b 871e 8abd 7931 4ebc
00000190: 4edf b3bb 8924 9a3d 17ab bdbd 126e 0fbd
000001a0: a602 a0bd c65b b9bb cbab 97bb 588d bbbc
000001b0: 8470 a1bc d037 abbc 6536 183d d121 1b3d
000001c0: ef2b 703d 6667 87bc 803f e9bd 833c 86bd
000001d0: fd07 8d3c 3051 37ba c427 943d f686 acb9
000001e0: 4bba ea3c c0b4 4d3d 5eab 8d3b 3d74 8cba
000001f0: a28a 433d 979f efbc 15e5 82bd 6a0e e9b9
00000200: 1cff 89be 190d fd3e e285 59be 63aa 09bf
00000210: a7ab 6f3e b104 09bf 5ff0 8d3d 90fe d1bf
00000220: cb5e 38bf f09e e5bd 6709 2d3e 7f19 243e
00000230: 0a3e 88be ea00 763f 1341 5f3e 7ced 933e
00000240: 400a 83be a86b 26bf 4467 e53e f5cf 0cbe
00000250: 5aa4 763c e179 9bbe ee93 043e 2412 643e
00000260: a208 db3e 673d d3be 3b4a 533c f896 2bbf
00000270: b588 51be 3716 f93e ff86 c6be 9c28 f73d
00000280: d1e0 3fbe 7610 43be a35c 493e 83f1 49bf
00000290: 4a65 943f 54b2 d3bb 0704 9ebe dca5 b5be
000002a0: 1c90 f1be 8d59 0bbf 642c 863f 3af6 ce3f
000002b0: f6f4 963e ed92 be3e e79d 94bf 66e4 2cbe
000002c0: cc7b 383f 3640 5cbf 89ef 20bf 2e63 1b3e
000002d0: 3f9d 943d 2cae f5be 6538 893e 0772 d63e
000002e0: 0a20 37bc 853d 12bf 9116 a5bf 53c1 1e3f
000002f0: e4f2 ea3e caaa 073f 9314 d73e 1742 4c3d
00000300: 565e dcbd f825 1a3e c040 47be d927 21bf
00000310: 0a84 cd3e dde3 7c3f 0ca5 27be 6ef3 213f
00000320: 451e c7be 4fb1 1fbe 44c3 b5be c05e ec3e
00000330: 6b8f 823c a289 ad3e e8ec 92bd da25 df3d
00000340: b4bc ac3e 29b5 05be 87ec e5bd 3bc6 5ebe
00000350: 166b 433e 527e 9a3e 59b9 7abe 1c55 01be
00000360: 002a 2b3f 6e08 89be ec36 35bf 0f5e cebe
00000370: f0ec 663f fa44 e9be 2db9 6cbe 96fb 613e
00000380: e0f6 7cbe 630a d73e b09f e23e 525c ebbe
00000390: e705 2f3f b316 5fbf ff0d 3e3f 9c70 31bf
000003a0: a981 9e3e 43c0 e03e 1a1f 3bbf fa0c cd3e
000003b0: 5644 5e3d 072d 0dbe 2f07 1a3f 99ec 0dbf
000003c0: 005f 843f 094a 0bbf 12e4 703d 78ae 6fbf
000003d0: a30d e8be 9de3 36bf 3a76 2a3f 876a db3d
000003e0: d39d f13d 1311 ddbe 8b42 3c3e 6b9a 14bf
000003f0: 9741 98be 2107 4fbf 99f4 7dbe b055 3f3f
