HPC_Final_Study2_Complete_Test_Class_Balance/participants_session_transfer_train/participant_19/session_1/session_1_lite_models/indexpen_model_quant.tflite (tflite, 412752 bytes, 45 tensors)

model/time_distributed_3/conv2d_1/BiasAdd;model/time_distributed_11/conv2d_3/Conv2D;model/time_distributed_3/conv2d_1/Conv2D;model/time_distributed_3/conv2d_1/BiasAdd/ReadVariableOp/resource f2 [16]
00000000: 1fb2 e6b0 c2a8 3aac 5731 b9ac 65b0 c4a8
00000010: 14af f1af 3ca3 56aa d2b1 76b2 5e2b 62b0
-0.1913 -0.1531 -0.03717 -0.06604 0.1669 -0.0738 -0.1373 -0.03723
-0.1106 -0.1241 -0.01413 -0.0495 -0.1819 -0.2019 0.05756 -0.137

model/time_distributed/conv2d/BiasAdd;model/time_distributed_8/conv2d_2/Conv2D;model/time_distributed/conv2d/Conv2D;model/time_distributed/conv2d/BiasAdd/ReadVariableOp/resource f2 [8]
00000000: a919 1620 341d 6ca0 002e f418 3531 9616
0.002764 0.00798 0.00508 -0.00864 0.09375 0.002419 0.1627 0.001608

model/time_distributed_11/conv2d_3/BiasAdd;model/time_distributed_11/conv2d_3/Conv2D;model/time_distributed_11/conv2d_3/BiasAdd/ReadVariableOp/resource f2 [16]
00000000: 591d 322d 3aa2 a028 612a 1b17 9f9e cd29
00000010: d81f 2d9d a61f d9a8 e524 d19f c3a5 a4a9
0.005222 0.0812 -0.01216 0.03613 0.04984 0.001735 -0.006466 0.04532
0.00766 -0.005054 0.00747 -0.03787 0.01912 -0.007633 -0.0225 -0.04407

model/time_distributed_8/conv2d_2/BiasAdd;model/time_distributed_8/conv2d_2/Conv2D;model/time_distributed_8/conv2d_2/BiasAdd/ReadVariableOp/resource f2 [8]
00000000: 0529 3a1e 541d 8f9a a29c 952f 9921 941e
0.0392 0.00608 0.005203 -0.003202 -0.004524 0.11847 0.01093 0.006424

model/time_distributed_3/conv2d_1/Conv2D f2 [16, 3, 3, 8]
00000000: 6f2d c9a8 d424 fbb3 82a1 149d 93a6 3aa7
00000010: 1ca4 8691 0da8 152c ed2c aa29 0332 b3a6
00000020: 5128 5b9d 77a2 8a26 f2b0 9eaa 78a5 de28
00000030: c91f cda8 6da1 4eaa 14ad da24 c531 7523
00000040: 1aa8 2726 fba2 b734 f0af c628 fb1c d426
00000050: 389f 8028 0a27 c3ae c625 89ac 50b3 ba25
00000060: 809b db2c 8729 8c2c a8ab 2e91 042f 2fa5
00000070: 99a6 cc29 5fa7 dbb0 43ad 0faa 8634 b09b
00000080: 44a2 0514 b3a8 07af 2ca5 e4a4 d637 8d9b
00000090: fd9b 051c 39ae 82b0 502d b7a6 0fb5 3e2c
000000a0: a023 fb1b 930d e4a9 302e c1a8 71a5 64a7
000000b0: 6b1d 57a6 172b beab c0b1 ba29 0035 2bac
000000c0: efa8 261f 16ad 8232 3628 6214 78b1 7723
000000d0: d1ae a0a2 3a28 011f 112c 9793 1cb5 c39d
000000e0: f5ae e124 4c22 33b0 fb29 a12c 7833 3d9c
000000f0: 2da7 b123 e6a1 d4a9 ae30 4129 562a 4ba9
00000100: f61f ffa8 1729 60b0 76b0 3026 1a33 c027
00000110: 3e25 67a8 00a9 6124 a7b0 5603 0a36 d021
00000120: 8dab 5ea6 2d1a d4ae eeaf 20a3 63b1 c628
00000130: 56aa 0ca0 4ea6 12ac 1ba1 a829 1131 2229
00000140: d5a9 54ac 3b29 1024 a0a0 bd2c 62b1 8ba8
00000150: 1222 5a24 3aa5 f931 53b3 929d 27b6 9929
00000160: 31a8 ac2b 3a9e 87ac 2caa afa3 15b6 8d1e
00000170: a21d 15a4 8928 2632 5b29 32a5 e4b0 982a
00000180: 7f28 eaa4 caa6 e6ae 4521 8d24 4929 38a5
00000190: c60c 4e24 3827 f1b5 27b3 6e00 2630 48a6
000001a0: 8c23 5ea2 7b1c d6a7 afb5 6da6 8e31 ce24
000001b0: a1a8 e02a c3a9 5fad ac2a 2c26 3e2c bda9
000001c0: 1bac a224 20a8 842e 72b1 36a5 58b0 6e8c
000001d0: a3ac eba2 d329 1eb4 b8a8 2725 492e 30ad
000001e0: 0c26 4aa4 9aa8 9621 24a5 0121 6927 4725
000001f0: 7d2a c728 06a1 5dad 14b1 2325 3cb0 b317
0.0849 -0.03738 0.01886 -0.2494 -0.01076 -0.00496 -0.02568 -0.02823
-0.01605 -0.0006742 -0.03165 0.0638 0.07697 0.04425 0.1879 -0.02617
0.03372 -0.00523 -0.01263 0.02554 -0.1545 -0.0517 -0.02136 0.03802
0.007603 -0.0375 -0.0106 -0.04926 -0.07935 0.01895 0.1803 0.014565
-0.03204 0.02403 -0.01363 0.2947 -0.124 0.0373 0.004864 0.02667
-0.00705 0.03516 0.0275 -0.10565 0.02255 -0.07086 -0.2285 0.02237
-0.003662 0.07587 0.04318 0.07104 -0.0598 -0.0006323 0.1096 -0.02025
-0.02577 0.0453 -0.0288 -0.1517 -0.0822 -0.04733 0.2827 -0.003754
-0.01224 0.000981 -0.0367 -0.1098 -0.0202 -0.0191 0.4897 -0.003687
-0.0039 0.003925 -0.0972 -0.1409 0.083 -0.02623 -0.3162 0.0663
0.01489 0.003897 0.0003402 -0.04602 0.0967 -0.03714 -0.02126 -0.02887
0.00529 -0.02477 0.0554 -0.0605 -0.1797 0.04474 0.3125 -0.0651
-0.03854 0.00698 -0.07947 0.2034 0.0329 0.00107 -0.1709 0.01458
-0.1065 -0.01294 0.03302 0.00684 0.06354 -0.0009265 -0.3193 -0.005627
-0.1087 0.01906 0.0123 -0.1312 0.04672 0.0723 0.2334 -0.00414
-0.02803 0.01502 -0.01152 -0.04553 0.1462 0.04105 0.0495 -0.04135
0.007774 -0.03903 0.03976 -0.1367 -0.1394 0.02417 0.2219 0.03027
0.02048 -0.0344 -0.03906 0.0171 -0.1454 5.09e-05 0.3774 0.01135
-0.059 -0.02487 0.003016 -0.1067 -0.1239 -0.013916 -0.1683 0.0373
-0.0495 -0.007904 -0.02463 -0.0636 -0.00997 0.0442 0.1583 0.0401
-0.04556 -0.0676 0.04086 0.01587 -0.00903 0.07404 -0.1682 -0.0355
0.011856 0.017 -0.02042 0.1866 -0.2289 -0.00544 -0.3845 0.04373
-0.03275 0.05994 -0.00608 -0.07074 -0.04822 -0.01501 -0.3801 0.006397
0.0055 -0.01595 0.03543 0.1921 0.04184 -0.0203 -0.1528 0.0515
0.03513 -0.0192 -0.02652 -0.1078 0.01029 0.01778 0.0413 -0.02039
0.0002913 0.01682 0.0282 -0.3713 -0.2235 6.56e-06 0.1296 -0.02454
0.01474 -0.012436 0.004375 -0.03061 -0.3552 -0.0251 0.1736 0.01877
-0.03616 0.0537 -0.045 -0.0839 0.05212 0.02411 0.0663 -0.04483
-0.06415 0.0181 -0.03223 0.1018 -0.1702 -0.02036 -0.1357 -0.0002704
-0.07245 -0.01351 0.0455 -0.2573 -0.03687 0.02013 0.0982 -0.08105
0.02362 -0.01675 -0.03595 0.01091 -0.02008 0.00977 0.02895 0.02061
0.0507 0.03732 -0.00981 -0.0838 -0.1587 0.02007 -0.1323 0.00188

model/time_distributed/conv2d/Conv2D f2 [8, 3, 3, 1]
00000000: 3e97 a390 9e8d 1e13 7e14 7c8b 2f1b 5617
00000010: b791 298e 660a 4f84 7e80 328e 2612 1212
00000020: 898c d60a a30c cb85 260f 3491 f18c 2595
00000030: a39a d384 550d f19c bb10 e598 bd8e 6594
00000040: 2f1d cc9e 0394 ce24 6b9c f804 5e9e 5799
00000050: ee1e d29a 6d28 ff98 6799 b10d 348c fb92
00000060: 0310 8695 6914 8012 6a10 1617 641d 4818
00000070: b49b 0d9d f817 351a 289c 60a7 6d9d ec14
00000080: ba91 d78c fc17 3b10 0f8e 9e95 710d 3c90
-0.001768 -0.000566 -0.0003428 0.000869 0.001097 -0.0002284 0.003508 0.001791
-0.0006976 -0.000376 0.0001953 -6.574e-05 -7.5e-06 -0.0003781 0.0007505 0.000741
-0.0002768 0.0002086 0.000283 -8.84e-05 0.0004363 -0.000635 -0.0003016 -0.001256
-0.00324 -7.36e-05 0.0003254 -0.004826 0.0005774 -0.00239 -0.0004113 -0.001073
0.005062 -0.006638 -0.000979 0.01877 -0.004314 7.58e-05 -0.006218 -0.002607
0.006767 -0.00333 0.03458 -0.00244 -0.002638 0.0003474 -0.0002565 -0.000852
0.0004897 -0.0013485 0.001077 0.0007935 0.000539 0.00173 0.005264 0.00209
-0.003761 -0.004932 0.0019455 0.00303 -0.00406 -0.02881 -0.0053 0.001202
-0.000699 -0.0002954 0.001949 0.0005164 -0.0003698 -0.001371 0.000332 -0.000517

model/time_distributed_11/conv2d_3/Conv2D f2 [16, 3, 3, 8]
00000000: fe31 d60c 861c 2591 4bb5 7eb4 edaf 85ab
00000010: 399a 4924 6122 fca7 ddb4 0734 ceb0 75aa
00000020: 37b0 b521 871a dda5 4eb5 2b2b 692e aca5
00000030: ccb3 dba9 cb23 b0a9 082c 7a31 f7b4 31a3
00000040: 381d 2bac c39d f0a5 ba26 0227 2d2f 7d28
00000050: 309f d6a7 80a3 d4a8 351c 98b2 f62e 9e2a
00000060: 1624 88aa 5c24 fd9f 16a6 b5ac d5b0 1ba6
00000070: 1ea6 6129 4e17 6923 c52b c329 259e 2fa6
00000080: 5229 151c 811d bd26 0835 241c d5b4 362d
00000090: 9c37 5327 d4a0 002c d332 b4ae 60b5 4398
000000a0: f522 7aa3 05a5 75ac c8b0 2931 94af 3ba8
000000b0: 87b7 10a1 dd90 37a6 6db6 6eb0 dd34 0117
000000c0: 24b4 63a9 5f26 ac9f 31b6 4f32 1eb3 7427
000000d0: 0633 b7a4 0927 4a2d 35b4 c4b4 7db1 f3ad
000000e0: 8e2f 44ac 60a9 7120 9934 c911 65a1 5e28
000000f0: b530 5cac 1d28 2129 af2b b731 a1b2 5a26
00000100: 2bb3 fda9 2c2c 13a9 59b0 32b0 2aaf e2ac
00000110: 4daf ceac 4120 0d2c 46b6 4bb0 6f2c b3aa
00000120: 3c1c b391 999b d79f 3310 4b9c 531c 641e
00000130: 8619 ab8a 679b 0ea0 9b16 c394 a21f 431e
00000140: 7591 320c 129b 38a0 2017 8019 e917 221e
00000150: a218 b011 1899 3a9a e29f f4a0 9319 841c
00000160: f414 2619 4b98 c699 ac9b 92a1 aa9f 471d
00000170: ca98 ea1b 3497 249a ec15 6aa3 8214 091e
00000180: f019 59a4 c798 969d bf19 889b 7720 2420
00000190: 951a 1da4 2c98 c19d a910 1c9a 601c 1720
000001a0: fba2 64a3 6d97 c59d 4119 4e9a 6f1d 1e20
000001b0: ecb1 6ca7 c228 9523 4d2c 0baa 81b2 2c29
000001c0: 1e33 27a8 5228 2722 832a 11a0 9ab3 6528
000001d0: 2726 8aa6 8027 77a1 3cb0 0c2f e231 1028
000001e0: 3536 1ba4 2ea2 062c cab4 5a32 22af 352a
000001f0: 84ad 6917 9ba4 6617 0fad 892a bdae be19
0.1873 0.0002952 0.004417 -0.000628 -0.3308 -0.2808 -0.12384 -0.05875
-0.003038 0.01674 0.01246 -0.03119 -0.304 0.2517 -0.1501 -0.05045
-0.1317 0.01115 0.003187 -0.0229 -0.3315 0.056 0.10016 -0.02216
-0.2437 -0.04575 0.01522 -0.04443 0.063 0.1711 -0.3103 -0.014046
0.005096 -0.0651 -0.005627 -0.0232 0.02628 0.02737 0.1121 0.03506
-0.00702 -0.03061 -0.01465 -0.03772 0.00411 -0.206 0.10876 0.0517
0.01596 -0.05103 0.01703 -0.0078 -0.02377 -0.07355 -0.151 -0.02385
-0.0239 0.04202 0.001783 0.01447 0.0607 0.045 -0.006 -0.02415
0.04156 0.003986 0.005375 0.02632 0.3145 0.004044 -0.302 0.0814
0.4756 0.02861 -0.00943 0.0625 0.2133 -0.10474 -0.336 -0.00208
0.01359 -0.0146 -0.0196 -0.06964 -0.1494 0.1613 -0.1184 -0.03305
-0.4705 -0.00989 -0.0005937 -0.02428 -0.4016 -0.1384 0.304 0.00171
-0.2588 -0.04208 0.02489 -0.007492 -0.387 0.1971 -0.2224 0.02911
0.2195 -0.01842 0.02748 0.08264 -0.263 -0.2979 -0.1715 -0.09296
0.11804 -0.06665 -0.042 0.008675 0.2874 0.000706 -0.01054 0.03412
0.1471 -0.0681 0.03214 0.04007 0.06003 0.1786 -0.2072 0.02481
-0.224 -0.04678 0.0652 -0.03964 -0.1359 -0.1311 -0.11194 -0.0763
-0.1141 -0.0751 0.00831 0.0633 -0.392 -0.1342 0.0693 -0.05234
0.004135 -0.0006957 -0.00371 -0.007656 0.0005126 -0.004192 0.004223 0.00624
0.002697 -0.0002035 -0.003614 -0.00792 0.001613 -0.001163 0.007454 0.006115
-0.000666 0.000256 -0.003452 -0.00824 0.0017395 0.002686 0.001931 0.00599
0.002262 0.0006943 -0.002487 -0.00304 -0.007698 -0.009674 0.002722 0.00441
0.001209 0.002514 -0.002096 -0.00282 -0.003746 -0.01088 -0.007484 0.005154
-0.002338 0.003864 -0.001759 -0.002998 0.001446 -0.01448 0.001101 0.005894
0.0029 -0.01698 -0.002333 -0.005455 0.002806 -0.003677 0.00872 0.00809
0.003214 -0.01607 -0.002037 -0.00562 0.000569 -0.002983 0.004272 0.00799
-0.01363 -0.014435 -0.001813 -0.005634 0.002565 -0.003078 0.005306 0.00804
-0.185 -0.02899 0.03717 0.01481 0.0672 -0.0472 -0.2032 0.0404
0.2224 -0.03244 0.03375 0.01202 0.05087 -0.00794 -0.2375 0.03433
0.02403 -0.02554 0.0293 -0.01067 -0.1323 0.1101 0.1838 0.03174
0.388 -0.01604 -0.01207 0.06287 -0.2993 0.1985 -0.11145 0.0485
-0.0862 0.001809 -0.01799 0.001806 -0.07904 0.05106 -0.1053 0.002804

model/time_distributed_8/conv2d_2/Conv2D f2 [8, 3, 3, 1]
00000000: c5a5 bea6 b12a 432b 03ad 2d1d 85aa 6d24
00000010: 8128 cb1e 998e 269a 840a 1e19 ce15 e595
00000020: 091b be1b 4c10 3c9f c31c d31c 4e1c 1199
00000030: 8a9a 0911 2192 d51a e49f f61a 1492 e618
00000040: 9a94 c699 fa8d 371e 6517 990e 571d fc25
00000050: 11a8 431e 079a bb1e 3b23 66a8 542b d424
00000060: 7028 23ae 8d29 0fa8 2e2c daa8 0a28 7daa
00000070: 2b26 8fa3 9526 9987 8a1b bb29 74ac 221a
00000080: c29f 991e af23 d4a6 a420 b796 2b98 431c
-0.02254 -0.02634 0.05228 0.05673 -0.0783 0.005054 -0.05093 0.01729
0.0352 0.006634 -0.0004027 -0.003002 0.0001988 0.002499 0.001417 -0.001439
0.003435 0.00378 0.0005245 -0.007065 0.00465 0.00471 0.004204 -0.002474
-0.003193 0.0006146 -0.000748 0.003336 -0.007706 0.003399 -0.000742 0.002392
-0.001123 -0.00282 -0.0003648 0.00607 0.001805 0.0004027 0.005215 0.02338
-0.03177 0.006115 -0.002943 0.006573 0.01412 -0.03436 0.05725 0.01886
0.03467 -0.0959 0.04337 -0.0317 0.0653 -0.0379 0.03156 -0.0507
0.0241 -0.01476 0.02571 -0.00011593 0.003681 0.04477 -0.0696 0.002995
-0.007576 0.006443 0.01501 -0.02667 0.00906 -0.001639 -0.002035 0.00416

model/lstm/TensorArrayV2_1 f2 [120, 1, 32]
00000000: 0000 0000 0000 0000 0000 0000 0000 0000
00000010: 0000 0000 0000 0000 0000 0000 0000 0000
00000020: 0000 0000 0000 0000 0000 0000 0000 0000
00000030: 0000 0000 0000 0000 0000 0000 0000 0000
00000040: 0000 0000 0000 0000 0000 0000 0000 0000
00000050: 0000 0000 0000 0000 0000 0000 0000 0000
00000060: 0000 0000 0000 0000 0000 0000 0000 0000
00000070: 0000 0000 0000 0000 0000 0000 0000 0000
00000080: 0000 0000 0000 0000 0000 0000 0000 0000
00000090: 0000 0000 0000 0000 0000 0000 0000 0000
000000a0: 0000 0000 0000 0000 0000 0000 0000 0000
000000b0: 0000 0000 0000 0000 0000 0000 0000 0000
000000c0: 0000 0000 0000 0000 0000 0000 0000 0000
000000d0: 0000 0000 0000 0000 0000 0000 0000 0000
000000e0: 0000 0000 0000 0000 0000 0000 0000 0000
000000f0: 0000 0000 0000 0000 0000 0000 0000 0000
00000100: 0000 0000 0000 0000 0000 0000 0000 0000
00000110: 0000 0000 0000 0000 0000 0000 0000 0000
00000120: 0000 0000 0000 0000 0000 0000 0000 0000
00000130: 0000 0000 0000 0000 0000 0000 0000 0000
00000140: 0000 0000 0000 0000 0000 0000 0000 0000
00000150: 0000 0000 0000 0000 0000 0000 0000 0000
00000160: 0000 0000 0000 0000 0000 0000 0000 0000
00000170: 0000 0000 0000 0000 0000 0000 0000 0000
00000180: 0000 0000 0000 0000 0000 0000 0000 0000
00000190: 0000 0000 0000 0000 0000 0000 0000 0000
000001a0: 0000 0000 0000 0000 0000 0000 0000 0000
000001b0: 0000 0000 0000 0000 0000 0000 0000 0000
000001c0: 0000 0000 0000 0000 0000 0000 0000 0000
000001d0: 0000 0000 0000 0000 0000 0000 0000 0000
000001e0: 0000 0000 0000 0000 0000 0000 0000 0000
000001f0: 0000 0000 0000 0000 0000 0000 0000 0000
0.0 0.0 0.0 0.0 0.0 0.0 0.0 0.0
0.0 0.0 0.0 0.0 0.0 0.0 0.0 0.0
0.0 0.0 0.0 0.0 0.0 0.0 0.0 0.0
0.0 0.0 0.0 0.0 0.0 0.0 0.0 0.0
0.0 0.0 0.0 0.0 0.0 0.0 0.0 0.0
0.0 0.0 0.0 0.0 0.0 0.0 0.0 0.0
0.0 0.0 0.0 0.0 0.0 0.0 0.0 0.0
0.0 0.0 0.0 0.0 0.0 0.0 0.0 0.0
0.0 0.0 0.0 0.0 0.0 0.0 0.0 0.0
0.0 0.0 0.0 0.0 0.0 0.0 0.0 0.0
0.0 0.0 0.0 0.0 0.0 0.0 0.0 0.0
0.0 0.0 0.0 0.0 0.0 0.0 0.0 0.0
0.0 0.0 0.0 0.0 0.0 0.0 0.0 0.0
0.0 0.0 0.0 0.0 0.0 0.0 0.0 0.0
0.0 0.0 0.0 0.0 0.0 0.0 0.0 0.0
0.0 0.0 0.0 0.0 0.0 0.0 0.0 0.0
0.0 0.0 0.0 0.0 0.0 0.0 0.0 0.0
0.0 0.0 0.0 0.0 0.0 0.0 0.0 0.0
0.0 0.0 0.0 0.0 0.0 0.0 0.0 0.0
0.0 0.0 0.0 0.0 0.0 0.0 0.0 0.0
0.0 0.0 0.0 0.0 0.0 0.0 0.0 0.0
0.0 0.0 0.0 0.0 0.0 0.0 0.0 0.0
0.0 0.0 0.0 0.0 0.0 0.0 0.0 0.0
0.0 0.0 0.0 0.0 0.0 0.0 0.0 0.0
0.0 0.0 0.0 0.0 0.0 0.0 0.0 0.0
0.0 0.0 0.0 0.0 0.0 0.0 0.0 0.0
0.0 0.0 0.0 0.0 0.0 0.0 0.0 0.0
0.0 0.0 0.0 0.0 0.0 0.0 0.0 0.0
0.0 0.0 0.0 0.0 0.0 0.0 0.0 0.0
0.0 0.0 0.0 0.0 0.0 0.0 0.0 0.0
0.0 0.0 0.0 0.0 0.0 0.0 0.0 0.0
0.0 0.0 0.0 0.0 0.0 0.0 0.0 0.0

model/dense/BiasAdd/ReadVariableOp/resource f2 [256]
00000000: 46a9 ba28 bea0 972b ae1e cfa9 f9a6 ef9f
00000010: d6a9 76ae b1a5 dba1 ad2a 81a8 c1a6 77a8
00000020: 539a 2426 902b ea2c f427 499f 771b 212c
00000030: c329 5029 32a9 2ba5 3e27 0128 21a3 3a0c
00000040: ffa5 b6aa 099f f928 44a0 27ac 89b2 50a7
00000050: 3e1f 979c 4daf a925 d1a5 bf2a 3a15 b5ac
00000060: 2b2c 4ea3 3729 3f2f b2aa 5028 1d22 aba7
00000070: 31a8 909d 1826 8125 ea28 f723 dda3 1e18
00000080: be28 86ac 6ba6 622a 872c 1f23 d414 75aa
00000090: 2128 14a4 09a7 121f 27a8 78a9 8b1d 2529
000000a0: f31d c6a3 00a5 bd29 16aa 3315 15a4 76a6
000000b0: 9618 a41c bca6 deab b927 d426 9a2a f1a6
000000c0: ff9d 35a0 34a1 ec2b 75a6 9024 daa4 78ac
000000d0: e120 3a16 a021 9322 5d25 73aa 4d2a 0923
000000e0: e02a 9823 6627 ed16 0ea5 3b28 36a4 48ab
000000f0: 6f1d 5bac 7fac 6e24 bf29 3d2b 0220 d020
00000100: c629 87a4 6418 ee29 d3a1 31ad 532b b724
00000110: 33a8 ae2d bf2c be2c 31a6 c529 f9a7 1ba9
00000120: 16ac 672a 402b bc19 422f aa29 d8a9 7b27
00000130: 3eac b8af 83a8 e9aa faa7 b3a6 ae1b 3b2d
00000140: 21a8 dfa4 ccac 3e9b af18 9daa 302a 5faa
00000150: d129 7225 73ab dda4 7c29 fb95 d1a3 eea3
00000160: 9d1f 02a3 2ca4 5228 0c2c 6119 0029 8e26
00000170: af22 6e24 6c2c 15ab 512f 2da8 cd28 d421
00000180: 2ba9 b324 88a5 f326 a5a8 4d2c a426 3da5
00000190: a629 65ab dea1 57a9 bcae 7a20 1f2a 57aa
000001a0: a2a5 7314 0ca9 f99a ee9d 3128 76ab 31a5
000001b0: 1fa7 4825 8720 0d22 2123 49a9 0e24 b7b0
000001c0: 4c29 3519 042c 2a23 7ba8 8520 0428 bf24
000001d0: 302b ef9f a2a4 022b 20a7 4d28 34a8 e7a7
000001e0: 40a9 2726 56a4 bca4 d0aa 01a1 6627 0ca3
000001f0: c527 4ea5 c525 a7aa 9c2a 5f26 8b1e 9c9f
-0.0412 0.03693 -0.00926 0.0593 0.006523 -0.04538 -0.02724 -0.007748
-0.0456 -0.10095 -0.02223 -0.01144 0.05215 -0.0352 -0.02638 -0.03488
-0.003088 0.02399 0.05908 0.0768 0.03107 -0.007114 0.003645 0.0645
0.045 0.0415 -0.0406 -0.02019 0.02829 0.03128 -0.01392 0.000258
-0.02342 -0.05243 -0.00687 0.03885 -0.00833 -0.0649 -0.2042 -0.02856
0.007072 -0.004482 -0.1141 0.02211 -0.02272 0.0527 0.001276 -0.07355
0.0651 -0.01427 0.04074 0.1132 -0.0523 0.0337 0.01194 -0.02995
-0.03275 -0.005432 0.0238 0.0215 0.0384 0.01556 -0.01536 0.00201
0.03705 -0.0707 -0.02507 0.04987 0.07074 0.01391 0.001179 -0.05045
0.03226 -0.01593 -0.02748 0.006905 -0.03244 -0.04272 0.005413 0.0402
0.00581 -0.01518 -0.01953 0.04483 -0.04755 0.001269 -0.01595 -0.02524
0.00224 0.00453 -0.0263 -0.06146 0.03017 0.02667 0.05157 -0.02711
-0.005856 -0.00822 -0.01016 0.0619 -0.02522 0.01782 -0.01895 -0.0698
0.00953 0.00152 0.01099 0.01284 0.02095 -0.05038 0.04922 0.01374
0.0537 0.01483 0.0289 0.001691 -0.01974 0.03305 -0.01645 -0.0569
0.005306 -0.06805 -0.07025 0.0173 0.0449 0.05655 0.00783 0.0094
0.0451 -0.01768 0.002144 0.04633 -0.011375 -0.0811 0.05722 0.01842
-0.0328 0.08875 0.07416 0.0741 -0.02419 0.04507 -0.03114 -0.0399
-0.06384 0.05002 0.05664 0.0028 0.1134 0.04425 -0.04565 0.02922
-0.0663 -0.1206 -0.03525 -0.054 -0.03116 -0.02617 0.00375 0.0817
-0.03226 -0.01903 -0.07495 -0.003536 0.002287 -0.05167 0.04834 -0.04977
0.04544 0.02127 -0.0582 -0.019 0.04285 -0.00146 -0.01527 -0.01549
0.007435 -0.01369 -0.0163 0.03375 0.06323 0.002626 0.03906 0.0256
0.013054 0.0173 0.0691 -0.05533 0.1143 -0.03262 0.0375 0.01138
-0.04037 0.01836 -0.0216 0.02715 -0.0363 0.0672 0.02594 -0.02046
0.04413 -0.05777 -0.01146 -0.04172 -0.1052 0.00874 0.04782 -0.04953
-0.022 0.001086 -0.03943 -0.003405 -0.00579 0.03275 -0.0583 -0.02028
-0.02782 0.02063 0.00884 0.01182 0.01392 -0.0413 0.01584 -0.1473
0.04138 0.002542 0.06274 0.01399 -0.035 0.00883 0.03137 0.01854
0.05615 -0.007748 -0.0181 0.05475 -0.02783 0.0336 -0.03284 -0.03087
-0.04102 0.02403 -0.01694 -0.0185 -0.05322 -0.00977 0.0289 -0.01376
0.03035 -0.02072 0.02254 -0.05197 0.05164 0.02489 0.00639 -0.00743

model/last_layer/BiasAdd/ReadVariableOp/resource f2 [31]
00000000: 37a8 c2a2 0e26 59a4 641e ea9d c99f b526
00000010: deaa 1a9f 8620 aea7 df92 6d1d 6425 2820
00000020: cd18 9324 8322 91a4 3525 2a1f dba6 5022
00000030: 8521 bd08 8312 e524 47a8 c7a6 5fa7
-0.03293 -0.0132 0.02365 -0.01698 0.00624 -0.005775 -0.007603 0.0262
-0.05365 -0.006935 0.008835 -0.03 -0.0008388 0.0053 0.02106 0.00812
0.002344 0.01787 0.01272 -0.01784 0.02034 0.006996 -0.02678 0.01233
0.01078 0.0001446 0.000795 0.01912 -0.03342 -0.02647 -0.0288

model/dense/MatMul f2 [256, 32]
00000000: 19af da29 b72f 23ab 1f30 a29c e628 502c
00000010: 97ad b71c acb1 b7a3 7bb4 681e 54af 9e2a
00000020: e6af aa2c 6814 5d2b be31 1f27 32ac 302c
00000030: d9a9 5bac 2b2e b12b 7330 99af ba27 4b9e
00000040: 422e 862c 29af bbab 1eac b92e fcac c5ae
00000050: 252c 9a2a c82c 2429 6736 c6b1 44aa d820
00000060: 0da1 4120 9127 5ca1 97b0 9da4 a729 adaa
00000070: 5123 cb2a f924 18a8 4820 88ac 9a2d 0c29
00000080: 272d 94ae 7baf 60a3 fe2c efa5 78aa 2932
00000090: 161d 7092 f423 23a7 6032 612c d430 30ad
000000a0: 042c 2d29 55ac a4ab f526 0620 45a9 8ca9
000000b0: 4ba9 87aa bf2c f4ad a6b2 2f34 6aa5 64ab
000000c0: 979d bba4 cd2d 7527 f0aa 9e31 26ad e390
000000d0: cda1 a924 c9a1 41a8 8f23 2aad bdb0 9f2a
000000e0: 1bae fb26 24ae f229 1fa5 c833 95a4 45a0
000000f0: 6631 6fac bca5 86a9 582c 63ad f731 c9a8
00000100: 88a6 e72f bcae b82f 8aa5 b32b aeae ef2c
00000110: acab 00a9 bb31 41ac 5824 80ae b0a9 9c2c
00000120: 99af 1020 e225 3222 27ab 1b30 a5a9 2820
00000130: 0f28 e9aa 07af 5127 f429 adab 0026 12b6
00000140: cc2b e02d 398b 312d c91e f1ac 902c 8626
00000150: 6aae 82ac 8f30 a12d a321 2829 3eab a41d
00000160: 092d 76b0 6e2a fb2a 1ca4 eeaa 7085 60b4
00000170: 2c26 75ad aab5 47ad 3daa 08a9 cda9 45b0
00000180: 29ac 5f32 73ab 1a2e 94ab 2129 732f 09b1
00000190: ad28 6385 1e2f 0431 542d d7b1 69a8 0f2f
000001a0: c9ac fd9f d031 972c 98a8 3cae 232f a52c
000001b0: 4027 d12b 5caf ca28 d731 f9af 182b 4ba8
000001c0: d01d 35b0 5a28 e7ad 87ae d522 c024 7925
000001d0: 642d 54b5 082c b210 a527 092f fe31 f3a7
000001e0: 9da7 fca5 67b1 bcb0 21ad 0d2e f72b 342f
000001f0: d7a7 79a4 cb9c 4fa1 3e26 fe24 c125 199f
-0.1109 0.04572 0.12054 -0.05576 0.1288 -0.004524 0.03827 0.0674
-0.08734 0.004604 -0.1772 -0.01507 -0.28 0.006256 -0.1145 0.0517
-0.1234 0.0729 0.001076 0.05753 0.1794 0.02782 -0.06555 0.0654
-0.0457 -0.06805 0.0964 0.0601 0.139 -0.1187 0.03018 -0.006145
0.0978 0.0707 -0.1119 -0.0604 -0.06433 0.10504 -0.0779 -0.1058
0.06476 0.05157 0.0747 0.04016 0.4001 -0.1804 -0.04895 0.00946
-0.009865 0.00831 0.02956 -0.01047 -0.1434 -0.01802 0.04416 -0.05215
0.01429 0.05307 0.01942 -0.03198 0.00836 -0.0708 0.0875 0.03943
0.0805 -0.1028 -0.1169 -0.014404 0.078 -0.02318 -0.05054 0.1925
0.004967 -0.000786 0.01553 -0.02788 0.1992 0.0684 0.1509 -0.08105
0.06274 0.04044 -0.0677 -0.0597 0.02718 0.00786 -0.04117 -0.04333
-0.04135 -0.051 0.07416 -0.093 -0.2078 0.2615 -0.02115 -0.05774
-0.00546 -0.01848 0.09064 0.02913 -0.0542 0.1755 -0.08044 -0.0005965
-0.01133 0.0182 -0.0113 -0.03323 0.01476 -0.0807 -0.1481 0.05173
-0.0954 0.02727 -0.09595 0.04645 -0.02 0.2432 -0.0179 -0.00834
0.1687 -0.0693 -0.0224 -0.04315 0.0679 -0.08417 0.1864 -0.03738
-0.02551 0.1235 -0.1052 0.1206 -0.02164 0.06015 -0.1044 0.0771
-0.05994 -0.03906 0.1791 -0.06647 0.01697 -0.10156 -0.04443 0.072
-0.1187 0.007935 0.02298 0.0121 -0.05588 0.1283 -0.0441 0.00812
0.0317 -0.054 -0.1098 0.02858 0.0465 -0.05997 0.02344 -0.3794
0.0609 0.0918 -0.0002204 0.0811 0.006626 -0.0772 0.0713 0.02548
-0.1002 -0.07043 0.1425 0.08795 0.01101 0.04028 -0.05658 0.00551
0.0787 -0.1394 0.05023 0.05453 -0.01605 -0.05414 -8.297e-05 -0.2734
0.02411 -0.08527 -0.354 -0.08246 -0.04874 -0.0393 -0.04532 -0.1334
-0.065 0.1991 -0.0582 0.09534 -0.0592 0.04007 0.1164 -0.1573
0.03653 -8.22e-05 0.1112 0.1567 0.08325 -0.1825 -0.03445 0.1103
-0.07477 -0.0078 0.1816 0.0717 -0.0359 -0.0974 0.1115 0.0726
0.02832 0.06107 -0.115 0.0374 0.1825 -0.1246 0.05542 -0.03354
0.005676 -0.1315 0.034 -0.0922 -0.102 0.01334 0.01855 0.02138
0.0842 -0.333 0.063 0.000573 0.02986 0.1099 0.1873 -0.03105
-0.02974 -0.02338 -0.1688 -0.148 -0.08014 0.09454 0.06223 0.11255
-0.03062 -0.01747 -0.00468 -0.01037 0.02438 0.0195 0.02248 -0.00693

model/last_layer/MatMul f2 [31, 256]
00000000: 9c28 38a7 e02b 2222 c5ab 76a8 28a9 28ae
00000010: 842b 092d 5aac 4ba9 1ba4 ba29 51a2 7aab
00000020: 3c29 cba6 322d 022a 9924 ffa2 cda3 51a9
00000030: 371e 84aa b824 d12c 5aae ac9b 12ad b7a8
00000040: 7025 0629 402a 941f edae 8d2d 4a2c e2a9
00000050: 4b2b 30a8 a3a6 762d a52c 6aae 8bad 4927
00000060: 712b 9c2b f5ab 7c22 162e d0a3 3ca6 839c
00000070: 72ac 279b 9b1d 952b 38ac 01ad d626 0c2a
00000080: aea8 ae2f b02c aea5 23ae b424 85ae 61ac
00000090: 0719 c217 2fad fe29 d793 72a9 6f28 b729
000000a0: 87ad 642c 4ba3 cd95 332b d9ab ddaa 14aa
000000b0: d52d 3bad 80ab 4328 21aa 349e c320 6b2f
000000c0: 51ac f6ac f922 65a9 ed25 2aac 5aab 272c
000000d0: f3a3 781c 1328 0998 a5ad d82c 3aa9 6f18
000000e0: 45ac c82c 1c2e 3c2a 2c9d 8ead eb22 fc2a
000000f0: 88ad 56a8 572b a62a 82ab aaad 05a5 ed28
00000100: d725 2120 1c21 2daa 94aa 66a7 941d b3ac
00000110: 6fa5 ef1d a48f 61aa f0a9 43ad 192d cd9e
00000120: 602d b6ac cc29 f42c 0b28 7da6 cdad 6aa5
00000130: 4128 dca9 1ca6 932a cf24 052c 46a1 5e1d
00000140: de26 05a6 1924 cf17 23aa b997 04ad 7627
00000150: e695 e8ad e5ac a1ac 769f d7a8 c9a4 fe21
00000160: 5c9c 9529 812b 5328 94ac 4206 3b2c 589b
00000170: 6f1d 2398 83a8 b121 a3ad be1e afa2 832d
00000180: d41f 8da7 2310 7eab 61a5 bfa9 54a9 bdac
00000190: 20a2 4628 ed26 7c29 0cac 142e 81ab 48a5
000001a0: 92a9 3c23 c02b 0f15 9ca8 dea0 fe23 5e20
000001b0: ea2d 19a8 7023 f7ac 63a8 4ca4 cca4 112b
000001c0: 32a2 07a4 7721 88a9 512e c723 e8ad 5fa6
000001d0: 3f1b d722 962b 231f bfac 6eac cc2d 5424
000001e0: 71a5 77ae dd25 0cab cd2d 141f 5fa2 f425
000001f0: 9d1c cdab 9c22 cba3 55aa 342a 62a8 b8a6
0.036 -0.0282 0.06152 0.01198 -0.0607 -0.03485 -0.04028 -0.0962
0.05872 0.0787 -0.068 -0.04135 -0.01604 0.04474 -0.01234 -0.0584
0.0409 -0.02654 0.0812 0.04694 0.01796 -0.013664 -0.015236 -0.04153
0.00607 -0.0509 0.01843 0.07526 -0.09924 -0.003746 -0.0792 -0.03683
0.02124 0.03925 0.04883 0.0074 -0.1082 0.08673 0.067 -0.04596
0.05698 -0.0327 -0.02592 0.0853 0.0726 -0.1002 -0.0866 0.02846
0.05814 0.05945 -0.06216 0.012665 0.0951 -0.01526 -0.02435 -0.004406
-0.06946 -0.003492 0.005474 0.05923 -0.0659 -0.0782 0.0267 0.04724
-0.03656 0.12 0.07324 -0.02219 -0.0959 0.01837 -0.10187 -0.0684
0.002455 0.001894 -0.081 0.0468 -0.000957 -0.04254 0.03464 0.04465
-0.08636 0.0686 -0.014244 -0.001416 0.05624 -0.0613 -0.05362 -0.0475
0.0911 -0.0817 -0.0586 0.0333 -0.04788 -0.006058 0.0093 0.1159
-0.06744 -0.0775 0.01362 -0.04214 0.02315 -0.06506 -0.05743 0.0649
-0.015526 0.004364 0.03183 -0.00197 -0.0882 0.0757 -0.04083 0.002165
-0.0667 0.0747 0.09546 0.0487 -0.00505 -0.0868 0.01351 0.05457
-0.0864 -0.03387 0.05734 0.05194 -0.05865 -0.0885 -0.0196 0.03848
0.02281 0.008064 0.00998 -0.04825 -0.0514 -0.0289 0.005447 -0.0734
-0.02122 0.005795 -0.0004663 -0.04984 -0.0464 -0.0822 0.07965 -0.00664
0.084 -0.0736 0.0453 0.0774 0.0316 -0.02534 -0.09064 -0.02115
0.03323 -0.04578 -0.02386 0.05136 0.01878 0.0628 -0.0103 0.00524
0.02682 -0.02351 0.016 0.001906 -0.04794 -0.001885 -0.07837 0.02914
-0.00144 -0.0923 -0.0765 -0.0723 -0.007286 -0.0378 -0.01869 0.0117
-0.004257 0.0436 0.05862 0.03378 -0.07153 9.55e-05 0.0661 -0.003586
0.005306 -0.00202 -0.03525 0.011116 -0.0881 0.006584 -0.013054 0.0861
0.007645 -0.0295 0.000505 -0.05853 -0.02101 -0.0449 -0.04163 -0.07404
-0.01196 0.0334 0.02705 0.04285 -0.06323 0.095 -0.05862 -0.02063
-0.04352 0.01413 0.06055 0.001235 -0.036 -0.00951 0.01561 0.00853
0.0924 -0.032 0.01453 -0.0776 -0.03427 -0.01678 -0.01874 0.0552
-0.0121 -0.01573 0.01067 -0.0432 0.0987 0.01519 -0.0923 -0.02489
0.003538 0.01336 0.05927 0.00697 -0.07416 -0.0692 0.0906 0.0169
-0.02126 -0.101 0.0229 -0.05505 0.09064 0.006912 -0.01244 0.02325
0.004505 -0.06094 0.01291 -0.01522 -0.04947 0.04846 -0.03424 -0.02625

model/time_distributed_10/batch_normalization_2/FusedBatchNormV3 f2 [8]
00000000: 5725 2ba0 7826 1a9b a621 a6a5 aca1 5ba2
0.02086 -0.00814 0.02527 -0.003468 0.01103 -0.02206 -0.01108 -0.01241

model/time_distributed_10/batch_normalization_2/FusedBatchNormV31 f2 [8]
00000000: 9830 ef2c fdab 0b28 c231 4634 6335 5ea8
0.1436 0.0771 -0.0624 0.0316 0.1799 0.267 0.3367 -0.03412

model/time_distributed_13/batch_normalization_3/FusedBatchNormV3 f2 [16]
00000000: e6a9 8fb1 e914 d0ae 8dac d993 ce9f 53b0
00000010: d0a0 5a93 b2a9 7120 33ab c797 3d26 301e
-0.04608 -0.1737 0.001199 -0.10645 -0.0711 -0.000958 -0.00762 -0.1351
-0.0094 -0.0008974 -0.0445 0.008675 -0.05624 -0.001899 0.02437 0.006042

model/time_distributed_13/batch_normalization_3/FusedBatchNormV31 f2 [16]
00000000: 7740 6e42 152b 463f dc3e 75af 1943 5440
00000010: 6544 149f fb3f a441 9842 3129 ce43 5e44
2.232 3.215 0.05533 1.818 1.715 -0.1165 3.549 2.164
4.395 -0.006912 1.995 2.82 3.297 0.04056 3.902 4.367

model/time_distributed_2/batch_normalization/FusedBatchNormV3 f2 [8]
00000000: bf0c 0315 e78e 41a4 8bac 6995 c8ae 8a99
0.0002897 0.001224 -0.0004213 -0.01662 -0.071 -0.001321 -0.10596 -0.002705

model/time_distributed_2/batch_normalization/FusedBatchNormV31 f2 [8]
00000000: 70a6 6b94 7ca3 cf2b 5530 1da1 7630 c623
-0.02515 -0.001079 -0.01462 0.061 0.1354 -0.00999 0.1394 0.01518

model/time_distributed_5/batch_normalization_1/FusedBatchNormV3 f2 [16]
00000000: 2c23 48ae 39b4 74b4 14ba 42b5 e7b1 70b3
00000010: d2b4 b3af 46b8 97b7 b624 0f2d 7eb9 c8b3
0.01401 -0.09814 -0.264 -0.2783 -0.76 -0.3286 -0.1844 -0.2324
-0.3013 -0.1203 -0.534 -0.4744 0.0184 0.07904 -0.6865 -0.2432

model/time_distributed_5/batch_normalization_1/FusedBatchNormV31 f2 [16]
00000000: 4945 e142 4843 cb42 9841 f943 0343 e444
00000010: 3f43 6d41 7f43 a843 f944 6f47 2a43 9744
5.285 3.44 3.64 3.396 2.797 3.986 3.506 4.89
3.623 2.713 3.748 3.828 4.973 7.434 3.582 4.59

model/lstm/while/lstm_cell_4/MatMul_4 f2 [32, 32]
00000000: ec26 82af 8eb6 9eb8 2e32 b839 f231 012c
00000010: 6eb7 2cb0 97b9 bc37 92b6 daad 1534 48b4
00000020: 99ad 1e9f e433 5fb1 42b6 4ab8 64b6 f031
00000030: 2c31 f2a9 93b2 c6b9 12a5 9030 3f34 ef36
00000040: 1bb7 1eb4 2c2c 6fae 4928 7731 7ab4 ebb5
00000050: 68ad ccb3 54b8 182b 28b7 3734 6137 21b4
00000060: f034 05b0 2038 3dad 9b29 6734 74b0 7533
00000070: 9e2f f7a5 00b2 8f31 3635 dbb1 5035 6c32
00000080: d6b8 b03a ecab c2bb 54b0 eb31 9b34 62ad
00000090: 9d35 8635 dcae 9e37 b131 a12f e4b9 04bc
000000a0: 322a 0532 e331 342b 77ab 7435 8635 acb2
000000b0: a834 0728 d329 7ab1 3cb2 bab6 26b7 142e
000000c0: 011f d426 58a6 5fa0 50a4 2028 d9ac 5628
000000d0: 21aa 49a2 3f20 b1a9 e525 9220 329b 142a
000000e0: f527 61a4 31af afae a928 eb22 3827 4326
000000f0: 9f27 5a28 a627 c523 f329 2121 c7aa bda1
00000100: cbb3 ec37 6db3 6cb8 8633 24b8 a62d 83be
00000110: c0b9 06b0 9232 cd30 52b4 603b aa33 3634
00000120: 05b4 36b9 e336 15b0 e623 85b4 e230 b532
00000130: 8636 37b7 b298 32b9 ccb2 4638 f5b5 3d2c
00000140: c4b1 c3b1 8332 21ba 7b3c 4323 4cb4 20b6
00000150: 45b7 7db8 0d3c 8c3e 7534 6b35 82bc e1b1
00000160: b139 b8ba 16b9 6631 5c2c 62b7 c533 c136
00000170: 67a8 e9b8 0cbd 2439 c636 9e38 0237 8e2d
00000180: 30b0 9931 1db2 c2b8 1236 cc3b d5b1 e438
00000190: a8b5 c3b0 fdb5 0b37 5797 9d35 efa9 322f
000001a0: a835 d2af 98ad 7cb2 1e32 a734 a5b3 41b0
000001b0: 4139 57b4 01ba 94b6 623b 83b7 85b3 aa33
000001c0: d5b3 e135 0637 d2b6 bf39 f5ba c739 a4b9
000001d0: 6334 ee36 bfb9 9436 ae2b e4ae 3239 73b8
000001e0: 443c 21b8 d928 45bb 76b7 aeb9 3239 e02f
000001f0: 2d2f c5b6 9031 7eb8 9fb4 38ba 07b4 fc39
0.02704 -0.1173 -0.4097 -0.577 0.1931 0.715 0.1858 0.06256
-0.4644 -0.1304 -0.6987 0.4834 -0.4106 -0.09143 0.2551 -0.2676
-0.08746 -0.00695 0.2466 -0.1678 -0.391 -0.536 -0.3994 0.1855
0.1616 -0.04645 -0.2054 -0.7217 -0.0198 0.1426 0.2654 0.4333
-0.444 -0.2573 0.0652 -0.1005 0.03348 0.1708 -0.2798 -0.3699
-0.0845 -0.2437 -0.541 0.05542 -0.4473 0.2634 0.4612 -0.258
0.3086 -0.1256 0.5156 -0.08185 0.0438 0.2751 -0.1392 0.233
0.119 -0.0233 -0.1875 0.1737 0.3257 -0.183 0.332 0.2007
-0.6045 0.836 -0.0619 -0.9697 -0.1353 0.1849 0.2878 -0.0841
0.3508 0.3452 -0.1072 0.476 0.1779 0.1192 -0.7363 -1.004
0.0484 0.1881 0.184 0.05627 -0.05832 0.3408 0.3452 -0.2085
0.291 0.03146 0.0455 -0.1711 -0.1948 -0.4204 -0.4468 0.095
0.00684 0.02667 -0.02478 -0.00854 -0.01685 0.03223 -0.07574 0.03387
-0.04788 -0.012276 0.00829 -0.04446 0.02303 0.00893 -0.003513 0.0475
0.03108 -0.0171 -0.11237 -0.10443 0.0364 0.01351 0.0282 0.02446
0.02977 0.034 0.02988 0.015175 0.04648 0.01002 -0.05295 -0.01121
-0.2435 0.495 -0.232 -0.5527 0.2351 -0.5176 0.08826 -1.628
-0.7188 -0.1257 0.2053 0.15 -0.27 0.922 0.2395 0.2632
-0.2512 -0.6514 0.4304 -0.1276 0.01543 -0.2825 0.1526 0.2096
0.4077 -0.451 -0.002293 -0.6494 -0.2124 0.534 -0.3723 0.0662
-0.1802 -0.18 0.2035 -0.766 1.12 0.01418 -0.2686 -0.3828
-0.4543 -0.561 1.013 1.637 0.2786 0.3386 -1.127 -0.1837
0.7114 -0.84 -0.6357 0.1687 0.0681 -0.4614 0.2428 0.422
-0.0344 -0.614 -1.262 0.6426 0.4233 0.577 0.438 0.0868
-0.1309 0.1749 -0.191 -0.5947 0.3794 0.9746 -0.1823 0.6113
-0.3535 -0.1488 -0.3743 0.4402 -0.001792 0.3508 -0.04636 0.1124
0.3535 -0.1222 -0.0874 -0.2026 0.1912 0.2908 -0.2389 -0.1329
0.6567 -0.2712 -0.7505 -0.4111 0.923 -0.4695 -0.235 0.2395
-0.2448 0.3674 0.439 -0.4263 0.7183 -0.8696 0.722 -0.705
0.2742 0.433 -0.7183 0.4111 0.06 -0.10767 0.6494 -0.556
1.066 -0.516 0.03787 -0.9087 -0.4663 -0.71 0.6494 0.12305
0.1121 -0.423 0.1738 -0.5615 -0.2888 -0.7773 -0.2517 0.748

model/lstm/while/lstm_cell_4/MatMul_5 f2 [32, 32]
00000000: 112e ad2e 2ba0 ff34 1bad 2415 31b6 0738
00000010: a133 4532 252d bb35 fa39 3eb1 2837 9b39
00000020: 47b4 3b2a a62d 1633 ce32 ee37 b32d 86a7
00000030: ce36 05b4 37b6 4336 6a33 c9b4 8638 0cb7
00000040: 52b1 fe32 0534 d0ab ba26 0db7 b630 392f
00000050: a9b7 8e32 2434 b6b4 edb5 1eb6 bd35 43b2
00000060: 8d31 a8b4 392e d430 b033 4626 9eb5 7838
00000070: 4bb1 c7b4 e531 4531 77b2 8536 8f33 cdae
00000080: 4a36 373a 5d32 1f2c 0739 43ad 2caa 4034
00000090: 27a8 d0b0 1bb0 a8ac 73b7 0d31 49af 302e
000000a0: 1a32 5030 75b4 5db9 87b2 d32d 4cb3 2ab7
000000b0: 3533 0037 c338 7eac 7da9 f4b5 f1ad 88b3
000000c0: c935 8b2e d32b cb30 8fb1 8823 93b2 822a
000000d0: 9b2f ca32 7536 0599 66a1 baaa 5d2a bd2e
000000e0: 4724 db31 60b5 7eac 9730 6933 efb2 5028
000000f0: c52c ab2f 3730 4c2f bbb0 a330 eaae 1aae
00000100: dbb2 c13a 1da9 1d30 52a9 9334 20ab 47a8
00000110: 7db4 6335 cfb8 5026 4f3a b836 37b6 9bb7
00000120: 10b9 6334 7338 0831 ce32 6234 23b7 1834
00000130: c830 3937 1639 80ab a9b4 5d37 d8b4 381b
00000140: 3b2c 3cb2 71b3 49b0 15af 3eb2 26b8 df24
00000150: 0bb9 cb33 6338 8cac 0b34 8832 8124 e523
00000160: d339 46b8 f534 7cb2 cc30 4bbb 682a a63a
00000170: d438 eb9c 9dba 6d30 69ae afb6 3538 352b
00000180: 1b2a fc30 9caa 4135 bf2b 90b5 2135 6334
00000190: 232b 8f31 1fa9 51b7 c52f f835 7031 d535
000001a0: 6927 4a34 792c a032 8130 3934 4925 ba2b
000001b0: 6a2e f435 902e 382d be2f acb0 75b4 a6a2
000001c0: e1b0 95b7 0d2c 3832 fd34 70b9 ca9f 2534
000001d0: 5db6 a438 d638 3d37 67b0 b62e 383c 7421
000001e0: 8bb8 d533 7bae 6c36 dc37 1dab 062a 2bbc
000001f0: 7532 fc31 3f36 bca9 02b4 f9b9 73a9 c2bb
0.0948 0.1043 -0.00814 0.3123 -0.0798 0.001255 -0.387 0.5034
0.2384 0.1959 0.0804 0.3582 0.747 -0.1638 0.4473 0.7007
-0.2673 0.04868 0.08826 0.2214 0.2126 0.4956 0.08905 -0.02939
0.4253 -0.2512 -0.3884 0.3914 0.2317 -0.299 0.5654 -0.4404
-0.1663 0.2185 0.2512 -0.06104 0.02628 -0.4407 0.1472 0.11285
-0.4788 0.2048 0.2588 -0.2944 -0.3704 -0.3823 0.3586 -0.1957
0.1735 -0.291 0.0972 0.1509 0.2402 0.0245 -0.351 0.5586
-0.1654 -0.2986 0.1842 0.1647 -0.202 0.4075 0.2362 -0.10626
0.393 0.777 0.1989 0.0644 0.6284 -0.0822 -0.04822 0.2656
-0.03244 -0.1504 -0.1283 -0.07275 -0.4656 0.1578 -0.11383 0.0967
0.1907 0.1348 -0.2786 -0.6704 -0.204 0.091 -0.228 -0.4478
0.2252 0.4375 0.595 -0.0702 -0.04288 -0.372 -0.09283 -0.2354
0.3616 0.10223 0.06113 0.1498 -0.1737 0.01471 -0.2054 0.05084
0.11884 0.2122 0.4036 -0.00245 -0.010544 -0.05255 0.0497 0.1053
0.01671 0.183 -0.336 -0.0702 0.1434 0.2316 -0.2167 0.0337
0.0745 0.1198 0.1317 0.114 -0.1478 0.1449 -0.10803 -0.09534
-0.2142 0.844 -0.03995 0.1285 -0.04156 0.286 -0.05566 -0.03342
-0.2805 0.3367 -0.601 0.02466 0.7886 0.42 -0.3884 -0.4753
-0.633 0.2742 0.556 0.1572 0.2126 0.274 -0.446 0.2559
0.1494 0.4514 0.6357 -0.0586 -0.2913 0.4602 -0.3027 0.003525
0.0661 -0.1948 -0.2325 -0.1339 -0.11066 -0.1951 -0.5186 0.01903
-0.6304 0.2435 0.5483 -0.07104 0.2527 0.2041 0.0176 0.01542
0.728 -0.534 0.3098 -0.2026 0.1499 -0.9116 0.05005 0.831
0.6035 -0.004803 -0.8267 0.1383 -0.10016 -0.4177 0.526 0.0563
0.0477 0.1558 -0.05164 0.3284 0.06052 -0.3477 0.3206 0.2742
0.05576 0.1737 -0.04 -0.4573 0.1214 0.373 0.1699 0.3645
0.02895 0.268 0.0699 0.207 0.1407 0.264 0.02065 0.06036
0.1002 0.372 0.10254 0.08154 0.121 -0.146 -0.2786 -0.012985
-0.1525 -0.4739 0.0633 0.1943 0.3118 -0.6797 -0.007607 0.259
-0.3977 0.58 0.6045 0.4524 -0.1376 0.10486 1.055 0.01065
-0.568 0.2448 -0.10126 0.4014 0.4912 -0.05557 0.04706 -1.042
0.2018 0.187 0.3904 -0.0448 -0.2505 -0.7466 -0.04257 -0.9697

model/lstm/while/lstm_cell_4/MatMul_6 f2 [32, 32]
00000000: e928 9234 f2b3 2e34 ff2b 78ae 2cae 7cb6
00000010: 3638 0ab6 9f33 33a4 3635 d8ad dbb4 ef2e
00000020: 7334 9638 8934 c633 3639 b936 1a28 1bb5
00000030: b738 ccad 25b1 ff34 9430 1834 1aae 02a5
00000040: 4a9e c32f 7831 a8b6 fab0 0ab8 1437 8e30
00000050: aeb3 5038 3a36 7bb4 46b4 c82a 6533 4cb3
00000060: b335 57b4 9eb2 6cb6 0f34 472d 0fb3 bcb0
00000070: 8d30 6db5 3f2a d3b0 b4ba d614 f6b1 7130
00000080: 9d2f 792d 3ea5 8228 dd31 5630 00ac 3fb7
00000090: 4db0 1138 daac 0d34 ec24 d135 df2f fe3b
000000a0: b7b0 ae30 92af e4b7 91b5 b2aa 72b4 c1ab
000000b0: f030 0839 b739 f630 c99f e0b4 1527 e432
000000c0: 6a2e 7f31 6d2e f929 bbb2 8b2c dab6 e32e
000000d0: 4ea7 ee2d 1736 4631 a72c 1b23 7ca4 ce30
000000e0: dbac d6a3 dfb5 19b4 c424 e031 bbb4 4618
000000f0: 5232 a12c 5836 462c 18a6 1834 5e2b 1bad
00000100: e12a e7b3 c5b7 65b4 f732 2131 a2b4 21b9
00000110: 4433 34bb 403a 112d 7728 d5b5 d4ae a237
00000120: c921 a7b5 12b6 8bb1 ed2d 18b2 0633 f42e
00000130: 19ac 5031 3aa8 3935 a130 062c ba35 0f31
00000140: a3ac 3229 00b2 d32a ea2c 68ab fb20 efaf
00000150: 3c35 7232 69b0 6538 8132 62a9 1f35 4bb1
00000160: beb1 37b0 b537 fd27 462e 95b2 36b8 3ab5
00000170: f534 8ebb c41b 1cac 4034 ae27 5cb6 8fa6
00000180: e92b 9aae 41b1 62a9 17b8 cd34 ca31 6e30
00000190: 8eaf 36af 8ab1 71b3 4a2e 7d2a 2a32 16b2
000001a0: eca2 0536 ef2a 5d2a 6f25 edb4 3f31 602c
000001b0: 97b4 3435 c1af cdb1 26ae b732 0db8 46a2
000001c0: c534 2e3c 2e2d e6b3 e2b0 5730 6cae 2dba
000001d0: 99b3 02b4 ca33 c12d f128 dc2e 8cb0 21ac
000001e0: 7428 a6b5 d5b6 44b4 0c33 1936 6e32 4fac
000001f0: 13b5 8e31 043c 8a30 16b0 83b0 bbb5 fab4
0.03836 0.2856 -0.2483 0.2612 0.06247 -0.1011 -0.09644 -0.4053
0.5264 -0.3774 0.2382 -0.0164 0.3257 -0.0913 -0.3035 0.10834
0.278 0.573 0.2834 0.2429 0.6514 0.4202 0.03204 -0.319
0.5894 -0.0906 -0.1608 0.3123 0.1431 0.2559 -0.09534 -0.01956
-0.00614 0.1213 0.1709 -0.416 -0.1555 -0.505 0.4424 0.1423
-0.24 0.539 0.3892 -0.28 -0.267 0.05298 0.2311 -0.228
0.3562 -0.2712 -0.2068 -0.4014 0.2537 0.08246 -0.2206 -0.148
0.1422 -0.339 0.0488 -0.1508 -0.838 0.001181 -0.1863 0.1388
0.11896 0.0855 -0.02048 0.03522 0.1832 0.1355 -0.0625 -0.453
-0.1344 0.5083 -0.0758 0.2532 0.01923 0.3635 0.123 0.999
-0.1473 0.1462 -0.1183 -0.4932 -0.348 -0.0523 -0.2778 -0.06058
0.1543 0.629 0.7144 0.155 -0.007603 -0.3047 0.02766 0.2153
0.1002 0.1718 0.1004 0.04666 -0.2103 0.071 -0.4282 0.1076
-0.02853 0.09265 0.3806 0.1648 0.0727 0.01388 -0.01752 0.1501
-0.07587 -0.015305 -0.367 -0.256 0.01862 0.1836 -0.2957 0.002087
0.1975 0.0723 0.3965 0.0668 -0.0238 0.2559 0.05756 -0.0798
0.05374 -0.247 -0.4856 -0.2747 0.2177 0.1603 -0.2896 -0.641
0.227 -0.9004 0.7812 0.07916 0.03488 -0.3645 -0.1067 0.477
0.0113 -0.3533 -0.3794 -0.1732 0.0926 -0.1904 0.2195 0.10864
-0.064 0.166 -0.03302 0.3264 0.1447 0.06287 0.358 0.1581
-0.07245 0.0406 -0.1875 0.0533 0.0768 -0.05786 0.00973 -0.12396
0.3271 0.2014 -0.1378 0.5493 0.2032 -0.04205 0.32 -0.1654
-0.1794 -0.1317 0.4817 0.0312 0.098 -0.2057 -0.5264 -0.3267
0.3098 -0.9443 0.003792 -0.0642 0.2656 0.03 -0.3975 -0.02562
0.0618 -0.10315 -0.1642 -0.04205 -0.511 0.3 0.1809 0.1384
-0.11804 -0.1127 -0.1731 -0.2325 0.09827 0.0507 0.1926 -0.1902
-0.01352 0.3762 0.05417 0.0497 0.02122 -0.3079 0.164 0.06836
-0.2869 0.3252 -0.12115 -0.1813 -0.09607 0.2098 -0.5063 -0.01225
0.298 1.045 0.08093 -0.2468 -0.1526 0.1356 -0.10034 -0.772
-0.2374 -0.2505 0.2434 0.0899 0.0386 0.1072 -0.1421 -0.0645
0.0348 -0.353 -0.427 -0.2666 0.2202 0.381 0.2009 -0.0673
-0.3171 0.1736 1.004 0.1418 -0.1277 -0.141 -0.3582 -0.311

model/lstm/while/lstm_cell_4/MatMul_7 f2 [32, 32]
00000000: d438 ad38 bb38 42b9 24af d5b0 9eaf 4430
00000010: 09b3 c5a9 9b2d 9db6 5135 d2ab c22d 4a36
00000020: f9b3 9926 ee24 759d 212b 55ad 7bbc 7f34
00000030: db36 b131 f92c edb0 a1ae 4f39 0b39 81b4
00000040: e8b0 1938 7eb1 a3b7 89b5 522f f3b2 4cb4
00000050: e8af 56b6 7cb9 eaab 52ba 98b3 aab8 e8b2
00000060: bd2e 75b3 8d38 12b2 de36 a2ad e5b9 6333
00000070: ceb4 5435 9538 dfac 6caf e82e 4db5 64a6
00000080: 7c3c 71b4 493c e1b8 093e ceb2 3cb6 85b8
00000090: f236 1c3b dbb6 253d 0034 cb38 e5ae 4c35
000000a0: c532 c239 d6b6 5534 292f 713b e038 dfb5
000000b0: 852f 20ae debb 1a3a f336 29b9 76b7 3e2f
000000c0: e5b9 56b7 1737 943e 292d 9b3b 263d acbc
000000d0: 86b2 ef38 d5ba 5db0 d0ba 113e 49b5 e3a8
000000e0: 853a 7e38 e039 dfac 8bb9 70bb 4b35 6331
000000f0: 4436 f3b0 e6bd f7b5 6b30 3a37 fe2f 333c
00000100: 0eb9 3138 9834 1734 5eb9 adbb 0430 c1b6
00000110: d6af 4c38 7aba 56b8 113c 4d37 51ba f83e
00000120: f139 0fb7 d4b0 00bb a6b7 cab2 8238 542e
00000130: 4238 95b6 66b4 a5b3 8bb4 302f 0fb6 903b
00000140: 30bc 9936 fa35 dbad 36b7 e4bc 6d34 e9b4
00000150: 8635 1433 42b6 4829 8834 9ab5 ae33 0039
00000160: be37 04bd 49af 0cb2 1eb4 8cb7 f433 242f
00000170: 3438 efb4 6cb3 732c 16b9 b9b2 33b3 7138
00000180: 342f 4bb1 4eac 5938 dea9 32ad 522b 1638
00000190: 06b4 9f31 8ba9 78b7 4a33 862d 6d35 1938
000001a0: 36b1 6934 38b3 fe34 9934 0129 96b9 fb32
000001b0: de27 ef34 aaa4 f830 cb28 2131 6fb0 1da1
000001c0: c5b4 e9ba 34bb 2cb8 da2a f62d 4cb4 c73b
000001d0: 5ab6 15ac f538 5fab 5bb1 6230 7038 29b9
000001e0: fcb4 b3b0 5037 2b36 8ab1 7fb0 8a38 58ba
000001f0: c832 9e3a 2c38 86b0 7930 11bd 36b1 c4b6
0.6035 0.5845 0.5913 -0.657 -0.1116 -0.151 -0.119 0.1333
-0.2198 -0.04507 0.0876 -0.4133 0.3323 -0.0611 0.08997 0.393
-0.2491 0.02577 0.01926 -0.00533 0.0557 -0.0833 -1.12 0.281
0.4285 0.1779 0.0777 -0.1539 -0.1036 0.6636 0.6304 -0.2815
-0.1533 0.512 -0.1716 -0.4773 -0.346 0.1144 -0.2172 -0.2686
-0.12354 -0.396 -0.6855 -0.06183 -0.79 -0.2373 -0.583 -0.2158
0.1053 -0.233 0.569 -0.1897 0.4292 -0.088 -0.737 0.2308
-0.3003 0.333 0.5728 -0.0761 -0.11597 0.1079 -0.3313 -0.02496
1.121 -0.2776 1.071 -0.61 1.509 -0.2126 -0.3896 -0.565
0.434 0.8887 -0.4285 1.286 0.25 0.599 -0.1077 0.331
0.2115 0.7197 -0.4272 0.2708 0.1119 0.93 0.6094 -0.367
0.1175 -0.0957 -0.9834 0.7627 0.4343 -0.645 -0.4663 0.11316
-0.737 -0.4585 0.443 1.645 0.0806 0.9507 1.287 -1.168
-0.2039 0.6167 -0.854 -0.1364 -0.8516 1.517 -0.3303 -0.03818
0.815 0.5615 0.7344 -0.0761 -0.693 -0.9297 0.3308 0.1683
0.3916 -0.1547 -1.475 -0.3728 0.1381 0.4517 0.1249 1.05
-0.632 0.524 0.287 0.2556 -0.671 -0.9595 0.1255 -0.422
-0.12244 0.537 -0.8096 -0.542 1.017 0.4563 -0.7896 1.742
0.7427 -0.4412 -0.1509 -0.875 -0.478 -0.2122 0.5635 0.0989
0.532 -0.4114 -0.275 -0.2389 -0.284 0.1123 -0.3787 0.9453
-1.047 0.4124 0.3735 -0.0915 -0.4507 -1.223 0.2766 -0.307
0.3452 0.2212 -0.391 0.04126 0.2832 -0.35 0.24 0.625
0.484 -1.254 -0.11383 -0.189 -0.2573 -0.4717 0.2485 0.1116
0.5254 -0.3083 -0.2319 0.0695 -0.6357 -0.2101 -0.225 0.555
0.11255 -0.1654 -0.06726 0.5435 -0.04584 -0.0812 0.0572 0.5107
-0.2515 0.1757 -0.0433 -0.4668 0.2278 0.0863 0.339 0.512
-0.1628 0.2756 -0.2256 0.312 0.2874 0.0391 -0.698 0.2181
0.03073 0.3083 -0.01822 0.1553 0.03745 0.1603 -0.1385 -0.00999
-0.298 -0.864 -0.9004 -0.5215 0.05353 0.09314 -0.2686 0.972
-0.397 -0.0638 0.6196 -0.0576 -0.1674 0.137 0.5547 -0.645
-0.3115 -0.1469 0.457 0.3855 -0.1731 -0.1405 0.5674 -0.793
0.2119 0.827 0.5215 -0.1414 0.1398 -1.267 -0.1628 -0.4229

model/lstm/while/lstm_cell_4/split_1 f2 [32]
00000000: e5b7 71b7 b3b5 5f28 d6b7 21b8 01b9 a3ba
00000010: 0eb8 edb8 a9b8 0cb4 d7a8 d4b8 bdb9 2bb9
00000020: 1cb6 d2b7 feae 2db4 09b7 13b5 31b7 7bb9
00000030: 03b7 34b7 c0b7 2b3f d9b4 70b3 82b8 59b4
-0.4934 -0.465 -0.3562 0.03415 -0.4897 -0.516 -0.6255 -0.8296
-0.507 -0.6157 -0.5825 -0.253 -0.0378 -0.6035 -0.7173 -0.646
-0.3818 -0.4888 -0.10925 -0.261 -0.4397 -0.3171 -0.4495 -0.685
-0.4382 -0.4502 -0.4844 1.792 -0.303 -0.2324 -0.5635 -0.2717

model/lstm/while/lstm_cell_4/split_11 f2 [32]
00000000: 003d 203c 4b3c 513f 3a3c 973a 933c 193d
00000010: c33c 5f3b 993c aa3e 5f3d f43a f23a 143d
00000020: 743c 833c c33f 373b c23d 973c 473d c73b
00000030: 903b 9d3c 783b 9440 dd3c d13b 103b 6b3b
1.25 1.031 1.073 1.829 1.057 0.8237 1.144 1.274
1.19 0.9214 1.149 1.666 1.343 0.869 0.868 1.27
1.113 1.128 1.94 0.902 1.439 1.147 1.319 0.972
0.9453 1.153 0.9336 2.29 1.216 0.977 0.883 0.9272

model/lstm/while/lstm_cell_4/split_12 f2 [32]
00000000: 6c34 5fb0 862f 4d33 14a9 cdaf 10b3 f232
00000010: 5831 8d9f 3830 1a99 8235 fcb0 abac 4a33
00000020: b2b4 be30 3730 162f e534 7435 74b0 51a9
00000030: 3fa8 a4a4 bf2d 8638 51b0 4527 70b1 15b3
0.2764 -0.1366 0.11755 0.2281 -0.03967 -0.1219 -0.2207 0.217
0.167 -0.007374 0.1318 -0.002491 0.3442 -0.1558 -0.07294 0.2278
-0.2935 0.1482 0.1317 0.1107 0.306 0.3408 -0.1392 -0.04153
-0.03317 -0.01813 0.0898 0.5654 -0.1349 0.0284 -0.1699 -0.2213

model/lstm/while/lstm_cell_4/split_13 f2 [32]
00000000: 8825 a5b3 44b1 16b7 dbb2 76b3 4e36 8cac
00000010: fe9c ef22 a12f 71b1 6fb7 6db3 b6b9 1433
00000020: 08ae 92ad 47b6 8fab ceb1 3127 f3ac 01aa
00000030: d8b4 28a9 f22d d3b5 41ac 2bb6 1cb8 2ea7
0.0216 -0.2389 -0.1646 -0.4429 -0.2142 -0.2332 0.394 -0.07104
-0.004875 0.01354 0.1192 -0.17 -0.4646 -0.232 -0.714 0.2212
-0.09424 -0.08704 -0.3923 -0.05905 -0.1814 0.02809 -0.07733 -0.0469
-0.3027 -0.04028 0.0929 -0.364 -0.06647 -0.3855 -0.5137 -0.02805

model/lstm/while/lstm_cell_4/MatMul f2 [32, 1152]
00000000: a5a9 d62c 11aa bfac 7bae 0724 ea1d bea8
00000010: 3a9e 2ead e62f 6da1 3024 092d 35b0 ec25
00000020: 48b2 f6b4 35ad 8f2a 042c e4aa a030 a0b0
00000030: 49a7 c3a9 d29c 25b0 f2a4 c725 442e 8131
00000040: 7ab0 82b0 c02b dcb3 8d27 86b1 3e21 7719
00000050: 8f30 e61c 4325 9025 b7ab bdab 85a9 f7ae
00000060: 6fb1 11b1 bd2f 29ae d828 c7a4 851e 1ea3
00000070: 85b2 85ac 8eac a028 53b0 65ac 53ac cfa6
00000080: 08ad 9aa9 511f 0eb0 45aa 8db4 e82a 6c2e
00000090: 47a8 afad 12b4 7f29 bfb1 5520 7fb2 ffb2
000000a0: 7b2d b0ae a197 acb0 252d 17ae a8a5 c0a6
000000b0: bca6 9cae acb2 5a2c 95ad 33b0 dc24 362e
000000c0: f32c 94a8 c9ab 8ca6 e128 8ba7 27ad 8bb1
000000d0: 222a 3c24 f3ae a328 3126 c731 49ab 8bab
000000e0: 17aa c8a4 bf2c 20ad f819 2ca6 192e 942d
000000f0: 7f28 169e e4a9 2326 712a 6430 0ea0 2731
00000100: a32a bc2f 7a2d bbae beaf 8c25 c0b0 fc24
00000110: ed2d 1fab ba25 4aaa dc27 27a9 192c 4f2b
00000120: 952d b1ad c2a7 c0a0 11a5 5931 fcb1 42b0
00000130: 02b1 1fac 322f c4b0 f6a6 cfaa a029 54a9
00000140: 309f cba1 3c20 a930 8aa1 08b1 9cad 252d
00000150: e5b0 8425 ee2e f3a0 d6ac b025 00b1 c2ae
00000160: 56b0 80a7 95a3 6996 3e25 3a2e 10ad 429c
00000170: 7b22 e12c 1baa 9f0d cb2a 141c 2d2b 48ac
00000180: 19a5 d225 c41c e4a9 5aa5 0c94 16a6 4d97
00000190: 8d22 2d1e 7ea1 bbad 5aa9 0f21 b69e 6f2b
000001a0: f6a6 b8a1 a61c 84ac 3ba4 6792 ad23 e520
000001b0: fba4 2a1e d928 03ac 5bac 3f21 d0ae df28
000001c0: 5a98 7826 df1c f6a4 7298 7414 e32c 2ea3
000001d0: e2ad 531e d72d f5a9 c9a5 7c21 82af 3aa8
000001e0: d625 e528 201d 1bac e8a5 9b18 dc2a 40a5
000001f0: 0cb1 781e ca2b 251a d6a8 8521 4da7 482a
-0.0441 0.07556 -0.0474 -0.07416 -0.10126 0.01573 0.005775 -0.03705
-0.00608 -0.08093 0.1234 -0.0106 0.01636 0.0787 -0.1315 0.02313
-0.1963 -0.31 -0.08136 0.05124 0.06274 -0.05383 0.1445 -0.1445
-0.02846 -0.045 -0.004707 -0.1295 -0.01932 0.02257 0.0979 0.172
-0.1399 -0.1409 0.06055 -0.2456 0.0295 -0.1726 0.01024 0.002668
0.1425 0.004784 0.02055 0.02173 -0.06027 -0.06046 -0.04312 -0.1088
-0.1698 -0.1583 0.1209 -0.09625 0.03784 -0.01866 0.006367 -0.0139
-0.2037 -0.0706 -0.07117 0.03613 -0.1351 -0.06866 -0.06757 -0.0266
-0.0786 -0.04376 0.007145 -0.1267 -0.04898 -0.2844 0.05396 0.10034
-0.03342 -0.0888 -0.2544 0.04294 -0.1796 0.00846 -0.203 -0.2186
0.08563 -0.1045 -0.001863 -0.146 0.0804 -0.09515 -0.0221 -0.02637
-0.0263 -0.1033 -0.2085 0.068 -0.0872 -0.1312 0.01898 0.09705
0.07733 -0.03577 -0.06082 -0.02557 0.03812 -0.02946 -0.0805 -0.1732
0.0479 0.01654 -0.1086 0.03622 0.02419 0.1805 -0.05692 -0.05893
-0.04758 -0.01868 0.07416 -0.0801 0.002914 -0.02411 0.0953 0.08716
0.03513 -0.005943 -0.04602 0.02397 0.05032 0.1372 -0.00792 0.161
0.05185 0.12085 0.0856 -0.10516 -0.121 0.02167 -0.1484 0.01947
0.0926 -0.05563 0.02237 -0.04913 0.0307 -0.04025 0.064 0.0571
0.0872 -0.0889 -0.0303 -0.00928 -0.01979 0.1671 -0.187 -0.133
-0.1565 -0.0644 0.1124 -0.1489 -0.02719 -0.0532 0.04395 -0.04163
-0.00702 -0.011314 0.00827 0.1456 -0.01082 -0.1572 -0.08765 0.0804
-0.153 0.02155 0.1083 -0.00967 -0.07556 0.02222 -0.1562 -0.1056
-0.1355 -0.0293 -0.01481 -0.001565 0.02048 0.0973 -0.0791 -0.004158
0.01266 0.07623 -0.0477 0.000343 0.05307 0.003983 0.05606 -0.0669
-0.01991 0.02274 0.004654 -0.04602 -0.0209 -0.000988 -0.02377 -0.001782
0.012794 0.00603 -0.01073 -0.08954 -0.0418 0.00988 -0.006554 0.05807
-0.02719 -0.01117 0.00454 -0.07056 -0.01653 -0.0007815 0.01499 0.00956
-0.01945 0.00602 0.03787 -0.0627 -0.06805 0.01025 -0.10645 0.03806
-0.002125 0.02527 0.004757 -0.01938 -0.00217 0.001087 0.07635 -0.01402
-0.0919 0.006176 0.09125 -0.04654 -0.0226 0.01071 -0.1173 -0.03302
0.0228 0.03824 0.005005 -0.06415 -0.02307 0.002249 0.0536 -0.02051
-0.1577 0.006317 0.06085 0.003 -0.03778 0.01078 -0.02852 0.04907

model/lstm/while/lstm_cell_4/MatMul_1 f2 [32, 1152]
00000000: d8ab 7431 1aad 47aa 1faf a02c 4fab d6af
00000010: e229 462c a2a8 8c28 5da9 2422 d928 0727
00000020: e52b 4a30 6fae 782f 3ba4 3630 252c f2b1
00000030: 90ab 94a8 2324 7226 2b23 9da4 fe24 ff30
00000040: b728 20ae 951d adb0 151a 62ab 19b0 ac2f
00000050: bd18 ebac 0aac 03af 22b0 adab 5cae 10ac
00000060: 46b2 7eae 2228 9daf ffac 31b0 69a8 c431
00000070: bfac c12a b6a8 3e2d 4eac 00b5 a8b0 3733
00000080: 8925 b0ab 57ad 8ba9 c79f 42ab 9d29 28ac
00000090: 022e b724 32ad b9a6 dcab e5a7 cf24 2aa2
000000a0: 56a8 e42d 1aa1 d39d fc28 9c9a b9aa 61ab
000000b0: 9d18 5d2d 4921 722c 132d 2229 d1a5 4da8
000000c0: 06a7 25ad f12e 762e 93a9 7ba9 5523 4c28
000000d0: 68ad 899c 602b d022 07ab 0ea3 f928 102c
000000e0: e924 7fa7 2727 4032 2028 701b 3fab df2e
000000f0: eda8 81ac 302e de9d 992c be22 9fa5 0a26
00000100: 6eb0 a3b2 042a 59ad 06aa ffa4 84a5 fa35
00000110: dea8 4ba1 99b3 f6a7 a89d f52e 42a9 16ae
00000120: 40b1 37b4 ea2a fbae a526 9aac eba9 a22c
00000130: 7cb0 9d20 4ca1 78b4 08a7 52b3 96ae e9b4
00000140: 7cb1 8328 1126 3530 1dae 0c9c cea2 08ab
00000150: bc2c ad15 e6b2 902c 889a 3ca5 002a 39ad
00000160: 5aa5 c92b e314 3228 021d 3134 2632 9fad
00000170: c232 462c a52f 91a1 2cad 552c 272d b0ac
00000180: 449f 44a8 7c96 5c28 4226 579d 4626 9128
00000190: 75a2 ab0b 4726 c321 6328 b120 0228 1c27
000001a0: 6a9a 319a ac96 a79b 0b29 bc9c ad90 e029
000001b0: 2017 9209 3723 4a26 25a9 b820 b02a b12b
000001c0: 2ba4 35af fd95 8025 172a 829c 7a24 942a
000001d0: e5a8 ff0c 4a28 6118 20ad 7b20 f7a8 ed21
000001e0: 069d c1ac 9e94 1122 202a 3c9c f824 9f27
000001f0: efa4 5310 cd22 b41a 02ab 2620 87a8 72a7
-0.06128 0.1704 -0.0797 -0.04904 -0.11127 0.07227 -0.0571 -0.12244
0.04596 0.0668 -0.0362 0.03552 -0.0419 0.01199 0.03787 0.02745
0.06168 0.134 -0.1005 0.1167 -0.01653 0.1316 0.06476 -0.1858
-0.05908 -0.03577 0.01616 0.02518 0.014 -0.01802 0.0195 0.1561
0.03683 -0.0957 0.00545 -0.1461 0.00297 -0.05768 -0.128 0.1199
0.002314 -0.07684 -0.0631 -0.10956 -0.1292 -0.05997 -0.09937 -0.0635
-0.196 -0.10144 0.0323 -0.11896 -0.07806 -0.131 -0.03445 0.1802
-0.07416 0.05276 -0.0368 0.0819 -0.06726 -0.3125 -0.1455 0.2255
0.02162 -0.06006 -0.08344 -0.0433 -0.007595 -0.0567 0.04385 -0.06494
0.0939 0.01842 -0.0812 -0.02626 -0.0614 -0.03084 0.01878 -0.01204
-0.03387 0.09204 -0.009964 -0.005688 0.03894 -0.003227 -0.05252 -0.05765
0.002253 0.0838 0.01032 0.06946 0.0793 0.0401 -0.02272 -0.0336
-0.02744 -0.0804 0.10846 0.10095 -0.04355 -0.04282 0.01432 0.03357
-0.0845 -0.00443 0.05762 0.013306 -0.0549 -0.01378 0.03885 0.0635
0.01918 -0.02928 0.02794 0.1953 0.03223 0.003632 -0.0566 0.10736
-0.03848 -0.0704 0.0967 -0.00573 0.07184 0.01317 -0.02196 0.02359
-0.1384 -0.2074 0.047 -0.08356 -0.04706 -0.01952 -0.02155 0.3735
-0.03802 -0.01034 -0.2374 -0.0311 -0.005524 0.1087 -0.04108 -0.0951
-0.1641 -0.2634 0.05402 -0.1091 0.02596 -0.0719 -0.04623 0.0724
-0.1401 0.00901 -0.010345 -0.2793 -0.02747 -0.2288 -0.1029 -0.307
-0.1714 0.03525 0.0237 0.1315 -0.0955 -0.003952 -0.01329 -0.05493
0.074 0.001386 -0.2156 0.0713 -0.00319 -0.02045 0.04688 -0.0816
-0.0209 0.06082 0.001193 0.03278 0.00489 0.262 0.1921 -0.0878
0.2112 0.0668 0.11945 -0.01087 -0.0808 0.0677 0.0805 -0.07324
-0.007095 -0.03333 -0.001583 0.03406 0.02444 -0.005215 0.0245 0.03568
-0.01261 0.000234 0.02452 0.01125 0.03427 0.00916 0.0313 0.02777
-0.003132 -0.003023 -0.001629 -0.003736 0.0394 -0.004623 -0.000571 0.0459
0.0017395 0.00017 0.01409 0.02457 -0.0402 0.00922 0.05225 0.0601
-0.01628 -0.1126 -0.001462 0.02148 0.04758 -0.004402 0.01749 0.0514
-0.03824 0.000305 0.0335 0.002138 -0.0801 0.00875 -0.0388 0.01157
-0.004906 -0.0743 -0.001127 0.01185 0.04785 -0.004135 0.01941 0.02977
-0.01927 0.000528 0.01328 0.003273 -0.05475 0.0081 -0.03537 -0.02908
