HPC_Final_Study2_Complete_Test_Class_Balance/participants_session_transfer_train_fresh_model/participant_11/session_3/session_3_lite_models/indexpen_model.tflite (tflite, 573028 bytes, 29 tensors)

model/time_distributed_6/conv2d_1/BiasAdd;model/time_distributed_6/conv2d_1/Conv2D;model/time_distributed_6/conv2d_1/BiasAdd/ReadVariableOp/resource f4 [16]
00000000: b528 bb3d 316b d73c 8579 9b3d a2dc a33d
00000010: 25c4 c83c 17f4 4d3d 1baa cb3c 3d6f 8f3d
00000020: 6279 60bc f8b8 423d 8791 733d 6352 bc3d
00000030: c1a2 2c3b f876 963d e48f bb3d f864 153d
0.091386236 0.02629623 0.075915374 0.08001067 0.024507592 0.05028161 0.024861386 0.07003639
-0.013700815 0.04753968 0.059464958 0.091954015 0.0026342126 0.0734691 0.09158304 0.036473244

model/time_distributed/conv2d/BiasAdd;model/time_distributed/conv2d/Conv2D;model/time_distributed/conv2d/BiasAdd/ReadVariableOp/resource f4 [8]
00000000: 9fac 69bd c8d2 41bd 54b0 b5bd 3a35 c9bc
00000010: a6a0 14bd fcc5 07be 7e13 17be 64c8 513b
-0.05704939 -0.047320157 -0.088715225 -0.024561513 -0.03628602 -0.13259119 -0.1475353 0.0032010311

model/time_distributed_6/conv2d_1/Conv2D f4 [16, 3, 3, 1]
00000000: 4bc5 0c3d e569 2f3d b635 80bd 7dba 863c
00000010: 66ac 043d 1e2c e8bc 3beb 5ebd 2246 253d
00000020: 7703 373c 8066 93bc 077a b53d 3da8 a5bd
00000030: 9235 9cbd 59b2 453e bcd1 e1bd 3f13 9d3b
00000040: 67b3 febd 2d4d fe3d 4a9c 6a3d 5b1a 4ebe
00000050: 7cf5 083e da31 843d edda 413d 910f debd
00000060: e56c 1ebd bf2e e23c d300 293c 0a1d 65ba
00000070: 319f 743d fd8e cabc 78e7 8db8 1c1d 36bc
00000080: 0a03 4ebc 697d 963c ea8e a6bc aec7 933c
00000090: fa3e 853c 9a7f 16be 3673 0e3e 1d44 ccbc
000000a0: 51c4 6f3d 7fbf 41bd 8878 d7bc 23a9 613d
000000b0: de1a 13bc 6fe7 063e e93d a7bd d420 66bd
000000c0: 7fd0 36bd d123 68bd 9009 b13d f731 e23c
000000d0: 1a39 1f3d 1bcf 61bd 38bf 593d d3c9 f1bd
000000e0: 118f 913d 084e 263b 4abb 993d c6ef abbd
000000f0: 4ab0 1f3c 022c 393d bfe5 69bd 436d abbd
00000100: cfda b83d 11d6 36bc 0652 103d 3925 56bd
00000110: 0cc2 f43c b563 93bd 36dd 313d 7b7b da3c
00000120: 2bb1 bcbc 1fe1 e13b 6129 183c 6597 793d
00000130: 0ba1 d1bd 183d 743d f21f db3d 8e92 32be
00000140: 2d95 923d e70b 4f3d 0b8e bcbd 5e39 423d
00000150: 3385 2d3c 295a f53c 9386 49bd a1ac fb3c
00000160: 160a d53b dc62 4fbc 52d8 c3bd f986 353e
00000170: eb05 b3bd 3bf6 0b3c af53 8a3d f8bc a0bd
00000180: b24a 2fbd d0c8 163e cba6 c4bd a3ca 57bd
00000190: 14f4 623e 3abb 32be 7242 1cbe 1106 eb3d
000001a0: f756 ed3c 94fb e53d a5c4 2dbe d148 6e3d
000001b0: a4dc c6bd ad90 453e 4356 b1bd 9bb0 cbbd
000001c0: 08ef 1d3e 211b 7bbd 6eee a9bd 31f7 523e
000001d0: 4981 12be e245 5bbc a86f d13d aa52 7ebd
000001e0: b37b 4f3c 06b5 04be 0990 e23d fbca 7bbb
000001f0: eaeb 2c3d 5aa9 75bc 9bd7 94bc c5e2 95bc
00000200: 3c31 813c ef4d 54bc fd42 d9bc 4c48 393d
00000210: c512 8e3d bdae 0cbe 752c 6e3d d826 953b
00000220: 6606 afbc e56e 343c d469 0ebc f90d ba3c
00000230: f413 cabb e732 913d 771a a2bd 82f9 88bc
0.03436784 0.0428256 -0.062602445 0.016446346 0.032390974 -0.02834135 -0.054423552 0.040350087
0.01117026 -0.017993212 0.088611655 -0.080887295 -0.07627405 0.19306315 -0.11026332 0.004793554
-0.12436562 0.12417064 0.057277955 -0.20127241 0.13374895 0.06454821 0.047327925 -0.10842813
-0.03867807 0.02761018 0.010315138 -0.0008739984 0.05972213 -0.024726385 -6.766518e-05 -0.011115339
-0.012573967 0.018370347 -0.020331819 0.01803955 0.016265381 -0.14697114 0.13911137 -0.024934823
0.05853683 -0.047301766 -0.026302591 0.055092942 -0.008978574 0.13174222 -0.08166105 -0.05618365
-0.04463243 -0.056674782 0.08644402 0.027611716 0.038872816 -0.05512915 0.053160876 -0.11806073
0.07107366 0.00253761 0.07506426 -0.083953425 0.00974662 0.045207985 -0.05710387 -0.083704494
0.090261094 -0.011159436 0.035234474 -0.052281592 0.029877685 -0.07196752 0.043423854 0.026670208
-0.023033699 0.0068932916 0.009287209 0.060935397 -0.10235795 0.059628576 0.106994525 -0.17438719
0.07157359 0.05054846 -0.0920678 0.04741799 0.010590839 0.029950218 -0.049200606 0.030721964
0.0065014465 -0.012657847 -0.09562744 0.17727269 -0.08741363 0.008542593 0.06754243 -0.07848543
-0.042795844 0.14725041 -0.09602126 -0.052683484 0.22163421 -0.17454234 -0.15259722 0.114757665
0.028972132 0.11229625 -0.16969545 0.058174912 -0.097100526 0.1929347 -0.08659031 -0.09945794
0.15423214 -0.06130517 -0.0829743 0.20602109 -0.14307131 -0.013383361 0.10226375 -0.062090553
0.01266377 -0.1295968 0.11062629 -0.0038420546 0.042217173 -0.01499399 -0.018169215 -0.018296609
0.015770547 -0.012958034 -0.0265212 0.045234963 0.06937174 -0.13738532 0.058147866 0.0045517497
-0.021365356 0.011012767 -0.008692224 0.02271174 -0.0061669294 0.07089787 -0.07915204 -0.016720537

model/time_distributed/conv2d/Conv2D f4 [8, 3, 3, 1]
00000000: 6ad2 7ebb 4ad4 74bc a6b7 c239 49bb 9338
00000010: 95f9 cb3b cf1f b8ba 77ad f638 e77b 90bc
00000020: de60 97bb d43c 21ba 2d4b 9dbc d058 b4bb
00000030: 7d13 233b d802 b93b eaa2 943b bc1f debc
00000040: 9c0d b13b bbd7 b83b a824 edbb b4ee 113c
00000050: c808 cfbb e866 bb3b 5034 73bc 4d2e e43a
00000060: e989 b5bb 5230 143c fbcb f8bc 5c00 c73b
00000070: 0e7e ffb9 87d7 1b3c 9e36 9c3b 3a86 7fbc
00000080: 7cef eb3b 5d3d abbb b37b 8dbc e17f 2cbb
00000090: ec76 133c 28ad 49bb c4fd 573c 0ec8 ec3b
000000a0: 84c2 253c 7910 b8bb 739a 5dbc f50b 9d3c
000000b0: c12f 8e3b 2793 993a c0f0 a7ba 646a a6bb
000000c0: 6267 1a3b 887b 9d3b 6e79 40ba f2ff a83c
000000d0: b305 983b fa25 283b bc13 8cbb eebe 673a
000000e0: a878 afbb 7429 2c39 e213 013a d1bd 35bb
000000f0: 21ce 803c 0f21 953b 2f90 d03b 3b5e ff3a
00000100: 9ec5 b4bb 9638 fbbb af54 8abb a131 cfb9
00000110: 0954 e33c 73e9 7bbb 6df6 86bc 7047 1c3b
-0.003888274 -0.014943192 0.00037139392 7.044391e-05 0.006224821 -0.0014047566 0.000117625044 -0.017637206
-0.0046197018 -0.00061507267 -0.019200886 -0.0055037513 0.0024883442 0.005646091 0.0045360224 -0.027114742
0.0054032337 0.0056409515 -0.007237036 0.008907009 -0.0063181855 0.0057190545 -0.014844015 0.0017408818
-0.005540122 0.009044724 -0.030370703 0.006073041 -0.00048731308 0.009511835 0.004767253 -0.015595967
0.0072001796 -0.005225821 -0.017270898 -0.002632134 0.009000521 -0.0030773375 0.013183061 0.007225997
0.010117177 -0.005617198 -0.013525593 0.01917074 0.004339189 0.0011716828 -0.0012812838 -0.0050786007
0.0023560156 0.004805986 -0.0007342313 0.020629857 0.0046393513 0.0025657401 -0.0042748135 0.00088404014
-0.0053549595 0.00016418641 0.0004923922 -0.0027731548 0.01572329 0.00455106 0.0063648443 0.0019483039
-0.005516722 -0.0076666577 -0.004221521 -0.00039519093 0.027750032 -0.0038438707 -0.016474927 0.002384629

model/lstm/TensorArrayV2_1 f4 [120, 1, 32]
00000000: 0000 0000 0000 0000 0000 0000 0000 0000
00000010: 0000 0000 0000 0000 0000 0000 0000 0000
00000020: 0000 0000 0000 0000 0000 0000 0000 0000
00000030: 0000 0000 0000 0000 0000 0000 0000 0000
00000040: 0000 0000 0000 0000 0000 0000 0000 0000
00000050: 0000 0000 0000 0000 0000 0000 0000 0000
00000060: 0000 0000 0000 0000 0000 0000 0000 0000
00000070: 0000 0000 0000 0000 0000 0000 0000 0000
00000080: 0000 0000 0000 0000 0000 0000 0000 0000
00000090: 0000 0000 0000 0000 0000 0000 0000 0000
000000a0: 0000 0000 0000 0000 0000 0000 0000 0000
000000b0: 0000 0000 0000 0000 0000 0000 0000 0000
000000c0: 0000 0000 0000 0000 0000 0000 0000 0000
000000d0: 0000 0000 0000 0000 0000 0000 0000 0000
000000e0: 0000 0000 0000 0000 0000 0000 0000 0000
000000f0: 0000 0000 0000 0000 0000 0000 0000 0000
00000100: 0000 0000 0000 0000 0000 0000 0000 0000
00000110: 0000 0000 0000 0000 0000 0000 0000 0000
00000120: 0000 0000 0000 0000 0000 0000 0000 0000
00000130: 0000 0000 0000 0000 0000 0000 0000 0000
00000140: 0000 0000 0000 0000 0000 0000 0000 0000
00000150: 0000 0000 0000 0000 0000 0000 0000 0000
00000160: 0000 0000 0000 0000 0000 0000 0000 0000
00000170: 0000 0000 0000 0000 0000 0000 0000 0000
00000180: 0000 0000 0000 0000 0000 0000 0000 0000
00000190: 0000 0000 0000 0000 0000 0000 0000 0000
000001a0: 0000 0000 0000 0000 0000 0000 0000 0000
000001b0: 0000 0000 0000 0000 0000 0000 0000 0000
000001c0: 0000 0000 0000 0000 0000 0000 0000 0000
000001d0: 0000 0000 0000 0000 0000 0000 0000 0000
000001e0: 0000 0000 0000 0000 0000 0000 0000 0000
000001f0: 0000 0000 0000 0000 0000 0000 0000 0000
00000200: 0000 0000 0000 0000 0000 0000 0000 0000
00000210: 0000 0000 0000 0000 0000 0000 0000 0000
00000220: 0000 0000 0000 0000 0000 0000 0000 0000
00000230: 0000 0000 0000 0000 0000 0000 0000 0000
00000240: 0000 0000 0000 0000 0000 0000 0000 0000
00000250: 0000 0000 0000 0000 0000 0000 0000 0000
00000260: 0000 0000 0000 0000 0000 0000 0000 0000
00000270: 0000 0000 0000 0000 0000 0000 0000 0000
00000280: 0000 0000 0000 0000 0000 0000 0000 0000
00000290: 0000 0000 0000 0000 0000 0000 0000 0000
000002a0: 0000 0000 0000 0000 0000 0000 0000 0000
000002b0: 0000 0000 0000 0000 0000 0000 0000 0000
000002c0: 0000 0000 0000 0000 0000 0000 0000 0000
000002d0: 0000 0000 0000 0000 0000 0000 0000 0000
000002e0: 0000 0000 0000 0000 0000 0000 0000 0000
000002f0: 0000 0000 0000 0000 0000 0000 0000 0000
00000300: 0000 0000 0000 0000 0000 0000 0000 0000
00000310: 0000 0000 0000 0000 0000 0000 0000 0000
00000320: 0000 0000 0000 0000 0000 0000 0000 0000
00000330: 0000 0000 0000 0000 0000 0000 0000 0000
00000340: 0000 0000 0000 0000 0000 0000 0000 0000
00000350: 0000 0000 0000 0000 0000 0000 0000 0000
00000360: 0000 0000 0000 0000 0000 0000 0000 0000
00000370: 0000 0000 0000 0000 0000 0000 0000 0000
00000380: 0000 0000 0000 0000 0000 0000 0000 0000
00000390: 0000 0000 0000 0000 0000 0000 0000 0000
000003a0: 0000 0000 0000 0000 0000 0000 0000 0000
000003b0: 0000 0000 0000 0000 0000 0000 0000 0000
000003c0: 0000 0000 0000 0000 0000 0000 0000 0000
000003d0: 0000 0000 0000 0000 0000 0000 0000 0000
000003e0: 0000 0000 0000 0000 0000 0000 0000 0000
000003f0: 0000 0000 0000 0000 0000 0000 0000 0000
0.0 0.0 0.0 0.0 0.0 0.0 0.0 0.0
0.0 0.0 0.0 0.0 0.0 0.0 0.0 0.0
0.0 0.0 0.0 0.0 0.0 0.0 0.0 0.0
0.0 0.0 0.0 0.0 0.0 0.0 0.0 0.0
0.0 0.0 0.0 0.0 0.0 0.0 0.0 0.0
0.0 0.0 0.0 0.0 0.0 0.0 0.0 0.0
0.0 0.0 0.0 0.0 0.0 0.0 0.0 0.0
0.0 0.0 0.0 0.0 0.0 0.0 0.0 0.0
0.0 0.0 0.0 0.0 0.0 0.0 0.0 0.0
0.0 0.0 0.0 0.0 0.0 0.0 0.0 0.0
0.0 0.0 0.0 0.0 0.0 0.0 0.0 0.0
0.0 0.0 0.0 0.0 0.0 0.0 0.0 0.0
0.0 0.0 0.0 0.0 0.0 0.0 0.0 0.0
0.0 0.0 0.0 0.0 0.0 0.0 0.0 0.0
0.0 0.0 0.0 0.0 0.0 0.0 0.0 0.0
0.0 0.0 0.0 0.0 0.0 0.0 0.0 0.0
0.0 0.0 0.0 0.0 0.0 0.0 0.0 0.0
0.0 0.0 0.0 0.0 0.0 0.0 0.0 0.0
0.0 0.0 0.0 0.0 0.0 0.0 0.0 0.0
0.0 0.0 0.0 0.0 0.0 0.0 0.0 0.0
0.0 0.0 0.0 0.0 0.0 0.0 0.0 0.0
0.0 0.0 0.0 0.0 0.0 0.0 0.0 0.0
0.0 0.0 0.0 0.0 0.0 0.0 0.0 0.0
0.0 0.0 0.0 0.0 0.0 0.0 0.0 0.0
0.0 0.0 0.0 0.0 0.0 0.0 0.0 0.0
0.0 0.0 0.0 0.0 0.0 0.0 0.0 0.0
0.0 0.0 0.0 0.0 0.0 0.0 0.0 0.0
0.0 0.0 0.0 0.0 0.0 0.0 0.0 0.0
0.0 0.0 0.0 0.0 0.0 0.0 0.0 0.0
0.0 0.0 0.0 0.0 0.0 0.0 0.0 0.0
0.0 0.0 0.0 0.0 0.0 0.0 0.0 0.0
0.0 0.0 0.0 0.0 0.0 0.0 0.0 0.0

model/dense_2/BiasAdd/ReadVariableOp/resource f4 [256]
00000000: 5b89 b23d 041e 993d cb4c 573d c626 8b3d
00000010: d984 b83d deee 493d 3953 0b3d 86d6 2e3d
00000020: 7d3e 8b3d 32dc c63d 021c a13d 1908 883d
00000030: d9a7 c63d 03a3 e53a ae41 863d b2d6 813d
00000040: 3bbd c83d f5d7 e73d ae7a c63c c4d5 ea3d
00000050: 2235 1e3e 7d4c f93d 8753 763d 487e fe3d
00000060: dfb1 6c3d 9498 443d 09e6 3e3d 598e 9e3d
00000070: fdc7 013e cca4 fe3d 7656 e53d e830 ab3d
00000080: abc7 833d 974e 853d 4e4a e93c 3ad1 203e
00000090: b54a 873d 12e7 a23d 35f7 853d 6d43 ee3d
000000a0: 0e84 083e 9e30 4f3d 5eba 9a3d 45fd 553d
000000b0: a50a f93d 8e04 b23c 3b0a 183e f110 253c
000000c0: 6046 0b3e e47f 263e d1fb 873c e15e 963d
000000d0: 63d6 403c 92e2 fd3c 5456 ed3c 6cae a13d
000000e0: e3e8 043e ebb1 063e 50f6 8a3c 15ed b93c
000000f0: 0463 8d3d 6acb 8dbb 4cee 733d f576 523c
00000100: b163 f13d c8ec 8a3d 4157 4f3d 246c 2c3d
00000110: 5cca 7c3b 19f8 173e a12d 1e3e 245f d93c
00000120: 43d7 853c 20f9 023e 32cb 073e f2bc 8a3d
00000130: fa0a 7f3d 9cba 173e 0e8c cb3d f165 fb3d
00000140: 05bd 283c e5ec 113e dab9 933d a740 f8bb
00000150: f538 833d 1525 303d 9f38 1f3d 4392 d93d
00000160: ef06 e53d 7597 533d a7e2 bf3d 24ee d03d
00000170: e025 323e cd26 dd3d 7d91 153e d925 3a3d
00000180: 58df 03bd d91b d83d c596 de3d 0393 093e
00000190: b8e1 553d 8951 973d 0d34 8b3d ce95 ec3d
000001a0: dd64 773d a985 7e3d dd53 483e 1662 5e3d
000001b0: e4ad 8f3d 0856 0d3d 5785 4f3d f4b6 053e
000001c0: b846 ad3b eaa6 963d 9d03 723d e6cc 0d3e
000001d0: c41e cd3d 9afe 003e e0f4 133e c122 8a3d
000001e0: a1a8 903d 9239 f93d 5cbe d23d bebf 033e
000001f0: 90f8 013e 510e 913d 67e5 65bc 58c0 953d
00000200: 9b07 bf3d 4c96 5cbc a153 793d 8a10 713d
00000210: 689c 0a3e eecd f9bc 1ece ebbb 4ae7 073e
00000220: e9da 8b3d 63e0 d93d 2311 a83d 7f83 dd3d
00000230: ce80 623d cc03 a33c ad07 8a3c 5fe4 8c3d
00000240: 98d4 a33d aca3 af3c c521 b13d 058b ab3d
00000250: 1e4e 693d 8122 403d ca4e ee3d c42c c63d
00000260: f3cd 643d 6cdd 6c3d 19e9 023e 159b 2a3d
00000270: b9a4 d53d fbb7 da3d 4322 033b 188d e63d
00000280: 32d4 e83c d95d 013e 0c0b 9e3d 7e0c 1b3e
00000290: 787e 143e 718b 3e3e b980 d53c 379d 3b3e
000002a0: 7569 9d3d fe42 233e 9084 033e a0d1 b73d
000002b0: 5e06 f43d 203c cd3d f7f1 063d 0068 8e3d
000002c0: 8d0f 903d 78d1 9c3d 8f15 ec3d cf29 b43d
000002d0: cbd7 423d c270 e13d caa9 183d 0247 f63c
000002e0: 0a74 8f3d 1022 863d 9310 443d 5f85 083d
000002f0: 5474 c43d 9e53 523d 82af 7abb 6fa0 1c3e
00000300: 6d1f 7e3d d728 053e 70d0 e43d 4f34 7a3c
00000310: f25d 193d a198 c13d 66d3 283e 4519 833d
00000320: 9ef7 7a3c 20b5 493d 33f2 c03c 74bd d63d
00000330: f87f d83d 04b4 bf3d 0276 dd3d 1c8b a63b
00000340: ad7b ba3d ffd7 273d d4e7 473d 6565 8d3d
00000350: eb7e e73d 5e88 f03d 2632 cd3d de38 50bc
00000360: 88fb 9e3d 876f da3d b6b2 fd3d c65f e83c
00000370: 9bf1 913d 27bf 9b3c e0fe 6f3d 05c6 743d
00000380: 098e 923c 0976 943c 676b 923d 658b a63c
00000390: 9627 c23c 7155 153d 61f1 7b3d dec4 b93d
000003a0: 9e89 6d3e 9ddd 9b3d 3a80 c43d 4b69 c23d
000003b0: ceee 3c3d ccc8 e73d f74d 063e 4c96 fc3c
000003c0: 8eba 143d 9a1b ac3c 2d6a f13c 9644 033d
000003d0: bce5 7c3d 8d61 9b3d 9799 d73d 1d36 3c3d
000003e0: 2ff9 c43d 5ed1 af3d 86e7 a53d 1da6 a43d
000003f0: e4b6 293d 5099 083e 39cf 2a3d bf28 733d
0.08717605 0.07476428 0.05256347 0.06794505 0.09009714 0.049300067 0.034014914 0.042685054
0.06799028 0.09709968 0.0786667 0.066421695 0.09699983 0.0017519895 0.06555496 0.06339778
0.09801718 0.113204874 0.02422842 0.11466554 0.15449956 0.12172792 0.06013825 0.1242643
0.05778682 0.047997072 0.046606097 0.077419944 0.12673946 0.12433776 0.11198132 0.083589375
0.06434568 0.065091304 0.028477814 0.15704814 0.06606046 0.079542294 0.065412916 0.11633954
0.13331625 0.050583474 0.07555078 0.05224349 0.121602334 0.021730687 0.14847653 0.01007484
0.13601065 0.16259724 0.016599568 0.073423155 0.011769864 0.030991826 0.028971829 0.078945965
0.12979464 0.13153808 0.016963154 0.022696057 0.06903651 -0.0043272274 0.05955343 0.012845744
0.11786593 0.06783444 0.05062032 0.04209532 0.0038572764 0.14840735 0.15447094 0.026534624
0.016337996 0.12790346 0.13261107 0.0677432 0.062266327 0.1481728 0.09938823 0.12275303
0.010298972 0.14250524 0.07213183 -0.0075760665 0.06407348 0.043004114 0.038872357 0.106236
0.11182963 0.051658113 0.093694024 0.10201672 0.1739726 0.10798416 0.1460628 0.04544625
-0.03219542 0.105521865 0.10868601 0.13434987 0.052217215 0.073885985 0.06797037 0.115520105
0.060398925 0.062139187 0.19563241 0.05429276 0.07015589 0.034505874 0.050664272 0.13058072
0.0052879713 0.07356055 0.059085477 0.13847694 0.10015634 0.12597123 0.14448881 0.0674491
0.070634134 0.12169184 0.102902144 0.12866113 0.12692475 0.07082809 -0.014031745 0.07312077
0.093276225 -0.013463568 0.06087077 0.058853664 0.13536227 -0.030493703 -0.007196202 0.13271824
0.06828863 0.106385015 0.082063936 0.108160965 0.05529862 0.019899271 0.016849363 0.06879496
0.079995334 0.02144035 0.08649019 0.08376125 0.056959264 0.046907905 0.116361216 0.09676507
0.05586047 0.05782835 0.12784232 0.041651804 0.10431809 0.10679623 0.0020009435 0.1125738
0.028421495 0.12633456 0.07716951 0.15141484 0.14501369 0.1860788 0.026062356 0.18321691
0.0768613 0.15943524 0.12843537 0.0897553 0.11915277 0.100212336 0.0329456 0.0695343
0.07034216 0.076571405 0.115275495 0.08797037 0.047569077 0.11007835 0.0372713 0.030063156
0.070045546 0.06549466 0.04786737 0.033330318 0.095925 0.051349275 -0.0038251583 0.15295576
0.06204169 0.1300386 0.11172569 0.01527126 0.03744311 0.0945294 0.16486892 0.06401304
0.015317826 0.049245 0.02355299 0.10485354 0.10571283 0.09360507 0.10813524 0.005082501
0.091056205 0.040977474 0.048805073 0.06904105 0.113035046 0.1174476 0.10019331 -0.012708871
0.077628195 0.106658034 0.12387602 0.02836598 0.07126161 0.019012047 0.058592677 0.05975916
0.017889993 0.01812269 0.071493916 0.02033014 0.023700517 0.036458436 0.061509494 0.090707526
0.23197028 0.07610629 0.0959477 0.09492739 0.04612618 0.11317596 0.13115679 0.030833386
0.036310725 0.021009255 0.029469574 0.03204783 0.06174253 0.07586966 0.10527342 0.045950044
0.096178405 0.085848555 0.081008 0.08039496 0.041434184 0.13339734 0.04170153 0.05936503

model/last_layer/BiasAdd/ReadVariableOp/resource f4 [31]
00000000: 9bea 8e3c f23f e2bb 0d5e 773c 3d54 96bc
00000010: a750 11bc b75e 8e3c 5c31 61bc 2955 013c
00000020: c15a 80bc e969 72bc b270 8c3c c19a 573c
00000030: 0897 a0bc eb72 51bc 2bea 543c d029 8abc
00000040: 93a7 a4bc 8a3b f1bc 385d 813b fa38 073d
00000050: e194 39bd 515d a5bc fec5 da3a 3e2e b6bc
00000060: 546c cfbc adbe b4bb 1c82 18bd 06e9 cf3c
00000070: 350c bfbc ca1c 1dbd cd2f 43bb
0.017445853 -0.0069045955 0.015098107 -0.018350715 -0.008869327 0.017379148 -0.013744678 0.007893839
-0.015668275 -0.014795759 0.017143581 0.013159455 -0.019603267 -0.012783746 0.012995283 -0.01686564
-0.020099437 -0.029447336 0.00394788 0.03301332 -0.045307998 -0.020186098 0.0016691086 -0.022238847
-0.02532021 -0.0055158944 -0.037233457 0.025379669 -0.02332125 -0.038357534 -0.002978313

model/time_distributed_11/dense_1/BiasAdd/ReadVariableOp/resource f4 [64]
00000000: 6d04 373c 3442 74bd 54b0 a4bc d03e 53bd
00000010: 534d 0cbd b52a 283c 0016 e9bb 06f1 c0bc
00000020: 33a3 9ebc 7840 31bc 3c24 62bd fcc7 87ba
00000030: d460 65bd db4c 233c be57 2dbd ec22 dabc
00000040: ca7f 533c 7fbf 28bc 5ff6 95bc 07e5 5ebc
00000050: 97bc 4eba ccbe 25bd 5d78 39bd 8ec6 01bc
00000060: 7b32 0cbd aff9 0fbd 7474 09bd 99b4 84bc
00000070: 5185 22bc a133 b4bb 9003 28bd 3f5e 843b
00000080: bcef 37bd 7ccc 6fbd ba32 c53a 1b64 1cbb
00000090: ea98 b2bc a150 d4bc 92cc 13bd a2b3 c2bc
000000a0: 18a9 33bd ce64 46bc 1ea5 473c 04fb cbbc
000000b0: 0e6c 19bd 03eb 4bbd 4cc4 76bc 8cc9 f7bb
000000c0: 0ae9 dcbc 54d6 9ebc d2be 39bd 3c8f bfba
000000d0: 6da7 df39 9661 2dbc 4c46 75bd f972 39bc
000000e0: b2b3 8bbc dea0 15bd 8fda 36bd 20cf 19bd
000000f0: 9032 5abd 4c9f 00bb 76ac 3abc d6a5 febc
0.011170489 -0.05963345 -0.020103611 -0.051573575 -0.03425343 0.010264088 -0.0071132183 -0.023552429
-0.019364929 -0.010818593 -0.055210337 -0.0010359283 -0.056000546 0.009967054 -0.042320006 -0.02662798
0.012908885 -0.0102995625 -0.018305955 -0.013604409 -0.00078863784 -0.04046516 -0.045280803 -0.007920874
-0.03422783 -0.035150226 -0.033558324 -0.016199397 -0.00991948 -0.0054993187 -0.041019022 0.0040395553
-0.044906363 -0.05854462 0.0015045025 -0.0023863378 -0.02180143 -0.025917353 -0.036083765 -0.023767296
-0.043862432 -0.012108995 0.012185363 -0.024899967 -0.037456565 -0.04978467 -0.015061449 -0.007561868
-0.02696659 -0.019389309 -0.045347996 -0.0014614831 0.00042658616 -0.010582348 -0.059881493 -0.0113189155
-0.017053459 -0.036530368 -0.044642027 -0.037551045 -0.053270876 -0.0019626198 -0.011393657 -0.031084936

model/time_distributed_5/dense/BiasAdd/ReadVariableOp/resource f4 [32]
00000000: 187e 24bd 8c99 90ba 5fc0 eb3c 9c99 4bbc
00000010: d03d 723c 4461 bc3c d5b4 4d3b 2fd3 85bd
00000020: db38 ac3b 9678 5abc af53 173d 345b ec3b
00000030: 2a35 153c 7146 4cbd 34ee b1bc b740 9fbc
00000040: 03c9 bdbc 4e11 cb3b 37f9 16bb ff67 1abd
00000050: 53c9 4abd c645 e8bc 724c 213d befb e7bb
00000060: acd3 19bc 1567 35bd 1f1a 13bc e86d d3bb
00000070: c44b 08bd 0f3e 4ebc 32cc 65bd 8dea b4bc
-0.040159315 -0.0011032089 0.028778253 -0.01242676 0.014785245 0.022995599 0.0031388302 -0.06534421
0.005255801 -0.013334414 0.03694504 0.0072130207 0.009106914 -0.049871866 -0.02172003 -0.019440038
-0.023167139 0.0061971312 -0.0023036727 -0.037696835 -0.049508404 -0.028353583 0.039379545 -0.0070795706
-0.009388845 -0.04428776 -0.008978396 -0.006452311 -0.03327538 -0.012588038 -0.05610294 -0.022084499

model/dense_2/MatMul f4 [256, 32]
00000000: 7e3f a83d 060d 16bd e00b 393c 8b93 0e3e
00000010: fe25 133e a75a a5be ad2a 38be e67f 0f3e
00000020: 5ebe 823e 094e 13be dabe 743e c15d 993e
00000030: 6f45 ccbd 0252 6e3e c369 3cbd 4079 033d
00000040: 352f 343d 8fdd 923d a844 063c 1608 2cbe
00000050: 2c21 843d 4086 b73b 4eb5 46be b0e7 21be
00000060: 7081 2dbd bd44 5f3e 14b6 373e 11b6 083d
00000070: b452 12be ca9e 923e a0a8 79be 7123 3fbd
00000080: 80bd fa3c 0a7e 243e 22b9 0abd 3165 5f3c
00000090: 0f8a b23d fbd8 1fbd b559 2fbe bf7a c33e
000000a0: 8a15 8abe ae69 38be 891f b7bd c378 563d
000000b0: 4f43 903d e856 c7bc 4621 f5bc 6377 5cbd
000000c0: 739b 85bb 422d a13c be4d 5b3e 1976 093e
000000d0: 33d6 b23d bc27 65be 5553 613d d887 b73d
000000e0: 495c 7ebe 0e65 83bd 042d 08bc 977c f5bd
000000f0: ec5c fdbd 53ad ecbd 55d2 fa3d b439 1fbe
00000100: 38d4 a03d 7031 793a dc99 1fbd 08f4 1dbe
00000110: 5f99 10be 013e fd3d 312e b73c 92f4 5c3d
00000120: ac10 543c 87ce e33d 5f68 4e3e e8d2 97bd
00000130: fca9 c03e 59a7 c7ba 9e10 f7bd bd9f 0a3e
00000140: cee7 9f3b 83b9 4fbd d1c9 9f3d cb45 433e
00000150: fe9e f8bd 3831 1d3e 7f98 50bb f97c 3bba
00000160: e105 513e c3aa 243e 942b 063c b470 cb3d
00000170: 0de4 2abd ca40 cc3d 1ef5 833e 6e47 3b3d
00000180: 3dac f3bd e9f3 823e cbdc 9cbc c3b6 42be
00000190: 3ff9 1bbe 219f 8c3e abd2 cc3c 3319 3fbe
000001a0: fea0 babd 490e 20bd 58db 0f3e 10c5 d5bc
000001b0: 1bf0 65bb ce94 25be ed51 3d3e c05e 8cbd
000001c0: 81a0 d83d ae98 d63c d912 313e ff82 683e
000001d0: 44ac 0ebe 5c70 babc 81a7 16bd b1fe 993d
000001e0: b0b8 dfbd b9c9 153c 8dc9 f5bc 774b af3c
000001f0: 3b0d c63d 4831 7a3e e0fb 96bc 9eed 0f3e
00000200: 496b 293e 5844 653e 231e e5bd 2f4d 83bd
00000210: 8469 eebd 9fc7 1fbd 1d13 b5bd aaa6 4c3e
00000220: 482e 023d ae01 12bd c170 893e 5053 7c3e
00000230: 9f58 3a3b bdec ba3c 974e 163e b30b 383e
00000240: 2b3c b53d eca3 79bd b821 903d 6f20 06be
00000250: 32c1 983c 1a9b c83d 1133 71be f31e 14be
00000260: 7a98 e1bb 92c8 923e e647 10bc b03e 3f3d
00000270: 64ca 2e3e 6c74 fe3d 1090 6cbe 6be5 44be
00000280: ba58 c33c 179a 09bf 96a2 ffbd 2963 1d3d
00000290: c3f2 ac3d 189e 78bd e27a 07bd 6242 ef3d
000002a0: ce85 293e ec5c 80be c5d6 bdbc f1cc 893d
000002b0: 637c c93d 0163 e83d db67 6c3b d60f 203e
000002c0: f25c dd3d ee4e 5cbd 0d2e 693e 97ee c5bc
000002d0: fa06 09be 74ee f13c aa19 0fbe 3069 223e
000002e0: 9058 1bbe 9725 573e f9a3 163d bdef d9bd
000002f0: 4a13 a53d dd1f 22bd 0714 eb3c aa60 5a3d
00000300: 379b b23d 7ae7 c33d 7fb2 943d 3689 e7bd
00000310: 7675 bb3c 5b9a 83bd 010c e63c 9118 f3bd
00000320: a914 743e 3adf 383e d8bb 06bd 9ed4 5d3d
00000330: 7451 ddbd b25e 79be 31c3 fc3c f2ef ed3c
00000340: 589b 4c3c d565 133e f97e fc3c fd42 d8bd
00000350: c1aa e23c 4d55 f93d 5c6f 9d3d 8f8d 12bd
00000360: 8e12 1b3e baaa 74bd 4580 563e dd9f d73d
00000370: 6f80 f33d fc0a 8dbe 2350 aabb def8 8fbe
00000380: 9267 e53d 3c16 513e 889d 5dbd 172d 76be
00000390: db85 a2bd dd5a d5bc 6614 08be 9732 323e
000003a0: 133d c6bd 2b6e 993c f87d cabb c367 293e
000003b0: 35d9 c7bb 45e2 be39 5eb3 373e 84cf d9bd
000003c0: c4b5 773d 8d3a 293c 8688 833c 1583 ad3d
000003d0: 2387 ca3d cc3d a13c 291a 13be 56ba 02be
000003e0: ff35 ae3d 21e8 36bd 69d9 67be c6b0 f2bd
000003f0: b895 19be 4cac e8bd a6ad 15bd 3dfe 44be
0.08215235 -0.036633514 0.011294335 0.1392347 0.14369962 -0.32295725 -0.1798503 0.14013633
0.25535864 -0.14385237 0.23900929 0.2995434 -0.09974181 0.23273471 -0.0459993 0.032098055
0.043990333 0.07171165 0.00819508 -0.1679996 0.064516395 0.0056007206 -0.194051 -0.15811038
-0.04235977 0.21803565 0.17940551 0.033376757 -0.14289361 0.2863677 -0.24380732 -0.04666466
0.030607939 0.16063705 -0.033867963 0.013634966 0.08717739 -0.039025288 -0.17124064 0.38179585
-0.26969558 -0.18009064 -0.08941562 0.05236126 0.07044088 -0.024333432 -0.029923093 -0.053824794
-0.004077369 0.0196749 0.21416375 0.13423957 0.087322615 -0.22378439 0.055011112 0.08961457
-0.24839891 -0.06415759 -0.008311514 -0.11986654 -0.12371239 -0.115564965 0.12247149 -0.15549356
0.078529775 0.0009505963 -0.03896509 -0.15425122 -0.14121006 0.12365342 0.022360893 0.053944178
0.012943428 0.11123376 0.20157002 -0.07413274 0.37629688 -0.0015232369 -0.12063716 0.13537498
0.004879928 -0.050714027 0.07802165 0.19069593 -0.121397 0.15350807 -0.0031829176 -0.0007152106
0.20412399 0.16080765 0.008189101 0.09933606 -0.041721392 0.09973295 0.25772947 0.045722418
-0.11898086 0.25576714 -0.019148251 -0.1901503 -0.15231799 0.27465156 0.025002798 -0.18661956
-0.09112738 -0.039076123 0.14048517 -0.026094943 -0.003508574 -0.16170046 0.18488283 -0.0685401
0.10577489 0.02619585 0.17292346 0.22706221 -0.13932902 -0.022758655 -0.036780838 0.07519282
-0.10923898 0.009142333 -0.030003333 0.02139829 0.09670492 0.24432862 -0.01843065 0.14055488
0.16544832 0.22389352 -0.11187389 -0.06411206 -0.11641219 -0.039008733 -0.08841536 0.19985452
0.03178242 -0.035646133 0.26843837 0.24641156 0.002843417 0.022817964 0.14678417 0.17973213
0.08849367 -0.060947344 0.07037681 -0.1309831 0.01864681 0.09795208 -0.23554637 -0.14464931
-0.0068846317 0.28668648 -0.008806204 0.046690643 0.17069393 0.124245495 -0.2310183 -0.19228141
0.023846019 -0.5375075 -0.12482183 0.038424645 0.084447406 -0.060697645 -0.033076175 0.116825834
0.16554949 -0.25070894 -0.0231737 0.067285426 0.09838178 0.113470085 0.0036072645 0.15631041
0.108087435 -0.05378621 0.22771473 -0.02416162 -0.13381568 0.029532649 -0.13974634 0.15860438
-0.15170503 0.21010433 0.03677747 -0.106414296 0.0806032 -0.03958117 0.028696073 0.053314842
0.08721011 0.09565635 0.07260608 -0.11305468 0.022883158 -0.06425925 0.028081896 -0.1186992
0.23836006 0.18053904 -0.032893986 0.054157846 -0.108065516 -0.2435253 0.030854793 0.029045079
0.012488209 0.14394315 0.030822264 -0.10559652 0.027669312 0.12174473 0.07687256 -0.035779532
0.15143797 -0.05973313 0.20947368 0.105285384 0.11889731 -0.27547443 -0.0051975413 -0.28119558
0.11201395 0.20418638 -0.05410531 -0.24040638 -0.07935687 -0.026044304 -0.13289031 0.17402111
-0.09679618 0.01872929 -0.0061795674 0.16543488 -0.006098891 0.00036408208 0.17939517 -0.106352836
0.06047608 0.010328901 0.01605631 0.084722675 0.098890565 0.019682787 -0.14365448 -0.12766394
0.08506393 -0.04465497 -0.22641529 -0.11850123 -0.1499852 -0.11360988 -0.036542557 -0.19237609

model/last_layer/MatMul f4 [31, 256]
00000000: c0ff 9abe ad90 30bc 0ecb 96bd e783 c7bc
00000010: cd9c 20bd 0317 2fbe d747 793d 467f b13c
00000020: 6bb6 d63b b9e5 d3bd 01a8 6f3d 7f27 debd
00000030: dc89 63bd 2025 16be b503 22bc 5f1c d1bd
00000040: 0be1 85bc e6da 82bc 50b7 9eb9 a399 b0bc
00000050: 5aab b1bd 14d3 cbba ef06 12be 2cf3 a9bd
00000060: 825c 90bb f9c0 61bc e7ce aabc d138 97bd
00000070: 7ea5 4bbd c500 d23c dbbb 073c 9d3a 62bd
00000080: 21bc 88bc 9988 41be 8d06 8bbd d0e3 303c
00000090: e288 9e3d 7914 313c dfcd fcbd 46d1 5fbc
000000a0: 34e0 57bd ded5 06be 8221 09be a6c9 e53d
000000b0: f2c9 1cbe 355c b1bc 8c90 69bb 7911 973d
000000c0: 8252 9c3d 4aec 7cbd 5f3a 15bc 5dc1 083d
000000d0: 11da b6bc 04c8 c63d ba6b ac3c cfd8 87bd
000000e0: 7c56 5ebd c804 453d 4e4a 693d 13c9 a13c
000000f0: f9a3 713c 48a8 c7bd 109e 4c3b 4e1c 83bb
00000100: cc2f c53c e77d be3d 9a6e 543c 915f f2bd
00000110: 0432 14be 3fb4 683d 3be4 1c3d 6cf3 21be
00000120: 4852 f93c 35be 22bb 8dd1 433c 87e7 a0bd
00000130: c4bd 90bd 4a13 703a dcd5 26bd 5e55 1dbe
00000140: 0686 eebc 5171 d43b f379 1bbd 4409 503c
00000150: 7176 243d e995 3cbd 0254 2cbe 2e38 94bd
00000160: 194c 36bb 7f1b 46be b92d 02be 851d 1a3d
00000170: 254e 863d 6b12 27bb 2cd2 19bc fb82 38be
00000180: 4d4d d33b 8cd4 7fbc 84d0 08be 6215 8f3d
00000190: 7863 55be 5de2 eebd 3ae2 1e3d 6f4c a4bc
000001a0: bc88 e2bd 3253 e4bd 9aba f33d 02e4 ebbd
000001b0: c825 98bd 1f0c 493d deaf b73d 8138 ebbd
000001c0: 828d 823d 6aeb 493d de6f b4bd 8d3c 983d
000001d0: 30ba aebb 73d3 4b3c 96e7 9abb b523 c53d
000001e0: b03b e3bc 080b 4fbd 6c46 f03d ec22 1e3d
000001f0: 3b73 06bc 8272 66bd fd34 813c b2c1 d0bd
00000200: 4bed cbbd 1fda 31bd aef3 27be 11fc 333d
00000210: 4ce3 9fbd 48c1 14bd 530e 99bd dad1 ad3d
00000220: 0f64 9cbd 78b3 70bc 08d4 52bd b9e8 bfbd
00000230: 5e22 633d 2f0a c9bd 53df 673d 9d18 373c
00000240: 3610 a3bd 2d07 b3bd 8a67 38be b57f c23b
00000250: b018 84bd 3ce5 ff3b 2ae5 f53c 3912 b9bd
00000260: 1e22 92bd 61cc 27bd 7c6c 2d3c 1387 5fbd
00000270: 0007 18be c4f9 483d b61e 703c 6f07 66be
00000280: 0163 91bc b04a 2f3c 569e 953d a6da d73c
00000290: d02b 89bd 1159 3cbd 77f6 e63c 6b61 0abe
000002a0: e65d fbbd 6a9a 11bc 69f4 fdbc 7913 d53d
000002b0: 59b0 9a3c 37d5 493c b3a8 b3bc 468e 5ebd
000002c0: d035 e1bd cada 3dbe f65c 70bc 4717 d93c
000002d0: de87 2dbe c900 3cbe d1ed e7bc fa8b eebd
000002e0: f406 09be a7ea 3a3d 9544 a9bc edef 9cbd
000002f0: fc6d babd 7cbc bc3b 7605 30bc 0d1f 6f3c
00000300: a028 adbd e281 e13c 6a74 b0bc 5da0 c33c
00000310: bddf a83c 64e4 dcbc 245a 573d a9a1 49bb
00000320: a0e6 b83c a997 afbc 08b4 f5ba 3676 983c
00000330: d5da 97bd 62a7 64bd dc75 9fbd 0092 16bd
00000340: 5280 a83d 9020 abbd 0d7d 15be 60bf a1bd
00000350: dd0e 0abd ae69 11be 27f3 043d f0eb 0ebd
00000360: 62c4 f53c 60f7 8d3c 4edb cfbc b5bd f1bb
00000370: 240c 0fbe 11bd 43be 9363 013c 7163 9e3d
00000380: 1ca0 96bd 6d8a 12be 5f93 52bd 5da1 48bd
00000390: f4a6 36ba 3f5b 7e3b 8fe9 863d 2538 5ebc
000003a0: aac6 c4bd a008 40bd a0aa ec3b 652e ae3d
000003b0: f8fa 1d3d 790b 61bd b6d1 223d ae41 4ebd
000003c0: b40a 933b 3e37 7abd e050 8d3d 8c8f 27bd
000003d0: 1fbe bc3b 01df 27be 62bf 30be 65ab 0a3e
000003e0: 6035 8cbc f3aa e53b e9dc 76bd 6225 67bb
000003f0: c1b5 b73d f7a9 9cbc 27df 913d 2a27 fdbc
-0.30273247 -0.010776681 -0.07362948 -0.024354888 -0.039212037 -0.17098622 0.060859527 0.021667134
0.0065525076 -0.103465505 0.05850983 -0.10847377 -0.055551395 -0.146626 -0.009888579 -0.102104895
-0.01634266 -0.01597352 -0.00030272687 -0.021557635 -0.08675261 -0.0015550577 -0.14260457 -0.082983345
-0.004405559 -0.013778918 -0.020850612 -0.07383884 -0.049718373 0.025635133 0.008284534 -0.05523168
-0.01669127 -0.18899764 -0.06788359 0.010796502 0.07740952 0.010808104 -0.12343954 -0.0136607345
-0.05270405 -0.13167521 -0.13391688 0.11220102 -0.15311411 -0.021650413 -0.0035639135 0.073763795
0.076329246 -0.06174878 -0.009108155 0.03338753 -0.022320779 0.09706119 0.021047462 -0.0663315
-0.054281697 0.048100263 0.056955628 0.0197492 0.014748567 -0.09748894 0.0031222142 -0.004001177
0.024070643 0.09301358 0.012965823 -0.11834634 -0.14472204 0.05681252 0.038303595 -0.15815514
0.030434743 -0.002483261 0.011951816 -0.0785666 -0.07067445 0.0009158148 -0.040731296 -0.15364596
-0.029116642 0.006483235 -0.037958097 0.012697522 0.040152017 -0.046041403 -0.16828921 -0.07237278
-0.0027816354 -0.19346426 -0.12712754 0.03762581 0.06557874 -0.0025493156 -0.009388488 -0.18018715
0.006448424 -0.01561464 -0.13360792 0.069865 -0.20838726 -0.11664269 0.038789965 -0.020055978
-0.11061236 -0.11148681 0.11900826 -0.115180984 -0.07429081 0.049083825 0.08969091 -0.11485387
0.06374647 0.049296774 -0.088103995 0.07433424 -0.005332254 0.01244055 -0.004727314 0.09625951
-0.027738422 -0.05054763 0.11732182 0.038607523 -0.008206184 -0.056261547 0.015772337 -0.101931944
-0.099573694 -0.043420907 -0.1640155 0.04394156 -0.07807025 -0.03631714 -0.07473435 0.08487292
-0.07636272 -0.014691226 -0.05147174 -0.0937056 0.055452697 -0.098163955 0.056609463 0.011175302
-0.07962076 -0.08741603 -0.18008247 0.005935634 -0.06450021 0.0078093093 0.0300165 -0.09036679
-0.071354136 -0.040966395 0.010584947 -0.054572176 -0.1484642 0.04906632 0.01465576 -0.22463773
-0.017747404 0.010698959 0.07305591 0.026349377 -0.0669781 -0.045983378 0.028193695 -0.13513725
-0.12273769 -0.008886913 -0.031000333 0.10404105 0.018882917 0.012318901 -0.021931028 -0.0543349
-0.10996592 -0.18540493 -0.014670601 0.026500357 -0.1694636 -0.18359675 -0.028311642 -0.11647792
-0.13381559 0.04563394 -0.020662585 -0.0766295 -0.09103009 0.005759774 -0.0107434895 0.014594805
-0.08455014 0.027527753 -0.021539886 0.023880178 0.0206145 -0.026964374 0.0525762 -0.0030766523
0.022570908 -0.021434622 -0.001874567 0.018611055 -0.07414786 -0.05582369 -0.07786152 -0.03676033
0.082276 -0.0835582 -0.14598484 -0.0789783 -0.03370558 -0.1420047 0.03245845 -0.034892976
0.03000087 0.017329872 -0.025373127 -0.007377351 -0.13969475 -0.19115092 0.0078972755 0.07733811
-0.07354757 -0.14310618 -0.051410075 -0.048982013 -0.0006967627 0.003881171 0.065875165 -0.013563191
-0.09608205 -0.046883225 0.0072224885 0.08504943 0.03856942 -0.05494258 0.039750777 -0.050355606
0.00448736 -0.06108784 0.06900191 -0.04090838 0.005759969 -0.16393663 -0.17260507 0.13541944
-0.017115295 0.007008904 -0.06026927 -0.0035270085 0.08970214 -0.019124014 0.07122641 -0.030902464

model/time_distributed_11/dense_1/MatMul f4 [64, 1488]
00000000: 7fab 81ba 4ab5 7e3c a823 663c c72e af3a
00000010: c7c2 aebb b0f8 063d cce3 b43c 7797 c4bb
00000020: 8c48 6a3d 792a 61bd c67c 563d 4b84 1cbc
00000030: 304d b33c 929f 29bd 42fe 4fbd bdda 57bc
00000040: 3a9c adbc ad50 063d 8810 16bc 52f1 e93b
00000050: 5a51 9dbd ecea 04bd 3601 3f3c 52dd f7bb
00000060: 8810 83bd bfde 71bd 662c dc3c a33d 36bd
00000070: aee4 61bd 9bd6 ecbc a594 433d a915 063c
00000080: 132e 12bd e86e a8ba b044 98bd 853e 68bd
00000090: 55dd 23bd b42b 6fbd cf2f 1b3d 0413 1e3d
000000a0: 505f 873c 869b 0abd 63e1 98bc 3627 debc
000000b0: 654f 9cbc a788 e3bc 0c6a 483c 5ffd 0e3d
000000c0: efee 3ebd 3085 8fbd bbf4 80bd 4032 903c
000000d0: 9f83 373c 7096 be3c df2f f6bc bd42 8fbc
000000e0: 030c 5b3c 9113 fabb ff30 433d 7c98 95bd
000000f0: f4f0 71bd e828 3e3d 5e1e f63c 7266 d4bc
00000100: 615f da3c 28f8 503c 929c 3fbd 7678 573d
00000110: f0d4 013d 3d06 113c 37a8 64bd a495 49bc
00000120: ae83 f4bc 2e29 86bd be1e 3d3d cf1e 32bc
00000130: 3ef2 b13c 27e8 233d f776 fb3c a2fa 5ebd
00000140: 34b9 97bc 2b86 8e3c 71c1 133d d59e 52bd
00000150: 37c3 a7bc c451 8dbd 722c 1ebd 71f4 713c
00000160: bfc9 89bd 10b2 963c 6096 6a3c fdd5 d7bc
00000170: 1998 78bd 0d1a 18bd 131b 6fbd dbeb b3bd
00000180: 1c13 163d 1074 c4bc 651c 56bc 05d9 c3bb
00000190: 26b2 a0bd 6de3 883d eb03 a5bd 8be6 92bd
000001a0: bdd4 c4bc 3d6d 3fbd b5ab dfbc b1c4 98bc
000001b0: 51f1 8dbd d3e9 623d e931 6cbd f762 dbbc
000001c0: a844 38bd c7b7 613c 21c4 2cbd f3de 21bc
000001d0: 60c5 7cbd afc3 063d 03ac f03c 6665 263c
000001e0: 8bbd a8bd d6d2 43bd 25c3 da3c 2361 5dbd
000001f0: 0208 9dbd 9b97 efbb feda 9139 8121 90bd
00000200: 5c60 173c 2bb9 e03c 12dd 49bc 3824 c0bd
00000210: 2dfd febc c0e8 bd3b 8c70 253d 9067 813c
00000220: 4c9a 43bd 3e1c 3b3c c15b 09bd 1117 bcbc
00000230: 6558 c73c ee78 373d 62fe 38bd d38b e93c
00000240: b8ec 93bd 7126 883c f4cb 65bd 4553 d6bd
00000250: cdb3 48bd 81f6 36bd a4d9 413d 7c53 433d
00000260: 2017 64bd f342 73bd c3f2 e53c 48ca 6e3d
00000270: e77f 58bd 6a92 74bd 5222 d03c c35f 9e3c
00000280: f599 4ebd 01b1 6b3c 3523 b93c 8499 96bd
00000290: ec2f 093d 6988 8bbd 8e50 553d 09eb 09bd
000002a0: 479b 03bc 85cb b6bc e500 073d e4a9 4a3c
000002b0: f917 62bd 990d 0e3d 5564 c53b 916e 573c
000002c0: 8281 8dbd e52a a5bd cb60 89bd 1561 c1bd
000002d0: 0e82 c63c c5cc 053b 1737 b13b eeb8 8bbc
000002e0: 1270 073c 72d0 32bd c4b6 973c fa40 72bd
000002f0: f2a9 e63a be40 fe3c 79ee 15bb 9a9a 8a3c
00000300: 3a95 60bc b192 ddbc 34a3 213c 192c c3bb
00000310: d95a 7b3c 2fca 8fbd df9f f43c 8d2c 8ebc
00000320: 68b7 b439 eaf6 4dbd afba 983c ca66 b6bc
00000330: bf9d 823d c138 08bd d83a ad3c 758f 7a3d
00000340: 591e dcbc 382b 49bd b0bf cf3c 24c6 8fbd
00000350: 1240 133d b41f cc3c 2b3c a53c 5ab8 29bd
00000360: 74af 7c3d 1129 4dbd 298b 57bd d180 ac3c
00000370: eb14 a93c ac39 47bd 57d6 84bc 0e42 293c
00000380: 3e49 413c 32ea 89bd 0083 79bd eac0 f13c
00000390: 76fd 1abd 91f2 103d a841 92bc 6653 8ebd
000003a0: 264f 1b3d eb1d 943c 12f7 edbb e34d f2bb
000003b0: dd87 c73b cbf3 01bc 70e7 de3c f6a3 5c3b
000003c0: 9d2d b5bc aa6a bdbc f52b cbbc 5a66 073b
000003d0: 18c1 7e3d 32cb 82bd 673d 34bd d540 11bc
000003e0: fe5d 11bd 78f5 523d dd45 1ebd 8b39 b9bd
000003f0: cd96 21bd ebd3 6ebd c0a5 093d 86ee 393d
-0.0009893029 0.015546152 0.014046587 0.0013365381 -0.005333278 0.03295201 0.022081278 -0.0059995013
0.057198092 -0.054972146 0.052365087 -0.0095530255 0.021887392 -0.041411944 -0.05077959 -0.01317471
-0.021192659 0.032791782 -0.009159215 0.0071393633 -0.07681532 -0.0324506 0.011658004 -0.0075642252
-0.063996375 -0.059050318 0.02687664 -0.044492375 -0.055149727 -0.028910926 0.04774918 0.008183875
-0.03568847 -0.0012850435 -0.07434976 -0.05670025 -0.040006 -0.058391288 0.03788739 0.038592353
0.01652494 -0.033839725 -0.01866216 -0.027118307 -0.019080827 -0.027775122 0.012232315 0.034909602
-0.046614584 -0.070078254 -0.06296679 0.017602086 0.0112008145 0.023265094 -0.030052124 -0.017487878
0.013369563 -0.007631727 0.04765415 -0.07304475 -0.05906768 0.04642573 0.030043777 -0.025927756
0.026656808 0.012754478 -0.046780176 0.052605115 0.031697214 0.008851585 -0.055824485 -0.0123037435
-0.029847946 -0.06550823 0.046171896 -0.010871603 0.021721955 0.04001632 0.030696375 -0.05443824
-0.018520929 0.01739796 0.036073152 -0.051421005 -0.020478828 -0.06900361 -0.038616605 0.014767752
-0.06727933 0.018395454 0.014318079 -0.026347155 -0.060691927 -0.03713422 -0.05837543 -0.0878522
0.036639318 -0.023981124 -0.013068293 -0.0059767985 -0.07846479 0.06684003 -0.08057388 -0.07172879
-0.024027223 -0.046735037 -0.027303556 -0.018648477 -0.06930793 0.055398773 -0.057664786 -0.026780589
-0.04498735 0.013776726 -0.04217923 -0.009879815 -0.06171167 0.032901462 0.029378897 0.010156011
-0.082392775 -0.04780849 0.02670438 -0.054047715 -0.07667543 -0.007311774 0.00027819717 -0.0703764
0.009239282 0.027432045 -0.012320774 -0.09381908 -0.031126583 0.005795568 0.040390536 0.015796453
-0.04775457 0.011420308 -0.03353477 -0.022960218 0.024334142 0.044793062 -0.045164473 0.028509056
-0.07222885 0.016619893 -0.056102708 -0.10465101 -0.048999596 -0.04466868 0.0473267 0.04768704
-0.055686116 -0.05939002 0.02806986 0.05829838 -0.052856352 -0.059709944 0.02540699 0.019332772
-0.050439794 0.014385463 0.022599796 -0.073534995 0.033492967 -0.068131275 0.052078776 -0.033671413
-0.0080326265 -0.022313843 0.032959837 0.012369607 -0.055198643 0.034680936 0.0060239234 0.01314892
-0.06909467 -0.08064822 -0.06707915 -0.09442345 0.024231937 0.0020416242 0.0054081785 -0.017055955
0.008266466 -0.04365582 0.018519767 -0.059143998 0.0017598255 0.03103673 -0.0022877736 0.016919423
-0.013707453 -0.027047487 0.009865571 -0.0059561846 0.015341484 -0.07020985 0.029861389 -0.017355228
0.00034468924 -0.050284304 0.018643705 -0.02226581 0.06377744 -0.03325725 0.021146223 0.061171968
-0.02686994 -0.049113482 0.025359958 -0.07020214 0.035949774 0.024917461 0.020170292 -0.041435577
0.061690763 -0.050087992 -0.052622948 0.021057518 0.020639857 -0.048638985 -0.016215486 0.01033069
0.011797247 -0.06734122 -0.060915947 0.029510934 -0.037839375 0.03538758 -0.017853573 -0.06949501
0.03791728 0.018080672 -0.007262119 -0.0073945387 0.006089194 -0.00793166 0.027209967 0.0033667064
-0.022116477 -0.02312215 -0.024801234 0.0020660372 0.062195867 -0.06386413 -0.04400387 -0.008865555
-0.03549003 0.05150363 -0.038640846 -0.090441786 -0.039450455 -0.05830757 0.033605337 0.04539349

model/time_distributed_3/batch_normalization/FusedBatchNormV3 f4 [8]
00000000: 5226 85bf c9a7 a8bf 8e57 98bf 51d9 98bf
00000010: d920 90bf 062b 71bf 30d7 62bf 07f8 c0bf
-1.040232 -1.3176204 -1.190172 -1.194132 -1.1260024 -0.94206274 -0.886096 -1.5075692

model/time_distributed_3/batch_normalization/FusedBatchNormV31 f4 [8]
00000000: 6212 523f ae99 583f 6fd8 5a3f 935b 5d3f
00000010: 1395 653f edd7 633f 0ded 6c3f c59a 6c3f
0.820593 0.84609497 0.854865 0.86467856 0.89680594 0.8900135 0.9254921 0.9242366

model/time_distributed_5/dense/MatMul f4 [32, 168]
00000000: 3d93 6d3e d7d8 a43d da3e 8d3d 6757 dcbd
00000010: 90f6 cd3d b1ab 863d e5b5 193e 60f3 7f3e
00000020: adaa 4cbd bc00 6cb8 432b 09be 0a0b 433e
00000030: 4676 1f3e 5730 373e 26ca d9bd 89b9 2b3e
00000040: f259 42be 39ed 16be 6aa6 25be 7a4b 31be
00000050: 5ca7 293e 711f 9d3d 5ba9 f63d 9411 78bd
00000060: 5d85 7c3d 52cb e73c 9422 50bd c2d2 1cbb
00000070: 8e1e 443e 3b70 e53d 4b6d 03bd a0e7 a13d
00000080: de8d 9ebd b211 7b3e bfc9 9d3d deac 9fbd
00000090: a193 4abe f17c 0a3e 6f26 b8bd 9e17 19be
000000a0: 17e2 2c3e a4d7 28be a2ff 2a3d a22d 33be
000000b0: 9a07 c0bb dfb4 c4bb 57c9 8bbd d024 46bd
000000c0: 1787 0b3e 3d2e 60bb d143 233d 7bbd 633d
000000d0: a96a 91bc 8e08 11be 65ff 1dbc 98f5 933d
000000e0: db99 f73d ae78 bf3c 729c 26be c58c 69bd
000000f0: 76f8 013e 69bf 6cbe 118c 92bd c6cc 463c
00000100: 2297 473d d59f 303d 53b0 f03d 800a 873d
00000110: ba25 ddbd 9110 503e ce5a 313e 5c21 9d3d
00000120: 301b 14be 4354 69be 1497 273d ae6a b83d
00000130: 9cd6 853d 5ccd d8bc 28ed 11be 19a9 31bd
00000140: b07b 5f3e f350 ee3d ab8d 20bd 09dd 113e
00000150: 4d32 b13d aa65 cebd 3962 b13d dd18 bc3d
00000160: 31de 183d b67c 4e3e c961 8bbd 4d08 803d
00000170: 8e5c 8f3d 32cb 783e f92a c4bd 2055 ffbd
00000180: 5e0a 9abc 0df7 5b3e 4d8d c7bc bb04 9f3d
00000190: 536e 32be 6c84 5dbc 6319 b23d f100 93bc
000001a0: 7297 d23d 8847 49be 2199 43bd 9798 5d3d
000001b0: 206e de3d 8090 4bbe 1330 c0bd b30d 773c
000001c0: 72d6 8abd e8cd 223e 3a46 a7bd ecd5 31bd
000001d0: 0609 0b3d b945 3dbe ccc4 14be e92b 293e
000001e0: 08a7 653d 88bf 0bbe 6c6f 843d d6d7 5b3d
000001f0: 91cb 153c 6b15 94bd 41c2 b7bc b853 1dbe
00000200: cde9 073e f9f7 873e cd6f 003e e4a0 ddbc
00000210: b000 053e 2e01 47be ed51 d03d edc8 d53b
00000220: ea8b b43d 53db c63c 5607 e0bd 3528 c53d
00000230: 6390 953d 4c8d 223e 4113 b3bd b90b 78bd
00000240: 9e90 cc3d ecd9 0c3d 75f1 0fbe 4f0c 203e
00000250: 7914 d8bd 2493 063e 8538 49bd 5a5d c2bd
00000260: 8c50 9ebd ed2b 0bbe c9fb 0abd 78f3 92bd
00000270: 862f 87be 3ab9 4e3d b29a 02be 895d f2bd
00000280: 996b 23be 84cc 243d 3350 5abd a1d3 a7bc
00000290: 9a50 65bd 273e 853d 468c da3d b0bf b53d
000002a0: 6f4f dcbd 8a7f 223e 7da6 363e 6e54 34be
000002b0: 8cd0 413e 9804 2a3e 337b 40be b734 183d
000002c0: 2269 f6bd 2706 203c eef2 473d b0ff c93d
000002d0: 9f50 3a3d 9690 13be 73a3 813d 0004 513c
000002e0: 5122 5bbd 0825 eb3d eeae 1d3d d645 42be
000002f0: 4396 933b 0742 463e 9d26 da3c d073 843e
00000300: a0f9 3c3e 4bb0 443d 0315 853c 96c0 13bc
00000310: 4ae6 d0bd 4d77 3a3e 5346 74bd c4a2 d03d
00000320: 40b3 c23a acf8 f83d ae10 9dbd a7e9 94bc
00000330: ea7f 7dbd 0273 debd 0039 e7bb 3379 08be
00000340: 9f91 a53d 81b6 593d cce1 83bc ace2 efbd
00000350: e501 bb3c ef8f 013e 1097 dd3d 480c 173e
00000360: 5114 e93c f44c 84bc f39e 40be c378 e1bd
00000370: e8dd 1dbd b6dd 773d dfcc 0c3e 5ed4 64bc
00000380: 3bfc a5bd 1f79 4c3e 9a43 8cbb b44f bdbc
00000390: 2ebd e1b8 72b8 f83d f9f1 1b3e db3f 293c
000003a0: 5806 2e3e 9727 c03d bf05 1c3c 772b a53d
000003b0: 546a 01be 211b 36be 9272 02be 37f9 36bd
000003c0: 164d edbd dc89 fc3c d6a3 d5be 2767 65be
000003d0: eb4d c63d fa16 ea3c cb71 1e3e 940d 38be
000003e0: 74fb b13a 537b 30bc 53cd 5ebd 3bb6 d9bd
000003f0: 695b 6f3d be4c c5bd 663a 39be 56e7 09be
0.23200698 0.080491714 0.068967536 -0.10758858 0.10056794 0.06575716 0.15010794 0.24995184
-0.049967457 -5.626747e-05 -0.1339541 0.1904718 0.15572461 0.17889534 -0.1063426 0.16769995
-0.18979624 -0.14738931 -0.16176763 -0.17313948 0.16567749 0.076720126 0.12044021 -0.06056364
0.061650623 0.028295193 -0.050814226 -0.0023929332 0.1915228 0.11203047 -0.03208665 0.07905507
-0.07741903 0.24518469 0.07704496 -0.07796644 -0.19782878 0.13524224 -0.089917056 -0.14950415
0.16883121 -0.1648851 0.041747697 -0.17497876 -0.005860281 -0.006003007 -0.06825512 -0.04837495
0.13625751 -0.0034207248 0.039859597 0.055600625 -0.017751055 -0.1416342 -0.00964341 0.07224578
0.120898925 0.023372974 -0.16270617 -0.057019014 0.12692437 -0.23119892 -0.07155622 0.012133783
0.048728116 0.043121178 0.11752381 0.065937996 -0.107982114 0.2031882 0.17319795 0.076723784
-0.14463496 -0.2278605 0.040915564 0.090047225 0.06535074 -0.02646511 -0.14250624 -0.043374155
0.21824527 0.116365336 -0.039197605 0.14244474 0.08652172 -0.10077985 0.086613126 0.0918443
0.037321273 0.20164761 -0.068057604 0.06251583 0.07000075 0.24296263 -0.09578509 -0.12467408
-0.018803772 0.21480961 -0.02435937 0.07764574 -0.17424898 -0.013520341 0.086962484 -0.017944785
0.10282792 -0.19656193 -0.047753457 0.0541006 0.108608484 -0.19879341 -0.093841694 0.01507895
-0.067791834 0.1589886 -0.081676915 -0.043416902 0.033944152 -0.18483628 -0.14528197 0.16520657
0.056067497 -0.13647282 0.064665645 0.053672634 0.009142772 -0.07230648 -0.022431495 -0.15363967
0.13272782 0.26556376 0.12542649 -0.027054258 0.12988544 -0.19434044 0.10171876 0.0065241964
0.08815749 0.024274504 -0.10938899 0.096268095 0.0730293 0.15874213 -0.08743907 -0.060558055
0.09988521 0.034387514 -0.14056952 0.15629695 -0.1055078 0.13142067 -0.049126167 -0.09490462
-0.07730207 -0.13590975 -0.033931527 -0.07175344 -0.26403445 0.050469615 -0.12754324 -0.11834247
-0.15959014 0.040234104 -0.05329914 -0.020486655 -0.05598507 0.06505995 0.10671286 0.08874452
-0.10757338 0.15868965 0.17836948 -0.17610332 0.1892721 0.16603315 -0.18796997 0.037159648
-0.12031771 0.009767092 0.04881566 0.09863222 0.045487043 -0.14410624 0.063300036 0.012757301
-0.053499524 0.114816725 0.038496904 -0.18971953 0.0045039966 0.19361125 0.02662974 0.25869608
0.184546 0.04801969 0.01624537 -0.009018084 -0.10200174 0.18209572 -0.05963738 0.10187295
0.0014854446 0.121568054 -0.07669197 -0.01817782 -0.061889566 -0.1086178 -0.0070563555 -0.13327484
0.08084416 0.053152565 -0.01609888 -0.11713156 0.022828052 0.12652563 0.108198285 0.14750779
0.02845207 -0.016149975 -0.18810634 -0.110093616 -0.038541704 0.060514174 0.13750027 -0.013966648
-0.0810475 0.19968079 -0.0042805197 -0.023109294 -0.000107640735 0.12144555 0.15229024 0.010330166
0.16994607 0.09382551 0.009522854 0.08064931 -0.12638217 -0.17783786 -0.12739018 -0.044671264
-0.115869686 0.030827455 -0.4172656 -0.22402631 0.096828304 0.02857541 0.15473096 -0.1797393
0.0013578967 -0.01077159 -0.05439503 -0.10630461 0.058436785 -0.09633778 -0.18088683 -0.13467154

model/time_distributed_9/batch_normalization_1/FusedBatchNormV3 f4 [16]
00000000: f6db 04bf 3e29 16bf 80ab 23bf c44f 00bf
00000010: cfc1 04bf b201 1bbf 54c7 d8be 08db 03bf
00000020: 911a a3be b2a7 0cbf 8f06 05bf e892 1fbf
00000030: 38f9 f8be 6ea1 12bf be70 08bf f6b2 ebbe
-0.51898134 -0.5865668 -0.63933563 -0.5012171 -0.5185823 -0.6054946 -0.42339575 -0.5150609
-0.31856206 -0.5494338 -0.5196313 -0.62333536 -0.4862764 -0.5727757 -0.5329703 -0.46034974

model/time_distributed_9/batch_normalization_1/FusedBatchNormV31 f4 [16]
00000000: 7e26 ac3f d7f8 ac3f d19a bf3f 6510 943f
00000010: c027 b03f 587a 9f3f 6438 953f 1568 b23f
00000020: 7d87 d13f 5452 8c3f d422 b63f 7775 9d3f
00000030: d58c a73f d4d9 9b3f a580 ba3f 4bd0 af3f
1.3449247 1.351344 1.4969121 1.1567503 1.3762131 1.2459211 1.1657834 1.3938013
1.6369473 1.0962625 1.4229379 1.2301472 1.3089854 1.2175851 1.4570509 1.3735441
