HPC_Final_Study2_Complete_Test_Class_Balance_run_all/participants_session_transfer_train/participant_1/session_3/session_3_lite_models/indexpen_model_quant.tflite (tflite, 412752 bytes, 45 tensors)

model/time_distributed_3/conv2d_1/BiasAdd;model/time_distributed_11/conv2d_3/Conv2D;model/time_distributed_3/conv2d_1/Conv2D;model/time_distributed_3/conv2d_1/BiasAdd/ReadVariableOp/resource f2 [16]
-0.1971 -0.1266 -0.01892 -0.03754 0.1342 -0.0658 -0.1349 -0.01292
-0.0867 -0.1302 -0.0171 -0.06104 -0.2183 -0.1938 0.0888 -0.1465
00000000: 4fb2 0db0 d8a4 cea8 4b30 36ac 51b0 9da2
00000010: 8cad 2bb0 61a4 d0ab fcb2 34b2 af2d b0b0

model/time_distributed/conv2d/BiasAdd;model/time_distributed_8/conv2d_2/Conv2D;model/time_distributed/conv2d/Conv2D;model/time_distributed/conv2d/BiasAdd/ReadVariableOp/resource f2 [8]
-0.0418 0.01768 -0.011894 0.001974 0.0857 0.00916 0.1637 0.00424
00000000: 5aa9 8724 17a2 0b18 7c2d b120 3d31 571c

model/time_distributed_11/conv2d_3/BiasAdd;model/time_distributed_11/conv2d_3/Conv2D;model/time_distributed_11/conv2d_3/BiasAdd/ReadVariableOp/resource f2 [16]
0.0015745 0.1065 -0.0189 0.03586 0.0653 -0.00629 0.00272 0.0642
-0.00553 0.01262 -0.01666 -0.00507 -0.002441 -0.02122 0.02975 -0.06116
00000000: 7316 d12e d7a4 9728 2e2c 719e 9219 1c2c
00000010: aa9d 7622 44a4 319d 0099 6fa5 9e27 d4ab

model/time_distributed_8/conv2d_2/BiasAdd;model/time_distributed_8/conv2d_2/Conv2D;model/time_distributed_8/conv2d_2/BiasAdd/ReadVariableOp/resource f2 [8]
0.06042 0.001806 -0.001921 -0.008965 0.02058 0.1439 0.02275 -0.00903
00000000: bc2b 6617 de97 97a0 4525 9b30 d325 a0a0

model/time_distributed_3/conv2d_1/Conv2D f2 [16, 3, 3, 8]
0.0674 -0.05072 0.01015 -0.262 0.01349 0.02582 -0.06665 -0.0456
-0.0187 -0.014206 -0.04565 0.03354 0.1141 0.03735 0.1931 -0.03442
0.01955 -0.03928 -0.04327 0.02586 -0.1523 -0.04276 -0.005836 0.01855
-0.035 -0.0789 -0.02313 -0.05276 -0.0654 0.04575 0.1719 0.02225
-0.0559 0.02129 -0.02843 0.276 -0.1077 0.02684 0.01426 0.03476
-0.03473 0.0366 0.001703 -0.0943 0.01456 -0.08264 -0.2201 0.04034
-0.0321 0.04654 0.03714 0.0724 -0.0747 0.01076 0.1403 0.003828
-0.03262 0.03207 -0.02556 -0.1526 -0.1032 -0.0713 0.2896 -0.003975
-0.02574 -0.001044 -0.04968 -0.09784 -0.01503 -0.03223 0.4836 0.0144
-0.03357 0.03564 -0.0846 -0.1465 0.0742 -0.0004973 -0.2957 0.0997
-0.0001068 0.02914 -0.03183 -0.02913 0.09467 -0.03062 -0.002144 0.001704
-0.03735 -0.003157 0.02632 -0.05383 -0.1674 0.04733 0.3174 -0.0386
-0.02786 0.04483 -0.0646 0.1661 0.03308 0.0121 -0.1683 0.06726
-0.133 0.01662 0.004696 -0.02495 0.09485 -0.004612 -0.3237 0.02678
-0.1287 0.04773 -0.003216 -0.1306 0.02702 0.0668 0.2625 0.0269
-0.02498 0.062 -0.02739 -0.0912 0.1644 0.05334 0.04187 0.01164
-0.01756 0.02498 0.00246 -0.123 -0.1188 0.00873 0.2352 0.06445
0.011635 0.01753 -0.0642 0.01379 -0.1412 0.02068 0.3867 0.075
-0.06018 0.001319 -0.03436 -0.10834 -0.14 -0.001313 -0.168 0.05798
-0.05307 -0.01282 -0.0858 -0.05325 -0.00898 0.0603 0.1783 0.02878
-0.07245 -0.0499 0.007435 0.03854 -0.03864 0.0495 -0.1514 -0.01494
0.00406 0.03604 -0.04163 0.1494 -0.2324 0.03976 -0.3835 0.05164
-0.04413 0.0715 -0.0368 -0.0888 -0.0698 -0.006344 -0.3594 -0.01839
0.004074 -0.00786 0.02588 0.2012 0.00452 -0.02739 -0.1503 0.0396
0.02272 -0.002129 -0.03403 -0.1276 -0.011566 0.05518 0.05136 -0.03418
-0.0053 0.0344 -0.001923 -0.3472 -0.2399 0.01773 0.1399 -0.024
0.00651 0.01674 -0.01628 -0.01021 -0.3618 -0.0495 0.1703 0.0359
-0.06113 0.07526 -0.06027 -0.1038 0.06305 0.02243 0.073 -0.01688
-0.05463 0.04395 -0.02844 0.1442 -0.1715 -0.02933 -0.10406 0.00758
-0.09064 -0.006874 0.03528 -0.2537 -0.0269 -0.003738 0.0699 -0.02608
0.00851 0.01034 -0.06494 -0.02148 -0.02187 0.007694 0.0379 0.00994
0.03268 0.05057 -0.02037 -0.05573 -0.1667 0.02083 -0.0907 0.003244
00000000: 502c 7eaa 3221 31b4 e822 9c26 44ac d6a9
00000010: caa4 46a3 d8a9 4b28 4d2f c828 2e32 68a8
00000020: 0125 07a9 8aa9 9f26 e0b0 79a9 fa9d c024
00000030: 7ba8 0dad eca5 c1aa 30ac db29 8031 b225
00000040: 28ab 7325 47a7 6a34 e5ae df26 4d23 7328
00000050: 72a8 af28 fa16 09ae 7423 4aad 0bb3 2a29
00000060: 1ca8 f529 c128 a22c c8ac 8221 7d30 d71b
00000070: 2da8 1b28 8ba6 e2b0 9bae 90ac a234 129c
00000080: 97a6 4794 5caa 43ae b2a3 20a8 bd37 5f23
00000090: 4ca8 9028 6aad b0b0 c02c 1390 bbb4 612e
000000a0: 0087 7627 13a8 75a7 0f2e d7a7 6498 fb16
000000b0: c8a8 779a bd26 e4aa 5bb1 0f2a 1435 f1a8
000000c0: 22a7 bd29 22ac 5131 3c28 3222 63b1 4e2c
000000d0: 42b0 4124 cf1c 63a6 122e b99c 2eb5 db26
000000e0: 1eb0 1c2a 969a 2eb0 eb26 462c 3334 e326
000000f0: 65a6 f02b 03a7 d6ad 4331 d42a 5c29 f621
00000100: 7fa4 6526 0a19 dfaf 9aaf 7820 8733 202c
00000110: f521 7d24 1cac 0f23 85b0 4b25 3036 cd2c
00000120: b4ab 6715 66a8 efae 7bb0 6195 60b1 6c2b
00000130: cbaa 90a2 7ead d1aa 99a0 b82b b531 5e27
00000140: a3ac 63aa 9d1f ef28 f2a8 562a d8b0 a6a3
00000150: 281c 9d28 54a9 c830 70b3 1729 23b6 9c2a
00000160: a6a9 932c b6a8 afad 78ac 7f9e c0b5 b5a4
00000170: 2c1c 06a0 a026 7032 a11c 03a7 cfb0 1229
00000180: d125 5c98 5ba8 15b0 eca1 102b 932a 60a8
00000190: 6d9d 6728 e097 8eb5 adb3 8a24 7a30 25a6
000001a0: ab1e 4924 2ba4 3aa1 cab5 56aa 7331 9828
000001b0: d3ab d12c b7ab a5ae 092c be25 ac2c 52a4
000001c0: feaa a029 48a7 9d30 7db1 82a7 a9ae c31f
000001d0: cdad 0a9f 8428 0fb4 e3a6 a89b 792c ada6
000001e0: 5b20 4b21 28ac 80a5 99a5 e11f da28 1721
000001f0: 2f28 792a 37a5 22ab 56b1 5525 cead a51a

model/time_distributed/conv2d/Conv2D f2 [8, 3, 3, 1]
0.001146 0.0007787 0.002272 0.00034 -0.002928 0.000544 -0.001294 -0.0008206
-0.0004869 -0.0005784 0.0002013 0.0004807 0.001601 -0.000988 0.0001498 -0.00114
0.0003297 -0.0003455 0.0006394 -0.001938 0.0005937 0.0012455 0.001805 0.0008354
-1.335e-05 -0.0007734 0.000393 0.00728 -0.001618 -0.003052 0.013 -0.006474
-0.01214 0.00326 -0.01131 0.01874 -0.006527 -0.0007534 0.004864 -0.003061
0.007763 -0.00552 0.04117 0.002846 -0.0092 -7.993e-05 0.001816 0.0008383
-0.000566 -0.001058 -0.00012046 0.0001614 0.0008707 -0.001042 -0.00552 0.004234
0.00148 -0.007225 0.0003314 0.003645 -0.012344 -0.0298 -0.006035 0.0004606
-0.001976 0.00444 0.002895 0.002419 -0.001421 -0.005535 -0.001947 0.0006533
00000000: b214 6112 a718 920d ff99 7510 4d95 b992
00000010: fa8f bd90 990a e00f 8f16 0c94 e908 ab94
00000020: 670d a98d 3d11 f097 dd10 1a15 6517 d812
00000030: e080 5692 700e 741f a196 409a a822 a19e
00000040: 37a2 ad1a caa1 cc24 af9e 2c92 fb1c 459a
00000050: f31f a79d 4529 d419 b6a0 3d85 7017 de12
00000060: a390 5594 e587 4a09 2213 4594 a79d 561c
00000070: 1016 669f 6e0d 771b 52a2 a1a7 2e9e 8c0f
00000080: 0c98 8c1c ee19 f418 d295 ab9d fa97 5a11

model/time_distributed_11/conv2d_3/Conv2D f2 [16, 3, 3, 8]
0.1796 -0.003778 0.0191 0.01254 -0.358 -0.3184 -0.1362 -0.081
-0.004105 0.01248 0.02718 -0.01688 -0.3345 0.1998 -0.168 -0.07574
-0.12103 0.00706 0.01823 -0.007637 -0.3635 0.011116 0.07324 -0.0511
-0.2263 -0.02182 0.03516 -0.01217 0.05954 0.135 -0.3328 -0.009514
0.02786 -0.04172 0.01608 0.01617 0.0249 -0.00736 0.0905 0.03558
0.012024 -0.00828 0.007626 0.008995 0.005814 -0.2451 0.0887 0.04724
0.02586 -0.0459 0.01851 0.02213 -0.0333 -0.0993 -0.1584 -0.007576
-0.01325 0.04333 -0.002 0.04987 0.05826 0.00917 -0.02345 -0.01573
0.0562 0.0008626 -0.00367 0.0653 0.3206 -0.03278 -0.3203 0.082
0.4858 0.00894 0.006214 0.0361 0.2095 -0.103 -0.3105 -0.012085
0.00967 -0.03412 -0.00891 -0.0994 -0.1543 0.1644 -0.08826 -0.04105
-0.4802 -0.0302 0.005756 -0.05588 -0.412 -0.1415 0.3318 -0.002274
-0.2783 -0.03345 0.02383 -0.02582 -0.3926 0.2156 -0.2341 0.02269
0.1975 -0.00939 0.02818 0.05685 -0.2766 -0.2783 -0.1681 -0.09247
0.0869 -0.0594 -0.04132 -0.02002 0.267 0.01335 0.00683 0.0399
0.1511 -0.0498 0.0364 0.006424 0.078 0.1736 -0.2043 -0.0001519
-0.2202 -0.03114 0.06824 -0.07886 -0.1191 -0.1377 -0.10114 -0.0871
-0.10187 -0.0645 0.00982 0.0183 -0.3682 -0.1486 0.07764 -0.06137
-0.01567 0.01372 -0.003336 -0.01007 -0.007454 0.02281 0.012535 0.02118
-0.0181 0.01331 -0.002554 -0.00935 -0.006165 0.0235 0.01316 0.02155
-0.02408 0.01303 -0.002087 -0.00858 -0.004963 0.02802 0.00535 0.0218
-0.014206 0.0123 -0.004948 -0.003403 -0.0134 0.010864 -0.02248 0.01131
-0.01761 0.01143 -0.00592 -0.004845 -0.01211 0.011566 -0.03223 0.01359
-0.02264 0.01094 -0.006516 -0.005802 -0.008415 0.006176 -0.02695 0.01724
0.01048 -0.00603 -0.003456 -0.006664 -0.03099 -0.007034 -0.01528 -0.00854
0.01124 -0.00617 -0.00397 -0.004173 -0.03537 -0.005245 -0.01936 -0.00969
0.000356 -0.006413 -0.003195 -0.00233 -0.0344 -0.004143 -0.02094 -0.010605
-0.2052 0.005024 0.0408 0.01499 0.103 -0.03021 -0.2437 0.06033
0.1978 8.04e-05 0.03842 0.012054 0.087 0.01466 -0.2773 0.04935
0.0004637 0.00602 0.03433 -0.01084 -0.0963 0.1375 0.1465 0.04636
0.384 0.01471 -0.02809 0.0511 -0.308 0.1957 -0.11505 0.07385
-0.0921 0.03044 -0.03952 -0.004353 -0.0831 0.04205 -0.11194 0.02293
00000000: bf31 bd9b e424 6c22 bab5 18b5 5cb0 2fad
00000010: 349c 6422 f526 52a4 5ab5 6532 60b1 d9ac
00000020: bfaf 3b1f ab24 d29f d1b5 b121 b02c 8aaa
00000030: 3eb3 96a5 8028 3ba2 9f2b 5230 53b5 dfa0
00000040: 2227 57a9 1e24 2424 6026 899f cb2d 8e28
00000050: 2822 3da0 cf1f 9b20 f41d d8b3 ad2d 0c2a
00000060: 9f26 e0a9 bd24 aa25 43a8 5bae 12b1 c29f
00000070: c9a2 8c29 1998 622a 752b b220 01a6 07a4
00000080: 322b 1113 849b 2e2c 2135 32a8 20b5 3f2d
00000090: c637 9420 5d1e 9f28 b432 98ae f8b4 30a2
000000a0: f320 5ea8 90a0 5dae f0b0 4331 a6ad 41a9
000000b0: afb7 bba7 e51d 27ab 98b6 87b0 4f35 a898
000000c0: 74b4 48a8 1a26 9ca6 48b6 e632 7eb3 cf25
000000d0: 5232 cfa0 3727 472b 6db4 74b4 61b1 ebad
000000e0: 902d 9aab 4aa9 20a5 4634 d622 fe1e 1b29
000000f0: d630 60aa a928 941e fe2c 8e31 8ab2 fa88
00000100: 0cb3 f9a7 5e2c 0cad 9faf 68b0 79ae 93ad
00000110: 85ae 21ac 0721 af24 e4b5 c1b0 f82c dbab
00000120: 03a4 0623 d59a 28a1 a29f d725 6b22 6c25
00000130: a2a4 d122 3b99 caa0 509e 0426 bd22 8425
00000140: 2aa6 ac22 4698 65a0 159d 2c27 7a1d 9525
00000150: 46a3 4c22 119d f89a dca2 9021 c1a5 ca21
00000160: 82a4 da21 109e f69c 33a2 ec21 20a8 f522
00000170: cca5 9a21 ac9e f19d 4fa0 531e e6a6 6a24
00000180: 5e21 2d9e 149b d39e efa7 349f d3a3 5fa0
00000190: c121 519e 119c 469c 87a8 5f9d f5a4 f6a0
000001a0: d50d 919e 8b9a c698 67a8 3e9c 5ca5 6ea1
000001b0: 91b2 251d 3929 ad23 982e bca7 ccb3 b92b
000001c0: 5432 4505 eb28 2c22 912d 8223 70b4 512a
000001d0: 990f 2a1e 6528 8da1 2aae 6630 b030 ef29
000001e0: 2536 8823 31a7 8a2a eeb4 4332 5daf ba2c
000001f0: e5ad cb27 0fa9 759c 52ad 6229 2aaf df25

model/time_distributed_8/conv2d_2/Conv2D f2 [8, 3, 3, 1]
-0.02504 -0.03268 0.04477 0.0731 -0.0715 0.001139 -0.0518 0.014595
0.03108 0.003557 -0.0008163 0.001877 -0.004013 0.000461 0.002022 -0.003073
0.000998 0.00284 0.007504 -0.00735 -0.001556 0.002548 0.00219 -0.004818
-0.002077 0.0003402 0.000977 0.00669 -0.0077 0.004074 -0.00133 0.00213
-0.0006127 0.0026 -0.001906 -7.343e-05 0.00583 0.002457 0.00753 0.01695
-0.03732 0.004337 -0.00644 0.00998 0.0258 -0.03455 0.0609 0.02643
0.033 -0.09705 0.04288 -0.03598 0.06793 -0.03217 0.02206 -0.0536
0.0259 -0.01834 0.02744 0.00494 0.01064 0.04767 -0.0736 0.00107
-0.00888 0.007484 0.01309 -0.02509 0.01321 0.001062 -0.0007286 -0.001112
00000000: 69a6 2fa8 bb29 ae2c 93ac aa14 a1aa 7923
00000010: f527 491b b092 b017 1c9c 8e0f 2418 4b9a
00000020: 1614 d119 af1f 879f 6096 3819 7c18 ef9c
00000030: 4198 930d 0014 da1e e39f 2c1c 7395 5d18
00000040: 0591 5319 cf97 d084 f81d 0819 b61f 5724
00000050: c7a8 711c 989e 1c21 9b26 6ca8 cc2b c426
00000060: 3928 36ae 7d29 9ba8 592c 1ea8 a625 dcaa
00000070: a126 b2a4 0627 0f1d 7321 1a2a b6ac 6214
00000080: 8ca0 aa1f b422 6ca6 c322 5a14 f891 8e94

model/lstm/TensorArrayV2_1 f2 [120, 1, 32]
0.0 0.0 0.0 0.0 0.0 0.0 0.0 0.0
0.0 0.0 0.0 0.0 0.0 0.0 0.0 0.0
0.0 0.0 0.0 0.0 0.0 0.0 0.0 0.0
0.0 0.0 0.0 0.0 0.0 0.0 0.0 0.0
0.0 0.0 0.0 0.0 0.0 0.0 0.0 0.0
0.0 0.0 0.0 0.0 0.0 0.0 0.0 0.0
0.0 0.0 0.0 0.0 0.0 0.0 0.0 0.0
0.0 0.0 0.0 0.0 0.0 0.0 0.0 0.0
0.0 0.0 0.0 0.0 0.0 0.0 0.0 0.0
0.0 0.0 0.0 0.0 0.0 0.0 0.0 0.0
0.0 0.0 0.0 0.0 0.0 0.0 0.0 0.0
0.0 0.0 0.0 0.0 0.0 0.0 0.0 0.0
0.0 0.0 0.0 0.0 0.0 0.0 0.0 0.0
0.0 0.0 0.0 0.0 0.0 0.0 0.0 0.0
0.0 0.0 0.0 0.0 0.0 0.0 0.0 0.0
0.0 0.0 0.0 0.0 0.0 0.0 0.0 0.0
0.0 0.0 0.0 0.0 0.0 0.0 0.0 0.0
0.0 0.0 0.0 0.0 0.0 0.0 0.0 0.0
0.0 0.0 0.0 0.0 0.0 0.0 0.0 0.0
0.0 0.0 0.0 0.0 0.0 0.0 0.0 0.0
0.0 0.0 0.0 0.0 0.0 0.0 0.0 0.0
0.0 0.0 0.0 0.0 0.0 0.0 0.0 0.0
0.0 0.0 0.0 0.0 0.0 0.0 0.0 0.0
0.0 0.0 0.0 0.0 0.0 0.0 0.0 0.0
0.0 0.0 0.0 0.0 0.0 0.0 0.0 0.0
0.0 0.0 0.0 0.0 0.0 0.0 0.0 0.0
0.0 0.0 0.0 0.0 0.0 0.0 0.0 0.0
0.0 0.0 0.0 0.0 0.0 0.0 0.0 0.0
0.0 0.0 0.0 0.0 0.0 0.0 0.0 0.0
0.0 0.0 0.0 0.0 0.0 0.0 0.0 0.0
0.0 0.0 0.0 0.0 0.0 0.0 0.0 0.0
0.0 0.0 0.0 0.0 0.0 0.0 0.0 0.0
00000000: 0000 0000 0000 0000 0000 0000 0000 0000
00000010: 0000 0000 0000 0000 0000 0000 0000 0000
00000020: 0000 0000 0000 0000 0000 0000 0000 0000
00000030: 0000 0000 0000 0000 0000 0000 0000 0000
00000040: 0000 0000 0000 0000 0000 0000 0000 0000
00000050: 0000 0000 0000 0000 0000 0000 0000 0000
00000060: 0000 0000 0000 0000 0000 0000 0000 0000
00000070: 0000 0000 0000 0000 0000 0000 0000 0000
00000080: 0000 0000 0000 0000 0000 0000 0000 0000
00000090: 0000 0000 0000 0000 0000 0000 0000 0000
000000a0: 0000 0000 0000 0000 0000 0000 0000 0000
000000b0: 0000 0000 0000 0000 0000 0000 0000 0000
000000c0: 0000 0000 0000 0000 0000 0000 0000 0000
000000d0: 0000 0000 0000 0000 0000 0000 0000 0000
000000e0: 0000 0000 0000 0000 0000 0000 0000 0000
000000f0: 0000 0000 0000 0000 0000 0000 0000 0000
00000100: 0000 0000 0000 0000 0000 0000 0000 0000
00000110: 0000 0000 0000 0000 0000 0000 0000 0000
00000120: 0000 0000 0000 0000 0000 0000 0000 0000
00000130: 0000 0000 0000 0000 0000 0000 0000 0000
00000140: 0000 0000 0000 0000 0000 0000 0000 0000
00000150: 0000 0000 0000 0000 0000 0000 0000 0000
00000160: 0000 0000 0000 0000 0000 0000 0000 0000
00000170: 0000 0000 0000 0000 0000 0000 0000 0000
00000180: 0000 0000 0000 0000 0000 0000 0000 0000
00000190: 0000 0000 0000 0000 0000 0000 0000 0000
000001a0: 0000 0000 0000 0000 0000 0000 0000 0000
000001b0: 0000 0000 0000 0000 0000 0000 0000 0000
000001c0: 0000 0000 0000 0000 0000 0000 0000 0000
000001d0: 0000 0000 0000 0000 0000 0000 0000 0000
000001e0: 0000 0000 0000 0000 0000 0000 0000 0000
000001f0: 0000 0000 0000 0000 0000 0000 0000 0000

model/dense/BiasAdd/ReadVariableOp/resource f2 [256]
-0.0478 0.03275 -0.014854 0.0905 0.005863 -0.01143 -0.04092 -0.0752
-0.01976 -0.1096 -0.01987 -0.0589 0.03986 -0.0512 -0.0265 -0.0978
-0.05014 -0.02031 0.10614 0.05997 0.03595 -0.002089 0.003256 0.07764
0.0191 0.0495 -0.0382 0.01507 0.02962 0.03467 -0.04916 0.01764
-0.03061 -0.01114 -0.006943 0.0528 -0.03986 -0.0751 -0.1667 -0.02151
-0.0005827 -8.1e-06 -0.1177 0.02525 -0.06476 0.01497 0.02217 -0.04297
0.07245 -0.01637 0.003077 0.1094 0.01165 -0.02357 -0.01971 -0.04565
-0.00297 0.00971 0.03958 0.004013 0.05588 0.003725 -0.0435 -0.000319
-0.007042 -0.07086 0.0418 0.0612 0.06866 0.02405 -0.01727 -0.05496
0.0577 -0.01634 -0.04657 0.02655 -0.01727 -0.01124 -0.001697 0.0667
-0.01052 0.02246 0.01817 0.07086 -0.01773 -0.005226 0.00958 -0.02266
0.03796 -0.01889 -0.0451 -0.05527 0.04736 0.004143 0.07465 -0.0538
-0.03848 -0.006416 -0.002403 0.0592 -0.02167 -0.002087 0.004803 -0.08734
0.013855 -0.01692 0.001714 0.03162 0.0479 -0.0321 0.04944 0.01371
0.038 0.079 0.06396 -0.01283 0.03683 0.04306 -0.012985 -0.02951
-0.0335 -0.1091 -0.04797 -0.03973 0.013176 0.0167 0.03848 0.0206
0.02068 -0.011055 -0.01056 0.01703 0.001414 -0.0958 0.03406 -0.007683
-0.058 0.09216 0.04544 0.0704 -0.01724 -0.002617 -0.02617 -0.005318
-0.04742 0.03427 0.08264 -0.01636 0.0845 0.0192 -0.0759 0.011665
-0.0847 -0.1232 -0.05008 -0.0377 -0.0367 -0.02832 0.01653 0.0797
-0.02107 -0.05096 -0.0804 -0.00333 -0.02939 -0.0729 0.03546 0.001285
0.00719 0.01927 -0.04614 -0.0678 0.08685 0.02531 0.0274 -0.001727
0.01958 -0.01247 -0.02992 0.02753 0.0552 -0.001341 0.06744 0.02547
0.02013 0.0436 0.10724 -0.06006 0.09863 -0.02974 0.0421 0.005417
-0.01866 0.0353 -0.0325 0.01155 -0.03857 0.0553 0.002876 -0.01697
0.00525 -0.05466 0.01384 -0.06903 -0.08875 0.0066 0.084 -0.06573
-0.01335 -0.001784 -0.013504 0.02972 0.004925 0.0565 -0.0825 -0.00256
-0.0375 0.02333 -0.0235 0.0001218 0.002651 -0.04675 0.00845 -0.1692
0.001426 -0.05298 0.0539 0.01465 -0.01325 -0.003777 0.04028 0.00985
0.06085 -0.02309 0.03 0.02318 -0.01259 -0.004753 -0.002392 -0.00462
-0.04553 -0.006252 -0.04584 -0.03906 -0.05746 0.02263 0.01321 0.01732
0.013695 -0.004997 0.01508 -0.0687 0.04034 0.03436 0.0356 -0.00711
00000000: 1eaa 3128 9ba3 cb2d 011e daa1 3da9 d0ac
00000010: 0fa5 04af 16a5 8aab 1a29 8eaa c9a6 42ae
00000020: 6baa 33a5 cb2e ad2b 9a28 4798 ab1a f82c
00000030: e424 562a e4a8 b723 9527 7028 4baa 8424
00000040: d6a7 b4a1 1c9f c22a 1aa9 ceac 56b1 82a5
00000050: c690 8880 88af 7726 25ac aa23 ad25 80a9
00000060: a32c 31a4 4d1a 002f f721 09a6 0ca5 d8a9
00000070: 159a f920 1129 1c1c 272b a11b 91a9 3a8d
00000080: 369f 89ac 5a29 d52b 652c 2826 6ca4 09ab
00000090: 632b 2fa4 f6a9 cc26 6ca4 c1a1 f396 452c
000000a0: 63a1 c025 a724 892c 8aa4 5a9d e820 cda5
000000b0: dc28 d6a4 c6a9 13ab 102a 3e1c c72c e3aa
000000c0: eda8 929e ec98 942b 8ca5 4698 eb1c 97ad
000000d0: 1823 55a4 0517 0c28 222a 1ca8 542a 0523
000000e0: dd28 0e2d 182c 92a2 b728 8329 a6a2 8ea7
000000f0: 4aa8 fbae 24aa 16a9 bf22 4624 ed28 4625
00000100: 4b25 a9a1 68a1 5c24 cb15 22ae 5c28 de9f
00000110: 6dab e62d d129 812c 6aa4 5c99 b3a6 729d
00000120: 12aa 6328 4a2d 30a4 682d ea24 dcac f921
00000130: 6cad e3af 69aa d3a8 b3a8 40a7 3b24 1a2d
00000140: 65a5 86aa 25ad d29a 86a7 aaac 8a28 4315
00000150: 5d1f ef24 e8a9 57ac 8f2d 7b26 0427 1397
00000160: 0325 62a2 a9a7 0c27 112b 7e95 512c 8526
00000170: 2725 9529 dd2e b0ab 502e 9da7 6429 8c1d
00000180: c7a4 8528 29a8 ea21 f0a8 142b e419 58a4
00000190: 601d ffaa 1623 6bac aead c21e 602d 35ac
000001a0: d6a2 4f97 eaa2 9c27 0b1d 3b2b 48ad 3e99
000001b0: cda8 f925 04a6 fb07 6e19 fca9 5420 6ab1
000001c0: d715 c8aa e62a 8023 c9a2 bc9b 2829 0b21
000001d0: ca2b e9a5 ae27 ef25 72a2 de9c e698 bb9c
000001e0: d4a9 679e dea9 00a9 5bab cb25 c322 6f24
000001f0: 0323 1e9d b923 66ac 2a29 6628 8f28 489f

model/last_layer/BiasAdd/ReadVariableOp/resource f2 [31]
-0.0332 -0.01176 0.02368 -0.00895 -0.0015745 0.01008 0.02994 0.00632
-0.05258 -0.01674 0.01875 -0.015015 0.00764 0.01683 0.0129 0.01685
0.02829 0.004925 -0.01747 -0.02158 -0.01564 0.02357 -0.01607 -0.007324
-0.005337 0.01344 -0.06155 0.02036 -0.03183 -0.01051 -0.01353
00000000: 40a8 05a2 1026 95a0 7396 2921 aa27 791e
00000010: bbaa 49a4 cd24 b0a3 d31f 4f24 9b22 5024
00000020: 3e27 0b1d 79a4 86a5 01a4 0926 1da4 809f
00000030: 779d e222 e1ab 3625 13a8 62a1 eda2

model/dense/MatMul f2 [256, 32]
-0.1042 0.05276 0.07544 -0.04895 0.0583 -0.08685 0.1165 -0.01157
-0.1136 -0.0352 -0.1186 0.02155 -0.3198 0.0844 -0.0585 0.0776
-0.0701 -0.01179 -0.0211 -0.05408 0.1492 -0.03345 0.04034 0.1382
-0.11084 0.02785 0.1686 0.1075 0.1631 -0.1426 -0.00972 -0.01335
0.1305 0.0832 -0.1592 -0.03137 -0.0253 0.1047 -0.07654 -0.0985
0.03069 0.007904 0.0713 0.0665 0.397 -0.0816 -0.03738 -0.02113
-0.001206 0.005344 -0.003096 0.07336 -0.1091 -0.0213 -0.05698 -0.1373
0.0686 -0.00709 -0.04752 -0.0267 0.03546 -0.05927 0.0823 -0.03503
0.1554 -0.1093 -0.01617 0.01689 -0.01973 0.0558 -0.1031 0.1512
-0.0446 0.0001347 0.0817 -0.05008 0.1627 -0.03705 0.08453 -0.01062
0.03111 0.02538 -0.01822 -0.04706 -0.01628 0.10266 0.0212 -0.02129
0.02037 0.00833 0.01869 -0.0656 -0.2484 0.2798 0.01906 -0.0725
0.083 -0.06726 0.1454 0.077 -0.00966 0.2029 -0.0887 0.0676
-0.04178 -0.02287 -0.04343 -0.01788 0.0914 -0.0426 -0.1968 0.0226
-0.0876 0.00676 -0.1394 0.0364 -0.01674 0.2593 -0.08044 -0.005817
0.1418 -0.1633 -0.1059 -0.09955 -0.01624 -0.07587 0.1998 -0.0963
-0.0764 0.0462 -0.2474 0.1525 -0.0003562 0.0189 -0.1821 0.184
-0.03165 -0.1075 0.1881 -0.1399 0.1456 -0.0463 0.0594 0.0808
-0.06635 0.0636 -0.04648 0.0222 -0.002697 -0.01776 -0.06073 0.00555
-0.0504 -0.01006 -0.05453 0.0576 -0.04248 0.014656 0.0194 -0.4363
0.07324 0.1399 0.004147 -0.0577 0.06793 -0.04236 0.07733 0.01581
-0.0352 0.00663 0.0853 0.1951 -0.01968 0.0887 -0.1448 -0.1293
0.009476 -0.06445 0.05066 0.0838 -0.05823 -0.0522 -0.0721 -0.3525
0.01046 -0.0863 -0.359 -0.0779 -0.003801 -0.0877 -0.02034 -0.0899
-0.03323 0.139 -0.04004 0.01648 -0.09906 0.064 0.0998 -0.11664
0.0911 -0.02055 0.03555 0.1879 0.004295 -0.1337 -0.0483 0.06122
-0.1715 0.03653 0.139 -0.014786 -0.038 -0.013214 0.1805 0.1401
0.04846 0.0808 -0.07434 0.02797 0.1995 -0.1219 0.05994 -0.00946
-0.0602 -0.03497 -0.01915 -0.02165 -0.03967 -0.00784 0.02614 -0.00957
-0.0426 -0.4077 0.155 -0.04224 0.03772 0.03494 0.1925 -0.01507
0.0292 -0.07983 -0.1675 -0.1566 -0.1087 0.07056 0.04443 0.12445
-0.03876 -0.02371 -0.1365 -0.05124 0.0778 -0.0441 0.042 -0.11127
00000000: abae c12a d42c 44aa 762b 8fad 752f eda1
00000010: 45af 81a8 97af 8425 1eb5 672d 7dab f72c
00000020: 7dac 09a2 67a5 ecaa c630 48a8 2a29 6c30
00000030: 18af 2127 6531 e12e 3831 90b0 faa0 d6a2
00000040: 2d30 532d 18b1 04a8 7aa6 b32e e6ac 4eae
00000050: db27 0c20 902c 422c 5a36 39ad c9a8 69a5
00000060: f194 791d 579a b22c fbae 74a5 4bab 65b0
00000070: 642c 439f 15aa d6a6 8a28 96ab 442d 7ca8
00000080: f930 ffae 24a4 5324 0da5 242b 99ae d730
00000090: b5a9 6a08 3b2d 69aa 3531 bea8 692d 70a1
000000a0: f727 7f26 aaa4 06aa 2ba4 922e 6d25 73a5
000000b0: 3725 4420 c924 33ac f3b3 7a34 e124 a4ac
000000c0: 502d 4eac a730 ee2c f2a0 7e32 adad 542c
000000d0: 59a9 dba5 8fa9 94a4 d92d 74a9 4cb2 c925
000000e0: 9bad ec1e 76b0 a928 49a4 2634 26ad f59d
000000f0: 8a30 3ab1 c7ae 5fae 28a4 dbac 6532 2aae
00000100: e4ac ea29 ebb3 e130 d68d d724 d4b1 e331
00000110: 0da8 e1ae 0532 7ab0 a930 eda9 9a2b 2c2d
00000120: 3fac 122c f3a9 af25 8699 8ca4 c6ab af1d
00000130: 74aa 27a1 fbaa 5f2b 70a9 8123 f724 fbb6
00000140: b02c 7a30 3f1c 63ab 592c 6ca9 f32c 0c24
00000150: 81a8 ca1e 762d 3e32 0aa5 ad2d a2b0 23b0
00000160: da20 20ac 7c2a 5d2d 74ab aeaa 9dac a4b5
00000170: 5b21 86ad beb5 fcac c99b 9dad 35a5 c1ad
00000180: 41a8 7330 20a9 3824 57ae 192c 632e 77af
00000190: d52d 43a5 8d28 0332 661c 47b0 2faa d62b
000001a0: 7db1 ad28 7330 92a3 dda8 c4a2 c731 7c30
000001b0: 342a 2c2d c2ac 2927 6232 cdaf ac2b d8a0
000001c0: b5ab 7aa8 e7a4 8ba5 14a9 04a0 b126 e6a0
000001d0: 74a9 86b6 f630 68a9 d428 7928 2932 b7a3
000001e0: 7a27 1cad 5cb1 03b1 f5ae 842c b029 f72f
000001f0: f6a8 12a6 5eb0 8faa fb2c a5a9 6029 1faf

model/last_layer/MatMul f2 [31, 256]
-0.06506 0.003609 0.0681 -0.013466 0.05057 -0.02892 -0.08624 -0.0783
0.0703 0.1146 -0.08417 -0.0868 0.0358 0.05063 -0.03625 -0.05936
-0.004 -0.0801 0.01782 0.01878 0.07227 0.004013 -0.06064 -0.0606
0.0705 -0.0592 0.0313 0.01444 -0.0867 0.0713 -0.08105 0.0292
-0.0665 0.01785 0.1182 0.001617 -0.03265 0.03574 0.0913 -0.0927
0.004 -0.013954 0.00814 -0.03647 0.0706 -0.0407 -0.09814 0.00905
0.0778 -0.03204 -0.0646 0.02075 0.006454 0.0949 -0.0864 -0.001722
-0.0869 0.06305 0.06506 0.02254 -0.03256 -0.09924 0.07947 -0.0702
-0.01274 0.07587 0.03177 -0.08685 -0.02753 0.07104 -0.0449 -0.02267
0.0328 0.03326 -0.01226 0.00412 0.0924 0.01733 0.0425 0.00636
-0.03296 0.06116 -0.08417 0.004826 0.0501 -0.0831 -0.04688 -0.02731
0.01866 -0.0674 -0.04044 -0.0425 -0.08484 0.007 -0.01794 0.1139
-0.04358 -0.0563 0.02055 -0.11865 0.04425 -0.05087 -0.0921 0.0775
-0.0411 0.0921 0.094 0.01685 -0.03494 0.01114 -0.00831 -0.03668
-0.09955 0.0761 0.0598 0.0687 0.06247 -0.101 0.05182 0.1071
0.01022 -0.00216 0.09174 0.0964 0.09894 -0.005447 -0.05618 0.014305
0.02805 0.0818 -0.0637 -0.0406 -0.02228 0.00664 0.02074 -0.02309
-0.0675 -0.0555 0.02357 -0.03256 0.0181 -0.0717 0.0785 -0.1097
0.09357 -0.0521 0.09283 0.0315 0.07806 -0.03091 -0.02023 -0.1021
0.009674 -0.0869 -0.07745 0.02557 0.07684 -0.01747 0.0731 0.10016
0.082 -0.01675 0.05927 0.0699 -0.03278 -0.0002354 -0.03284 0.04303
-0.02982 -0.02927 -0.0728 -0.07294 0.04327 0.00573 -0.07336 0.04248
-0.026 0.01409 0.014694 -0.0621 -0.0889 0.09796 0.01319 -0.07416
0.0006137 0.0676 -0.1166 0.07544 -0.0768 -0.04572 -0.1001 0.0988
0.01195 -0.01549 -0.03592 -0.0854 -0.06433 -0.04727 -0.03354 -0.005135
0.01627 -0.0516 0.0691 0.0357 -0.06256 0.061 -0.0687 0.1157
0.03876 0.103 0.01784 -0.02553 -0.0731 0.006058 0.1159 0.0494
0.0854 -0.04254 0.08044 -0.0699 0.04407 -0.01182 -0.01051 0.09033
0.09595 0.09796 -0.0816 -0.08234 0.0915 0.02353 -0.05566 0.002636
0.02966 0.0965 0.0485 0.0689 -0.0173 -0.01452 0.03378 -0.0857
-0.05597 -0.04138 0.0631 -0.06003 0.01662 0.04617 0.05032 -0.0171
0.0424 -0.01619 0.0818 0.08124 -0.0604 0.051 -0.10187 -0.02843
00000000: 2aac 641b 5c2c e5a2 792a 67a7 85ad 03ad
00000010: 802c 562f 63ad 8ead 9528 7b2a a4a8 99ab
00000020: 199c 20ad 9024 cf24 a02c 1c1c c3ab c2ab
00000030: 832c 94ab 0228 6523 8cad 902c 30ad 7a27
00000040: 42ac 9224 912f a016 2ea8 9328 d82d efad
00000050: 191c 25a3 2b20 aba8 852c 36a9 48ae a220
00000060: fb2c 1aa8 22ac 5025 9c1e 132e 88ad 0e97
00000070: 90ad 092c 2a2c c525 2ba8 5aae 162d 7eac
00000080: 86a2 db2c 1128 8fad 0ca7 8c2c bfa9 cea5
00000090: 3328 4228 47a2 381c ea2d 7024 7129 831e
000000a0: 38a8 d42b 63ad f11c 6a2a 52ad 00aa fea6
000000b0: c724 50ac 2da9 71a9 6ead 2b1f 98a4 4a2f
000000c0: 94a9 35ab 4325 98af aa29 83aa e5ad f62c
000000d0: 43a9 e52d 042e 5024 79a8 b421 41a0 b2a8
000000e0: 5fae df2c a82b 662c ff2b 77ae a22a db2e
000000f0: 3c21 6c98 df2d 2b2e 552e 949d 31ab 5323
00000100: 2e27 3c2d 14ac 32a9 b4a5 cd1e 4f25 e9a5
00000110: 52ac 1bab 0926 2ba8 a224 97ac 062d 05af
00000120: fd2d abaa f12d 0828 ff2c eaa7 2ea5 89ae
00000130: f420 90ad f5ac 8c26 eb2c 79a4 ae2c 692e
00000140: 3f2d 4aa4 962b 792c 32a8 b78b 34a8 8229
00000150: a2a7 7ea7 a9ac abac 8a29 de1d b2ac 7029
00000160: a8a6 3723 8623 f3ab b1ad 452e c122 bfac
00000170: 0711 542c 76af d42c eaac daa9 68ae 532e
00000180: 1e22 eea3 99a8 77ad 1eac 0daa 4ba8 429d
00000190: 2a24 9baa 6c2c 9228 01ac cf2b 66ac 682f
000001a0: f628 982e 9124 89a6 aeac 341e 6b2f 532a
000001b0: 772d 72a9 262d 79ac a429 0da2 62a1 c82d
000001c0: 242e 452e 39ad 45ad db2d 0626 20ab 6619
000001d0: 9827 2d2e 352a 692c 6ea4 6fa3 5328 7cad
000001e0: 2aab 4ca9 0a2c afab 4124 e929 712a 61a4
000001f0: 6d29 25a4 3c2d 332d bbab 872a 85ae 47a7

model/time_distributed_10/batch_normalization_2/FusedBatchNormV3 f2 [8]
-0.02313 -0.01872 -0.002094 -0.00763 -0.01331 -0.02649 -0.01701 -0.00478
00000000: eca5 cba4 4a98 d09f d1a2 c8a6 5ba4 e59c

model/time_distributed_10/batch_normalization_2/FusedBatchNormV31 f2 [8]
0.1919 0.0184 -0.02971 -0.06027 0.184 0.2327 0.283 0.01747
00000000: 2432 b624 9ba7 b7ab e331 7233 8734 7924

model/time_distributed_13/batch_normalization_3/FusedBatchNormV3 f2 [16]
-0.0821 -0.2932 -0.003675 -0.133 -0.0928 -0.001932 -0.08234 -0.2036
-0.0694 0.000602 -0.04904 -0.0422 -0.0615 -0.00359 -0.1332 0.00682
00000000: 41ad b1b4 879b 42b0 f0ad ea97 45ad 84b2
00000010: 71ac ee10 47aa 67a9 dfab 5a9b 43b0 fc1e

model/time_distributed_13/batch_normalization_3/FusedBatchNormV31 f2 [16]
2.38 2.986 -0.2173 1.989 1.003 -0.0585 2.12 1.855
3.414 -0.03662 2.408 1.891 3.248 -0.0932 2.188 3.889
00000000: c340 f941 f4b2 f53f 033c 7dab 3d40 6c3f
00000010: d442 b0a8 d140 903f 7f42 f7ad 6040 c743

model/time_distributed_2/batch_normalization/FusedBatchNormV3 f2 [8]
-0.010735 0.001738 -0.01172 -0.02884 -0.0808 0.000499 -0.1101 0.003098
00000000: 7fa1 1e17 00a2 62a7 2cad 1610 0caf 581a

model/time_distributed_2/batch_normalization/FusedBatchNormV31 f2 [8]
-0.02977 6.8e-06 -0.03995 0.0394 0.11115 0.00382 0.0925 0.03033
00000000: 9fa7 7200 1da9 0b29 1d2f d31b ec2d c427

model/time_distributed_5/batch_normalization_1/FusedBatchNormV3 f2 [16]
-0.03824 -0.1244 -0.302 -0.3264 -0.7417 -0.3276 -0.1844 -0.329
-0.301 -0.1108 -0.5327 -0.4585 0.04117 0.0347 -0.7515 -0.2015
00000000: e5a8 f6af d5b4 39b5 efb9 3eb5 e7b1 44b5
00000010: d1b4 17af 43b8 56b7 4529 7128 03ba 73b2

model/time_distributed_5/batch_normalization_1/FusedBatchNormV31 f2 [16]
3.904 3.002 3.691 3.195 3.297 4.176 3.791 3.861
3.969 2.867 4.387 4.098 4.88 6.13 3.246 5.02
00000000: cf43 0142 6243 6442 9842 2d44 9543 b943
00000010: f043 bc41 6344 1944 e144 2146 7e42 0545

model/lstm/while/lstm_cell_4/MatMul_4 f2 [32, 32]
0.0459 -0.0997 -0.4348 -0.5913 0.1644 0.6997 0.1361 0.08484
-0.461 -0.1346 -0.6846 0.4712 -0.408 -0.1114 0.2228 -0.279
-0.0975 -0.02463 0.2345 -0.156 -0.373 -0.501 -0.443 0.1686
0.1757 0.004284 -0.1769 -0.722 -0.03488 0.1586 0.2234 0.409
-0.4648 -0.2372 0.0563 -0.09186 0.00917 0.1674 -0.2803 -0.3652
-0.11993 -0.2393 -0.5347 0.07355 -0.4495 0.2178 0.4585 -0.2715
0.2708 -0.1362 0.5547 -0.0922 0.01244 0.254 -0.1212 0.2233
0.1317 0.01551 -0.1536 0.1436 0.2993 -0.1741 0.3472 0.1748
-0.587 0.8154 -0.05804 -0.9463 -0.1512 0.1423 0.2556 -0.12
0.4214 0.3767 -0.08765 0.4443 0.2332 0.1747 -0.707 -0.941
0.07306 0.224 0.1521 0.0632 -0.002388 0.4011 0.336 -0.2117
0.29 0.02191 0.0322 -0.1368 -0.1906 -0.411 -0.4377 0.10956
0.01288 0.02098 -0.04623 0.004833 -0.01481 0.02979 -0.0881 -0.01318
-0.06125 -0.009895 0.02588 -0.0527 0.01179 -0.02124 -0.01208 0.04605
0.0323 -0.0104 -0.10504 -0.1025 0.0562 0.02177 0.04153 0.05826
0.01881 0.0429 0.02335 0.0335 0.05582 0.00951 -0.06757 -0.005775
-0.2219 0.4707 -0.251 -0.5215 0.2202 -0.508 0.06836 -1.644
-0.7085 -0.1382 0.214 0.1587 -0.233 0.915 0.2211 0.2659
-0.2487 -0.652 0.4697 -0.154 -0.014244 -0.2986 0.1664 0.2039
0.3892 -0.4583 -0.003626 -0.64 -0.2401 0.5547 -0.35 0.08356
-0.1942 -0.1594 0.2037 -0.763 1.134 0.00542 -0.2798 -0.3745
-0.455 -0.527 1.007 1.62 0.3098 0.3472 -1.168 -0.1583
0.7397 -0.879 -0.6147 0.1525 0.02927 -0.4717 0.2366 0.4622
-0.0502 -0.6147 -1.283 0.624 0.4224 0.5825 0.4019 0.1089
-0.1589 0.1765 -0.2095 -0.646 0.3567 0.9673 -0.1483 0.6206
-0.3958 -0.1692 -0.379 0.438 0.0001811 0.3787 -0.0458 0.0917
0.372 -0.1588 -0.1105 -0.2211 0.152 0.2834 -0.216 -0.1471
0.6646 -0.2576 -0.739 -0.4756 0.928 -0.4875 -0.2266 0.2358
-0.2421 0.379 0.421 -0.4482 0.7114 -0.8726 0.698 -0.7266
0.261 0.4373 -0.6987 0.4214 0.02744 -0.1064 0.62 -0.5454
1.072 -0.5176 0.02338 -0.917 -0.4866 -0.7324 0.643 0.1239
0.1292 -0.4236 0.1613 -0.5938 -0.2915 -0.805 -0.2507 0.757
00000000: e029 61ae f5b6 bbb8 4331 9939 5b30 6e2d
00000010: 60b7 4fb0 7ab9 8a37 87b6 21af 2133 77b4
00000020: 3dae 4ea6 8133 feb0 f8b5 02b8 17b7 6531
00000030: 9f31 631c a9b1 c7b9 77a8 1331 2633 8b36
00000040: 70b7 97b3 352b e1ad b220 5b31 7cb4 d8b5
00000050: adaf a8b3 47b8 b52c 31b7 f832 5637 58b4
00000060: 5534 5cb0 7038 e7ad 5f22 1034 c2af 2533
00000070: 3730 f123 eab0 9830 ca34 92b1 8e35 9831
00000080: b2b8 863a 6eab 92bb d7b0 8e30 1734 aeaf
00000090: be36 0736 9cad 1c37 7633 9731 a8b9 87bb
000000a0: ad2c 2b33 de30 0b2c e498 6b36 6035 c6b2
000000b0: a434 9c25 1f28 61b0 19b2 93b6 01b7 032f
000000c0: 9822 5f25 eba9 f31c 95a3 a027 a3ad c0a2
000000d0: d7ab 11a1 a026 bfaa 0922 70a5 2fa2 e529
000000e0: 2228 53a1 b9ae 8fae 322b 9325 5129 752b
000000f0: d124 7e29 fa25 4a28 252b de20 53ac ea9d
00000100: 1ab3 8837 04b4 2cb8 0c33 10b8 602c 93be
00000110: abb9 6cb0 d932 1431 75b3 523b 1333 4134
00000120: f5b3 37b9 8437 eeb0 4ba3 c7b4 5331 8632
00000130: 3a36 55b7 6d9b 1fb9 afb3 7038 9ab5 592d
00000140: 37b2 1ab1 8532 1bba 893c 8d1d 7ab4 feb5
00000150: 48b7 37b8 073c 7b3e f534 8e35 acbc 11b1
00000160: eb39 08bb ebb8 e130 7e27 8cb7 9233 6537
00000170: 6daa ebb8 22bd fe38 c236 a938 6e36 f82e
00000180: 16b1 a631 b4b2 2bb9 b535 bd3b bfb0 f738
00000190: 55b6 6ab1 10b6 0237 ef09 0f36 dda9 de2d
000001a0: f435 15b1 12af 13b3 dd30 8934 e9b2 b5b0
000001b0: 5139 1fb4 e9b9 9cb7 6d3b cdb7 40b3 8c33
000001c0: bfb3 1036 bc36 2cb7 b139 fbba 9639 d0b9
000001d0: 2d34 ff36 97b9 be36 0627 cfae f638 5db8
000001e0: 4a3c 24b8 fc25 56bb c9b7 dcb9 2539 ee2f
000001f0: 2230 c7b6 2931 c0b8 aab4 71ba 03b4 0e3a

model/lstm/while/lstm_cell_4/MatMul_5 f2 [32, 32]
0.10895 0.0985 -0.01091 0.273 -0.04776 0.006573 -0.3872 0.4768
0.2203 0.187 0.0755 0.3652 0.743 -0.1295 0.4102 0.71
-0.2495 0.0684 0.074 0.1758 0.2175 0.5107 0.1019 -0.000577
0.4343 -0.231 -0.3945 0.3628 0.2698 -0.2898 0.566 -0.4453
-0.1438 0.214 0.2455 -0.0839 0.02307 -0.449 0.1384 0.1101
-0.5156 0.2013 0.2852 -0.2673 -0.3586 -0.3472 0.387 -0.1921
0.1847 -0.3127 0.1005 0.1464 0.2296 0.02126 -0.341 0.515
-0.1459 -0.2837 0.1825 0.1827 -0.1967 0.4004 0.2615 -0.1289
0.3745 0.832 0.2062 0.06647 0.5996 -0.1069 -0.06726 0.2864
0.011345 -0.1235 -0.12134 -0.1328 -0.4314 0.1371 -0.1145 0.141
0.1594 0.10754 -0.2534 -0.6885 -0.201 0.1283 -0.2764 -0.4368
0.1948 0.4038 0.624 -0.05768 -0.0829 -0.365 -0.0927 -0.2322
0.372 0.0962 0.04944 0.164 -0.1863 0.01852 -0.2181 0.04565
0.1278 0.2375 0.4307 -0.01037 -0.0001887 -0.06073 0.03207 0.10364
0.011154 0.1923 -0.3237 -0.0667 0.1534 0.2413 -0.2268 0.03918
0.06696 0.11725 0.1427 0.12494 -0.157 0.167 -0.1219 -0.11
-0.2534 0.8315 -0.05682 0.1177 -0.03848 0.286 -0.04266 -0.0467
-0.281 0.3264 -0.617 0.0575 0.802 0.4353 -0.397 -0.4705
-0.6206 0.28 0.604 0.1232 0.219 0.2693 -0.4204 0.2418
0.1338 0.428 0.61 -0.05856 -0.2798 0.4348 -0.2827 0.01686
0.069 -0.1646 -0.2418 -0.1464 -0.1067 -0.2064 -0.541 0.03078
-0.623 0.2456 0.557 -0.08154 0.281 0.1865 -0.02835 0.02145
0.7295 -0.538 0.3196 -0.2338 0.12 -0.9106 0.06018 0.8823
0.6 0.01207 -0.8003 0.1426 -0.1028 -0.4165 0.4944 0.06683
0.0499 0.1428 -0.0888 0.2974 0.08435 -0.332 0.339 0.262
0.05362 0.1283 -0.04788 -0.4475 0.0453 0.337 0.1074 0.317
0.04224 0.245 0.064 0.2006 0.1162 0.2439 0.0722 0.02348
0.10944 0.3838 0.10895 0.05798 0.1493 -0.1544 -0.2637 -0.0172
-0.11316 -0.4653 0.0793 0.1862 0.2896 -0.7324 -0.03943 0.263
-0.4062 0.583 0.593 0.439 -0.1334 0.05396 1.038 0.08325
-0.575 0.2268 -0.0983 0.3906 0.4749 -0.05246 0.04895 -1.029
0.2239 0.1814 0.3884 -0.0354 -0.2754 -0.7554 -0.03073 -0.99
00000000: f92e 4e2e 96a1 5e34 1daa bb1e 32b6 a137
00000010: 0d33 fc31 d52c d835 f239 25b0 9036 ae39
00000020: fcb3 612c bc2c a031 f632 1638 862e ba90
00000030: f336 64b3 50b6 ce35 5134 a3b4 8738 20b7
00000040: 9ab0 d932 db33 5fad e825 2fb7 6e30 0c2f
00000050: 20b8 7132 9034 47b4 bdb5 8eb5 3136 26b2
00000060: e931 01b5 6f2e af30 5933 7125 75b5 1f38
00000070: abb0 8ab4 d731 d931 4bb2 6836 2f34 20b0
00000080: fe35 a83a 9932 412c cc38 d7ae 4eac 9534
00000090: cf21 e7af c4af 40b0 e7b6 6330 54af 8330
000000a0: 1a31 e22e 0eb4 82b9 6fb2 1b30 6cb4 fdb6
000000b0: 3c32 7636 fe38 62ab 4ead d7b5 efad 6eb3
000000c0: f435 282e 542a 3f31 f6b1 be24 fbb2 d829
000000d0: 1730 9a33 e436 4fa1 2f8a c6ab 1b28 a22e
000000e0: b621 2732 2eb5 45ac e930 b933 42b3 0429
000000f0: 492c 812f 9130 ff2f 06b1 5831 cdaf 0aaf
00000100: 0eb4 a73a 46ab 882f eda8 9334 76a9 faa9
00000110: 7fb4 3935 f0b8 5c2b 6a3a f736 5ab6 87b7
00000120: f7b8 7b34 d538 e32f 0233 4f34 bab6 bd33
00000130: 4830 d936 e138 7fab 7ab4 f536 86b4 5124
00000140: 6a2c 44b1 bdb3 afb0 d4ae 9bb2 54b8 e127
00000150: fcb8 dc33 7538 38ad 7f34 f831 42a7 7e25
00000160: d639 4eb8 1d35 7bb3 ae2f 49bb b42b 0f3b
00000170: cd38 2e22 67ba 9030 94ae aab6 e937 472c
00000180: 632a 9230 afad c234 662d 50b5 6d35 3134
00000190: dd2a 1b30 21aa 29b7 cc29 6435 e02e 1235
000001a0: 6829 d733 192c 6b32 702f ce33 9f2c 0326
000001b0: 012f 2436 f92e 6c2b c730 f1b0 38b4 67a4
000001c0: 3eaf 72b7 132d f531 a234 dcb9 0ca9 3534
000001d0: 80b6 aa38 be38 0637 45b0 e82a 273c 542d
000001e0: 9ab8 4233 4bae 4036 9937 b7aa 442a 1ebc
000001f0: 2a33 ce31 3736 88a8 68b4 0bba dea7 ecbb

model/lstm/while/lstm_cell_4/MatMul_6 f2 [32, 32]
0.006863 0.3286 -0.2267 0.2361 0.03574 -0.1143 -0.1137 -0.399
0.529 -0.364 0.2338 -0.00287 0.3213 -0.1124 -0.3115 0.0892
0.2583 0.558 0.2659 0.24 0.6167 0.4368 0.02664 -0.314
0.6084 -0.07806 -0.1292 0.289 0.1271 0.272 -0.0846 -0.002426
-0.00342 0.1198 0.1512 -0.4402 -0.159 -0.4958 0.441 0.1688
-0.2097 0.5107 0.3884 -0.2854 -0.2378 0.0842 0.272 -0.2274
0.346 -0.2917 -0.193 -0.3887 0.257 0.067 -0.2303 -0.1686
0.1472 -0.3518 0.05096 -0.1548 -0.8403 0.006084 -0.1561 0.1459
0.11053 0.10876 -0.03534 0.01935 0.1256 0.1417 -0.07074 -0.433
-0.1292 0.4968 -0.08496 0.2703 0.01857 0.3447 0.1097 1.012
-0.17 0.1301 -0.11383 -0.505 -0.3562 -0.051 -0.3062 -0.0557
0.1395 0.638 0.726 0.1578 -0.0184 -0.3054 0.05423 0.2123
0.09515 0.1626 0.0788 0.06076 -0.2079 0.0927 -0.4424 0.0774
-0.03525 0.10284 0.4033 0.1649 0.0941 -0.01994 -0.02892 0.147
-0.08624 -0.00622 -0.3574 -0.2537 0.02715 0.1826 -0.3005 0.01866
0.1921 0.06976 0.398 0.0788 -0.01378 0.257 0.05075 -0.0878
0.05304 -0.2363 -0.4807 -0.2778 0.1992 0.1351 -0.2744 -0.643
0.2164 -0.897 0.796 0.078 0.00911 -0.387 -0.11456 0.4658
0.005543 -0.3643 -0.42 -0.1705 0.0814 -0.1847 0.225 0.0984
-0.07776 0.1832 -0.008606 0.338 0.1412 0.0805 0.3433 0.146
-0.06122 0.02791 -0.1958 0.067 0.06635 -0.03836 0.00521 -0.137
0.2944 0.1697 -0.1461 0.5703 0.1642 -0.0855 0.291 -0.1987
-0.1849 -0.1252 0.4744 0.03973 0.12286 -0.2034 -0.5024 -0.3208
0.3298 -0.916 0.0162 -0.04678 0.281 0.00299 -0.3887 -0.0309
0.05795 -0.06305 -0.1431 -0.0339 -0.5264 0.2795 0.1649 0.1399
-0.08826 -0.0972 -0.1796 -0.2307 0.1249 0.03305 0.2128 -0.1539
-0.01552 0.38 0.0629 0.02893 0.03748 -0.3113 0.151 0.0392
-0.2878 0.3274 -0.136 -0.166 -0.1409 0.2136 -0.476 -0.02017
0.3145 1.031 0.05435 -0.269 -0.1676 0.1394 -0.099 -0.7495
-0.2277 -0.2656 0.2372 0.0804 0.03069 0.0911 -0.1576 -0.06964
0.02377 -0.3674 -0.391 -0.2656 0.1747 0.3535 0.2458 -0.04224
-0.33 0.198 0.981 0.1137 -0.1263 -0.128 -0.3782 -0.303
00000000: 071f 4235 41b3 8e33 9328 51af 47af 62b6
00000010: 3b38 d3b5 7b33 e199 2435 32af fcb4 b52d
00000020: 2234 7738 4134 ae33 ef38 fd36 d226 06b5
00000030: de38 ffac 22b0 a034 1130 5a34 6aad f898
00000040: 019b ab2f d730 0bb7 17b1 efb7 0e37 6731
00000050: b6b2 1638 3736 91b4 9cb3 642d 5a34 47b3
00000060: 8935 abb4 2db2 38b6 1d34 4a2c 5fb3 65b1
00000070: b630 a1b5 862a f4b0 b9ba 3b1e ffb0 ab30
00000080: 132f f62e 86a8 f424 0530 8930 87ac eeb6
00000090: 22b0 f337 70ad 5334 c124 8435 052f 0c3c
000000a0: 71b1 2a30 49af 0ab8 b3b5 87aa e6b4 21ab
000000b0: 7730 1b39 cf39 0d31 b6a4 e3b4 f12a cb32
000000c0: 172e 3431 0b2d c72b a7b2 ef2d 14b7 f42c
000000d0: 83a8 952e 7436 4731 062e 1ba5 67a7 b430
000000e0: 85ad 5f9e b8b5 0fb4 f326 d831 cfb4 c724
000000f0: 2632 772c 5e36 0b2d 0ea3 1d34 7f2a 9fad
00000100: ca2a 90b3 b1b7 72b4 6032 5330 64b4 25b9
00000110: ed32 2dbb 5e3a fe2c aa20 31b6 55af 7437
00000120: ad1d d4b5 b8b6 75b1 362d e9b1 3333 4c2e
00000130: faac dd31 68a0 6835 8530 272d 7e35 ac30
00000140: d6ab 2527 44b2 4a2c 3f2c e9a8 561d 62b0
00000150: b634 6e31 adb0 9038 4131 79ad a834 5cb2
00000160: ebb1 02b0 9737 1629 dd2f 82b2 05b8 22b5
00000170: 4735 54bb 2624 fda9 7f34 201a 38b6 e9a7
00000180: 6b2b 09ac 94b0 57a8 36b8 7934 4731 7a30
00000190: a6ad 39ae bfb1 62b3 fe2f 3b28 cf32 edb0
000001a0: f2a3 1436 072c 6827 cc28 fbb4 d530 0529
000001b0: 9bb4 3d35 5ab0 50b1 82b0 d632 9eb7 2aa5
000001c0: 0835 203c f52a 4eb4 5db1 7630 56ae ffb9
000001d0: 49b3 40b4 9733 252d db27 d52d 0bb1 75ac
000001e0: 1626 e1b5 42b6 40b4 9731 a835 de33 68a9
000001f0: 48b5 5632 d93b 472f 0bb0 19b0 0db6 d9b4

model/lstm/while/lstm_cell_4/MatMul_7 f2 [32, 32]
0.627 0.5835 0.573 -0.666 -0.1282 -0.1583 -0.1416 0.1877
-0.2247 -0.04456 0.09503 -0.4875 0.344 -0.0548 0.08954 0.4224
-0.2108 0.03262 0.000651 -0.010864 0.0719 -0.05078 -1.153 0.2722
0.4253 0.1868 0.0557 -0.1582 -0.0917 0.666 0.5786 -0.2883
-0.133 0.5127 -0.1748 -0.508 -0.3533 0.1339 -0.2289 -0.2603
-0.1865 -0.3962 -0.661 -0.03415 -0.813 -0.198 -0.597 -0.2028
0.1031 -0.2396 0.6123 -0.2045 0.3687 -0.10406 -0.7163 0.1908
-0.3142 0.3733 0.5854 -0.089 -0.09094 0.0948 -0.3398 -0.03433
1.102 -0.2756 1.081 -0.6094 1.516 -0.2374 -0.4248 -0.5527
0.4639 0.895 -0.4434 1.286 0.29 0.615 -0.0612 0.3489
0.1982 0.722 -0.4265 0.2805 0.1148 0.9434 0.5923 -0.3794
0.1135 -0.1259 -0.97 0.763 0.4004 -0.6494 -0.487 0.1219
-0.7183 -0.4539 0.4502 1.666 0.079 0.93 1.243 -1.151
-0.2355 0.656 -0.8516 -0.1399 -0.8677 1.504 -0.2905 -0.05707
0.793 0.5825 0.7397 -0.0573 -0.624 -0.9 0.2993 0.2037
0.3574 -0.1566 -1.466 -0.345 0.1223 0.451 0.1031 1.015
-0.654 0.498 0.2676 0.2732 -0.6816 -0.9453 0.1283 -0.4053
-0.1159 0.501 -0.8066 -0.54 1.05 0.464 -0.7993 1.752
0.7207 -0.4368 -0.1022 -0.8936 -0.4927 -0.2384 0.5737 0.05646
0.525 -0.388 -0.2722 -0.2404 -0.2668 0.1214 -0.3423 0.9404
-1.069 0.4473 0.3635 -0.0806 -0.4531 -1.231 0.2915 -0.306
0.3806 0.1958 -0.4036 0.01674 0.3362 -0.362 0.212 0.646
0.4934 -1.283 -0.06476 -0.2087 -0.3125 -0.4717 0.256 0.1512
0.5093 -0.346 -0.22 0.0474 -0.673 -0.1864 -0.2343 0.6064
0.1254 -0.1824 -0.0553 0.5244 -0.01151 -0.08527 0.0544 0.5396
-0.2412 0.1752 -0.02432 -0.524 0.2332 0.0637 0.3328 0.5205
-0.1628 0.2854 -0.2417 0.3071 0.259 0.0609 -0.6924 0.1422
0.05606 0.3384 0.0186 0.1249 0.05264 0.1719 -0.1345 -0.01027
-0.2847 -0.875 -0.89 -0.513 0.03326 0.0639 -0.2563 0.9946
-0.3838 -0.08167 0.6157 -0.07806 -0.1455 0.1337 0.585 -0.6133
-0.3196 -0.1802 0.4307 0.3855 -0.1943 -0.1525 0.5757 -0.786
0.2573 0.85 0.527 -0.1373 0.1465 -1.274 -0.1384 -0.4312
00000000: 0439 ab38 9638 54b9 1ab0 11b1 88b0 0232
00000010: 31b3 b4a9 152e cdb7 8135 04ab bb2d c236
00000020: bfb2 2d28 5511 90a1 9a2c 80aa 9dbc 5b34
00000030: ce36 fa31 212b 10b1 dead 5439 a138 9db4
00000040: 42b0 1a38 98b1 10b8 a7b5 4930 53b3 2ab4
00000050: f8b1 57b6 4ab9 5fa8 81ba 56b2 c7b8 7db2
00000060: 992e abb3 e638 8bb2 e635 a9ae bbb9 1b32
00000070: 07b5 f935 af38 b2ad d2ad 112e 70b5 65a8
00000080: 683c 69b4 533c e0b8 103e 99b3 ccb6 6cb8
00000090: 6c37 293b 18b7 253d a434 ec38 d5ab 9535
000000a0: 5832 c739 d3b6 7d34 592f 8c3b bd38 12b6
000000b0: 442f 07b0 c3bb 1b3a 6836 32b9 cbb7 cd2f
000000c0: bfb9 43b7 3437 aa3e 0e2d 713b f93c 9bbc
000000d0: 89b3 3f39 d0ba 7ab0 f1ba 043e a6b4 4eab
000000e0: 583a a938 eb39 56ab feb8 33bb ca34 8532
000000f0: b835 03b1 ddbd 85b5 d42f 3737 992e 0f3c
00000100: 3bb9 f837 4834 5f34 74b9 90bb 1b30 7cb6
00000110: 6baf 0238 74ba 52b8 333c 6d37 65ba 023f
00000120: c439 fdb6 8aae 26bb e2b7 a1b3 9738 3a2b
00000130: 3338 35b6 5bb4 b1b3 45b4 c52f 7ab5 863b
00000140: 47bc 2837 d135 29ad 40b7 edbc aa34 e5b4
00000150: 1736 4432 75b6 4924 6135 cbb5 c932 2b39
00000160: e537 22bd 25ac aeb2 00b5 8cb7 1934 d730
00000170: 1338 89b5 0ab3 112a 62b9 f7b1 7fb3 da38
00000180: 0330 d6b1 14ab 3238 e5a1 75ad f72a 5138
00000190: b8b3 9b31 3aa6 31b8 7633 142c 5335 2a38
000001a0: 36b1 9134 bcb3 ea34 2534 cc2b 8ab9 8d30
000001b0: 2d2b 6a35 c324 fe2f bd2a 8031 4eb0 42a1
000001c0: 8eb4 00bb 1fbb 1bb8 4228 172c 1ab4 f53b
000001d0: 24b6 3aad ed38 ffac a8b0 4730 ae38 e8b8
000001e0: 1db5 c4b1 e436 2b36 38b2 e1b0 9b38 4aba
000001f0: 1e34 cd3a 3738 65b0 b030 19bd 6eb0 e6b6

model/lstm/while/lstm_cell_4/split_1 f2 [32]
-0.4912 -0.448 -0.3289 0.05255 -0.4885 -0.5254 -0.6475 -0.836
-0.5156 -0.6255 -0.595 -0.2317 -0.03745 -0.6226 -0.721 -0.662
-0.372 -0.4534 -0.1163 -0.2347 -0.4543 -0.3252 -0.4343 -0.6963
-0.4297 -0.4539 -0.48 1.781 -0.3228 -0.2438 -0.5713 -0.2705
00000000: dcb7 2bb7 43b5 ba2a d1b7 34b8 2eb9 b0ba
00000010: 20b8 01b9 c3b8 6ab3 cba8 fbb8 c5b9 4cb9
00000020: f4b5 41b7 71af 83b3 45b7 34b5 f3b6 92b9
00000030: e0b6 43b7 aeb7 203f 2ab5 cdb3 92b8 54b4

model/lstm/while/lstm_cell_4/split_11 f2 [32]
1.239 1.033 1.09 1.838 1.038 0.826 1.123 1.294
1.152 0.916 1.147 1.673 1.35 0.868 0.864 1.248
1.136 1.132 1.913 0.939 1.441 1.147 1.322 0.99
0.9375 1.141 0.953 2.287 1.219 0.982 0.9004 0.9385
00000000: f53c 223c 5c3c 5a3f 273c 9c3a 7e3c 2d3d
00000010: 9c3c 543b 973c b13e 663d f23a e93a fe3c
00000020: 8b3c 873c a73f 833b c43d 973c 4a3d ec3b
00000030: 803b 903c a03b 9340 e03c db3b 343b 823b

model/lstm/while/lstm_cell_4/split_12 f2 [32]
0.2751 -0.1392 0.1232 0.2456 -0.03442 -0.11865 -0.206 0.2074
0.1681 -0.004833 0.1387 -0.0005574 0.336 -0.1519 -0.0632 0.2252
-0.296 0.1635 0.1268 0.1265 0.2856 0.3386 -0.128 -0.01274
-0.03445 -0.02573 0.10144 0.5684 -0.1338 0.02464 -0.1707 -0.2319
00000000: 6734 74b0 e32f dc33 68a8 98af 98b2 a332
00000010: 6131 f39c 7030 9190 6035 dcb0 0bac 3533
00000020: bcb4 3b31 0f30 0c30 9234 6b35 19b0 86a2
00000030: 69a8 96a6 7e2e 8c38 48b0 4f26 76b1 6cb3

model/lstm/while/lstm_cell_4/split_13 f2 [32]
0.02316 -0.2456 -0.1559 -0.4158 -0.2084 -0.2498 0.393 -0.0506
-0.02676 0.00861 0.1034 -0.134 -0.4739 -0.2461 -0.7153 0.2367
-0.08966 -0.07513 -0.3684 -0.05786 -0.1904 0.03918 -0.05774 -0.051
-0.305 -0.0465 0.09845 -0.362 -0.04764 -0.4045 -0.511 -0.06113
00000000: ee25 dcb3 fdb0 a7b6 abb2 feb3 4a36 7aaa
00000010: daa6 6920 9e2e 4ab0 95b7 e0b3 b9b9 9333
00000020: bdad cfac e5b5 68ab 18b2 0429 64ab 87aa
00000030: e1b4 f4a9 4d2e cbb5 19aa 79b6 17b8 d3ab

model/lstm/while/lstm_cell_4/MatMul f2 [32, 1152]
-0.01607 0.07153 -0.0197 -0.0635 -0.07086 0.03125 -0.01543 -0.0587
-0.01944 -0.0901 0.1381 0.00828 0.02483 0.0684 -0.1578 0.004498
-0.2068 -0.3245 -0.04724 0.05408 0.0942 -0.074 0.1272 -0.1588
-0.02458 -0.02754 -0.0307 -0.1199 0.0231 0.02373 0.0943 0.1715
-0.1433 -0.1425 0.04214 -0.243 0.0456 -0.1597 0.01025 0.02556
0.1726 0.03029 0.01653 0.00886 -0.0486 -0.02107 -0.02162 -0.1028
-0.1648 -0.1381 0.1384 -0.1174 -0.006752 -0.007126 0.03445 -0.01358
-0.1602 -0.04025 -0.04446 0.04135 -0.1733 -0.05676 -0.09314 -0.00988
-0.08966 -0.04623 0.03302 -0.1209 -0.1157 -0.2468 0.05826 0.12085
-0.03014 -0.086 -0.224 0.0708 -0.1692 0.009636 -0.1991 -0.197
0.071 -0.11053 -0.0217 -0.12103 0.0563 -0.0822 -0.04004 -0.00647
-0.0301 -0.09033 -0.215 0.06506 -0.05856 -0.129 0.0006356 0.1159
0.07855 -0.03534 -0.05 -0.04343 0.06082 -0.05365 -0.08093 -0.1881
0.04932 0.0324 -0.1105 0.0263 0.0384 0.1877 -0.04004 -0.0836
-0.0634 -0.02928 0.0819 -0.06174 0.0299 -0.02882 0.1115 0.0854
0.02315 0.02017 -0.06305 0.0296 0.0717 0.133 -0.02005 0.1656
0.0337 0.1494 0.0728 -0.0997 -0.1242 0.05508 -0.1222 0.04074
0.0949 -0.0197 -0.02893 -0.05487 0.02356 -0.03238 0.0468 0.073
0.1011 -0.0417 -0.02765 -0.04636 -0.03053 0.1768 -0.149 -0.1277
-0.139 -0.05383 0.1327 -0.1725 -0.03047 -0.02997 0.05878 -0.01596
-0.00644 0.01662 -0.01721 0.1746 0.03152 -0.1304 -0.07153 0.08307
-0.12366 0.0213 0.1632 -0.02591 -0.0664 0.002192 -0.157 -0.0756
-0.09424 -0.00941 -0.02457 -0.01033 0.0134 0.12305 -0.03806 0.007004
0.04504 0.0648 -0.05453 -0.02086 0.05777 0.03204 0.04913 -0.012505
-0.03763 0.03046 -0.001814 -0.03952 0.00616 0.00307 0.01616 0.001337
-0.01234 -0.002678 -0.0005407 -0.06714 -0.0603 0.006153 -0.005085 0.0557
-0.01923 -0.00659 -0.001851 -0.07874 0.02151 0.003399 0.04886 0.00831
-0.03833 -0.001786 0.0337 -0.0512 -0.06097 0.00505 -0.09503 0.0351
-0.004845 0.02242 -0.001901 -0.03888 0.004654 0.004967 0.1131 0.02615
-0.0863 0.001325 0.07874 -0.05515 -0.01677 0.0053 -0.10815 -0.04526
0.02771 0.04556 -0.0021 -0.0647 0.0136 0.004658 0.0756 -0.05295
-0.2069 0.002127 0.04538 -0.01119 -0.03168 0.006012 -0.04868 0.02013
00000000: 1da4 942c 0ba5 10ac 89ac 0028 e6a3 83ab
00000010: faa4 c4ad 6b30 3d20 5b26 612c 0db1 9b1c
00000020: 9eb2 31b5 0caa ec2a 072e bcac 1230 15b1
00000030: 4ba6 0da7 dca7 acaf ea25 1326 092e 7d31
00000040: 96b0 8fb0 6529 c7b3 d629 1cb1 3f21 8b26
00000050: 8631 c127 3b24 8920 39aa 65a5 89a5 94ae
00000060: 46b1 6bb0 6e30 83af ea9e 4c9f 6928 f4a2
00000070: 20b1 27a9 b1a9 4b29 8cb1 44ab f6ad 0fa1
00000080: bdad eba9 3a28 bdaf 68af e6b3 752b bc2f
00000090: b7a7 81ad 2bb3 882c 6ab1 ef20 5fb2 4eb2
000000a0: 8b2c 13af 8ea5 bfaf 352b 43ad 20a9 a09e
000000b0: b5a7 c8ad e1b2 2a2c 7fab 21b0 3511 6b2f
000000c0: 072d 86a8 66aa 8fa9 c92b deaa 2ead 05b2
000000d0: 502a 2628 12af bc26 ea28 0232 20a9 5aad
000000e0: 0fac 7fa7 3e2d e7ab a827 61a7 232f 772d
000000f0: ed25 2a25 09ac 9427 972c 4230 22a5 4d31
00000100: 5028 c830 a92c 61ae f3af 0d2b d2af 3729
00000110: 132e 0ba5 68a7 06ab 0826 25a8 fe29 ac2c
00000120: 782e 56a9 14a7 efa9 d1a7 a831 c5b0 16b0
00000130: 73b0 e4aa 3f30 85b1 cda7 aca7 862b 16a4
00000140: 989e 4124 68a4 9631 0928 2cb0 94ac 512d
00000150: eaaf 7425 3931 a2a6 40ac 7d18 06b1 d7ac
00000160: 08ae d1a0 4aa6 4aa1 dc22 e02f dfa8 2c1f
00000170: c429 262c fbaa 57a5 652b 1a28 4a2a 67a2
00000180: d1a8 cc27 6e97 0fa9 4f1e 4a1a 2324 7a15
00000190: 51a2 7c99 6e90 4cac b8ab 4d1e 359d 212b
000001a0: eca4 c09e 9597 0aad 8225 f61a 412a 4120
000001b0: e8a8 5197 5028 8eaa ceab 2c1d 15ae 7e28
000001c0: f69c bd25 c997 faa8 c41c 161d 3d2f b226
000001d0: 86ad 6d15 0a2d 0fab 4ba4 6d1d ecae cba9
000001e0: 1827 d529 4d98 24ac f722 c51c d72c c7aa
000001f0: 9fb2 5b18 cf29 bba1 0ea8 281e 3baa 2725

model/lstm/while/lstm_cell_4/MatMul_1 f2 [32, 1152]
-0.05475 0.1729 -0.08203 -0.01689 -0.1409 0.0971 -0.0565 -0.09595
0.008865 0.0701 -0.00795 0.02693 -0.0914 0.0276 -0.01591 0.00247
0.02672 0.10864 -0.1567 0.1315 0.001883 0.0951 0.03735 -0.1643
-0.0854 -0.01689 -0.006023 0.01342 0.04248 -0.00525 0.03113 0.1603
0.01109 -0.06665 -0.02843 -0.1469 0.01165 -0.02861 -0.133 0.1294
0.001454 -0.04642 -0.08185 -0.09467 -0.1091 -0.03415 -0.08484 -0.04657
-0.1918 -0.0809 0.02106 -0.1528 -0.0688 -0.1097 -0.0277 0.1692
-0.05173 0.05878 -0.03616 0.07416 -0.04184 -0.2986 -0.1389 0.2338
0.04053 -0.04034 -0.0709 -0.0639 -0.01665 -0.07306 0.00925 -0.0848
0.08026 -0.01773 -0.05664 -0.002089 -0.08575 0.00222 -0.01135 -0.03128
-0.00897 0.0689 0.02478 0.00805 0.06415 -0.0402 -0.07874 -0.0755
-0.010574 0.074 0.001679 0.07855 0.05856 0.02626 -0.04358 -0.0776
-0.0201 -0.068 0.09204 0.0668 -0.03745 -0.011246 0.01929 0.02869
-0.03702 0.0483 0.0962 0.00919 -0.04498 -0.02599 0.0742 0.1021
-0.01284 -0.03763 0.01982 0.2035 0.05457 -0.005833 -0.02808 0.08826
-0.03232 -0.03105 0.092 0.0357 0.089 0.005882 -0.04364 0.0357
-0.138 -0.1625 0.06256 -0.0905 -0.08746 0.0305 -0.00843 0.371
-0.04202 0.00915 -0.2615 -0.0108 -0.001351 0.1423 -0.041 -0.06125
-0.1302 -0.2269 0.06085 -0.1484 0.03058 -0.05695 -0.04697 0.04745
-0.14 -0.0475 0.0347 -0.2917 -0.01215 -0.209 -0.068 -0.271
-0.1456 0.0375 -0.01011 0.11334 -0.07434 0.00515 -0.02992 -0.0658
0.0752 0.02931 -0.2019 0.02637 0.0051 -0.00357 0.05154 -0.12445
-0.01642 0.05414 -0.025 0.03052 -0.006264 0.2319 0.1785 -0.1219
0.2064 0.03958 0.0828 -0.0356 -0.05215 0.03726 0.05124 -0.10596
-0.03406 -0.05484 -0.0424 0.004887 0.073 0.02023 0.00453 0.0648
0.002888 -0.003906 0.0552 0.01264 0.003504 0.01968 0.005398 0.01354
-0.0311 -0.004745 -0.04242 -0.02267 0.0628 0.02184 -0.001401 0.0761
0.05923 -0.002724 0.0309 0.00872 -0.0621 0.01944 0.03748 0.0152
-0.0415 -0.1044 -0.04248 0.01407 0.03668 0.02205 0.0346 0.0463
0.00334 -0.002659 0.02145 0.00524 -0.08923 0.0197 -0.03952 -0.03574
-0.00837 -0.1079 -0.04263 0.000521 0.0686 0.0211 0.02989 -0.00791
-0.03943 -0.0048 -0.002247 -0.0249 -0.05643 0.01964 -0.04407 -0.0395
00000000: 02ab 8831 40ad 53a4 82b0 372e 3bab 24ae
00000010: 8a20 7d2c 12a0 e526 d9ad 1127 13a4 0f19
00000020: d726 f42e 04b1 3530 b617 162e c828 42b1
00000030: 77ad 53a4 2b9e df22 7029 609d f827 2131
00000040: ae21 44ac 47a7 b3b0 f721 53a7 42b0 2430
00000050: f515 f1a9 3dad 0fae fbae 5fa8 6ead f6a9
00000060: 23b2 2dad 6425 e4b0 67ac 05af 17a7 6a31
00000070: 9faa 862b a1a8 bf2c 5ba9 c7b4 72b0 7b33
00000080: 3029 2aa9 8aac 17ac 43a4 adac bc20 6dad
00000090: 232d 8aa4 40ab 4798 7dad 8c18 d0a1 01a8
000000a0: 98a0 692c 5826 1f20 1b2c 25a9 0aad d5ac
000000b0: 6aa1 bc2c e116 072d 7f2b b926 94a9 f7ac
000000c0: 25a5 5aac e42d 462c cba8 c2a1 f024 5827
000000d0: bda8 2f2a 282e b520 c2a9 a7a6 c02c 892e
000000e0: 93a2 d1a8 1325 8332 fc2a f99d 30a7 a62d
000000f0: 23a8 f3a7 e32d 9228 b22d 061e 96a9 9228
00000100: 6ab0 33b1 012c cbad 99ad cf27 51a0 f035
00000110: 61a9 af20 2fb4 88a1 8995 8e30 3fa9 d7ab
00000120: 2bb0 43b3 ca2b c0b0 d427 4aab 03aa 132a
00000130: 7bb0 14aa 7128 abb4 39a2 b0b2 5aac 56b4
00000140: a9b0 cd28 2da1 412f c2ac 461d a9a7 36ac
00000150: d02c 8127 76b2 c026 391d 509b 992a f7af
00000160: 34a4 ee2a 66a6 d027 6a9e 6c33 b631 cdaf
00000170: 9b32 1129 4d2d 8fa8 adaa c528 8f2a c8ae
00000180: 5ca8 05ab 6da9 011d ac2c 2e25 a41c 262c
00000190: ea19 009c 112b 7922 2d1b 0a25 871d ef22
000001a0: f6a7 dc9c 6ea9 cea5 052c 9725 bd95 df2c
000001b0: 952b 9499 e927 7720 f3ab fa24 cc28 c823
000001c0: 50a9 aeae 70a9 3423 b228 a525 6e28 ed29
000001d0: d71a 7299 7e25 5e1d b6ad 0b25 0fa9 93a8
000001e0: 49a0 e8ae 75a9 4510 642c 6725 a727 0da0
000001f0: 0ca9 ea9c 9a98 60a6 39ab 0725 a4a9 0ea9
