HPC_Final_Study2_Complete_Test_Class_Balance/participants_session_transfer_train/participant_18/session_1/session_1_lite_models/indexpen_model_quant.tflite (tflite, 412752 bytes, 45 tensors)

model/time_distributed_3/conv2d_1/BiasAdd;model/time_distributed_11/conv2d_3/Conv2D;model/time_distributed_3/conv2d_1/Conv2D;model/time_distributed_3/conv2d_1/BiasAdd/ReadVariableOp/resource f2 [16]
0	0xb2e7	-0.2157
1	0xb13f	-0.164
2	0x24e0	0.01904
3	0xaa87	-0.051
4	0x3094	0.1431
5	0xadbf	-0.0898
6	0xb154	-0.1665
7	0x0d00	0.0003052
8	0xac95	-0.0716
9	0xb0b5	-0.1471
10	0xa424	-0.01617
11	0xa828	-0.03247
12	0xb22d	-0.193
13	0xb1e5	-0.1842
14	0x2c9d	0.0721
15	0xadd0	-0.0908

model/time_distributed/conv2d/BiasAdd;model/time_distributed_8/conv2d_2/Conv2D;model/time_distributed/conv2d/Conv2D;model/time_distributed/conv2d/BiasAdd/ReadVariableOp/resource f2 [8]
0	0xa378	-0.01459
1	0xa408	-0.01575
2	0xa6c6	-0.02646
3	0x249d	0.01802
4	0x2ded	0.0926
5	0xa485	-0.01765
6	0x3158	0.167
7	0x21f6	0.01164

model/time_distributed_11/conv2d_3/BiasAdd;model/time_distributed_11/conv2d_3/Conv2D;model/time_distributed_11/conv2d_3/BiasAdd/ReadVariableOp/resource f2 [16]
0	0x1e08	0.00589
1	0x2d78	0.08545
2	0x9ec7	-0.00662
3	0x2944	0.04114
4	0x29c2	0.04498
5	0xa21b	-0.011925
6	0x1b89	0.00368
7	0x2b7c	0.05847
8	0xa04b	-0.008385
9	0xa403	-0.01567
10	0x9cf6	-0.004845
11	0xa016	-0.00798
12	0x2379	0.014595
13	0xa350	-0.01428
14	0x22be	0.01317
15	0xac92	-0.0714

model/time_distributed_8/conv2d_2/BiasAdd;model/time_distributed_8/conv2d_2/Conv2D;model/time_distributed_8/conv2d_2/BiasAdd/ReadVariableOp/resource f2 [8]
0	0x2e61	0.0997
1	0xa37a	-0.0146
2	0x1ed2	0.00666
3	0xa1ac	-0.01108
4	0x252c	0.0202
5	0x304b	0.1342
6	0x2629	0.02406
7	0x25f0	0.0232

model/time_distributed_3/conv2d_1/Conv2D f2 [16, 3, 3, 8]
0	0x2f3d	0.1131
1	0xac2e	-0.0653
2	0x20ec	0.00961
3	0xb462	-0.274
4	0x172a	0.001749
5	0x2516	0.01987
6	0xa2be	-0.01317
7	0x0cfd	0.0003045
8	0x1eb1	0.006535
9	0xa5fd	-0.02339
10	0xa8c0	-0.0371
11	0x2c5b	0.06805
12	0x2dc0	0.08984
13	0x253f	0.0205
14	0x32ed	0.2164
15	0xa911	-0.03958
16	0x2cb9	0.0738
17	0xa84e	-0.03363
18	0xa80a	-0.03156
19	0x23d0	0.01526
20	0xb11d	-0.1598
21	0xac5e	-0.06824
22	0x8e1d	-0.0003731
23	0x268e	0.0256
24	0x2094	0.00894
25	0xacb1	-0.0733
26	0xa285	-0.01273
27	0xab74	-0.05823
28	0xa8e6	-0.03827
29	0x2582	0.02151
30	0x31a9	0.1769
31	0x273f	0.0283
32	0xa9e2	-0.04596
33	0x2866	0.03436
34	0x9e9b	-0.00645
35	0x34a8	0.291
36	0xada0	-0.0879
37	0xa443	-0.01665
38	0x2538	0.02039
39	0x2323	0.01394
40	0x1e44	0.00612
41	0x2938	0.04077
42	0x26c1	0.02638
43	0xae8f	-0.1025
44	0x289c	0.036
45	0xacee	-0.077
46	0xb304	-0.2192
47	0x9f15	-0.006916
48	0xa571	-0.02126
49	0x294c	0.04138
50	0x2c4f	0.0673
51	0x2ee3	0.1076
52	0xab3b	-0.0565
53	0xa9a9	-0.04422
54	0x2e21	0.09576
55	0xa017	-0.00799
56	0xa7a6	-0.02988
57	0x2812	0.0318
58	0xa13b	-0.010216
59	0xb098	-0.1436
60	0xadab	-0.08856
61	0xacfd	-0.07794
62	0x3467	0.2751
63	0x2189	0.01081
64	0x2341	0.01417
65	0x971f	-0.001739
66	0xa6e3	-0.0269
67	0xae46	-0.098
68	0x9378	-0.0009117
69	0xa5db	-0.02287
70	0x3796	0.474
71	0xaa4a	-0.04913
72	0xa0f8	-0.009705
73	0x9e81	-0.00635
74	0xac6e	-0.0692
75	0xaf3f	-0.1132
76	0x2d5d	0.0838
77	0xa595	-0.0218
78	0xb51a	-0.3188
79	0x2c08	0.063
80	0x2863	0.03427
81	0x2420	0.01611
82	0x9576	-0.001333
83	0xa8f6	-0.03876
84	0x2ea7	0.10394
85	0xa9b7	-0.04465
86	0xa4e0	-0.01904
87	0xa6c2	-0.0264
88	0xa26b	-0.012535
89	0x9f27	-0.006985
90	0x2c25	0.06476
91	0xa6d8	-0.02673
92	0xb012	-0.1272
93	0x2a1a	0.04767
94	0x34e7	0.3064
95	0xab2f	-0.05612
96	0x9e0d	-0.00591
97	0x9b45	-0.00355
98	0xabec	-0.0619
99	0x3237	0.1942
100	0x27b1	0.03004
101	0x8c42	-0.0002599
102	0xb25d	-0.1989
103	0x249b	0.01799
104	0xad89	-0.0865
105	0x2379	0.014595
106	0x2823	0.03232
107	0x24fb	0.01945
108	0x2d81	0.086
109	0x88b8	-0.000144
110	0xb556	-0.3335
111	0x9b61	-0.003603
112	0xadcc	-0.0906
113	0x91ba	-0.000699
114	0x28cc	0.03748
115	0xafa1	-0.1192
116	0x2970	0.04248
117	0x2d1e	0.07996
118	0x3410	0.254
119	0xa6b3	-0.02617
120	0x26ca	0.02652
121	0x2091	0.00892
122	0xa5ac	-0.02216
123	0xab68	-0.05786
124	0x30ea	0.1536
125	0x2939	0.0408
126	0x23d1	0.01527
127	0xa930	-0.04053
128	0x298a	0.04327
129	0x1a16	0.002972
130	0x2033	0.0082
131	0xafb4	-0.12036
132	0xb008	-0.126
133	0x1a9d	0.00323
134	0x32b8	0.21
135	0x295a	0.0418
136	0x2db7	0.0893
137	0xabb5	-0.0602
138	0xab2a	-0.05597
139	0x9cbb	-0.00462
140	0xb0c2	-0.1487
141	0x244e	0.01682
142	0x360f	0.3787
143	0x2896	0.03583
144	0xaa7a	-0.0506
145	0xa4e0	-0.01904
146	0xa621	-0.02394
147	0xaf25	-0.11163
148	0xae57	-0.09906
149	0xaaa8	-0.052
150	0xb174	-0.1704
151	0x27ff	0.03123
152	0xa9b9	-0.0447
153	0xa96e	-0.04242
154	0xac2b	-0.0651
155	0xacd1	-0.07526
156	0xa03c	-0.00827
157	0x20ea	0.0096
158	0x319a	0.175
159	0x248f	0.0178
160	0xaa28	-0.0481
161	0xad77	-0.0854
162	0xa9d1	-0.04544
163	0x1e89	0.006382
164	0xa5fc	-0.02338
165	0x294c	0.04138
166	0xb10b	-0.1576
167	0xa444	-0.01666
168	0xa1f8	-0.01166
169	0x261a	0.02383
170	0xa79c	-0.02972
171	0x30b7	0.1473
172	0xb2ce	-0.2126
173	0x24e6	0.01913
174	0xb609	-0.3772
175	0x2d23	0.08026
176	0xa957	-0.04172
177	0x2c0d	0.0633
178	0xab54	-0.05725
179	0xae56	-0.099
180	0xad41	-0.0821
181	0xa674	-0.0252
182	0xb5d5	-0.3645
183	0x2435	0.01643
184	0xa4f0	-0.01929
185	0xaa0f	-0.04733
186	0xa9a9	-0.04422
187	0x32a7	0.2079
188	0x2075	0.008705
189	0xab5e	-0.05756
190	0xb15b	-0.1674
191	0x2b1f	0.05563
192	0x28e3	0.03818
193	0x267e	0.02536
194	0xab36	-0.05634
195	0xb06f	-0.1385
196	0x2578	0.02136
197	0x26f4	0.02716
198	0x2581	0.0215
199	0x15f6	0.001455
200	0x25ac	0.02216
201	0x2bfd	0.0624
202	0xa684	-0.02545
203	0xb626	-0.3843
204	0xb379	-0.2335
205	0xa32a	-0.01399
206	0x304c	0.1343
207	0x20bc	0.00925
208	0x2607	0.02354
209	0xa71f	-0.02782
210	0xa7d4	-0.03058
211	0x9e5e	-0.006218
212	0xb61e	-0.3823
213	0xada3	-0.0881
214	0x312a	0.1614
215	0x24d2	0.01883
216	0xa717	-0.0277
217	0x2b0a	0.055
218	0xa895	-0.0358
219	0xad6e	-0.08484
220	0x2d7e	0.0858
221	0x2a70	0.0503
222	0x2972	0.04254
223	0x1fef	0.007748
224	0xa746	-0.02841
225	0x22df	0.01342
226	0xa96d	-0.0424
227	0x3074	0.1392
228	0xb041	-0.1329
229	0xa45b	-0.01701
230	0xb0d1	-0.1505
231	0x28c4	0.03723
232	0xabc0	-0.06055
233	0x21ce	0.01134
234	0x2beb	0.06186
235	0xb366	-0.2312
236	0xa893	-0.03574
237	0x2104	0.009796
238	0x2cea	0.0768
239	0xa9fe	-0.0468
240	0x29be	0.04486
241	0xa25e	-0.012436
242	0xa66a	-0.02505
243	0x27ef	0.03099
244	0xa652	-0.02469
245	0x218c	0.01083
246	0x265b	0.02483
247	0x2944	0.04114
248	0x2ad7	0.05344
249	0x2894	0.03577
250	0xa144	-0.010284
251	0xacfb	-0.0778
252	0xb106	-0.157
253	0x2493	0.01787
254	0xaf1b	-0.111
255	0x214e	0.01036

model/time_distributed/conv2d/Conv2D f2 [8, 3, 3, 1]
0	0x1355	0.000895
1	0x0e17	0.0003717
2	0x1bc0	0.003784
3	0x9aa8	-0.00325
4	0x81af	-2.57e-05
5	0x9b2f	-0.003508
6	0x9d27	-0.00503
7	0x8e55	-0.0003865
8	0x9bd9	-0.003832
9	0x91e9	-0.0007215
10	0x1d18	0.004974
11	0x990c	-0.002464
12	0x1707	0.001716
13	0x17eb	0.001933
14	0x9938	-0.002548
15	0x9b3b	-0.00353
16	0x1c25	0.004047
17	0x961e	-0.001493
18	0x15a0	0.001373
19	0x1bc5	0.003794
20	0x93f8	-0.0009727
21	0x9816	-0.001995
22	0x95f1	-0.001451
23	0x10d2	0.0005884
24	0x0a8f	0.0002002
25	0x9cb2	-0.004585
26	0x9a53	-0.003088
27	0x208c	0.00888
28	0x8d2f	-0.0003164
29	0x9daa	-0.00553
30	0x1a0f	0.002958
31	0x1942	0.002567
32	0x1fea	0.00773
33	0x9e80	-0.006348
34	0x9485	-0.001103
35	0x2592	0.02176
36	0x9e5e	-0.006218
37	0x9d07	-0.00491
38	0x9698	-0.00161
39	0x24b5	0.01839
40	0x1629	0.001504
41	0x9ddf	-0.005733
42	0x2848	0.03345
43	0x1ecc	0.006638
44	0x9e3f	-0.0061
45	0x1c27	0.004055
46	0x18c5	0.002329
47	0x91e6	-0.00072
48	0x9b96	-0.003704
49	0x191f	0.0025
50	0x1842	0.002079
51	0x8dda	-0.0003572
52	0x1ce9	0.004795
53	0x0885	0.0001379
54	0x9ea9	-0.006504
55	0x9c93	-0.004467
56	0x1074	0.0005436
57	0xa033	-0.0082
58	0xa2af	-0.013054
59	0x1a72	0.003147
60	0x1c53	0.004223
61	0xa7cb	-0.03044
62	0x9afc	-0.00341
63	0x9095	-0.0005593
64	0x927f	-0.000793
65	0x14bc	0.001156
66	0x161e	0.001493
67	0x100e	0.000495
68	0x924b	-0.000768
69	0x80da	-1.3e-05
70	0x9553	-0.0013
71	0x117e	0.0006704

model/time_distributed_11/conv2d_3/Conv2D f2 [16, 3, 3, 8]
0	0x325d	0.1989
1	0x19ab	0.002768
2	0x229d	0.01292
3	0x23d7	0.01531
4	0xb542	-0.3286
5	0xb4bf	-0.2966
6	0xae9f	-0.10345
7	0xab67	-0.05783
8	0x2186	0.01079
9	0x2430	0.01636
10	0x2489	0.01772
11	0xa3b9	-0.01508
12	0xb4c3	-0.2976
13	0x3389	0.2355
14	0xb07e	-0.1404
15	0xaa9c	-0.05164
16	0xaef2	-0.1085
17	0x2067	0.0086
18	0x1cf7	0.00485
19	0xa00f	-0.00793
20	0xb526	-0.3218
21	0x2a30	0.04834
22	0x2e2b	0.0964
23	0xa552	-0.02078
24	0xb26a	-0.2004
25	0xa7cc	-0.03046
26	0x24af	0.0183
27	0xa82d	-0.03262
28	0x2c70	0.06934
29	0x308b	0.142
30	0xb46d	-0.2766
31	0xa405	-0.0157
32	0x2ae5	0.05386
33	0xaa55	-0.04947
34	0x9cb2	-0.004585
35	0xa05c	-0.008514
36	0x28a1	0.03616
37	0x9ee9	-0.00675
38	0x3002	0.1252
39	0x279a	0.0297
40	0x2985	0.04312
41	0xa42e	-0.01633
42	0xa409	-0.01576
43	0xa569	-0.02113
44	0x2475	0.01741
45	0xb3da	-0.2454
46	0x2fb9	0.12067
47	0x29e2	0.04596
48	0x2af0	0.0542
49	0xa92b	-0.04037
50	0x280d	0.03165
51	0x9ff7	-0.00778
52	0xa482	-0.01761
53	0xad9e	-0.08777
54	0xb137	-0.163
55	0xa0c5	-0.009315
56	0x1f86	0.007347
57	0x2a65	0.04996
58	0x234f	0.014275
59	0x240b	0.0158
60	0x2cd1	0.07526
61	0x27ca	0.03043
62	0xa68f	-0.02562
63	0xa28e	-0.0128
64	0x2c31	0.0655
65	0x210e	0.00987
66	0x2447	0.01671
67	0x27c8	0.0304
68	0x3568	0.338
69	0xa42f	-0.01634
70	0xb4f1	-0.3088
71	0x2da3	0.0881
72	0x3755	0.4583
73	0x292a	0.04034
74	0x22a6	0.012985
75	0x2c86	0.0707
76	0x3229	0.1925
77	0xaf59	-0.1148
78	0xb574	-0.3408
79	0x9b5e	-0.003597
80	0x9e27	-0.00601
81	0x9ec5	-0.00661
82	0x9a32	-0.003025
83	0xabdb	-0.06137
84	0xb14e	-0.1658
85	0x3115	0.1588
86	0xb025	-0.1295
87	0xa845	-0.03336
88	0xb7d6	-0.4897
89	0x9d88	-0.0054
90	0x21c9	0.0113
91	0xa3d6	-0.015305
92	0xb6b5	-0.4192
93	0xb0a9	-0.1456
94	0x348b	0.284
95	0x131c	0.000868
96	0xb4e7	-0.3064
97	0xa1b6	-0.011154
98	0x281f	0.0322
99	0x9604	-0.001469
100	0xb6e6	-0.4312
101	0x3314	0.2212
102	0xb2ff	-0.2186
103	0x1a6e	0.00314
104	0x3178	0.1709
105	0x20a0	0.00903
106	0x2841	0.03323
107	0x2d5e	0.08386
108	0xb524	-0.3213
109	0xb445	-0.2668
110	0xb0dd	-0.152
111	0xaff2	-0.12415
112	0x2c6e	0.0692
113	0xa9e9	-0.04617
114	0xa85e	-0.03412
115	0x1ed8	0.006683
116	0x3317	0.2216
117	0x293f	0.041
118	0x2517	0.01988
119	0x1295	0.0008035
120	0x2fb5	0.1204
121	0xab56	-0.0573
122	0x286c	0.03455
123	0x26ba	0.02628
124	0x2d12	0.0792
125	0x313b	0.1635
126	0xb3a9	-0.2394
127	0x2177	0.01067
128	0xb3f1	-0.2482
129	0xa91d	-0.03995
130	0x2c85	0.0706
131	0xaa95	-0.05142
132	0xaf10	-0.11035
133	0xb032	-0.1311
134	0xb0c5	-0.149
135	0xadab	-0.08856
136	0xb096	-0.1433
137	0xaca0	-0.07227
138	0x24fc	0.01947
139	0x2afe	0.05463
140	0xb5e0	-0.3672
141	0xb01c	-0.1284
142	0x2893	0.03574
143	0xac5d	-0.0682
144	0xa08e	-0.008896
145	0x9c3a	-0.004128
146	0x9e6d	-0.006275
147	0x23cb	0.01522
148	0x9bef	-0.003874
149	0xa43c	-0.01654
150	0x810b	-1.59e-05
151	0x21c8	0.01129
152	0x9e60	-0.006226
153	0x9c41	-0.004154
154	0x9f44	-0.007095
155	0x23f4	0.01553
156	0x9c8e	-0.004448
157	0xa33f	-0.01415
158	0x14e1	0.001191
159	0x2209	0.01179
160	0x9f50	-0.00714
161	0x9c68	-0.004303
162	0x9f71	-0.007267
163	0x23e6	0.01543
164	0x9df6	-0.00582
165	0xa229	-0.01203
166	0x9d35	-0.005085
167	0x222d	0.01206
168	0xa00b	-0.0079
169	0x9fd8	-0.00766
170	0x102a	0.0005083
171	0x1ae5	0.003366
172	0xa1e6	-0.01152
173	0xa0cf	-0.00939
174	0x197e	0.002682
175	0x233d	0.01414
176	0x9ff7	-0.00778
177	0xa076	-0.00871
178	0x1c63	0.004284
179	0x1914	0.00248
180	0x9f4c	-0.007126
181	0xa052	-0.00844
182	0x9d04	-0.004898
183	0x23a7	0.014946
184	0xa2a5	-0.01298
185	0xa0cf	-0.00939
186	0x1f4c	0.007126
187	0x1786	0.001837
188	0x94bc	-0.001156
189	0xa13a	-0.01021
190	0x1c84	0.00441
191	0x23e6	0.01543
192	0xa0fe	-0.00975
193	0x18c3	0.002325
194	0x9505	-0.001225
195	0x9c8c	-0.00444
196	0xa183	-0.010765
197	0x9cd7	-0.004726
198	0x9678	-0.001579
199	0x22ea	0.013504
200	0x9f6a	-0.00724
201	0x1a7d	0.003168
202	0x96d7	-0.00167
203	0x9b6f	-0.00363
204	0xa22d	-0.01206
205	0x99a7	-0.00276
206	0x9c62	-0.00428
207	0x228b	0.01278
208	0xa519	-0.01991
209	0x1c05	0.003925
210	0x96ca	-0.0016575
211	0x992b	-0.002523
212	0xa089	-0.00886
213	0x9b02	-0.003422
214	0x9c4e	-0.004204
215	0x2258	0.01239
216	0xb20d	-0.1891
217	0xa481	-0.0176
218	0x2a8e	0.0512
219	0x959c	-0.001369
220	0x2d83	0.0861
221	0xabb1	-0.0601
222	0xb345	-0.2272
223	0x2599	0.02187
224	0x32e4	0.2153
225	0xa54a	-0.02066
226	0x2a39	0.0486
227	0x94a5	-0.001134
228	0x2cd6	0.07556
229	0xa491	-0.01784
230	0xb44b	-0.2683
231	0x2371	0.014534
232	0x2310	0.013794
233	0xa19c	-0.010956
234	0x297b	0.04282
235	0xa4e8	-0.01917
236	0xae83	-0.10175
237	0x2e87	0.102
238	0x30c8	0.1494
239	0x21fb	0.01168
240	0x3685	0.4075
241	0x216a	0.010574
242	0x918b	-0.0006766
243	0x2bc4	0.06067
244	0xb4bf	-0.2966
245	0x3195	0.1744
246	0xb034	-0.1313
247	0x2130	0.01013
248	0xac09	-0.06305
249	0x266f	0.02513
250	0x9f6f	-0.00726
251	0x1ca9	0.00455
252	0xacdb	-0.07587
253	0x2655	0.02473
254	0xaf8f	-0.1181
255	0xa830	-0.0327

model/time_distributed_8/conv2d_2/Conv2D f2 [8, 3, 3, 1]
0	0xa61b	-0.02385
1	0xa760	-0.02881
2	0x2af4	0.05432
3	0x2c82	0.07043
4	0xac01	-0.06256
5	0x240f	0.01585
6	0xaabc	-0.0526
7	0x254c	0.02069
8	0x2915	0.0397
9	0x1cc4	0.004654
10	0x9641	-0.001527
11	0x98ae	-0.002285
12	0x9ad7	-0.00334
13	0x1591	0.001359
14	0x1cf7	0.00485
15	0x9c0a	-0.003944
16	0x0f51	0.0004466
17	0x1241	0.0007634
18	0x8c49	-0.0002615
19	0x9f19	-0.00693
20	0x1f3a	0.007057
21	0x94c3	-0.001163
22	0x1a3d	0.003046
23	0x1956	0.002605
24	0x1848	0.00209
25	0x14fb	0.001216
26	0x9c68	-0.004303
27	0x1d28	0.005035
28	0xa022	-0.00807
29	0x182c	0.002037
30	0x98c6	-0.00233
31	0x1b86	0.003674
32	0x96c7	-0.001655
33	0x910e	-0.000617
34	0x94d2	-0.001177
35	0x9b5a	-0.00359
36	0x9ade	-0.003353
37	0x9a57	-0.003096
38	0x1aa6	0.003246
39	0x24de	0.01901
40	0xa859	-0.03397
41	0x1e70	0.006287
42	0x9f79	-0.007298
43	0x208c	0.00888
44	0x27e5	0.03084
45	0xa80f	-0.0317
46	0x2b21	0.0557
47	0x240c	0.01581
48	0x2a07	0.0471
49	0xae1e	-0.0956
50	0x28c4	0.03723
51	0xa63d	-0.02437
52	0x2c26	0.0648
53	0xaa40	-0.04883
54	0x25e0	0.02295
55	0xab40	-0.05664
56	0x2493	0.01787
57	0xa2db	-0.01339
58	0x2746	0.02841
59	0x0eb6	0.0004096
60	0x1c14	0.003983
61	0x29f5	0.04654
62	0xacc8	-0.0747
63	0x16ee	0.001692
64	0x9f1c	-0.006943
65	0x1faa	0.007484
66	0x21b4	0.01114
67	0xa6a2	-0.02591
68	0x2422	0.01614
69	0x9d73	-0.00532
70	0x8dfe	-0.0003657
71	0x1697	0.001609

model/lstm/TensorArrayV2_1 f2 [120, 1, 32]
0	0x0000	0.0
1	0x0000	0.0
2	0x0000	0.0
3	0x0000	0.0
4	0x0000	0.0
5	0x0000	0.0
6	0x0000	0.0
7	0x0000	0.0
8	0x0000	0.0
9	0x0000	0.0
10	0x0000	0.0
11	0x0000	0.0
12	0x0000	0.0
13	0x0000	0.0
14	0x0000	0.0
15	0x0000	0.0
16	0x0000	0.0
17	0x0000	0.0
18	0x0000	0.0
19	0x0000	0.0
20	0x0000	0.0
21	0x0000	0.0
22	0x0000	0.0
23	0x0000	0.0
24	0x0000	0.0
25	0x0000	0.0
26	0x0000	0.0
27	0x0000	0.0
28	0x0000	0.0
29	0x0000	0.0
30	0x0000	0.0
31	0x0000	0.0
32	0x0000	0.0
33	0x0000	0.0
34	0x0000	0.0
35	0x0000	0.0
36	0x0000	0.0
37	0x0000	0.0
38	0x0000	0.0
39	0x0000	0.0
40	0x0000	0.0
41	0x0000	0.0
42	0x0000	0.0
43	0x0000	0.0
44	0x0000	0.0
45	0x0000	0.0
46	0x0000	0.0
47	0x0000	0.0
48	0x0000	0.0
49	0x0000	0.0
50	0x0000	0.0
51	0x0000	0.0
52	0x0000	0.0
53	0x0000	0.0
54	0x0000	0.0
55	0x0000	0.0
56	0x0000	0.0
57	0x0000	0.0
58	0x0000	0.0
59	0x0000	0.0
60	0x0000	0.0
61	0x0000	0.0
62	0x0000	0.0
63	0x0000	0.0
64	0x0000	0.0
65	0x0000	0.0
66	0x0000	0.0
67	0x0000	0.0
68	0x0000	0.0
69	0x0000	0.0
70	0x0000	0.0
71	0x0000	0.0
72	0x0000	0.0
73	0x0000	0.0
74	0x0000	0.0
75	0x0000	0.0
76	0x0000	0.0
77	0x0000	0.0
78	0x0000	0.0
79	0x0000	0.0
80	0x0000	0.0
81	0x0000	0.0
82	0x0000	0.0
83	0x0000	0.0
84	0x0000	0.0
85	0x0000	0.0
86	0x0000	0.0
87	0x0000	0.0
88	0x0000	0.0
89	0x0000	0.0
90	0x0000	0.0
91	0x0000	0.0
92	0x0000	0.0
93	0x0000	0.0
94	0x0000	0.0
95	0x0000	0.0
96	0x0000	0.0
97	0x0000	0.0
98	0x0000	0.0
99	0x0000	0.0
100	0x0000	0.0
101	0x0000	0.0
102	0x0000	0.0
103	0x0000	0.0
104	0x0000	0.0
105	0x0000	0.0
106	0x0000	0.0
107	0x0000	0.0
108	0x0000	0.0
109	0x0000	0.0
110	0x0000	0.0
111	0x0000	0.0
112	0x0000	0.0
113	0x0000	0.0
114	0x0000	0.0
115	0x0000	0.0
116	0x0000	0.0
117	0x0000	0.0
118	0x0000	0.0
119	0x0000	0.0
120	0x0000	0.0
121	0x0000	0.0
122	0x0000	0.0
123	0x0000	0.0
124	0x0000	0.0
125	0x0000	0.0
126	0x0000	0.0
127	0x0000	0.0
128	0x0000	0.0
129	0x0000	0.0
130	0x0000	0.0
131	0x0000	0.0
132	0x0000	0.0
133	0x0000	0.0
134	0x0000	0.0
135	0x0000	0.0
136	0x0000	0.0
137	0x0000	0.0
138	0x0000	0.0
139	0x0000	0.0
140	0x0000	0.0
141	0x0000	0.0
142	0x0000	0.0
143	0x0000	0.0
144	0x0000	0.0
145	0x0000	0.0
146	0x0000	0.0
147	0x0000	0.0
148	0x0000	0.0
149	0x0000	0.0
150	0x0000	0.0
151	0x0000	0.0
152	0x0000	0.0
153	0x0000	0.0
154	0x0000	0.0
155	0x0000	0.0
156	0x0000	0.0
157	0x0000	0.0
158	0x0000	0.0
159	0x0000	0.0
160	0x0000	0.0
161	0x0000	0.0
162	0x0000	0.0
163	0x0000	0.0
164	0x0000	0.0
165	0x0000	0.0
166	0x0000	0.0
167	0x0000	0.0
168	0x0000	0.0
169	0x0000	0.0
170	0x0000	0.0
171	0x0000	0.0
172	0x0000	0.0
173	0x0000	0.0
174	0x0000	0.0
175	0x0000	0.0
176	0x0000	0.0
177	0x0000	0.0
178	0x0000	0.0
179	0x0000	0.0
180	0x0000	0.0
181	0x0000	0.0
182	0x0000	0.0
183	0x0000	0.0
184	0x0000	0.0
185	0x0000	0.0
186	0x0000	0.0
187	0x0000	0.0
188	0x0000	0.0
189	0x0000	0.0
190	0x0000	0.0
191	0x0000	0.0
192	0x0000	0.0
193	0x0000	0.0
194	0x0000	0.0
195	0x0000	0.0
196	0x0000	0.0
197	0x0000	0.0
198	0x0000	0.0
199	0x0000	0.0
200	0x0000	0.0
201	0x0000	0.0
202	0x0000	0.0
203	0x0000	0.0
204	0x0000	0.0
205	0x0000	0.0
206	0x0000	0.0
207	0x0000	0.0
208	0x0000	0.0
209	0x0000	0.0
210	0x0000	0.0
211	0x0000	0.0
212	0x0000	0.0
213	0x0000	0.0
214	0x0000	0.0
215	0x0000	0.0
216	0x0000	0.0
217	0x0000	0.0
218	0x0000	0.0
219	0x0000	0.0
220	0x0000	0.0
221	0x0000	0.0
222	0x0000	0.0
223	0x0000	0.0
224	0x0000	0.0
225	0x0000	0.0
226	0x0000	0.0
227	0x0000	0.0
228	0x0000	0.0
229	0x0000	0.0
230	0x0000	0.0
231	0x0000	0.0
232	0x0000	0.0
233	0x0000	0.0
234	0x0000	0.0
235	0x0000	0.0
236	0x0000	0.0
237	0x0000	0.0
238	0x0000	0.0
239	0x0000	0.0
240	0x0000	0.0
241	0x0000	0.0
242	0x0000	0.0
243	0x0000	0.0
244	0x0000	0.0
245	0x0000	0.0
246	0x0000	0.0
247	0x0000	0.0
248	0x0000	0.0
249	0x0000	0.0
250	0x0000	0.0
251	0x0000	0.0
252	0x0000	0.0
253	0x0000	0.0
254	0x0000	0.0
255	0x0000	0.0

model/dense/BiasAdd/ReadVariableOp/resource f2 [256]
0	0xa4d6	-0.01889
1	0x246a	0.01724
2	0x2686	0.02548
3	0x2cdb	0.07587
4	0xa4e9	-0.01918
5	0xa4c0	-0.01855
6	0xaa74	-0.0504
7	0xa6cd	-0.02657
8	0xa9a3	-0.04404
9	0xad25	-0.0804
10	0xa9a4	-0.04407
11	0xa69a	-0.02579
12	0x2a4d	0.04922
13	0xaa50	-0.04932
14	0x1804	0.00196
15	0xaa1e	-0.0478
16	0xa4dd	-0.019
17	0x172c	0.001751
18	0x2cb3	0.0734
19	0x2b71	0.05814
20	0x2a5b	0.04965
21	0x2a89	0.05106
22	0x2291	0.012825
23	0x2b5e	0.05756
24	0x2add	0.05362
25	0x2823	0.03232
26	0xa329	-0.013985
27	0x99b3	-0.002783
28	0x2a3a	0.04865
29	0x2885	0.0353
30	0xac27	-0.0649
31	0x2b0d	0.05508
32	0x2350	0.01428
33	0x9f73	-0.007275
34	0xa861	-0.0342
35	0x2a64	0.04993
36	0x222e	0.01207
37	0xacb0	-0.07324
38	0xb26d	-0.2008
39	0xa9b8	-0.04468
40	0x1510	0.001236
41	0x9c1c	-0.004013
42	0xaeeb	-0.1081
43	0x2701	0.02736
44	0xaa01	-0.0469
45	0x1d8b	0.005413
46	0x23ce	0.01524
47	0xa827	-0.03244
48	0x2edf	0.10736
49	0xa966	-0.04218
50	0x2506	0.01962
51	0x2ebb	0.10516
52	0xa777	-0.02916
53	0x99b0	-0.002777
54	0xa71e	-0.0278
55	0x9b4b	-0.003561
56	0xa213	-0.01186
57	0xaa5a	-0.04962
58	0x271d	0.02779
59	0x271b	0.02776
60	0x2b0b	0.05502
61	0xa6d0	-0.02661
62	0xa957	-0.04172
63	0x281d	0.03214
64	0x13af	0.000938
65	0xa9a3	-0.04404
66	0x2821	0.03226
67	0x2818	0.03198
68	0x2b18	0.05542
69	0x2aba	0.05255
70	0x90de	-0.000594
71	0xacf0	-0.07715
72	0x2ca2	0.0724
73	0x22bb	0.013145
74	0xa560	-0.021
75	0x2aaa	0.05206
76	0xa63f	-0.0244
77	0xa9ca	-0.04523
78	0x24a5	0.01814
79	0x2b3b	0.0565
80	0x2397	0.014824
81	0x2247	0.01226
82	0xa3e5	-0.01542
83	0x2b26	0.05585
84	0xa8d0	-0.0376
85	0x9ee7	-0.00674
86	0xa79f	-0.02977
87	0xa90f	-0.03952
88	0x1d22	0.005013
89	0x9c18	-0.003998
90	0xaa15	-0.04752
91	0xaa46	-0.049
92	0x2555	0.02083
93	0x2794	0.0296
94	0x2df2	0.0929
95	0xab81	-0.05862
96	0xa465	-0.01717
97	0x1c9c	0.0045
98	0xa912	-0.0396
99	0x2b80	0.0586
100	0xa4be	-0.01852
101	0xa048	-0.00836
102	0x2406	0.01572
103	0xae86	-0.1019
104	0x20d5	0.00944
105	0x2422	0.01614
106	0xa23e	-0.01219
107	0x1ebe	0.006584
108	0x9bd8	-0.00383
109	0xa919	-0.03983
110	0x245a	0.017
111	0x1a7e	0.00317
112	0x29b2	0.0445
113	0x2a31	0.04837
114	0x2ac2	0.0528
115	0x1d3f	0.005123
116	0x207a	0.00874
117	0x29ac	0.0443
118	0xa484	-0.01764
119	0xa907	-0.03928
120	0xa700	-0.02734
121	0xad76	-0.0853
122	0xa4e0	-0.01904
123	0x9db2	-0.00556
124	0x2659	0.0248
125	0x218f	0.01086
126	0x2458	0.01697
127	0x2593	0.02177
128	0x2b5f	0.0576
129	0x1803	0.001959
130	0x22db	0.01339
131	0x2619	0.02382
132	0xa68d	-0.02559
133	0xacec	-0.0769
134	0x2bb9	0.06033
135	0xa377	-0.01458
136	0xaafa	-0.0545
137	0x2e28	0.0962
138	0x29a0	0.04395
139	0x2cc1	0.0743
140	0xa79e	-0.02975
141	0x265b	0.02483
142	0xa4f7	-0.0194
143	0xa40d	-0.01582
144	0xa47e	-0.01755
145	0x2598	0.02185
146	0x2a00	0.04688
147	0xa9c1	-0.04495
148	0x2c00	0.0625
149	0x25e4	0.02301
150	0xa693	-0.02568
151	0x24f9	0.01942
152	0xab9e	-0.0595
153	0xaec0	-0.10547
154	0xa9f8	-0.04663
155	0xa8c7	-0.03732
156	0x22bf	0.013176
157	0xa976	-0.04266
158	0x264f	0.02464
159	0x2d87	0.08636
160	0xacd6	-0.07556
161	0xa5a2	-0.022
162	0xad44	-0.0823
163	0x277a	0.0292
164	0x9c33	-0.0041
165	0xacc6	-0.0746
166	0x2966	0.04218
167	0x255c	0.02094
168	0x2a49	0.0491
169	0x262c	0.02411
170	0xab90	-0.05908
171	0x1ddb	0.00572
172	0x2b6c	0.05798
173	0x267e	0.02536
174	0x2809	0.03152
175	0x2746	0.02841
176	0x24a0	0.01807
177	0xa8c9	-0.03738
178	0xa8c2	-0.03717
179	0xa022	-0.00807
180	0x21a6	0.01103
181	0x22f9	0.01362
182	0x2305	0.01371
183	0x1acf	0.003325
184	0x262e	0.02414
185	0x2662	0.02493
186	0x2c40	0.0664
187	0xab36	-0.05634
188	0x2eeb	0.1081
189	0xac66	-0.0687
190	0x26d9	0.02675
191	0x231a	0.01387
192	0xa994	-0.04358
193	0x2a6e	0.05023
194	0x1466	0.001074
195	0x2719	0.02773
196	0xa754	-0.02863
197	0x27cd	0.03047
198	0x28ec	0.03845
199	0xa875	-0.03482
200	0x2964	0.0421
201	0xac3c	-0.06616
202	0x9c7d	-0.004383
203	0xac54	-0.0676
204	0xaf81	-0.11725
205	0x1d10	0.004944
206	0x2551	0.02077
207	0xac03	-0.0627
208	0x2495	0.0179
209	0x9fe3	-0.0077
210	0x1ed2	0.00666
211	0x193d	0.002558
212	0xa2d7	-0.01336
213	0x25b9	0.02235
214	0xac7b	-0.07
215	0x27ec	0.03094
216	0xa817	-0.03195
217	0x22e1	0.013435
218	0x2798	0.02966
219	0x1cfc	0.004868
220	0xa1f2	-0.01161
221	0xad35	-0.08136
222	0x2bb3	0.06015
223	0xb0dd	-0.152
224	0x2724	0.0279
225	0xa8b1	-0.03665
226	0x298e	0.0434
227	0x26fd	0.0273
228	0xa573	-0.02129
229	0x1d3c	0.00511
230	0x2477	0.01744
231	0x1d27	0.00503
232	0x2820	0.03223
233	0x24b4	0.01837
234	0xaaab	-0.0521
235	0x2919	0.03983
236	0x2059	0.00849
237	0x1367	0.0009036
238	0xa840	-0.0332
239	0xa93a	-0.04083
240	0xa531	-0.02028
241	0x1c0a	0.003944
242	0x22dd	0.013405
243	0xa9df	-0.04587
244	0xaa70	-0.0503
245	0x2433	0.0164
246	0x25ea	0.0231
247	0xa526	-0.02011
248	0xa2ab	-0.01302
249	0xa221	-0.01197
250	0x22c8	0.013245
251	0xa8d8	-0.03784
252	0x2a51	0.04935
253	0x288c	0.03552
254	0x2aa5	0.0519
255	0xa5f3	-0.02324

model/last_layer/BiasAdd/ReadVariableOp/resource f2 [31]
0	0xa81d	-0.03214
1	0xa309	-0.01374
2	0x2582	0.02151
3	0xa2f0	-0.01355
4	0xa434	-0.01642
5	0x27c0	0.03027
6	0x2703	0.02739
7	0x2601	0.02345
8	0xa959	-0.04178
9	0x2490	0.01782
10	0xa36b	-0.01449
11	0x2276	0.01262
12	0xa4a1	-0.01808
13	0x9775	-0.001821
14	0x1b47	0.003553
15	0x28c6	0.0373
16	0x27e8	0.03088
17	0x9712	-0.001726
18	0xa482	-0.01761
19	0xa616	-0.02377
20	0x1ffc	0.007797
21	0x249a	0.01797
22	0xa498	-0.01794
23	0x9cd5	-0.00472
24	0xa684	-0.02545
25	0x23c2	0.01515
26	0xacbd	-0.07404
27	0xa571	-0.02126
28	0xa5f7	-0.0233
29	0x1f81	0.007328
30	0xa2df	-0.01342

model/dense/MatMul f2 [256, 32]
0	0x1550	0.001297
1	0x26b8	0.02625
2	0x3110	0.1582
3	0x2787	0.0294
4	0x2c4d	0.0672
5	0x9307	-0.000858
6	0x2560	0.021
7	0x3051	0.1349
8	0xb14d	-0.1656
9	0x23e4	0.01541
10	0xb13b	-0.1635
11	0x26ca	0.02652
12	0xb423	-0.2585
13	0x20a6	0.00908
14	0xb35c	-0.23
15	0x2cb2	0.07336
16	0xb10f	-0.1581
17	0x2972	0.04254
18	0x2b00	0.0547
19	0x2716	0.02768
20	0x31b8	0.1787
21	0xa501	-0.01955
22	0xa5fe	-0.0234
23	0x29a1	0.04398
24	0xaf04	-0.1096
25	0xa8e6	-0.03827
26	0x2e55	0.09894
27	0x281e	0.03217
28	0x305b	0.1361
29	0xb048	-0.1338
30	0x21a4	0.01102
31	0xa81e	-0.03217
32	0xa295	-0.012856
33	0x2c64	0.0686
34	0xb333	-0.225
35	0xac2f	-0.06537
36	0xa8f7	-0.0388
37	0x2931	0.04056
38	0xaaad	-0.05215
39	0xb2a6	-0.2078
40	0x3065	0.1373
41	0x2b8d	0.059
42	0x2b22	0.05573
43	0x2d82	0.08606
44	0x3605	0.3762
45	0xacb6	-0.0736
46	0x2d8c	0.0867
47	0xa4ac	-0.01825
48	0x3049	0.1339
49	0xa965	-0.04214
50	0xa41e	-0.01608
51	0x2827	0.03244
52	0xaf43	-0.11346
53	0xb025	-0.1295
54	0xa588	-0.0216
55	0xac7c	-0.07007
56	0x2b88	0.05884
57	0x9fad	-0.007496
58	0x236a	0.01448
59	0x267c	0.02533
60	0x9dff	-0.005856
61	0xac5b	-0.06805
62	0x2c73	0.0695
63	0x2c61	0.0684
64	0x3147	0.1649
65	0xb2a2	-0.2073
66	0x2889	0.03543
67	0x1e8a	0.006386
68	0x29fd	0.04678
69	0x2f73	0.1164
70	0xaf15	-0.11066
71	0x346c	0.2764
72	0x9508	-0.001228
73	0xaa9b	-0.0516
74	0x29ee	0.04633
75	0x2489	0.01772
76	0x3172	0.1702
77	0x2aaf	0.05222
78	0x298c	0.04333
79	0xa8ef	-0.03854
80	0xab52	-0.0572
81	0x28a5	0.0363
82	0xab46	-0.05682
83	0xa932	-0.0406
84	0x2290	0.01282
85	0x3048	0.1338
86	0xadba	-0.0895
87	0xa881	-0.0352
88	0x1a74	0.00315
89	0xa982	-0.04303
90	0xa553	-0.0208
91	0xb094	-0.1431
92	0xb39d	-0.2379
93	0x34c5	0.298
94	0x2b48	0.0569
95	0xac5b	-0.06805
96	0x2a19	0.04764
97	0xa816	-0.03192
98	0x21dd	0.01145
99	0x2dc8	0.09033
100	0x21b2	0.01112
101	0x3384	0.2349
102	0xb0c2	-0.1487
103	0x275d	0.02876
104	0xa93d	-0.04092
105	0x2f04	0.1096
106	0xaa7c	-0.05066
107	0xa990	-0.04346
108	0x2ce8	0.07666
109	0xaed8	-0.10693
110	0xb382	-0.2346
111	0x2c8c	0.07104
112	0xaebe	-0.10535
113	0x2d5d	0.0838
114	0xad6f	-0.0849
115	0x2f65	0.11554
116	0x2c92	0.0714
117	0x3348	0.2275
118	0xa5f5	-0.02327
119	0xaa2b	-0.0482
120	0x3036	0.1316
121	0xae4e	-0.0985
122	0x2801	0.03128
123	0x2773	0.0291
124	0x9b91	-0.003695
125	0xafae	-0.12
126	0x337f	0.2343
127	0xacbe	-0.0741
128	0xaf53	-0.11444
129	0x2619	0.02382
130	0xb380	-0.2344
131	0x3096	0.1433
132	0x2dea	0.0924
133	0x2915	0.0397
134	0xb194	-0.1743
135	0x3071	0.1388
136	0xacc0	-0.0742
137	0xad9a	-0.0875
138	0x2ef2	0.1085
139	0xb2b8	-0.21
140	0x2cf5	0.07745
141	0xad9e	-0.08777
142	0x2a38	0.04858
143	0x2f25	0.11163
144	0xad5e	-0.08386
145	0x2d1a	0.0797
146	0xacac	-0.073
147	0x2bc3	0.06064
148	0x2c6c	0.0691
149	0x2c90	0.0713
150	0xadbc	-0.0896
151	0x1e12	0.005928
152	0x1651	0.001542
153	0xaec3	-0.10565
154	0x2503	0.01958
155	0x2c1a	0.0641
156	0x2d51	0.08307
157	0xa821	-0.03226
158	0x2e29	0.09625
159	0xb659	-0.3967
160	0x2f12	0.1105
161	0x2d24	0.0803
162	0x2acd	0.05313
163	0x2518	0.0199
164	0x2cf6	0.0775
165	0xac6c	-0.0691
166	0xa815	-0.0319
167	0x9fd6	-0.007652
168	0x9af2	-0.003391
169	0x2999	0.04373
170	0x2854	0.0338
171	0x29fe	0.0468
172	0x2bc7	0.06076
173	0xa0da	-0.009476
174	0xac9b	-0.07196
175	0xb142	-0.1643
176	0x2210	0.01184
177	0xad75	-0.08527
178	0x2c3a	0.06604
179	0x2757	0.02867
180	0xacef	-0.0771
181	0xafbc	-0.12085
182	0xa3d4	-0.01529
183	0xb52a	-0.3228
184	0xac68	-0.06885
185	0xa851	-0.03372
186	0xb506	-0.314
187	0xaf2a	-0.11194
188	0xb0aa	-0.1458
189	0x288d	0.03555
190	0x1a7b	0.003164
191	0xb0c1	-0.1486
192	0xacfc	-0.0779
193	0x31c3	0.18
194	0xb088	-0.1416
195	0x2cac	0.073
196	0xaca6	-0.07263
197	0xa78f	-0.02953
198	0x30d7	0.1512
199	0xaf99	-0.1187
200	0xa33b	-0.01412
201	0xa968	-0.04224
202	0x2de9	0.09235
203	0x2dff	0.0937
204	0xab45	-0.0568
205	0xaded	-0.0926
206	0xaae5	-0.05386
207	0x2ee3	0.1076
208	0xa71b	-0.02776
209	0xaab7	-0.05246
210	0x2ff5	0.1243
211	0x2252	0.012344
212	0x2d18	0.0796
213	0xa68f	-0.02562
214	0x2fb1	0.1202
215	0x2e8a	0.1022
216	0x281b	0.03207
217	0x285f	0.03415
218	0xa522	-0.02005
219	0x2cb6	0.0736
220	0x313f	0.164
221	0xb0cc	-0.1499
222	0xaa12	-0.04742
223	0xae9c	-0.1033
224	0xad34	-0.0813
225	0xb08b	-0.142
226	0x2681	0.0254
227	0xa556	-0.02084
228	0xa8d5	-0.03775
229	0x29ef	0.04636
230	0x1d6d	0.0053
231	0x1efb	0.006817
232	0xa12b	-0.01009
233	0xb759	-0.4592
234	0x2e3f	0.0976
235	0x91e3	-0.0007186
236	0x2bae	0.06
237	0x2f88	0.1177
238	0x3401	0.2502
239	0x2a8b	0.05112
240	0x2d66	0.08435
241	0xab0f	-0.05515
242	0xb2ad	-0.2086
243	0xaed2	-0.10657
244	0xa939	-0.0408
245	0x301f	0.1288
246	0x2781	0.02931
247	0x2f38	0.1128
248	0x9cf2	-0.00483
249	0xaddb	-0.0915
250	0xacdb	-0.07587
251	0xa98d	-0.04337
252	0x2ec6	0.10583
253	0xaaa6	-0.05194
254	0x2bcc	0.0609
255	0xa92c	-0.0404

model/last_layer/MatMul f2 [31, 256]
0	0xa6ae	-0.0261
1	0x29b5	0.0446
2	0x28f8	0.03882
3	0x2afa	0.0545
4	0x2c92	0.0714
5	0x219c	0.010956
6	0xae72	-0.1007
7	0xa922	-0.0401
8	0x2cd5	0.0755
9	0x2c03	0.0627
10	0xa94f	-0.04147
11	0x29de	0.04584
12	0x1716	0.00173
13	0x2ebd	0.1053
14	0x23d8	0.01532
15	0xa527	-0.02013
16	0xa113	-0.00991
17	0xae9f	-0.10345
18	0x1c3b	0.00413
19	0x226b	0.012535
20	0x24f5	0.01936
21	0xa968	-0.04224
22	0x20c5	0.009315
23	0x2436	0.01645
24	0x2509	0.01967
25	0xac5e	-0.06824
26	0x2eef	0.10834
27	0x244e	0.01682
28	0xae2a	-0.0963
29	0x27f8	0.03113
30	0x953c	-0.001278
31	0xa18c	-0.01083
32	0xaec8	-0.10596
33	0x2a9e	0.0517
34	0x2d76	0.0853
35	0x287f	0.03513
36	0xa758	-0.02869
37	0x2d54	0.08325
38	0x2ab3	0.05234
39	0xad24	-0.0803
40	0x29f9	0.04666
41	0xa82d	-0.03262
42	0xac6b	-0.06903
43	0x2372	0.01454
44	0x2ee9	0.108
45	0xa99a	-0.04376
46	0xa8c8	-0.03735
47	0xacc3	-0.0744
48	0x2dcb	0.0905
49	0x2c4f	0.0673
50	0xabf9	-0.0623
51	0x193c	0.002556
52	0x2cc8	0.0747
53	0x2591	0.02174
54	0xa9dc	-0.04578
55	0xa440	-0.0166
56	0xaf1d	-0.11115
57	0x2df9	0.0933
58	0x2d7d	0.08575
59	0xacc1	-0.0743
60	0x11ea	0.000722
61	0xade0	-0.0918
62	0x2682	0.02542
63	0x2615	0.02376
64	0xa878	-0.0349
65	0x2c9c	0.072
66	0xa0c1	-0.009285
67	0xae2b	-0.0964
68	0xaee0	-0.1074
69	0x2936	0.0407
70	0xa145	-0.01029
71	0xa233	-0.01211
72	0xa155	-0.010414
73	0x29b3	0.04453
74	0xace8	-0.07666
75	0xa63d	-0.02437
76	0x2ec9	0.106
77	0xa11b	-0.00997
78	0x2bd3	0.06113
79	0x28a1	0.03616
80	0xaa57	-0.04953
81	0x2c66	0.0687
82	0xadd4	-0.09106
83	0x9d66	-0.005272
84	0x2986	0.04315
85	0x9d24	-0.00502
86	0xad10	-0.0791
87	0xa9fa	-0.0467
88	0x2b26	0.05585
89	0xac47	-0.06683
90	0xab5a	-0.05743
91	0xad9b	-0.0876
92	0xade5	-0.0921
93	0x1dff	0.005856
94	0x9bb8	-0.003769
95	0x300f	0.1268
96	0x1c4e	0.004204
97	0xae80	-0.10156
98	0x2553	0.0208
99	0xaf98	-0.11865
100	0x2c5c	0.0681
101	0x9b9d	-0.003717
102	0xac84	-0.07056
103	0x2cc1	0.0743
104	0x2ca2	0.0724
105	0x2787	0.0294
106	0x28e0	0.0381
107	0x9ea9	-0.006504
108	0xadc7	-0.0903
109	0x2c0b	0.0632
110	0xaf15	-0.11066
111	0x9f65	-0.00722
112	0xad2f	-0.081
113	0x2c27	0.0649
114	0xa506	-0.01962
115	0x2e20	0.0957
116	0x2a1b	0.0477
117	0xaca7	-0.0727
118	0x2ca7	0.0727
119	0x2c83	0.0705
120	0x9cf5	-0.00484
121	0x25d3	0.02275
122	0x241c	0.01605
123	0x2da0	0.0879
124	0x2d69	0.08453
125	0xb001	-0.1251
126	0xa866	-0.03436
127	0x26f7	0.0272
128	0x2c7e	0.0702
129	0x266c	0.02509
130	0xad3d	-0.08185
131	0xae28	-0.0962
132	0x9f87	-0.00735
133	0xac3a	-0.06604
134	0x1d58	0.00522
135	0xa43b	-0.01653
136	0x2066	0.00859
137	0xad0e	-0.079
138	0x93b8	-0.000942
139	0xa7ef	-0.03099
140	0xa9d6	-0.0456
141	0xa84a	-0.0335
142	0x0f76	0.0004554
143	0x2471	0.01735
144	0x2859	0.03397
145	0xac60	-0.06836
146	0x2817	0.03195
147	0x2241	0.012215
148	0x2478	0.01746
149	0x207f	0.00878
150	0xa8ac	-0.0365
151	0xa771	-0.02907
152	0xa8e4	-0.0382
153	0x0fba	0.0004716
154	0xabd5	-0.0612
155	0x28c1	0.03714
156	0x2a65	0.04996
157	0x299a	0.04376
158	0xa984	-0.0431
159	0xac0b	-0.0632
160	0x2bf6	0.0622
161	0xac26	-0.0648
162	0x289d	0.03604
163	0x2c34	0.0657
164	0xae39	-0.0972
165	0xa6b4	-0.02618
166	0xac61	-0.0684
167	0x251d	0.01997
168	0xab9d	-0.05948
169	0xa900	-0.03906
170	0xad2b	-0.08075
171	0xaed1	-0.1065
172	0x2d49	0.0826
173	0xaa57	-0.04953
174	0xac17	-0.0639
175	0x2943	0.0411
176	0xa936	-0.0407
177	0x2d96	0.0873
178	0xa8e4	-0.0382
179	0x2a0c	0.04724
180	0xaa2e	-0.04828
181	0x2d63	0.08417
182	0x2559	0.02089
183	0xac7b	-0.07
184	0x2022	0.00807
185	0x2436	0.01645
186	0xac2a	-0.06506
187	0x26a1	0.0259
188	0xad58	-0.0835
189	0xac63	-0.06854
190	0xac3c	-0.06616
191	0x2f19	0.1109
192	0x2575	0.02132
193	0xa0f0	-0.00964
194	0xa40f	-0.01585
195	0xaeaa	-0.1041
196	0xaf8e	-0.11804
197	0x210e	0.00987
198	0xa945	-0.04117
199	0xaca7	-0.0727
200	0xa8fa	-0.03888
201	0xa632	-0.0242
202	0x2da0	0.0879
203	0x2c41	0.06647
204	0x1c5c	0.004257
205	0x1b10	0.003448
206	0x1aa3	0.00324
207	0x2e6d	0.1004
208	0x25c5	0.02254
209	0x12e4	0.000841
210	0x274f	0.02855
211	0x2a15	0.04752
212	0xadde	-0.0917
213	0xa76f	-0.02904
214	0x279d	0.02974
215	0x281f	0.0322
216	0x2921	0.04007
217	0xa435	-0.01643
218	0x1e93	0.00642
219	0xad75	-0.08527
220	0xa156	-0.01042
221	0xac94	-0.07153
222	0xa17f	-0.010735
223	0x3031	0.131
224	0x25aa	0.02213
225	0x2bb2	0.06012
226	0xa9a9	-0.04422
227	0xab45	-0.0568
228	0x2c68	0.06885
229	0x2bef	0.06198
230	0xa886	-0.03534
231	0xa6e7	-0.02696
232	0x2d3d	0.08185
233	0x220e	0.011826
234	0x2de3	0.092
235	0x2744	0.02838
236	0xab1f	-0.05563
237	0xa6ae	-0.0261
238	0x2926	0.04022
239	0xa39c	-0.01486
240	0xaa78	-0.05054
241	0xa82b	-0.03256
242	0x26fc	0.02728
243	0xaac9	-0.053
244	0x9f4a	-0.00712
245	0xae74	-0.1008
246	0x2aff	0.05466
247	0x2998	0.0437
248	0x2d71	0.085
249	0xa88a	-0.03546
250	0x2b95	0.05923
251	0x2bbb	0.0604
252	0xa88b	-0.0355
253	0x2b98	0.05933
254	0xad02	-0.07825
255	0xaa2a	-0.04816

model/time_distributed_10/batch_normalization_2/FusedBatchNormV3 f2 [8]
0	0xa4f6	-0.01938
1	0x1ab1	0.003267
2	0x9c1c	-0.004013
3	0x9c20	-0.00403
4	0x8413	-6.217e-05
5	0xa5ae	-0.02219
6	0xa7c0	-0.03027
7	0x912d	-0.000632

model/time_distributed_10/batch_normalization_2/FusedBatchNormV31 f2 [8]
0	0x3183	0.1722
1	0x1c38	0.00412
2	0xa810	-0.03174
3	0xa827	-0.03244
4	0x3062	0.137
5	0x32df	0.2147
6	0x3531	0.3245
7	0x2503	0.01958

model/time_distributed_13/batch_normalization_3/FusedBatchNormV3 f2 [16]
0	0xad11	-0.07916
1	0xb0a8	-0.1455
2	0x969f	-0.0016165
3	0xafe3	-0.1232
4	0xaadd	-0.05362
5	0x8126	-1.75e-05
6	0xaa20	-0.04785
7	0xb197	-0.1747
8	0xa86f	-0.03464
9	0x8624	-9.37e-05
10	0xa92f	-0.0405
11	0xaacd	-0.05313
12	0xac24	-0.0647
13	0x1a03	0.002935
14	0xac4d	-0.0672
15	0x25dd	0.0229

model/time_distributed_13/batch_normalization_3/FusedBatchNormV31 f2 [16]
0	0x3f03	1.753
1	0x4230	3.094
2	0x2943	0.0411
3	0x3ed0	1.703
4	0x3ca9	1.165
5	0xb547	-0.3298
6	0x425b	3.178
7	0x3ea3	1.659
8	0x4459	4.348
9	0x323c	0.1948
10	0x4015	2.041
11	0x3f17	1.772
12	0x4162	2.691
13	0xb8c9	-0.598
14	0x428a	3.27
15	0x446e	4.43

model/time_distributed_2/batch_normalization/FusedBatchNormV3 f2 [8]
0	0x9f94	-0.0074
1	0x086a	0.0001347
2	0xa625	-0.024
3	0xa9de	-0.04584
4	0xae2d	-0.0965
5	0xa3d4	-0.01529
6	0xb088	-0.1416
7	0x2191	0.01087

model/time_distributed_2/batch_normalization/FusedBatchNormV31 f2 [8]
0	0x280d	0.03165
1	0xa5e7	-0.02306
2	0xa946	-0.0412
3	0x2a5e	0.04974
4	0x2f16	0.1107
5	0x2734	0.02814
6	0x2e47	0.0981
7	0x9ddc	-0.005722

model/time_distributed_5/batch_normalization_1/FusedBatchNormV3 f2 [16]
0	0x294f	0.04147
1	0xadf7	-0.0932
2	0xb6e3	-0.4304
3	0xb57f	-0.3435
4	0xbb17	-0.886
5	0xb59f	-0.3513
6	0xb218	-0.1904
7	0xb7f3	-0.4968
8	0xb5e5	-0.3684
9	0xaf11	-0.1104
10	0xb8e1	-0.61
11	0xb843	-0.5327
12	0x1d1d	0.004993
13	0xa568	-0.02112
14	0xba22	-0.7666
15	0xb58d	-0.347

model/time_distributed_5/batch_normalization_1/FusedBatchNormV31 f2 [16]
0	0x455c	5.36
1	0x425a	3.176
2	0x40eb	2.459
3	0x4123	2.568
4	0x425f	3.186
5	0x429e	3.309
6	0x4292	3.285
7	0x4239	3.111
8	0x4243	3.13
9	0x41ae	2.84
10	0x4340	3.625
11	0x4337	3.607
12	0x447d	4.49
13	0x4557	5.34
14	0x4226	3.074
15	0x4324	3.57

model/lstm/while/lstm_cell_4/MatMul_4 f2 [32, 32]
0	0x2814	0.03186
1	0xaf07	-0.1098
2	0xb686	-0.4077
3	0xb88b	-0.568
4	0x313e	0.1638
5	0x3972	0.6807
6	0x317d	0.1715
7	0x2c7c	0.07007
8	0xb753	-0.4578
9	0xafc2	-0.1212
10	0xb9c8	-0.7227
11	0x377b	0.4675
12	0xb682	-0.4067
13	0xacda	-0.0758
14	0x3385	0.235
15	0xb483	-0.282
16	0xaf2a	-0.11194
17	0xa308	-0.01373
18	0x345a	0.272
19	0xb16a	-0.1692
20	0xb60a	-0.3774
21	0xb83c	-0.5293
22	0xb6e0	-0.4297
23	0x319c	0.1753
24	0x3122	0.1604
25	0xa26b	-0.012535
26	0xb144	-0.1646
27	0xb9ee	-0.741
28	0xab6b	-0.05795
29	0x3214	0.19
30	0x33d8	0.2451
31	0x375c	0.46
32	0xb673	-0.403
33	0xb339	-0.2257
34	0x2ced	0.07697
35	0xac77	-0.06976
36	0x2a7c	0.05066
37	0x3122	0.1604
38	0xb51d	-0.3196
39	0xb602	-0.3755
40	0xaeb3	-0.1047
41	0xb39b	-0.2377
42	0xb810	-0.508
43	0x2a34	0.04846
44	0xb74c	-0.456
45	0x33a7	0.2391
46	0x3717	0.443
47	0xb4dc	-0.3037
48	0x3474	0.2783
49	0xaf52	-0.1144
50	0x382d	0.522
51	0xadc7	-0.0903
52	0x2b79	0.05838
53	0x3499	0.2874
54	0xb161	-0.1681
55	0x32f1	0.2169
56	0x3023	0.1293
57	0x1f05	0.006855
58	0xb05d	-0.1364
59	0x30ca	0.1497
60	0x34e5	0.306
61	0xb13a	-0.1633
62	0x34ea	0.3071
63	0x318f	0.1737
64	0xb8b5	-0.5884
65	0x3a93	0.822
66	0xa9df	-0.04587
67	0xbb51	-0.9146
68	0xb0cd	-0.15
69	0x3143	0.1644
70	0x3441	0.2659
71	0xaf82	-0.1173
72	0x36af	0.4177
73	0x3626	0.3843
74	0xaed7	-0.1069
75	0x376c	0.4639
76	0x3201	0.1876
77	0x3146	0.1648
78	0xb9cd	-0.725
79	0xbbad	-0.9595
80	0x2c5b	0.06805
81	0x329e	0.2068
82	0x3099	0.1437
83	0x2ad2	0.05328
84	0xa87e	-0.0351
85	0x35f2	0.3716
86	0x355d	0.3352
87	0xb2d4	-0.2134
88	0x3452	0.27
89	0x2a56	0.0495
90	0x2c51	0.06744
91	0xb131	-0.1622
92	0xb26e	-0.2009
93	0xb67b	-0.405
94	0xb75d	-0.4602
95	0x2f59	0.1148
96	0x1473	0.001086
97	0x2c1d	0.0643
98	0xa7e7	-0.03087
99	0x0f5e	0.0004497
100	0xa86d	-0.03458
101	0x27ca	0.03043
102	0xa96a	-0.0423
103	0x2599	0.02187
104	0xad8b	-0.0866
105	0x20f2	0.00966
106	0xa531	-0.02028
107	0xabb6	-0.06024
108	0x25b3	0.02226
109	0xa0c6	-0.00932
110	0xa100	-0.009766
111	0x2b9e	0.0595
112	0x2924	0.04016
113	0xa30c	-0.01376
114	0xaefa	-0.109
115	0xb129	-0.1613
116	0x26be	0.02634
117	0x2393	0.01479
118	0x25b1	0.02223
119	0x2c02	0.0626
120	0x2446	0.0167
121	0x2c72	0.06946
122	0x2bc4	0.06067
123	0x9c64	-0.004288
124	0x272f	0.02806
125	0x25d8	0.02283
126	0xad61	-0.08405
127	0x28c6	0.0373
128	0xb3f7	-0.2489
129	0x382f	0.523
130	0xb38c	-0.2358
131	0xb826	-0.5186
132	0x327d	0.2028
133	0xb849	-0.5356
134	0x2d91	0.087
135	0xbe7c	-1.621
136	0xb967	-0.6753
137	0xaffc	-0.12476
138	0x3338	0.2256
139	0x3098	0.1436
140	0xb3e1	-0.2462
141	0x3b83	0.939
142	0x32fe	0.2185
143	0x345e	0.273
144	0xb441	-0.2659
145	0xb95a	-0.669
146	0x3703	0.4382
147	0xb00c	-0.1265
148	0x8d31	-0.0003169
149	0xb47f	-0.281
150	0x314e	0.1658
151	0x32d8	0.2139
152	0x36cb	0.4246
153	0xb70d	-0.4407
154	0x0c5a	0.0002656
155	0xb8fb	-0.6226
156	0xb38a	-0.2356
157	0x3827	0.519
158	0xb5fc	-0.374
159	0x2f80	0.1172
160	0xb293	-0.2054
161	0xb116	-0.1589
162	0x319d	0.1754
163	0xba31	-0.774
164	0x3c91	1.142
165	0x26be	0.02634
166	0xb453	-0.2703
167	0xb5ff	-0.3748
168	0xb78b	-0.4714
169	0xb849	-0.5356
170	0x3c16	1.021
171	0x3ec3	1.69
172	0x34c2	0.2974
173	0x3565	0.3372
174	0xbc8a	-1.135
175	0xb1be	-0.1794
176	0x39ed	0.7407
177	0xbae4	-0.8613
178	0xb8e0	-0.6094
179	0x30f6	0.155
180	0x28f0	0.03857
181	0xb77c	-0.4678
182	0x3431	0.262
183	0x36cd	0.425
184	0xa845	-0.03336
185	0xb8f5	-0.6196
186	0xbd41	-1.313
187	0x391e	0.6396
188	0x36d2	0.4263
189	0x3841	0.5317
190	0x36ae	0.4175
191	0x2de4	0.09204
192	0xb037	-0.1317
193	0x30e0	0.1523
194	0xb26b	-0.2006
195	0xb8cd	-0.6
196	0x360b	0.3777
197	0x3bef	0.9917
198	0xb0c3	-0.1488
199	0x3900	0.625
200	0xb5be	-0.359
201	0xb168	-0.169
202	0xb643	-0.3914
203	0x36c4	0.4229
204	0x9a55	-0.003092
205	0x35c7	0.361
206	0xa9f7	-0.0466
207	0x2ddb	0.0915
208	0x3545	0.3293
209	0xb069	-0.1378
210	0xad4b	-0.0827
211	0xb1c4	-0.1802
212	0x32b8	0.21
213	0x34f8	0.3105
214	0xb3f4	-0.2485
215	0xad88	-0.0864
216	0x390c	0.631
217	0xb4e4	-0.3057
218	0xb9b0	-0.711
219	0xb68e	-0.4097
220	0x3b26	0.8936
221	0xb6e0	-0.4297
222	0xb422	-0.2583
223	0x331a	0.2219
224	0xb30f	-0.2206
225	0x362c	0.3857
226	0x36ea	0.4321
227	0xb6bb	-0.4207
228	0x398f	0.695
229	0xbad8	-0.8555
230	0x397a	0.6846
231	0xb996	-0.698
232	0x346e	0.2769
233	0x372f	0.449
234	0xb9ee	-0.741
235	0x3677	0.404
236	0x2985	0.04312
237	0xaeeb	-0.1081
238	0x38cd	0.6
239	0xb869	-0.5513
240	0x3c37	1.054
241	0xb807	-0.5034
242	0x2591	0.02174
243	0xbb49	-0.9106
244	0xb737	-0.451
245	0xb99a	-0.7
246	0x3921	0.641
247	0x313f	0.164
248	0x2f7c	0.11694
249	0xb6ae	-0.4175
250	0x3225	0.192
251	0xb85a	-0.544
252	0xb499	-0.2874
253	0xba2e	-0.7725
254	0xb427	-0.2595
255	0x39cc	0.7246

model/lstm/while/lstm_cell_4/MatMul_5 f2 [32, 32]
0	0x2cff	0.07806
1	0x2f31	0.11237
2	0xa6d5	-0.02669
3	0x345e	0.273
4	0xad8f	-0.08685
5	0x9aa3	-0.00324
6	0xb654	-0.3955
7	0x37ea	0.4946
8	0x32fe	0.2185
9	0x32e9	0.216
10	0x2b5d	0.05753
11	0x35cb	0.362
12	0x3a0a	0.755
13	0xb03d	-0.1324
14	0x3662	0.399
15	0x39b9	0.7153
16	0xb443	-0.2664
17	0x2894	0.03577
18	0x2e5f	0.09955
19	0x31f2	0.1858
20	0x32fb	0.2181
21	0x3784	0.4697
22	0x2d48	0.0825
23	0xa45f	-0.01707
24	0x3678	0.4043
25	0xb456	-0.271
26	0xb639	-0.389
27	0x35c7	0.361
28	0x341d	0.257
29	0xb4a7	-0.2908
30	0x387e	0.5615
31	0xb6b8	-0.42
32	0xb062	-0.137
33	0x32c9	0.212
34	0x344e	0.269
35	0xac94	-0.07153
36	0x2424	0.01617
37	0xb751	-0.4573
38	0x2fb6	0.1205
39	0x3061	0.1368
40	0xb829	-0.52
41	0x3305	0.2194
42	0x3498	0.287
43	0xb4ab	-0.2917
44	0xb576	-0.3413
45	0xb691	-0.4104
46	0x35a4	0.3525
47	0xb257	-0.1981
48	0x3129	0.1613
49	0xb4c9	-0.299
50	0x2ce6	0.07654
51	0x3006	0.1257
52	0x32ee	0.2166
53	0x298e	0.0434
54	0xb59e	-0.351
55	0x3878	0.5586
56	0xb13a	-0.1633
57	0xb4b3	-0.2937
58	0x3253	0.1976
59	0x31eb	0.1849
60	0xb2c8	-0.2119
61	0x36d1	0.426
62	0x33d6	0.2449
63	0xb045	-0.1334
64	0x35e9	0.3694
65	0x3a67	0.8003
66	0x32b7	0.2098
67	0x2d05	0.0784
68	0x38c4	0.5957
69	0xae2d	-0.0965
70	0xab14	-0.0553
71	0x342b	0.2605
72	0x2438	0.01648
73	0xb005	-0.1256
74	0xb050	-0.1348
75	0xae7d	-0.1014
76	0xb722	-0.4458
77	0x3076	0.1394
78	0xaf0e	-0.1102
79	0x2e95	0.10284
80	0x311a	0.1594
81	0x2fc5	0.1214
82	0xb3ec	-0.2476
83	0xb971	-0.68
84	0xb1b5	-0.1783
85	0x2e6c	0.10034
86	0xb4ae	-0.2925
87	0xb6b4	-0.419
88	0x31da	0.1829
89	0x373e	0.4526
90	0x38dd	0.608
91	0xaa75	-0.05045
92	0xacca	-0.0748
93	0xb623	-0.3835
94	0xaeb5	-0.1048
95	0xb298	-0.206
96	0x35cb	0.362
97	0x3101	0.1564
98	0x2a2d	0.04825
99	0x30e4	0.1528
100	0xb272	-0.2014
101	0x230a	0.01375
102	0xb273	-0.2015
103	0x2da8	0.0884
104	0x2f48	0.1138
105	0x332e	0.2244
106	0x36f8	0.4355
107	0xa8fe	-0.039
108	0x2997	0.04367
109	0xaec6	-0.10583
110	0x28de	0.03802
111	0x2e56	0.099
112	0x9d16	-0.004967
113	0x30a0	0.1445
114	0xb517	-0.318
115	0xac32	-0.06555
116	0x3009	0.1261
117	0x33a5	0.2389
118	0xb32d	-0.2242
119	0x2d35	0.08136
120	0x2d21	0.08014
121	0x3037	0.1317
122	0x31d8	0.1826
123	0x2e74	0.1008
124	0xb1ce	-0.1814
125	0x312d	0.1617
126	0xb098	-0.1436
127	0xaee5	-0.1077
128	0xb381	-0.2345
129	0x3afd	0.8735
130	0xa72d	-0.02803
131	0x304f	0.1346
132	0xace1	-0.07623
133	0x34bd	0.2961
134	0xad96	-0.0873
135	0x9862	-0.00214
136	0xb43b	-0.2644
137	0x3559	0.3342
138	0xb8f0	-0.617
139	0x279a	0.0297
140	0x3a7a	0.8096
141	0x35d7	0.365
142	0xb63b	-0.3894
143	0xb713	-0.4421
144	0xb947	-0.6597
145	0x3424	0.2588
146	0x3885	0.565
147	0x311e	0.1599
148	0x32b3	0.2094
149	0x34b7	0.2947
150	0xb720	-0.4453
151	0x33aa	0.2395
152	0x3131	0.1622
153	0x3727	0.447
154	0x3950	0.664
155	0xab6b	-0.05795
156	0xb4fd	-0.3118
157	0x373a	0.4517
158	0xb41b	-0.2566
159	0x9c08	-0.003937
160	0x2ca2	0.0724
161	0xb1b4	-0.1782
162	0xb381	-0.2345
163	0xb08d	-0.1422
164	0xaf13	-0.11053
165	0xb317	-0.2216
166	0xb846	-0.534
167	0x28d4	0.03772
168	0xb928	-0.6445
169	0x3451	0.2698
170	0x389a	0.575
171	0xa80b	-0.0316
172	0x3451	0.2698
173	0x3154	0.1665
174	0x25b0	0.02222
175	0x2850	0.0337
176	0x39d5	0.729
177	0xb861	-0.5474
178	0x351f	0.32
179	0xb294	-0.2056
180	0x3120	0.1602
181	0xbb31	-0.899
182	0x2ad0	0.05322
183	0x3ad3	0.853
184	0x38c9	0.598
185	0x23fb	0.01559
186	0xbaa4	-0.83
187	0x30fd	0.1559
188	0xaef4	-0.10864
189	0xb762	-0.4614
190	0x37e2	0.4927
191	0x2a24	0.04797
192	0x29d4	0.04553
193	0x3056	0.1355
194	0xac74	-0.0696
195	0x35b9	0.3577
196	0x2c69	0.0689
197	0xb4fe	-0.312
198	0x3585	0.345
199	0x3426	0.2593
200	0x2c04	0.06274
201	0x30ff	0.1561
202	0xac23	-0.06464
203	0xb762	-0.4614
204	0x2cfc	0.0779
205	0x35f3	0.3718
206	0x30cd	0.15
207	0x352f	0.324
208	0x262c	0.02411
209	0x343c	0.2646
210	0x2c9a	0.0719
211	0x32b6	0.2097
212	0x302f	0.1307
213	0x3403	0.2507
214	0x2904	0.03918
215	0x2fc7	0.1215
216	0x2dd8	0.0913
217	0x35ba	0.358
218	0x300a	0.1262
219	0x2c47	0.06683
220	0x30a1	0.1447
221	0xb062	-0.137
222	0xb4a9	-0.2913
223	0xa033	-0.0082
224	0xaf91	-0.1182
225	0xb79e	-0.476
226	0x2c42	0.0665
227	0x3204	0.188
228	0x3518	0.3184
229	0xb957	-0.6675
230	0xa7c4	-0.03033
231	0x33e3	0.2465
232	0xb67c	-0.4053
233	0x38a9	0.5825
234	0x38e6	0.6123
235	0x375c	0.46
236	0xb0a8	-0.1455
237	0x2d85	0.08624
238	0x3c2c	1.043
239	0x2ae6	0.0539
240	0xb87c	-0.5605
241	0x3440	0.2656
242	0xacfe	-0.078
243	0x36a7	0.4158
244	0x37e4	0.4932
245	0xac95	-0.0716
246	0x292f	0.0405
247	0xbc1a	-1.025
248	0x32c0	0.2109
249	0x3111	0.1583
250	0x3648	0.3926
251	0xa8ba	-0.03693
252	0xb3ff	-0.2499
253	0xb9e9	-0.739
254	0xa7e9	-0.0309
255	0xbbe3	-0.986

model/lstm/while/lstm_cell_4/MatMul_6 f2 [32, 32]
0	0x2904	0.03918
1	0x34b5	0.2942
2	0xb34b	-0.2279
3	0x3428	0.2598
4	0x292b	0.04037
5	0xaf65	-0.11554
6	0xadf1	-0.09283
7	0xb6dd	-0.429
8	0x389a	0.575
9	0xb568	-0.338
10	0x3277	0.202
11	0xa5a6	-0.02206
12	0x363b	0.3894
13	0xad03	-0.0783
14	0xb4f6	-0.31
15	0x2f6d	0.116
16	0x342f	0.2615
17	0x3890	0.5703
18	0x3568	0.338
19	0x32f1	0.2169
20	0x392b	0.646
21	0x36d0	0.4258
22	0x256c	0.02118
23	0xb526	-0.3218
24	0x3894	0.5723
25	0xae70	-0.1006
26	0xb15c	-0.1675
27	0x34ea	0.3071
28	0x300b	0.1263
29	0x348e	0.2847
30	0xaf48	-0.1138
31	0x1dfa	0.005836
32	0xa894	-0.03577
33	0x3019	0.128
34	0x30e7	0.1532
35	0xb6cc	-0.4248
36	0xb147	-0.1649
37	0xb7e9	-0.4944
38	0x3761	0.4612
39	0x3097	0.1434
40	0xb368	-0.2314
41	0x3822	0.5166
42	0x35df	0.367
43	0xb473	-0.278
44	0xb4cf	-0.3005
45	0x2de6	0.09216
46	0x3454	0.2705
47	0xb40a	-0.2524
48	0x3589	0.346
49	0xb4cf	-0.3005
50	0xb1c6	-0.1804
51	0xb653	-0.3953
52	0x3332	0.2249
53	0x2c05	0.0628
54	0xb2b1	-0.2091
55	0xb14c	-0.1655
56	0x30b8	0.1475
57	0xb617	-0.3806
58	0x284f	0.03366
59	0xb113	-0.1586
60	0xbac6	-0.8467
61	0x1761	0.0018015
62	0xb09b	-0.1439
63	0x313a	0.1633
64	0x2f5f	0.1152
65	0x2de7	0.0922
66	0xab0c	-0.05505
67	0x29c5	0.04507
68	0x302a	0.1301
69	0x3048	0.1338
70	0xac48	-0.0669
71	0xb719	-0.4436
72	0xb0bf	-0.1483
73	0x383a	0.5283
74	0xae2d	-0.0965
75	0x33ea	0.2473
76	0x1762	0.001802
77	0x35f1	0.3713
78	0x2f50	0.11426
79	0x3bdf	0.984
80	0xb11d	-0.1598
81	0x3019	0.128
82	0xaf3e	-0.11316
83	0xb806	-0.503
84	0xb586	-0.3452
85	0xac27	-0.0649
86	0xb513	-0.3171
87	0xa9ea	-0.0462
88	0x3074	0.1392
89	0x394e	0.663
90	0x39a7	0.7065
91	0x3109	0.1573
92	0xa81f	-0.0322
93	0xb500	-0.3125
94	0x2a61	0.04984
95	0x330a	0.22
96	0x2d27	0.0805
97	0x327e	0.2029
98	0x2db5	0.0892
99	0x2a0a	0.04718
100	0xb32b	-0.224
101	0x2d12	0.0792
102	0xb64f	-0.3943
103	0x306d	0.1383
104	0xaca5	-0.0726
105	0x2f48	0.1138
106	0x3669	0.4006
107	0x306f	0.1385
108	0x2c5b	0.06805
109	0x20b1	0.00916
110	0x204a	0.00838
111	0x3039	0.132
112	0xad8f	-0.08685
113	0xa755	-0.02864
114	0xb531	-0.3245
115	0xb492	-0.2856
116	0xa492	-0.01785
117	0x3116	0.1589
118	0xb495	-0.2864
119	0x284f	0.03366
120	0x329b	0.2064
121	0x2f1a	0.11096
122	0x36ea	0.4321
123	0x2b50	0.05713
124	0xa961	-0.04202
125	0x3415	0.2551
126	0x2917	0.03976
127	0xaa20	-0.04785
128	0x2acf	0.0532
129	0xb447	-0.2673
130	0xb7aa	-0.479
131	0xb4b8	-0.295
132	0x33df	0.246
133	0x3160	0.168
134	0xb49b	-0.2878
135	0xb953	-0.6655
136	0x3362	0.2307
137	0xbb2b	-0.896
138	0x3a6e	0.8037
139	0x2cf4	0.0774
140	0x2534	0.02032
141	0xb58a	-0.3462
142	0xb0bd	-0.1481
143	0x3718	0.4434
144	0x273d	0.02827
145	0xb521	-0.3206
146	0xb665	-0.3997
147	0xb208	-0.1885
148	0x2d51	0.08307
149	0xb1fb	-0.1869
150	0x33e2	0.2463
151	0x2de9	0.09235
152	0xaaae	-0.0522
153	0x31ad	0.1774
154	0xa9d3	-0.0455
155	0x3569	0.3381
156	0x3158	0.167
157	0x2ae0	0.0537
158	0x350c	0.3154
159	0x30bf	0.1483
160	0xab61	-0.05765
161	0x25ed	0.02315
162	0xb1b9	-0.1788
163	0x2ac9	0.053
164	0x2983	0.04306
165	0xac4f	-0.0673
166	0x1039	0.0005155
167	0xb117	-0.159
168	0x34e7	0.3064
169	0x3225	0.192
170	0xb13c	-0.1636
171	0x3853	0.5405
172	0x32a0	0.207
173	0xacce	-0.0751
174	0x3497	0.2869
175	0xb08c	-0.1421
176	0xb19b	-0.1752
177	0xb024	-0.1294
178	0x3795	0.4739
179	0x274b	0.02849
180	0x2f8b	0.11786
181	0xb293	-0.2054
182	0xb829	-0.52
183	0xb4cd	-0.3
184	0x3502	0.313
185	0xbb59	-0.9185
186	0x2a8e	0.0512
187	0xab59	-0.0574
188	0x3497	0.2869
189	0x26eb	0.02702
190	0xb680	-0.4062
191	0xa654	-0.02472
192	0x2b96	0.05927
193	0xac40	-0.0664
194	0xb0b7	-0.1473
195	0xa97e	-0.0429
196	0xb836	-0.5264
197	0x3437	0.2634
198	0x3172	0.1702
199	0x2f6b	0.1159
200	0xafe8	-0.12354
201	0xaeab	-0.1042
202	0xb0df	-0.1522
203	0xb306	-0.2195
204	0x2f7c	0.11694
205	0x2d34	0.0813
206	0x3150	0.166
207	0xb0cf	-0.1503
208	0x243e	0.01657
209	0x3631	0.387
210	0x2b9e	0.0595
211	0x0e2d	0.000377
212	0x24bd	0.01851
213	0xb4e7	-0.3064
214	0x312e	0.1619
215	0x1354	0.0008945
216	0xb46d	-0.2766
217	0x3560	0.336
218	0xb0b3	-0.1469
219	0xb154	-0.1665
220	0xae9e	-0.1034
221	0x3191	0.174
222	0xb7af	-0.4802
223	0xa253	-0.01235
224	0x34c1	0.297
225	0x3c1d	1.028
226	0x295f	0.04196
227	0xb42c	-0.2607
228	0xb0c1	-0.1486
229	0x3177	0.1708
230	0xae3b	-0.09735
231	0xba5a	-0.794
232	0xb3db	-0.2455
233	0xb459	-0.2717
234	0x3332	0.2249
235	0x2e54	0.0989
236	0x2ab5	0.0524
237	0x300e	0.1267
238	0xb0d2	-0.1506
239	0xacaa	-0.0729
240	0x2621	0.02394
241	0xb574	-0.3408
242	0xb625	-0.384
243	0xb326	-0.2234
244	0x3258	0.1982
245	0x35b8	0.3574
246	0x3310	0.2207
247	0xaaf0	-0.0542
248	0xb54f	-0.3318
249	0x3019	0.128
250	0x3be6	0.9873
251	0x2faf	0.12006
252	0xaf12	-0.1105
253	0xafe7	-0.1235
254	0xb501	-0.3127
255	0xb4ad	-0.2922
